SND_trackers_My_data/9X0_file/14_9X0_coordconv_Label_Vf.pt (torch, 623547 bytes, 37 tensors)

weight f4 [32, 9, 3, 3]
000000 4c e2 59 3c 02 c1 35 bd 3c 7f 82 3c 85 5a e6 3c
       0.013298582 -0.04437352 0.01592981 0.028119335
000010 b5 c7 89 bc a4 ca 7f 3c 6e 5a 80 3b 5d 99 82 bb
       -0.01681886 0.015612278 0.00391703 -0.0039855675
000020 c7 96 b5 3b d3 f5 ea bc 59 40 02 3d 28 87 3f 3d
       0.0055416557 -0.028681671 0.031799648 0.046759754
000030 16 0d fe bc ff fb af 3c 58 c1 22 bd 9c fd 9c bc
       -0.0310121 0.021482466 -0.03973517 -0.0191639
000040 85 dd 00 3d 6b 26 8a bb da 8a aa 3b 85 d0 02 3d
       0.031461257 -0.0042160056 0.0052045407 0.03193714
000050 56 95 c4 3c 2b d5 08 bd 60 cd b0 bc 8c 31 49 3d
       0.02399699 -0.033406418 -0.021582305 0.049119517
000060 3d 03 0e bd 0d da fc bb 19 3d 4b 3d eb 79 8d bd
       -0.034671057 -0.0077164234 0.049618814 -0.0690802
000070 7d 11 2a 3c 0c 83 f7 3c 80 48 ac 3d 41 ac 38 bc
       0.010380146 0.030213855 0.08412266 -0.011271537
000080 51 3e 0d 3e 3f 11 a1 bd 41 f7 b1 3d fa cc 38 3d
       0.13793303 -0.078646176 0.08689738 0.045117356
000090 b6 ac fc 3c 5b a0 cd bd 26 51 27 3d 13 f7 c2 bd
       0.030844074 -0.10040351 0.040848874 -0.09519782
0000a0 b1 8d c0 bd 5f 99 ca 3c b9 35 68 3d 15 fb f0 bd
       -0.094020255 0.024731336 0.05669186 -0.1176664
0000b0 69 13 f3 bd 31 12 80 bc 94 5a 7f 3d e1 bc 50 3d
       -0.118689366 -0.015633674 0.06234224 0.05096138
0000c0 64 7a 9e 3b 14 70 80 bd 1e 91 cd 3c cd e9 9a 3b
       0.0048363674 -0.06271377 0.025093611 0.0047275783
0000d0 1b 9d a8 3d e1 4c 36 bd 70 49 a0 bd 94 ad 8f bd
       0.082330905 -0.04450691 -0.07826507 -0.07015529
0000e0 be 27 79 bd 86 f0 82 bd fd a0 3e bb 66 a7 c1 bd
       -0.060828917 -0.063935325 -0.0029087656 -0.09455757
0000f0 82 e5 0f 3d 14 76 2e 3d 7f b5 a2 bd b9 22 3f bc
       0.035130985 0.042593077 -0.07944774 -0.011665993
000100 4b a0 d3 bc 9d a0 cc 3c c9 89 98 bb 09 92 db bc
       -0.02583327 0.02497893 -0.004655097 -0.026803033
000110 04 9b 9f 3d 00 ba 9a 3d 48 f4 cf 3c d6 8c b7 bd
       0.07793239 0.07555008 0.025385037 -0.08962409
000120 69 0b bf bd 73 16 1d bc 42 c1 75 bd 89 72 ab 3c
       -0.09328348 -0.009587872 -0.059998758 0.020928638
000130 64 b9 c9 bd 0b ce 82 bd 7a 26 bb bd 0a 64 8a bd
       -0.098498136 -0.06386956 -0.09138198 -0.06757362
000140 ef 71 70 bd 24 0c 05 3d ef a0 6c 3c 14 a8 ff bc
       -0.058702406 0.03248228 0.014442666 -0.031208076
000150 cb 77 1f 3c bf 35 af bc 37 29 49 bc 5b 88 d3 bc
       0.009733151 -0.021387933 -0.012277893 -0.025821855
000160 3e 49 d3 bb 61 30 a8 3c 8f 40 fa 3c 76 ce 4b bc
       -0.00644794 0.020530881 0.030548362 -0.012439361
000170 96 bc 8f 3c e7 8f 94 bc 44 26 e0 ba d4 96 51 b9
       0.01754598 -0.018135024 -0.0017101248 -0.00019987981
000180 54 80 db bc e1 f6 6f bb 09 18 d5 bc 83 f9 87 3b
       -0.02679459 -0.0036615657 -0.026012437 0.004149617
000190 78 f3 88 3c 2c 33 9e bb 7c 0f 17 bb 53 6b b3 bb
       0.016717657 -0.0048278775 -0.002305 -0.0054754405
0001a0 74 ec 7c 3b 0d c5 3d 3a bc 74 c0 bb 38 6a 1c 3b
       0.0038593085 0.00072391407 -0.005873291 0.0023867022
0001b0 15 e0 35 bc 78 d5 04 3d 95 29 2c bd ed 26 a0 38
       -0.011100789 0.032430142 -0.042031843 7.636645e-05
0001c0 6f de 70 3d ac 82 4f 3d 76 fe 8b bc 7f 2f 35 3d
       0.05880588 0.050661728 -0.01708911 0.04423475
0001d0 8e 53 4d 3d 9b b5 4b bd cd 17 31 bd 7d 44 3e bd
       0.050128512 -0.04973374 -0.04323559 -0.046452034
0001e0 a5 42 2f bd ba df 38 bd f8 a9 5b bd b7 59 2d bd
       -0.042788167 -0.045135237 -0.05362889 -0.042321887
0001f0 2d 1b 31 bd f5 8f 1b bd 3e f5 40 bb c0 18 41 bc
       -0.043238807 -0.037979085 -0.002944305 -0.011785686
000200 ee 42 c5 bc 04 5f ee bb fa 82 cf bc 87 a8 00 3d
       -0.024079766 -0.0072745103 -0.02533101 0.03141072
000210 57 8d 44 3c ab 9d e3 3b 96 e2 4a 3c 17 f8 38 bb
       0.011996589 0.0069462857 0.012383124 -0.0028224045
000220 6b 96 80 bb a7 62 f1 bb 0b 6f de bb e2 5a 68 bc
       -0.003924181 -0.0073664966 -0.0067881397 -0.014181824
000230 11 09 6a bc 61 32 bd 3c c1 98 91 3c 3e 4b 91 3d
       -0.014284388 0.023095312 0.017773034 0.070944294
000240 ca 72 b6 bc 92 54 76 bc 15 c8 63 3d 86 a7 f5 bb
       -0.022271533 -0.015034812 0.055610735 -0.007496777
000250 b6 00 08 bd 3d 60 8f bc 0f c2 5a 3d fc 11 0c bd
       -0.033203803 -0.017501945 0.053407725 -0.03419684
000260 b1 ff 88 3d 4c 63 10 3d ae 1d dc bb 68 e3 f4 3d
       0.06689394 0.035250947 -0.0067174053 0.11957437
000270 24 53 2b 3c 5f dd f8 bb 76 95 cd bc af d1 8f 3d
       0.010456834 -0.007594749 -0.025095683 0.07022416
000280 18 33 3d 3b 5b d0 97 3d 92 a0 94 3c 3b a6 a5 bc
       0.0028869566 0.074127875 0.018142972 -0.020220866
000290 50 74 df 3b a5 5e ac 3c e9 9f 95 bc f5 0d 70 ba
       0.0068192855 0.021041224 -0.018264728 -0.0009157353
0002a0 8e 1a 52 3b ed 01 d0 bb 85 ff 8f ba a4 86 aa 3a
       0.0032059285 -0.006347886 -0.0010986185 0.0013010097
0002b0 a2 68 f0 3b 43 ba 4d bc 97 11 f4 3b 50 c1 3c bc
       0.007336692 -0.012556615 0.007448386 -0.011520699
0002c0 0c 2a 9b 3b 74 3a 3f bb 57 cc a3 bb cd 55 a3 3b
       0.004735237 -0.0029179128 -0.0049987244 0.0049845935
0002d0 97 43 d9 3b e4 d9 f9 3b ee f8 2a bc bb ac cf bb
       0.006630372 0.0076248515 -0.010435326 -0.0063377297
0002e0 f9 4c 14 bc 36 62 15 ba 08 93 22 bc 98 99 bb b9
       -0.009051555 -0.00056985335 -0.00992275 -0.00035781856
0002f0 0f 71 81 3b f3 9b 61 3d b7 e2 71 3d a9 c5 23 bd
       0.003950245 0.055080365 0.059054103 -0.039983425
000300 ef 4c a9 3c 61 b1 54 3d 0d 86 67 3d a4 58 99 3d
       0.020666568 0.051926974 0.056524325 0.0748761
000310 1c 6c 88 3d 88 d1 cc 3c 2c 79 f5 bc 41 25 bb bb
       0.06661245 0.025002256 -0.029965006 -0.005711228
000320 f5 55 1c bd 68 9d 99 3d 80 8c 26 bd 18 16 1f bc
       -0.038167913 0.07500726 -0.040661335 -0.009709857
000330 f9 bd 63 3d 71 6c 39 bd df f2 8e 3c 79 e4 3f 3d
       0.055601094 -0.045269433 0.017449794 0.046848748
000340 67 31 2a bd 6a 86 67 bc e4 ed c6 bc c1 77 07 bd
       -0.04155102 -0.014131168 -0.024283357 -0.03307319
000350 73 0c 42 bd 96 37 9c 3c 8c 8c 74 3d 3a 18 32 bd
       -0.047375154 0.019069474 0.05970435 -0.043480136
000360 e7 8b ff bc fe eb d7 3b 27 0c bc bb c2 69 bf 3b
       -0.03119464 0.0065894118 -0.0057387534 0.0058414647
000370 d8 d2 c6 bc fb 91 33 bc e4 1b 34 3d 5b 13 87 3d
       -0.02427046 -0.010960097 0.04397191 0.06595489
000380 18 d7 44 3c fa 7d 51 bc cd 1e a1 bc d1 4d 28 bd
       0.012014173 -0.012786383 -0.019668007 -0.041089837
000390 33 5e af 3b 4b cf 99 bc 0b ec a8 bc f7 51 04 ba
       0.0053518056 -0.018775603 -0.020620367 -0.0005047614
0003a0 05 e3 81 3d 4d e0 54 bc b7 91 83 3c f1 66 94 3c
       0.06342129 -0.012992931 0.016060693 0.018115493
0003b0 e0 7e 13 bb 0e d5 c0 bc 34 91 64 3b ae 93 b2 3a
       -0.0022506043 -0.023539092 0.0034876587 0.0013624334
0003c0 56 f9 20 3c 08 1a 49 3c 73 78 6f bb 85 83 8d 3b
       0.009825071 0.012274273 -0.00365403 0.004318657
0003d0 f7 67 05 3c 48 c5 48 bc 07 d2 b6 bb d2 33 f9 3b
       0.008142463 -0.012254067 -0.0055792364 0.0076050544
0003e0 fd 1a 72 bc a8 63 28 bc 88 16 1a bb 8c 09 91 3b
       -0.014776942 -0.010277666 -0.0023511965 0.004426187
0003f0 3c de aa 3c 4f 93 96 3c 7b 41 8a 3c 20 f8 54 3c
       0.020857923 0.01838079 0.016876927 0.012998611

bias f4 [32]
000000 74 ad 28 3c 13 08 e6 bc aa f5 9e ba aa a8 01 3a
       0.010295261 -0.028080022 -0.0012127657 0.00049460924
000010 db a7 96 3c a3 35 ea 3a 50 d5 85 3c 41 96 82 3c
       0.018390587 0.0017868768 0.016337067 0.015940787
000020 a1 d7 af 3a 41 43 f9 ba 15 96 9f bb 84 4c 8d 3b
       0.0013415703 -0.0019017236 -0.004870186 0.0043121
000030 df 9e de ba 2a c6 27 bc 36 11 08 3b 80 35 5b 3b
       -0.0016984603 -0.010240117 0.0020762212 0.0033448637
000040 63 c6 0d bb 60 c1 2a 3c cc e2 8d 3c 06 8a be 3b
       -0.002163314 0.010422081 0.01732006 0.0058147935
000050 a8 4f 3c 3c 54 13 2d bc ea 78 6b bc f8 d3 d9 3c
       0.011493601 -0.01056369 -0.01437209 0.026590332
000060 c8 21 8e 3c 04 b1 b6 3b 09 9a 57 3c 9d cb 19 3b
       0.017350093 0.005575301 0.013159283 0.002346731
000070 5b 67 91 bb 26 31 f6 3b 5c 45 2f 3c 43 61 32 3c
       -0.0044373698 0.007513183 0.010697689 0.010887447

weight f4 [32]
000000 ac b2 a1 3e 4d 2f 4c 3e 99 10 2f 3e 99 b3 09 3e
       0.31581628 0.19939919 0.17096175 0.13447417
000010 b7 4d eb 3e 93 e3 e9 3d a3 18 5e 3e 79 b1 9c 3e
       0.4595773 0.114203595 0.21689086 0.3060415
000020 20 ca 16 3e 6b 62 29 3e 66 10 4d 3e 03 88 e3 3e
       0.14725542 0.1654145 0.20025787 0.44439706
000030 05 5c 63 3e d5 b5 36 3e 81 49 af 3e 98 76 ff 3d
       0.22203071 0.17842801 0.34235767 0.12473792
000040 e5 20 02 3e 2a ac 60 3e 71 09 78 3e b5 6d 33 3e
       0.12707861 0.21940675 0.24222352 0.17522319
000050 d8 60 c0 3e ec 3d 8d 3e 62 f5 0f 3e 32 dd 12 3e
       0.37573886 0.27586305 0.1405845 0.14342192
000060 3a 0f a9 3e 9a f0 5d 3e 92 b1 47 3e 73 5a 36 3e
       0.3301943 0.21673813 0.19501331 0.17807941
000070 ad d6 de 3e b5 bb e6 3e ac e7 a6 3e 5e d9 18 3e
       0.4352316 0.45065084 0.32598627 0.14926669

bias f4 [32]
000000 57 29 2d 3c a0 64 23 3d 27 ae d0 bd 33 01 39 be
       0.010568938 0.039890885 -0.10189467 -0.18066864
000010 e8 ec 90 3d 59 a7 34 be 32 f5 1f be 07 3b 6d 3c
       0.07076436 -0.17641963 -0.15620878 0.014479405
000020 0b 9f 3c be df f2 fe bd ea 5c 84 3c cc bc 80 be
       -0.18420045 -0.12448668 0.016157586 -0.2514404
000030 fe cd c0 bd 2e a2 78 3c 99 87 13 3d 36 fc 96 bd
       -0.0941429 0.015175385 0.036017988 -0.07372324
000040 56 5f 14 be b7 92 c5 bd 87 c8 db 3c 53 24 11 be
       -0.14489493 -0.09647124 0.026829017 -0.14174013
000050 eb 6d a6 bc 8f 2a 83 3c 67 e1 55 bd 75 47 98 bd
       -0.020316085 0.016011504 -0.052216914 -0.07435504
000060 ad 61 a2 bd 2a 8e f6 bd 12 6e a5 3c dd 04 53 be
       -0.079287864 -0.120388344 0.020194087 -0.20607324
000070 51 0b ad 3d 3d c5 14 3c ef bb 88 be 35 cb fb bd
       0.08449424 0.009080228 -0.26705882 -0.12294618

running_mean f4 [32]
000000 d8 67 34 3d 25 f6 9e bc 7c f1 5b bc bd 2b 9a bc
       0.044044346 -0.01940448 -0.013424274 -0.018819684
000010 40 0c a4 3c 7d 99 c9 bc cf 7b e5 bc 78 32 07 3d
       0.020025373 -0.024609322 -0.028013138 0.033007115
000020 e7 a9 c6 bb f5 03 18 bd 42 8b 9a bd 85 41 af bd
       -0.0060627344 -0.03711315 -0.075460926 -0.08557419
000030 e3 d0 c5 3b d8 ca c9 bc 9a b4 39 3b d7 77 c0 bd
       0.006036864 -0.024632856 0.0028336407 -0.09397858
000040 43 ca 97 bc 52 f4 ed bc 6c cd 43 3c 89 e8 bd bc
       -0.018529063 -0.029047165 0.011950832 -0.02318217
000050 1c d2 36 3d 22 36 e2 3b 55 3e 5e b9 c4 03 72 bd
       0.04463397 0.006903426 -0.0002119479 -0.059085622
000060 3f ba ef bd ed 8b 5a bb c6 23 c1 3c 75 3e 52 bc
       -0.117054455 -0.0033347562 0.023576628 -0.012832274
000070 ca 63 19 bc 00 f7 c7 3c c7 49 09 bd e5 88 47 3c
       -0.0093621705 0.024409771 -0.033517625 0.012178634

running_var f4 [32]
000000 36 f1 6c 3d ec 0a 80 3d 36 2a 47 3c 13 04 70 3d
       0.057847224 0.06252083 0.01215606 0.058597635
000010 51 99 54 3c e5 29 67 3d 34 6b cc 3c fc cc bb 3d
       0.012976007 0.056436438 0.024953462 0.09169957
000020 d1 12 99 3d a6 85 4c 3c d5 7c 04 3e 84 86 1a 3e
       0.07474292 0.012483036 0.12938245 0.15090376
000030 1b 9e c0 3c bb 40 84 3d 7d 55 bf 3d 8c 16 71 3d
       0.02351289 0.06457659 0.093424775 0.058859393
000040 10 2a 80 3d 98 f0 95 3c d9 af c6 3d 80 29 b5 3c
       0.06258023 0.0183032 0.09701509 0.022114515
000050 f5 22 67 3d 55 92 23 3d bc 11 0a 3d 01 b7 a8 3c
       0.056429822 0.039934475 0.03370832 0.020595076
000060 6d 45 2a 3d 6b 95 07 3d d2 82 d5 3d e4 6a b5 3d
       0.041570116 0.03310148 0.104253426 0.088582784
000070 41 32 52 3c 9a 01 04 3d 28 45 95 3d 9d 99 5e 3c
       0.012829364 0.03222809 0.07288581 0.013586429

weight f4 [32, 35, 3, 3]
000000 e9 4d 9c bc 58 c0 92 bc b4 8b a3 bc 9f b5 a1 bc
       -0.01908012 -0.017913982 -0.019964077 -0.019739924
000010 33 6b ac bc 11 63 b9 bc 4b 91 ab bc e6 e4 a1 bc
       -0.02104721 -0.022630246 -0.020943305 -0.019762468
000020 f6 e1 90 bc db 2f e2 3c 02 a5 e1 3c 50 6b e8 3c
       -0.017685872 0.02761071 0.027544502 0.028371483
000030 1e 0d fe 3c 86 8d 0a 3d a0 d7 eb 3c 26 67 f2 3c
       0.031012114 0.033826374 0.028789341 0.0295902
000040 45 de 01 3d ab e7 e9 3c c0 fb 05 bd 3e 37 ff bc
       0.031706113 0.02855285 -0.03271079 -0.031154271
000050 62 24 f3 bc e5 e0 09 bd c1 a7 05 bd 17 21 fe bc
       -0.029680435 -0.03366174 -0.032630686 -0.031021638
000060 02 6b 0f bd c2 2f 0a bd e4 7d 04 bd 5a 1c 60 bb
       -0.03501416 -0.03373695 -0.03234662 -0.0034196586
000070 9c d5 12 3d 9a 5c b1 3c 25 19 4e 3c 1c dc f6 3c
       0.035848245 0.021650601 0.012579237 0.030134253
000080 7f a2 2d 3d 39 29 cf bb db 09 50 3c 5c 18 57 3c
       0.042391296 -0.006322053 0.012697662 0.013128366
000090 90 71 bb 3c 0c 39 c2 3b e3 de 9e 3c 2d d3 22 bc
       0.0228813 0.0059272107 0.01939339 -0.009938044
0000a0 35 3b d0 bc 6c a2 0c 3b a0 de 2c 3c e8 8e 66 38
       -0.025418857 0.0021459116 0.010551125 5.4969365e-05
0000b0 51 f5 82 3c 86 ee b6 3c 70 61 19 3c 97 13 90 bc
       0.015986117 0.022330534 0.00936161 -0.017587466
0000c0 18 ba e8 bb 3e d7 e3 bc 0a fb d4 bc e8 b0 78 3b
       -0.007102262 -0.027812596 -0.025998611 0.0037947241
0000d0 28 bb f6 3c 13 12 1e bc 1a 0b 2b 3d ed b9 0e 3b
       0.03011854 -0.009647864 0.041758634 0.00217783
0000e0 3a 60 75 bb a0 0d e4 3b bd bc f5 bc 77 eb 3f bb
       -0.0037441389 0.006959632 -0.029997224 -0.0029284635
0000f0 c5 71 92 3c e0 c8 72 3b 74 64 96 3c b9 58 85 bc
       0.017876515 0.0037046 0.018358447 -0.016277658
000100 fc ee b1 bd f8 2a 3e bd 0b e7 47 3a 25 9e 5a bd
       -0.08688161 -0.046427697 0.00076256756 -0.053373475
000110 98 f6 8e 3c cf 82 36 bd c8 23 ea bd 60 0c 70 3c
       0.01745157 -0.044558343 -0.11432606 0.014651388
000120 6b 90 b8 3c 9c d3 67 3a 3a cc 31 3a 17 64 57 3c
       0.022529801 0.0008843483 0.0006782446 0.013146422
000130 51 e6 cb 3b 1d 2f fa bb 23 51 9f 3b 92 3b 8b bb
       0.006222524 -0.007635011 0.004861967 -0.0042490447
000140 a6 a3 8c 3b 52 d4 37 3d d0 44 a7 3b c4 da 43 3c
       0.0042919694 0.04488022 0.0051046386 0.011954013
000150 54 f0 ca 3b ec 22 84 3c d2 f8 17 3d 20 62 b5 3c
       0.0061932 0.016129933 0.037102528 0.022141516
000160 50 3b 63 3c 9d 3e 10 3d 34 c7 82 3b 6c 7c 2f 3c
       0.013869122 0.035215963 0.003991032 0.010710817
000170 08 22 f0 bb d2 b5 f8 bc 17 0c 70 bc fd 01 da bc
       -0.0073282756 -0.030360136 -0.01465132 -0.026612276
000180 ac f5 77 3b 7f 82 06 3a 7a 85 cd bb a5 f9 b1 3c
       0.003783564 0.000513114 -0.006272015 0.021725485
000190 d0 92 01 3d 21 2f 02 bc 6e 67 3d bb 38 bf 92 bc
       0.031634152 -0.007945807 -0.002890076 -0.017913446
0001a0 d6 c0 77 bc a4 72 a7 3c 87 58 47 3c 09 e7 36 3c
       -0.015121659 0.020440407 0.012167103 0.0111634815
0001b0 7f 97 be 3a 1a 82 28 3c 47 a6 9d bb 79 51 8f bb
       0.0014540999 0.010284925 -0.0048110816 -0.004373726
0001c0 66 2e 00 bc c9 7f 8d 3a 29 6e bf 3b 0f 9b 2e bc
       -0.007823562 0.0010795529 0.0058419895 -0.010657086
0001d0 f5 ba 04 3c ef 3a 12 3c 92 0f eb 3b d9 9d b3 3c
       0.008101215 0.008925184 0.007173487 0.021925854
0001e0 99 19 6c ba 3a 9a 38 38 35 f8 88 3c 47 16 d5 3c
       -0.00090065 4.4012653e-05 0.016719917 0.0260116
0001f0 1d 5e a8 3c ba 2f f3 3c 2d 43 61 3d b7 77 3c 3d
       0.02055269 0.029685844 0.054995704 0.046012606
000200 58 26 22 3d 63 db 46 3d 9c 3d f7 3b 37 13 87 3c
       0.03958735 0.048549067 0.007545186 0.016488655
000210 c7 e7 cd 3c 9f ac 38 3c 98 73 3f 3d 9c fc 9f 3c
       0.025134934 0.011271625 0.0467411 0.019529633
000220 47 67 9f ba dc 60 17 3a 98 4a 29 3d a3 aa f7 3b
       -0.0012161516 0.0005774626 0.041330904 0.0075581833
000230 01 10 51 3c 56 b8 01 bc 6c 9e 26 bb d1 66 1d 3c
       0.012760163 -0.007917484 -0.0025424017 0.009607033
000240 39 a1 15 3c 30 32 8c 3b e1 8c 7f 3c 33 b5 16 bc
       0.009132677 0.0042784438 0.015597553 -0.009198475
000250 ad 1f f7 3a 5c 2a 69 3c 42 dd 8d bb 0b 9b e1 3b
       0.0018854045 0.014231291 -0.0043293545 0.0068849376
000260 4a f1 49 bb 2f 07 ae bc ea 8a 1d bd 21 30 47 bb
       -0.0030813986 -0.02124366 -0.038462557 -0.0030393677
000270 8d 3f da bb c8 af c2 bc a9 7a b5 bb ec ce 59 bc
       -0.006660408 -0.02376546 -0.005538304 -0.013293963
000280 96 a2 69 3b 6c b1 c5 3a 1e 49 da 3c ad e5 5d 3c
       0.0035649887 0.0015082783 0.026646193 0.0135435285
000290 2b 8a 84 ba 14 28 da 3c 54 8b 0d bd d6 3c 08 bc
       -0.0010111978 0.026630439 -0.0345567 -0.008315286
0002a0 d0 e6 60 3c fc 22 22 bc cd ca aa 3c 04 22 3b 3c
       0.013726905 -0.009896036 0.020848656 0.011421684
0002b0 d3 21 ed 3b 06 86 8b 3b 04 a5 a7 3c 54 57 42 bc
       0.007236698 0.00425792 0.020464428 -0.011861641
0002c0 38 27 fc 3a db 51 90 3c 36 52 01 bc b7 6a 7e 3c
       0.0019237762 0.017617157 -0.007893136 0.0155283725
0002d0 f4 37 9f 3c f0 f7 fd 3b fd 4b 45 bc b9 9b 27 bc
       0.01943586 0.0077505037 -0.012042043 -0.010229998
0002e0 4d 1b 91 bb 13 1b 2a bb 11 ff 85 3c eb fc 73 3c
       -0.0044283033 -0.002595608 0.016356977 0.014891843
0002f0 ae b3 cf 3b 25 59 a0 3b a0 42 a1 bb e5 19 08 ba
       0.006338558 0.0048934394 -0.0049212724 -0.0005191847
000300 d5 75 83 bc 97 bb af bc 5a f1 c3 bb 80 f9 27 3c
       -0.016047398 -0.021451754 -0.005979699 0.0102523565
000310 96 28 10 3c 6e 7e 19 3c d7 0b 4b 3c 6a 6b 10 3d
       0.008798739 0.009368522 0.01239296 0.035258688
000320 a0 24 ca 3c 8a 9d a3 3c d8 b5 a4 3c 7f 50 8e 3b
       0.024675667 0.019972581 0.020106241 0.004343092
000330 74 8d 36 3b 2c 63 62 bb 40 92 fd 3b f3 c2 3e 3c
       0.0027855309 -0.0034543974 0.0077383816 0.011643159
000340 a2 0b 89 bc db fc 19 3c 39 df 83 ba c3 a7 33 bc
       -0.01672918 0.009398664 -0.0010061032 -0.0109652905
000350 f1 fc ec 3c 9f 67 a0 3a 75 38 be bb 5f cd 4d 3c
       0.028929206 0.0012237913 -0.00580507 0.012561171
000360 09 fc 98 3a e8 13 31 3c ba da ef 3c 0b 6f 11 3c
       0.0011671792 0.010807969 0.029279102 0.008876572
000370 29 56 94 bc a4 06 9d 3c f2 28 8b bc 43 b6 88 bc
       -0.01810749 0.019168206 -0.016987298 -0.016688472
000380 84 33 ae 3b fd ef 0d bc f6 40 72 bc eb 43 45 bc
       0.0053161997 -0.008663175 -0.014785996 -0.012040119
000390 39 0e c1 bc 6e a9 13 bd 5c 58 5f bc d3 e0 3b b9
       -0.023566352 -0.036050253 -0.013631906 -0.00017917463
0003a0 bc 90 26 bc 72 bc 2c 3c ec 1b 58 3c 06 18 39 3c
       -0.010166343 0.010542976 0.013190251 0.011297232
0003b0 85 40 2b 3c df c0 16 3b b5 22 8f bc 97 a9 bf bb
       0.010452394 0.0023003144 -0.017472604 -0.005849074
0003c0 fb 70 0a 3b b5 de 9d bc 4e b6 81 bc 16 40 d6 3c
       0.002112447 -0.019271234 -0.015834 0.026153605
0003d0 17 1f 34 3c 1f 08 40 3c 40 1c 9b 3c 55 48 6e 3c
       0.0109937405 0.011720686 0.01893437 0.0145436125
0003e0 ab cf 99 3c 6f 32 c8 bb a1 66 1f bc 93 e9 12 bc
       0.018775782 -0.006109528 -0.0097290585 -0.008966821
0003f0 05 aa 81 3c c5 a9 c7 3c e9 66 92 3b 5a 9d 24 3d
       0.015828142 0.024372945 0.0044678343 0.040189125

bias f4 [32]
000000 5b 19 e4 37 7d 57 a6 3a df 08 fe 3a 0b 15 85 bb
       2.7191525e-05 0.0012690868 0.0019381306 -0.0040613464
000010 82 05 f6 3a 64 9a d4 bb d3 cd c8 ba 0e 88 0d b7
       0.0018769952 -0.0064881314 -0.001532013 -8.435933e-06
000020 db 8d 83 3b df 84 6b bc e2 e9 a4 38 21 42 1b bc
       0.004014713 -0.014374941 7.8636935e-05 -0.009476216
000030 4a c7 3a ba c6 ee 96 ba 52 47 c2 3a 6a 87 ce ba
       -0.00071250333 -0.0011515252 0.001482228 -0.0015756909
000040 c9 20 27 b9 aa a9 56 3d a2 d8 58 b9 81 cf f5 3b
       -0.00015938575 0.052407898 -0.00020680067 0.007501543
000050 1f e5 ae bb 49 5f 4d 3a 8e c0 1c 3b 46 65 4c 3b
       -0.005337372 0.0007834328 0.0023918482 0.0031188293
000060 b9 88 9f bb fc ee 5f bc 4f 1d 56 b9 d2 e9 82 ba
       -0.0048685935 -0.013667818 -0.00020419549 -0.0009987897
000070 06 ee 70 3b 87 2a 95 ba 47 18 72 bc f9 01 76 ba
       0.0036762967 -0.0011380472 -0.014776296 -0.0009384449

weight f4 [32]
000000 4d c5 2f 3d 6d e6 86 3d c8 bb b2 3e 11 ed b4 3e
       0.04291277 0.06586919 0.3490889 0.35337117
000010 c0 ad 0c 3e b0 56 ba 3e a1 29 b2 3e 5a dd 1c 3d
       0.13738155 0.36394262 0.34797385 0.038297035
000020 97 04 43 3e fc 07 8d 3e d0 41 cf 3d 24 c5 0b 3e
       0.1904472 0.27545154 0.101199746 0.13649422
000030 fd 76 05 3e ea ec 21 3e fb 67 02 3e f8 9c 21 3e
       0.13033672 0.15813032 0.12734978 0.15782535
000040 22 c1 78 3d a0 24 da 3e 9c ff bd 3d dd 71 bf 3e
       0.06073106 0.42606068 0.09277269 0.37391558
000050 6f 28 d9 3d b9 02 f5 3d d1 aa 02 3e 80 c8 53 3e
       0.10603415 0.1196341 0.12760474 0.20681953
000060 3b f2 a9 3e 41 9d f4 3e 04 5e dc 3d ed 04 c3 3d
       0.3319262 0.47776225 0.107601196 0.09522424
000070 11 8d a9 3d 29 e2 19 3e 54 ff 47 3e 53 a1 0b 3e
       0.082788594 0.1502768 0.19530994 0.13635759

bias f4 [32]
000000 d8 73 0e bd a6 2f e6 bc 3f e1 1c 3e 89 25 48 3d
       -0.034778446 -0.028098892 0.153203 0.04886392
000010 d4 a2 b4 3c 5d d7 cd 3d 12 83 cf 3d d1 43 45 bd
       0.022050299 0.10050843 0.101324216 -0.048160378
000020 fc bf 94 bd 8c 94 da 3d d3 db 3a bd dc 9e 9f bd
       -0.072631806 0.10672864 -0.045619797 -0.07793972
000030 58 b9 c8 bd e2 7e 1f bd c7 9e 3c bd 98 1d b0 bd
       -0.098009765 -0.038939364 -0.04604986 -0.085993946
000040 af 3a 64 bd 87 fe f3 3d d9 67 c4 bd fa 6e f9 3d
       -0.055720028 0.119137816 -0.0959012 0.1217937
000050 54 fa 09 bd 4f 46 58 bd 52 3c 46 bd 5c a7 d6 bd
       -0.033685997 -0.052801427 -0.04839737 -0.1048114
000060 04 8c d0 3d 85 e1 0d 3e a8 c1 82 bd 06 de 01 bd
       0.10182956 0.1385556 -0.06384593 -0.03170588
000070 b5 93 e6 b8 e8 f2 9a bd 12 9e c1 bd 43 32 d6 bd
       -0.00010994767 -0.07565862 -0.09453978 -0.104588054

running_mean f4 [32]
000000 31 7d 20 be a7 8a 2b bd 4a 35 1d 3d c2 2c 9f 3c
       -0.15672757 -0.041880276 0.0383809 0.019430522
000010 a9 89 cb 3c 09 99 c6 3b f7 0d 3a 3d 83 fa e1 bd
       0.024845915 0.0060607237 0.045423474 -0.110341094
000020 08 00 90 bd d9 1e e9 3c f8 14 87 bd bc 2e e6 bd
       -0.07031256 0.028457092 -0.06595796 -0.112393826
000030 36 3f d9 bd b1 b4 8d bc 22 63 d4 bd e0 84 bc bd
       -0.1060776 -0.017298074 -0.103704706 -0.092050314
000040 67 71 14 be 21 ca 9c 3d c7 21 11 be fe e2 70 3d
       -0.14496385 0.076557405 -0.14173041 0.058810227
000050 fd 18 1f bc f3 81 e5 bd f5 26 18 bd 56 90 9b bd
       -0.0097105475 -0.112064265 -0.037146527 -0.07595889
000060 f6 b1 0f 3c d7 91 ac 3d 10 10 8f bd 8b f7 77 bd
       0.008770457 0.08426254 -0.069854856 -0.06053881
000070 6d e9 10 bd 6d 04 9e bc d1 5e 4e bd db 37 d0 bd
       -0.035378862 -0.01928922 -0.050383393 -0.101669036

running_var f4 [32]
000000 42 1f f6 3d aa b2 99 3d a9 d1 44 3c 85 9b af 3c
       0.12017681 0.075047806 0.0120128775 0.021436462
000010 c2 97 da 3d ce 60 7d 3c 69 01 4f 3c 1d 9c 44 3e
       0.10673477 0.015464975 0.012634614 0.19200177
000020 f5 fd d0 3d 14 46 9c 3c 54 e8 25 3e b1 0c c8 3d
       0.102046885 0.019076385 0.16201907 0.09768046
000030 d3 60 98 3e 92 67 59 3e 71 68 38 3e f4 97 67 3d
       0.2976137 0.21230915 0.18008591 0.0565414
000040 cc fb 13 3e 6e 96 79 3c 13 52 4e 3e e3 fe 6d 3c
       0.14451522 0.015233619 0.20148496 0.014526102
000050 bc 31 a9 3c a3 b6 0d 3e a5 e1 7c 3d 00 cd 16 3d
       0.020653598 0.13839202 0.06173863 0.036816597
000060 89 09 80 3c 95 1b 91 3c ac f1 2c 3d 7c 16 a0 3d
       0.015629547 0.017713347 0.042222664 0.078167886
000070 1f ce 96 3c d5 44 1e 3d 85 5f d6 3c d8 da 57 3d
       0.018408833 0.038639862 0.026168594 0.05269894

weight f4 [64, 35, 3, 3]
000000 1a af 0e bc 04 6e dc bb 0b 9e 8c bb ba a3 9a bb
       -0.00870874 -0.006726982 -0.004291301 -0.0047192248
000010 7e a8 11 bc da 16 89 bb 00 7e 03 bb 95 c1 8b bb
       -0.008890269 -0.0041836323 -0.0020064116 -0.00426502
000020 c4 44 6d bb e1 c5 02 3c 6b c1 f3 3b c4 fc da 3b
       -0.0036204318 0.007981748 0.0074388287 0.006682964
000030 15 00 ee 3b e4 fb 06 3c 99 86 ae 3b 44 18 ef 3b
       0.0072631934 0.008238766 0.005326104 0.007296594
000040 e8 1e 00 3c 49 7c ea 3b 02 c6 bf bc 0f 71 ce bc
       0.007819869 0.007155929 -0.023409847 -0.025200395
000050 1a 95 db bc be d3 b6 bc c5 93 c6 bc d6 02 d3 bc
       -0.026804496 -0.022317763 -0.024240384 -0.025758188
000060 1b ff ad bc 1b 0a be bc b8 88 cb bc 7d c0 97 3a
       -0.021239808 -0.023198178 -0.024845466 0.0011577752
000070 c9 17 80 bb 69 22 ce 3c 0f 38 22 39 6f d1 3a bd
       -0.0039090854 0.025162892 0.00015470407 -0.045609888
000080 61 79 dc bb 99 30 bf bc 07 fd 26 bd c0 1b 83 bb
       -0.0067283367 -0.023338603 -0.04076865 -0.004001111
000090 74 a9 2a 3c d2 85 8a bb 2c a2 48 39 03 ed 5b bc
       0.010416377 -0.0042273784 0.000191339 -0.013423207
0000a0 dd ca 18 bc 98 9f 6e bb 0f 72 4a bc 97 d6 e5 bc
       -0.00932571 -0.0036411043 -0.012356295 -0.028056426
0000b0 02 2c d4 bc 17 a2 69 bc 8b ef 46 3a 1a fe be 3c
       -0.02589989 -0.014259837 0.0007588795 0.023314524
0000c0 d3 b7 e6 3b 69 85 09 3d fd ce c2 3c 7c dd 88 ba
       0.0070409565 0.033574495 0.02378034 -0.0010441984
0000d0 b3 53 19 3d 57 05 31 3c cb 88 13 3c 75 8e 20 bb
       0.037433337 0.010804496 0.009004782 -0.0024498974
0000e0 81 3e dc 3c a6 34 34 bd 7d 0f 31 bd 29 d2 22 bc
       0.026885273 -0.043995522 -0.04322766 -0.009937801
0000f0 ac fc c5 bc 59 e9 5d bd 2b 31 40 3c 2f c4 9a 3c
       -0.024168335 -0.054177616 0.011730473 0.018892376
000100 6a 8e 05 3c 03 01 26 3d e8 9d b5 3a a8 30 f7 bc
       0.00815163 0.04052831 0.0013856264 -0.030174568
000110 95 00 11 3b 28 49 43 bc bf 82 b6 bc 22 44 87 3c
       0.002212559 -0.011919297 -0.022279141 0.01651198
000120 f0 c2 2e 3d 03 14 03 3d 1d 8c 52 3d 82 65 3c 3b
       0.042666376 0.032001507 0.051403154 0.0028747027
000130 01 3f eb bb 60 65 22 3c e2 c4 c9 3c bf 04 33 bc
       -0.0071791415 0.009911865 0.024630014 -0.0109264245
000140 c6 72 8c 3d 1d b7 ff 3c a3 8c 85 3c 85 0c d1 bc
       0.06857829 0.031215245 0.016302412 -0.025518665
000150 fc dd 20 3d 08 14 95 3d 2f 6e 97 bb 16 91 bb 3c
       0.0392742 0.07279211 -0.004621289 0.02289633
000160 58 6b 09 3d 31 54 18 3a c8 cb d6 ba 76 ee 90 bc
       0.033549637 0.00058108853 -0.0016387636 -0.017691832
000170 96 da 34 3c b4 d5 b9 bb e0 c5 24 bd f1 fd f9 bb
       0.011038443 -0.0056712274 -0.04022777 -0.007629149
000180 bb f9 59 bc dd 52 fb bc 00 d6 5c bb be cb e4 3b
       -0.013304169 -0.03067916 -0.003369689 0.006982296
000190 9f 6f bc ba 2f b9 44 3c a8 7f 9c bc cf e7 af bc
       -0.0014376527 0.012007042 -0.01910384 -0.02147284
0001a0 56 4a 7c ba 6f 0b 21 bc dd 15 f1 bc 14 c7 1a 3c
       -0.0009624114 -0.009829386 -0.02942937 0.009446878
0001b0 8e 16 9e 3b 9c 05 39 3c 91 0c 37 3c 71 8d 2e bc
       0.004824466 0.011292841 0.01117243 -0.010653839
0001c0 97 b1 0d 3d 93 2c 4a 3c 31 6a a1 bc 28 f4 41 3c
       0.03459319 0.012339729 -0.019703956 0.011837997
0001d0 22 58 8d 3c 7d 85 21 3c 06 9e c0 ba 10 09 9b 3c
       0.017253939 0.009858486 -0.0014695532 0.01892522
0001e0 a2 18 10 bc 7e 09 14 bd b3 25 c8 bb 9f 17 a8 3a
       -0.008794935 -0.036141865 -0.0061080097 0.0012824422
0001f0 a0 3a aa bc 60 0d 2e 3c 7d 3e 5c bc e4 6e 1d bb
       -0.020779908 0.010623306 -0.013442633 -0.0024022395
000200 26 28 c2 bb f9 3c 9f bb b0 d9 90 bc 99 3e 81 ba
       -0.005925196 -0.0048595634 -0.017681926 -0.0009860575
000210 50 8a 84 3b 2a 62 ac bb 4c 4c 84 bc 59 06 4c 39
       0.0040448084 -0.0052607255 -0.016149662 0.00019457321
000220 ca 99 f4 bb 8c fe c0 3c 4a 0b 9e bb a5 ce 26 bd
       -0.007464622 0.023558877 -0.004823123 -0.040724415
000230 f2 da 25 bb 70 01 6c bc 4b 7f 03 bd 29 99 3d 3b
       -0.0025307504 -0.01440464 -0.032103818 0.0028930402
000240 1f 89 a7 3c 33 cf 8e 3c 37 7e e0 3c a6 e8 d4 3c
       0.020451127 0.017432785 0.027403934 0.025989842
000250 7e 5f 08 bb c1 71 05 3b c6 89 1f 3c 67 6e 44 bb
       -0.002080887 0.0020361992 0.009737438 -0.0029973031
000260 e8 f0 67 3c f9 bc 12 3c 28 f3 b5 b9 f3 b6 54 3c
       0.014156558 0.008956187 -0.00034704176 0.012983072
000270 40 1f a9 3c 07 07 8c bc a0 b6 b4 bc bf 03 ad ba
       0.020644784 -0.017093195 -0.022059739 -0.0013199969
000280 bd f7 c2 bc 36 d9 90 bb 2a 2e fe 3c 6c 5d d1 bc
       -0.023799771 -0.004420425 0.031027872 -0.025557242
000290 db 3e 28 bd 70 ab 6f bc 31 e2 7f bc 75 89 10 bd
       -0.04107557 -0.014628276 -0.015617893 -0.03528734
0002a0 19 f3 1a 3c e1 38 b4 bc d7 cc 56 3b 0d 5e 2e 3b
       0.009457373 -0.021999778 0.0032775903 0.0026606352
0002b0 66 a7 a0 bb 38 4b 96 3c c7 f0 b0 3b 2d d8 1c bd
       -0.004902768 0.018346414 0.0053997966 -0.0382921
0002c0 46 fb 9a bc 5b 02 97 bc 81 64 2b bd 0c 5c 85 bc
       -0.018918645 -0.01843374 -0.041843895 -0.016279243
0002d0 a6 7f f8 3c 0c 54 03 3d c8 53 d6 3c 13 bc 85 bc
       0.030334305 0.032062575 0.026162997 -0.016325032
0002e0 ba 86 c1 bc f0 06 b4 bb 90 d9 79 3c ce e4 43 bd
       -0.023623813 -0.005493991 0.015249625 -0.047825627
0002f0 7c de 0b 3d 52 48 b2 bb e3 bd 86 bc c7 6c 42 3c
       0.034147725 -0.00544075 -0.016447967 0.011866755
000300 2c c1 bb ba ca 21 46 bd ee 9b f0 bc 74 2f ce bc
       -0.0014324537 -0.048372068 -0.029371228 -0.025169112
000310 8d 49 4e bd 23 bb c0 bc 10 94 6e bc 02 ce f2 bb
       -0.050363112 -0.023526734 -0.014561668 -0.007409812
000320 d2 6f 90 3b 22 08 83 3c 34 e4 6c 3d 0e fc 93 3c
       0.0044078613 0.015995089 0.05783482 0.018064525
000330 7f f9 a8 3c 7f d8 74 3d 83 d3 06 3d 81 a8 04 3d
       0.020626782 0.05977678 0.032916557 0.03238726
000340 03 f2 d1 bb 8a 5d e9 3a cb 87 18 3d 45 29 ee bc
       -0.006407024 0.0017804366 0.037238877 -0.029072413
000350 4e 4d 55 bc 37 2f 97 bc cf 54 37 bd c9 92 a5 bb
       -0.013018919 -0.018455131 -0.044758614 -0.0050528985
000360 59 7c 3b 3c 5e d5 87 bb 6e 9f a7 3b cb fe d0 3c
       0.011443221 -0.0041453084 0.005115441 0.02551212
000370 19 d1 3e bc c7 4e 8b bc eb 47 4d bb cc 15 c8 bc
       -0.011646532 -0.017005337 -0.0031323384 -0.024424456
000380 69 65 6a bc 5a ef a5 3c fe 76 a5 bc 20 dc 98 bc
       -0.014306405 0.020255733 -0.020198341 -0.018659651
000390 3f 32 2f bc 4d 26 ff bb b5 26 96 bc 0b 28 ab 3b
       -0.010693132 -0.007786548 -0.018329004 0.0052232794
0003a0 c7 3e 94 bc 2b 20 9e ba c7 01 3c 3d 04 5d 00 bc
       -0.01809634 -0.001206403 0.045900133 -0.007834677
0003b0 fa 66 80 bc 4a d5 a1 bb ea c3 8c 3a 22 88 7f bc
       -0.015674103 -0.004938756 0.0010739539 -0.015596421
0003c0 b0 0f 0f bc a4 c9 b6 bc 0c 57 d7 ba e5 00 cc 3a
       -0.008731768 -0.022312947 -0.001642914 0.0015564231
0003d0 10 78 05 bd 8a 7a af 3b 3a f7 ff 3c 0d dd c3 3c
       -0.032585204 0.005355184 0.031245816 0.023909116
0003e0 e3 aa 1e 3c c5 74 ae 3c 69 5d b4 3c 7a cc 07 3c
       0.009684297 0.021295914 0.022017198 0.008288497
0003f0 89 fc 7e 3d d9 c0 77 3d 25 ea 80 3c 91 d8 be 3d
       0.062252555 0.06048665 0.015736649 0.093186505

bias f4 [64]
000000 5c 7e de bb 0a 35 49 bc fd c4 8a ba 2c e3 82 3b
       -0.0067899656 -0.012280712 -0.0010587272 0.003994366
000010 34 41 d3 b9 7c 45 3b bc 9f e4 05 3b 94 41 9c bb
       -0.00040293636 -0.011430141 0.0020430458 -0.0047685597
000020 f9 3d 13 3a 2c c9 16 bb 50 6e 4d b9 97 79 cf 3c
       0.00056168396 -0.0023008091 -0.00019591418 0.025326533
000030 94 75 40 bc d1 86 48 39 be e0 ae 3a 2f 28 4e 3c
       -0.011746783 0.0001912371 0.0013342125 0.012582823
000040 38 43 af 3c a6 a9 a9 39 bc 49 d6 b9 40 61 71 3c
       0.021394357 0.0003236059 -0.00040872197 0.014732659
000050 1a 5b be ba 08 41 8d bb 1d 4a 1a 3a a0 6d dc b9
       -0.0014523 -0.004310731 0.00058856775 -0.00042043347
000060 d7 4d bb 3c 55 fa 0a 39 4b 79 e6 bc 2a 67 86 3a
       0.022864265 0.00013253962 -0.028134009 0.0010254134
000070 b5 1e b7 b9 21 28 aa ba c7 74 c0 3c f5 8e b5 3c
       -0.00034927359 -0.001298193 0.023493184 0.022162894
000080 e9 4e db bc 5a c8 14 bc 3c e1 44 bc ee 60 c2 37
       -0.026771026 -0.009080971 -0.012016591 2.3171739e-05
000090 d8 87 d8 b9 b1 99 1a ba 87 ab 7d 3c c2 a1 9e ba
       -0.00041299942 -0.00058975356 0.01548279 -0.0012102651
0000a0 bd a6 de b7 a0 cf 4c bc 38 86 61 bc 83 c6 e7 3a
       -2.6542106e-05 -0.0125006735 -0.01376491 0.0017683062
0000b0 c9 3a 6c bc ce 14 26 39 b6 6e a9 3b 40 b1 52 39
       -0.014418312 0.00015838744 0.0051706685 0.00020093191
0000c0 6a 32 94 3a 16 0d 0c bc 44 19 41 3b 4b 1e ef 3b
       0.0011306528 -0.008548042 0.0029464522 0.0072973124
0000d0 74 7a 10 3a cb 84 91 bb 28 e1 f9 bb e0 24 7f 39
       0.0005511411 -0.004440879 -0.0076257177 0.00024332432
0000e0 b9 59 0b 39 cd 04 af 3b b8 4e 1e ba 95 80 66 b8
       0.00013289497 0.0053411485 -0.00060389517 -5.4956025e-05
0000f0 69 36 64 3c 31 91 24 bb 72 87 91 b9 2e bf 7b 3c
       0.013928988 -0.0025110955 -0.0002775747 0.015365405

weight f4 [64]
000000 d4 72 bb 3e 7e c1 1c 3e 4f 87 04 3e c0 53 b0 3d
       0.36611044 0.15308186 0.12942241 0.08609724
000010 b0 f6 8d 3d cc df 03 3e b2 b3 5b 3d 1c ef 86 3e
       0.069318175 0.1287834 0.053638168 0.263543
000020 71 ab 95 3d 85 43 0a 3e d2 16 97 3d 94 81 2f 3e
       0.073080905 0.13502319 0.073773995 0.17139274
000030 17 2e 8d 3e 8d 63 92 3d 13 e5 dc 3d 5b 44 51 3e
       0.27574226 0.07147894 0.1078588 0.20436232
000040 6f 03 c4 3e 16 b6 a7 3d 4d 66 97 3e e4 92 73 3e
       0.3828387 0.08189027 0.29570237 0.23786503
000050 d4 8b 04 3e 62 14 2a 3e 3e 0d 57 3d 54 df 7e 3d
       0.12943965 0.16609338 0.052502863 0.0622247
000060 9c 14 48 3e bf e7 aa 3d 4b 2e 50 3e 0b bc b2 3d
       0.19539112 0.08344983 0.2033016 0.087272726
000070 48 ed f8 3d 1d 08 a6 3d 2a 75 41 3e 5f 58 a5 3e
       0.12154633 0.08107016 0.18892351 0.32293984
000080 a6 3d 41 3e d9 fd 1d 3e 88 1b 13 3e e1 c6 bd 3d
       0.18871173 0.15428866 0.14365971 0.09266449
000090 2f 6b c5 3d 15 48 a5 3d 92 c1 7f 3e a6 ae f0 3d
       0.09639584 0.08070389 0.24976185 0.117520615
0000a0 b6 b8 18 3e d9 bb 18 3e 74 a3 1b 3e 3d fa d8 3d
       0.14914212 0.14915408 0.15199071 0.10594604
0000b0 27 3b 32 3e 68 0a bd 3d 75 a5 6d 3e 4c ba 76 3d
       0.17405377 0.092305005 0.23207648 0.06023626
0000c0 a2 a1 84 3e fe ab 80 3e c4 85 5b 3e 30 17 50 3e
       0.25904566 0.2513122 0.21437746 0.20321345
0000d0 bf 0d 9a 3d 2a e3 59 3e 75 ad 3d 3e 39 3e d4 3d
       0.07522153 0.21278062 0.185232 0.103634305
0000e0 82 90 ca 3d c4 ff 67 3d 96 41 a5 3d 12 00 de 3d
       0.09890844 0.0566404 0.0806915 0.10839857
0000f0 fb 93 ad 3e 73 98 9f 3e 61 c4 92 3d 1c 42 4b 3e
       0.33901963 0.31170997 0.071663626 0.19849437

bias f4 [64]
000000 a7 79 8e bc 67 c0 a6 3c 6b ea 5e bd 67 9b b7 bc
       -0.017391993 0.020355416 -0.054422777 -0.022412969
000010 c3 33 8e bd 31 7f 82 bc c1 ab 8b bd 05 fa 37 3b
       -0.069434665 -0.01592979 -0.06819869 0.0028072607
000020 ce a8 5c bd 96 2b 86 bd 11 c8 58 bd 79 40 82 3d
       -0.053871922 -0.06551282 -0.052925173 0.063599534
000030 26 1c ed 3d 9a 87 4a bd f8 b1 6f bd d6 96 89 3c
       0.115776345 -0.049445726 -0.058519334 0.016795557
000040 5a 90 00 3e d6 b6 c1 3c 35 c9 42 3d 4b a4 05 3e
       0.12555066 0.023646753 0.047555167 0.13050954
000050 ce 35 66 bd 5d 54 99 3d 86 f4 1a bd 29 23 43 bd
       -0.056203656 0.07486794 -0.037830852 -0.047640953
000060 ee 69 6a 3d cc 2b 89 bd 06 28 f1 3c 8b 19 8d bd
       0.05722993 -0.06697807 0.02943803 -0.068896376
000070 91 73 8b bd 55 ce 2a bd 3d 4f f1 bb e8 9c 93 3d
       -0.06809152 -0.04170068 -0.0073641823 0.07207662
000080 b2 11 da 3d 73 93 e0 bc 27 42 c6 ba 69 af 73 bd
       0.10647906 -0.02741406 -0.0015125916 -0.059493456
000090 63 64 68 bd c5 b9 5e bd 20 2c f2 3d e8 33 78 bd
       -0.05673636 -0.054376382 0.118248224 -0.060596377
0000a0 12 de 5d bd 9e 67 95 3d 54 89 d9 3d 03 47 32 bd
       -0.05416686 0.07295154 0.106218964 -0.043524753
0000b0 64 84 6f 3d 28 1b 83 bd 8c df ee 3d 84 e0 22 bd
       0.058475867 -0.06401664 0.11663732 -0.039764896
0000c0 54 ba e1 3d 11 0f 44 3d c4 60 07 3e 46 4a ac 3d
       0.110218674 0.04786593 0.13220507 0.08412604
0000d0 70 97 62 bd 3c 82 b3 3d 44 d5 5f bd ce 9f 61 bd
       -0.055320203 0.087650746 -0.054646745 -0.055084042
0000e0 19 94 89 bd 57 1f 53 bd 3d f2 a2 bd db af 69 bd
       -0.067177005 -0.05154356 -0.079563595 -0.057052474
0000f0 75 a3 ec 3d d6 df 96 3d 73 77 ad bd 42 7c 4c 3d
       0.115546145 0.07366912 -0.08470049 0.04992319

running_mean f4 [64]
000000 06 a3 ad 3d 48 51 83 3d be 51 9f bd 22 a2 15 3d
       0.0847836 0.064119875 -0.07779263 0.036531575
000010 66 2f 43 be 12 5e d6 bd f2 cd f8 bd 36 c3 2e bd
       -0.1906105 -0.10467161 -0.12148656 -0.042666636
000020 01 f2 5a bd ee 42 42 bd b4 d4 81 bd b3 7d a2 3c
       -0.05345345 -0.04742711 -0.06339398 0.019835329
000030 47 e3 de bc 1c fa 8c bd 42 38 61 bd 1b 56 d2 3d
       -0.027207984 -0.06883642 -0.054985292 0.102703296
000040 3c 3a 48 3d 1a 11 04 bd e9 ec ba bb d1 44 d7 3d
       0.04888366 -0.03224287 -0.0057045114 0.105111726
000050 c9 ac 6b bd 10 c8 d3 bb 43 7a c8 bd a7 1c 5d bd
       -0.057537828 -0.0064630583 -0.097889446 -0.053982403
000060 16 6f ac 3c 8b 2f 9f bd 0d e1 ab 3d a6 cb 80 bd
       0.021049064 -0.0777274 0.083925344 -0.06288843
000070 55 55 7c bd 91 af ca bc 09 34 bb 3c 71 78 b9 3d
       -0.061604816 -0.02474192 0.02285196 0.090561755
000080 9c 11 c3 bc 5f da c4 3e 80 0d 1d bc cc 95 ae bd
       -0.023812108 0.38447854 -0.009585738 -0.08524665
000090 e7 7d 88 bd 69 77 84 bd 16 e3 17 bd bf 58 8e bd
       -0.06664639 -0.06468088 -0.0370818 -0.06950521
0000a0 61 d4 b2 bd 0d a6 fd bc 55 62 01 3e 25 da cc 3d
       -0.08731914 -0.030962968 0.12635167 0.10002545
0000b0 fa dc c9 3d f1 77 c1 bd ff bf 1e 3e 4c 2b 1d bd
       0.09856601 -0.09446705 0.15502928 -0.03837137
0000c0 a7 9b 75 3b 95 0a 8d bd ef d9 e9 ba 45 b1 56 bc
       0.003747681 -0.06886784 -0.0017841439 -0.013103788
0000d0 96 60 03 be 67 57 5c 3d 8a 3d 4f ba 40 2a 6c bd
       -0.12829813 0.05379429 -0.00079055934 -0.05765748
0000e0 a1 ec f0 bd f6 e3 2e be 92 28 d4 bd 27 2f 7b bd
       -0.117638834 -0.17079148 -0.10359301 -0.061324265
0000f0 1a f6 72 3c fc cf 02 3d 4a 68 ee 3d 39 38 05 3d
       0.014829183 0.03193663 0.11640985 0.03252432

running_var f4 [64]
000000 cc 82 9f 3d d7 27 e9 3b cf a4 6c 3d ed e5 1a 3c
       0.077886194 0.007115345 0.05777436 0.009454233
000010 b0 da 13 3d 0a ce 04 3c 14 3f 61 3d 57 e2 ff 3c
       0.03609723 0.008105764 0.054991797 0.031235857
000020 8e 56 39 3d 7b 34 f4 3b 80 44 d0 3c 83 94 d6 3b
       0.04524856 0.007452545 0.025423288 0.0065484657
000030 87 ee 9d 3b 14 62 8f 3c 12 09 91 3d 98 03 ce 3c
       0.0048196944 0.017502822 0.07081808 0.025148198
000040 51 83 e7 3b 59 68 9f 3c 84 b8 bb 3b 7e 4e 5a 3c
       0.0070652147 0.019458937 0.005728783 0.013324378
000050 e3 28 65 3d 38 f0 ce 3b 64 56 0a 3d 2b 2c 15 3c
       0.055947196 0.0063152574 0.033773795 0.009104769
000060 8b 85 54 3b 95 63 3d 3d 44 32 0f 3c 66 e3 5c 3d
       0.003242823 0.046237547 0.008740012 0.0539278
000070 27 79 bf 3d db 41 91 3c 8f 7d 79 3b c1 22 e5 3b
       0.0934928 0.017731598 0.0038069224 0.0069926684
000080 31 20 a0 3b 95 90 cd 3c 92 a9 93 3b 23 9a 77 3d
       0.00488665 0.025093356 0.0045062983 0.06044973
000090 f8 b1 97 3d ae 59 a7 3c 4f 38 31 3c be f7 91 3d
       0.07406992 0.020428505 0.010816648 0.07127331
0000a0 07 be 6b 3d 30 d4 f4 3b ed f1 bb 3c 10 d9 da 3b
       0.05755427 0.007471584 0.022942508 0.006678708
0000b0 2b 43 fc 3c b3 6e 76 3d 84 03 c1 3c b1 3a 7c 3d
       0.030793747 0.060164165 0.023561247 0.06157941
0000c0 e5 9b 97 3b 27 f0 9f 3b 3a fc 8a 3b 4b 65 bb 3b
       0.0046267384 0.0048809233 0.0042414935 0.005718862
0000d0 51 9f c8 3c 9e e0 c9 3c 95 1f 0f 3c e5 1c 87 3c
       0.02449003 0.024643239 0.008735557 0.01649327
0000e0 57 e2 5e 3d 5d 8c 19 3d 5c 88 57 3c 54 ed 89 3d
       0.054415073 0.037487376 0.013155069 0.0673472
0000f0 96 b3 a3 3b f2 7e 20 3c 6a 52 84 3e 52 19 89 3b
       0.0049957735 0.009795891 0.25844127 0.0041839266

weight f4 [64, 67, 3, 3]
000000 4f 3f 21 3b 1b 3f 21 3b d7 40 21 3b db 43 21 3b
       0.0024604385 0.0024604264 0.0024605298 0.0024607095
000010 9f 41 21 3b 43 45 21 3b 34 40 21 3b e8 3f 21 3b
       0.0024605764 0.0024607934 0.0024604918 0.0024604741
000020 70 45 21 3b 0f 06 6b 3c 04 06 6b 3c 29 06 6b 3c
       0.0024608038 0.014344706 0.014344696 0.01434473
000030 0e 06 6b 3c fd 05 6b 3c 12 06 6b 3c 0b 06 6b 3c
       0.014344705 0.014344689 0.014344709 0.0143447025
000040 02 06 6b 3c 22 06 6b 3c 37 da 82 bc fa 57 34 bc
       0.014344694 0.014344724 -0.015973194 -0.011007303
000050 2f 5a c5 bb e2 cc 85 bc 32 22 3c bc 31 70 ca bb
       -0.0060227136 -0.016333047 -0.011482762 -0.006177925
000060 64 36 6f bc 9b 85 25 bc bc 32 aa bb e8 21 39 bc
       -0.01460037 -0.010102655 -0.0051940363 -0.011299588
000070 06 dd 86 3b c5 c7 22 bb be 62 0f bc 1b 34 24 3a
       0.0041157035 -0.002483831 -0.008751569 0.0006263868
000080 c4 ed be 3b b0 b3 a2 39 18 34 98 3c 81 13 5a 3c
       0.0058266837 0.00031032925 0.018579528 0.013310314
000090 73 60 ee bc 9f 9a 17 3b f4 ca 2e 3c 7f cd 0f bd
       -0.029098725 0.0023132933 0.010668505 -0.035108086
0000a0 03 59 c3 3c b1 38 c5 3c 10 d2 2e bd df 93 0b bb
       0.023846155 0.024074884 -0.0426808 -0.0021297855
0000b0 cc e1 12 bc bf 15 1d 3a 51 d8 0f 3c 60 d9 6f 3c
       -0.008964967 0.0005992315 0.008779601 0.014639229
0000c0 b9 e9 94 bb 3b 3d 3f ba aa 22 07 3a 7b 4d 15 3d
       -0.0045444635 -0.0007295196 0.00051550067 0.036450844
0000d0 07 7a 96 3c c8 4d 01 3d 58 12 af ba 97 0f 8c 3c
       0.018368734 0.03156832 -0.0013356907 0.017097278
0000e0 bf 6f 84 3c e5 71 d0 3b c7 1a 5b 3c 12 00 10 3c
       0.016166566 0.0063612335 0.013373083 0.008789079
0000f0 76 b2 3e 3d bc f6 03 3c 8e 27 fd 3c c7 c2 28 bc
       0.046556912 0.0080544315 0.03090265 -0.010300345
000100 a1 ef d6 bb ee 50 7a bb 1a b2 2d bb f6 09 8b bb
       -0.0065593277 -0.003819521 -0.0026503862 -0.004243131
000110 b7 24 6d bb 42 36 5d bb ef 7f c4 bb d3 2e d7 bb
       -0.0036185214 -0.0033754264 -0.005996696 -0.006566861
000120 16 53 0a bc 17 23 99 3c ef f8 c7 3b 9b 3f 95 3c
       -0.008442661 0.01869349 0.0061026732 0.018218806
000130 9e e8 be 3c 5f 61 e0 3c 92 6b 5d 3d 7e 22 ef 3c
       0.02330428 0.02739018 0.054057665 0.029191252
000140 0f 91 41 3d 7c fd 27 3d e1 62 20 3d b0 27 12 3d
       0.04725748 0.041013226 0.0391568 0.03568238
000150 69 87 14 3d c4 a2 0e 3d 49 08 d5 3c 60 44 86 3b
       0.03626195 0.034823194 0.026004927 0.0040975064
000160 fa 7d 94 bb 66 34 a2 3c d7 3a 3d bc 3e 8e 26 3b
       -0.004531619 0.019800376 -0.011549673 0.0025414373
000170 71 13 23 3a 47 be a6 bc b0 db 41 b8 ab f3 c0 3a
       0.00062208535 -0.020354403 -4.6219386e-05 0.0014721056
000180 19 a3 f1 3a e8 72 5a 3c b0 57 2b 3c d6 8c b7 3b
       0.0018435448 0.01333306 0.010457918 0.0056015057
000190 c9 a7 12 bc 26 3c d2 bb bc 0b cf 3c 0e 6e 88 3c
       -0.008951136 -0.0064158617 0.02527415 0.01665404
0001a0 4f 0b 80 3c 98 13 0a 3d 5b 05 07 3d a3 37 17 3d
       0.015630392 0.033710092 0.03296409 0.036918294
0001b0 f3 aa 93 3c 47 e5 20 3c 33 4c 04 3d 5e b6 af 3c
       0.01802585 0.009820289 0.03229923 0.021449264
0001c0 50 40 99 3c 6d da 65 3c b9 8d 3f 3d 1a 94 a6 b8
       0.018707424 0.014029128 0.046766017 -7.943083e-05
0001d0 97 47 3a 3c c2 26 75 3b af 86 7e ba dc 83 68 bb
       0.011369607 0.0037407135 -0.00097094005 -0.0035478985
0001e0 bb 0e 28 3b da a6 95 ba f2 27 3d bb 53 aa ce b8
       0.0025643546 -0.0011417523 -0.002886292 -9.854571e-05
0001f0 de b0 01 ba 1f a4 7d ba 8c 60 7a bc 72 7c f7 bb
       -0.0004947315 -0.000967564 -0.015281808 -0.007552677
000200 60 a7 17 bc c5 89 f1 3b 90 45 35 3c 5d 66 ff bb
       -0.009256214 0.0073711597 0.011063948 -0.007794185
000210 41 73 f4 3c 05 07 9e bc 11 fe 64 bd 43 41 76 3c
       0.029840114 -0.019290457 -0.05590636 0.015030208
000220 f0 92 12 bd 0b 8d 1b bd b2 79 b6 3c c1 e8 88 3c
       -0.03578466 -0.037976306 0.022274826 0.016712548
000230 a5 9e 44 bd 2d 35 8c 3c 9e f2 e3 3c 8e 78 ea bc
       -0.048002858 0.0171152 0.02782565 -0.028621938
000240 62 f5 44 3b ee af cd 3a b8 d2 a0 3b 51 c4 02 3c
       0.0030053486 0.001569269 0.004907932 0.007981376
000250 e2 f2 2b 3b e0 8b d8 3b 2e 2e 5b bb 33 5c 27 bc
       0.0026237299 0.0066084713 -0.0033444273 -0.010214853
000260 61 7b 5d 3b b9 35 e0 b9 72 64 5a 3b 44 6d a9 3a
       0.0033795463 -0.00042764636 0.003332403 0.001292624
000270 95 8f 57 3c f7 f4 54 3c 89 b0 fe 3b 30 df 0a 3d
       0.013156791 0.012997857 0.0077725095 0.033904254
000280 ce b0 e5 3c 83 00 08 3d 9a 17 3f bc 4b b7 58 3b
       0.028038409 0.033203613 -0.011663342 0.0033068235
000290 b9 72 52 3b e4 44 9c bc 0f 8b da 3a 49 c0 df 3b
       0.0032111837 -0.019075818 0.0016673523 0.006828342
0002a0 6c 63 02 3a 71 bd 90 3c e7 41 71 3c 2c 7a de 3c
       0.00049739215 0.017668458 0.014725185 0.027157865
0002b0 ea 9c 73 3d bd 51 75 3d 72 40 62 3c e7 7e cc 3b
       0.059475817 0.059892405 0.01380931 0.006240714
0002c0 8b 35 82 3c 7a 99 5e 3d 38 2b 1a ba 1c 6e 3f bd
       0.015894672 0.054345585 -0.0005881074 -0.046735868
0002d0 d7 dd 4a 3b f5 ef 8a bb 94 02 48 3a 5c 31 3f 3d
       0.003095498 -0.004240031 0.00076297787 0.046677932
0002e0 30 6d b8 3c 75 43 b3 3c 32 f9 99 3c 9a c0 e5 3c
       0.022513002 0.021882752 0.018795583 0.028045941
0002f0 20 f3 c7 3c ca e7 43 bc f3 55 0f bd 8a 60 b4 3a
       0.024407923 -0.011957118 -0.034994077 0.0013761681
000300 07 12 a6 bc 82 ae 18 bd ca c6 ba bc 13 ee 1e bc
       -0.020272268 -0.0372758 -0.022799868 -0.009700316
000310 71 d3 46 3c 20 4c a3 3c 57 f1 15 bd ce 1a 41 bc
       0.0121353725 0.01993376 -0.036607113 -0.011786176
000320 08 e8 0d ba 8b 52 2d bd b6 64 bd 3b ab 37 7c 3c
       -0.00054132985 -0.042315047 0.005779828 0.015394132
000330 61 94 4b bc 8e 9b 32 3c 00 55 8e 3a 17 40 04 3b
       -0.012425513 0.010901345 0.0010859072 0.0020179802
000340 b2 e1 fb 3b e2 93 76 3c a4 ab 79 bb 60 42 4d bb
       0.007686817 0.015049906 -0.003809669 -0.003132008
000350 f7 39 55 39 f2 74 20 3d 5f 35 f7 3c 2e 99 2b 3d
       0.00020334857 0.039174028 0.030176817 0.04189413
000360 71 5b 6d bd 6b b9 47 bc b4 43 d9 3b 8f fb 34 bd
       -0.057948533 -0.012190203 0.0066303853 -0.044185217
000370 74 3c da 3b 33 15 9b 3c 52 71 bc 3b 9b 75 0a 3d
       0.0066600386 0.018931007 0.0057508135 0.033803564
000380 04 b2 ed 3b 57 9f 84 3b f7 60 71 bb 6f ae eb bb
       0.007253887 0.004047315 -0.0036831477 -0.007192425
000390 b8 42 db 3c 26 85 ad 3c 75 89 81 3c 0f 23 de 3c
       0.026765212 0.021181654 0.015812615 0.027116327
0003a0 9e 15 da 3c 5f 0d f1 3c 4c 3e d5 bc db 19 50 3c
       0.026621636 0.029425321 -0.026030682 0.012701477
0003b0 09 a5 c5 3a 73 7d bc 3b 70 97 2c 3c 04 6b 56 bc
       0.0015079092 0.0057522594 0.010534152 -0.013087038
0003c0 41 49 07 3d 34 b5 5a 3c 67 89 a1 3c 65 b5 ef bc
       0.033028845 0.013348866 0.019718839 -0.0292613
0003d0 55 cd c9 bc 02 c1 55 bd 2e fc 11 bd ad 3f 1b bb
       -0.024634043 -0.05218602 -0.035640888 -0.0023689077
0003e0 c1 c6 38 3c 3e 99 a9 3c e7 98 99 bc a3 f9 2c bd
       0.011277855 0.020702954 -0.018749667 -0.04223026
0003f0 f7 74 0a bb 0b ea 48 3c 36 45 f8 3b 39 3c cd 3b
       -0.0021126845 0.012262831 0.00757661 0.0062632826

bias f4 [64]
000000 66 6f 35 ba 49 89 37 3b bc f5 07 bc df 4d 11 ba
       -0.0006921202 0.0028005412 -0.008298334 -0.0005542915
000010 c9 6a e1 39 ef 5c 38 39 01 62 ea 3a 5d 6c a8 3c
       0.00042994905 0.00017582228 0.0017881991 0.020559484
000020 6e 56 07 bc 12 ea b6 bb e8 bf 46 3b b4 0f 67 3a
       -0.008260353 -0.0055821026 0.0030326787 0.00088142906
000030 68 13 cb ba da af ba 3a a8 d8 86 3b e5 e6 bf b9
       -0.0015493454 0.0014243082 0.004115183 -0.0003660239
000040 09 6d 6b 3c 51 ac e6 3b be 4c 70 ba ae bc b8 bb
       0.014369258 0.0070395847 -0.0009166709 -0.0056377267
000050 d5 9e ab 3a 4e aa 28 ba 5e 8c 88 3b 37 94 6f 3b
       0.00130936 -0.0006434069 0.0041671237 0.0036556849
000060 ed 11 49 ba 87 6e 27 ba ca 49 27 bb 98 cd b2 b9
       -0.00076702127 -0.00063870143 -0.002552616 -0.00034103985
000070 c7 a3 e7 3b b1 3a 41 bb 39 db 5a bc b1 1d 7c 3b
       0.0070690843 -0.0029484446 -0.013357931 0.0038469846
000080 49 9e df 3a f6 18 f9 bb 16 5d d2 39 bf 38 2f 3b
       0.0017060722 -0.0076018525 0.00040123676 0.0026736704
000090 93 14 2d 39 ca 90 12 bc 47 5c a4 3c b2 04 f9 b6
       0.0001650623 -0.008945653 0.020063533 -7.421325e-06
0000a0 b7 00 91 3b 1f 17 34 bc 91 3b 9d 3a 88 a7 00 bc
       0.004425134 -0.010991841 0.0011995902 -0.007852443
0000b0 d7 7b 92 ba 20 26 ca 3a 23 d0 05 3c a3 5e 08 3a
       -0.0011175823 0.0015422739 0.008167299 0.000520209
0000c0 e2 1a bb 3a f4 7d 5c 3b 6c ec 42 3c c4 a5 29 39
       0.001427498 0.003364441 0.011897188 0.00016178848
0000d0 6e af ba b9 6b ea 49 bb 56 ed bb 3a c1 73 87 3a
       -0.0003560739 -0.003080989 0.0014337699 0.001033418
0000e0 68 c2 51 39 34 bf e5 bb 3a 01 5c 3a e2 3c 88 ba
       0.00020004215 -0.0070113186 0.0008392517 -0.0010394121
0000f0 df 29 bf ba 01 47 d1 ba 17 d0 c1 3a 4a 99 c9 bb
       -0.0014584622 -0.0015966595 0.0014786747 -0.0061523067

weight f4 [64]
000000 84 90 e5 3d cb e0 79 3e 75 cb 85 3e 41 33 d9 3d
       0.11209205 0.24402158 0.26131788 0.10605479
000010 06 38 ee 3d 74 3a 09 3e 1f a1 05 3e 2f 35 b4 3e
       0.116317794 0.13401204 0.13049744 0.35196826
000020 17 53 f0 3d 6a 19 92 3e 1f 4e ea 3e 8e 2c 17 3e
       0.11734598 0.28535014 0.45762727 0.1476309
000030 98 ec e5 3d ff 4f 4f 3e 4d 2f 5e 3e 7c 24 ec 3d
       0.11226767 0.2024536 0.21697731 0.11530396
000040 36 52 3d 3e 73 53 ab 3e b9 f6 e4 3d 1f 87 28 3e
       0.18488392 0.33462104 0.11179871 0.16457795
000050 a2 8b e3 3d f2 96 00 3e 6c 72 26 3e bf 8b d0 3d
       0.11110617 0.12557581 0.16254586 0.101829045
000060 f1 14 0e 3e 60 eb 98 3e 9a 95 4a 3e ea 92 e6 3d
       0.13875176 0.29867077 0.19783631 0.112584904
000070 d1 b2 94 3e a3 0a 7c 3e 37 c1 aa 3e bb 43 be 3e
       0.29042676 0.24613433 0.33350536 0.3716105
000080 53 53 dd 3d c3 bd 81 3e 1c 9f 08 3e 24 3a 74 3e
       0.108069085 0.2534009 0.13341945 0.23850304
000090 b9 03 06 3e a1 e6 84 3e 91 fc c6 3e 17 8d 61 3e
       0.13087358 0.25957206 0.38864568 0.22026478
0000a0 1b cc d0 3e 0c 45 77 3e 8d da d3 3d 9c 5e 66 3e
       0.4078072 0.24147433 0.1034442 0.22497028
0000b0 1b 53 39 3e dd 7d d5 3d 9b d0 b3 3e 58 0c 21 3e
       0.18098108 0.10424397 0.3512009 0.15727365
0000c0 47 95 24 3e fd 73 1e 3e 79 52 08 3e 3a 17 ed 3d
       0.1607257 0.15473934 0.13312711 0.11576696
0000d0 37 bb fe 3d 62 4f 2e 3e c8 13 01 3e b6 88 ac 3d
       0.12438052 0.1702247 0.12605202 0.08424513
0000e0 35 c5 aa 3d aa 39 82 3e 25 75 d7 3d bc 21 f6 3d
       0.083383955 0.2543462 0.105203904 0.12018153
0000f0 11 67 f6 3d 0d 6c 03 3e 20 75 38 3e e5 b3 00 3e
       0.12031377 0.12834187 0.1801343 0.12568624
