SND_trackers_My_data/9X0_file/14_9X0_coordconv_Label_Ve.pt (torch, 623547 bytes, 37 tensors)

weight f4 [32, 9, 3, 3]
-0.00076941686 0.008335113 -0.015835362 -0.0014721575 0.012460228 -0.0039870534 -0.026642855 -0.0017201297
0.0032755076 0.018282373 0.0019396679 -0.008330039 0.0002785325 0.01422752 0.029066257 -0.016512457
0.0027153697 0.029721128 -0.016649168 -0.015856313 -0.01962027 -0.02085157 -0.018685747 -0.01972963
-0.015762743 -0.022200383 -0.019207364 0.13294671 0.072629236 0.033903975 0.07761149 0.12971193
0.049324453 0.02443388 0.034753993 0.038682792 0.012521403 0.016137049 0.010432237 0.034555867
0.026146282 0.02318325 0.024220083 -0.0016535039 0.021994432 0.021494329 0.020591429 0.013853332
0.01704128 0.016507745 0.018589899 0.02126135 0.004480283 0.018658925 -0.03490629 0.058827095
-0.009589653 0.09909681 -0.0013095503 0.013321908 -0.01974891 -0.005709203 0.041375637 -0.00019099095
0.04613254 0.043842677 -0.026032595 0.0042936155 0.08864605 -0.02255191 0.043789685 0.00028911687
0.08524053 -0.010821539 0.11680781 -0.018815909 0.039267667 -0.008479539 0.050874446 0.012130575
0.069882035 0.023787132 0.009066803 0.00785446 0.017632857 0.010962585 0.016172156 0.006690137
0.024838824 0.017167775 0.015528732 0.006080892 -0.006975189 -0.0024399615 0.0017750063 0.0018315505
0.0074070464 0.014095857 -0.005507481 0.0030340103 0.00396053 0.0036526478 0.0059356187 0.004127835
0.006202232 0.0047603673 0.0031322069 0.0039157467 0.04002937 0.047305148 0.061671715 0.057207517
0.018872878 0.042719822 0.06937669 0.050721675 0.029481117 0.008977926 0.0046118526 0.036397688
0.048124734 0.0066530737 0.00800782 0.025081597 0.009868665 0.032279402 0.05255704 0.036315992
0.00742294 0.005429954 0.020551471 0.003257054 0.027115937 0.017289063 0.028789083 0.013019584
0.037538204 0.053547733 -0.009384899 0.03252127 0.009913042 -0.00020421563 0.029857956 0.04112745
0.060996816 0.041188654 0.0005416695 0.009099339 0.0057974523 0.0006322475 -0.01476329 0.053383738
0.008986051 0.034376148 0.059199736 0.021558175 0.056820493 0.005209288 0.045560528 0.02668933
0.048710804 -0.012502925 0.016007923 0.006835246 0.000826794 0.015570828 0.0013685741 -0.0071592405
0.019663636 0.01889056 0.02023615 0.0090728225 0.0047372356 0.013987257 -0.006110413 0.018091112
0.0060261614 0.011496299 -0.0044888407 0.019342877 -0.0079772435 0.00053839874 -0.0071413834 -0.0036026388
-0.0045564487 -0.0012589035 -0.004333004 -0.0023479084 -0.004889789 0.040533196 0.042862076 0.015403874
0.056851123 0.077045344 0.037292354 0.051219877 0.08221631 0.028379109 0.016405627 0.009193392
0.037622947 0.02701593 0.018666508 0.016327158 0.024953727 0.0095298225 0.027017983 0.03247799
0.023260586 0.03820955 0.008390972 0.027171237 0.008812275 0.002485692 -0.0029652945 0.036389183
-0.0030620846 0.022221552 0.020784171 0.03178028 0.039136846 0.013421178 0.027071016 0.04645257
0.0064636213 0.011433219 0.016039036 -0.0071455566 0.038288288 0.05493019 0.021403586 -0.010419545
0.02155777 0.0065685757 0.022280965 0.025449298 0.044535395 -0.0064756395 0.026623532 0.060416397
0.054811858 0.012385148 0.028249467 0.055583388 -0.066352226 0.009442508 0.039531436 -0.053123824
0.025318068 -0.047913022 0.0292933 0.028621241 0.023085682 -0.061200224 0.05649355 -0.04042505
00000000: b1b2 49ba ff8f 083c 29b9 81bc 69f5 c0ba
00000010: fc25 4c3c d4a5 82bb 1e42 dabc fa75 e1ba
00000020: e6a9 563b eac4 953c 743c fe3a b77a 08bc
00000030: 0008 9239 8b1a 693c 5c1c ee3c 2245 87bc
00000040: 58f4 313b b979 f33c d663 88bc 19e5 81bc
00000050: b0ba a0bc e9d0 aabc da12 99bc 08a0 a1bc
00000060: de20 81bc 94dd b5bc c358 9dbc 2f23 083e
00000070: a3be 943d e5de 0a3d c6f2 9e3d 34d3 043e
00000080: 7008 4a3d 8f29 c83c 345a 0e3d d971 1e3d
00000090: 9226 4d3c d831 843c f9eb 2a3c 748a 0d3d
000000a0: ba30 d63c cdea bd3c 3269 c63c 62ba d8ba
000000b0: ab2d b43c e014 b03c 5baf a83c 16f9 623c
000000c0: 289a 8b3c 403b 873c d849 983c 482c ae3c
000000d0: 56cf 923b 9ada 983c e6f9 0ebd aef4 703d
000000e0: ec1d 1dbc 45f3 ca3d 37a5 abba 2244 5a3c
000000f0: 77c8 a1bc 4414 bbbb 8079 293d be44 48b9
00000100: 79f5 3c3d 6194 333d 4f42 d5bc 75b1 8c3b
00000110: 0f8c b53d c8be b8bc d05c 333d 9c94 9739
00000120: 9692 ae3d d34c 31bc ef38 ef3d d223 9abc
00000130: 22d7 203d c4ed 0abc b961 503d 52bf 463c
00000140: 501e 8f3d 3bdd c23c ee8c 143c feaf 003c
00000150: c872 903c 6a9c 333c 787b 843c f038 db3b
00000160: ca7a cb3c 6fa3 8c3c 396c 7e3c 3842 c73b
00000170: 2090 e4bb c3e7 1fbb 54a7 e83a a310 f03a
00000180: cfb6 f23b 4ff2 663c 1978 b4bb 3fd6 463b
00000190: 55c7 813b 4361 6f3b 947f c23b ca42 873b
000001a0: 183c cb3b dbfc 9b3b b645 4d3b aa4f 803b
000001b0: d6f5 233d 0bc3 413d 7b9b 7c3d 6e52 6a3d
000001c0: 4b9b 9a3c fbfa 2e3d 5e15 8e3d 88c1 4f3d
000001d0: 6282 f13c 2718 133c 061f 973b be15 153d
000001e0: 711e 453d 0702 da3b 3b33 033c ec77 cd3c
000001f0: 2eb0 213c 6837 043d 0d46 573d 14c0 143d
00000200: 223c f33b c1ed b13b 8f5b a83c 4c74 553b
00000210: 3e22 de3c cba1 8d3c 15d7 eb3c 1850 553c
00000220: a9c1 193d de54 5b3d 1fc3 19bc 0635 053d
00000230: 506a 223c b722 56b9 ac98 f43c 4275 283d
00000240: ccd7 793d 6fb5 283d d3fe 0d3a 6515 153c
00000250: 8ef8 bd3b 69bd 253a bae1 71bc e8a8 5a3d
00000260: 3b3a 133c 01ce 0c3d 6c7b 723d c59a b03c
00000270: 9bbc 683d adb2 aa3b ad9d 3a3d 95a3 da3c
00000280: fb84 473d 11d9 4cbc 0c23 833c 33fa df3b
00000290: 35bd 583a c91c 7f3c ba61 b33a 1098 eabb
000002a0: a215 a13c 60c0 9a3c 48c6 a53c 2da6 143c
000002b0: d03a 9b3b cf2a 653c dc39 c8bb d033 943c
000002c0: 1b77 c53b f95a 3c3c 2017 93bb f474 9e3c
000002d0: fcb2 02bc 5423 0d3a 4402 eabb 401a 6cbb
000002e0: 434e 95bb cb01 a5ba dffb 8dbb 5edf 19bb
000002f0: 863a a0bb 2306 263d 2590 2f3d 8860 7c3c
00000300: b9dc 683d f3c9 9d3d debf 183d efcb 513d
00000310: 0661 a83d 4e7b e83c 1865 863c e19f 163c
00000320: 851a 1a3d 8350 dd3c 81ea 983c 88c0 853c
00000330: c26b cc3c f922 1c3c d154 dd3c a407 053d
00000340: fc8c be3c 9e81 1c3d 4a7a 093c 3796 de3c
00000350: 5c61 103c fee6 223b 6355 42bb d30c 153d
00000360: 41ad 48bb f909 b63c 9143 aa3c 0a2c 023d
00000370: f54d 203d 80e4 5b3c 09c4 dd3c 0d45 3e3d
00000380: c9cc d33b 6552 3b3c 4c64 833c 4625 eabb
00000390: 2ed4 1c3d 7bfe 603d 9356 af3c bdb6 2abc
000003a0: ec99 b03c 353d d73b 9286 b63c 0c7b d03c
000003b0: bf6a 363d 9a31 d4bb 9819 da3c 2f77 773d
000003c0: 6682 603d 13eb 4a3c 6d6b e73c 68ab 633d
000003d0: ade3 87bd c0b4 1a3c b7eb 213d 5e98 59bd
000003e0: d667 cf3c 7240 44bd 81f8 ef3c 1877 ea3c
000003f0: 2f1e bd3c 16ad 7abd c865 673d bd94 25bd

bias f4 [32]
0.007894646 0.0035953803 0.0011184778 -0.011735803 0.035078894 0.007772406 0.01870332 0.00373118
-0.038685653 0.017187994 0.03057766 -0.009113334 -0.0056554596 0.006470652 -0.00039845434 0.007851702
0.002282254 -0.025719535 0.022240624 -0.0009740006 0.019818937 -0.008908351 -0.01837697 0.038068324
-0.024736319 -0.0053225704 0.0055765877 0.0018658355 -0.0055448804 0.042310197 0.0042955717 0.012680399
00000000: 8c58 013c 79a0 6b3b e399 923a 8747 40bc
00000010: e3ae 0f3d abaf fe3b b437 993c d086 743b
00000020: d974 1ebd d6cd 8c3c 007e fa3c 1850 15bc
00000030: 6f51 b9bb c307 d43b a3e7 d0b9 6da4 003c
00000040: de91 153b c6b1 d2bc f831 b63c 1354 7fba
00000050: 535b a23c 55f4 11bc 4d8b 96bc 88ed 1b3d
00000060: d2a3 cabc f568 aebb cfbb b63b 0d8f f43a
00000070: d4b1 b5bb 754d 2d3d dec1 8c3b 73c1 4f3c

weight f4 [32]
0.35635093 0.17341445 0.14775996 0.2749596 0.41204807 0.20119119 0.39734587 0.07730541
0.32851171 0.3358621 0.22667886 0.3597972 0.17953078 0.21311656 0.16182457 0.17575823
0.13205342 0.21389431 0.28422824 0.38030618 0.24780115 0.30220866 0.3710451 0.34991017
0.25670534 0.2190597 0.33106717 0.08554769 0.0769605 0.2952307 0.15052605 0.16260812
00000000: a173 b63e 8f93 313e 634e 173e 81c7 8c3e
00000010: f7f7 d23e 1005 4e3e eb70 cb3e 4c52 9e3d
00000020: b032 a83e 1ef6 ab3e 811e 683e 5737 b83e
00000030: ebd6 373e 3a3b 5a3e 57b5 253e f7f9 333e
00000040: 0339 073e 1c07 5b3e 5d86 913e 7eb7 c23e
00000050: 96bf 7d3e 18bb 9a3e a0f9 bd3e 6d27 b33e
00000060: e26e 833e 3051 603e a381 a93e a133 af3d
00000070: 779d 9d3d 7a28 973e 8023 1a3e be82 263e

bias f4 [32]
-0.20406504 -0.22215456 -0.21786433 -0.0018739233 0.035210196 -0.13229315 0.05654846 0.019864945
0.10877523 -0.13737613 -0.084102064 0.024274344 0.025026273 -0.09438088 -0.109625146 -0.010468489
-0.17767704 -0.0692473 -0.06435725 -0.34337613 -0.1226753 -0.017024355 0.05615441 0.031842396
0.09337089 -0.11537316 0.005522821 0.01440308 0.0032114745 0.025090089 -0.16583425 -0.121981606
00000000: 6df6 50be 7c7c 63be d417 5fbe 6f9e f5ba
00000010: 9138 103d db77 07be 5c9f 673d cfbb a23c
00000020: 8cc5 de3d 54ac 0cbe b43d acbd fdda c63c
00000030: e603 cd3c c34a c1bd 2683 e0bd 0684 2bbc
00000040: f8f0 35be 87d1 8dbd bccd 83bd ffce afbe
00000050: 303d fbbd a976 8bbc 2b02 663d 2c6d 023d
00000060: 3d39 bf3d c348 ecbd c8f8 b43b e5fa 6b3c
00000070: 9a77 523b bb89 cd3c 74d0 29be 7ed1 f9bd

running_mean f4 [32]
-0.071744986 0.03400905 -0.008031338 0.024128037 0.04752365 -0.028767515 0.035321813 -0.019429201
-0.040312912 0.02136887 -0.05410701 -0.024062244 0.019590622 0.008873918 -0.06317323 -0.073738396
-0.040294982 -0.08310964 -0.08620964 -0.009431082 0.012107565 0.07115844 -0.013716876 0.032552212
-0.011566033 -0.00862785 0.03545711 0.001898348 -0.041379146 0.010561878 -0.041284874 0.06091172
00000000: 09ef 92bd 134d 0b3d e095 03bc 29a8 c53c
00000010: 29a8 423d daa9 ebbc 9bad 103d fd29 9fbc
00000020: 271f 25bd c50d af3c 509f 5dbd 2f1e c5bc
00000030: 837c a03c e963 113c f760 81bd 2804 97bd
00000040: 5a0c 25bd 6335 aabd ae8e b0bd d384 1abc
00000050: cf5e 463c 84bb 913d bfbc 60bc 7855 053d
00000060: 757f 3dbc d35b 0dbc 793b 113d fdd1 f83a
00000070: 2e7d 29bd ba0b 2d3c 541a 29bd 917e 793d

running_var f4 [32]
0.08895822 0.09178127 0.08101313 0.041374005 0.03667202 0.028336054 0.012056695 0.012961809
0.006741823 0.040892262 0.0234374 0.052699804 0.041623373 0.024955196 0.04001955 0.013348404
0.042511884 0.040554862 0.0422472 0.19551542 0.03404868 0.06352321 0.008509351 0.041287463
0.007874938 0.01692465 0.041265927 0.032410674 0.05868084 0.11336997 0.07445681 0.012683057
00000000: ba2f b63d d2f7 bb3d 36ea a53d ca77 293d
00000010: 6635 163d 0321 e83c 7289 453c c45d 543c
00000020: 83ea dc3b a57e 273d caff bf3c c0db 573d
00000030: 457d 2a3d d76e cc3c 8aeb 233d 44b3 5a3c
00000040: f120 2e3d db1c 263d 660b 2d3d 3235 483e
00000050: a176 0b3d 7518 823d ce6a 0b3c 0b1d 293d
00000060: e205 013c 90a5 8a3c 7606 293d 0ec1 043d
00000070: 525b 703d 842e e83d d07c 983d 99cc 4f3c

weight f4 [32, 35, 3, 3]
-0.009695408 -0.010593507 -0.010670366 -0.009597293 -0.009223749 -0.009813027 -0.009400005 -0.010211669
-0.009289506 -0.0017088838 -0.0012896681 -0.00028123116 -0.001694703 -0.0011839081 0.00017530807 2.2761547e-05
-0.0019995933 -0.00091991463 -0.011265127 -0.011804603 -0.0124933375 -0.011440244 -0.011787616 -0.012465101
-0.011776001 -0.012343088 -0.012798034 -0.016771374 -0.018870661 -0.020009281 -0.00859098 -0.017515566
-0.028251104 -0.00050262746 0.0018108758 -0.018595831 -0.0022596295 -0.013471998 -0.016023885 -0.0056118877
-0.018628472 -0.013410419 -0.0017880514 -0.010166306 0.0026285837 -0.006587812 -0.012658249 -0.014686138
-0.011628266 -0.016966714 -0.009616202 0.0009879217 -0.0059509645 0.005273948 -0.020696413 0.0076029007
0.009389564 -0.0027086337 -0.028784681 0.00011238009 0.04889632 0.048251394 -0.00816366 -0.018660996
0.007596012 0.005960254 0.026014548 -0.0020526953 -0.02144969 0.05680143 0.04320185 0.016091665
-0.012798288 -0.027425703 -0.021105492 -0.01219777 -0.026336398 -0.01376069 -0.014282813 -0.0025807905
-0.009226395 -0.0043852828 0.016260967 -0.01514059 0.030308953 -0.015103416 -0.022841815 0.079008296
0.027925797 0.015988661 -0.014412664 0.0015935253 -0.013110395 -0.0002387969 -0.045708492 -0.014883921
0.0023397491 -0.026655592 -0.014523914 -0.051216085 -0.04372662 -0.011118935 0.008506272 0.01064491
-0.026681738 0.0700924 0.06265195 -0.0058812154 -0.011382755 -0.014277451 -0.04166493 -0.035350177
-0.019349242 -0.03331359 -0.02924111 -0.039168496 -0.006033784 -0.0164386 -0.012324691 -0.022319747
-0.0298565 -0.033582106 -0.023713738 -0.014094627 -0.037184652 -0.018072084 0.020117464 0.017773092
0.029138738 -0.003786747 -0.00081227144 0.020531248 0.03471709 0.009250371 -0.010493658 -0.0064244485
0.019092223 0.017105224 -0.013295978 -0.021459527 -0.012081156 -0.010761858 -0.01233863 -0.007922583
-0.007864547 -0.01604457 -0.021432476 -0.014050409 -0.031000547 -0.013596036 -0.027534062 -0.022047846
-0.0020365315 -0.009614923 -0.023525055 -0.022865368 -0.00490659 -0.013547163 -0.010685067 0.008004367
0.013808508 0.009359701 0.01657357 -0.01342048 -0.017197425 -0.005713642 -0.0343113 0.0005984913
0.05903123 0.011640214 0.009942484 -0.00021216169 -0.0028667024 -0.016354164 -0.025912117 -0.020446409
-0.006456083 0.004235063 -0.0012656415 0.0046853707 -0.0018374096 -0.00781666 -0.032127205 0.0085411295
-0.017673766 -0.02910313 0.03133048 0.00867412 -0.010509529 -0.029005753 -0.029400714 -0.03661155
-0.028938511 -0.03719306 -0.043825615 -0.03293574 -0.041580874 -0.033731926 0.00042444954 -0.007567408
-0.01780263 -0.012514912 -0.01016719 -0.014342307 0.002177027 0.00026986707 0.0068982616 0.004549625
-0.003545013 -0.029344024 -0.0073220353 -0.009918669 -0.01900546 0.018622128 0.009457087 0.002355621
-0.014309895 -0.02520298 -0.040636506 -0.011502819 -0.023209995 -0.006281996 -0.0027437177 -0.01852967
-0.02250833 -0.06638006 -0.010293672 -0.008401723 0.04961261 0.0054084333 0.009239483 0.07320561
0.08506513 0.010878891 0.00080788083 0.026711244 -0.015319807 0.03094203 -0.017203929 -0.016251357
0.026916042 0.05790956 0.020160252 -0.033286314 0.004753137 0.003921704 -0.008961984 0.029509103
-0.003129385 0.071979634 0.043410685 -0.0075328164 0.0031716009 -0.010398033 -0.010238104 -0.017356953
00000000: 7dd9 1ebc 6490 2dbc c2d2 2ebc f73d 1dbc
00000010: 351f 17bc d2c6 20bc 7b02 1abc d84e 27bc
00000020: 0333 18bc a0fc dfba 150a a9ba 3572 93b9
00000030: cc20 deba 5d2d 9bba e7d2 3739 0df0 be37
00000040: 9c0b 03bb 6d26 71ba 5e91 38bc 1868 41bc
00000050: dbb0 4cbc dc6f 3bbc d820 41bc 6c3a 4cbc
00000060: 21f0 40bc aa3a 4abc d8ae 51bc 1f64 89bc
00000070: a596 9abc 81ea a3bc 2fc1 0cbc ce7c 8fbc
00000080: dc6e e7bc c2c2 03ba e95a ed3a 4956 98bc
00000090: 4b16 14bb a8b9 5cbc 8644 83bc ede3 b7bb
000000a0: bd9a 98bc 60b7 5bbc 0d5d eaba 9490 26bc
000000b0: 5144 2c3b 93de d7bb 8b64 4fbc 219e 70bc
000000c0: 7c84 3ebc c7fd 8abc 468d 1dbc 277d 813a
000000d0: 4f00 c3bb 15d1 ac3b 868b a9bc c121 f93b
000000e0: b0d6 193c 5583 31bb dacd ebbc 9aad eb38
000000f0: 8247 483d 41a3 453d dfc0 05bc f2de 98bc
00000100: f8e7 f83b 3c4e c33b 761c d53c 8386 06bb
00000110: 43b7 afbc 9ea8 683d 6cf4 303d abd2 833c
00000120: e9af 51bc deab e0bc 6de5 acbc 28d9 47bc
00000130: 6ebf d7bc 8474 61bc 7602 6abc 7b22 29bb
00000140: 4e2a 17bc 6bb2 8fbb b835 853c 3d10 78bc
00000150: 7b4a f83c 5174 77bc c21e bbbc 1acf a13d
00000160: a4c4 e43c a7fa 823c 1823 6cbc d6dd d03a
00000170: fbcc 56bc 8e65 7ab9 d438 3bbd b0db 73bc
00000180: 7a56 193b d45c dabc b6f5 6dbc f5c7 51bd
00000190: af1a 33bd 322c 36bc e45d 0b3c fd67 2e3c
000001a0: a993 dabc 9b8c 8f3d aa4f 803d 36b7 c0bb
000001b0: bc7e 3abc f8eb 69bc d8a8 2abd 59cb 10bd
000001c0: 4d82 9ebc d573 08bd 0d8b efbc 256f 20bd
000001d0: 0cb7 c5bb 3eaa 86bc 80ed 49bc e7d7 b6bc
000001e0: 9e95 f4bc 648d 09bd 5043 c2bc 27ed 66bc
000001f0: ef4e 18bd e80b 94bc 61cd a43c e098 913c
00000200: 5db4 ee3c 132b 78bb 9dee 54ba 2631 a83c
00000210: 8233 0e3d de8e 173c 97ed 2bbc 2e84 d2bb
00000220: 4b67 9c3c 4120 8c3c 60d7 59bc e4cb afbc
00000230: 0af0 45bc 8152 30bc f727 4abc b9cd 01bc
00000240: 4dda 00bc e76f 83bc 2993 afbc b033 66bc
00000250: dcf4 fdbc e8c1 5ebc 1d8f e1bc af9d b4bc
00000260: 5477 05bb e987 1dbc 9eb7 c0bc 2750 bbbc
00000270: 76c7 a0bb ecf4 5dbc 6b10 2fbc c024 033c
00000280: 153d 623c 6e59 193c 4cc5 873c 93e1 5bbc
00000290: 9de1 8cbc 8139 bbbb 018a 0cbd 12e4 1c3a
000002a0: bbca 713d 99b6 3e3c cde5 223c b877 5eb9
000002b0: 49df 3bbb 2bf9 85bc a645 d4bc 3a7f a7bc
000002c0: 8d8d d3bb 49c6 8a3b e2e3 a5ba bd87 993b
000002d0: 3cd5 f0ba 7311 00bc d197 03bd 18f0 0b3c
000002e0: 93c8 90bc b069 eebc 6454 003d e51d 0e3c
000002f0: 2930 2cbc 799d edbc c4d9 f0bc fef5 15bd
00000300: 7510 edbc c057 18bd 7d82 33bd a0e7 06bd
00000310: b550 2abd 7d2a 0abd a788 de39 05f8 f7bb
00000320: d2d6 91bc 580b 4dbc 4994 26bc fffb 6abc
00000330: 74ac 0e3b f27c 8d39 d00a e23b 0515 953b
00000340: 7353 68bb e162 f0bc afed efbb ea81 22bc
00000350: 57b1 9bbc 6f8d 983c e6f1 1a3c c360 1a3b
00000360: 0d74 6abc 7b76 cebc 7772 26bd 5276 3cbc
00000370: e322 bebc 34d9 cdbb f2cf 33bb 89cb 97bc
00000380: 6463 b8bc 45f2 87bd caa6 28bc 61a7 09bc
00000390: 9836 4b3d 3a39 b13b 3361 173c d3ec 953d
000003a0: a036 ae3d 603d 323c f7c7 533a 8ad1 da3c
000003b0: eeff 7abc 247a fd3c 41ef 8cbc 9121 85bc
000003c0: 087f dc3c 9332 6d3d 1d27 a53c 3b57 08bd
000003d0: 34c0 9b3b a381 803b 49d5 12bc 13bd f13c
000003e0: 5e16 4dbb 0f6a 933d 67cf 313d d8d5 f6bb
000003f0: a2da 4f3b 835c 2abc b8bd 27bc 2b30 8ebc

bias f4 [32]
-0.0008395587 0.031123854 0.020639027 0.0026757615 -0.007969008 0.011140053 -0.005948656 0.0009883647
-0.018319976 -0.036907583 -0.026158962 -0.00022640229 -0.0028435548 -0.00021890835 0.0021151463 0.003742499
-0.034664534 0.0012128324 -0.00015988236 3.1081156e-05 0.02342113 -0.0036311008 -0.007520851 -0.0017150822
4.329576e-06 -0.0059943544 -0.0030479291 -0.00021244209 -0.03728057 -3.2616506e-05 -0.0063197194 0.0016963176
00000000: d515 5cba 74f7 fe3c 2d13 a93c d45b 2f3b
00000010: 7190 02bc c584 363c f1ec c2bb 048c 813a
00000020: c613 96bc 682c 17bd 524b d6bc 6766 6db9
00000030: ef5a 3abb c38a 65b9 449e 0a3b b744 753b
00000040: 66fc 0dbd e7f7 9e3a 18a6 27b9 235d 0238
00000050: abdd bf3c c3f7 6dbb 7971 f6bb 9ccc e0ba
00000060: c646 9136 4a6c c4bb c4bf 47bb fdc2 5eb9
00000070: 83b3 18bd b5cd 08b8 a615 cfbb f956 de3a

weight f4 [32]
0.19222994 0.33602393 0.2849265 0.14851062 0.22023407 0.44524798 0.24060261 0.15871768
0.21403839 0.42034099 0.19263484 0.19795482 0.18659128 0.16009332 0.22652207 0.11172578
0.3190519 0.09904089 0.04711891 0.049471427 0.32588878 0.19225986 0.1664145 0.16894394
0.10557458 0.115065955 0.1630223 0.120558076 0.29155454 0.13006738 0.44432044 0.10023577
00000000: edd7 443e 540b ac3e e3e1 913e 2b13 183e
00000010: 0a85 613e 8bf7 e33e 8860 763e e386 223e
00000020: e12c 5b3e ef36 d73e 1142 453e abb4 4a3e
00000030: c911 3f3e 81ef 233e 67f5 673e 7cd0 e43d
00000040: c55a a33e f3d5 ca3d c2ff 403d 8da2 4a3d
00000050: e5da a63e c5df 443e 9068 2a3e a4ff 2c3e
00000060: 7c37 d83d b3a7 eb3d 51ef 263e 27e7 f63d
00000070: a346 953e 6230 053e f87d e33e 6948 cd3d

bias f4 [32]
-0.08193003 0.10332539 0.08603478 -0.08233867 0.08493862 0.13245083 0.10167328 -0.08127874
0.07858639 0.12639941 0.023246672 -0.10728796 -0.08833975 -0.07612048 0.05230873 -0.052472662
0.08719049 -0.040617537 -0.029292291 -0.06999475 0.1162407 -0.07765261 -0.03136679 -0.06795834
-0.032741833 -0.04297766 -0.07850687 -0.0991664 0.08761567 -0.036043473 0.12838732 0.104001835
00000000: eeca a7bd 439c d33d 0133 b03d 2da1 a8bd
00000010: 4df4 ad3d 31a1 073e 153a d03d 7875 a6bd
00000020: e7f1 a03d d96e 013e ce6f be3c cab9 dbbd
00000030: 79eb b4bd 0ee5 9bbd ae41 563d 93ed 56bd
00000040: ed90 b23d 935e 26bd 63f6 efbc 6859 8fbd
00000050: 9b0f ee3d 5508 9fbd 777a 00bd be2d 8bbd
00000060: 4d1c 06bd 5809 30bd 36c8 a0bd c117 cbbd
00000070: d86f b33d 52a2 13bd f777 033e eafe d43d

running_mean f4 [32]
-0.035143893 0.07324925 0.066380374 -0.1269617 0.03891379 0.07043904 0.031196635 -0.069052994
0.0049471715 0.010200373 -0.012596618 -0.027607238 -0.03641123 -0.060845517 -0.031352565 -0.039161026
-0.034482043 -0.017607631 -0.25794137 -0.077732354 0.05684473 -0.031857613 -0.08705718 -0.06933667
-0.028138686 -0.041548766 -0.07517395 -0.09000449 -0.041784063 -0.03256412 0.069012366 -0.05626529
00000000: 0bf3 0fbd b403 963d 6ff2 873d 3f02 02be
00000010: 1164 1f3d 5842 903d 1690 ff3c a86b 8dbd
00000020: e21b a23b 771f 273c 0c62 4ebc 9328 e2bc
00000030: f123 15bd 2639 79bd 8c6b 00bd 5067 20bd
00000040: 0b3d 0dbd e13d 90bc e410 84be 2432 9fbd
00000050: 05d6 683d 217d 02bd 094b b2bd 6200 8ebd
00000060: 1a83 e6bc 0a2f 2abd cdf4 99bd 4654 b8bd
00000070: c425 2bbd f461 05bd 5b56 8d3d 6f76 66bd

running_var f4 [32]
0.03025563 0.018573746 0.023022383 0.14339742 0.021519506 0.025779035 0.01999425 0.21414767
0.010666569 0.021517202 0.015125651 0.04519067 0.04636234 0.05818271 0.0066620857 0.03309829
0.012883414 0.06330103 0.19459893 0.06632801 0.0191397 0.1418567 0.021869345 0.16716404
0.013786532 0.04257729 0.24963143 0.29852462 0.0075434935 0.29302156 0.022162009 0.16828516
00000000: a8da f73c f827 983c 7099 bc3c c6d6 123e
00000010: ad49 b03c 8e2e d33c fbca a33c 8749 5b3e
00000020: d5c2 2e3c d844 b03c 94d1 773c da19 393d
00000030: 70e6 3d3d fe50 6e3d a04d da3b 1392 073d
00000040: f414 533c f8a3 813d f144 473e fbd6 873d
00000050: dcca 9c3c e242 113e 5727 b33c 0d2d 2b3e
00000060: e8e0 613c 8665 2e3d 629f 7f3e 38d8 983e
00000070: 692f f73b ec06 963e 1a8d b53c f252 2c3e

weight f4 [64, 35, 3, 3]
0.0038649777 0.004001309 0.0039136414 0.0039900113 0.0039610984 0.004031866 0.004001042 0.0038220524
0.0038871577 -0.0025046861 -0.0024141201 -0.002496676 -0.002458667 -0.002394832 -0.0025286889 -0.0024908758
-0.002414937 -0.0024828215 0.03955086 0.04094491 0.042188182 0.03690891 0.038167853 0.0392989
0.0341469 0.035270024 0.03630273 -0.02805408 -0.023800287 0.0015234684 -0.024002183 -0.020741982
0.012432784 -0.015357546 -0.04934123 0.027505863 0.008451492 -0.008086174 -0.037833568 0.007802061
-0.019767394 -0.004040888 0.029237902 -0.012286831 0.021983393 0.00921579 -0.0069104275 -0.01702637
0.0013977216 -0.028197419 0.0142800035 0.0061051953 0.010087755 0.025134064 -0.010849405 0.009516602
0.002534595 -0.023604922 0.00089465996 -0.0105530685 -0.017118493 0.003932366 0.009650074 0.025254313
0.0073478925 -0.00034081558 0.00046693624 -0.007009185 -0.014628054 -0.013926683 0.019119827 -0.014629495
0.023422752 0.0062899743 -0.004396084 -0.0032015925 -0.021623973 1.5949041e-06 -0.0056577204 -0.0015301242
0.008644793 -0.014548386 -0.012080628 -0.025511116 0.028852543 0.015226444 0.00252353 0.04105507
0.025581902 0.04632294 -0.018027013 -0.005204385 -0.0056267753 -0.024533425 -0.003151824 -0.00068409636
-0.02251115 -0.011695581 0.022152526 0.02899076 -0.006406545 0.009031828 -0.0188606 -0.034637928
-1.2019103e-05 0.0009237068 -0.012495589 -0.0053246263 0.014292394 -0.004139018 -0.028324649 0.011477772
0.0012778884 0.005137745 0.02630069 0.00054328196 0.04343471 0.0054817717 0.024097405 -0.004829495
-0.0028241843 -0.0018422563 -0.03837241 -0.020467527 -0.037468847 0.0018331179 -0.009713057 0.021763662
-0.010541367 -0.024307825 -0.0057375934 -0.02301454 -0.044440143 -0.00089877803 0.0016931485 -0.014414906
0.0024404763 0.017633822 -0.016684817 -0.025988696 -0.0144872535 -0.006780316 -0.019627703 0.019620664
-0.024217868 0.022859238 -9.8718825e-05 -0.037835944 0.006055352 -0.008944885 -0.02243797 0.014503998
0.030537557 -0.013085887 0.026960632 0.024347955 0.00045593397 -0.02466286 -0.024154667 -0.013519999
0.032772843 -0.03687229 -0.030610554 0.02394534 0.007548159 -0.04001286 -0.027961465 -0.016052492
-0.0214646 -0.014199763 0.024342349 0.033207826 0.02333991 0.0049976255 0.050039448 0.07312186
0.091114186 0.08613216 0.026267098 0.14185421 0.004053711 0.0046253605 0.005609386 0.004839161
0.0055292253 0.007052981 0.0032532543 0.004868411 0.0040231184 -0.01636856 -5.9158992e-05 -0.006999636
-0.017444314 -0.0022665812 -0.012275202 -0.017944993 -0.009713345 0.0018471772 -0.01615011 0.006202183
0.01468376 -0.015685884 -0.037676793 -0.015406891 -0.0022297641 -0.017090995 0.01749464 -0.006927338
-0.021478722 -0.047860492 0.025077907 0.00535024 0.027300276 0.04351011 0.033854283 0.06875898
-0.02389047 0.012662949 -0.009407808 -0.039214265 -0.0058278637 -0.022262093 -0.033589706 0.0039542816
0.020719057 0.04373511 0.05119041 0.03721711 -0.006301921 0.00013487136 0.056174576 0.014116802
-0.047372833 0.06632723 -0.025278538 0.011771628 -0.0061599324 -0.035372775 -0.0024644306 -0.015027201
-0.028500387 -0.0075312494 0.010567399 0.0023415848 -0.002269123 0.0012680622 0.003702724 -0.002062999
0.0025967767 0.0028267447 0.0015751512 0.002724787 0.05442234 0.05663319 0.037736386 0.04773599
00000000: 914b 7d3b 6a1d 833b 013e 803b a4be 823b
00000010: 1acc 813b be1d 843b 2c1b 833b 667b 7a3b
00000020: afbf 7e3b a925 24bb 3736 1ebb 469f 23bb
00000030: 9621 21bb 9df2 1cbb 5cb8 25bb f63d 23bb
00000040: eb43 1ebb d5b6 22bb 1500 223d dab5 273d
00000050: 84cd 2c3d cc2d 173d e555 1c3d e2f7 203d
00000060: 9fdd 0b3d 4d77 103d 2cb2 143d acd1 e5bc
00000070: d2f8 c2bc 1eaf c73a 3aa0 c4bc 17eb a9bc
00000080: e0b2 4b3c 379e 7bbc 081a 4abd fa53 e13c
00000090: 2078 0a3c df7b 04bc 5ff7 1abd 6ea8 ff3b
000000a0: 3bef a1bc 6d69 84bb 5384 ef3c b44e 49bc
000000b0: 8416 b43c d3fd 163c de70 e2bb e37a 8bbc
000000c0: c133 b73a 46fe e6bc adf6 693c 170e c83b
000000d0: 1c47 253c f4e5 cd3c b4c1 31bc 86eb 1b3c
000000e0: 731b 263b 1c5f c1bc 9d87 6a3a c7e6 2cbc
000000f0: 153c 8cbc 14db 803b 581b 1e3c 22e2 ce3c
00000100: 97c6 f03b 7eaf b2b9 1fcf f439 4ead e5bb
00000110: 81aa 6fbc be2c 64bc 2fa1 9c3c 8db0 6fbc
00000120: 12e1 bf3c 211c ce3b 070d 90bb cfd1 51bb
00000130: c224 b1bc 7d10 d635 6664 b9bb 738e c8ba
00000140: e4a2 0d3c 5b5c 6ebc d4ed 45bc b0fc d0bc
00000150: 2b5c ec3c 5678 793c cf61 253b 5c29 283d
00000160: 2391 d13c 20bd 3d3d 63ad 93bc 8c89 aabb
00000170: d060 b8bb 52fa c8bc d58e 4ebb ee54 33ba
00000180: 4e69 b8bc d29e 3fbc 3779 b53c 087e ed3c
00000190: ffed d1bb 3bfa 133c 8c81 9abc 80e0 0dbd
000001a0: a8a5 49b7 ea24 723a 4dba 4cbc 347a aebb
000001b0: a52a 6a3c 99a0 87bb 1809 e8bc 440d 3c3c
000001c0: d27e a73a 875a a83b 8b74 d73c 096b 0e3a
000001d0: 98e8 313d 6fa0 b33b ec67 c53c be40 9ebb
000001e0: f315 39bb dd77 f1ba 632c 1dbd 84ab a7bc
000001f0: ef78 19bd 3b45 f03a 8423 1fbc b549 b23c
00000200: b3b5 2cbc 3421 c7bc 6c02 bcbb fd88 bcbc
00000210: de06 36bd f99b 6bba a3ec dd3a 7f2c 6cbc
00000220: 66f0 1f3b ce74 903c 99ae 88bc 3fe6 d4bc
00000230: f25b 6dbc 6a2d debb 47ca a0bc 84bb a03c
00000240: 8d64 c6bc 4c43 bb3c 4407 cfb8 ddf9 1abd
00000250: f96b c63b 918d 12bc d5cf b7bc 2da2 6d3c
00000260: e629 fa3c 3066 56bc 8bdc dc3c 5d75 c73c
00000270: 6c0a ef39 c409 cabc 02e0 c5bc fc82 5dbc
00000280: d13c 063d 6607 17bd fcc2 fabc 0529 c43c
00000290: 8c56 f73b 86e4 23bd 710f e5bc 8480 83bc
000002a0: 87d6 afbc 1fa6 68bc 9b69 c73c ee04 083d
000002b0: 5733 bf3c 1fc3 a33b 2af6 4c3d eac0 953d
000002c0: 139a ba3d 0f66 b03d 192e d73c 3b42 113e
000002d0: fed4 843b 5690 973b f1ce b73b d391 9e3b
000002e0: 812e b53b b11c e73b 8d34 553b 3187 9f3b
000002f0: 5dd4 833b 5c17 86bc 7c21 78b8 345d e5bb
00000300: 61e7 8ebc ec8a 14bb ee1d 49bc 6101 93bc
00000310: b924 1fbc fb1c f23a 3c4d 84bc af3b cb3b
00000320: 2794 703c af7f 80bc fb52 1abd 2f6d 7cbc
00000330: 3c21 12bb 6a02 8cbc eb50 8f3c b9fe e2bb
00000340: 25f4 afbc 5d09 44bd 2f70 cd3c 1151 af3b
00000350: d4a4 df3c a837 323d caaa 0a3d 82d1 8c3d
00000360: f2b5 c3bc 4278 4f3c 3523 1abc 239f 20bd
00000370: aaf7 bebb fe5e b6bc 5c95 09bd eb92 813b
00000380: 03bb a93c 9623 333d 09ad 513d f870 183d
00000390: 5880 cebb 416c 0d39 5017 663d 294a 673c
000003a0: 040a 42bd 92d6 873d f014 cfbc c9dd 403c
000003b0: 42d9 c9bb 0be3 10bd 4982 21bb a634 76bc
000003c0: a579 e9bc b3c8 f6bb e222 2d3c 4675 193b
000003d0: 91b5 14bb 1b35 a63a 66a9 723b 6133 07bb
000003e0: af2e 2a3b e840 393b 4e75 ce3a 5792 323b
000003f0: f6e9 5e3d 34f8 673d 7891 1a3d d086 433d

bias f4 [64]
-0.00050825725 -5.2589636e-05 -0.0203821 -0.005894623 -0.0008062221 -2.4255178e-05 -0.012028694 -0.0005420558
-0.027494242 0.003287671 0.00011898449 -0.0016389224 -0.011211526 -0.00047785116 0.0005278399 -0.0011021273
-0.0039123124 -0.00030601834 0.0004898354 0.0014645751 0.004169698 0.007851369 -0.0006489779 0.0008339995
-0.0022679658 -0.00318593 -0.0005272016 0.00032957608 -0.00011647918 -3.6895482e-05 0.0002459415 0.023664024
0.0022974603 -0.0030491936 -0.00059175794 0.026202537 -0.013210962 0.00037972344 -0.01146463 -0.001286868
0.02653676 0.010369237 -0.00027404082 -0.0070930663 0.0002505804 -0.018877456 -0.0034926478 -0.00021674678
0.0012431245 0.036015872 0.00037460923 -0.0019487841 0.014373305 0.0041803718 0.00024461187 -0.0057378737
0.030059414 -0.0030218703 -0.00012852786 0.0032329974 0.012055596 0.007502172 0.00066863943 0.04884344
00000000: 913c 05ba b193 5cb8 5df8 a6bc af27 c1bb
00000010: a658 53ba 9977 cbb7 0014 45bc c018 0eba
00000020: 9b3b e1bc f775 573b 5087 f938 1cd1 d6ba
00000030: 8cb0 37bc 1988 fab9 bc5e 0a3a 4175 90ba
00000040: db32 80bb 1671 a0b9 4c68 003a fcf6 bf3a
00000050: f6a1 883b 07a3 003c 2b20 2aba c2a0 5a3a
00000060: 27a2 14bb 09cb 50bb e733 0aba f4ca ac39
00000070: 4946 f4b8 39c0 1ab8 b6f1 8039 0edb c13c
00000080: fd90 163b fbd4 47bb 3420 1bba b4a6 d63c
00000090: ca72 58bc 9e15 c739 25d6 3bbc 20ac a8ba
000000a0: 9f63 d93c bbe3 293c 23ad 8fb9 f46c e8bb
000000b0: 5560 8339 e5a4 9abc e8e4 64bb 8546 63b9
000000c0: 56f0 a23a 6185 133d 3367 c439 586e ffba
000000d0: 037e 6b3c 80fb 883b 403f 8039 c604 bcbb
000000e0: 293f f63c 920a 46bb 6fc5 06b9 b2e0 533b
000000f0: d684 453c c8d4 f53b a247 2f3a 0f10 483d

weight f4 [64]
0.08243283 0.097477525 0.2926386 0.2219322 0.109500706 0.07130379 0.17010726 0.13586727
0.33798507 0.21138144 0.08549724 0.064262584 0.23526765 0.11949183 0.06746208 0.123701654
0.33708176 0.098934345 0.07976573 0.21630731 0.1468391 0.14397559 0.08162009 0.114158675
0.113648415 0.1265648 0.103035465 0.18221979 0.07297045 0.059560347 0.082057126 0.2995358
0.10520569 0.15940662 0.101965345 0.27743006 0.19749969 0.119799994 0.1886556 0.08313257
0.16680674 0.19185962 0.10310808 0.18136443 0.06376376 0.26434976 0.22038716 0.12053098
0.10676137 0.3450358 0.11395512 0.07628164 0.19803032 0.09146018 0.09837921 0.14292842
0.216975 0.2936505 0.023244873 0.31262442 0.1711052 0.18889217 0.07813745 0.33840156
00000000: 8bd2 a83d 4ca2 c73d bad4 953e 3242 633e
00000010: e841 e03d b907 923d 9930 2e3e ca20 0b3e
00000020: 610c ad3e 6074 583e 2d19 af3d 1a9c 833d
00000030: 01ea 703e 22b8 f43d 8f29 8a3d 4b57 fd3d
00000040: fb95 ac3e 179e ca3d 375c a33d aa7f 5d3e
00000050: fd5c 163e 566e 133e 6f28 a73d 06cc e93d
00000060: 80c0 e83d 349a 013e 4204 d33d d397 3a3e
00000070: 8871 953d 8df5 733d 910d a83d c25c 993e
00000080: 1576 d73d 7d3b 233e 35d3 d03d 500b 8e3e
00000090: 5c3d 4a3e b359 f53d ef2e 413e 6941 aa3d
000000a0: 63cf 2a3e d976 443e 542a d33d 99b7 393e
000000b0: 9396 823d da58 873e 2cad 613e f2d8 f63d
000000c0: b5a5 da3d 88a8 b03e 4d61 e93d 8c39 9c3d
000000d0: 76c8 4a3e 7a4f bb3d 0a7b c93d d45b 123e
000000e0: b22e 5e3e 5c59 963e 086c be3c 4f10 a03e
000000f0: 3436 2f3e f36c 413e 8706 a03d f842 ad3e

bias f4 [64]
-0.097192205 -0.06050141 0.079751305 0.031847503 -0.05882708 -0.053943597 0.10264121 -0.07703166
0.12020383 0.08083085 -0.030908069 -0.01373124 0.052119866 -0.06718051 -0.036806513 -0.05901903
0.0750254 -0.05552808 -0.05176588 0.12013867 0.063718975 0.099104315 -0.053192478 -0.06631504
-0.07824832 0.010526037 -0.042138413 -0.087110355 -0.054450743 -0.03928393 -0.055378538 0.08122661
0.012807996 -0.031215807 -0.06465975 0.04219238 0.0597071 -0.032526698 0.10392105 -0.060692463
0.12485894 0.11624567 -0.06412978 0.063226506 -0.065307915 0.0283318 0.0027798552 -0.06981813
-0.058235522 0.05743194 -0.0549286 -0.058464676 0.053303145 0.02246555 -0.062411923 0.016597692
0.039689254 -0.06716999 -0.021611944 0.16478929 0.05272409 0.111991204 -0.038023707 0.059961367
00000000: b50c c7bd 54d0 77bd a754 a33d 8772 023d
00000010: aaf4 70bd f6f3 5cbd 8e35 d23d c6c2 9dbd
00000020: 6d2d f63d a58a a53d eb32 fdbc fff8 60bc
00000030: a47b 553d ef95 89bd 6dc2 16bd f0bd 71bd
00000040: eba6 993d 6971 63bd 7608 54bd 430b f63d
00000050: 187f 823d 34f7 ca3d 5be0 59bd 2ed0 87bd
00000060: a840 a0bd 6675 2c3c 5499 2cbd ea66 b2bd
00000070: be07 5fbd 30e8 20bd 9bd4 62bd 235a a63d
00000080: a1d8 513c 4bb8 ffbc 556c 84bd ebd1 2c3d
00000090: 6f8f 743d b73a 05bd 8fd4 d43d a998 78bd
000000a0: 0bb6 ff3d 3612 ee3d 7956 83bd e67c 813d
000000b0: 28c0 85bd 1718 e83c 3b2e 363b cffc 8ebd
000000c0: 5f88 6ebd c13d 6b3d d0fc 60bd a878 6fbd
000000d0: 6654 5a3d ac09 b83c a5a3 7fbd e2f7 873c
000000e0: 3391 223d 6b90 89bd 880b b1bc 86be 283e
000000f0: 37f5 573d a55b e53d bfbe 1bbd 0d9a 753d

running_mean f4 [64]
0.2839724 -0.010103235 0.17082351 -0.034103893 -0.07989448 -0.066400535 -0.0092093805 0.02471272
-0.039168037 -0.03974444 -0.3150708 0.07554455 -0.02711713 -0.0423127 -0.07868349 -0.12832241
0.034629103 -0.044154175 -0.002767714 0.010059822 -0.01861449 0.036675084 -0.0920088 0.019891826
0.008670364 0.19127005 -0.0485028 -0.03212797 -0.06885051 -0.108650096 -0.041810494 0.08715874
-0.01972757 -0.07376849 0.019690093 0.056322165 0.16203639 -0.017852876 0.12728934 -0.058619812
0.07945068 0.05749083 0.009220162 0.07502287 -0.051349133 -0.023578728 0.14510323 0.016481109
-0.00026639126 0.07069294 0.34308553 -0.08430847 -0.00875782 0.01970953 0.0008865504 0.028465604
0.019826991 0.10731565 -0.050521795 -0.007721801 -0.0054735052 0.04276025 -0.120802574 0.11984803
00000000: d564 913e 0a88 25bc 5cec 2e3e 86b0 0bbd
00000010: b89f a3bd 01fd 87bd f1e2 16bc 5572 ca3c
00000020: aa6e 20bd 11cb 22bd f650 a1be 1ab7 9a3d
00000030: be24 debc 1550 2dbd cf24 a1bd f366 03be
00000040: 3fd7 0d3d 02db 34bd 8962 35bb f4d1 243c
00000050: 6a7d 98bc 9d38 163d 1c6f bcbd 2ff4 a23c
00000060: 240e 0e3c 4cdc 433e dfaa 46bd 9e98 03bd
00000070: 7f01 8dbd f183 debd 7b41 2bbd 4880 b23d
00000080: b69b a1bc ef13 97bd 1e4d a13c 12b2 663d
00000090: deec 253e 3240 92bc 2358 023e 541b 70bd
000000a0: 0ab7 a23d 817b 6b3d 2a10 173c 97a5 993d
000000b0: 7853 52bd 2d28 c1bc f195 143e 6403 873c
000000c0: 6eaa 8bb9 76c7 903d e8a8 af3e eba9 acbd
000000d0: f67c 0fbc e175 a13c 6467 683a b330 e93c
000000e0: 376c a23c 4fc8 db3d f1ef 4ebd 2907 fdbb
000000f0: 175b b3bb 5f25 2f3d 5767 f7bd e272 f53d

running_var f4 [64]
0.01793471 0.084188946 0.083368674 0.0054027596 0.027972696 0.06747696 0.009681127 0.10405041
0.004489516 0.0071987123 0.09947294 0.03501711 0.0053112605 0.09172699 0.053959936 0.010933504
0.0058257873 0.08716317 0.07369492 0.0051850453 0.008121069 0.020876985 0.014117778 0.08963425
0.0148461815 0.040263794 0.040412102 0.0684477 0.047327142 0.037095867 0.009164915 0.00588748
0.020463513 0.009384605 0.08468649 0.0053521427 0.051287 0.0050491453 0.015954861 0.015699096
0.019941077 0.0073615247 0.091874115 0.02166652 0.09770957 0.0055134627 0.06496035 0.09655027
0.010986582 0.0057957703 0.018839668 0.017976422 0.012884391 0.016685734 0.08459774 0.03910259
0.0049218405 0.06406247 0.06173482 0.005255938 0.0056325686 0.0053782114 0.04551548 0.0056408015
00000000: d0eb 923c 416b ac3d 32bd aa3d a209 b13b
00000010: ff26 e53c 5c31 8a3d 979d 1e3c 6218 d53d
00000020: ca1c 933b 2de3 eb3b 78b8 cb3d 1a6e 0f3d
00000030: 150a ae3b 5cdb bb3d 1805 5d3d 7122 333c
00000040: 3fe6 be3b 9b82 b23d 5ded 963d 50e7 a93b
00000050: 3b0e 053c 3606 ab3c 414e 673c 2992 b73d
00000060: 663d 733c a6eb 243d 2987 253d 4f2e 8c3d
00000070: 1bda 413d d6f1 173d 7128 163c c3eb c03b
00000080: 19a3 a73c e3c1 193c 1c70 ad3d 0761 af3b
00000090: 5112 523d 4d73 a53b c5b3 823c 649b 803c
000000a0: 785b a33c f238 f13b 7f28 bc3d fc7d b13c
000000b0: f41b c83d 47aa b43b ef09 853d 26bc c53d
000000c0: 1101 343c 72ea bd3b a655 9a3c 4a43 933c
000000d0: 0d19 533c 85b0 883c 9441 ad3d 0a2a 203d
000000e0: 6447 a13b 2f33 833d a7dd 7c3d 013a ac3b
000000f0: 6991 b83b b53b b03b 716e 3a3d 79d6 b83b

weight f4 [64, 67, 3, 3]
-0.0019799878 -0.001674186 -0.0016724961 -0.001562027 -0.0021352363 -0.0022593287 -0.0020875472 -0.0020546892
-0.0020748668 -0.0011248273 -0.00072952337 -0.0004575529 -0.0010724076 -0.0005320115 -0.00031770323 -0.00086176425
-0.00034908074 -0.00078766054 0.0064345985 0.0039214245 0.0023140498 0.007916812 0.005847322 0.0048969337
0.008258311 0.00783722 0.008407379 0.0062898034 -0.0050093145 -0.017056568 0.0011115662 0.021581523
-0.010761898 -0.025759669 -0.005524963 -0.012119747 0.00070071063 -0.014632272 -0.011604277 -0.0032167155
-0.0019543085 -0.00036131137 -0.0025770243 0.008101219 0.00083666807 -0.015590821 -0.005413959 -0.043939017
-0.0054271524 0.0010808501 -0.007052997 -0.0036043946 0.0037051297 -0.010140158 0.04369094 0.047429867
-0.029636066 0.003116247 0.014949166 -0.0121092945 -0.02202427 -0.014583985 -0.02452304 -0.0137028005
-0.013749791 -0.014063398 -0.008442922 -0.0031244643 -0.0040993127 -0.001198246 -0.0028884716 -0.0062049227
0.0019378677 -0.00950804 -0.009305757 -0.00042209518 0.0023509606 0.0014134883 -0.0032738575 0.01214894
0.0019288546 -0.034611244 0.017136628 -0.004935741 -0.014501573 0.0003074176 0.002224378 -0.018241378
0.006293037 -0.0044545042 -0.003242258 -0.013483413 -0.013624056 -0.0062262393 -0.002034596 -0.0013248174
-0.0053283176 0.00988506 -0.0015410772 0.064478986 -0.033407785 -0.012539174 0.022103664 -0.025843276
0.01014465 0.0070848726 -0.029804148 -0.0024297151 -0.02764751 0.050208237 -0.023831753 -0.0065785213
0.0044931346 -0.025068484 -0.015501006 0.0008409988 -0.02676741 -0.024383312 -0.02797822 -0.0052867793
-0.0053176093 0.001503982 0.007982042 0.0020337526 0.008923843 0.012839903 -0.0006314833 0.014072921
-0.016012084 -0.009183166 0.004167826 -0.004816284 0.0013768283 0.023830622 -0.0022990091 0.016418604
-0.069367684 -0.008577658 -0.0015783198 -0.015891956 -0.0075521125 0.00083584525 -0.005961543 -0.017125603
-0.0048701856 -0.01850268 -0.014411162 -0.006070001 -0.0036521424 -0.0026502854 -0.0041421023 0.0080336025
-2.632096e-05 4.209022e-05 -0.0051035183 -0.008580909 -0.005535757 0.007746848 -0.0027802652 -0.008246758
0.01546077 -0.004605772 0.01801155 0.00019083035 -0.00119732 -0.01711858 0.0059779924 0.0050997427
0.007975355 -0.00036160555 0.00095716596 -0.029817594 0.02738813 -0.022481907 -0.04092314 0.014808684
-0.0173252 -0.016093398 -0.008900631 -0.013272934 -0.0034957966 -0.017468583 -0.013206689 -0.004416766
-0.0018172308 -0.0015150285 -0.0032730787 0.0094313305 0.00036883453 0.0010099054 -0.0122563625 -0.011051428
-0.0047188452 0.00095877144 7.072021e-05 -0.0057181874 0.010090015 -0.00053540274 -0.058248773 0.029267818
-0.024055704 -0.060906928 -0.005451998 -0.029575396 -0.03925291 -0.0013422965 -0.021424653 -0.028793823
0.0016937853 -0.008499365 -0.0008333997 0.004724266 0.0015627065 -0.023496915 -0.011910336 -0.008453728
-0.006567507 0.012294628 -0.009414759 -0.00284283 0.005081178 0.0036058382 -0.0043542827 0.0073124846
-0.002154672 0.004703052 -0.004996077 -0.010165458 -0.011703301 0.002963742 -0.004421987 -0.006552834
0.0021249875 -0.008998863 -0.0021012228 -0.014885012 -0.013726153 -0.0045200996 -0.0025129975 -0.0005421406
-0.0038708008 0.008523939 -0.00081241096 -0.01184495 -0.025075518 0.0008328302 -0.020359235 0.003974939
-0.0077055357 -0.014096166 -0.014103358 -0.013717389 -0.031016555 -0.014721472 -0.04210088 -0.00707491
00000000: afc2 01bb 5c70 dbba a837 dbba eebc ccba
00000010: 52ef 0bbb 3f11 14bb 3bcf 08bb f7a7 06bb
00000020: 7dfa 07bb f16e 93ba 7c3d 3fba b6e3 efb9
00000030: 0790 8cba b076 0bba 6891 a6b9 05e8 61ba
00000040: d304 b7b9 017b 4eba 53d9 d23b 4b7f 803b
00000050: 50a7 173b 84b5 013c e49a bf3b 7576 a03b
00000060: de4d 073c af67 003c 1abf 093c b21a ce3b
00000070: 2d25 a4bb 37ba 8bbc f9b1 913a bccb b03c
00000080: ac52 30bc f105 d3bc c00a b5bb e791 46bc
00000090: e5af 373a 32bc 6fbc de1f 3ebc 88cf 52bb
000000a0: db13 00bb 646e bdb9 4be3 28bb faba 043c
000000b0: d853 5b3a a570 7fbc 9467 b1bb 66f9 33bd
000000c0: 41d6 b1bb 50ab 8d3a d41c e7bb b537 6cbb
000000d0: c3d1 723b e822 26bc 45f5 323d d245 423d
000000e0: 56c7 f2bc f339 4c3b 59ed 743c 1066 46bc
000000f0: 3e6c b4bc abf1 6ebc 8be4 c8bc b681 60bc
00000100: ce46 61bc 2b6a 66bc 2e54 0abc d0c3 4cbb
00000110: 8753 86bb 770e 9dba 834c 3dbb aa52 cbbb
00000120: 0d00 fe3a 9cc7 1bbc 2c77 18bc a84c ddb9
00000130: 9312 1a3b cc44 b93a 378e 56bb 590c 473c
00000140: 9fd1 fc3a 85c4 0dbd 1d62 8c3c ffbb a1bb
00000150: 0198 6dbc e42c a139 dfc6 113b f16e 95bc
00000160: d235 ce3b 17f7 91bb 107c 54bb 88e9 5cbc
00000170: 6f37 5fbc 7b05 ccbb db56 05bb 7fa5 adba
00000180: 2b99 aebb f2f4 213c f8fd c9ba 8f0d 843d
00000190: 9ad6 08bd 1c71 4dbc be12 b53c 47b5 d3bc
000001a0: bf35 263c 3828 e83b d427 f4bc db3b 1fbb
000001b0: 087d e2bc 27a7 4d3d cf3a c3bc a390 d7bb
000001c0: 253b 933b 6c5c cdbc eef7 7dbc 7976 5c3a
000001d0: 5447 dbbc 83bf c7bc 9432 e5bc b83c adbb
000001e0: 573f aebb 4321 c53a 1cc7 023c b548 053b
000001f0: 4f35 123c 755e 523c 208a 25ba 1c92 663c
00000200: c62b 83bc fd74 16bc 4292 883b ebd1 9dbb
00000210: b176 b43a 7038 c33c f9aa 16bb 4f80 863c
00000220: a510 8ebd 4e89 0cbc a0df ceba d92f 82bc
00000230: b677 f7bb a01c 5b3a 0c59 c3bb fe4a 8cbc
00000240: 1496 9fbb ef92 97bc cb1c 6cbc dce6 c6bb
00000250: c858 6fbb 69b0 2dbb 79ba 87bb 5f9f 033c
00000260: d5cb dcb7 088a 3038 6a3b a7bb f196 0cbc
00000270: 4c65 b5bb 45d9 fd3b 1c35 36bb 691d 07bc
00000280: 2b4f 7d3c 04ec 96bb f58c 933c a219 4839
00000290: 64ef 9cba 443c 8cbc 09e3 c33b be1b a73b
000002a0: 10ab 023c e095 bdb9 52ea 7a3a 0744 f4bc
000002b0: 125d e03c fa2b b8bc 069f 27bd 1fa0 723c
000002c0: 94ed 8dbc 4dd6 83bc f4d3 11bc b876 59bc
000002d0: bc19 65bb 461a 8fbc de60 58bc 85ba 90bb
000002e0: 2630 eeba ec93 c6ba 2681 56bb de85 1a3c
000002f0: 2260 c139 cd5e 843a e9ce 48bc 0c11 35bc
00000300: 8ba0 9abb 1056 7b3a a04f 9438 a25f bbbb
00000310: 9750 253c 455a 0cba 4496 6ebd 10c3 ef3c
00000320: 7810 c5bc 8b79 79bd ada6 b2bb 1a48 f2bc
00000330: a9c7 20bd ffef afba c182 afbc 06e1 ebbc
00000340: 0102 de3a ec40 0bbc 8278 5aba 04ce 9a3b
00000350: bbd3 cc3a 9a7c c0bc 9223 43bc 8181 0abc
00000360: 3e34 d7bb 686f 493c 5d40 1abc c64e 3abb
00000370: 0380 a63b ed4f 6c3b 5fae 8ebb 919d ef3b
00000380: 6635 0dbb 0f1c 9a3b 22b6 a3bb 058d 26bc
00000390: 34bf 3fbc 573b 423b 51e6 90bb 28b9 d6bb
000003a0: 6043 0b3b f86f 13bc abb4 09bb 44e0 73bc
000003b0: a9e3 60bc 581d 94bb 1ab1 24bb 711e 0eba
000003c0: 43ad 7dbb fea7 0b3c faf7 54ba 5211 42bc
000003d0: 2c6b cdbc 4a52 5a3a 69c8 a6bc 3540 823b
000003e0: b87e fcbb 9bf3 66bc c511 67bc e6be 60bc
000003f0: 6e16 febc 5432 71bc f971 2cbd a6d4 e7bb

bias f4 [64]
-0.001713336 7.7612196e-05 -0.0021036582 -0.00066378346 0.004687469 0.0035094633 0.008990724 0.0011001445
-0.005813258 0.0008427338 0.006749813 -0.004431044 -0.00094819744 -0.011843141 0.001820851 0.009539468
0.0035103846 0.00011349096 0.008305798 -0.013100778 -0.009085639 0.0018176931 -0.00056249846 -0.009644609
0.0019528692 -0.0010740834 0.0013886661 0.0051197307 -0.0011168094 0.0028619322 -0.00033290093 0.0024545914
0.0022604796 0.0002600998 0.0148303835 0.0062244735 0.006226574 -0.0010732572 -0.010813614 -0.0017451354
0.0049166856 0.003139712 -0.0038592585 0.00066474953 -0.0023228058 -0.003877531 -0.0021225314 -0.010589704
0.011864872 -0.003631452 -0.00712849 -0.021624293 0.010090503 0.0008730769 -0.0014173394 -0.001678663
0.00026531648 0.00015156955 -0.0058114417 -0.011305001 0.0034852957 -0.00055067113 0.00061740295 -0.00018822137
00000000: 0492 e0ba bbc3 a238 87dd 09bb c101 2eba
00000010: 5799 993b 06ff 653b d44d 133c b932 903a
00000020: 247d bebb e8ea 5c3a 892d dd3b 4b32 91bb
00000030: 7490 78ba bc09 42bc 9fa9 ee3a 6e4b 1c3c
00000040: 7b0e 663b ff01 ee38 0b15 083c a5a4 56bc
00000050: efdb 14bc a93f ee3a a274 13ba 6c04 1ebc
00000060: 6bf7 ff3a 42c8 8cba e703 b63a 6ac3 a73b
00000070: e861 92ba 418f 3b3b 3589 aeb9 36dd 203b
00000080: 8e24 143b 015e 8839 23fb 723c abf6 cb3b
00000090: 4a08 cc3b 89ac 8cba 962b 31bc 07bd e4ba
000000a0: 261c a13b a0c3 4d3b 9deb 7cbb 9642 2e3a
000000b0: 373a 18bb 2d1e 7ebb 2b1a 0bbb 7080 2dbc
000000c0: e164 423c a8fd 6dbb 1c96 e9bb 6e25 b1bc
000000d0: a352 253c 33df 643a 05c6 b9ba 9506 dcba
000000e0: 2d1a 8b39 a4ee 1e39 e86d bebb 9c38 39bc
000000f0: 8f69 643b ea5a 10ba 36d9 213a 4a5d 45b9

weight f4 [64]
0.10802071 0.1495367 0.21640368 0.03502158 0.11274821 0.1759684 0.30664766 0.18992312
0.15161042 0.14528431 0.13359372 0.17819503 0.15716346 0.22424173 0.32024622 0.27396947
0.19991425 0.085895784 0.2137235 0.24668597 0.27664915 0.1916581 0.1959023 0.2275649
0.07868971 0.12923172 0.08288024 0.28260884 0.075831816 0.12853849 0.15219294 0.12476257
0.23198286 0.123405665 0.21360159 0.2195782 0.30710563 0.11759165 0.534596 0.12426508
0.1485882 0.11054375 0.15592891 0.08053781 0.14707103 0.15958679 0.18369642 0.2746012
0.24534713 0.32642502 0.12716359 0.31142667 0.23664816 0.11048427 0.3861663 0.20059676
0.07889219 0.07088918 0.37719193 0.38348252 0.1852894 0.18546243 0.10639099 0.14913638
00000000: f639 dd3d 2620 193e ed98 5d3e ca72 0f3d
00000010: 89e8 e63d 0f31 343e ec00 9d3e 357b 423e
00000020: c33f 1b3e 69c5 143e cbcc 083e c278 363e
00000030: 75ef 203e a09f 653e 50f7 a33e ba45 8c3e
00000040: 52b6 4c3e 21ea af3d 55da 5a3e 3f9b 7c3e
00000050: f5a4 8d3e 0542 443e 9d9a 483e c606 693e
00000060: 1228 a13d 5255 043e 1ebd a93d 1bb2 903e
00000070: b64d 9b3d 989f 033e 77d8 1b3e 8583 ff3d
00000080: ea8c 6d3e 1cbc fc3d 60ba 5a3e 1cd9 603e
00000090: f33c 9d3e e4d3 f03d 49db 083f b17e fe3d
000000a0: 8127 183e c364 e23d d4ab 1f3e 02f1 a43d
000000b0: ca99 163e b86a 233e ea1a 3c3e 8798 8c3e
000000c0: 473c 7b3e 2e21 a73e 2c37 023e 5173 9f3e
000000d0: e553 723e 9445 e23d 97b7 c53e 3d69 4d3e
000000e0: 3a92 a13d 592e 913d 4d1f c13e d257 c43e
000000f0: 81bc 3d3e dde9 3d3e 85e3 d93d 35b7 183e

bias f4 [64]
-0.043916773 -0.06719339 -0.015423681 -0.04547907 -0.012029916 -0.035525028 0.052633714 -0.052428335
-0.08019295 -0.052292384 0.034842625 -0.06478027 -0.051557217 -0.042001534 -0.030029025 0.009485501
-0.034017928 -0.059543096 0.0066035753 0.019954354 0.06735275 -0.003540096 -0.026763016 -0.0428219
-0.03651698 -0.033453453 -0.045382023 -0.05406066 -0.05388746 -0.031056337 -0.061112456 -0.06838332
-0.063761696 -0.04043209 0.09578873 -0.04948744 0.013272295 -0.021798994 0.05770348 -0.036129784
-0.045569964 -0.051249914 0.037545793 -0.05517878 -0.054695096 -0.05618339 -0.060997084 0.040872056
-0.04123981 0.031935234 -0.030701762 -0.0013533663 -0.054041993 -0.051513422 0.03402482 -0.08413662
-0.050647702 -0.058960013 0.018847095 0.08657682 -0.03877607 -0.03773268 -0.037519604 -0.053216755
00000000: 13e2 33bd b09c 89bd 9bb3 7cbc 4348 3abd
00000010: 2019 45bc b182 11bd 7396 573d 18bf 56bd
00000020: 343c a4bd 8a30 56bd 24b7 0e3d 85ab 84bd
00000030: a92d 53bd cd09 2cbd 6eff f5bc 1369 1b3c
00000040: 6256 0bbd 76e3 73bd ce62 d83b 5077 a33c
00000050: 3df0 893d f500 68bb 1d3e dbbc 0466 2fbd
00000060: d492 15bd 7d06 09bd 80e2 39bd b66e 5dbd
00000070: 19b9 5cbd dc69 febc 0e51 7abd 8e0c 8cbd
00000080: 7e95 82bd 1f9c 25bd e22c c43d 58b3 4abd
00000090: 0a74 593c ce93 b2bc 7c5a 6c3d d3fc 13bd
000000a0: 92a7 3abd 6eeb 51bd 9ec9 193d 2503 62bd
000000b0: f707 60bd 8e20 66bd 14d8 79bd 7569 273d
000000c0: 13eb 28bd 85ce 023d 4382 fbbc 7063 b1ba
000000d0: 235b 5dbd bdff 52bd 9c5d 0b3d d24f acbd
000000e0: f773 4fbd 0e80 71bd 3965 9a3c 304f b13d
000000f0: a8d3 1ebd 958d 1abd 28ae 19bd d0f9 59bd

running_mean f4 [64]
-0.17115967 0.13026342 0.09619031 0.08421235 -0.06743827 0.010748192 0.0054309666 -0.07480483
-0.0661338 0.13734452 -0.050193034 -0.016377944 -0.10206966 -0.07393256 0.092857204 0.058522534
0.16811746 -0.1419302 -0.028533587 0.25753188 0.0036966377 -0.06309264 0.19009283 0.18006912
0.07224605 0.08821163 0.046496775 0.00286374 -0.1150654 -0.070836 0.17082717 -0.027093181
0.07638048 0.12723674 0.01078917 0.013985517 0.19309483 0.033303328 0.049779065 0.065116175
0.020584244 0.11584876 -0.0944624 0.1757739 -0.032654706 0.07980356 -0.037265092 0.14670928
-0.04532091 0.22176257 -0.027926903 0.08238047 0.08978782 0.0540131 0.03278816 -0.07201106
-0.22585946 -0.21026275 0.07488013 0.06237438 0.065069735 0.026882388 -0.15959924 0.048220728
00000000: 7b44 2fbe c663 053e 6dff c43d 8677 ac3d
00000010: 131d 8abd 2f19 303c 40f6 b13b 4633 99bd
00000020: 2871 87bd 0ba4 0c3e 3697 4dbd 0a2b 86bc
00000030: e609 d1bd f469 97bd eb2b be3d 53b5 6f3d
00000040: fc26 2c3e 2656 11be 45bf e9bc 38db 833e
00000050: 4a43 723b b736 81bd b2a7 423e 0a64 383e
00000060: bdf5 933d 4da8 b43d 6773 3e3d 96ad 3b3b
00000070: 69a7 ebbd 7712 91bd 51ed 2e3e 85f2 ddbc
00000080: 5e6d 9c3d 594a 023e 0fc5 303c 8323 653c
00000090: a7ba 453e 1269 083d 22e5 4b3d a15b 853d
000000a0: 4aa0 a83c 1d42 ed3d 8175 c1bd 13fe 333e
000000b0: f1c0 05bd 0d70 a33d 48a3 18bd f53a 163e
000000c0: 6ba2 39bd ba15 633e f6c6 e4bc 18b7 a83d
000000d0: ade2 b73d d73c 5d3d e14c 063d 897a 93bd
000000e0: b447 67be 1e4f 57be c15a 993d 477c 7f3d
000000f0: 4843 853d 7438 dc3c fc6d 23be 1983 453d

running_var f4 [64]
0.037063804 0.0760496 0.036605272 0.037929785 0.020448672 0.025518892 0.034973167 0.034349356
0.02339918 0.073232755 0.0629582 0.029001135 0.041918166 0.02556847 0.030048389 0.01760933
0.032101404 0.14702009 0.02054283 0.073578216 0.027254324 0.02533332 0.025956007 0.071874574
0.06548862 0.18852292 0.03195449 0.039569173 0.0578748 0.045180336 0.040474128 0.031940594
0.061869625 0.04692681 0.02534284 0.022776347 0.037074417 0.013414435 0.07008988 0.0882743
0.01914199 0.01983833 0.033552606 0.09231863 0.0356855 0.05309717 0.026180625 0.04929549
0.023203647 0.060794745 0.018141493 0.026225837 0.043241516 0.09769764 0.036645964 0.024620628
0.17629427 0.24127275 0.035465706 0.050054513 0.018815698 0.088975996 0.034605242 0.07746457
00000000: 37d0 173d e5bf 9b3d 69ef 153d 435c 1b3d
00000010: f983 a73c ff0c d13c 0640 0f3d e9b1 0c3d
00000020: a3af bf3c 0efb 953d 3bf0 803d ca93 ed3c
00000030: 62b2 2b3d f874 d13c 0a28 f63c 7141 903c
00000040: c37c 033d 6f8c 163e 7049 a83c 2db0 963d
00000050: 7644 df3c d387 cf3c b1a1 d43c fa32 933d
00000060: e61e 863d 270c 413e b6e2 023d 4913 223d
00000070: 200e 6d3d 040f 393d 33c8 253d 24d4 023d
00000080: 016b 7d3d 5436 403d ca9b cf3c 7695 ba3c
00000090: 58db 173d 38c8 5b3c 488b 8f3d 28c9 b43d
000000a0: aacf 9c3c fe83 a23c 756e 093d 8d11 bd3d
000000b0: f52a 123d 6b7c 593d c078 d63c 11ea 493d
000000c0: 9315 be3c e903 793d 789d 943c 91d7 d63c
000000d0: 041e 313d b315 c83d 141a 163d 33b1 c93c
000000e0: 7c86 343e 3410 773e 7d44 113d f605 4d3d
000000f0: 6123 9a3c 0c39 b63d 3abe 0d3d bfa5 9e3d
