SND_trackers_My_data/9X0_file/19_9X0_coordconv_Label_V7.pt (torch, 305469 bytes, 25 tensors)

weight f4 [32, 9, 3, 3]
000000 6a 63 0b 3b be 67 0b 3b a8 b4 f0 3a 27 70 e7 3a
       0.0021268972 0.0021271552 0.0018364387 0.0017657325
000010 ab 4f 9d 3a 95 ee f3 3a 62 a5 fb 3a 50 77 32 3b
       0.0012001892 0.0018610532 0.0019199068 0.002723176
000020 56 4b f3 3a eb 9f 62 3b 35 18 b4 3a 8d bc 89 3b
       0.001856188 0.0034580182 0.0013740124 0.004203385
000030 96 f0 9f 3a 4b 44 0a 3b c5 62 5a b9 4a 64 3a b8
       0.0012202438 0.0021097835 -0.00020826895 -4.4439257e-05
000040 d1 3a b9 3a 85 2a 4c 3b 6c 67 6a bb f5 c6 d1 bb
       0.0014131909 0.0031153273 -0.003576721 -0.0064018914
000050 9e f4 bc bb 8a 12 c7 ba 58 86 86 b8 db 6e 9d bb
       -0.0057664653 -0.001518802 -6.4146414e-05 -0.004804475
000060 88 bf 66 3b 27 7c fb b9 0e 11 0a ba fb 67 f2 3c
       0.0035209376 -0.0004796695 -0.00052668236 0.029590597
000070 92 cd a6 3c f8 ec 89 3c 8a fe 0c bc 63 ed e0 3d
       0.020361695 0.016836628 -0.008605609 0.10982778
000080 a8 74 1e 3e d3 7c 6e 3d 87 0f ff 3d 01 6c 0b 3e
       0.15474188 0.05822451 0.124541335 0.13615419
000090 71 69 a5 b9 a6 15 ba 3b f9 5f a4 ba d5 6e d9 38
       -0.00031549812 0.00567885 -0.0012540809 0.000103680104
0000a0 c8 f2 05 3c 98 29 b5 3a 34 84 bf b9 77 f0 60 3b
       0.008175559 0.00138216 -0.00036528858 0.0034323016
0000b0 6e d2 f1 ba 4b eb 99 3a 99 9a 81 3b 84 a2 58 ba
       -0.0018449554 0.0011743096 0.003955197 -0.0008263963
0000c0 0f 21 59 b8 14 bd a0 3a cd da d5 ba bf e5 6b bb
       -5.176762e-05 0.0012263381 -0.0016315818 -0.0035995094
0000d0 14 77 09 bb a3 35 2f bb aa 6e 35 bb 49 d0 bd 3a
       -0.0020975517 -0.002673485 -0.002768437 0.001448163
0000e0 5b 08 bb bb 83 0e ca 3b 9b 20 56 3b 7f 1e 97 bb
       -0.005707783 0.0061662807 0.0032673243 -0.0046117897
0000f0 9f 3d 98 3b 59 69 1d 3b 00 9f bf bb af 2b 37 bd
       0.0046460177 0.002401909 -0.0058478117 -0.044719394
000100 3f 21 09 3d b9 cb b6 3c 75 d1 23 bc 5e 70 9b bc
       0.03347897 0.02231394 -0.009998669 -0.01897448
000110 d8 4e 13 3d 9d ab f8 3c 5e ab 16 bd 51 a4 e8 bc
       0.035963863 0.03035527 -0.036784522 -0.028398665
000120 84 b9 9a bd 07 65 19 3e 7b 77 fb bd 93 08 f9 bd
       -0.075549155 0.14979945 -0.122786485 -0.121598385
000130 ab 56 81 bd fd 2e c9 bd 5a a8 11 3e 99 42 2d be
       -0.06315359 -0.098234154 0.14224377 -0.16919936
000140 a6 60 0a 3e 3f 26 29 bc 98 81 26 bc 9d dc 23 bc
       0.13513431 -0.01032406 -0.0101627335 -0.010001329
000150 4c 93 20 bc 55 f6 24 bc f2 ae 28 bc d4 7c 23 bc
       -0.009800743 -0.010068496 -0.010295616 -0.009978492
000160 e6 d0 23 bc d9 ab 24 bc ea 09 50 3b ac 6d 56 3b
       -0.009998536 -0.010050737 0.003174419 0.0032719178
000170 02 d9 56 3b f7 54 4a 3b 38 33 54 3b 25 ee 41 3b
       0.0032783155 0.0030873397 0.0032379162 0.0029591408
000180 4a 6d 6f 3b a9 f7 52 3b a1 ec 3f 3b 79 f6 52 3a
       0.0036533647 0.0032191074 0.002928533 0.00080475915
000190 36 f2 57 3b 47 1d 3b 3b 79 7e ee 3a e0 26 ca 3a
       0.0032950765 0.0028551386 0.0018195651 0.0015422963
0001a0 1d ed 68 39 d5 9f 88 3a 7b f0 e2 3a 5f 22 e5 b8
       0.00022213576 0.001042361 0.00173141 -0.00010925973
0001b0 8f 1e 32 3c fb 40 14 bd 4e 2c 19 bc 6d e3 f9 3c
       0.010871544 -0.036194783 -0.009348942 0.030503953
0001c0 08 30 41 bd eb 4d 37 bd 7a 43 a4 bd 3f ad 85 bd
       -0.047164947 -0.044752043 -0.08020683 -0.06527185
0001d0 13 ab af bd ea 58 62 bc 80 79 d9 3c 7f 4f 12 bd
       -0.08577552 -0.013815144 0.026547194 -0.035720345
0001e0 73 51 43 bd c9 98 88 3c 17 e7 b2 bc 90 53 a1 3c
       -0.047685098 0.016674416 -0.021838708 0.019693166
0001f0 52 a6 25 3d 4a 86 20 3d 1d 96 7e bd 4d 27 4d bd
       0.04044182 0.039190568 -0.062154878 -0.05008631
000200 b8 da 7a bd 4b 74 35 bd 68 c3 84 bd 2c b1 a1 bd
       -0.061243743 -0.04430036 -0.06482583 -0.07895121
000210 67 65 7f bd 97 49 85 bd ed 80 aa bd 2e a1 58 3d
       -0.062352564 -0.06508177 -0.08325372 0.052888088
000220 06 c1 06 3d f0 39 54 3c 29 be 66 bd 3a 3d b6 ba
       0.032898925 0.0129532665 -0.056333695 -0.0013903745
000230 a1 c1 13 bc c1 72 32 3d 18 a4 1f bd 76 37 6d bc
       -0.009018333 0.04356647 -0.03897485 -0.014478555
000240 49 06 92 bc 78 a6 b4 3d 7b 97 a6 3a 62 56 3c 3d
       -0.017825263 0.08820814 0.001270994 0.04598082
000250 7d bc 73 bc 6c 84 95 3c bb 48 40 bd df 8d 6a 3c
       -0.014876482 0.01825162 -0.04694436 0.014316051
000260 79 7e 79 bc 0e 5a 86 3d 0b ed 78 3b 10 f1 95 3b
       -0.015227907 0.06560145 0.0037983085 0.004575856
000270 10 af b6 bc c5 fc a0 3d 59 ab 90 bd 99 9e 1e bd
       -0.022300273 0.07860712 -0.07063932 -0.03872547
000280 dd 0e 93 bd b9 42 83 bd a4 a8 ed 3c 0d b7 ed 3c
       -0.07180569 -0.06409211 0.029011078 0.02901795
000290 f9 82 ed 3c 12 31 ed 3c c6 73 ed 3c f6 0d ed 3c
       0.028993117 0.028954063 0.02898587 0.028937321
0002a0 bd 1a ed 3c b0 b7 ec 3c bf 9d ec 3c e2 0b 82 3b
       0.028943414 0.028896183 0.028883813 0.0039687017
0002b0 b8 b5 85 3b 36 6e 72 3b 63 be 60 3b 0d 01 87 3a
       0.0040805005 0.003699196 0.0034293167 0.0010299996
0002c0 19 6d 89 3b d8 44 4f 3b b8 4e 16 3b 3a 1a b3 3a
       0.0041939137 0.0031626727 0.0022935104 0.0013664432
0002d0 f1 0b 63 bc fd 8c 7a bc 60 ea 72 bc ae bf 4f bc
       -0.0138578275 -0.015292403 -0.014826387 -0.012679977
0002e0 d6 8e 60 bc 84 e1 57 bc 5f 28 39 bc 04 1b 43 bc
       -0.01370593 -0.013176326 -0.011301129 -0.0119082965
0002f0 8b 60 41 bc 62 b7 43 3e 72 37 c4 3d 9d 2a 80 3d
       -0.011802803 0.19112924 0.09580888 0.06258128
000300 83 b7 97 b8 3e 48 b0 3d cc f0 6e 3d 33 0e 1c 3e
       -7.234423e-05 0.08607529 0.05833511 0.15239792
000310 bd 3b 01 3e 51 b9 9c 3d 80 89 b3 3a 5b bf d8 bb
       0.12620445 0.07652534 0.0013697594 -0.006614608
000320 9e 7f 53 bc 9f 07 94 bb 25 65 fa bb fb 73 8e 3c
       -0.012908844 -0.00451751 -0.007641452 0.017389288
000330 50 34 7d 3c b2 83 ad bb e6 4a 43 bb 9d 73 e8 3b
       0.015454367 -0.0052952403 -0.0029799282 0.0070938603
000340 68 be 81 3c 8f b5 4a bc 60 e4 f4 3c 10 ea e1 3b
       0.015837863 -0.0123723885 0.029894054 0.0068943575
000350 42 b1 07 bd 42 0c 82 3b 4f 49 be bc 4b 4b 0b 3c
       -0.03312803 0.0039687464 -0.023228316 0.008501838
000360 95 38 c8 bb e3 16 30 bc e9 50 54 3b 48 a4 42 3d
       -0.0061102607 -0.010747644 0.003239686 0.047519952
000370 43 a8 1c 3d 5d 66 0b bc 99 9f aa bc eb 68 a6 ba
       0.038246404 -0.008508292 -0.020828055 -0.0012696063
000380 0d ca cc 3b 72 96 ce bc a7 d9 99 bd 6b de c1 3d
       0.0062496723 -0.025218222 -0.07512217 0.09466251
000390 c3 f1 df 3d ac a7 3f bd 1c 5a a5 bc fe 33 30 bb
       0.10934784 -0.046790764 -0.020184569 -0.0026886459
0003a0 27 96 89 bc f7 8a ab bd 2b 7a cd 3c 15 6d 9a 3b
       -0.016795231 -0.08376115 0.025082668 0.0047127106
0003b0 79 ab 9d bc 6f 6c 2c bb 01 db ac 3d 63 af eb bc
       -0.019246804 -0.0026309749 0.08440209 -0.028770154
0003c0 43 97 a5 3c 0a d3 99 3d 6d dc 12 bd 10 55 d0 3b
       0.020213729 0.07510956 -0.035854746 0.0063577965
0003d0 07 14 bd 3b 64 42 4b 3c 1b ec 0d 3c fa a8 57 3b
       0.0057702097 0.0124059655 0.008662249 0.0032907114
0003e0 21 86 55 3b 5f 43 22 3c 70 8d 38 3b 43 51 95 3b
       0.0032581168 0.009903758 0.0028160475 0.0045568063
0003f0 9f 47 9a 3c b8 a8 d6 3c 65 65 ab 3c 91 27 d8 3c
       0.01883298 0.026203498 0.020922372 0.026386054

bias f4 [32]
000000 74 42 4d bd a9 74 7f 3c d7 c2 e3 3b 8a 12 91 3b
       -0.050112203 0.015591779 0.006950717 0.004427259
000010 03 0a 0e ba 2e 51 62 b8 6f b7 36 bc a5 3a dd 3b
       -0.0005418362 -5.3958203e-05 -0.011152132 0.0067513757
000020 a4 e6 06 3b fc 93 13 3d c6 b4 40 3b e3 60 2e 3c
       0.002058425 0.0360298 0.0029404624 0.010643217
000030 9f 97 5b bc 9c d8 7e 3c a8 d3 9e 3b 56 a7 d9 bb
       -0.0134028485 0.015554573 0.0048470087 -0.0066422625
000040 38 e1 b4 3b 7d b2 94 bb ce 84 58 39 f9 29 7d 3c
       0.005520012 -0.004537879 0.00020648839 0.015451902
000050 1e 55 09 bd cb 4e 04 3a 10 cb 60 3c 07 ba 38 3c
       -0.03352844 0.00050471415 0.013720289 0.011274821
000060 6a 41 85 3b 2b b8 a8 3b 94 77 d3 3a 48 d5 da ba
       0.004066636 0.0051489077 0.001613366 -0.0016695643
000070 26 6a 27 3b cb 61 d7 3c 79 4d 0f bc 99 05 5b 3c
       0.0025545447 0.026291749 -0.008746498 0.013368034

weight f4 [32]
000000 93 ac 8a 3e 13 dd 87 3e 2e 43 3e 3e a9 c0 f7 3e
       0.2708479 0.26535854 0.18580315 0.48389176
000010 da 76 80 3e 6a ae 02 3e c9 4c b6 3e fa 0a 16 3e
       0.25090677 0.12761846 0.35605457 0.14652625
000020 59 14 a7 3e 42 5d 9d 3e 83 d6 61 3e 98 13 53 3e
       0.32632712 0.30735213 0.22054486 0.20612943
000030 5c ec d3 3e 11 ce c7 3e 1a b3 00 3e bf 16 06 3f
       0.41391265 0.39024404 0.12568322 0.5237846
000040 54 f6 86 3e fd bc da 3e 3e b9 4d 3e 36 a7 ba 3e
       0.26359808 0.42722312 0.20090196 0.36455697
000050 36 2c 55 3e 19 98 83 3e 1e 60 15 3f f2 fd 1f 3f
       0.20817646 0.2570198 0.5834979 0.62496865
000060 04 26 bd 3e 25 e8 34 3e 27 0c da 3e 41 c0 25 3e
       0.36943066 0.17666681 0.42587397 0.1618662
000070 11 7f 91 3e 65 a7 3e 3e b3 29 8a 3e f9 c3 8e 3e
       0.28417256 0.18618543 0.2698494 0.2788389

bias f4 [32]
000000 79 9b f9 3c 97 31 cb 3b 0e ec 1b 3b 6f 22 f1 bb
       0.030469643 0.00620098 0.0023791823 -0.007358841
000010 10 5c 15 bc 43 4b ed bd c2 5e bd 3c 49 ee ce 3d
       -0.009116188 -0.11586621 0.023116473 0.10104043
000020 ce b8 0c bd b1 63 59 3c 08 41 45 3d 53 03 f3 ba
       -0.03435593 0.013268397 0.04815772 -0.0018540419
000030 1c 4a 00 bd 8f 5c 01 3c b1 8f 26 3d ab e3 d4 bb
       -0.031320676 0.007895603 0.04066438 -0.0064968667
000040 42 1d 27 bb 0c 6e de 3a 2d 87 e1 bd 0c 8f d5 3a
       -0.0025499617 0.0016970052 -0.11012111 0.0016293242
000050 b0 0f 8f 3d 6a 90 86 3b d0 c2 52 3b 4f c1 42 bc
       0.06985414 0.004106571 0.0032159574 -0.011886909
000060 e6 74 69 3c 77 eb 08 bd eb 57 0c bc e6 0a 71 bc
       0.014249062 -0.03342768 -0.008565883 -0.014712071
000070 5f 43 8c 3c 3c 31 86 bb 06 3f e3 3b cd 51 4f 3c
       0.017121969 -0.0040952247 0.006935003 0.01265378

running_mean f4 [32]
000000 3a 55 39 bd 62 8f d2 3c 56 fd 90 bc 9d 35 4d bb
       -0.045247294 0.025703136 -0.017698925 -0.0031312474
000010 a2 0a 74 bb 8e 26 94 3e 57 b1 0a bd 03 21 81 3a
       -0.0037237783 0.28935665 -0.03386053 0.0009851757
000020 ab 9c 59 3e 8d b7 9d 3d 19 da 29 3d ee 40 06 3e
       0.2125117 0.07701025 0.04146776 0.13110706
000030 9e 38 7d 3e 02 6d 9a 3d df 7f d5 3c 7c a9 dc bc
       0.24728629 0.07540323 0.02606195 -0.026936285
000040 6a 67 13 3e e4 fc 2c 3d 93 41 8c 3e 83 b4 33 3d
       0.14394918 0.042233363 0.2739378 0.04387332
000050 c4 93 7e bd 89 42 a3 3c cd 8a a2 bb 58 df 0c bd
       -0.06215264 0.019929187 -0.004960394 -0.034392685
000060 7b 99 39 3e ed d3 50 bd 75 10 42 bc bf 6f 54 3d
       0.18124954 -0.05098336 -0.011844744 0.051864382
000070 e2 1c f0 bc 85 22 df 3c 95 3e 8b 3d ad ad 4d 3d
       -0.029310647 0.02723814 0.06799046 0.05021446

running_var f4 [32]
000000 17 9d 01 3e 6e 17 0c 3f f3 3c b8 3e 00 1f 1a 40
       0.12657581 0.5472325 0.35984 2.408142
000010 35 39 7f 3e 3e ac be 3e e9 61 cf 3e 7e 33 6c 3e
       0.24924167 0.37240785 0.40504387 0.23066518
000020 b8 d8 1d 40 f6 59 96 3f a7 6e 46 3f c8 50 3f 3f
       2.4663525 1.1746204 0.7751259 0.7473264
000030 25 84 37 40 09 5b 67 3f 38 52 0f 3f 04 84 28 40
       2.8674405 0.90373284 0.5598483 2.6330576
000040 f6 e3 c9 3f 40 9b 9f 3f c9 17 3c 3f 1c 45 89 3f
       1.5772693 1.2469254 0.73473793 1.0724216
000050 be ba 8c 3e 6e ec 43 3f 5b 0d 24 40 d8 1b 87 40
       0.27486223 0.7653264 2.5633152 4.222149
000060 34 23 62 40 1f 52 2e 3e d5 31 58 3f be e0 51 3e
       3.5333986 0.17023514 0.8445104 0.20495889
000070 10 09 20 3f 0c c3 1a 3e f0 a3 f2 3f 30 42 09 3f
       0.6251383 0.15113467 1.895628 0.5361662

weight f4 [32, 35, 3, 3]
000000 df df 2a 3c 06 d2 2a 3c f3 db 2a 3c d1 e2 2a 3c
       0.010429352 0.01042605 0.010428417 0.010430054
000010 d4 e4 2a 3c 0a d6 2a 3c c9 d5 2a 3c a1 d1 2a 3c
       0.010430533 0.010427007 0.010426947 0.010425956
000020 4d d7 2a 3c b3 eb 85 3c b6 eb 85 3c f6 ea 85 3c
       0.010427308 0.016347742 0.016347747 0.01634739
000030 80 e9 85 3c da ea 85 3c 6b ec 85 3c 68 eb 85 3c
       0.016346693 0.016347338 0.016348084 0.016347602
000040 8e eb 85 3c 6c ec 85 3c f1 36 ef 3c 61 bd eb 3c
       0.016347673 0.016348086 0.029201003 0.028776826
000050 41 fa e8 3c b6 68 02 3d 42 81 05 3d 13 7c 01 3d
       0.028439643 0.03183814 0.032593973 0.031612467
000060 61 58 00 3d 76 f8 02 3d 01 61 01 3d 9d 8b ec 3c
       0.031334285 0.031975232 0.03158665 0.028875167
000070 fc 35 d1 3c 1f a9 53 bc df f2 c5 3c 74 30 e9 bb
       0.025538437 -0.01291874 0.024163662 -0.0071163718
000080 0b c8 e2 bc 21 eb 8b bb 4c 3f 1c bc dc 1d 1e bc
       -0.027683279 -0.004269973 -0.0095365755 -0.009650674
000090 d3 11 e0 bc 76 4c 6f bb 7f ce 84 3c ad c9 58 bc
       -0.02735225 -0.003651408 0.016211746 -0.013231677
0000a0 5a d7 ba 3c 60 b0 31 3d 30 49 3f 3b 39 81 4b 3d
       0.022807766 0.043381095 0.002918791 0.049683783
0000b0 d9 9a 03 3d be 91 2b bd d6 45 4e bc 27 d4 23 bc
       0.032130096 -0.041887037 -0.012589892 -0.0099993115
0000c0 25 37 13 bb 81 2a f3 3c ed 99 b7 3c 61 c4 94 bb
       -0.0022463289 0.029683353 0.022412265 -0.0045400118
0000d0 65 0b 47 3d 8c c2 53 bd 87 1a 82 3b 8d 7b ab bc
       0.04859485 -0.051699206 0.0039704475 -0.020932937
0000e0 cd b5 04 3c 23 35 2b bc 0c 16 e9 3c 83 0a 9f 3c
       0.008099985 -0.0104496805 0.028452896 0.019414192
0000f0 04 f7 9c 3c 8e bb ca 3c 2a d4 49 3c 1d 03 ff 3c
       0.019160755 0.024747636 0.01231865 0.031129414
000100 92 bc cc 3c 73 5a 6a 3d fa 33 92 3d 08 ac 35 3d
       0.024992261 0.057215165 0.0713882 0.044353515
000110 06 94 1e 3d ff a9 1f 3c 8c f4 97 3b e8 f7 0b 3d
       0.038715385 0.00974512 0.0046373066 0.03417197
000120 e3 1a dd bb b4 94 29 bc ff 4d 35 3c 8a ec e9 3a
       -0.00674759 -0.010350395 0.011065959 0.0017846983
000130 d5 9c 4e 3c 46 23 cb 3c 29 b9 ae bb 27 1e b7 3a
       0.012610634 0.024797093 -0.0053321314 0.0013970778
000140 5e f9 c5 bb d4 d6 95 bc 9a 53 44 3d 82 7d f0 3c
       -0.00604169 -0.018290915 0.04793129 0.029356722
000150 34 d0 6e 3c ae 3f 4b 3d ab b9 2b 3d 2c 1c eb 3a
       0.014576007 0.049621277 0.041925114 0.0017937473
000160 bc 14 7f 3d e1 15 36 bd 64 6e 03 3c c5 2e f6 3c
       0.062275633 -0.04445446 0.008021925 0.030051598
000170 06 70 32 3c 27 56 4a 3d 96 35 81 3d bc 52 09 3d
       0.010890966 0.049398568 0.06309049 0.033526167
000180 bc d8 c2 bb 28 97 18 bc 37 ce c0 bc ac e0 03 bd
       -0.005946247 -0.009313382 -0.02353583 -0.032196686
000190 d6 42 ae ba c2 84 d3 3b 2b c3 78 bc 31 e0 2d 3d
       -0.0013295065 0.006455035 -0.01518325 0.042450134
0001a0 8c 38 53 3d 2a b7 b4 3b 53 22 13 3c 24 9a d1 bb
       0.0515676 0.005514999 0.0089803515 -0.006396549
0001b0 ef e2 e3 bc 5a ad 68 bc 44 3b 23 bc e0 06 55 bc
       -0.027818171 -0.0142014865 -0.0099628605 -0.013002127
0001c0 d7 5b 18 3d f1 03 26 bb 42 65 48 3c 6c 17 71 3c
       0.03719696 -0.002533194 0.012231173 0.014715057
0001d0 ee 50 bd bc 01 3f 0e bd 68 ef 60 bc a6 a3 c6 bc
       -0.02310988 -0.034728054 -0.013728954 -0.024247956
0001e0 73 0f 74 bb bd 32 8c 3c 05 87 15 3c b2 bf 19 3d
       -0.0037240654 0.017114038 0.009126429 0.03753633
0001f0 1a 67 ea 3c 3e a2 fa 3c f6 d9 61 bc c6 88 2e 3c
       0.028613616 0.030594941 -0.013784876 0.0106527265
000200 4c 50 26 bb 23 27 91 bb ee 68 03 3d 3c 2d 00 3d
       -0.002537745 -0.0044297143 0.03208249 0.03129314
000210 28 9c 3c 3c 68 8e 17 3c 55 51 7b bd 59 37 c3 bc
       0.01151184 0.009250261 -0.06135686 -0.023830103
000220 4a cb d3 b9 c0 f0 4b bb da 92 f2 3a c7 ea 28 3d
       -0.00040396518 -0.003111884 0.00185069 0.041239526
000230 99 d2 17 3d 35 c7 b7 3b 1b 2d 0b 3d d0 b4 0a 3b
       0.037066076 0.005608464 0.033978563 0.0021164902
000240 6f 8d 77 bb 5d 93 87 3c 01 a4 32 3c 27 94 f5 3c
       -0.003777351 0.01654976 0.010903359 0.029977871
000250 62 d2 10 3d 9a 29 96 3c 8f 7e 08 3d 26 90 bb 3c
       0.035356887 0.018330384 0.03332382 0.022895884
000260 95 74 24 3d fb 5a be bc d5 1c e2 ba d1 0d 79 bc
       0.040150244 -0.023236742 -0.0017251024 -0.015201048
000270 e8 b0 c3 3c a3 ed 1c 3d 5d 88 15 3d 1c 67 44 3d
       0.023888066 0.038312566 0.036507 0.047949895
000280 98 ce 74 3c 37 14 82 3c d1 44 c0 bc 1b 8a 79 bd
       0.014941834 0.01587878 -0.023470314 -0.060922723
000290 95 5a 7f 3c c9 3e 16 bd 54 e5 86 bc e1 72 8b b9
       0.015585561 -0.03668097 -0.016466774 -0.00026597737
0002a0 fd ff c3 bc fb 0b 77 bc a3 12 02 bd b9 b3 e3 bc
       -0.023925776 -0.01507854 -0.031756055 -0.02779566
0002b0 02 ee c2 bb b1 df 57 bb 0c a1 a8 3c 22 11 35 3d
       -0.005948783 -0.0032939727 0.020584606 0.044205792
0002c0 a8 46 ff 3b 8b b2 6b 3c 36 a9 f9 b9 58 f2 1e bb
       0.0077904053 0.01438583 -0.00047619053 -0.0024253335
0002d0 35 04 ba ba 28 e7 cc 3b dc 50 cb bc 98 ea dd 3c
       -0.0014191928 0.006253142 -0.02481883 0.027089402
0002e0 36 98 16 3d 68 c9 f4 38 82 2a d6 3c d0 5b ce 3b
       0.036766253 0.000116723415 0.026143316 0.006297566
0002f0 5d 73 c2 bc 2d 9e 99 3b 4b d7 82 3c c5 26 e2 3b
       -0.02373665 0.0046880455 0.0159718 0.0069015943
000300 9e 11 bb 3c 87 7f f6 3c c2 46 26 3b da 5c a1 3c
       0.022835549 0.030090107 0.0025371765 0.019697595
000310 10 af be 3c e2 43 bb bc b2 65 98 3c c9 89 ad 3c
       0.023276836 -0.022859517 0.01860318 0.021183865
000320 e9 a6 9b bb f3 81 60 3c fb de 86 3c 93 51 93 ba
       -0.004750122 0.013702857 0.016463747 -0.0011239521
000330 dd 46 45 bb 64 26 48 bb 2f 44 83 bc a3 1f a5 bc
       -0.0030102052 -0.003054046 -0.016023723 -0.020156687
000340 95 92 d7 3c f2 45 b0 3b aa 6b db bc 62 f9 b6 3c
       0.026315013 0.005379432 -0.026784737 0.022335712
000350 b0 e7 90 3b 83 fc ac 3c 52 8f 80 3c 25 28 51 bd
       0.0044221506 0.0211165 0.01569334 -0.051063675
000360 cd 7b da bb e0 6d 71 3d 8e ba 28 bc 03 3f c7 3a
       -0.0066675902 0.058942676 -0.010298384 0.0015201274
000370 83 7f 83 bc d5 f0 53 3c f9 78 28 3c e1 d9 8d bc
       -0.016052013 0.012935837 0.010282748 -0.017315807
000380 13 84 7b 3c 52 20 64 bc b6 5a 5d bc 20 e2 a7 3b
       0.015351313 -0.013923721 -0.013510397 0.0051233917
000390 38 4f ff 3c 01 0d 06 3d 73 bc 8b 3c ee 61 da 3c
       0.031165704 0.032727245 0.017057633 0.026658025
0003a0 db f8 24 bc 26 ff 0e bd 58 ca 00 bc 99 b8 d9 bb
       -0.010069097 -0.034911297 -0.0078607425 -0.00664432
0003b0 de 63 bd 3b 5e 14 18 bd 7e 38 97 3c 7a 6f 01 3d
       0.0057797274 -0.0371288 0.018459555 0.031600453
0003c0 1b 4e d9 3c 1b 89 43 3d a5 0f 2b bb 91 dc b7 bc
       0.026526501 0.047738176 -0.0026101854 -0.022444041
0003d0 a1 13 d1 bb 98 6b cf bb a6 1a ac 3c c1 2c 91 3d
       -0.006380514 -0.006329965 0.0210088 0.07088614
0003e0 13 3d 11 3d 89 12 ad 3c c7 e6 3d 3c 5a a3 cc bc
       0.035458636 0.021127002 0.011590666 -0.024980236
0003f0 67 6d b8 bb 07 1c b0 3c cd a0 4b bc aa a3 18 bb
       -0.005628276 0.02149774 -0.012428475 -0.002329091

bias f4 [32]
000000 4f 61 b6 bb f3 5e 92 bc bb 53 91 b9 a3 16 ee bc
       -0.0055657993 -0.017867541 -0.0002771894 -0.029063528
000010 d4 56 3a ba 19 f7 ce b6 9e a3 16 bc 68 a2 3f bc
       -0.00071082753 -6.1680444e-06 -0.009194283 -0.0116964355
000020 79 7b b2 3c dd ff 82 bc 4a 26 6a 3a bf ff 2a 3c
       0.021787392 -0.015991146 0.0008932097 0.010436951
000030 b3 9c 1b 3d 0a 95 90 bc a1 99 00 38 ef 5b ca 3b
       0.037991237 -0.017649192 3.0660656e-05 0.00617551
000040 95 d5 e7 bb 36 a9 91 3c 7a ee 72 bc 4c 64 88 3c
       -0.0070750215 0.017780881 -0.014827365 0.016649388
000050 94 07 25 3c 12 a0 52 bc 0a 1a 08 ba 10 5b 01 bc
       0.010072608 -0.012855547 -0.00051918684 -0.007895246
000060 e4 99 5e 3a 87 73 b1 3b 86 99 98 bb 17 7c 81 3c
       0.00084915594 0.0054153833 -0.0046569733 0.015806241
000070 7c eb 80 bc 67 d4 7a 38 fc 92 b4 ba 37 00 b5 3b
       -0.015737288 5.980246e-05 -0.0013776715 0.0055237073

weight f4 [32]
000000 f5 8c 63 3e de 27 78 3e 9d 63 47 3d fd 31 03 3f
       0.2222174 0.24233958 0.048678983 0.5124815
000010 83 1e e2 3d 1c 1f 71 3d 4f da 1a 3e 33 9c 03 3e
       0.11040976 0.05886756 0.1512234 0.12852554
000020 6a 05 9b 3e ed 3d ab 3e aa 6e b5 3d a5 5a 44 3e
       0.30277568 0.33445683 0.08858998 0.19175203
000030 91 10 4a 3e 39 33 f2 3d 46 76 b0 b7 ea 60 42 3e
       0.19732882 0.11826176 -2.103591e-05 0.18982282
000040 1f b4 fe 3d fc ae 12 3e f0 f5 a0 3d b7 d1 9b 3d
       0.12436699 0.14324564 0.07859409 0.07608359
000050 76 f1 f9 3d 0b 9a ba 3d 0d 76 7d 3d e5 d6 0c 3f
       0.12204258 0.091114126 0.06188016 0.55015403
000060 b1 bb 33 3e 94 1d 44 3e 06 f4 1a 3e d1 c6 85 3e
       0.17552067 0.19151908 0.1513215 0.26128247
000070 11 41 18 3e 76 1a d8 3d 86 a4 a4 3d 41 20 3e 3e
       0.14868571 0.10551922 0.08039193 0.18566991

bias f4 [32]
000000 6c b9 80 bd 09 ca ff 3c 46 6a 41 3b ca 74 dc 3d
       -0.062853664 0.031224268 0.0029512807 0.10764463
000010 da 95 31 3d d0 dd 02 bd e6 e0 c2 3a 30 e3 33 bc
       0.0433558 -0.031949818 0.001486805 -0.010979459
000020 be 2e 35 3c 9e 5f 1e 3d 15 8b 43 bb f6 44 80 3b
       0.0110585075 0.038665406 -0.0029837538 0.003914471
000030 90 bf 2f bc 67 41 9d bb 59 2d e9 bc dd 62 13 3d
       -0.010726824 -0.0047990563 -0.028464006 0.035982955
000040 cc 50 7d 3c e6 f8 c6 bc 02 10 39 bc cc a3 d1 3b
       0.015461158 -0.024288606 -0.0112953205 0.0063977
000050 0c 33 ba bc 16 33 28 3c ef f9 80 bc f6 ca 3c 3e
       -0.02272942 0.010266086 -0.015744178 0.18436798
000060 e9 48 45 bc 73 ee 3f bd 2a 5c 02 3d 8d 4b 41 3d
       -0.012041309 -0.046858262 0.031826176 0.04719119
000070 e8 97 02 3d 52 04 24 bd 0f e0 a1 bc 64 f1 1c 3d
       0.03188315 -0.040043183 -0.01976016 0.038316146

running_mean f4 [32]
000000 6b 8c 7f 3e 64 55 09 be 13 36 e9 bd c7 f9 ff bd
       0.24955909 -0.1341148 -0.11387267 -0.12498813
000010 ae d2 da bd 45 b3 3a bd ca c5 fc bc 03 4f 6b bd
       -0.10684715 -0.04558112 -0.030856032 -0.0574484
000020 df 0e e8 3c a2 ce 33 be 95 f1 da bd 4d 33 97 3c
       0.028327404 -0.17559293 -0.10690609 0.01845708
000030 16 64 25 bd cd 4e 03 be a9 18 5e 3d 3b 63 9a bd
       -0.040378653 -0.12823029 0.054222737 -0.07538458
000040 a5 48 e5 bd 74 74 a1 bd 9b 49 f2 bd d3 2c c9 bc
       -0.111954965 -0.0788354 -0.118304454 -0.024557507
000050 f7 83 3f bd 9b 94 d7 bd 5a f7 8b bd ee f4 c1 3b
       -0.04675671 -0.10526391 -0.06834288 0.0059190905
000060 0c 2e 2a bd 7b 7f de 3d b8 ab a5 bc 20 8d 76 3d
       -0.04154782 0.10864159 -0.020223483 0.06019318
000070 8a 82 6f bd d4 b5 f2 bd cd 7b 74 bd 9a 0c 21 be
       -0.0584741 -0.11851087 -0.059688378 -0.15727463

running_var f4 [32]
000000 7b 6b b2 3e 36 7a 7d 3d cb bf 01 3e ce 5c ff 3c
       0.34847626 0.061884128 0.1267082 0.031172182
000010 da 41 a6 3d 80 b7 0a 3d 03 3d a5 3d a2 58 c8 3d
       0.08118029 0.033866405 0.08068278 0.0978253
000020 12 1f 16 3d fd 36 5f 3d 9f 50 2e 3d 3b dd c0 3d
       0.036650725 0.0544958 0.042557355 0.09417196
000030 1d 57 a0 3d af dd ae 3d ae e5 cb 3d 3c 51 8c 3d
       0.078291155 0.085383765 0.09955917 0.06851432
000040 42 c5 ef 3d 52 73 d4 3d ed 9b 2d 3d 0a 32 36 3d
       0.11707546 0.10373558 0.04238503 0.044481315
000050 c2 33 81 3d c4 49 fc 3d fd 08 19 3d de e0 74 3d
       0.063087 0.12318757 0.037362088 0.059784763
000060 d9 d0 83 3d be 20 26 3e cb 0f 6e 3d 62 04 41 3d
       0.06436319 0.16223428 0.05812053 0.04712332
000070 c7 b9 8d 3c 71 ca e2 3d f9 55 25 3d 39 2a 64 3d
       0.0173005 0.11073769 0.040365193 0.05570433

weight f4 [64, 35, 3, 3]
000000 98 6d 1f 3d 2c 6b 1f 3d 8b 6d 1f 3d 40 6d 1f 3d
       0.038922876 0.038920566 0.038922828 0.03892255
000010 6c 6d 1f 3d 5f 6d 1f 3d 18 6d 1f 3d 97 6d 1f 3d
       0.038922712 0.038922664 0.0389224 0.038922872
000020 33 6d 1f 3d 78 66 94 3b 7c 51 94 3b 73 49 94 3b
       0.0389225 0.004528817 0.0045263153 0.0045253574
000030 60 62 94 3b 2c 5b 94 3b 5b 6c 94 3b f8 47 94 3b
       0.004528329 0.00452747 0.0045295185 0.004525181
000040 34 5b 94 3b 2b 5a 94 3b 0d 11 af 3a d9 fa 44 3b
       0.004527474 0.0045273504 0.0013356522 0.0030056743
000050 01 ee 4b 3b 65 5c f9 3b 4b f8 2c 3c 18 7d 23 3c
       0.0031117203 0.0076098912 0.0105572445 0.009978555
000060 4f 34 6e 3c 08 63 8e 3c 97 72 95 3c ac 1c 0a bc
       0.0145388385 0.017381206 0.018243117 -0.0084296875
000070 b8 82 df bb bc 58 4e 3b 96 26 5f bc 3f c4 4a bc
       -0.006821003 0.0031485995 -0.013620039 -0.01237589
000080 7c 7d 99 bc 52 cb fc bc bc f9 c5 bc e4 7c 2c bd
       -0.018736593 -0.03085867 -0.024166934 -0.042111292
000090 2a e9 62 3b 6c 17 2a 3c 56 a2 94 3c 1c 3c d0 bb
       0.003462384 0.010381561 0.018143814 -0.006354822
0000a0 0d e1 04 bc 93 41 1e 3c 9e df 76 ba 8d fa 10 bb
       -0.008110297 0.009659189 -0.0009417477 -0.0022121996
0000b0 0d 6a 3a 3b aa 16 09 bb 58 34 11 bb 00 14 eb bb
       0.002844456 -0.002091805 -0.0022156443 -0.007174015
0000c0 6c 1d be bb dc e0 be bb 32 4d 14 bc 5b 67 63 bc
       -0.005801847 -0.005825145 -0.009051608 -0.013879622
0000d0 ef 57 7a bc 48 23 c4 bc 13 2b 37 bc f8 c4 9f bc
       -0.015279754 -0.023942605 -0.011179703 -0.019503102
0000e0 7f 38 8d 3c 1f d9 84 bb bc 49 51 bb cd 34 48 3b
       0.017238853 -0.004054203 -0.0031934818 0.003054905
0000f0 0a b7 66 bb 7a 2b 3b ba 23 dc b2 bb 3e fc 0d ba
       -0.0035204315 -0.00071399624 -0.0054583712 -0.000541631
000100 1f 26 17 bb bd 6b b0 3b 23 36 dd bb 3f 07 d3 bb
       -0.0023063493 0.005383937 -0.0067508384 -0.006440073
000110 51 49 dd bb f0 c8 37 bc ab 8e 41 bc 47 9a fa bb
       -0.0067531248 -0.011217341 -0.0118138 -0.007647786
000120 30 e2 09 ba ef 41 e5 3b e4 69 48 3c 8a 70 2a 3a
       -0.000525984 0.0069963853 0.012232278 0.0006501755
000130 da da 05 bb fe 50 3e 3a 12 03 a9 bb b6 37 87 b8
       -0.0020424635 0.00072599936 -0.0051578367 -6.4476786e-05
000140 14 f6 3d bb 8a fd d3 ba b6 0a 64 3b 12 8d 90 3b
       -0.0028985785 -0.0016173583 0.0034796423 0.004411348
000150 87 a0 a1 ba eb 1e d7 3a ed bb 21 bc e1 dc a7 bb
       -0.0012331166 0.0016412413 -0.009871465 -0.0051227664
000160 ee f1 b6 ba dd d5 31 bc 10 2f bd ba 85 4f bc 3a
       -0.0013957599 -0.010854212 -0.0014433581 0.001436696
000170 96 21 df 3b a4 18 aa bb 84 90 30 bb 06 d5 2f bb
       0.0068094237 -0.0051909257 -0.0026941607 -0.0026829853
000180 b7 0e 09 bc 41 50 ed bb 07 ae 62 bc 6b 23 62 bb
       -0.008365325 -0.007242233 -0.013835437 -0.0034505974
000190 65 0e cc 3b 90 0f f4 3c ab 47 cb bb 3a 42 9c bc
       0.006227302 0.029792577 -0.006203612 -0.019074548
0001a0 d8 da 70 3b 31 c6 cc 3b c0 2f 6b 39 5d 95 f7 3b
       0.0036751535 0.006249212 0.00022429135 0.0075556473
0001b0 a6 94 01 3c c5 94 04 bc 54 22 f0 bc 34 d5 a7 bc
       0.007908976 -0.00809211 -0.029313244 -0.020487405
0001c0 ff 27 32 bc b9 22 3c bb 08 40 aa bc cb d7 b8 bc
       -0.010873794 -0.002870722 -0.020782486 -0.022563836
0001d0 42 37 dc bc 74 53 82 bb a1 1c b8 ba 73 03 1f b9
       -0.026881818 -0.0039772335 -0.0014046618 -0.00015164707
0001e0 b4 9a 13 b8 48 17 70 bb 33 80 1f bc 37 dd 0c bc
       -3.519161e-05 -0.003663497 -0.009735155 -0.008597664
0001f0 d3 9f 78 bc b1 a0 90 bc 71 e8 1e 3b 1e db 3a bb
       -0.015174824 -0.017654749 0.0024247433 -0.0028511952
000200 48 d4 55 bb 14 f0 d7 ba 51 98 2e bc 66 e1 9b bc
       -0.003262775 -0.0016474747 -0.010656432 -0.019028377
000210 f6 84 e2 bb 87 bb 0d bc 3e 78 71 bc c9 35 d4 3a
       -0.006912823 -0.008650667 -0.014738141 0.0016190346
000220 58 d8 6b 3b 50 8f 48 3b 8e 2d 94 3a 4d f7 66 bc
       0.0035987105 0.0030603 0.001130508 -0.014097047
000230 ca e4 ee bc a0 3e 57 3c 57 06 bc 3b d0 13 c5 3a
       -0.02916183 0.01313749 0.0057380605 0.0015035812
000240 0e dc 04 3a 24 eb 0e 37 71 0b ad 3a 7a db 86 bb
       0.0005068191 8.5186075e-06 0.0013202262 -0.004115519
000250 4a 6a 50 bb 62 4f dc bb 6a 1a 26 bc 67 fb 36 bc
       -0.0031801634 -0.0067233304 -0.010138134 -0.011168337
000260 6b 21 85 bc 29 14 da 39 fe 03 fb 3a ca 53 9a ba
       -0.016251286 0.0004159522 0.001915097 -0.0011774239
000270 8d cb fa bb 78 48 2a bc 8e 77 a8 bc 0e 39 fc bb
       -0.0076536597 -0.010393254 -0.02056482 -0.007697231
000280 b7 12 aa bb 5f a8 8d bb 6d 9b ec 3b 21 ce a4 3a
       -0.0051902193 -0.00432305 0.0072206766 0.0012573638
000290 c9 47 56 3c e9 4e 8f bb 88 b2 b7 39 d9 b4 3b 3c
       0.013078638 -0.0043734205 0.00035037496 0.011456692
0002a0 a9 1b f4 b9 c6 48 c9 3b b0 e1 55 3c fb ab e9 bb
       -0.00046559915 0.0061427085 0.013054296 -0.0071310974
0002b0 78 36 12 bc 0c a4 8f bb 87 bc bd bc 8e f8 36 bc
       -0.008924119 -0.0043835696 -0.023161186 -0.0111676585
0002c0 b5 77 9d bc 4c fc f1 bc 5a 5c b1 bc 56 c3 8c bc
       -0.01922212 -0.02953925 -0.021650482 -0.017182987
0002d0 6a 2f 7a bb 7e 13 ac ba 80 ee 9e ba e6 d2 c3 bb
       -0.0038175234 -0.0013128368 -0.0012125522 -0.005976069
0002e0 01 1b 29 bc 71 6b 90 3c 94 2d dc bb 7e f2 94 bc
       -0.01032138 0.017629357 -0.0067193005 -0.018182036
0002f0 75 32 3a bc 25 a2 5f 3c 03 9f 7f 3c 02 60 2a 3c
       -0.011364569 0.013649498 0.015601876 0.010398867
000300 2a b9 21 bb c8 d0 2c 3a 70 84 20 3b 6f c3 04 bc
       -0.0024677017 0.000659239 0.0024493001 -0.008103236
000310 64 cd 12 3c 4e 1d 09 bb fe 5f e5 3a 5e 55 96 3a
       0.008960102 -0.0020922008 0.0017499921 0.0011469533
000320 2f e4 02 ba 36 54 f5 bb 80 ab 42 bc 58 a2 69 bc
       -0.00049931085 -0.0074868454 -0.011881709 -0.014259897
000330 99 1d 31 bc 74 78 80 bc 73 29 6d bc 88 d8 56 3a
       -0.010810279 -0.015682437 -0.014475214 0.0008195718
000340 c4 0e ea 37 e0 a0 43 ba fe bb 20 bb 29 64 82 bb
       2.790185e-05 -0.0007462632 -0.0024526115 -0.003979225
000350 f3 ea eb ba 5d be 37 bc 61 61 0a bc 0b 8d 45 bc
       -0.0017999097 -0.01121482 -0.0084460685 -0.012057553
000360 0f 39 39 3b 37 8f e1 3b d2 93 83 3c 75 7b fd bb
       0.002826277 0.0068835276 0.016061697 -0.0077356645
000370 50 bf 0b bc fb 06 f4 3b 97 e4 a0 ba f0 bb 43 3a
       -0.008529499 0.007447121 -0.0012275156 0.00074666645
000380 91 2a f9 3b 51 b8 a6 3a 5b 7c 0f bb 78 ea d3 3a
       0.0076039513 0.0012719725 -0.002189419 0.00161679
000390 79 53 c3 bb e4 80 80 bb fa 58 0d bc 00 33 84 bc
       -0.0059608785 -0.003921615 -0.008627171 -0.0161376
0003a0 7d ab 44 bc e8 13 a9 bc 01 46 89 3b d4 0c 4a 3c
       -0.012003777 -0.020639375 0.0041892533 0.01233216
0003b0 9a 07 bb bb e0 e9 cb 3b d7 14 24 3c b1 b2 92 bc
       -0.0057076933 0.0062229484 0.010014734 -0.017907472
0003c0 5a 47 8e bb d1 b5 61 bb 26 13 af bb 77 55 1e bc
       -0.004342002 -0.0034440646 -0.005342859 -0.009663931
0003d0 19 c0 a2 3b 8b 19 98 bc f2 10 b4 38 2c 71 8e bb
       0.0049667475 -0.018566867 8.586225e-05 -0.004346987
0003e0 94 c4 14 3c 9b 75 d0 bb 8d 28 ce bb 33 22 1f ba
       0.009080071 -0.006361676 -0.006291455 -0.0006070465
0003f0 30 9a 06 bc 47 73 12 bc 08 64 a3 37 63 dc 41 bc
       -0.008215472 -0.008938617 1.9477695e-05 -0.011832329

bias f4 [64]
000000 e5 a0 b3 37 ec 2a e3 bb 9b 98 fb b9 b6 f8 93 3b
       2.1413385e-05 -0.006932607 -0.0004798815 0.0045157326
000010 87 ac 87 3b f0 dd f6 39 7b 0f 9a 3a 7b fe 8d 39
       0.00414044 0.00047086133 0.0011753881 0.00027083218
000020 9e 7a 46 3c 6f 22 90 38 3e 64 63 bb 06 73 9c b9
       0.012114195 6.872869e-05 -0.00346972 -0.00029840338
000030 c9 42 b2 b9 49 f5 d8 b7 a6 2f 8e bc db 74 9e 39
       -0.00034000564 -2.5863426e-05 -0.017356705 0.00030223173
000040 da 5c 04 b9 32 6e b4 b9 51 4c fc 3b 4d b7 ae 3c
       -0.00012623091 -0.00034414377 0.0076995273 0.021327639
000050 6e 96 d0 b8 f0 4b d2 3a 20 9a e2 b9 df 5c d0 b7
       -9.9462326e-05 0.001604436 -0.0004322091 -2.4838779e-05
000060 fd 2a 8a bb 2b 7a b7 39 78 94 ff 3c 2f 0d 8f 3a
       -0.0042165504 0.00034995502 0.031198725 0.0010913963
000070 44 ea b3 ba 4d 5f 03 b8 f5 d7 0d 3a 8f 4f 20 b9
       -0.0013726433 -3.132159e-05 0.0005410903 -0.00015288427
000080 69 25 2e b9 9c 16 98 ba ab 5c 1a 3b 08 fd a1 bb
       -0.0001660787 -0.0011603418 0.002355377 -0.0049434938
000090 3e 13 ad bc 6f 37 2d 3b 41 70 6e 3a 0f db f5 ba
       -0.02112734 0.0026430746 0.00090957066 -0.0018757301
0000a0 b9 03 99 bc 30 35 a5 3c db b4 d9 39 a9 57 00 bc
       -0.018678533 0.020166963 0.00041524213 -0.0078334
0000b0 48 53 bd b7 9d 65 48 bc f5 9e 2e b9 69 1a c6 ba
       -2.2569337e-05 -0.012231258 -0.00016653149 -0.0015114072
0000c0 21 59 31 3a cf 42 2f bc 93 21 b4 39 a0 27 2d 36
       0.00067652954 -0.010697081 0.0003435729 2.5802074e-06
0000d0 45 d6 4f 3c d0 c0 bc 38 01 ba 9b b9 7f e9 1d bc
       0.012685363 9.000453e-05 -0.00029702488 -0.009638189
0000e0 cf 94 75 37 d9 e0 ae 3a cc 23 14 b7 d1 e8 8d 3b
       1.4637785e-05 0.0013342156 -8.829822e-06 0.0043307324
0000f0 2d aa ab b9 93 96 05 39 0a 3b 68 3a 9d 75 6a b9
       -0.00032742452 0.00012739962 0.0008858895 -0.00022359793

weight f4 [64]
000000 b7 56 21 3c 94 d9 57 3d 92 22 f2 3d 87 93 b6 3d
       0.009847335 0.052697733 0.11823 0.08914857
000010 11 62 08 3e 39 7f d9 3d ba c3 b2 3d c7 5a c5 3c
       0.1331866 0.10619969 0.08728738 0.024091138
000020 89 ee 37 3e 78 13 d1 3b 98 2c 8d 3e b0 db f1 3c
       0.17962088 0.0063804947 0.27573085 0.0295237
000030 de a2 3a 3c 5c 09 e2 3a d8 4c 59 3e e0 6d cf 3b
       0.01139137 0.0017245221 0.2122072 0.006330237
000040 43 c1 0e 3b e1 2e 8a 3c 73 8d 7c 3e 5d 3b be 3e
       0.0021782673 0.016868057 0.24663334 0.37154666
000050 ac c1 d6 3b 5c 34 c9 3c 60 45 92 3c 74 c2 da 3c
       0.006553849 0.0245611 0.017855346 0.02670405
000060 ce 86 ef 3d 85 4d b9 3c 5b 42 d8 3e 94 5a 78 3d
       0.11695634 0.022619972 0.42238125 0.060633257
000070 3a 56 7e 3d da 19 89 3b 6b 48 40 3c d8 61 45 3c
       0.06209395 0.00418399 0.011736016 0.012047254
000080 e2 ec 5f 3d 86 71 51 3e 91 72 c8 3d 12 d8 87 3e
       0.05466927 0.20453462 0.09787477 0.26532036
000090 70 b6 1c 3e 34 1b 62 3d 60 83 09 3d 70 f3 d1 3d
       0.1530397 0.055201724 0.033572555 0.1025151
0000a0 81 2b e1 3d 9e a2 81 3e ed 5a 92 3c 61 c8 1b 3e
       0.10994626 0.2531938 0.017865622 0.15213157
0000b0 3d 9c 3b 3b e8 72 7a 3e 98 10 24 3a 06 2a 7a 3c
       0.002862706 0.24457896 0.0006258576 0.015268808
0000c0 d5 a0 66 3c 06 67 13 3e 50 35 9b 3c 6c 88 09 3b
       0.014076431 0.14394769 0.01894632 0.0020985855
0000d0 cf f8 82 3d 09 8a d9 3c 8f 6a 05 3e 6b b3 07 3e
       0.06395113 0.026555078 0.1302893 0.13252036
0000e0 c0 b0 b7 3c 14 8d b1 3d b4 60 90 b9 f9 b1 de 3d
       0.022423148 0.08669487 -0.0002753787 0.10873789
0000f0 3e ac 28 3b 1a 36 e6 3a cd 91 3f 3d c8 a4 30 3c
       0.002573743 0.0017563731 0.046769906 0.010781474

bias f4 [64]
000000 4c fc 6a bc ce d0 69 bc 2f 1d b6 bc 9e ca 5a bc
       -0.014342379 -0.014270974 -0.022230713 -0.013353972
000010 77 8a c5 3c 26 5d 39 3c 37 5e 80 3c e4 a0 90 bc
       0.024113877 0.011313712 0.015669925 -0.017654844
000020 16 e8 95 3d 22 98 a5 bc 86 dc ef 3d b1 51 4d bd
       0.073196575 -0.020214144 0.117119834 -0.050126735
000030 fb 20 87 bc 34 51 03 3c 19 a4 91 3d 53 47 e8 bc
       -0.016495219 0.008014966 0.07111377 -0.028354323
000040 fd 96 d8 bc 23 d3 c0 bc 46 e1 c0 3c 90 bb 30 3d
       -0.026439184 -0.023538178 0.023544919 0.043147624
000050 da bb 2b bd 91 67 92 3b d7 ac 03 bd c0 b3 c7 bc
       -0.041927196 0.0044679125 -0.032147255 -0.024377704
000060 c7 f9 4d 3c 16 d6 0b bd 4e b4 9b bb a8 f2 be bb
       0.012571759 -0.034139715 -0.0047517186 -0.0058272667
000070 c1 71 bc bb 81 b1 2c bd de 28 19 3b 5c ef 03 bd
       -0.005750865 -0.04216147 0.0023370306 -0.032210693
000080 12 c0 2a bc f4 6d f6 3c eb 68 4d 3c 93 1d 61 3d
       -0.01042177 0.030081727 0.012537221 0.054959845
000090 a6 1f 89 3d e6 09 cf bc c7 d8 53 bc 99 62 b7 bc
       0.066954896 -0.025273275 -0.012930102 -0.022385882
0000a0 bf 91 ba 39 d5 29 f7 3c e3 1d 93 bc 4d 13 7f 3a
       0.00035585274 0.030171314 -0.017958587 0.0009730354
0000b0 99 51 c6 bc ba d1 58 bc 23 ab 0a bd a7 85 ee 3b
       -0.02420883 -0.013233596 -0.033854615 0.007279116
0000c0 bd 4c 37 bd a3 a4 0f bc 52 84 0e bd f7 c6 8a bc
       -0.044750918 -0.00876728 -0.03479416 -0.016940577
0000d0 06 26 fd 3b 1b 93 09 bd 74 45 77 ba 04 69 9c 3b
       0.00772548 -0.033587556 -0.00094326516 0.004773261
0000e0 a7 03 00 bd 16 5f 87 bc 7b f6 c6 bb 93 4f 81 bc
       -0.031253483 -0.016524833 -0.006071863 -0.015785014
0000f0 e0 df 0e bc ff b8 23 bd 50 c0 8e bc 05 9d 59 3c
       -0.008720368 -0.039971348 -0.017425686 0.013282065

running_mean f4 [64]
000000 65 99 3b 3d e1 b3 04 bd bd 28 a1 3c 2a 39 74 bd
       0.045800585 -0.03239811 0.019672746 -0.05962483
000010 21 9d b1 3e f1 d5 ad bd e0 d4 f6 3c 4d 6e b4 bc
       0.34690192 -0.08488072 0.030130804 -0.022025252
000020 e9 7b fb bd 7b 09 36 3d a4 ee 25 bd a8 45 80 3e
       -0.12279493 0.044442635 -0.04051079 0.25053144
000030 2a cc 0b 3d 9a a0 f8 3d 42 b6 e2 bc ce 73 93 3e
       0.034130253 0.12140007 -0.027674798 0.2879929
000040 ec 5f 84 3c 1a f4 a4 bc 20 2b 06 3c 58 76 5e bd
       0.01615902 -0.020135928 0.008188993 -0.05431208
000050 07 e3 49 bd ad df 69 bd 45 7f 92 3d 8d 5d 40 3c
       -0.049288776 -0.05709808 0.07153181 0.011741054
000060 3a d3 83 bd af e2 23 3e c0 1e 90 be b2 8d b1 3c
       -0.06436773 0.16004442 -0.2814846 0.02167401
000070 24 5a b9 bd e1 7c 12 3e 1c 36 bf 3c 5f d6 27 3e
       -0.09050396 0.1430545 0.023341231 0.1639037
000080 47 06 96 bd d1 29 26 3e bc e0 95 3d 97 1f c2 3c
       -0.07325416 0.16226889 0.07318255 0.023696704
000090 df 7d 73 bd 66 5e 81 3d 28 1f ab 3d a0 eb c0 bd
       -0.059446212 0.06316833 0.08355552 -0.09419942
0000a0 2b f8 5f 3d 66 83 45 be cf fb 13 3d 6b 19 0d be
       0.05468003 -0.19288406 0.036128815 -0.13779227
0000b0 05 42 15 3e ae 09 43 be 84 86 e2 3d 86 ad f0 3d
       0.14575966 -0.19046661 0.11060813 0.11751847
0000c0 84 49 e4 3d 7e f0 9c 3b a9 43 95 bc 65 73 0f 3c
       0.111468345 0.004789411 -0.01822074 0.00875554
0000d0 2a af a0 3d e8 54 09 3d a2 5a 46 bc 14 f8 72 3d
       0.0784591 0.03352824 -0.0121065695 0.059318617
0000e0 11 f2 bd bd 31 50 33 be 44 cd 64 3c ae 79 10 be
       -0.09274686 -0.1751106 0.013964955 -0.14108917
0000f0 3c fa c2 bd ea c5 ee bc 07 c8 f2 bd 3f ea 4d 3d
       -0.09520385 -0.029147107 -0.118545584 0.050272223

running_var f4 [64]
000000 92 5c 47 3d 3c 97 a3 3c 72 fb 48 3d 47 39 75 3d
       0.048672266 0.019969575 0.049067922 0.059869077
000010 bb e9 0c 3e 29 58 e7 3c 49 4f 40 3d 1c 18 d9 3c
       0.13761036 0.02824028 0.046950612 0.026500754
000020 3b f0 95 3c 34 29 e5 3c 79 07 6c 3c ad 99 0b 3e
       0.018303027 0.027973749 0.0144060785 0.13632841
000030 50 07 4f 3d ce 92 e8 3d ef 1a 3f 3c 13 01 8a 3d
       0.050544083 0.11356126 0.011664136 0.06738486
000040 ad 3f bd 3c 65 3e 9f 3c 61 a2 ad 3c fc a3 10 3c
       0.023101652 0.019438932 0.021195592 0.008828159
000050 28 65 09 3d 8e 00 12 3d f3 94 dc 3c 94 02 3f 3b
       0.033543736 0.03564506 0.026926493 0.0029145824
000060 b5 bb 35 3c 9f 15 6c 3d 46 82 02 3d 46 0d a4 3c
       0.011092116 0.057637807 0.03186252 0.02002586
000070 a0 5e 31 3d 16 70 7d 3d 07 8d fe 3c 0c 67 12 3d
       0.043303132 0.06187447 0.031073106 0.035742804
000080 2a b9 21 3d 7f cd 95 3c f8 85 6e 3e a7 5b 09 3c
       0.039483227 0.018286465 0.23293293 0.008383668
000090 f6 d1 cb 3c 35 c9 db 3c 3a 1e ad 3c 77 51 b9 3c
       0.02488039 0.026829341 0.021132577 0.022621853
0000a0 fe 59 81 3c cd fa 14 3d 6d ee c8 3c 93 85 33 3c
       0.015789982 0.036371995 0.024527753 0.01095714
0000b0 a5 d6 f1 3c 6a ca 36 3c 6b f7 c8 3c 93 55 87 3d
       0.029521296 0.011156658 0.02453204 0.06608119
0000c0 78 91 35 3d 80 ee 02 3d a9 35 ac 3d af f9 4a 3c
       0.044328183 0.031965733 0.08408672 0.012388631
0000d0 ef 6c 11 3d 4e a1 9b 3d 84 66 08 3c b6 29 95 3c
       0.035504278 0.07599126 0.008325223 0.018208366
0000e0 03 99 d5 3c a0 3a c1 3c 74 49 94 3c 23 48 04 3d
       0.026073938 0.023587525 0.018101431 0.032295357
0000f0 8a e1 cf 3c e1 9f 1b 3d 82 b5 3a 3d e6 ce c5 3d
       0.0253761 0.03799427 0.045583256 0.09658603

weight f4 [64, 67, 3, 3]
000000 36 e3 d3 3c 4d f5 d3 3c 8a e2 d3 3c b2 d9 d3 3c
       0.025865179 0.025873804 0.025864858 0.025860641
000010 17 cb d3 3c c8 bc d3 3c 7b c6 d3 3c f5 cc d3 3c
       0.025853677 0.025846854 0.025851479 0.025854567
000020 4f b7 d3 3c 65 c8 bd 3b 1b a8 bd 3b a1 bb bd 3b
       0.025844244 0.005791711 0.005787862 0.0057901894
000030 3d aa bd 3b 52 b0 bd 3b 24 c1 bd 3b 8d c2 bd 3b
       0.0057881163 0.0057888413 0.0057908464 0.0057910145
000040 1a a7 bd 3b c6 c9 bd 3b ec 90 be bc 26 d9 cb bc
       0.0057877423 0.0057918755 -0.023262464 -0.024883818
000050 75 66 c8 bc ca ad 90 bc 69 59 c6 bc fb bc 4d bc
       -0.024462918 -0.017660994 -0.024212556 -0.0125572635
000060 04 92 48 3c 41 60 b5 3c a0 d9 95 3c d6 a1 5b 2b
       0.012241844 0.022140624 0.018292248 7.802902e-13
000070 87 bb 03 b5 e1 2d a3 3c df b7 10 3c a2 cc e7 bb
       -4.907419e-07 0.019919338 0.008832901 -0.0070739547
000080 e7 9a f8 ba 12 78 28 3c e7 69 8d 3b 3b aa 30 bb
       -0.0018967063 0.010282533 0.004315603 -0.0026956934
000090 2d eb 19 bc c9 68 a4 3c 23 56 d1 3c ed 1b 0f bb
       -0.009394449 0.020069497 0.025553769 -0.0021836713
0000a0 04 ff 79 3c 5d 29 56 bb 43 94 ac bb 16 c4 82 3c
       0.015258554 -0.0032678463 -0.0052666976 0.015962642
0000b0 3b bf 1d bb 25 67 66 3c 5a f8 a8 3c bb b3 d2 3c
       -0.002407028 0.0140626775 0.020626236 0.025720468
0000c0 d1 33 c1 bc 05 04 17 bd a4 0c 07 3c 25 a0 b4 3c
       -0.023584278 -0.036869068 0.00824276 0.02204902
0000d0 50 e5 a4 3c 08 fd 26 bb 41 5a 9e bb 25 e6 9d 3c
       0.020128876 -0.0025480408 -0.0048325364 0.01927478
0000e0 03 2e 10 3c ad 83 56 bb 18 56 2e 3c 39 60 45 3c
       0.008800033 -0.0032732293 0.010640644 0.012046867
0000f0 34 ac 4e 3c fb 6c 43 b9 e8 14 c9 3c 01 65 b1 bb
       0.012614299 -0.00018637248 0.024546102 -0.005413652
000100 b1 54 18 bd fe b1 50 bc 23 2a 94 bc 36 2c 08 3d
       -0.037190143 -0.012737749 -0.018086499 0.033245288
000110 f7 5b 30 3b 1e 79 42 bc 2b ab 4f 3d 73 6a a3 3b
       0.0026910284 -0.011869697 0.050700348 0.004987055
000120 6d 4b c0 bc dd 05 d5 bc 64 f3 25 3d 81 aa 0c bd
       -0.023473466 -0.026003772 0.04051532 -0.034342293
000130 5b da 74 3b ef e3 21 bc 35 4c 4a b8 a8 7e bd 3a
       0.0037361595 -0.009881004 -4.8231526e-05 0.0014457302
000140 f7 26 bb 3b 9f a7 22 3c e8 04 ae 3c f4 e2 27 3d
       0.005711432 0.009927659 0.021242574 0.040987924
000150 95 15 9e 3c c9 1b 26 bd 7d e4 bc bb 4a a4 88 3c
       0.0192974 -0.04055384 -0.0057645426 0.016679902
000160 c0 f1 bf 3c 9a 8f 41 3b e6 95 1e bc 3c 3b 19 3c
       0.023430705 0.0029535056 -0.009679293 0.0093525015
000170 0a e0 fa 3b 8c 36 03 bd dc 3b c0 bc 6b db 3c bb
       0.007656102 -0.03203444 -0.023466043 -0.0028817307
000180 f7 cd b4 3c 7e 20 15 3c 91 aa fa bb 53 d3 b9 3b
       0.022070868 0.009101985 -0.0076497276 0.0056709438
000190 ad 17 b7 39 eb 17 9b 3c 9e e3 9d bb 06 4c 2b bc
       0.0003492212 0.018932303 -0.004818394 -0.010455137
0001a0 ce 00 a9 3c e6 14 a2 bc 51 72 83 bb 65 07 8b 3c
       0.020630267 -0.019785356 -0.0040114303 0.0169713
0001b0 e8 fa 78 3a 5a 00 58 b6 e6 fa 02 bc f0 36 8f bb
       0.0009497837 -3.2186713e-06 -0.007994389 -0.0043705627
0001c0 cb 3e 8d bb 1a 1d c6 bb 96 df 54 ba c9 aa 91 3b
       -0.004310464 -0.0060459496 -0.0008120475 0.004445408
0001d0 db 80 a2 3b 92 df 27 bc 9c 9d 21 bd 82 ee 41 3d
       0.0049592084 -0.010246174 -0.03945695 0.0473466
0001e0 4d f0 e0 bc ef ee 74 bb a2 48 15 3d 21 00 e3 b9
       -0.027458334 -0.003737386 0.03644622 -0.0004329691
0001f0 36 6e b1 bb e6 32 51 3c ef a0 84 bc e1 2d 60 bc
       -0.0054147495 0.012768483 -0.01619002 -0.013682813
000200 32 3d ee bc 58 fc bd bc 07 e2 ba 3c 5b b5 82 3b
       -0.029081915 -0.023191616 0.022812856 0.0039889044
000210 00 30 69 3c d0 21 da 3c c8 0d 90 3b 9d 36 5d 3c
       0.0142326355 0.026627451 0.004396174 0.01350179
000220 e6 87 cc 3a 35 ac 65 ba 41 c2 8c ba 0c e9 16 bc
       0.0015604466 -0.00087613176 -0.0010739045 -0.009210836
000230 3d e0 96 3a 4a 66 98 3c 47 0b 5b 3c 8b 1c 63 bc
       0.001151092 0.018603463 0.013369388 -0.013861786
000240 96 39 02 3c e1 b4 2c 3c 96 9f 0b bc 32 0c 10 ba
       0.0079483 0.010541172 -0.008521935 -0.00054949813
000250 74 76 75 3c 46 8f 2f 3b 74 9b cf 3c b3 ce d8 3c
       0.014981855 0.0026788278 0.02534268 0.02646575
000260 5b 49 0c 3c 99 dc ce bb 7e 0f 45 bc 6a 72 0d 3c
       0.008562411 -0.0063129184 -0.012027619 0.0086332355
000270 04 9c 02 bc 9c 7a 0d 3c 5a 1a 8e 3c 6d b3 9f bc
       -0.007971767 0.008635189 0.01734655 -0.019494737
000280 c0 58 dd bb 30 3f 29 3c 83 18 42 bb bf 83 ef bc
       -0.0067549646 0.0103300065 -0.002961666 -0.029237626
000290 68 7f b7 bc 62 c6 bf bb 42 a6 73 3c f9 ab 39 3b
       -0.02239962 -0.0058525065 0.014871182 0.0028331263
0002a0 24 0e 2a 3b 7f 38 9c bb 61 68 70 3b 92 37 df 35
       0.002594837 -0.004767477 0.0036683308 1.6630968e-06
0002b0 1c a5 2c 3b fe 50 70 35 81 9e 3c ba 1d f6 4d bb
       0.002634353 8.9524826e-07 -0.000719525 -0.0031427213
0002c0 78 cd 0b 3b 17 3c 17 bc 0d b5 f3 3b 9b 6b 26 bb
       0.0021332186 -0.009230635 0.0074373544 -0.0025393728
0002d0 9d c7 37 31 f4 a6 49 32 14 9a 18 34 ef 1e d4 b5
       2.6743472e-09 1.1737701e-08 1.4212156e-07 -1.5804234e-06
0002e0 fd 4d 99 bb 08 e4 f7 bb ff 55 24 3a 4f 04 0a 3c
       -0.0046784864 -0.0075650252 0.0006268918 0.008423879
0002f0 37 e3 3a 3a b1 92 34 bb 2e 48 3d 3a fd f6 8b 3b
       0.00071291946 -0.0027553255 0.00072205334 0.0042713867
000300 5e c9 65 3b f6 60 be 3b e4 4b b4 bb ff c7 15 3d
       0.003506265 0.0058098985 -0.005502211 0.036567684
000310 c8 c2 89 3c 0b 82 7f b9 82 20 ac 3c dc e3 e0 bb
       0.016816512 -0.0002436714 0.021011595 -0.0068631005
000320 8a 25 1e 3c e4 fa b8 3c bb 11 bb ba 93 d3 21 3a
       0.009652505 0.022580571 -0.0014272252 0.00061731896
000330 2d 74 b1 bc a4 21 ed 3a 85 de 70 bc 33 a6 dd 3a
       -0.021661842 0.0018091691 -0.01470149 0.0016910493
000340 19 e6 fa b9 4b dd 3e 3b 55 7d 71 bc 6d 84 96 bc
       -0.00047855152 0.00291236 -0.014739354 -0.018373692
000350 49 fb b8 3a 84 be 3a 3c fb ec 55 3c 02 45 a0 ba
       0.0014112975 0.0113979615 0.013056989 -0.0012227597
000360 43 6d 15 ba 31 a7 15 3d ee 18 ce 3c c3 11 73 b9
       -0.000570018 0.0365364 0.025158372 -0.00023180903
000370 d2 44 ac 3b 70 d5 a1 3b d9 a0 9d bb c2 2b 15 bc
       0.0052572275 0.004938774 -0.0048104343 -0.009104671
000380 35 03 c8 bc 78 78 52 32 99 1c 98 b1 48 1c 96 34
       -0.024415592 1.2251e-08 -4.4270334e-09 2.7960255e-07
000390 d8 eb 0e 3b 98 af 87 bb 4c 3e 72 ba 71 a8 f4 3b
       0.0021808054 -0.0041408055 -0.00092408503 0.007466369
0003a0 c3 60 a6 b9 5f d2 2a ba 99 91 81 37 b0 b1 c7 38
       -0.0003173408 -0.0006516333 1.5445798e-05 9.522156e-05
0003b0 28 b0 f7 b9 e9 ad c6 b3 1c f2 0a b2 ea 15 31 bb
       -0.00047242758 -9.2517276e-08 -8.0877065e-09 -0.0027021118
0003c0 ed 48 07 34 bf bb 80 38 34 55 e6 b8 4a 3f 0f 3d
       1.2599385e-07 6.138486e-05 -0.00010983125 0.034972467
0003d0 e9 8d 1e 3d 4c ae 09 bc 0f f1 19 bd 2a 50 6f bd
       0.038709555 -0.008403372 -0.037583407 -0.05842606
0003e0 32 22 07 3d 35 de 12 3d af d2 82 3c c4 df b1 bc
       0.032991596 0.035856444 0.015969602 -0.021713145
0003f0 1f fe 7d b9 53 0a 80 3a 02 04 3c bd 11 4f a6 bc
       -0.00024222628 0.0009768702 -0.04590226 -0.020301374

bias f4 [64]
000000 30 b7 81 b9 54 a9 09 3c d2 57 27 39 24 ce 04 3a
       -0.00024741283 0.008402187 0.00015959077 0.0005066118
000010 22 d2 53 3b 42 7f 1a 3d 0b f6 2f bc 80 02 6c ba
       0.0032321294 0.03771902 -0.010739814 -0.0009003058
000020 8a 5a 18 bc 9a fc 5c 37 13 a4 0e 38 da ef 8e 39
       -0.00929893 1.3171835e-05 3.4008244e-05 0.00027263054
000030 4e 76 56 38 76 2a d3 3c 9f 5f 20 bc 87 c9 ff bb
       5.1131756e-05 0.025777083 -0.009788423 -0.0078060064
000040 98 34 38 3a 87 aa 92 b9 95 e0 e0 ba fe 71 84 3b
       0.000702688 -0.00027974343 -0.0017156774 0.0040419092
000050 95 3d dc b7 67 df 26 3d 30 53 1d b6 eb 23 45 38
       -2.625472e-05 0.040740397 -2.3443245e-06 4.700191e-05
000060 88 af 9b 3b 90 45 46 b7 ba ed 25 39 ba 7b b6 b8
       0.0047511496 -1.1817916e-05 0.00015824186 -8.701482e-05
000070 67 9b 18 b9 8c 51 b6 b6 c0 fd 1b bb 26 37 ba bc
       -0.00014553741 -5.433516e-06 -0.002380237 -0.022731375
000080 ac 7e f8 bc 88 23 83 bb 92 73 7b 3b 3d 4d b4 ba
       -0.03033384 -0.0040020384 0.0038368446 -0.0013755929
000090 7d 94 60 3c d0 80 03 3d ab 51 be bc 6f 03 02 3d
       0.013707277 0.032105267 -0.023232302 0.031741556
0000a0 3a 33 25 bd 7c 82 e9 ba 33 c0 0b 39 4c 63 2f ba
       -0.040332057 -0.0017815377 0.00013327673 -0.00066905166
0000b0 82 bd 07 3d dd cf 55 3b bc 2b 63 bb 3d bd b6 b9
       0.033139713 0.0032625117 -0.003466352 -0.0003485474
0000c0 2b fd 3f 3d d7 b7 52 3a 0e ab 32 3d 7f 8a 89 38
       0.0468723 0.00080382585 0.04362016 6.558466e-05
0000d0 3b 36 24 ba f5 dd ed 38 9e 55 66 3b 6c 19 02 39
       -0.00062641845 0.000113423834 0.0035146247 0.00012407236
0000e0 8f fd d2 ba b2 cb 97 39 73 2d 6d b6 a7 b9 7d bb
       -0.0016097295 0.0002895273 -3.5342207e-06 -0.0038715394
0000f0 9c f7 96 3a e3 a9 99 3c 06 cf 03 b8 fd 1e 24 3c
       0.0011517885 0.018757766 -3.142564e-05 0.010017154

weight f4 [64]
000000 a1 2c a5 3d ca 2d 64 3e 2e e8 99 3d 9c 74 f4 3d
       0.08065153 0.22283092 0.07514988 0.11936304
000010 81 52 7c 3e 0a 4b 1b 3f 53 5e 01 3f e3 db 73 3e
       0.24640848 0.60661376 0.5053455 0.23814349
000020 2f 5f 49 3e 63 30 da 39 e6 c4 59 3d ef d8 94 3d
       0.19665216 0.0004161625 0.053166293 0.07267939
000030 2c a5 43 3d 78 88 03 3f fe 33 94 3e 23 4f a7 3e
       0.047764942 0.5138011 0.28945917 0.32677564
000040 95 ae 78 3e 2d 43 96 3d 69 30 53 3e 71 52 e5 3d
       0.24285348 0.073370315 0.20623936 0.11197365
000050 55 51 d5 3b 2f 1b 8e 3e 04 fc 8d 3a 2a 31 98 3d
       0.0065099397 0.27755114 0.0010832553 0.07431252
000060 8c 03 32 3e f5 1b 7a 3b d8 42 83 3e a8 f1 8e 3d
       0.17384166 0.0038163636 0.25636935 0.06979686
000070 8d e6 30 3d 9f 7f b0 3c 90 b9 86 3e 85 fb 25 3f
       0.04318862 0.02154523 0.26313448 0.64836913
000080 c2 62 00 3f 3c 52 8a 3e e1 33 52 3e c4 33 2a 3e
       0.5015069 0.27015865 0.20527603 0.1662131
000090 3e 6c 95 3e 83 dd 10 3e f4 96 9c 3e 8a a5 32 3e
       0.29184145 0.14147 0.30583918 0.1744596
0000a0 5c 20 f5 3e 63 19 35 3e 42 8b 60 3e ec 69 6d 3e
       0.4787625 0.17685466 0.21928123 0.23184937
0000b0 24 2a ae 3e 46 14 62 3e 4b cd 5b 3e 7f 84 90 3d
       0.34016526 0.22078046 0.21465032 0.070565216
0000c0 87 ef b1 3e 30 90 3f 3e bc 50 dd 3e 3d 72 c4 3c
       0.34753057 0.18707347 0.43225658 0.023980254
0000d0 05 4b 02 3e 2b 59 96 3d e7 47 67 3e 25 04 20 3d
       0.1272393 0.07341226 0.22586022 0.039066453
0000e0 c8 2a 5b 3e df 52 61 3e e9 23 fc 3a 0a d6 12 3e
       0.21403039 0.22004269 0.0019236776 0.14339462
0000f0 b0 52 4e 3e 4c 41 a5 3e 9e db c0 3a c9 20 17 3f
       0.2014873 0.3227638 0.0014713889 0.590344
