SND_trackers_My_data/9X0_file/19_9X0_coordconv_Label_Ve.pt (torch, 623547 bytes, 37 tensors)

weight f4 [32, 9, 3, 3]
0	0xbaafa585	-0.0013400769
1	0x3bfe6cf2	0.007764452
2	0xbc8665eb	-0.01640602
3	0xbb05ded9	-0.0020427017
4	0x3c42cce7	0.011889673
5	0xbb9557e6	-0.0045575975
6	0xbcdeeef7	-0.027213557
7	0xbb16210d	-0.0022907883
8	0x3b3143d0	0.0027048476
9	0x3cb071f1	0.021538706
10	0x3baa4308	0.005195979
11	0xbba64179	-0.005073723
12	0x3b67a95a	0.0035348744
13	0x3c8f3a48	0.017483845
14	0x3d0464a6	0.03232255
15	0xbc593022	-0.013256105
16	0x3bc3ae15	0.00597168
17	0x3d071352	0.03297741
18	0xbc8d3af5	-0.017240027
19	0xbc87043d	-0.016481513
20	0xbca62c0b	-0.020284673
21	0xbcafc593	-0.021456515
22	0xbc9e5609	-0.019328134
23	0xbca738bd	-0.020412797
24	0xbc863307	-0.016381754
25	0xbcbb417e	-0.022858378
26	0xbca31502	-0.019907478
27	0x3e0c3a5b	0.13694136
28	0x3da129f7	0.07869332
29	0x3cab50fc	0.02091264
30	0x3dac8ff9	0.08425898
31	0x3e08f65e	0.13375232
32	0x3d555494	0.052082613
33	0x3cf7e914	0.030262507
34	0x3d5de746	0.054175638
35	0x3d526267	0.051363375
36	0x3c34fb13	0.011046189
37	0x3c785192	0.015156167
38	0x3bfab6d2	0.0076511884
39	0x3d09e144	0.033662096
40	0x3cb87195	0.022515098
41	0x3ca1868f	0.019717483
42	0x3cb2f5cd	0.021845723
43	0xbb84ae6c	-0.004049113
44	0x3c9f6e80	0.01946187
45	0x3cbec73c	0.023288362
46	0x3cb6ef79	0.022330986
47	0x3c6fa061	0.01462564
48	0x3c8644d2	0.016390238
49	0x3c926f36	0.017875295
50	0x3ca5b9e9	0.02023025
51	0x3cb333ac	0.021875225
52	0x3c04185d	0.008062449
53	0x3ca95f16	0.020675223
54	0xbd12e9e4	-0.035867587
55	0x3d670620	0.056402326
56	0xbc534f56	-0.012897333
57	0x3dcb2a0a	0.09920128
58	0xb99c640f	-0.00029829188
59	0x3c91bcc2	0.017790202
60	0xbc9f54af	-0.01944956
61	0xbb9cf960	-0.00479047
62	0x3d26c4c4	0.040714994
63	0xbaf7dbf4	-0.0018910156
64	0x3d57e5c9	0.052709375
65	0x3d1da1a9	0.03848425
66	0xbcddc1ba	-0.027069915
67	0x3b6e3346	0.003634648
68	0x3db40ef9	0.08791918
69	0xbcc06ae2	-0.023488466
70	0x3d370637	0.04468366
71	0x3b5bdee5	0.0033549604
72	0x3dafa2af	0.08575951
73	0xbc9b791a	-0.018978644
74	0x3df2155b	0.118204795
75	0xbcaa972c	-0.020824037
76	0x3d2094b7	0.039204326
77	0xbc4b3b14	-0.012404222
78	0x3d529e78	0.05142066
79	0x3c3c9525	0.011510168
80	0x3d8aaa13	0.0677072
81	0x3cba4896	0.02273969
82	0x3c0363be	0.008019386
83	0x3bdf0d96	0.0068070395
84	0x3c87de12	0.016585384
85	0x3c227335	0.009915163
86	0x3c77cdab	0.015124719
87	0x3bb8e57f	0.0056425924
88	0x3cc2e5dd	0.023791248
89	0x3c840e81	0.016120197
90	0x3c5928ea	0.013254384
91	0x3b7976bf	0.0038065163
92	0xbc178b71	-0.009249554
93	0xbb9a7aa9	-0.0047143293
94	0xba02e7fb	-0.0004993674
95	0xb9e829a8	-0.00044281525
96	0x3ba83008	0.005132679
97	0x3c41aeeb	0.011821489
98	0xbbfefee8	-0.007781852
99	0x3bbfff1f	0.00585927
100	0x3bdc51be	0.0067236116
101	0x3bd0151f	0.006350174
102	0x3c0f3f01	0.008743049
103	0x3be136a2	0.006872968
104	0x3c11850a	0.008881817
105	0x3bf7676f	0.007550172
106	0x3bbffe1b	0.005859149
107	0x3bd78139	0.006576684
108	0x3d3d9c1a	0.04629145
109	0x3d649b7b	0.05581234
110	0x3d92120b	0.07132348
111	0x3d7ab961	0.061211947
112	0x3ccc4768	0.024936393
113	0x3d3b1aa8	0.04567972
114	0x3db48803	0.08815005
115	0x3d756914	0.059914663
116	0x3d001df5	0.03127857
117	0x3c489ffc	0.0122451745
118	0x3b268352	0.0025407863
119	0x3d178441	0.03699136
120	0x3d5fc323	0.054629456
121	0x3bc9775b	0.0061482615
122	0x3be60db2	0.0070206756
123	0x3cceec0f	0.025259046
124	0x3c3011dc	0.0107464455
125	0x3d1337b9	0.035941813
126	0x3d491abf	0.049097773
127	0x3d135906	0.03597357
128	0x3b8fe7a2	0.0043916265
129	0x3b708afd	0.0036703937
130	0x3c8bd9f4	0.017071702
131	0x3aa6865d	0.0012704838
132	0x3cdd1b11	0.026990445
133	0x3c708d3f	0.014682113
134	0x3cfc72e1	0.030816497
135	0x3c5b2b3c	0.013377007
136	0x3d298833	0.041389655
137	0x3d527c76	0.051388226
138	0xbc0d70c4	-0.008632842
139	0x3d0c73e8	0.034290224
140	0x3c45ee14	0.012080688
141	0xbb3e759e	-0.0029061805
142	0x3cfcaf06	0.030845176
143	0x3d2c2faf	0.042037662
144	0x3d80acb6	0.06282942
145	0x3d2f63df	0.042819854
146	0x3b0d2c5b	0.002154133
147	0x3c1346be	0.008989034
148	0x3bcba0c5	0.0062142336
149	0x3b497b70	0.003074374
150	0xbc903294	-0.017602243
151	0x3d696c9d	0.056988347
152	0x3c73121e	0.014835862
153	0x3d014516	0.031560026
154	0x3d66b2af	0.05632275
155	0x3c81b568	0.015833572
156	0x3d5dd9d2	0.054162808
157	0x3b6bf519	0.0036004244
158	0x3d2616bb	0.04054902
159	0x3ce4f858	0.02795045
160	0x3d4b11ba	0.049577452
161	0xbc7176e9	-0.014737823
162	0x3c421e48	0.01184804
163	0x3b2f5537	0.0026753673
164	0xbb5a6fc2	-0.0033330773
165	0x3c3af52a	0.011410991
166	0xbb36ed93	-0.0027912601
167	0xbc3973aa	-0.01131908
168	0x3c7e03af	0.015503808
169	0x3c71592f	0.014730736
170	0x3c83b27d	0.01607632
171	0x3c23d9c3	0.010000649
172	0x3bb9a246	0.0056650965
173	0x3c745e36	0.01491504
174	0xbba9d2d6	-0.0051826043
175	0x3c9bcdb6	0.019018989
176	0x3be3ddc9	0.006953929
177	0x3c4b8e8f	0.012424125
178	0xbb695f61	-0.0035609829
179	0x3ca60eab	0.020270666
180	0xbbe8e360	-0.0071071833
181	0x3ab921ea	0.0014124487
182	0xbbcd5583	-0.0062662973
183	0xbb370d54	-0.0027931528
184	0xbb757173	-0.0037451654
185	0xb9eabebc	-0.00044774066
186	0xbb6ab66d	-0.00358143
187	0xbad136d9	-0.001596178
188	0xbb87a86c	-0.0041399505
189	0x3d370bbc	0.044688925
190	0x3d23c9b6	0.03998729
191	0x3c147474	0.009060968
192	0x3d814601	0.0631218
193	0x3db6c90e	0.08925067
194	0x3d37ac01	0.04484177
195	0x3d81a357	0.06329983
196	0x3dc81faa	0.097716644
197	0x3d1764e4	0.03696145
198	0x3c8c79e7	0.017147971
199	0x3c13bc4a	0.00901706
200	0x3d1356cc	0.035971448
201	0x3cffced7	0.031226559
202	0x3c8472a9	0.016167955
203	0x3c801440	0.015634656
204	0x3cca39ac	0.024685703
205	0x3c23091c	0.009950902
206	0x3ce36c83	0.027761703
207	0x3cf0da30	0.029400915
208	0x3cc51172	0.02405617
209	0x3d2e77b7	0.042594638
210	0x3c2c58eb	0.010519247
211	0x3cf0dc83	0.029402023
212	0x3bba48a4	0.005684929
213	0x3b582b30	0.0032984726
214	0xba839cee	-0.0010041276
215	0x3d16f715	0.03685673
216	0x3b4037f8	0.0029330235
217	0x3ccef30d	0.02526238
218	0x3c96b2dd	0.018395836
219	0x3d11bdc6	0.035581373
220	0x3d3ace18	0.045606703
221	0x3c555ed8	0.013023101
222	0x3cf5d12c	0.030006967
223	0x3d4363c2	0.04770256
224	0x3ba12f66	0.0049189804
225	0x3c3809b5	0.011232783
226	0x3c95c251	0.018281134
227	0xbc1fdc34	-0.00975709
228	0x3d113da0	0.03545916
229	0x3d68a059	0.056793544
230	0x3ccdab2d	0.025106037
231	0xbc3707ff	-0.01117134
232	0x3ca851ee	0.02054688
233	0x3c1071c4	0.008816186
234	0x3cae8a4c	0.02130618
235	0x3c98af2e	0.01863822
236	0x3d306ca7	0.04307237
237	0xbc33e550	-0.010979965
238	0x3cd2e5c6	0.02574433
239	0x3d6fffbe	0.058593504
240	0x3d5aba38	0.05340025
241	0x3c57f8d1	0.013181881
242	0x3cd8056a	0.02636977
243	0x3d5733e5	0.052539725
244	0xbd8e1f5f	-0.06939577
245	0x3bd1ae64	0.006398963
246	0x3d157404	0.036487594
247	0xbd661011	-0.056167666
248	0x3cb6786c	0.022274218
249	0xbd50b7a6	-0.05095639
250	0x3cd70a4f	0.026250033
251	0x3cd188e6	0.025577974
252	0x3cd5b71b	0.026088288
253	0xbd6e60b4	-0.058197692
254	0x3d73b247	0.05949619
255	0xbd194852	-0.037422486

bias f4 [32]
0	0x3bedbfba	0.0072555216
1	0x3b7652d2	0.0037585986
2	0x3a75c65b	0.00093755656
3	0xbc7001e4	-0.014648888
4	0x3cf7bde8	0.030241922
5	0x3c1879cb	0.009306381
6	0x3c9a80a6	0.018860172
7	0xbb03a13c	-0.0020085117
8	0xbd17783b	-0.036979895
9	0x3c9e11c7	0.019295586
10	0x3cc601a0	0.024170697
11	0xbc30ddca	-0.010795066
12	0xbc1da194	-0.009621043
13	0x3bc9ad37	0.006154682
14	0xbb0bb032	-0.0021314737
15	0x3c477ae3	0.012175295
16	0x3b0ac1ab	0.0021172564
17	0xbc8a920a	-0.01691534
18	0x3cbeefbc	0.023307674
19	0xbade3b86	-0.0016954995
20	0x3ca05a30	0.019574255
21	0xbbb26399	-0.005444002
22	0xbc8042ca	-0.015656848
23	0x3d11be9b	0.035582166
24	0xbcbce1f5	-0.023056963
25	0xbbb8ffdb	-0.0056457347
26	0x3c5cd185	0.013477688
27	0x3ade231b	0.0016947718
28	0xbb9664ad	-0.004589638
29	0x3d2ace3b	0.041700583
30	0x3b8840dc	0.0041581225
31	0x3c07022b	0.008240263

weight f4 [32]
0	0x3eb884a3	0.36038694
1	0x3e350d5b	0.17680876
2	0x3e19c130	0.15015101
3	0x3e8c4cc0	0.27402306
4	0x3ed1fb8e	0.41012233
5	0x3e535b1d	0.20640226
6	0x3ec9d6e4	0.3942176
7	0x3da7469d	0.08167765
8	0x3ea8faf5	0.33003965
9	0x3eacd52d	0.3375639
10	0x3e6a9f5e	0.22912356
11	0x3eb7ae4b	0.35875162
12	0x3e371d50	0.17882276
13	0x3e5bedf1	0.21477486
14	0x3e253eab	0.16137187
15	0x3e36bbf7	0.1784514
16	0x3e07f908	0.13278592
17	0x3e5c5fe7	0.21520959
18	0x3e910b6b	0.28329024
19	0x3ec31c20	0.38107395
20	0x3e7ce604	0.24697119
21	0x3e9adc5e	0.30246252
22	0x3ebee8ef	0.3728709
23	0x3eb32847	0.34991667
24	0x3e842c7d	0.25815192
25	0x3e5fdaf5	0.21860869
26	0x3ea92fda	0.3304432
27	0x3db00639	0.08594937
28	0x3da0b70f	0.07847416
29	0x3e9683ba	0.29397374
30	0x3e1c0b4a	0.15238681
31	0x3e2b6744	0.16738611

bias f4 [32]
0	0xbe49b28c	-0.19697016
1	0xbe623ef0	-0.22094321
2	0xbe617cbf	-0.22020243
3	0x3adf632b	0.0017043104
4	0x3d109e73	0.03530736
5	0xbe062c54	-0.13102847
6	0x3d73e286	0.0595422
7	0x3c992666	0.018695068
8	0x3dd8584a	0.10563715
9	0xbe0e6676	-0.13906273
10	0xbdab93e0	-0.08377814
11	0x3cb8324b	0.022484919
12	0x3ced9c5d	0.029005224
13	0xbdc36757	-0.09541195
14	0xbde1ca7a	-0.110249475
15	0xbc0e00d9	-0.008667194
16	0xbe3725ad	-0.17885466
17	0xbd912a25	-0.070881166
18	0xbd6b1e73	-0.057402086
19	0xbeb0b899	-0.34515837
20	0xbe01a927	-0.12662183
21	0xbc9afe38	-0.01892005
22	0x3d56b22a	0.052416004
23	0x3cf76615	0.030200044
24	0x3dbd8147	0.09253173
25	0xbdfb40dc	-0.1226823
26	0x3b8716d6	0.0041225953
27	0x3c6b79d8	0.0143723115
28	0x3be1d4f8	0.006891843
29	0x3c95e7d8	0.018299028
30	0xbe2a434d	-0.16627236
31	0xbdee3974	-0.11632052

running_mean f4 [32]
0	0xbd9d617c	-0.07684609
1	0x3d3c9728	0.04604259
2	0xbbc851c9	-0.006113265
3	0x3d375d57	0.04476675
4	0x3d380121	0.04492295
5	0xbd262693	-0.04056413
6	0x3cdf6690	0.027270585
7	0xbc986656	-0.018603485
8	0xbd342319	-0.043978784
9	0x3c946f1c	0.018119387
10	0xbd45a4de	-0.048252933
11	0xbca87a42	-0.02056611
12	0x3c8a4c50	0.016882092
13	0xbc43a5b9	-0.011941367
14	0xbd9e02ad	-0.07715354
15	0xbd5153e4	-0.051105395
16	0xbcef6624	-0.02922351
17	0xbd91d957	-0.071215324
18	0xbdac9741	-0.08427287
19	0x3bfded72	0.007749253
20	0x3ceb0006	0.028686535
21	0x3da35ed4	0.079770714
22	0xbc06a0ed	-0.008217079
23	0x3d0c3aaf	0.034235653
24	0xbc19e212	-0.009392278
25	0x392bc70a	0.00016381979
26	0x3d4dc9b9	0.050241206
27	0x3bbac92e	0.005700252
28	0xbd2ab822	-0.04167951
29	0x3ca985fb	0.02069377
30	0xbd1e837e	-0.03869962
31	0x3cd658a7	0.02616532

running_var f4 [32]
0	0x3db72a83	0.08943655
1	0x3db41328	0.08792716
2	0x3da31c58	0.079643905
3	0x3d252f61	0.040328387
4	0x3d0fd0be	0.03511118
5	0x3cee5439	0.029092895
6	0x3c31d219	0.010853314
7	0x3c617cfa	0.013762707
8	0x3be07c7c	0.006850777
9	0x3d0eb097	0.034836378
10	0x3cb61959	0.022228884
11	0x3d666819	0.05625162
12	0x3d48ecc7	0.049053933
13	0x3cd4fde9	0.02599998
14	0x3d290002	0.041259773
15	0x3c5c7716	0.013456127
16	0x3d300beb	0.042980116
17	0x3d13c429	0.036075745
18	0x3d13fc3a	0.036129214
19	0x3e3fd9a9	0.18735375
20	0x3d15ad68	0.036542326
21	0x3d732c37	0.05936834
22	0x3c04fbf8	0.008116715
23	0x3d374364	0.044742003
24	0x3c066074	0.008201707
25	0x3c798a58	0.015230738
26	0x3d2c832e	0.04211729
27	0x3d00fb91	0.031489912
28	0x3d72e907	0.059304263
29	0x3e0a35f9	0.13497151
30	0x3d9d2c6d	0.07674489
31	0x3c3b29fa	0.011423582

weight f4 [32, 35, 3, 3]
0	0xbbea1015	-0.0071430304
1	0xbc03beef	-0.008041128
2	0xbc05014f	-0.008117988
3	0xbbe6d8b0	-0.007044874
4	0xbbda9b2d	-0.0066713304
5	0xbbedea67	-0.007260609
6	0xbbe061de	-0.006847604
7	0xbbfafa96	-0.0076592667
8	0xbbdcc2ef	-0.006737105
9	0xbaf0c1b5	-0.0018368276
10	0xbab9cf18	-0.0014176099
11	0xb9d68e40	-0.00040923245
12	0xbaeee5e5	-0.0018226473
13	0xbaabf263	-0.0013118502
14	0x38466946	4.7304922e-05
15	0xb8dc94ba	-0.0001051812
16	0xbb0b6e23	-0.0021275363
17	0xba895a3f	-0.0010479166
18	0xbc20beb9	-0.009811097
19	0xbc2ca26b	-0.01053677
20	0xbc3b151b	-0.011418606
21	0xbc1f54c8	-0.009724803
22	0xbc28316a	-0.0102656875
23	0xbc369bad	-0.011145514
24	0xbc21ad55	-0.009867986
25	0xbc2e1478	-0.010624997
26	0xbc38b708	-0.011274107
27	0xbc87a332	-0.01655731
28	0xbc8f96c6	-0.017527949
29	0xbc989b3a	-0.018628705
30	0xbc0de20e	-0.008659853
31	0xbc7835c7	-0.01514954
32	0xbcec1bf3	-0.028821921
33	0xbb09ebde	-0.0021045129
34	0x3b1572ae	0.002280395
35	0xbcb24332	-0.021760557
36	0xb85cdf99	-5.266033e-05
37	0xbc231605	-0.00995398
38	0xbc488750	-0.012239292
39	0xbbdea432	-0.006794476
40	0xbc830552	-0.015993748
41	0xbc390e99	-0.011294984
42	0xbba651b7	-0.005075659
43	0xbc3339d4	-0.01093908
44	0x3b186df5	0.00232589
45	0xbb7b4684	-0.003834159
46	0xbc152770	-0.009103641
47	0xbc36634d	-0.011132074
48	0xbc5473f4	-0.0129670985
49	0xbc727e2c	-0.0148005895
50	0xbbef8c3e	-0.0073104193
51	0xba5a5bac	-0.00083297
52	0xbbd5d6a7	-0.0065258327
53	0x3b92038b	0.0044559888
54	0xbc8b45d6	-0.017001074
55	0x3c63b9e2	0.013899298
56	0x3c805adf	0.01566833
57	0xbb07f86d	-0.0020747439
58	0xbcef9c75	-0.02924941
59	0x3be26b28	0.0069097467
60	0x3d432c29	0.047649536
61	0x3d51617b	0.051118355
62	0xbb839ea9	-0.0040167165
63	0xbc7d9cdb	-0.015479292
64	0x3be0c1bf	0.006859034
65	0x3c0f6de0	0.008754224
66	0x3cec7d20	0.028868258
67	0x3b99635b	0.0046810335
68	0xbc45aa7d	-0.012064573
69	0x3d484ba1	0.04890025
70	0x3d2aa07a	0.04165695
71	0x3c893075	0.016746739
72	0xbc2ab79b	-0.0104197515
73	0xbccea35e	-0.025224384
74	0xbc9ddaa0	-0.019269288
75	0xbc349c74	-0.011023629
76	0xbcb17aa2	-0.021664921
77	0xbc143587	-0.009045965
78	0xbc801932	-0.015637014
79	0xbbe7247e	-0.0070539108
80	0xbbb52688	-0.005528275
81	0xbb95da1e	-0.0045731207
82	0x3c9c7911	0.019100698
83	0xbcb6e7b4	-0.022327282
84	0x3d13cc57	0.036083546
85	0xbc34c9dc	-0.011034455
86	0xbcbbcbdd	-0.022924358
87	0x3da8cc17	0.08242052
88	0x3cbf8d5b	0.023382833
89	0x3ca9e419	0.020738648
90	0xbc89853d	-0.016787166
91	0x3c2c8a46	0.010531014
92	0xbc78731b	-0.015164162
93	0xb7a94636	-2.0179064e-05
94	0xbd362bae	-0.04447525
95	0xbc33d157	-0.0109752035
96	0xbab0f593	-0.0013500921
97	0xbcec341a	-0.028833438
98	0xbca2dcf7	-0.019880755
99	0xbd6124d6	-0.05496677
100	0xbd2cf5d0	-0.042226613
101	0xbc232d1f	-0.009959488
102	0x3c6bec70	0.014399633
103	0x3c70feb9	0.014709168
104	0xbca76dd0	-0.020438105
105	0x3d950f7c	0.07278344
106	0x3d83ebe4	0.06441477
107	0xbba11ee8	-0.0049170144
108	0xbc0b7863	-0.008512589
109	0xbc4f6f54	-0.01266082
110	0xbd1a6dc2	-0.03770233
111	0xbd23c807	-0.039985683
112	0xbc96d633	-0.018412685
113	0xbd00b4ee	-0.031422548
114	0xbd180d92	-0.037122317
115	0xbd31ddd7	-0.043424454
116	0xbb8652c4	-0.004099222
117	0xbc6ef7b8	-0.014585428
118	0xbc1458e3	-0.009054395
119	0xbcb11add	-0.021619255
120	0xbcf827fd	-0.030292505
121	0xbce65f22	-0.028121535
122	0xbcbba284	-0.022904642
123	0xbc1ef536	-0.0097020175
124	0xbd0277c1	-0.031852487
125	0xbc91d243	-0.017800456
126	0x3cadc35b	0.021211317
127	0x3c81fcf5	0.01586769
128	0x3cd1e701	0.025622847
129	0xbb8a1e97	-0.0042150724
130	0x39f3d243	0.0004650523
131	0x3c930fbc	0.017951839
132	0x3d163cbd	0.03667902
133	0x3bc7a706	0.006092909
134	0xbc591511	-0.0132496515
135	0xbc0403ff	-0.008057593
136	0x3cb51c9d	0.02210837
137	0x3c876ec6	0.016532313
138	0xbc563fe8	-0.01307676
139	0xbcbf845a	-0.02337854
140	0xbc4c6a6e	-0.012476547
141	0xbbd1b441	-0.006399662
142	0xbc524671	-0.012834177
143	0xbc250ef4	-0.010074366
144	0xbb77a51f	-0.0037787629
145	0xbc42b519	-0.011883997
146	0xbc816ae0	-0.015798032
147	0xbbe6bcb4	-0.007041538
148	0xbcbe367a	-0.023219336
149	0xbc0440e1	-0.008072109
150	0xbd023cfb	-0.031796437
151	0xbc9d8816	-0.01922993
152	0x3b48602c	0.00305749
153	0xbb99214a	-0.004673158
154	0xbcb5dbc2	-0.022199515
155	0xbcbbbde4	-0.022917695
156	0xbb1f827c	-0.002433925
157	0xbc2f45f1	-0.010697828
158	0xbc40ebf0	-0.011775002
159	0x3c14ac53	0.009074288
160	0x3c38e236	0.011284402
161	0x3c38e5fa	0.011285299
162	0x3c85661b	0.01628404
163	0xbc4a6d05	-0.012355094
164	0xbc9d9576	-0.019236308
165	0xbaa4d54c	-0.0012575774
166	0xbd0415eb	-0.032247465
167	0xb9223851	-0.00015470503
168	0x3d866a29	0.06563217
169	0x3c714285	0.014725332
170	0x3bf0dea9	0.007350762
171	0x3b157472	0.0022805003
172	0x3ab98fbb	0.0014157215
173	0xbc59c61e	-0.013291864
174	0xbd081dde	-0.03323161
175	0xbcba0294	-0.022706307
176	0xbba9714f	-0.005170978
177	0xb9bc72be	-0.00035943644
178	0xbb35340c	-0.002764943
179	0x3abf6611	0.0014602562
180	0x3a9de450	0.0012046192
181	0xbb9d0d7c	-0.004792867
182	0xbd03f696	-0.032217585
183	0x3c13cd41	0.009021104
184	0xbc856d7b	-0.016287556
185	0xbd04ecb8	-0.032452315
186	0x3d1c2eb7	0.03813049
187	0x3c2144f3	0.009843099
188	0xbc2633c2	-0.010144176
189	0xbcce43f8	-0.025178894
190	0xbce23907	-0.027615083
191	0xbd080fa4	-0.03321804
192	0xbcf5f5ff	-0.030024527
193	0xbd0637c2	-0.03276802
194	0xbd21d535	-0.03950997
195	0xbd246e98	-0.040144533
196	0xbd3beb4c	-0.045878693
197	0xbd09c36b	-0.03363363
198	0x3b36c89e	0.0027890573
199	0xbb762292	-0.0037557227
200	0xbc76f7f2	-0.015073763
201	0xbc8afce9	-0.0169663
202	0xbc277a59	-0.010222041
203	0xbc5787a6	-0.0131549
204	0xbab3fee4	-0.001373258
205	0xbb4e35a4	-0.0031465078
206	0x3bdb31f6	0.0066893054
207	0x3c092988	0.008371718
208	0xbb07755f	-0.0020669324
209	0xbd0315b0	-0.032003105
210	0xbbf9b78c	-0.0076207574
211	0xbc0844ef	-0.008317216
212	0xbcab2a7b	-0.02089428
213	0x3cc07625	0.023493836
214	0x3c50411c	0.012710836
215	0x3a8ecab8	0.0010894155
216	0xbc3ed90c	-0.011648428
217	0xbca77655	-0.020442167
218	0xbd29d0b4	-0.0414588
219	0xbbebd50e	-0.007197029
220	0xbcb15a66	-0.02164955
221	0xbac895e7	-0.0015303463
222	0xbc230ff2	-0.009952532
223	0xbca98dec	-0.020697556
224	0xbcbe7b25	-0.02325208
225	0xbd8f5709	-0.069990225
226	0xbb95eb97	-0.0045752036
227	0xbc1c51c7	-0.009540982
228	0x3d2ccf48	0.042189866
229	0x3be3608e	0.0069390005
230	0x3c85c81a	0.016330767
231	0x3d940c74	0.07228938
232	0x3dbaf9a2	0.09129645
233	0x3c3f0ecf	0.0116612455
234	0xba3634ff	-0.0006950646
235	0x3cd1ebc1	0.025625112
236	0xbc93a342	-0.018022183
237	0x3d15ab0b	0.036540072
238	0xbc8357fd	-0.016033167
239	0xbc42c654	-0.011888105
240	0x3ce56f61	0.028007211
241	0x3d87559e	0.06608127
242	0x3c69ec99	0.014277601
243	0xbd0dc03b	-0.034607153
244	0x3c4de632	0.01256709
245	0x3ba6cf7b	0.0050906516
246	0xbbaf5d5d	-0.005351706
247	0x3cfe9608	0.0310774
248	0xb9a56446	-0.00031545962
249	0x3d9a19ed	0.07524476
250	0x3d308c69	0.043102656
251	0xbba8f549	-0.0051561934
252	0x3c244326	0.010025775
253	0xbbcaa11c	-0.0061837565
254	0xbbcd2c89	-0.0062614125
255	0xbc93f0b3	-0.01805911

bias f4 [32]
0	0xb8bb66ab	-8.935978e-05
1	0x3ccca602	0.024981502
2	0x3c9607e0	0.018314302
3	0x3b42a1b0	0.0029698424
4	0xbc2a10e5	-0.0103800045
5	0x3bda0944	0.0066539366
6	0xbb864878	-0.0040979944
7	0x3a76c5f6	0.0009413654
8	0xbc643eca	-0.013930986
9	0xbcfe38c5	-0.03103293
10	0xbcd81862	-0.026378814
11	0xbac977e1	-0.001537081
12	0xbb1c6e33	-0.0023869395
13	0xba885eb1	-0.0010404197
14	0xbb65fe85	-0.0035094332
15	0x3b8ba7ee	0.004261962
16	0xbd2df01b	-0.04246531
17	0x3a9ef7e7	0.0012128324
18	0xb93a2399	-0.00017751603
19	0x381a82a8	3.6838144e-05
20	0x3ca1605b	0.019699266
21	0xbb7a2290	-0.0038167574
22	0xbb9b74ff	-0.0047441716
23	0xbab8ade4	-0.0014089909
24	0x369146c6	4.329576e-06
25	0xbc2872f1	-0.01028131
26	0xbb41ef19	-0.0029591976
27	0xb9462e11	-0.00018899913
28	0xbd1ebe74	-0.03875585
29	0x397ce5ba	0.00024118173
30	0xbbe6a3cb	-0.0070385686
31	0x3b7f4895	0.0038953174

weight f4 [32]
0	0x3e4aecf7	0.19816957
1	0x3eafc7b8	0.3433206
2	0x3e94443e	0.28958315
3	0x3e147aa7	0.14499913
4	0x3e5ec5fa	0.2175521
5	0x3ee29e7d	0.44261542
6	0x3e7ed9f6	0.24887833
7	0x3e21561e	0.15755507
8	0x3e5c3041	0.21502782
9	0x3ed84988	0.422436
10	0x3e42c367	0.19019853
11	0x3e4e2765	0.20132215
12	0x3e3e671f	0.18594025
13	0x3e2328fb	0.15933602
14	0x3e68f461	0.22749473
15	0x3de6fcf2	0.11278714
16	0x3ea64174	0.32471812
17	0x3dcad5f3	0.09904089
18	0x3d3d92ca	0.046282567
19	0x3d4a404e	0.049377732
20	0x3eaaa016	0.3332526
21	0x3e443ebd	0.19164558
22	0x3e305ae7	0.17222176
23	0x3e2d774e	0.16940042
24	0x3dd8377c	0.10557458
25	0x3dfa0e8f	0.12209808
26	0x3e2738e1	0.16330291
27	0x3df1bb05	0.11803249
28	0x3e96c6e3	0.29448614
29	0x3e0195e1	0.1265483
30	0x3ee3f91a	0.44525987
31	0x3dc61091	0.096711285

bias f4 [32]
0	0xbdaa5091	-0.08316148
1	0x3dd59ad4	0.10429922
2	0x3dba651d	0.09101317
3	0xbda85668	-0.08219606
4	0x3db096db	0.086225234
5	0x3e0c1b56	0.13682303
6	0x3dda49a4	0.10658577
7	0xbda4e7fc	-0.0805206
8	0x3d9f2c0d	0.07772074
9	0x3e04db62	0.12974313
10	0x3cfba49f	0.030718146
11	0xbddf7db0	-0.10912645
12	0xbdb58e8a	-0.08865078
13	0xbd9d8c70	-0.07692802
14	0x3d54575e	0.051841132
15	0xbd56c2c7	-0.052431848
16	0x3dba7867	0.09104996
17	0xbd265e93	-0.040617537
18	0xbcefe006	-0.029281627
19	0xbd8544c8	-0.065072596
20	0x3dffc8d8	0.1248948
21	0xbda0ded4	-0.07855001
22	0xbce566b7	-0.02800308
23	0xbd8c8162	-0.06860615
24	0xbd061c4d	-0.032741833
25	0xbd3a45f4	-0.04547687
26	0xbd9a436f	-0.07532393
27	0xbdcd0145	-0.10010008
28	0x3db5f916	0.088854
29	0xbd1c1cf5	-0.038113553
30	0x3e031dd9	0.12804355
31	0x3dde32d9	0.10849542

running_mean f4 [32]
0	0xbc98cfd4	-0.018653788
1	0x3d9b5192	0.07583918
2	0x3d96040c	0.07324991
3	0xbe13f22e	-0.14447853
4	0x3d23d244	0.039995447
5	0x3d913ebb	0.07092043
6	0x3d0ecac7	0.034861352
7	0xbdc21e31	-0.09478415
8	0x3cd8fc62	0.026487533
9	0x3ce7186b	0.028209886
10	0xbcacab36	-0.021077733
11	0xbcd00a3b	-0.025395503
12	0xbcc1264b	-0.02357783
13	0xbd2c883a	-0.042122103
14	0xbd275aaf	-0.040857967
15	0xbd7a268b	-0.061071914
16	0xbd6a5869	-0.05721322
17	0xbc9534f2	-0.018213723
18	0xbe8d0c3a	-0.2754839
19	0xbdb20d9a	-0.086940005
20	0x3d43d4ca	0.047810353
21	0xbd095eef	-0.0335378
22	0xbdaf3087	-0.08554178
23	0xbdd0a3b5	-0.10187475
24	0xbce7a889	-0.028278606
25	0xbcf2a015	-0.029617349
26	0xbdd7d6d2	-0.105390206
27	0xbdd8d1a1	-0.105868585
28	0xbd3045fa	-0.043035485
29	0xbd25a913	-0.040444445
30	0x3d8ecf9e	0.069731936
31	0xbd7df1ef	-0.061998304

running_var f4 [32]
0	0x3cc85a3c	0.02445709
1	0x3cc230a9	0.023704844
2	0x3c969867	0.018383218
3	0x3dfa9d7c	0.12237069
4	0x3c995c9b	0.018720916
5	0x3ced41dc	0.028962068
6	0x3c898a4f	0.016789583
7	0x3e34d596	0.17659602
8	0x3c0e0402	0.008667948
9	0x3cb68bde	0.02228349
10	0x3c834c16	0.016027492
11	0x3d2effe5	0.04272451
12	0x3d25771e	0.040396802
13	0x3d47c9db	0.04877649
14	0x3c01f0ed	0.007930976
15	0x3cf332a0	0.029687226
16	0x3c3a6047	0.011375493
17	0x3d85a514	0.06525627
18	0x3e220466	0.1582199
19	0x3d8f466b	0.06995853
20	0x3c834798	0.01602535
21	0x3e203b81	0.15647699
22	0x3cb1346f	0.021631448
23	0x3e0a53ad	0.13508482
24	0x3c687ff8	0.014190666
25	0x3d0ffac0	0.035151243
26	0x3e3ac60a	0.18239608
27	0x3e8a23a7	0.26980326
28	0x3c0a064d	0.008424354
29	0x3ea09037	0.31360027
30	0x3cc245e5	0.023714969
31	0x3e187178	0.14887035

weight f4 [64, 35, 3, 3]
0	0x3b2b7c45	0.00261666
1	0x3b346b85	0.0027529907
2	0x3b2eacb9	0.0026653244
3	0x3b33adf6	0.0027416921
4	0x3b31c8e2	0.0027127792
5	0x3b366c2c	0.0027835472
6	0x3b346678	0.0027526896
7	0x3b28ab83	0.0025736995
8	0x3b2cefcd	0.002638805
9	0xbb1e9066	-0.0024194955
10	0xbb18a155	-0.002328952
11	0xbb1e0ac7	-0.002411531
12	0xbb1b8c55	-0.0023734767
13	0xbb175dbc	-0.0023096642
14	0xbb2023de	-0.002443544
15	0xbb1da8b2	-0.002405685
16	0xbb18af09	-0.0023297688
17	0xbb1d2254	-0.002397676
18	0x3d112ab0	0.0354411
19	0x3d16f947	0.036858823
20	0x3d1c4dec	0.03816025
21	0x3d054e28	0.03254524
22	0x3d0a798b	0.03380732
23	0x3d0f3d80	0.03497076
24	0x3cf20159	0.029541658
25	0x3cfb1ef8	0.030654415
26	0x3d01dc3b	0.03170417
27	0xbd049692	-0.032370158
28	0xbcb22ea8	-0.021750763
29	0xba35f820	-0.00069415756
30	0xbc663ca5	-0.014052545
31	0xbca323ce	-0.019914534
32	0x3c4f6a28	0.012659587
33	0xbc994423	-0.018709248
34	0xbd51cf72	-0.051223226
35	0x3cdf7f11	0.02728227
36	0x3c002d4c	0.0078233
37	0xbc33fc93	-0.010985511
38	0xbd36f692	-0.04466874
39	0x3c56d1a3	0.013111505
40	0xbcce2e54	-0.025168575
41	0x3a064a08	0.0005122726
42	0x3cccf782	0.025020365
43	0xbcab37ed	-0.02090069
44	0x3ca81de6	0.02052207
45	0x3bf812d1	0.0075706025
46	0xbc46fcbf	-0.01214522
47	0xbcd98b83	-0.026555782
48	0x3b901de0	0.0043980926
49	0xbcf966d8	-0.030444548
50	0x3c427f71	0.011871205
51	0xbb4df643	-0.00314273
52	0x3c1453eb	0.009053211
53	0x3caebf2a	0.021331389
54	0xbc1f5beb	-0.009726505
55	0x3c920702	0.017825607
56	0x3bd4084d	0.006470716
57	0xbc8ede1a	-0.01743989
58	0x3bc21261	0.005922601
59	0xbc5df9d1	-0.01354833
60	0xbc4076da	-0.011747086
61	0x3baa3027	0.0051937285
62	0x3c1c92f8	0.009556524
63	0x3cdd1849	0.02698912
64	0x3c19c804	0.009386066
65	0xbb8d90ef	-0.004320256
66	0x3be4df16	0.0069846017
67	0xbb6de75a	-0.0036301226
68	0xbccfbd2f	-0.025358764
69	0xbc546c48	-0.012965269
70	0x3cb250da	0.021767069
71	0xbc8989ff	-0.016789434
72	0x3cb9d34d	0.022683764
73	0x3a71000e	0.00091934286
74	0xbc1bc8d1	-0.009508328
75	0xbb32cfde	-0.0027284543
76	0xbcdd082c	-0.026981436
77	0xbbd4842f	-0.006485484
78	0xbc59557b	-0.013265009
79	0xbc193dc1	-0.009353102
80	0x3bbce60d	0.005764729
81	0xbcbe22ab	-0.02320989
82	0xbc95ce07	-0.018286718
83	0xbd2b0379	-0.04175136
84	0x3d0e07af	0.034675296
85	0x3c72447c	0.014786836
86	0xb9a796c7	-0.0003196506
87	0x3d229154	0.039689377
88	0x3ccc677b	0.024951687
89	0x3d2c72ea	0.042101778
90	0xbc903ae9	-0.017606216
91	0xba6f0fa4	-0.0009119457
92	0x3a77b58d	0.00094493554
93	0xbc8bdc3b	-0.017072788
94	0x3bb5d748	0.005549345
95	0x3b883009	0.004156117
96	0xbc807aaf	-0.0156835
97	0xbc0a76a4	-0.008451138
98	0x3cd4d198	0.025978848
99	0x3ccdab2a	0.025106031
100	0xbc2d1ab7	-0.010565451
101	0x3c3a6fd7	0.011379204
102	0xbc8c8d0c	-0.0171571
103	0xbd2a5306	-0.041583084
104	0xbb8faee7	-0.0043848637
105	0xbbfbc2b9	-0.007683125
106	0xbc8ca1be	-0.017166968
107	0xbc04563b	-0.0080772
108	0x3c7a57f9	0.015279763
109	0xbbf80c0a	-0.0075697945
110	0xbd188400	-0.03723526
111	0x3c725dca	0.014792869
112	0xbb649b08	-0.0034882445
113	0x3b900eec	0.00439631
114	0x3cd4bc15	0.02596859
115	0xbb4c7c4b	-0.0031202014
116	0x3d2c09a9	0.0420014
117	0x3c368915	0.011141081
118	0x3cfb2289	0.030656116
119	0xbc05c160	-0.00816378
120	0x3c02e800	0.007989883
121	0x3b8dc28b	0.00432617
122	0xbd33904a	-0.043838777
123	0xbc108e94	-0.008823056
124	0xbd08bf08	-0.033385307
125	0x3beaa79b	0.0071610934
126	0xbcabda5a	-0.020978142
127	0x3cb56404	0.022142418
128	0xbc48f3ef	-0.01226519
129	0xbcd39729	-0.025828915
130	0xbb8592da	-0.004076344
131	0xbcf1c4f8	-0.029512867
132	0xbd347594	-0.044057444
133	0xbb8a7462	-0.0042252997
134	0xb8443327	-4.677768e-05
135	0xbc80162f	-0.015635578
136	0x3b85d600	0.0040843487
137	0x3cb16fbe	0.021659728
138	0xbc91bde1	-0.017790737
139	0xbce69e8d	-0.028151775
140	0xbc8cd096	-0.017189305
141	0xbc2c90c6	-0.010532564
142	0xbcbdbe83	-0.023162132
143	0x3cb8764f	0.022517351
144	0xbcc29e09	-0.023756998
145	0x3ce8caa4	0.02841694
146	0xb8f15d9b	-0.00011509211
147	0xbd11ddc1	-0.03561187
148	0x3bd0666f	0.0063598673
149	0xbc52da48	-0.012869425
150	0xbc69b0f0	-0.014263377
151	0x3c6a9bca	0.01431937
152	0x3d0b1fc2	0.033965833
153	0xbcbc5123	-0.022987908
154	0x3cbf5f1d	0.023360783
155	0x3ca5c9dd	0.020237857
156	0x3b9f7462	0.004866169
157	0xbce0203b	-0.027359119
158	0xbcd6d515	-0.026224652
159	0xbb4b8dfe	-0.0031059976
160	0x3d141fc3	0.036163103
161	0xbd327096	-0.0435644
162	0xbd06e3bb	-0.032932024
163	0x3ccca55c	0.024981193
164	0x3b973689	0.0046146554
165	0xbd207557	-0.039174404
166	0xbd0e0a27	-0.03467765
167	0xbcb8cafa	-0.022557724
168	0xbcbe5aaf	-0.0232366
169	0xbc87738a	-0.016534586
170	0x3ceb8a49	0.028752463
171	0x3cddb9f9	0.027066218
172	0x3cbe69c2	0.023243789
173	0x3bb9ea46	0.0056736795
174	0x3d5f60d1	0.05453569
175	0x3da045bb	0.078258
176	0x3dcc4306	0.09973721
177	0x3dabe49e	0.08393215
178	0x3c950882	0.018192533
179	0x3e11dcd1	0.14244391
180	0x3b84d4fe	0.004053711
181	0x3b979056	0.0046253605
182	0x3bb7cef1	0.005609386
183	0x3b9e91d3	0.004839161
184	0x3bb52e81	0.0055292253
185	0x3be71cb1	0.007052981
186	0x3b55348d	0.0032532543
187	0x3b9f8731	0.004868411
188	0x3b83d45d	0.0040231184
189	0xbc65d918	-0.01402881
190	0x3bbad568	0.0057017095
191	0xbb666420	-0.0035154894
192	0xbc1e2238	-0.009651713
193	0x3bc289ab	0.0059368215
194	0xbc1207d9	-0.008913004
195	0xbb8c326e	-0.0042784726
196	0xbb462008	-0.0030231494
197	0x3b8efe57	0.0043638158
198	0xbc3c46cb	-0.011491488
199	0x3c879d1f	0.016554413
200	0x3ca0713b	0.019585242
201	0xbbbf0dfa	-0.0058305236
202	0xbd1c50bd	-0.038162936
203	0xbc8cb9e9	-0.017178493
204	0xb7d78cc9	-2.5695555e-05
205	0xbc706871	-0.014673338
206	0x3ca174e6	0.019709062
207	0xbc499924	-0.012304578
208	0xbcd2715d	-0.025688821
209	0xbd5f6d1e	-0.05454742
210	0x3ce3d5fe	0.027812
211	0x3bcbc5b6	0.0062186373
212	0x3d13722e	0.035997562
213	0x3d23d4f4	0.03999801
214	0x3d0f868a	0.035040416
215	0x3d8dac5c	0.069176406
216	0xbcdcfa37	-0.02697478
217	0x3c87c37a	0.016572703
218	0xbc263817	-0.010145209
219	0xbd0e7932	-0.03478355
220	0x3acce9fd	0.0015633699
221	0xbcd35bd4	-0.025800623
222	0xbcd13255	-0.025536695
223	0x3bd9bcd8	0.0066448264
224	0x3caf7e8c	0.021422647
225	0x3d4b82aa	0.049685158
226	0x3d80b56c	0.062846035
227	0x3d29a1f3	0.041414212
228	0x3badadb9	0.0053002504
229	0x3bc4b1d8	0.006002646
230	0x3d6aeec4	0.05735661
231	0x3c2f7edd	0.010711399
232	0xbd51e50b	-0.051243823
233	0x3d8afdb2	0.0678667
234	0xbce5cee2	-0.028052751
235	0x3c7b1cae	0.015326662
236	0xbb8f568b	-0.0043743304
237	0xbcfe0b34	-0.031011201
238	0x3b8911f9	0.0041830507
239	0xbc849507	-0.016184343
240	0xbca215db	-0.019785812
241	0xbbd54f8e	-0.006509728
242	0x3c1f8731	0.009736822
243	0x3b197546	0.0023415848
244	0xbb14b591	-0.002269123
245	0x3aa6351b	0.0012680622
246	0x3b72a966	0.003702724
247	0xbb073361	-0.002062999
248	0x3b2a2eaf	0.0025967767
249	0x3b3940e8	0.0028267447
250	0x3ace754e	0.0015751512
251	0x3b329257	0.002724787
252	0x3d582f23	0.052779328
253	0x3d6efa62	0.058344252
254	0x3d10a0f7	0.035309758
255	0x3d3e696c	0.046487257

bias f4 [64]
0	0x399bda88	0.00029726722
1	0xb9069854	-0.00012835982
2	0xbca9c72d	-0.020724857
3	0xbb8d4813	-0.0043115704
4	0xba53d38d	-0.0008080535
5	0xb8028619	-3.1119303e-05
6	0xbc896584	-0.01677204
7	0xba048c8d	-0.0005056344
8	0xbcdcaf1b	-0.026938966
9	0x39e7823c	0.00044156786
10	0x3989231b	0.00026156832
11	0xba5c81d3	-0.00084116793
12	0xbc3becd1	-0.011470036
13	0xba15add0	-0.0005709799
14	0x39e1298d	0.00042946302
15	0xba4d196a	-0.00078239164
16	0x3b8bf78e	0.004271454
17	0xb9a00076	-0.00030517922
18	0x3a0dd5a2	0.0005410557
19	0xba832b60	-0.0010007434
20	0x3b9bce79	0.004754838
21	0x3c7ce05b	0.01543435
22	0x3929fbd7	0.00016210914
23	0x3a566eb7	0.000817995
24	0xbb1623ee	-0.00229096
25	0xbb53403a	-0.0032234327
26	0xbab2fd89	-0.0013655882
27	0x3a0a62cd	0.00052790047
28	0xb72f8646	-1.0462076e-05
29	0xb88d497e	-6.737093e-05
30	0x3980f002	0.00024592882
31	0x3cce0289	0.025147693
32	0xb9aaba2d	-0.00032563639
33	0xbad97c77	-0.001659288
34	0xba370827	-0.0006982111
35	0x3d1e0708	0.038580924
36	0xbc6e04ed	-0.014527542
37	0xba2966ab	-0.0006462137
38	0xbc09ab32	-0.008402633
39	0xbaa8ac20	-0.001286868
40	0x3cdf45bf	0.027254937
41	0x3bd08552	0.0063635493
42	0xb98a46e4	-0.0002637423
43	0xbbedd4ea	-0.0072580473
44	0x3955717f	0.00020355544
45	0xbc9daa93	-0.019246375
46	0xbbaa5041	-0.0051975553
47	0xb99bb974	-0.00029702077
48	0x3b38812f	0.0028153171
49	0x3d17bc8e	0.037045054
50	0xb9f851ea	-0.00047363277
51	0xbaff6e58	-0.0019487841
52	0x3ca938ff	0.02065706
53	0x3a85b414	0.0010200762
54	0x39723bc7	0.00023101187
55	0xbb99f2b1	-0.0046981205
56	0x3d10d083	0.035355102
57	0x3a66ed5e	0.0008809174
58	0xb9125749	-0.00013956161
59	0x3bd83fc6	0.0065993993
60	0x3ba13974	0.004920179
61	0x3baadaa3	0.005214052
62	0x37c7ed4b	2.3833147e-05
63	0x3d4b8331	0.04968566

weight f4 [64]
0	0x3db8a1b4	0.090152174
1	0x3dc27adc	0.0949609
2	0x3e91b12c	0.28455484
3	0x3e66e092	0.22546604
4	0x3ddca1d9	0.107730575
5	0x3d8d95e1	0.06913353
6	0x3e2db524	0.16963631
7	0x3e087cda	0.13328877
8	0x3eae3b6f	0.3402972
9	0x3e586156	0.2113088
10	0x3dbec153	0.093142174
11	0x3d93f85d	0.07225106
12	0x3e72bc86	0.23704728
13	0x3dedb4b7	0.11606734
14	0x3d8b4b6a	0.068014935
15	0x3e009e25	0.12560327
16	0x3eaeeff3	0.34167442
17	0x3dc488dd	0.09596417
18	0x3d9d27ba	0.07673593
19	0x3e62cb17	0.22147785
20	0x3e16e895	0.1473716
21	0x3e0d6443	0.13807778
22	0x3dac2aad	0.08406577
23	0x3de3c509	0.11121566
24	0x3dee9cdd	0.11651013
25	0x3df891f3	0.121372126
26	0x3dce3a9e	0.10069774
27	0x3e38dc6e	0.18052837
28	0x3d99f78e	0.075179204
29	0x3d78f5bf	0.060781237
30	0x3da6aada	0.08138056
31	0x3e9d2642	0.3069325
32	0x3dd21357	0.10257595
33	0x3e24a72a	0.16079393
34	0x3dce42be	0.10071324
35	0x3e8f617c	0.28004062
36	0x3e410f43	0.18853478
37	0x3e05b871	0.1305864
38	0x3e3b20d3	0.1827424
39	0x3daa4169	0.08313257
40	0x3e271245	0.16315563
41	0x3e45a210	0.19300103
42	0x3dcfc137	0.10144275
43	0x3e312fe7	0.1730343
44	0x3d865731	0.06559599
45	0x3e865f25	0.26244465
46	0x3e5b44ec	0.2141301
47	0x3df25a8d	0.118336774
48	0x3ddfce6e	0.10928045
49	0x3eb3dc5e	0.35129064
50	0x3df72859	0.120682426
51	0x3d9c398c	0.07628164
52	0x3e4d0d11	0.20024516
53	0x3db6aa07	0.08919149
54	0x3dc4b915	0.09605614
55	0x3e0bd063	0.13653712
56	0x3e610e0f	0.21978019
57	0x3e94fdd8	0.29099917
58	0x3cc7edab	0.024405321
59	0x3ea16312	0.31520897
60	0x3e3352a6	0.17511997
61	0x3e4385e6	0.19094047
62	0x3d9ffcdb	0.078119
63	0x3eaf96e6	0.34294814

bias f4 [64]
0	0xbdce6449	-0.100777216
1	0xbd749899	-0.05971584
2	0x3db165c0	0.086619854
3	0x3cdc43f0	0.026887864
4	0xbd72f576	-0.05931612
5	0xbd6e3611	-0.05815703
6	0x3dd4eef9	0.10397143
7	0xbda3076d	-0.07960401
8	0x3dfbb94a	0.122912005
9	0x3d9f0814	0.07765213
10	0xbcc93f8d	-0.024566436
11	0xbc607dba	-0.013701851
12	0x3d473825	0.048637528
13	0xbd88afaf	-0.06674134
14	0xbd204028	-0.039123684
15	0xbd65b8b1	-0.05608434
16	0x3d986742	0.0744157
17	0xbd608925	-0.05481829
18	0xbd62c51b	-0.055363756
19	0x3e00782a	0.12545839
20	0x3d8faaa6	0.070149705
21	0x3dbec4de	0.09314893
22	0xbd5a72a2	-0.05333198
23	0xbd8da2d2	-0.06915821
24	0xbd971bcf	-0.07378351
25	0x3c069d1a	0.008216167
26	0xbd15ec86	-0.03660252
27	0xbdb47fa5	-0.08813409
28	0xbd6f05fb	-0.058355313
29	0xbd145ef9	-0.036223385
30	0xbd657deb	-0.056028288
31	0x3da4c7e8	0.080459416
32	0x3bb3a18d	0.005481905
33	0xbced6819	-0.028980302
34	0xbd8cfd69	-0.06884272
35	0x3d1aa03a	0.03775046
36	0x3d8057ef	0.06266772
37	0xbd1590dd	-0.036515106
38	0x3dd0978b	0.101851545
39	0xbd7898a9	-0.060692463
40	0x3e09db90	0.13462663
41	0x3dec2ba0	0.11531758
42	0xbd892396	-0.066962406
43	0x3d6df8ab	0.058098476
44	0xbd896db3	-0.067103766
45	0x3cc4c46f	0.024019448
46	0x3c000de1	0.007815809
47	0xbd9382ab	-0.07202657
48	0xbd5e215f	-0.054231044
49	0x3d729ce2	0.059231646
50	0xbd6de3af	-0.058078464
51	0xbd6f78a8	-0.058464676
52	0x3d66184b	0.05617551
53	0x3c83a7ac	0.016071163
54	0xbd81eac0	-0.06343603
55	0x3c429c14	0.011878032
56	0x3d0b0367	0.03393879
57	0xbd7f3c50	-0.062313378
58	0xbcb4ff49	-0.022094386
59	0x3e3005fe	0.17189786
60	0x3d49741f	0.049183007
61	0x3dea451d	0.114389636
62	0xbd1dde8c	-0.038542315
63	0x3d7466e8	0.05966845

running_mean f4 [64]
0	0x3e80d296	0.25160664
1	0xbd18d22b	-0.037309807
2	0x3e2e5220	0.17023516
3	0xbd6d29fa	-0.05790136
4	0xbdc74476	-0.09729855
5	0xbdecfa56	-0.11571185
6	0xbc9deb98	-0.019277379
7	0x3c610e18	0.01373627
8	0xbce17c2e	-0.027525034
9	0xbd8d38d5	-0.068956055
10	0xbebfb1b9	-0.3744028
11	0x3da372aa	0.07980855
12	0xbd25e40c	-0.040500686
13	0xbd7a41ee	-0.06109803
14	0xbdb6220e	-0.08893214
15	0xbe0193a6	-0.1265398
16	0x3d391c5c	0.04519306
17	0xbdc809b4	-0.09767476
18	0xbca23e27	-0.019805027
19	0x3c78adc9	0.015178152
20	0xbc90a2b7	-0.017655713
21	0x3d13bc0e	0.036068015
22	0xbe316abc	-0.17325872
23	0x3bdaaa32	0.006673121
24	0x3c576eb0	0.013148949
25	0x3e5c303d	0.21502776
26	0xbe217feb	-0.15771453
27	0xbd88e0d3	-0.06683507
28	0xbd9b9b12	-0.07597937
29	0xbdf5e97b	-0.120074235
30	0xbd3ece74	-0.046583608
31	0x3dadbd2b	0.084833466
32	0xbd3628fe	-0.044472687
33	0xbd81e0f1	-0.06341732
34	0x3b1f50fe	0.002430975
35	0x3d71fff8	0.059082
36	0x3e2b9175	0.16754706
37	0x3a52a12a	0.00080348796
38	0x3def9e4f	0.11700117
39	0xbd8fa0cc	-0.070130914
40	0x3d905150	0.07046759
41	0x3d0bd444	0.03413798
42	0xba27b652	-0.0006397712
43	0x3d8b374a	0.06797655
44	0xbda740ac	-0.08166632
45	0xbd29fa27	-0.04149833
46	0x3e1c609d	0.1527123
47	0xbc296c1c	-0.010340717
48	0x3b059a86	0.0020386293
49	0x3d9cc87d	0.076554276
50	0x3ea4d102	0.3219071
51	0xbdb64b04	-0.08901027
52	0xbabae337	-0.0014258389
53	0x3cc7ea12	0.024403606
54	0xbc25574e	-0.010091616
55	0x3c46b9c7	0.012129254
56	0x3ca63c45	0.02029241
57	0x3de7673f	0.112989895
58	0xbd8f4984	-0.06996444
59	0xbce0cc99	-0.02744131
60	0xbc0668f1	-0.008203731
61	0x3d15a8a6	0.03653779
62	0xbe36ba8b	-0.17844598
63	0x3df57dd8	0.119868934

running_var f4 [64]
0	0x3c3fbbc5	0.011702483
1	0x3d88bdf3	0.06676855
2	0x3d6f3bd4	0.058406666
3	0x3b6b9859	0.003594896
4	0x3c93494c	0.017979287
5	0x3d745e3a	0.059660174
6	0x3c0bd20b	0.008533965
7	0x3da69991	0.08134759
8	0x3b794c11	0.0038039724
9	0x3c01cf11	0.007922904
10	0x3d8c74a9	0.06858189
11	0x3c932de0	0.01796621
12	0x3b8cd2ed	0.0042976053
13	0x3d937a9e	0.07201122
14	0x3d32c6bf	0.04364657
15	0x3c02823b	0.00796562
16	0x3b9c2cf6	0.004766102
17	0x3d88d85e	0.06681894
18	0x3d81a1b8	0.063296735
19	0x3ba6b96f	0.0050880234
20	0x3be0b0b4	0.006857002
21	0x3c7b9002	0.015354158
22	0x3c18a1cc	0.009315919
23	0x3d8aebc3	0.06783249
24	0x3c49f3f0	0.012326226
25	0x3ccdee32	0.025137994
26	0x3d12f97a	0.03588245
27	0x3d4ec557	0.050481167
28	0x3d153cf6	0.03643509
29	0x3d159dea	0.03652755
30	0x3c0301b4	0.0079960115
31	0x3ba37947	0.0049888226
32	0x3c4a76d1	0.01235743
33	0x3be4c09c	0.0069809686
34	0x3d82252b	0.063547455
35	0x3b9cd567	0.0047861817
36	0x3d0a16f8	0.03371331
37	0x3ac26325	0.0014830573
38	0x3c4fc9ff	0.012682437
39	0x3c63202c	0.013862651
40	0x3c9d3087	0.019188179
41	0x3ba44581	0.0050131683
42	0x3d93ccc2	0.07216789
43	0x3c8db5b9	0.017298566
44	0x3db3a6c0	0.087720394
45	0x3b87cdd0	0.004144408
46	0x3d3647b8	0.04450199
47	0x3d94216e	0.07232939
48	0x3c252cdf	0.010081499
49	0x3b9301e9	0.0044863117
50	0x3c4f82a0	0.012665421
51	0x3c6febff	0.014643668
52	0x3c21120e	0.009830965
53	0x3c800d10	0.015631229
54	0x3d8ba4c6	0.068185374
55	0x3ce0f1b3	0.027459001
56	0x3b9febcd	0.0048804046
57	0x3d228fef	0.039688047
58	0x3d528d12	0.051404066
59	0x3b9521b7	0.0045511383
60	0x3b8d2c27	0.004308242
61	0x3ba57967	0.0050498727
62	0x3d21c46d	0.039493967
63	0x3ba01d9c	0.004886342

weight f4 [64, 67, 3, 3]
0	0xba76a081	-0.0009408072
1	0xba267664	-0.0006350039
2	0xba2604fc	-0.000633314
3	0xba091013	-0.00052285305
4	0xba8fa9ce	-0.001096064
5	0xba9fed9e	-0.0012201553
6	0xba8968b7	-0.0010483478
7	0xba851a37	-0.0010154907
8	0xba87bf3f	-0.0010356678
9	0xbb908e09	-0.004411463
10	0xbb839a31	-0.004016184
11	0xbb7560fe	-0.0037441845
12	0xbb8ed651	-0.0043590446
13	0xbb7a42ad	-0.0038186715
14	0xbb6c36b7	-0.0036043355
15	0xbb87ef57	-0.0041484046
16	0xbb6e459e	-0.0036357413
17	0xbb8581a9	-0.0040742946
18	0x3bacd9be	0.0052749803
19	0x3b220284	0.0024720738
20	0x3a1f5d6c	0.00060792896
21	0x3bba8124	0.0056916643
22	0x3b5edc9d	0.0034006007
23	0x3b222d67	0.00247463
24	0x3bbc92b1	0.0057547917
25	0x3bb0edba	0.005399433
26	0x3bd6261b	0.0065353042
27	0x3b0a4978	0.002110092
28	0x3b74134b	0.0037242945
29	0x3b3ca639	0.00287856
30	0xbc1f22c0	-0.009712875
31	0x3cc54097	0.02407865
32	0x3bbffe60	0.0058591813
33	0xbca161a2	-0.019699875
34	0x3c2ebe96	0.010665556
35	0xbc3a8069	-0.011383154
36	0x3ba00071	0.004882865
37	0xbc394cba	-0.011309797
38	0x3c0bc9fa	0.008532042
39	0xbbd0d0cb	-0.0063725463
40	0x3ac2a35d	0.0014849711
41	0x3c6c9731	0.014440344
42	0xbb244f63	-0.0025071732
43	0x3c5be60f	0.013421549
44	0x3bb8a7d9	0.0056352434
45	0xbc3931b1	-0.011303351
46	0xbae98e55	-0.0017818908
47	0xbd1856d0	-0.037192166
48	0x3b39eaf6	0.0028368807
49	0x3c0b235f	0.00849232
50	0x3b07d215	0.0020724584
51	0x3a0d7a82	0.0005396978
52	0x3c33c116	0.010971328
53	0xbb010e23	-0.0019692264
54	0x3d43bf9d	0.04779016
55	0x3d593538	0.05302927
56	0xbce32a46	-0.027730118
57	0x3c3b34f3	0.011426198
58	0x3c984874	0.018589236
59	0xbb9c041d	-0.0047612325
60	0xbd0d6a33	-0.034525108
61	0xbc0d13a5	-0.008610641
62	0xbcab6428	-0.020921782
63	0xbc5f211f	-0.0136187365
64	0xbc66ca52	-0.014086323
65	0xbb158c6f	-0.00228193
66	0xbbbe6a24	-0.005810993
67	0xb9be7496	-0.00036326487
68	0x3b497a13	0.0030742928
69	0x3bc01fcd	0.005863166
70	0x3b66c497	0.0035212392
71	0xb95d48b8	-0.00021103292
72	0x3bbe5f1a	0.005809677
73	0xbbe03bbe	-0.0068430593
74	0x3c2cd156	0.010547956
75	0xbbbd317a	-0.0057737203
76	0x3c0c3395	0.00855722
77	0x3c8bda66	0.017071914
78	0xbba30b35	-0.004975701
79	0x3c8a57a3	0.016887492
80	0x3bc3ec52	0.0059790993
81	0xbd135de7	-0.035978224
82	0x3cb73dd1	0.022368344
83	0xbb28a0d5	-0.002573063
84	0xbbde8513	-0.006790766
85	0x3bae129d	0.0053122775
86	0x3bdf56a2	0.0068157474
87	0xbcc65a31	-0.024212928
88	0x3bfe7dff	0.0077664847
89	0x3a013fbd	0.0004930457
90	0xbabc0ade	-0.00143465
91	0xbc430a1d	-0.011904267
92	0x3bc1ab7e	0.005910336
93	0xbc0b4664	-0.008500669
94	0x3b7bc815	0.0038418819
95	0x3c4116ee	0.011785252
96	0xbb53835f	-0.0032274348
97	0x3c823345	0.015893588
98	0x3b2b43ba	0.0026132897
99	0x3d94d18d	0.07266531
100	0xbd10e6d0	-0.03537637
101	0xbc164685	-0.009172087
102	0x3c64f4cc	0.01397438
103	0xbcd49228	-0.025948599
104	0x3cd44070	0.025909632
105	0x3c33676f	0.010949953
106	0xbce23972	-0.027615283
107	0xbb91227c	-0.0044291597
108	0xbcfe2fef	-0.031028716
109	0x3d6e207e	0.058136456
110	0xbcb2256c	-0.02174636
111	0xbc16b0c3	-0.009197417
112	0x3be62fb1	0.007024728
113	0xbcf5ee31	-0.030020805
114	0xbca710c6	-0.02039374
115	0x3b3eb8d3	0.0029101863
116	0xbcc391b2	-0.023873184
117	0xbccbff1c	-0.024901919
118	0xbd01905a	-0.031631805
119	0xbbb9d591	-0.005671211
120	0xbbcdf470	-0.0062852427
121	0x3b845ee8	0.004039634
122	0x3c05ee56	0.0081744995
123	0x3a78f482	0.0009496884
124	0x3bfdc091	0.007743903
125	0x3c46f29b	0.012142803
126	0xbbcdb3f2	-0.0062775547
127	0x3c8313d1	0.01600066
128	0xbbbde11e	-0.0057946583
129	0xbcba467c	-0.022738688
130	0x3c531ffc	0.012886044
131	0x3bd1b1cd	0.0063993693
132	0xb90c0ccd	-0.00013356209
133	0x3cde2736	0.027118307
134	0xbb34095c	-0.00274714
135	0x3b9d174b	0.0047940365
136	0xbd901c95	-0.070367016
137	0xbb91c243	-0.0044482066
138	0x3a27457f	0.00063809
139	0xbc4dfba1	-0.0125722
140	0xbb101692	-0.002198611
141	0x3a1bd821	0.00059449865
142	0x3b5de7b7	0.0033860037
143	0xbc8493be	-0.01618373
144	0xbaae5eb7	-0.0013303374
145	0xbc89c04b	-0.016815325
146	0x3b5d9853	0.0033812716
147	0xbc086fa7	-0.008327401
148	0x39ba3c8c	0.00035521796
149	0x3c296fb9	0.010341578
150	0xbb63490a	-0.0034680986
151	0x3c5986cb	0.013276766
152	0x3b892c92	0.0041862214
153	0xba7cdeb2	-0.00096462213
154	0x3b15d541	0.0022862705
155	0x3c51ced4	0.012805659
156	0xbc6ead3c	-0.0145676695
157	0x3c82ee2f	0.015982715
158	0x3c39ff42	0.011352362
159	0xbc12ada2	-0.00895253
160	0x3ca53269	0.020165639
161	0xbb2104af	-0.0024569442
162	0x3c65f34a	0.014035055
163	0xba69d431	-0.00089198636
164	0x3badaa6a	0.005299856
165	0xbcb608f4	-0.022221066
166	0x3b882f81	0.0041560535
167	0x3bb5d261	0.0055487608
168	0x3cd7048a	0.026247282
169	0x3c209978	0.009802215
170	0x3a80a1a4	0.0009813798
171	0xbd0adbc0	-0.033900976
172	0x3cec3526	0.028833937
173	0xbc656180	-0.014000297
174	0xbd26b024	-0.040695325
175	0x3c8258ff	0.015911577
176	0xbc8559c2	-0.016278151
177	0xbc9ad287	-0.018899215
178	0xbba627c9	-0.0050706607
179	0xbc448491	-0.011994497
180	0xba7d9787	-0.00096737634
181	0xbc60c5eb	-0.013719062
182	0x3bba247e	0.0056806197
183	0xbc037b8c	-0.008025061
184	0x3b673f8c	0.003528568
185	0x3c41044d	0.011780811
186	0xbb47b5b7	-0.00304733
187	0x3c6e0288	0.014526971
188	0x3b8015fd	0.003908871
189	0x3b12e9d1	0.0022417197
190	0xbc4f5897	-0.012655399
191	0x3c0cc13d	0.0085909935
192	0xbc177bce	-0.009245826
193	0x3be532c4	0.006994577
194	0x3c626d40	0.013819993
195	0xbbcad48a	-0.0061898874
196	0x3c7c8d06	0.015414482
197	0x3b7362cf	0.0037137752
198	0xbd872d76	-0.06600468
199	0x3d0a45ed	0.033758093
200	0xbca931a1	-0.020653548
201	0xbd842cbb	-0.06453844
202	0xbb097bce	-0.0020978334
203	0xbcc760c8	-0.024338141
204	0xbd49a4de	-0.049229495
205	0x3b64db79	0.0034920855
206	0xbc6960cc	-0.01424427
207	0xbcebcaf7	-0.028783305
208	0x39176885	0.00014439419
209	0xbbbfa30e	-0.005848295
210	0x3c1ceffa	0.009578699
211	0x3c098f1d	0.008395937
212	0x3c0b8b2f	0.008517071
213	0xbd0976c3	-0.033560526
214	0xbc7c3ce2	-0.015395375
215	0xbbd58061	-0.006515548
216	0x3a578466	0.0008221328
217	0x3ca7a9f0	0.020466775
218	0xbb95c8f2	-0.0045710737
219	0x3c075045	0.008258884
220	0x3c4406d7	0.011964521
221	0x3c40160a	0.0117240045
222	0xbb28bd2b	-0.0025747519
223	0x3c583887	0.013197071
224	0x3b87b05d	0.004140897
225	0x3b81ad2f	0.0039574127
226	0xbbaba563	-0.0052382215
227	0x3bbeaec9	0.005819176
228	0xbc2e73cc	-0.010647725
229	0x3bdd6b92	0.006757208
230	0x3b364754	0.002781351
231	0xbb761396	-0.0037548295
232	0x3c5a75aa	0.013333717
233	0xbb84bef5	-0.004051084
234	0x3a817c5f	0.0009878984
235	0xbc54364e	-0.0129524
236	0x3bbf14f6	0.005831356
237	0xbbdbbc6f	-0.0067058126
238	0x3b370f5c	0.002793274
239	0x3c4fbdcb	0.0126795275
240	0xbabdb23f	-0.0014472677
241	0x3c685ed9	0.01418277
242	0x3b61d839	0.0034461154
243	0xbcb7264a	-0.022357125
244	0xbcea3c1c	-0.028593116
245	0x3c33f08c	0.010982644
246	0xbcc353da	-0.023843694
247	0x3b9a51ba	0.0047094496
248	0xbb8f66c0	-0.0043762624
249	0x388f3e9f	6.8304354e-05
250	0xbba280ab	-0.004959186
251	0xbc2732c5	-0.0102049755
252	0xbcee2819	-0.029071854
253	0xbc42ff88	-0.011901744
254	0xbd166735	-0.03671952
255	0x3a1de49f	0.0006023142

bias f4 [64]
0	0x3b1986cc	0.0023426292
1	0xb93a65ba	-0.00017776238
2	0x3ad2e406	0.0016089685
3	0xba1655a5	-0.0005734808
4	0x3b4e3d1b	0.0031469527
5	0x3b28f007	0.0025777833
6	0x3c206155	0.009788831
7	0xb986cc46	-0.00025710667
8	0xbbaf82a9	-0.005356152
9	0x3a12fae3	0.0005606843
10	0x3bec0f8c	0.007204002
11	0xbb95dd5d	-0.0045735077
12	0xb9fa3f06	-0.00047730672
13	0xbc5d894e	-0.0135215055
14	0x3b2de131	0.002653193
15	0x3c51fc5b	0.012816514
16	0x3b2ed6ba	0.002667828
17	0xb8ab6c7b	-8.1741215e-05
18	0x3bff835e	0.0077976426
19	0xbc592efe	-0.013255833
20	0xbc3aded5	-0.011405666
21	0xbbb944c2	-0.0056539485
22	0x3ba5aaeb	0.0050557754
23	0xbc1b1238	-0.009464793
24	0x3b3fa80d	0.0029244453
25	0xbab4af5b	-0.001378517
26	0x3a26c3c6	0.000636157
27	0x3aa3624b	0.0012465207
28	0xba9261e8	-0.0011168094
29	0x3b70309f	0.0036650074
30	0x392a174e	0.00016221145
31	0x3b3b816b	0.0028611075
32	0x3b3d969c	0.0028928882
33	0xbae70b53	-0.0017627276
34	0x3c448783	0.011995199
35	0x3b8cc8ab	0.0042963824
36	0x3bc2cac4	0.0059445817
37	0xba9b5af8	-0.0011852672
38	0xbaf485b2	-0.0018655567
39	0xbae408bf	-0.0017397626
40	0x3b9d2868	0.0047960766
41	0x3a1f76dc	0.000608308
42	0xbb194036	-0.002338422
43	0x3a703837	0.000916365
44	0xbb8823fb	-0.00415468
45	0xbb234142	-0.0024910723
46	0xbb13dde6	-0.0022562682
47	0xbc4a0b38	-0.012331776
48	0x3c5f6c2f	0.013636633
49	0xbbad95a3	-0.005297379
50	0xbc1f6d79	-0.00973069
51	0xbca6cd48	-0.020361558
52	0x3c1a1f9f	0.009406953
53	0x3a738001	0.00092887884
54	0xba4a1564	-0.0007708876
55	0xbae80dd2	-0.0017704314
56	0x3982cbef	0.00024947475
57	0x397138bf	0.0002300469
58	0xbb2a9168	-0.002602661
59	0xbc419de0	-0.0118174255
60	0x3b631777	0.0034651437
61	0xb9459785	-0.0001884383
62	0xba8c4bfe	-0.00107038
63	0xba9711ba	-0.0011525669

weight f4 [64]
0	0x3dfa54fa	0.12223239
1	0x3e181439	0.14851464
2	0x3e5d45c5	0.21608646
3	0x3d3a3b3e	0.045466654
4	0x3e0089a7	0.1255251
5	0x3e37940e	0.17927572
6	0x3e9c3921	0.30512336
7	0x3e47c368	0.19508135
8	0x3e22f30c	0.15913028
9	0x3e15e4f5	0.14638121
10	0x3e0fb025	0.14032038
11	0x3e38c920	0.18045473
12	0x3e2619f0	0.16220832
13	0x3e6accd0	0.22929692
14	0x3ea1f470	0.31631804
15	0x3e8cc67b	0.2749518
16	0x3e49a1ab	0.19690578
17	0x3dc3605c	0.095398635
18	0x3e615d06	0.22008142
19	0x3e7404b0	0.23829913
20	0x3e917bcf	0.2841477
21	0x3e42b046	0.19012555
22	0x3e4de3a7	0.20106374
23	0x3e64d5ce	0.22347185
24	0x3db526e6	0.0884531
25	0x3e00fcd7	0.12596451
26	0x3de9e5b5	0.11420766
27	0x3e9073f1	0.28213456
28	0x3d9b4db6	0.075831816
29	0x3e081f44	0.13293177
30	0x3e1d2f2c	0.15350026
31	0x3e035f0c	0.12829226
32	0x3e6b5614	0.22982055
33	0x3e0b911a	0.1362957
34	0x3e5decb0	0.2167232
35	0x3e627120	0.22113466
36	0x3e9c03a0	0.30471516
37	0x3e059050	0.13043332
38	0x3f07e3d2	0.53082
39	0x3dfa964b	0.12235697
40	0x3e1ab775	0.15109046
41	0x3e03df9d	0.1287827
42	0x3e2a2e7b	0.16619293
43	0x3db7bb06	0.08971219
44	0x3e1a888e	0.15091154
45	0x3e2097fd	0.15682979
46	0x3e4056ae	0.18783066
47	0x3e8a7eb6	0.27049798
48	0x3e7b1244	0.24518687
49	0x3ea4f9ff	0.32221982
50	0x3e1c067b	0.15236847
51	0x3e9e960a	0.30973846
52	0x3e706530	0.234761
53	0x3de53972	0.111925974
54	0x3ec6de01	0.3884125
55	0x3e4cf034	0.20013505
56	0x3db92795	0.09040753
57	0x3d9a6c7e	0.075402245
58	0x3ec07f9d	0.3759736
59	0x3ec23e61	0.37938216
60	0x3e4e4bc7	0.20146094
61	0x3e3b9bba	0.18321124
62	0x3dff1090	0.12454331
63	0x3e1a54a7	0.15071355

bias f4 [64]
0	0xbd52ff5c	-0.05151306
1	0xbd90540c	-0.07047281
2	0xbc859b25	-0.01630933
3	0xbd4a6c20	-0.049419522
4	0xbc65ac74	-0.014018167
5	0xbd18618f	-0.037202414
6	0x3d774e21	0.060377244
7	0xbd5e17e2	-0.054221995
8	0xbda386e6	-0.07984714
9	0xbd630c88	-0.055431873
10	0x3d383417	0.04497155
11	0xbd898d9b	-0.06716462
12	0xbd4a0bbb	-0.049327593
13	0xbd35f9de	-0.044427745
14	0xbd09f578	-0.033681363
15	0x3bc77e1e	0.0060880324
16	0xbd1ba9e3	-0.038003813
17	0xbd7e96bb	-0.062155467
18	0x3c1f9263	0.009739491
19	0x3c880514	0.016603984
20	0x3d94239f	0.07233357
21	0xbb35c97c	-0.0027738502
22	0xbce30495	-0.027712146
23	0xbd401d45	-0.046902914
24	0xbd1fe040	-0.03903222
25	0xbd0f71d2	-0.035020657
26	0xbd367714	-0.044547155
27	0xbd5dfa44	-0.05419375
28	0xbd5cb919	-0.05388746
29	0xbd042680	-0.03226328
30	0xbd8322c2	-0.06403114
31	0xbd95a1f1	-0.073062785
32	0xbd8a6dc3	-0.06759217
33	0xbd14ffcd	-0.036376763
34	0x3dd328e8	0.103105366
35	0xbd5662f2	-0.052340455
36	0x3c39d041	0.0113411555
37	0xbcbd6d9e	-0.023123559
38	0x3d4f6c9c	0.050640687
39	0xbd179f1b	-0.03701697
40	0xbd3c2f72	-0.045943685
41	0xbd6323d7	-0.0554541
42	0x3d2f7e9c	0.042845353
43	0xbd6e0e3c	-0.058119044
44	0xbd5f2acb	-0.05448417
45	0xbd796ee1	-0.060896758
46	0xbd7c44af	-0.06158894
47	0x3d3337a0	0.04375422
48	0xbd30faec	-0.043208048
49	0x3ce97fd4	0.028503336
50	0xbd1235d8	-0.03569588
51	0xbbbc67f3	-0.0057496964
52	0xbd6de5d6	-0.058080517
53	0xbd612461	-0.054966334
54	0x3d0e0fca	0.034683026
55	0xbdb9114f	-0.090365045
56	0xbd4ba1d2	-0.04971487
57	0xbd6fe6b9	-0.058569644
58	0x3c6bde86	0.014396315
59	0x3dbe348e	0.09287368
60	0xbd102ae3	-0.03519715
61	0xbd2165f8	-0.039403886
62	0xbd2928f1	-0.04129881
63	0xbd5d686c	-0.054054663
