SND_trackers_My_data/9X0_file/19_9X0_coordconv_Label_V3.pt (torch, 152638 bytes, 19 tensors)

weight f4 [32, 9, 3, 3]
0.00046684893 0.00048708334 0.00034258794 0.0005942211 0.0003054705 0.00046170774 0.00073918945 0.0005252329
0.00046118267 -0.00021265181 -0.0016304061 -0.00046593638 -0.0012875062 -0.0007895949 0.0001683783 -0.0012053446
-0.00043624552 -0.0014112868 0.004511947 0.0034485578 6.019249e-05 0.0024310064 0.001970104 0.0011105528
0.0017189214 0.001236666 -0.0024710852 -0.027321154 -0.052484006 0.07534407 -0.011039372 -0.046561226
-0.07179969 -0.022702089 -0.03318513 0.009920109 -0.055182308 0.020464597 -0.013970439 0.01368279
-0.05653714 -0.032475952 0.010730083 -0.0433908 0.025882883 -0.006686943 0.010763284 0.013412441
-0.009524755 -0.031662714 -0.04886234 -0.06468993 0.019517172 -0.006363698 -0.061214358 -0.027353384
0.035639588 -0.037327208 0.04939053 -0.028753469 -0.03547122 -0.027318772 0.027732303 -0.08942045
0.047433425 0.027826676 -0.07065644 -0.0733061 -0.010412392 -0.0034103098 -0.052663583 0.019807946
0.019345218 -0.098914504 0.061504256 -0.021488598 0.05043107 -0.04176396 -0.044172812 -0.0234837
-0.07500034 -0.015380712 -0.015380783 -0.015380782 -0.015380722 -0.015380726 -0.015380709 -0.015380716
-0.015380716 -0.015380691 0.00075412204 0.00075454585 0.00075262244 0.0007533076 0.0007520401 0.0007519873
0.00075193064 0.0007522208 0.0007520585 0.02197633 0.021560049 0.021351535 0.020871697 0.020244526
0.020068549 0.020237561 0.01990267 0.019947426 0.008095765 0.0024864855 0.006101106 -0.0017187217
0.012483518 0.023354568 0.008787386 0.008416743 -0.005711089 -0.0021443728 0.00091273536 -0.01658764
-0.01686293 -0.009334339 -0.022929924 -0.010278805 0.009421699 0.0033271678 -0.014355452 -0.0077998773
-0.00738691 0.0020252822 0.02060622 0.010932703 0.013491658 0.03343096 0.004795248 -0.011335413
-0.015466518 -0.018584903 -0.0130056925 0.011182855 -0.020094406 0.009282163 0.05037259 0.0038730362
0.013505557 0.0077378587 -0.012109204 0.016465005 0.031673983 0.0036779237 0.0070632584 0.02651541
-0.0006242952 0.0007913266 -0.00053536275 -0.00012037526 0.0014877416 0.00047508167 0.0054885363 -0.000768801
0.00146265 -0.0013563713 0.040956132 0.0409561 0.040956136 0.040955313 0.04095526 0.0409561
0.04095588 0.04095603 0.040955003 -0.030145114 -0.030145148 -0.030145057 -0.030145058 -0.030145133
-0.030145053 -0.030144924 -0.030145133 -0.030145042 0.012316692 0.014438416 0.013994821 0.01616731
0.018443538 0.017770268 0.017749285 0.019917333 0.019203478 0.28143725 0.21286017 0.36877832
0.10744417 0.16058971 0.2867652 0.30259332 0.14571464 0.19637689 0.04859485 0.015043825
0.042760093 -0.030163974 -0.03362533 -0.027842276 0.026686296 0.036619723 0.03744008 0.026045946
0.031712227 0.014907748 0.053685214 -0.043442555 -8.038647e-05 -0.021100538 0.06995069 0.0083757285
0.051544376 -0.030305512 0.032615896 0.05014174 -0.028381929 0.03788413 0.035023235 0.059907515
-0.006614109 0.053330787 0.043650843 0.031918816 -0.017833779 -0.00286853 -0.006798931 0.06771419
0.013886363 0.0054171104 0.04065019 0.03438527 0.026198233 0.028693628 0.03012952 0.033291467
0.041644383 0.0583141 0.058119662 -0.037407815 -0.037407245 -0.037407808 -0.037407942 -0.03740765
-0.037407942 -0.037407957 -0.037407223 -0.03740784 0.036390934 0.036390714 0.036390744 0.036390767
00000000: 67c3 f439 385f ff39 609d b339 81c5 1b3a
00000010: 8e27 a039 5d11 f239 2ac6 413a c9af 093a
00000020: e4ca f139 49fb 5eb9 5ab3 d5ba ec48 f4b9
00000030: 8ac1 a8ba d1fc 4eba b58e 3039 a7fc 9dba
00000040: e2b7 e4b9 edfa b8ba f4d8 933b 3301 623b
00000050: 3277 7c38 8551 1f3b dc1c 013b f88f 913a
00000060: 6e4d e13a a017 a23a eef1 21bb 9dd0 dfbc
00000070: 78f9 56bd fe4d 9a3d 7bde 34bc fcb6 3ebd
00000080: b70b 93bd bbf9 b9bc 22ed 07bd f487 223c
00000090: d806 62bd 5fa5 a73c 45e4 64bc c82d 603c
000000a0: 7d93 67bd 8105 05bd 3bcd 2f3c 8dba 31bd
000000b0: 5708 d43c 251e dbbb 7c58 303c dbbf 5b3c
000000c0: b80d 1cbc c3b0 01bd e123 48bd 277c 84bd
000000d0: 7ae2 9f3c 9186 d0bb e8bb 7abd 3414 e0bc
000000e0: d1fa 113d 6ae4 18bd b94d 4a3d 658c ebbc
000000f0: 454a 11bd 9ecb dfbc db2e e33c 1222 b7bd
00000100: 8d49 423d c5f4 e33c 53b4 90bd 8221 96bd
00000110: bd98 2abc 817f 5fbb c5b5 57bd 4644 a23c
00000120: dd79 9e3c b093 cabd e3eb 7b3d db08 b0bc
00000130: cf90 4e3d b010 2bbd 8dee 34bd e360 c0bc
00000140: c799 99bd 62ff 7bbc aeff 7bbc adff 7bbc
00000150: 6cff 7bbc 71ff 7bbc 5fff 7bbc 66ff 7bbc
00000160: 66ff 7bbc 4bff 7bbc 46b0 453a b7cc 453a
00000170: a34b 453a 9e79 453a 8f24 453a 0321 453a
00000180: 361d 453a af30 453a cb25 453a b407 b43c
00000190: b39e b03c 6ae9 ae3c 1ffb aa3c d9d7 a53c
000001a0: cc66 a43c 3ec9 a53c ed0a a33c c968 a33c
000001b0: 19a4 043c 4ef4 223b c9eb c73b bb46 e1ba
000001c0: ab87 4c3c 1452 bf3c f8f8 0f3c 61e6 093c
000001d0: 1624 bbbb 9b88 0cbb a244 6f3a cde2 87bc
000001e0: 2124 8abc 0eef 18bc 89d7 bbbc 6f68 28bc
000001f0: 785d 1a3c 9d0c 5a3b 2133 6bbc 1d96 ffbb
00000200: e40d f2bb 99ba 043b 60ce a83c 141f 333c
00000210: 1d0c 5d3c e7ee 083d 7521 9d3b 2bb8 39bc
00000220: 4767 7dbc 5e3f 98bc d415 55bc 4b38 373c
00000230: 069d a4bc 3714 183c 7d53 4e3d c4d2 7d3b
00000240: 6946 5d3c dd8d fd3b af65 46bc 9ee1 863c
00000250: 94bc 013d 5209 713b e872 e73b d836 d93c
00000260: bea7 23ba 0771 4f3a 9657 0cba fa71 fcb8
00000270: 5300 c33a 6214 f939 2ed9 b33b 5d89 49ba
00000280: 64b6 bf3a 45c8 b1ba 9ec1 273d 95c1 273d
00000290: 9fc1 273d c2c0 273d b4c0 273d 95c1 273d
000002a0: 5ac1 273d 83c1 273d 6fc0 273d e3f2 f6bc
000002b0: f5f2 f6bc c4f2 f6bc c5f2 f6bc edf2 f6bc
000002c0: c2f2 f6bc 7df2 f6bc edf2 f6bc bcf2 f6bc
000002d0: f3cb 493c 1b8f 6c3c 894a 653c 4e71 843c
000002e0: e716 973c f492 913c f366 913c ad29 a33c
000002f0: 9d50 9d3c 8b18 903e 04f8 593e 83d0 bc3e
00000300: b00b dc3d a171 243e e3d2 923e 83ed 9a3e
00000310: 3836 153e 0617 493e 650b 473d 607a 763c
00000320: 3525 2f3d 701a f7bc b7ba 09bd 7c15 e4bc
00000330: 389d da3c 90fe 153d c55a 193d 4f5e d53c
00000340: aee4 013d a13f 743c 07e5 5b3d d2f0 31bd
00000350: 2895 a8b8 09db acbc 4f42 8f3d 5a3a 093c
00000360: 3220 533d 4443 f8bc 3f98 053d 6d61 4d3d
00000370: 3881 e8bc 642c 1b3d 8674 0f3d 9561 753d
00000380: 2bbb d8bb 6271 5a3d 3acb 323d 4ebd 023d
00000390: 2518 92bc f3fd 3bbb 91c9 debb bdad 8a3d
000003a0: a183 633c 0482 b13b d080 263d 92d7 0c3d
000003b0: ad9d d63c e60e eb3c 2fd2 f63c a25c 083d
000003c0: 4d93 2a3d c4da 6e3d e20e 6e3d f038 19bd
000003d0: 5738 19bd ee38 19bd 1239 19bd c438 19bd
000003e0: 1239 19bd 1639 19bd 5138 19bd f738 19bd
000003f0: a90e 153d 6e0e 153d 760e 153d 7c0e 153d

bias f4 [32]
0.0013843236 -3.2174175e-05 0.019732954 -0.0005826507 0.0015564396 -3.5915462e-10 -0.00018830271 0.002517801
5.7301855e-05 -0.00720161 0.0055910246 -0.0018906159 0.009668215 0.014342913 0.0012173328 -2.2517585e-07
0.012831549 -0.00038406134 -9.817094e-06 -0.017231187 -0.008945674 1.3210104e-06 0.00017465487 0.0055482415
0.00055939506 -0.00052527554 -1.3054359e-05 2.4473007e-07 -0.004174845 -0.0077328985 0.003675392 0.0002973856
00000000: 3172 b53a c2f2 06b8 01a7 a13c 07bd 18ba
00000010: 7201 cc3a 8572 c5af 2073 45b9 b101 253b
00000020: 6657 7038 7cfb ebbb ea34 b73b 8bce f7ba
00000030: 6f67 1e3c 8afe 6a3c e98e 9f3a dec7 71b4
00000040: 6b3b 523c d75b c9b9 19b4 24b7 6b28 8dbc
00000050: e090 12bc 924d b135 8f23 3739 06ce b53b
00000060: 5ea4 123a a5b2 09ba 0c04 5bb7 7263 8334
00000070: 23cd 88bb 4164 fdbb d8de 703b 6bea 9b39

weight f4 [32]
0.09733472 -2.935648e-05 0.21487331 0.0842735 0.1031162 -0.0021290015 0.04161285 0.049626675
0.012852889 0.17453276 0.20177078 0.055607934 0.15770195 0.27626732 0.063600026 -0.0004065377
0.32844663 0.023381943 6.8256086e-06 0.20449421 0.20279582 -2.2321286e-05 0.06309133 0.10113565
0.06863718 0.06989514 -3.9878825e-05 -4.0125735e-05 0.13914564 0.14290893 0.231654 0.09971757
00000000: 6d57 c73d 9042 f6b7 c007 5c3e 9697 ac3d
00000010: 962e d33d b886 0bbb 3c72 2a3d 5745 4b3d
00000020: ec94 523c b7b8 323e 009d 4e3e 25c5 633d
00000030: 9f7c 213e e972 8d3e bb40 823d 9124 d5b9
00000040: 282a a83e 7d8b bf3c 8807 e536 ee66 513e
00000050: b5a9 4f3e 993e bbb7 0736 813d 3520 cf3d
00000060: a691 8c3d 2f25 8f3d 9043 27b8 ae4c 28b8
00000070: 327c 0e3e b856 123e b536 6d3e ba38 cc3d

bias f4 [32]
-0.005594013 -0.027976472 -0.010890017 -0.01894501 0.04663268 -0.020231495 -0.06120718 0.010861037
-0.005436976 0.0068529374 0.0034582668 -0.010004199 -0.009092951 0.00070595037 -0.021452736 -0.031185586
-0.0030005854 -0.008828033 -0.008026014 0.001294961 -0.00389748 -0.012361614 -0.029538214 -0.0021139327
-0.023837287 -0.01446793 -0.016828192 -0.015055455 -0.013718049 -0.009553946 -0.0032040605 -0.020995948
00000000: fb4d b7bb ea2e e5bc 0b6c 32bc 9132 9bbc
00000010: e901 3f3d 85bc a5bc 61b4 7abd 7ef2 313c
00000020: a928 b2bb 9b8e e03b 17a4 623b a7e8 23bc
00000030: 9afa 14bc 870f 393a a6bd afbc ea78 ffbc
00000040: 78a5 44bb 74a3 10bc 8b7f 03bc aebb a93a
00000050: dd6c 7fbb 5e88 4abc 20fa f1bc e889 0abb
00000060: 6a46 c3bc e60a 6dbc 47db 89bc 28ab 76bc
00000070: abc1 60bc 2788 1cbc 37fb 51bb b2ff abbc

running_mean f4 [32]
-0.00029740846 0.12253015 0.19820012 0.070778936 -0.09932211 -0.007973505 0.22687341 -0.029274505
-0.018260978 0.04403499 0.04474938 0.06729496 -0.008536667 0.03906234 0.0570016 -0.0143297445
0.026452936 0.0051795854 -0.0018734884 0.0053500542 -0.009568086 -0.03514027 -0.040118523 -0.07694104
0.020032356 0.023386247 0.038673654 -0.0026055102 0.103934765 0.14511947 -0.014957431 0.0051712245
00000000: 7ded 9bb9 16f1 fa3d f9f4 4a3e 8cf4 903d
00000010: 6469 cbbd 4ea3 02bc 8151 683e 16d1 efbc
00000020: 0c98 95bc 095e 343d 204b 373d f1d1 893d
00000030: 60dd 0bbc d5ff 1f3d 827a 693d 4ec7 6abc
00000040: d4b3 d83c 83b9 a93b d78f f5ba 824f af3b
00000050: 76c3 1cbc 3eef 0fbd 5253 24bd 4493 9dbd
00000060: e51a a43c 8494 bf3c 4468 1e3d 35c1 2abb
00000070: c0db d43d 339a 143e 0310 75bc 6073 a93b

running_var f4 [32]
0.08848096 0.10919366 1.1692241 0.31587997 0.47090116 0.033583306 0.81124556 0.11515679
0.14121728 0.64705133 1.0217537 0.28468984 0.14734656 1.5279499 0.07624382 0.06728888
1.8395569 0.42766047 0.031122543 1.0813953 1.1353042 0.036500078 0.27340263 0.1146989
0.12083566 0.15359786 0.03797474 0.03607101 0.5899528 0.6797457 1.9797211 0.10409251
00000000: 8135 b53d eda0 df3d 23a9 953f 05bb a13e
00000010: f519 f13e a68e 093d caad 4f3f 53d7 eb3d
00000020: 439b 103e 28a5 253f d3c8 823f dec2 913e
00000030: 04e2 163e dd93 c33f b825 9c3d c1ce 893d
00000040: 9a76 eb3f 50f6 da3e b4f4 fe3c 296b 8a3f
00000050: a651 913f 1b81 153d 6efb 8b3e 42e7 ea3d
00000060: b078 f73d c248 1d3e 678b 1b3d 32bf 133d
00000070: 2607 173f d003 2e3f 8067 fd3f 742e d53d

weight f4 [32, 35, 3, 3]
0.00051550975 0.00051568483 0.0005155023 0.0005154906 0.00051549246 0.0005155241 0.0005154846 0.000515479
0.00051564944 0.0006350949 0.0006351374 0.00063501083 0.0006351191 0.0006351113 0.0006351263 0.0006350502
0.0006351299 0.0006350462 0.02631401 0.025718428 0.023222923 0.023685196 0.023729052 0.022396492
0.022494668 0.022821764 0.021954753 -0.00096947234 -0.018808926 0.015682599 -0.0025975648 0.032678083
0.042313293 0.010160029 -0.034727067 -0.005142101 0.012178519 0.01002495 0.0034349388 -0.0028578776
-0.0010046334 0.003447658 -0.0068273656 -0.0006990168 0.00232549 0.013367591 -0.0015778381 -0.048088025
0.048573595 0.0333887 -0.034381926 0.04726733 0.011953216 -0.006856133 0.0038491287 -0.040114168
-0.0060412954 0.0502433 0.0032984926 -0.040788576 -0.00026964067 -0.07525182 -0.0043520317 0.0012432865
0.10637061 0.050430957 0.116438285 0.057216913 0.04747894 0.050426103 0.020425957 0.0008360268
0.0031639023 0.0034002634 -0.002441354 -0.0010016387 -0.00084745925 -0.002407564 -0.004118427 -0.0018045736
-0.0005470326 0.031964213 0.003995671 -0.028407723 0.015611295 -0.014669679 -0.013284189 0.009016563
-0.0014222787 -0.005852314 0.041094054 -0.03202491 -0.06271681 0.019825686 -0.08128342 -0.038625218
-0.035007358 -0.07247262 -0.038221285 -0.008157953 0.028013473 -0.0072742407 -0.039566353 0.022436107
-0.013362529 0.00983314 -0.060316816 -0.062552616 0.021258352 0.038679197 -0.021023447 -0.002115304
0.008079975 -0.013288545 0.006162194 0.010937205 -0.006052692 -0.022070788 0.041563347 -0.0035646695
0.03759415 0.03606719 -0.021386255 0.009802154 -0.032262802 -0.010612974 0.029396899 0.0065378677
-0.03511903 0.0129733 0.0068109185 -0.034377147 0.019607866 -0.014991745 0.002235688 -0.009570261
-0.019709978 0.00051971193 0.05107826 0.08440828 0.031216025 -0.0625554 0.028096613 -0.12502046
-0.027365465 -0.094427906 -0.048330676 -0.048152186 -0.10047024 -0.050441563 0.008222556 -0.00026229603
-0.008129928 0.000721187 0.0015451293 -0.025241304 0.0017911314 -0.032469656 -0.019960891 -0.029930152
-0.036202315 0.015164132 0.0015702711 -0.00030116626 0.0007291239 -0.0022019253 -0.0041920585 -0.00823434
-1.7228109e-05 0.0015171036 -0.0031744447 -0.017130183 -0.07286981 0.0076651424 0.014127649 -0.016489133
-0.023049615 0.03382457 0.008696399 -0.0013684655 0.028338905 0.0072834454 -0.034455944 0.052804194
0.008438869 -0.028354978 0.012448474 -0.009013264 -0.016445091 -0.000525827 -0.0008972558 -0.0021597547
0.0014421387 -0.0007423838 -0.0010095695 0.00046002795 -0.0013203117 0.0009893633 0.007081776 0.0075747836
-0.014136857 -0.0070801517 0.012841423 -0.030971117 -0.022823188 -0.04974746 0.023582859 -0.041181322
-0.055525668 -0.01209164 0.06724504 0.031760994 -0.0039657247 -0.05336079 -0.07808346 -0.03721402
-0.00043017138 -0.00041547357 -0.0036594037 -0.0037132737 -0.008033285 -0.008737059 -0.014454593 -0.01327321
-0.0077804993 0.044841874 0.056689903 0.021564433 0.051257372 0.049290564 -0.03392587 0.019911222
0.003968822 0.014104244 -0.0061209924 -0.019045107 -0.010226841 -0.00039587755 0.03931371 0.02728329
-0.06545024 -0.0014806987 -0.13327953 0.043583207 0.07882286 0.016489627 0.053396758 0.041880418
-0.013526436 0.011854052 -0.009661468 -0.009488979 0.0057567027 0.022300728 -0.048718106 0.045175564
00000000: 4623 073a 062f 073a c622 073a fd21 073a
00000010: 1d22 073a 3d24 073a 9621 073a 3621 073a
00000020: a62c 073a 7f7c 263a 597f 263a db76 263a
00000030: 1f7e 263a 997d 263a 9b7e 263a 7f79 263a
00000040: d97e 263a 3b79 263a 7b90 d73c 74af d23c
00000050: 003e be3c 7507 c23c 6e63 c23c d978 b73c
00000060: bd46 b83c b5f4 ba3c 74da b33c 3024 7eba
00000070: 2d15 9abc cb78 803c e83b 2abb 74d9 053d
00000080: b450 2d3d 4076 263c f83d 0ebd 127f a8bb
00000090: 6988 473c b03f 243c b61c 613b 3b4b 3bbb
000000a0: e7ad 83ba 1af2 613b 18b8 dfbb 393e 37ba
000000b0: 3f67 183b be03 5b3c 76cf ceba f3f7 44bd
000000c0: 1bf5 463d 97c2 083d 10d4 0cbd 639b 413d
000000d0: 6cd7 433c 6aa9 e0bb aa41 7c3b c14e 24bd
000000e0: 0ff6 c5bb ebcb 4d3d 862b 583b ec11 27bd
000000f0: 8f5e 8db9 a01d 9abd 7d9b 8ebb c6f5 a23a
00000100: d6d8 d93d b190 4e3d 3277 ee3d 485c 6a3d
00000110: 4779 423d 9a8b 4e3d 5654 a73c cf28 5b3a
00000120: 7959 4f3b f4d6 5e3b 20ff 1fbb 6b49 83ba
00000130: 0728 5eba 39c8 1dbb dff3 86bb 7187 ecba
00000140: bd66 0fba e8ec 023d 1eee 823b 50b7 e8bc
00000150: 84c6 7f3c 1859 70bc eda5 59bc 35ba 133c
00000160: c16b baba c5c4 bfbb 3d52 283d 8d2c 03bd
00000170: ac71 80bd 7a69 a23c ec77 a6bd 7a35 1ebd
00000180: e063 0fbd 866c 94bd ec8d 1cbd efa8 05bc
00000190: 837c e53c c15c eebb 5410 22bd edcb b73c
000001a0: 82ee 5abc 2e1b 213c c40e 77bd 961b 80bd
000001b0: ff25 ae3c 146e 1e3d 5d39 acbc eaa0 0abb
000001c0: df61 043c 33b8 59bc 3bec c93b f631 333c
000001d0: a955 c6bb cccd b4bc 543e 2a3d 3b9d 69bb
000001e0: 53fc 193d 31bb 133d 3a32 afbc 3799 203c
000001f0: 0026 04bd 0ae2 2dbc c4d1 f03c 9c3b d63b
00000200: f9d8 0fbd f78d 543c 202e df3b 0dcf 0cbd
00000210: ada0 a03c f09f 75bc 9f84 123b 96cc 1cbc
00000220: d276 a1bc 473d 083a 7037 513d 40de ac3d
00000230: c0b8 ff3c 0c1d 80bd de2a e63c 5d05 00be
00000240: 8a2d e0bc 6b63 c1bd 63f6 45bd 3a3b 45bd
00000250: 57c3 cdbd d09b 4ebd e6b7 063c c784 89b9
00000260: 6433 05bc 0a0e 3d3a f085 ca3a dac6 cebc
00000270: 66c4 ea3a e7fe 04bd 0685 a3bc 1430 f5bc
00000280: e148 14bd fb72 783c 8ed1 cd3a dae5 9db9
00000290: ad22 3f3a 2d4e 10bb 895d 89bb 53e9 06bc
000002a0: 1585 90b7 8dd9 c63a 580a 50bb 9954 8cbc
000002b0: c43c 95bd e02b fb3b a877 673c 3814 87bc
000002c0: 8cd2 bcbc a28b 0a3d 577b 0e3c 155e b3ba
000002d0: fe26 e83c f8a9 ee3b ad21 0dbd 3649 583d
000002e0: 2f43 0a3c b348 e8bc aff4 4b3c 5fac 13bc
000002f0: dbb7 86bc a7d7 09ba d135 6bba ac8a 0dbb
00000300: 2506 bd3a 899c 42ba 8853 84ba e82f f139
00000310: 4f0e adba 86ad 813a 3e0e e83b e435 f83b
00000320: 479e 67bc 9e00 e8bb d564 523c 24b7 fdbc
00000330: b2f7 babc fec3 4bbd d730 c13c bfad 28bd
00000340: e26e 63bd 041c 46bc c4b7 893d d117 023d
00000350: e9f2 81bb d890 5abd 39ea 9fbd ba6d 18bd
00000360: a088 e1b9 ebd3 d9b9 9bd2 6fbb 655a 73bb
00000370: 0a9e 03bc e225 0fbc f5d2 6cbc e177 59bc
00000380: 8ff3 febb 1dac 373d ac33 683d e5a7 b03c
00000390: 40f3 513d e7e4 493d daf5 0abd dc1c a33c
000003a0: e40c 823b 7d15 673c 9b92 c8bb 7c04 9cbc
000003b0: 7b8e 27bc c98d cfb9 6a07 213d 3581 df3c
000003c0: c70a 86bd 0114 c2ba 6e7a 08be 4e84 323d
000003d0: e16d a13d 4115 873c 8fb6 5a3d cd8a 2b3d
000003e0: fc9d 5dbc 7f37 423c 224b 1ebc aa77 1bbc
000003f0: b9a2 bc3b 04b0 b63c a38c 47bd 030a 393d

bias f4 [32]
0.00011626284 -0.000119222874 -5.7124704e-24 -1.00073754e-26 0.009427066 -6.9179396e-22 -0.00041733283 -0.00011580996
1.1238101e-22 1.5387321e-06 -0.00029121345 1.0663054e-08 -0.026662676 0.006889492 3.2053872e-22 0.0076623005
-0.0064279684 2.1507656e-05 -2.9493953e-05 0.006547087 -3.37585e-06 1.7746762e-21 2.144407e-23 -1.7689636e-10
-1.1896495e-05 -1.765746e-21 1.3992302e-18 5.290554e-05 3.2920637e-24 -0.0056431624 -7.6378867e-29 0.008338354
00000000: 23d2 f338 4b07 fab8 91fd dc98 6c37 4694
00000010: fb73 1a3c f714 519c 77cd dab9 00df f2b8
00000020: 3ddc 071b 6f86 ce35 02ae 98b9 9c30 3732
00000030: af6b dabc 3fc1 e13b f7c0 c11b 0914 fb3b
00000040: b5a1 d2bb 576b b437 c869 f7b7 f288 d63b
00000050: a98c 62b6 3b17 061d f264 cf19 e67f 42af
00000060: 0f97 47b7 7f6a 059d 6c7d ce21 e4e6 5d38
00000070: 0ab6 7e18 47ea b8bb b8a4 c190 979d 083c

weight f4 [32]
0.040033944 0.023144739 1.8146267e-05 0.00030430895 0.28455812 0.0005510518 0.03794838 0.005821799
0.000607794 -0.00039718475 0.3162392 0.00052409223 0.18806726 0.10181277 0.000486644 0.13184984
0.12090386 0.0014405262 0.0029517645 0.12059356 0.00026926148 0.0006471345 0.000525722 0.00053067476
0.0009253798 0.0005164833 0.0005393333 -1.2599179e-05 0.0004931906 0.081732206 0.00048628647 0.15420681
00000000: a2fa 233d 099a bd3c d038 9837 a88b 9f39
00000010: 9ab1 913e 7674 103a c36f 1b3d cac4 be3b
00000020: 5d54 1f3a 3c3d d0b9 1bea a13e 3c63 093a
00000030: b494 403e 3783 d03d 4124 ff39 a503 073e
00000040: 719c f73d 0ad0 bc3a 6472 413b c2f9 f63d
00000050: aa2b 8d39 76a4 293a 9bd0 093a fb1c 0b3a
00000060: 3095 723a 9c64 073a 0c62 0d3a 1061 53b7
00000070: 7649 013a 3763 a73d 44f4 fe39 64e8 1d3e

bias f4 [32]
-0.06459916 -0.070672385 -2.0682039e-07 -1.6722517e-08 0.092874385 -3.7521016e-07 -0.030424155 -0.011477222
-2.052177e-06 -0.009486014 -0.14098914 -1.3953266e-06 0.0045720097 -0.047328826 -7.873198e-07 -0.037364654
-0.05197691 -0.0060138996 -0.03739163 -0.05007121 -0.009209722 -1.1223266e-05 -4.1174378e-08 -8.367905e-09
-0.02361006 -3.1159577e-06 -6.987703e-05 -0.0034024606 -1.9874223e-08 -0.045901574 -5.818296e-07 -0.03778555
00000000: 904c 84bd afbc 90bd 5b12 5eb4 34a5 8fb2
00000010: ed34 be3d 7e70 c9b4 143c f9bc f50a 3cbc
00000020: 22b8 09b6 3a6b 1bbc 755f 10be 0f47 bbb5
00000030: ccd0 953b dfdb 41bd 3458 53b5 ae0b 19bd
00000040: bee5 54bd 3f10 c5bb f727 19bd 7817 4dbd
00000050: 60e4 16bc 8f4b 3cb7 b5d7 30b3 6fc2 0fb2
00000060: e269 c1bc bf1b 51b6 f28a 92b8 d1fb 5ebb
00000070: e1b7 aab2 4a03 3cbd 072f 1cb5 05c5 1abd

running_mean f4 [32]
0.1313834 0.30667916 9.215378e-09 -6.3471714e-11 -0.049593113 -2.0889951e-08 -0.073177844 0.0054638037
7.916709e-07 0.016644454 -0.11808246 2.4966275e-07 0.030832076 -0.1937563 6.242014e-08 0.052573387
-0.059781637 0.02648379 0.10318656 -0.058736533 0.020543447 2.3714247e-06 1.1568386e-08 1.8182799e-09
0.1018407 2.277229e-07 -0.00010274291 0.0040930025 1.18369734e-07 0.052010514 3.9314685e-07 -0.0407908
00000000: 5f89 063e 0d05 9d3e a951 1e32 6693 8bae
00000010: 2622 4bbd 7d71 b3b2 44de 95bd b509 b33b
00000020: 3683 5435 f359 883c 37d5 f1bd 6309 8634
00000030: 8d93 fc3c 0d68 46be d60b 8633 3157 573d
00000040: 97dd 74bd 88f4 d83c 7a53 d33d b895 70bd
00000050: bb4a a83c c424 1f36 4dbe 4632 09e7 f930
00000060: db91 d03d fe83 7434 ae77 d7b8 981e 863b
00000070: 7332 fe33 fa08 553d b111 d334 4114 27bd

running_var f4 [32]
0.014308546 0.053234693 9.0178e-17 8.176106e-19 0.008840373 8.491424e-15 0.014619131 0.0018406773
1.5124477e-13 0.0023667812 0.003769073 8.02823e-14 0.010728882 0.009313112 7.651676e-16 0.015653208
0.00520512 0.0018004484 0.021660121 0.0064924476 0.0011954405 1.2721628e-12 1.5987667e-17 1.0022728e-17
0.01844072 7.9044395e-15 4.2885167e-09 0.0013104628 1.7041694e-15 0.02541434 2.0488131e-14 0.008219071
00000000: 646e 6a3c 9f0c 5a3d b2ef cf24 e950 7121
00000010: 36d7 103c c8f7 1828 1485 6f3c e242 f13a
00000020: 5649 2a2a 001c 1b3b 8d02 773b 98c7 b429
00000030: 31c8 2f3c 0696 183c 678b 5c26 283b 803c
00000040: b68f aa3b 06fd eb3a 9170 b13c 99be d43b
00000050: 54b0 9c3a 7f0a b32b d075 9323 ffe2 3823
00000060: fe10 973c cb64 0e28 315a 9331 d6c3 ab3a
00000070: c198 f526 bc31 d03c 6a8a b828 48a9 063c

weight f4 [64, 35, 3, 3]
-3.9050814e-08 -4.1086146e-08 -3.715918e-08 -4.313165e-08 -4.0950788e-08 -4.2673747e-08 -3.9974633e-08 -3.710081e-08
-3.6635463e-08 -5.087489e-08 -5.0052808e-08 -5.099287e-08 -5.1045458e-08 -5.0351783e-08 -5.079427e-08 -4.9939114e-08
-5.0812574e-08 -5.0626184e-08 -6.721223e-07 -8.0950815e-07 -7.272495e-07 -4.7036036e-07 -5.311275e-07 -3.9539302e-07
-1.853224e-07 -1.208525e-07 -3.882499e-08 -8.285341e-11 -3.8048733e-09 1.2381819e-09 1.798309e-08 -1.2518604e-08
4.1526554e-10 6.1273573e-09 -1.4375992e-08 2.6792835e-08 -1.5106348e-09 7.3801063e-09 2.6170772e-09 -2.6833405e-08
-1.3774596e-08 1.0521516e-09 -2.5985011e-08 3.8426755e-09 3.2963886e-08 -3.8666703e-20 3.3499884e-19 3.9954998e-20
-1.03004545e-20 3.981548e-20 -1.1471388e-16 1.1963452e-19 2.4162711e-20 2.2442534e-20 -4.7109665e-24 3.0032217e-24
-7.978759e-25 -3.8679996e-24 -6.6329705e-24 2.4760837e-24 -2.1036529e-23 -5.748309e-24 1.324698e-23 2.6509076e-07
8.573671e-09 4.7578418e-08 9.244011e-08 -1.12019116e-07 2.3041042e-07 2.209321e-07 3.191685e-07 5.3437546e-08
-3.2236912e-18 -5.521896e-19 -2.7880439e-18 2.9588166e-18 1.5817714e-18 -2.2856003e-18 -6.1292996e-18 -6.499706e-18
3.8325408e-18 -2.5073272e-09 3.9762527e-09 2.0600066e-09 -3.140084e-08 3.3895575e-10 6.975051e-11 -1.1792197e-08
2.9022562e-08 -8.54163e-11 -2.9654766e-08 -3.5367854e-08 -1.7188947e-08 -2.6590191e-08 -1.9851004e-08 9.35576e-09
-8.357932e-09 -2.2227433e-09 1.6576717e-09 -1.457027e-20 -4.791922e-20 1.6242856e-20 -1.127791e-19 5.1508863e-20
-3.5106647e-20 1.5824207e-19 4.584851e-20 -4.0559254e-20 2.821735e-10 -3.7503373e-10 2.6294622e-10 1.6798346e-09
-2.6400224e-09 -7.043823e-10 2.3684181e-09 -6.131809e-10 1.6368251e-09 3.3748748e-07 -1.3692407e-07 -4.20503e-08
1.1582308e-07 -1.0014195e-07 7.6739866e-08 2.70045e-08 1.6525001e-07 1.5718503e-07 -2.421228e-18 1.6467707e-19
-5.776905e-14 -3.5137747e-18 2.5987891e-18 2.1525666e-17 -2.7160345e-18 1.471945e-17 1.2338941e-17 1.3461206e-08
3.3299385e-09 2.2095512e-09 1.9758568e-08 1.1845688e-08 -6.268557e-10 2.0888574e-08 -3.7133375e-08 -2.8117379e-08
4.9258894e-08 -1.0579501e-07 -4.7819004e-08 7.818087e-08 -7.0435256e-08 3.920875e-08 4.5427278e-08 7.298364e-08
5.008447e-08 1.3953377e-20 3.3474788e-20 1.3638398e-19 2.1078792e-20 -4.1345007e-20 -1.4848116e-16 4.8205433e-20
-5.477958e-20 -1.6031693e-19 4.7183832e-08 -1.19956e-07 9.910437e-09 4.160526e-08 -1.0712787e-07 -9.043693e-08
7.1002235e-09 6.490983e-08 -1.5081065e-07 -2.058744e-07 -2.1647774e-07 -5.3967337e-08 -1.5431003e-07 -2.8107064e-07
-1.7507894e-07 -9.780271e-09 -1.861484e-08 6.877744e-08 -2.5229465e-15 -1.0253197e-14 1.0930199e-14 9.589325e-16
-2.2472631e-15 1.1963435e-14 8.6895914e-16 -1.8680814e-15 -1.3965619e-15 -1.858503e-08 -1.6318952e-08 -3.264181e-09
-1.3498645e-08 -2.4270003e-08 -2.6288486e-08 -3.610266e-08 -1.1470524e-08 -1.8383032e-08 -1.464271e-07 -4.5447538e-07
-1.6726591e-07 1.8465094e-08 -9.166804e-08 -1.4508596e-07 -7.133148e-08 1.2835255e-08 -1.041531e-07 -1.3374367e-09
-1.180617e-09 1.4344366e-09 -4.715329e-09 -4.536284e-09 -7.752093e-09 -7.948887e-09 5.1050106e-09 3.2958987e-09
1.7569539e-19 -1.2178416e-19 2.1402895e-19 6.4374463e-19 -9.881353e-19 5.243163e-19 -8.775855e-19 -1.3973462e-18
-4.6517313e-19 1.6663977e-20 6.505136e-21 5.793595e-21 5.2593238e-21 1.1667881e-20 7.102915e-21 1.918555e-20
2.6425501e-24 1.8595256e-21 5.79646e-18 -4.0179302e-17 -4.9645617e-17 -1.1407475e-17 -4.530435e-17 -6.215195e-17
-4.811297e-17 -3.2835973e-17 -6.3693437e-17 6.349575e-11 -1.7489003e-11 5.7518995e-10 -3.0178244e-09 -4.6918918e-09
5.5777366e-10 -3.1305267e-09 4.8134835e-10 6.8206134e-09 1.0582019e-17 -3.8555157e-18 4.695812e-18 7.7227054e-18
00000000: d3b8 27b3 b276 30b3 f398 1fb3 c03f 39b3
00000010: dee1 2fb3 4848 37b3 93b0 2bb3 c658 1fb3
00000020: 1e59 1db3 8881 5ab3 a5f9 56b3 4103 5bb3
00000030: 133d 5bb3 5f42 58b3 e428 5ab3 a37c 56b3
00000040: 043d 5ab3 1470 59b3 e56b 34b5 fa4c 59b5
00000050: 3538 43b5 d685 fcb4 ce92 0eb5 6746 d4b4
00000060: 09fd 46b4 afc3 01b4 87c0 26b3 5332 b6ae
00000070: 05bc 82b1 a72c aa30 3c79 9a32 6711 57b2
00000080: 6e4b e42f ce88 d231 48fa 76b2 1126 e632
00000090: bd9e cfb0 1a94 fd31 1cd8 3331 487f e6b2
000000a0: 50a5 6cb2 4b9b 9030 a535 dfb2 8808 8431
000000b0: 2d94 0d33 2d99 369f 98bf c520 a1ae 3c1f
000000c0: f191 429e f605 3c1f 9041 04a5 513d 0d20
000000d0: da35 e41e b8f6 d31e 273f b698 ef5c 6818
000000e0: 3eee 7697 d0a2 9598 e14c 0099 e493 3f18
000000f0: ec73 cb99 7f60 de98 ef1d 8019 cc51 8e34
00000100: 674b 1332 0659 4c33 7d83 c633 298f f0b3
00000110: bc66 7734 5a39 6d34 2f5a ab34 3483 6533
00000120: cedd 6da2 44fa 22a1 a9b8 4da2 7752 5a22
00000130: a26d e921 c5a5 28a2 9921 e2a2 fdcb efa2
00000140: 5365 8d22 5e4d 2cb1 7d9f 8831 0590 0d31
00000150: 97dd 06b3 c857 ba2f 0c62 992e a296 4ab2
00000160: 4a4d f932 1ad5 bbae 85bb feb2 5ee7 17b3
00000170: e5a6 93b2 7368 e4b2 d284 aab2 11bb 2032
00000180: 9396 0fb2 eabe 18b1 23d4 e330 c09c 899e
00000190: c84a 629f d168 991e 6425 05a0 653e 731f
000001a0: 55c9 259f bbd1 3a20 7383 581f 2189 3f9f
000001b0: 6420 9b2f 4e2d ceaf 648e 902f eddf e630
000001c0: c46b 35b1 7f9e 41b0 a7c1 2231 c58c 28b0
000001d0: aaf6 e030 ed2f b534 6705 13b4 cb9a 34b3
000001e0: 69ba f833 9f0d d7b3 30cc a433 86f7 e732
000001f0: 946f 3134 b1c6 2834 b4a7 32a2 976a 4220
00000200: 9715 82a9 aaa2 81a2 bdc1 3f22 0b8a c623
00000210: 7168 48a2 52c3 8723 009d 6323 0343 6732
00000220: e6d4 6431 d6d6 1731 8db9 a932 e381 4b32
00000230: 0c4f 2cb0 766e b332 947c 1fb3 c586 f1b2
00000240: ba90 5333 6c31 e3b3 8d61 4db3 63e4 a733
00000250: 3142 97b3 7a66 2833 d21b 4333 2ebb 9c33
00000260: 751c 5733 32c9 831e 8914 1e1f 8703 2120
00000270: 6415 c71e 0c3f 439f e72f 2ba5 cba4 631f
00000280: 3958 819f d244 3da0 2ca7 4a33 41cd 00b4
00000290: 9042 2a32 78b1 3233 2b0e e6b3 3a36 c2b3
000002a0: 3af6 f331 8e64 8b33 84ee 21b4 530e 5db4
000002b0: f370 68b4 b7c9 67b3 6bb0 25b4 0ee6 96b4
000002c0: 55fd 3bb4 1606 28b2 77e6 9fb2 ccb2 9333
000002d0: 26cc 35a7 86b4 38a8 a5e6 4428 5d32 8a26
000002e0: b0ee 21a7 9b83 5728 de75 7a26 059c 06a7
000002f0: 0a44 c9a6 eaa4 9fb2 c12d 8cb2 1450 60b1
00000300: abe7 67b2 4d7a d0b2 fed0 e1b2 4b0f 1bb3
00000310: e60f 45b2 b7e8 9db2 9339 1db4 9ffe f3b4
00000320: b499 33b4 2c9d 9e32 0adb c4b3 edc8 1bb4
00000330: e52e 99b3 0c82 5c32 c6aa dfb3 dfd0 b7b0
00000340: 4543 a2b0 c025 c530 7904 a2b1 93dd 9bb1
00000350: 112e 05b2 938f 08b2 2668 af31 107e 6231
00000360: ac6c 4f20 01c7 0fa0 48ae 7c20 f8ff 3d21
00000370: b2d2 91a1 38c0 1a21 3e82 81a1 3f36 cea1
00000380: 7d4b 09a1 0663 9d1e d1c1 f51d 36e0 da1d
00000390: 0fb1 c61d 6966 5c1e 972b 061e d033 b51e
000003a0: 1975 4c18 7580 0c1d 04da d522 594b 39a4
000003b0: 33f3 64a4 476e 52a3 f0ed 50a4 0950 8fa4
000003c0: c5e1 5da4 e06d 17a4 f8dd 92a4 eea0 8b2e
000003d0: bcd5 99ad 651b 1e30 2162 4fb1 5136 a1b1
000003e0: d551 1930 cf20 57b1 e14f 0430 c05a ea31
000003f0: 2c34 4323 513e 8ea2 b13e ad22 7275 0e23

bias f4 [64]
9.5492875e-14 -6.7000066e-08 -2.6973785e-07 -8.073435e-08 -4.853359e-06 7.635259e-15 -5.7435945e-09 1.858079e-14
-1.4954506e-13 -0.042627014 -8.23488e-15 -6.628878e-12 6.557633e-07 1.515911e-06 -0.015631232 1.776111e-10
-8.6718e-17 -8.454179e-15 2.3193364e-13 -0.00010699741 4.6373012e-07 -1.1064669e-14 3.4457454e-11 9.329341e-13
4.4950125e-13 -0.051603913 -3.2056188e-11 2.3036985e-07 -6.6517977e-13 1.775829e-12 -0.0022313043 -6.489037e-18
-1.7553092e-12 -2.2199554e-06 1.0214538e-06 -1.0931812e-16 -4.31975e-10 0.00041842577 2.6745923e-14 -0.0016279541
0.008980941 1.2715626e-06 -1.2724971e-11 -5.8916244e-06 -7.8747144e-07 5.1351935e-07 6.2405545e-14 -1.0531886e-14
-1.00352506e-13 0.012855136 -2.2532072e-17 7.71441e-07 3.024415e-07 3.980874e-12 -2.7136775e-13 3.9218553e-15
1.6343869e-12 1.1109432e-06 1.9688866e-13 -7.982518e-07 -7.505619e-12 -0.005651587 0.022999058 4.730808e-14
00000000: e507 d729 ade1 8fb3 7dd0 90b4 2e60 adb3
00000010: 09da a2b6 6b8b 0928 3159 c5b1 625c a728
00000020: 6e5f 28aa aa99 2ebd ae58 14a8 a03b e9ac
00000030: b607 3035 4e76 cb35 120d 80bc 1549 432f
00000040: 46f5 c7a4 054c 18a8 2991 822a cc63 e0b8
00000050: 95f6 f834 c852 47a8 a58b 172e 7e4c 832b
00000060: f50b fd2a a05e 53bd 0ffc 0cae 955b 7734
00000070: 413b 3bab fcec f92b 133b 12bb 3967 efa2
00000080: ae09 f7ab 8bfa 14b6 e318 8935 0712 fca4
00000090: 147b edaf 2860 db39 e6e7 f028 1361 d5ba
000000a0: cc24 133c 8faa aa35 2ddc 5fad abb0 c5b6
000000b0: a062 53b5 c8d8 0935 5986 8c29 c0b9 3da8
000000c0: 48f9 e1a9 599e 523c 5ad2 cfa3 0615 4f35
000000d0: 3e5f a234 8610 8c2c 37c4 98aa bb4c 8d27
000000e0: fe04 e62b b81b 9535 4bad 5d2a 7247 56b5
000000f0: 4e0a 04ad f330 b9bb 8568 bc3c 810e 5529

weight f4 [64]
0.0009946947 -0.0017605998 -0.00066593284 -0.00051492965 0.00094843056 0.0008669912 0.0006807272 0.002144134
0.00062224315 0.4301807 0.0008655207 0.0005287353 -0.00021245691 -0.00020143573 0.33454028 0.00072444114
0.0012336931 0.0012293046 0.00067590247 0.36304224 -0.000445863 0.0007526698 0.00060798303 0.0012050294
0.00066024705 0.51323 0.0005913752 0.00011905012 0.00058594474 0.0006539736 0.06930573 0.00084952835
0.00057287904 -0.001402985 -0.0009058912 0.0013634304 0.00011138535 0.0972576 0.00092583365 0.0844249
0.24979712 0.0023878207 0.00067780324 0.0026708983 0.00087521056 -0.00074187206 0.001394472 0.0007006848
0.0005710887 0.2650542 0.0007527194 0.00033822778 -0.0011337706 0.00069420517 0.00067062385 0.0005313401
0.0009459528 0.0011266464 0.0008630428 -0.001242671 0.0005555787 0.22540617 0.5004037 0.0005995672
00000000: 6a60 823a edc3 e6ba ff91 2eba 58fc 06ba
00000010: 19a0 783a cb46 633a d472 323a 9984 0c3b
00000020: 081e 233a a540 dc3e 1ce4 623a d39a 0a3a
00000030: f8c6 5eb9 7e38 53b9 dd48 ab3e 6ce8 3d3a
00000040: dfb3 a13a 9e20 a13a 0c2f 313a ace0 b93e
00000050: b8c2 e9b9 d14e 453a 0d61 1f3a 14f2 9d3a
00000060: 6e14 2d3a 0b63 033f 8506 1b3a 8caa f938
00000070: 169a 193a 6d6f 2b3a 2af0 8d3d e2b2 5e3a
00000080: 432d 163a 5de4 b7ba 5479 6dba 22b5 b23a
00000090: 8e97 e938 fe2e c73d a5b3 723a f6e6 ac3d
000000a0: d1ca 7f3e fc7c 1c3b 9bae 313a 3d0a 2f3b
000000b0: 636e 653a 317a 42ba b7c6 b63a 29ae 373a
000000c0: 1db5 153a 2fb5 873e 2552 453a 2a54 b139
000000d0: 079b 94ba 52fb 353a cecc 2f3a a149 0b3a
000000e0: d1f9 773a fbab 933a d23d 623a 1fe1 a2ba
000000f0: 41a4 113a e0d0 663e 751a 003f 462c 1d3a

bias f4 [64]
-5.3115255e-06 -0.0022428092 -0.003126795 -0.0026505638 -0.015434543 -8.760442e-06 -0.00028908404 -5.4313145e-06
-9.663025e-07 0.0013210528 -4.490074e-07 -4.8009057e-05 -0.0043107914 -0.0038733326 -0.002787374 -0.003281042
-2.074087e-08 -3.3014243e-07 -2.06113e-05 0.0712843 -0.0030414995 -5.5686786e-07 -0.0010613255 -5.611754e-06
-7.369642e-07 0.08208864 -8.32746e-05 -0.0027735126 -7.809879e-06 -2.6241863e-05 0.026767796 -1.6172278e-07
-8.490649e-05 -0.0046021175 -0.005988869 -3.310477e-08 -0.002967919 -0.015779026 -5.9467015e-07 0.029849911
-0.0139541635 -0.0059065474 -5.9324582e-05 -0.006505668 -0.003060203 -0.0039962097 -3.8923013e-06 -4.399384e-07
-3.957781e-06 -0.0047810553 -2.3877186e-07 -0.0012894715 -0.002875299 -3.4404824e-05 -8.742518e-06 -1.1606285e-06
-9.518928e-06 -0.009506089 -1.1411681e-06 -0.0024618972 -2.2311235e-06 0.07103273 0.0016898644 -1.7052492e-06
00000000: a839 b2b6 18fc 12bb eaea 4cbb 15b5 2dbb
00000010: 2ae1 7cbc d0f9 12b7 3490 97b9 a33e b6b6
00000020: e7b1 81b5 2d27 ad3a 1b0f f1b4 555d 49b8
00000030: 8a41 8dbb bdd7 7dbb 60ac 36bb c006 57bb
00000040: a829 b2b2 6e3e b1b4 6ee6 acb7 81fd 913d
00000050: e553 47bb ab7b 15b5 2d1c 8bba 9a4c bcb6
00000060: cbd3 45b5 171e a83d b6a3 aeb8 d2c3 35bb
00000070: 2d07 03b7 f921 dcb7 2348 db3c 05a6 2db4
00000080: d30f b2b8 5ccd 96bb 463e c4bb 142f 0eb3
00000090: 6b81 42bb 0443 81bc 6ca1 1fb5 cd87 f43c
000000a0: 01a0 64bc b68b c1bb 49d3 78b8 802d d5bb
000000b0: b08d 48bb a3f2 82bb 9d9a 82b6 ac30 ecb4
000000c0: 14cd 84b6 66aa 9cbb 8e30 80b4 7c03 a9ba
000000d0: 836f 3cbb e64d 10b8 d4ac 12b7 e4c6 9bb5
000000e0: 7cb3 1fb7 6dbf 1bbc 3d2a 99b5 c857 21bb
000000f0: 69ba 15b6 9c79 913d 717e dd3a ebdf e4b5

running_mean f4 [64]
-1.4428342e-06 -0.00019657618 -0.0028046211 0.0088316845 -0.05455229 -4.4561838e-07 8.591609e-05 -2.941968e-07
-1.8178942e-07 -0.1070375 1.3503791e-07 -1.4187385e-05 0.028239159 0.0037470171 -0.08670632 0.0024971198
-4.201406e-09 9.379737e-09 1.560355e-05 -0.03993842 0.017736468 -1.4667687e-08 8.513513e-05 3.0924118e-06
-3.011796e-06 -0.0898871 4.998602e-06 -0.022860652 8.130049e-07 1.8299175e-05 -0.21734644 -6.8436457e-09
1.7556382e-05 0.0047443868 0.031924758 -1.1026384e-09 0.005742898 -0.11800807 8.780769e-08 -0.20215242
-0.05281483 0.032861095 -5.8122646e-07 0.022998454 0.014877578 -0.007266541 -3.0681051e-06 2.4887458e-07
1.155729e-06 -0.053696733 -7.421763e-08 -0.0030664909 0.01527504 1.4272123e-05 2.318977e-06 -8.382425e-08
7.339576e-06 0.06730797 9.4240676e-07 0.015837088 -4.1773552e-07 -0.057958204 -0.041033886 6.038345e-07
00000000: 68a7 c1b5 0420 4eb9 bccd 37bb c5b2 103c
00000010: 3972 5fbd 533d efb4 d92d b438 1af2 9db4
00000020: e531 43b4 7a36 dbbd f0fe 1034 5b06 6eb7
00000030: cf55 e73c 8490 753b 1593 b1bd b8a6 233b
00000040: f55b 90b1 8524 2132 5ee4 8237 7896 23bd
00000050: 124c 913c 2bfd 7bb2 938a b238 3b87 4f36
00000060: 431e 4ab6 ba16 b8bd aab9 a736 4346 bbbc
00000070: 453d 5a35 2e81 9937 1190 5ebe 5825 ebb1
00000080: 0b46 9337 cd76 9b3b 89c3 023d a48b 97b0
00000090: ec2e bc3b 37ae f1bd ca90 bc33 0b01 4fbe
000000a0: 5d54 58bd 5b99 063d 9405 1cb5 4167 bc3c
000000b0: 16c1 733c 2a1c eebb a5e5 4db6 109d 8534
000000c0: 8c1e 9b35 1bf1 5bbd 9361 9fb3 2ef7 48bb
000000d0: 2944 7a3c 4d72 6f37 b99f 1b36 de02 b4b3
000000e0: 7a46 f636 c3d8 893d b3f9 7c35 c8bc 813c
000000f0: 2245 e0b4 9565 6dbd 2613 28bd 3117 2235

running_var f4 [64]
3.2599398e-13 0.0001675819 0.0007121554 0.0006835921 0.036379356 5.727321e-12 2.221944e-08 6.71852e-12
2.0556405e-13 0.0008039105 6.809545e-14 4.8234784e-11 0.0014724571 0.00032721626 0.0014548533 2.192582e-05
7.3123735e-16 7.825196e-15 1.0406294e-10 0.0007420181 0.0016133994 7.8786485e-14 8.173016e-07 1.4306867e-11
4.913427e-12 0.000697258 4.2280404e-10 0.00042651684 5.5132474e-12 3.010908e-10 0.0023945172 2.3809082e-15
3.0895095e-10 0.0005017957 0.0008339902 3.4620195e-17 7.95991e-05 0.0021666584 3.1875037e-13 0.001680912
0.001647037 0.00091768673 9.940241e-10 0.001737417 0.0008353583 0.00062585785 7.221476e-10 5.5339614e-14
5.0340336e-13 0.001395909 6.4792415e-13 0.0011839839 0.0006195763 6.7375695e-11 5.13383e-12 2.0879424e-12
4.3569075e-11 0.017197218 5.018648e-13 0.0010827897 9.715831e-13 0.00087998435 0.0010015722 1.397437e-12
00000000: af84 b72a ecb8 2f39 f1af 3a3a 1733 333a
00000010: 8502 153d 1f83 c92c 11dd be32 0c63 ec2c
00000020: ce71 672a 85bd 523a 5b56 9929 8a23 542e
00000030: 76ff c03a 398e ab39 c7b0 be3a 57ed b737
00000040: cbc3 5226 59f7 0c28 3ad6 e42e fe83 423a
00000050: b378 d33a 5169 b129 8a64 5b35 67b0 7b2d
00000060: 37e0 ac2c 31c8 363a 6170 e82f 1f9e df39
00000070: ebfa c12c c386 a52f 55ed 1c3b 0190 2b27
00000080: fbd8 a92f f08a 033a 23a0 5a3a 50a8 1f24
00000090: 71ee a638 7ffe 0d3b c570 b32a 0c52 dc3a
000000a0: 64e1 d73a ea90 703a 1d9e 8830 0aba e33a
000000b0: f2fb 5a3a 9c10 243a 9f80 4630 3b3a 7929
000000c0: 09b2 0d2b eff6 b63a db5f 362b e82f 9b3a
000000d0: 106b 223a 2529 942e 6ea1 b42c 07ed 122c
000000e0: 6b9e 3f2e 2ee1 8c3c 2c43 0d2b 65ec 8d3a
000000f0: f8bc 882b c0ae 663a 3047 833a f9ab c42b

weight f4 [1, 1600]
-6.977009e-09 6.504808e-12 9.2175066e-11 3.0950434e-10 3.937483e-09 -1.3600784e-11 3.1238181e-10 1.425739e-06
1.3762824e-06 -5.110192e-10 1.0788578e-11 6.4172185e-05 -0.0003516358 -0.00025776995 -7.633933e-10 1.8413321e-09
7.237921e-05 -0.002634627 3.230891e-05 1.0434865e-10 2.0178173e-07 8.5893575e-08 3.5472078e-07 2.5812024e-09
9.798454e-10 0.0016841313 -0.00048150079 0.00035713264 0.0019330438 0.0017185173 -0.002021705 -0.0020456675
-0.0016465515 0.0014657751 0.001677207 0.0009045336 -0.0018987592 -0.0007748255 0.0028004008 0.0016437253
0.0014461908 0.0018185526 0.002473534 0.002030858 0.0015933256 0.0015496196 0.0015932712 0.0016043487
0.0015821158 0.0015592073 3.407352e-07 -0.0025737933 0.0006636525 0.00011376142 -0.001921693 0.0018170378
-0.0025788755 -0.004548882 -0.0049114632 -0.00047025678 0.0015987973 0.002690848 0.0014423426 0.0009162916
0.0004491415 0.0014365229 0.001519231 0.0027693051 0.00093874586 0.0030775426 0.0013908707 0.0014063189
0.0014801983 0.0018117479 0.002467706 0.0012188527 0.0013554583 0.0012848509 0.0013527252 0.0012065803
0.0015793392 0.0018176588 0.0013173202 0.0012155187 0.0013953685 -0.0028970444 -0.0028869966 -0.0010922776
-0.0012538363 0.001293459 -0.0029087355 -0.0041069677 0.0015919281 -0.00028938195 0.0015826708 -0.0029188856
-0.0029240234 -0.0029411793 -0.002944779 0.001649107 6.1185976e-09 4.0361323e-13 0.01572129 0.006147312
-0.0003711923 -9.9643856e-11 2.0312828e-07 0.000634375 -0.004482166 -0.005088289 2.0328945e-12 0.0182799
0.004821705 -0.023234406 -0.00947373 -0.0286461 -0.028839003 -0.006740668 -0.011949061 -0.007988085
-0.024343058 -0.018693436 -0.01599916 -0.011836874 -0.0046958127 7.106773e-07 1.5944e-07 1.2372494e-09
-9.371331e-10 3.899357e-09 -2.481513e-06 -2.9671894e-06 -3.5891894e-06 2.1482245e-07 1.9130303e-08 -7.055267e-06
1.7337308e-05 0.00059255084 -7.3899614e-06 -1.6445392e-07 -4.3034165e-06 0.0022661523 0.005032363 -1.9553629e-05
-2.9130933e-06 1.3444832e-05 8.296378e-07 -8.8089255e-06 -8.497808e-06 -4.0209293e-06 -9.000408e-08 -1.1936805e-07
-3.321123e-08 2.0862146e-08 8.451255e-09 -1.635488e-07 -2.1620932e-07 -2.5421718e-05 1.6558724e-05 1.4821936e-08
-1.4077632e-07 -1.5737756e-06 5.781049e-05 8.245951e-05 -2.2753923e-08 -1.0397557e-07 -3.9480926e-07 3.0331898e-05
2.1970152e-07 -3.462021e-08 -1.200777e-07 -8.8189815e-08 -1.6943791e-07 -1.06303894e-07 -7.188596e-08 5.3694698e-09
4.5299012e-10 -2.929418e-09 3.1846713e-11 2.9774898e-11 -4.6040552e-10 -2.670291e-09 -7.041709e-07 -9.5162115e-08
9.973146e-13 -5.865273e-09 -6.946735e-08 -0.0004326853 0.004194569 -3.651124e-08 1.3813785e-09 -1.3483644e-06
0.004836163 0.009517231 -9.266101e-07 5.1194016e-10 -3.8928505e-12 -2.9318562e-07 -1.5612399e-06 9.811792e-10
-1.01124185e-08 -1.1942402e-08 -1.2390349e-08 -1.1806381e-08 -1.1821425e-08 -8.563393e-09 -2.0393705e-08 -2.9874755e-06
-3.2071856e-07 -9.143161e-09 -7.683775e-09 -2.0474532e-05 0.00013585089 1.0212596e-05 -9.184742e-09 -9.213071e-09
7.170101e-07 5.702951e-05 -1.0435156e-05 -8.730637e-09 -1.2576282e-08 -1.1352114e-08 -1.1332259e-08 -9.638787e-09
-8.17013e-09 -0.0899547 -0.10431889 -0.1052526 -0.0879813 -0.07533109 -0.10401457 -0.076438874
-0.091084845 -0.08012661 -0.11795647 -0.07705804 -0.127769 -0.21518414 -0.21635245 -0.041127574
-0.060454242 -0.10012528 -0.25728932 -0.21664228 -0.030160964 -0.046068747 -0.06107709 -0.08466
-0.06547938 -0.040835552 1.2230228e-11 2.7778865e-10 -3.784902e-09 -8.6103285e-09 4.1210466e-08 3.0111986e-11
00000000: 6cba efb1 1ade e42c f3b1 ca2e dd26 aa2f
00000010: 774a 8731 7c44 6fad d5bb ab2f 055c bf35
00000020: b4b8 b835 c877 0cb0 70cb 3d2d 2e94 8638
00000030: c25b b8b9 4c25 87b9 07d7 51b0 1d12 fd30
00000040: 4bca 9738 b5a9 2cbb 6e83 0738 1177 e52e
00000050: 57a9 5834 7e74 b833 7470 be34 fe60 3131
00000060: 3fab 8630 12be dc3a f171 fcb9 883d bb39
00000070: 305e fd3a df3f e13a 957e 04bb 9b10 06bb
00000080: 1ad1 d7ba 401f c03a bad5 db3a 391e 6d3a
00000090: c9df f8ba a91d 4bba ee86 373b 4572 d73a
000000a0: 1c8e bd3a 805c ee3a 041b 223b 2518 053b
000000b0: 23d7 d03a 9b1c cb3a 4fd5 d03a 0249 d23a
000000c0: ff5e cf3a 515e cc3a 4aee b634 16ad 28bb
000000d0: f7f8 2d3a 3393 ee38 51e1 fbba ac29 ee3a
000000e0: 5a02 29bb ca0e 95bb 57f0 a0bb cc8c f6b9
000000f0: bc8e d13a f058 303b fd0c bd3a 4a33 703a
00000100: c07a eb39 b649 bc3a ef20 c73a 3b7d 353b
00000110: 2b16 763a 99b0 493b e04d b63a 3b54 b83a
00000120: 3703 c23a 2c78 ed3a 3db9 213b e9c1 9f3a
00000130: a2a9 b13a 7168 a83a ed4d b13a 1e26 9e3a
00000140: d401 cf3a 823e ee3a eea9 ac3a 0a52 9f3a
00000150: cce4 b63a 57dc 3dbb c433 3dbb c12a 8fba
00000160: c457 a4ba 4889 a93a 7ca0 3ebb be93 86bb
00000170: 3ea8 d03a 30b8 97b9 9f71 cf3a c64a 3fbb
00000180: f9a0 3fbb cdc0 40bb 31fd 40bb d926 d83a
00000190: c13b d231 cc36 e32a efc9 803c 646f c93b
000001a0: 969c c2b9 811e dbae 7a1b 5a34 304c 263a
000001b0: 22df 92bb a9bb a6bb 5f0d 0f2c bbbf 953c
000001c0: 65ff 9d3b 1556 bebc b437 1bbc 3aab eabc
000001d0: c63f ecbc d2e0 dcbb ffc5 43bc 75e0 02bc
000001e0: 186b c7bc fa22 99bc ac10 83bc 73ef 41bc
000001f0: 55df 99bb 5fc5 3e35 8932 2b34 d80b aa30
00000200: 71cc 80b0 1bfb 8531 1288 26b6 ed1f 47b6
00000210: cedd 70b6 f2a9 6634 fb53 a432 48bc ecb6
00000220: 966f 9137 6a55 1b3a 49f7 f7b6 c094 30b4
00000230: 1166 90b6 ba83 143b 85e6 a43b 1907 a4b7
00000240: 907e 43b6 1d91 6137 47b4 5e35 0cca 13b7
00000250: cf91 0eb7 85eb 86b6 4448 c1b3 a42b 00b4
00000260: 22a4 0eb3 5834 b332 0331 1132 f49b 2fb4
00000270: 2a27 68b4 b940 d5b7 97e7 8a37 90a3 7e32
00000280: 4d28 17b4 853a d3b5 8a79 7238 1dee ac38
00000290: 6874 c3b2 2d49 dfb3 2cf6 d3b4 4171 fe37
000002a0: 18e7 6b34 53b1 14b3 b5ee 00b4 dd62 bdb3
000002b0: bdee 35b4 2f49 e4b3 b95f 9ab3 5b7e b831
000002c0: b108 f92f de4e 49b1 3610 0c2e 8ef3 022e
000002d0: 511c fdaf 4280 37b1 4106 3db5 ed5b ccb3
000002e0: 0c5c 8c2b 7d87 c9b1 142e 95b3 0ada e2b9
000002f0: 9872 893b 88d0 1cb3 efda bd30 73f9 b4b5
00000300: ad78 9e3b 29ee 1b3c 29bc 78b5 96b8 0c30
00000310: aef7 88ac 2067 9db4 cb8b d1b5 2dda 8630
00000320: e3ba 2db2 3d2b 4db2 55dd 54b2 03d5 4ab2
00000330: 2d17 4bb2 331e 13b2 3b2e afb2 707c 48b6
00000340: 392f acb4 0c14 1db2 9a01 04b2 b9c0 abb7
00000350: 3273 0e39 c456 2b37 ecca 1db2 8447 1eb2
00000360: 8f78 4035 f832 6f38 a712 2fb7 bffd 15b2
00000370: 130f 58b2 2007 43b2 cdaf 42b2 d597 25b2
00000380: 9d5c 0cb2 2b3a b8bd 24a5 d5bd ad8e d7bd
00000390: 8a2f b4bd 3047 9abd 9705 d5bd fc8b 9cbd
000003a0: b18a babd 6c19 a4bd 2993 f1bd 9bd0 9dbd
000003b0: e0d5 02be 3b59 5cbe 7f8b 5dbe 6375 28bd
000003c0: de9e 77bd 7c0e cdbd 6dbb 83be 79d7 5dbe
000003d0: 2014 f7bc 95b2 3cbd f92b 7abd 3962 adbd
000003e0: 0e1a 86bd 2e43 27bd 0d28 572d 47b7 982f
000003f0: 5a0c 82b1 a0ec 13b2 63ff 3033 156f 042e
