SND_trackers_My_data/9X0_file/19_9X0_coordconv_Label_V5.pt (torch, 305469 bytes, 25 tensors)

weight f4 [32, 9, 3, 3]
00000000: 6f17 343c 3f17 343c 6917 343c d517 343c
00000010: b717 343c 6c17 343c 5a17 343c 6317 343c
00000020: 5a17 343c faf0 7b3c faf0 7b3c edf0 7b3c
00000030: fdf0 7b3c eef0 7b3c eff0 7b3c 02f1 7b3c
00000040: eef0 7b3c f0f0 7b3c f977 163c 5a5f 1e3c
00000050: d252 263c 3201 153c e4e1 1c3c a583 243c
00000060: e226 133c 5fea 1a3c 8165 223c 0118 12bb
00000070: b802 fbba 0d9e 53bb ad74 8d37 3721 09bb
00000080: b159 8bba 6b98 d839 5d96 2bbb ae11 0bbb
00000090: 5f9e 88bc cbde 40bc 45e3 6cbc fe39 80bc
000000a0: e5d8 79bc 41e3 7dbc 8ac6 71bc 86dc 57bc
000000b0: df75 1c3b e4e6 963a 7989 6eba dc8f dc3b
000000c0: 4181 61bb 0700 f6bb e2a7 23ba e52c 32bc
000000d0: 560b 35bc 2e2b 1d3b e765 1c3b 7136 d23a
000000e0: 5e74 013b 6702 d43b 4c98 8abb a529 3ebb
000000f0: f3f3 fd3a 7f97 063b 0ad5 deba 43af e9bb
00000100: 254e dcbb 8eff aebb d16e 8bbb a2c7 37bb
00000110: f937 4cbb 7ada 763b af37 3c3c 4c06 ad3b
00000120: 4d3a ac3b a05d f83b 0ded ffba 6c8d d73b
00000130: 018d e13b c8d0 de3b 2838 7f3b 833f f03b
00000140: bb96 633c a8f7 54bc b0f7 54bc bef7 54bc
00000150: e2f8 54bc d4f8 54bc 9af9 54bc 50f7 54bc
00000160: 2ef8 54bc 22f6 54bc 1784 f83c e279 f83c
00000170: 278c f83c 5986 f83c f07e f83c 057f f83c
00000180: 6f85 f83c e689 f83c 6980 f83c 070f 5f3c
00000190: 7cae 6b3c 0090 6e3c fd22 5f3c 86fd 6a3c
000001a0: f98a 6a3c 4d78 5a3c b029 603c 44a2 5e3c
000001b0: d1aa e0bd b7b9 d9bd b932 e6bd 0a44 f0bd
000001c0: e547 0abe dbee 89bd 0e5a 9dbd d8ec a0bd
000001d0: 1b93 d4bd 0014 a6b9 66dc 42bd 2e8b 5ebd
000001e0: c51d 20bd 6ae7 36bd 549a b93c c947 18bd
000001f0: c45b 0d3d 4118 03bd 6167 8cbd 500b 87bd
00000200: 02c9 76bd 3a2f 8abd aa0a 6fbd 8cb6 1fbd
00000210: eb05 babd 4f31 0ebd c4da ac3c 4cf8 563c
00000220: 31ca 5e3c 867b b73c faf3 563d 84bd 37bb
00000230: 4ca3 3ebd d83c 203d 1f25 ccbc a0b0 2f3d
00000240: a24f 6bbd adcc b9bd 5cc2 cabd b474 183d
00000250: 994e 4fbd c135 e5bd 6ef7 12bc 23f4 68bd
00000260: aab0 a3bd bf80 3f3d 574d 07bb c832 b23c
00000270: 3d5a ee3d 1a22 963b e1d5 d43d 35d4 8f3d
00000280: 397a 683d 83cf 88bb ab45 12bc ac45 12bc
00000290: ab45 12bc ac45 12bc ac45 12bc ac45 12bc
000002a0: a545 12bc a445 12bc a445 12bc ac1c 493c
000002b0: 5e1c 493c 501c 493c 4e1c 493c 411c 493c
000002c0: 791c 493c 301c 493c 341c 493c 351c 493c
000002d0: f90d 023b cc41 4f3b 48ad 9e3b 4a04 d63a
000002e0: 6627 303b 4e21 893b 23c8 ab3a af32 153b
000002f0: 720f 6e3b 3250 353b 4cc8 533a ea3a 143c
00000300: 42ee a5bb 5337 86bb 8f85 26bb 07bb 46bb
00000310: 0bb8 86bb 8cc5 33bb bd68 a8bb 403a 6bbb
00000320: 793c 9ebb 4f21 78bb d9ae 26bb ea4d 34bb
00000330: ba9a 2b3b 2c75 1eba bd2b 1bbc c017 5abb
00000340: 9d75 1e3b d54a e63b c1c3 c6bb de53 bb3a
00000350: 41e9 193c 604b f9bb 1ede 42bb b79b 1db7
00000360: a86f b2ba 0b80 ba3a d5b1 9aba 9f2f 37bb
00000370: 8e9b f839 4b4b 93ba 8fa3 37bb 5dbd 973b
00000380: bf4a 023c 0ede 753a bab5 183b 5aae 3eb7
00000390: 5028 5c3b 14a4 c63b 3c88 743b 6e00 623b
000003a0: 3001 ff3b 1953 093c a938 7abb 935f 963a
000003b0: 3bfe b73b b39f 58ba 8d01 bdb9 9fa0 173c
000003c0: 99e1 033a 3145 9c38 9e5c b83b df44 803c
000003d0: cd44 803c dd44 803c d144 803c d144 803c
000003e0: cf44 803c cf44 803c d344 803c d144 803c
000003f0: 207f 3f3a 5188 3f3a 0083 3f3a c07c 3f3a
0.010991915 0.01099187 0.01099191 0.01099201 0.010991982 0.010991912 0.010991896 0.010991904
0.010991896 0.0153772775 0.0153772775 0.015377265 0.01537728 0.015377266 0.015377267 0.015377285
0.015377266 0.015377268 0.009183877 0.009666288 0.010151582 0.009094523 0.009575341 0.010041152
0.008981438 0.0094552925 0.009911896 -0.002229214 -0.001915059 -0.003229025 1.6862841e-05 -0.0020924339
-0.0010631589 0.0004131229 -0.0026182153 -0.0021220255 -0.01667708 -0.011771868 -0.014458482 -0.015652653
-0.015249466 -0.015496076 -0.014756808 -0.0131751355 0.0023873968 0.0011512903 -0.00090994645 0.0067310166
-0.0034409317 -0.0075073275 -0.0006242973 -0.0108749615 -0.011050066 0.0023982036 0.002386445 0.0016037953
0.0019753198 0.006470013 -0.004229581 -0.0029016521 0.0019375071 0.0020537076 -0.0017000746 -0.0071314885
-0.0067231827 -0.005340523 -0.0042551537 -0.0028042574 -0.0031161292 0.0037666843 0.011487885 0.0052802917
0.0052559734 0.0075795203 -0.0019525603 0.006578138 0.006883264 0.006799791 0.0038943384 0.00733179
0.013890917 -0.012998499 -0.012998506 -0.012998519 -0.012998791 -0.012998778 -0.012998963 -0.012998417
-0.012998624 -0.012998136 0.030336423 0.030331556 0.030340267 0.0303375 0.030333966 0.030334005
0.030337064 0.030339193 0.030334668 0.013614423 0.014384862 0.014560699 0.013619182 0.014342671
0.01431536 0.013334346 0.013681814 0.013588492 -0.10970081 -0.106311254 -0.11240143 -0.117317274
-0.13503988 -0.06735011 -0.07683192 -0.07857674 -0.10379621 -0.00031676888 -0.04757347 -0.05433195
-0.03909089 -0.044654287 0.022656597 -0.037177835 0.034511343 -0.032005552 -0.068556555 -0.065939546
-0.06025029 -0.06747289 -0.05835978 -0.03899245 -0.0908316 -0.034714993 0.02110041 0.013120722
0.013598011 0.022397768 0.052478768 -0.0028036544 -0.04654245 0.039120525 -0.024920044 0.042893052
-0.05744899 -0.09072242 -0.09900352 0.03722067 -0.050612066 -0.11191893 -0.008970125 -0.056873452
-0.0799268 0.04675364 -0.0020645463 0.02175273 0.11638305 0.004581702 0.10392357 0.07022897
0.056757186 -0.004175128 -0.008927743 -0.008927744 -0.008927743 -0.008927744 -0.008927744 -0.008927744
-0.008927737 -0.008927736 -0.008927736 0.012274902 0.01227483 0.012274817 0.012274815 0.012274803
0.012274855 0.012274787 0.012274791 0.0122747915 0.0019844754 0.0031624911 0.004842434 0.0016328183
0.0026878952 0.0041848784 0.001310591 0.0022765805 0.0036325124 0.0027666208 0.0008078858 0.009047249
-0.005063803 -0.0040959506 -0.0025409197 -0.003032388 -0.004111295 -0.002743098 -0.005139439 -0.0035892874
-0.0048289862 -0.003786165 -0.0025433807 -0.002751226 0.0026184754 -0.00060446816 -0.009470877 -0.0033278316
0.002417899 0.0070279636 -0.006065816 0.0014291962 0.009393991 -0.0076078624 -0.0029734443 -9.394184e-06
-0.0013613598 0.0014228834 -0.0011802266 -0.0027951968 0.00047418143 -0.0011237649 -0.0028021073 0.004630728
0.007952391 0.0009379097 0.0023301677 -1.1365477e-05 0.0033593364 0.00606204 0.0037312647 0.003448512
0.007782124 0.008381628 -0.0038180745 0.0011472575 0.0056150234 -0.0008263543 -0.00036050045 0.009254604
0.000503087 7.4515476e-05 0.005626275 0.01565784 0.015657807 0.015657837 0.015657814 0.015657814
0.01565781 0.01565781 0.015657818 0.015657814 0.0007305015 0.00073063845 0.00073055923 0.0007304661

bias f4 [32]
00000000: f786 47b6 743d 0f3b 7d67 6133 b2e1 38b9
00000010: e88a 7bb9 f22d 3aba 7f04 41bc 24af 893c
00000020: c53a 693c a332 7f3a deee 4838 5a29 453b
00000030: e542 8099 bf39 6236 190f a83c 145d 25b7
00000040: a82e fcb8 41db ba35 edf6 c838 8b16 f59e
00000050: 22ee c037 928b 1399 0d91 d23c 0cb1 b5b6
00000060: 5692 8536 360e 1539 b6b5 85b5 2346 613a
00000070: 945a 8538 cbdd 94bb 0b50 a6a2 2458 463b
-2.973187e-06 0.0021856697 5.2481017e-08 -0.00017631685 -0.00023988972 -0.00071021833 -0.011780857 0.016807146
0.014235203 0.00097350235 4.790618e-05 0.0030084462 -1.3261908e-23 3.3710237e-06 0.020515012 -9.856438e-06
-0.00012024987 1.3921891e-06 9.582737e-05 -2.5949708e-20 2.2999073e-05 -7.627908e-24 0.025703931 -5.4148313e-06
3.9807446e-06 0.00014215041 -9.962157e-07 0.000859352 6.358806e-05 -0.0045430413 -4.507914e-18 0.0030264938

weight f4 [32]
00000000: a1b6 0138 b513 383e cc88 a837 cbdc 123e
00000010: ae8b 15b8 daf8 0abc 27ce 3a3e 59e1 153e
00000020: 9e2d 9f3e 9f83 533d 7f4b 5eb7 6ee3 713e
00000030: 1248 cbb6 3a4f a1b9 4b93 653e e972 3e37
00000040: f146 1a3d 4415 32b6 4bf4 0c3b 9921 9bb7
00000050: 1d5b 7db8 4f40 53b8 f5b0 233e c6d9 07b7
00000060: d961 b6b8 0c45 6d3c 828a aab8 0f99 1c3f
00000070: e32e e2b6 bccf 303e f931 b837 5ce9 533e
3.0926083e-05 0.17976268 2.0090862e-05 0.14342038 -3.5654455e-05 -0.008482182 0.18242703 0.14636745
0.3108949 0.051639196 -1.3249809e-05 0.23621914 -6.0582615e-06 -0.0003076734 0.22419469 1.1351637e-05
0.03766531 -2.6536445e-06 0.0021507915 -1.8493085e-05 -6.0404756e-05 -5.0366212e-05 0.15985473 -8.097331e-06
-8.696662e-05 0.014481794 -8.132031e-05 0.6117105 -6.740783e-06 0.17266744 2.195778e-05 0.20694488

bias f4 [32]
00000000: 46df a1bc ae22 293c 6234 37bc 78c3 24bd
00000010: b43d 18bc 90f8 253c ba98 833d f435 2c3c
00000020: 86fd 0abc fddc dabc 4edc bdbb 7173 e8bc
00000030: 2537 03ba 7ea6 7cbc fb29 0c3d 51cc 09bd
00000040: 3e74 90bd 7de8 c1bb 157c e9bb 7483 ddb8
00000050: 5a47 6cbc 6ba4 40b8 af6d 363d 122f e4bb
00000060: f39e 5bbc 59f8 95bc 693c 2bbc ff95 273b
00000070: aefc bebc cdef 653c 46f2 92b7 ab72 1dbd
-0.019759785 0.01032321 -0.011181923 -0.040225476 -0.009292055 0.010130063 0.06425615 0.01051091
-0.008483296 -0.026716704 -0.0057940846 -0.02837536 -0.00050054706 -0.015420554 0.034219723 -0.033642117
-0.070534214 -0.0059176073 -0.0071253874 -0.00010562586 -0.014421308 -4.5929493e-05 0.044538196 -0.006963619
-0.013404596 -0.018306898 -0.010451415 0.0025571582 -0.023313846 0.014034224 -1.7517374e-05 -0.038439434

running_mean f4 [32]
00000000: 1330 4f3d 692e be3d 2649 c33c ea48 163e
00000010: c823 4f3d 033c 973e dd88 703e d6f0 9cbc
00000020: 6469 a13c 8e05 a73b 5430 17bc 555c 353e
00000030: bdd3 113a 3999 0b3d 7d1a 013e fb74 233c
00000040: 994a 283e 40ff 203c 21ba b5bd 2554 a037
00000050: 6556 5b3d 3583 b938 80c2 e9bd 4519 18bd
00000060: 9ae1 f73c 4dd2 f63c 8684 e43c da17 593d
00000070: 94e4 5e3d 0b70 f2bd f181 82b6 13cc 813e
0.050582957 0.09286196 0.02383859 0.14676252 0.050571233 0.29537973 0.23489709 -0.019157808
0.019703574 0.0050970977 -0.009227831 0.17711003 0.00055628625 0.03408167 0.1260776 0.009976621
0.16434707 0.009826481 -0.08873392 1.911267e-05 0.05354919 8.845927e-05 -0.11414051 -0.037133474
0.030258942 0.030129576 0.027895223 0.053001262 0.054417208 -0.11837777 -3.889429e-06 0.2535101

running_var f4 [32]
00000000: 2b0a 003d 1118 9d3f 9a74 863c f58d 2a3f
00000010: e21d 3f3e d284 1640 058c a63f 02c7 923f
00000020: 29b9 b63f ff08 863e 0ee9 8a3c 921b f63e
00000030: 7394 5b39 92d1 023d e0db 293e c445 d23e
00000040: 6e64 543f 2c1f ee3b 41a2 fe3e bd4e 3534
00000050: d947 f93d 66ef 0436 44bd 563f 20d0 733c
00000060: 9571 0c3d 0124 f53e 3c14 323c f47c 953e
00000070: e0bd e63e 92e1 cb3e d243 8c31 5b87 e13f
0.031259697 1.227297 0.016413022 0.6662286 0.18663743 2.3518567 1.301148 1.1466982
1.4275256 0.26178738 0.016956832 0.4806791 0.00020940769 0.031938143 0.16587782 0.41068852
0.82965744 0.0072668996 0.49733165 1.6885583e-07 0.12171907 1.980888e-06 0.83882546 0.014881164
0.034288008 0.4787903 0.010869082 0.29196894 0.45066738 0.39820534 4.0822465e-09 1.7619432

weight f4 [32, 35, 3, 3]
00000000: f101 0080 ef01 0080 e301 0080 eb01 0080
00000010: ee01 0080 d601 0080 d701 0080 d801 0080
00000020: e101 0080 852f 0000 ab2d 0000 cb2e 0000
00000030: 362e 0000 c72d 0000 ba2f 0000 402e 0000
00000040: a62d 0000 d42e 0000 3e01 0080 3400 0000
00000050: d701 0000 a700 0080 c201 0080 e501 0080
00000060: b901 0000 d801 0000 9301 0000 f101 0080
00000070: 8f00 0080 3153 1a07 a501 0080 3b01 0000
00000080: 9418 0000 8301 0000 e601 0080 876f 0080
00000090: 0302 0000 2315 0000 4a73 ac8a ab00 0000
000000a0: 0701 0080 8541 0100 8c00 0000 7801 0000
000000b0: bc00 0000 8b01 0080 ed10 0080 5feb 9089
000000c0: 5801 0080 5001 0080 14c1 2201 4900 0080
000000d0: c001 0000 ba01 0080 e301 0080 fc20 0000
000000e0: 898a 6b11 ad01 0000 dd01 0080 36f1 4c03
000000f0: c800 0000 3301 0000 1ebe 0680 a601 0000
00000100: e401 0080 11b0 0080 5401 0000 0002 0080
00000110: db01 0000 c801 0000 e800 0080 8701 0080
00000120: d400 0000 d801 0000 63c2 1e87 8100 0000
00000130: 4e01 0080 bb15 0080 2200 0080 7f01 0080
00000140: 819f 0100 d400 0080 e701 0000 06d5 208c
00000150: ef01 0080 a400 0080 0601 0000 7c01 0080
00000160: 9500 0000 c800 0080 d200 0080 2601 0000
00000170: 79d1 0785 5200 0000 9401 0000 7fc5 ae80
00000180: 9a01 0000 dc00 0000 e000 0080 5901 0080
00000190: bc00 0000 a167 0302 bb00 0000 9601 0000
000001a0: c400 0000 5b00 0000 ff01 0080 2c01 0080
000001b0: 8300 0000 6d01 0080 bdd9 6807 cd00 0000
000001c0: 9101 0000 298d 8207 eb01 0080 e001 0080
000001d0: e701 0000 9401 0080 8700 0080 1df5 c007
000001e0: 8301 0080 4200 0080 665f 0700 3700 0080
000001f0: d901 0080 0501 0000 f801 0080 42a9 0180
00000200: e87d 828e eb00 0080 1901 0000 00e3 7f07
00000210: a000 0000 3c01 0080 2600 0000 d601 0000
00000220: 4f01 0080 4027 6c06 d801 0000 f501 0000
00000230: af01 0080 0501 0000 7e00 0080 3300 0000
00000240: 4800 0000 8e01 0000 19d5 a602 2601 0000
00000250: cd01 0000 fa00 0000 c301 0080 8f00 0000
00000260: 2300 0000 0d65 0100 3f68 0c02 fa30 e91f
00000270: be14 0080 d62d 0280 d2ed 388f 7d00 0000
00000280: 1901 0000 3c02 0080 b301 0000 0700 0080
00000290: 737d 9f84 8701 0080 0001 0080 a801 0080
000002a0: de00 0000 1600 0080 7600 0000 8900 0080
000002b0: ea01 0000 d292 a90d 3d00 0080 6d01 0080
000002c0: 6696 0900 5000 0080 4b00 0000 c453 0c00
000002d0: fd00 0000 1c00 0080 c31d 1684 a601 0080
000002e0: 8d00 0080 b171 1a02 9800 0080 8a01 0080
000002f0: a902 0080 6e01 0080 6900 0080 d893 0183
00000300: 2b01 0080 eb01 0080 353c 5e80 1900 0000
00000310: ff01 0000 ec01 0080 4901 0080 ea01 0000
00000320: 2192 c285 ee00 0080 8400 0000 8608 0080
00000330: 2100 0000 cd01 0080 4801 0000 9a00 0080
00000340: d201 0080 2692 d606 1700 0000 f601 0000
00000350: bf2b 0180 4801 0080 e501 0080 f00e 0100
00000360: 4401 0080 5200 0080 9e7f 8b8b 5901 0000
00000370: 4d00 0000 4b01 0000 f400 0000 2e05 0080
00000380: 9d18 6283 7c00 0080 6c01 0000 c5a0 978d
00000390: e000 0000 9000 0000 dbac 6288 6901 0080
000003a0: 0b00 0080 1100 0080 4700 0080 0a01 0000
000003b0: 5689 2880 4a01 0080 f800 0080 2000 0080
000003c0: ed01 0000 ca00 0080 ae00 0000 eb00 0000
000003d0: 2c53 0080 efda 1d8d 6801 0080 1d00 0000
000003e0: ee01 0000 ed01 0000 1b00 0000 63fc 5900
000003f0: c001 0080 5e00 0080 2b1c 108a cb00 0000
-6.96e-43 -6.94e-43 -6.77e-43 -6.88e-43 -6.92e-43 -6.59e-43 -6.6e-43 -6.61e-43
-6.74e-43 1.7047e-41 1.6383e-41 1.6786e-41 1.6577e-41 1.6422e-41 1.7121e-41 1.6591e-41
1.6376e-41 1.6799e-41 -4.46e-43 7.3e-44 6.6e-43 -2.34e-43 -6.3e-43 -6.8e-43
6.18e-43 6.61e-43 5.65e-43 -6.96e-43 -2e-43 1.161012e-34 -5.9e-43 4.41e-43
8.817e-42 5.42e-43 -6.81e-43 -4.0008e-41 7.22e-43 7.582e-42 -1.6606364e-32 2.4e-43
-3.69e-43 1.1534e-40 1.96e-43 5.27e-43 2.63e-43 -5.54e-43 -6.072e-42 -3.488808e-33
-4.82e-43 -4.71e-43 2.9893228e-38 -1.02e-43 6.28e-43 -6.2e-43 -6.77e-43 1.1833e-41
1.8580921e-28 6.01e-43 -6.68e-43 6.022711e-37 2.8e-43 4.3e-43 -6.19214e-40 5.91e-43
-6.78e-43 -6.3161e-41 4.76e-43 -7.17e-43 6.66e-43 6.39e-43 -3.25e-43 -5.48e-43
2.97e-43 6.61e-43 -1.1943724e-34 1.81e-43 -4.68e-43 -7.795e-42 -4.8e-44 -5.37e-43
1.49055e-40 -2.97e-43 6.82e-43 -1.2390056e-31 -6.94e-43 -2.3e-43 3.67e-43 -5.32e-43
2.09e-43 -2.8e-43 -2.94e-43 4.12e-43 -6.3861435e-36 1.15e-43 5.66e-43 -1.6050225e-38
5.75e-43 3.08e-43 -3.14e-43 -4.83e-43 2.63e-43 9.6541e-38 2.62e-43 5.69e-43
2.75e-43 1.28e-43 -7.16e-43 -4.2e-43 1.84e-43 -5.11e-43 1.7517728e-34 2.87e-43
5.62e-43 1.9643192e-34 -6.88e-43 -6.73e-43 6.82e-43 -5.66e-43 -1.89e-43 2.9033014e-34
-5.42e-43 -9.2e-44 6.77071e-40 -7.7e-44 -6.63e-43 3.66e-43 -7.06e-43 -1.52554e-40
-3.2168718e-30 -3.3e-43 3.94e-43 1.9250777e-34 2.24e-43 -4.43e-43 5.3e-44 6.59e-43
-4.7e-43 4.4415503e-35 6.61e-43 7.02e-43 -6.04e-43 3.66e-43 -1.77e-43 7.1e-44
1.01e-43 5.58e-43 2.451382e-37 4.12e-43 6.46e-43 3.5e-43 -6.32e-43 2e-43
4.9e-44 1.28086e-40 1.0315493e-37 9.8760363e-20 -7.441e-42 -2.00114e-40 -9.117703e-30 1.75e-43
3.94e-43 -8.02e-43 6.1e-43 -1e-44 -3.7495927e-36 -5.48e-43 -3.59e-43 -5.94e-43
3.11e-43 -3.1e-44 1.65e-43 -1.92e-43 6.87e-43 1.0450775e-30 -8.5e-44 -5.11e-43
8.80472e-40 -1.12e-43 1.05e-43 1.132075e-39 3.55e-43 -3.9e-44 -1.7646081e-36 -5.91e-43
-1.98e-43 1.1346761e-37 -2.13e-43 -5.52e-43 -9.54e-43 -5.13e-43 -1.47e-43 -3.807941e-37
-4.19e-43 -6.88e-43 -8.654135e-39 3.5e-44 7.16e-43 -6.9e-43 -4.61e-43 6.87e-43
-1.8297352e-35 -3.34e-43 1.85e-43 -3.058e-42 4.6e-44 -6.46e-43 4.6e-43 -2.16e-43
-6.53e-43 8.07126e-35 3.2e-44 7.03e-43 -1.07529e-40 -4.6e-43 -6.8e-43 9.7194e-41
-4.54e-43 -1.15e-43 -5.373287e-32 4.83e-43 1.08e-43 4.64e-43 3.42e-43 -1.858e-42
-6.6443685e-37 -1.74e-43 5.1e-43 -9.344797e-31 3.14e-43 2.02e-43 -6.821259e-34 -5.06e-43
-1.5e-44 -2.4e-44 -1e-43 3.73e-43 -3.722687e-39 -4.62e-43 -3.48e-43 -4.5e-44
6.91e-43 -2.83e-43 2.44e-43 3.3e-43 -2.9836e-41 -4.864289e-31 -5.04e-43 4e-44
6.92e-43 6.91e-43 3.8e-44 8.263898e-39 -6.28e-43 -1.32e-43 -6.9386456e-33 2.84e-43

bias f4 [32]
00000000: 7d0f 0080 19b9 0180 291c 3dbc c628 a334
00000010: 15f6 1caf ae03 0080 b57f 3e2b 8c68 fbbb
00000020: f948 a8bc bfa4 8238 bf06 4cbc e28c 0200
00000030: e207 0080 c400 0000 fadb 11a1 3f8f ccbc
00000040: 13ab 6e96 fd6e 5d89 d2d7 ac11 6f02 0080
00000050: c2a2 6dbc 6930 b73d fce0 20b7 2d05 0080
00000060: 07a7 3837 3c04 0080 a809 0737 5ce1 c3b9
00000070: 16e8 9c3d 511a 8432 8bde 9c01 6822 0080
-5.556e-42 -1.58236e-40 -0.011542358 3.0390783e-07 -1.4275543e-10 -1.32e-42 6.767879e-13 -0.007672375
-0.020542609 6.2295694e-05 -0.01245278 2.3421e-40 -2.828e-42 2.75e-43 -4.941905e-19 -0.024970649
-1.9279468e-25 -2.6654094e-33 2.7269825e-28 -8.73e-43 -0.0145041365 0.089447804 -9.589126e-06 -1.857e-42
1.1006144e-05 -1.519e-42 8.048875e-06 -0.00037361204 0.076614544 1.537879e-08 5.7624683e-38 -1.2343e-41

weight f4 [32]
00000000: bf1e 36af 0026 deb8 1135 423e 1473 78b8
00000010: 8035 02b9 2e25 d22d 6113 1db6 e01a 5f3e
00000020: c4ce ac3e df40 6bbb 68be 003e 95b9 6638
00000030: f2c5 abaa 6441 bbb5 643b c43a 2097 5e3e
00000040: 713d e0b8 c614 bbb8 ca58 1939 effc e8b0
00000050: 0ac5 5d3e 8601 933e 0b27 0fba 3559 9930
00000060: 17a5 0eba 0221 c3b8 9aab 66ba e3a5 8a39
00000070: 7bef 9a3e 88ff dfb3 2a01 7c2f 4089 13b3
-1.6563727e-10 -0.00010592863 0.18965556 -5.9234982e-05 -0.00012417696 2.3890747e-11 -2.3406103e-06 0.21787596
0.337515 -0.003589682 0.12572634 5.500911e-05 -3.0513054e-13 -1.3951617e-06 0.0014971313 0.21737337
-0.00010692597 -8.920724e-05 0.00014624294 -1.695211e-09 0.21657196 0.287121 -0.0005460835 1.1157569e-09
-0.00054414704 -9.304473e-05 -0.00087993743 0.00026445006 0.30260834 -1.04307276e-07 2.291968e-10 -3.4350933e-08

bias f4 [32]
00000000: 9044 caa4 e5e8 abb8 e64f 9fbd f55b 61bc
00000010: 932a 02bc 06fa b79c 48ca a0b2 2d1f 62bd
00000020: 447b 253e 094a 0cbc 84b8 183d 5636 fbb9
00000030: 9a1f a792 2b39 c3b5 626b 10bb 5739 673d
00000040: 5662 4dbb 40a8 76bc c926 28ba a747 c9a9
00000050: 3986 383d 483f 4c3c 464d 1abc 3d9c 7db0
00000060: 6704 e3bc b57b 37b8 d844 26bb 15ae 49bd
00000070: 55d1 4ebd 2e8a 45af b33f e8aa ea09 14b2
-8.7719685e-17 -8.1972954e-05 -0.07778911 -0.013754834 -0.007944721 -1.2174554e-21 -1.8718438e-08 -0.055205513
0.16160303 -0.008562573 0.037285343 -0.00047914934 -1.0546972e-27 -1.454527e-06 -0.0022036661 0.056451168
-0.003133913 -0.015054762 -0.0006414471 -8.938623e-14 0.04504988 0.012466259 -0.0094178375 -9.226289e-10
-0.02771206 -4.374581e-05 -0.0025370624 -0.049238283 -0.050492603 -1.7966137e-10 -4.125568e-13 -8.616988e-09

running_mean f4 [32]
00000000: 753b 492c bd2c 3335 0147 09be 8f4e b23c
00000010: 78c7 c93b 782f 28a1 076b c635 4a50 11bd
00000020: 43be 39bd b9af f93b 3de1 cb3d f5cb 3b38
00000030: cc39 f11b 090f 8d34 582f a439 cd4e 5abe
00000040: e4c7 0b3a 700d 043b f7c0 91b9 ef63 12a1
00000050: efc2 9abd dfca edbc 61e6 103d ef2a a1a4
00000060: ff27 1f3d 74b6 4236 4b6a 6aba f140 803d
00000070: 7c8a 3d3d e41a 8432 8276 4a2f 0ea3 3531
2.8596823e-12 6.67478e-07 -0.13405992 0.021765975 0.0061578117 -5.698344e-19 1.4783299e-06 -0.03547696
-0.045347463 0.0076198247 0.0995507 4.4774224e-05 3.9907456e-22 2.6274236e-07 0.0003131579 -0.21319123
0.0005332215 0.002014961 -0.00027800325 -4.9598985e-19 -0.07556712 -0.0290274 0.035375956 -6.989535e-17
0.038856503 2.9014454e-06 -0.00089422305 0.062623866 0.046274647 1.5379051e-08 1.8413895e-10 2.6431652e-09

running_var f4 [32]
00000000: 19d7 5a1c b6f6 822d 68e0 f33c 72c1 6d3b
00000010: 4238 d338 fde7 e604 892b 1a2f 127e 393d
00000020: fb11 9f3d 7cf5 dd3b 6255 823d 0068 ee2f
00000030: 1711 0000 2172 3d2c ff5c ab34 ed0b f43c
00000040: e293 c636 45ae 2237 c3e6 0533 2e94 4b04
00000050: 9497 1c3d fca5 de3c e8f7 0a3c 3b5d 7a0c
00000060: c618 513b ff83 442f 7afa 9e3a 7e0f 093c
00000070: 8b25 693d 9f8b a718 2658 4c22 208e 5226
7.2408157e-22 1.488885e-11 0.029770091 0.0036278632 0.00010071743 5.4285788e-36 1.4021685e-10 0.045286246
0.077671014 0.006773649 0.06363942 4.3365844e-10 6.13e-42 2.692187e-12 3.1918896e-07 0.029790843
5.9180757e-06 9.696528e-06 3.1176352e-08 2.3930576e-36 0.038230494 0.027178757 0.008481957 1.9287355e-31
0.0031905635 1.787299e-10 0.0012129091 0.00836551 0.05692057 4.330947e-24 2.769382e-18 7.3051e-16

weight f4 [64, 35, 3, 3]
00000000: 5fe6 04bd b7e5 04bd c4e5 04bd 77e6 04bd
00000010: cee5 04bd 3ee5 04bd c1e5 04bd 27e6 04bd
00000020: c2e4 04bd 9405 c53a 3600 c53a dafc c43a
00000030: 04f8 c43a 76f7 c43a aafc c43a 44f7 c43a
00000040: f6fc c43a aaf8 c43a 9908 cbbb 3444 dc3a
00000050: 2920 9e3c 6f22 71bd 1264 7abd fb84 63bb
00000060: b359 83bd a86c 9bbd a437 13bd a58b 0f8c
00000070: 1007 7f18 cc0d 8d16 5d65 0409 8875 b49e
00000080: ee19 8b9f 42c5 4da3 3bc5 cdad a768 1ab0
00000090: 7e93 13a8 f1dc 95a6 be86 3ba4 f8a1 13af
000000a0: e58f 07b0 c5fe cab2 5c56 cdb2 ecdd 0eb6
000000b0: c7c0 71b5 dea7 073d c190 97bc 30ef 9b3a
000000c0: 8c1e 4d3c 5315 0abe 98f2 063d 25fc 863d
000000d0: 5cb7 6dbc 3b4b 51bd 963c bdb9 f4ce d7ba
000000e0: e2ab 843b 1fcb b53a c828 d73a b0c8 2f3b
000000f0: ca7c 4bba 9cb4 2e3a e19f 563b 9137 2fb8
00000100: 1687 8eb8 a7ab 6cb8 75ea 3d38 8699 6eba
00000110: 7f43 99b8 fa30 ed39 df36 11ba fd0b a338
00000120: c301 0080 2322 9a97 5479 4b95 ab00 0080
00000130: 6f43 a30e 15a7 48a4 43e6 4d98 afec 49ab
00000140: 1345 14af 6c16 9e21 8daa 0b25 8932 ea25
00000150: d9c5 bf22 7be9 6126 72cc 8f25 16c3 83ae
00000160: 9217 7ab1 eadf 0bb6 3128 763c 77c4 193d
00000170: 091e 7abc f90e b4bc 5317 32bd 8bb8 86bd
00000180: 2d9b 853c 0e26 c93c 26c8 1b3d 362b 70bd
00000190: ac57 a03b aa05 d4bd 735d 973b 3ac4 9bbc
000001a0: 8893 c5bc 6e8a 2d3d 45e1 5abc 0858 413d
000001b0: 8dab d5bb 4ae1 833b 2a5f c33b 9b40 5b3a
000001c0: e001 663a e59b d23b b4bf f33a fe82 443b
000001d0: dcd0 24bb 2771 8abc 22f6 413d 2291 89bc
000001e0: 1044 6e3d cccd b93c 2ea9 8e3c bc85 e43d
000001f0: 8496 eb3c 032c 793d 26e3 1eab 0ffa 24a8
00000200: b737 08a3 9bf9 8ca9 c22c 17a6 4f51 1222
00000210: d844 a5a7 3cae dbac 7a1d 6eaa a65f 1596
00000220: 6c12 ec9d 60d0 4f0d da5c dd8a fb67 139d
00000230: 159d 359d 90a3 f2a1 73c9 6fac 2546 0a33
00000240: 58cf 4323 e908 30a9 481d baa9 513e fba9
00000250: 2a6f 89a9 f9cc 8fa3 46e6 25b1 d842 98b1
00000260: 3673 abb4 fa7a 9db0 8302 ff2f 668a 3031
00000270: b979 4ab0 b811 6c2f e3f5 8230 1b4c 0eaf
00000280: d0be 98ac d920 2db1 bffa 883d 0a68 dc3c
00000290: 6539 3cbd 7857 bb3c dd69 aabc 8390 67bc
000002a0: c332 06be 7816 923d 9bc8 b3bd b838 ffb1
000002b0: 8b34 2a33 9c70 a0b1 08c2 8437 f425 1eb6
000002c0: dcfe c3af 264c 2fb8 a1d4 00b9 b9cf ee37
000002d0: 0f43 03b6 65c3 86b5 02c8 49b2 2a55 a0b8
000002e0: 6aed efb8 4dbf 53b6 b46e ce38 3a3b c8b7
000002f0: b52d 86b8 0889 b1a5 315d ada8 2efa 1927
00000300: f0c1 11ab a583 5cae ec0d eead 9588 452c
00000310: 6a67 a32e 4e45 2431 5300 0000 6064 b500
00000320: 8299 0403 1000 0000 6dfd 0000 7656 588c
00000330: 7a16 0080 9cda 429e 219d 952a 2590 f23d
00000340: 5b36 3dbd 1f53 49bd 2870 a9bc 274b b23b
00000350: 4b02 1ebd 269a 1abe 1db1 fbbc 92ec 373c
00000360: c549 513d 1249 d03d 6cb8 d43d 8a29 82bc
00000370: 943c 80ba 59bb f03c 28d2 2fbd 8eaf 583d
00000380: 78a1 2bbd 030a 9aba dd48 0a3b 2380 10bc
00000390: 0ada 243c 738a deb9 b0e1 74b9 3e09 473b
000003a0: 4728 533a 34b0 f13b 0334 6800 f767 2b9a
000003b0: eb90 419a 1907 7700 32fa f40e a3ac 3c25
000003c0: 4584 c49e 0ff8 3fa6 22b4 0b31 bc71 44bb
000003d0: 30ee d5ba 002a 58bb accf aa3a ab93 2dbb
000003e0: 0c31 c7bb 167e 0f3c ea56 b53a 4d4c 33bb
000003f0: aa1b 8526 406f cbab 0390 e3a9 03be 282e
-0.03244626 -0.032445636 -0.032445684 -0.03244635 -0.03244572 -0.032445185 -0.032445673 -0.032446053
-0.032444723 0.001503157 0.001502997 0.0015028969 0.0015027528 0.0015027362 0.0015028913 0.0015027304
0.0015029002 0.0015027721 -0.0061960933 0.0016804994 0.019302445 -0.05887073 -0.06113059 -0.0034716714
-0.06413593 -0.07589084 -0.035941735 -1.1058342e-31 3.2961543e-24 2.2788486e-25 1.5936583e-33 -1.9106851e-20
-5.891169e-20 -1.1154843e-17 -2.339339e-11 -5.6173594e-10 -8.1921215e-15 -1.0398838e-15 -4.0663292e-17 -1.3427115e-10
-4.93172e-10 -2.363175e-08 -2.3904413e-08 -2.1288824e-06 -9.0060024e-07 0.033119075 -0.018501641 0.0011896845
0.01251949 -0.13484697 0.0329462 0.065910615 -0.014509048 -0.051097136 -0.0003609403 -0.0016464875
0.0040488103 0.0013869739 0.0016415352 0.00268225 -0.00077624305 0.0006664486 0.0032749104 -4.1775e-05
-6.796249e-05 -5.642665e-05 4.5279467e-05 -0.0009101856 -7.308181e-05 0.00045240653 -0.00055394875 7.774679e-05
-6.32e-43 -9.960634e-25 -4.1091235e-26 -2.4e-43 4.024754e-30 -4.350961e-17 -2.6611881e-24 -7.173801e-13
-1.3485062e-10 1.0712431e-18 1.2114113e-16 4.0626773e-16 5.1980133e-18 7.837898e-16 2.4945083e-16 -5.9918445e-11
-3.6393186e-09 -2.084295e-06 0.015024231 0.03754088 -0.01526595 -0.021979796 -0.043479275 -0.065781675
0.016309345 0.024554279 0.038032673 -0.05863496 0.004893264 -0.10352643 0.0046192943 -0.019014467
-0.0241182 0.042368345 -0.0133593725 0.047203094 -0.0065206946 0.0040246593 0.005962272 0.0008363814
0.0008774083 0.0064272755 0.0018596561 0.0029985304 -0.0025148904 -0.016899658 0.04735387 -0.016792838
0.05817038 0.02268114 0.017414656 0.1115832 0.028758295 0.06083299 -5.644811e-13 -9.158052e-15
-7.384373e-18 -6.2605486e-14 -5.2449307e-16 1.9829734e-18 -4.587134e-15 -6.2436983e-12 -2.1148873e-13 -1.2066305e-25
-6.2487728e-21 6.403762e-31 -2.1316453e-32 -1.9509045e-21 -2.403636e-21 -1.6441852e-18 -3.407577e-12 3.2194425e-08
1.0614878e-17 -3.908758e-14 -8.265139e-14 -1.11574493e-13 -6.103306e-14 -1.55909e-17 -2.4141555e-09 -4.4313815e-09
-3.193506e-07 -1.1458205e-09 4.6386014e-10 2.5690041e-09 -7.366015e-10 2.147037e-10 9.52863e-10 -1.2941863e-10
-4.3412843e-12 -2.5193485e-09 0.06688451 0.026905078 -0.045953173 0.022868857 -0.020802433 -0.014133575
-0.13105302 0.07133192 -0.08778497 -7.427925e-09 3.9628997e-08 -4.669415e-09 1.5825979e-05 -2.3565926e-06
-3.5651382e-10 -4.179417e-05 -0.00012286242 2.846854e-05 -1.9559554e-06 -1.0040645e-06 -1.1745216e-08 -7.6452576e-05
-0.0001144063 -3.1552802e-06 9.8434655e-05 -2.3869437e-05 -6.3981315e-05 -3.0797462e-16 -1.9247274e-14 2.1368638e-15
-5.178349e-13 -5.0139132e-11 -2.706365e-11 2.8071202e-12 7.430752e-11 2.3904536e-09 1.16e-43 1.6658233e-38
3.896753e-37 2.2e-44 9.0912e-41 -1.6666053e-31 -8.063e-42 -1.0315482e-20 2.6576747e-13 0.118439
-0.046194416 -0.049151536 -0.020683363 0.0054410878 -0.038576405 -0.15097865 -0.030724103 0.011225836
0.051095743 0.10170187 0.10386738 -0.015888948 -0.0009783679 0.02938621 -0.04292503 0.052901797
-0.041902035 -0.0011752251 0.0021100559 -0.008819613 0.01006175 -0.00042446292 -0.00023353728 0.00303705
0.0008055013 0.0073757414 9.56955e-39 -3.5445953e-23 -4.0028528e-23 1.093097e-38 6.0391573e-30 1.6364892e-16
-2.0807013e-20 -6.660262e-16 2.0329556e-09 -0.0029975018 -0.0016321596 -0.0032984018 0.0013031862 -0.0026485722
-0.006078845 0.008758089 0.0013835107 -0.0027358711 9.236227e-16 -1.4454896e-12 -1.0105807e-13 3.8367542e-11

bias f4 [64]
00000000: b456 233d dbf6 94ad f299 9022 28e6 dab6
00000010: a36b 8a3a e4ee c43c 9902 0080 a1c7 a495
00000020: ce6f 64b5 f507 0080 9f03 0080 5417 edb5
00000030: c407 0080 c607 0000 b33c d22b f004 0000
00000040: 0fc4 96a2 720a 0000 1a45 e2b9 794a 0000
00000050: d507 0000 f806 0000 a990 821a 1e04 0000
00000060: 3a07 33bd 270a 0080 ecee 50b6 ff66 87b9
00000070: b302 0000 4a0e 0080 8ba8 eb36 0100 13a8
00000080: 4652 0db9 4d06 0080 1000 0000 4e04 0000
00000090: 0f46 a7b3 5729 121e cf9e e287 d804 0080
000000a0: 1078 0919 8a1d 5c36 0c00 0080 3c92 063c
000000b0: 4903 0080 ad04 0000 9c7c 2f1d 4120 0080
000000c0: 6047 5eb8 5b2c e91b 78c4 42a8 c70b 0000
000000d0: e103 0080 b773 313c f2d2 3c3c fd7b 9226
000000e0: a24d 27bb dbac 0219 2cca 5ebd 5a4a 9906
000000f0: ee00 0080 43c3 df1d 430f 5f94 260d 0080
0.03987761 -1.6935278e-11 3.9194274e-18 -6.5237e-06 0.0010560643 0.024039693 -9.32e-43 -6.655403e-26
-8.5099316e-07 -2.854e-42 -1.299e-42 -1.7664665e-06 -2.786e-42 2.789e-42 1.4938245e-12 1.771e-42
-4.0865167e-18 3.747e-42 -0.00043157564 2.6716e-41 2.81e-42 2.5e-42 5.400045e-23 1.477e-42
-0.043708064 -3.642e-42 -3.1133486e-06 -0.00025825945 9.68e-43 -5.126e-42 7.0231667e-06 -8.16014e-15
-0.00013477457 -2.26e-42 2.2e-44 1.544e-42 -7.789287e-08 7.7377245e-21 -3.409804e-34 -1.738e-42
7.1069804e-24 3.2799749e-06 -1.7e-44 0.008213576 -1.178e-42 1.677e-42 2.3225479e-21 -1.157e-41
-5.2995398e-05 3.857528e-22 -1.0811766e-14 4.225e-42 -1.391e-42 0.010830811 0.011524903 1.0164392e-15
-0.002552845 6.75575e-24 -0.054392025 5.7661453e-35 -3.34e-43 5.9229504e-21 -1.1261633e-26 -4.717e-42

weight f4 [64]
00000000: 4a17 4c3d 4da7 acb8 6609 84bb 0dc0 3d39
00000010: 2aa9 fc3b 5dd6 2d3e 9f57 a2b7 1b12 05ab
00000020: 2713 09ba 5360 4d30 54a3 87b7 55ee 83b9
00000030: e1a3 a5b1 4d55 932c 3919 d3ae 9bf5 a3b3
00000040: 288f 1cb1 b752 9cb5 d24a 633b ef96 d437
00000050: 400d 7d34 705c 0eb5 39ad 7bab bf4d 0e35
00000060: 049a 7f3e c062 ddb8 1b8e 013b f8bc feba
00000070: a1d1 d832 7990 6534 ecb4 4fad 81f7 28af
00000080: a5f0 bcb9 248a 6ab5 29f0 7eb2 9355 3eb1
00000090: 1416 41b8 3805 052f cc94 1530 03c3 6daf
000000a0: 4d29 e1ae bab8 adb9 5709 6e2f 0599 9a3d
000000b0: 0693 562e afaf 922e 2d24 872e 2948 c734
000000c0: 869f 3ab8 b860 84b1 f34f 16b4 a146 19b4
000000d0: c56e 8333 bb4f 5b3e 5ff1 423e c6d2 ad31
000000e0: 7b29 d4bc f317 4629 8edd 4a3e 3700 9038
000000f0: 1147 b6b3 3c13 caad 71be 9db1 cd4d b134
0.049826898 -8.232761e-05 -0.0040294407 0.00018095989 0.0077105956 0.16976304 -1.9352707e-05 -4.727622e-13
-0.0005228989 7.471545e-10 -1.616931e-05 -0.00025163838 -4.820763e-09 4.1874616e-12 -9.5996495e-11 -7.6349544e-08
-2.2782363e-09 -1.1646979e-06 0.0034682048 2.5342653e-05 2.3567281e-07 -5.3033637e-07 -8.941351e-13 5.301226e-07
0.24961096 -0.00010556495 0.001976854 -0.0019434979 2.5241038e-08 2.1379846e-07 -1.180676e-11 -1.5367442e-10
-0.00036037448 -8.7372814e-07 -1.4839352e-08 -2.7697282e-09 -4.6035348e-05 1.2098134e-10 5.441734e-10 -2.1624307e-10
-1.0239152e-10 -0.00033134763 2.1649292e-10 0.075487174 4.878855e-11 6.670519e-11 6.145515e-11 3.7119142e-07
-4.4494423e-05 -3.8527013e-09 -1.3998924e-07 -1.427493e-07 6.120312e-08 0.21417134 0.19037388 5.058925e-09
-0.025898686 4.3985604e-14 0.19811079 6.866495e-05 -8.487962e-08 -2.2973283e-11 -4.590952e-09 3.3025427e-07

bias f4 [64]
00000000: 4975 873d fc9d adbb 30ab 9bb9 1530 69bb
00000010: 94e5 f93c ee40 9d3d 5081 11a5 2f79 8aa4
00000020: f42d 8bbb ec36 959f dcc9 d8ab ec9e 87bb
00000030: 9cb6 00a2 be74 619b 3452 4aab db28 d2a9
00000040: ac0b 15a5 7c2f 2dad d5bf 8cbc 5a39 f6b6
00000050: e972 66ad 762b 21a9 67b0 27ad 2635 d4a8
00000060: c5e9 323b e66e 46b5 fd3d a5bb 8dd6 78bb
00000070: c2d3 91ab 6fd7 33b2 fcf7 26ac ff3a a5b3
00000080: 7cc0 85bc 4b47 8aa9 3587 5ba4 bbd3 ab95
00000090: 9654 84b4 b6ab 8ab4 a308 6ba9 9e06 81a6
000000a0: c06f 58a4 8cdf 77bb b8e8 989d e93f 243e
000000b0: aba3 88a4 5b9b aca1 d882 e2a4 5ff0 73b2
000000c0: dcf3 b8ba ab22 85a3 3e1f c8b0 0821 819e
000000d0: 5f0f 9ba5 0c23 563d 049b 39be 919c 62bb
000000e0: aca6 2a3d 374b 7fa9 fd33 1dbc c147 1aaf
000000f0: a821 45a2 d68e b2a9 82de 80a8 b594 f0ac
0.06614167 -0.005298374 -0.00029691448 -0.0035581638 0.03050498 0.076784 -1.2620558e-16 -6.005325e-17
-0.0042474214 -6.3194815e-20 -1.540375e-12 -0.004138818 -1.7443907e-18 -1.8649285e-22 -7.1878896e-13 -9.332961e-14
-1.2927644e-16 -9.844455e-12 -0.017181316 -7.338048e-06 -1.30995015e-11 -3.5786878e-14 -9.53202e-12 -2.3559778e-14
0.0027299982 -7.3922126e-07 -0.00504279 -0.003796968 -1.0361644e-12 -1.0468155e-08 -2.3727678e-12 -7.6941426e-08
-0.016327135 -6.1407985e-14 -4.760258e-17 -6.94004e-26 -2.464846e-07 -2.582944e-07 -5.2187973e-14 -8.952967e-16
-4.693219e-17 -0.0037822453 -4.047469e-21 0.16040005 -5.925786e-17 -1.1696296e-18 -9.8233534e-17 -1.4199116e-08
-0.0014110762 -1.4434571e-17 -1.4560795e-09 -1.3672068e-20 -2.689863e-16 0.052279517 -0.1812554 -0.0034578184
0.041662857 -5.6686613e-14 -0.0095949145 -1.403171e-10 -2.6716296e-18 -7.929566e-14 -1.4307352e-14 -6.83772e-12

running_mean f4 [64]
00000000: 0635 5abd 9b16 a237 7053 2f39 cdea 01bc
00000010: f4cb 8e3e eeb7 91bd 715d 3526 2d24 f39d
00000020: a19f 5ebb b3f8 6d97 67bd 2624 c332 183d
00000030: 8745 b025 fcd8 bd25 c1dd d42b 42e9 4227
00000040: abcc 96a2 540b 90ae 2555 323d 2c0d f831
00000050: 9268 432a ae2f 4e29 3748 57a4 ff96 2728
00000060: 68c6 57be a30a 3736 dfc5 fb3c 7046 333d
00000070: 3993 812d a583 dcb0 83a8 eb36 2088 7133
00000080: 50ce b03d c588 f02c 9b5d 959c 627e 161e
00000090: 82ca 9db3 6f68 7229 3cb3 1031 28b5 3fa2
000000a0: 8555 0aa8 20c4 45bc f595 0b9b c249 a43d
000000b0: ef27 9e9f 31c7 ec24 b01d 2727 2ded 6f2b
000000c0: ceed 2c3d 95ff 6525 a5b5 b833 0ee2 9324
000000d0: 2226 b924 4bed e03c 9ecb 973d 40a2 d1b1
000000e0: 7047 8bbd 98f0 07a3 546d 14bc 85cf b8b0
000000f0: 7913 0185 8bac 5027 8405 4821 4160 90a3
-0.053273223 1.9322431e-05 0.00016720383 -0.007929516 0.2788998 -0.0711516 6.2923627e-16 -6.435897e-21
-0.0033969658 -7.6892733e-25 3.6155942e-17 0.037157785 3.0578247e-16 3.2933308e-16 1.5125055e-12 2.7049358e-15
-4.0874282e-18 -6.550374e-11 0.04353823 7.2192474e-09 1.7355759e-13 4.5782544e-14 -4.6681862e-17 9.303104e-15
-0.2107178 2.7275316e-06 0.030734 0.043768346 1.4730982e-11 -1.6044522e-09 7.023163e-06 5.623599e-08
0.08633101 6.8363947e-12 -9.884189e-22 7.967069e-21 -7.347718e-08 5.3825376e-14 2.105664e-09 -2.598123e-18
-7.679083e-15 -0.012070686 -1.1546264e-22 0.08021881 -6.698167e-20 1.0268613e-16 2.3192e-15 8.5239004e-13
0.042218976 1.9949178e-16 8.6012086e-08 6.413404e-17 8.029556e-17 0.0274569 0.07411884 -6.1011463e-09
-0.06800735 -7.369312e-18 -0.009059269 -1.3446743e-09 -6.0691274e-36 2.8959334e-15 6.7769936e-19 -1.5653276e-17

running_var f4 [64]
00000000: 4951 413d 4307 db32 64da 9834 4860 0f3a
00000010: 4fa2 f93d 55a1 c03c 4345 340e 0b60 6b01
00000020: 655a 0c3b 0400 0000 6503 670b 7a67 ec3a
00000030: 4eb9 360d 9908 540d 4bf7 ee14 9319 9110
00000040: 5603 0000 1aea 8e1d aa7d cd3c d989 ec26
00000050: 8dc8 8a15 2cfc f112 cf44 630a 04d8 6b15
00000060: 4145 243d b47b 462e accc b43a 6d51 bf3b
00000070: 3c2c 941d 5c8a bf22 c782 f414 5270 a628
00000080: 2aa3 493c 3811 d61a 4f05 0000 c977 0000
00000090: 75d3 b624 a6ec 4414 d17d 2923 23a7 c808
000000a0: dccc 8c10 27dc 063a 4c06 0000 3295 d03b
000000b0: 1da8 3d03 2430 470b 068b 3110 a47c 0f18
000000c0: 9b63 543b 28a0 2a0d 0138 7829 d706 330a
000000d0: f8dc 8a0a 6a4a 413c 62f6 9c3c e061 1627
000000e0: a0ea 4f3d e76e 7c0a 10cf 143d c32f c121
000000f0: 0400 0000 5efa 5710 4ccc bd04 4fca 1708
0.04719666 2.5498258e-08 2.8471106e-07 0.0005469364 0.12189161 0.02351443 2.2220061e-30 4.323159e-38
0.0021416184 6e-45 4.4491535e-32 0.001803621 5.6306132e-31 6.5337893e-31 2.4129398e-26 5.723182e-29
1.197e-42 3.7829142e-21 0.025084335 1.6413153e-15 5.605417e-26 1.5271403e-27 1.0942594e-32 4.7628278e-26
0.04010511 4.5129858e-11 0.0013793907 0.005838564 3.922101e-21 5.1917147e-18 2.4689286e-26 1.8478413e-14
0.012306968 8.8536144e-23 1.904e-42 4.2971e-41 7.928814e-17 9.942142e-27 9.188151e-18 1.2076356e-33
5.55359e-29 0.00051444996 2.259e-42 0.0063654417 5.5735093e-37 3.8362223e-32 3.5014195e-29 1.8545244e-24
0.0032408002 5.2578076e-31 5.5115638e-14 8.619823e-33 1.3372036e-32 0.011797527 0.019160453 2.086974e-15
0.050760865 1.2154217e-32 0.036330283 1.3090831e-18 6e-45 4.259415e-29 4.4621304e-36 4.567772e-34

weight f4 [64, 67, 3, 3]
00000000: d330 2a2d d430 2a2d cc30 2a2d d130 2a2d
00000010: d130 2a2d ca30 2a2d d030 2a2d ce30 2a2d
00000020: c930 2a2d cb21 08a8 d4f5 07a8 092d 08a8
00000030: bd82 08a8 ffdd 07a8 bad3 08a8 71b9 07a8
00000040: 1cab 04a8 90d4 08a8 cf7f 8eac 56cd c5ac
00000050: 20c0 f0ac 8ba6 e2ab cd52 47ac 68c4 f0ac
00000060: 0c1e e42b 39d0 472c 0b83 f02c 253f 9eaa
00000070: 4ad5 2a2b ffaf 5e2b 1da4 6bab fe54 a02b
00000080: 13de ee2c 30f8 4c2a 0ff4 4c2c e8a4 982d
00000090: 422c 1010 4d86 1010 ac8e 1010 3aa1 1010
000000a0: 03a0 1010 939d 1010 b694 1010 30a2 1010
000000b0: a09f 1010 216e 9a13 0627 0390 1ed1 7816
000000c0: 61c7 4f13 03ab 9010 e11b 1895 a004 8492
000000d0: 362d 1e94 6018 9b11 7c1a 1c94 bf1c 1c94
000000e0: 6e19 1c94 111d 1c94 a71f 1c94 1b1d 1c94
000000f0: ab1d 1c94 0120 1c94 eb1c 1c94 fb02 0000
00000100: 4104 0000 0403 0080 1603 0080 0d02 0000
00000110: 5000 0080 f201 0080 4e02 0000 1b02 0080
00000120: 6e15 00a6 e939 c026 d3e2 062a 4d6e 222a
00000130: 20aa 9f2c 13f0 532c 7d2a 592d b6b3 39ae
00000140: ca60 dfae 1405 0080 9300 0000 9f00 0080
00000150: e302 0080 0b01 0080 7403 0080 bb00 0000
00000160: 0401 0000 6302 0080 be00 0000 9c05 0000
00000170: 5006 0080 7602 0080 7400 0080 3401 0000
00000180: 3a00 0080 5500 0080 c000 0000 7cda c39e
00000190: a06e d41f 32b2 0720 4c3e 531f 9dbc 4321
000001a0: f701 3d9f 6833 bc9e a967 40a2 035d 8620
000001b0: 7804 0080 4c06 0000 7603 0080 be01 0080
000001c0: eb02 0000 8703 0080 7b01 0080 dd01 0080
000001d0: 0f00 0000 0802 0080 8200 0000 a201 0000
000001e0: 7300 0080 9000 0000 6902 0080 0100 0000
000001f0: 1700 0080 3802 0000 ce4a 8f1c db40 ac1d
00000200: 586a b11d caeb 351d 7f62 d51e ab88 ea1e
00000210: 1b8f 9a1d 875f af1e 5aba cc1e 6d0a 0000
00000220: f800 0000 e605 0080 6f02 0000 1e00 0080
00000230: d602 0080 5103 0000 9401 0080 1a01 0080
00000240: 1d04 0080 5d00 0000 a203 0000 5003 0080
00000250: a001 0080 0c00 0000 6f04 0080 8701 0000
00000260: 3100 0000 2684 238b f5fc 828b 2f06 b409
00000270: 435c 160a 624f 1c0b 4938 810b 49c5 498b
00000280: 34a2 148b 8fb3 e40a d802 0000 b604 0080
00000290: 8401 0080 8201 0080 9d01 0000 e901 0000
000002a0: 2703 0080 3502 0000 b001 0080 fd06 0080
000002b0: 0402 0080 5001 0000 8f04 0000 a501 0000
000002c0: 7201 0080 5c03 0000 d501 0080 9b02 0080
000002d0: 4303 0000 ae02 0080 7d04 0000 c800 0080
000002e0: c202 0080 7101 0080 2703 0080 0b01 0000
000002f0: 3202 0080 46a6 489d 1817 a89d a680 cf9d
00000300: 602d 9c9d 70ca 069e b43c 339e 104f bd9d
00000310: 180a 619e 30c1 5b9f f004 0080 8d01 0000
00000320: 5700 0000 fd03 0000 ce02 0080 5302 0080
00000330: ba01 0000 9002 0000 e200 0080 3203 0000
00000340: 6306 0080 2203 0080 2f03 0000 3a00 0000
00000350: 2503 0000 7400 0080 2202 0000 0903 0080
00000360: 1604 0080 ee00 0080 da00 0080 2e03 0080
00000370: 7201 0080 c300 0000 ea02 0000 8b01 0000
00000380: 4801 0080 3b1d 3190 2993 b38e a7f4 4a8e
00000390: 4acb 250f cb46 cb8e b362 ee0f 9d7d e20e
000003a0: d23c 4e0f 4915 d90f 0d02 0080 7600 0000
000003b0: da04 0000 7e01 0000 4500 0080 3f03 0080
000003c0: fb02 0000 4702 0080 4801 0000 a8eb 0427
000003d0: c921 aaad d5a3 5dae 65e2 a4a6 5c3e 90ac
000003e0: 5979 a0ae 16f5 1e27 8669 7226 f91c 32ad
000003f0: 2104 0000 ac02 0080 f206 0000 6205 0000
9.674222e-12 9.674223e-12 9.674216e-12 9.674221e-12 9.674221e-12 9.6742146e-12 9.67422e-12 9.674218e-12
9.674214e-12 -7.556844e-15 -7.547311e-15 -7.559282e-15 -7.577866e-15 -7.542143e-15 -7.5954274e-15 -7.534217e-15
-7.364575e-15 -7.595609e-15 -4.0500723e-12 -5.6218736e-12 -6.8425404e-12 -1.6104491e-12 -2.8325565e-12 -6.8430157e-12
1.6208714e-12 2.8395188e-12 6.835759e-12 -2.8110253e-13 6.069213e-13 7.911449e-13 -8.3716524e-13 1.1392274e-12
6.789022e-12 1.8204947e-13 2.9125623e-12 1.7353632e-11 2.8433088e-29 2.8502454e-29 2.8508903e-29 2.8523197e-29
2.852226e-29 2.8520383e-29 2.8513555e-29 2.8523937e-29 2.8521963e-29 3.898366e-27 -2.5865257e-29 2.0099266e-25
2.6225375e-27 5.706147e-29 -3.0718148e-26 -8.331511e-28 -7.985878e-27 2.446971e-28 -7.8812104e-27 -7.8816564e-27
-7.8810024e-27 -7.88172e-27 -7.8822296e-27 -7.881727e-27 -7.881838e-27 -7.882299e-27 -7.88169e-27 1.069e-42
1.526e-42 -1.082e-42 -1.107e-42 7.36e-43 -1.12e-43 -6.98e-43 8.27e-43 -7.55e-43
-4.4437964e-16 1.3338373e-15 1.1980286e-13 1.4426759e-13 4.5379395e-12 3.0118171e-12 1.2344456e-11 -4.2223745e-11
-1.0158059e-10 -1.822e-42 2.06e-43 -2.23e-43 -1.036e-42 -3.74e-43 -1.239e-42 2.62e-43
3.64e-43 -8.56e-43 2.66e-43 2.012e-42 -2.264e-42 -8.83e-43 -1.63e-43 4.32e-43
-8.1e-44 -1.19e-43 2.69e-43 -2.0736791e-20 8.9968506e-20 1.1493905e-19 4.473252e-20 6.63182e-19
-4.0023932e-20 -1.9926535e-20 -2.607573e-18 2.2762033e-19 -1.603e-42 2.259e-42 -1.242e-42 -6.25e-43
1.047e-42 -1.265e-42 -5.31e-43 -6.68e-43 2.1e-44 -7.29e-43 1.82e-43 5.86e-43
-1.61e-43 2.02e-43 -8.65e-43 1e-45 -3.2e-44 7.96e-43 9.482283e-22 4.559508e-21
4.6961467e-21 2.407705e-21 2.259299e-20 2.4832238e-20 4.091143e-21 1.8568355e-20 2.1676413e-20 3.74e-42
3.48e-43 -2.116e-42 8.73e-43 -4.2e-44 -1.017e-42 1.19e-42 -5.66e-43 -3.95e-43
-1.476e-42 1.3e-43 1.303e-42 -1.188e-42 -5.83e-43 1.7e-44 -1.59e-42 5.48e-43
6.9e-44 -3.1492076e-32 -5.0454786e-32 4.333924e-33 7.23959e-33 3.0104228e-32 4.977368e-32 -3.8859613e-32
-2.862579e-32 2.2023144e-32 1.02e-42 -1.69e-42 -5.44e-43 -5.41e-43 5.79e-43 6.85e-43
-1.131e-42 7.92e-43 -6.05e-43 -2.507e-42 -7.23e-43 4.71e-43 1.635e-42 5.9e-43
-5.18e-43 1.205e-42 -6.57e-43 -9.35e-43 1.17e-42 -9.61e-43 1.61e-42 -2.8e-43
-9.9e-43 -5.17e-43 -1.131e-42 3.74e-43 -7.88e-43 -2.655574e-21 -4.449311e-21 -5.4925463e-21
-4.1339773e-21 -7.135764e-21 -9.488734e-21 -5.0109632e-21 -1.1913488e-20 -4.6534855e-20 -1.771e-42 5.56e-43
1.22e-43 1.431e-42 -1.006e-42 -8.34e-43 6.2e-43 9.19e-43 -3.17e-43 1.146e-42
-2.291e-42 -1.124e-42 1.142e-42 8.1e-44 1.128e-42 -1.63e-43 7.65e-43 -1.089e-42
-1.466e-42 -3.34e-43 -3.05e-43 -1.14e-42 -5.18e-43 2.73e-43 1.045e-42 5.54e-43
-4.6e-43 -3.4929613e-29 -4.4268617e-30 -2.5016218e-30 8.17428e-30 -5.0111535e-30 2.350663e-29 5.5834263e-30
1.0168298e-29 2.1406051e-29 -7.36e-43 1.65e-43 1.74e-42 5.35e-43 -9.7e-44 -1.164e-42
1.069e-42 -8.17e-43 4.6e-43 1.844643e-15 -1.9341766e-11 -5.0395094e-11 -1.144115e-15 -4.0996494e-12
-7.297513e-11 2.2059766e-15 8.4103627e-16 -1.0124562e-11 1.481e-42 -9.58e-43 2.492e-42 1.931e-42

bias f4 [64]
00000000: 2445 b723 0b48 9523 7f83 293d c549 5c24
00000010: bda4 7fbc 6c1a cf3c 6f05 0000 0d7a 36a1
00000020: f601 0080 3472 28b0 3981 273c 1bbc 603d
00000030: 0f8e 641f 2f0e 453e 18b6 9725 a5e7 2dbc
00000040: 7dd6 353c d18f 1324 7828 f93c c8a1 363c
00000050: c968 73a9 b487 bc3d a908 0000 4026 1622
00000060: 87b6 612e 8c49 95bc 55ac d482 4e8e adba
00000070: 32e7 8535 686c 0aa0 f38c 9235 f5f4 bcbc
00000080: 0269 883d 0c4e 7f3d dfe9 0d1f 9ee1 9e3d
00000090: 7520 d33d cebf 013b cc1a 923c d7a7 493d
000000a0: 0e80 0f3d e3ed 073d 0bd9 37a0 2a44 cebb
000000b0: e68c 86bd 13c4 0927 71ad 97b7 2e60 583d
000000c0: a43f f53d 304b 643c b544 523d b36d 613d
000000d0: 2b76 633d 3e10 8bbb 3e5c 19bc cdae 463d
000000e0: 46a7 363c bcf2 d7a6 93d4 37bd b213 a23d
000000f0: 454b 823d 0f47 4e34 ee7e 533d 8c42 6c3c
1.9870182e-17 1.6185124e-17 0.04138517 4.776738e-17 -0.0156032415 0.025281154 1.949e-42 -6.182553e-19
-7.03e-43 -6.1280336e-10 0.01022368 0.05486689 4.8398386e-20 0.19243692 2.6317716e-16 -0.01061431
0.011098501 3.199736e-17 0.030414805 0.01114697 -5.4047726e-14 0.09205571 3.107e-42 2.034904e-18
5.1321194e-11 -0.018223546 -3.1249514e-37 -0.0013241263 9.976559e-07 -1.1724923e-19 1.0918869e-06 -0.023066023
0.06660654 0.06233029 3.0051365e-20 0.07757877 0.10308925 0.0019798162 0.017835043 0.04923233
0.03503423 0.03318585 -1.5572516e-19 -0.006294747 -0.06569843 1.9118861e-15 -1.8081368e-05 0.0528261
0.11975029 0.013933942 0.051335055 0.055036258 0.055532616 -0.0042438796 -0.009360371 0.048506547
0.0111482795 -1.4984415e-15 -0.04488046 0.07913913 0.06362013 1.9211096e-07 0.05163472 0.014420163

weight f4 [64]
00000000: 44b6 09ad 0eb0 db2c 79f1 9d3e 8941 f3ab
00000010: de19 843e 0f59 303e 1ddb db31 e903 4d39
00000020: fbec a334 f770 3738 0468 3c3e 319f e13e
00000030: d525 902b 6ccb 083f 4f66 b7ad 932b b33e
00000040: e218 ee3d 782e 022d de62 ac3e 384d 22be
00000050: 1078 0d3b 7d5b 4b3e 24ae 1c35 7f20 2e2d
00000060: b2df daad 71e2 b63e 4921 6036 2538 873e
00000070: 4f0f 353a 257a aa39 fe0a 063b e1d4 573e
00000080: ddc6 8f3e 9aac d53e f1c5 802b e8cf 1c3f
00000090: 7bdd 8fbe 2235 a93e 2db0 1b3e f553 a53e
000000a0: fe2d 573e cede 543e f1c5 032c 3e34 1d3e
000000b0: 17ec d53e 0ce1 d8ad 79ea 5939 abaa 913e
000000c0: aadd e73e ef25 9e3d bbb7 493e 0f5d e63e
000000d0: 8c2f d43e c025 e53e 6a3d 4b3e 7bd6 d93e
000000e0: 06f3 1f3e 2ac6 a22f 6709 9f3e 521e 343e
000000f0: 3280 123e 074d 87ba 9e9e 733e d938 4f3e
-7.8280195e-12 6.2439004e-12 0.30848292 -1.7284378e-12 0.25800985 0.17221473 6.398649e-09 0.0001955178
3.0533542e-07 4.3735807e-05 0.18399054 0.44066766 1.0242316e-12 0.534354 -2.0850125e-11 0.34994182
0.1162584 7.399963e-12 0.3366918 -0.15849769 0.0021586455 0.19859119 5.8367937e-07 9.8979705e-12
-2.4883071e-11 0.35719636 3.3397976e-06 0.26410022 0.0006906883 0.00032515932 0.002045333 0.210773
0.28081408 0.41733247 9.149887e-13 0.6125474 -0.28098664 0.3304835 0.15203924 0.32290617
0.21013638 0.20788118 1.87261e-12 0.1535196 0.41781685 -2.4656298e-11 0.0002078208 0.28450522
0.45286304 0.07722079 0.19698994 0.44992873 0.41442525 0.44755363 0.19847646 0.42546448
0.1562005 2.9608432e-10 0.3106186 0.17589691 0.14306715 -0.0010322639 0.23790976 0.2023653

bias f4 [64]
00000000: 9604 3fbb 7d6e 37bb 6808 c63d e935 3dbb
00000010: 5d6e f43d a957 f33c 93e0 9eab 3a38 30b9
00000020: a980 94ad 53ed 2cb7 d650 003b 9c47 7b3c
00000030: 17cd 89b8 ef19 483e 7f0b 31bb 0769 e1bd
00000040: aa5f 093d 3269 30bb 4cb2 363e a678 a73b
00000050: 7cb0 58ba 74e1 9d3c ac2d feaf 5aa1 41b7
00000060: ff3a 31bb c52c f5bd cd2f 30b3 7153 95bd
00000070: 2edd 91bb 16b2 3fb8 c31c 15ba 82c6 b93b
00000080: e168 6a3d cec5 613b 14c8 0bb7 1622 e73b
00000090: ac0a 9fbb a1dc 97bd 4623 dbbc 0ddf dc3d
000000a0: dc78 7bbc 5e07 a8bc d0ea 54ba b44e 78bd
000000b0: 6eff b83d fd49 30bb 0460 edbb af4b ad3d
000000c0: d1df 813e 6f1b 35bb 6e53 86bb e57e 273c
000000d0: c075 2d3e 8e28 943e 74ef 0cbd ea21 82bd
000000e0: 76ff 5fbc 9b7c 48bb 6cab 94bd 6174 cbbb
000000f0: 1b8c 013d 1325 87bb bba2 f8bc 0893 1abd
-0.002914702 -0.002798944 0.09669572 -0.0028871244 0.119351126 0.029704886 -1.1288907e-12 -0.00016805614
-1.6882789e-11 -1.0307255e-05 0.0019579432 0.015336897 -6.57087e-05 0.19541143 -0.002701491 -0.110063605
0.033538498 -0.002691817 0.17841452 0.005110818 -0.00082660443 0.019272543 -4.6234783e-10 -1.1541264e-05
-0.002704322 -0.1197143 -4.1021668e-08 -0.07291306 -0.0044514155 -4.5703804e-05 -0.0005688185 0.005669416
0.057228927 0.0034450176 -8.33163e-06 0.007053624 -0.004853567 -0.074151285 -0.026750218 0.10784731
-0.015348639 -0.020511325 -0.0008122148 -0.060621932 0.09033094 -0.002689957 -0.007244112 0.08461701
0.2536607 -0.002763476 -0.004099301 0.010223125 0.1693945 0.2893719 -0.034408048 -0.06354125
-0.0136717465 -0.0030591849 -0.07259259 -0.006208942 0.031627756 -0.0041242926 -0.030351033 -0.037737876

running_mean f4 [64]
00000000: 3eaf 002c b9fd e3ae 521f c23e 1d1d 4b30
00000010: e3a9 b33e ed06 e03d fbf8 2ca4 17ce cf37
00000020: 09aa 19a7 667c 6ab3 e80f 243e bf18 af3e
00000030: 80f8 8d2a 29f5 bd3f 4c73 ac2d e3f8 743e
00000040: 4087 963e dd04 2dad cc8b dc3e 0ad5 e2bc
00000050: aef8 56b8 42cd ee3e 156f beaf c47a 3d2c
00000060: 6df5 b72e 8e18 c7bd c9e7 6db0 e71a 933e
00000070: 7e17 983c 2b50 24b4 57b0 deb8 5d9f eb3d
00000080: 9090 553e da33 013e bb2f 9827 0238 c43d
00000090: 0fdb 023f 5434 383d 2f7a f73d 74cb f43e
000000a0: a944 3a3d dfa1 633e c28d d828 2e69 7d3e
000000b0: 0626 abbd 70fa a8af 66bf f03c 1812 4d3e
000000c0: 9c86 d13e 8a48 f13c e6f2 ee3e 0ec1 d13e
000000d0: 3a48 043f 2ac9 bd3e 6294 c73d 2f10 8b3e
000000e0: 4f3e f53c 0bb7 e5ae d818 703e 20a6 c33e
000000f0: 0803 a73e 54ab dd3c 4a15 383e 260c 7c3e
1.8287173e-12 -1.0367835e-10 0.3791452 7.389234e-10 0.3509055 0.10938821 -3.750745e-17 2.4772291e-05
-2.1325192e-15 -5.459551e-08 0.16021693 0.34198567 2.5219063e-13 1.4840442 1.9605338e-11 0.23923068
0.29400063 -9.834991e-12 0.43075407 -0.027689476 -5.1253177e-05 0.46640974 -3.4639727e-10 2.6926664e-12
8.365473e-11 -0.0972148 -8.6549484e-10 0.28731462 0.01856589 -1.5302855e-07 -0.00010618631 0.115050055
0.20855927 0.12617436 4.2240224e-15 0.09580995 0.51115507 0.04497178 0.120838515 0.47811472
0.045475636 0.22229718 2.4042295e-14 0.24747154 -0.08356862 -3.0736969e-10 0.02938814 0.20026433
0.4092301 0.029453535 0.46669692 0.40967602 0.5167271 0.37067538 0.09745099 0.27160785
0.029936938 -1.0446229e-10 0.23446977 0.3821268 0.326195 0.027059235 0.17976871 0.2461401

running_var f4 [64]
00000000: 88d8 c41b 106c 391e 7614 9739 5233 ea1b
00000010: 35ba 5e39 ce9c 9039 490b fb07 a113 592e
00000020: 6818 c80d 3608 1727 f153 9c39 eded 8339
00000030: 8eb6 a00f da0f 6039 e70e 051d 7370 0e3a
00000040: 2182 ae38 2f18 a71d d0cc a539 5098 923a
00000050: daf9 d22f 2fb5 ff39 5e90 171f 065c f711
00000060: ac44 b31d 7cd3 6a39 93eb 3321 eb5b 8c39
00000070: 6250 3e37 9420 0429 bb7f 1f31 fa91 6039
00000080: 59cc 613a 6d7d 593a 4e6c 6c0d c0ca 053a
00000090: 51d6 8639 8767 6d39 783f a239 f821 7c39
000000a0: de21 3e3a 1a6a 113a 88c0 4e13 36ca 9d39
000000b0: 8195 3a39 7ead 1b20 d2ac 5337 a8e6 3139
000000c0: 2c65 8b39 3a53 e739 e18d fa39 2876 f639
000000d0: 07ff 7539 ea2f 593a e2f5 a439 1818 a939
000000e0: da41 703a 3243 9b20 1ec6 e739 2109 e839
000000f0: 1945 c139 8e7b 8936 34f3 cc39 f75d 8339
3.256541e-22 9.816165e-21 0.0002881621 3.8745218e-22 0.00021240937 0.0002758265 3.7772915e-34 4.935752e-11
1.2331827e-30 2.095991e-15 0.0002981718 0.00025163536 1.5847536e-29 0.0002136821 1.7610108e-21 0.00054336264
8.321205e-05 4.4229537e-21 0.0003162385 0.0011184309 3.8376308e-10 0.00048772382 3.209491e-20 3.9026443e-28
4.745191e-21 0.00022394763 6.095934e-19 0.00026771365 1.1343598e-05 2.9338145e-14 2.3210152e-09 0.00021416685
0.0008613519 0.0008296583 7.285348e-31 0.00051037595 0.0002571815 0.00022640648 0.00030946336 0.00024045247
0.00072529714 0.00055471214 2.609578e-27 0.00030096032 0.00017794037 1.3186414e-19 1.2616818e-05 0.00016965962
0.00026587525 0.00044121762 0.00047789424 0.0004700881 0.00023460026 0.0008285033 0.00031463715 0.00032252143
0.0009165086 2.6302487e-19 0.00044207362 0.0004425729 0.0003686331 4.097302e-06 0.00039091113 0.00025056276
