SND_trackers_My_data/9X0_file/19_9X0_coordconv_DS5_mse.pt (torch_old, 322767 bytes, 25 tensors)

weight f4 [32, 7, 3, 3]
00000000: 23da 4d3c 37da 4d3c 25da 4d3c 3bb8 203c
00000010: 11b8 203c ffb7 203c df71 20bc 7e71 20bc
00000020: 3b71 20bc 7629 04bc 9501 e53b f3ac ce3b
00000030: a029 04bc 7e01 e53b baad ce3b 3329 04bc
00000040: 5401 e53b c0ad ce3b c6ff d8ba 3b3b 26bb
00000050: 09d4 4bba 3e06 e439 5cf5 d8ba 4468 25bb
00000060: dc0d 46ba 2e22 e739 b893 d8ba 4cde 10bd
00000070: b3e1 1ebd 849d f4bc 30c0 f2bc 4e58 1c3c
00000080: c013 38bc 3c7d 00bd ad9b eebc b816 06bd
00000090: ddfd 8e3b 6bb4 423d a93a 803d 68fa 50bc
000000a0: 54b2 293d e920 8e3d 9dc6 613c 1680 853d
000000b0: 37be 903d 59e8 e3bc 8b2a b3bc 7743 f53b
000000c0: 6573 1abd 1d33 8f3c f98d a73b 257f a4bd
000000d0: 5040 0abd 8847 e83b f75a 1b3d 846d bc3b
000000e0: 0b49 1f3d 2a9f c33c 9666 b9bd b441 06be
000000f0: 0dcb ef3c 4375 eabd 1d4c 1bbd b202 0080
00000100: 8b01 0080 4f00 0080 7902 0080 7e02 0080
00000110: 3a01 0080 6503 0000 5802 0000 8702 0080
00000120: 3502 0000 9802 0000 4103 0080 e500 0080
00000130: d802 0000 1703 0000 9b02 0080 0d02 0000
00000140: 7101 0000 bb03 0000 9f04 0000 7504 0080
00000150: 3c0b 0080 e414 0080 880e 0080 dc0b 0000
00000160: 7a13 0000 2212 0000 a101 0080 4f01 0000
00000170: 1700 0080 d400 0080 7f01 0000 e301 0080
00000180: 9201 0000 1f01 0080 8f00 0080 c901 0080
00000190: a301 0000 2d02 0080 3e01 0000 c201 0080
000001a0: 8b00 0080 a300 0080 ff00 0000 e301 0080
000001b0: b301 0000 8a01 0080 6d03 0080 d104 0080
000001c0: 6701 0080 2800 0080 8202 0000 5601 0080
000001d0: e303 0080 ea0a 0000 cf00 0000 5804 0080
000001e0: fd03 0000 9d06 0080 4808 0000 6801 0080
000001f0: aa02 0000 a107 0000 3103 0080 e001 0000
00000200: 0c01 0080 3201 0080 6e04 0000 1a00 0000
00000210: 0500 0080 f502 0080 7a04 0080 7103 0000
00000220: d400 0000 5703 0000 af02 0080 8702 0000
00000230: 3505 0080 9f03 0000 9402 0080 7903 0000
00000240: ab00 0000 7605 0080 5a05 0080 f30a 0000
00000250: b709 0080 a486 062e 1dca 3d30 826e 0015
00000260: e5c0 8939 8f00 0000 0d02 0080 8201 0000
00000270: 6502 0000 7902 0000 6102 0080 d200 0000
00000280: 2200 0000 b300 0000 0700 0000 4602 0080
00000290: 4a00 0000 1b00 0080 6b02 0080 2601 0000
000002a0: 9000 0080 6b01 0000 7c00 0000 9502 0080
000002b0: b100 0080 4100 0080 0c03 0000 2e03 0000
000002c0: dc00 0000 7601 0000 e504 0080 3f00 0080
000002d0: 5208 0000 3a0f 0000 db03 0080 3a0a 0080
000002e0: 8b0c 0000 bc04 0000 460d 0000 5308 0000
000002f0: be05 0000 7e03 0000 4b04 0080 0f02 0000
00000300: 2106 0000 8508 0000 5a06 0000 9b03 0080
00000310: 0205 0080 9c03 0080 f502 0080 9201 0080
00000320: ef02 0000 7004 0080 3303 0000 f305 0000
00000330: 2701 0000 0903 0000 3c00 0000 7b05 0000
00000340: 0709 0000 a974 7732 7213 0000 1905 0000
00000350: c008 0000 1a04 0080 3f07 0000 b508 0080
00000360: 4001 0000 3501 0000 eb01 0080 e900 0080
00000370: 5d01 0000 9800 0080 a400 0000 fc00 0080
00000380: 5201 0000 e800 0000 0501 0000 5200 0080
00000390: 8400 0080 0500 0080 0402 0080 3900 0000
000003a0: 5801 0080 8001 0000 ec01 0000 5d03 0080
000003b0: 6c03 0080 6302 0000 1802 0000 e200 0000
000003c0: 4704 0000 a001 0080 cb00 0080 bb05 0000
000003d0: 270d 0080 1500 0080 f105 0000 4000 0080
000003e0: 5902 0080 e409 0080 f306 0000 7108 0080
000003f0: 0102 0000 2900 0080 3604 0000 ca00 0080
0.012564215 0.0125642335 0.012564217 0.009809549 0.00980951 0.009809493 -0.009792774 -0.009792684
-0.009792621 -0.008066526 0.006988714 0.0063072382 -0.008066565 0.0069887033 0.006307331 -0.008066463
0.0069886837 0.0063073337 -0.0016555719 -0.0025364894 -0.0007775431 0.000434922 -0.0016552615 -0.002523915
-0.0007555166 0.0004408522 -0.0016523516 -0.03536825 -0.038789462 -0.029860266 -0.029632658 0.009542538
-0.0112351775 -0.031369433 -0.029126966 -0.03273651 0.004363759 0.04753534 0.062611885 -0.012755014
0.041429833 0.06939871 0.013780263 0.06518571 0.070675306 -0.027820753 -0.021870872 0.007484849
-0.037707705 0.017480427 0.00511336 -0.080320634 -0.03375274 0.0070886053 0.037928548 0.00575036
0.03888802 0.023879606 -0.0905277 -0.13111001 0.029271627 -0.11448147 -0.037914384 -9.67e-43
-5.54e-43 -1.11e-43 -8.87e-43 -8.94e-43 -4.4e-43 1.218e-42 8.41e-43 -9.07e-43
7.92e-43 9.3e-43 -1.167e-42 -3.21e-43 1.02e-42 1.108e-42 -9.35e-43 7.36e-43
5.17e-43 1.338e-42 1.658e-42 -1.599e-42 -4.03e-42 -7.494e-42 -5.213e-42 4.254e-42
6.987e-42 6.505e-42 -5.84e-43 4.7e-43 -3.2e-44 -2.97e-43 5.37e-43 -6.77e-43
5.63e-43 -4.02e-43 -2e-43 -6.4e-43 5.87e-43 -7.8e-43 4.46e-43 -6.3e-43
-1.95e-43 -2.28e-43 3.57e-43 -6.77e-43 6.1e-43 -5.52e-43 -1.229e-42 -1.728e-42
-5.03e-43 -5.6e-44 9e-43 -4.79e-43 -1.394e-42 3.915e-42 2.9e-43 -1.558e-42
1.431e-42 -2.372e-42 2.971e-42 -5.04e-43 9.56e-43 2.737e-42 -1.145e-42 6.73e-43
-3.76e-43 -4.29e-43 1.589e-42 3.6e-44 -7e-45 -1.061e-42 -1.606e-42 1.235e-42
2.97e-43 1.198e-42 -9.63e-43 9.07e-43 -1.868e-42 1.299e-42 -9.25e-43 1.246e-42
2.4e-43 -1.959e-42 -1.92e-42 3.928e-42 -3.485e-42 3.0587657e-11 6.904502e-10 2.593657e-26
0.00026274394 2e-43 -7.36e-43 5.41e-43 8.59e-43 8.87e-43 -8.53e-43 2.94e-43
4.8e-44 2.51e-43 1e-44 -8.16e-43 1.04e-43 -3.8e-44 -8.67e-43 4.12e-43
-2.02e-43 5.09e-43 1.74e-43 -9.26e-43 -2.48e-43 -9.1e-44 1.093e-42 1.14e-42
3.08e-43 5.24e-43 -1.756e-42 -8.8e-44 2.985e-42 5.462e-42 -1.383e-42 -3.669e-42
4.5e-42 1.698e-42 4.762e-42 2.986e-42 2.06e-42 1.253e-42 -1.54e-42 7.38e-43
2.199e-42 3.056e-42 2.279e-42 -1.293e-42 -1.796e-42 -1.295e-42 -1.061e-42 -5.63e-43
1.052e-42 -1.592e-42 1.148e-42 2.134e-42 4.13e-43 1.089e-42 8.4e-44 1.966e-42
3.238e-42 1.4403818e-08 6.976e-42 1.829e-42 3.139e-42 -1.471e-42 2.6e-42 -3.123e-42
4.48e-43 4.33e-43 -6.88e-43 -3.27e-43 4.89e-43 -2.13e-43 2.3e-43 -3.53e-43
4.74e-43 3.25e-43 3.66e-43 -1.15e-43 -1.85e-43 -7e-45 -7.23e-43 8e-44
-4.82e-43 5.38e-43 6.9e-43 -1.207e-42 -1.228e-42 8.56e-43 7.51e-43 3.17e-43
1.534e-42 -5.83e-43 -2.84e-43 2.056e-42 -4.718e-42 -3e-44 2.131e-42 -9e-44
-8.42e-43 -3.548e-42 2.493e-42 -3.028e-42 7.19e-43 -5.7e-44 1.51e-42 -2.83e-43

bias f4 [32]
00000000: 1046 d3ba 7b04 0080 5a00 0000 9608 0000
00000010: 430a 0000 260d 0000 7b03 0000 3000 0000
00000020: 8b7a 3390 86a7 f4bb e110 0080 7807 0000
00000030: 6803 0080 2a09 0080 8c24 7535 5f02 0080
00000040: 6b03 0000 1a10 0080 4408 4e96 4c84 0c31
00000050: acf3 3bb2 a590 559c 8207 0000 020d 0000
00000060: e805 0080 5b00 0080 011b 0000 7906 0000
00000070: cd74 e32f 84fb 73ba 51f8 51b3 4eb8 1439
-0.0016118903 -1.607e-42 1.26e-43 3.08e-42 3.681e-42 4.717e-42 1.249e-42 6.7e-44
-3.539593e-29 -0.0074662594 -6.055e-42 2.679e-42 -1.222e-42 -3.287e-42 9.1322795e-07 -8.5e-43
1.226e-42 -5.776e-42 -1.6643156e-25 2.0447883e-09 -1.0940237e-08 -7.0662737e-22 2.693e-42 4.666e-42
-2.119e-42 -1.28e-43 9.687e-42 2.322e-42 4.1374051e-10 -0.0009307193 -4.8887447e-08 0.00014183039

weight f4 [32]
00000000: f3a7 8b3d 3001 0000 ca00 0000 f100 0080
00000010: 5600 0080 e001 0080 4800 0080 c400 0000
00000020: 8600 0000 6d6e a03d 6900 0000 de01 0080
00000030: 5f00 0000 eb00 0080 2c01 0080 8001 0080
00000040: 0302 0080 e501 0080 2902 0080 4901 0000
00000050: ef01 0000 fa01 0080 1d02 0080 be01 0000
00000060: e001 0080 0e00 0000 a100 0000 9c01 0000
00000070: 0c02 0080 4ca7 e33d a100 0080 e35f 383d
0.06819143 4.26e-43 2.83e-43 -3.38e-43 -1.2e-43 -6.73e-43 -1.01e-43 2.75e-43
1.88e-43 0.07833562 1.47e-43 -6.7e-43 1.33e-43 -3.3e-43 -4.2e-43 -5.38e-43
-7.22e-43 -6.8e-43 -7.75e-43 4.61e-43 6.94e-43 -7.09e-43 -7.58e-43 6.25e-43
-6.73e-43 2e-44 2.26e-43 5.77e-43 -7.34e-43 0.11115894 -2.26e-43 0.04501332

bias f4 [32]
00000000: 59f7 b93b b902 0080 e31a 0080 6f59 b684
00000010: cf0b 0080 5804 0080 bb02 0080 0444 d884
00000020: 7105 0080 1107 a5bd 5001 0080 fe0c 0080
00000030: c90d 0080 9d02 0080 e10b 4884 b603 0080
00000040: cea3 dd84 9c0e 4884 d50b 0080 c316 4884
00000050: bd09 0080 a6e7 d186 3ddc d784 8516 0080
00000060: 7c04 0080 000d 0080 f301 0080 c41c 4884
00000070: 0401 0080 f24e 063d 6d15 4884 0323 453e
0.005675238 -9.77e-43 -9.645e-42 -4.2870126e-36 -4.236e-42 -1.558e-42 -9.8e-43 -5.084382e-36
-1.952e-42 -0.080579884 -4.71e-43 -4.661e-42 -4.945e-42 -9.37e-43 -2.3515342e-36 -1.331e-42
-5.210728e-36 -2.3516595e-36 -4.245e-42 -2.3520339e-36 -3.493e-42 -7.895744e-35 -5.0748514e-36 -8.078e-42
-1.609e-42 -4.664e-42 -6.99e-43 -2.3523096e-36 -3.64e-43 0.032790132 -2.3519725e-36 0.19251637

running_mean f4 [32]
00000000: 73ca 703d 2303 0000 f7c0 8939 a074 7732
00000010: db16 0000 67ae b8b6 e3c1 dd32 71ac dd37
00000020: 4a9d 26ad 7682 77bc a24f d3b7 77e5 b2b9
00000030: cb92 0bb9 982a 0000 e8f0 0fb7 5535 ceab
00000040: ade3 b5aa ea21 92b4 3d08 4e96 9d94 f530
00000050: e55e 7c34 9e90 559c 1ee7 9db8 7834 0000
00000060: 00e5 d5af d014 0080 7bac 7738 a5bc d0aa
00000070: c474 e32f fca7 543d 8804 52b3 6296 e23c
0.05878682 1.125e-42 0.00026274446 1.440381e-08 8.199e-42 -5.5039304e-06 2.5815956e-08 2.6425552e-05
-9.470933e-12 -0.015106788 -2.5190242e-05 -0.0003412177 -0.00013310758 1.528e-41 -8.579555e-06 -1.4651983e-12
-3.231004e-13 -2.7219295e-07 -1.6643147e-25 1.7868335e-09 2.3503851e-07 -7.06627e-22 -7.529392e-05 1.8822e-41
-3.8907189e-10 -7.466e-42 5.9050024e-05 -3.707912e-13 4.1374026e-10 0.051918015 -4.8898556e-08 0.027659599

running_var f4 [32]
00000000: 6993 cd3e 0400 0000 0400 0000 3f00 800d
00000010: 0400 0000 0400 0000 0400 0000 0400 0000
00000020: 0400 0000 5652 6c3d 0400 0000 3600 801c
00000030: 0400 0000 0400 0000 0400 0000 0400 0000
00000040: 0600 0800 3f00 8012 0400 0000 3f00 800b
00000050: 3f00 8011 0400 0000 3600 801a 0400 0000
00000060: 0400 0000 0400 0000 3f00 8019 0600 0800
00000070: 3f00 8008 a909 6a3f 3f00 800f 1c57 a63e
0.40151528 6e-45 6e-45 7.888668e-31 6e-45 6e-45 6e-45 6e-45
6e-45 0.05769571 6e-45 8.470384e-22 6e-45 6e-45 6e-45 6e-45
7.34692e-40 8.077996e-28 6e-45 4.9304177e-32 2.019499e-28 6e-45 5.29399e-23 6e-45
6e-45 6e-45 1.3234989e-23 7.34692e-40 7.703778e-34 0.9142099 1.262187e-29 0.32488334

weight f4 [32, 35, 3, 3]
00000000: 1f03 0000 1e01 0000 7402 0000 6900 0000
00000010: cf00 0080 1c02 0080 f702 0080 c002 0000
00000020: c002 0080 6c00 0000 aa00 0000 1104 0000
00000030: a202 0080 1c02 0000 9003 0080 9000 0080
00000040: 9a02 0080 6e01 0080 9655 4fa5 682b 19b7
00000050: 3303 0080 9822 c431 a70e 0000 f584 3ba9
00000060: 2835 3aab 5394 0000 fff1 a9aa c701 0000
00000070: 2502 0080 8801 0080 9201 0080 b200 0080
00000080: e501 0080 7301 0080 5400 0080 e800 0080
00000090: dc01 0080 6e00 0000 b802 0080 9c02 0080
000000a0: 3a01 0080 0702 0080 0901 0080 1800 0080
000000b0: e600 0000 5901 0080 b801 0000 5802 0080
000000c0: f600 0000 7701 0080 c602 0000 1102 0000
000000d0: ad01 0000 2a01 0000 1b01 0000 4102 0080
000000e0: 6101 0080 a200 0000 c702 0080 2c00 0000
000000f0: ea00 0000 6202 0080 7501 0000 0e02 0080
00000100: 7500 0000 7800 0080 df00 0080 4301 0000
00000110: 6b01 0080 7a02 0080 0f02 0080 4101 0000
00000120: 6a02 0080 5000 0080 7f00 0000 be00 0000
00000130: 3100 0000 5402 0080 d400 0080 3601 0080
00000140: 5501 0000 8c02 0080 7f00 0000 8d02 0080
00000150: 1d03 0000 6c02 0080 9400 0080 8f00 0080
00000160: 9103 0080 1203 0000 e301 0000 f200 0080
00000170: 0200 0000 0a01 0080 9f01 0000 3002 0080
00000180: 2f00 0080 a202 0080 f000 0000 b402 0080
00000190: 8102 0080 e300 0000 5601 0000 ee01 0000
000001a0: 3802 0000 2502 0000 0b01 0080 9402 0000
000001b0: 4f02 0080 4202 0000 8e03 0080 cc02 0080
000001c0: af02 0000 b800 0000 1201 0080 4a02 0080
000001d0: 2101 0000 6300 0080 4202 0000 c201 0000
000001e0: 2902 0000 3100 0080 3900 0080 7e01 0000
000001f0: 5101 0080 4701 0000 3f04 0000 e300 0000
00000200: a002 0080 8a02 0000 8e00 0080 4102 0080
00000210: de01 0000 a900 0080 5101 0000 3803 0080
00000220: 1302 0000 5a02 0080 5002 0080 3b02 0000
00000230: c600 0000 1000 0000 8102 0000 de00 0000
00000240: a301 0000 b100 0080 d801 0000 0904 0000
00000250: 5d02 0080 8f02 0080 6a02 0080 9202 0000
00000260: 7901 0000 2400 0080 5802 0000 2502 0080
00000270: dc01 0000 3403 0080 2800 0000 ce01 0080
00000280: b900 0080 5102 0000 8402 0000 0200 0000
00000290: 3801 0000 6801 0000 a100 0000 cc00 0080
000002a0: e801 0000 3400 0000 7801 0000 eb00 0080
000002b0: 8b00 0080 3202 0080 f000 0000 3002 0080
000002c0: 2b02 0080 4001 0000 6d00 0080 1d00 0080
000002d0: 1701 0080 e102 0000 1f02 0000 b701 0080
000002e0: ee01 0000 8b01 0000 3902 0080 be03 0000
000002f0: 0801 0080 c802 0000 2200 0000 9200 0000
00000300: 2d00 0080 5e02 0000 d300 0000 a302 0000
00000310: 1c02 0080 8c01 0000 a403 0080 6b02 0080
00000320: 7d00 0000 0d02 0000 4202 0000 1902 0080
00000330: 1100 0000 a300 0000 7e00 0080 a703 0080
00000340: 6203 0080 9002 0000 7a02 0000 6001 0000
00000350: d001 0080 b203 0080 d600 0080 9800 0000
00000360: 4701 0080 b501 0080 9500 0080 6c00 0080
00000370: e300 0080 2500 0080 e300 0000 9f02 0080
00000380: 4f01 0080 2403 0000 6a01 0000 d600 0000
00000390: a101 0000 fb01 0000 8d02 0000 5c02 0000
000003a0: 7d02 0080 ed00 0080 3c02 0000 1501 0080
000003b0: 4d01 0000 a401 0000 9201 0000 bb00 0000
000003c0: 4300 0080 3401 0080 5e02 0080 2601 0000
000003d0: c602 0080 7101 0000 d400 0080 da01 0000
000003e0: 1301 0080 4b00 0000 7c02 0000 2301 0000
000003f0: 4d01 0000 2f03 0000 2003 0000 5b01 0080
1.12e-42 4.01e-43 8.8e-43 1.47e-43 -2.9e-43 -7.57e-43 -1.064e-42 9.87e-43
-9.87e-43 1.51e-43 2.38e-43 1.459e-42 -9.44e-43 7.57e-43 -1.278e-42 -2.02e-43
-9.33e-43 -5.13e-43 -1.7983386e-16 -9.129617e-06 -1.148e-42 5.7082836e-09 5.256e-42 -4.1637663e-14
-6.6154244e-13 5.3209e-41 -3.018835e-13 6.38e-43 -7.7e-43 -5.5e-43 -5.63e-43 -2.5e-43
-6.8e-43 -5.2e-43 -1.18e-43 -3.25e-43 -6.67e-43 1.54e-43 -9.75e-43 -9.36e-43
-4.4e-43 -7.27e-43 -3.71e-43 -3.4e-44 3.22e-43 -4.83e-43 6.17e-43 -8.41e-43
3.45e-43 -5.25e-43 9.95e-43 7.41e-43 6.01e-43 4.18e-43 3.97e-43 -8.09e-43
-4.95e-43 2.27e-43 -9.96e-43 6.2e-44 3.28e-43 -8.55e-43 5.23e-43 -7.37e-43
1.64e-43 -1.68e-43 -3.12e-43 4.53e-43 -5.09e-43 -8.88e-43 -7.38e-43 4.5e-43
-8.66e-43 -1.12e-43 1.78e-43 2.66e-43 6.9e-44 -8.35e-43 -2.97e-43 -4.34e-43
4.78e-43 -9.14e-43 1.78e-43 -9.15e-43 1.117e-42 -8.69e-43 -2.07e-43 -2e-43
-1.28e-42 1.101e-42 6.77e-43 -3.39e-43 3e-45 -3.73e-43 5.82e-43 -7.85e-43
-6.6e-44 -9.44e-43 3.36e-43 -9.7e-43 -8.98e-43 3.18e-43 4.79e-43 6.92e-43
7.96e-43 7.7e-43 -3.74e-43 9.25e-43 -8.28e-43 8.1e-43 -1.275e-42 -1.003e-42
9.63e-43 2.58e-43 -3.84e-43 -8.21e-43 4.05e-43 -1.39e-43 8.1e-43 6.3e-43
7.75e-43 -6.9e-44 -8e-44 5.35e-43 -4.72e-43 4.58e-43 1.523e-42 3.18e-43
-9.42e-43 9.11e-43 -1.99e-43 -8.09e-43 6.7e-43 -2.37e-43 4.72e-43 -1.155e-42
7.44e-43 -8.44e-43 -8.3e-43 8e-43 2.77e-43 2.2e-44 8.98e-43 3.11e-43
5.87e-43 -2.48e-43 6.61e-43 1.448e-42 -8.48e-43 -9.18e-43 -8.66e-43 9.22e-43
5.28e-43 -5e-44 8.41e-43 -7.7e-43 6.67e-43 -1.149e-42 5.6e-44 -6.47e-43
-2.59e-43 8.31e-43 9.02e-43 3e-45 4.37e-43 5.04e-43 2.26e-43 -2.86e-43
6.84e-43 7.3e-44 5.27e-43 -3.3e-43 -1.95e-43 -7.88e-43 3.36e-43 -7.85e-43
-7.78e-43 4.48e-43 -1.53e-43 -4e-44 -3.91e-43 1.033e-42 7.61e-43 -6.15e-43
6.92e-43 5.54e-43 -7.97e-43 1.342e-42 -3.7e-43 9.98e-43 4.8e-44 2.05e-43
-6.3e-44 8.49e-43 2.96e-43 9.46e-43 -7.57e-43 5.55e-43 -1.306e-42 -8.67e-43
1.75e-43 7.36e-43 8.1e-43 -7.52e-43 2.4e-44 2.28e-43 -1.77e-43 -1.31e-42
-1.214e-42 9.19e-43 8.88e-43 4.93e-43 -6.5e-43 -1.326e-42 -3e-43 2.13e-43
-4.58e-43 -6.12e-43 -2.09e-43 -1.51e-43 -3.18e-43 -5.2e-44 3.18e-43 -9.4e-43
-4.7e-43 1.127e-42 5.07e-43 3e-43 5.84e-43 7.1e-43 9.15e-43 8.46e-43
-8.93e-43 -3.32e-43 8.02e-43 -3.88e-43 4.67e-43 5.89e-43 5.63e-43 2.62e-43
-9.4e-44 -4.32e-43 -8.49e-43 4.12e-43 -9.95e-43 5.17e-43 -2.97e-43 6.64e-43
-3.85e-43 1.05e-43 8.91e-43 4.08e-43 4.67e-43 1.142e-42 1.121e-42 -4.86e-43

bias f4 [32]
00000000: 9903 0000 4a18 ce30 8dc4 9ebc c007 0080
00000010: 7051 c53b d6d8 a6b6 1e17 0000 5e12 723c
00000020: 4a97 029f 0912 0080 7496 551c 1e28 5cb7
00000030: 710d 0000 9f0c 8aae 4a94 3530 060e 0000
00000040: f500 0080 4e08 0000 2830 22a5 911d 0080
00000050: 2df6 919c 6000 0080 d594 962d b710 0000
00000060: 4911 0000 5604 1fb7 1afa 9620 b140 ae2e
00000070: 5c11 0000 8a32 0080 a936 4429 3f1f 822f
1.29e-42 1.4995376e-09 -0.019380832 -2.78e-42 0.006021671 -4.9724285e-06 8.293e-42 0.014774887
-2.7653714e-20 -6.47e-42 7.0670244e-22 -1.3122362e-05 4.822e-42 -6.2777554e-11 6.605815e-10 5.03e-42
-3.43e-43 2.979e-42 -1.4067576e-16 -1.0606e-41 -9.65893e-22 -1.35e-43 1.711912e-11 5.996e-42
6.201e-42 -9.478148e-06 2.5576492e-19 7.9240954e-11 6.227e-42 -1.813e-41 4.3568153e-14 2.3669064e-10

weight f4 [32]
00000000: 9600 0000 c901 0080 496d 9d3d c300 0000
00000010: d812 943d 3101 0080 5e01 0080 33f7 c33d
00000020: 8b00 0000 d601 0000 c301 0080 bb7e 2e3b
00000030: bd00 0080 4f01 0000 1802 0000 3101 0080
00000040: f000 0080 e901 0000 0a01 0080 0801 0000
00000050: 6701 0080 8800 0000 e201 0000 6a01 0000
00000060: e601 0080 3900 0000 f900 0000 9200 0080
00000070: 2200 0000 c900 0080 ab00 0080 b100 0080
2.1e-43 -6.4e-43 0.0768686 2.73e-43 0.07230157 -4.27e-43 -4.9e-43 0.09568634
1.95e-43 6.59e-43 -6.32e-43 0.002662583 -2.65e-43 4.7e-43 7.51e-43 -4.27e-43
-3.36e-43 6.85e-43 -3.73e-43 3.7e-43 -5.03e-43 1.9e-43 6.75e-43 5.07e-43
-6.81e-43 8e-44 3.49e-43 -2.05e-43 4.8e-44 -2.82e-43 -2.4e-43 -2.48e-43

bias f4 [32]
00000000: 0900 4883 6b0b 0080 9ebb 903d 0e00 0080
00000010: bfaf 563d 4004 0080 6cfb 1584 bfc3 ab3d
00000020: b80e 4884 9e15 0080 c402 4884 7076 d8bb
00000030: 4200 4883 f001 0080 3000 4883 a72b 4884
00000040: 4c03 0080 aa02 4884 e503 0080 3d02 0080
00000050: f511 0080 be02 4884 aa0a 0080 3605 4884
00000060: 4f04 0080 0605 0080 b501 0080 4422 4c85
00000070: c101 0080 c301 0080 9a02 0080 4500 4884
-5.877476e-37 -4.096e-42 0.07067035 -2e-44 0.0524137 -1.525e-42 -1.7630313e-36 0.08386945
-2.3516646e-36 -7.755e-42 -2.3511157e-36 -0.0066059157 -5.8775013e-37 -6.95e-43 -5.8774933e-37 -2.3529931e-36
-1.183e-42 -2.351111e-36 -1.397e-42 -8.03e-43 -6.442e-42 -2.3511146e-36 -3.826e-42 -2.351228e-36
-1.546e-42 -1.802e-42 -6.12e-43 -9.5983275e-36 -6.29e-43 -6.32e-43 -9.33e-43 -2.351001e-36

running_mean f4 [32]
00000000: dc12 19b7 95c5 0eb9 75c0 eebe 70ad ae9f
00000010: 67c8 733e 67ef a8b6 2140 94b2 77a9 01be
00000020: 4a25 5236 eeb8 1c38 a169 9fb5 65cd 76bd
00000030: 5d4a 3d2c 5438 d3b6 d8b3 2734 33ce 0bad
00000040: 5f47 28b4 8404 c338 aee3 c332 e37e b9b7
00000050: 1914 b936 4111 a5b4 97c5 9d2d cfbe b8b0
00000060: 821d eb37 020d 1db7 748d 30b0 050e 4ab7
00000070: 4b85 d9b5 071d 51b4 cbda 3d29 391f 822f
-9.123902e-06 -0.0001361578 -0.46631208 -7.3978795e-20 0.23806916 -5.0346603e-06 -1.725863e-08 -0.12662302
3.1314144e-06 3.7365528e-05 -1.1877165e-06 -0.060254473 2.6899795e-12 -6.2948475e-06 1.5618514e-07 -7.947021e-12
-1.5672184e-07 9.299166e-05 2.2804524e-08 -2.2112805e-05 5.5157693e-06 -3.07462e-07 1.7936581e-11 -1.3441993e-09
2.8027924e-05 -9.360958e-06 -6.4229444e-10 -1.2043402e-05 -1.6206553e-06 -1.9475202e-07 4.2156203e-14 2.3669047e-10

running_var f4 [32]
00000000: 2101 8017 1801 801b d203 3c3b 0400 0000
00000010: 5be8 413b 0400 0000 0400 0000 ac0c 543b
00000020: 2101 8015 1801 801a 0400 0000 edc2 bb3b
00000030: 2101 8001 0400 0000 0400 0000 0400 0000
00000040: 0400 0000 0400 0000 0400 0000 1801 8018
00000050: 0400 0000 0400 0000 2101 8004 2101 800b
00000060: 2101 8018 2101 8017 0400 0000 0400 0000
00000070: 0400 0000 2101 8011 0400 0000 0400 0000
8.272091e-25 2.117653e-22 0.00286888 6e-45 0.0029587958 6e-45 6e-45 0.0032356186
5.170057e-26 5.2941326e-23 6e-45 0.005730024 4.7021394e-38 6e-45 6e-45 6e-45
6e-45 6e-45 6e-45 3.308833e-24 6e-45 6e-45 3.0093692e-36 4.9305505e-32
3.3088364e-24 8.272091e-25 6e-45 6e-45 6e-45 2.0195535e-28 6e-45 6e-45

weight f4 [64, 35, 3, 3]
00000000: df02 0080 2403 0080 1202 0080 7200 0000
00000010: e300 0080 0b00 0000 ca02 0080 c802 0080
00000020: 2200 0080 f800 0000 3e01 0000 a801 0000
00000030: 0605 0000 0a03 0000 7100 0080 8902 0080
00000040: d603 0000 b301 0000 740f 0000 171f 0000
00000050: 1f00 0080 1b37 3d96 c555 32a5 55da c131
00000060: e003 0080 13ef 89b9 3212 0000 e601 0000
00000070: f802 0000 7002 0000 2300 0080 ce03 0000
00000080: 9003 0000 b602 0080 8e04 0000 3502 0000
00000090: 8500 0080 4500 0080 3000 0000 dc00 0080
000000a0: e400 0080 0202 0080 4d00 0080 bf00 0080
000000b0: f601 0080 6100 0000 4702 0080 0d01 0000
000000c0: 9002 0080 2501 0000 8403 0000 dc01 0080
000000d0: 5c00 0000 a901 0080 8103 0080 ef01 0080
000000e0: d303 0080 3d02 0000 5902 0000 c201 0080
000000f0: 7c01 0000 8502 0080 2201 0080 bc02 0000
00000100: 5c02 0080 0704 0000 d301 0000 0d03 0000
00000110: 4402 0080 7e01 0080 a703 0080 5002 0080
00000120: 9902 0000 9101 0000 9f00 0000 8901 0080
00000130: 7f00 0080 c802 0000 2c02 0000 1b03 0080
00000140: a001 0000 5103 0000 b602 0000 2404 0000
00000150: 4102 0000 8001 0000 e803 0080 e101 0000
00000160: 8b03 0000 3a02 0080 4e00 0080 8200 0080
00000170: 0904 0000 a201 0080 bb01 0080 2103 0000
00000180: 0c03 0000 b502 0080 7800 0000 7e02 0000
00000190: 8702 0000 d303 0000 2102 0080 7602 0000
000001a0: b104 0000 2d00 0000 5c02 0080 fe00 0080
000001b0: 9200 0000 6002 0000 8801 0080 4300 0000
000001c0: e501 0000 3104 0080 b205 0080 e001 0000
000001d0: 3b01 0080 ad00 0000 eb03 0080 2b02 0080
000001e0: 2800 0000 8a00 0080 5e02 0000 4c02 0080
000001f0: bc00 0080 7502 0000 0401 0000 ba02 0000
00000200: ed04 0080 bf00 0000 7302 0000 1400 0080
00000210: 5a02 0080 4201 0000 e401 0080 3903 0080
00000220: 9501 0080 a201 0080 ba00 0000 3a02 0080
00000230: 8e02 0080 3300 0080 8000 0000 4400 0080
00000240: f101 0000 0d03 0000 9801 0000 e900 0080
00000250: e704 0000 7e00 0000 6500 0080 b403 0080
00000260: d300 0080 5002 0080 db04 0000 c203 0000
00000270: 9e00 0080 0f02 0000 8802 0080 0c04 0080
00000280: 5800 0000 a400 0080 ff00 0080 f802 0080
00000290: 5105 0000 8d02 0080 6e03 0080 7704 0080
000002a0: 7902 0080 7102 0000 6506 0080 6100 0080
000002b0: 7002 0080 ff02 0000 de01 0000 aa02 0000
000002c0: 9d00 0080 1500 0080 3a00 0080 2602 0000
000002d0: 7900 0080 6f03 0080 0c00 0080 9f00 0080
000002e0: b402 0000 9f02 0080 5c01 0080 e002 0000
000002f0: b700 0080 8f01 0080 5304 0080 1a02 0080
00000300: 7801 0080 cd02 0000 7a02 0080 bf02 0000
00000310: 5802 0080 e501 0000 4d00 0000 0f04 0000
00000320: ef03 0080 6802 0000 5901 0080 9e05 0000
00000330: 7102 0080 e600 0000 7402 0080 7303 0000
00000340: 2000 0080 7303 0000 cf00 0080 7601 0080
00000350: 7d01 0000 db01 0000 6a03 0080 b801 0080
00000360: 2b02 0080 b102 0000 a500 0000 3d01 0000
00000370: 4902 0000 5302 0000 9102 0000 ad02 0080
00000380: 1900 0080 3d02 0000 1302 0080 c603 0080
00000390: 3402 0080 8e00 0000 9904 0080 fd01 0080
000003a0: fb01 0000 c003 0000 4f02 0000 3f00 0080
000003b0: 8303 0080 b702 0000 8402 0080 6d01 0000
000003c0: e702 0000 f700 0000 dc01 0000 2902 0080
000003d0: 9402 0000 5b03 0080 4600 0000 8002 0080
000003e0: bb00 0000 6804 0000 2b01 0080 0802 0000
000003f0: 3000 0080 5000 0080 d100 0000 6b01 0080
-1.03e-42 -1.127e-42 -7.43e-43 1.6e-43 -3.18e-43 1.5e-44 -1e-42 -9.98e-43
-4.8e-44 3.48e-43 4.46e-43 5.94e-43 1.802e-42 1.09e-42 -1.58e-43 -9.1e-43
1.376e-42 6.1e-43 5.544e-42 1.1153e-41 -4.3e-44 -1.5284687e-25 -1.5468099e-16 5.6418608e-09
-1.39e-42 -0.000263088 6.527e-42 6.81e-43 1.065e-42 8.74e-43 -4.9e-44 1.365e-42
1.278e-42 -9.73e-43 1.634e-42 7.92e-43 -1.86e-43 -9.7e-44 6.7e-44 -3.08e-43
-3.2e-43 -7.2e-43 -1.08e-43 -2.68e-43 -7.03e-43 1.36e-43 -8.17e-43 3.77e-43
-9.19e-43 4.1e-43 1.261e-42 -6.67e-43 1.29e-43 -5.96e-43 -1.257e-42 -6.94e-43
-1.372e-42 8.03e-43 8.42e-43 -6.3e-43 5.32e-43 -9.04e-43 -4.06e-43 9.81e-43
-8.46e-43 1.445e-42 6.54e-43 1.094e-42 -8.13e-43 -5.35e-43 -1.31e-42 -8.3e-43
9.32e-43 5.62e-43 2.23e-43 -5.51e-43 -1.78e-43 9.98e-43 7.79e-43 -1.114e-42
5.83e-43 1.19e-42 9.73e-43 1.485e-42 8.09e-43 5.38e-43 -1.401e-42 6.74e-43
1.271e-42 -7.99e-43 -1.1e-43 -1.82e-43 1.448e-42 -5.86e-43 -6.21e-43 1.122e-42
1.093e-42 -9.71e-43 1.68e-43 8.94e-43 9.07e-43 1.372e-42 -7.64e-43 8.83e-43
1.683e-42 6.3e-44 -8.46e-43 -3.56e-43 2.05e-43 8.52e-43 -5.5e-43 9.4e-44
6.8e-43 -1.504e-42 -2.043e-42 6.73e-43 -4.41e-43 2.42e-43 -1.406e-42 -7.78e-43
5.6e-44 -1.93e-43 8.49e-43 -8.24e-43 -2.63e-43 8.81e-43 3.64e-43 9.78e-43
-1.767e-42 2.68e-43 8.79e-43 -2.8e-44 -8.44e-43 4.51e-43 -6.78e-43 -1.156e-42
-5.68e-43 -5.86e-43 2.6e-43 -7.99e-43 -9.16e-43 -7.1e-44 1.8e-43 -9.5e-44
6.96e-43 1.094e-42 5.72e-43 -3.27e-43 1.759e-42 1.77e-43 -1.42e-43 -1.328e-42
-2.96e-43 -8.3e-43 1.742e-42 1.348e-42 -2.21e-43 7.38e-43 -9.08e-43 -1.452e-42
1.23e-43 -2.3e-43 -3.57e-43 -1.065e-42 1.907e-42 -9.15e-43 -1.23e-42 -1.602e-42
-8.87e-43 8.76e-43 -2.294e-42 -1.36e-43 -8.74e-43 1.075e-42 6.7e-43 9.56e-43
-2.2e-43 -3e-44 -8.1e-44 7.71e-43 -1.7e-43 -1.232e-42 -1.7e-44 -2.23e-43
9.7e-43 -9.4e-43 -4.88e-43 1.031e-42 -2.56e-43 -5.59e-43 -1.551e-42 -7.54e-43
-5.27e-43 1.005e-42 -8.88e-43 9.85e-43 -8.41e-43 6.8e-43 1.08e-43 1.456e-42
-1.411e-42 8.63e-43 -4.83e-43 2.015e-42 -8.76e-43 3.22e-43 -8.8e-43 1.237e-42
-4.5e-44 1.237e-42 -2.9e-43 -5.24e-43 5.34e-43 6.66e-43 -1.225e-42 -6.17e-43
-7.78e-43 9.65e-43 2.31e-43 4.44e-43 8.2e-43 8.34e-43 9.2e-43 -9.6e-43
-3.5e-44 8.03e-43 -7.44e-43 -1.354e-42 -7.9e-43 1.99e-43 -1.65e-42 -7.13e-43
7.1e-43 1.345e-42 8.28e-43 -8.8e-44 -1.26e-42 9.74e-43 -9.02e-43 5.11e-43
1.041e-42 3.46e-43 6.67e-43 -7.75e-43 9.25e-43 -1.204e-42 9.8e-44 -8.97e-43
2.62e-43 1.58e-42 -4.19e-43 7.29e-43 -6.7e-44 -1.12e-43 2.93e-43 -5.09e-43

bias f4 [64]
00000000: 0613 0080 410f 0080 9b81 04a8 a604 0080
00000010: 4f87 99b7 9e10 0080 dc0e 0080 681a 0080
00000020: 4007 0000 5e09 0000 d265 04bd 5d1f 0000
00000030: a069 f0b5 b018 0080 c802 0000 1812 0000
00000040: f60d 0080 4605 0080 b107 0080 6046 57a8
00000050: 6308 0080 5931 46b7 8c31 2d33 a803 f89c
00000060: d416 2caf 2a41 4db1 32dd 2f89 6e04 0080
00000070: d0da 26a7 840b 0080 1636 61b5 131a 0080
00000080: 110d 0080 e412 0080 aa43 9416 be82 0c99
00000090: 8300 1f32 d013 0080 df9e 11ac 6c12 0080
000000a0: 7806 76b1 2107 52b8 ae09 0080 4504 0000
000000b0: 5204 0080 e60c 0000 8c07 0000 9702 132a
000000c0: 1886 bc2e 3301 0000 a3c3 a1ac 8104 0000
000000d0: d1e7 d8ae 7f13 0080 b700 0000 1c07 0080
000000e0: 4a21 8a30 735a 9c2d d307 0000 6709 3528
000000f0: 6a04 0080 cd06 0000 0e07 0080 4808 0080
-6.824e-42 -5.472e-42 -7.355576e-15 -1.668e-42 -1.830203e-05 -5.961e-42 -5.33e-42 -9.473e-42
2.601e-42 3.36e-42 -0.032323666 1.1251e-41 -1.7912134e-06 -8.856e-42 9.98e-43 6.491e-42
-5.008e-42 -1.892e-42 -2.759e-42 -1.1950158e-14 -3.009e-42 -1.1813209e-05 4.0324764e-08 -1.6412208e-21
-1.5651419e-10 -2.9868468e-09 -2.1168864e-33 -1.589e-42 -2.3155746e-15 -4.131e-42 -8.3897737e-07 -9.354e-42
-4.687e-42 -6.777e-42 2.3953392e-25 -7.2642335e-24 9.255134e-09 -7.107e-42 -2.069393e-12 -6.609e-42
-3.5801389e-09 -5.007454e-05 -3.472e-42 1.532e-42 -1.55e-42 4.627e-42 2.707e-42 1.3057121e-13
8.57307e-11 4.3e-43 -4.5976153e-12 1.616e-42 -9.8637216e-11 -6.994e-42 2.56e-43 -2.55e-42
1.0050283e-09 1.7775314e-11 2.807e-42 1.0049557e-14 -1.583e-42 2.44e-42 -2.531e-42 -2.971e-42

weight f4 [64]
00000000: 8900 0000 e300 0000 fd01 0000 6600 0080
00000010: f801 0080 da00 0080 2f00 0080 1c5e 0000
00000020: ec01 0000 0401 0000 75ab 493e c500 0080
00000030: ae01 0000 c900 0000 e400 0000 7101 0000
00000040: a001 0000 0e01 0000 a916 5704 2801 0000
00000050: b400 0000 2301 0000 8d00 0000 9e00 0000
00000060: f301 0000 4c00 0080 c100 0080 b30e 0080
00000070: 3f01 0000 d400 0000 eb00 0080 1902 0080
00000080: df01 0000 8a01 0000 0f02 0000 0302 0000
00000090: d901 0000 2901 0000 0e00 0000 7b01 0000
000000a0: ab00 0000 1c20 cb17 e501 0080 be01 0000
000000b0: 1601 0000 a501 0000 a700 0080 1602 0080
000000c0: 2b01 0000 6c00 0080 4500 0000 530d 0080
000000d0: f901 0080 0501 0000 9a01 0080 1700 0000
000000e0: 7101 0080 e700 0000 7301 0000 e501 0080
000000f0: 9300 0080 cc01 0000 a701 0080 3800 0000
1.92e-43 3.18e-43 7.13e-43 -1.43e-43 -7.06e-43 -3.05e-43 -6.6e-44 3.376e-41
6.9e-43 3.64e-43 0.19694312 -2.76e-43 6.03e-43 2.82e-43 3.2e-43 5.17e-43
5.83e-43 3.78e-43 2.5283534e-36 4.15e-43 2.52e-43 4.08e-43 1.98e-43 2.21e-43
6.99e-43 -1.06e-43 -2.7e-43 -5.273e-42 4.47e-43 2.97e-43 -3.3e-43 -7.52e-43
6.71e-43 5.52e-43 7.38e-43 7.22e-43 6.63e-43 4.16e-43 2e-44 5.31e-43
2.4e-43 1.3126673e-24 -6.8e-43 6.25e-43 3.9e-43 5.9e-43 -2.34e-43 -7.48e-43
4.19e-43 -1.51e-43 9.7e-44 -4.78e-42 -7.08e-43 3.66e-43 -5.75e-43 3.2e-44
-5.17e-43 3.24e-43 5.2e-43 -6.8e-43 -2.06e-43 6.45e-43 -5.93e-43 7.8e-44

bias f4 [64]
00000000: ed84 0080 0c35 0080 f481 4984 5229 0080
00000010: 1026 0180 b3ce 4884 6d60 4884 7665 000c
00000020: 9157 4884 0129 4884 32c2 b33e 305b 4884
00000030: 7410 0080 f8ab 4884 970c 0080 4749 0080
00000040: c902 4884 5100 4884 5313 1d87 032b 0080
00000050: 953a 4884 ef24 4884 b706 0080 d200 4884
00000060: 5b02 1684 7828 0080 a0c7 4884 f290 1409
00000070: 111b 0080 b3f6 4984 bfa3 4884 38df 4984
00000080: 020f 0080 2a02 0080 c6cb 4884 772d 0080
00000090: 36ae 4984 415c ef80 f580 4884 3066 4884
000000a0: 6b85 4884 556d 5696 ca78 4884 057c 4884
000000b0: 2034 0080 0e0b 4884 232c 0080 75d5 4884
000000c0: 3056 4884 f083 0080 d094 4884 ef75 278a
000000d0: 5133 4884 910b 0080 2d03 0080 9808 0080
000000e0: 1d2e 0080 c052 0080 7c00 4984 8d02 4884
000000f0: 5796 0080 c120 0080 fb07 0080 9f2d 0080
-4.7685e-41 -1.903e-41 -2.3687108e-36 -1.4823e-41 -1.0549e-40 -2.3604799e-36 -2.3554164e-36 9.891294e-32
-2.3550096e-36 -2.3528715e-36 0.35109097 -2.3551758e-36 -5.902e-42 -2.3588851e-36 -4.516e-42 -2.6287e-41
-2.3511166e-36 -2.3510032e-36 -1.1817046e-34 -1.543e-41 -2.3536787e-36 -2.3526846e-36 -2.409e-42 -2.3510264e-36
-1.7633497e-36 -1.4517e-41 -2.360155e-36 1.7883005e-33 -9.71e-42 -2.3740715e-36 -2.3585076e-36 -2.3729933e-36
-5.384e-42 -7.76e-43 -2.3603455e-36 -1.631e-41 -2.370743e-36 -2.1981778e-38 -2.3569101e-36 -2.355681e-36
-2.357115e-36 -1.7321281e-25 -2.356535e-36 -2.3566834e-36 -1.8699e-41 -2.3514963e-36 -1.5833e-41 -2.3607902e-36
-2.3549462e-36 -4.733e-41 -2.3578218e-36 -8.062938e-33 -2.353345e-36 -4.149e-42 -1.139e-42 -3.083e-42
-1.6542e-41 -2.9685e-41 -2.3627659e-36 -2.3511058e-36 -5.3932e-41 -1.175e-41 -2.863e-42 -1.6366e-41

running_mean f4 [64]
00000000: 4bee 89b9 9e9b f6ac 9381 04a8 b255 84b0
00000010: f389 99b7 649b 29b8 ca41 b336 068f 06b7
00000020: c77f e436 bad2 2c33 95b9 88be b8d4 b234
00000030: eb1e 2eb6 d9f5 f838 76ac 87b7 a805 94b8
00000040: a984 84ad de76 7437 c810 ab36 2121 3135
00000050: 2481 05b4 eeca ffb7 aa4f 2d33 ec49 909e
00000060: 26d3 8eb2 08c7 4338 27bf dab6 9232 78b5
00000070: cefa 84b8 1165 e0b7 28f7 b336 e429 9bb2
00000080: 2452 4eb7 af57 1ab6 b887 ae2c 70ce cb34
00000090: 9a35 4638 1224 fb1d 63c2 06ad 6dcb 88b6
000000a0: 3200 72b1 02c0 23b8 c8c9 4839 c78c bd34
000000b0: 2a3d 45b7 247a edb6 3b43 0b2e 034c 0536
000000c0: b01e 1db6 1634 5536 f451 c334 16cf deb3
000000d0: 57b7 44b4 0fd1 4a2e eb49 1632 9e63 68af
000000e0: 568d c2b4 a678 e638 ab59 9b34 d0cc 1e34
000000f0: 2902 9e35 e38e 0339 d2a8 a437 3acf 0db6
-0.00026308218 -7.0090175e-12 -7.355569e-15 -9.62862e-10 -1.8303259e-05 -4.043746e-05 5.3422746e-06 -8.020323e-06
6.8098047e-06 4.0238525e-08 -0.26704088 3.3309857e-07 -2.5946017e-06 0.00011871354 -1.6173562e-05 -7.0582435e-05
-1.5065576e-11 1.4571209e-05 5.0981507e-06 6.598585e-07 -1.2433571e-07 -3.0492865e-05 4.0352155e-08 -1.5277166e-20
-1.6626995e-08 4.6676985e-05 -6.5191593e-06 -9.246079e-07 -6.3409665e-05 -2.6749944e-05 5.3633885e-06 -1.8063425e-08
-1.2297682e-05 -2.2998827e-06 4.9604452e-12 3.79619e-07 4.72568e-05 6.6476443e-21 -7.660181e-12 -4.0767977e-06
-3.5215746e-09 -3.904105e-05 0.00019148656 3.5306422e-07 -1.1756356e-05 -7.0773694e-06 3.1664654e-11 1.986279e-06
-2.3412686e-06 3.1769791e-06 3.638121e-07 -1.0375349e-07 -1.8320621e-07 4.6115164e-11 8.747956e-09 -2.1135668e-10
-3.623815e-07 0.00010989727 2.8936242e-07 1.4789407e-07 1.1772546e-06 0.00012546363 1.9628937e-05 -2.113126e-06

running_var f4 [64]
00000000: 0400 0000 0400 0000 0202 0000 1506 800b
00000010: 1506 8018 0400 0000 1506 8016 0400 0000
00000020: 0400 0000 1506 8010 4ef7 123a 0400 0000
00000030: 1506 8015 1506 801b 1506 8018 1506 801a
00000040: 0400 0000 1506 8018 1506 8016 0400 0000
00000050: 0400 0000 0400 0000 1506 800f 0400 0000
00000060: 1506 800e 1506 8019 cb06 1018 0400 0000
00000070: 0400 0000 1506 8018 0400 0000 0400 0000
00000080: 1506 8017 1506 8015 0400 0000 0c06 8012
00000090: 0400 0000 0400 0000 1506 8003 1506 8016
000000a0: 1506 800b 4a37 8d25 0400 0000 0c06 8012
000000b0: 1506 8017 1506 8016 1506 8005 0400 0000
000000c0: 0400 0000 1506 8015 0400 0000 0400 0000
000000d0: 0400 0000 1506 8005 1506 800d 0400 0000
000000e0: 1506 8012 0400 0000 1506 8012 1506 8011
000000f0: 0400 0000 1506 801b 0400 0000 1506 8015
6e-45 6e-45 7.2e-43 4.931296e-32 3.3093366e-24 6e-45 2.0683354e-25 6e-45
6e-45 5.049647e-29 0.0005606309 6e-45 5.1708384e-26 2.1179754e-22 3.3093366e-24 5.2949385e-23
6e-45 3.3093366e-24 2.0683354e-25 6e-45 6e-45 6e-45 1.2624117e-29 6e-45
3.1560293e-30 1.3237346e-23 1.8614993e-24 6e-45 6e-45 3.3093366e-24 6e-45 6e-45
8.273341e-25 5.1708384e-26 6e-45 8.079426e-28 6e-45 6e-45 7.52456e-37 2.0683354e-25
4.931296e-32 2.4497066e-16 6e-45 8.079426e-28 8.273341e-25 2.0683354e-25 1.2039296e-35 6e-45
6e-45 5.1708384e-26 6e-45 6e-45 6e-45 1.2039296e-35 7.890073e-31 6e-45
8.079435e-28 6e-45 8.079435e-28 2.0198588e-28 6e-45 2.1179754e-22 6e-45 5.1708384e-26

weight f4 [64, 67, 3, 3]
00000000: ea70 1917 7039 9a95 2536 6618 9774 30a3
00000010: 8625 30a3 d919 30a3 156e bca2 1788 bea2
00000020: 2671 bda2 5231 2e98 0a88 11a3 dc0e 29a3
00000030: e87f 0a98 d977 11a3 d7fa 28a3 921d 0598
00000040: 0489 11a3 9d1f 29a3 add8 feb4 ea03 201c
00000050: 80b7 29b3 22f9 efb6 b0fd 7c9a 7661 9829
00000060: 19c3 a3b2 91ae f619 f4de f132 d700 0080
00000070: 1502 0000 0802 0080 0b02 0080 1701 0000
00000080: ba01 0080 d100 0000 de00 0000 d801 0080
00000090: 6d01 0080 9b01 0080 2301 0080 ee01 0080
000000a0: 5e01 0080 1c02 0000 c501 0000 e701 0080
000000b0: 6400 0080 8d01 0000 ad00 0000 8000 0080
000000c0: 3100 0000 a300 0000 7602 0080 9700 0080
000000d0: d601 0000 3901 0000 0e02 0000 6601 0080
000000e0: 2902 0000 4300 0000 fa01 0080 c300 0080
000000f0: 4501 0080 0602 0000 a302 0080 6600 0080
00000100: f901 0000 8f00 0000 8500 0080 6001 0080
00000110: 8c01 0080 5f00 0080 e201 0080 d700 0080
00000120: 6f00 0000 8a01 0000 fe00 0080 d901 0080
00000130: a601 0000 de02 0000 4802 0080 9300 0000
00000140: a902 0000 5601 0000 d901 0080 f200 0000
00000150: a500 0000 c001 0000 a400 0000 cf01 0000
00000160: 2902 0000 9000 0000 c200 0000 7000 0000
00000170: 7706 0080 3901 0080 5e01 0080 6c04 0080
00000180: c500 0080 4a00 0000 1703 0000 da01 0000
00000190: d401 0000 6100 0080 3300 0000 8f01 0000
000001a0: ae01 0080 ee00 0000 9501 0000 a701 0000
000001b0: 3901 0080 c800 0080 6002 0080 ad01 0000
000001c0: 8301 0080 6000 0080 e601 0000 af01 0080
000001d0: 3a03 0080 5cd9 5fa2 a558 14a2 d5e5 3821
000001e0: e5b8 66a2 f3b3 4da2 10d0 2621 a66f dfa0
000001f0: b134 8420 dd8c 00a2 1701 0080 2a01 0080
00000200: 9100 0000 8b01 0080 0102 0080 e301 0000
00000210: e400 0000 bf01 0000 dd01 0080 af00 0000
00000220: 8d00 0000 0502 0080 1902 0000 e600 0080
00000230: de00 0000 1802 0000 2701 0080 0f02 0080
00000240: 4e01 0080 1e00 0080 5003 0000 e501 0080
00000250: 6000 0080 4301 0000 4401 0080 b700 0000
00000260: 2403 0000 3500 0000 0101 0000 0802 0080
00000270: b901 0080 e900 0000 ab01 0080 c200 0080
00000280: 4b01 0000 9900 0000 ca01 0000 7b01 0000
00000290: c800 0000 9401 0000 f401 0080 5502 0000
000002a0: 0f00 0080 a701 0000 7b02 0000 a402 0000
000002b0: 8d02 0000 f104 0080 6000 0000 fa03 0080
000002c0: b801 0080 cc00 0000 f900 0080 2b04 0080
000002d0: a300 0000 af01 0000 ea02 0000 f200 0000
000002e0: 6701 0000 cb00 0080 a001 0080 3c01 0080
000002f0: 6402 0000 0902 0000 2d01 0080 ba03 0080
00000300: 0101 0000 7900 0000 c400 0080 e000 0080
00000310: b600 0000 7004 0000 ac02 0000 d001 0080
00000320: 7803 0000 e301 0080 3601 0000 0602 0000
00000330: 1800 0080 0201 0080 1b00 0080 8101 0000
00000340: 3001 0080 ec00 0080 9f01 0080 4700 0080
00000350: 8301 0000 8401 0000 9b01 0000 6105 0000
00000360: b000 0000 9701 0080 f100 0080 1302 0000
00000370: 0401 0000 4b01 0000 b101 0000 6e01 0000
00000380: b900 0000 fd00 0080 9701 0000 8201 0000
00000390: 9600 0080 9700 0080 ff01 0080 f700 0000
000003a0: 4e01 0000 ff00 0000 9701 0080 eb00 0080
000003b0: d902 0000 f200 0000 ba01 0000 a102 0000
000003c0: d301 0080 9c00 0080 4401 0080 f401 0080
000003d0: 5001 0080 2600 0000 6500 0080 ae01 0000
000003e0: 9e01 0000 2c01 0080 4401 0080 1201 0000
000003f0: 1900 0000 1a01 0080 0c00 0080 0901 0000
4.9579484e-25 -6.2290725e-26 2.975414e-24 -9.565668e-18 -9.548925e-18 -9.5464526e-18 -5.1074056e-18 -5.1643694e-18
-5.1348353e-18 -2.2513873e-24 -7.889273e-18 -9.164655e-18 -1.7900658e-24 -7.8858445e-18 -9.160416e-18 -1.7204776e-24
-7.88948e-18 -9.168203e-18 -4.746884e-07 5.294462e-22 -3.951527e-08 -7.151758e-06 -5.2317306e-23 6.767063e-14
-1.9064418e-08 2.550631e-23 2.815748e-08 -3.01e-43 7.47e-43 -7.29e-43 -7.33e-43 3.91e-43
-6.2e-43 2.93e-43 3.11e-43 -6.61e-43 -5.11e-43 -5.76e-43 -4.08e-43 -6.92e-43
-4.9e-43 7.57e-43 6.35e-43 -6.82e-43 -1.4e-43 5.56e-43 2.42e-43 -1.8e-43
6.9e-44 2.28e-43 -8.83e-43 -2.12e-43 6.59e-43 4.39e-43 7.37e-43 -5.02e-43
7.75e-43 9.4e-44 -7.09e-43 -2.73e-43 -4.55e-43 7.26e-43 -9.46e-43 -1.43e-43
7.08e-43 2e-43 -1.86e-43 -4.93e-43 -5.55e-43 -1.33e-43 -6.75e-43 -3.01e-43
1.56e-43 5.52e-43 -3.56e-43 -6.63e-43 5.91e-43 1.029e-42 -8.18e-43 2.06e-43
9.54e-43 4.79e-43 -6.63e-43 3.39e-43 2.31e-43 6.28e-43 2.3e-43 6.49e-43
7.75e-43 2.02e-43 2.72e-43 1.57e-43 -2.319e-42 -4.39e-43 -4.9e-43 -1.586e-42
-2.76e-43 1.04e-43 1.108e-42 6.64e-43 6.56e-43 -1.36e-43 7.1e-44 5.59e-43
-6.03e-43 3.34e-43 5.68e-43 5.93e-43 -4.39e-43 -2.8e-43 -8.52e-43 6.01e-43
-5.42e-43 -1.35e-43 6.81e-43 -6.04e-43 -1.157e-42 -3.0337205e-18 -2.0104668e-18 6.2645805e-19
-3.1268695e-18 -2.7877945e-18 5.6518356e-19 -3.7851552e-19 2.2396538e-19 -1.7421807e-18 -3.91e-43 -4.18e-43
2.03e-43 -5.54e-43 -7.19e-43 6.77e-43 3.2e-43 6.26e-43 -6.68e-43 2.45e-43
1.98e-43 -7.24e-43 7.52e-43 -3.22e-43 3.11e-43 7.51e-43 -4.13e-43 -7.38e-43
-4.68e-43 -4.2e-44 1.188e-42 -6.8e-43 -1.35e-43 4.53e-43 -4.54e-43 2.56e-43
1.127e-42 7.4e-44 3.6e-43 -7.29e-43 -6.18e-43 3.27e-43 -5.98e-43 -2.72e-43
4.64e-43 2.14e-43 6.42e-43 5.31e-43 2.8e-43 5.66e-43 -7e-43 8.37e-43
-2.1e-44 5.93e-43 8.9e-43 9.47e-43 9.15e-43 -1.773e-42 1.35e-43 -1.427e-42
-6.17e-43 2.86e-43 -3.49e-43 -1.495e-42 2.28e-43 6.04e-43 1.045e-42 3.39e-43
5.03e-43 -2.84e-43 -5.83e-43 -4.43e-43 8.58e-43 7.3e-43 -4.22e-43 -1.337e-42
3.6e-43 1.7e-43 -2.75e-43 -3.14e-43 2.55e-43 1.592e-42 9.58e-43 -6.5e-43
1.244e-42 -6.77e-43 4.34e-43 7.26e-43 -3.4e-44 -3.62e-43 -3.8e-44 5.4e-43
-4.26e-43 -3.31e-43 -5.82e-43 -1e-43 5.42e-43 5.44e-43 5.76e-43 1.93e-42
2.47e-43 -5.7e-43 -3.38e-43 7.44e-43 3.64e-43 4.64e-43 6.07e-43 5.13e-43
2.59e-43 -3.55e-43 5.7e-43 5.41e-43 -2.1e-43 -2.12e-43 -7.16e-43 3.46e-43
4.68e-43 3.57e-43 -5.7e-43 -3.3e-43 1.022e-42 3.39e-43 6.2e-43 9.43e-43
-6.54e-43 -2.19e-43 -4.54e-43 -7e-43 -4.71e-43 5.3e-44 -1.42e-43 6.03e-43
5.8e-43 -4.2e-43 -4.54e-43 3.84e-43 3.5e-44 -3.95e-43 -1.7e-44 3.71e-43

bias f4 [64]
00000000: 5bcf f11a 33ff 39bc d3d3 55a0 3f2f 872e
00000010: 7e30 9236 7784 9eae 41f6 7ebb 1de2 f335
00000020: 970e ba32 5c44 81b4 3aa0 c726 71ad 9c23
00000030: c11b b733 e62c 3ba8 1bb3 0c37 a095 ce27
00000040: 9c99 81a1 df71 a6ad 4494 ada4 eb0a 0839
00000050: 0bc7 5ab6 1b95 8331 8a7c 3b1f 33ee c2b5
00000060: 62a0 5d9f 4e43 af20 dd98 2736 0643 6c35
00000070: 2727 9eb2 2b62 9334 5ace 51b2 6e8c 73b6
00000080: af77 5032 d66b aeb7 8f05 1491 c8a2 01b5
00000090: 8182 fe3b 703d d534 967d 0f36 1800 a7b8
000000a0: c397 6e33 a1b7 5b33 4bb0 06b4 c4af 00b2
000000b0: ef55 8ab2 4743 c890 0f20 cb35 1ae7 3734
000000c0: 5f28 f3bc e901 2abc 5b1b cd18 1048 2ab3
000000d0: 3b27 1d29 003b 5c8f 341f 55a0 08ef 4732
000000e0: 1084 471d 0de0 6f2d dcbc 4a26 7c8a 2fb0
000000f0: 1c9c 12b4 eea5 1b3a 13da 65b4 beb5 22b6
1.00010265e-22 -0.011352348 -1.8111889e-19 6.147482e-11 4.3567843e-06 -7.2085386e-11 -0.0038904103 1.8170718e-06
2.1659885e-08 -2.407786e-07 1.3851828e-15 1.698701e-17 8.52665e-08 -1.0390321e-14 8.3863515e-06 5.733871e-15
-8.78204e-19 -1.8922584e-11 -7.527796e-17 0.00012974038 -3.260039e-06 3.829553e-09 3.9701807e-20 -1.4523451e-06
-4.6931236e-20 2.9690692e-19 2.4973917e-06 8.8014383e-07 -1.8411425e-08 2.745231e-07 -1.221232e-08 -3.6291563e-06
1.2134406e-08 -2.0792631e-05 -1.1676854e-28 -4.829312e-07 0.007767022 3.9719043e-07 2.1381761e-06 -7.963198e-05
5.555172e-08 5.115692e-08 -1.2543858e-07 -7.490545e-09 -1.6104392e-08 -7.898975e-29 1.5134009e-06 1.7127277e-07
-0.029682336 -0.010376432 5.301888e-24 -3.964675e-08 3.489503e-14 -1.08582004e-29 -1.8052126e-19 1.1637674e-08
2.6405705e-21 1.3635326e-11 7.033878e-16 -6.386143e-10 -1.3654102e-07 0.0005937506 -2.1406622e-07 -2.424567e-06

weight f4 [64]
00000000: 20a7 4528 be1b 0b3e 85bb 22ae c5df a828
00000010: 8e23 d021 034f 8cba b827 cc3d 5903 0e20
00000020: d832 1fba f797 1839 c370 bb31 ba73 adae
00000030: dcc6 c534 7c08 919c a16c 01b8 5a4f 1ba5
00000040: 4399 3fac a24f e530 2744 86a7 f61f 493b
00000050: b42f 8537 30c0 e6af baae 0c28 c450 97b9
00000060: 20e7 c927 074d 04a9 5ab2 382c 4fbf 733a
00000070: cfdc 14ba e61e 2323 5237 f2b9 40c7 9c39
00000080: d9d3 a32a b976 aea6 d291 69a1 c048 463a
00000090: 7822 9f3d 1278 1138 af98 d13a 9c5c 6739
000000a0: 67fc 07ba d159 83a1 1513 17b8 2094 46b7
000000b0: 5d73 26b7 2f32 229f e34f 529f 17bc aa23
000000c0: 3fcc fe3d 522d c83d f3e0 9dac 263c 0728
000000d0: c0a2 72b4 916a 0ba1 f90e 8ead 2660 cfaf
000000e0: e6c8 411f fe7b d6a0 549f c4b0 5162 04a7
000000f0: 4404 9428 1039 f43b 73ac 1eb9 465d 09b9
1.0971936e-14 0.13584802 -3.7001086e-11 1.8748791e-14 1.410404e-18 -0.00107047 0.09968513 1.2028975e-19
-0.0006072945 0.00014552461 5.455236e-09 -7.887686e-11 3.68388e-07 -9.597488e-22 -3.0857165e-05 -1.3470992e-16
-2.722781e-12 1.6684576e-09 -3.7266362e-15 0.0030689216 1.5877049e-05 -4.1973314e-10 7.809449e-15 -0.0002886114
5.6039293e-15 -2.93767e-14 2.6246978e-12 0.00092982216 -0.0005678655 8.842791e-18 -0.00046199054 0.00029903091
2.9101615e-13 -1.2105855e-15 -7.913646e-19 0.0007563941 0.07770246 3.4682518e-05 0.0015990938 0.00022064376
-0.0005187452 -8.90068e-19 -3.6018977e-05 -1.1836208e-05 -9.921231e-06 -3.4346345e-20 -4.453531e-20 1.8511096e-17
0.124413006 0.09774269 -4.4871828e-12 7.507048e-15 -2.2597214e-07 -4.723607e-19 -1.615018e-11 -3.7721398e-10
4.103552e-20 -3.633506e-19 -1.4306161e-09 -1.8371977e-15 1.643315e-14 0.0074530914 -0.00015132297 -0.00013100085

bias f4 [64]
00000000: 8f0d 36b6 3d5f 4b3e b2d9 22bb b117 08bb
00000010: 854d 13b1 cd66 98ba fd4f 1e3e 55aa 01af
00000020: e892 ffba 7aaf 8db9 d5d1 02bb 1bb9 15bb
00000030: f26b bcba ddd4 d0b2 b296 cdb8 a6b4 28b4
00000040: 8473 e7ba 6642 d5ba 1a2d 22bb 9afc 6a3d
00000050: a3cc deb8 e4dd 2bbb e127 1dbb f846 48ba
00000060: 8f2a 08bb e554 28bb ee8c d3ba 33c2 bcba
00000070: b2c0 edba 9f6f 36b2 3b73 deba 283d d2b9
00000080: a497 bcba 7526 d9b5 0e49 39b2 8fa1 98ba
00000090: f085 003e e45a 5bb9 b84c 1abb 9676 b0b9
000000a0: 98a4 8bba 78cb 3fb3 8da7 8cb8 9234 c7ba
000000b0: 431d 37ba 7e57 f1b7 1f92 a1b5 a355 70b4
000000c0: 9c21 353e 8b11 fd3d b618 3dba b2cd f5ba
000000d0: 7f8f 2bba d20f eab3 19af 23bb 86f6 1ebb
000000e0: 612c 1eb3 9053 e9b4 d047 12ba c1b3 26bb
000000f0: 73c3 20bb bbea 1c3d 6972 9ab9 89f8 6cb9
-2.7128006e-06 0.1986055 -0.0024848995 -0.0020766074 -2.143538e-09 -0.0011627317 0.154602 -1.1792996e-10
-0.0019498738 -0.00027024356 -0.0019961495 -0.0022845927 -0.0014375432 -2.4311186e-08 -9.803231e-05 -1.5711939e-07
-0.0017658328 -0.0016270399 -0.002474612 0.057369806 -0.000106239015 -0.0026224786 -0.0023980069 -0.00076399697
-0.002077732 -0.0025685367 -0.0016140023 -0.0014401138 -0.0018139093 -1.0619174e-08 -0.0016971597 -0.00040099886
-0.0014388454 -1.6178952e-06 -1.0785028e-08 -0.0011644828 0.12551093 -0.00020919327 -0.0023544263 -0.0003365769
-0.0010653911 -4.4655707e-08 -6.706929e-05 -0.0015198162 -0.00069852563 -2.877018e-05 -1.2037962e-06 -2.2382896e-07
0.17688602 0.12356862 -0.000721346 -0.0018753319 -0.0006544515 -1.0899352e-07 -0.0024976193 -0.0024255826
-3.6827604e-08 -4.3460432e-07 -0.0005580159 -0.0025436732 -0.002453056 0.038309794 -0.0002945841 -0.000225993

running_mean f4 [64]
00000000: fc75 00b7 ce15 ae3e a108 36b6 ad5d a730
00000010: 48c8 9036 9cd9 98b9 a44c 633e f91f aa37
00000020: ec57 32bb 39b7 8dba 41b7 2f39 8ccc 30b6
00000030: 3ff2 fe38 41c4 86af b425 353c 8eaa a6b7
00000040: ad4f 1eb3 244e 4a38 5113 0f37 c653 033e
00000050: 1a8e 493b 3261 6039 4842 87b6 9864 073c
00000060: 9527 30b9 8a5b 2db8 1b7d 4c36 2a6d 2dbd
00000070: ae45 84bc b60c ba37 ad18 bb3c e12e 463d
00000080: 5a3f 8a39 2c38 c0b7 4bda 9836 591c 1cbc
00000090: 1f9d cc3e 84f9 d33c 8e42 b23a 0d58 e5bc
000000a0: 0c1a c3bb 5f5b acb2 648b a63c 83f9 af3b
000000b0: 609d b1bc 0b12 09b9 b090 91b7 d081 2ab9
000000c0: 70ad 6a3d 6dbd 973e d51a 4339 7309 dab7
000000d0: 6bdc 55b5 6fa0 5637 dc48 e7b5 6a22 d4b7
000000e0: 3679 ddb7 1dbf 24b7 d35b 2f37 a003 65b6
000000f0: 66d7 71b8 5308 133e 04f1 f53c bc2d 51bb
-7.656865e-06 0.3400101 -2.7125136e-06 1.2177473e-09 4.3148502e-06 -0.0002915383 0.22197205 2.0280468e-05
-0.002721305 -0.0010812051 0.00016757568 -2.6345106e-06 0.00012156786 -2.4513905e-10 0.011056352 -1.9868163e-05
-3.6859706e-08 4.8233327e-05 8.527962e-06 0.12824926 0.0030754865 0.00021398513 -4.0310297e-06 0.0082637295
-0.00016799413 -4.1331667e-05 3.047119e-06 -0.042340435 -0.016146507 2.2178847e-05 0.022838915 0.04838455
0.00026368612 -2.291434e-05 4.5553656e-06 -0.009528243 0.39963624 0.025875814 0.0013600157 -0.027996087
-0.0059540328 -2.0064986e-08 0.020330139 0.0053703203 -0.021681488 -0.0001307206 -1.7352722e-05 -0.00016260822
0.05729431 0.29636708 0.00018606645 -2.5992025e-05 -7.9669434e-07 1.2792748e-05 -1.7232046e-06 -2.5288395e-05
-2.6401696e-05 -9.819659e-06 1.0452192e-05 -3.412577e-06 -5.7659483e-05 0.14358644 0.030022152 -0.003191813

running_var f4 [64]
00000000: b736 8017 c6b7 673a e9fc 0a16 b3c9 4812
00000010: b736 8016 6e96 9436 76ab ee3a 0400 0000
00000020: fb08 bf39 1d2c 003c 1cf3 e923 a696 8b1e
00000030: ab00 092b 0400 0000 2c18 c43a 0400 0000
00000040: d0c1 3d1a fbbd 8d22 0400 0000 7989 8d3b
00000050: 6ce7 9239 ae36 801b 0400 0000 02d6 0e3b
00000060: 0400 0000 0400 0000 d768 871e c818 4a3c
00000070: da47 023a 0400 0000 8d04 ee39 c789 133a
00000080: ae36 801b b736 8018 0400 0000 2352 f439
00000090: d6d9 763b 7f6c dc38 8003 303b b3d9 a73a
000000a0: 5a99 b439 0400 0000 201c 2039 b6ef c23a
000000b0: f5cf 3f3a 0400 0000 0400 0000 0400 0000
000000c0: 57d0 683a f53b 823a ae36 801b 0400 0000
000000d0: 0d1f 9329 0400 0000 539d 2b15 5dcc 5119
000000e0: ae36 8018 b736 8017 1454 9322 0400 0000
000000f0: 0400 0000 e959 b63b e105 e338 5e45 203c
8.285618e-25 0.0008839335 1.1227356e-25 6.3357486e-28 2.0714045e-25 4.428256e-06 0.0018209058 6e-45
0.0003643705 0.007823017 2.5364871e-17 1.4779504e-20 4.8673104e-13 6e-45 0.0014960817 6e-45
3.9240844e-23 3.8419276e-18 6e-45 0.0043193665 0.00028019713 2.121116e-22 6e-45 0.002179504
6e-45 6e-45 1.4337042e-20 0.01233501 0.0004969813 6e-45 0.00045398288 0.00056281354
2.121116e-22 3.3142472e-24 6e-45 0.00046600503 0.0037666461 0.000105106265 0.0026857555 0.0012805968
0.0003444653 6e-45 0.00015269266 0.0014872465 0.000731706 6e-45 6e-45 6e-45
0.0008881143 0.0009936081 2.121116e-22 6e-45 6.533498e-14 6e-45 3.4657282e-26 1.08463176e-23
3.3142437e-24 8.285618e-25 3.993345e-18 6e-45 6e-45 0.0055649173 0.000108252985 0.009782163
