SND_trackers_My_data/9X0_file/19_9X0_coordconv_Label.pt (torch_old, 323020 bytes, 25 tensors)

weight f4 [32, 7, 3, 3]
0	0x3c4f9692	0.012670176
1	0x3c7c0746	0.0153825935
2	0x3c917a88	0.017758623
3	0x3bc25ab8	0.0059312247
4	0xbb6bcdb8	-0.0035980772
5	0xbbb38037	-0.005477931
6	0xbcef91a6	-0.029244255
7	0xbcdf7516	-0.02727751
8	0xbc0ede8f	-0.008720054
9	0x3c8a73d1	0.016900929
10	0xbd050e11	-0.032484118
11	0xbc887c8a	-0.016660947
12	0x3c81b703	0.015834337
13	0xbd00efa1	-0.031478528
14	0x3c895fd7	0.016769333
15	0x3cb11197	0.021614833
16	0x3b218d6a	0.002465094
17	0x3b8499bd	0.0040466473
18	0x3c117cd0	0.008879855
19	0x3bc6fbf4	0.0060725156
20	0x3c529f0e	0.012855304
21	0x3c0d1c45	0.008612697
22	0x3c11784f	0.008878781
23	0x3bc700da	0.0060730996
24	0x3c528c12	0.012850778
25	0x3c0d6f2c	0.0086324625
26	0x3c116af1	0.0088755945
27	0xbde54254	-0.11194292
28	0xbdd70dee	-0.10500704
29	0x3d183af6	0.037165605
30	0xbda28b43	-0.07936718
31	0xbdd5a1c7	-0.10431247
32	0x3db6fdd2	0.08935131
33	0xbd0c8ccc	-0.034313962
34	0xbdad2ba8	-0.084555924
35	0xbdbefa22	-0.09325053
36	0x3cd620df	0.026138721
37	0x3d8b59a7	0.06804209
38	0xbccab8ec	-0.02474638
39	0xbd46fa22	-0.04857839
40	0x3d0d7201	0.03453255
41	0x3cd0a5c9	0.025469678
42	0x3db1700d	0.0866395
43	0xbd4d3d25	-0.05010714
44	0xbda47add	-0.08031247
45	0xbc999f63	-0.01875276
46	0xbb82e15b	-0.0039941496
47	0x3d4b3cd7	0.04961857
48	0x3d1abf54	0.03778012
49	0x3c318200	0.010834217
50	0x3cf2cc1e	0.029638346
51	0x3d09bbd7	0.033626404
52	0xbd12a0a7	-0.03579774
53	0x3d05ac98	0.0326353
54	0x3dc3c117	0.09558313
55	0x3c432850	0.011911467
56	0x3d34a695	0.044104178
57	0x3d350a63	0.04419936
58	0x3d46d5ba	0.04854367
59	0x3c31799f	0.010832219
60	0x3ce7ede7	0.028311683
61	0xbc5d52fb	-0.013508554
62	0x3ca484b0	0.020082802
63	0x3c913c81	0.017729046
64	0x3c94a7d2	0.01814643
65	0x3c958686	0.018252622
66	0xbb070238	-0.0020600688
67	0xbb0496a8	-0.00202314
68	0xbb198344	-0.0023424188
69	0xbcc36c3e	-0.023855325
70	0xbcc658fa	-0.02421235
71	0xbcc3ab53	-0.023885405
72	0x3bc2c220	0.0059435517
73	0x3c0910ec	0.008365851
74	0xbbdd20e3	-0.006748305
75	0x3b922f53	0.004461208
76	0x3c22bb13	0.009932297
77	0xbbd37dab	-0.00645419
78	0x3bb0a222	0.0053904215
79	0x3c148d15	0.00906684
80	0xbbe0be4e	-0.0068586236
81	0x3a3a57f8	0.0007108445
82	0xbb60b035	-0.0034284715
83	0xbbfea1b6	-0.0077707423
84	0xbb1b1fbe	-0.0023670043
85	0x3a39d10c	0.00070883404
86	0xbb60a0b9	-0.0034275486
87	0xbbfeda0f	-0.0077774595
88	0xbb1bc122	-0.002376624
89	0x3a3a84c8	0.0007115123
90	0xbd40a46f	-0.047031816
91	0x3db1d1fc	0.086826295
92	0x3d874464	0.06604841
93	0xbda799d5	-0.08183638
94	0x3d6f9bea	0.0584983
95	0x3c1b4f8b	0.009479414
96	0x3d6010c8	0.054703504
97	0x3dad37b0	0.08457887
98	0x3bfbc546	0.007683429
99	0x3d36cc9c	0.044628724
100	0x3d824968	0.063616574
101	0x3df3c38e	0.119025335
102	0x3daa5edc	0.08318874
103	0x3de2b04b	0.110687815
104	0xbcc66b9e	-0.024221238
105	0xbd3acf4c	-0.04560785
106	0xbd8af315	-0.067846455
107	0x3d320d01	0.043469433
108	0x3cadf265	0.021233747
109	0xbd54bbec	-0.05193703
110	0x3d6b461f	0.05743992
111	0x3cf2facd	0.029660607
112	0xbcccf5be	-0.025019523
113	0x3d9014ed	0.07035241
114	0x3d8ff87a	0.07029815
115	0x3d057abd	0.032587755
116	0x3c83fa51	0.016110571
117	0xba93d2ac	-0.0011277995
118	0xbc4ed74b	-0.012624572
119	0x3d5bb715	0.053641398
120	0x3d0ad506	0.03389456
121	0x3c2c7156	0.010525068
122	0xba392106	-0.0007062111
123	0x3c933591	0.017969878
124	0x3d9a20fd	0.07525823
125	0x3d287dce	0.0411356
126	0xb9322cea	-0.00016992135
127	0xbacaf5e8	-0.0015484663
128	0xbb957999	-0.0045616147
129	0xbc5bd604	-0.0134177245
130	0xbc6947f5	-0.014238347
131	0xbc338e8b	-0.010959278
132	0x3c28f7d4	0.010312993
133	0x3c0c8736	0.008577159
134	0x3c22760c	0.00991584
135	0x3c4eca27	0.012621439
136	0xbb7adbfc	-0.0038278094
137	0xbbdf4b6d	-0.0068144114
138	0x3c5eb3e9	0.013592699
139	0x39908d1a	0.0002757095
140	0xbbe46182	-0.0069696316
141	0x3c4d9dbf	0.012549817
142	0xbbc36d8d	-0.005963987
143	0xbb983342	-0.0046447823
144	0xbc30cf0e	-0.010791553
145	0xbc0d3c34	-0.008620311
146	0xbbb210b4	-0.00543412
147	0xbbbaf8b9	-0.0057059196
148	0xbc30cf5b	-0.010791625
149	0xbc0d3bcc	-0.008620214
150	0xbbb2105a	-0.005434078
151	0xbbbaf8a3	-0.0057059093
152	0xbc30cf78	-0.010791652
153	0xbd6b7c2b	-0.057491463
154	0x3cedac89	0.029012935
155	0x3d43a2cf	0.04776269
156	0xbc8f670d	-0.017505193
157	0xbcf0faa6	-0.029416393
158	0xbdece3d5	-0.11566893
159	0xbd23f3c1	-0.040027384
160	0xbd8a4472	-0.06751336
161	0xbd1bf708	-0.038077384
162	0xbc9aaf40	-0.018882394
163	0x3c21fc10	0.009886757
164	0xbc8cb6ff	-0.017177103
165	0x3cdccfc1	0.026954534
166	0xbdb1fc42	-0.086906925
167	0x3d8e1db8	0.06939262
168	0x3d30b89a	0.0431448
169	0xbc8d9b4c	-0.017285965
170	0xbaa0df18	-0.0012273518
171	0xbb94302e	-0.004522345
172	0xbdd4c85c	-0.10389778
173	0xbdf545cb	-0.119762026
174	0xbd15af99	-0.036544416
175	0xbd4fbd91	-0.050717894
176	0xbde1d462	-0.11026837
177	0xbce3e32e	-0.027818289
178	0xbcf7be45	-0.030242095
179	0xbd9bb59b	-0.07602998
180	0x3cfafc1a	0.03063779
181	0x3d4affa6	0.04956021
182	0xbc9e47e4	-0.01932139
183	0xbd1f223b	-0.038851004
184	0x3dc3ff49	0.09570176
185	0xbc1b7310	-0.009487882
186	0xbd2ef9f3	-0.04271884
187	0xbdb47c14	-0.088127285
188	0x3d7f4e98	0.062330812
189	0x3a36d319	0.0006974205
190	0x3a3a8b68	0.000711611
191	0x3a4dfef9	0.0007858123
192	0x3ca1e8ee	0.01976439
193	0x3ca1aa4c	0.019734524
194	0x3ca1d3c6	0.019754302
195	0x3bb8531b	0.0056251413
196	0x3bba5eed	0.0056875856
197	0x3bb78058	0.0056000166
198	0x3be20048	0.006897006
199	0xbcb2d76c	-0.021831237
200	0xbccaafd8	-0.024742052
201	0x3be0a8b7	0.00685605
202	0xbcb1cd69	-0.021704393
203	0xbcc5dc09	-0.024152773
204	0x3bd8fa43	0.0066216304
205	0xbcb42583	-0.021990543
206	0xbcca9363	-0.024728483
207	0x3a21a848	0.00061667385
208	0x3af4ff5d	0.0018691827
209	0x3992d8d1	0.0002800883
210	0x3b886b68	0.0041631944
211	0x3a21491e	0.0006152558
212	0x3af528b3	0.0018704146
213	0x3992d961	0.0002800925
214	0x3b886c28	0.004163284
215	0x3a21491e	0.0006152558
216	0xbc95a4f3	-0.01826713
217	0x3d4d1cc9	0.05007628
218	0xbd5c835d	-0.053836215
219	0x3d7b31df	0.061326858
220	0x3cadb630	0.021205038
221	0xbd0034b2	-0.031300254
222	0x3de897ef	0.11357104
223	0xbd55abfe	-0.052165978
224	0xbd81e0cd	-0.063417055
225	0x3d353d57	0.04424795
226	0x3db0a8e0	0.0862596
227	0xbd239d92	-0.039945193
228	0xbd2ce71c	-0.04221259
229	0x3c683df5	0.014174928
230	0xbd387d33	-0.045041274
231	0x3d55a209	0.052156482
232	0x3d7d55da	0.061849453
233	0x3d607475	0.054798562
234	0x3c8e01b9	0.017334806
235	0xbc8c1eb9	-0.017104493
236	0xbca9c2c1	-0.020722749
237	0xbd5fe135	-0.054658134
238	0xbc3944e6	-0.011307931
239	0x3c256acc	0.010096263
240	0xbd59b67e	-0.053152554
241	0x3b3e515d	0.0029040196
242	0xbd217752	-0.039420433
243	0x3cfac70b	0.03061249
244	0x3bf916d3	0.007601598
245	0x3d0bd0d2	0.034134693
246	0x3be55f55	0.00699989
247	0xbc25bfc5	-0.010116522
248	0xbc1dbe22	-0.009627851
249	0xbc454480	-0.012040257
250	0xbd60be50	-0.054868996
251	0xbd29d8a2	-0.041466363
252	0x3c46d367	0.012135363
253	0x3c3a522d	0.011372131
254	0x3c32e279	0.010918253
255	0xbc58c59a	-0.013230706

bias f4 [32]
0	0xbb4d9132	-0.003136706
1	0xbbc4bd27	-0.006003994
2	0x3c2bb036	0.010479024
3	0xbc19aad6	-0.009379109
4	0x3d077f4c	0.033080384
5	0x3ab418a0	0.0013740249
6	0x3c0a4480	0.008439183
7	0xbbc9a13c	-0.006153254
8	0x3ba452f5	0.005014772
9	0x3a5de3f9	0.00084644515
10	0xbd478735	-0.048712928
11	0xbb8560ea	-0.004070391
12	0x3d0fb956	0.03508886
13	0x3c676446	0.014123028
14	0xba82562b	-0.0009943893
15	0x3b55738f	0.00325701
16	0xbbc678ec	-0.0060568955
17	0x3cc0d44b	0.02353873
18	0xbc857ef5	-0.01629589
19	0xbc7a3136	-0.015270522
20	0x3c96b0a5	0.018394778
21	0x3c4b802f	0.012420698
22	0xbb441205	-0.0029917967
23	0xbbedaf3e	-0.0072535565
24	0x3bdbdb67	0.0067095044
25	0xbc318cbb	-0.010836775
26	0x3c6496b4	0.013951946
27	0x3b7212f2	0.0036937562
28	0xbc9132e6	-0.017724466
29	0x3bc6b12a	0.0060636
30	0x3cab9b4f	0.02094808
31	0x3b7aa6be	0.0038246359

weight f4 [32]
0	0x3f32c2ab	0.6982829
1	0x3eed69ec	0.46369874
2	0x3ee47b2d	0.44625226
3	0x3efb9cd0	0.49143076
4	0x3ef7786b	0.4833406
5	0x3eb89780	0.36053085
6	0x3ec4e5bf	0.38456532
7	0x3edbb5f3	0.42912254
8	0x3f147bc8	0.58001375
9	0x3f0c361b	0.5477006
10	0x3ed22bfc	0.41049182
11	0x3efafe6a	0.49022228
12	0x3ecbea7a	0.3982733
13	0x3f44d827	0.7689232
14	0x3ef73029	0.4827893
15	0x3ed83c6b	0.42233595
16	0x3ed5b088	0.41736245
17	0x3f02de7c	0.51120734
18	0x3ed6c9fd	0.4195098
19	0x3f133420	0.5750141
20	0x3ed269ba	0.41096288
21	0x3f044f8f	0.51683897
22	0x3f100324	0.5625479
23	0x3ec64b14	0.38729155
24	0x3edfdb7d	0.43722144
25	0x3eb2ccb8	0.34921813
26	0x3eac9441	0.3370686
27	0x3f0316d4	0.5120671
28	0x3f1b269c	0.6060579
29	0x3ec4bf76	0.38427323
30	0x3ec62d3e	0.38706392
31	0x3f0dbead	0.55369073

bias f4 [32]
0	0x3cb07f2c	0.021545015
1	0x3dfcf2cc	0.12350997
2	0xbc65688a	-0.014001975
3	0x3caf15ae	0.021372642
4	0x3df25eab	0.11834463
5	0x3dd7338a	0.10507877
6	0x375a2640	1.3002718e-05
7	0x3c5748d9	0.013139927
8	0x3dbbd4f0	0.09171474
9	0xbce65654	-0.028117336
10	0x3abb939f	0.0014310962
11	0x3d9e83c9	0.0773998
12	0x3d6fde7e	0.058561794
13	0x3dcadd46	0.09905486
14	0xbd37925c	-0.044817314
15	0xbd3b3200	-0.04570198
16	0x3c8f828f	0.01751831
17	0x3cded246	0.027199876
18	0xbcbe0fb4	-0.023200847
19	0x3d81d8fd	0.06340215
20	0xbca55e05	-0.020186434
21	0x3e0576d7	0.13033615
22	0x3c9f607b	0.019455185
23	0x3d0aa765	0.033851046
24	0x3d17d729	0.037070427
25	0x3d87cd1c	0.066309184
26	0x3d5fb637	0.054617133
27	0x3d774da2	0.06037677
28	0x3c2f8ceb	0.01071475
29	0x3dfc982f	0.12333714
30	0xbbec0996	-0.007203291
31	0xbd915745	-0.070967235

running_mean f4 [32]
0	0x3daf7514	0.08567253
1	0x3e7c82a5	0.24659212
2	0xbd8b0e99	-0.06789894
3	0x3e319d38	0.1734513
4	0x3da5832a	0.08081658
5	0x3ebac262	0.36476427
6	0x3dddcfd7	0.10830658
7	0x3e26ab5f	0.1627631
8	0x3eabf9c1	0.33588985
9	0x3e3a6ebe	0.18206307
10	0xbe085470	-0.1331346
11	0x3e535afa	0.20640174
12	0x3d1c0598	0.038091272
13	0x3df69301	0.120397575
14	0xbe0966f1	-0.13418175
15	0xbe09ad6b	-0.1344506
16	0xbdc23bc1	-0.094840534
17	0xbe88c6b8	-0.2671411
18	0x3e064dd2	0.13115624
19	0x3eb47c0f	0.352509
20	0x3e6d83c6	0.23194799
21	0x3e7f511d	0.24933286
22	0xbe3d222b	-0.18470065
23	0xbd3cbdab	-0.04607932
24	0xbe3711d9	-0.17877902
25	0x3e23adb6	0.15984234
26	0x3eac656e	0.33671135
27	0x3d7dee65	0.06199493
28	0x3e9764f4	0.2956921
29	0x3ea7b8e4	0.32758248
30	0xbcacdd84	-0.02110172
31	0x3e312934	0.17300874

running_var f4 [32]
0	0x3eef21aa	0.4670537
1	0x3fc33c62	1.5252802
2	0x3dffb811	0.1248628
3	0x3f1dbcbe	0.6161612
4	0x3f1708a9	0.5899759
5	0x3f93d20e	1.1548479
6	0x3d9988a2	0.07496764
7	0x3dba0077	0.0908212
8	0x3eedaed0	0.46422434
9	0x3f505911	0.81385905
10	0x3dde6bd6	0.10860412
11	0x3e4f31b9	0.20233811
12	0x3d8f6022	0.07000758
13	0x3fac3278	1.3452902
14	0x3e409e31	0.18810345
15	0x3e90b578	0.2826345
16	0x3d7ff4ce	0.062489323
17	0x3e232290	0.15931153
18	0x3e1fc4ce	0.15602419
19	0x3fded979	1.7410117
20	0x3ed62f08	0.41832757
21	0x3fab7c30	1.3397274
22	0x3e2905bc	0.16506094
23	0x3db655e3	0.089031
24	0x3e8b3cee	0.27194923
25	0x3f85a9bd	1.0442425
26	0x3eb9030b	0.36135134
27	0x3e584503	0.21120076
28	0x3f6a2009	0.9145513
29	0x3fd947a7	1.6974992
30	0x3e8bb530	0.27286673
31	0x3eb39fa2	0.35082728

weight f4 [32, 35, 3, 3]
0	0xbc8be7b0	-0.01707825
1	0xbc8be3dd	-0.017076427
2	0xbc8be2eb	-0.017075976
3	0xbd2ecabc	-0.04267381
4	0xbd2ecdb3	-0.04267664
5	0xbd2ed025	-0.04267897
6	0xbd4cdc39	-0.05001471
7	0xbd4ce2eb	-0.050021093
8	0xbd4cdf56	-0.050017677
9	0x3c5c8953	0.013460475
10	0xbaa8f231	-0.0012889561
11	0x3a7acab2	0.0009566947
12	0x3c5c8d42	0.013461413
13	0xbaa93320	-0.0012908913
14	0x3a7ac48b	0.00095660303
15	0x3c5c8912	0.0134604145
16	0xbaaa0677	-0.0012971897
17	0x3a7a49d0	0.0009547742
18	0xbacbdbc6	-0.0015553168
19	0xba411f16	-0.0007366998
20	0xbac58d32	-0.0015071987
21	0xbaff2139	-0.0019464857
22	0xbacbe652	-0.0015556312
23	0xba413c6e	-0.00073713704
24	0xbac5798a	-0.0015066129
25	0xbaff1c49	-0.0019463386
26	0xbacbcb40	-0.0015548244
27	0xbd17c3b7	-0.037051883
28	0x3c263181	0.010143639
29	0x3c2e9f0c	0.010658037
30	0x3b93c193	0.00450916
31	0xbd28d853	-0.041221928
32	0xbb103116	-0.0022001914
33	0x3c9583c4	0.018251307
34	0x3d0f5dd0	0.035001576
35	0xbbafb64b	-0.005362307
36	0x3c8f0000	0.017456055
37	0x3d26d8fc	0.040734276
38	0xbb44814b	-0.0029984291
39	0x3cbd36ab	0.023097357
40	0xbbf9b2a6	-0.0076201735
41	0x3cb90ba1	0.022588553
42	0x3bc450a4	0.0059910584
43	0x3c6e36c4	0.014539424
44	0x3bd53f38	0.0065077804
45	0xb9b5a05a	-0.00034642481
46	0xbca105f5	-0.01965616
47	0x3c931290	0.017953187
48	0x3a5ed9f0	0.0008501103
49	0x3b93361e	0.0044925353
50	0xbc5b48d1	-0.01338406
51	0x3d12b279	0.035814736
52	0x3c9b63ff	0.01896858
53	0x3cca8773	0.02472279
54	0x3be603b5	0.007019485
55	0xbc004541	-0.007829011
56	0x3b87553c	0.004130034
57	0x3c7c3bf8	0.015395157
58	0xbc6941ef	-0.014236911
59	0x3cbe8c91	0.023260387
60	0x3a5ff678	0.00085435016
61	0x3bd303e1	0.0064396714
62	0xbaa5dcd1	-0.0012654309
63	0x3c57c64b	0.013169835
64	0xbcb794cd	-0.02240982
65	0x3c25ff5d	0.010131684
66	0x3a9da157	0.0012026232
67	0x3cc026d4	0.023456015
68	0xbc4a6dd4	-0.012355287
69	0x3bb084cb	0.005386924
70	0x3c14ffa8	0.009094156
71	0x37a59fa7	1.9743877e-05
72	0x3d12804d	0.03576689
73	0x3cb586fb	0.02215909
74	0x3b8d1783	0.0043057813
75	0x3c5af3dc	0.013363805
76	0x3bdb26c6	0.0066879718
77	0x3b9b8a59	0.004746717
78	0x3cccad0f	0.024984865
79	0xbc31e79d	-0.010858444
80	0x3c8f8686	0.0175202
81	0x3d0a736a	0.033801474
82	0xbb43232e	-0.0029775607
83	0x3c041749	0.008062192
84	0x3c3a7996	0.011381527
85	0xbb7384f2	-0.00371581
86	0xbcb84127	-0.022492005
87	0x3be43681	0.006964505
88	0x3cb318a2	0.021862332
89	0x3ce69bd2	0.028150473
90	0x3cc80ddf	0.024420677
91	0x3c350af8	0.011049978
92	0x3a8b86ba	0.001064501
93	0xbba16e48	-0.0049264766
94	0xbd3aa666	-0.045568846
95	0xbc93bd43	-0.018034583
96	0xbca03373	-0.019555783
97	0x3c267345	0.010159318
98	0x3c5ed597	0.0136007285
99	0xbb6a372b	-0.003573845
100	0x3c97fcec	0.01855322
101	0x3c5e87b8	0.013582163
102	0xb99ab3f8	-0.00029507256
103	0xbc041e67	-0.008063889
104	0x3d4e410c	0.050355002
105	0x3c7be3f7	0.015374175
106	0xbcf04e90	-0.029334337
107	0xbce0507d	-0.02738213
108	0x3d2d3cf7	0.04229447
109	0xbcb5fe37	-0.022215946
110	0xbbded440	-0.0068002045
111	0xbb7d823f	-0.003868237
112	0x3c5710c9	0.0131265605
113	0x3cf47a82	0.029843573
114	0x3c420cb0	0.011843845
115	0xbbfccc56	-0.0077147884
116	0xbba14e42	-0.004922659
117	0x3d19004c	0.0373538
118	0x3cff23b9	0.031144964
119	0xbbc50738	-0.0060128234
120	0xbc5e048d	-0.01355089
121	0x3c161c55	0.009162028
122	0x3cfe8459	0.031068968
123	0xbc59cbb4	-0.0132931955
124	0x3c65b960	0.014021248
125	0xbc81327c	-0.015771143
126	0xbc9a731a	-0.018853713
127	0x3b48bdef	0.0030630787
128	0xbc24fd62	-0.010070177
129	0xbc53b78c	-0.012922179
130	0xbbd894bd	-0.006609528
131	0x3cc84cf2	0.024450753
132	0x3c00b434	0.007855464
133	0xbb948854	-0.004532853
134	0x3cd84d27	0.026403977
135	0xbc530333	-0.012879181
136	0xbbe0a3c7	-0.0068554613
137	0xbca92f48	-0.020652428
138	0xba31ab58	-0.00067775464
139	0x3b760c2b	0.0037543874
140	0x3b1ad43e	0.0023625041
141	0x3c8a3bff	0.016874311
142	0x3cd3230f	0.025773553
143	0x3cdf931c	0.027291827
144	0x3d0dd881	0.034630302
145	0x3bde127e	0.006777107
146	0x3c6993f4	0.014256466
147	0x3cfdaf5d	0.030967409
148	0x3bd2cbe0	0.006432995
149	0x3cf9490c	0.03043034
150	0xbca9c644	-0.020724423
151	0xbc9ffe27	-0.019530369
152	0xbb4cc61e	-0.0031246017
153	0xbd30bc7e	-0.04314851
154	0xbd03a20f	-0.032136973
155	0x3c6f3306	0.014599567
156	0xbae2ad71	-0.0017294121
157	0xbc98af33	-0.018638229
158	0xbd047988	-0.032342464
159	0x3b8bbc5d	0.004264398
160	0x3c13438f	0.008988275
161	0x3b918027	0.004440326
162	0x3a5e3878	0.00084770424
163	0x3aa11e3e	0.0012292338
164	0x3c1dca4b	0.00963075
165	0x3c6bab63	0.0143841235
166	0xbb75d6ef	-0.0037512144
167	0xbc5388e9	-0.01291106
168	0xbca622e5	-0.02028031
169	0x3bd347b5	0.006447757
170	0xbb5eaea9	-0.0033978617
171	0x3b5d0054	0.003372212
172	0x3d1023bd	0.035190333
173	0xbc2f7444	-0.010708872
174	0x3bd73cb5	0.006568516
175	0xbd28ba83	-0.041193496
176	0xbd2e4e1e	-0.042554967
177	0xbcaaf4f8	-0.020868763
178	0xbb0e1ddd	-0.002168528
179	0xbcaba633	-0.020953273
180	0x3cc18b90	0.023626119
181	0x3cef1ee7	0.02918954
182	0x3d4d6d1e	0.05015289
183	0x3caf2afd	0.021382803
184	0x3c6565e9	0.014001348
185	0x3c8a584e	0.01688781
186	0x3cb3e727	0.021960808
187	0x3d0f3212	0.03495986
188	0xbc4dc5b1	-0.01255934
189	0x3d4c6603	0.049901973
190	0xbc648bc9	-0.013949343
191	0x3b9ddec1	0.004817814
192	0xbc0ab1b4	-0.008465219
193	0x3c8d8b64	0.01727838
194	0xbbcc4ab5	-0.0062344917
195	0xbc4c4ef0	-0.012469992
196	0x3d1c7bb0	0.038203895
197	0x327205b1	1.4087548e-08
198	0xbcbfed0f	-0.023428468
199	0x3c46e3ea	0.0121393
200	0x3cbced1e	0.023062285
201	0x3cf0a419	0.029375123
202	0x3b2c1884	0.002625973
203	0x3ca13b75	0.019681672
204	0x3c4324e7	0.011910654
205	0x3d06b38e	0.03288608
206	0x3c8b1bb1	0.016980978
207	0x3ce7a4ad	0.028276766
208	0x3c255157	0.010090194
209	0x3c966484	0.018358476
210	0xbb100152	-0.0021973443
211	0x3c3cfae9	0.011534431
212	0x3b6f3b43	0.0036503829
213	0x3c545678	0.012960069
214	0x3bf43f02	0.0074538
215	0x3be11dfe	0.0068700304
216	0x3d2fa16f	0.042878564
217	0x3c41e478	0.011834256
218	0x3c792afc	0.015208002
219	0xbc941c77	-0.01807998
220	0x3bfc08a2	0.007691459
221	0x3c96cfc0	0.01840961
222	0xbb94baf5	-0.0045388886
223	0x3ca89732	0.020579908
224	0x3ca3069a	0.019900609
225	0xbd0f48a5	-0.03498139
226	0x3bd8403f	0.0065994556
227	0xbcf64541	-0.03006232
228	0x3bfb37c9	0.007666562
229	0xbc4b4c56	-0.012408337
230	0x3c791950	0.015203789
231	0xbc41db63	-0.011832091
232	0x3bfa386b	0.00763612
233	0xbc8ccb25	-0.01718671
234	0x3cbb1bc0	0.02284038
235	0x3d81a441	0.06330157
236	0xbc16f23b	-0.009213026
237	0x3c502f2a	0.012706557
238	0x3c59d886	0.013296252
239	0xbba27e5d	-0.0049589113
240	0x3ab6aa11	0.0013936182
241	0x3c25eddb	0.01012751
242	0x3d3d1ff9	0.04617307
243	0x3d1c4425	0.038150925
244	0xbc8c423d	-0.017121429
245	0x3c792a3d	0.015207824
246	0xbbdefc3a	-0.00680497
247	0x390334d7	0.00012512818
248	0x3c4efd00	0.012633562
249	0xba065ab3	-0.00051252096
250	0x3cd1a350	0.025590569
251	0xbc9f5f31	-0.01945457
252	0x3cbb0fba	0.022834647
253	0x3bdf3254	0.0068114195
254	0xbbf10abb	-0.0073560155
255	0x3c33754b	0.010953258

bias f4 [32]
0	0x3a297e98	0.00064657023
1	0xbb7ceee3	-0.0038594536
2	0x39eb91e7	0.000449314
3	0xbb0bd15a	-0.00213345
4	0x3abe802e	0.001453405
5	0x39e0d145	0.00042880527
6	0x3bcd29ce	0.006261087
7	0xb9c6cea6	-0.00037919468
8	0x3b883e6c	0.004157832
9	0x3ab7dbd8	0.001402731
10	0x397b5671	0.00023969427
11	0xba41f5c2	-0.00073989865
12	0x3b4c4d9d	0.003117419
13	0x3c4a24fe	0.012337921
14	0x380ea206	3.4006334e-05
15	0xbacdde61	-0.0015706533
16	0x3b09cd28	0.0021026824
17	0xba6f65a1	-0.00091322704
18	0xbab34bbe	-0.0013679189
19	0xbb0a1399	-0.002106881
20	0x3ca78cb6	0.020452838
21	0xbaa1a274	-0.001233174
22	0xbaf51269	-0.0018697503
23	0x39ec9728	0.00045126048
24	0x3c73ae30	0.0148730725
25	0xba83a9ff	-0.001004517
26	0xb8b493e8	-8.6106185e-05
27	0xb8c41768	-9.350368e-05
28	0xb66f5d60	-3.5668127e-06
29	0xbb2bedd4	-0.0026234286
30	0xbb288e63	-0.0025719635
31	0xbb168bc4	-0.002297149

weight f4 [32]
0	0x3eab5ad3	0.3346773
1	0x3ed876d6	0.42278165
2	0x3e76e5e8	0.2411114
3	0x3f00ccca	0.50312483
4	0x3ea19452	0.31558472
5	0x3e9040c1	0.28174403
6	0x3ed4e5f9	0.41581705
7	0x3e872a8f	0.26399657
8	0x3eaaa078	0.33325553
9	0x3ed1d51c	0.40982902
10	0x3ec9d1a3	0.39417753
11	0x3e8ae234	0.27125704
12	0x3edfe350	0.43728113
13	0x3ed22388	0.41042733
14	0x3e86f445	0.26358238
15	0x3eb2693d	0.34845915
16	0x3e9f0325	0.31057087
17	0x3e90db95	0.28292528
18	0x3ec089ce	0.37605137
19	0x3f1f5526	0.622393
20	0x3f190b67	0.59783024
21	0x3ea83f49	0.32860783
22	0x3eb319ff	0.3498077
23	0x3e89876c	0.2686113
24	0x3ede0a82	0.43367392
25	0x3e935530	0.2877593
26	0x3e9a6c32	0.3016067
27	0x3eebe8b0	0.46075964
28	0x3eac348d	0.33633843
29	0x3eadc53c	0.3393954
30	0x3f035de3	0.51315135
31	0x3e958997	0.29206535

bias f4 [32]
0	0x3d370524	0.044682637
1	0x3d9cd347	0.076574855
2	0xbc97c8fc	-0.018528454
3	0x3dc20c2f	0.0947498
4	0x3d441d91	0.04787976
5	0xbd44fc76	-0.048092328
6	0x3d9b85db	0.0759389
7	0x3d3550ef	0.044266637
8	0x3d30bb87	0.04314759
9	0x3ce4e583	0.027941471
10	0xba2e8a21	-0.0006658156
11	0xbd145cb4	-0.03622122
12	0x3dab0c0d	0.08351908
13	0x3ddea781	0.108717926
14	0x3bd0c3a5	0.006370979
15	0xbd88c9ec	-0.066791385
16	0x3d255e52	0.040373154
17	0x3c76d80c	0.015066158
18	0x3ca7d5fe	0.020487782
19	0x3e1cfd30	0.15330958
20	0x3de1ab97	0.11019056
21	0x3d78c2db	0.060732704
22	0x3d31270c	0.04325013
23	0xbd45a7a6	-0.048255585
24	0x3dcac69c	0.09901163
25	0xbd244c61	-0.040111903
26	0xbcb56717	-0.022143884
27	0x3d680d1e	0.056653135
28	0xbcd0ea67	-0.025502397
29	0x3cf423f5	0.029802302
30	0x3d7c01e6	0.061525248
31	0xbcd245e4	-0.025668092

running_mean f4 [32]
0	0x3eb0ca53	0.3452936
1	0x3e84c3fc	0.25930774
2	0x3d03abd8	0.032146305
3	0x3e1cbb02	0.15305713
4	0x3dac518e	0.08413993
5	0x3d2e3acd	0.042536546
6	0x3ea44949	0.32087162
7	0x3ea19fd4	0.31567252
8	0xbc5fe955	-0.013666471
9	0x3ee05a03	0.43818673
10	0x3e8d1ee6	0.27562636
11	0x3d81ae68	0.063320935
12	0x3c88c4d0	0.01669541
13	0xbe81529b	-0.25258335
14	0x3e081666	0.13289794
15	0xbe589083	-0.21148877
16	0x3e172fdc	0.1476435
17	0x3e34f8bb	0.17673008
18	0x3dadfa6f	0.08495032
19	0xbdb4f32d	-0.088354446
20	0x3e443595	0.19161065
21	0x3dd2e44d	0.10297451
22	0xbd992da5	-0.07479409
23	0x3c85d13c	0.016335122
24	0x3b586a1d	0.0033022233
25	0x3d0e3139	0.03471491
26	0x3ea4a00a	0.3215335
27	0xbe09f619	-0.13472785
28	0x3dcfc08c	0.10144147
29	0xbe4fc19a	-0.20288697
30	0x3e462e5b	0.1935362
31	0x3bf31aab	0.0074189506

running_var f4 [32]
0	0x3f017a14	0.505769
1	0x3e82904f	0.25500724
2	0x3d300060	0.042969108
3	0x3da1585b	0.078781806
4	0x3ec71a5e	0.38887304
5	0x3dd03610	0.101665616
6	0x3e8498d2	0.25897843
7	0x3e9de8fd	0.30841818
8	0x3d9575c0	0.0729785
9	0x3e84dabf	0.2594814
10	0x3f047d47	0.5175366
11	0x3e677d01	0.22606279
12	0x3e4a59c7	0.1976081
13	0x3d108138	0.035279483
14	0x3e8c3132	0.27381283
15	0x3dd8d795	0.10587994
16	0x3eb0fdd5	0.34568658
17	0x3f492a10	0.7857981
18	0x3d71f5f8	0.059072465
19	0x3d4ce0af	0.050018962
20	0x3d9ea360	0.07746005
21	0x3e5b1807	0.21395884
22	0x3de7a1cb	0.113101564
23	0x3d3426c8	0.043982297
24	0x3cd901e0	0.026490152
25	0x3dc51ac8	0.09624249
26	0x3ddfeee8	0.109342396
27	0x3d0695a8	0.032857567
28	0x3ced174c	0.028941773
29	0x3d2af490	0.04173714
30	0x3d7cce46	0.061720155
31	0x3ce3360e	0.027735736

weight f4 [64, 35, 3, 3]
0	0xbba3b0a6	-0.0049954234
1	0xbba3f6a4	-0.005003767
2	0xbba3f53a	-0.0050035985
3	0x3c95ff69	0.018310266
4	0x3c95e926	0.01829965
5	0x3c95f824	0.0183068
6	0xb9864071	-0.00025606484
7	0xb98836d8	-0.00025980803
8	0xb985f75a	-0.00025552028
9	0xbb33324a	-0.0027343207
10	0x3a9254ef	0.0011164228
11	0x3aa622dd	0.0012675185
12	0xbb335c03	-0.0027368076
13	0x3a89e9bb	0.0010521928
14	0x3aa65733	0.0012690782
15	0xbb335319	-0.0027362762
16	0x3a927cdd	0.0011176128
17	0x3aa65282	0.0012689384
18	0xbab786aa	-0.0014001925
19	0xba77c06b	-0.0009450975
20	0xbb24d3b9	-0.002515061
21	0xbb0762fb	-0.0020658362
22	0xbab77e78	-0.0013999483
23	0xba77bfc7	-0.00094508793
24	0xbb24ed1d	-0.0025165745
25	0xbb075137	-0.0020647773
26	0xbab775ae	-0.0013996863
27	0x3c5acb02	0.013354065
28	0x3c0b1c95	0.008490701
29	0xba24211d	-0.0006261038
30	0x369184c3	4.3367922e-06
31	0xbc0ff9e2	-0.008787604
32	0xbc6ca36a	-0.014443258
33	0x3caa4e13	0.020789182
34	0xbbd170cf	-0.0063916217
35	0x3bab8812	0.0052347267
36	0x3d3f8712	0.046759672
37	0x3c8de3e1	0.017320575
38	0x3c8ccae9	0.017186599
39	0x3ca6d558	0.020365402
40	0x3c1e96cb	0.0096795065
41	0x3ba9b28a	0.005178754
42	0x3d3b2c7a	0.045696713
43	0x3c402dfe	0.011729715
44	0x3c8e7ee0	0.017394483
45	0x3c86d7b1	0.016460272
46	0xbc5cf963	-0.013487193
47	0x3b1e47a6	0.0024151593
48	0x3bbc19d9	0.005740386
49	0xbcc178a4	-0.023617096
50	0x37304ac4	1.0507825e-05
51	0x3ba1fd86	0.0049435524
52	0x3a998070	0.0011711251
53	0x3c6597e8	0.014013268
54	0xbd03ac43	-0.032146703
55	0xbcaf5edc	-0.021407537
56	0x3a4f95dd	0.00079187547
57	0xbce43b25	-0.027860234
58	0xbce01e6d	-0.027358258
59	0xbc118d7b	-0.008883829
60	0xbd211e30	-0.03933543
61	0xbbd6f981	-0.006560505
62	0xbd8555ba	-0.06510492
63	0x3d1ff4db	0.03905187
64	0x3c49095c	0.012270298
65	0xbb41004a	-0.0029449635
66	0x3c376d0a	0.0111954305
67	0xbb104d46	-0.0022018715
68	0x3aabe5dc	0.0013114768
69	0x3d30acbe	0.04313349
70	0x3c261806	0.010137564
71	0x3c627093	0.013820785
72	0x3c369764	0.011144493
73	0xbb30e50f	-0.0026991998
74	0xbc2bcddc	-0.010486092
75	0xbc077010	-0.008266464
76	0xbc280257	-0.010254464
77	0xbc936f5c	-0.017997436
78	0x3d0f3270	0.03496021
79	0x3c3d29a7	0.011545575
80	0x3ba9f791	0.005186983
81	0x3d3e714f	0.04649478
82	0x3b493902	0.0030704145
83	0x3bdd46e6	0.0067528365
84	0x3c5b2205	0.01337481
85	0xbbd136f6	-0.0063847257
86	0x3c23b88e	0.009992732
87	0x3d1882b8	0.037234038
88	0xbb102427	-0.0021994205
89	0x3ccab76c	0.024745665
90	0x3cbff723	0.023433274
91	0x3b84ff60	0.0040587634
92	0x3b95d97c	0.0045730453
93	0x3b021994	0.0019851672
94	0xbc8c7979	-0.017147766
95	0xbc825791	-0.015910896
96	0x3cdef125	0.027214596
97	0xba896226	-0.0010481521
98	0x398988b5	0.0002623253
99	0x3d1e286d	0.03861277
100	0x3c84eff5	0.016227702
101	0x3c5060a9	0.012718358
102	0x3c99e6d1	0.01878682
103	0xbb9fc6f0	-0.00487601
104	0x3c5dcfb7	0.013538293
105	0x3cfd6f70	0.030936927
106	0xbaa5545a	-0.001261364
107	0x3c7627a3	0.015024099
108	0x3cd34f8f	0.025794772
109	0x3c3033f2	0.010754572
110	0x3c656ae6	0.014002537
111	0x3c5db75e	0.013532488
112	0xbc5d56ff	-0.013509511
113	0x3ad68420	0.0016366281
114	0x3cdd81d3	0.027039444
115	0x3bc83c8b	0.006110733
116	0x3ccc34ed	0.02492758
117	0x3c136729	0.008996763
118	0x3ab434af	0.0013748611
119	0xbb4ed802	-0.0031561856
120	0x3c109178	0.008823745
121	0xbc878dc2	-0.016547088
122	0xbc2eb6b5	-0.010663678
123	0x3ce5d5e8	0.0280561
124	0xb98ac159	-0.00026465466
125	0x3c8198ad	0.015819872
126	0x3bf45d0c	0.007457381
127	0xb9fee0b2	-0.00048614066
128	0xba2af906	-0.0006522093
129	0xbbe6a468	-0.0070386417
130	0xbc65de8a	-0.014030108
131	0x3b96cca9	0.004602034
132	0x3c092445	0.008370464
133	0x3ac49aaa	0.0014999707
134	0x3cada4ae	0.02119669
135	0x3ca82d8d	0.020529533
136	0x3ca21916	0.019787353
137	0x3c3f21a1	0.011665733
138	0x3c630de3	0.013858291
139	0xbb6d5ac4	-0.003621743
140	0xbc09bc57	-0.00840672
141	0x3b8f7adc	0.0043786597
142	0xbc32b7ac	-0.010908049
143	0x3cbb95f7	0.022898657
144	0x3cabb398	0.02095966
145	0x3c9a7d94	0.018858708
146	0x3bd7c322	0.006584541
147	0x3c6b48c8	0.014360614
148	0xbc950eb0	-0.01819548
149	0xbbae0399	-0.0053104875
150	0x3b0795ca	0.0020688646
151	0xbc4c5319	-0.012470984
152	0x3cc13d50	0.023588806
153	0x3ba9f149	0.005186234
154	0xb836638d	-4.3484895e-05
155	0x3b901073	0.004396492
156	0xbb850480	-0.0040593743
157	0xbc7f4c0f	-0.015582099
158	0xbc6cf9ed	-0.014463884
159	0x3ce90f0c	0.028449558
160	0x3c097203	0.008388999
161	0x3bc57262	0.0060255984
162	0xbb827f0b	-0.00398243
163	0xbc28cf17	-0.01030328
164	0xbada900f	-0.0016675013
165	0xbcb8290f	-0.022480516
166	0xbd15f88f	-0.036613997
167	0xbc157a37	-0.009123377
168	0xbb9ebea2	-0.0048445025
169	0xbc26967c	-0.010167714
170	0xbbe59bb7	-0.007007088
171	0x3cb40f00	0.021979809
172	0x3bfe9a18	0.0077698343
173	0xbaf8f291	-0.0018993189
174	0x3caf9a1f	0.021435795
175	0xbb0fd440	-0.002194658
176	0x3a468eea	0.00075743964
177	0x3d202dc5	0.03910615
178	0x3bd15278	0.006388005
179	0x3c47483b	0.012163217
180	0x3ce2959e	0.027659234
181	0x3c440401	0.011963845
182	0x3bfb7a52	0.007674494
183	0x3aa58906	0.0012629337
184	0xbb893ed7	-0.0041883993
185	0xbc68b3b6	-0.014203003
186	0x3ceb1424	0.028696127
187	0x3b9cc821	0.0047845994
188	0x3b9f69ff	0.0048649306
189	0x3c96b883	0.018398529
190	0x3c870513	0.016481912
191	0x3cb42756	0.021991413
192	0xbc865daf	-0.016402094
193	0xbb3a08b8	-0.0028386544
194	0x3b866df8	0.0041024648
195	0xbbcc198b	-0.006228631
196	0x3911002f	0.00013828346
197	0x3d29aabc	0.04142259
198	0xba4ca459	-0.0007806472
199	0xbc4c5c5f	-0.012473195
200	0xbd4a673e	-0.049414866
201	0xbb9ce3bb	-0.00478789
202	0xbc58c48d	-0.013230455
203	0xbcff1e4f	-0.031142382
204	0xbd4de08d	-0.050262976
205	0xbd5012da	-0.05079923
206	0xbcc82aa2	-0.024434391
207	0xbce75944	-0.028240807
208	0xbc353068	-0.011058904
209	0xbd3c7768	-0.046012312
210	0xbc8972f4	-0.016778447
211	0xbc0395f8	-0.008031361
212	0xbd42749f	-0.0474745
213	0x3d1416db	0.03615461
214	0xbc8422f5	-0.01612995
215	0xbc88df36	-0.016707998
216	0xba54c71c	-0.0008116828
217	0x3aa4e13b	0.0012579331
218	0xbc323269	-0.0108762765
219	0x3cbcc2f6	0.023042183
220	0xbc039d5a	-0.008033121
221	0x3bdab4b4	0.0066743735
222	0x3d23d4a7	0.039997723
223	0xb9f22aac	-0.0004618963
224	0x3c0f5257	0.008747659
225	0x3cbe0ee3	0.023200458
226	0xb9e5f61b	-0.00043861647
227	0x3b7849b9	0.003788574
228	0x3b649da7	0.0034884007
229	0xbc9fbe6b	-0.019499978
230	0x3adec24c	0.0016995161
231	0x3d04603e	0.032318346
232	0xbaa0dd42	-0.0012272971
233	0x3cb0c8c6	0.021580111
234	0xba839249	-0.0010038103
235	0xbc626fe0	-0.013820618
236	0xbb169d8e	-0.0022982094
237	0xbb21626d	-0.0024625317
238	0xbc5e058a	-0.013551125
239	0xbade5cd0	-0.0016964916
240	0x3cc094a3	0.023508376
241	0x3c1cd0b9	0.009571248
242	0x3c3ae61a	0.0114074
243	0xbca1678a	-0.019702692
244	0x3a9b46a9	0.001184662
245	0x3bbc23c8	0.00574157
246	0x3c802641	0.01564324
247	0xbcb52f48	-0.022117272
248	0x3c04b1f4	0.008099068
249	0x3c5cadc2	0.0134691615
250	0xbb052c0a	-0.0020320439
251	0x3c15cdea	0.009143332
252	0x3bbbebab	0.005734881
253	0x3b49d770	0.0030798577
254	0x3beb9268	0.007189084
255	0xbb1c6468	-0.0023863558

bias f4 [64]
0	0x38a061c0	7.647602e-05
1	0x3a692c93	0.00088948867
2	0xbb37dfdf	-0.0028057022
3	0x3918c190	0.00014567957
4	0xbc0a4259	-0.00843867
5	0xba34f9fe	-0.0006903707
6	0xb9ef9ba4	-0.00045701594
7	0xbb02f4b7	-0.0019982287
8	0xbb2b0243	-0.0026093877
9	0xbb1e5ef6	-0.0024165488
10	0xbb3d31d6	-0.0028868816
11	0xbaa946df	-0.0012914798
12	0x3b0f2699	0.0021843074
13	0xbb478e98	-0.0030449983
14	0xb9254ab5	-0.00015763457
15	0x3baa4c87	0.005197111
16	0xba87494e	-0.0010321529
17	0xb98a8baf	-0.00026425484
18	0x3a630580	0.00086601824
19	0x34d9cc4d	4.0568048e-07
20	0xba698415	-0.00089079264
21	0x3a32be6e	0.00068185374
22	0x3a98f740	0.0011670366
23	0x3a8b1f25	0.001061414
24	0x39dc16ca	0.0004197865
25	0x391fcff2	0.00015240887
26	0xb92b4d3c	-0.00016336603
27	0xb8cbe08a	-9.721618e-05
28	0x39f80f79	0.00047313774
29	0xba303951	-0.0006722408
30	0x3c1417d3	0.009038883
31	0xb77e38a9	-1.5152772e-05
32	0xb9eaaf0b	-0.00044762375
33	0x3bfb340e	0.0076661175
34	0xba278e65	-0.0006391763
35	0x3ac2e4cd	0.0014869213
36	0x38f2372f	0.00011549738
37	0xba1e06c4	-0.000602823
38	0x3a92439c	0.0011159065
39	0x38b042e0	8.4047904e-05
40	0xba7be4b8	-0.0009608972
41	0xbbb74fd0	-0.005594231
42	0x3ac0213f	0.0014658346
43	0xbac66e65	-0.0015139101
44	0xbae207cc	-0.0017244755
45	0x382781f0	3.9936916e-05
46	0xb9300829	-0.00016787708
47	0x3bb9ebbb	0.005673853
48	0xb91225ba	-0.00013937699
49	0xb8c448ad	-9.359545e-05
50	0x3a8a2181	0.0010538549
51	0x3b47a467	0.0030462982
52	0xba85d276	-0.0010209817
53	0xbc367ae2	-0.011137696
54	0x3b1d0728	0.0023960564
55	0xba754984	-0.0009356963
56	0x3a980397	0.001159775
57	0xba199bed	-0.00058597216
58	0x3a3ce9be	0.0007206461
59	0xb71ffb12	-9.535595e-06
60	0xbb96e398	-0.004604768
61	0x3aa9d849	0.0012958135
62	0xba932bab	-0.0011228224
63	0xbb595c9d	-0.0033166774

weight f4 [64]
0	0x3e936b3c	0.2879275
1	0x3e91ac94	0.2845198
2	0x3e8c8e34	0.27452242
3	0x3eb4e7e3	0.35333166
4	0x3ef60eef	0.48058268
5	0x3e9dd068	0.30823064
6	0x3e8bbf67	0.27294466
7	0x3e819a8a	0.25313216
8	0x3ebc9531	0.36832574
9	0x3ec496d3	0.3839632
10	0x3eb6abf6	0.3567807
11	0x3ea7c8bc	0.32770336
12	0x3e9089ae	0.2823004
13	0x3ea2eb21	0.31820014
14	0x3e89f1c2	0.2694226
15	0x3ec27995	0.37983385
16	0x3e993690	0.2992444
17	0x3e862e4b	0.26207194
18	0x3e8b47a3	0.27203092
19	0x3e903b32	0.28170162
20	0x3e8b2ddb	0.27183422
21	0x3e9ceb2a	0.30648166
22	0x3e9d591a	0.30732042
23	0x3e9036cf	0.28166816
24	0x3e959e8a	0.29222518
25	0x3e8471e0	0.2586813
26	0x3e8e8bcf	0.2784104
27	0x3e908550	0.2822671
28	0x3e974e8d	0.29552117
29	0x3e89067c	0.2676276
30	0x3ed77e69	0.4208863
31	0x3e897c4a	0.26852638
32	0x3e8d3f3e	0.27587312
33	0x3ee4679b	0.44610295
34	0x3e96d73d	0.2946109
35	0x3eaa6ca0	0.33286
36	0x3e998ccd	0.29990235
37	0x3e8f42a2	0.27980524
38	0x3e9d72d7	0.30751678
39	0x3e9c65ca	0.3054641
40	0x3e8def5e	0.27721685
41	0x3eba073e	0.3633365
42	0x3e950736	0.29107064
43	0x3e88065d	0.26567355
44	0x3e863d73	0.26218757
45	0x3e8be830	0.27325583
46	0x3e887de4	0.26658547
47	0x3ee68b7c	0.45028293
48	0x3ea5a46e	0.32352012
49	0x3ebcab25	0.36849323
50	0x3e982fa2	0.2972384
51	0x3e9582d3	0.29201373
52	0x3e843aed	0.25826207
53	0x3ec985bc	0.39359844
54	0x3e9ddc07	0.3083193
55	0x3e9b9fff	0.30395505
56	0x3ea716e2	0.32634646
57	0x3e90faf7	0.2831647
58	0x3e8d67ff	0.27618405
59	0x3e938840	0.28814888
60	0x3ede13b9	0.43374422
61	0x3eae6ed8	0.34068942
62	0x3e942c1e	0.2893991
63	0x3ec2d0c2	0.38049895

bias f4 [64]
0	0xbc538d40	-0.012912095
1	0x3be2f1d4	0.006925801
2	0x3c571fea	0.0131301675
3	0x3c5de2c3	0.013542834
4	0x3e0bafd8	0.13641298
5	0xbbd4be94	-0.0064924452
6	0xbb973868	-0.0046148784
7	0x3b39f094	0.0028372156
8	0x3d2214b3	0.03957052
9	0x3d86fc29	0.065910645
10	0x3c9f273b	0.019427886
11	0xb82e9ee4	-4.163281e-05
12	0x3b0eef2d	0.002181004
13	0x3c3a1310	0.011357084
14	0xbd5b2d3a	-0.05350993
15	0x3ccf5dcc	0.02531328
16	0x3c216b30	0.009852216
17	0x3c30fd7e	0.010802625
18	0xbc923139	-0.017845737
19	0x3ca27e39	0.019835578
20	0xbbe4c97b	-0.006982026
21	0xbd475af0	-0.04867071
22	0xbbbe88dc	-0.0058146548
23	0xbbdf3694	-0.006811926
24	0xb80da6ed	-3.377248e-05
25	0xbb6dc33e	-0.0036279703
26	0xbc1d1ebf	-0.00958985
27	0xbc85237e	-0.016252276
28	0xbb02590c	-0.0019889502
29	0xbd86b587	-0.06577592
30	0x3d848ab2	0.064717665
31	0xbc90a4e3	-0.01765675
32	0xbc33679f	-0.010949998
33	0x3d96f337	0.07370608
34	0xbc6c3743	-0.014417472
35	0x3cbb0d31	0.022833439
36	0xbc14a764	-0.009073112
37	0xbc79f572	-0.015256273
38	0x3a9b1c0e	0.0011833922
39	0x3bf17356	0.0073684854
40	0x3aafba08	0.0013406882
41	0x3d2dd2f9	0.042437527
42	0x3b89e1f7	0.0042078453
43	0x39f126e4	0.00045996078
44	0xbb4c9436	-0.003121627
45	0xbd13a004	-0.036041275
46	0xbd7360fc	-0.059418663
47	0x3d44ad69	0.04801694
48	0xbbb5c3c4	-0.0055470187
49	0x3d66e303	0.05636884
50	0xbb87a05f	-0.004138991
51	0xbc57ca77	-0.01317083
52	0xbd3f0c1e	-0.046642415
53	0x3ce42f18	0.027854487
54	0xbac34cb4	-0.0014900179
55	0xbbde70c9	-0.0067883474
56	0xbabcde56	-0.0014409523
57	0xbb61ad00	-0.0034435391
58	0xbcbd331c	-0.02309566
59	0xbd630108	-0.055420905
60	0x3da26dec	0.07931122
61	0xbc55df22	-0.013053687
62	0x3a8d1711	0.0010764321
63	0x3d0a1a31	0.033716384

running_mean f4 [64]
0	0x3d10fb06	0.035395645
1	0x3e05936b	0.13044517
2	0xbe75f539	-0.24019326
3	0xbd99f593	-0.07517543
4	0x3eef1d9a	0.46702272
5	0x3e716909	0.23575224
6	0x3dfc14c3	0.123086475
7	0xbd98bec0	-0.07458258
8	0xbeaf1245	-0.34193626
9	0xbed6bdfb	-0.4194182
10	0x3edad10b	0.42737612
11	0xbc97e293	-0.018540656
12	0xbe01a6b8	-0.12661254
13	0xbe680ac6	-0.2266036
14	0x3f03052a	0.51179755
15	0x3ecefa8d	0.4042553
16	0x3e18d2ff	0.14924239
17	0x3c94f91f	0.018185196
18	0x3ed91561	0.42399123
19	0xbe4e10cc	-0.20123595
20	0x3e048cb0	0.12944293
21	0x3e8f54cd	0.27994385
22	0xbe8a6527	-0.27030298
23	0xbdb3818a	-0.08764942
24	0x3e14fe4e	0.14550135
25	0x3e1810ba	0.1485013
26	0x3e65902b	0.22418277
27	0x3dd345c1	0.10316039
28	0x3e166973	0.14688663
29	0x3eb0f124	0.34558976
30	0x3f0c530f	0.5481424
31	0xbe0327fe	-0.12808225
32	0x3e1b0427	0.15138303
33	0x3f05eb59	0.5231224
34	0x3daa0811	0.0830232
35	0x3ec78d82	0.3897515
36	0x3e9f3522	0.31095225
37	0x3e87f161	0.26551345
38	0x3c718513	0.0147412
39	0x3e45907d	0.19293399
40	0x3e27eaed	0.16398211
41	0x3e58b7b0	0.21163821
42	0xbd89fca0	-0.067376375
43	0x3d093371	0.033496324
44	0x3e5fd41d	0.21858259
45	0x3e8bccd4	0.2730471
46	0x3edcc9d9	0.43122748
47	0x3e0b5e1b	0.13610117
48	0xbe9d894a	-0.30768806
49	0x3ec9f295	0.39442888
50	0x3e545fef	0.20739721
51	0x3ed27fbb	0.41113076
52	0xbec57000	-0.38562012
53	0x3e71cd2b	0.23613422
54	0xbe80fd89	-0.25193432
55	0x3e78519b	0.2424988
56	0x3eac85b2	0.3369575
57	0x3d6e0971	0.058114473
58	0x3d157a08	0.03649333
59	0x3f01bf34	0.5068238
60	0xbf3a6a8d	-0.72818834
61	0x3e99abb5	0.30013815
62	0x3d4d2f6e	0.05009406
63	0x3e05108d	0.12994595

running_var f4 [64]
0	0x3e17f09d	0.1483788
1	0x3ebd82ba	0.370138
2	0x3d16bfc6	0.036803983
3	0x3db72ad1	0.089437135
4	0x3c626f82	0.013820531
5	0x3e714764	0.2356239
6	0x3e64713e	0.22308823
7	0x3d91ca56	0.07118671
8	0x3cc6a9b4	0.024250843
9	0x3d28a80d	0.04117589
10	0x3c7d8f92	0.015476124
11	0x3e267824	0.16256768
12	0x3dcc0e9f	0.09963726
13	0x3d5f3ae1	0.05449951
14	0x3ea0b1d7	0.3138568
15	0x3c92d4e7	0.017923785
16	0x3e90f386	0.28310794
17	0x3dd318cc	0.10307464
18	0x3f180fed	0.593993
19	0x3d786757	0.060645428
20	0x3e957f39	0.29198626
21	0x3c47b050	0.012188032
22	0x3d5a91ba	0.053361632
23	0x3dbda530	0.09260023
24	0x3e41cdc6	0.18926153
25	0x3ed44611	0.41459706
26	0x3e846743	0.25860032
27	0x3e6a9e5a	0.22911969
28	0x3e5276eb	0.20553176
29	0x3ee5e94f	0.44904563
30	0x3d5f6ec5	0.054548997
31	0x3d9984e7	0.07496052
32	0x3e6d8eae	0.23198959
33	0x3c556b46	0.013026064
34	0x3e21ab2d	0.15787955
35	0x3d00d5a8	0.03145376
36	0x3e6cefb1	0.2313831
37	0x3e8047e4	0.25054848
38	0x3e5adf5c	0.21374267
39	0x3eaf57cf	0.3424668
40	0x3ebaae97	0.36461326
41	0x3cbdf7d2	0.023189459
42	0x3dcd0504	0.10010722
43	0x3e74a48d	0.23890896
44	0x3e8b7e9c	0.27245033
45	0x3e686f20	0.22698641
46	0x3f665ada	0.8998238
47	0x3be4f3dd	0.0069870786
48	0x3d6d3309	0.05791
49	0x3eb1707f	0.3465614
50	0x3e8d81a6	0.27637976
51	0x3d9978bb	0.07493731
52	0x3daa4b0a	0.08315094
53	0x3c0dda9d	0.0086580785
54	0x3d4c8888	0.049934894
55	0x3e880014	0.2656256
56	0x3d2d9454	0.042377785
57	0x3e648b9f	0.22318886
58	0x3e370b8d	0.178755
59	0x3edb3708	0.42815423
60	0x3c2ed0d9	0.01066991
61	0x3cd303a5	0.025758574
62	0x3e8f8bd1	0.2803636
63	0x3ce5259a	0.027972031

weight f4 [64, 67, 3, 3]
0	0x3cc89b01	0.024487974
1	0x3cc7ce59	0.024390386
2	0x3cc8cdc0	0.024512172
3	0x3ba3bfcd	0.0049972297
4	0x3ba3b3f2	0.0049958164
5	0x3ba3b2c0	0.004995674
6	0x3c49fc28	0.012328185
7	0x3c49f6bc	0.012326892
8	0x3c49fd97	0.012328527
9	0x3d08e0da	0.03341756
10	0x3c0d4f21	0.008624823
11	0x3d165faf	0.036712345
12	0x3d08b1bd	0.03337263
13	0x3c0d4f21	0.008624823
14	0x3d163317	0.036669817
15	0x3d08d158	0.03340277
16	0x3c0d48de	0.00862333
17	0x3d1666b8	0.036719054
18	0x39977c10	0.00028893398
19	0x38fae6af	0.00011963897
20	0xb8503a11	-4.9645143e-05
21	0x38ec7a88	0.0001127618
22	0x38df1a52	0.00010638371
23	0x38c078e3	9.17779e-05
24	0x38cf5aea	9.887463e-05
25	0xb877fbba	-5.9123828e-05
26	0x37b44215	2.1488444e-05
27	0xb9b479c6	-0.00034423004
28	0x3b4f5c03	0.0031640537
29	0x3caa31e3	0.020775741
30	0xbbb40c67	-0.0054946425
31	0xbbbf8ff3	-0.0058460175
32	0x3bb215c2	0.0054347226
33	0x3cbf53a2	0.023355309
34	0x3cbdfb29	0.023191052
35	0x3c7a65e1	0.015283079
36	0x3b8c1279	0.004274663
37	0x3c262889	0.0101415
38	0x3caca99d	0.021076972
39	0x3b3b3642	0.0028566276
40	0xbbaa36c0	-0.005194515
41	0x3c389cde	0.011267869
42	0x3cb9ea75	0.022694806
43	0x3c86d8ee	0.016460862
44	0x3c023194	0.007946391
45	0x3bb476ef	0.005507342
46	0x3b033607	0.0020021216
47	0x3c103b6b	0.008803229
48	0x3bb90815	0.0056467154
49	0xbc0c4644	-0.0085616745
50	0x3be9bebd	0.0071333335
51	0x3ca25645	0.019816527
52	0x3a6ae3e3	0.00089603494
53	0x3ca9303d	0.020652885
54	0x3c1c99f5	0.009558191
55	0x3bfcbf6c	0.007713249
56	0x3c760584	0.015015963
57	0x3be79b83	0.007068099
58	0x3af514a7	0.0018698171
59	0x3c852dec	0.016257249
60	0x3cd70d88	0.02625157
61	0x3ca217e7	0.019786788
62	0x3ce502d3	0.027955448
63	0xbce2fb1f	-0.027707634
64	0xbc7ed289	-0.015553125
65	0xbc80641f	-0.015672741
66	0xbd9951b8	-0.0748629
67	0xbce6b0ea	-0.028160531
68	0xbc8e8846	-0.017398965
69	0xbd3a8611	-0.045538012
70	0xbc958f85	-0.018256912
71	0xbce27fc8	-0.027648821
72	0x39eba3b0	0.0004494465
73	0x3ba5c5eb	0.005058994
74	0x3ca51a81	0.02015424
75	0xbbd89527	-0.006609577
76	0xbab1bed2	-0.0013560897
77	0x3c6341ce	0.0138706695
78	0x3ccd6a09	0.025074976
79	0x3c73e4e2	0.014886113
80	0x3c43e155	0.011955579
81	0xba9ab86b	-0.0011804228
82	0x3bbc7d8f	0.0057522724
83	0x3c8bc9ca	0.017063994
84	0xb95a4859	-0.00020817052
85	0xbbefe5be	-0.0073210886
86	0x3aaabe84	0.0013026749
87	0x3cb583f2	0.022157643
88	0x3c85578c	0.016277097
89	0x3c22c26d	0.00993405
90	0x3c8c35ca	0.017115492
91	0xb9b9db63	-0.00035449406
92	0x3c6186ea	0.013765076
93	0x3c3e02ef	0.011597379
94	0x3ba0fded	0.004913083
95	0xbbe07f64	-0.0068511236
96	0x3cade40a	0.021226902
97	0x3c5dbc21	0.013533623
98	0x3ca4712b	0.020073494
99	0x3ce24c1d	0.027624184
100	0x3c94dba3	0.018171137
101	0x3c47a493	0.012185234
102	0x3d01a1da	0.031648494
103	0x3c08d6e6	0.008352017
104	0x3c8a92f5	0.016915778
105	0x3d0d83c6	0.034549497
106	0x3c887fa5	0.016662428
107	0x3d50acd0	0.050946057
108	0x3c433854	0.011915285
109	0x3c1f06dd	0.009706226
110	0x3d08a664	0.033361807
111	0x3c5725df	0.013131588
112	0x3b987187	0.0046522054
113	0x3cf3a49c	0.029741578
114	0x3cd0ad6c	0.025473319
115	0x3ceadf7c	0.028671019
116	0x3d342aa2	0.04398597
117	0xbd0187c3	-0.031623613
118	0xbcd6a16a	-0.026200015
119	0xbc251fdc	-0.010078397
120	0xbd3e641e	-0.046482198
121	0xbd03b26b	-0.032152575
122	0x3bef88ab	0.0073099933
123	0xbd449d77	-0.048001733
124	0x3a84f511	0.0010143836
125	0x3c7d162e	0.015447183
126	0x3b9b5c76	0.004741247
127	0x3b62e5cf	0.003462184
128	0x3c655eff	0.0139997
129	0x3bbbb4a4	0.005728321
130	0x3b13b4d6	0.0022538207
131	0x3c303a30	0.0107560605
132	0x3ca91627	0.020640446
133	0x3c822ea9	0.01589139
134	0x3cb48c86	0.022039663
135	0x3b420583	0.0029605336
136	0xba271c85	-0.0006374794
137	0x3c6a9f3b	0.01432019
138	0x3bce9fa0	0.00630565
139	0xba6b5e3c	-0.00089785806
140	0x3c6ba81c	0.014383342
141	0x3c9989dd	0.018742496
142	0x3c190053	0.009338456
143	0x3ca38dd5	0.019965092
144	0x3bfc1624	0.007693069
145	0xba6c0db7	-0.0009004729
146	0x3bf234d0	0.0073915496
147	0x3c645810	0.013937011
148	0xbaa1fa63	-0.0012357946
149	0x3aa5c20c	0.0012646331
150	0x3c7d9319	0.015476965
151	0x3be20ed4	0.0068987403
152	0x3d039739	0.03212664
153	0xbb132499	-0.0022452234
154	0x3bc1ffaa	0.00592037
155	0x3c5aab67	0.01334653
156	0xbc77675d	-0.015100327
157	0xbc0edfa1	-0.0087203095
158	0x3bf4dd8a	0.0074726986
159	0x3c9fd5fc	0.019511215
160	0x3c377599	0.011197471
161	0xbbc7fc2a	-0.0061030583
162	0xbd33555b	-0.043782573
163	0xbd2256fa	-0.03963373
164	0xbd38a1b8	-0.045076102
165	0xbd4d4e68	-0.050123602
166	0xbc8b742c	-0.017023169
167	0xbcccb10b	-0.024986764
168	0xbcc42e40	-0.023947835
169	0x3ced797c	0.028988592
170	0xbc8c4fbc	-0.017127864
171	0xbaf97181	-0.0019031019
172	0x3b56137a	0.0032665418
173	0x3c8a8bf2	0.016912434
174	0xba05e3d2	-0.0005107495
175	0xbb7bfe42	-0.003845111
176	0x3b93bfe8	0.004508961
177	0x3cde3195	0.027123252
178	0x3c682bbc	0.014170583
179	0x3c01de00	0.007926464
180	0x3bcbe799	0.006222677
181	0x3b2ecec1	0.0026673528
182	0x3c84d4e3	0.016214794
183	0x3c4a2029	0.012336769
184	0xbb72de4a	-0.0037058764
185	0xbac2b083	-0.001485363
186	0x3cba5d70	0.022749633
187	0x3c4c650b	0.012475262
188	0x3c965ae0	0.01835388
189	0x3a778da6	0.00094434095
190	0x3aa1a794	0.0012333267
191	0x3c0b5da5	0.008506213
192	0x3959619f	0.000207311
193	0xbb8cd710	-0.0042980984
194	0x3b0c4660	0.0021404251
195	0x3c8d896c	0.017277442
196	0x3a2e48c5	0.0006648417
197	0xbb305953	-0.002690871
198	0xba202948	-0.0006109667
199	0xba99593c	-0.0011699568
200	0x3c9476b1	0.018123003
201	0x3c1a1df5	0.009406556
202	0xbbd3ba9d	-0.006461455
203	0x3c27ccf4	0.010241736
204	0x3cdc270d	0.02687409
205	0x3ca92338	0.020646676
206	0x3d08b198	0.03337249
207	0x3c49cf17	0.0123174405
208	0x3c855467	0.016275598
209	0x3c7b2793	0.015329259
210	0x3b0ae1b3	0.0021191656
211	0xbb7c653e	-0.0038512493
212	0x3c3eaceb	0.011637907
213	0x3c8069ce	0.015675452
214	0x3c1a271d	0.009408739
215	0x3c26ac0a	0.010172853
216	0xbcbb2f43	-0.022849685
217	0x397d93c6	0.0002418301
218	0x3b8e0f8f	0.004335351
219	0x38aabfb7	8.141941e-05
220	0x3bbb6817	0.0057191956
221	0x3c3739af	0.011183186
222	0xbb46c814	-0.0030331658
223	0x3c0398af	0.008032008
224	0x3c9deacd	0.019277
225	0x3b2b1026	0.0026102155
226	0xbad0d566	-0.0015932738
227	0x3bf99c74	0.0076175276
228	0x3c05f30e	0.008175625
229	0xbaca38f1	-0.0015428347
230	0x3bd0261d	0.0063521997
231	0x3cf45be4	0.029828973
232	0x3c188f0d	0.00931145
233	0x3d0fe794	0.03513296
234	0xba868eb1	-0.0010265914
235	0xba5aa623	-0.00083407963
236	0x3ca26eb7	0.019828184
237	0x3be751cb	0.007059311
238	0x3b00fd68	0.0019682292
239	0x3b435d13	0.0029810115
240	0x3c8f6d0e	0.017508056
241	0x3c98c172	0.01864693
242	0x3c7a8857	0.015291295
243	0x3a5ed0d8	0.0008499748
244	0x3c07c532	0.008286761
245	0x3ca86af3	0.02055881
246	0xba379312	-0.0007002811
247	0xbbbf173b	-0.0058316267
248	0x3c95624e	0.018235352
249	0x3cb7e1ef	0.0224466
250	0x3c867da6	0.016417336
251	0x3c90dc0f	0.017683057
252	0x3b00e961	0.0019670355
253	0x3c040dbe	0.008059917
254	0x3c2b144d	0.010441852
255	0x3b7c38d6	0.0038486025

bias f4 [64]
0	0xb89165c1	-6.933092e-05
1	0x38ddd132	0.00010577067
2	0x37d12507	2.4931984e-05
3	0xbb034171	-0.002002802
4	0xbb28defa	-0.002576767
5	0x3ab91bc5	0.0014122656
6	0x390182fd	0.00012351196
7	0x39e294e2	0.00043217005
8	0x3a4bfc61	0.0007781443
9	0x3b08b334	0.0020858767
10	0x3a98f8b4	0.0011670799
11	0x3a17467f	0.00057706976
12	0xb986035c	-0.00025560975
13	0xbb27e5ac	-0.0025619073
14	0x3ae38836	0.001735932
15	0xb9eef880	-0.00045580044
16	0x3a1100f2	0.0005531452
17	0xbabc8c09	-0.0014384995
18	0xbb1d5e38	-0.0024012458
19	0x3ad981be	0.0016594452
20	0xba239dbd	-0.00062414614
21	0xbafab760	-0.0019128136
22	0xba90da6b	-0.0011051422
23	0xba0e7cb4	-0.00054354523
24	0x38f1795f	0.00011514383
25	0xba47fcc0	-0.000762891
26	0x3a923732	0.0011155366
27	0xbab1419b	-0.001352358
28	0x388b174d	6.6323766e-05
29	0x3a1a13a8	0.0005877563
30	0xb959873e	-0.00020745114
31	0xba5e262a	-0.0008474315
32	0x39256ce9	0.00015776198
33	0xb9a4aaa7	-0.00031407663
34	0xb9ab1e15	-0.00032638074
35	0xb9cd30a2	-0.0003913688
36	0x3a315ce0	0.00067658536
37	0xba0de8ea	-0.000541343
38	0x39eda995	0.0004533051
39	0x39ddf5dd	0.00042335587
40	0xbaa4137f	-0.0012518017
41	0x3a079ed5	0.0005173509
42	0xba847ceb	-0.0010108029
43	0xbace1f8e	-0.0015725957
44	0x3a98a50a	0.0011645865
45	0xbb0510c8	-0.0020304192
46	0xba86c18e	-0.0010281072
47	0xb9bfc51a	-0.0003657721
48	0x38972923	7.2079034e-05
49	0x39ac0235	0.0003280804
50	0xb9ae124d	-0.000332015
51	0xbaefa760	-0.0018284135
52	0x39397fe0	0.00017690612
53	0xb9545b1c	-0.00020251836
54	0xbb5f7e0b	-0.0034102227
55	0x38f9384a	0.0001188373
56	0xbb4ae118	-0.003095692
57	0x395b159a	0.00020893515
58	0xb9bd0b1a	-0.0003605716
59	0xb8c82f5c	-9.5455645e-05
60	0xba47727f	-0.0007608309
61	0x3aba3afb	0.0014208251
62	0x3a0164f8	0.0004936005
63	0x3b11efec	0.0022268249

weight f4 [64]
0	0x3ed795af	0.42106387
1	0x3eddaede	0.43297476
2	0x3ec955ea	0.3932336
3	0x3eca3b81	0.39498523
4	0x3eeac968	0.45856786
5	0x3ee39e74	0.44456828
6	0x3ebf2e9e	0.37340254
7	0x3ed2d3be	0.4117717
8	0x3edd1b1c	0.43184745
9	0x3ee403a0	0.44534016
10	0x3ed8e6fd	0.4236373
11	0x3ee82c88	0.45346475
12	0x3ed2d2e7	0.4117653
13	0x3ed65b13	0.4186636
14	0x3ee0536e	0.43813652
15	0x3ec0dc55	0.376681
16	0x3ee72277	0.45143482
17	0x3ee982a5	0.45607486
18	0x3ee6b263	0.45057973
19	0x3ed70bbf	0.4200115
20	0x3eed3e5c	0.4633664
21	0x3ef2e793	0.47442302
22	0x3ef2f6df	0.47453973
23	0x3ed5705c	0.41687286
24	0x3edb78ee	0.428657
25	0x3ee64c0b	0.4497989
26	0x3ede3f38	0.43407607
27	0x3eff6d88	0.49888253
28	0x3eed7c35	0.46383825
29	0x3ee5b849	0.4486716
30	0x3ef4be26	0.47801322
31	0x3edf4479	0.43606928
32	0x3ed5afdb	0.4173573
33	0x3edffad9	0.4374607
34	0x3eb97350	0.3622079
35	0x3ef109cb	0.47077784
36	0x3ee82ce9	0.45346764
37	0x3ecd6201	0.40113834
38	0x3eb45a57	0.35225174
39	0x3ee26aeb	0.44222197
40	0x3ec617d8	0.38690066
41	0x3ed509c5	0.41609016
42	0x3ef9aeff	0.48766324
43	0x3ee6bce9	0.45066002
44	0x3ee72756	0.45147198
45	0x3edf054a	0.43558723
46	0x3ed2fa58	0.41206622
47	0x3edb4d2d	0.42832318
48	0x3eb9e4ff	0.36307523
49	0x3ec6cfb5	0.38830343
50	0x3edc5335	0.43032232
51	0x3ef58c3c	0.47958553
52	0x3ed88df6	0.42295808
53	0x3ecada95	0.3961989
54	0x3ee52691	0.44755986
55	0x3ee243de	0.44192404
56	0x3edcc677	0.43120167
57	0x3ed1d097	0.40979454
58	0x3ed8dcd2	0.42355973
59	0x3eda0555	0.42582193
60	0x3edf76b1	0.43645242
61	0x3ede8361	0.4345961
62	0x3edf50aa	0.4361623
63	0x3ecbd21b	0.39808735

bias f4 [64]
0	0x3d683b0f	0.056696948
1	0x3cfeb644	0.03109277
2	0x3d37134b	0.044696134
3	0x3d9935c7	0.0748096
4	0x3e1a30c6	0.15057668
5	0x3d9d0416	0.07666795
6	0x3c84fc9c	0.016233735
7	0x3d83a4a2	0.064278856
8	0x3d8bc3f9	0.06824488
9	0x3d8e5589	0.06949908
10	0x3d89017b	0.066897355
11	0x3d8d96ec	0.06913552
12	0x3d7d760d	0.06188016
13	0x3ddc293f	0.107500546
14	0x3d6f45f3	0.05841632
15	0x3d5e4a86	0.05427029
16	0x3cf9247c	0.030412905
17	0x3d99e59c	0.07514498
18	0x3e110f0b	0.14165895
19	0x3d7333fb	0.059375744
20	0x3dc0f5da	0.094218925
21	0x3dd9b9a9	0.10631115
22	0x3e1f06e1	0.15529968
23	0x3db1a89c	0.08674738
24	0x3d852cd8	0.06502694
25	0x3dabba3a	0.08385129
26	0x3d91c120	0.07116914
27	0x3e0aaca6	0.13542423
28	0x3d977e1d	0.07397101
29	0x3e053fa8	0.13012564
30	0x3dfb1fb1	0.12261904
31	0x3d8e5eb8	0.0695166
32	0x3ce24081	0.027618648
33	0x3d879148	0.06619507
34	0x3cd586e6	0.026065301
35	0x3dbba14b	0.091616236
36	0x3d86cf5d	0.0658252
37	0x3d3f6805	0.04673006
38	0x3d2eb824	0.04265608
39	0x3e0ba6b5	0.13637812
40	0x3d553523	0.05205263
41	0x3d82dba0	0.063895464
42	0x3df857f4	0.12126151
43	0x3dca0981	0.09865094
44	0x3dde91de	0.10867666
45	0x3dfcc2f8	0.12341875
46	0x3d8ffe5e	0.070309386
47	0x3d7dbca5	0.061947484
48	0x3d20f31f	0.03929436
49	0x3ca6994c	0.02033677
50	0x3d6a90a1	0.057266835
51	0x3df19636	0.117962286
52	0x3d457233	0.048204612
53	0x3cfd178c	0.030895017
54	0x3dbc728a	0.09201534
55	0x3d85f417	0.06540697
56	0x3d8ec27c	0.06970689
57	0x3d584220	0.052797437
58	0x3c9c124c	0.019051693
59	0x3d8340ad	0.0640882
60	0x3d834830	0.06410253
61	0x3d766d06	0.060162567
62	0x3cc1f00d	0.023674035
63	0x3d5826af	0.052771267
