SND_trackers_My_data/9X0_file/24_9X0_coordconv_Label_Vh5.pt (torch, 327805 bytes, 25 tensors)

weight f4 [32, 9, 3, 3]
0	0xbca05cd9	-0.019575523
1	0xbd121323	-0.03566278
2	0xbbd1e01a	-0.006404889
3	0x3d31f220	0.0434438
4	0xbca655ae	-0.020304527
5	0x3cd8c861	0.026462736
6	0x3d478d69	0.048718844
7	0xbd92cc2f	-0.07167851
8	0x3d1f98ab	0.038963955
9	0x3d2eee95	0.042708
10	0xbd9d44db	-0.07679149
11	0x3b6ac664	0.0035823816
12	0xbd5b9731	-0.053610984
13	0x3d5bbb11	0.053645197
14	0x3d435be7	0.047695067
15	0xbd9fdbec	-0.07805619
16	0x3d8d8e91	0.06911958
17	0xbc2338d8	-0.009962283
18	0xbc019656	-0.007909378
19	0x3c8918d3	0.01673547
20	0xbc63a65c	-0.013894644
21	0xbc2b7341	-0.01046449
22	0x3be5d42c	0.0070138182
23	0x3c9cf8b6	0.019161563
24	0x3ba89708	0.0051449575
25	0x3d459db5	0.048246104
26	0xbbb6a109	-0.005573396
27	0x3d581dea	0.052762903
28	0xbd9f19c5	-0.07768587
29	0x3d1ed688	0.03877881
30	0xbdd851f7	-0.105625086
31	0xbded003d	-0.11572311
32	0xbd8a9451	-0.0676657
33	0xbdd45c5a	-0.10369177
34	0x3c3383d1	0.01095672
35	0xbde5dd77	-0.11223882
36	0x3d1fbd4f	0.038998898
37	0xbcbc33b3	-0.02297387
38	0xbdb86669	-0.09003908
39	0x3d66ced0	0.056349576
40	0xbda9d556	-0.08292644
41	0x3ce67b5d	0.028134996
42	0xbd2c38bf	-0.042046305
43	0x3d45925b	0.04823528
44	0xbc051018	-0.008121513
45	0x3d19b34a	0.0375245
46	0x3d3e61fa	0.046480156
47	0xbcdb7b0e	-0.026792075
48	0x3d384001	0.044982914
49	0xbdc61dbb	-0.096736394
50	0x3d6ea249	0.058260236
51	0x3d380dd9	0.04493508
52	0x3d8938f1	0.06700314
53	0xbd3e8c90	-0.04652077
54	0x3bb25041	0.005441696
55	0xbd6ddb1a	-0.05807028
56	0xbd5c7115	-0.05381878
57	0x3da07f09	0.0783673
58	0xbd0ec5eb	-0.034856718
59	0x3a1d0738	0.00059901504
60	0xbc577dbf	-0.013152539
61	0x3d6a561c	0.057211027
62	0x3c53be30	0.012923762
63	0xbd5f041f	-0.05444729
64	0xbdb55bba	-0.08855386
65	0xbd9f9ced	-0.07793603
66	0xbdbf3aa6	-0.09337358
67	0xbdced190	-0.100985646
68	0xbdbc29fa	-0.09187694
69	0xbdb97f16	-0.09057443
70	0xbdbf96a5	-0.09354905
71	0xbdb924fa	-0.09040256
72	0x3e1c4f54	0.15264636
73	0xbd811aef	-0.06303965
74	0x3d53b07a	0.051681973
75	0xbd88e11e	-0.06683563
76	0xbd4aec47	-0.049541738
77	0x3d737bfc	0.059444413
78	0x3c62eb52	0.01385005
79	0x3ab47617	0.0013768104
80	0xbd539bf9	-0.05166242
81	0x3aefa856	0.0018284421
82	0xbbbf165c	-0.005831523
83	0xbc96eda3	-0.01842386
84	0x3b4ce8d7	0.0031266713
85	0x3b212b18	0.0024592336
86	0xbc9a4c6f	-0.018835275
87	0xbc47b392	-0.012188809
88	0x3cb5ab2c	0.022176348
89	0x3caa87df	0.020816742
90	0xbbaf0619	-0.005341303
91	0x3baca081	0.005268157
92	0xbbbf47e1	-0.005837426
93	0xbb62ffcc	-0.003463733
94	0xbb258658	-0.0025257077
95	0x3963c2f6	0.00021721036
96	0xba0bf2c3	-0.00053386035
97	0xbb6a15fd	-0.0035718672
98	0x3a757ec2	0.00093648967
99	0xbc4ea38e	-0.012612237
100	0xbc0bae43	-0.008525434
101	0xbc1de4ec	-0.009637099
102	0xbc4eacc2	-0.012614431
103	0xbbad44b2	-0.00528773
104	0xbb04d221	-0.0020266848
105	0xbc586a14	-0.013208885
106	0xbba6ec6a	-0.0050941007
107	0xbaf70ea6	-0.001884897
108	0x3d7af6cc	0.06127052
109	0x3d93c05a	0.072144225
110	0x3d2debb5	0.042461116
111	0xbcd0287b	-0.025409928
112	0x3c278f70	0.010227069
113	0x3d9b8a9b	0.07594796
114	0x3d45104e	0.048111252
115	0x3d8b030a	0.06787689
116	0x3d2536d4	0.04033549
117	0x3c1049f5	0.008806695
118	0xbcf7c8e9	-0.030247169
119	0xbcbf0b82	-0.023320917
120	0xbd9f8682	-0.07789327
121	0xbd63b326	-0.05559077
122	0x3d9c6ba3	0.076377176
123	0x3d8135c6	0.063090846
124	0xbd77d94d	-0.06050997
125	0xbcf35970	-0.029705733
126	0xbd06bf1e	-0.032897107
127	0x3d42ef9b	0.047591787
128	0xbd16f133	-0.03685112
129	0xbd31e719	-0.043433283
130	0xbd0add8f	-0.0339027
131	0x3c9bba70	0.019009799
132	0x3db9bf2c	0.09069666
133	0xbce84f6e	-0.028358188
134	0xbcb34221	-0.021882119
135	0xbc1c093f	-0.009523689
136	0x3b04fe3a	0.0020293132
137	0xbcf3a55d	-0.029741937
138	0xbcad50b7	-0.021156652
139	0xbacdccd3	-0.0015701301
140	0x3c394afb	0.011309381
141	0xb8b0bab9	-8.427114e-05
142	0x3da3db3f	0.08000802
143	0xbd45953a	-0.048238017
144	0xbcaf3b89	-0.021390693
145	0xbd02f721	-0.03197396
146	0x3b2fd1d4	0.0026827948
147	0xbd35202f	-0.044220146
148	0xbce36d11	-0.027761968
149	0xbca2c9bb	-0.019871583
150	0x3d552627	0.052038338
151	0x3b95bc2a	0.00456955
152	0x3caba1da	0.0209512
153	0x3d2a24c4	0.04153897
154	0xbc7185b3	-0.014741349
155	0xbd236608	-0.039892226
156	0x3c34f9d3	0.011045891
157	0xbc15a9ce	-0.009134723
158	0xbca02ee5	-0.019553611
159	0x3d793420	0.060840726
160	0xbc2e31b1	-0.010631965
161	0x3cba83bd	0.022767896
162	0x3cb00616	0.021487277
163	0xbd3d56dc	-0.046225414
164	0xbcc966e5	-0.024585197
165	0x3d4fb1ad	0.050706554
166	0x3a7469b0	0.000932361
167	0x3bcb2bf6	0.006200309
168	0x3c467dc4	0.012114946
169	0xbcc30339	-0.023805248
170	0x3b5bafc9	0.0033521524
171	0x3a979188	0.0011563757
172	0x3c65c101	0.0140230665
173	0x3d34f197	0.04417571
174	0x3c609c25	0.013709103
175	0xbccd17dd	-0.025035793
176	0xbc650a2c	-0.013979476
177	0x3cc22b8b	0.023702404
178	0x3d47a20f	0.048738535
179	0x3cb4869e	0.022036847
180	0x3d0a0933	0.03370018
181	0x3d1a0d59	0.037610386
182	0x3d2ece04	0.04267694
183	0x3d098208	0.033571273
184	0x3d2be861	0.04196966
185	0x3d0e8899	0.03479824
186	0x3d51a47d	0.05118226
187	0x3d2d82a8	0.04236093
188	0x3cbdab35	0.023152927
189	0x3d846237	0.064640455
190	0x3d139de2	0.03603924
191	0x3d890d58	0.06691998
192	0x3cb9b468	0.022669032
193	0x3e25438e	0.16139051
194	0x3d882d46	0.0664926
195	0x3ccc44ff	0.024935244
196	0x3daf3a54	0.08556047
197	0x3d5c85f7	0.053838696
198	0x3c95a212	0.018265758
199	0x3d37a026	0.044830464
200	0xbcfdbea8	-0.030974701
201	0x3d8e9858	0.06962651
202	0x3c8d8a95	0.017277995
203	0xbc5d7859	-0.013517463
204	0x3d19ea23	0.037576806
205	0x3c5f2a0e	0.013620866
206	0x3d9a8711	0.07545293
207	0x3d7b6c52	0.0613826
208	0xbbacd84d	-0.0052748085
209	0x3a5f0f2c	0.00085090357
210	0x3d8488a4	0.06471375
211	0x3dc0d9f9	0.09416575
212	0x3d529204	0.051408783
213	0x3caa66f2	0.020801041
214	0x3d25fdea	0.040525354
215	0x3d192816	0.037391745
216	0x3c9b1068	0.018928722
217	0x3c6319db	0.013861145
218	0x3d0925f0	0.033483446
219	0x3d8f7132	0.07004012
220	0x3c86fb99	0.016477393
221	0x3d0a4a44	0.03376223
222	0x3d8d88f0	0.069108844
223	0xbc3d5d16	-0.011557838
224	0x3d8c21a0	0.06842351
225	0x3c4ca884	0.012491349
226	0x3cd7c442	0.0263387
227	0x3d91d968	0.07121545
228	0x3c8b3e71	0.016997548
229	0x3cf1a1fb	0.029496184
230	0x3d0e2574	0.034703687
231	0x3d2ef45f	0.04271352
232	0x3c0ab9a6	0.008467114
233	0x3d6640bf	0.05621409
234	0x3d63e632	0.055639453
235	0x3dbe23f8	0.09284204
236	0x3ca1e85e	0.019764122
237	0xbb243ab6	-0.0025059409
238	0x3cef57a5	0.029216597
239	0x3dd0d9e8	0.10197812
240	0x3dfc909c	0.123322695
241	0x3da0d8c4	0.07853845
242	0x3d61e804	0.055152908
243	0xbdb4f106	-0.08835034
244	0x3d8c495e	0.06849931
245	0xbb8d7fd4	-0.004318217
246	0xbcc97fa0	-0.02459699
247	0x3daf131e	0.08548568
248	0xbd1e1376	-0.03859278
249	0x3d8a64a1	0.06757475
250	0x3cace858	0.021106884
251	0xbd8b27c2	-0.067946926
252	0xbd02c1ab	-0.031922977
253	0x3d49e537	0.049290862
254	0x3dbef2b9	0.093236394
255	0x3c86d81c	0.01646047

bias f4 [32]
0	0xba9829f7	-0.0011609186
1	0xbb34a1b0	-0.0027562194
2	0x3c3d543e	0.011555729
3	0x3d07bc13	0.033138346
4	0xbb2f10b7	-0.0026712844
5	0xbbe0738b	-0.0068497113
6	0x3bc62c8e	0.006047792
7	0xbbb60cc1	-0.0055557196
8	0xbbb058fe	-0.0053817024
9	0xbb31f2bb	-0.0027152735
10	0xbc566887	-0.013086445
11	0x3ba48689	0.0050209207
12	0x3c088e5a	0.0083347205
13	0xbcb17cd5	-0.02166597
14	0x3c07bd5a	0.008284891
15	0x3a5791a7	0.0008223303
16	0xbab7fd2c	-0.0014037243
17	0xbba933a9	-0.005163629
18	0x3b924683	0.004463972
19	0xbbebd3c3	-0.007196875
20	0x3b866413	0.0041012852
21	0x3c31d173	0.010853159
22	0xbc4ff40c	-0.012692463
23	0x3b90db09	0.0044206423
24	0x3c8c61d2	0.017136488
25	0xbd232a43	-0.039835226
26	0xbbe1a16b	-0.0068856976
27	0xbc6b864e	-0.014375282
28	0xbc249997	-0.010046384
29	0x3c43fc6b	0.011962037
30	0x3b6175c6	0.0034402474
31	0x3b9dec7c	0.004819451

weight f4 [32]
0	0x3f08701e	0.5329608
1	0x3ea45ce6	0.32102126
2	0x3f25d936	0.6478456
3	0x3f1b1c66	0.6059021
4	0x3f00b0fd	0.5027006
5	0x3e9fca46	0.3120901
6	0x3ef20e5c	0.4727658
7	0x3f186906	0.59535253
8	0x3eea035a	0.45705682
9	0x3ebdc645	0.3706533
10	0x3eb4bd34	0.353006
11	0x3f081737	0.53160423
12	0x3e95c80d	0.2925419
13	0x3f1f5c89	0.6225057
14	0x3e93a853	0.2883936
15	0x3f0e2c60	0.5553646
16	0x3e8ee1e4	0.27906716
17	0x3ebbe2a5	0.36696354
18	0x3f1146df	0.56748766
19	0x3ef7ab8a	0.4837306
20	0x3e850a32	0.2598434
21	0x3f1e7dc0	0.6191063
22	0x3eef06d7	0.46684906
23	0x3ec1f961	0.37885574
24	0x3ecb740e	0.3973698
25	0x3eedc651	0.46440366
26	0x3f04216d	0.51613504
27	0x3ee9d9fa	0.45674115
28	0x3f216df0	0.63058376
29	0x3ebaffba	0.3652323
30	0x3f0a9042	0.5412637
31	0x3e95f3c4	0.2928754

bias f4 [32]
0	0xba84d5f1	-0.001013456
1	0xbe0a988f	-0.13534759
2	0xbec00254	-0.37501776
3	0x3c623ce5	0.013808464
4	0x3d16a189	0.036775146
5	0xbd8d5271	-0.0690049
6	0xbe855d18	-0.26047587
7	0xbb243c1b	-0.002506024
8	0x3bcc0622	0.006226317
9	0xbbac8c41	-0.005265743
10	0x3bd38f8a	0.00645632
11	0xbe9ee8f2	-0.31037098
12	0xba5a7e6c	-0.00083348784
13	0x3c40bcda	0.011763776
14	0xbb92dbf5	-0.0044817873
15	0xbbadb723	-0.0053013726
16	0xbc643428	-0.013928451
17	0xbd9cc5a0	-0.076548815
18	0xba49d11b	-0.00076987006
19	0xbbbaf602	-0.005705596
20	0xbce5fe54	-0.028075375
21	0xbea0425c	-0.31300628
22	0xbb65b798	-0.0035052057
23	0xbe7717d1	-0.24130179
24	0x3cc61f95	0.024184981
25	0xbb54937a	-0.0032436536
26	0xbc096c99	-0.008387708
27	0xbdd83498	-0.105569065
28	0x3ae5e815	0.0017540479
29	0xbd252c44	-0.040325418
30	0xbe980363	-0.29690084
31	0xbcae641f	-0.021287976

running_mean f4 [32]
0	0x3d072a46	0.0329993
1	0xbd177fd6	-0.03698715
2	0x3e5f4218	0.21802557
3	0x3d372196	0.044709764
4	0xbcf0f9de	-0.029416021
5	0xbd791725	-0.060813088
6	0x3defa149	0.117006846
7	0xba9ec377	-0.0012112696
8	0xb9e3beb3	-0.00043438896
9	0x3b772c53	0.0037715628
10	0xbc285d77	-0.01027619
11	0x3de5789d	0.11204646
12	0xbc1f4da1	-0.009723098
13	0xbc620586	-0.013795262
14	0xbc19cc41	-0.009387077
15	0x3cfc8d75	0.03082917
16	0xbce096c7	-0.027415646
17	0xbdcd4734	-0.100233465
18	0x3c18b1ff	0.009319781
19	0xbbfb199f	-0.0076629664
20	0xbaf5fd52	-0.0018767512
21	0x3e0c6383	0.13709836
22	0xbc8e3b64	-0.017362304
23	0x3d96dea3	0.07366683
24	0x3c58dff0	0.013236985
25	0xba040411	-0.00050360063
26	0xbc5c65a9	-0.013451972
27	0xbda6f499	-0.08152122
28	0xbbc314c3	-0.0059534027
29	0x3cae94eb	0.021311244
30	0x3de341b6	0.11096518
31	0xbcc16aaa	-0.023610432

running_var f4 [32]
0	0x3df8f1f8	0.12155527
1	0x3c9048bc	0.017612807
2	0x3ebe0772	0.37115055
3	0x3d049031	0.032364074
4	0x3c82ba30	0.015957922
5	0x3c894cd9	0.016760277
6	0x3d9cdba3	0.0765908
7	0x3e0ba40b	0.13636796
8	0x3d0938ce	0.03350144
9	0x3d1806db	0.037115913
10	0x3d7a9996	0.061181627
11	0x3e98e255	0.29860178
12	0x3d043f1f	0.03228676
13	0x3d1d3585	0.03838112
14	0x3d37483f	0.044746634
15	0x3e0a14b6	0.13484463
16	0x3d775199	0.060380552
17	0x3d5bafce	0.053634457
18	0x3d94aa27	0.072590165
19	0x3e089de1	0.13341476
20	0x3dae3a71	0.085072406
21	0x3e9507b7	0.29107448
22	0x3dc53369	0.09628946
23	0x3df07533	0.11741104
24	0x3d6b8e5a	0.057508804
25	0x3c8377fa	0.01604842
26	0x3df8a41a	0.12140675
27	0x3dd864dd	0.10566113
28	0x3e0a61c2	0.13513854
29	0x3d82142b	0.06351503
30	0x3e93123f	0.28724858
31	0x3d08de2c	0.033415005

weight f4 [32, 35, 3, 3]
0	0xbca614aa	-0.020273525
1	0x3c3ac7f7	0.011400214
2	0xbc4001a7	-0.011719144
3	0x3cc0746f	0.02349302
4	0xb9fd4128	-0.00048304466
5	0xbc917063	-0.017753785
6	0x3cc948f6	0.024570923
7	0xbca06f2d	-0.019584263
8	0x3c82446a	0.015901763
9	0x3b3958b4	0.002828163
10	0x3c067f30	0.008209035
11	0xbc8c4352	-0.017121945
12	0x3c76ecd0	0.015071109
13	0x3c3086c9	0.010774323
14	0x3c6333e2	0.01386735
15	0xbc9de4bc	-0.019274108
16	0xbc9822c5	-0.018571267
17	0x3ae6d2c8	0.0017610425
18	0x3b085420	0.0020802096
19	0xbb278819	-0.0025563298
20	0xbaf77259	-0.0018878683
21	0xbab7bf76	-0.0014018852
22	0xbb2b80c3	-0.0026169277
23	0xba99a366	-0.001172167
24	0x3b2fc24c	0.002681869
25	0xba301683	-0.00067172217
26	0xbaa9cc83	-0.0012954626
27	0x3b939fcd	0.0045051337
28	0xbc566f3d	-0.013088045
29	0xbcdd4e44	-0.027014859
30	0x3c2f6b84	0.010706786
31	0x3bff2beb	0.007787218
32	0xba216c57	-0.00061578065
33	0x3d3b4ca0	0.045727372
34	0x3d21400b	0.039367717
35	0x3c8e5e10	0.017378837
36	0xbccf52e7	-0.025308086
37	0xbd1debbe	-0.0385549
38	0xbd9b8f96	-0.07595746
39	0xbd6a9e41	-0.05727983
40	0xbda37cfe	-0.07982825
41	0xbd1c603e	-0.03817772
42	0xbd268b33	-0.040660094
43	0xbd0612e5	-0.032732863
44	0x3c0c8589	0.008576759
45	0x3d18ada4	0.03727497
46	0xbca44141	-0.020050647
47	0xbcbde45a	-0.023180176
48	0xbc91cd42	-0.01779807
49	0xbdb9724e	-0.09055005
50	0xbd178e1b	-0.037000757
51	0xbd88494b	-0.066546045
52	0xbd6cd8d9	-0.05782399
53	0xbc751d0b	-0.014960538
54	0xbc9290a9	-0.017891245
55	0xbbed62a3	-0.0072444244
56	0xbd063088	-0.032761127
57	0xba503ea2	-0.00079439033
58	0x3c1e2e65	0.009654616
59	0xbab745a9	-0.0013982552
60	0x3d4399a7	0.047753956
61	0x3d07e264	0.033174887
62	0x3c09c74a	0.008409331
63	0xbc005826	-0.007833516
64	0x3c229551	0.009923295
65	0x3a8457d9	0.0010096981
66	0x3d3e77cb	0.046500962
67	0x3c87eb6c	0.01659175
68	0xbd38b6d1	-0.045096222
69	0x3d122185	0.035676498
70	0xbcc6a998	-0.02425079
71	0xbc64075f	-0.013917773
72	0xbbaaddd0	-0.0052144304
73	0x3d249bff	0.040187832
74	0x3a7a0857	0.0009537986
75	0x3d2b9eb9	0.041899417
76	0xbd2e80d1	-0.042603318
77	0xbcb485fe	-0.022036549
78	0x3c0973c7	0.00838942
79	0xbd9b1602	-0.07572557
80	0x3cda168b	0.026622077
81	0x3c020e82	0.007938029
82	0xbd065bba	-0.03280232
83	0xbcaa95f3	-0.020823454
84	0xbcb4ef8f	-0.022086887
85	0xbd9356d0	-0.071942925
86	0xbd08158f	-0.033223685
87	0xbce77a51	-0.028256567
88	0xbd6dbac3	-0.058039438
89	0x3bc7c701	0.006096721
90	0x3ce0376f	0.027370183
91	0x3d115165	0.035478014
92	0x3b7aa43e	0.0038244869
93	0x3d4e814c	0.050416276
94	0x3d00db80	0.03145933
95	0x3d435940	0.047692537
96	0x3d8b97c4	0.06816056
97	0x3d354559	0.04425559
98	0x3d20f75c	0.0392984
99	0xbd1cce19	-0.038282488
100	0x3c448c39	0.011996322
101	0xbd020a87	-0.03174832
102	0x3cf51c2a	0.029920656
103	0xbd148bde	-0.0362662
104	0x3c56491e	0.013078956
105	0x3d1e065d	0.038580287
106	0x3d705916	0.05867871
107	0x3ce096fe	0.027415749
108	0x3a5f6012	0.00085210905
109	0xbb8a814a	-0.0042268382
110	0xbd913d52	-0.07091774
111	0xbcaff8a9	-0.021480875
112	0xbd0574d2	-0.03258211
113	0x3b40a92c	0.002939771
114	0x3d8224f7	0.06354707
115	0x3d26c753	0.040717434
116	0x3cfcb98b	0.030850193
117	0xbcdb89a0	-0.026799023
118	0xbbc972c0	-0.0061477125
119	0xbd60971a	-0.0548316
120	0xbc40862b	-0.011750738
121	0x3badd9e2	0.0053055147
122	0xbb872460	-0.0041242093
123	0x3cca456a	0.024691302
124	0x3d1451e9	0.036210928
125	0x3c9f050f	0.019411592
126	0x3d10914f	0.035294827
127	0x3c889ea1	0.016677203
128	0xbc00e044	-0.007865969
129	0xbbf12047	-0.007358584
130	0xbda2c59a	-0.07947846
131	0xbc2c84ba	-0.010529691
132	0xbcb265f5	-0.021777133
133	0xbd93140c	-0.07181558
134	0x3cb259a9	0.021771269
135	0xbcbfd1d0	-0.023415476
136	0x3b688b04	0.003548325
137	0x3cfa1ced	0.030531371
138	0x3c36f294	0.011166234
139	0xbc27f124	-0.0102503635
140	0xbc438de5	-0.011935686
141	0x3d6fef77	0.05857798
142	0xbc785301	-0.015156508
143	0x3c75bc57	0.014998517
144	0xbd9e43c7	-0.07727771
145	0x3d2306aa	0.039801277
146	0xbbd7dadf	-0.0065873708
147	0x3d0c9750	0.03432399
148	0xbaea1541	-0.0017859117
149	0xbcaa8cce	-0.020819094
150	0x3cfe511b	0.031044533
151	0xbca4bbd7	-0.0201091
152	0x3c5be796	0.013421914
153	0x3aeb645d	0.0017958988
154	0x36a3c823	4.8810775e-06
155	0x3ca4a5a1	0.02009851
156	0x3b0d5679	0.0021566434
157	0x394be70d	0.00019445662
158	0xbcf78a80	-0.03021741
159	0x3d0aaa49	0.033853803
160	0x3a32e719	0.00068245974
161	0xbbe0b4a1	-0.00685747
162	0xbc2d56e9	-0.010579803
163	0x3c3e47c0	0.011613786
164	0xbbd6122b	-0.0065329275
165	0x3b8654cd	0.0040994645
166	0xbc2b300d	-0.010448468
167	0x3d0a499a	0.0337616
168	0x3d25cfd5	0.040481407
169	0x3cfc4113	0.030792749
170	0x3cbbcf7d	0.022926087
171	0xbc5e426d	-0.013565642
172	0x3d1aae0d	0.037763644
173	0x3bb5c0f2	0.0055466825
174	0x3b06705a	0.0020513744
175	0xbb2669ad	-0.0025392578
176	0xbbe964ab	-0.0071225963
177	0x3ca0d9d6	0.019635122
178	0xbc46f54b	-0.012143443
179	0x3d448ff7	0.047988858
180	0x3c995575	0.018717507
181	0x3b945643	0.0045268848
182	0xbc8bb341	-0.017053248
183	0xbd0700d2	-0.032959767
184	0xbd9ec58a	-0.07752521
185	0xbc45ca78	-0.012072198
186	0xbd45cbb2	-0.048289962
187	0xbd74c1df	-0.059755202
188	0xbba8df9e	-0.0051536104
189	0xbc800b91	-0.015630515
190	0x3ce1f7cf	0.027583985
191	0x3c701313	0.014652985
192	0x3d325b84	0.043544307
193	0x3c8a1835	0.016857246
194	0x3c6e0fd6	0.014530143
195	0x3c1eae8e	0.009685172
196	0xbb86a0ca	-0.004108523
197	0x3d03bbb2	0.032161422
198	0xbbc5c20a	-0.006035094
199	0x3ccd2699	0.025042819
200	0xbc53e579	-0.0129331285
201	0xb9fdde9b	-0.00048421774
202	0xbce0d5c2	-0.027445678
203	0xbc1c99a6	-0.009558117
204	0x3cf4f0db	0.029900005
205	0x3d8180e3	0.06323411
206	0x3d121e7b	0.0356736
207	0xbc842ed9	-0.01613562
208	0xbd2abeba	-0.041685797
209	0xbcdbcd7e	-0.026831385
210	0xbccfb6dc	-0.025355749
211	0xbd23a55c	-0.03995262
212	0xbc0ba84e	-0.008524014
213	0x3c362d14	0.011119146
214	0xbc4b3d0f	-0.012404694
215	0x3c1f2613	0.009713667
216	0x3c964052	0.018341217
217	0xbcceb875	-0.02523444
218	0xbd08de83	-0.03341533
219	0xbcd06b00	-0.025441647
220	0xbd8c5b45	-0.06853346
221	0xbcf515db	-0.029917648
222	0xbd436d0e	-0.047711425
223	0xbd736b3a	-0.05942843
224	0xbc892f8e	-0.016746309
225	0xbd128085	-0.035767097
226	0x3cc33d5d	0.023832971
227	0x3b8d5e2c	0.0043142047
228	0x3c806975	0.015675286
229	0xbc20c405	-0.00981236
230	0x3bcd27a0	0.006260827
231	0x3cc3d5b6	0.023905616
232	0x3984aedc	0.00025307282
233	0x3b8eb054	0.004354516
234	0x3c9b6448	0.018968716
235	0x3c180845	0.009279315
236	0xbc24954e	-0.010045363
237	0xbc8fba84	-0.017544992
238	0xbd67da70	-0.056604803
239	0xbc31151f	-0.010808258
240	0xbd0105ce	-0.031499676
241	0xbcd6a093	-0.026199615
242	0x3cb522ef	0.022111384
243	0x3b90ee20	0.004422918
244	0x3cb50e8a	0.02210166
245	0x3a302fc6	0.0006720986
246	0x3cca7214	0.0247126
247	0x3c04b364	0.008099411
248	0xbbf0c4ac	-0.007347664
249	0x3d16ad5a	0.036786415
250	0x3b35fea3	0.0027770184
251	0x3b0fbf9c	0.0021934276
252	0xbd0c1f66	-0.03420963
253	0x3a886fc7	0.0010409289
254	0x3cd5f901	0.02611971
255	0x3cca6202	0.024704937

bias f4 [32]
0	0x3b59dc9f	0.0033243073
1	0xbbae7f30	-0.0053252205
2	0x3c3b143c	0.0114183985
3	0x3afc85f3	0.0019265994
4	0xbc39fb83	-0.011351469
5	0xbbb91daf	-0.0056492905
6	0xbc884739	-0.016635524
7	0x3b27330c	0.0025512604
8	0xbd04d1f2	-0.032426782
9	0xbb98995f	-0.004656955
10	0x3a588f35	0.00082610856
11	0x3b386366	0.0028135418
12	0x3ad4b827	0.0016229198
13	0x3bc6de44	0.0060689766
14	0xb970c968	-0.00022963213
15	0x3b880150	0.004150547
16	0x3a89ed4c	0.001052299
17	0xbbe421d3	-0.00696204
18	0x39ed77f5	0.00045293538
19	0xbb9e08c2	-0.0048228214
20	0x3a4549dd	0.000752596
21	0xbc8a2528	-0.01686342
22	0xbb57f24e	-0.0032950821
23	0xbb9071dc	-0.0044081043
24	0xbb3d72a8	-0.0028907452
25	0x3b099f92	0.0020999652
26	0xb9540958	-0.00020221376
27	0xbb04bf91	-0.0020255784
28	0x39917e3b	0.00027750604
29	0x3c8d0108	0.017212406
30	0x3aa2eb9c	0.0012429836
31	0xbc928b47	-0.017888678

weight f4 [32]
0	0x3f0979e1	0.537016
1	0x3edc4e93	0.43028697
2	0x3f04d72c	0.51890826
3	0x3e8f3255	0.27968088
4	0x3edabdc8	0.42722917
5	0x3ea7c6ea	0.32768947
6	0x3ec9ddb9	0.39426973
7	0x3eb07e35	0.34471288
8	0x3f087425	0.5330222
9	0x3f072f60	0.52806664
10	0x3e70d6ad	0.23519392
11	0x3ec05fce	0.37573093
12	0x3ed1b7ed	0.40960637
13	0x3ed36081	0.41284564
14	0x3ece3e9b	0.4028214
15	0x3f09310f	0.5359048
16	0x3ec30e9f	0.38097093
17	0x3ef179cf	0.47163245
18	0x3eb7d6e7	0.35906145
19	0x3ebde7ed	0.37091008
20	0x3ec1a444	0.37820637
21	0x3eb68917	0.35651466
22	0x3ed5178e	0.41619533
23	0x3ee44bfe	0.44589227
24	0x3ec56929	0.38556793
25	0x3edba8e7	0.429023
26	0x3e96d9b9	0.29462984
27	0x3eab5ddf	0.33470055
28	0x3eeefe8d	0.46678582
29	0x3f2a7e88	0.6659932
30	0x3ec80591	0.39066747
31	0x3f05b9eb	0.52236813

bias f4 [32]
0	0x3d8da220	0.069156885
1	0xbd81d686	-0.06339745
2	0x3da6dcc5	0.08147577
3	0xbd73a024	-0.059478894
4	0x3de0cb98	0.109763324
5	0xbd33fdb7	-0.043943133
6	0x3d9b5f4b	0.07586535
7	0xbdbaf18a	-0.09128101
8	0x3e3aadeb	0.18230407
9	0x3e00f7fd	0.125946
10	0xbb5ae876	-0.0033402718
11	0x3bd3c891	0.0064631184
12	0xbe1f78df	-0.15573452
13	0xbd2a989f	-0.041649457
14	0xbda46a4d	-0.08028088
15	0x3d9b274f	0.07575857
16	0xbdf0ed27	-0.11763983
17	0x3d8e075c	0.069349974
18	0xbe2292af	-0.15876268
19	0x3c07a356	0.008278688
20	0xbd87ae16	-0.06625001
21	0x3d3de0a5	0.046356816
22	0xbe24aa1a	-0.16080514
23	0xbe1ccf9d	-0.15313573
24	0x3d28af19	0.04118261
25	0x3d492669	0.049108896
26	0xbd2afdc2	-0.04174591
27	0xbde0267c	-0.1094484
28	0x3daa063b	0.083019696
29	0x3e5ecb66	0.21757278
30	0xbdd5828f	-0.10425293
31	0x3de7d591	0.113200314

running_mean f4 [32]
0	0x3bee898a	0.0072795795
1	0x3d7eba82	0.062189586
2	0x3d0aee37	0.033918586
3	0x3e441535	0.19148715
4	0xbc4d64b3	-0.012536216
5	0x3d0ef695	0.034903128
6	0x3c89f885	0.016842136
7	0x3e022e24	0.12712914
8	0xbc3717ae	-0.011175079
9	0x3b10090a	0.0021978044
10	0x3cd9bf8a	0.02658059
11	0xbaa5f949	-0.0012662794
12	0x3d803164	0.062594205
13	0xbc9c0249	-0.019044058
14	0x3dba1cff	0.09087562
15	0x3d252e92	0.040327616
16	0x3e250ef3	0.16118984
17	0x3c923533	0.017847633
18	0x3db5ad74	0.08870974
19	0x3d15ccfb	0.036572438
20	0x3dbd5131	0.09244002
21	0x3c94c2d5	0.01815931
22	0x3d8cf03c	0.068817586
23	0x3e06cd19	0.13164176
24	0x3b5479f9	0.0032421334
25	0x3d16cb18	0.03681478
26	0xbcc3f54e	-0.023920681
27	0x3e351f51	0.17687728
28	0xbbdb7f6a	-0.0066985385
29	0x3cc66768	0.02421923
30	0x3da6a8cb	0.081376635
31	0xb963d2cc	-0.00021726935

running_var f4 [32]
0	0x3d93c48d	0.072152235
1	0x3e08a767	0.13345109
2	0x3dced8f5	0.10099975
3	0x3dc104e1	0.09424759
4	0x3cfc0988	0.030766264
5	0x3d3b15bc	0.045675024
6	0x3db5a97c	0.08870217
7	0x3e9b7e4f	0.30369803
8	0x3e334cb2	0.17509726
9	0x3d6e2da8	0.05814901
10	0x3de3bacc	0.11119613
11	0x3e3939b8	0.18088424
12	0x3dc29050	0.09500182
13	0x3e2af150	0.16693616
14	0x3f905f5d	1.1279103
15	0x3d98d710	0.07462895
16	0x3d9449bd	0.07240627
17	0x3de6c335	0.112677015
18	0x3d932f37	0.0718674
19	0x3deb15a2	0.114787355
20	0x3eea473d	0.45757475
21	0x3dc37ec4	0.09545663
22	0x3d8cfcf6	0.06884186
23	0x3d916a8e	0.07100402
24	0x3db38ec8	0.08767468
25	0x3e3ea7e1	0.18618728
26	0x3de530ed	0.111909725
27	0x3d5123ee	0.051059656
28	0x3d392e53	0.045210194
29	0x3da3e4f8	0.08002657
30	0x3e09a4d9	0.1344179
31	0x3e133b82	0.14378169

weight f4 [64, 35, 3, 3]
0	0x3af4dce7	0.0018681557
1	0x3af2ced8	0.0018524779
2	0x3af774ef	0.0018879453
3	0x3af8ec25	0.0018991275
4	0x3b01babb	0.0019795138
5	0x3b007bd9	0.001960507
6	0x3b02c464	0.0019953484
7	0x3af3486a	0.001856101
8	0x3afc8363	0.001926523
9	0xbae5f138	-0.0017543202
10	0xbadbc51b	-0.0016767116
11	0xbadcc286	-0.001684264
12	0xbadf59d5	-0.0017040322
13	0xbae04bd6	-0.0017112445
14	0xbad660d8	-0.0016355766
15	0xbad56dcb	-0.0016283331
16	0xbae12a04	-0.0017178659
17	0xbad5ee60	-0.0016321652
18	0xb9df67e9	-0.00042611294
19	0xb801ff9e	-3.099406e-05
20	0x39d03f44	0.00039719988
21	0x3a5a6eb2	0.0008332535
22	0x3a963874	0.0011460916
23	0x3ac810f4	0.0015263841
24	0x3b11ba38	0.002223624
25	0x3b1be63d	0.0023788356
26	0x3b218735	0.002464724
27	0xbd58aca8	-0.052899033
28	0xbcea43db	-0.02859681
29	0xbd510981	-0.051034454
30	0xbc1b11e4	-0.009464715
31	0xba18b4c7	-0.0005825278
32	0x3c0d1ba7	0.00861255
33	0x3d031135	0.03199883
34	0x3bd5289a	0.006505084
35	0x3c331941	0.010931314
36	0xbb10e8f7	-0.0022111514
37	0xbb9e0094	-0.0048218463
38	0xbba6f981	-0.005095661
39	0xbd3864a7	-0.045017865
40	0xbbaef6c2	-0.0053394744
41	0x3c85667b	0.016284218
42	0x3c2a2c10	0.010386482
43	0xbc3bb0c2	-0.011455717
44	0xbcb4e618	-0.022082373
45	0xbd5d71f1	-0.05406374
46	0xbce32632	-0.027728174
47	0xbd3d5b86	-0.04622986
48	0xbc87669f	-0.016528426
49	0xbcc8e47b	-0.02452301
50	0xbbc1da0f	-0.005915887
51	0x3c1da1b0	0.009621069
52	0xbbad731e	-0.005293264
53	0xbc11a0dc	-0.0088884495
54	0xbc85a38e	-0.01631334
55	0xbcafd6d7	-0.021464748
56	0xb8ed5d8e	-0.000113184666
57	0xbce15342	-0.02750552
58	0xbcd807db	-0.026370933
59	0xbc2e5992	-0.010641472
60	0x3cf1916d	0.02948829
61	0xbc5e19ec	-0.013555985
62	0xbc8cc058	-0.01718156
63	0xbd74ab70	-0.059733808
64	0x3c44744a	0.011990616
65	0xbdd7e2a4	-0.10541275
66	0x3bc64c69	0.0060515893
67	0xbc69ec31	-0.014277504
68	0x3b6ee382	0.0036451523
69	0xbcb59169	-0.022164064
70	0xbd11e1a8	-0.035615593
71	0xbc460c92	-0.012087958
72	0xbbc90256	-0.0061343117
73	0xbc24d44c	-0.010060381
74	0xbc8c7e59	-0.017150091
75	0x3c7562ee	0.0149772
76	0x3c1731fb	0.009228225
77	0x3a8fdcf5	0.0010975885
78	0xbb73b8af	-0.0037188937
79	0xbadf545b	-0.001703869
80	0xbcb1daa1	-0.021710696
81	0xbd4481fa	-0.047975518
82	0xbd014845	-0.031563062
83	0xbd696eff	-0.05699062
84	0x3c398110	0.011322275
85	0x3bdd6c9e	0.006757333
86	0x3ca16765	0.019702623
87	0x3caebf37	0.021331413
88	0x3b98640c	0.0046505984
89	0x3b4b0ffd	0.0030984872
90	0xbc86233f	-0.016374229
91	0xbc75ee32	-0.0150104035
92	0xbbf08956	-0.0073405905
93	0xbbccc76c	-0.006249359
94	0xbc117f0a	-0.008880386
95	0xbc1c2864	-0.009531114
96	0x3ba05a41	0.0048935716
97	0xbb2bd860	-0.00262215
98	0xbbabb916	-0.00524057
99	0xbd3c31e0	-0.045946002
100	0xbb25ad4e	-0.00252803
101	0xbdb1cffe	-0.086822495
102	0x3cc8ba67	0.024502946
103	0xbc236b1b	-0.009974266
104	0xbc8e2cfb	-0.017355433
105	0x3a30a5a8	0.0006738552
106	0xbcdd81ef	-0.027039496
107	0x3bd3ecab	0.006467422
108	0xbcddcc8c	-0.027075075
109	0xbd6603b9	-0.056155894
110	0xbccd977b	-0.025096646
111	0x3c12954f	0.008946731
112	0x3cc8f26a	0.024529655
113	0x3b3d3698	0.0028871652
114	0x3d4a240c	0.049350783
115	0x3cf34c86	0.029699575
116	0xb9307edb	-0.00016831925
117	0xbc51e633	-0.012811231
118	0xbc01ec33	-0.007929849
119	0x3aa88ef6	0.0012859988
120	0xbbe100a8	-0.0068665333
121	0xbc8bbac8	-0.017056838
122	0xbc387f4a	-0.011260817
123	0xbc08c5de	-0.008347956
124	0xbbaa942b	-0.0052056513
125	0xbb913ed5	-0.004432539
126	0xbd05a318	-0.03262624
127	0xbd0713b2	-0.032977767
128	0xbcffe089	-0.031234996
129	0x3cc61074	0.024177767
130	0x3d0ad5a1	0.03389514
131	0x3ce99277	0.028512223
132	0x3d1e0eaa	0.038588203
133	0x3d23ed84	0.040021434
134	0x3cb94e8b	0.02262046
135	0xbc123a99	-0.008925104
136	0xbc4dd3b8	-0.012562685
137	0xbb99de38	-0.00469568
138	0x3ce01b59	0.02735679
139	0x3cec8bb1	0.028875204
140	0x3cb988e8	0.02264829
141	0x3da0e415	0.07856003
142	0x3d317bab	0.04333083
143	0x3d1d4418	0.038395017
144	0xbcb38ff4	-0.021919228
145	0xbc93adb0	-0.018027157
146	0xbcba1c89	-0.022718685
147	0xbb5606fb	-0.003265797
148	0xbc680672	-0.014161693
149	0xbb5b19cf	-0.0033432131
150	0x3bf46809	0.007458691
151	0xbc97e364	-0.018541045
152	0xbca593a7	-0.020212008
153	0xbc48d638	-0.012258105
154	0xbc1e977a	-0.0096796695
155	0xbb2a94d4	-0.002602865
156	0x3b7424ec	0.0037253452
157	0xbc1167c0	-0.008874834
158	0xbb4ae1d1	-0.003095735
159	0xbbab8943	-0.0052348687
160	0xbc368c8f	-0.01114191
161	0xbc2a4ea5	-0.010394727
162	0xbd1a8e32	-0.037733264
163	0xbd0084a1	-0.031376485
164	0xbd2b9877	-0.04189345
165	0x3c863a52	0.016385231
166	0x3be63021	0.0070247804
167	0x3c8c8598	0.017153546
168	0x3ca74217	0.020417256
169	0x3a7ce219	0.0009646728
170	0x38765d79	5.8738024e-05
171	0x39d50391	0.00040629183
172	0xbb085757	-0.0020804012
173	0xbb36f7ad	-0.0027918622
174	0x3d029332	0.031878658
175	0xbd0768e2	-0.03305901
176	0xbd5c43e6	-0.05377569
177	0x3d6356b9	0.055502627
178	0xbb71925e	-0.0036860923
179	0xbca81c3a	-0.020521272
180	0xbd4bcb20	-0.049754262
181	0xbd1746f7	-0.03693291
182	0xbd777504	-0.06041433
183	0x3bcece9f	0.0063112522
184	0xbc48415b	-0.012222613
185	0x3c4d9c54	0.012549479
186	0x3c9b9a9d	0.018994624
187	0xbb96eedc	-0.004606111
188	0x3ba29862	0.004962013
189	0x3a901f90	0.0010995734
190	0xbc86baeb	-0.016446551
191	0xbb0db5b8	-0.0021623205
192	0x3c83ee11	0.01610473
193	0x3cb34a47	0.021886004
194	0x3ca7f04d	0.020500327
195	0x3cf3faa4	0.0297826
196	0x3cd2ee2b	0.025748333
197	0x3c21b592	0.00986995
198	0xbd035ff6	-0.032073937
199	0xbcb8b3d4	-0.022546686
200	0xbd06e834	-0.03293629
201	0x3ca617fd	0.02027511
202	0x3cf43943	0.02981246
203	0x3cb957ab	0.022624811
204	0x3cecb5a3	0.028895205
205	0x3c9f8282	0.01947141
206	0x3b50cd11	0.003186051
207	0xbc83627a	-0.016038168
208	0xbc3557ff	-0.011068343
209	0xbc070e8d	-0.008243215
210	0xbc0538a7	-0.008131183
211	0xbbd44f8b	-0.006479209
212	0xbbaf8465	-0.005356359
213	0xbbad08b6	-0.0052805794
214	0xbc53d0d7	-0.012928209
215	0xbc257877	-0.010099522
216	0xbd1c02ee	-0.03808873
217	0xbd0b2b11	-0.03397662
218	0xbd2049c2	-0.03913284
219	0x3d05dcb6	0.03268119
220	0xbc96ae77	-0.018393738
221	0xbc745ebb	-0.014915164
222	0x3d1c05e7	0.038091566
223	0x3c9d7b9e	0.019223984
224	0xbba5bc41	-0.005057842
225	0xbbfb20c2	-0.007663817
226	0xbc595a9e	-0.013266234
227	0xbc226a63	-0.00991306
228	0x3d009c52	0.03139908
229	0x3bedb55a	0.007254285
230	0x3c36cc12	0.011157053
231	0xbc47ceda	-0.012195313
232	0xbc503267	-0.012707329
233	0xbc20f37c	-0.009823676
234	0xbc93907a	-0.018013228
235	0xbc99b2d1	-0.018762024
236	0xbc713268	-0.01472149
237	0x3c5795b5	0.0131582515
238	0xbc7bd29a	-0.015370036
239	0xbc8a7e82	-0.016906027
240	0x3a8ff4d8	0.0010983003
241	0xbc9ac9e4	-0.018895097
242	0xbc784cc3	-0.01515502
243	0xbd242bff	-0.04008102
244	0xbcf8b608	-0.030360237
245	0xbd5d53fd	-0.054035176
246	0x3c941836	0.01807795
247	0x3cb293aa	0.021798927
248	0x3c63cd5f	0.013903945
249	0x3c75eab8	0.015009575
250	0xba1c83f6	-0.00059705914
251	0x3bca2bca	0.006169771
252	0xbd5ea464	-0.054355994
253	0xbd1f4d40	-0.03889203
254	0xbd48759b	-0.048940282
255	0x3c0cc2a5	0.008591329

bias f4 [64]
0	0xbad1e46b	-0.0016013508
1	0x3a96cbbd	0.001150481
2	0xbbf18c77	-0.007371481
3	0x3a467066	0.0007569849
4	0x398b7628	0.0002660018
5	0x3c065c14	0.008200664
6	0xbb2f76d4	-0.0026773708
7	0xba1f3fcc	-0.0006074875
8	0xbaa347e6	-0.001245734
9	0x3a8bfb1e	0.0010679697
10	0x3bfe3242	0.007757456
11	0x3c0008de	0.007814614
12	0xbad87076	-0.0016513008
13	0x3a696499	0.0008903235
14	0xba6d686a	-0.00090563914
15	0xb96ce730	-0.00022592838
16	0x3ab037ce	0.0013444365
17	0x3946a062	0.00018942499
18	0x3c3821c5	0.01123852
19	0x3864570b	5.44405e-05
20	0xba597e95	-0.0008296755
21	0xbc7012a2	-0.01465288
22	0x3c8be77e	0.017078158
23	0xba8d2951	-0.001076976
24	0xba0ae0b7	-0.00052977673
25	0x3c45aec8	0.012065597
26	0xba5aa8d7	-0.0008341199
27	0xbb464edd	-0.0030259409
28	0xbb0185e3	-0.001976364
29	0xb9b05ee7	-0.00033640044
30	0xb8708f1c	-5.735374e-05
31	0x3a0b72e3	0.00053195487
32	0x3ab6c022	0.0013942758
33	0xbaa5ecb7	-0.0012659047
34	0xba894a49	-0.0010474409
35	0x3aa3e250	0.001250336
36	0xbb0b087b	-0.0021214772
37	0x3b698654	0.0035633044
38	0x3bf363ae	0.007427654
39	0x3b99130f	0.0046714614
40	0x3b262531	0.0025351758
41	0xbc85a7ac	-0.016315304
42	0xb9d50bc4	-0.00040635292
43	0xb9cd8dec	-0.00039206387
44	0x3b88211b	0.004154337
45	0xb90ac078	-0.00013232406
46	0xbc37ac8f	-0.011210575
47	0x3a6392dc	0.00086812465
48	0x39acd82c	0.00032967457
49	0x3b253531	0.0025208707
50	0xbb14db5d	-0.0022713759
51	0x3bf9c8f7	0.007622834
52	0x3c29076b	0.01031671
53	0x3ab1c342	0.001356222
54	0xbbac4501	-0.0052572493
55	0x39cad8fc	0.00038690108
56	0xb90b415d	-0.00013280423
57	0xba4f2144	-0.00079013803
58	0xba40a757	-0.00073491543
59	0x3c02b83b	0.007978494
60	0xbae53618	-0.0017487435
61	0xba9d5506	-0.0012003488
62	0x3b0294ac	0.001992504
63	0x3a100407	0.0005493764

weight f4 [64]
0	0x3ea72f34	0.326532
1	0x3e9673a6	0.29385108
2	0x3f090ded	0.53536874
3	0x3e9cc173	0.3061634
4	0x3e9050a9	0.2818654
5	0x3f0edb1c	0.55803084
6	0x3efe5667	0.49675295
7	0x3ea8e37d	0.3298606
8	0x3eba3ac9	0.36372975
9	0x3ec9ffb1	0.3945289
10	0x3f02c0b5	0.510753
11	0x3efea7bc	0.49737346
12	0x3ea957b1	0.33074716
13	0x3e94eecf	0.29088446
14	0x3ed55ebb	0.41673836
15	0x3e97da44	0.2965871
16	0x3e84aef0	0.25914717
17	0x3ea98e5c	0.33116424
18	0x3ec2861a	0.37992936
19	0x3f13a543	0.57674044
20	0x3ea6bb6b	0.32564864
21	0x3ee1ebf6	0.44125336
22	0x3ef8ee90	0.4861951
23	0x3ec3b27e	0.38222116
24	0x3ee61cc4	0.4494382
25	0x3f096759	0.5367332
26	0x3eb21fe3	0.34789953
27	0x3ee113b2	0.4396034
28	0x3ebcb611	0.36857656
29	0x3ea89b2f	0.32930896
30	0x3eea77d6	0.45794553
31	0x3e634fd6	0.22198424
32	0x3ec7de12	0.39036614
33	0x3e9b3242	0.3031178
34	0x3e9a397c	0.30121982
35	0x3e88c0c1	0.2670956
36	0x3eb3e889	0.35138348
37	0x3eb7d317	0.35903236
38	0x3e92fd13	0.28708705
39	0x3ef2ae10	0.47398424
40	0x3eb7efd7	0.3592517
41	0x3f08b5dc	0.53402495
42	0x3e720896	0.23636088
43	0x3ec3d91c	0.3825158
44	0x3ea6dc17	0.3258979
45	0x3e98da69	0.29854134
46	0x3ee225ec	0.44169557
47	0x3ea80cb0	0.3282218
48	0x3ec62f7c	0.38708103
49	0x3ebfc682	0.37456137
50	0x3e9d29a4	0.30695832
51	0x3f1815ff	0.59408563
52	0x3eaaf7af	0.33392093
53	0x3e8ddbdb	0.277068
54	0x3eeff93b	0.46869835
55	0x3e9e65c7	0.30937025
56	0x3ef49a9c	0.47774208
57	0x3e69c1b7	0.22827803
58	0x3ee9db72	0.45675236
59	0x3ef346a9	0.47514847
60	0x3eac5ca4	0.3366443
61	0x3ecbcbb8	0.39803863
62	0x3ef17984	0.47163022
63	0x3ea39109	0.3194659

bias f4 [64]
0	0xbdf873ab	-0.12131437
1	0xbc6c7668	-0.014432527
2	0x3d008f29	0.03138653
3	0xbdb46076	-0.08807461
4	0xbd97f3db	-0.074195586
5	0x3d077887	0.03307393
6	0xbdbd23b6	-0.09235327
7	0x3db8253f	0.08991479
8	0x3d559b43	0.052150022
9	0xbe08bd44	-0.13353449
10	0x3c3bc782	0.011461141
11	0x3d2faf77	0.042891946
12	0xbdc91c73	-0.098198794
13	0xbd6cb900	-0.057793617
14	0xbdd6acbd	-0.10482166
15	0x3d802b8c	0.06258306
16	0xbda06694	-0.07832065
17	0xbdf55ff9	-0.11981196
18	0xbca906d2	-0.020633135
19	0x3d896172	0.06708039
20	0xbddd137b	-0.10794731
21	0x3e057e60	0.1303649
22	0x3cf6fd27	0.03015001
23	0xbe0b0b37	-0.13578497
24	0xbd3f728f	-0.04674011
25	0x3c3c0aa1	0.0114771435
26	0xbdf1a1c2	-0.11798431
27	0xbdf9a5cd	-0.12189827
28	0xbe0f86a0	-0.14016199
29	0xbdc51f9b	-0.09625169
30	0xbdcf1b96	-0.101126835
31	0xbdb7d7b6	-0.089766905
32	0xbdfe7d41	-0.12426234
33	0xbe0d2847	-0.13784896
34	0xbd98dea4	-0.0746434
35	0xbd5239f1	-0.05132479
36	0xbdeafde4	-0.11474207
37	0x3da38e45	0.0798612
38	0xbcbd9cee	-0.023146119
39	0x3d182293	0.037142348
40	0xbd9b3150	-0.07577765
41	0x3cea1f59	0.0285794
42	0xbd82c824	-0.0638583
43	0xbe04dff7	-0.12976061
44	0xbdfcb1b2	-0.1233858
45	0xbde8442c	-0.11341128
46	0x3dd4b96b	0.10386928
47	0xbde7c836	-0.11317484
48	0xbe022b98	-0.12711942
49	0x3c598d14	0.013278265
50	0xbde2a7e6	-0.1106718
51	0x3c449da8	0.012000479
52	0x3b94e32e	0.0045436835
53	0xbaba2c95	-0.001420396
54	0xbd526642	-0.051367052
55	0xbdd2aabb	-0.102864705
56	0x3d40298d	0.046914626
57	0xbd31afd2	-0.043380566
58	0x3d48b45a	0.04900012
59	0x3be70aad	0.007050833
60	0xbdbfa9ce	-0.093585595
61	0xbdf58ae2	-0.119893804
62	0xbd31ac87	-0.043377426
63	0xbe0c354a	-0.13692203

running_mean f4 [64]
0	0xbdd59b58	-0.1043002
1	0xbe71ff2b	-0.23632495
2	0x3b24313f	0.0025053767
3	0x3d853841	0.0650487
4	0xbd97e7ab	-0.07417234
5	0x3b184100	0.0023232102
6	0xbe4b46c8	-0.1985122
7	0xbe923292	-0.28554207
8	0xbcdc715b	-0.02690952
9	0xbc176b9c	-0.009241965
10	0xbd6349f6	-0.055490457
11	0xbcc84ee3	-0.024451679
12	0xbe685bb2	-0.22691229
13	0xbdf67c50	-0.120354295
14	0xbe3ca7bb	-0.18423359
15	0xbe9061e9	-0.281997
16	0xbe5162cb	-0.20447843
17	0xbe046113	-0.12927656
18	0xbd8420ec	-0.06451592
19	0xbdae91fe	-0.085239395
20	0xbd09aef8	-0.03361413
21	0xbcc18586	-0.02362324
22	0xbc8bfdf7	-0.017088873
23	0xbdc95453	-0.09830537
24	0xbe2d7ef6	-0.16942963
25	0x3c26012e	0.010132117
26	0xbe2cea06	-0.16886148
27	0xbd6abc22	-0.057308324
28	0xbd2b1d5a	-0.04177604
29	0xbe6a7923	-0.22897772
30	0xbccb0de3	-0.024786895
31	0xbdd4d82b	-0.10392793
32	0xbe3fa381	-0.18714716
33	0xbd5bed56	-0.053693138
34	0x3c4516f4	0.012029398
35	0xbe19002c	-0.14941472
36	0xbdcf45ce	-0.10120736
37	0xbe97ab3a	-0.29622823
38	0xbe740c0d	-0.23832722
39	0xbd529044	-0.051407114
40	0xbdd3dfc3	-0.103454135
41	0xbd71f473	-0.059071016
42	0x3a7af363	0.00095730106
43	0xbb13afe9	-0.002253527
44	0xbd1971ca	-0.037462033
45	0xbcb82923	-0.022480553
46	0xbd928f51	-0.07156242
47	0xbe01f7a3	-0.12692122
48	0xbd6e6937	-0.05820581
49	0xbb06364b	-0.0020479138
50	0xbe0602f7	-0.13087068
51	0xbd0b274b	-0.03397302
52	0x3d36590b	0.04451851
53	0xbe63e60a	-0.22255722
54	0xbcab16ad	-0.020884836
55	0xbd0a22b5	-0.033724505
56	0xbd5d1f99	-0.053985212
57	0xbd7c7223	-0.061632287
58	0x3ce9a000	0.028518677
59	0xbdf20fd1	-0.11819423
60	0xbe75a52b	-0.23988788
61	0xbd863ba4	-0.06554344
62	0xbdfdac63	-0.12386396
63	0xbb6cb00c	-0.0036115674

running_var f4 [64]
0	0x3c989e10	0.018630058
1	0x3c43be43	0.011947217
2	0x3c1b27a1	0.0094698975
3	0x3d7c6ef6	0.061629258
4	0x3d8aafea	0.06771834
5	0x3cd40c06	0.02588464
6	0x3ce1e672	0.027575705
7	0x3dc93d9a	0.09826203
8	0x3c069844	0.008215014
9	0x3d1e3a58	0.03862986
10	0x3bc687c4	0.006058665
11	0x3c108577	0.008820883
12	0x3da061ff	0.07831191
13	0x3d0a0eec	0.033705637
14	0x3d032837	0.032020774
15	0x3dd149be	0.10219143
16	0x3d56064d	0.052252103
17	0x3d4489ee	0.047983103
18	0x3c8af024	0.016960211
19	0x3c005bf2	0.0078344215
20	0x3e1f87c0	0.15579128
21	0x3bbe1812	0.0058012092
22	0x3c518c06	0.012789732
23	0x3c84c63f	0.016207812
24	0x3c4f74dd	0.01266214
25	0x3bf8899b	0.007584763
26	0x3d81974e	0.06327687
27	0x3d229cd4	0.039700344
28	0x3cbbd339	0.022927867
29	0x3d314203	0.043275844
30	0x3ccbd492	0.024881635
31	0x3cce1a6e	0.025159087
32	0x3d08e88a	0.03342489
33	0x3c379cef	0.0112068495
34	0x3d30576d	0.043052126
35	0x3cf77aa4	0.030209847
36	0x3d613602	0.054983146
37	0x3dce5100	0.10074043
38	0x3cc0c120	0.02352959
39	0x3bd38e62	0.0064561823
40	0x3c81b3d1	0.015832813
41	0x3c9c6eed	0.019095862
42	0x3cabffe5	0.020996043
43	0x3d130c78	0.035900563
44	0x3d0d048c	0.034428164
45	0x3cb50c35	0.022100547
46	0x3ba2aa51	0.004964151
47	0x3d431e9f	0.047636624
48	0x3d13c1c3	0.036073457
49	0x3b94647b	0.00452858
50	0x3c554d8e	0.013018979
51	0x3c4c002d	0.012451214
52	0x3bdf75a5	0.0068194442
53	0x3db84c4f	0.0899893
54	0x3c7aeb28	0.015314855
55	0x3db3ae4c	0.08773479
56	0x3c69d499	0.014271879
57	0x3d313994	0.0432678
58	0x3c56ec11	0.013117806
59	0x3c8032e7	0.015649272
60	0x3d895eda	0.067075446
61	0x3cfdaec7	0.03096713
62	0x3c83d311	0.016091855
63	0x3c87343f	0.016504405

weight f4 [64, 67, 3, 3]
0	0xbc3b42b7	-0.01142948
1	0xbc49e78c	-0.0123232715
2	0x3c109a64	0.008825872
3	0x3bcf9812	0.006335267
4	0x3b5ca926	0.0033670156
5	0x3bec07dc	0.0072030853
6	0x3ba1e470	0.004940562
7	0xbbb138f3	-0.0054084
8	0xbc26876d	-0.010164124
9	0xbc1c9a33	-0.009558248
10	0xbb98eb6f	-0.0046667377
11	0xbc7f18fd	-0.0155699225
12	0xbc5b7f8a	-0.013397107
13	0x3a452518	0.0007520481
14	0xbc0ae114	-0.008476514
15	0xbc5de657	-0.013543687
16	0xbc6aee7d	-0.014339087
17	0xbc859992	-0.01630858
18	0xb98983da	-0.00026228913
19	0xbbca36d1	-0.0061710854
20	0xbc3f7cea	-0.011687497
21	0xb9b6e33f	-0.00034883057
22	0xbbc5a2d0	-0.0060313717
23	0xbc45cf16	-0.012073299
24	0xbac5d6bb	-0.0015093902
25	0xbba551bb	-0.0050451434
26	0xbc0eb874	-0.008710969
27	0x3ba33c74	0.004981572
28	0xbbe58c27	-0.007005233
29	0xbb86ebda	-0.004117471
30	0x39b60f61	0.00034725203
31	0xbc0eb121	-0.008709223
32	0xbc1e081d	-0.009645489
33	0xbd090e01	-0.03346062
34	0x3c4cfd57	0.012511573
35	0xbbac55ca	-0.0052592503
36	0x3b9a6948	0.0047122575
37	0xbc9a699c	-0.018849187
38	0xbc3e2d6b	-0.011607508
39	0xbb5b5d6c	-0.0033472432
40	0x3ba86842	0.0051393816
41	0x3ab38bec	0.0013698316
42	0xbc2b5004	-0.010456089
43	0xbcc17e5c	-0.023619823
44	0xbca54801	-0.020175936
45	0x3d046418	0.03232202
46	0x3c85305d	0.016258413
47	0x3cac7c58	0.021055385
48	0x3c75c491	0.015000478
49	0x3bada32e	0.0052989936
50	0x39309fe9	0.00016844239
51	0xbd2ef898	-0.042717546
52	0xbc978c35	-0.018499473
53	0xbd47efad	-0.048812557
54	0xbc15d58d	-0.009145153
55	0x3b180044	0.0023193518
56	0x3bc34693	0.005959341
57	0xbb34aea9	-0.0027569926
58	0xbca655a4	-0.020304509
59	0xbb832b34	-0.004002953
60	0xbb4776fe	-0.0030435915
61	0xbc94fd25	-0.018187115
62	0xbc11cf62	-0.008899542
63	0xbc6ba957	-0.0143836355
64	0x3acde913	0.001570972
65	0x3bdb5aa6	0.0066941557
66	0x39ca9ace	0.0003864378
67	0xbc90499a	-0.017613221
68	0xbbf7b4ad	-0.00755938
69	0x3a5f1dc3	0.000851121
70	0xbc634b8f	-0.013872995
71	0xbb831ee4	-0.004001485
72	0xbc76686a	-0.015039543
73	0xbd775b1c	-0.060389623
74	0xbd49c10a	-0.049256362
75	0x3b271203	0.0025492914
76	0xbc1db580	-0.0096257925
77	0xbc7727be	-0.015085159
78	0x3ca3096c	0.019901954
79	0xbbe417f4	-0.0069608632
80	0xbd11afb2	-0.035567947
81	0xbd0fa61e	-0.03507053
82	0xbce7ac60	-0.028280437
83	0xbd0f8e10	-0.03504759
84	0xbcc3064f	-0.02380672
85	0x3bdbdefd	0.006709932
86	0xbabd6ba3	-0.0014451634
87	0x3c62c89a	0.013841772
88	0x3d563a27	0.052301552
89	0x3d5663ad	0.052341152
90	0x3d2ce604	0.042211547
91	0x3d0daab2	0.034586616
92	0x3cf725bf	0.030169366
93	0x3ce56bdf	0.028005539
94	0x3c72e0c7	0.014824099
95	0x3c2f0cdf	0.010684221
96	0x3c5888a3	0.0132161705
97	0xb9db067a	-0.0004177576
98	0xbbf34c17	-0.007424842
99	0xbd3d060a	-0.046148337
100	0xb9d1672e	-0.0003994046
101	0x3b07fcad	0.0020749972
102	0xbcdadfe7	-0.026718093
103	0xbcda3e53	-0.026641047
104	0xb9a3471d	-0.00031142766
105	0xbc4571dd	-0.012051073
106	0xbca9304d	-0.020652914
107	0x3b5e9bb4	0.0033967318
108	0xbc88e648	-0.01671137
109	0xbc492697	-0.012277267
110	0xbce08e97	-0.027411742
111	0xbcd8c5fc	-0.026461594
112	0x3b265585	0.0025380563
113	0x3b79d689	0.0038122258
114	0x3a4e4585	0.00078686356
115	0x3d272fda	0.04081712
116	0x3cdeb947	0.027187956
117	0x3d1132a8	0.0354487
118	0x3c9cbb4f	0.019132284
119	0x3d007e37	0.031370368
120	0x3d5eeffe	0.054428093
121	0xbb2b86f0	-0.0026172958
122	0x3bf1345f	0.0073609794
123	0x3cf5af32	0.029990766
124	0x3c07431c	0.008255746
125	0xbcafd165	-0.021462152
126	0x3ca4bdbc	0.020110004
127	0x3c7ecd4e	0.015551878
128	0x3cd5135a	0.026010204
129	0x3d367632	0.044546314
130	0x3cb0c795	0.021579543
131	0x3c192500	0.0093472
132	0x3d61b93d	0.055108298
133	0x3d2ce2a6	0.042208336
134	0x3b8517a6	0.004061657
135	0xbc6a2f4e	-0.014293505
136	0xbb998430	-0.0046849474
137	0xbc44d03c	-0.012012538
138	0xbbf4678b	-0.0074586323
139	0xbc0d5cbc	-0.008628067
140	0xbb939bf3	-0.0045046746
141	0x3a4ffe52	0.000793432
142	0xbb969fb3	-0.0045966743
143	0x3be9c735	0.007134343
144	0xbc0694c6	-0.008214181
145	0xbbb6a247	-0.005573544
146	0x3c91149a	0.017710019
147	0x3c853141	0.016258838
148	0xbcd7e709	-0.026355283
149	0xbc22f8b0	-0.009946987
150	0xbcb47b16	-0.022031348
151	0xbd299c6f	-0.041408952
152	0xbc20e3a9	-0.009819903
153	0xbd102e52	-0.035200424
154	0xbce8e683	-0.028430229
155	0xbd21de59	-0.039518688
156	0xbcc5adfa	-0.02413081
157	0xbb66467e	-0.0035137231
158	0xba1dd43e	-0.0006020701
159	0x3c1022a3	0.008797321
160	0x3d27b089	0.04093984
161	0x3cd1b15a	0.025597263
162	0x3d189d76	0.03725954
163	0x3cf67347	0.030084265
164	0x3cd9ee79	0.02660297
165	0x3cc15e38	0.023604497
166	0x3c433b13	0.01191594
167	0x3c1d435d	0.00959858
168	0x3c248968	0.010042526
169	0xbae33716	-0.0017335142
170	0xbbd178e3	-0.0063925846
171	0xbb5d2f80	-0.0033750236
172	0x3b8310c9	0.0039998037
173	0x3a063d2e	0.0005120811
174	0xbb92622d	-0.00446727
175	0xbc4975f8	-0.012296192
176	0xba57af42	-0.00082277146
177	0x3bb961e5	0.005657422
178	0xbb70612e	-0.0036679017
179	0x3c274ef6	0.010211697
180	0xbc06b76c	-0.008222442
181	0xbc169edd	-0.009193149
182	0xbb91ef2b	-0.00445356
183	0xbaae4be9	-0.001329777
184	0xbc244dfc	-0.010028359
185	0xbc1a2566	-0.009408331
186	0x3b95c487	0.004570547
187	0xbab98588	-0.0014154175
188	0xbb7852f7	-0.0037891248
189	0xbd166591	-0.036717955
190	0xbcc8b202	-0.024498943
191	0xbc9c3624	-0.019068785
192	0xbc8e8d7a	-0.017401446
193	0xbad2ac7b	-0.0016073132
194	0x3b5a50ae	0.003331225
195	0x3ccc7118	0.024956271
196	0x3d1b9ac6	0.0379894
197	0x3d3fc7ee	0.046821527
198	0xbc6768c4	-0.014124099
199	0xbcc0314a	-0.023461003
200	0xbc5fb9b3	-0.013655114
201	0xbcd88cd1	-0.026434334
202	0xbcb2dc34	-0.021833517
203	0xbcb781c8	-0.022400752
204	0xbc667889	-0.014066824
205	0xbc70c322	-0.014694961
206	0xbc8e7a0c	-0.01739218
207	0xb9bc002c	-0.00035858282
208	0xba3933d2	-0.0007064912
209	0x3adcf75e	0.0016858389
210	0xbbbd0a7e	-0.005769073
211	0xbc75f724	-0.015012536
212	0xbc5b2f85	-0.013378029
213	0xba8e78a7	-0.0010869697
214	0x38483ba2	4.7739253e-05
215	0xbbabf785	-0.0052480125
216	0xbcac53e1	-0.02103609
217	0x3bb617a9	0.0055570197
218	0x3a64a067	0.00087214116
219	0xbcc3bf29	-0.023894863
220	0xbcc07ab3	-0.023496008
221	0xbb2f496f	-0.002674665
222	0x3c8a397e	0.016873118
223	0xbc01488e	-0.007890834
224	0xbc8f1082	-0.017463926
225	0x3c3edbef	0.011649116
226	0xbd242527	-0.040074494
227	0xbd34f37c	-0.044177517
228	0xbbd00dc9	-0.0063492996
229	0xbcd9454a	-0.026522297
230	0xbcc9eb99	-0.024648475
231	0x3cf80e50	0.030280262
232	0xbcb78b9f	-0.022405444
233	0xbc82ee06	-0.015982639
234	0xbba73a69	-0.0051033986
235	0xbb049bde	-0.0020234506
236	0xbc62328e	-0.0138059985
237	0xbc4939f4	-0.0122818835
238	0xbbbf1ba4	-0.0058321524
239	0xbbe2efe6	-0.006925571
240	0x3c7ea28c	0.015541684
241	0x3c9fa771	0.019489022
242	0x3c1562ec	0.009117823
243	0xbd222bea	-0.03959266
244	0xbcdaa490	-0.026689798
245	0xbceb3714	-0.028712787
246	0xbc9d6598	-0.019213483
247	0x3c248ca9	0.010043302
248	0x3c6ac280	0.014328599
249	0x3cb3b757	0.02193801
250	0x3d464198	0.0484024
251	0x3d61a715	0.055090982
252	0x3c5a447e	0.013321994
253	0x3cb1e947	0.02171768
254	0x3cae0603	0.021243101
255	0x3d112d11	0.03544337

bias f4 [64]
0	0xbbba236e	-0.005680493
1	0x3a81044d	0.0009843201
2	0xbbba79a6	-0.005690771
3	0xbb16c904	-0.0023007998
4	0xbca714b3	-0.020395612
5	0xbc15e882	-0.009149672
6	0xbb1d7374	-0.0024025114
7	0xbbb6893f	-0.00557056
8	0xbb206642	-0.0024475013
9	0x3b15396c	0.0022769822
10	0xbbbd8ecd	-0.0057848454
11	0xba3354d2	-0.00068409473
12	0xba81e51e	-0.0009910201
13	0xba341678	-0.0006869803
14	0xba3f0351	-0.0007286566
15	0x3d0417d7	0.032249298
16	0xbaf04136	-0.0018329981
17	0x3a831ff3	0.0010004028
18	0x3c94be6f	0.018157212
19	0xba459f1a	-0.00075386616
20	0xbbc095d2	-0.005877235
21	0xbc7f35d5	-0.015576799
22	0x3b6711dc	0.0035258448
23	0x3c1845a1	0.009293945
24	0xbc0846ed	-0.008317691
25	0xba88d8d5	-0.0010440598
26	0xbb52e8cb	-0.0032182212
27	0xbb3c9268	-0.0028773788
28	0x3c2809be	0.010256229
29	0x3a91bcf2	0.0011118932
30	0x3a9382b6	0.0011254165
31	0x3b2e93e7	0.002663845
32	0xbb1b95bf	-0.0023740379
33	0x3a2e468a	0.00066480844
34	0xbbaa2a05	-0.0051929974
35	0xbbe25799	-0.006907415
36	0x382bed6f	4.0990704e-05
37	0xbbebdbc2	-0.007197828
38	0xbbf8d0cf	-0.0075932513
39	0x3adb82e7	0.0016747386
40	0x3b9a5194	0.004709432
41	0x3cb7c379	0.022432076
42	0xbc1b63a7	-0.009484208
43	0xbbb0b6da	-0.0053928914
44	0xbbc781d6	-0.0060884757
45	0xbc118c35	-0.008883526
46	0xbbf8f2af	-0.0075972895
47	0x3b45e957	0.0030198896
48	0xba3404a0	-0.0006867144
49	0x3b194051	0.0023384283
50	0x3925e8d2	0.00015822359
51	0xb96d4e47	-0.00022631242
52	0xbb1b68ff	-0.0023713706
53	0x3b84fbcd	0.0040583373
54	0xba994e29	-0.0011696267
55	0xba9a38ab	-0.0011766156
56	0xbba73e6a	-0.005103876
57	0xbaa13ece	-0.0012302042
58	0x37ae8ba2	2.0807438e-05
59	0x3b9f4eff	0.004861712
60	0xbb279917	-0.0025573426
61	0xbb3d5987	-0.0028892474
62	0xbb6962ac	-0.0035611792
63	0xbb0d43e8	-0.0021555368

weight f4 [64]
0	0x3f12b181	0.573021
1	0x3f0dd2e7	0.55399936
2	0x3ee8f24b	0.45497355
3	0x3eff429b	0.49855503
4	0x3f07eefc	0.53099036
5	0x3eeca19d	0.4621705
6	0x3ede4937	0.43415233
7	0x3f03157e	0.5120467
8	0x3ec66277	0.38746998
9	0x3efba4da	0.4914921
10	0x3efc40b6	0.4926812
11	0x3eaa4c22	0.3326121
12	0x3ef38c73	0.47568092
13	0x3eea0141	0.45704082
14	0x3eaf6c65	0.34262386
15	0x3f395995	0.72402316
16	0x3eb27d6c	0.34861314
17	0x3f07f23a	0.53103983
18	0x3f44fde2	0.76949894
19	0x3e9ecca4	0.31015503
20	0x3ed521bb	0.41627297
21	0x3eeaab4f	0.45833823
22	0x3ee63f8b	0.44970354
23	0x3ef1adbe	0.47202867
24	0x3f02f2b7	0.51151603
25	0x3f0696d8	0.5257392
26	0x3f3efa26	0.74600446
27	0x3ecccd5c	0.40000427
28	0x3ef5ca2a	0.480058
29	0x3f33ca38	0.70230436
30	0x3eb91f1f	0.36156556
31	0x3edad0d3	0.42737445
32	0x3f112a0a	0.5670477
33	0x3ed38de4	0.4131919
34	0x3ef5fba7	0.48043558
35	0x3eee54b9	0.46549013
36	0x3ec463ee	0.3835749
37	0x3f080e7f	0.5314712
38	0x3edafb49	0.4276984
39	0x3f2192cf	0.6311464
40	0x3f2eb96d	0.6825169
41	0x3f391185	0.7229236
42	0x3f007441	0.5017739
43	0x3f0979f1	0.5370169
44	0x3f0154f8	0.5052028
45	0x3efc25d3	0.49247608
46	0x3f005cd2	0.5014163
47	0x3f005faa	0.5014597
48	0x3eb4fd9c	0.3534974
49	0x3f0c4822	0.54797566
50	0x3e9c23b5	0.30495992
51	0x3f025d79	0.5092388
52	0x3f028b20	0.5099354
53	0x3f06357b	0.52425355
54	0x3eaa40ad	0.3325247
55	0x3ea801fc	0.32814014
56	0x3f0e3f4f	0.5556535
57	0x3ed7bd36	0.42136544
58	0x3ebba338	0.36647964
59	0x3ed8afd5	0.4232165
60	0x3ece7aa7	0.4032795
61	0x3ee1e5aa	0.44120532
62	0x3eddb881	0.43304828
63	0x3f542da6	0.82882154

bias f4 [64]
0	0xbd622bf7	-0.05521771
1	0xbd892260	-0.0669601
2	0xbdaa655a	-0.083201125
3	0xbd90c138	-0.070681036
4	0xbd7ecfac	-0.06220977
5	0xbd8d69cd	-0.069049455
6	0xbd63a294	-0.05557497
7	0xbd8a16df	-0.067426436
8	0xbd14e672	-0.036352582
9	0xbdbb9cc4	-0.0916076
10	0xbd8980b7	-0.067140035
11	0xbd9ed95d	-0.077563025
12	0xbd82ed37	-0.063929014
13	0xbd99220a	-0.074771956
14	0xbdc33e54	-0.095333725
15	0xbc39a60f	-0.011331095
16	0xbd4ff23f	-0.050768133
17	0xbcabd476	-0.020975333
18	0x3d0b8f28	0.03407207
19	0xbdc171a2	-0.09445502
20	0xbd4f80b0	-0.050659835
21	0xbcb89c68	-0.022535518
22	0xbd17171b	-0.03688727
23	0xbde3733c	-0.111059636
24	0xbd5989b2	-0.053109832
25	0xbd47b16b	-0.048753183
26	0x3b6e3350	0.0036346503
27	0xbd92515e	-0.07144426
28	0xbd1428c3	-0.036171686
29	0xbc14d27a	-0.009083385
30	0xbd70ae99	-0.05876026
31	0xbd125a70	-0.03573078
32	0xbd3b0429	-0.045658264
33	0xbdadd7de	-0.08488439
34	0xbdb7d229	-0.08975632
35	0xbd5e336b	-0.054248255
36	0xbc19f544	-0.009396855
37	0xbd69442d	-0.056949783
38	0xbd9abe84	-0.07555869
39	0xbdfcd513	-0.12345328
40	0x3c001410	0.007817283
41	0x3b9bd494	0.004755566
42	0xbcd83705	-0.026393423
43	0xbdc77e2f	-0.097408645
44	0xbd534dab	-0.05158774
45	0xbd1bf9c4	-0.038079992
46	0xbd4e5348	-0.050372392
47	0xbda0f764	-0.07859686
48	0xbd2d4b27	-0.042308
49	0xbd8ef071	-0.06979454
50	0xbd43b349	-0.0477784
51	0xbd89a668	-0.067211926
52	0xbda0c998	-0.07850951
53	0xbd8b5c33	-0.06804695
54	0xbd8486a0	-0.0647099
55	0xbdbe607a	-0.09295745
56	0xbd58d24d	-0.052934933
57	0xbd94d12d	-0.072664596
58	0xbd75dbb5	-0.060023982
59	0xbd80fc60	-0.06298137
60	0xbd7ecf51	-0.06220943
61	0xbc0b05db	-0.008485283
62	0xbdb61113	-0.088899754
63	0x3d6350b2	0.05549688
