SND_trackers_My_data/9X0_file/24_9X0_coordconv_Label_Vi5.pt (torch, 623547 bytes, 37 tensors)

weight f4 [32, 9, 3, 3]
0	0x3d581b1c	0.05276023
1	0xbcecd221	-0.028908791
2	0xbc5e6b75	-0.013575424
3	0x3d6833ed	0.056690145
4	0xbcdc6bc4	-0.026906855
5	0x3d8f2405	0.06989292
6	0xbcd26510	-0.025682956
7	0xbd82f149	-0.06393678
8	0xbaca3125	-0.0015426023
9	0x3d3fa155	0.046784718
10	0x3c03aa00	0.008036137
11	0x3cf6b407	0.03011514
12	0xbd1a8a1a	-0.03772936
13	0x3d10b688	0.035330325
14	0x3c362a98	0.011118554
15	0xbd1b9e2c	-0.03799264
16	0xbd0d282b	-0.034462135
17	0xbca5ba34	-0.02023039
18	0x3d776fc0	0.060409307
19	0xbccce8dc	-0.02501338
20	0xbca7ec92	-0.020498548
21	0xbc8b6107	-0.01701404
22	0xbd03d2b6	-0.03218337
23	0x3d0d521a	0.034502126
24	0x3a5d69e9	0.0008446263
25	0x3b8011d1	0.003908374
26	0x3ac331d7	0.0014892173
27	0xbbf2963a	-0.0074031623
28	0xbc9024ad	-0.017595613
29	0x3db5c159	0.08874769
30	0x3dcf7bdc	0.10131046
31	0xbc4fc4a7	-0.012681163
32	0x3cff7932	0.03118572
33	0x3cf74609	0.030184763
34	0xbd5eba8b	-0.05437712
35	0x3e195a0f	0.14975761
36	0xbcb02739	-0.021503078
37	0xbb7731cb	-0.0037718888
38	0xbcabdb6d	-0.020978654
39	0xbca0f449	-0.019647734
40	0xbb618356	-0.0034410558
41	0xbc0d7b05	-0.008635287
42	0xbb3c0603	-0.0028690107
43	0x3cee2193	0.029068744
44	0xbd05b2bc	-0.032641158
45	0xbcc933c7	-0.024560822
46	0xbbf0e150	-0.007351078
47	0xbc46f552	-0.01214345
48	0xbd0982b8	-0.03357193
49	0xbca1fcfd	-0.019773955
50	0xbbaebc38	-0.005332496
51	0xbc4d0ded	-0.012515527
52	0xbce927fe	-0.028461453
53	0x3cc9a33a	0.024613965
54	0x3b80c245	0.0039294087
55	0xbc0a544a	-0.008442948
56	0x3d09e6de	0.033667438
57	0xbb667e08	-0.0035170335
58	0x3b266e24	0.0025395239
59	0xbb812b46	-0.003941926
60	0x3b86e72c	0.0041169133
61	0xbd0433ee	-0.032276087
62	0xbc8eda66	-0.017438125
63	0xbce91e01	-0.02845669
64	0xbd32dbf1	-0.043666784
65	0xbd027382	-0.031848438
66	0x3d53849e	0.051640145
67	0xbd65c5ec	-0.056096956
68	0xbce2c2a0	-0.027680695
69	0xba85d7d2	-0.0010211414
70	0xbda704f9	-0.08155245
71	0x3d032528	0.032017857
72	0x3e0cd204	0.1375199
73	0xbe4d309f	-0.20038079
74	0x3dc205e9	0.094737835
75	0xbe0b696a	-0.13614431
76	0xbe089dfc	-0.13341516
77	0xbe0a464c	-0.13503379
78	0xbda36196	-0.079775974
79	0x3e07dcca	0.13267818
80	0x3d049958	0.032372802
81	0xbbc2fe1e	-0.0059507033
82	0xbbcf01a4	-0.0063173342
83	0x3b915638	0.004435327
84	0x3c21f7d5	0.009885748
85	0xbbcc0d1a	-0.0062271478
86	0xbcab94f9	-0.02094506
87	0x3c4f8371	0.012665615
88	0xbcb23b5b	-0.021756819
89	0x3c2767cd	0.010217619
90	0xbb8b17b1	-0.0042447676
91	0x3c79753e	0.015225707
92	0x3be4d35f	0.006983205
93	0x3c006fae	0.0078391265
94	0x3bf3677c	0.007428108
95	0xbbf0dd55	-0.0073506036
96	0x3c591b0f	0.01325108
97	0xbbbf301e	-0.0058345934
98	0xbb86263e	-0.0040939143
99	0xbca71e14	-0.020400085
100	0xbcd8b522	-0.026453558
101	0xbca18a6a	-0.019719321
102	0xbc82d312	-0.015969787
103	0xbc7a9ba5	-0.015295898
104	0xbc58986c	-0.013219934
105	0xbcdde1b0	-0.027085155
106	0xbcb3aa38	-0.021931753
107	0xbbc73948	-0.0060798265
108	0xbcce0c96	-0.025152486
109	0x3d49a489	0.04922918
110	0x3b2fa72d	0.0026802525
111	0x3d410d2d	0.047131706
112	0xbd827bc9	-0.063712664
113	0xbd0a1182	-0.033708103
114	0x3d256754	0.040381745
115	0x3d2e3977	0.04253527
116	0x3ca1e5c7	0.019762887
117	0x3c1de0b2	0.009636091
118	0xbd428a02	-0.047494896
119	0x3d88bd8b	0.066767775
120	0x3d272cc4	0.040814176
121	0xbc8a2cf1	-0.016867133
122	0xbc83fe5c	-0.016112499
123	0x3d29151f	0.04127991
124	0xbb62d983	-0.003461451
125	0xbd06a3e5	-0.032871146
126	0x3d713d22	0.05889619
127	0xbd2fc992	-0.04291684
128	0x3d928e02	0.07155992
129	0xbd8d992e	-0.06913982
130	0xbceeb082	-0.0291369
131	0xbd31af50	-0.04338008
132	0xbc1fff27	-0.009765423
133	0x3d4e9650	0.050436318
134	0x3d7375a3	0.05943836
135	0xbbcd0b0e	-0.0062574213
136	0x3ba2e5b7	0.004971232
137	0x3d38af10	0.045088828
138	0x3cb8a6d4	0.022540487
139	0xbb51ea77	-0.003203062
140	0xbbcebf9e	-0.0063094636
141	0x3b58f04d	0.0033102215
142	0xbc1f76b4	-0.009732891
143	0x3d8532d3	0.065038346
144	0xbd8aea36	-0.067829534
145	0xbb3602f2	-0.0027772752
146	0x3ca5c1b3	0.020233965
147	0xbcdcb17a	-0.026940096
148	0xba6a791c	-0.00089444383
149	0x3d8ad7b5	0.06779424
150	0xbd410b44	-0.047129884
151	0x3d09fa4f	0.03368598
152	0xbcc29993	-0.02375487
153	0xbbc93497	-0.0061403024
154	0x3d605ffb	0.054779034
155	0x3c8bea7f	0.01707959
156	0x3c359bc6	0.011084503
157	0x3ca440d7	0.02005045
158	0x3cdc0ab3	0.02686057
159	0xbb6bc4bc	-0.0035975417
160	0x3baacc66	0.0052123545
161	0xbb9c1080	-0.004762709
162	0x3c8df9b7	0.017330987
163	0xbc4d6130	-0.012535378
164	0xbc13e247	-0.009026117
165	0xbbcaa7ea	-0.0061845677
166	0x3c72429e	0.014786391
167	0x3b36702b	0.0027837853
168	0x3aa8d6cc	0.0012881397
169	0xbbb5f61a	-0.0055530192
170	0x3c816e21	0.015799584
171	0x3ab5c4ba	0.0013867833
172	0x3b396b4c	0.0028292714
173	0xbc77d440	-0.015126288
174	0xba4be024	-0.0007777235
175	0x3baf3102	0.0053464184
176	0xbc79628b	-0.015221248
177	0x3c1e646a	0.009667495
178	0x3b9240d7	0.004463296
179	0x3c14b16f	0.009075507
180	0xbbec72ca	-0.0072158324
181	0xbc97109a	-0.018440533
182	0xbc4ca9e3	-0.012491676
183	0xbc5b5165	-0.013386105
184	0xbc4fe656	-0.012689194
185	0xbc62e38c	-0.013848197
186	0xbc4ccff8	-0.0125007555
187	0xbc2d2d20	-0.010569841
188	0xbc4d9836	-0.012548497
189	0x3d42f727	0.047598984
190	0x3d02fa3e	0.03197693
191	0x3d868f06	0.06570248
192	0x3cbc5859	0.022991346
193	0xbce7c318	-0.02829127
194	0xbc815ecb	-0.015792271
195	0x3be1165e	0.0068691215
196	0x3d80185d	0.06254647
197	0x3c889843	0.016674167
198	0xbc185cef	-0.009299501
199	0x3c26ae5e	0.010173408
200	0xbaaf5173	-0.0013375714
201	0xbab30d4a	-0.0013660577
202	0xbd529c0f	-0.05141836
203	0xbca4a67a	-0.020098913
204	0x3d9a33dd	0.075294234
205	0xbd0c5e52	-0.03426964
206	0xbc32f9aa	-0.010923782
207	0xbcb67745	-0.022273669
208	0x3c0b8b10	0.008517042
209	0x3d225157	0.039628353
210	0x3b4ea8e8	0.0031533781
211	0x3c086805	0.008325581
212	0xbc2dbd2f	-0.010604187
213	0xbcbe7820	-0.02325064
214	0xbc048131	-0.008087442
215	0x3d5e6aa2	0.05430091
216	0xbc9bd12b	-0.019020637
217	0x3d833dee	0.064082965
218	0xbd8ba433	-0.06818428
219	0x3d826b51	0.06368125
220	0xbc8f5ac8	-0.017499343
221	0xbd1ed06f	-0.038772997
222	0xbc8e3eec	-0.017363988
223	0x3b7c22dd	0.0038472929
224	0xbd0decc2	-0.034649618
225	0x3ba7df62	0.005123065
226	0x3c281cb5	0.010260751
227	0xbc3d6ec2	-0.011562051
228	0x3cc84117	0.0244451
229	0xbbc13e7f	-0.0058973427
230	0x3ce39d74	0.02778504
231	0xbcb26287	-0.021775497
232	0xbce3398f	-0.027737407
233	0x3bc6431c	0.0060504805
234	0xbbb05d82	-0.0053822407
235	0x3d4c8f85	0.04994156
236	0x3c5a21d1	0.0133137265
237	0x3d3443bc	0.04400991
238	0x3d5d1d0b	0.053982776
239	0x3c88625b	0.016648462
240	0xba6438a8	-0.0008705952
241	0x3b73dbc8	0.0037209857
242	0xbd2198d4	-0.03945239
243	0xbbfc51ab	-0.0077001653
244	0x3bce9149	0.0063039404
245	0xbbd6023d	-0.0065310285
246	0xbc39ec49	-0.011347839
247	0xbb9f794e	-0.0048667556
248	0x3ca1ba4a	0.01974215
249	0x3ca58578	0.020205244
250	0xbbda1200	-0.006654978
251	0xbb86365d	-0.004095836
252	0x3c7b7a13	0.015348929
253	0xbbda07cf	-0.006653763
254	0xbc52b3a6	-0.012860214
255	0x3c7f6d63	0.015590045

bias f4 [32]
0	0xbcef705a	-0.029228378
1	0x3c21122c	0.009830993
2	0x3b3ab519	0.002848929
3	0x3cc537ba	0.024074424
4	0xbc74a6c2	-0.014932336
5	0x3c754e66	0.014972305
6	0xbca1a774	-0.019733168
7	0x3b9989c6	0.0046856133
8	0x396d8192	0.0002265035
9	0x3c06203a	0.008186394
10	0xbbd737ea	-0.006567945
11	0xbc0fcba9	-0.008776584
12	0xbbf9bbcc	-0.007621264
13	0xbb580d67	-0.0032966973
14	0xbcba5148	-0.022743836
15	0xbccd6beb	-0.025075873
16	0x3b28ad0d	0.0025737912
17	0x3b9802de	0.0046390137
18	0xba9cf1d7	-0.0011973929
19	0x3b4886d7	0.003059795
20	0xbb851d4d	-0.004062331
21	0x3b5c0d60	0.0033577308
22	0x3c3a12a9	0.011356988
23	0x3b520445	0.0032046002
24	0x3c6cea94	0.014460225
25	0x3b17e207	0.0023175494
26	0x3a6ba229	0.00089887023
27	0xbbc9a7c4	-0.0061540324
28	0x3bd9d44c	0.006647622
29	0xbb109c1f	-0.0022065712
30	0xba383a45	-0.0007027726
31	0x3b893a2e	0.0041878438

weight f4 [32]
0	0x3f0e1aef	0.5550985
1	0x3e9a30df	0.3011541
2	0x3e8eef53	0.27916965
3	0x3e7db11e	0.24774596
4	0x3e85f316	0.26162022
5	0x3ea91042	0.33020216
6	0x3f109981	0.5648423
7	0x3edd9c80	0.43283463
8	0x3e8ea237	0.27858135
9	0x3f0522cd	0.52006227
10	0x3ee15635	0.44011083
11	0x3eb6f6e1	0.3573523
12	0x3f04b8d9	0.51844555
13	0x3eac681f	0.33673188
14	0x3f16c0b1	0.58887774
15	0x3ed2e051	0.41186765
16	0x3e82aa81	0.2552071
17	0x3e81790a	0.25287658
18	0x3e81aec8	0.2532866
19	0x3eafe728	0.34356046
20	0x3ea218e9	0.3165963
21	0x3ecd51d3	0.4010149
22	0x3eedcdbe	0.4644603
23	0x3ec49846	0.38397425
24	0x3e9259a5	0.28584018
25	0x3ed63ad7	0.41841766
26	0x3ec4975c	0.38396728
27	0x3e81512d	0.25257245
28	0x3f02c53f	0.51082224
29	0x3ea1af72	0.31579167
30	0x3f05aab7	0.52213615
31	0x3ef79a68	0.4835999

bias f4 [32]
0	0x3dd9d64e	0.106365785
1	0xbd4953fc	-0.04915236
2	0xbd95bc70	-0.07311332
3	0xbd8db974	-0.06920138
4	0xbd9ae4d6	-0.07563178
5	0xbbabfdf7	-0.005248781
6	0x3c9eddbc	0.01939284
7	0xbccfc3c3	-0.025361901
8	0xbd0e60c4	-0.03476025
9	0xbe42737a	-0.18989363
10	0xbac88cc0	-0.0015300736
11	0xbdb300b8	-0.087403715
12	0xba3401f1	-0.00068667444
13	0xbe32b438	-0.1745156
14	0x3cfb981a	0.030712176
15	0x3d346d6f	0.044049677
16	0xbe376004	-0.17907721
17	0xbd9fe104	-0.0780659
18	0xbdbaa095	-0.0911266
19	0xbd8e9946	-0.06962828
20	0xbe26267c	-0.16225618
21	0xbe7cd7b0	-0.24691653
22	0xbe23d205	-0.15998085
23	0xbe67d2e2	-0.22639039
24	0xbd62b502	-0.055348404
25	0xbe73458f	-0.23757003
26	0x3d59fdc4	0.053220525
27	0xbc9fb538	-0.019495592
28	0xbc406e2a	-0.011745015
29	0xbe1c2e00	-0.15251923
30	0x3c04ce9a	0.008105898
31	0x3c0c9735	0.008580972

running_mean f4 [32]
0	0xbcd107f4	-0.025516488
1	0xbd94748b	-0.07248791
2	0xbd5ab5c8	-0.053396016
3	0x3eaa5fde	0.33276266
4	0xbc89b7c1	-0.016811254
5	0x3d34901b	0.044082742
6	0xbc8b4567	-0.017000867
7	0x3d725a51	0.059168164
8	0xbce2f7ed	-0.02770611
9	0xbd3c475e	-0.0459665
10	0x3a5fbc9b	0.00085348793
11	0xbc4247af	-0.011857911
12	0xbc74b425	-0.014935528
13	0x3acbfe9e	0.0015563553
14	0xbc117ffb	-0.008880611
15	0xbc8b642a	-0.017015535
16	0xbc4dfc94	-0.012572426
17	0x3da1b271	0.07895363
18	0x3bcbca04	0.0062191505
19	0xbd410826	-0.04712691
20	0xbd0cdac5	-0.034388322
21	0x3d90dbe2	0.07073189
22	0x3b4482f8	0.002998529
23	0x3cb2cd9a	0.021826554
24	0x3a00aa99	0.00049082335
25	0x3c522c42	0.012827935
26	0xbd11d16a	-0.035600103
27	0x3c041266	0.008061027
28	0x3aea781f	0.0017888582
29	0x3aee6a33	0.0018189609
30	0x3be13723	0.006873028
31	0x3c8581a5	0.01629717

running_var f4 [32]
0	0x3c86ca28	0.016453817
1	0x3d3629a6	0.044473313
2	0x3d02906f	0.031876024
3	0x3d4ee4c7	0.050511148
4	0x3c1335d6	0.008985003
5	0x3d9d5f81	0.076842315
6	0x3ce66b20	0.028127253
7	0x3d9d9d22	0.07695986
8	0x3dff8b42	0.12477733
9	0x3e2bdd0e	0.16783544
10	0x3dbafa92	0.09129824
11	0x3d591ff0	0.053008974
12	0x3dc57b8a	0.09642704
13	0x3cde7422	0.027154986
14	0x3cac4577	0.021029217
15	0x3c359dcf	0.011084988
16	0x3db81f07	0.08990293
17	0x3d0b1ae0	0.033961177
18	0x3d7fbe34	0.06243725
19	0x3d6af01e	0.0573579
20	0x3ddc09c8	0.10744053
21	0x3e3bb9de	0.18332621
22	0x3e394855	0.18093999
23	0x3de46a9b	0.11153146
24	0x3d7e17b5	0.062034328
25	0x3de1f3f3	0.11032858
26	0x3e30ecf4	0.1727789
27	0x3d7c638a	0.061618365
28	0x3e1b2667	0.15151368
29	0x3c971c47	0.0184461
30	0x3e153d0e	0.14574072
31	0x3d30f4f4	0.043202356

weight f4 [32, 35, 3, 3]
0	0xbc13f60b	-0.009030829
1	0xbc871a3b	-0.016492
2	0x3ba927ea	0.005162229
3	0x3d115817	0.0354844
4	0x3bc31f79	0.0059546796
5	0xbc0d68cc	-0.008630943
6	0xbc2ac5d4	-0.010423142
7	0x3d025e47	0.03182819
8	0xbcaffcd5	-0.021482864
9	0xbc8ce24d	-0.017197752
10	0xbc6f31b3	-0.014599252
11	0xbc1c8fa2	-0.009555729
12	0x3a0341bb	0.0005007048
13	0x3ca83c2a	0.020536501
14	0x3c40a59b	0.011758233
15	0x3cbbdfea	0.022933919
16	0xbba64fe0	-0.00507544
17	0xbc5b40f7	-0.013382188
18	0x3cc1f386	0.023675691
19	0xbc5ac0c0	-0.013351619
20	0xbc745b66	-0.014914369
21	0xbc4f9591	-0.012669937
22	0x3c910489	0.017702358
23	0x3b92167d	0.004458247
24	0xbbde3dea	-0.006782283
25	0x3c1766cb	0.009240816
26	0xbb0cb5ba	-0.0021470622
27	0xbc1d8682	-0.009614589
28	0x3c421490	0.011845723
29	0xbd7ad96e	-0.061242513
30	0x3a0abc56	0.00052923465
31	0x3dbb11a8	0.09134227
32	0x3c3ec27f	0.011643051
33	0xbda96597	-0.0827133
34	0xbc215716	-0.009847423
35	0x3cb8821e	0.022522982
36	0xbc012d62	-0.007884355
37	0xbc731658	-0.01483687
38	0x3c3a7977	0.011381499
39	0xbd045928	-0.03231159
40	0xbd1df731	-0.03856582
41	0x3b986856	0.0046511097
42	0x3c1cfd42	0.009581866
43	0xbc8d55a5	-0.017252753
44	0xbd2add96	-0.041715227
45	0x3d0cc10a	0.034363784
46	0xbc95b1d4	-0.018273272
47	0x3d186048	0.037201196
48	0x3ba133ac	0.00491949
49	0xbd4baad3	-0.049723458
50	0x3cdbcd8b	0.026831409
51	0xbb0db74a	-0.0021624141
52	0xbb9cc8c2	-0.0047846744
53	0xbcf02002	-0.029312138
54	0x3cab952a	0.02094515
55	0x3cdd6f4b	0.027030608
56	0xbb80fa69	-0.003936101
57	0x3d2c4573	0.04205842
58	0x3d3d55da	0.046224453
59	0x3d313ed7	0.04327282
60	0xbc6cb076	-0.014446368
61	0x3d1327bc	0.035926566
62	0x3d1be69a	0.038061716
63	0xba3e9375	-0.00072698976
64	0xbc43206b	-0.0119095845
65	0x3a3be897	0.00071681425
66	0xbd0f526d	-0.034990717
67	0xbca1b99e	-0.01974183
68	0xbca0fcd0	-0.0196518
69	0x3c82851c	0.015932612
70	0xbbf07a70	-0.0073388144
71	0xbc8a60ac	-0.0168918
72	0xbc0dc0cc	-0.008651923
73	0x3ce4f4bf	0.027948735
74	0xba737da3	-0.00092884357
75	0x3bdfdd49	0.006831799
76	0xbc6429c7	-0.013925976
77	0x3d8b8b96	0.06813733
78	0xbcb4f73a	-0.022090543
79	0x3bcc6149	0.006237183
80	0xba95f3b7	-0.001144043
81	0x3d0f3fd8	0.034972996
82	0x3d3dacd0	0.046307385
83	0xbc03c29a	-0.008042002
84	0xbb54a0be	-0.0032444443
85	0x3dc191df	0.09451651
86	0x3d43f1d2	0.04783804
87	0x3ba97c13	0.0051722615
88	0xbd464d84	-0.04841377
89	0x3d04da70	0.03243488
90	0x3c882125	0.016617367
91	0x3cda88cd	0.02667656
92	0xbcb2c0d6	-0.021820467
93	0x3d16a523	0.03677858
94	0x3d3fc0ce	0.046814732
95	0x3cfea807	0.031085981
96	0x3c743e6c	0.014907461
97	0x3c132c17	0.00898268
98	0xbcd43cbe	-0.02590787
99	0x3c0c8c91	0.0085784355
100	0xbb1257ab	-0.0022330086
101	0x3ce1e988	0.027577177
102	0x3bfc3ab7	0.007697429
103	0xbce05785	-0.027385483
104	0x3c8ba611	0.01704696
105	0x3c999aef	0.018750636
106	0x3c01cfca	0.007923076
107	0xbca07cec	-0.019590817
108	0xbd58c4a8	-0.05292192
109	0xbcfafbf7	-0.030637724
110	0x3c33587c	0.010946389
111	0xbd10baac	-0.035334274
112	0xbdd372be	-0.1032462
113	0xbd8de470	-0.069283366
114	0x3c9d626d	0.019211972
115	0xbc9fb896	-0.019497197
116	0xbd03faaf	-0.032221492
117	0x3cc949e6	0.02457137
118	0xbc11456c	-0.008866649
119	0xbc8ea6f6	-0.017413598
120	0x3c36913a	0.011143023
121	0xba9adb4e	-0.0011814625
122	0x3bedef37	0.0072611826
123	0xbcc71f2e	-0.02430686
124	0x3cd7ea6d	0.0263569
125	0x3d0bd0bd	0.034134615
126	0xbbb25b15	-0.0054429867
127	0xbd017e3f	-0.03161454
128	0x3d1ca3cd	0.03824215
129	0xbc3bf5d0	-0.0114721805
130	0xbd994aa5	-0.074849404
131	0xbd66946f	-0.0562939
132	0x3bfd2005	0.0077247643
133	0xbc9d5d65	-0.019209573
134	0xbd22b053	-0.039718937
135	0x3c8dda5b	0.017316034
136	0x3cd3f58d	0.025873924
137	0xbc9d90c2	-0.019234065
138	0xbc7eaf2a	-0.015544692
139	0x3d1106ee	0.035407
140	0x3d8095c5	0.06278566
141	0xbc4b5ff0	-0.01241301
142	0x3d183de1	0.037168387
143	0x3d7cf71e	0.061759107
144	0xbc986b6b	-0.018605908
145	0xbd7cd173	-0.061723184
146	0x3b265a64	0.0025383467
147	0x3a31a18f	0.0006776088
148	0xbdb0c353	-0.08631005
149	0xbd34df65	-0.044158358
150	0x3c99b6bf	0.018763898
151	0x3c830c93	0.015997207
152	0xbc4eda42	-0.012625279
153	0x3c595a3e	0.013266144
154	0x3d73e3c3	0.059543382
155	0xbd13eee8	-0.03611651
156	0x3ce033a5	0.027368376
157	0x3d615752	0.055014916
158	0x3ce9b002	0.02852631
159	0x3cb46141	0.02201903
160	0xbcff845e	-0.031191047
161	0x3d05f1b3	0.032701205
162	0x3b361dcc	0.0027788756
163	0x3b25432b	0.0025217037
164	0xbd15f6fb	-0.036612492
165	0xbd120cbb	-0.035656672
166	0x3d1be431	0.038059417
167	0x3c93a48c	0.018022798
168	0xbb576c87	-0.0032871084
169	0x3c52dbb0	0.01286976
170	0xbcf99d13	-0.030470407
171	0x3ca9d3d1	0.020730885
172	0x3b0fc73e	0.0021938826
173	0x3cd77834	0.026302435
174	0xbc4d6ac8	-0.012537666
175	0xbd3d5d08	-0.0462313
176	0xbce9bbe4	-0.028531976
177	0x3b2ab742	0.0026049172
178	0xbc86ef95	-0.016471663
179	0xbd873956	-0.06602733
180	0x3c891abd	0.016736383
181	0xbc825e72	-0.015914176
182	0x3d0cdf57	0.03439268
183	0x3cd74d97	0.026282115
184	0xbd0d7dd8	-0.034543842
185	0xbc187952	-0.009306269
186	0x3a30c625	0.0006743393
187	0xbc659fda	-0.014015162
188	0xbcf34f6a	-0.029700954
189	0x3d2f0d95	0.042737562
190	0x3c8631f4	0.016381241
191	0x3cd4b848	0.025966778
192	0xbce32571	-0.027727814
193	0xbb4cefce	-0.0031270864
194	0xba6d3d4b	-0.0009049966
195	0x3d0251aa	0.031816162
196	0x3c1c00b8	0.009521656
197	0xbd8637d5	-0.06553618
198	0x3c09b4fd	0.008404967
199	0x3be9b060	0.0071316212
200	0x3d4b5694	0.049643114
201	0xbd3a031e	-0.04541313
202	0xbd20498c	-0.03913264
203	0x3a5cad82	0.00084181887
204	0x3d16f688	0.036856204
205	0xbcd99eff	-0.026565073
206	0xbcbcb2a1	-0.023034396
207	0x3cc30507	0.023806108
208	0x3b8b5735	0.0042523392
209	0x3c4d6816	0.012537023
210	0xbcbedd72	-0.023298953
211	0xbd10f967	-0.0353941
212	0xbcb83b46	-0.022489201
213	0x3cbc5c7f	0.022993324
214	0x3c0eeb27	0.008723057
215	0xbd55da75	-0.05221029
216	0xbcdd7866	-0.02703495
217	0xbd260670	-0.040533483
218	0x3c6e9325	0.014561449
219	0xbd269298	-0.040667146
220	0xbd5ff07e	-0.05467271
221	0xbcbef2fc	-0.023309223
222	0xbcb55861	-0.022136869
223	0xbcabd8c3	-0.020977383
224	0xbcf03023	-0.029319828
225	0xbc45997d	-0.01206052
226	0xbd0f7f15	-0.035033304
227	0x3c7275b1	0.014798568
228	0xbd3b37c6	-0.045707487
229	0xbd9eb6b4	-0.077496916
230	0xbd8734a2	-0.06601836
231	0x3c1d259b	0.009591485
232	0xbb1dadd6	-0.0024059913
233	0xbd2c1cd9	-0.0420197
234	0xbc8c634d	-0.017137194
235	0xbd580b0c	-0.05274491
236	0x3c16d8a2	0.009206923
237	0xbd044a42	-0.03229738
238	0xbdafec8d	-0.0859004
239	0xbce490cd	-0.027901078
240	0x3ccf78ed	0.025326217
241	0xbc922f2b	-0.017844757
242	0xbcfc07cf	-0.030765442
243	0xbc13ef4b	-0.00902922
244	0xbcabe0e5	-0.020981262
245	0xbcacdf40	-0.021102548
246	0x3aa9d356	0.001295666
247	0xbcc0cf7a	-0.023536433
248	0xbc802598	-0.015642926
249	0x3ba39bf1	0.004992955
250	0x3aa0d681	0.0012270958
251	0x3c9bc288	0.019013658
252	0xbb99e295	-0.0046962
253	0xbd0465b5	-0.032323558
254	0xbb064a36	-0.002049101
255	0xbd5b7c3d	-0.05358528

bias f4 [32]
0	0xbce8923c	-0.028390042
1	0xbcfde1ef	-0.030991523
2	0xbad482c2	-0.0016213285
3	0x3c508c26	0.0127287265
4	0xbc75b383	-0.014996412
5	0xbc8cba26	-0.017178606
6	0x3b6e8bcb	0.003639924
7	0x39658171	0.00021887363
8	0x392b4e73	0.00016337055
9	0xbae6ac15	-0.0017598892
10	0xb96ce19f	-0.00022590764
11	0xb9f0a879	-0.0004590189
12	0xbc61e0f9	-0.013786548
13	0xb977d125	-0.00023633668
14	0xbcec68fb	-0.028858652
15	0xb99846b1	-0.00029044368
16	0xbadccae9	-0.001684514
17	0xbb35e55e	-0.0027755122
18	0xbc81eed0	-0.015860945
19	0xbb4247b4	-0.002964479
20	0xbb8f1f2c	-0.0043677296
21	0x3b1dc855	0.0024075706
22	0xbc24a392	-0.010048764
23	0xbc1ef2ba	-0.009701425
24	0xbcd8208e	-0.02638271
25	0xbba3fe5a	-0.0050046863
26	0xba187859	-0.0005816273
27	0x3b3de7ed	0.002897735
28	0x3aba948e	0.0014234947
29	0xb83a556a	-4.4425404e-05
30	0x3ca57f43	0.020202285
31	0xbc239a7c	-0.009985562

weight f4 [32]
0	0x3f0c812c	0.548846
1	0x3f1e502c	0.6184108
2	0x3e6f9d9c	0.23399967
3	0x3e9e75d8	0.30949283
4	0x3ebc2d77	0.36753437
5	0x3eb2f3a5	0.3495151
6	0x3e8ec42a	0.27884036
7	0x3e8760c7	0.26441023
8	0x3e548c66	0.20756683
9	0x3ea73505	0.32657638
10	0x3e5ef8b0	0.21774554
11	0x3e8f5bd8	0.2799976
12	0x3ed719fa	0.42012006
13	0x3e57b8af	0.21066545
14	0x3ec91ba4	0.392789
15	0x3e61070a	0.21975341
16	0x3e8c7cd4	0.27438986
17	0x3e99060f	0.29887435
18	0x3f235568	0.63802195
19	0x3e6b447c	0.22975343
20	0x3e8d96ac	0.27654016
21	0x3e9af775	0.3026692
22	0x3ea5afdd	0.32360736
23	0x3ec16081	0.3776894
24	0x3e9fa4bd	0.31180373
25	0x3ef233c6	0.47305125
26	0x3e917062	0.28406054
27	0x3e8cacfc	0.27475727
28	0x3e868cff	0.26279446
29	0x3e5fa08f	0.21838592
30	0x3ea9658b	0.33085284
31	0x3e93e278	0.2888372

bias f4 [32]
0	0x3da7e30a	0.08197601
1	0x3e02c73e	0.12771317
2	0xbde093a9	-0.10965664
3	0x3d13a83f	0.036049124
4	0x3e68d9ce	0.22739336
5	0x3dc3d14a	0.09561403
6	0xbe08faa9	-0.1337687
7	0xbe17fc94	-0.14842445
8	0xbddf3663	-0.10899045
9	0xbdc85c65	-0.09783248
10	0xbdd657ae	-0.10465942
11	0xbe222df4	-0.15837842
12	0x3e309e94	0.17247993
13	0xbe53e900	-0.20694351
14	0x3e128bcb	0.1431114
15	0xbe22dac9	-0.15903772
16	0xbdd5bbd9	-0.1043622
17	0xbe11483b	-0.1418771
18	0x3e08e7fd	0.13369747
19	0xbd511134	-0.051041797
20	0xbd218941	-0.039437536
21	0x3d33668e	0.043798976
22	0x3d63fbf8	0.055660218
23	0x3db56ada	0.08858271
24	0xbda4e5da	-0.08051653
25	0x3df63976	0.120226786
26	0xbdf5009d	-0.119630076
27	0xbccee274	-0.025254466
28	0xbde7a5e4	-0.11310938
29	0xbda117b6	-0.078658506
30	0x3dfc4e86	0.12319665
31	0x3d9d81d7	0.076907806

running_mean f4 [32]
0	0x3b292004	0.0025806436
1	0x3c4b17a5	0.012395774
2	0xbce0a71c	-0.027423434
3	0xba6faac5	-0.0009142573
4	0xbc2d2947	-0.010568923
5	0x3c45cc88	0.01207269
6	0xbdb2dce1	-0.087335356
7	0x3c2527bc	0.010080274
8	0x3bd9bd47	0.006644878
9	0xbda507df	-0.08058142
10	0x3c2bf0b8	0.010494404
11	0xbd969049	-0.07351739
12	0xbb9292b9	-0.004473057
13	0xbcbd89b0	-0.023136944
14	0xbcfa5426	-0.030557703
15	0xbd6c032d	-0.057620216
16	0xbdb79e90	-0.0896579
17	0xbdd77221	-0.10519815
18	0x3c8eb181	0.017418625
19	0xbdbe1f98	-0.0928337
20	0x3db0dcc1	0.086358555
21	0x3d8bf263	0.06833341
22	0xbc95f7f4	-0.01830671
23	0xba3109e0	-0.00067534856
24	0x3d870ad1	0.0659386
25	0x3d2dcf72	0.042434163
26	0xbdc2b4a0	-0.09507108
27	0x3e243f27	0.16039716
28	0xbd08330c	-0.033251807
29	0x3ca6c131	0.020355793
30	0x3d8e8df5	0.0696067
31	0xb9dec883	-0.00042492533

running_var f4 [32]
0	0x3cf3cc2f	0.029760448
1	0x3d556a3b	0.052103262
2	0x3d1f87b7	0.038947787
3	0x3d9a4a14	0.075336605
4	0x3d3e8aed	0.04651921
5	0x3cc41f3f	0.02394068
6	0x3dbfa89e	0.09358333
7	0x3e3fc800	0.18728638
8	0x3e9d460d	0.30717507
9	0x3dfcbef2	0.123411074
10	0x3f3a50ad	0.7277935
11	0x3d97ddcc	0.07415351
12	0x3d0d2ad0	0.034464657
13	0x3ea6eef3	0.3260418
14	0x3c69ea60	0.014277071
15	0x3d3751b9	0.04475567
16	0x3d217333	0.039416503
17	0x3d4c92f4	0.049944833
18	0x3d945f32	0.072447196
19	0x3cdce4b6	0.026964527
20	0x3d86678c	0.06562719
21	0x3f912517	1.1339444
22	0x3d14857e	0.03626012
23	0x3d67522a	0.056474842
24	0x3d8185b3	0.06324329
25	0x3d0ce2f4	0.034396127
26	0x3ecf784c	0.40521467
27	0x3e1833e4	0.14863545
28	0x3d673775	0.056449372
29	0x3f19b864	0.6004698
30	0x3d107fcf	0.035278138
31	0x3db6c8bb	0.08925005

weight f4 [64, 35, 3, 3]
0	0xbb5ecdfc	-0.0033997288
1	0xbae68b4f	-0.0017589125
2	0xbbbdecad	-0.005796036
3	0x3b305769	0.002690757
4	0x3b9e6901	0.004834295
5	0x3b883132	0.004156255
6	0x3bd4ea80	0.006497681
7	0x3b6ebd68	0.0036428813
8	0xbac1f837	-0.0014798705
9	0xbb3e9947	-0.002908306
10	0x3b530e38	0.003220452
11	0xbaaa399d	-0.0012987141
12	0xbabf59b7	-0.0014598881
13	0x3abac416	0.0014249112
14	0xbbb79f22	-0.005603687
15	0x3ac28c2b	0.0014842799
16	0x3a48e30d	0.0007663228
17	0xba80139d	-0.000977147
18	0x3c0fac05	0.00876904
19	0x3bf19a84	0.007373156
20	0x3b4ed720	0.003156133
21	0x3c11eccb	0.0089065535
22	0x3bb3d4f5	0.005488033
23	0x3bca239b	0.0061687953
24	0x3c141a0a	0.009039411
25	0x3c0d8a9a	0.008639002
26	0x3b96d668	0.004603196
27	0xbd381b4c	-0.044947907
28	0xbca20136	-0.019775968
29	0xbd008f96	-0.031386934
30	0xbd09612d	-0.03353994
31	0x3d26f995	0.040765364
32	0x3bc469b6	0.005994047
33	0x3d13a925	0.03604998
34	0x3d059509	0.032612834
35	0x3c1afab6	0.009459188
36	0xbc70735c	-0.014675941
37	0x3c30db5a	0.010794485
38	0xbc2c9c58	-0.010535322
39	0x3c77cd37	0.015124611
40	0x3d635f26	0.055510662
41	0x3c9e86d0	0.019351393
42	0x3c917bdd	0.017759258
43	0x3c92affd	0.017906183
44	0xbc3b72a2	-0.011440905
45	0x3cc34805	0.023838053
46	0xbc8a1b9e	-0.016858872
47	0x3abdfe2b	0.0014495304
48	0x3c5b25aa	0.013375679
49	0xbc6d080f	-0.014467253
50	0xbc710578	-0.0147107765
51	0xbcf07a13	-0.029355085
52	0xbcc64035	-0.024200538
53	0xbcaa3676	-0.020777922
54	0xbcec76b7	-0.028865201
55	0xbc9c1a82	-0.019055609
56	0xbb42bbae	-0.0029713917
57	0xbd38e3df	-0.04513919
58	0xbc1c4b9d	-0.009539512
59	0x3c1b6e14	0.009486694
60	0x3c2b86c3	0.010469141
61	0x3d1ec20e	0.038759284
62	0x3d7ae378	0.061252087
63	0x3c803431	0.015649887
64	0x3ad4df2a	0.0016240824
65	0xbcf9755a	-0.030451465
66	0x3bec987c	0.007220326
67	0xbca03c4f	-0.019560007
68	0xbcaa1e6c	-0.02076646
69	0xbc41102e	-0.011783643
70	0xbd333f8a	-0.043761767
71	0xbd4ead0d	-0.050458003
72	0xbb6156a3	-0.0034383915
73	0xbcb23449	-0.021753447
74	0xbd016e2c	-0.03159921
75	0x3ca91d76	0.02064393
76	0x3cb7d199	0.022438811
77	0x3ca0ef5d	0.019645387
78	0xbcc97b33	-0.024594879
79	0xbd26b773	-0.040702295
80	0xbd889bf9	-0.066703744
81	0xbc2e0ad6	-0.010622701
82	0xba7680bc	-0.0009403338
83	0xbbc065ed	-0.0058715255
84	0xbc49889d	-0.012300638
85	0xba321c96	-0.0006794421
86	0xbcbda887	-0.02315165
87	0xbd26918e	-0.040666156
88	0xbc767efa	-0.015044922
89	0x3cac740e	0.021051433
90	0x3b4443ea	0.0029947706
91	0xbc5a82b1	-0.013336823
92	0xbbe8c3c9	-0.0071034175
93	0xbc89a9b0	-0.016804546
94	0xbc7f8522	-0.015595706
95	0x3c1fe70a	0.009759674
96	0xbbc91703	-0.0061367764
97	0xbd09ec0e	-0.033672385
98	0x3bf7c51d	0.0075613395
99	0xbc2d851f	-0.010590821
100	0xbce1f201	-0.027581217
101	0x3c7ff90a	0.01562334
102	0xbd1f9b92	-0.038966723
103	0xbcc2f72c	-0.023799501
104	0xbb6f605e	-0.0036525945
105	0xbd032b45	-0.032023687
106	0xbd0f4c6c	-0.03498499
107	0x3cbabc0e	0.02279475
108	0xbc60c0a3	-0.013717803
109	0xbcd1ca5e	-0.025609192
110	0xbb765d85	-0.0037592363
111	0xbccccf6d	-0.025001252
112	0xbd05d9a9	-0.03267828
113	0xbd14aca6	-0.036297463
114	0xbd4746c6	-0.04865148
115	0xbd3987f2	-0.045295663
116	0xbb9c3666	-0.004767227
117	0x3c57ecb6	0.013178995
118	0xbc802f02	-0.015647415
119	0xbbc5adff	-0.006032705
120	0xbbeef5df	-0.0072924937
121	0xbcb9e96d	-0.022694314
122	0xbc2cec42	-0.010554375
123	0xbc5aa686	-0.013345366
124	0xbcfffa17	-0.031247182
125	0x3a24e887	0.0006290753
126	0x3bae0c3e	0.005311518
127	0xbc1d365d	-0.009595481
128	0xbc99f9f8	-0.018795952
129	0xbba3984a	-0.0049925195
130	0xbc2bcbf4	-0.010485638
131	0xbc67fd98	-0.014159583
132	0xbc17019f	-0.009216695
133	0xbc8fd8b0	-0.01755938
134	0xbbb23880	-0.005438864
135	0x3c6bd3d9	0.01439377
136	0x3c9ab157	0.01888339
137	0xbbd55791	-0.006510683
138	0x3d66bce4	0.056332484
139	0x3d0edf61	0.034881
140	0xbce90ef5	-0.028449515
141	0xbbc5ff79	-0.0060424176
142	0xbd03afbf	-0.032150026
143	0xbd9644aa	-0.073373154
144	0x3cc7d537	0.024393661
145	0xbc8ffd42	-0.017576817
146	0xbbf4fa53	-0.00747613
147	0xbbd2843f	-0.0064244564
148	0xbd359790	-0.044333994
149	0xbd131201	-0.03590584
150	0xbcdf8d54	-0.02728907
151	0xbd47fa84	-0.048822895
152	0xbc2470e0	-0.010036677
153	0x3c9609f0	0.018315285
154	0xbca8ee5d	-0.020621473
155	0x3c95c272	0.018281195
156	0x3cf16b24	0.029470034
157	0xbc9e6a40	-0.019337773
158	0xbc586c25	-0.013209377
159	0x3d2378d9	0.03991017
160	0xbc224264	-0.009903524
161	0xbd74a5a1	-0.05972827
162	0x3d03f40f	0.032215174
163	0x3c34af7d	0.011028168
164	0x38f67b79	0.00011753193
165	0x3cb32d44	0.02187217
166	0xbc837982	-0.01604915
167	0xbce39954	-0.027783073
168	0xbcb2950a	-0.021799583
169	0xbd4a072f	-0.049323257
170	0xbc8f43cf	-0.017488388
171	0x3c0bb41c	0.008526828
172	0xbb1b2a31	-0.002367627
173	0xbc927a7f	-0.017880676
174	0xbcba61ae	-0.022751655
175	0xbbe4dee1	-0.006984577
176	0x3c3d5eb7	0.011558226
177	0x3cbe4ab1	0.023228975
178	0xbca7fed2	-0.02050725
179	0xbc910a4b	-0.017705103
180	0xbc079c37	-0.008276991
181	0xbbbbef0a	-0.005735283
182	0xbc10a5ea	-0.0088286195
183	0x3c1b4e59	0.009479129
184	0xbc4c647a	-0.012475127
185	0x3bd19200	0.0063955784
186	0x3c01aa1b	0.007914091
187	0xbd0044b1	-0.03131551
188	0xbca949e1	-0.020665111
189	0xbd013f91	-0.031554762
190	0xbc891602	-0.016734127
191	0xbcc6e7b6	-0.02428041
192	0xbd12bd29	-0.03582493
193	0x3cfb4c48	0.030676022
194	0x3d0b62f1	0.034029905
195	0x3bd16672	0.0063903863
196	0x3d451f34	0.04812546
197	0x3be747e3	0.00705813
198	0x3d2239b8	0.039605826
199	0x3ac46973	0.001498504
200	0x3cae0ff8	0.021247849
201	0x3c0dd3ee	0.008656485
202	0xbbcfa745	-0.0063370788
203	0xbc5e912a	-0.0135844145
204	0xbc2b357e	-0.010449765
205	0xbc8ed824	-0.017437048
206	0x3c624a15	0.013811608
207	0x3c029c9c	0.007971909
208	0xbc8e809a	-0.017395306
209	0xbc5fd6d1	-0.013662056
210	0x3c612269	0.013741114
211	0x3b85efbd	0.004087417
212	0xbb3c08b2	-0.0028691706
213	0xbc907d39	-0.017637836
214	0xbcbc13e0	-0.022958696
215	0xbd01cc04	-0.031688705
216	0x3c881b27	0.01661451
217	0x3b5cb1bc	0.0033675274
218	0x3c0e730a	0.00869442
219	0xbc9c990e	-0.01911595
220	0xbc10d7a1	-0.008840472
221	0x3c231520	0.009953767
222	0xbbba3a21	-0.005683199
223	0xbc5faa3f	-0.01365143
224	0x3d04bc63	0.032406222
225	0x3bd411f6	0.0064718677
226	0xbc5491f9	-0.012974256
227	0xbbe891c9	-0.007097457
228	0x3cad3e82	0.02114797
229	0x3d1cb895	0.03826197
230	0xbbc49c12	-0.0060000503
231	0x3c47517b	0.012165423
232	0x3d191fbc	0.03738378
233	0x3c1405d9	0.009034597
234	0x3c6adc19	0.014334702
235	0xbc235426	-0.009968793
236	0xbc2e143b	-0.0106249405
237	0x3d3f4e88	0.046705753
238	0x3c99b6f1	0.018763991
239	0xbc144681	-0.009050013
240	0xbbc752da	-0.0060828747
241	0xbd57851e	-0.052617185
242	0xbd775339	-0.0603821
243	0x3d0beca8	0.03416124
244	0xbca0d787	-0.019634021
245	0xbca1e9cc	-0.019764803
246	0x3c7d4d42	0.015460314
247	0xbcaed181	-0.021340134
248	0xbcb31fc6	-0.021865737
249	0xbcef7f32	-0.029235456
250	0xbc9efbb4	-0.01940713
251	0xbd26c61f	-0.040716287
252	0x3cd4c4b5	0.025972703
253	0x3bb7404a	0.0055923807
254	0x3c05d39d	0.008168128
255	0xbc402e83	-0.011729839

bias f4 [64]
0	0x3bb33df5	0.0054700323
1	0xbc980a5f	-0.018559633
2	0xba145cc0	-0.0005659573
3	0x38afd075	8.3834784e-05
4	0xb9c6ec94	-0.00037941767
5	0x38cb33e3	9.689459e-05
6	0xbab014f2	-0.0013433977
7	0xba116cc5	-0.0005547519
8	0xb963534d	-0.00021679439
9	0x3cb7c615	0.02243332
10	0xbc30c5fc	-0.010789391
11	0xb919d932	-0.00014672129
12	0xbb19b51e	-0.0023453902
13	0xba0f9aaf	-0.0005478067
14	0xb9a3766b	-0.0003117801
15	0xb924c823	-0.00015714816
16	0xbc840625	-0.016116211
17	0xbb58ecb8	-0.003310008
18	0x3a45e5e3	0.00075492094
19	0xba4850c6	-0.0007641431
20	0xbb355856	-0.002767106
21	0x38c21278	9.254081e-05
22	0x3c68f8c1	0.014219464
23	0x3bd34311	0.006447204
24	0x3cfd36ce	0.030909922
25	0xb97e6695	-0.00024261542
26	0x3c9511b6	0.018196922
27	0xba24625b	-0.00062707596
28	0x3a9f39e6	0.0012147992
29	0x393d0980	0.00018027984
30	0x37755690	1.4623292e-05
31	0xbbfe256a	-0.007755925
32	0xbba14f6d	-0.0049227984
33	0x3a3b1c87	0.0007137735
34	0xb98b8756	-0.0002661298
35	0x3b3ae327	0.002851674
36	0x39f03cb8	0.00045821606
37	0xbc27e2c7	-0.010246939
38	0xbce902e6	-0.028443765
39	0x3b4dae22	0.0031384309
40	0xbac4e4e1	-0.0015021825
41	0xbb8102b7	-0.003937091
42	0x38e3c05d	0.00010860034
43	0x3957b705	0.00020572178
44	0xb9a27bac	-0.0003099119
45	0xba55331c	-0.0008132921
46	0xba74713f	-0.00093247363
47	0x38e06797	0.000107004475
48	0xbadc9b99	-0.001683104
49	0x3c7f1c0d	0.015570653
50	0x38b1e31e	8.4823216e-05
51	0xbb058d00	-0.0020378232
52	0x39f37eec	0.00046443136
53	0x39cf11a2	0.00039495254
54	0x3b0f7ade	0.0021893303
55	0xba65bfc2	-0.0008764231
56	0x39fc05cc	0.00048069505
57	0xb9977dff	-0.0002889484
58	0x3b2522a4	0.002519765
59	0xbaba40c3	-0.0014209974
60	0x3cff55d3	0.031168854
61	0x3a262caa	0.0006339053
62	0xbc9608aa	-0.018314678
63	0x3c9c84b7	0.019106252

weight f4 [64]
0	0x3e8925db	0.26786694
1	0x3eb994f6	0.3624646
2	0x3f0aab8b	0.54168004
3	0x3e307bfc	0.17234796
4	0x3e2e2973	0.17007999
5	0x3e27d75f	0.16390751
6	0x3e3f14d2	0.18660286
7	0x3e321c04	0.173935
8	0x3e63b682	0.2223759
9	0x3ef7ef5a	0.48424798
10	0x3ef0916c	0.46985948
11	0x3e367986	0.17819795
12	0x3e8454c7	0.2584593
13	0x3e2ae4ef	0.16688894
14	0x3e52d0e8	0.20587504
15	0x3e2f54c7	0.17122184
16	0x3ef4e21a	0.47828752
17	0x3e4f4b79	0.20243634
18	0x3e477b11	0.1948054
19	0x3ed39a6e	0.41328758
20	0x3e6c0209	0.23047651
21	0x3e4e2142	0.20129874
22	0x3e9bf694	0.30461562
23	0x3e810575	0.25199476
24	0x3eaea42b	0.34109625
25	0x3e521299	0.20514907
26	0x3e69378a	0.22775093
27	0x3e2adda4	0.16686112
28	0x3e5b0b18	0.2139095
29	0x3e7e5e57	0.24840675
30	0x3e3a8fbf	0.18218897
31	0x3e8d9db3	0.27659377
32	0x3ecc584c	0.39911115
33	0x3e56a024	0.20959526
34	0x3eb2bc9f	0.3490953
35	0x3eecb3e3	0.46230993
36	0x3e2f6c29	0.17131104
37	0x3ed54a58	0.41658282
38	0x3ea08d7e	0.3135795
39	0x3e85132c	0.2599119
40	0x3e748948	0.23880494
41	0x3e8538ea	0.26019984
42	0x3e69cd6e	0.22832271
43	0x3e2f9274	0.17145711
44	0x3e547700	0.2074852
45	0x3e4886dc	0.19582695
46	0x3e609fbb	0.21935932
47	0x3e29c67d	0.16579624
48	0x3e5509eb	0.20804565
49	0x3f016991	0.50551707
50	0x3e3a1ccd	0.18175049
51	0x3e8bd0a1	0.2730761
52	0x3e438df2	0.19097117
53	0x3e5c99c8	0.21543038
54	0x3e6c5557	0.2307943
55	0x3e87fe7f	0.26561353
56	0x3e596ad7	0.21232162
57	0x3e2ce250	0.16883206
58	0x3eb2e08a	0.34936935
59	0x3e8d5b27	0.27608606
60	0x3edc0e7e	0.42979807
61	0x3e5ee1ba	0.21765795
62	0x3edc9c5b	0.4308804
63	0x3e9b0120	0.30274296

bias f4 [64]
0	0x3df7f12c	0.12106547
1	0x3d44b503	0.04802419
2	0x3d46e9f7	0.04856297
3	0xbda788ef	-0.08180415
4	0xbdb229df	-0.086993925
5	0xbdb7ab29	-0.08968193
6	0xbd52a0a6	-0.051422738
7	0xbda75fd1	-0.081725724
8	0xbd3de347	-0.046359327
9	0x3de73df7	0.11291116
10	0x3db95bdf	0.09050726
11	0xbdb1d6f4	-0.08683577
12	0x3d9ef890	0.07762253
13	0xbd9cd9c5	-0.07658724
14	0xbd823f1e	-0.06359695
15	0xbdacec08	-0.08443457
16	0x3d928b80	0.07155514
17	0xbd559686	-0.052145503
18	0xbd839430	-0.06424749
19	0x3cab0edc	0.020881109
20	0xbd361559	-0.044453952
21	0xbd78582a	-0.060630955
22	0x3dc5ded5	0.096616425
23	0x3deb8a6c	0.11501011
24	0x3e2247e2	0.15847734
25	0xbd79adaa	-0.060956635
26	0x3dff12ba	0.12454744
27	0xbda81988	-0.08207995
28	0xbd3f06e5	-0.046637435
29	0x3d98a07d	0.07452486
30	0xbdc0c181	-0.09411908
31	0x3c352f59	0.011058652
32	0x3e0e3fd4	0.13891536
33	0xbdcad3a0	-0.099036455
34	0xbd133314	-0.035937384
35	0x3cdc81da	0.026917387
36	0xbda73b5d	-0.081656195
37	0x3d9009e6	0.07033138
38	0x3d91775b	0.071028434
39	0xbd7f926e	-0.062395506
40	0xbd761be7	-0.060085203
41	0x3d733f77	0.059386697
42	0x3b5620df	0.0032673401
43	0xbdc2ca84	-0.09511283
44	0xbd4e9d2e	-0.050442867
45	0xbda91df6	-0.08257668
46	0xbd4a28fa	-0.049355485
47	0xbda2d4e4	-0.07950762
48	0xbd9b8940	-0.07594538
49	0x3de37fb9	0.111083455
50	0xbdade626	-0.08491163
51	0x3d2db156	0.04240545
52	0xbd8edba6	-0.06975488
53	0xbd9ea493	-0.07746234
54	0xbdc99a57	-0.09843891
55	0xbd0698ee	-0.03286069
56	0xbd6ab26a	-0.057299055
57	0xbdcae664	-0.09907225
58	0x3db0ba83	0.08629324
59	0x3d6b6c43	0.057476293
60	0x3e264652	0.16237763
61	0xbc9d9604	-0.019236572
62	0x3ddb7024	0.107147485
63	0x3e01ca3a	0.126748

running_mean f4 [64]
0	0xb9070727	-0.00012877268
1	0x3cefb97e	0.029263254
2	0xbe212376	-0.15736184
3	0xbd943164	-0.07235983
4	0xbd76598d	-0.060143996
5	0xbc73705b	-0.014858331
6	0xbdd9124f	-0.10599195
7	0xbdcc9e3f	-0.099911205
8	0xbd2ef140	-0.042710543
9	0x3d7141a8	0.058900505
10	0xbd1a0c95	-0.037609655
11	0xbd274bb1	-0.04084367
12	0x3d98c4f4	0.07459441
13	0xbd9de22c	-0.077091545
14	0xbe6d2505	-0.23158653
15	0xbc765f5a	-0.015037382
16	0xbc8074d6	-0.015680712
17	0xbe63979e	-0.22225806
18	0x3d7cc8b8	0.061714858
19	0xbe094028	-0.1340338
20	0xbe3a7e29	-0.18212189
21	0xbdd5a443	-0.10431721
22	0x3d41c19c	0.04730378
23	0x3d9b2945	0.07576231
24	0x3cdf22f3	0.027238345
25	0xbe379405	-0.17927559
26	0x3da319e3	0.07963922
27	0xbd833c4f	-0.06407987
28	0xbe511885	-0.2041951
29	0xbe3d963a	-0.18514338
30	0xbdad3b71	-0.08458603
31	0xbd9ca415	-0.07648484
32	0xbbcde9fe	-0.0062839976
33	0xbc610fb9	-0.013736659
34	0xbd4dec57	-0.05027422
35	0x3cc02fc1	0.02346027
36	0xbdaf4bcd	-0.0855938
37	0xbcdaa8ef	-0.026691882
38	0x3d2c0376	0.041995488
39	0x3e1168c0	0.14200115
40	0x3d9864dd	0.07441113
41	0xbe3531ec	-0.17694825
42	0xbe601309	-0.21882261
43	0xbcde2d8c	-0.027121328
44	0xbd8a79de	-0.067615256
45	0xbe4c2519	-0.19936027
46	0xbe31fb05	-0.17380913
47	0xbdd76e07	-0.10519033
48	0xbd598a29	-0.053110275
49	0x3c453df4	0.012038697
50	0x3cc68224	0.024231978
51	0x3c940094	0.018066682
52	0xbe1d51b9	-0.15363206
53	0xbdf15f20	-0.11785722
54	0xbdce46e4	-0.10072115
55	0x3d97228e	0.07379638
56	0xbdd0ffa9	-0.10205013
57	0xbe238e05	-0.15972145
58	0x3be0a7e8	0.0068559535
59	0xbdcd9bed	-0.10039506
60	0xbd586932	-0.052834697
61	0xbd06b601	-0.032888416
62	0x3cee0f80	0.029060125
63	0x3dc77c30	0.09740484

running_var f4 [64]
0	0x3c423218	0.011852764
1	0x3bfb09e3	0.0076610907
2	0x3d1095e7	0.035299208
3	0x3decdcd5	0.11565558
4	0x3dfb548b	0.12271985
5	0x3dba7f99	0.091063686
6	0x3d6d1cbd	0.057888735
7	0x3dc77ab7	0.09740203
8	0x3cd5ff26	0.02612264
9	0x3c097d37	0.00839167
10	0x3bd52bc5	0.006505462
11	0x3de9de16	0.11419313
12	0x3c996fc4	0.018730052
13	0x3dbb867c	0.0915651
14	0x3e1a9bec	0.15098542
15	0x3de0db22	0.10979296
16	0x3bc3afd8	0.00597189
17	0x3cdecad8	0.027196333
18	0x3cd13399	0.025537299
19	0x3d849671	0.06474007
20	0x3ca4501b	0.020057729
21	0x3dda835e	0.106695876
22	0x3c2a4ee3	0.010394785
23	0x3c81b031	0.015831085
24	0x3bbe1e28	0.0058019347
25	0x3dea3fa6	0.11437921
26	0x3c97cdd7	0.01853077
27	0x3dc87b92	0.09789194
28	0x3e005202	0.12531283
29	0x3d8a1202	0.06741716
30	0x3db87e67	0.09008484
31	0x3bb70f14	0.0055865142
32	0x3bb6f270	0.0055831
33	0x3d51f260	0.051256537
34	0x3d683680	0.0566926
35	0x3da7f1f8	0.08200449
36	0x3df79255	0.120884575
37	0x3be82d4b	0.0070854775
38	0x3c3a4367	0.011368609
39	0x3b94bc0b	0.004539018
40	0x3bc0359f	0.005865767
41	0x3ca3c8e4	0.019993253
42	0x3dccd7f7	0.100021295
43	0x3dc95622	0.09830882
44	0x3d857dad	0.065181114
45	0x3d2d5f24	0.04232706
46	0x3d817709	0.06321532
47	0x3db12464	0.08649519
48	0x3c9ef929	0.019405918
49	0x3bf622d1	0.0075114747
50	0x3dcbb10d	0.09945879
51	0x3cade1df	0.021225868
52	0x3d87630f	0.06610691
53	0x3d3754ec	0.044758722
54	0x3d7f4f18	0.06233129
55	0x3cc4e8da	0.024036814
56	0x3d1d465b	0.038397174
57	0x3de53249	0.11191232
58	0x3b9bea2a	0.004758139
59	0x3bf8aafc	0.0075887423
60	0x3bf41526	0.00744881
61	0x3d9566ac	0.07294974
62	0x3c294008	0.010330208
63	0x3c393d6a	0.011306146

weight f4 [64, 67, 3, 3]
0	0xba63c3d0	-0.0008688541
1	0xbb7adb29	-0.0038277602
2	0xbb0dd27c	-0.002164035
3	0x3c5c20f2	0.013435589
4	0x390a97ac	0.00013217208
5	0x3af2ab2d	0.0018514149
6	0x390cc7ef	0.00013425921
7	0x3aa39393	0.0012479894
8	0x3c0a2800	0.008432388
9	0xbb9d16ef	-0.0047939937
10	0xbc1661d7	-0.0091786
11	0xbc489628	-0.012242831
12	0xbc60e1ec	-0.013725739
13	0xb909bb9a	-0.00013135225
14	0xbbbe947d	-0.005816041
15	0xbaf4473d	-0.0018636953
16	0xbba36349	-0.004986201
17	0xbc2a6d6d	-0.010402066
18	0xbacf5a70	-0.0015819799
19	0xbb6eea7c	-0.0036455682
20	0xbb1cae3d	-0.0023907565
21	0x3af5cb9e	0.0018752699
22	0xbac87c99	-0.0015295922
23	0xbb698125	-0.0035629955
24	0x3b75c664	0.0037502283
25	0x39bfefb0	0.0003660894
26	0xba3f36f8	-0.0007294263
27	0xbc01b927	-0.007917679
28	0x3b860bb9	0.004090753
29	0xbc04f6d1	-0.008115486
30	0x3ceab46b	0.028650483
31	0x3cc5384a	0.024074692
32	0xbc6b9070	-0.014377698
33	0x3c09b78c	0.008405577
34	0xbc88b518	-0.016687915
35	0xbcbf7fbe	-0.023376342
36	0xbcb38e85	-0.021918545
37	0xbce47d2f	-0.027891723
38	0xbd09c778	-0.033637494
39	0x3bf72cb2	0.00754317
40	0x3db94c5d	0.09047768
41	0xbd512e13	-0.05106933
42	0xbb37a3a7	-0.0028021128
43	0x3c2c54d4	0.0105182715
44	0xbd16c612	-0.03680999
45	0xbc0db4c0	-0.008649051
46	0xbc7f3418	-0.015576385
47	0x3b9112e6	0.0044273017
48	0xbb1ce216	-0.0023938469
49	0xbc830fcc	-0.015998743
50	0x3cdd533d	0.02701723
51	0x3c1b3db7	0.009475163
52	0xb9a96c22	-0.00032314757
53	0x3c4d6a05	0.012537484
54	0xbc9392bd	-0.018014306
55	0xbc5835a8	-0.013196386
56	0x3ab5d663	0.0013873096
57	0xbd02ccb4	-0.0319335
58	0xbc9d8ed8	-0.019233152
59	0xbbaa6f7b	-0.005201278
60	0xbc3f659b	-0.0116819395
61	0x3bcc5025	0.00623514
62	0x3c1c2074	0.009529222
63	0xbcc8f0b4	-0.024528839
64	0xbc0bc5e7	-0.00853107
65	0x3b8ca901	0.004292608
66	0xbd117971	-0.035516206
67	0xbc45f909	-0.0120833
68	0xbb4c011c	-0.003112859
69	0xbc16bd92	-0.0092004705
70	0x3c348b06	0.011019474
71	0x3c01767b	0.007901783
72	0xbcd7906f	-0.026313988
73	0xbb74f4be	-0.0037377323
74	0x3c178d13	0.009249943
75	0xbd205034	-0.039138988
76	0xbc360b6b	-0.011111121
77	0xbb34548b	-0.0027516212
78	0xbc6ab76f	-0.014325961
79	0xba9f1d0f	-0.0012139397
80	0x3ae21059	0.0017247304
81	0xbc1eb861	-0.009687514
82	0xbbd5c74f	-0.0065240036
83	0x3b65fe89	0.0035094342
84	0xbb73d40e	-0.0037205252
85	0xbc1ca7a5	-0.009561454
86	0x3c65ad4d	0.014018369
87	0x3c41de2d	0.011832756
88	0x3c08686d	0.008325678
89	0xbb4bbcb6	-0.0031087822
90	0xbcc223ba	-0.023698676
91	0xbbe4e71c	-0.006985558
92	0x3c169788	0.009191401
93	0xbd09d6b9	-0.03365204
94	0xbc0f524b	-0.0087476475
95	0xba8f444a	-0.0010930386
96	0xbc387508	-0.011258371
97	0x3b809634	0.0039241556
98	0x3b65b04d	0.003504771
99	0xbad2a18d	-0.0016069874
100	0x3b680639	0.00354041
101	0x3ae46a48	0.0017426694
102	0xbaea3b37	-0.0017870431
103	0xba5741f1	-0.0008211425
104	0xba9c96d7	-0.0011946809
105	0xbbbf02e9	-0.0058292043
106	0xb9e7e7b2	-0.0004423238
107	0xba939b34	-0.0011261464
108	0xbd4eb754	-0.050467804
109	0x3ca81c02	0.020521168
110	0xbcd0e0d7	-0.025497837
111	0x3bf6095e	0.007508441
112	0x3d8570db	0.06515666
113	0xbc8f381e	-0.017482813
114	0xbce7077c	-0.028201811
115	0x3b9909c3	0.004670353
116	0xbd72efc7	-0.0593107
117	0xbc1e93d3	-0.009678799
118	0xbc3fcc31	-0.011706398
119	0xbccd0912	-0.02502874
120	0x3c6b0aff	0.014345883
121	0x3dd179c5	0.10228304
122	0xbd02c591	-0.031926695
123	0xbc851e31	-0.016249748
124	0xbc834ac0	-0.016026855
125	0xbcb3df33	-0.021957016
126	0xbcd842f5	-0.026399115
127	0xbbde7fed	-0.0067901523
128	0x3c089369	0.008335927
129	0xbd115777	-0.035483804
130	0xbc1b06c1	-0.0094620595
131	0xbb641528	-0.003480265
132	0xbc0dd482	-0.008656623
133	0x3bc096cc	0.0058773514
134	0x3b3de538	0.0028975736
135	0xbbdadfa4	-0.006679492
136	0x3bb077c5	0.0053853714
137	0x3ac3ae69	0.0014929298
138	0x3bd4e83f	0.0064974125
139	0x3c527ebc	0.012847599
140	0xbb153698	-0.0022768136
141	0xbc2a1df8	-0.010383122
142	0xbb85c704	-0.0040825624
143	0xbcd71b72	-0.026258204
144	0xbcc9218f	-0.024552135
145	0xbbc3937a	-0.0059685083
146	0x3c1df3a1	0.009640605
147	0xbd11df33	-0.03561325
148	0xbba2ab48	-0.004964266
149	0xb9c476dd	-0.00037472593
150	0xbc1a8bd3	-0.009432751
151	0x3bee00a1	0.0072632586
152	0x3b18cd2e	0.0023315656
153	0x3b52d039	0.0032167567
154	0xbb4afea8	-0.003097454
155	0x3b182dad	0.0023220584
156	0xbac5c446	-0.0015088401
157	0xbb338778	-0.0027393978
158	0x3bcbf586	0.006224337
159	0x3bbbc299	0.005729985
160	0x3c25241b	0.010079409
161	0x3c2d5f81	0.010581852
162	0xbcd46401	-0.025926592
163	0xbbfa9a11	-0.0076477607
164	0x3c147f06	0.009063488
165	0xbd1e26c1	-0.038611177
166	0xbc0c12ff	-0.008549451
167	0xbb439a76	-0.0029846705
168	0xbc385a97	-0.011252067
169	0xbb233a91	-0.0024906734
170	0x3a06d00f	0.00051426975
171	0xbd1c4265	-0.038149256
172	0xbc82450b	-0.015902063
173	0xbd0fe4d1	-0.035130326
174	0x3d37e630	0.04489726
175	0x3d29d02b	0.04145829
176	0xbd86e239	-0.06586117
177	0x3cf8bea4	0.030364342
178	0xbc497d36	-0.012297919
179	0xbdd12df1	-0.10213841
180	0x3c21c191	0.00987281
181	0x3ca1a662	0.019732658
182	0x3d032a14	0.03202255
183	0x3ca2bd3d	0.019865626
184	0x3c3f173e	0.011663256
185	0x3bc190d2	0.0059071565
186	0x3ba8d3fd	0.005152224
187	0x3ac7ec3e	0.0015252901
188	0xba41d277	-0.00073937274
189	0x3c4f018c	0.012634646
190	0x3bbab61a	0.0056979777
191	0x3ce953d2	0.028482351
192	0x39b9a6de	0.00035410275
193	0xbc918656	-0.017764252
194	0x3c86d31e	0.01645809
195	0x3c480463	0.012208077
196	0x3c13ea22	0.00902799
197	0x3c962b32	0.018331144
198	0xbc44671c	-0.011987474
199	0xbcbdb8fd	-0.023159498
200	0x39979295	0.00028910176
201	0x3b258286	0.00252548
202	0xbc7ab5be	-0.01530212
203	0x3c52fa0a	0.012876997
204	0x3c0e3edc	0.008681979
205	0x3b61e854	0.0034470754
206	0x3bdeb451	0.0067963977
207	0x3bc15e18	0.0059011094
208	0x3b93789e	0.0045004627
209	0x3bbb997c	0.005725084
210	0xb93410b9	-0.00017172367
211	0x3a9985f6	0.0011712897
212	0x3af63726	0.0018784746
213	0x3b4f26dc	0.0031608855
214	0x3b3dde43	0.002897159
215	0x3af7c0eb	0.0018902099
216	0xbc62e2de	-0.013848035
217	0xbc15953f	-0.009129821
218	0xbc2df5f5	-0.010617723
219	0xbc8345c5	-0.01602448
220	0xbc5ef99a	-0.013609314
221	0xbc3f0211	-0.0116582075
222	0xbc48f03c	-0.012264308
223	0xbc5de8e9	-0.0135443
224	0xbc3c6a9a	-0.011500025
225	0xbc168c19	-0.009188675
226	0x3bed80de	0.007248028
227	0xbb4a8cdd	-0.0030906715
228	0x3bf22099	0.00738914
229	0x3cafe5c6	0.02147187
230	0xbc3252e6	-0.010884022
231	0x3c2cf95f	0.010557502
232	0xbb12589f	-0.0022330654
233	0xbc66e93e	-0.014093695
234	0xbce496e4	-0.027903982
235	0xbc3e5780	-0.011617541
236	0xbc29abd5	-0.010355909
237	0xbb11658b	-0.0022185768
238	0x3c92291a	0.017841864
239	0x3c514fd6	0.012775382
240	0x3ad1c1e4	0.0016003218
241	0xbba53dda	-0.0050427737
242	0xbccc22aa	-0.024918873
243	0xbc5b58db	-0.013387884
244	0x3c0e5e7d	0.00868952
245	0xbcc81a91	-0.02442673
246	0x3d89993f	0.067186825
247	0x3d1ca79e	0.03824579
248	0xbd4ca1be	-0.049958937
249	0x3ccb2eac	0.024802528
250	0xbc38141e	-0.011235265
251	0xbd9e37fe	-0.077255234
252	0x3c3d3f5e	0.011550752
253	0x3a4925c6	0.000767317
254	0x3c0851e4	0.0083203055
255	0x3b9fcb51	0.004876532

bias f4 [64]
0	0x3b600112	0.0034180325
1	0x3affaf23	0.0019507151
2	0xbb3ac16d	-0.0028496638
3	0x3b8910c8	0.0041829087
4	0x398fec0a	0.00027450948
5	0x3bfed5fc	0.007776974
6	0xbc1400aa	-0.009033361
7	0xbb9b9fd9	-0.00474928
8	0x3c0f31b5	0.008739878
9	0x3ba95786	0.0051679043
10	0x36e38a7a	6.781248e-06
11	0x39d49e75	0.0004055385
12	0x3bbaa445	0.005695852
13	0x3b7cd26c	0.003857757
14	0x3b280a55	0.0025640924
15	0xb99d18ac	-0.00029963756
16	0x39167785	0.00014349639
17	0x3a42b938	0.00074281124
18	0xbb9a1bb2	-0.0047030086
19	0xb9f5871c	-0.00046830706
20	0x3adbfeed	0.0016784348
21	0x3be2b5ab	0.006918629
22	0x3bd13793	0.006384799
23	0xbc0fbe40	-0.0087733865
24	0x3c09131f	0.008366375
25	0x3a097586	0.00052436476
26	0x3b299143	0.0025873936
27	0xbaafd484	-0.0013414775
28	0xbb5d74f2	-0.0033791629
29	0xb8084a57	-3.249416e-05
30	0xbb717be6	-0.003684753
31	0xbb4ebd2d	-0.0031545863
32	0xb942c5a0	-0.00018574903
33	0x3b507a2e	0.0031811106
34	0xbace7316	-0.0015750851
35	0x3a4225af	0.0007406128
36	0xb9fd6842	-0.00048333599
37	0x3b96f419	0.0046067354
38	0xba7968ae	-0.00095141947
39	0xbb484f7b	-0.0030564952
40	0x3b2a45d5	0.0025981565
41	0x3b3f0604	0.0029147873
42	0x39c3b425	0.00037327516
43	0x3a9d84b4	0.0012017698
44	0xbb6f2e4c	-0.00364961
45	0xb8ba25fe	-8.876248e-05
46	0x3ae43120	0.001740966
47	0xb980ebe4	-0.00024589815
48	0xbb6319a0	-0.0034652725
49	0x39f0b7c8	0.00045913295
50	0xbb5c29d1	-0.003359426
51	0xbc37f90e	-0.011228813
52	0xba29bba3	-0.00064747984
53	0xbc2224a3	-0.00989643
54	0xbb0c1af3	-0.0021378368
55	0x3b334b40	0.0027358085
56	0x3a03b2ac	0.00050238776
57	0xbb47d86b	-0.0030493985
58	0xbb2b05d8	-0.0026096012
59	0x3b36bd8b	0.0027883973
60	0xb8c3c455	-9.334894e-05
61	0xbaa3eb14	-0.0012505972
62	0xbb72c688	-0.0037044603
63	0x39a46f87	0.00031363612

weight f4 [64]
0	0x3ed8a567	0.42313692
1	0x3eb52723	0.3538142
2	0x3e99a8b0	0.3001151
3	0x3e99b4cb	0.30020747
4	0x3e34cf0e	0.1765711
5	0x3e8aca6c	0.2710756
6	0x3eb9747c	0.36221683
7	0x3e9c2b04	0.30501568
8	0x3ea6be5a	0.32567102
9	0x3ef0a63a	0.4700182
10	0x3f00f797	0.5037779
11	0x3e4f570f	0.20248054
12	0x3e8d7a3a	0.27632314
13	0x3e9875be	0.2977733
14	0x3e93f19a	0.28895265
15	0x3ea87103	0.3289872
16	0x3e4bb9e1	0.19895126
17	0x3e943c66	0.2895233
18	0x3ea9173a	0.33025533
19	0x3e40abb5	0.18815501
20	0x3e9c62b2	0.3054405
21	0x3e9b6379	0.3034933
22	0x3ee704b1	0.45120767
23	0x3ec31148	0.38099122
24	0x3f03fec0	0.5156059
25	0x3e8e486a	0.27789623
26	0x3e90526c	0.28187883
27	0x3e91be9a	0.2846573
28	0x3ef5d9b7	0.48017666
29	0x3e9a16b0	0.30095434
30	0x3e9981d5	0.29981866
31	0x3e8a5b92	0.27022988
32	0x3e4459d6	0.19174895
33	0x3e8ba468	0.2727387
34	0x3eda2337	0.42604992
35	0x3e81d16b	0.25355086
36	0x3e51a4ed	0.2047307
37	0x3e90ef16	0.28307408
38	0x3e8ff46c	0.28116167
39	0x3e9695c9	0.29411152
40	0x3ea5c20c	0.3237461
41	0x3f06a90c	0.52601695
42	0x3e91a8fc	0.28449237
43	0x3ea3f703	0.32024392
44	0x3ea31646	0.3185293
45	0x3e59f74f	0.21285747
46	0x3ec2bb2f	0.38033435
47	0x3e1e8974	0.15482122
48	0x3ea31d23	0.31858167
49	0x3e57c857	0.21072517
50	0x3ea4dfe3	0.32202062
51	0x3eba38dd	0.36371508
52	0x3e35e0bb	0.17761509
53	0x3eb90d22	0.36142832
54	0x3eb0d09d	0.3453416
55	0x3ed3e787	0.4138758
56	0x3e99d338	0.3004396
57	0x3e89aca0	0.26889515
58	0x3e8b7a98	0.2724197
59	0x3ec32ddb	0.38120922
60	0x3e4207dc	0.1894831
61	0x3eb9e198	0.36304927
62	0x3edcd0e8	0.43128133
63	0x3e3cd94f	0.18442272

bias f4 [64]
0	0x3c8ef8f1	0.017452689
1	0x3d6c540b	0.057697337
2	0x3cb3a987	0.021931423
3	0x3d55a559	0.05215964
4	0xbde0e379	-0.10980887
5	0x3cf93c5b	0.030424288
6	0x3d61ecf9	0.055157635
7	0x3de32f10	0.11092961
8	0xbb8db5cf	-0.004324652
9	0x3cab2a68	0.020894244
10	0x3cc5bf61	0.024139108
11	0xbdc2d60e	-0.09513484
12	0x3c6bb11b	0.014385487
13	0xbc6312b4	-0.01385944
14	0x3d52660f	0.051366862
15	0xbd0a68c1	-0.033791307
16	0xbdcd3e5d	-0.100216605
17	0x3ceb2f4f	0.028709082
18	0x3d95bdf6	0.07311623
19	0xbdc392db	-0.09549495
20	0x3d8dc010	0.06921399
21	0x3b9d3c4b	0.0047984472
22	0x3d175213	0.036943506
23	0x3d8dce01	0.06924058
24	0x3d9a664f	0.07539045
25	0xbda5bc71	-0.08092583
26	0x3d896618	0.06708926
27	0xbd0b70aa	-0.03404299
28	0x3d339c60	0.043850303
29	0x3bae3759	0.0053166565
30	0x3d290195	0.041261274
31	0xbcd98435	-0.026552299
32	0xbdcb3a02	-0.099231735
33	0xbd2c3dfd	-0.042051304
34	0x3d908a93	0.07057681
35	0xbd95dcd4	-0.0731751
36	0xbde76e14	-0.113002926
37	0xbd1e4aff	-0.03864574
38	0x3d5a3bb7	0.053279605
39	0x3ba35b03	0.0049852147
40	0xbc2e6dd1	-0.010646299
41	0x3d778d68	0.06043759
42	0xbd968da0	-0.073512316
43	0xbd03aae7	-0.032145407
44	0xbcd2429c	-0.025666527
45	0xbdb16df2	-0.086635485
46	0xbbd4d3fd	-0.0064949975
47	0xbdd711f2	-0.1050147
48	0x3d0da5b6	0.034581862
49	0xbdd2cff3	-0.102935694
50	0xbd156b2f	-0.03647917
51	0xbc4d5c6a	-0.01253424
52	0xbdcaf2ee	-0.099096164
53	0xbc95ccad	-0.018286074
54	0xbd8c2860	-0.068436384
55	0x3d7ee8a5	0.062233586
56	0x3ce37db4	0.0277699
57	0x3d9587e0	0.07301307
58	0xbcc7959d	-0.024363333
59	0x3d98477b	0.07435509
60	0xbde40a36	-0.1113476
61	0xbd1a3812	-0.03765113
62	0x3cf39024	0.029731818
63	0xbde29df4	-0.110652834
