SND_trackers_My_data/9X0_file/24_9X0_coordconv_Label_Vg.pt (torch, 327805 bytes, 25 tensors)

weight f4 [32, 9, 3, 3]
00000000: 7662 c43c 0f61 e3bc b333 72bd ac7b fdbb
00000010: 6fbe 503d 4bd9 973d f8c5 72bd 7d72 043d
00000020: 7f4e 29bd 20aa adbc 726b b03a 2428 eb3c
00000030: 7df2 cfbc 9bbe 23bc 917a f33c 9dfe b0bb
00000040: 58af d6bc 870e 113d 3531 1e3d d117 d1bc
00000050: 60c0 9dbc c939 213d 0bd2 cebc b106 2ebd
00000060: f7fe 2b3d 96ce 1fbc e70a ad3c 20ff e6bd
00000070: 3130 a6bd 71d2 e8bd 908d ccbb be18 49bd
00000080: d98f fdbd 5df6 c5bd b8fa 41bd cad5 4dbd
00000090: d853 d33c ad86 95bd 5f8c 9c3d af84 24bd
000000a0: fcf5 b1bc cf2d d63d b67b a83c b71e 1b3c
000000b0: 839b ebbc 6d14 3dbb bd7e 2a3c dd6a e6bd
000000c0: ac78 b1bd 6419 dfbd 37e0 1dbd 9882 a1bc
000000d0: 780f a2bd 2b39 e4bc a0ba 90bd 44c6 64bd
000000e0: ae9d 96bd 0ace a3bd f9d1 61bd 84ff 31bd
000000f0: 1377 98bd 449e 91bd 33bb 9ebd 56d2 9d3d
00000100: a93a 88bb 821b e0bb 13b7 faba 1a39 583a
00000110: 9d31 9fbd b095 403c 2b6c 053d 31e1 e13d
00000120: 2f2b 7c3d 3bbd 30bc 9ce8 4e3c 359c ab3b
00000130: 35dd 2a3c a5ab 75bd c5ab b33a d2a0 dc3d
00000140: ffb3 ed3d b587 463b 22d6 883a 67c1 d23b
00000150: 956f 433b 2905 4a3b a05d aa3a 0758 373b
00000160: f4a9 233b 7e68 143b 0fb8 333c aa8e 6a3c
00000170: 9e1d 0d3c 4cca 2d3c cf73 723c 853c 533c
00000180: e685 083c 05c1 623c d32a 2e3c d17a 6fbc
00000190: 2fe1 72bc 3ac5 70bc 69d5 74bc e7f3 72bc
000001a0: a8e6 72bc 9d4b 7abc de85 77bc 4357 75bc
000001b0: cc6b f2bc 6c15 d5ba a443 30bd 5f8a dcbc
000001c0: cca8 b9bc 4142 a33b fc91 e8bb f60b 61bd
000001d0: 66ed a43c 74cf f63b f223 503d daae 353d
000001e0: 1ca0 35bb 29cd ec3a ebfd 503c bcbf 443b
000001f0: 6256 433c a45a d2ba 9cb0 64bc 7343 9c3c
00000200: 5d36 513d 5203 fcbc 7f53 853b 8993 033c
00000210: ecd7 08bd 1793 21bb f1bd a7bc be4c dfbc
00000220: 0e03 463b 2a7f 523c d15a 40bc f2ee 2cbb
00000230: e8b3 4d3b 49bd 9dbc 81c2 f8bb 58e0 813a
00000240: fbd9 6cbc 9cb6 0dbd 20c4 1cbd 69cd 04bd
00000250: 5727 d9bc bb99 0cbd 7de8 d1bc c0f9 10bd
00000260: 8555 02bd 4b8a 013d 0c6c b239 f0e9 dcbc
00000270: 6a92 423c 1c24 1cbc 189a ddbc 1200 51bc
00000280: 6b6c a4bc f590 f6bc ea00 853c f1ec c5bb
00000290: dc3b 833b 6c46 2c3d 5301 6a3b 2064 a23a
000002a0: 2ab3 483b 1ba9 c23c f54f 31bb cf17 683c
000002b0: cdbd 8f3b ab42 073d 5456 c3bc 1c52 d0bb
000002c0: 819e 903c b18e 113d 0f0a 9eba 38c2 a33c
000002d0: cc96 043d 4b47 053d 39d1 043d eb52 093d
000002e0: f063 073d 608c 073d 74b6 093d 2b17 0b3d
000002f0: 05f9 083d b232 383d 539b fd3d 9caf 1a3e
00000300: 7cf6 f63d b6f5 de3d 004d b43d ba63 c43d
00000310: afe0 2f3e 259e 513d 4703 ea3c 446a 253d
00000320: 9951 f83c ae73 333d f8fc 5f3d b2d6 683c
00000330: d026 5b3d 6411 893d 8b4c 723c df31 d13c
00000340: 00c1 633d 8f5d d73a 70a2 fd3c c766 c73c
00000350: d8bd be3c 7885 6c3d f301 023d 20a3 54bb
00000360: 36e8 0c3c e5c4 573d 71df 5a3d 6877 073d
00000370: 9a98 7b3d 41fb 9e3c e92d b83c 1a3e 093d
00000380: df78 b53c f48f f43b 48bb 4f3d 33ad 6e3d
00000390: df95 953c 256f 273d 5736 8f3c 0d5b a13c
000003a0: 2f94 8b3d 804a e33c faec b83c eda7 083d
000003b0: 16c6 063d 1509 bd3c ed67 413d 0edd 1a3d
000003c0: 2d6d ed3c 8c92 a23d 85f0 603d 5437 0e3b
000003d0: 94fb 0e3b 5af5 133a 4a09 763b f3b2 0e3b
000003e0: 0e05 8c3b 5fc8 613b b652 2f3b d992 2cbb
000003f0: 1b3e 393c 95ed 403b 6a08 543b fe80 1d3c
0.023972731 -0.027756242 -0.059131335 -0.00773569 0.05096286 0.07414492 -0.05927083 0.032335747
-0.041334625 -0.021199286 0.0013459756 0.028705664 -0.025384182 -0.009994174 0.02972153 -0.005401446
-0.026206657 0.035414245 0.038621146 -0.025524052 -0.01925677 0.03936175 -0.02524664 -0.04248685
0.0419912 -0.009753844 0.021123363 -0.1127913 -0.081146605 -0.113682635 -0.0062424615 -0.04909586
-0.123809524 -0.09666131 -0.047358245 -0.050252713 0.025796816 -0.07301078 0.07643961 -0.0401656
-0.02172374 0.10457956 0.020566802 0.009467772 -0.028760677 -0.0028851286 0.010406193 -0.11250851
-0.086655945 -0.10893515 -0.038543906 -0.019715592 -0.07913107 -0.027859291 -0.07066846 -0.055853143
-0.07354294 -0.07998283 -0.055131886 -0.04345657 -0.074445866 -0.07110265 -0.07750549 0.07706134
-0.0041573835 -0.0068392167 -0.0019128047 0.0008248255 -0.07773135 0.011754438 0.03257386 0.1102928
0.06156462 -0.010787304 0.012628701 0.005237127 0.010428716 -0.059978146 0.0013707808 0.107728615
0.11606597 0.003029329 0.0010439793 0.0064317468 0.0029821147 0.003082583 0.0012997873 0.0027976052
0.0024973126 0.002264529 0.010969176 0.01431624 0.008613018 0.010607313 0.014798119 0.012892847
0.008332705 0.013839965 0.010630327 -0.014616684 -0.014824196 -0.01469546 -0.014943459 -0.014828659
-0.014825501 -0.015276817 -0.0151076 -0.014974418 -0.029592417 -0.0016256995 -0.043033257 -0.02692145
-0.022663496 0.0049822633 -0.007097481 -0.054943047 0.020132732 0.0075320546 0.05081553 0.044356205
-0.002771384 0.0018066514 0.012755851 0.003002151 0.011922451 -0.0016048742 -0.013958123 0.019075131
0.051077235 -0.030763302 0.0040687914 0.008030781 -0.033409044 -0.0024654323 -0.020476313 -0.027258273
0.0030214223 0.012847701 -0.011740402 -0.002638754 0.003138775 -0.019255297 -0.007591546 0.0009908779
-0.0144562675 -0.034597978 -0.038272977 -0.032422457 -0.026508017 -0.034326296 -0.025623554 -0.03539443
-0.03181984 0.031626027 0.00034031307 -0.026967019 0.011875728 -0.0095300935 -0.027051017 -0.012756364
-0.020071229 -0.030098418 0.016235787 -0.0060402085 0.0040049385 0.042059347 0.0035706356 0.0012389459
0.0030624368 0.023762276 -0.0027055715 0.014165833 0.0043866397 0.033022564 -0.023844875 -0.0063574445
0.017653706 0.03553647 -0.0012057441 0.019990072 0.032370374 0.032538693 0.032426093 0.033526342
0.033054292 0.033092856 0.033621266 0.03395764 0.03344061 0.04497022 0.12383141 0.15106052
0.12058732 0.108867094 0.08803749 0.09589334 0.17175554 0.05117621 0.028566016 0.040384546
0.030312346 0.043811493 0.05468461 0.014211344 0.05350381 0.0669277 0.014788757 0.025536476
0.05560398 0.0016431081 0.030961245 0.024341 0.023283884 0.057744473 0.03174014 -0.0032445863
0.008600285 0.052678008 0.053435747 0.03307286 0.06142483 0.019406917 0.02248283 0.03350649
0.022152362 0.0074634496 0.050715715 0.058270644 0.01825994 0.04087748 0.017481966 0.019696737
0.06815373 0.027745485 0.022573937 0.03336327 0.032903753 0.02307562 0.047218252 0.03780847
0.028982723 0.07938108 0.054916877 0.0021700459 0.0021817433 0.0005644165 0.0037542158 0.0021774143
0.0042730635 0.0034451706 0.002675218 -0.0026332645 0.011306311 0.0029438485 0.0032353648 0.009613274

bias f4 [32]
00000000: e1e9 a9bc 4bb8 b73a 549f e93b df17 cd3b
00000010: 4700 2d3c d07e e5bb 9857 9e3c c0be 723b
00000020: 30c7 893b f857 023c bf7b 3238 1ee7 e13b
00000030: 59e3 92bb f697 093c 0959 123a 5b8c 1dbc
00000040: 7539 2c3c 2736 94b9 bb83 c3bc 12be e43b
00000050: 0a44 8c38 1281 05bc e3b6 59bc 5885 2e3c
00000060: 595e 053d e2a8 42bb 1feb 893c 9f2c 83bc
00000070: dab6 0b3d 1011 42bc 7408 8a3b dade f439
-0.020741405 0.0014016716 0.007129589 0.006258949 0.010559148 -0.0070036426 0.019328877 0.0037039965
0.004204653 0.007955544 4.2553755e-05 0.0068940064 -0.0044826684 0.008398047 0.0005582725 -0.009615983
0.010511746 -0.00028269106 -0.023866525 0.006980666 6.6883935e-05 -0.008148449 -0.0132882325 0.010651909
0.03256068 -0.0029702713 0.016835747 -0.016012488 0.034109928 -0.011844888 0.0042124335 0.00046705344

weight f4 [32]
00000000: c3ce af3e dded c13d 1070 d03e 7586 ff3d
00000010: a3b5 1e3e bd12 8a3e a4cc 883e fcd9 993e
00000020: dc9a 3a3e 2165 d03e bf38 973e 0efd 363e
00000030: a723 763e c95a 293e acdd bd3e 4570 0d3f
00000040: 0ed9 ac3e b84a bb3d 563b 093f f4e3 193e
00000050: 6f74 cb3e 7b29 373e b046 323e b83a 3f3e
00000060: 6e7a 013f 7633 d23d 8fda 903e 8c62 883e
00000070: 5425 c63e bb6a ae3e 66a8 ae3e b079 993e
0.34337434 0.09469197 0.40710497 0.124768175 0.15498976 0.2696742 0.26718628 0.3004912
0.18223137 0.40702155 0.2953548 0.1786997 0.24037038 0.16538538 0.37083185 0.55249435
0.3375935 0.09145111 0.53606164 0.15028363 0.3973727 0.17886917 0.17409778 0.18674743
0.5057744 0.10263722 0.28291747 0.26637685 0.38700354 0.34065804 0.34112853 0.29975653

bias f4 [32]
00000000: 135f ce3b f20f a5bd 64f9 dabe 0bc9 88bd
00000010: a55e bcbd 24e8 2d3d 196f 78bc 6d24 32bb
00000020: 87d1 6bbd 1eb1 d3be c44c ce3b 4349 57bd
00000030: 3165 4c3c a751 b4ba c453 843b bc28 4e3d
00000040: 5048 dabe 838a 09be 504f dc3b f31e 00bd
00000050: 6d92 a9be b019 233b 0ec4 b7bd 12e5 8aba
00000060: 3601 d93b 59da b9bc add8 6f3b 6fdb b8bd
00000070: 0165 693a 1e40 093d 9dbd c4be 865b dd3a
0.006297955 -0.08059682 -0.42768395 -0.06678971 -0.091977395 0.042457715 -0.0151632065 -0.0027182356
-0.057572868 -0.41346067 0.0062957723 -0.052560102 0.012475298 -0.0013757244 0.004038306 0.050331816
-0.42633295 -0.13431744 0.006723322 -0.031279515 -0.33119527 0.0024887137 -0.08972941 -0.0010596833
0.006622459 -0.022687124 0.0036597655 -0.09026229 0.00089032954 0.033508413 -0.38425913 0.0016888238

running_mean f4 [32]
00000000: 3e23 0bbc 1b84 90bd 34bd 3a3e 1cde b8bc
00000010: 6dfe 293c 1d6f 62ba c3db ee3d 9865 633d
00000020: 6bf9 9a3c 7520 d83d c146 cb3b cbe5 16bd
00000030: 2484 a73c a649 c23d cad9 ed38 a581 5a3c
00000040: c4e0 fc3d e779 b6bc 36ab a0bc 7268 0e3e
00000050: 7957 0f3c fc32 b03d 44d6 6fbc a8ce 483d
00000060: 1dc2 263d 7af0 a5bd c7b8 f73c 5bf9 243d
00000070: ed66 2a3d 20f3 5cba c1ef 0d3e 69fa 043c
-0.008492289 -0.07056447 0.18236238 -0.022566848 0.010375601 -0.0008637773 0.1166301 0.05551681
0.01891776 0.10553066 0.006203503 -0.03684024 0.020448752 0.094867036 0.00011341607 0.013336574
0.12347558 -0.022274924 -0.01961289 0.1390703 0.008748882 0.086034745 -0.014638487 0.049025208
0.040712465 -0.08102508 0.030239476 0.040276866 0.041602064 -0.00084285624 0.1386099 0.008116343

running_var f4 [32]
00000000: 2c97 f33d d3eb af3c b6d5 523e 10ca 623c
00000010: 65a8 833c adeb 263c c1f5 453d 7030 cf3d
00000020: a343 ee3c b047 3a3e 6d22 cb3d 0df0 de3b
00000030: c46f a53d 88ae 493d 0f96 993d c04c 3e3c
00000040: ce3b 0e3e 8062 fe3c e19b b03c de87 7a3c
00000050: d0d7 0f3e 5e3a 9b3d e349 9a3c e098 3f3d
00000060: a41e 1b3e fd22 0b3d 54d6 183e ddcc 933d
00000070: 0ead b13d ac52 a33c bbb4 0e3e 9520 033e
0.11894068 0.021474754 0.20589337 0.013842121 0.016071508 0.010188025 0.048330072 0.101166606
0.029084986 0.18191409 0.099186756 0.0068035186 0.08077958 0.04923871 0.074993245 0.011614978
0.13890001 0.031052828 0.021558704 0.015291182 0.1404717 0.07579492 0.01883406 0.046776652
0.15148407 0.033968914 0.1492551 0.07216809 0.08675586 0.019936882 0.1393613 0.12805398

weight f4 [32, 35, 3, 3]
00000000: 313f 273b 5690 57bb 4cad d63b 9e91 ff3a
00000010: 0a1c 3ab9 a4ae 6cbb 5d82 b83b d564 36bb
00000020: a9c9 93bb ce68 0f3c 3e6f 89ba ae84 22bb
00000030: 89ee ca3b 6889 2bbb 6fea d53b 2600 a63b
00000040: 2b46 193b fbec a33a 98ad f6ba 38a6 c1ba
00000050: 6923 1dba 4677 90ba 3d05 0537 481d 4e39
00000060: f684 8739 4233 c23a ea7e 023b 520a 023d
00000070: 02c2 bd3b add3 0d3c 246c 65bc ea19 c13c
00000080: f55b ba3c 63bf 7f3c 4b05 5e3c 475f d03c
00000090: 6154 8f3c 2983 d73b 39cc 0dba d9d7 0f3d
000000a0: f8ed f63c 20bb 7f3c fae7 dc3b 19c4 b43b
000000b0: 4950 fb3c fb59 88bc 4289 d2bc 3541 66bc
000000c0: b51e c1bc a690 08bd a69d c2bc ff1c 30bd
000000d0: 04ce 70bd c7d7 34bd 33de a83b ddaf d4bc
000000e0: 66ad 12bc 7372 89bc afc2 8bbb 0862 2a3a
000000f0: c7a2 58bc 53ed 3ebc 2f72 c0bb db04 debc
00000100: 2573 0abd d9dd b6bc 5350 00bd 2d82 2abd
00000110: 6dad 54bc 623b 85bd 9db6 2dbd b206 88bc
00000120: efdf a8bc d2ec 29bd 862f 73bb 8d77 bebb
00000130: 703e 0c3b 323d b83c 9cfe 2ebc 3e26 10ba
00000140: 5778 95bb c644 9dbb 336a 46bb 8ade 103b
00000150: 0210 c23c 8cd9 a03c ba62 203c 4e58 a03c
00000160: 012f 303d 41eb d73c 6305 03bc 75d8 613b
00000170: 6dec ea3b 338c 90ba e48c 21bc b5f7 a53c
00000180: bf53 cc3c 6f27 4d3d ac3e dbbb d67c e0bb
00000190: 581f 07bc b1ef 933b 82f3 dabc a162 cfbc
000001a0: a376 3abc 14ba 01bc 4120 2dbd 4454 f5bc
000001b0: 59c8 94bc 8e44 ecbc 24ed 85bc 8370 02bd
000001c0: 06a0 f9bc 6239 89bc e137 ebbc 3049 28bd
000001d0: 3391 0dbd 8b4f 183c 9926 0e3b d338 f83b
000001e0: 9745 f13b 6589 903c 05db 103d bab1 5e3c
000001f0: 39a2 733c 9f2e 813c 7546 1abc bc9e c93c
00000200: daab a53c 2833 66ba e7be 9dbd d526 42bd
00000210: b827 21bb 85a8 77bd 9cbf 89bd 320b a83b
00000220: 1e8a dcba aa6c f9bb 7f45 323b 144b deba
00000230: 9a5a 0a3d 9fd5 a83b 8843 aa3c 839a 743c
00000240: 18c7 3b3a 7b22 c73a 3eee d0bb 781f a63c
00000250: facc 823c ce3a 923c 7410 783c 1f6e 103d
00000260: 20ae 0f3c 8d68 e53c 6996 df3c 58b2 2b3c
00000270: 334f dfba b640 3d3c a1a6 67bc ab36 603c
00000280: 76cf 7c3c 13ba 7cbc 9d49 b13c 4f6e 4fbc
00000290: 17c5 20bc b6a0 6dbd 8dbe 24bd c72c 32bc
000002a0: 4d40 c63c 0aef 563a e0b1 c23c cc25 bebc
000002b0: 855c 16bd 5ffe 88bc 812a e4bc 9cde 11bd
000002c0: 088d e8bc ab53 19bd abdc 54bd 9b27 32bd
000002d0: 397e 9bbc b955 4bbc 259a 86bc 0761 aebc
000002e0: fcec b6bc 2fb4 c0bc efd6 8fbb ab3d f5bc
000002f0: 5291 2ebd b4b1 313c 8ac0 0d3b e171 013c
00000300: 6d4d 94bb 70cf 133d 3a90 e4bc 6c55 f4bb
00000310: e755 2f3d e054 42bc 2f72 963c bd0e eabb
00000320: 00e7 25bc 9670 a63c 46b7 663c 33a1 25bc
00000330: f58f 0b3d e585 883c 719f 443c b88e 9dbc
00000340: c6d7 f6bc 7339 87bc ded5 cebc c5da 05bd
00000350: 0433 a5bc 96d4 7dbc c6fd 1bbd 4bee 5dbd
00000360: 0cda 493c 79d7 6c3c 1e7d 463c be63 f43c
00000370: 649a b53c 117b 4e3c 8de6 113d e23c 213d
00000380: 115f d53c 4d93 12bd fd4d 0ebc 03fe 51bc
00000390: 58cd d4bc 9a5d c5bc eca1 1d3c 1bd6 55bd
000003a0: 46bf a2bd c8a8 9bbd 3961 ac3b a5a4 b13b
000003b0: 718b 2fbc b3bc eb3b 2c12 823c 7242 763c
000003c0: aa6e 2fbb 6891 4e3d 3562 093c fb7a 413c
000003d0: 5729 363d 8cb3 3e3d 8f20 593a b136 bc3c
000003e0: b901 fa3c fcd5 f73c d9c3 5b3d bec6 cd3c
000003f0: 3193 023d eeea 183d 0581 e13c 98cd dabb
0.0025519843 -0.0032892427 0.0065514203 0.0019498353 -0.00017748788 -0.0036114836 0.005630775 -0.0027831097
-0.0045101237 0.008753015 -0.0010485423 -0.0024798322 0.0061929864 -0.002617443 0.006528191 0.0050659357
0.002338777 0.0012506539 -0.0018820046 -0.0014774268 -0.0005994351 -0.0011021874 7.928637e-06 0.00019656599
0.0002584827 0.0014816301 0.0019912072 0.031748123 0.00579095 0.0086564245 -0.0140028335 0.023571927
0.022748927 0.015609595 0.013551067 0.025436057 0.01749629 0.006576915 -0.00054091547 0.035117958
0.03014277 0.015608579 0.006741521 0.0055165407 0.030677931 -0.016644469 -0.025700215 -0.0140536325
-0.023574213 -0.033341072 -0.023756813 -0.042996403 -0.05879022 -0.044151094 0.0051534413 -0.025962764
-0.008952474 -0.016778206 -0.0042651515 0.0006499593 -0.013222403 -0.011653262 -0.0058729867 -0.027101925
-0.033801217 -0.022322582 -0.031326603 -0.04162805 -0.012980801 -0.06505467 -0.04241048 -0.016604755
-0.020614592 -0.041485615 -0.0037107184 -0.0058125914 0.002139952 0.022490118 -0.010680821 -0.00054988626
-0.004561465 -0.004799458 -0.0030275702 0.00221053 0.023689274 0.019634984 0.009789163 0.019573357
0.043013576 0.026357295 -0.00799689 0.0034461294 0.0071692974 -0.0011028111 -0.009860251 0.020259717
0.024942277 0.050086435 -0.0066908207 -0.006850819 -0.008247219 0.0045146574 -0.026727442 -0.025315585
-0.011380824 -0.0079179 -0.042267088 -0.029947408 -0.01816194 -0.028841283 -0.016348429 -0.03184558
-0.030471813 -0.016750995 -0.028713169 -0.041085422 -0.0345623 0.009296308 0.0021690486 0.0075751333
0.007363032 0.01764364 0.035365123 0.013592178 0.01487022 0.015769301 -0.009416212 0.024611823
0.020223547 -0.00087814266 -0.07702427 -0.047400314 -0.0024590325 -0.060463447 -0.06726 0.0051282877
-0.001682583 -0.0076118307 0.0027202067 -0.0016959631 0.03377781 0.0051524187 0.020784155 0.014929417
0.0007163151 0.0015192771 -0.006376057 0.020278677 0.015966881 0.017850306 0.0151406415 0.03526127
0.008769542 0.028003955 0.0272934 0.010479532 -0.0017037153 0.011551073 -0.0141388485 0.013684909
0.015430322 -0.015425223 0.021641547 -0.012660577 -0.009812615 -0.058014594 -0.040220786 -0.010874934
0.024200583 0.0008199072 0.023766458 -0.023211382 -0.036709327 -0.016722856 -0.027852299 -0.035612687
-0.028387561 -0.037433308 -0.051968258 -0.043494802 -0.018981086 -0.012410575 -0.016430924 -0.0212865
-0.0223298 -0.023523418 -0.0043896358 -0.029936632 -0.042619057 0.01084559 0.0021629655 0.007900686
-0.0045258314 0.0360865 -0.027900804 -0.007456472 0.042806532 -0.011861056 0.018364994 -0.00714287
-0.0101258755 0.020317357 0.014081782 -0.010109234 0.034072835 0.016665408 0.012000904 -0.019233093
-0.030132186 -0.016506886 -0.025248464 -0.032679338 -0.020165928 -0.015492579 -0.038083814 -0.054182332
0.012320053 0.01445567 0.012114791 0.029832717 0.022168346 0.0126025835 0.03562026 0.039364703
0.026046308 -0.03578501 -0.008685586 -0.012816909 -0.025976822 -0.024092484 0.009621125 -0.05220614
-0.07946639 -0.07600552 0.0052606133 0.0054212385 -0.010714398 0.0071941256 0.015877806 0.01503049
-0.0026768842 0.05043164 0.008385231 0.011809106 0.04447302 0.046557948 0.00082827447 0.022975298
0.0305184 0.030253403 0.05365357 0.025119182 0.031878654 0.03733342 0.027527342 -0.0066773407

bias f4 [32]
00000000: 92ae ca39 af67 50b9 c550 c03c 79f2 55bc
00000010: a934 8039 0bc1 1ebc 6716 8836 4387 473c
00000020: 3b33 ffb9 0ea7 f3bb 9cc2 7dbc 5108 573b
00000030: 4db7 b6bc c8b8 8fba 15c6 b83c 7d54 ad3b
00000040: c696 b0bc a5fd bb39 f284 823b 7017 31bc
00000050: f9fd 853b dae5 38bc 677c 1b3c ef13 dab9
00000060: cf92 afbc 6173 153c b1f9 f63b 31c6 babb
00000070: 91b5 f839 9002 0abc a58c ae3b a434 863c
0.00038658507 -0.00019875051 0.023476014 -0.013058298 0.00024453297 -0.00968958 4.055724e-06 0.012178245
-0.0004867556 -0.007435686 -0.015488293 0.0032811353 -0.022304201 -0.0010965103 0.02255539 0.005289613
-0.02155627 0.000358564 0.0039831335 -0.010808811 0.004089114 -0.01128527 0.009490109 -0.00041595052
-0.021432308 0.009121747 0.0075370898 -0.005699896 0.00047437524 -0.0084234625 0.0053268247 0.016382523

weight f4 [32]
00000000: 9762 303e 37bf fe3d 30ea 853e 749b a73e
00000010: 5e17 8f3e 06b9 693e 5929 5e3e bdec 8c3e
00000020: 1c3e 6f3e c0a0 8b3e 2244 b93e 74a8 a93e
00000030: 80dd 923e 578d 5a3e b125 743e ed3e a63e
00000040: 4a37 b53e 1408 df3d 2284 6b3e 33d6 273e
00000050: 5b8c 863e 005d 563e 420e 5c3e f538 ae3e
00000060: 1195 8a3e b335 f13e 5487 a13e fde5 8e3e
00000070: 86ae 993e 17fb 903e d0bc 913e 3164 2e3e
0.17225109 0.12438815 0.26155233 0.3273579 0.27947515 0.22824487 0.2169546 0.27524367
0.23363537 0.2727108 0.36184794 0.33136332 0.28684616 0.2134298 0.23842503 0.32469884
0.35393745 0.10890213 0.22999623 0.16390304 0.26278958 0.20933914 0.21489814 0.3402783
0.27066854 0.47111282 0.3154856 0.27909842 0.30015963 0.28316566 0.28464365 0.17030407

bias f4 [32]
00000000: ff55 273d c817 3dbd 4ba5 923d b010 813d
00000010: 07b0 c83d e91b ad3d 3096 623d 9cff 12be
00000020: 28e2 a73c acbe cb3d 5913 183e 4a52 8c3d
00000030: c36a ec3d be99 383d a2b9 573d ce11 ec3d
00000040: 5658 033e cd0e 8cbd 5db7 49bd 6b47 393d
00000050: 84dd f33d 399b 583d 950a 7f3d f336 25be
00000060: 8e35 843d 53f1 353e db25 98bd e684 c1bd
00000070: c9b9 b1bd 310c a73d 86a4 debd 3ff1 513d
0.040853497 -0.046165258 0.071604334 0.06302011 0.097991996 0.08452589 0.05531901 -0.1435532
0.020493582 0.09948477 0.1485113 0.06851633 0.11543801 0.045068495 0.052667268 0.115268335
0.12826666 -0.068387605 -0.049247134 0.045234125 0.11907485 0.052882407 0.06226595 -0.16134243
0.06455527 0.17767839 -0.07429095 -0.094491765 -0.08678014 0.08156622 -0.10871224 0.05125546

running_mean f4 [32]
00000000: 7efc 1c3c 100e 263d 5693 3f3d 6fa5 89bb
00000010: 3495 c83c e4cc ac3c 6b98 eb3c 5f24 5b3d
00000020: e7e3 423d 7b52 ea3c 7472 53bc cf5b d03d
00000030: 7c6d 81bc 8072 483c 5014 223d 093e ee3c
00000040: ec01 653b 25d0 033d 9c55 a7bc 124a 803c
00000050: ff76 133d 179f 8fbc 0542 2e3d 2cf8 36bc
00000060: 91c8 18bb dee0 383d e32b eebd 11d9 c63d
00000070: c575 fc3b 24ff cf3c 095a b93d 0405 213d
0.009581683 0.040540755 0.04677137 -0.0042006294 0.024485208 0.021093793 0.028759202 0.053501483
0.047580626 0.028603783 -0.012905706 0.10173761 -0.015799277 0.01223433 0.039570153 0.029082315
0.0034943772 0.032180924 -0.020426564 0.01566032 0.036002155 -0.017531915 0.04254343 -0.011167567
-0.0023312906 0.045136325 -0.116294645 0.09709371 0.007704469 0.025390215 0.09050376 0.039311424

running_var f4 [32]
00000000: bf89 c53c a8b5 023d f6e9 603d 8ccf 463d
00000010: d2c0 8c3d 02ed 0b3d e022 753c cdc4 4b3d
00000020: 5557 213d d9a6 453d d003 3d3d 61fb 723c
00000030: 4fdf ab3c 53a3 1f3d 98d3 a43d 15db c43c
00000040: 060d 0c3d 1f8e 1a3d 3c5e a43c 260a 893d
00000050: 1c8a 533d 87bf 263c adf2 7d3d fcbc 333d
00000060: c807 853d c8e1 433d 6c29 f83c 55a9 933e
00000070: d42b f93d 80f0 7f3d 0e4b 503e 8ecf 3b3d
0.024113534 0.031911522 0.054910623 0.048537776 0.06872715 0.034161575 0.014961928 0.04974823
0.039389927 0.04825482 0.046146214 0.014830441 0.020980505 0.038974117 0.08048171 0.024030248
0.034192108 0.037733193 0.020064466 0.06691389 0.051645383 0.0101775 0.06199901 0.0438814
0.06495625 0.047822744 0.030293189 0.28840128 0.12166563 0.062485218 0.20341131 0.045852236

weight f4 [64, 35, 3, 3]
00000000: 76e8 1b3c ae01 203c d4c0 203c 402c 1e3c
00000010: ec65 213c 0cd2 1a3c 18ec 243c 5063 193c
00000020: 396b 183c 78be 313b e093 293b 2afb 103b
00000030: f860 223b ce6c 153b f8b2 2e3b 39ff 293b
00000040: 2a60 173b c9bd 193b 79b9 20bc 6f67 0cbc
00000050: e3f8 dfbb 9626 f9bb bb13 d4bb 1321 a0bb
00000060: 292c 9dbb 1f90 7dbb 79ee 33bb e318 3b3c
00000070: dd93 b53b 434f 8ebb 2194 0bbb 64e9 c5ba
00000080: c2ad 8fbc f580 1f3c 0f11 22bc 01b5 37bc
00000090: e9eb b93c ce98 053c b6f5 d2bb c790 803d
000000a0: 6356 7b3c 941d c4bb 40f2 463d 84d6 253c
000000b0: e301 1a3c df3f d93b 693e 483c 829e 743c
000000c0: 7cc1 e938 1f2e 44bb 3bf2 83bc 9167 a33c
000000d0: 3e89 663c fccc 783c ef67 ebbb 2be2 9ebc
000000e0: 4163 ecbc c98c 813c 3322 d73c 1579 0ebc
000000f0: 4099 b53c fefb bd3b 8882 b33c f389 583c
00000100: 8225 463c f210 083d fb5d ec3b c5ed dc3c
00000110: 6ec2 fcba 7c49 e13c 4b48 6cbb 4afc a83c
00000120: ae70 df3c 030b 943c a298 b53c 9fe7 383d
00000130: 4730 d03c aedd 533c dc7d e73b b849 1e3c
00000140: a598 44bc 6e04 0fbd 295e e1bc 38be 09bd
00000150: 8f35 a4bc 4d12 013b 78c9 12bd a030 93bc
00000160: 02b6 84bc c2cd 82bc ccf4 983b 5d27 8b3c
00000170: 9703 32bc 8b69 933c 4413 72bc c9db 3fbc
00000180: 19c1 953c 08d9 babc 4c89 3139 a0e3 fb3c
00000190: 34bc 083d 2f8c ef3b 7b35 aa3b 6152 053c
000001a0: 61ec 4fbc 3cf6 7d3c 7116 17bd 489a ab3c
000001b0: e7e8 ce3c a933 b53c aac8 f13c abc1 acba
000001c0: d18f 633c d540 5bbb 7577 5c3d 2b12 c6bb
000001d0: 5b87 533c 07a1 00bc 3649 56bc 424b 4abb
000001e0: b5c6 2b3b e701 0ebc 0315 5e3c 81bd e53b
000001f0: 95ac 2c3b 5ad6 493d 0c9c fcbb 5913 99bc
00000200: 55f9 48bb 99aa 7c3b c45a f43c 332a 083b
00000210: 6122 33bd 9d87 82bd 2246 45bd 6d6b cdbc
00000220: d2e8 3fbd 4c9c 7f39 fb45 923c 0cbc 5a3c
00000230: 10c9 b13b 1373 c63c 63ac 9d3c b9e4 e53c
00000240: bea7 fdba 4074 f1bb eec7 f6bb 65a7 dfbb
00000250: 4d58 8dbc 5720 cdbc 8236 783c 571b e0ba
00000260: 59ef 523a 1224 183c d127 143c 250f 223c
00000270: 6ae7 8aba b576 76bb e0f8 57bb 52ab a23c
00000280: 6ef1 9dba da35 b63c 05f7 84bc 0d33 50bc
00000290: b409 cc3b 8dbc 373c 1c37 fb3c 25b7 e83c
000002a0: 4957 0d3d 45e6 233b 07a2 293d cc38 abbc
000002b0: 727e c0bb 3a08 0fbc b1de d0bb 6135 82bd
000002c0: f05f 1d3c f4db 423a 2add 38bd d2c1 e6bc
000002d0: 5c4a 6f3c 5113 183c 57ba 31bc 04f2 313d
000002e0: b36a 7b3c 2507 93bc 6298 5f3d 49c3 8a3c
000002f0: 9cb3 833b 0d18 a63c 2c58 393c 7323 5ebc
00000300: ccf7 af3c 953e 4bbb b75c c7bc ee82 183d
00000310: f2a3 17bd 65ef a7b9 3048 d33b ea86 933b
00000320: b01c 8e3c d9e8 c9bb 39ad aaba 47db ed3b
00000330: 7181 d53c d2ac 603b f78c 983c 122b 073d
00000340: 11d9 073d 04f6 ea3c 0423 833b 0418 bb3c
00000350: 2a96 7dbc bae0 913c 7eae bcbc fe7a 0e3d
00000360: 3962 cd3b 060b d13a 82d2 aebc 13de abbc
00000370: ee28 8dbc 621e 95bb 6679 0f3d c726 863c
00000380: a875 873c 1128 6a3c 0bad b53c bd70 a73c
00000390: d4ce bfbb 23dc 293a b560 3bbc 7db6 c63c
000003a0: d282 1c3c cffd 5d3c 7c30 9d3c 51b6 fc3c
000003b0: 1723 e13b de65 8e3a fa71 aaba bd88 95bc
000003c0: bc4c 423c c39e 93bc c69a cc3a 6cce 4d3c
000003d0: 47a2 9f3c e648 3e3c d4a6 2c3c b54c f9b8
000003e0: 84b6 98bb 1789 823c b37c a33b 715b ab3c
000003f0: a1ed b8bb c085 1c3d 0873 d8bb 163f 9dbc
0.009515872 0.0097660255 0.009811599 0.009654105 0.00985096 0.009449493 0.010066055 0.009362057
0.009302908 0.0027121585 0.0025875494 0.0022122362 0.0024777036 0.0022800448 0.0026656967 0.0025939478
0.002309809 0.0023459068 -0.009809845 -0.008569582 -0.0068350895 -0.0076034768 -0.0064720786 -0.0048867553
-0.004796524 -0.003869064 -0.0027455373 0.011419508 0.0055413083 -0.004342945 -0.0021298009 -0.0015099463
-0.017538909 0.009735336 -0.009891762 -0.011212588 0.022695499 0.008154107 -0.0064379824 0.06277614
0.01534042 -0.0059849713 0.04857087 0.010121945 0.009399864 0.0066299285 0.012221911 0.014930369
0.00011146345 -0.0029934717 -0.016106715 0.019946845 0.014070807 0.015185591 -0.0071840207 -0.019394955
-0.028855922 0.015814202 0.026261425 -0.00869586 0.022167802 0.005797862 0.021912828 0.013216483
0.0120939035 0.033219285 0.007213352 0.026968846 -0.0019284019 0.02750086 -0.0036053832 0.020628113
0.02727541 0.018071657 0.022167508 0.045142766 0.025413645 0.0129312705 0.007064564 0.009661131
-0.011999284 -0.034916334 -0.02751072 -0.033628672 -0.02004507 0.0019694746 -0.035836667 -0.017967522
-0.01620007 -0.015967254 0.004667854 0.016986543 -0.010865114 0.017994663 -0.014775101 -0.011710116
0.018280553 -0.022808567 0.00016931182 0.030748188 0.03338261 0.0073104124 0.0051943636 0.008137316
-0.0126906345 0.015500601 -0.036886636 0.02094759 0.02525754 0.02211936 0.02951463 -0.0013180276
0.013889269 -0.003345539 0.05382486 -0.0060446463 0.012910689 -0.007850892 -0.013078978 -0.003086761
0.0026210968 -0.008667446 0.013554814 0.007011116 0.0026347984 0.049276687 -0.007709032 -0.018685983
-0.0030666192 0.0038553833 0.029828437 0.0020777106 -0.04373396 -0.063735224 -0.048162587 -0.025075639
-0.046852894 0.0002437692 0.017855635 0.013350498 0.00542558 0.024224794 0.01924724 0.028063165
-0.0019352359 -0.0073685944 -0.0075311577 -0.006825375 -0.01725402 -0.025039835 0.015149714 -0.0017097992
0.000804653 0.009285944 0.009042696 0.009891306 -0.0010597531 -0.0037607376 -0.0032954738 0.019857083
-0.0012050101 0.022242475 -0.01623107 -0.012707484 0.0062267426 0.011214388 0.030665927 0.028407643
0.03450707 0.0025009078 0.041414287 -0.020901106 -0.0058744485 -0.008729989 -0.006374203 -0.063578375
0.009605393 0.0007433288 -0.045132793 -0.028168593 0.014605131 0.009281949 -0.01084765 0.043443695
0.015345263 -0.017947743 0.054588683 0.016938822 0.004019214 0.02027514 0.011312526 -0.013558256
0.021480463 -0.0031012644 -0.024336202 0.03723424 -0.037021585 -0.00032031085 0.0064478144 0.004502167
0.017347664 -0.006161791 -0.0013021595 0.007258806 0.026062699 0.0034282696 0.018621905 0.03300006
0.033165995 0.028681763 0.004001977 0.0228386 -0.015477696 0.017807353 -0.023032423 0.034785263
0.0062678126 0.001594872 -0.021340612 -0.020979917 -0.01723143 -0.004550741 0.035027884 0.016375912
0.016535595 0.014291779 0.02217724 0.0204395 -0.0058535133 0.00064796413 -0.011436631 0.024256939
0.009552674 0.013549282 0.019188158 0.030848654 0.006870638 0.0010864099 -0.0013003938 -0.018253678
0.011859115 -0.01802004 0.0015610091 0.012561422 0.01948656 0.01161406 0.010537822 -0.00011887533
-0.0046604294 0.01593451 0.0049892305 0.020917626 -0.005643562 0.03821349 -0.0066055097 -0.01919512

bias f4 [64]
00000000: 2ffa afb9 03fd 8eba b712 93bc 0223 09bb
00000010: be76 343b 1200 2c3b d053 9ebc e2f7 0dbb
00000020: 8468 0bbc 4319 1d39 ffad b038 124b 56ba
00000030: ebad 623a 46e6 a739 f868 a6ba 180b 9539
00000040: fa2a 81bb 343a 00bb 828b a23b e849 9fba
00000050: 521e 6e3a d151 78bb 406d ff3b 19b1 793a
00000060: 22f0 ebba 4327 ba39 355e d23a 9194 a73a
00000070: 3ba8 103c 8760 c838 0dae 06bd 4d2b b939
00000080: ef10 83bc aa37 42bb 01b0 463a 0933 0cb9
00000090: 7e37 e4b9 89e0 40bb 58a4 c4b9 4f82 91b9
000000a0: abd7 353b 1269 abbb 60ff e2ba ee16 4b3a
000000b0: 3b6b 81bc e6b3 beb9 8700 8339 d69a 6b3a
000000c0: 0df7 a339 da93 92b9 0e46 e8ba 6278 a33b
000000d0: c0cb e0b8 0263 d03b 969f 8239 0684 a63b
000000e0: 3535 ebb9 2bea 4639 4529 fc39 c276 76ba
000000f0: b5e5 fa3a 6a4f 76b9 5206 a3b9 9e28 f7b9
-0.00033565002 -0.0010909144 -0.01795326 -0.0020925407 0.0027536596 0.002624516 -0.019327074 -0.0021662642
-0.008508805 0.00014982097 8.424743e-05 -0.00081746385 0.00086471316 0.0003202429 -0.0012696078 0.0002842776
-0.003941891 -0.0019565942 0.0049604783 -0.0012152763 0.00090834976 -0.0037890563 0.007795006 0.0009524986
-0.0018000642 0.00035505937 0.0016049804 0.0012785365 0.008829172 9.554723e-05 -0.03288083 0.0003531821
-0.015999286 -0.002963523 0.0007579327 -0.00013370453 -0.00043528894 -0.0029430708 -0.0003750648 -0.00027753643
0.0027746956 -0.005231031 -0.0017318539 0.0007747252 -0.015798202 -0.0003637366 0.0002498666 0.0008987611
0.0003127385 -0.00027957448 -0.0017721073 0.004988716 -0.00010719104 0.006359459 0.00024914433 0.0050816564
-0.00044862335 0.00018969986 0.00048095934 -0.00094018516 0.0019141944 -0.00023489972 -0.00031094492 -0.00047141773

weight f4 [64]
00000000: 48b0 d03d 9393 2d3e 08d7 dc3e 0bd1 ca3e
00000010: 6068 453e 7581 513e 08d8 013f 0089 f43e
00000020: b4cb 853e aa0e 033e 90cf 1c3e 691b 7f3e
00000030: 6e26 fa3d f968 d33d c172 1e3e 831b d63d
00000040: bfbb 3c3e 6871 6a3e 2f84 893e f5c0 1e3e
00000050: eb4b 203e 1e46 9b3e b418 5b3e 7f71 9d3e
00000060: 1991 6b3e 0799 d93d b3cf 9e3e 9fdf ef3d
00000070: f8a7 ae3e 70a4 133e 588a d33e 2f1e ed3d
00000080: 4464 de3e 92a9 ca3e a381 203e c984 103e
00000090: 2ceb 753e 4eb7 b03e 7b74 353e 4ab7 ca3e
000000a0: fb53 233e 356c af3e 3311 493e 8dc1 183e
000000b0: ceda d13e 1835 243e 49d4 4c3e ef31 2c3e
000000c0: 4f78 ff3d 1082 2d3e 54c4 283e 9b2f 5b3e
000000d0: c907 1d3e 8ec9 913e 923e 083e 3728 5a3e
000000e0: 4d47 2c3e 07e8 133e 5e11 073e 7123 523e
000000f0: 93cb 293e 4615 493e 7b93 0d3e 386b 263e
0.10189873 0.16950826 0.43132806 0.39612612 0.19278097 0.2045954 0.5072026 0.47760773
0.26131976 0.12798563 0.15313554 0.249128 0.12214361 0.10322756 0.15473463 0.10454466
0.18430994 0.22894824 0.2685866 0.15503295 0.1565396 0.30326933 0.21396142 0.30750653
0.23004569 0.10624891 0.31017837 0.11712574 0.34112525 0.14418197 0.41316485 0.11578023
0.43435872 0.39582497 0.15674452 0.14113154 0.24015492 0.3451485 0.17720215 0.39592963
0.15950005 0.34262243 0.19635467 0.14917584 0.40987247 0.16035879 0.20002855 0.16815923
0.12474119 0.16944146 0.16481143 0.21404879 0.15335001 0.28474087 0.13305119 0.21304403
0.16824074 0.1444398 0.13190219 0.20521332 0.16581564 0.19637021 0.1382579 0.16251838

bias f4 [64]
00000000: 9a43 82bd 7547 c8bd 34d1 13bd 2a41 303d
00000010: 4234 04be 211c 00be 2746 92bd 0267 b03b
00000020: 42c5 b53d 8f09 95bc 6a91 2ebd 6d9a 98bd
00000030: 2d09 20bd dcd9 e8bc ab9d cfbd f0b8 56bd
00000040: 77eb edbd c65f 05be 55c1 3a3b c915 45bd
00000050: 3603 d2bd 667a cebd c3ee 7fbd c559 af3c
00000060: 5c15 f9bd 0a25 8cbd 4b12 e4bd d899 61bd
00000070: c49d dd3c 6afc d1bd c392 243d 9875 2abd
00000080: a6d4 f1bc ed44 263d 869d 90bd f872 43bd
00000090: ea1a 0ebe ad91 eb3c 8fb3 e3bd 9848 453a
000000a0: 2bf6 a2bd 66d7 1ebd 6981 e1bd 7a2c 51bd
000000b0: 7669 b23c 6dc8 cabc c62a c8bd 1587 f5bd
000000c0: f8f1 2fbd 8f4c d8bd ea10 6abd 405b e23c
000000d0: 8d8c 50bd 949b 70ba 7b4b 4cbd d7c9 12be
000000e0: f0e1 17bd e10d 26bd e918 a2bd e869 0fbe
000000f0: 35eb fdbd 0e5c e4bd 66b1 38bd 5fa6 e8bd
-0.0636055 -0.09779254 -0.036088184 0.043030895 -0.1291056 -0.1251073 -0.07142287 0.0053833732
0.088755146 -0.018193034 -0.042619146 -0.074513294 -0.03907125 -0.028424196 -0.10137495 -0.052422464
-0.11617177 -0.13024816 0.0028496583 -0.04811648 -0.10254519 -0.100819394 -0.06248356 0.02140511
-0.12162277 -0.06843002 -0.111363016 -0.055078357 0.027052768 -0.10253222 0.040179025 -0.041616052
-0.029520344 0.040593076 -0.07061295 -0.047717065 -0.13877454 0.028755987 -0.111182325 0.0007525771
-0.07957109 -0.03877964 -0.11011011 -0.051067807 0.021778803 -0.024753774 -0.097737834 -0.119886555
-0.04295537 -0.105614774 -0.057145037 0.027631402 -0.05091529 -0.00091784564 -0.04987667 -0.14334808
-0.037080705 -0.04054058 -0.079149075 -0.14005244 -0.12398378 -0.111503705 -0.045091055 -0.11359858

running_mean f4 [64]
00000000: 1463 153d ca47 83bb f76a a63c 9e64 9a3d
00000010: 3902 da3d ec02 3e3e 67c7 113c b79f 8e3c
00000020: 564d 10bd ac73 43bd c494 813c 3d85 523c
00000030: ec4c 09bf 3a18 16be 0a31 363e bebb afbd
00000040: d462 dcbd b8e3 933d 4425 f23a b857 3bbd
00000050: 1b1d 323e fa1f a53d 7a61 52bc 0761 b0bd
00000060: f870 313d b0eb b3bd 4d2c 893b b19b a4bd
00000070: aff6 18bc e739 053e 9f3b 1cbd a67e 8d3c
00000080: 81d9 86bd 4ec7 9f3d 2d68 86bd c315 93bd
00000090: d94c 2a3e fd82 8ebd bd93 b4b9 b5f0 da3d
000000a0: 52f3 343e d56a 35bc 5f4f cc3c 6cb2 59bd
000000b0: 4645 9cbc f2f5 6dbd fa16 9dbc ddc1 823e
000000c0: a4ac 8fbd e72d 243e 0415 06be 35c6 0dbf
000000d0: f5d6 01bd 7ac4 d4bd 6c42 55bd 30a9 843d
000000e0: e715 203d 53ea 11bd e91f f2bd db8f 463e
000000f0: b0f8 863e 13b7 303e ab0b 23bc acb0 323e
0.03647144 -0.0040063607 0.020314677 0.075387225 0.10644955 0.18555802 0.008897639 0.017410142
-0.035230003 -0.047717735 0.015818007 0.012849149 -0.53633 -0.14657679 0.17792144 -0.08580731
-0.107610375 0.07221168 0.0018474241 -0.045737952 0.17393915 0.0806274 -0.012840623 -0.086122565
0.043320626 -0.08785188 0.0041861893 -0.08037508 -0.009336158 0.13010369 -0.038142797 0.017272305
-0.06584454 0.07801686 -0.06562839 -0.07181885 0.16630878 -0.06958578 -0.0003444235 0.106904425
0.17670944 -0.011072834 0.02494019 -0.053148672 -0.019076 -0.05809588 -0.019175995 0.2553853
-0.070153505 0.16033135 -0.13093954 -0.55380565 -0.03169914 -0.103890374 -0.052065298 0.064775825
0.039083388 -0.03562386 -0.11822493 0.19390814 0.26361609 0.17257337 -0.009951512 0.17450207

running_var f4 [64]
00000000: b4a7 1b3d e84e b93b ed05 8d3b c485 543c
00000010: 5515 b53b 9b08 dd3c badd ba3b 8dc7 023c
00000020: ceae 633b 9ee9 b13c d852 ce3c c89c 433c
00000030: 9396 ee3d a7b7 ee3c 098c 6f3d e50a 2a3d
00000040: 2b54 9b3c 68b1 0d3c 530d fc3b 0de7 153c
00000050: 443f 863d a3a5 a43c d670 383c 7b26 c13b
00000060: af17 f43b 76c9 f93c b417 6a3b a506 4f3d
00000070: 81c7 a43b a2bd 063d 5507 4e3c c4df bd3b
00000080: 5520 4a3b 871e cc3b 93b2 443d 2f24 593d
00000090: 866e ac3c e046 633b 7e88 e83c e80f bf3b
000000a0: c97d 343d ed66 043c 459c d93b 01b5 dc3c
000000b0: 4a51 a33b 9d58 363d 5b98 9c3b 5004 0d3d
000000c0: 865f 3c3d bb01 523d 44e2 753c b321 e13d
000000d0: d5b8 b63c 2ae1 203c 1730 063d 7d15 973c
000000e0: b188 f33c 5970 323d 5d51 773c 1bb9 ed3c
000000f0: 000b b13c 8881 a03c 0e15 293c 509b 133d
0.03800173 0.0056551583 0.004303685 0.012971345 0.0055262246 0.026981642 0.0057027014 0.007982147
0.0034741643 0.021717843 0.025185987 0.011939235 0.116498135 0.029140307 0.058483157 0.041514296
0.018961033 0.008648254 0.007692018 0.009149325 0.06555036 0.020098513 0.011257371 0.00589448
0.0074491124 0.030491572 0.0035719695 0.050543446 0.0050286655 0.03289569 0.01257499 0.005794497
0.0030842025 0.006229225 0.048021864 0.053013023 0.021048795 0.0034679696 0.028385397 0.0058307536
0.04406527 0.00808118 0.0066409432 0.026941778 0.0049840556 0.044518102 0.0047789044 0.03442794
0.045989536 0.05127118 0.015007559 0.10992756 0.022304932 0.009819308 0.032760706 0.018442864
0.029728265 0.043564174 0.015095082 0.02901893 0.02161169 0.019593015 0.010319961 0.03603679

weight f4 [64, 67, 3, 3]
00000000: 1d55 853b fd72 1f3c c9bf 673b 6dd6 093c
00000010: d3b3 dd3a 226b b33a 8f7c d63b 9292 d33b
00000020: 7209 b23b 3dbe d6ba 0696 cdbb 793f 1bbc
00000030: d7f3 f7ba d3b6 c1bb b66a 1bbb ca6f e5bb
00000040: b929 acbb 7688 17bb 1364 0b3c 621c 053c
00000050: e026 f23b 2a65 553c 8224 5b3c 11fc 533c
00000060: 8daa 843c 8d36 893c 2fcf 893c 823b 02bc
00000070: e784 d3bc e300 8abc 6aff 5e3b 7395 87bc
00000080: cf35 b5bc c8e9 dc3c 6e65 793b 799e b5bc
00000090: 28e3 4d3c 9649 97bc de62 3fbc 6daa 6c3c
000000a0: 999b aebc cf3d d7bc 6125 0f3d 4c4a d83b
000000b0: 8bd6 07bd c949 e43c b002 e53c 0b92 c43c
000000c0: 2115 3abb d685 493c e963 d63c 528e 91bc
000000d0: bbc4 1a3a 819f 1c3d d5f1 c4bb 946b bebc
000000e0: 30b8 5dbd 74d4 bfbc 211c b7bc 2fc9 adbc
000000f0: ca57 6bbd cee8 bebc 7fe8 7bba e410 90bb
00000100: e593 bbbc c718 b3bc 5b76 f73b ba27 62bc
00000110: f313 d8bc 35d0 fe3c a3f3 933b ce50 e2bc
00000120: d07f 36ba 4f8c d1bc 6f31 a3bc 843d 0d3c
00000130: 80cc 72bc ac3e bfbc bc55 023d fb39 183c
00000140: 73af d3bc 208d 3c3c d131 0d3d 487a e13c
00000150: 5cd4 4f3c e998 ab3c 998c d93c dc1a debb
00000160: 53e7 bfba 22ca 533d eaf2 f13a 5ef7 f0bb
00000170: 989c 413c 48dc 9abb 17ef 68bc c7a8 19bd
00000180: 75c5 47bd e5e7 14bd 9f41 8fbc 5098 f83b
00000190: c383 0ebc f788 b33a 5d8b 90bc 1a7b 083b
000001a0: c420 6c3c 5900 62bd 5757 79bc b9e6 d43c
000001b0: 252c 0dbc 1ba5 94bc 9239 babb 5626 0bbb
000001c0: a609 87bc cc53 abbc ebc2 ee3c d21c 0dbb
000001d0: 7b01 4bbc 50cd 0abc 1a87 89bc 62fd c83b
000001e0: 38df 853b 6001 80bc 4a29 38bc 84aa 83b9
000001f0: ea1a d5bb 93c1 45bb a3f0 413b ca8f e8bc
00000200: eca7 d6bc 011e a03c 7a75 86bc a4ec c5bc
00000210: c1f1 323d 006a 343c d5f5 cfbc 9d8b 913c
00000220: 2b21 e43c f527 553d aafb e23c 62fd 0c3d
00000230: 3738 3e3d b11b e13c 8da1 163d 1829 243d
00000240: 5b2d 41bc 3693 aabc ac99 07bc 6e2e b53a
00000250: 2e64 82bc e178 a5bc dc9c 013d d594 93bb
00000260: 7eae 8abc cec7 32bc 1f40 f1bc 3f99 9fbc
00000270: 7bc2 943b af50 94bc e930 a3bc 3f84 bf3c
00000280: 9ccc 253b 6b0e acbc f137 16bc bbd1 afbc
00000290: 35c4 34bc 1b59 693a 52fd 91bc 8783 b7bc
000002a0: 590f c33c 2cbd 3bbb 6f85 b0bc 4474 71bc
000002b0: f694 06bd 6700 d0bc fc4a 953b 34ec a8bc
000002c0: fbf2 d6bc 8c76 c33c 4832 943a 6e0c d5bc
000002d0: b6a6 6cb9 4fc7 01bd 2e4d cebc 74b6 643c
000002e0: 2992 98bc ae4a c5bc f4fa 1e3d e230 0d3c
000002f0: 3ce2 cfbc d7a7 1d3b 0a07 dabc 8445 bbbc
00000300: d0a9 cc3c 086b 4ebc 5773 a7bc de5f 483d
00000310: 12a0 783c 0e04 a2bc 4eaa d0bb 4389 95bc
00000320: 0829 06bb 7ccb 4a3c 72b6 60bc 4cd3 a2bc
00000330: 0fb2 863c 2b4c 813a 60de 6c3b 9dac 1ebc
00000340: 5c1d f2bc 8ddb 94bc 7f42 b03b 9e45 98bc
00000350: 9b77 a7bc c6ae a93c 69a3 2f3b f93e adbc
00000360: b465 2ebb 5da5 ffbc 48e8 09bd ff7c 933c
00000370: cfaf 64bc 4ab5 f6bc 32c6 5b3d 3447 923c
00000380: 9a04 d9bc bbd4 cd3b 5f74 bcbc e89c a8bc
00000390: ee12 7b3c e675 97bc e497 d5bc 333a 293d
000003a0: 641e e23b c857 ebbc 0e5e 15bc 9225 acbc
000003b0: a923 dabc ad8e 12bd 9292 34bd 35f8 4b3c
000003c0: a9b0 70bc 093d 1abb 9ae9 1b3d 2c6e 61bb
000003d0: 409f 14bd 2446 c9bc b946 8f3c d817 a3bc
000003e0: a17d 95bc fa53 f43c 6a18 043c 45cf 96bc
000003f0: 5907 b8bb 820b 10bc 2011 22bc 37c7 d2bb
0.004068984 0.009732005 0.0035362116 0.0084129395 0.0016914554 0.0013688544 0.0065456103 0.0064566815
0.005433255 -0.00163836 -0.0062739877 -0.009475582 -0.0018917274 -0.005911687 -0.0023714728 -0.0070018517
-0.005253997 -0.0023122109 0.008507746 0.008124443 0.007389888 0.013024608 0.013375403 0.012938515
0.016194606 0.016749645 0.016822426 -0.007948758 -0.025820209 -0.016846126 0.003402675 -0.016550755
-0.022120384 0.026966944 0.0038054842 -0.022170292 0.012566365 -0.018467706 -0.011681287 0.01444493
-0.02131443 -0.02627459 0.034947757 0.0066006538 -0.03316359 0.027867215 0.027955383 0.02399542
-0.0028393941 0.012299975 0.026170688 -0.017768059 0.0005903949 0.038238052 -0.006010274 -0.023244657
-0.054130733 -0.023416735 -0.02235228 -0.021214096 -0.05745677 -0.02330437 -0.0009609535 -0.004396545
-0.02289767 -0.0218624 0.007551951 -0.013803417 -0.0263767 0.03110514 0.0045151277 -0.027626421
-0.00069617946 -0.0255796 -0.019921033 0.0086206235 -0.014819264 -0.023345314 0.031820044 0.009291167
-0.025840497 0.011508256 0.034471337 0.027524129 0.012684908 0.020946937 0.0265563 -0.006778104
-0.0014641084 0.05170644 0.0018459235 -0.007353707 0.01181712 -0.0047259666 -0.01421716 -0.037514474
-0.048772294 -0.036353964 -0.017487345 0.0075865164 -0.008698407 0.0013697435 -0.017644579 0.0020825327
0.014412109 -0.055176113 -0.015218577 0.025988923 -0.008616482 -0.018145135 -0.0056831324 -0.0021232567
-0.016484093 -0.02091398 0.029145679 -0.002153207 -0.01239049 -0.008471802 -0.016788054 0.006133721
0.0040854476 -0.015625656 -0.011240313 -0.0002511331 -0.0065034525 -0.0030175194 0.0029592894 -0.028388876
-0.026203118 0.019545557 -0.016413439 -0.02416069 0.043687586 0.0110116005 -0.025385777 0.017766768
0.027847847 0.05204006 0.027707893 0.034421332 0.04644033 0.027479025 0.03677516 0.040078253
-0.011790599 -0.020822149 -0.008276384 0.0013823041 -0.01591691 -0.020199241 0.031643733 -0.004503826
-0.016928907 -0.010911895 -0.02944952 -0.019482253 0.0045397854 -0.01810488 -0.019920783 0.02337849
0.0025298959 -0.021002969 -0.009168611 -0.021462312 -0.0110331075 0.00089015224 -0.017820988 -0.022401584
0.02381103 -0.002864669 -0.021548001 -0.014737193 -0.032856904 -0.025390817 0.004556058 -0.020620443
-0.026238909 0.023860238 0.0011306489 -0.026006903 -0.00022568819 -0.031684216 -0.025183287 0.013959516
-0.018624382 -0.024083462 0.038813546 0.008617612 -0.025376432 0.002405634 -0.026614685 -0.022860296
0.024983317 -0.01259876 -0.02044074 0.04891955 0.0151748825 -0.019777324 -0.006367958 -0.018253928
-0.0020471234 0.012377616 -0.013715373 -0.019876145 0.016442327 0.0009864619 0.0036143288 -0.009684709
-0.029555015 -0.018171096 0.0053790207 -0.018587884 -0.020442775 0.020713221 0.002680028 -0.021148192
-0.0026610913 -0.031206781 -0.033668786 0.018003939 -0.013957932 -0.030115742 0.05365581 0.017856218
-0.026491452 0.006281463 -0.023004709 -0.020582631 0.015324337 -0.018488836 -0.026073404 0.04131527
0.0069005955 -0.02872838 -0.009116663 -0.021014009 -0.026628332 -0.035780597 -0.044085093 0.012449314
-0.014690557 -0.0023534915 0.038064577 -0.0034397943 -0.036284685 -0.024569578 0.017489778 -0.01990883
-0.018248381 0.0298252 0.008062461 -0.01840938 -0.0056161103 -0.008791806 -0.009891778 -0.0064324397

bias f4 [64]
00000000: 6f07 d2ba 72b7 123c f1c8 783b 9c7c 91bb
00000010: 30c9 9ab9 e55a da3a ee7f 98ba eb74 61bb
00000020: dd02 cc3b e414 293a 41ca 6fba 518d 0c39
00000030: 48ee 91b9 d46c d6ba 2da4 74b7 a717 84bb
00000040: e95c d03b bead 0cb9 bb3b 29ba 589a 19bb
00000050: 5747 283b 1bff 9839 2311 3cbb bfb8 34ba
00000060: d538 b5bb 3574 35bb 72e8 c83a ae78 0f3a
00000070: 7023 2f38 9c28 59bb f844 8b3b 68d4 67ba
00000080: f245 ae3b 2686 10bc c194 093c 0ada cb3b
00000090: 0bf4 8db9 3fef d63a 7dbb 853c fa96 8b39
000000a0: 5ee8 a03a 65d5 e1bb 683f 1ebb 1df5 a8bb
000000b0: 18b9 44ba 7d9e 303b 58f5 03bb 0b6e 733b
000000c0: 7f53 66bb cedc 78bb e07b e5b9 1935 e439
000000d0: bb4c 06ba b758 c03a bf8b d3b9 e721 02bc
000000e0: 78b0 e0bb 95f2 0cbb a836 5a3a 4faf 17ba
000000f0: 1aba a3b9 a28d 493b 1e83 05ba cc30 4c3b
-0.0016023944 0.00895487 0.0037961567 -0.0044399034 -0.00029523065 0.0016659169 -0.0011634806 -0.0034401964
0.0062259273 0.00064499513 -0.00091472646 0.00013404085 -0.00027834089 -0.0016359338 -1.45817585e-05 -0.00403114
0.006358732 -0.00013416164 -0.0006455739 -0.0023437943 0.0025677287 0.00029181768 -0.0028696738 -0.00068939844
-0.0055304565 -0.0027687673 0.0015328063 0.0005473 4.1756255e-05 -0.0033135777 0.004250165 -0.00088436017
0.0053183967 -0.008821046 0.008397282 0.0062210606 -0.00027075442 0.0016398205 0.016324753 0.00026624632
0.0012276282 -0.0068918937 -0.002414668 -0.005156173 -0.0007504388 0.0026949935 -0.002013525 0.0037144448
-0.0035144982 -0.0037973407 -0.00043770578 0.0004352711 -0.0005123128 0.0014674877 -0.00040349175 -0.007942653
-0.006856974 -0.0021506895 0.00083241845 -0.0005786316 -0.0003122844 0.0030754586 -0.00050930853 0.0031157015

weight f4 [64]
00000000: d1b0 c23e 2cb7 d63e 2a6b ad3e efc0 913e
00000010: fa28 733e 6db6 9a3e 2734 993e 14c5 a53e
00000020: bd15 e93e 12ac be3e 6c4a b63e 546c 9c3e
00000030: bd35 3d3e a8e8 3f3e 4fd5 093e 9a15 2e3f
00000040: 78b9 d03e c334 243e bfcf 673e c47e db3e
00000050: eb18 9f3e 0959 7a3e 97ba cf3e bd9d 923e
00000060: 79ad e43e 7817 a43e 38c1 b13e 3b7c ca3e
00000070: 2129 9b3e c05e 9d3e fac4 b63e ba2d af3e
00000080: d49a b63e 1838 a23e 669e cb3e 1fa7 343f
00000090: bd83 c03e 415b a03e 8399 113f d128 873e
000000a0: 2ad6 053e fd1d 8b3e 88d5 573e 68de b33e
000000b0: aefd 223e 1ea2 863e a2b3 c43e 103b 8d3e
000000c0: 3a1c 9e3e 8d7a bd3e 674f 163e 1df3 9b3e
000000d0: bdbc d83e 3fe8 143f 5c0d 903e a0ce ae3e
000000e0: 601c b23e 2550 4f3e 972b d43e cc3b e43e
000000f0: 58aa 3a3e 3347 ad3e 3f72 503e a72a a33e
0.38025525 0.41936624 0.33870822 0.2846751 0.237461 0.30217305 0.29922602 0.3237692
0.45524397 0.37240654 0.35603654 0.30551398 0.18477531 0.18741095 0.13460277 0.6800171
0.407665 0.16035752 0.22637843 0.42870152 0.31073698 0.24448027 0.40572044 0.2863597
0.446636 0.32049155 0.34717727 0.39547905 0.30304816 0.3073635 0.35697156 0.34214574
0.35665 0.3168342 0.39769286 0.70567507 0.37600508 0.3131962 0.56874865 0.26398328
0.13069978 0.27171317 0.2107755 0.3513062 0.15917084 0.2629556 0.384183 0.27584124
0.3088091 0.3700756 0.14678727 0.30458918 0.42331496 0.5816688 0.28135192 0.34142017
0.34787273 0.20245416 0.41439506 0.4457687 0.18229043 0.33843383 0.20356081 0.3186848

bias f4 [64]
00000000: ff87 e2bd a294 a8bd 5f38 47bc 6122 81bd
00000010: 9017 8ebd 9f19 c0bd 3572 c3bd a768 d5bd
00000020: fd4b adbc 3e19 ccbd 5612 babd 91b5 d3bd
00000030: 7d7f adbd c55a d9bd 0a2c 7bbd 2f9f 71bb
00000040: 8ace c4bd b09b ffbd 0932 96bd 951f acbd
00000050: fed9 9bbd a70c b6bd de92 2bbc 3cc6 99bd
00000060: cf0f 3b3c 389f 93bd 4b1c c6bd 1f63 c4bd
00000070: f46c cebd 6ee2 99bd 28fe 43bd b22a d9bd
00000080: 29d9 b6bd 4465 7dbd e186 9cbd cf52 a039
00000090: 5241 d5bd 4c11 a8bd 26a4 c03c 3dd5 b2bd
000000a0: 27e3 b0bd b912 86bd 4d30 d2bd e215 03be
000000b0: 2275 c6bd 31f2 c0bd 5ed8 f3bd bd0f 98bd
000000c0: 76ed bfbd 9140 bcbd 7f26 4abd b1c6 b2bd
000000d0: 7ea4 01be cf88 abbc 8ea5 bfbd fbba b7bd
000000e0: 13e9 b7ba b17d 9fbd cc52 c2bd 1c80 ffbd
000000f0: 835c 8bbd bfa1 cfbd 391d 9fbd a720 cbbd
-0.110610954 -0.082314745 -0.012159436 -0.063053854 -0.06938088 -0.09379887 -0.09543268 -0.104203515
-0.021154398 -0.09965752 -0.090855286 -0.103373654 -0.08471582 -0.10613016 -0.061321296 -0.0036868562
-0.09609707 -0.12480867 -0.07333762 -0.08404461 -0.07609938 -0.08889132 -0.010472028 -0.07508513
0.011417343 -0.07208103 -0.09673365 -0.09589218 -0.10079375 -0.07513891 -0.047849804 -0.106038466
-0.08928139 -0.061864153 -0.076429136 0.00030579275 -0.104128495 -0.08206424 0.023515772 -0.08732078
-0.08637076 -0.0654654 -0.10263119 -0.12801316 -0.0969031 -0.09421194 -0.11906503 -0.07424877
-0.09371464 -0.091920026 -0.04935312 -0.08729304 -0.12660405 -0.020939259 -0.09357749 -0.089712106
-0.0014031254 -0.077876456 -0.094884485 -0.12475607 -0.068047546 -0.101382725 -0.07769246 -0.09918337

running_mean f4 [64]
00000000: d2ba b83c dc8c 16bc 0033 443d 207c 053e
00000010: ace8 e03d 6e5c 803c 5fcf 743d d2c7 da3a
00000020: 956a 803d 2b59 e9bb 1739 e1bb 9844 b63c
00000030: ad49 0d3e 1688 bfbc 17ba bdbd e425 123d
00000040: c4a6 963d 651a e43d b8a4 bc3d cd49 233d
00000050: 02fe 8d3d 3034 0bbd 60bd 293b d7fb 803c
00000060: 2a8b a13d 862e 72bd 739c e23b 8dfe 1f3d
00000070: 1c03 9a3d 729e 64bd 4d12 f4bc 216d b93c
00000080: 51a2 1b3e 5f45 27bc 8727 903d ce3a 243d
00000090: 3ad9 f83d df45 103d 94e1 663e 9c79 dd39
000000a0: cf33 943d 4672 2b3c ff41 813d e19e f8bc
000000b0: 8217 7d3e c9c5 5d3d 0df1 3e3c 7082 eb3c
000000c0: 8d06 e3bc 1b48 e93c 0467 a5bd 7dbb b33c
000000d0: d5a5 d13c d485 133d 5809 763d 47c2 34bd
000000e0: 267b 20be 48f2 0f3e 4430 e33d 4f44 f03d
000000f0: ca79 55bd 3e96 963d 61fe d33d 2a6c b73c
0.02255002 -0.009188857 0.0479002 0.13035631 0.10981879 0.015669074 0.059768077 0.0016691631
0.06270329 -0.0071212254 -0.0068732607 0.022249505 0.13797636 -0.02338032 -0.092640094 0.035680667
0.07356027 0.11137847 0.09211105 0.039865304 0.06933214 -0.033985317 0.002590023 0.015745087
0.078878716 -0.0591264 0.006915623 0.039061118 0.07520124 -0.055815168 -0.029793883 0.022635045
0.15198638 -0.01020941 0.07038789 0.040095143 0.12150808 0.035222884 0.22546989 0.0004224301
0.07236444 0.010464257 0.06311416 -0.030349197 0.24715999 0.0541437 0.011654151 0.02874872
-0.027713085 0.028476765 -0.08076289 0.021939987 0.02559177 0.0360163 0.060067505 -0.04413059
-0.15671977 0.14057267 0.1109319 0.11731779 -0.0521181 0.07352875 0.10351253 0.022390444

running_var f4 [64]
00000000: 49bd b33d 228b c93d 74d3 c13d acc4 b73d
00000010: 2cf9 1b3d 893f 663d 2521 853d c3ce a33d
00000020: 188d c83c ce6b 953d be55 4d3d 08f9 163d
00000030: 15c6 bc3c 5139 023d 3efe 7c3d b0b4 2d3e
00000040: b341 f23d a33f 3b3d 2795 b43c dddc a43d
00000050: 410c 413d 4e3a 9a3d 5884 b73d 692f 9d3d
00000060: 0a7a 163d 6faf c03c 9faa 603d 4f74 b73d
00000070: 87e9 8d3d 31fa be3d 3f69 ec3c 330a ab3d
00000080: ac2d 693d 0314 993d 408b 973d 3fc1 0c3e
00000090: f081 aa3d 9617 b83d 1def 153e a049 6c3d
000000a0: f1b1 bf3d 7e42 403d cddb c33c 7ff0 7d3c
000000b0: d93a be3d 9ed4 8d3d a0a9 b43d 97d0 473d
000000c0: a5e6 db3d 6287 eb3d 71b2 a53d 4059 963d
000000d0: a64e ac3d d68d dd3d 1d13 6b3d 22da a03d
000000e0: b90f 0c3e b7a5 833d e188 c03d dce5 1b3d
000000f0: a255 603c c011 123e 1511 323d 7609 9c3d
0.08776338 0.098409906 0.094641596 0.08973059 0.038079426 0.056212936 0.065004624 0.07998421
0.024481341 0.07295953 0.0501306 0.03685859 0.023043672 0.031792942 0.0617659 0.16963458
0.118289374 0.045714986 0.022043778 0.08049939 0.047130827 0.07530652 0.089607894 0.076750584
0.03673748 0.023521153 0.054850217 0.08957731 0.069293074 0.09325064 0.028858779 0.08351555
0.05692832 0.0747452 0.07399607 0.13745593 0.08325565 0.08988874 0.14641996 0.0576874
0.093601115 0.046938412 0.02390852 0.015499233 0.09288568 0.06925319 0.08821416 0.04878291
0.10737351 0.115004316 0.080906756 0.07341242 0.084134385 0.10818069 0.057391275 0.078541055
0.13677873 0.06428092 0.094011076 0.038061008 0.013692291 0.14264584 0.043473322 0.07618992
