SND_trackers_My_data/9X0_file/29_9X0_coordconv_Label_Vtest.pt (torch, 623547 bytes, 37 tensors)

weight f4 [32, 9, 3, 3]
000000 e2 ae 5d 3b 12 33 5f 3b 05 27 44 3b 0d a9 4e 3b
       0.0033826162 0.003405754 0.0029930484 0.0031533868
000010 c8 da 91 3b c1 9f 94 3b 06 cd 94 3b 27 01 42 3b
       0.0044511296 0.0045356457 0.0045410423 0.0029602738
000020 b8 d7 8c 3b 92 0d f4 3c 99 13 b2 3c 26 6d c2 3c
       0.0042981766 0.029791627 0.02173786 0.023733687
000030 53 6e ff 3c 84 40 07 3d 65 0a ac 3c b2 8d 06 3d
       0.031180536 0.03302051 0.02100105 0.032849975
000040 36 78 a1 3c fd 5b e7 3c 88 1a 70 bc 34 12 31 bc
       0.019710641 0.028242106 -0.014654763 -0.010807563
000050 b2 e1 62 bc f5 6a 52 bc cd fe 54 bc 8e 33 82 bc
       -0.013847755 -0.012842883 -0.013000202 -0.015893724
000060 55 6c 4c bc 80 3d 67 bc 02 25 41 bc 9a 81 5a 3d
       -0.012477 -0.014113784 -0.0117886085 0.053346254
000070 96 fa 86 3d 15 53 9d 3c bd 12 c4 bc 4b 62 26 bd
       0.06590764 0.019204656 -0.023934716 -0.040621083
000080 ef 6b bb 3b 25 8f b7 3c 0c 4d 9e 3b b3 e9 54 bd
       0.005719654 0.022407124 0.004830962 -0.051980685
000090 91 e8 59 3b bd 3f 03 bd f4 3d 12 bd b5 6e 0f 3b
       0.0033250193 -0.032043207 -0.035703614 0.0021886055
0000a0 fb e0 27 bd f5 41 02 bd 5a 03 e4 bc 6d cb da bc
       -0.040986042 -0.031801183 -0.02783363 -0.02670833
0000b0 81 7c d0 bc 3d 3f 8f bc 37 35 d4 bc 25 47 7c bc
       -0.025449993 -0.017486209 -0.025904281 -0.015397822
0000c0 5e d3 fe bc 6b f2 20 bd 84 d8 d3 bc 9d 25 a9 bc
       -0.031106647 -0.039293688 -0.025860079 -0.020647818
0000d0 a5 ee 13 bd b0 2e c3 bc 45 e3 44 bd 3e a8 a1 bc
       -0.03611626 -0.023825973 -0.048068304 -0.019733544
0000e0 b9 bb 65 bc a8 b2 83 bd 2c 54 c1 bc 7a 4a 87 bc
       -0.014021807 -0.0643056 -0.023599707 -0.016515005
0000f0 6a a7 ff bc 69 83 01 bd 47 bc 2d bd 81 bc 31 bd
       -0.031207759 -0.031619463 -0.042415883 -0.043392662
000100 33 f9 80 bd 42 a9 66 bd 2b b5 41 bd 6e 93 cd 3c
       -0.06297531 -0.05631376 -0.047291916 0.025094714
000110 98 1d 7f bd 24 fe 67 bd a8 0b 5a bd b1 a8 2f bd
       -0.062284082 -0.05663885 -0.053233773 -0.042885486
000120 08 fa 7c bc 37 92 a2 bc c1 a7 39 bd da 35 1a bd
       -0.0154404715 -0.019845111 -0.045326 -0.037649013
000130 d6 ad 3f bd c9 6d 33 bb d5 37 75 bd 66 b5 c8 bc
       -0.046796642 -0.002737867 -0.0598677 -0.02450056
000140 d4 36 ab bd 43 23 68 3d e1 04 b8 ba 80 a2 8a bc
       -0.08360067 0.056674253 -0.001403954 -0.01692319
000150 5b 69 16 bd c0 96 5e 3d 6b 01 ac 3c 46 ee 15 bd
       -0.03672157 0.054342985 0.02099677 -0.03660419
000160 86 36 1e 3d df c9 47 bc 45 7b f6 bb 10 20 6b bb
       0.038626216 -0.012194126 -0.007522019 -0.0035877265
000170 14 20 27 3c 54 98 35 bc 7b 3c 2f 3d 35 89 91 bc
       0.010200519 -0.011083681 0.042782288 -0.01776562
000180 29 32 8b bc d7 c8 9d bc 64 07 15 3d c3 fb e6 bc
       -0.016991692 -0.019260807 0.036384 -0.028196221
000190 db 68 18 bc 9c a0 12 bd 7d 2b bc 3b 8c e6 d6 bb
       -0.009302343 -0.0357977 0.005742489 -0.006558245
0001a0 f9 b3 09 3c 55 1a 11 bd 1c 96 a6 3c 5e 20 2b bd
       0.008404725 -0.035425503 0.02033525 -0.041778915
0001b0 21 2d 36 3b 4e 3e 83 bc 50 1c 5f 3c 97 e9 37 3c
       0.0027797895 -0.01602092 0.01361759 0.011225126
0001c0 74 4f c5 3c 5b 35 94 bb 81 d5 49 3c ee 39 24 3d
       0.024085738 -0.004522962 0.01231897 0.04009431
0001d0 08 11 65 3c 49 f3 b7 bb fb 9f 44 3b a5 f9 bd 3c
       0.013981111 -0.0056137186 0.0030002582 0.023190329
0001e0 23 21 f6 bc 96 d5 ca 3b db 5a e3 3c 41 45 1d 3c
       -0.030045098 0.006190012 0.027753284 0.009599031
0001f0 ec d1 46 3a 4a f8 af 3d 16 d6 17 bd ec a2 97 3b
       0.00075843814 0.08592279 -0.037069403 0.004627576
000200 cc 01 db 3c 3a d1 c9 bc 94 98 da 3c a0 d6 95 3c
       0.026734255 -0.0246359 0.026684083 0.018290818
000210 2b 24 85 bc 5a e6 6f 3d cc 4f 93 3d 5b 8d a2 bc
       -0.016252598 0.05856929 0.071929544 -0.019842794
000220 3e 35 52 3d 48 a1 b1 3b f7 f2 6b 3c df 54 9a bc
       0.051320307 0.0054208376 0.014401189 -0.018839298
000230 80 f5 aa 3c 1c 3d e5 3c 46 07 fa bc db 47 a1 ba
       0.020869017 0.02798324 -0.030521046 -0.001230474
000240 88 ba cb bb b0 82 6e 3d 26 5a e6 3b 5f e5 8a 3c
       -0.0062173046 0.058230102 0.0070297895 0.016955076
000250 9f d6 a2 bc 17 5e c5 bb 30 d6 e3 bc 9e ae 4b bd
       -0.01987773 -0.0060231793 -0.027812093 -0.049727075
000260 57 a8 0e bc ca 5e ff 39 a4 c5 66 3d 7b a3 ef 3c
       -0.0087071275 0.00048708013 0.05634083 0.029252758
000270 13 56 d6 bb f4 35 20 3c ec 8b ca 3c 1c d1 c3 bc
       -0.0065410226 0.009778488 0.024724923 -0.023903422
000280 0e 2d 8e bc 1f 85 1e bc 9f 0c ae 3b 2b d2 11 bc
       -0.017355468 -0.009675293 0.005311563 -0.008900206
000290 18 3f 20 3b 98 20 60 bc 70 cc 26 3d a7 79 ea 3b
       0.002445167 -0.013679646 0.04072231 0.0071556154
0002a0 f2 73 06 bd 07 63 a4 bc ee 4d ee 3c 1a 61 3a ba
       -0.032825418 -0.020066751 0.029089894 -0.0007109806
0002b0 df 35 db 3c 07 e2 81 bc 0c d9 9b bc 0f b0 9b bc
       0.026759086 -0.015854849 -0.019024394 -0.01900485
0002c0 d5 12 5c 3c 68 43 b6 3c dc 7f c3 b9 94 38 ec bc
       0.013432224 0.022248939 -0.0003728856 -0.028835572
0002d0 34 3d 38 3d c4 a8 2d 3d 1f 25 56 3d b9 1c d0 3c
       0.044980243 0.042397276 0.052281495 0.025404321
0002e0 1d 3f 37 3d 89 17 1c 3d a9 69 21 3d 0e 6a bb 3c
       0.044737924 0.038108382 0.039407406 0.02287772
0002f0 de eb 39 3d d4 be dc 3c a0 6d 35 3d 2e c6 15 bd
       0.045390956 0.026946463 0.044294 -0.036565952
000300 5e 2e ad 3b b7 72 8c bc 9b e1 87 bc c0 17 cf 3d
       0.0052850684 -0.017144544 -0.01658707 0.10111952
000310 c4 8b 9f 3d 9e 44 19 bd c2 af eb bc c4 32 02 3d
       0.0779033 -0.037418954 -0.028770331 0.031786695
000320 ac d3 14 ba 0d d2 a8 bc bf a1 07 bd 3f ae 74 3d
       -0.00056772935 -0.020607973 -0.033113237 0.059736487
000330 ab 94 ad 3d 08 d8 32 3d c3 27 ca bc a3 77 0e bd
       0.08475622 0.043663055 -0.024677163 -0.034782063
000340 a4 ee 36 bc 46 76 83 3d 73 78 9e bc f5 0a 78 bc
       -0.011165295 0.06419043 -0.019344544 -0.015139331
000350 27 12 b9 bc e6 46 2a 3d 54 de 86 3d f3 50 d8 bc
       -0.022591664 0.04157152 0.065853745 -0.026405787
000360 f0 62 0b 3a 78 44 8b ba 6a 78 15 ba cc a1 76 3b
       0.0005317172 -0.0010625264 -0.0005701842 0.003763306
000370 4a e9 47 bb 70 a4 53 3b ad 96 ae 3c 65 bf 97 3c
       -0.0030504041 0.0032294057 0.021312082 0.018523881
000380 e2 a1 9a 3c 16 60 eb bb 86 00 65 bc 80 cb 95 bb
       0.01887602 -0.007183085 -0.013977176 -0.004571378
000390 0b 0c 1a bb b9 8e f5 3c 3b 30 2b 3b 07 65 e3 bc
       -0.0023505713 0.029975282 0.0026121277 -0.027758135
0003a0 cd cf 33 bb 84 9d 91 ba e9 f1 e3 bc 08 99 1d bd
       -0.0027437091 -0.0011109565 -0.027825313 -0.03847602
0003b0 94 5a 02 bd ce ac a2 bc d9 a2 29 bd 80 81 96 bc
       -0.031824663 -0.01985779 -0.04141507 -0.018372297
0003c0 93 15 91 3c dc 70 c6 bb 06 93 7c bc 65 3f 10 3c
       0.017710483 -0.0060559344 -0.0154159125 0.008804177
0003d0 37 d4 3f 3b 30 5f 5c b7 ba 30 b8 bb 3e f4 3e bc
       0.0029270777 -1.3135184e-05 -0.005621043 -0.011654912
0003e0 75 73 ef 3b 57 e8 2d bc e3 10 a2 bb 4b ef 52 bb
       0.0073074647 -0.010614476 -0.0049458607 -0.0032186087
0003f0 12 09 6b 3c f5 53 9e 3b 64 57 a8 3c ff ee 58 3c
       0.014345424 0.004831786 0.020549484 0.013240575

bias f4 [32]
000000 47 06 28 bb 8b f8 e4 ba 37 e9 f0 bb 2a 66 e0 3a
       -0.0025638507 -0.0017469091 -0.00735202 0.0017120291
000010 da cd 12 3c 0c 01 3e bc e6 5f 09 bc c5 9d c1 3c
       0.008960212 -0.011596929 -0.00838468 0.0236348
000020 05 d3 06 bb 4a a3 28 3d cd f2 e0 3a bf dd 4e bb
       -0.0020572555 0.04117135 0.0017162204 -0.0031565276
000030 5f 08 9c bb ca 18 3c bc f1 88 98 3c 4e cc 62 bb
       -0.00476174 -0.01148052 0.018619986 -0.0034606638
000040 ee dc 49 3b ad b1 4f 3a d9 96 c1 3c 4d 33 af 3a
       0.003080185 0.0007922899 0.0236315 0.0013366729
000050 e7 05 b1 bb 18 e1 86 bc f0 fb 8d bc 06 bd 4c ba
       -0.005402315 -0.016464755 -0.017332047 -0.0007810149
000060 6c 77 e3 bb e0 39 01 bc 81 0e d5 bb af 5f 3f 3a
       -0.0069417264 -0.007887334 -0.006501973 0.000730033
000070 14 d9 56 3b 25 dc 6a 3c 2c de d4 ba b7 b2 a3 3a
       0.0032783197 0.014334713 -0.0016240529 0.0012489174

weight f4 [32]
000000 e5 b1 3c 3e 2e 89 57 3e a3 17 85 3e f9 0a 51 3e
       0.18427236 0.21048424 0.25994596 0.20414342
000010 0d 91 1f 3f 5f b2 f4 3e 6b 20 d0 3e 56 af b7 3e
       0.62330705 0.47792336 0.40649733 0.35875958
000020 63 de 69 3e 86 f7 f9 3e 91 d4 79 3e 6b 8c d9 3e
       0.2283874 0.48821658 0.24397494 0.42489943
000030 e2 ea 6f 3e ab 31 c1 3e 0f e6 94 3e 6a 70 b2 3e
       0.23429444 0.37733206 0.2908177 0.3485139
000040 3e c5 3b 3e d0 28 55 3e a6 23 d9 3e ed fa 3d 3e
       0.1833696 0.2081635 0.4241001 0.18552752
000050 30 b4 5f 3e 79 f2 f1 3e 55 13 12 3f 39 07 35 3e
       0.2184608 0.47255304 0.5706075 0.17678536
000060 1b 34 28 3e 94 3d 83 3e 8b 6f 83 3e 0c db 8e 3e
       0.16426127 0.25632918 0.25671038 0.27901495
000070 50 3e 50 3e 82 ff ac 3e f3 be 55 3e 78 dd 39 3e
       0.2033627 0.33788687 0.20873623 0.1815089

bias f4 [32]
000000 02 c3 b6 bd c4 50 b7 bd e7 d3 57 bd 1d a5 96 bd
       -0.089239135 -0.08950952 -0.05269232 -0.073557116
000010 aa 48 cf 3b 78 47 71 3b 24 5a 8e bd 67 ed ae bd
       0.006325801 0.003681628 -0.06950787 -0.08541375
000020 07 cb c0 bd 36 2e 84 3d fa 2d 9b bd 43 5c 94 bc
       -0.094137244 0.064541265 -0.07577129 -0.0181104
000030 d1 ae 9f bd 98 ec fd 3c 73 07 8a bd 47 aa 74 bd
       -0.077970155 0.030996606 -0.06739702 -0.0597327
000040 b5 79 c5 bd 9d ef cc bd c5 18 6f 3d a3 c3 ae bd
       -0.096423544 -0.1000664 0.05837323 -0.085334085
000050 df e2 9f bd 8d e9 00 3d f5 33 c7 3c cb f8 d9 bd
       -0.07806944 0.03147273 0.024316767 -0.106431566
000060 79 7b d8 bd 61 06 63 bd ad 33 86 39 22 ea 45 bd
       -0.105704255 -0.055426005 0.00025596973 -0.04831899
000070 92 7d e8 bd 29 2a 0a bd 57 46 9c bd d6 1a cc bd
       -0.11352076 -0.033731613 -0.07630604 -0.09966056

running_mean f4 [32]
000000 f5 21 8b bd 36 3d 85 bd 44 bc 3e 3e c6 49 63 3e
       -0.06793586 -0.06505816 0.18626505 0.22196111
000010 28 d5 a8 3b 7b a6 cd 3c 5b f3 8e 3d 5c 4b 20 3e
       0.0051523633 0.025103798 0.0698001 0.15653747
000020 15 c9 b9 3c 20 c0 89 3d 18 c9 89 bd d6 62 0f 3d
       0.022678891 0.06726098 -0.06727809 0.035006367
000030 8c f4 63 3e 1c 39 a5 bc 10 78 0b 3e ba e8 35 3e
       0.22261256 -0.020168833 0.13620019 0.1776456
000040 d6 21 36 3e 77 c6 90 ba 9c a1 f2 3c 2d ac 90 bc
       0.17786345 -0.0011045475 0.029618077 -0.017660225
000050 29 b2 54 3e 3e 1f 38 3b 45 5b d2 bc f0 62 a1 bd
       0.20771088 0.0028094794 -0.025678286 -0.07880199
000060 48 ce 36 bd 72 17 5b 3e d2 77 28 be 75 28 7f 3e
       -0.04463032 0.21395662 -0.16451958 0.24917777
000070 27 3a 42 3c 62 b0 1d 3d b8 92 8e 3e bb 37 99 bd
       0.011854685 0.03849829 0.27846313 -0.07481333

running_var f4 [32]
000000 b3 bb aa 3c 2b 4b 1f 3b 22 cb ae 3b 56 9a 0d 3c
       0.020841455 0.0024306278 0.005334274 0.008642754
000010 2b c6 04 3a a4 10 49 3a ef 09 1a 3b da e0 21 3b
       0.000506493 0.0007670021 0.0023504456 0.0024700672
000020 da ac 6b 3c 39 f2 4b 3a 66 3a df 3a e2 fc 52 3a
       0.014384473 0.00077799294 0.0017030954 0.0008048547
000030 a9 19 37 3c 7c 60 25 3a 2f f0 13 3b 62 39 94 3b
       0.011175551 0.0006308628 0.002257358 0.004523442
000040 10 db 54 3c 06 14 0b 39 fc 7b 20 3a f8 cc ac 3c
       0.012991682 0.00013263532 0.0006121991 0.02109383
000050 c7 0b ed 3b 6d 67 59 3a 60 b4 47 3a 75 d4 c1 3c
       0.00723407 0.00082933047 0.00076181255 0.023660878
000060 46 0b 12 3c d0 b0 3f 3c 70 c7 b6 3b 8d 55 72 3c
       0.008913821 0.01169987 0.005577974 0.014790905
000070 76 22 2c 3a a6 1f 88 39 25 25 5c 3c 17 95 93 3c
       0.00065664144 0.0002596352 0.01343659 0.018015428

weight f4 [32, 35, 3, 3]
000000 0a 28 81 bb 1d ba 5c bb 2b 57 96 3c 62 a6 25 bc
       -0.0039415406 -0.0033680268 0.018352112 -0.01011047
000010 7e 01 21 bc 4a 0a 3a bc 46 b4 b3 3c ba f9 2c bc
       -0.009827016 -0.011354992 0.021936547 -0.010557586
000020 f1 a0 96 3c f6 18 81 3c b7 8b 34 bc 91 38 30 bc
       0.01838729 0.015758973 -0.011019639 -0.010755674
000030 98 f4 72 3c f7 ac 3e ba 83 29 a3 bb 1d f7 da bb
       0.0148288235 -0.00072736986 -0.004979314 -0.00668229
000040 44 24 98 3c 63 de a5 bc a5 a3 21 bc a6 af ef bb
       0.01857198 -0.020247644 -0.009865676 -0.00731464
000050 f6 5d ca bb 98 4a 74 bc 64 d3 12 bb c5 cc cb bb
       -0.006175752 -0.014910363 -0.002240383 -0.006219479
000060 13 bd 6a bc 4e d8 c0 b8 61 f9 6c bc 1e 36 96 3c
       -0.014327305 -9.195563e-05 -0.014463753 0.018336352
000070 2a 33 24 bb 95 a4 e6 ba a8 38 19 3c 25 78 9d ba
       -0.002505491 -0.0017596657 0.009351887 -0.0012013955
000080 e4 41 52 3c 33 82 7c 3c f1 eb 66 3c d6 f6 a0 3c
       0.012833092 0.015411901 0.014094339 0.01964895
000090 6d 4b 69 bb 43 79 d4 bb b3 77 fc bb 0f 39 ac bc
       -0.0035597936 -0.006484182 -0.007704699 -0.021023301
0000a0 53 bf 61 bc 47 76 25 bb eb 4f a9 3c 69 7e 1f bd
       -0.013778525 -0.00252475 0.02066799 -0.038938913
0000b0 1e 8a ba 3c 22 6a 97 bc dc 25 70 bc f6 c0 8e 3c
       0.022770938 -0.018483225 -0.014657464 0.017425995
0000c0 8d d6 9b bc 81 9d 50 bc 05 66 dd 3a 67 a7 68 bd
       -0.019023204 -0.012732864 0.0016891366 -0.056800272
0000d0 fb 99 80 bb 3a e0 bf 3c bc 13 63 bc 7a 1d 32 bc
       -0.003924606 0.02342235 -0.0138596855 -0.010871286
0000e0 ce 02 c7 3c 74 ed 68 bc 32 df d8 3c 53 24 84 3c
       0.02429333 -0.0142167695 0.026473615 0.016130602
0000f0 d7 85 12 39 11 09 2e 3d 38 3b 8d 3a ea cf 17 bd
       0.00013973504 0.042489115 0.0010775095 -0.037063517
000100 28 9e 52 bc ee c6 97 bc 95 71 f0 ba d7 6e e4 3c
       -0.01285509 -0.018527474 -0.0018344397 0.027884884
000110 81 81 0c bd 7d 1a 82 bc a9 8e 90 3c 86 34 a2 bb
       -0.034303192 -0.015881771 0.01764615 -0.004950109
000120 91 c3 f4 bd ae fa 2b bd d8 2a 6a bd 88 6f d2 3d
       -0.11951364 -0.041987114 -0.057169765 0.10275179
000130 5a 29 43 bd 84 11 35 bd 09 d2 03 3e 1b 87 da 3d
       -0.047646858 -0.044206157 0.12873091 0.106703006
000140 a5 ff 63 bd 1e 68 80 bc b3 e1 e1 bc 89 91 ae bc
       -0.055663723 -0.015674647 -0.027573442 -0.021309631
000150 0f 63 03 3d 0c df 80 3c e0 68 45 3b 6d 52 cb ba
       0.03207689 0.015731357 0.0030122325 -0.0015512236
000160 2d 66 bc 3c 25 a6 a5 bc f4 93 4c bb 7d 83 99 ba
       0.02299794 -0.020220825 -0.0031216117 -0.001171216
000170 6a 86 d1 3c 44 5e 88 bd 79 7b a8 3d d7 b6 93 3c
       0.025576789 -0.06658605 0.082266755 0.01803152
000180 7f 8d b6 bc bf 29 02 bd 00 e8 27 3d ed af 16 bc
       -0.022284267 -0.031778093 0.040992737 -0.009197217
000190 4f 9d 17 3c 4f 7f 37 bb e5 40 19 bc b1 a0 74 bc
       0.009253814 -0.0027999466 -0.009353851 -0.01493089
0001a0 2a fe 50 3a 54 e5 69 bc 53 61 bd bb 9a fc 24 bc
       0.0007972444 -0.0142758675 -0.005779424 -0.0100699905
0001b0 ca 92 f9 3b 08 51 2d 3c 86 10 04 3d c3 a9 84 bc
       0.0076163756 0.010578401 0.03224232 -0.01619423
0001c0 f5 7f ed 3a 92 bc 05 bc a3 66 46 bc c1 86 bf 3b
       0.0018119799 -0.008162634 -0.012109431 0.0058449213
0001d0 72 28 30 bb 83 1c 67 bc 48 a8 c5 ba e0 0e a3 bc
       -0.0026879576 -0.014105919 -0.0015080059 -0.019904554
0001e0 c1 62 e2 3c e4 fc 9e bc da 30 07 bc 0a 39 08 3b
       0.02763498 -0.019407697 -0.008251393 0.002078595
0001f0 02 1e 1a bd dd 13 1f 3c 9d ea dd bb 04 ad 3a 3c
       -0.037626274 0.009709326 -0.006772353 0.011393789
000200 3d 84 c2 bc 8a d1 ad 3d 45 5d dd bc 85 b2 26 bd
       -0.023744697 0.08487232 -0.027022013 -0.040697593
000210 1b 18 29 3e 08 03 6d bd d3 9a 03 bd d4 5b 07 b8
       0.16513102 -0.05786422 -0.032130074 -3.227203e-05
000220 bc 9e d4 3c 7a 02 5c 3b 4d ee c8 3c 33 ee d7 3c
       0.025954597 0.0033570812 0.024527693 0.0263587
000230 47 06 80 3c 77 ac 86 bc 65 c2 25 3a 15 72 c0 bb
       0.015627993 -0.01643966 0.00063232175 -0.0058729746
000240 41 2e b9 3c 03 1f 63 3b c2 39 28 3d f8 58 f0 bc
       0.022605063 0.0034655936 0.041070707 -0.029339299
000250 e9 d2 ea 3b 05 77 a1 3b 7f 48 52 3c 51 b3 95 bd
       0.0071662557 0.0049275183 0.012834667 -0.073095925
000260 28 b7 01 bc 70 09 9d bc c3 ee 75 bb 7a 31 d5 bc
       -0.007917203 -0.01916954 -0.0037526346 -0.026024569
000270 e4 a7 80 3d 69 b8 8c 3d 40 45 54 3c c4 ca 6b bd
       0.062820226 0.06871111 0.012955964 -0.05756642
000280 96 4f ca 3c 6c 67 f7 bc e6 e0 5b bc e4 72 4c bc
       0.024696153 -0.030200683 -0.013420319 -0.012478564
000290 dd 01 9f bc 03 11 fc 3c 27 61 98 3d 62 b0 79 3c
       -0.019410068 0.03076983 0.07440405 0.015239807
0002a0 26 6f ea bc 52 b5 a9 3c 7d 5d be 3b a2 1f c2 3c
       -0.028617453 0.020716343 0.0058094845 0.023696724
0002b0 09 d3 8b bb f1 6f b0 bb a9 a1 ea 3a 31 43 39 3c
       -0.0042671007 -0.005384438 0.0017900962 0.011307524
0002c0 71 d2 92 3c 8e 1f 3d 3c 94 e7 ab 3c 2d 26 3e bb
       0.017922612 0.011543168 0.020984448 -0.0029014454
0002d0 8f 58 f5 bc e5 5e b2 3c c7 ab c2 3c da ae 4a bd
       -0.029949455 0.021773765 0.02376355 -0.049483158
0002e0 c2 30 0a 3c dc a6 ec bc 19 25 56 bc fb 4c a1 bc
       0.008434476 -0.028888159 -0.013070368 -0.019690027
0002f0 93 ce 16 3c 12 76 9f 3c 4e 30 1d 3d 74 e0 15 bb
       0.009204525 0.01946548 0.038376145 -0.002286938
000300 7f d3 d3 bc 5c d3 b4 3b 33 20 41 bc d9 21 19 3b
       -0.025857685 0.00551836 -0.011787462 0.0023366122
000310 01 08 93 bc 04 4f e9 3c 6e 53 53 bc ac d0 5a 3c
       -0.017948152 0.02848006 -0.012898309 0.013355415
000320 14 cb 78 3c 49 5a 2d bc 62 26 78 3b ca 5d 35 bc
       0.015185136 -0.010580608 0.0037864675 -0.011069724
000330 ca 28 17 bc 5c 2e d2 3b 20 0a b6 3b b0 bb aa bc
       -0.009226033 0.006414218 0.005555406 -0.02084145
000340 da 24 45 bc d7 19 46 3a a8 98 0c bd 7a 17 53 bc
       -0.012032712 0.0007556951 -0.03432527 -0.012884015
000350 e1 05 8f bc 46 ef 8f bb a8 be 5a bc 4a b4 2a bb
       -0.017458858 -0.0043925373 -0.01335112 -0.0026047402
000360 c5 9d 8d bc 0a 9c 3f 3c 5b ae 12 bd 30 6a 6c 3d
       -0.017287144 0.011694917 -0.03581081 0.057718456
000370 e8 6f 79 ba 17 68 b3 bc 87 3e 3e 3d 48 ea a4 bb
       -0.00095152715 -0.02190022 0.04644635 -0.0050328113
000380 ed b8 ee bc ae 51 34 bc c1 e9 07 3c ea 33 5a 3b
       -0.029140914 -0.011005802 0.008295477 0.0033295103
000390 a9 1e 3d bc 04 b0 df 3a d6 26 05 bc 01 12 6a 3c
       -0.0115429545 0.0017066007 -0.008126935 0.014286519
0003a0 59 aa 10 bc 32 d9 13 ba 96 5c 04 3d 2c 63 71 3c
       -0.008829677 -0.00056399696 0.03231486 0.014733117
0003b0 60 86 ab 3c 30 d8 6b bc a6 0a 5c 3a 44 52 5d 3b
       0.020938098 -0.014394805 0.0008393921 0.0033770958
0003c0 bd 77 d8 3c 79 a9 d0 39 cc 7a de 3c 58 0c 24 3c
       0.026424283 0.00039799119 0.027158163 0.010012709
0003d0 e5 06 2c 3d c1 79 93 3c 62 6c 1f 3b 83 0b b7 3c
       0.041998763 0.018002393 0.0024326076 0.022344356
0003e0 1b 23 6d 3c 75 b6 c9 bc f2 38 43 ba 11 93 75 3c
       0.014473702 -0.024623135 -0.0007447145 0.014988677
0003f0 0e f9 2d 3b db 90 f0 bb 79 0f c2 bb 39 35 b1 3c
       0.0026546153 -0.007341487 -0.0059222546 0.021631824

bias f4 [32]
000000 61 d4 54 3b c3 bf a9 bb 31 70 ac 39 b8 34 67 bb
       0.003247522 -0.0051803305 0.00032889986 -0.0035279226
000010 c0 aa a1 bb 60 7c 83 3b e7 a6 cc 3b d6 3d 25 3b
       -0.004933685 0.0040126294 0.0062454822 0.002521386
000020 bd ec e4 3b e1 4b 60 bc ce 48 06 3b ad c0 78 39
       0.006986229 -0.013689966 0.0020490172 0.000237229
000030 da 6e 9b 3b e9 7b 0d ba 7d 3d 72 bb e1 e6 36 ba
       0.004743439 -0.0005397187 -0.003696292 -0.00069771527
000040 f6 ab 4d 3c 14 ec 25 3b bc cb 32 3b 6d 69 b0 bb
       0.012553206 0.0025317715 0.002728208 -0.0053836615
000050 72 da d3 3a ea 57 ba 3b a0 64 3d bb f5 58 3c 3a
       0.0016163124 0.0056867497 -0.0028899089 0.00071848865
000060 09 d6 bf 39 81 79 ab bb 3c bf 72 bb 76 bb 1a 3b
       0.00036589828 -0.0052329903 -0.0037040254 0.002361027
000070 a1 72 46 3b 6b f5 9c bc fd 86 bb 3b ee de 19 39
       0.0030280726 -0.019159993 0.005722879 0.00014674265

weight f4 [32]
000000 16 3d 1f 3f 80 2c de 3e e1 61 95 3e 0a 28 9e 3e
       0.62202585 0.43393326 0.29176238 0.30889922
000010 19 0b d7 3e b9 9b bb 3e 71 76 b9 3e f5 33 71 3e
       0.42000654 0.36642244 0.36223176 0.23554976
000020 36 15 95 3e 9c 32 00 3f b7 cd 6f 3e 5d ae 73 3e
       0.29117745 0.50077224 0.23418318 0.23796983
000030 1b 1d d0 3e 83 1e c5 3e c5 c0 9a 3e e6 f8 85 3e
       0.40647206 0.3849984 0.30225196 0.26166457
000040 10 50 ae 3e 60 6d 86 3e f5 d5 80 3e 69 7b ab 3e
       0.34045458 0.26255322 0.25163236 0.33492592
000050 26 ed 9b 3e 9b e2 e5 3e 5e 67 d6 3e 65 ea 9a 3e
       0.30454367 0.4489945 0.41875738 0.30256954
000060 08 81 7a 3e 11 a4 8f 3e 15 31 a1 3e e0 cc 80 3e
       0.24463284 0.2805486 0.3148276 0.25156307
000070 34 90 7f 3e b5 2e d9 3e 47 04 a2 3e e9 7b 8c 3e
       0.24957353 0.42418447 0.31643888 0.27438286

bias f4 [32]
000000 3c 5f 8e 3b ec 03 8d bc f0 fe b3 bd 17 8b 5f bd
       0.004344849 -0.017213784 -0.0878886 -0.054576006
000010 ac 01 b1 3c cb 39 da bc 7a ef af 3c 80 2b 4e bd
       0.021607243 -0.026638886 0.021476496 -0.050334454
000020 2f 32 91 3c e4 0c fc 3a 6a a9 c0 bd fb c8 f5 bd
       0.017724125 0.0019229916 -0.09407313 -0.120012246
000030 9b 23 3e 3d 6f 41 79 bd 29 36 0b bc fe cd 5a bd
       0.046420675 -0.060853418 -0.0084967995 -0.053419106
000040 13 6b e0 bc d0 02 eb bc 7c 4c 86 bd 01 9f 52 3c
       -0.027394807 -0.028687865 -0.06557557 0.012855292
000050 e1 ba 84 b9 e4 35 11 bd 6d bf ff bc c5 de 43 bd
       -0.00025316238 -0.035451785 -0.031219209 -0.04781987
000060 c2 6e 2e bd ce 04 9c bd d8 f3 5d bc 3e f8 47 bd
       -0.042586096 -0.07618104 -0.013546906 -0.048820727
000070 a6 d7 ab bc a1 4a 84 bc 1f 5c e2 bb 80 34 67 bd
       -0.020976853 -0.016148867 -0.0069079543 -0.056446552

running_mean f4 [32]
000000 d1 bf c6 3c 70 30 ed bb 60 df 8c bd 15 fd 83 bd
       0.024261387 -0.00723844 -0.06878543 -0.06444756
000010 35 f6 b5 3e b7 50 bb bc ef 36 da bb 3c f1 c6 3c
       0.35539404 -0.022865636 -0.0066593806 0.024284951
000020 d8 94 5e 3e d0 c6 15 3d 2f c3 b9 3e 0f fc a8 3e
       0.21736467 0.036566556 0.36281726 0.33004805
000030 e0 c0 c6 bc b5 08 11 3e c6 62 61 bd 54 44 e4 3e
       -0.024261892 0.14163478 -0.05502584 0.4458338
000040 64 c3 a6 3c 2d e2 09 bd be 9a a2 bc 67 d9 0b 3d
       0.020356841 -0.033662964 -0.019849177 0.034142878
000050 12 bc ac 3e e9 9b 41 3c b9 35 a8 3e 53 f9 10 3d
       0.33737236 0.011816957 0.32853487 0.035394024
000060 c2 f0 aa 3d 11 46 90 3e 54 58 75 3a be 96 8e 3e
       0.08346702 0.28178456 0.000935917 0.27849382
000070 4e 6f 1b 3e 64 ba 2f 3d 2a 25 52 3d 25 56 8f bd
       0.15179178 0.042902365 0.051304974 -0.06998853

running_var f4 [32]
000000 d9 e0 09 3d bf b4 80 3c c5 40 f4 3d 58 8e db 3d
       0.033661697 0.015711186 0.11926416 0.10720509
000010 5d 8f 34 3e b7 fc f7 3d b0 d0 23 3c a3 3b 78 3d
       0.17632814 0.121087484 0.009998485 0.06060375
000020 d0 23 8e 3d 1b 1d d9 3c eb ed b1 3d f0 b2 9a 3d
       0.069404244 0.026503136 0.086879574 0.07553661
000030 e7 48 90 3c af 0f 93 3c 61 a4 0a 3c c4 03 16 3e
       0.017612888 0.017951814 0.008462043 0.14649874
000040 fa 61 fa 3b 74 46 cd 3d c1 6c fd 3d b7 1d 2c 3c
       0.0076410742 0.100232035 0.12374259 0.010505131
000050 03 2e 8d 3e 56 e1 96 3c ef bd 54 3e 70 71 f8 3b
       0.27574167 0.018417995 0.20775579 0.007581882
000060 e2 60 2b 3d 9a 73 9b 3d 2d d8 1d 3c 59 9d 81 3e
       0.04184044 0.075904086 0.00963406 0.2531536
000070 cd 2e f1 3d 3a 15 93 3c 3f f2 80 3c c7 ca 65 3d
       0.11776505 0.017954458 0.015740512 0.056101587

weight f4 [64, 35, 3, 3]
000000 ab c4 09 ba 5a 3e b6 b9 c4 9c 2c ba a0 9f 44 ba
       -0.0005255441 -0.000347602 -0.0006584639 -0.00075005926
000010 26 5c 21 ba 2f c8 42 ba b4 ea 09 ba cd 77 4c ba
       -0.0006155394 -0.00074303424 -0.0005261109 -0.0007799834
000020 84 99 06 ba 9a 18 14 3c c8 9c 0d 3c 12 65 0b 3c
       -0.000513457 0.009039069 0.008643337 0.008507984
000030 14 f8 0e 3c 1e ba 0b 3c a4 86 0f 3c 35 4e 0a 3c
       0.008726139 0.0085282605 0.008760128 0.008441498
000040 a3 2a 13 3c c3 07 14 3c 2b 8a 36 3d ff 9c 38 3d
       0.008982333 0.009035054 0.04456536 0.0450716
000050 75 b8 37 3d 7c 4e 37 3d 7a db 3b 3d e9 50 3e 3d
       0.044853646 0.044752583 0.045863606 0.04646388
000060 42 1b 34 3d c4 99 39 3d b9 0f 3e 3d bd 00 fb bc
       0.043971308 0.045312658 0.046401713 -0.03064
000070 ac 01 20 3a 26 4d e5 bc 09 c2 a8 bc fa 8a ea bb
       0.0006103765 -0.027990889 -0.020600336 -0.0071576806
000080 45 b5 d3 3c 82 e6 88 3c a0 2b 07 bc fa cb de 3c
       0.025843272 0.016711477 -0.008250147 0.027196873
000090 59 e4 2f 3d e9 45 c8 bc c4 21 10 bd 6e a8 17 3d
       0.04294238 -0.024447398 -0.03518845 0.03702586
0000a0 a9 37 74 3c 27 f9 ae 3c ff 42 c2 3b c6 e3 cb 3c
       0.014905849 0.02135904 0.0059283967 0.024888884
0000b0 95 9e 5e bd 8c 54 5b bc a8 11 25 bc 28 a2 bd bc
       -0.054350454 -0.013386857 -0.01007501 -0.023148611
0000c0 eb d8 67 bc d9 92 df bc f5 5b 2d bd 26 a0 b0 bc
       -0.014150838 -0.027291702 -0.042324025 -0.02156074
0000d0 ce 2f ec bc b0 85 00 bd 0b 54 bf bb 72 cb c3 bb
       -0.028831389 -0.031377494 -0.005838876 -0.0059751803
0000e0 43 d8 09 bc ec 3b 8f bc 89 2a 93 bc 99 4c 9f bc
       -0.008413377 -0.017484628 -0.017964618 -0.019445704
0000f0 b8 32 7a bb 91 15 2c bc 24 41 ac bc 12 2d 45 ba
       -0.0038177203 -0.010503189 -0.021027155 -0.00075216696
000100 0e 82 c4 3c 68 b2 b0 b8 5c 66 bb bb 14 4d d8 bb
       0.023987796 -8.425565e-05 -0.0057189893 -0.0066009853
000110 8f 31 26 bc b6 7a b6 3c b9 ad 3d bc 16 ae 41 bc
       -0.010143652 0.02227531 -0.011577063 -0.0118212905
000120 61 8c a5 bc d5 32 76 bc 18 84 d5 bc 34 4a 85 bc
       -0.02020854 -0.015026768 -0.026063964 -0.016270734
000130 37 f9 ad bc 0e 96 07 bd 41 66 1c bc 3d 83 dc bc
       -0.021236999 -0.033102088 -0.009545864 -0.026918048
000140 2d eb e8 bc ee 4a 21 bd a9 25 ef 3c 35 86 a3 bc
       -0.028432453 -0.0393781 0.029192762 -0.019961456
000150 d5 d0 39 bc f3 ee a9 bc 0d c8 72 bd 75 2d b3 3c
       -0.011341293 -0.020743823 -0.059272815 0.021872262
000160 7c a4 2a bb 98 86 db 3b 85 02 15 ba a9 30 08 ba
       -0.0026037982 0.0066993944 -0.00056842744 -0.0005195239
000170 32 4b 65 3b 12 2b 2e bb 09 40 43 bc 9f c9 26 bb
       0.0034987447 -0.0026575965 -0.011917123 -0.0025449765
000180 af 69 8d bb 75 81 4a 3b b8 a3 26 3b 07 71 fa 3b
       -0.004315577 0.0030899916 0.0025427174 0.0076428684
000190 a9 ef 4b bc f2 65 dd bb 48 4b 0f 3c 75 f4 85 ba
       -0.012447276 -0.0067565376 0.008745976 -0.0010219949
0001a0 49 0e 85 ba 52 a2 ea 3b 4b 63 23 3c fd 59 bf 3a
       -0.0010151352 0.0071604634 0.009972404 0.0014598962
0001b0 f4 d2 2a bc 30 16 a1 3c 86 da 4f 3c f9 d9 1b 3c
       -0.010426272 0.0196639 0.012686377 0.009512418
0001c0 70 c7 09 bd e7 58 4e bd f5 dd 31 3c 08 81 c9 bb
       -0.033637464 -0.050377753 0.010856141 -0.006149415
0001d0 1c ea d3 bc 7e bf af 3c 73 5d 1e 3d dd fe 78 3c
       -0.025868468 0.021453615 0.03866334 0.015197483
0001e0 24 e5 ba 3c 08 19 0e 3d 1a 9f 7e 3c 8e 2e fb 3b
       0.02281434 0.03469184 0.015540862 0.007665462
0001f0 46 b4 26 3c 09 15 09 3c 46 90 49 3c 35 20 b6 3c
       0.0101748165 0.008366832 0.012302464 0.022232154
000200 db ea ef 3b 6b 54 23 3c fb 04 84 3c 11 d7 57 3c
       0.007321698 0.009968857 0.016115656 0.013173834
000210 c1 8d e2 3b 2c 2c fd 3b 00 f3 a9 3c ea 4d b5 bb
       0.006913871 0.007726213 0.020745754 -0.0055329697
000220 9f e1 f7 3c 27 bf b8 bc cd c1 3d bc d2 17 8f bb
       0.030258952 -0.022552086 -0.01158185 -0.0043668533
000230 e3 fe 5a bd 57 de 8a 3c 06 25 05 bd bc 5b af bc
       -0.053465735 0.016951723 -0.03250601 -0.021406047
000240 a8 72 70 3c 26 c6 10 3d 3f 40 3b 3d 82 c2 50 bc
       0.014675774 0.03534522 0.045715567 -0.012741687
000250 4a d7 b0 bc 4d 2a e3 3c 82 fd d1 3c c6 a7 be 3c
       -0.021587033 0.027730132 0.025633577 0.02327336
000260 dd 85 37 bc 30 19 96 3c 4f e6 21 3d 10 81 52 3c
       -0.011201349 0.018322557 0.03952628 0.012848154
000270 f5 25 25 bd fc 40 cb 3c fd 26 58 bb e0 78 cc 3c
       -0.0403194 0.02481126 -0.0032982223 0.024959981
000280 e4 8a 96 bc 09 8d b7 bb a4 8f 1d 3d c1 ee 21 3d
       -0.018376775 -0.0056015295 0.038467064 0.039534334
000290 c1 59 50 3c ce b5 aa 3c 76 42 1d 3d fe 57 79 3c
       0.0127167115 0.020838644 0.03839346 0.015218733
0002a0 5d 15 9b 3c 50 23 6d 3c e9 fe a9 3c d2 c2 38 3d
       0.018931085 0.014473751 0.020751433 0.04510767
0002b0 58 1e 69 bb 22 f1 0d 3d 3a f4 c2 3b 08 2b da bc
       -0.0035571065 0.03465379 0.005949524 -0.026631847
0002c0 ae e4 07 bb 61 0f 10 bc 4e 7e e9 3c 07 d7 91 bc
       -0.002073567 -0.008792729 0.02850261 -0.017802728
0002d0 b4 28 41 bb 27 d3 c9 bb dd 1b 80 3b 5d 59 09 3b
       -0.0029473724 -0.0061592045 0.0039095716 0.0020957806
0002e0 43 fc 58 bb 17 1c e1 39 c3 a5 49 bb 2f 4f 3a bb
       -0.0033109344 0.00042936273 -0.0030768968 -0.0028428545
0002f0 b4 86 c7 3a bd 7a a2 3b d1 9e e2 bb c7 8b 12 bc
       0.001522264 0.004958479 -0.006915905 -0.008944458
000300 3f 3d 72 bc e0 b4 8d bc c8 9e 05 bd b6 31 ee bb
       -0.01478511 -0.017298162 -0.03262213 -0.0072691096
000310 e2 20 89 bc a1 53 c5 bc 65 e3 88 3a 3c b6 07 3d
       -0.016739313 -0.024087729 0.0010443745 0.033132777
000320 37 96 06 3c 11 2c 20 bc d1 18 7f 3b 9c fa c0 bc
       0.008214525 -0.009776131 0.0038924704 -0.023557
000330 25 be 6d 3c f9 53 14 3c ae 0c 6a 3c c4 e5 c1 3b
       0.014510666 0.009053224 0.01428525 0.005917283
000340 08 03 9f 3c a9 3d bf b9 6f 37 a8 bb 92 e9 1a 3c
       0.019410625 -0.000364763 -0.0051335613 0.009455102
000350 58 92 4d bb e9 a0 ac 3b 8a 1c 1b bc 07 81 49 bc
       -0.0031367745 0.0052682054 -0.009467253 -0.012298829
000360 b4 8f 14 3c 27 b3 51 3b 06 4f 53 bc bf f0 c3 bc
       0.009067465 0.0031997652 -0.012897259 -0.023918508
000370 ce b1 18 bc 2e 6e 49 3c c9 90 57 3c 18 85 80 bb
       -0.009319736 0.012294335 0.013157078 -0.003922116
000380 ab 83 9c 3c 95 f4 b4 3c 0d cc e3 3c c6 2c df 3b
       0.019105753 0.022089282 0.02780726 0.0068107573
000390 94 e3 b1 3b cc 40 a5 3c c6 45 b1 3c d8 25 ce 3c
       0.0054287408 0.0201725 0.021639716 0.02516453
0003a0 cc 01 76 b9 d3 5c 79 3c ea 41 8f 3b 9b 26 ea 3b
       -0.00023461058 0.015219885 0.0043718712 0.0071457154
0003b0 7b 40 37 3d 3a 5a dc bc a1 49 c6 bc 05 c5 d8 3b
       0.044739228 -0.026898492 -0.02420503 0.0066152834
0003c0 51 98 0e bc 0b ce 0d bc 2a b9 4d bc d1 02 eb ba
       -0.008703307 -0.0086550815 -0.012556354 -0.0017929917
0003d0 1a 5b a6 3b 58 53 48 3c 11 d9 66 bc 00 5e 76 bc
       0.005076778 0.012226902 -0.014089839 -0.01503706
0003e0 b9 72 9f 3c d4 f9 39 bb c1 7c 99 bb d1 4e ce bb
       0.019463884 -0.002837767 -0.0046840613 -0.0062960167
0003f0 d2 e7 b2 bb 99 48 2c 3d 18 c9 e9 3c f1 03 c7 3b
       -0.005459764 0.042061422 0.028538272 0.006073468

bias f4 [64]
000000 3c 2e 79 3a 71 81 0a 3b 03 99 d5 bb 2c 48 f5 b9
       0.00095054857 0.0021134282 -0.0065184846 -0.00046783814
000010 4d 97 9f 3a 28 de 1e 3c ac d5 3f 3a 7e 25 9d b8
       0.0012175828 0.009696521 0.00073179114 -7.493327e-05
000020 4e d0 b2 39 5b cd c3 bb de 99 20 bb f9 ab 44 3a
       0.00034106005 -0.005975408 -0.0024505774 0.00075024326
000030 ca dc af ba 38 63 39 bb 3a 97 25 bb 25 b4 d0 bb
       -0.0013417241 -0.0028287899 -0.002526714 -0.006369131
000040 9c 89 f1 38 75 90 90 3b 6d 84 e0 3b 91 4c 7f 3b
       0.00011517407 0.004411752 0.006851724 0.003895555
000050 1a 04 ec bb 12 3d b4 ba 63 53 97 b9 b6 b0 fc 3b
       -0.0072026374 -0.001375111 -0.00028863092 0.0077114953
000060 05 35 fb 3a 8d 37 c5 3b 83 c0 b4 bb 97 12 8e ba
       0.0019165581 0.006018585 -0.0055161132 -0.001083928
000070 96 e2 c0 3a ec 01 15 3c 3a 96 94 ba 39 dc d0 ba
       0.0014715965 0.0090946965 -0.0011336275 -0.0015934772
000080 a3 35 c9 bb b9 13 08 bc b8 e3 a8 ba 7b 15 40 b8
       -0.006140427 -0.0083054835 -0.0012885248 -4.5796372e-05
000090 2b 3a 0d 3b eb 08 35 3b f4 2d a6 3a d4 07 0b bb
       0.0021549563 0.0027623724 0.001267849 -0.0021214383
0000a0 35 cc cc 3a 61 60 13 bb 07 7e fd bb cc 38 9f bb
       0.0015624823 -0.0022487866 -0.007735971 -0.0048590656
0000b0 22 bf cd b8 ed b1 bf ba f3 71 a3 ba 78 a7 94 3b
       -9.810763e-05 -0.001462517 -0.0012469873 0.0045365654
0000c0 36 da ba 3a ee 9e 12 ba 87 6c a6 3b 1f 18 93 b9
       0.0014255706 -0.00055931404 0.0050788554 -0.00028055997
0000d0 cf c4 36 3c bb ed f8 ba a0 17 5a bb 3b da a4 ba
       0.011155321 -0.0018991748 -0.0033278242 -0.0012577245
0000e0 0e ca dd 3a 7f 7c ef ba a3 89 78 bb 84 ab 3d 3c
       0.0016921179 -0.0018271356 -0.0037923835 0.011576537
0000f0 98 33 99 b9 64 14 f8 39 f9 0e 52 3b 18 d4 6e 3a
       -0.00029220874 0.00047317438 0.0032052381 0.0009110584

weight f4 [64]
000000 8e 40 72 3e 2b ad 38 3e 45 61 9a 3e 6c 1d 82 3e
       0.23657438 0.18034808 0.30152336 0.25413072
000010 f2 98 7a 3e bf 8e ab 3e 8c ce e7 3e 65 ed 88 3e
       0.24472407 0.33507344 0.4527477 0.26743618
000020 42 c8 c6 3e 74 7e 87 3e e8 1d c7 3e d8 b4 a6 3e
       0.3882466 0.26463664 0.38890004 0.32559848
000030 73 0f 83 3e 81 2b bc 3e 7b 46 95 3e a4 42 87 3e
       0.25597724 0.3675194 0.29155335 0.2641803
000040 a4 1f 73 3e e9 7f 8d 3e ae 79 89 3e 6a e1 a0 3e
       0.23742539 0.2763665 0.26850647 0.31421977
000050 6a 71 c2 3e d2 6a 76 3e 95 f6 74 3e f8 ed 89 3e
       0.37977153 0.24064186 0.23922189 0.26939368
000060 69 86 9d 3e 1b 79 70 3e 7f 8b 11 3f d9 5f 49 3e
       0.3076661 0.23483698 0.5685348 0.19665469
000070 84 31 a6 3e 14 8e b7 3e d1 d5 35 3e da 4d 71 3e
       0.32459652 0.35850585 0.17757346 0.23564854
000080 9d 65 87 3e bc 99 be 3e 04 a4 73 3e 7c 7c 8b 3e
       0.26444712 0.37226665 0.23793036 0.27243412
000090 75 55 af 3e b5 41 84 3e ab d2 83 3e ea 30 91 3e
       0.34244886 0.2583138 0.25746664 0.2835763
0000a0 81 ef f2 3e 50 ea ab 3e ad 15 97 3e f7 9f 80 3e
       0.47448352 0.33577204 0.29508725 0.25122043
0000b0 c0 4f 62 3e 1c 97 81 3e 98 71 76 3e b8 9d b3 3e
       0.22100735 0.253106 0.2406677 0.35081267
0000c0 a4 89 84 3e f8 2c 93 3e 9d 46 ba 3e 47 82 7d 3e
       0.2588626 0.28745246 0.36382 0.24756728
0000d0 48 c4 c8 3e 23 fa 99 3e e0 90 9f 3e c9 2a 3c 3e
       0.3921225 0.30073652 0.31165218 0.18375696
0000e0 f6 b6 a0 3e 73 11 90 3e 14 bf b2 3e 45 ae e3 3e
       0.31389588 0.28138313 0.34911406 0.44468895
0000f0 db fa 91 3e b4 77 9f 3e 82 c9 93 3e a9 4c 9b 3e
       0.285117 0.31146014 0.28864676 0.30331925

bias f4 [64]
000000 27 3c a6 bd 94 c1 af bd fa 63 f1 3c 66 a0 9a bd
       -0.08116942 -0.08581844 0.029466618 -0.07550125
000010 9a d6 90 bd aa 86 58 bd 07 ad a3 bd df 1a 9c 3b
       -0.07072182 -0.0528628 -0.07991987 0.0047639455
000020 f6 4d d0 bd b2 49 88 bd 39 b1 2c bd de b4 25 bd
       -0.1017112 -0.06654681 -0.0421612 -0.04045569
000030 54 8c 5e bd 7b d0 3a bc 9c a3 82 bd 8c 8d 7d bd
       -0.054333046 -0.011402245 -0.06378862 -0.061902568
000040 a7 d2 8e bd a3 12 2c 3d 09 46 31 bd c7 35 d2 ba
       -0.069737725 0.04200996 -0.04327968 -0.0016037755
000050 21 32 3e bc bf 5a 5f bd 02 41 7b bd aa e1 2b 3d
       -0.011608631 -0.0545299 -0.061341293 0.041963257
000060 87 f2 83 ba 75 f6 8d bd bd 80 63 bd 0d 82 95 bd
       -0.0010066786 -0.069317736 -0.055542696 -0.07300196
000070 4b a2 2b bd 6d 52 90 bc ef b6 a5 bd 2b 65 99 bd
       -0.04190282 -0.017617429 -0.080915324 -0.074899994
000080 84 61 ff bc bf 35 7b bd 8d 15 8c bd 61 d8 97 bd
       -0.031174429 -0.061330553 -0.06840048 -0.07414318
000090 2f f4 15 3d c3 70 02 bd b2 25 81 bd e0 cf b6 bc
       0.036609825 -0.03184582 -0.06306018 -0.02231592
0000a0 c0 a3 f8 bc eb 8a 8e bd e0 b8 bf 3a 16 02 34 3c
       -0.03035152 -0.0696009 0.0014627241 0.010986825
0000b0 24 59 29 bd 38 ac 87 bd 2d 50 ab bd 35 98 e0 bc
       -0.041344777 -0.06624645 -0.08364902 -0.027416328
0000c0 3d 8b 53 bc 05 c8 70 bd 41 76 d3 ba 88 58 83 bd
       -0.012911615 -0.058784503 -0.0016133265 -0.0641337
0000d0 64 a7 4a 3b 7b 8e 66 bd bd 2b c0 bc 9f ab a2 bd
       0.0030922526 -0.056288224 -0.023458356 -0.079428904
0000e0 a9 71 5b bd 6d b4 48 bd 31 d1 2b bd 3e 07 c8 3c
       -0.05357519 -0.049000192 -0.041947547 0.024417516
0000f0 9e f6 52 bd b6 85 8a bd 21 1d 89 bc 01 89 6a bd
       -0.051504724 -0.067637846 -0.016737523 -0.057259563

running_mean f4 [64]
000000 6c 65 84 3e 70 ae 56 be a8 96 ec bd 13 61 65 3e
       0.2585863 -0.2096498 -0.11552173 0.22400312
000010 48 9c 7e 3d 30 4f 31 bd 1c 0f c1 3a 9d f8 27 bd
       0.06216076 -0.04328841 0.0014729234 -0.04100858
000020 f1 bd 27 3e 78 11 ca bc fb 93 f2 3d 45 3b 03 3e
       0.1638105 -0.024666533 0.11844631 0.12815578
000030 24 f6 d6 bd 11 4d 0e ba 43 d9 df 3d 58 c7 2b 3e
       -0.10496166 -0.0005428354 0.10930111 0.16775262
000040 a3 aa 82 3d 48 6b 09 3d 55 34 d8 3d bd 6b 80 bd
       0.063802026 0.033549577 0.105568565 -0.062705494
000050 5e 10 e6 3b 45 d8 6a 3c fb 37 15 3d a5 e5 ba bd
       0.007020994 0.014333789 0.03643034 -0.091258325
000060 2b 2f 18 3c 8b bd 44 be 0e 28 71 3d 95 da ea bd
       0.0092885895 -0.1921293 0.05887609 -0.114674725
000070 53 90 45 bd eb b6 9c 3d a8 0d 63 be 2c 23 63 3e
       -0.04823334 0.07652076 -0.22173178 0.22181386
000080 08 87 b4 3d 49 d8 3e 3e e1 85 fd 3d 54 0a a6 3d
       0.08814818 0.18637194 0.12379051 0.08107439
000090 78 86 88 bb 69 0c 4e 3e 5e 29 6a 3e 0a 7f 9a 3c
       -0.0041664205 0.20121922 0.22867343 0.018859405
0000a0 2f 92 68 3d 9a 36 2a 3e 93 95 20 bd c4 d8 a9 bd
       0.056780037 0.16622391 -0.039205145 -0.08293298
0000b0 72 70 87 bd 8b b9 ad 3e d9 9f 1d be 76 f3 36 bd
       -0.06613244 0.3393062 -0.15393008 -0.044665776
0000c0 f9 90 7a bd 04 88 70 3d e2 c3 38 3d 12 d9 c9 b9
       -0.061173413 0.058723465 0.045108683 -0.00038499438
0000d0 df ad 88 3d b9 bc 84 bd 25 a1 6a bb 07 5c 0a 3e
       0.06673788 -0.064813085 -0.0035801616 0.13511668
0000e0 f0 28 97 3c 47 f6 a8 3c 18 0e 20 bd a4 bb af 3d
       0.018452138 0.020625247 -0.03907594 0.085807115
0000f0 6a 41 1d 3e ea 72 f3 3c c8 d1 31 bd 3b 96 be bd
       0.15356985 0.029717881 -0.043412954 -0.09305998

running_var f4 [64]
000000 64 11 36 3d 63 be bc 3d 88 1f 29 3d 52 07 09 3d
       0.04445018 0.09216001 0.041289836 0.033454247
000010 f6 79 24 3c 09 96 e9 3c e6 bc 24 3d 9a a4 60 3d
       0.010038843 0.028513925 0.04021921 0.054844476
000020 06 5d 14 3d be c2 39 3c 3d 33 20 3d 78 37 f7 3c
       0.036221527 0.011337934 0.039111365 0.030177817
000030 60 97 e6 3d 26 1f ca 3c 55 c6 c1 3c 3c db 1f 3d
       0.11259341 0.024673056 0.023654142 0.039027438
000040 8b e4 82 3d 6e 43 f6 3c 41 8c 17 3d 1c 05 ef 3c
       0.06391247 0.03006145 0.03699899 0.029177241
000050 9c 2b cf 3c bf db d3 3c f7 45 0d 3c b8 c5 26 3d
       0.02528935 0.025861619 0.008622638 0.040715903
000060 3d df 98 3c d7 05 d6 3d 2e cb 42 3d ad 35 7f 3d
       0.018661136 0.104503326 0.04755705 0.06230705
000070 32 7a ff 3c e7 8d 0f 3d 1c 06 7b 3d 0b 39 f0 3c
       0.031186197 0.035047438 0.061285123 0.029324075
000080 69 a0 d5 3c 06 68 2d 3d 8d c9 9b 3c ab 04 43 3d
       0.026077466 0.042335533 0.019017005 0.047611874
000090 c2 35 c7 3c ab 29 7e 3d f7 d4 4a 3d 04 a2 27 3d
       0.024317626 0.062051456 0.049519505 0.040925995
0000a0 95 28 0e 3d a7 1d d7 3c cf 3e 17 3d 63 34 a5 3d
       0.03470667 0.026259257 0.036925133 0.080666326
0000b0 8c f8 9b 3d 94 b5 9b 3d ef 0e 5f 3d dc b2 74 3c
       0.07615766 0.07602993 0.0544576 0.0149352215
0000c0 c0 49 db 3d dd 22 a5 3d 9d 22 f4 3c 11 7a 96 3c
       0.10707426 0.0806329 0.029801661 0.018368753
0000d0 70 7c 07 3d 02 64 3a 3d 98 50 f4 3c 8b 7f 23 3d
       0.033077657 0.04550553 0.029823586 0.039916556
0000e0 a7 ca a0 3c 61 ae 13 3e 7d 93 f4 3c e5 cb 00 3d
       0.019627882 0.14421989 0.029855484 0.03144445
0000f0 49 4f 38 3d 02 f8 c4 3c fb 0e b3 3c fd 2b a5 3c
       0.044997487 0.02404404 0.02185773 0.020162577

weight f4 [64, 67, 3, 3]
000000 2f cd db 3a 5a 57 e2 3a 17 81 b9 3a f5 60 d6 3a
       0.0016769523 0.0017268464 0.0014152852 0.00163558
000010 c3 63 f1 3a e2 06 a4 3a 39 9f cf 3a 52 fa d1 3a
       0.0018416572 0.0012514258 0.0015840299 0.0016020036
000020 05 78 0f 3b d6 41 b6 bb 0a de b1 bb d1 51 62 bb
       0.0021891606 -0.0055620475 -0.0054280804 -0.003453363
000030 fb 51 b8 bb 52 17 6e bb 42 08 95 bb 78 1b b5 bb
       -0.005625007 -0.0036329818 -0.0045481035 -0.005526956
000040 63 94 9f bb e6 30 95 bb a2 90 e6 3b 48 c4 04 3c
       -0.004869984 -0.0045529483 0.0070362845 0.008103438
000050 69 52 0b 3c 75 f9 fb 3b a1 e7 01 3c 3f fd ed 3b
       0.008503535 0.0076896497 0.00792876 0.0072628553
000060 bc 0d 1f 3c 93 24 13 3c ea 44 fb 3b b1 20 be bb
       0.009707864 0.008980888 0.0076681273 -0.005802237
000070 1d 6c 50 3c f6 f5 5c bc 03 d2 09 3c 78 21 f5 3b
       0.012721089 -0.013486376 0.008411887 0.0074807964
000080 7f 71 4a 39 17 fb a8 3c fd 1d 50 3c dc f7 9d 3c
       0.00019306502 0.020627541 0.012702462 0.019283228
000090 9d b2 89 bc e1 18 c9 bb 09 b8 26 bc 95 7e e8 bb
       -0.016808802 -0.006136999 -0.010175713 -0.007095168
0000a0 e0 36 ec bb 40 01 0d bb bf ee 3e 3a 33 24 38 bb
       -0.00720869 -0.0021515638 0.0007283501 -0.0028097748
0000b0 fe 3d 11 bc ac 71 a4 3a 66 29 bd 3c 64 7c cc bc
       -0.008864878 0.0012546084 0.02309103 -0.024961658
0000c0 c7 4e 4f 3b a7 1e c4 bc 7c 40 56 bc 10 16 b0 3c
       0.0031632648 -0.023940397 -0.013076898 0.021494895
0000d0 f5 5c 1a 3c db cb b6 bc d8 23 53 3c cc 63 3e 3c
       0.009421577 -0.022314003 0.012886964 0.011620473
0000e0 81 16 3e 3b e8 44 8a 3c 0c 8f 59 bb b6 45 0b 3a
       0.0029005113 0.01687856 -0.0033196835 0.0005312817
0000f0 40 bc c0 3c b7 c1 87 bc 35 d9 ac bc 7c f7 86 bc
       0.023527265 -0.016571863 -0.021099666 -0.016475432
000100 28 f4 84 3c fc c2 1b bc 94 48 00 3c d6 b2 b3 bc
       0.016229704 -0.009506937 0.007829804 -0.021935862
000110 c5 2f 33 3c 52 2d 0f 3d 31 ed cc 3c 08 45 0d 3c
       0.010936682 0.03495533 0.025015445 0.008622415
000120 7d d5 87 bc 7a 0d 8d bc c2 87 41 bb 18 f2 35 bc
       -0.016581291 -0.01721834 -0.002953038 -0.011105083
000130 64 5f ff bc ef 57 d3 3b 3f 8d e2 3c f2 79 39 3c
       -0.031173415 0.0064496915 0.027655242 0.011320578
000140 2b f0 ba bc 21 29 5c 3c 15 e4 c8 bb d9 c4 b6 3a
       -0.0228196 0.01343754 -0.006130705 0.0013944163
000150 00 30 ec 3b bc 58 e7 bb 99 f6 8b bc 76 97 ef ba
       0.0072078705 -0.0070601385 -0.01708536 -0.0018279392
000160 29 f3 13 bc a9 c3 c0 bc fc 8d df 38 d3 a1 d8 3c
       -0.009030142 -0.023530798 0.00010659915 0.026444351
000170 b9 78 bb 3c fe 80 5e 3c 0c d9 96 3c d4 0b bb bc
       0.022884713 0.013580559 0.018414043 -0.022832789
000180 80 f6 07 3d 96 cb f6 ba a5 11 84 3b a0 78 8d 3c
       0.033194065 -0.0018828984 0.0040304237 0.017269433
000190 05 50 81 bb 74 27 47 3a 8a 00 50 3c ad 61 39 bc
       -0.0039463066 0.00075971265 0.012695441 -0.011314792
0001a0 cc 69 d9 bb 82 a8 98 bb 0c 8d a4 3c 28 79 04 bc
       -0.0066349264 -0.0046587596 0.020086788 -0.0080855265
0001b0 39 28 d1 bc e0 32 3b 3c b5 7d ec bc 6b f5 82 39
       -0.025531875 0.011425704 -0.028868536 0.00024978383
0001c0 a0 f5 d0 3b b8 a8 60 bc 6f af 89 3c d1 78 30 3a
       0.006376937 -0.013712101 0.016807286 0.000673187
0001d0 d7 72 2d bd 85 a6 97 3b d1 8a b0 bc 7a a8 c3 3b
       -0.042345848 0.004628005 -0.021550568 0.0059710117
0001e0 42 e9 06 bc d4 8b 2f b9 23 45 72 bc 00 ca 99 3c
       -0.008234324 -0.0001674139 -0.014786991 0.018773079
0001f0 65 ec 46 bd 3b 40 f4 bc 1e 36 85 3c d2 f9 c7 b9
       -0.048565287 -0.029815784 0.016261157 -0.00038142368
000200 ad 6a 44 bc 17 b6 12 bd 48 fd 7c bc aa 7a 90 bc
       -0.011988324 -0.035818186 -0.015441246 -0.017636616
000210 e9 29 d6 3c 36 72 07 bc ac c5 27 bd 4e 98 9e bc
       0.026143031 -0.008266976 -0.04096 -0.019359734
000220 e0 c7 56 bb 54 5f 6f bc ba 38 fe bb 88 a0 80 3b
       -0.0032772943 -0.01461013 -0.007758227 0.003925387
000230 ce 63 cd bb 5a 4b 2e bc c5 3a 0d 3c 59 dc 76 bc
       -0.006268001 -0.010638082 0.008619969 -0.015067183
000240 19 2c 2b 3c 2d 66 72 bd c2 37 b9 3c 93 86 95 bc
       0.010447525 -0.059179474 0.022609595 -0.018252647
000250 09 07 24 bc 2d c4 09 3c 71 81 2f bd bb 4a dc bb
       -0.010011443 0.008408588 -0.042848054 -0.0067227758
000260 fc 6e 3f bd 91 09 fd bc 98 08 6d 3c 95 a4 fd bc
       -0.046736702 -0.03088835 0.014467381 -0.030962268
000270 55 1f 0a 3c 32 53 2d 3c a7 da 85 3b 60 62 61 bc
       0.008430322 0.010578917 0.0040849033 -0.013756365
000280 6e 05 4c ba 25 6b 74 3c 2f 6e 05 3c 2a 56 60 3c
       -0.00077827915 0.014918123 0.008143946 0.013692418
000290 b1 33 57 bb 04 5a aa 3c 10 47 38 3b 6f 45 8e 3c
       -0.0032837207 0.020794876 0.0028118528 0.017367093
0002a0 99 01 e9 3c 3d 68 67 3c 3e fb 66 3b 59 32 8b ba
       0.028443145 0.014123973 0.0035244967 -0.0010619863
0002b0 15 d1 b7 3a e0 dd c6 bb d3 78 06 bc c3 ae 05 3c
       0.0014024103 -0.00606893 -0.008207518 0.008159342
0002c0 c5 69 95 3b 93 af a9 bc 71 38 70 3c a1 a3 aa bb
       0.004559728 -0.020713603 0.014661894 -0.0052074944
0002d0 0f 62 ba bc 19 3c d6 3c 3b 1a 19 3c da 0b 8a 3c
       -0.022751836 0.026151704 0.009344633 0.016851354
0002e0 94 9d a9 3b 55 14 eb bc 6c 99 2e 3d f2 ef e3 3c
       0.0051762555 -0.028696219 0.042626783 0.027824376
0002f0 e2 4a da 3a 20 91 ab 3c 2c 8f 16 bc df 01 88 3c
       0.0016654397 0.020943224 -0.009189408 0.016602455
000300 06 73 b2 3b 78 d8 3c 3c a9 0a df 3a 81 5b b4 3c
       0.005445841 0.01152622 0.0017016727 0.022016289
000310 b4 d7 50 bd b8 c0 fc bc a8 14 6e 3c 03 5f 5d bc
       -0.05098696 -0.030853614 0.014531292 -0.013511422
000320 dd 04 bb bc 24 20 a9 bc 7e b8 6b bc dd 8b 71 bb
       -0.022829467 -0.020645209 -0.014387248 -0.0036857047
000330 c6 3e cc bc 7a fa 0f bd 1e 25 a1 bc de 8b b0 bb
       -0.024932276 -0.035150982 -0.01967102 -0.005387767
000340 7f 80 f6 bc ae 9c 30 bd 6e 7a 42 bc 0c a5 18 bd
       -0.030090569 -0.04311817 -0.01187001 -0.037266776
000350 28 30 d5 b9 42 d9 21 bd b3 cc 15 bd d1 70 7e bc
       -0.00040662405 -0.039513834 -0.03657217 -0.015529827
000360 19 7f f0 bb cf b4 95 3c 3a f1 1c bc eb c7 1f 3d
       -0.00733937 0.018274693 -0.009578997 0.039009016
000370 26 48 b9 bb 45 df ef bc 41 fd 71 bb b4 1c 24 bc
       -0.0056543527 -0.029281268 -0.0036924633 -0.010016609
000380 10 bd ac bc ed 54 f0 3c cb 4a 9e bc 98 b3 7b bb
       -0.021086246 0.02933737 -0.019322773 -0.0038406607
000390 6e 2d b9 3c 88 65 6b bc f6 32 18 3c b0 83 c2 3c
       0.02260467 -0.014367469 0.009289494 0.023744434
0003a0 fa e0 47 3d 0c c3 88 3b ee 3f b5 3c 5d c8 02 bd
       0.04879854 0.004173642 0.02212521 -0.031929363
0003b0 6b f5 a4 b9 bc 3a 97 bb 52 52 3f bb 4a 25 e4 bc
       -0.00031463368 -0.004615156 -0.0029193354 -0.027849812
0003c0 d2 34 19 3d bd a5 29 bd f7 99 94 bc 7b 2a 06 bd
       0.03740389 -0.041417826 -0.018139822 -0.032755356
0003d0 43 1a 09 3c 98 cc 2d bc 25 3c 21 3d 0d 11 e3 bb
       0.008368078 -0.010607861 0.039364 -0.006929523
0003e0 36 6a 97 bc 4e 54 0c bd 81 a9 16 3d f7 7c 9f b9
       -0.018483263 -0.034260087 0.036782745 -0.0003041995
0003f0 24 46 ac bc 79 de c2 bc d1 56 3b bc cc ec a3 bc
       -0.02102954 -0.023787724 -0.011434273 -0.020010374

bias f4 [64]
000000 5a 39 4a b9 5c 03 ef 3b 8a d2 66 bb a2 64 9a bb
       -0.00019285586 0.0072941016 -0.0035220706 -0.0047117034
000010 3a 86 74 ba fb 51 6d 3b d4 37 47 3b 8a e8 0b 3a
       -0.00093278626 0.0036212194 0.0030398266 0.000533708
000020 e1 9b 94 ba 9f 4d 09 3b 6d c6 0f 3b a1 90 72 3a
       -0.001133796 0.0020950807 0.002193834 0.0009253119
000030 c2 87 de ba 80 d6 94 3b a8 0e 1a 3b 66 25 64 bb
       -0.0016977715 0.004542172 0.002350727 -0.003481233
000040 03 dc c5 3b db 5d 3b 3c e3 07 ba bb c0 c4 85 3a
       0.0060381903 0.011435951 -0.0056772097 0.0010205731
000050 68 d6 2a bc b9 8c e9 bb 43 a5 b3 bb 43 af ab b9
       -0.010427095 -0.007127371 -0.005482347 -0.00032746242
000060 b1 fa 86 bb 31 b4 54 3c 2d 01 39 3b a6 26 18 3a
       -0.00411924 0.012982414 0.002822946 0.0005804099
000070 a6 98 4b 3b f6 85 e1 bb ef f0 d8 3b 18 57 c6 bc
       0.0031066327 -0.0068824245 0.0066205184 -0.024211451
000080 f8 af 50 3b 8e 52 1f 3c 91 0d b5 bb 96 9f 4a 3b
       0.0031843167 0.009724272 -0.005525299 0.0030917875
000090 1f c9 d4 3a 7e 2a 1c 3b d2 f3 6c ba db 3e b5 3b
       0.0016234255 0.0023829038 -0.00090390176 0.0055311746
0000a0 b8 da a7 bb bb 6c 52 3b 8c dc 5c bb 0f e0 a2 bb
       -0.005122509 0.0032108265 -0.0033700792 -0.0049705575
0000b0 36 82 12 bb 85 4e eb ba c1 91 8f ba b5 ff 58 b9
       -0.0022355444 -0.0017952478 -0.0010953472 -0.00020694624
0000c0 ff 35 a2 3b dc 48 5f ba 11 cb 1c bc 57 7b e3 3b
       0.0049502845 -0.0008517632 -0.009569899 0.0069421935
0000d0 5d 9e 86 3b 1c d1 cc 39 d6 e5 1c bb 79 1e 00 3a
       0.004108234 0.0003906571 -0.0023940704 0.0004887353
0000e0 b2 db b6 37 6a 3d 3f bc ce e4 1d 3b e0 e3 59 3b
       2.1798394e-05 -0.011672357 0.0024092677 0.0033247396
0000f0 6a 6d 30 3c 4a ed a3 bb b1 7c 3d bb f6 32 67 3b
       0.010768274 -0.0050026523 -0.0028913433 0.0035278178

weight f4 [64]
000000 84 35 89 3e 3f 7b b2 3e c9 dc 94 3e 57 e9 83 3e
       0.26798642 0.34859654 0.29074696 0.25763962
000010 ca 8f 7f 3e 08 84 99 3e 60 66 95 3e 46 7f 89 3e
       0.24957195 0.29983544 0.29179668 0.26854914
000020 0d 5d f2 3e b4 a0 7c 3e 68 e2 a1 3e b7 a1 8a 3e
       0.47336617 0.24670678 0.31618047 0.27076504
000030 64 3e 86 3e a5 a4 8d 3e 54 80 a1 3e cb 20 f6 3e
       0.26219475 0.27664676 0.3154322 0.48071894
000040 ad b1 a3 3e 86 79 95 3e 9d 77 e7 3e 2c bd 8f 3e
       0.31971493 0.29194278 0.45208445 0.28074014
000050 75 cb e2 3e ac 0b b6 3e aa 57 0c 3f 5a e6 ae 3e
       0.4429585 0.3555578 0.54821265 0.3416012
000060 6d 52 9f 3e 50 82 e7 3e a4 d1 95 3e e7 a3 c1 3e
       0.31117573 0.45216608 0.29261506 0.3782036
000070 03 3f 99 3e a3 26 d8 3e 91 88 99 3e 6e 73 a0 3e
       0.29930887 0.42216977 0.29987004 0.31338066
000080 db 03 a1 3e f8 0e b0 3e 3a 6e 12 3f f4 bb d6 3e
       0.31448254 0.3438642 0.5719944 0.41940272
000090 4e e6 93 3e 43 09 6d 3e 5b 1f 9e 3e a1 07 e0 3e
       0.28886646 0.23148064 0.30883297 0.4375582
0000a0 7f 35 cc 3e 23 03 b2 3e 26 e6 94 3e d9 8f c9 3e
       0.39884564 0.34768018 0.2908184 0.3936756
0000b0 f5 02 99 3e f5 0c 5f 3e 28 12 6b 3e a6 b1 a1 3e
       0.2988507 0.21782286 0.22956145 0.31580848
0000c0 99 76 b6 3e 05 f1 a2 3e da 80 c6 3e b2 6d b1 3e
       0.35637358 0.31824508 0.3877018 0.34654003
0000d0 04 6f e1 3e 1e 7c a7 3e da 7c a1 3e f8 b2 9a 3e
       0.4403001 0.3271188 0.31540567 0.30214667
0000e0 24 c0 c7 3e f7 ae c6 3e bb 43 8b 3e d7 c8 98 3e
       0.3901378 0.38805363 0.27200112 0.2984073
0000f0 36 37 bd 3e 88 30 c2 3e 19 ef af 3e 82 43 84 3e
       0.36956185 0.3792765 0.34362105 0.25832754
