SND_trackers_My_data/9X0_file/29_9X0_coordconv_smooth_l1.pt (torch_old, 322099 bytes, 25 tensors)

weight f4 [32, 7, 3, 3]
000000 65 02 00 80 dd 06 00 80 63 04 00 80 a0 08 00 80
       -8.59e-43 -2.462e-42 -1.574e-42 -3.094e-42
000010 cf 03 00 80 31 00 00 00 24 03 00 80 6c 02 00 00
       -1.366e-42 6.9e-44 -1.127e-42 8.69e-43
000020 1c 03 00 80 6f 04 00 80 27 05 00 80 84 03 00 00
       -1.115e-42 -1.59e-42 -1.848e-42 1.261e-42
000030 e5 02 00 00 e1 07 00 00 18 07 00 80 7e 0a 00 80
       1.038e-42 2.826e-42 -2.545e-42 -3.764e-42
000040 9a 05 00 00 a0 05 00 80 c1 04 00 00 b4 b2 b7 9a
       2.01e-42 -2.018e-42 1.705e-42 -7.5975737e-23
000050 5b 0c 00 00 cf 09 00 00 38 0d 00 00 c0 04 00 80
       4.432e-42 3.519e-42 4.742e-42 -1.704e-42
000060 97 0b 00 00 e8 0d 00 00 e4 16 00 00 74 00 00 00
       4.158e-42 4.989e-42 8.212e-42 1.63e-43
000070 c2 01 00 00 ef 01 00 80 2b 02 00 00 b0 00 00 80
       6.3e-43 -6.94e-43 7.78e-43 -2.47e-43
000080 9b 01 00 00 48 00 00 00 a4 01 00 80 32 00 00 80
       5.76e-43 1.01e-43 -5.89e-43 -7e-44
000090 6f 00 00 00 41 00 00 80 06 02 00 80 28 01 00 00
       1.56e-43 -9.1e-44 -7.26e-43 4.15e-43
0000a0 c3 01 00 00 b3 00 00 80 d8 00 00 00 14 02 00 00
       6.32e-43 -2.51e-43 3.03e-43 7.45e-43
0000b0 68 00 00 00 2b 02 00 80 b8 03 00 80 88 04 00 00
       1.46e-43 -7.78e-43 -1.334e-42 1.626e-42
0000c0 db 02 00 00 d4 00 00 80 79 04 00 00 ac 01 00 80
       1.024e-42 -2.97e-43 1.604e-42 -6e-43
0000d0 b2 01 00 00 96 02 00 80 2d 01 00 00 43 0e 00 00
       6.08e-43 -9.28e-43 4.22e-43 5.116e-42
0000e0 17 05 00 80 d4 0e 00 80 4b 07 00 00 08 0c 00 80
       -1.826e-42 -5.32e-42 2.616e-42 -4.316e-42
0000f0 ad 0f 00 00 32 03 00 00 4c 04 00 80 ca 9f 00 bd
       5.623e-42 1.146e-42 -1.541e-42 -0.031402387
000100 05 a0 00 bd c8 9f 00 bd e4 84 8b 3c ce 84 8b 3c
       -0.031402607 -0.03140238 0.01703114 0.0170311
000110 b8 84 8b 3c a7 1f a8 3c a1 1f a8 3c 8e 1f a8 3c
       0.017031059 0.020522906 0.020522894 0.020522859
000120 0a 6b 1c 3d 67 42 dc 3a ac 16 cc 3c 07 6b 1c 3d
       0.038188018 0.0016804457 0.024913155 0.038188007
000130 a6 42 dc 3a b7 16 cc 3c 0c 6b 1c 3d 94 42 dc 3a
       0.0016804531 0.024913175 0.038188025 0.001680451
000140 bc 16 cc 3c f7 bf e4 39 e6 87 0e 3a 2d aa 06 3a
       0.024913184 0.00043630574 0.00054371206 0.00051370525
000150 e1 f4 0b 3a a5 bf e4 39 ec 8b 0e 3a fd ab 06 3a
       0.0005338919 0.00043630335 0.000543772 0.00051373226
000160 2f fa 0b 3a a7 c8 e4 39 88 53 0e be 69 90 9e bd
       0.00053397095 0.00043637046 -0.13899052 -0.07742388
000170 22 7c 13 3d b5 7a ca bd ea 1c d1 bc 5f c5 85 3d
       0.036007054 -0.09886686 -0.025526483 0.06531786
000180 66 0d dd bd b9 ce d0 bd 6d 2f b2 bd 9c ea d8 3b
       -0.10793571 -0.10195679 -0.08700452 0.0066197645
000190 ed 0c ca 3b 87 3a 15 3b 4d 5c 63 3b 6f 60 1f 3b
       0.0061660917 0.002277048 0.0034692467 0.0024318954
0001a0 e5 04 8f 39 2a 3c 80 3c fa 94 86 3b 83 1a 93 3b
       0.00027278732 0.015653688 0.004107115 0.0044892444
0001b0 6e 84 05 bd 9a 30 58 bc 45 2f 4e bc 2d ef 59 bc
       -0.032596998 -0.013195181 -0.012584512 -0.013301653
0001c0 42 b6 78 bc 37 5d c5 bc b7 a7 a7 bb 23 dc a2 bc
       -0.015180172 -0.0240923 -0.0051164287 -0.01988036
0001d0 91 97 d6 bc 9b 0b 56 3c 3f c6 be 39 70 d5 46 3d
       -0.02619532 0.01306429 0.0003638733 0.048543394
0001e0 12 e0 ec bc 23 df 40 3b 2b 41 24 3c cd 4f 80 bd
       -0.028915439 0.0029429875 0.010025303 -0.06265221
0001f0 c3 15 36 bd 27 53 59 3d 9f 05 00 80 f7 06 00 00
       -0.044454347 0.053057816 -2.016e-42 2.499e-42
000200 59 02 00 80 4d 05 00 80 21 05 00 80 86 04 00 00
       -8.42e-43 -1.902e-42 -1.84e-42 1.623e-42
000210 7b 06 00 80 e5 06 00 80 ea 00 00 80 0a 02 00 80
       -2.325e-42 -2.473e-42 -3.28e-43 -7.31e-43
000220 ed 06 00 80 ba 00 00 00 a3 04 00 80 c7 00 00 00
       -2.485e-42 2.6e-43 -1.663e-42 2.79e-43
000230 75 02 00 00 97 02 00 80 37 03 00 80 77 06 00 80
       8.81e-43 -9.29e-43 -1.153e-42 -2.319e-42
000240 43 0b 00 00 a5 09 00 80 e5 79 50 32 6c 02 00 00
       4.04e-42 -3.46e-42 1.2134909e-08 8.69e-43
000250 b4 08 00 80 5c 07 00 80 1f 11 00 80 29 04 00 00
       -3.122e-42 -2.64e-42 -6.142e-42 1.492e-42
000260 e4 0c 00 80 40 00 00 80 cd 00 00 80 22 02 00 00
       -4.624e-42 -9e-44 -2.87e-43 7.65e-43
000270 a2 01 00 00 a7 00 00 00 1b 02 00 00 05 02 00 80
       5.86e-43 2.34e-43 7.55e-43 -7.24e-43
000280 4a 00 00 80 11 01 00 00 53 00 00 80 11 00 00 80
       -1.04e-43 3.83e-43 -1.16e-43 -2.4e-44
000290 33 02 00 80 f9 00 00 80 0b 02 00 00 f9 01 00 00
       -7.89e-43 -3.49e-43 7.33e-43 7.08e-43
0002a0 03 02 00 80 a5 01 00 00 08 02 00 80 f5 01 00 00
       -7.22e-43 5.9e-43 -7.29e-43 7.02e-43
0002b0 bd 02 00 80 5b 03 00 00 2f 03 00 00 b9 00 00 00
       -9.82e-43 1.204e-42 1.142e-42 2.59e-43
0002c0 85 01 00 00 be 02 00 80 99 03 00 00 8e 02 00 00
       5.45e-43 -9.84e-43 1.29e-42 9.16e-43
0002d0 3d 0a 00 80 0d 04 00 00 de 10 00 00 37 00 00 80
       -3.673e-42 1.453e-42 6.051e-42 -7.7e-44
0002e0 30 05 00 80 40 06 00 80 5e 07 00 00 b1 0c 00 80
       -1.861e-42 -2.242e-42 2.643e-42 -4.553e-42
0002f0 fb 07 00 80 18 32 d6 3c 27 32 d6 3c 35 32 d6 3c
       -2.863e-42 0.026146933 0.026146961 0.026146987
000300 21 65 8c bc 53 65 8c bc 24 65 8c bc 72 da e6 bb
       -0.017138066 -0.017138159 -0.017138071 -0.0070450837
000310 d2 da e6 bb 4d da e6 bb e6 91 76 bc 76 3e b9 ba
       -0.0070451284 -0.0070450664 -0.015049433 -0.0014132995
000320 a8 ba 93 3a 3e 92 76 bc 2b 3e b9 ba 2d bc 93 3a
       0.0011270838 -0.015049515 -0.0014132907 0.0011271291
000330 57 92 76 bc af 3e b9 ba 6c ba 93 3a c2 c1 d5 bb
       -0.015049539 -0.0014133061 0.0011270768 -0.006523342
000340 7a 2d ab bb 18 14 f6 bb ad 1f e7 bb c7 5a d6 bb
       -0.005223927 -0.0075097196 -0.0070533366 -0.006541583
000350 e5 7e ab bb ee 0d f6 bb 70 f1 e5 bb 12 ce d6 bb
       -0.005233633 -0.0075089848 -0.007017307 -0.006555327
000360 23 5c b1 bc a1 d9 ea bc 77 6e de bc 16 63 dd bb
       -0.02165038 -0.028668227 -0.027152283 -0.0067561967
000370 70 fd c2 bc c0 a2 94 bc bb 27 da bb 63 ec c2 ba
       -0.023802489 -0.018144011 -0.0066575683 -0.0014871474
000380 32 cf 4e bd c7 69 9a ba 85 26 5e 3d d3 0d 0d 3d
       -0.050490566 -0.0011780792 0.054235954 0.034437012
000390 85 8b 2f 3d e6 22 3d 3d e1 c9 a4 3c e6 3e 06 3d
       0.042857666 0.04617586 0.020115795 0.03277483
0003a0 a9 f5 1f 3d 74 18 05 3d de 4b 21 be e9 66 98 bd
       0.03905264 0.032494023 -0.15751597 -0.074415036
0003b0 e3 b3 66 be 49 80 ad bd e5 2f cd bd d5 3f a7 bd
       -0.22529559 -0.08471734 -0.10018901 -0.08166472
0003c0 96 90 3a be b1 62 1b be 44 48 46 be ac 9c c0 3c
       -0.18219218 -0.15174367 -0.19363505 0.023512207
0003d0 1a 8f a6 3c 47 03 a5 bc a9 d1 b1 3c fd 17 28 bd
       0.020331908 -0.020143164 0.021706419 -0.041038502
0003e0 47 b3 05 be bb 20 fd bc f7 4f 80 bd 89 9e 99 bd
       -0.1305667 -0.030899396 -0.06265252 -0.07500941
0003f0 0f 02 00 00 aa 05 00 00 95 08 00 00 28 03 00 80
       7.38e-43 2.032e-42 3.079e-42 -1.132e-42

bias f4 [32]
000000 3e 00 00 80 1e a8 b8 39 05 02 00 00 af fc 60 3b
       -8.7e-44 0.00035220472 7.24e-43 0.0034330299
000010 04 9b cd 20 88 17 00 80 92 05 00 80 fa a7 6c 9b
       3.4830932e-19 -8.441e-42 -1.998e-42 -1.9575739e-22
000020 49 0a 00 80 cf 03 00 00 6e 04 00 00 69 03 00 80
       -3.69e-42 1.366e-42 1.589e-42 -1.223e-42
000030 46 03 00 80 63 03 00 80 64 05 00 00 8e 05 00 00
       -1.174e-42 -1.215e-42 1.934e-42 1.993e-42
000040 49 08 00 00 80 08 00 00 f3 07 00 00 2a 0d 00 80
       2.972e-42 3.049e-42 2.852e-42 -4.722e-42
000050 07 09 00 00 4e 07 00 80 70 03 00 00 0d 09 2b 2b
       3.238e-42 -2.62e-42 1.233e-42 6.0763964e-13
000060 5e 07 00 00 03 09 00 80 b0 09 00 00 ac 04 00 00
       2.643e-42 -3.233e-42 3.475e-42 1.676e-42
000070 99 ec d4 3b f5 61 45 ba e4 09 00 00 8c 02 00 00
       0.006497931 -0.00075295503 3.548e-42 9.14e-43

weight f4 [32]
000000 23 02 00 00 c7 0a 4b 3e 16 00 00 00 49 0f 8c 3d
       7.67e-43 0.1982833 3.1e-44 0.06838853
000010 93 00 00 00 f7 00 00 00 3c 01 00 80 0e 02 00 80
       2.06e-43 3.46e-43 -4.43e-43 -7.37e-43
000020 2b 01 00 00 6a 01 00 80 ac 00 00 80 74 00 00 80
       4.19e-43 -5.07e-43 -2.41e-43 -1.63e-43
000030 00 02 00 80 87 01 00 00 e9 01 00 00 a5 00 00 00
       -7.17e-43 5.48e-43 6.85e-43 2.31e-43
000040 dc 01 00 00 ed 01 00 80 d5 01 00 80 a8 01 00 00
       6.67e-43 -6.91e-43 -6.57e-43 5.94e-43
000050 b7 00 00 00 13 02 00 00 f7 00 00 80 b7 9b 0c 20
       2.56e-43 7.44e-43 -3.46e-43 1.1909983e-19
000060 19 00 00 00 c9 01 00 00 4b 01 00 00 ce d2 a7 0a
       3.5e-44 6.4e-43 4.64e-43 1.6160811e-32
000070 80 05 10 3e ee 58 d1 3d 33 00 00 00 27 02 00 00
       0.14064598 0.1022204 7.1e-44 7.72e-43

bias f4 [32]
000000 b6 94 a8 84 64 5d 8e bd 52 00 48 84 78 55 6c 3b
       -3.963318e-36 -0.069514066 -2.3510034e-36 0.0036061686
000010 29 27 00 80 5d 02 00 80 3d 87 15 84 f2 0f 00 80
       -1.4048e-41 -8.48e-43 -1.7576964e-36 -5.72e-42
000020 5f 00 16 84 96 04 00 80 42 1b 00 80 ed 09 00 80
       -1.7632586e-36 -1.645e-42 -9.778e-42 -3.56e-42
000030 34 0a 00 80 51 00 c8 83 e7 fa c7 83 e5 09 00 80
       -3.66e-42 -1.1755016e-36 -1.1753773e-36 -3.55e-42
000040 32 08 00 80 02 08 00 80 9e 43 48 84 36 00 c8 83
       -2.94e-42 -2.873e-42 -2.3540935e-36 -1.1754992e-36
000050 47 8a ae 85 77 0d 00 80 20 00 48 83 50 7c 95 9c
       -1.6413676e-35 -4.83e-42 -5.877486e-37 -9.892127e-22
000060 03 19 00 80 ac fa 47 83 36 04 00 80 7e 61 78 a1
       -8.973e-42 -5.87686e-37 -1.51e-42 -8.41547e-19
000070 41 d1 91 3d 82 2f bf bd 7d 15 48 84 c5 f7 a9 84
       0.0711999 -0.09335233 -2.3519754e-36 -3.995925e-36

running_mean f4 [32]
000000 ae b2 b7 9a 61 cb 14 be de 79 50 32 78 1b 44 3c
       -7.59757e-23 -0.14530708 1.2134903e-08 0.01196944
000010 0d 10 b1 b7 30 62 72 2f 4c 36 df b3 f3 a7 6c 9b
       -2.1107518e-05 2.2044655e-10 -1.0394123e-07 -1.957573e-22
000020 6e 96 5d 39 b2 9d ea 37 70 3a 2c b7 a7 35 7d 35
       0.00021132242 2.7968406e-05 -1.0265605e-05 9.432792e-07
000030 da ff 89 2b 78 05 a7 23 c7 06 91 b0 c3 44 bb 03
       9.805449e-13 1.8108492e-17 -1.0552065e-09 1.1006659e-36
000040 89 23 00 00 6b 46 68 32 21 78 1d 15 d9 e9 f0 ae
       1.2748e-41 1.35201885e-08 3.1800663e-26 -1.0955476e-10
000050 34 3f 0a 38 d7 1f 26 b6 78 e0 3e 39 99 80 f4 b7
       3.2960626e-05 -2.475446e-06 0.00018203433 -2.914695e-05
000060 07 57 59 b6 df 4c 1d ae 53 41 00 00 65 b6 30 2e
       -3.2386176e-06 -3.5765942e-11 2.3434e-41 4.0179766e-11
000070 44 79 ce 3e ba c6 fd 3c 14 b4 d3 b0 d5 e4 1f b0
       0.40326893 0.03097855 -1.5403452e-09 -5.8169053e-10

running_var f4 [32]
000000 04 00 00 00 8c 58 e7 3e 04 00 00 00 ac e3 3b 3e
       6e-45 0.45184743 6e-45 0.18348569
000010 04 00 00 00 3f 00 80 08 04 00 00 00 04 00 00 00
       6e-45 7.703778e-34 6e-45 6e-45
000020 04 00 00 00 04 00 00 00 36 00 80 17 3f 00 80 14
       6e-45 6e-45 8.271859e-25 1.2924794e-26
000030 04 00 00 00 5b 46 04 0b 3f 00 80 0a 04 00 00 00
       6e-45 2.5475205e-32 1.2326044e-32 6e-45
000040 04 00 00 00 04 00 00 00 04 00 00 00 04 00 00 00
       6e-45 6e-45 6e-45 6e-45
000050 36 00 80 19 3f 00 80 15 04 00 00 00 24 83 89 24
       1.3234975e-23 5.1699177e-26 6e-45 5.963644e-17
000060 3f 00 80 15 04 00 00 00 04 00 00 00 96 5b 21 07
       5.1699177e-26 6e-45 6e-45 1.2139208e-34
000070 34 0a 96 3f b8 c5 1f 3e 04 00 00 00 04 00 00 00
       1.1721864 0.15602767 6e-45 6e-45

weight f4 [32, 35, 3, 3]
000000 8f 01 00 80 6c 00 00 80 18 01 00 80 e5 01 00 00
       -5.59e-43 -1.51e-43 -3.92e-43 6.8e-43
000010 09 01 00 00 6d 00 00 80 12 03 00 00 3a 03 00 80
       3.71e-43 -1.53e-43 1.101e-42 -1.157e-42
000020 dc 02 00 00 5a 02 00 00 73 03 00 00 32 02 00 80
       1.026e-42 8.44e-43 1.237e-42 -7.88e-43
000030 82 02 00 80 6f 02 00 00 83 03 00 00 10 03 00 00
       -9e-43 8.73e-43 1.26e-42 1.099e-42
000040 d8 02 00 80 8f 00 00 00 90 45 18 1f c0 89 8c a0
       -1.02e-42 2e-43 3.2244793e-20 -2.3808078e-19
000050 39 04 00 80 9b 06 00 80 f7 02 00 00 d0 14 2c b0
       -1.515e-42 -2.37e-42 1.064e-42 -6.260281e-10
000060 55 0b 00 00 bd 0c 00 80 1d 0b 00 00 77 00 00 00
       4.065e-42 -4.57e-42 3.987e-42 1.67e-43
000070 1d 03 00 80 2c 01 00 00 80 00 00 80 f8 01 00 00
       -1.117e-42 4.2e-43 -1.8e-43 7.06e-43
000080 dc 02 00 00 c7 03 00 00 94 03 00 80 6b 04 00 00
       1.026e-42 1.355e-42 -1.284e-42 1.585e-42
000090 cd 00 00 00 07 01 00 80 d0 01 00 80 9e 01 00 00
       2.87e-43 -3.69e-43 -6.5e-43 5.8e-43
0000a0 3a 00 00 00 1b 00 00 80 1b 02 00 00 2c 00 00 80
       8.1e-44 -3.8e-44 7.55e-43 -6.2e-44
0000b0 84 00 00 00 e8 04 00 80 78 01 00 00 3f 01 00 80
       1.85e-43 -1.76e-42 5.27e-43 -4.47e-43
0000c0 0c 04 00 80 b5 03 00 80 f8 03 00 80 21 00 00 80
       -1.452e-42 -1.33e-42 -1.424e-42 -4.6e-44
0000d0 5c 00 00 80 28 05 00 00 c1 02 00 80 03 02 00 00
       -1.29e-43 1.85e-42 -9.88e-43 7.22e-43
0000e0 e2 00 00 80 7a 02 00 80 00 02 00 80 d5 00 00 80
       -3.17e-43 -8.88e-43 -7.17e-43 -2.98e-43
0000f0 17 02 00 80 14 02 00 80 7a 01 00 80 36 04 00 80
       -7.5e-43 -7.45e-43 -5.3e-43 -1.51e-42
000100 95 02 00 80 fc 02 00 80 5a 00 00 80 69 02 00 80
       -9.26e-43 -1.07e-42 -1.26e-43 -8.65e-43
000110 76 04 00 80 1a 02 00 00 da 02 00 80 73 02 00 80
       -1.6e-42 7.54e-43 -1.023e-42 -8.79e-43
000120 73 00 00 80 29 02 00 00 8d 02 00 00 e9 02 00 80
       -1.61e-43 7.75e-43 9.15e-43 -1.044e-42
000130 39 03 00 00 d5 04 00 00 fe 01 00 80 fd 01 00 80
       1.156e-42 1.733e-42 -7.15e-43 -7.13e-43
000140 b0 00 00 80 ff 01 00 80 4e 00 00 00 a5 00 00 80
       -2.47e-43 -7.16e-43 1.1e-43 -2.31e-43
000150 fb 01 00 00 21 03 00 80 32 03 00 80 e1 02 00 80
       7.1e-43 -1.122e-42 -1.146e-42 -1.033e-42
000160 9f 02 00 00 ef 00 00 00 c8 03 00 80 d1 00 00 80
       9.4e-43 3.35e-43 -1.356e-42 -2.93e-43
000170 51 04 00 00 0c 01 00 00 9a 01 00 00 6e 00 00 00
       1.548e-42 3.76e-43 5.75e-43 1.54e-43
000180 1a 00 00 00 27 03 00 00 b2 04 00 80 48 01 00 80
       3.6e-44 1.131e-42 -1.684e-42 -4.6e-43
000190 4d 01 00 80 d8 00 00 00 72 01 00 00 eb 02 00 80
       -4.67e-43 3.03e-43 5.18e-43 -1.047e-42
0001a0 98 01 00 80 a1 02 00 80 2f 02 00 80 7a 01 00 80
       -5.72e-43 -9.43e-43 -7.83e-43 -5.3e-43
0001b0 ac 02 00 00 59 00 00 80 10 04 00 00 47 03 00 00
       9.58e-43 -1.25e-43 1.457e-42 1.176e-42
0001c0 55 02 00 00 6e 01 00 00 e4 00 00 00 b9 01 00 80
       8.37e-43 5.13e-43 3.2e-43 -6.18e-43
0001d0 e4 04 00 80 98 01 00 80 69 03 00 80 88 01 00 80
       -1.754e-42 -5.72e-43 -1.223e-42 -5.5e-43
0001e0 17 01 00 80 1e 05 00 00 b4 04 00 80 b9 02 00 00
       -3.91e-43 1.836e-42 -1.687e-42 9.77e-43
0001f0 7f 02 00 00 7e 04 00 00 e1 00 00 80 b3 00 00 00
       8.95e-43 1.611e-42 -3.15e-43 2.51e-43
000200 37 00 00 00 23 04 00 80 1f 04 00 00 90 02 00 00
       7.7e-44 -1.484e-42 1.478e-42 9.19e-43
000210 1d 01 00 00 df 02 00 00 7a 00 00 80 9b 04 00 00
       4e-43 1.03e-42 -1.71e-43 1.652e-42
000220 c6 01 00 80 a2 00 00 80 46 04 00 00 b8 02 00 80
       -6.36e-43 -2.27e-43 1.533e-42 -9.75e-43
000230 a4 01 00 80 12 02 00 80 69 00 00 00 fe 02 00 00
       -5.89e-43 -7.43e-43 1.47e-43 1.073e-42
000240 56 02 00 80 ea 01 00 00 10 03 00 80 3f 03 00 80
       -8.38e-43 6.87e-43 -1.099e-42 -1.164e-42
000250 82 02 00 80 23 04 00 00 b8 02 00 80 12 04 00 00
       -9e-43 1.484e-42 -9.75e-43 1.46e-42
000260 4e 02 00 00 cb 02 00 00 db 01 00 00 f0 00 00 00
       8.27e-43 1.002e-42 6.66e-43 3.36e-43
000270 73 02 00 00 75 01 00 80 c4 03 00 80 72 02 00 80
       8.79e-43 -5.23e-43 -1.351e-42 -8.77e-43
000280 8e 04 00 80 f8 00 00 00 24 03 00 80 4f 00 00 00
       -1.634e-42 3.48e-43 -1.127e-42 1.11e-43
000290 f2 00 00 00 1c 04 00 00 3c 02 00 00 b1 02 00 00
       3.39e-43 1.474e-42 8.02e-43 9.65e-43
0002a0 5a 00 00 80 aa 01 00 80 1f 00 00 80 2c 02 00 00
       -1.26e-43 -5.97e-43 -4.3e-44 7.79e-43
0002b0 76 03 00 80 20 00 00 00 ff 03 00 80 87 02 00 80
       -1.242e-42 4.5e-44 -1.434e-42 -9.07e-43
0002c0 91 04 00 00 47 03 00 80 b3 01 00 00 96 02 00 80
       1.638e-42 -1.176e-42 6.1e-43 -9.28e-43
0002d0 7f 03 00 00 6c 00 00 80 f3 02 00 80 da 01 00 80
       1.254e-42 -1.51e-43 -1.058e-42 -6.64e-43
0002e0 21 00 00 00 a7 04 00 00 b7 02 00 80 97 02 00 00
       4.6e-44 1.669e-42 -9.74e-43 9.29e-43
0002f0 40 02 00 00 05 02 00 00 1d 01 00 00 6b 00 00 00
       8.07e-43 7.24e-43 4e-43 1.5e-43
000300 9e 00 00 80 39 00 00 00 3c 04 00 00 3d 04 00 00
       -2.21e-43 8e-44 1.519e-42 1.52e-42
000310 06 01 00 80 83 02 00 00 ed 02 00 00 51 02 00 00
       -3.67e-43 9.01e-43 1.05e-42 8.31e-43
000320 09 03 00 00 a5 02 00 00 95 03 00 00 32 02 00 80
       1.089e-42 9.49e-43 1.285e-42 -7.88e-43
000330 33 03 00 80 8f 03 00 80 71 01 00 80 ff 04 00 80
       -1.148e-42 -1.277e-42 -5.17e-43 -1.792e-42
000340 ea 01 00 00 ab 01 00 80 fa 03 00 00 b0 03 00 00
       6.87e-43 -5.98e-43 1.427e-42 1.323e-42
000350 e1 01 00 00 85 05 00 00 12 03 00 80 6b 01 00 80
       6.74e-43 1.98e-42 -1.101e-42 -5.09e-43
000360 f8 01 00 00 6f 01 00 00 f9 00 00 80 e1 01 00 00
       7.06e-43 5.14e-43 -3.49e-43 6.74e-43
000370 a2 01 00 80 36 03 00 00 11 00 00 80 99 03 00 00
       -5.86e-43 1.152e-42 -2.4e-44 1.29e-42
000380 25 03 00 80 5a 03 00 00 af 00 00 00 2a 02 00 80
       -1.128e-42 1.202e-42 2.45e-43 -7.76e-43
000390 d7 01 00 80 8e 00 00 80 e9 01 00 00 28 03 00 80
       -6.6e-43 -1.99e-43 6.85e-43 -1.132e-42
0003a0 6f 03 00 80 33 00 00 80 9b 00 00 00 eb 01 00 00
       -1.232e-42 -7.1e-44 2.17e-43 6.88e-43
0003b0 08 02 00 00 ab 00 00 00 9a 01 00 00 36 03 00 80
       7.29e-43 2.4e-43 5.75e-43 -1.152e-42
0003c0 06 03 00 80 da 00 00 00 43 04 00 00 c1 00 00 80
       -1.085e-42 3.05e-43 1.529e-42 -2.7e-43
0003d0 6b 02 00 80 0f 00 00 80 6d 02 00 80 cb 01 00 80
       -8.67e-43 -2.1e-44 -8.7e-43 -6.43e-43
0003e0 bb 02 00 00 28 01 00 00 1b 01 00 80 7d 01 00 80
       9.8e-43 4.15e-43 -3.97e-43 -5.34e-43
0003f0 bf 05 00 80 12 00 00 00 a9 04 00 80 e1 02 00 00
       -2.061e-42 2.5e-44 -1.672e-42 1.033e-42

bias f4 [32]
000000 2c c6 61 20 f4 0e f6 b5 dc e4 c5 94 a8 8f 40 20
       1.9123811e-19 -1.833278e-06 -1.9982186e-26 1.6310564e-19
000010 5b 01 00 80 a2 15 e4 26 00 24 e5 bb 97 01 00 80
       -4.86e-43 1.5826542e-15 -0.006992817 -5.7e-43
000020 e6 45 73 a4 85 03 00 00 68 22 7c 38 81 04 e5 a6
       -5.2751432e-17 1.263e-42 6.0113525e-05 -1.5891288e-15
000030 c1 1b 55 32 1f 2e 33 2e 23 05 00 80 00 26 59 2e
       1.2404542e-08 4.074085e-11 -1.843e-42 4.937384e-11
000040 e3 93 d1 3b 3b 34 82 ad 22 07 00 00 cb 12 00 00
       0.0063958033 -1.4802484e-11 2.559e-42 6.742e-42
000050 ef 69 55 9a 22 14 00 80 9e 07 00 00 3b 48 ba 37
       -4.413294e-23 -7.222e-42 2.733e-42 2.2206563e-05
000060 d3 04 f7 b4 38 0d 00 00 0e 08 00 80 f2 09 1f 25
       -4.6010845e-07 4.742e-42 -2.89e-42 1.3794421e-16
000070 5e 4f 8f a2 40 db e6 3b c0 15 00 80 3c 01 00 00
       -3.884426e-18 0.0070451796 -7.802e-42 4.43e-43

weight f4 [32]
000000 35 00 00 00 a1 01 00 80 ae 01 00 80 f7 00 00 80
       7.4e-44 -5.84e-43 -6.03e-43 -3.46e-43
000010 06 02 00 80 09 00 00 00 88 80 6c 3d 38 00 00 00
       -7.26e-43 1.3e-44 0.057739764 7.8e-44
000020 ed 00 00 80 10 02 00 80 bb 00 00 00 9b 00 00 00
       -3.32e-43 -7.4e-43 2.62e-43 2.17e-43
000030 4b 01 00 00 e5 01 00 80 54 01 00 80 3f 00 00 00
       4.64e-43 -6.8e-43 -4.76e-43 8.8e-44
000040 43 fc cb 3d df 00 00 80 80 00 00 80 17 01 00 80
       0.099602245 -3.12e-43 -1.8e-43 -3.91e-43
000050 27 00 00 80 88 01 00 80 09 02 00 80 d8 00 00 00
       -5.5e-44 -5.5e-43 -7.3e-43 3.03e-43
000060 a7 00 00 00 06 02 00 00 3a 01 00 00 57 01 00 00
       2.34e-43 7.26e-43 4.4e-43 4.8e-43
000070 0e 02 00 80 6a 80 e3 3d 1e 01 00 80 6d 00 00 00
       -7.37e-43 0.111084774 -4.01e-43 1.53e-43

bias f4 [32]
000000 bf 00 48 84 39 07 00 80 34 16 00 80 31 00 48 84
       -2.351023e-36 -2.591e-42 -7.965e-42 -2.3509975e-36
000010 5b 1c 00 80 a7 ff 47 84 47 57 13 bc b6 04 00 80
       -1.0172e-41 -2.3509727e-36 -0.0089929765 -1.69e-42
000020 10 00 48 84 e8 12 00 80 ef 0e 00 80 45 00 c8 83
       -2.3509916e-36 -6.782e-42 -5.357e-42 -1.1755005e-36
000030 05 f7 47 84 3a 03 b4 84 7a 02 48 84 d9 04 00 80
       -2.3505763e-36 -4.232076e-36 -2.3511024e-36 -1.739e-42
000040 8b 51 1d 3e fd 0a 48 84 3d 1b 48 84 7d 06 00 80
       0.15363137 -2.3514933e-36 -2.3522394e-36 -2.328e-42
000050 b2 02 48 84 97 02 00 80 2d 03 00 80 ca 0d 00 80
       -2.3511125e-36 -9.29e-43 -1.139e-42 -4.947e-42
000060 e5 0a 00 80 51 00 c8 83 0a ff 47 84 e2 12 00 80
       -3.908e-42 -1.1755016e-36 -2.3509446e-36 -6.774e-42
000070 fa 0b 00 80 9f 96 4d 3d 86 01 00 80 1e 07 00 80
       -4.296e-42 0.05019247 -5.47e-43 -2.553e-42

running_mean f4 [32]
000000 cb 14 2c b0 eb 0e f6 b5 91 90 38 b1 2b 89 14 31
       -6.2602784e-10 -1.833277e-06 -2.68577e-09 2.1614806e-09
000010 fa 19 a4 2c 7a 60 46 b8 7c 7f 0b bd 58 76 c1 ae
       4.6640443e-12 -4.729673e-05 -0.034057125 -8.797646e-11
000020 de 45 73 a4 0e fd 35 31 a4 64 a3 38 b1 a1 91 b5
       -5.2751405e-17 2.6482811e-09 7.7911915e-05 -1.08504e-06
000030 bb 12 9b b4 a5 60 27 b6 c7 12 48 2a 43 fd b5 32
       -2.8884628e-07 -2.4941194e-06 1.7770083e-13 2.1186343e-08
000040 d1 a6 81 3e 69 f8 a6 b7 80 15 a4 30 75 aa d1 20
       0.25322583 -1.9904417e-05 1.1938681e-09 3.5518776e-19
000050 fd 0d 1d 30 68 bf 4a 31 9a 2d 01 af 58 48 ba 37
       5.7136146e-10 2.950367e-09 -1.1748683e-10 2.2206616e-05
000060 02 93 03 b5 c5 db c3 ac 74 d2 64 2d dd 43 8c 38
       -4.901523e-07 -5.5666327e-12 1.30070295e-11 6.688361e-05
000070 64 0e e8 b8 35 7e d6 3c 53 41 1e 37 8a 55 e6 35
       -0.000110653025 0.026183227 9.432743e-06 1.716123e-06

running_var f4 [32]
000000 21 01 80 0a 04 00 00 00 04 00 00 00 21 01 80 0b
       1.2326376e-32 6e-45 6e-45 4.9305505e-32
000010 04 00 00 00 21 01 80 19 8d a6 d6 3a 04 00 00 00
       6e-45 1.3235346e-23 0.001637654 6e-45
000020 04 00 00 00 21 01 80 0b 18 01 80 1a 04 00 00 00
       6e-45 4.9305505e-32 5.2941326e-23 6e-45
000030 04 00 00 00 21 01 80 15 04 00 00 00 21 01 80 0e
       6e-45 5.170057e-26 6e-45 3.1555523e-30
000040 aa 0e f8 3b 04 00 00 00 21 01 80 0a 04 00 00 00
       0.0075701075 6e-45 1.2326376e-32 6e-45
000050 04 00 00 00 04 00 00 00 04 00 00 00 04 00 00 00
       6e-45 6e-45 6e-45 6e-45
000060 21 01 80 13 04 00 00 00 18 01 80 03 21 01 80 1a
       3.2312856e-27 6e-45 7.523415e-37 5.294138e-23
000070 21 01 80 1a d0 02 eb 3b 04 00 00 00 21 01 80 14
       5.294138e-23 0.007171966 6e-45 1.2925142e-26

weight f4 [64, 35, 3, 3]
000000 3c 02 00 00 2d 01 00 80 08 00 00 80 1b 01 00 00
       8.02e-43 -4.22e-43 -1.1e-44 3.97e-43
000010 ca 00 00 00 aa 01 00 80 81 02 00 80 d8 02 00 00
       2.83e-43 -5.97e-43 -8.98e-43 1.02e-42
000020 cd 00 00 80 e0 03 00 80 64 02 00 80 4d 02 00 00
       -2.87e-43 -1.39e-42 -8.58e-43 8.25e-43
000030 17 03 00 80 10 03 00 00 26 00 00 80 46 03 00 80
       -1.108e-42 1.099e-42 -5.3e-44 -1.174e-42
000040 f7 01 00 80 c3 01 00 80 aa 60 8f 98 38 02 00 80
       -7.05e-43 -6.32e-43 -3.706224e-24 -7.96e-43
000050 0a 0b 99 96 3b 2b fa b5 64 0a 00 80 30 01 00 80
       -2.472545e-25 -1.8639033e-06 -3.727e-42 -4.26e-43
000060 e0 d3 9a a8 81 23 b3 a9 12 84 ad a0 54 00 00 00
       -1.718932e-14 -7.955356e-14 -2.9394737e-19 1.18e-43
000070 4a 02 00 80 56 04 00 00 27 03 00 80 b4 00 00 80
       -8.21e-43 1.555e-42 -1.131e-42 -2.52e-43
000080 0e 00 00 80 b8 00 00 80 f4 02 00 00 42 03 00 80
       -2e-44 -2.58e-43 1.06e-42 -1.169e-42
000090 e0 01 00 80 20 04 00 80 16 03 00 80 ab 02 00 00
       -6.73e-43 -1.48e-42 -1.107e-42 9.57e-43
0000a0 88 02 00 80 b9 00 00 00 48 02 00 80 6f 01 00 80
       -9.08e-43 2.59e-43 -8.18e-43 -5.14e-43
0000b0 40 02 00 00 77 02 00 00 eb 02 00 80 3d 01 00 80
       8.07e-43 8.84e-43 -1.047e-42 -4.44e-43
0000c0 1a 00 00 00 da 04 00 00 7f 05 00 00 ba 02 00 80
       3.6e-44 1.74e-42 1.972e-42 -9.78e-43
0000d0 23 04 00 00 32 00 00 00 25 02 00 80 cd 02 00 00
       1.484e-42 7e-44 -7.7e-43 1.005e-42
0000e0 6b 02 00 00 9e 00 00 00 dd 03 00 00 c4 03 00 80
       8.67e-43 2.21e-43 1.386e-42 -1.351e-42
0000f0 63 02 00 00 5f 00 00 80 8e 02 00 80 8f 03 00 00
       8.56e-43 -1.33e-43 -9.16e-43 1.277e-42
000100 4e 02 00 00 6f 00 00 80 df 00 00 80 ff 03 00 00
       8.27e-43 -1.56e-43 -3.12e-43 1.434e-42
000110 68 02 00 80 4c 02 00 80 08 02 00 00 04 00 00 00
       -8.63e-43 -8.24e-43 7.29e-43 6e-45
000120 bf 01 00 00 12 00 00 80 76 01 00 80 5c 03 00 80
       6.26e-43 -2.5e-44 -5.24e-43 -1.205e-42
000130 c2 00 00 00 de 01 00 00 3f 02 00 80 47 02 00 80
       2.72e-43 6.7e-43 -8.06e-43 -8.17e-43
000140 d2 03 00 00 30 01 00 80 ca 00 00 80 21 00 00 80
       1.37e-42 -4.26e-43 -2.83e-43 -4.6e-44
000150 2c 02 00 80 28 00 00 00 41 03 00 80 8d 01 00 00
       -7.79e-43 5.6e-44 -1.167e-42 5.56e-43
000160 a8 01 00 00 85 02 00 80 96 00 00 80 f2 02 00 00
       5.94e-43 -9.04e-43 -2.1e-43 1.057e-42
000170 2a 03 00 00 cd 00 00 80 39 01 00 80 7f 02 00 00
       1.135e-42 -2.87e-43 -4.39e-43 8.95e-43
000180 6e 02 00 80 d1 00 00 80 83 02 00 00 0c 02 00 80
       -8.72e-43 -2.93e-43 9.01e-43 -7.34e-43
000190 9e 05 00 80 45 04 00 80 69 02 00 80 d3 01 00 00
       -2.015e-42 -1.532e-42 -8.65e-43 6.54e-43
0001a0 2e 00 00 80 8d 03 00 80 9a 02 00 80 39 00 00 00
       -6.4e-44 -1.274e-42 -9.33e-43 8e-44
0001b0 23 00 00 00 fc 01 00 00 7d 04 00 00 2f 00 00 80
       4.9e-44 7.12e-43 1.61e-42 -6.6e-44
0001c0 04 03 00 80 97 03 00 80 00 02 00 80 5c 00 00 80
       -1.082e-42 -1.288e-42 -7.17e-43 -1.29e-43
0001d0 78 00 00 80 5e 01 00 00 be 01 00 80 61 02 00 00
       -1.68e-43 4.9e-43 -6.25e-43 8.53e-43
0001e0 54 02 00 80 69 01 00 80 29 01 00 00 58 02 00 00
       -8.35e-43 -5.06e-43 4.16e-43 8.41e-43
0001f0 bc 02 00 80 ba 01 00 80 af 00 00 80 35 02 00 00
       -9.81e-43 -6.2e-43 -2.45e-43 7.92e-43
000200 d4 00 00 00 4c 01 00 00 20 02 00 80 4b 08 00 00
       2.97e-43 4.65e-43 -7.62e-43 2.975e-42
000210 1e 02 00 80 82 02 00 00 3e 03 00 80 e5 01 00 80
       -7.6e-43 9e-43 -1.163e-42 -6.8e-43
000220 3d 03 00 80 e9 00 00 80 cf 01 00 00 51 04 00 80
       -1.162e-42 -3.27e-43 6.49e-43 -1.548e-42
000230 16 01 00 00 9a 02 00 80 4d 02 00 80 a5 03 00 80
       3.9e-43 -9.33e-43 -8.25e-43 -1.307e-42
000240 5b 00 00 00 4c 00 00 80 9a 01 00 80 3c 02 00 00
       1.28e-43 -1.06e-43 -5.75e-43 8.02e-43
000250 36 03 00 00 f4 02 00 00 9b 02 00 80 3e 04 00 00
       1.152e-42 1.06e-42 -9.35e-43 1.522e-42
000260 82 02 00 80 be 01 00 80 38 03 00 80 65 00 00 80
       -9e-43 -6.25e-43 -1.155e-42 -1.42e-43
000270 6b 01 00 00 b5 00 00 00 d0 04 00 00 13 03 00 80
       5.09e-43 2.54e-43 1.726e-42 -1.103e-42
000280 f4 00 00 00 a2 02 00 00 1b 00 00 00 8a 01 00 80
       3.42e-43 9.44e-43 3.8e-44 -5.52e-43
000290 3e 03 00 00 0a 01 00 80 93 01 00 00 b9 02 00 00
       1.163e-42 -3.73e-43 5.65e-43 9.77e-43
0002a0 05 00 00 80 f3 01 00 80 1a 06 00 80 16 00 00 00
       -7e-45 -6.99e-43 -2.189e-42 3.1e-44
0002b0 0a 01 00 00 5b 03 00 80 15 03 00 00 74 04 00 80
       3.73e-43 -1.204e-42 1.106e-42 -1.597e-42
0002c0 fa 02 00 00 3b 03 00 00 25 01 00 80 0c 03 00 00
       1.068e-42 1.159e-42 -4.1e-43 1.093e-42
0002d0 16 01 00 80 53 02 00 00 73 02 00 00 05 03 00 80
       -3.9e-43 8.34e-43 8.79e-43 -1.083e-42
0002e0 c3 04 00 80 d9 02 00 80 a6 00 00 80 57 05 00 00
       -1.708e-42 -1.022e-42 -2.33e-43 1.916e-42
0002f0 fa 01 00 00 18 00 00 00 65 01 00 00 c0 01 00 80
       7.09e-43 3.4e-44 5e-43 -6.28e-43
000300 d4 02 00 00 3e 00 00 00 8a 02 00 80 c0 02 00 80
       1.015e-42 8.7e-44 -9.11e-43 -9.87e-43
000310 44 05 00 80 41 01 00 80 07 01 00 80 7b 02 00 00
       -1.889e-42 -4.5e-43 -3.69e-43 8.9e-43
000320 9f 02 00 80 8a 01 00 00 71 02 00 80 8a 03 00 00
       -9.4e-43 5.52e-43 -8.76e-43 1.27e-42
000330 f6 04 00 80 f1 04 00 00 46 03 00 00 ef 02 00 00
       -1.78e-42 1.773e-42 1.174e-42 1.052e-42
000340 1c 06 00 00 06 02 00 80 a5 02 00 00 e8 03 00 80
       2.192e-42 -7.26e-43 9.49e-43 -1.401e-42
000350 03 01 00 00 b3 01 00 80 9a 02 00 80 75 04 00 80
       3.63e-43 -6.1e-43 -9.33e-43 -1.599e-42
000360 2a 02 00 00 b4 01 00 80 12 00 00 00 62 01 00 80
       7.76e-43 -6.11e-43 2.5e-44 -4.96e-43
000370 76 03 00 80 2b 00 00 80 b8 01 00 00 05 01 00 00
       -1.242e-42 -6e-44 6.17e-43 3.66e-43
000380 5f 05 00 00 24 02 00 00 19 03 00 00 e4 02 00 00
       1.927e-42 7.68e-43 1.111e-42 1.037e-42
000390 f1 02 00 80 5d 03 00 00 56 03 00 80 de 00 00 80
       -1.055e-42 1.207e-42 -1.197e-42 -3.11e-43
0003a0 58 02 00 00 28 03 00 00 6d 03 00 00 55 00 00 00
       8.41e-43 1.132e-42 1.229e-42 1.19e-43
0003b0 14 02 00 80 ed 02 00 80 a6 05 00 00 1e 00 00 00
       -7.45e-43 -1.05e-42 2.026e-42 4.2e-44
0003c0 c0 04 00 00 03 04 00 80 57 01 00 80 e3 02 00 80
       1.704e-42 -1.439e-42 -4.8e-43 -1.036e-42
0003d0 ae 02 00 80 bb 02 00 00 c4 02 00 00 2a 04 00 80
       -9.61e-43 9.8e-43 9.92e-43 -1.494e-42
0003e0 62 00 00 80 5f 02 00 00 93 03 00 80 87 04 00 80
       -1.37e-43 8.5e-43 -1.282e-42 -1.624e-42
0003f0 f3 01 00 80 b2 02 00 00 5e 01 00 00 6b 02 00 80
       -6.99e-43 9.67e-43 4.9e-43 -8.67e-43

bias f4 [64]
000000 74 18 00 80 60 06 00 00 c6 02 00 80 56 17 eb b4
       -8.772e-42 2.287e-42 -9.95e-43 -4.378914e-07
000010 30 f2 3c 29 0e 02 00 80 3a 18 00 80 e7 56 cd 29
       4.195445e-14 -7.37e-43 -8.691e-42 9.118904e-14
000020 aa fb 1c a6 36 0f 00 00 e1 40 c5 97 28 f0 ae 30
       -5.446444e-16 5.457e-42 -1.2747204e-24 1.2728423e-09
000030 ab 04 00 00 7f 95 00 b4 ec 08 00 00 6f 13 00 00
       1.675e-42 -1.1975315e-07 3.2e-42 6.971e-42
000040 9e 6b 4e ab 1b 5f 96 ac fd e2 4c 2b e0 14 68 89
       -7.333525e-13 -4.2738152e-12 7.279037e-13 -2.79358e-33
000050 b4 00 00 80 71 3f b8 84 e4 1e 00 00 82 07 00 00
       -2.52e-43 -4.3316454e-36 1.1081e-41 2.693e-42
000060 a9 c7 10 25 06 6a 80 b6 03 b1 36 2b 92 a8 54 04
       1.2557657e-16 -3.82704e-06 6.490504e-13 2.4997884e-36
000070 91 ad 88 b5 6f 53 e8 94 f2 08 00 00 fd 0e 00 80
       -1.0183304e-06 -2.3458922e-26 3.209e-42 -5.377e-42
000080 54 e4 d6 b2 27 96 ec a6 aa 13 00 00 79 b3 00 2f
       -2.501671e-08 -1.6416488e-15 7.054e-42 1.1705294e-10
000090 e8 07 00 00 32 00 00 00 94 c9 a9 86 26 e5 8f b1
       2.836e-42 7e-44 -6.3866927e-35 -4.187899e-09
0000a0 d9 5c 3d 2f 49 94 70 22 ed 5e f0 24 05 01 00 00
       1.7222436e-10 3.2604567e-18 1.0424422e-16 3.66e-43
0000b0 76 5d 00 00 91 20 00 00 52 09 00 00 21 0f 00 80
       3.3527e-41 1.1683e-41 3.343e-42 -5.427e-42
0000c0 38 05 00 00 17 bf 0c bc 2d 09 00 00 4d ae cb ab
       1.872e-42 -0.008590481 3.292e-42 -1.4472396e-12
0000d0 1a 0c 00 80 8d 3b 00 2e 40 0a 00 00 93 6a 08 b1
       -4.341e-42 2.9156722e-11 3.677e-42 -1.9851185e-09
0000e0 56 7d c8 b1 14 09 00 00 84 00 01 00 74 10 00 00
       -5.835015e-09 3.257e-42 9.202e-41 5.902e-42
0000f0 53 f0 94 2b 8b d6 1e 10 90 07 00 00 d1 13 00 80
       1.0582736e-12 3.1325284e-29 2.713e-42 -7.109e-42

weight f4 [64]
000000 72 00 00 80 21 02 00 80 3b 00 00 80 b6 01 00 00
       -1.6e-43 -7.64e-43 -8.3e-44 6.14e-43
000010 f5 01 00 80 e3 01 00 00 6d 00 00 80 68 01 00 80
       -7.02e-43 6.77e-43 -1.53e-43 -5.04e-43
000020 cf 01 00 80 c1 00 00 80 22 02 00 00 39 01 00 80
       -6.49e-43 -2.7e-43 7.65e-43 -4.39e-43
000030 20 00 00 80 01 02 00 00 aa 01 00 00 06 01 00 00
       -4.5e-44 7.19e-43 5.97e-43 3.67e-43
000040 14 01 00 80 53 00 00 00 74 01 00 00 21 02 00 00
       -3.87e-43 1.16e-43 5.21e-43 7.64e-43
000050 f6 01 00 00 bf 01 00 80 b6 01 00 00 f5 00 00 00
       7.03e-43 -6.26e-43 6.14e-43 3.43e-43
000060 f1 01 00 00 b0 00 00 00 be 01 00 80 ac 01 00 80
       6.96e-43 2.47e-43 -6.25e-43 -6e-43
000070 0e 01 00 80 36 01 00 00 79 01 00 80 8c 01 00 00
       -3.78e-43 4.34e-43 -5.28e-43 5.55e-43
000080 c4 00 00 80 89 01 00 00 1b 02 00 00 c4 01 00 00
       -2.75e-43 5.51e-43 7.55e-43 6.33e-43
000090 6d 00 00 80 27 00 00 00 1b 00 00 00 18 00 00 80
       -1.53e-43 5.5e-44 3.8e-44 -3.4e-44
0000a0 32 01 00 00 b1 01 00 80 b0 00 00 00 b2 01 00 00
       4.29e-43 -6.07e-43 2.47e-43 6.08e-43
0000b0 cb 01 00 80 24 02 00 80 e5 00 00 00 f8 00 00 80
       -6.43e-43 -7.68e-43 3.21e-43 -3.48e-43
0000c0 66 00 00 80 3f 6f 83 3e d8 00 00 80 8f 01 00 00
       -1.43e-43 0.25670812 -3.03e-43 5.59e-43
0000d0 e7 00 00 80 08 00 00 80 6c 00 00 80 0c 02 00 80
       -3.24e-43 -1.1e-44 -1.51e-43 -7.34e-43
0000e0 90 00 00 00 43 00 00 80 ce 00 00 00 27 00 00 80
       2.02e-43 -9.4e-44 2.89e-43 -5.5e-44
0000f0 89 00 00 80 cb 00 00 00 f1 00 00 00 ed 01 00 00
       -1.92e-43 2.84e-43 3.38e-43 6.91e-43

bias f4 [64]
000000 0f 50 00 80 95 34 48 84 9b 06 48 84 13 01 49 84
       -2.872e-41 -2.3534032e-36 -2.351292e-36 -2.362793e-36
000010 03 3e 00 80 3d 57 68 05 e8 11 48 84 d8 27 00 80
       -2.2246e-41 1.0924611e-35 -2.351811e-36 -1.4293e-41
000020 bd 0d 49 84 c7 09 48 84 28 31 48 84 44 47 00 80
       -2.3633745e-36 -2.3514377e-36 -2.3532458e-36 -2.5565e-41
000030 56 2a 00 80 12 03 00 80 ba a1 48 84 43 de 00 80
       -1.5187e-41 -1.101e-42 -2.3584148e-36 -7.9732e-41
000040 20 5f 00 80 5c 5a 00 80 3a 01 16 84 0f 12 4b 84
       -3.4124e-41 -3.2415e-41 -1.7632978e-36 -2.3870827e-36
000050 22 31 01 80 6b b7 48 84 6d 17 00 80 d5 5e 48 84
       -1.09461e-40 -2.3594108e-36 -8.404e-42 -2.3553432e-36
000060 4d 49 00 80 dd 19 00 80 79 39 4b 84 c9 0e 48 84
       -2.6295e-41 -9.278e-42 -2.3888925e-36 -2.3516676e-36
000070 65 1c 48 84 c3 31 48 84 0a 7b 00 80 e4 9a 48 84
       -2.3522925e-36 -2.3532736e-36 -4.4138e-41 -2.358101e-36
000080 51 02 16 84 6c 2a 00 80 76 ef 48 84 8a 26 00 80
       -1.7633479e-36 -1.5218e-41 -2.3619842e-36 -1.3825e-41
000090 79 cc 00 80 fa 09 48 84 34 97 00 80 ce 2b 01 80
       -7.3351e-41 -2.3514468e-36 -5.4241e-41 -1.0755e-40
0000a0 2b c9 00 80 2c 29 00 80 cd 72 48 84 4c 63 48 84
       -7.2165e-41 -1.477e-41 -2.3562601e-36 -2.3555482e-36
0000b0 ac 00 48 84 f2 49 48 84 8c 5e 00 80 e4 31 00 80
       -2.3510196e-36 -2.3543841e-36 -3.3917e-41 -1.7897e-41
0000c0 ef ff c7 83 03 c9 03 3f 87 41 48 84 59 4c 48 84
       -1.1754928e-36 0.51478595 -2.3539976e-36 -2.3544944e-36
0000d0 a7 2e 00 80 6f 48 48 84 20 1a 00 80 53 0d 00 80
       -1.6736e-41 -2.3543147e-36 -9.372e-42 -4.78e-42
0000e0 12 0c 48 84 6c d3 4b 84 ec 4c 00 80 e0 32 00 80
       -2.351543e-36 -2.3959615e-36 -2.7594e-41 -1.825e-41
0000f0 a8 54 00 80 41 41 48 84 b3 2e 00 80 39 16 48 84
       -3.0369e-41 -2.353985e-36 -1.6753e-41 -2.3520091e-36

running_mean f4 [64]
000000 37 2b fa b5 16 df f9 b2 36 fa 9f ad 83 c4 46 35
       -1.8639029e-06 -2.9088863e-08 -1.8187323e-11 7.404671e-07
000010 17 e4 1a 2c e3 be 6f b6 b1 de 39 b8 64 5e 08 39
       2.2011332e-12 -3.5724886e-06 -4.4314835e-05 0.00013005134
000020 70 31 18 32 e8 b7 99 b4 67 14 c6 35 c6 40 f5 36
       8.858805e-09 -2.863228e-07 1.4758087e-06 7.3091096e-06
000030 57 50 47 31 19 ce 5c b4 d7 cf 0a b8 5a 39 42 b2
       2.900398e-09 -2.0564075e-07 -3.309533e-05 -1.13053265e-08
000040 57 e9 a3 35 49 c8 bf b6 09 d9 a8 32 08 95 dd 35
       1.2212357e-06 -5.71556e-06 1.965647e-08 1.6509157e-06
000050 39 24 1d af 6f 68 11 34 47 31 d9 b4 96 15 9e b7
       -1.4291936e-10 1.354217e-07 -4.0455254e-07 -1.884512e-05
000060 d1 b1 72 b7 01 6a 80 b6 44 20 f2 b5 e0 fe 97 30
       -1.4465725e-05 -3.8270377e-06 -1.8039796e-06 1.1059136e-09
000070 4d 32 92 b5 fa 89 cc 36 67 c4 6d b8 1a fa ee a9
       -1.0892487e-06 6.0957364e-06 -5.6688117e-05 -1.0612709e-13
000080 4a e4 d6 b2 11 3a 55 38 3a 9c 15 36 66 93 09 b3
       -2.5016693e-08 5.0837236e-05 2.2293666e-06 -3.2031856e-08
000090 6a b7 23 38 5a 71 4f 31 6f 8d d8 b3 12 99 91 b1
       3.9033046e-05 3.0186897e-09 -1.00840104e-07 -4.2374575e-09
0000a0 e7 6f 2b b3 8f fc 4e b7 96 81 73 2f 12 79 0d 36
       -3.9915815e-08 -1.233736e-05 2.214676e-10 2.108111e-06
0000b0 99 5d 57 b4 f1 1d e0 aa 56 8c cd 9a 94 15 63 b9
       -2.0057486e-07 -3.981117e-13 -8.501274e-23 -0.00021656445
0000c0 c8 95 a3 39 b1 25 82 be 93 30 08 b5 c8 7a 9c b4
       0.00031201378 -0.2541938 -5.0734633e-07 -2.91466e-07
0000d0 ab dc 0c b6 87 3b 00 2e c6 cf 7a b8 47 8b 35 38
       -2.0990071e-06 2.91567e-11 -5.979815e-05 4.3283475e-05
0000e0 61 46 3d 34 10 54 47 b4 c2 6b eb b7 30 51 c3 33
       1.76276e-07 -1.8563901e-07 -2.8064362e-05 9.095163e-08
0000f0 4b f0 94 2b e1 7c 40 b0 1e 27 ff 2d ec f9 9f 32
       1.0582727e-12 -7.0026657e-10 2.9007515e-11 1.8623687e-08

running_var f4 [64]
000000 d4 06 10 16 15 06 80 0e 15 06 80 04 15 06 80 13
       1.1634382e-25 3.1560293e-30 3.009824e-36 3.231774e-27
000010 15 06 80 01 15 06 80 15 04 00 00 00 04 00 00 00
       4.70285e-38 5.1708384e-26 6e-45 6e-45
000020 15 06 80 0d 15 06 80 12 04 00 00 00 04 00 00 00
       7.890073e-31 8.079435e-28 6e-45 6e-45
000030 15 06 80 0b 15 06 80 11 04 00 00 00 15 06 80 0d
       4.931296e-32 2.0198588e-28 6e-45 7.890073e-31
000040 15 06 80 14 15 06 80 16 0c 06 80 0f 0c 06 80 15
       1.2927096e-26 2.0683354e-25 1.2624104e-29 5.170833e-26
000050 15 06 80 08 15 06 80 11 04 00 00 00 15 06 80 18
       7.70515e-34 2.0198588e-28 6e-45 3.3093366e-24
000060 15 06 80 17 15 06 80 17 15 06 80 14 0c 06 80 0a
       8.273341e-25 8.273341e-25 1.2927096e-26 1.2328226e-32
000070 15 06 80 14 04 00 00 00 d4 06 10 1b 16 00 02 00
       1.2927096e-26 6e-45 1.1913607e-22 1.83702e-40
000080 15 06 80 0f 15 06 80 19 15 06 80 16 15 06 80 0f
       1.2624117e-29 1.3237346e-23 2.0683354e-25 1.2624117e-29
000090 04 00 00 00 cb 06 10 0d 15 06 80 10 15 06 80 0c
       6e-45 4.4381603e-31 5.049647e-29 1.9725183e-31
0000a0 15 06 80 0f 15 06 80 17 04 00 00 00 04 00 00 00
       1.2624117e-29 8.273341e-25 6e-45 6e-45
0000b0 04 00 00 00 6a 00 08 00 04 00 00 00 15 06 80 1c
       6e-45 7.34833e-40 6e-45 8.471902e-22
0000c0 04 00 00 00 5d 07 8a 3a 15 06 80 13 04 00 00 00
       6e-45 0.0010530759 3.231774e-27 6e-45
0000d0 15 06 80 15 04 00 00 00 cb 06 10 1b 15 06 80 19
       5.1708384e-26 6e-45 1.1913596e-22 1.3237346e-23
0000e0 15 06 80 12 15 06 80 11 15 06 80 18 0c 06 80 10
       8.079435e-28 2.0198588e-28 3.3093366e-24 5.0496415e-29
0000f0 09 06 80 00 15 06 80 0a 15 06 80 05 15 06 80 0e
       1.1757109e-38 1.232824e-32 1.2039296e-35 3.1560293e-30

weight f4 [64, 67, 3, 3]
000000 ef 5b 93 20 e6 6f 0f 22 05 eb 19 22 ee 9a 19 ad
       2.4963605e-19 1.9439352e-18 2.0859785e-18 -8.731444e-12
000010 ed 9a 19 ad ed 9a 19 ad ec 94 19 ad ed 94 19 ad
       -8.7314435e-12 -8.7314435e-12 -8.73011e-12 -8.730111e-12
000020 ed 94 19 ad df d6 4e a2 fd 59 1d ad 4c 57 1d ad
       -8.730111e-12 -2.8031958e-18 -8.944398e-12 -8.9438006e-12
000030 51 9d 06 a2 fd 59 1d ad 4d 57 1d ad 5c 56 ef a1
       -1.824367e-18 -8.944398e-12 -8.943801e-12 -1.6218129e-18
000040 fc 59 1d ad 4c 57 1d ad 01 81 d2 a6 6f c3 f3 ac
       -8.944397e-12 -8.9438006e-12 -1.4606644e-15 -6.928173e-12
000050 18 62 bf 20 2e 1e 8e 2e 62 4b 34 32 72 9b 0f 37
       3.2421572e-19 6.4627734e-11 1.0494519e-08 8.559657e-06
000060 2f 44 03 22 04 67 44 22 a3 91 0f 22 e0 03 00 80
       1.7789907e-18 2.661749e-18 1.9457213e-18 -1.39e-42
000070 b2 02 00 00 06 01 00 00 dd 03 00 00 22 00 00 00
       9.67e-43 3.67e-43 1.386e-42 4.8e-44
000080 79 01 00 00 b9 01 00 80 ab 00 00 00 55 07 00 00
       5.28e-43 -6.18e-43 2.4e-43 2.63e-42
000090 86 01 00 00 34 00 00 80 58 06 00 80 59 00 00 80
       5.47e-43 -7.3e-44 -2.276e-42 -1.25e-43
0000a0 a0 00 00 80 68 04 00 80 af 02 00 00 a4 00 00 80
       -2.24e-43 -1.58e-42 9.63e-43 -2.3e-43
0000b0 6f 04 00 00 61 06 00 80 ce 02 00 00 19 00 00 80
       1.59e-42 -2.288e-42 1.006e-42 -3.5e-44
0000c0 45 01 00 80 65 01 00 80 47 01 00 80 4b 02 00 00
       -4.55e-43 -5e-43 -4.58e-43 8.23e-43
0000d0 d4 01 00 00 20 05 00 00 e3 02 00 80 50 04 00 00
       6.56e-43 1.839e-42 -1.036e-42 1.547e-42
0000e0 17 03 00 00 38 01 00 80 67 00 00 00 ac 00 00 00
       1.108e-42 -4.37e-43 1.44e-43 2.41e-43
0000f0 28 02 00 80 94 01 00 00 37 00 00 80 b5 01 00 00
       -7.74e-43 5.66e-43 -7.7e-44 6.12e-43
000100 43 01 00 00 5e 01 00 00 c3 01 00 80 a0 02 00 00
       4.53e-43 4.9e-43 -6.32e-43 9.42e-43
000110 88 02 00 80 b2 03 00 00 50 00 00 00 19 02 00 80
       -9.08e-43 1.326e-42 1.12e-43 -7.52e-43
000120 3b 02 00 80 2f 05 00 80 ff 03 00 00 51 02 00 00
       -8e-43 -1.86e-42 1.434e-42 8.31e-43
000130 ab 00 00 00 1d 00 00 80 cd 01 00 80 7d 01 00 80
       2.4e-43 -4e-44 -6.46e-43 -5.34e-43
000140 7e 01 00 80 b3 03 00 80 a5 02 00 00 1d 00 00 00
       -5.35e-43 -1.327e-42 9.49e-43 4e-44
000150 6b 02 00 00 40 00 00 00 13 01 00 00 02 00 00 00
       8.67e-43 9e-44 3.85e-43 3e-45
000160 a5 03 00 00 2e 02 00 00 ff 00 00 80 2f 02 00 00
       1.307e-42 7.82e-43 -3.57e-43 7.83e-43
000170 c3 02 00 80 5e 01 00 80 0f 03 00 80 ef 01 00 80
       -9.91e-43 -4.9e-43 -1.097e-42 -6.94e-43
000180 8e 01 00 00 bb 01 00 00 ed 01 00 80 71 01 00 80
       5.58e-43 6.21e-43 -6.91e-43 -5.17e-43
000190 45 01 00 00 b8 00 00 00 13 00 00 00 8c 00 00 00
       4.55e-43 2.58e-43 2.7e-44 1.96e-43
0001a0 7c 03 00 00 62 01 00 80 43 00 00 80 06 02 00 80
       1.25e-42 -4.96e-43 -9.4e-44 -7.26e-43
0001b0 82 02 00 80 96 00 00 00 35 00 00 80 74 02 00 80
       -9e-43 2.1e-43 -7.4e-44 -8.8e-43
0001c0 16 02 00 00 f6 01 00 80 bd 03 00 00 a5 02 00 80
       7.48e-43 -7.03e-43 1.341e-42 -9.49e-43
0001d0 ac 05 00 80 a3 05 00 80 1b 03 00 00 e2 04 00 80
       -2.035e-42 -2.022e-42 1.114e-42 -1.752e-42
0001e0 14 03 00 00 ef 01 00 80 b7 00 00 00 33 01 00 80
       1.104e-42 -6.94e-43 2.56e-43 -4.3e-43
0001f0 2b 02 00 80 ef 01 00 00 34 04 00 80 55 01 00 80
       -7.78e-43 6.94e-43 -1.508e-42 -4.78e-43
000200 38 03 00 80 c8 00 00 00 78 02 00 00 5b 02 00 80
       -1.155e-42 2.8e-43 8.86e-43 -8.45e-43
000210 a3 01 00 00 95 00 00 80 68 00 00 00 16 04 00 80
       5.87e-43 -2.09e-43 1.46e-43 -1.466e-42
000220 96 03 00 00 c1 01 00 00 1d 01 00 80 90 01 00 00
       1.286e-42 6.29e-43 -4e-43 5.6e-43
000230 14 02 00 00 16 00 00 00 7a 01 00 00 70 01 00 00
       7.45e-43 3.1e-44 5.3e-43 5.16e-43
000240 d8 00 00 80 ba 00 00 00 6c 03 00 00 83 01 00 00
       -3.03e-43 2.6e-43 1.228e-42 5.42e-43
000250 29 02 00 80 87 00 00 80 5b 00 00 80 10 01 00 80
       -7.75e-43 -1.89e-43 -1.28e-43 -3.81e-43
000260 50 02 00 00 a7 01 00 00 33 00 00 80 9b 00 00 80
       8.3e-43 5.93e-43 -7.1e-44 -2.17e-43
000270 90 01 00 80 18 00 00 80 9a 00 00 00 48 01 00 80
       -5.6e-43 -3.4e-44 2.16e-43 -4.6e-43
000280 24 01 00 00 78 02 00 00 be 05 00 00 10 04 00 80
       4.09e-43 8.86e-43 2.06e-42 -1.457e-42
000290 59 01 00 00 f9 01 00 00 b0 00 00 00 0c 02 00 80
       4.83e-43 7.08e-43 2.47e-43 -7.34e-43
0002a0 2a 00 00 80 59 03 00 80 4e 00 00 80 d4 00 00 00
       -5.9e-44 -1.201e-42 -1.1e-43 2.97e-43
0002b0 d1 06 00 80 9c 07 00 80 6c 01 00 80 4d 02 00 80
       -2.445e-42 -2.73e-42 -5.1e-43 -8.25e-43
0002c0 1b 01 00 80 bc 01 00 00 49 00 00 80 c4 02 00 80
       -3.97e-43 6.22e-43 -1.02e-43 -9.92e-43
0002d0 31 01 00 00 43 02 00 80 be 00 00 00 e7 01 00 00
       4.27e-43 -8.11e-43 2.66e-43 6.82e-43
0002e0 23 01 00 00 ca 01 00 00 2b 00 00 00 78 07 00 00
       4.08e-43 6.42e-43 6e-44 2.679e-42
0002f0 be 07 00 00 a6 02 00 00 38 03 00 80 bf 00 00 00
       2.777e-42 9.5e-43 -1.155e-42 2.68e-43
000300 24 03 00 80 9a 01 00 00 e0 01 00 00 17 01 00 80
       -1.127e-42 5.75e-43 6.73e-43 -3.91e-43
000310 85 04 00 80 7c 00 00 00 cb 02 00 80 7d 03 00 00
       -1.621e-42 1.74e-43 -1.002e-42 1.251e-42
000320 d8 04 00 00 85 00 00 00 42 01 00 80 57 02 00 80
       1.738e-42 1.86e-43 -4.51e-43 -8.4e-43
000330 b5 02 00 80 b8 00 00 00 cd 00 00 00 7c 04 00 00
       -9.71e-43 2.58e-43 2.87e-43 1.609e-42
000340 b2 01 00 00 4b 01 00 00 28 01 00 80 13 02 00 00
       6.08e-43 4.64e-43 -4.15e-43 7.44e-43
000350 71 02 00 80 8d 04 00 00 94 05 00 00 00 04 00 00
       -8.76e-43 1.633e-42 2.001e-42 1.435e-42
000360 a0 00 00 00 dd 01 00 80 9f 00 00 00 bc 02 00 00
       2.24e-43 -6.68e-43 2.23e-43 9.81e-43
000370 0b 00 00 00 cd 02 00 00 a2 00 00 00 2e 00 00 00
       1.5e-44 1.005e-42 2.27e-43 6.4e-44
000380 8a 03 00 00 17 09 00 00 70 01 00 00 ed 04 00 00
       1.27e-42 3.261e-42 5.16e-43 1.767e-42
000390 24 05 00 80 72 01 00 00 31 00 00 00 19 01 00 80
       -1.844e-42 5.18e-43 6.9e-44 -3.94e-43
0003a0 aa 02 00 00 91 02 00 00 c8 00 00 00 fe 00 00 80
       9.56e-43 9.2e-43 2.8e-43 -3.56e-43
0003b0 01 02 00 80 b6 00 00 00 21 00 00 00 d5 00 00 80
       -7.19e-43 2.55e-43 4.6e-44 -2.98e-43
0003c0 b8 01 00 80 18 02 00 00 7d 01 00 00 51 03 00 80
       -6.17e-43 7.51e-43 5.34e-43 -1.19e-42
0003d0 8e 01 00 00 99 03 00 00 19 01 00 80 39 01 00 00
       5.58e-43 1.29e-42 -3.94e-43 4.39e-43
0003e0 c6 01 00 00 04 04 00 00 23 02 00 80 63 01 00 80
       6.36e-43 1.44e-42 -7.67e-43 -4.97e-43
0003f0 09 00 00 00 6a 02 00 00 20 03 00 80 11 00 00 80
       1.3e-44 8.66e-43 -1.121e-42 -2.4e-44

bias f4 [64]
000000 a0 5e c0 28 41 0f ec af b5 70 d6 33 4a 57 c5 06
       2.1357319e-14 -4.2938988e-10 9.985653e-08 7.4231424e-35
000010 a3 74 3f 92 ed 72 9e 09 b1 7e d5 31 a9 f0 8a 8c
       -6.041274e-28 3.8145192e-33 6.213519e-09 -2.1407109e-31
000020 d5 6a 0f 89 46 9c 8b 9a ff 33 4b 30 1b 40 19 0b
       -1.7263231e-33 -5.7741526e-23 7.392486e-10 2.9514956e-32
000030 cb d7 89 2e 92 ff f0 ad dc 0a 42 0a a4 d0 a7 2b
       6.268371e-11 -2.7398337e-11 9.342803e-33 1.1923973e-12
000040 fc c9 67 a5 03 af a2 9f 08 46 f1 2e b4 87 8c 1e
       -2.0104491e-16 -6.88992e-20 1.0971851e-10 1.4879202e-20
000050 9e fc 4d 8b 78 f2 96 30 82 be 66 84 45 2e de b2
       -3.9671612e-32 1.098285e-09 -2.7123847e-36 -2.5865242e-08
000060 8f 0c 82 bc 4d 27 00 00 98 02 48 84 ba ab c0 ac
       -0.015875129 1.4098e-41 -2.3511078e-36 -5.4760337e-12
000070 f0 d7 07 2d df fb 47 84 94 1f 48 84 a7 25 48 84
       7.721809e-12 -2.3507991e-36 -2.3524387e-36 -2.3527176e-36
000080 81 08 e8 2b 04 eb 17 bd ac c0 88 b5 95 67 d9 84
       1.6486952e-12 -0.037089363 -1.0188865e-06 -5.111158e-36
000090 b6 24 98 ac 12 1b 23 b6 01 0a 48 04 fb 22 0f 15
       -4.3241756e-12 -2.430465e-06 2.351448e-36 2.8906215e-26
0000a0 06 c7 38 8d ed 0a ca ba 16 f5 82 86 5c b0 96 1a
       -5.6938943e-31 -0.0015414633 -4.9260686e-35 6.232347e-23
0000b0 15 34 66 39 29 29 2d bb b3 5b c7 12 95 a0 ab 2e
       0.00021953911 -0.0026422238 1.2581271e-27 7.804705e-11
0000c0 d2 04 83 00 ac fd 07 ad 52 a6 1f b3 f6 50 5b 84
       1.2032179e-38 -7.730188e-12 -3.717134e-08 -2.5780502e-36
0000d0 a3 6a fd 33 a1 00 13 bb 70 d9 f7 38 69 02 48 04
       1.1800628e-07 -0.0022430795 0.00011818379 2.3510994e-36
0000e0 4d ac ba b4 f1 fc 86 9f 29 31 48 84 13 9c 49 04
       -3.4770565e-07 -5.7169664e-20 -2.353246e-36 2.3699102e-36
0000f0 c5 09 52 b5 6c 07 82 8e 74 87 0d b4 49 ad 32 35
       -7.824531e-07 -3.205462e-30 -1.3180926e-07 6.656233e-07

weight f4 [64]
000000 ca 3c da 2d c3 5e 85 ac 4b f9 31 25 60 10 8d 21
       2.4810726e-11 -3.790608e-12 1.5436767e-16 9.558866e-19
000010 a2 b4 b0 a2 82 71 2e 23 fe a5 6f 1c 24 55 9c a5
       -4.789615e-18 9.456595e-18 7.9293006e-22 -2.711938e-16
000020 c4 75 0f a2 1e 59 54 27 da 88 c4 1e 55 9d 31 9f
       -1.9442458e-18 2.946922e-15 2.0808908e-20 -3.761135e-20
000030 bf a7 0e 91 56 3d 13 a7 a7 79 17 9d fd 52 8f 24
       -1.1253516e-28 -2.0433598e-15 -2.0047576e-21 6.215695e-17
000040 eb 08 0e 9b ed b5 24 22 69 8f 07 1c 62 a6 89 a9
       -1.1748846e-22 2.2322455e-18 4.4853106e-22 -6.112885e-14
000050 39 6e c5 9a d9 8a 01 1b b3 25 dc 99 0b 5b 94 9b
       -8.1655365e-23 1.0715494e-22 -2.2762693e-23 -2.4543381e-22
000060 46 7f fb 3d 89 30 cc 91 f1 39 b2 97 a4 c0 a3 a1
       0.12280135 -3.2215437e-28 -1.1517607e-24 -1.1096301e-18
000070 5d fa 52 23 18 a9 4a 18 22 d6 c8 96 cf 5b 66 93
       1.1437139e-17 2.6193259e-24 -3.244688e-25 -2.9075346e-27
000080 c3 94 54 2c 6a 95 13 3e 36 d7 27 26 61 ef 60 98
       3.0209591e-12 0.14412466 5.823143e-16 -2.9072177e-24
000090 7b 32 4f 17 ba 2e ab 20 e1 8a 91 13 d4 d8 04 23
       6.6949023e-25 2.8999448e-19 3.674009e-27 7.2016495e-18
0000a0 80 94 8f 26 33 29 ce 3d 4e d5 93 21 e7 07 c8 2c
       9.962869e-16 0.10066452 1.0017569e-18 5.6852192e-12
0000b0 d8 90 2f 0e 3b 78 1c 3d 26 0e 60 20 07 29 bf 21
       2.1640155e-30 0.0382006 1.8978219e-19 1.2953523e-18
0000c0 cd 74 d8 1d a1 c1 d0 1a 68 66 c5 26 5f dd 90 18
       5.7295493e-21 8.633961e-23 1.3697378e-15 3.7446655e-24
0000d0 42 09 9c b8 84 e9 f6 3d d7 aa bf 3a 9f 92 25 9a
       -7.440384e-05 0.12056258 0.0014623058 -3.423964e-23
0000e0 90 01 bb 1d 63 46 0a 1e e3 40 3b 16 82 7a ac 1c
       4.9500103e-21 7.320215e-21 1.5126214e-25 1.1413673e-21
0000f0 a7 85 0b 25 61 43 7b a0 cb 37 c8 b9 68 e0 7f 20
       1.2101611e-16 -2.1282821e-19 -0.00038188542 2.167359e-19

bias f4 [64]
000000 87 58 a2 ba cd c8 cc ba 0d 56 25 bb e5 af e3 b1
       -0.0012386002 -0.0015623808 -0.0025228292 -6.6265664e-09
000010 b8 c9 a0 b6 9e 1a 8c b7 c1 74 7e b0 db 54 7c b3
       -4.7918547e-06 -1.6701695e-05 -9.257058e-10 -5.8750498e-08
000020 54 9a e7 b4 8c f6 84 ba 48 43 9d b5 1e 53 58 b3
       -4.3139391e-07 -0.0010144277 -1.1716993e-06 -5.0367014e-08
000030 06 b2 02 a6 ce cb df ba 92 43 3d b5 41 e0 6b b7
       -4.5344077e-16 -0.0017074288 -7.0506314e-07 -1.4059305e-05
000040 2e e4 31 b0 2f 4a 6e b5 fd 8c 88 b0 9d 9d 2c bb
       -6.471649e-10 -8.876986e-07 -9.935374e-10 -0.0026339062
000050 0c bb fc b6 0d 77 85 b4 6e e8 e3 af b5 8a 81 af
       -7.5319604e-06 -2.48598e-07 -4.145621e-10 -2.356352e-10
000060 b2 17 25 3e 06 c0 0f a5 0f a8 72 ab 1c 5b 88 b3
       0.1612232 -1.2468333e-16 -8.62089e-13 -6.349566e-08
000070 b6 59 bc b6 32 70 d7 ac 8d c1 13 ad 11 6a fa aa
       -5.6132803e-06 -6.1231237e-12 -8.3989595e-12 -4.448252e-13
000080 57 08 2f bb 69 0d 62 3e 28 fb c8 ba 18 e9 82 ae
       -0.0026707852 0.22075428 -0.001533364 -5.953121e-11
000090 b3 df 2e a6 42 85 6c b5 bc da 7f ac 5d 83 b5 b9
       -6.0671546e-16 -8.8110767e-07 -3.6359101e-12 -0.00034620884
0000a0 54 d9 e7 b3 30 cb e9 3d 8f a9 6e b1 56 c7 b0 ba
       -1.07963075e-07 0.11415708 -3.4729941e-09 -0.0013487141
0000b0 fa 64 e1 a1 19 01 49 3d 00 5d 58 b9 21 25 9a b2
       -1.5273321e-18 0.049073312 -0.0002063401 -1.7944844e-08
0000c0 64 be 2b af 0d 9e 8f ae cb cf 2e bb cf 6f a6 b0
       -1.562e-10 -6.5309626e-11 -0.0026674147 -1.2109868e-09
0000d0 70 d5 74 b9 d2 80 2e 3e d2 6e ad ba fc 8c ff ab
       -0.00023349165 0.17041329 -0.001323188 -1.8157971e-12
0000e0 e5 3d 86 b3 a3 11 dc ad 08 af 05 ab 6b 15 0b af
       -6.25112e-08 -2.5018937e-11 -4.7493997e-13 -1.2649586e-10
0000f0 13 2c e4 b9 1e a0 9d b4 7e eb b3 ba ab cb 52 b2
       -0.00043520387 -2.936003e-07 -0.0013726798 -1.22699175e-08
