SND_trackers_My_data/9X0_file/29_9X0_coordconv_Label_V8.pt (torch, 466172 bytes, 31 tensors)

weight f4 [32, 9, 3, 3]
-0.0005687131 -0.00056685327 -0.0005657189 -0.00056909095 -0.0005633065 -0.0005621796 -0.0005595618 -0.0005565434
-0.0005634848 0.0027151967 0.0027152142 0.0027150174 0.002715125 0.0027152793 0.0027152447 0.0027154197
0.002715215 0.002714982 -0.026509672 -0.02757534 -0.025556646 -0.024181608 -0.024010027 -0.023195451
-0.018916944 -0.018896718 -0.018717254 0.05276183 0.035471085 -0.06160694 0.049654834 0.15097006
0.058206026 0.020784112 0.011269367 0.095854916 -0.004257626 -0.025294067 0.01709174 0.0052886554
-0.02629483 -0.040630963 -0.0058371257 -0.05629647 0.009094864 -0.03350135 -0.045796327 0.016577832
0.035087563 -0.002993128 0.013605873 -0.008173505 -0.015381009 -0.008883514 -0.025811553 0.0065743197
-0.06313189 0.08850706 -0.024415502 -0.014103427 0.0029008652 0.0021550192 -0.03550259 -0.021506077
-0.039954096 0.027102515 0.04095029 -0.012283731 -0.043761645 0.018432258 0.041258268 -0.033367913
-0.009832803 -0.01038893 -0.035845634 0.009965829 0.03972919 0.073111795 -0.016450102 -0.0056887143
0.020805305 0.0019940257 0.0020067166 0.0020534485 0.001989744 0.0020137364 0.0020379107 0.002057662
0.0019810335 0.002012246 0.027408047 0.027406555 0.027408285 0.027407372 0.027408104 0.027407883
0.027408049 0.027407749 0.027408188 0.009152428 0.0106372675 0.012252846 0.009714537 0.009228117
0.0099848155 0.00904082 0.008632617 0.010474015 -0.0007707925 0.0094159385 -0.0054790997 -0.015168516
-0.010680681 0.029329421 -0.0132257175 0.021350566 0.01095232 -0.0057140784 -0.012401176 -0.010407872
-0.019733569 0.016530257 0.021850675 -0.022000458 0.028592153 0.043924034 -0.00418518 -0.023803057
-0.01660487 -0.013093857 -0.0097743105 -0.014498088 0.019952485 0.014064022 -0.0032868318 0.008141086
0.02460224 -0.001949412 0.00155257 0.017284056 0.00340035 -0.0006076875 0.009441235 -0.013795497
-0.026097625 -0.022928402 -0.027146677 -0.01719097 -0.020083906 -0.023359004 -0.029912757 -0.022902096
-0.015659502 -0.0015484198 0.031694837 -0.00964215 -0.009529253 -0.0038815076 -0.011138836 -0.022546174
-0.023635209 -0.021734001 0.0042244284 0.0042244303 0.004224462 0.0042242184 0.004224213 0.004224212
0.0042247176 0.0042247027 0.004224628 -0.014360537 -0.014361686 -0.01436174 -0.014362927 -0.014361779
-0.014360442 -0.014360177 -0.014361932 -0.014361686 0.06537007 0.06541702 0.06480896 0.06619058
0.06669361 0.06551014 0.06677579 0.06675376 0.06571413 0.06339888 0.028109035 0.016638482
-0.07455864 -0.037942637 0.12733555 0.10988173 0.0537094 0.035025347 -0.047572117 -0.031706057
0.06523822 0.023901688 0.055126928 -0.013423439 0.00040597137 0.058452178 0.003912667 -0.0067183166
0.016305478 0.0023238729 0.0029474273 0.0028673913 0.011205347 0.040114958 0.064689375 0.03958855
-0.020860903 -0.01103366 0.00037260557 0.047323532 0.013601608 0.05925346 -0.018749477 0.053862542
0.06498364 0.02007045 0.018716129 -0.010404452 0.024413625 0.09768287 0.013513058 0.031123279
0.05975131 -0.04989468 0.046539266 -0.075672925 0.09836145 0.056163404 -0.01963786 0.06861613
0.06805651 0.04357826 0.0035273128 0.00047713306 0.000476215 0.00047715075 0.00047653643 0.0004765057
0.00047705308 0.00047622132 0.0004763126 0.0004765722 0.0012011003 0.0012003303 0.0012003782 0.001200576
00000000: b115 15ba e198 14ba c14c 14ba 0c2f 15ba
00000010: dcaa 13ba 3c5f 13ba 8faf 12ba ffe4 11ba
00000020: d3b6 13ba 71f1 313b bcf1 313b 6fee 313b
00000030: 3df0 313b d4f2 313b 3ff2 313b 2ff5 313b
00000040: c0f1 313b d7ed 313b d02a d9bc aee5 e1bc
00000050: 2c5c d1bc 8218 c6bc adb0 c4bc 6304 bebc
00000060: b5f7 9abc 4acd 9abc ed54 99bc ca1c 583d
00000070: 214a 113d 8f57 7cbd de62 4b3d e597 1a3e
00000080: 7169 6e3d 7143 aa3c 27a3 383c 954f c43d
00000090: 8e83 8bbb 8135 cfbc fa03 8c3c 754c ad3b
000000a0: 4168 d7bc a76c 26bd 5c45 bfbb 2197 66bd
000000b0: a002 153c b638 09bd ee94 3bbd 3cce 873c
000000c0: fab7 0f3d 5b28 44bb 2beb 5e3c 2aea 05bc
000000d0: a100 7cbc 298c 11bc c072 d3bc 646d d73b
000000e0: 4b4b 81bd 3143 b53d 0503 c8bc 0f12 67bc
000000f0: 711c 3e3b 393b 0d3b 2a6b 11bd 832d b0bc
00000100: e8a6 23bd 1806 de3c 7ebb 273d b441 49bc
00000110: 693f 33bd 3fff 963c 6efe 283d cbac 08bd
00000120: c419 21bc 5536 2abc dfd2 12bd b747 233c
00000130: 13bb 223d a3bb 953d 5dc2 86bc 6568 babb
00000140: e36f aa3c 33ae 023b 1e83 033b 2693 063b
00000150: 5d66 023b e4f8 033b 788e 053b d7d9 063b
00000160: 3ad4 013b e3df 033b d786 e03c b683 e03c
00000170: 5787 e03c 6d85 e03c f686 e03c 7f86 e03c
00000180: d886 e03c 3786 e03c 2387 e03c 11f4 153c
00000190: ef47 2e3c 29c0 483c b929 1f3c 8731 173c
000001a0: 5a97 233c f31f 143c d26f 0d3c 349b 2b3c
000001b0: 020f 4aba 4f45 1a3c 058a b3bb 5e85 78bc
000001c0: 06fe 2ebc 4144 f03c aeb0 58bc 62e7 ae3c
000001d0: 5c71 333c 2a3d bbbb 4d2e 4bbc c785 2abc
000001e0: 4ba8 a1bc 766a 873c 3000 b33c 4e3a b4bc
000001f0: 173a ea3c b0e9 333d d623 89bb a1fe c2bc
00000200: f006 88bc 9e87 56bc 6e24 20bc 6389 6dbc
00000210: 6573 a33c c96c 663c e367 57bb 3162 053c
00000220: a38a c93c 6a83 ffba 9b7f cb3a 4b97 8d3c
00000230: 68d8 5e3b 384d 1fba 69af 1a3c 8206 62bc
00000240: b0ca d5bc 58d4 bbbc b562 debc 14d4 8cbc
00000250: 0187 a4bc 625b bfbc 990b f5bc 2d9d bbbc
00000260: 5b48 80bc 59f4 caba 72d2 013d 1cfa 1dbc
00000270: 9520 1cbc e460 7ebb aa7f 36bc c1b2 b8bc
00000280: a09e c1bc 810b b2bc 136d 8a3b 176d 8a3b
00000290: 5b6d 8a3b 506b 8a3b 446b 8a3b 426b 8a3b
000002a0: 806f 8a3b 606f 8a3b c06e 8a3b 7548 6bbc
000002b0: 474d 6bbc 814d 6bbc 7b52 6bbc ab4d 6bbc
000002c0: 0f48 6bbc f346 6bbc 4f4e 6bbc 474d 6bbc
000002d0: bee0 853d 5cf9 853d 8fba 843d ed8e 873d
000002e0: a996 883d 2e2a 863d bfc1 883d 32b6 883d
000002f0: 2195 863d 46d7 813d eb44 e63c 6d4d 883c
00000300: 33b2 98bd bd69 1bbd 4064 023e ac09 e13d
00000310: 63fe 5b3d bd76 0f3d fbda 42bd 36de 01bd
00000320: 9e9b 853d 79cd c33c c6cc 613d fced 5bbc
00000330: 8ed8 d439 8d6b 6f3d d435 803b 5325 dcbb
00000340: 1193 853c 1e4c 183b a029 413b d8ea 3b3b
00000350: a296 373c 954f 243d dd7b 843d 9a27 223d
00000360: 7ce4 aabc 86c6 34bc 465a c339 52d6 413d
00000370: 47d9 5e3c c2b3 723d 8198 99bc f89e 5c3d
00000380: 2516 853d c96a a43c 9152 993c 6f77 2abc
00000390: 15ff c73c f50d c83d e065 5d3c 3ff6 fe3c
000003a0: cabd 743d 5d5e 4cbd f59f 3e3d 68fa 9abd
000003b0: ba71 c93d 990b 663d 94df a0bc 9d86 8c3d
000003c0: 3661 8b3d 1e7f 323d 7d2a 673b b727 fa39
000003d0: 7fac f939 172a fa39 a3d7 f939 83d3 f939
000003e0: fb1c fa39 58ad f939 98b9 f939 70dc f939
000003f0: 3d6e 9d3a 6754 9d3a 0256 9d3a a55c 9d3a

bias f4 [32]
0.009756763 -2.152431e-05 -0.0010318828 0.0018270336 0.004157395 0.0049638553 -0.034190517 -0.0039046789
0.045155227 0.0027138838 -0.005373639 -0.015491997 0.0001942978 -0.0025322614 0.00023980763 -0.030656727
0.008455628 0.019554319 -0.028568368 0.0008224782 0.024284713 -0.01972214 -0.0029287788 0.003094676
0.042400904 0.0038912129 0.0005665672 0.014126096 0.021955715 0.0036695497 0.024283051 0.018338459
00000000: d4da 1f3c 1b8f b4b7 3e40 87ba 1379 ef3a
00000010: c23a 883b d6a7 a23b 5b0b 0cbd a4e5 7fbb
00000020: b0f4 383d 6adb 313b 5a15 b0bb 25d2 7dbc
00000030: 6bbc 4b39 4cf4 25bb df74 7b39 d123 fbbc
00000040: 7989 0a3c 6130 a03c 3608 eabc 949b 573a
00000050: bcf0 c63c 5390 a1bc c1f0 3fbb 0cd0 4a3b
00000060: 92ac 2d3d b803 7f3b ae85 143a 2471 673c
00000070: 79dc b33c d47c 703b 40ed c63c 893a 963c

weight f4 [32]
0.08073619 1.0433686e-05 0.3047836 0.20442596 0.22143641 0.39256436 0.26222056 0.21331982
0.2020803 0.39781693 0.122009024 0.5504485 0.11251379 0.13828018 0.057673745 0.17045604
0.13286822 0.24557374 0.19008842 -6.3757147e-06 0.17491826 0.25203678 0.15978087 0.08709518
0.33629084 0.16404326 0.07979013 0.037400432 0.07460304 0.041837987 0.25789335 0.12733513
00000000: 0459 a53d 570c 2f37 990c 9c3e 0a55 513e
00000010: 3ac0 623e 32fe c83e c641 863e 8370 5a3e
00000020: 23ee 4e3e a9ae cb3e dedf f93d 31ea 0c3f
00000030: a16d e63d 5299 0d3e 4e3b 6c3d 078c 2e3e
00000040: 9b0e 083e af77 7b3e 8aa6 423e f9ee d5b6
00000050: c61d 333e f70a 813e 999d 233e f55e b23d
00000060: 502e ac3e f5fa 273e 0269 a33d 3231 193d
00000070: 7bc9 983d 4f5e 2b3d 990a 843e 2464 023e

bias f4 [32]
-0.02232813 -0.028619919 -0.12257055 -0.119238585 0.0047455546 0.014210883 0.014605268 0.012708466
0.015117716 -0.1656086 0.05214742 0.049803607 -0.10394576 -0.15239435 -0.06444072 0.10241483
-0.026788944 0.011484237 -0.0010876993 -0.015122678 0.046315268 0.0053639696 -0.18947196 -0.031675827
-0.002433789 -0.09920679 -0.06671585 0.023850076 0.0313495 0.013214865 -0.09314185 -0.0020206305
00000000: 7ce9 b6bc 5274 eabc 4506 fbbd 5c33 f4bd
00000010: 9980 9b3b c3d4 683c ef4a 6f3c 2b37 503c
00000020: 4cb0 773c 4d95 29be 8898 553d defe 4b3d
00000030: 84e1 d4bd 440d 1cbe 7ff9 83bd debe d13d
00000040: 7d74 dbbc 6228 3c3c 2291 8eba 1cc5 77bc
00000050: 14b5 3d3d 3dc4 af3b f004 42be 83be 01bd
00000060: 3480 1fbb ee2c cbbd 52a2 88bd 3c61 c33c
00000070: 5568 003d 2983 583c 27c1 bebd 8e6c 04bb

running_mean f4 [32]
-0.091900595 0.05084034 0.3853432 -0.06964013 0.026272982 0.018158946 -0.018254463 0.008722713
0.04275812 0.5429331 -0.012874112 -0.023072394 0.3206519 0.41128328 0.18485573 -0.065105036
-0.0084756445 0.056802243 -0.030465048 -0.0009010829 0.03918258 0.00025620524 0.3230188 -0.007895128
0.040675595 -0.040457826 0.21668866 -0.010997082 0.005998266 -0.0005426672 -0.016091768 0.045369964
00000000: 6136 bcbd f63d 503d b44b c53e 7c9f 8ebd
00000010: 703a d73c 12c2 943c 628a 95bc b6e9 0e3c
00000020: 2323 2f3d aafd 0a3f f1ed 52bc 5102 bdbc
00000030: 7c2c a43e b993 d23e d24a 3d3e ca55 85bd
00000040: 6edd 0abc 78a9 683d d691 f9bc a636 6cba
00000050: ea7d 203d 4953 8639 b862 a53e 915a 01bc
00000060: 749b 263d 1bb7 25bd a2e3 5d3e 1b2d 34bc
00000070: 1a8d c43b c841 0eba e2d2 83bc dbd5 393d

running_var f4 [32]
0.081366085 0.08244323 0.6855649 0.06098877 0.40666243 0.5887226 0.419951 0.14121625
0.05992144 1.2156016 0.06472571 0.11833054 0.22399835 0.20659684 0.13542733 0.053542692
0.08642895 0.4013016 0.08037896 0.04305665 0.09838745 0.51843786 0.0656283 0.04883496
0.08437277 0.034076776 0.29669565 0.06826116 0.27189448 0.058805376 0.05553981 0.32287005
00000000: 43a3 a63d ffd7 a83d 2e81 2f3f 5ccf 793d
00000010: 0f36 d03e 86b6 163f d103 d73e fe9a 103e
00000020: 2f70 753d d598 9b3f ea8e 843d 4857 f23d
00000030: d35f 653e 1f8e 533e 76ad 0a3e 954f 5b3d
00000040: a901 b13d 6777 cd3e b99d a43d 2b5c 303d
00000050: 5c7f c93d 58b8 043f 2168 863d 2b07 483d
00000060: a1cb ac3d 1794 0b3d 7ee8 973e 82cc 8b3d
00000070: c135 8b3e e8dd 703d b67d 633d 394f a53e

weight f4 [32, 35, 3, 3]
2.609314e-07 2.6029218e-07 2.5989945e-07 2.6144525e-07 2.6119307e-07 2.598877e-07 2.6040038e-07 2.6053203e-07
2.6205493e-07 1.0319586e-07 1.03197415e-07 1.03130844e-07 1.0340361e-07 1.03256845e-07 1.0328228e-07 1.03178934e-07
1.03678225e-07 1.03133615e-07 1.2576594e-05 1.3672426e-05 1.310968e-05 1.4186189e-05 1.5758074e-05 1.4763277e-05
1.3526076e-05 1.486387e-05 1.3689891e-05 1.723645e-08 2.442441e-07 1.3570917e-07 8.2095106e-08 5.2389896e-07
3.5540629e-07 2.6498787e-08 2.278746e-07 3.2985432e-07 -9.505097e-09 1.6514886e-06 1.0781001e-06 2.7935041e-08
2.9407802e-06 1.0728247e-05 4.9410698e-09 5.4365336e-07 9.154628e-07 5.04293e-06 3.4885885e-05 2.170499e-05
1.2120952e-05 2.5653664e-05 3.077414e-05 5.588772e-06 8.664315e-06 1.0485788e-05 1.9799762e-07 3.2902227e-07
-3.281679e-08 1.899226e-07 3.6590194e-07 -3.2806142e-07 -3.6548787e-08 -7.4862186e-07 -1.0894986e-06 2.7577232e-07
2.8501236e-06 5.2599835e-06 4.9037465e-07 8.372558e-06 8.305958e-06 1.0302642e-07 7.1216135e-07 2.555144e-06
2.14308e-07 8.585313e-06 5.615708e-07 2.0292175e-07 -1.630589e-05 -1.41035425e-05 1.808115e-07 -9.36643e-06
-1.1815651e-05 5.277123e-07 8.07514e-06 5.3760464e-06 4.2433362e-07 1.3802848e-05 5.3047646e-05 2.4406586e-07
4.7232556e-06 1.2136677e-05 -6.458471e-08 2.3370476e-06 3.2004145e-06 3.3572363e-08 2.1069547e-05 4.9016828e-05
1.99911e-08 1.0755346e-06 1.2070207e-06 -3.980261e-08 1.0451231e-06 4.0444257e-07 6.903607e-08 4.459211e-06
2.8571117e-06 4.4950815e-07 2.3136413e-07 1.0997244e-06 5.9333556e-06 5.58621e-05 3.6394806e-05 1.2519778e-05
8.051389e-05 9.224277e-05 1.1063888e-05 2.915782e-05 3.8625043e-05 8.929683e-08 1.7203593e-06 7.7776565e-07
1.4905863e-08 1.5425051e-06 5.40323e-06 5.5587993e-08 4.780268e-07 9.201844e-07 1.4361926e-06 4.842742e-06
9.405678e-06 3.0704844e-06 6.8828835e-05 7.857031e-05 -2.0118566e-06 -1.4845569e-05 1.491402e-05 7.671455e-07
1.5620251e-06 7.1703545e-07 2.2822447e-07 1.0128442e-06 2.0354273e-06 7.5427e-08 -1.15841075e-07 2.5571265e-07
1.0166145e-06 3.1277298e-06 2.8878553e-06 5.647622e-07 2.2694553e-06 2.6533658e-06 1.2346885e-07 1.1012885e-06
3.353208e-07 2.4143725e-07 1.1051848e-06 6.263961e-07 4.2713076e-08 7.161265e-07 9.685416e-07 1.688283e-08
-1.3081656e-08 -1.00688595e-07 3.9094186e-08 7.466955e-07 -6.074947e-07 3.2553817e-07 1.0278892e-06 1.6783867e-08
1.1718439e-07 1.38708e-06 7.376238e-07 3.086308e-07 1.5665928e-06 8.5854725e-07 6.9822676e-08 1.6676462e-07
2.9021398e-06 1.2351148e-08 -1.6971038e-07 4.6047285e-07 6.8376113e-07 4.9679907e-06 4.9728724e-06 3.3644105e-07
3.9322163e-06 2.9083476e-05 1.8255626e-07 5.4775597e-08 1.7031726e-06 6.824205e-07 2.1985068e-06 -1.836877e-07
-9.871764e-09 1.1666539e-06 1.354599e-05 3.3206234e-08 8.7361093e-07 4.947899e-06 5.3807007e-08 1.0895483e-06
6.1224227e-06 1.7239768e-07 1.0478476e-06 7.567837e-06 2.8113213e-08 1.039788e-06 4.5302403e-07 1.9749078e-07
4.2806664e-06 8.287615e-07 6.0593857e-07 -6.4370863e-07 4.165478e-06 4.162768e-07 1.5745546e-06 1.801075e-06
1.01683646e-07 2.239741e-06 2.981144e-06 5.2677296e-07 4.2458028e-06 1.8420133e-05 5.6259392e-08 5.668301e-07
2.0220677e-06 -1.29889886e-08 7.5893985e-07 2.3185714e-06 9.770661e-09 8.522349e-07 9.38926e-06 2.6703144e-09
1.1849719e-07 8.0384586e-07 9.744663e-07 4.7110498e-06 5.8642644e-07 1.3671879e-08 6.160543e-07 3.3402448e-06
7.1029578e-09 4.4841275e-07 8.7277454e-07 -1.1634755e-06 3.5506678e-06 9.803551e-07 5.1297627e-07 3.0041749e-05
1.5714886e-06 1.0561438e-06 2.9061202e-05 2.860007e-07 1.255474e-08 5.923878e-07 3.7186922e-07 2.204326e-08
00000000: 2316 8c34 49be 8b34 4f88 8b34 c35c 8c34
00000010: 1a3a 8c34 b286 8b34 28cd 8b34 40df 8b34
00000020: 8eb0 8c34 869c dd33 619d dd33 c878 dd33
00000030: bc0e de33 0dbe dd33 09cc dd33 3893 dd33
00000040: b5a5 de33 4e7a dd33 0f00 5337 9f62 6537
00000050: a6f1 5b37 3801 6e37 3530 8437 cbaf 7737
00000060: 0eee 6237 d65f 7937 a2ad 6537 5b0f 9432
00000070: a720 8334 74b7 1134 434c b033 10a2 0c35
00000080: abce be34 739f e332 b1ad 7434 d516 b134
00000090: dc4b 23b2 b7a8 dd35 3db3 9035 cef5 ef32
000000a0: 385a 4536 78fd 3337 1cc6 a931 93ef 1135
000000b0: 20be 7535 7036 a936 6f52 1238 1c13 b637
000000c0: 185b 4b37 d332 d737 7b13 0138 3087 bb36
000000d0: f35c 1137 1eec 2f37 2c99 5434 7aa4 b034
000000e0: 71f2 0cb3 87ed 4b34 2e71 c434 6b20 b0b4
000000f0: d1f9 1cb3 e7f4 48b5 e33a 92b5 dc0d 9434
00000100: c044 3f36 ea7e b036 4aa2 0335 dd77 0c37
00000110: d159 0b37 603f dd33 5b2b 3f35 0a79 2b36
00000120: 891c 6634 a309 1037 dabe 1635 b5e2 5934
00000130: a2c8 88b7 419e 6cb7 1625 4234 8324 1db7
00000140: d63b 46b7 1da8 0d35 767a 0737 e363 b436
00000150: f8cf e334 c892 6737 7a7f 5e38 2808 8334
00000160: 757c 9e36 a19e 4b37 d2b1 8ab3 2cd6 1c36
00000170: b4c6 5636 3431 1033 82be b037 6b97 4d38
00000180: e5b8 ab32 165b 9035 ea00 a235 6ff3 2ab3
00000190: 2846 8c35 2a22 d934 fb40 9433 55a0 9536
000001a0: cebc 3f36 ee53 f134 e36c 7834 3e9a 9335
000001b0: 2317 c736 794d 6a38 a0a6 1838 090c 5237
000001c0: 91d9 a838 7672 c138 0a9f 3937 f197 f437
000001d0: 5301 2238 74c3 bf33 18e7 e635 a6c7 5035
000001e0: 570a 8032 1208 cf35 644d b536 a5bf 6e33
000001f0: c051 0035 9702 7735 34c3 c035 d67e a236
00000200: 14cd 1d37 850e 4e36 3358 9038 1dc6 a438
00000210: 6f03 07b6 3c11 79b7 3a37 7a37 d6ed 4d35
00000220: c6a6 d135 4d7a 4035 dd0d 7534 10f1 8735
00000230: 6098 0836 6ffa a133 4ec4 f8b3 e148 8934
00000240: 9c72 8835 fde5 5136 facc 4136 2a9a 1735
00000250: f24c 1836 7a10 3236 dc92 0434 fccf 9335
00000260: 2406 b434 e29e 8134 dc55 9435 9d25 2835
00000270: 8673 3733 d73b 4035 d6fe 8135 bc05 9132
00000280: bbbd 60b2 243a d8b3 83e8 2733 8670 4835
00000290: b812 23b5 a0c5 ae34 01f6 8935 1d2c 9032
000002a0: cda6 fb33 b52b ba35 1f01 4635 e5b1 a534
000002b0: b843 d235 eb76 6635 6cf1 9533 e90f 3334
000002c0: 62c2 4236 ec30 5432 a239 36b4 e836 f734
000002d0: b58b 3735 b7b2 a636 a6dc a636 1ba0 b434
000002e0: 7bf1 8336 4af8 f337 af04 4434 6842 6b33
000002f0: 9198 e435 942f 3735 0f8a 1336 b13b 45b4
00000300: 7a98 29b2 ec95 9c35 9643 6337 a49e 0e33
00000310: 1682 6a35 2106 a636 6e19 6733 983c 9235
00000320: 366f cd36 501c 3934 c5a3 8c35 3aef fd36
00000330: 9c7d f132 d88e 8b35 2637 f334 da0d 5434
00000340: a5a2 8f36 0e78 5e35 c8a7 2235 52cb 2cb5
00000350: 2fc5 8b36 a67c df34 4955 d335 77bc f135
00000360: 2d5d da33 754e 1636 aa0f 4836 9067 0d35
00000370: 2b77 8e36 ef84 9a37 dba1 7133 4528 1835
00000380: dcb2 0736 2d26 5fb2 f3b9 4b35 c198 1b36
00000390: d2db 2732 23c5 6435 9186 1d37 ab80 3731
000003a0: 8578 fe33 dec7 5735 68ca 8235 9c13 9e36
000003b0: eb6a 1d35 8fe1 6a32 ee5e 2535 f828 6036
000003c0: 470e f431 61bd f034 9c48 6a35 b728 9cb5
000003d0: 0248 6e36 bf94 8335 76b3 0935 2a02 fc37
000003e0: f0eb d235 d3c0 8d35 75c8 f337 a38b 9934
000003f0: 55b0 5732 9404 1f35 51a5 c734 a459 bd32

bias f4 [32]
2.76151e-21 0.0490354 0.022386052 0.0041632126 0.052877467 -0.021944746 -0.0070593264 1.1745835e-09
0.014717071 -0.0057041342 -0.00062707544 -2.4286079e-05 -3.289775e-05 0.02044772 -0.00045825797 1.5766019e-10
0.0077496883 0.008202435 0.011482903 0.007633975 -3.1336473e-13 -9.2640676e-07 -0.03797158 5.616282e-05
-2.117921e-05 -6.398957e-06 -3.770066e-05 -0.12066365 4.204324e-05 1.9530948e-05 0.011560348 -0.0003953587
00000000: 5fa7 501d 58d9 483d f462 b73c 8f6b 883b
00000010: 0b96 583d 78c5 b3bc ec51 e7bb fc6e a130
00000020: df1f 713c bfe9 babb 5262 24ba f5b9 cbb7
00000030: b1fb 09b8 fa81 a73c 5842 f0b9 6659 2d2f
00000040: 19f1 fd3b 8263 063c c922 3c3c 6c26 fa3b
00000050: 9e68 b0aa 30ae 78b5 1688 1bbd 5e90 6b38
00000060: 02aa b1b7 9fb6 d6b6 c720 1eb8 811e f7bd
00000070: 9657 3038 64d6 a337 9d67 3d3c 2548 cfb9

weight f4 [32]
-0.0005477532 0.18877186 0.114789754 0.08902256 0.33240062 0.34571782 0.093806826 0.0016516553
0.20062421 0.4390342 0.05331338 0.0064115683 -0.0012060532 0.30787784 0.06331071 -2.391226e-05
0.17470597 0.23372059 0.13049541 0.19593138 0.008011345 -0.008572148 0.23376279 -5.6146342e-05
-0.0004482572 0.00031951474 0.00017998418 0.23471527 -7.485357e-05 0.00093572575 0.18795927 -0.00038141006
00000000: 1897 0fba 694d 413e e416 eb3d 7651 b63d
00000010: 6a30 aa3e ed01 b13e cb1d c03d 5b7c d83a
00000020: 6f70 4d3e 17c9 e03e 215f 5a3d 2218 d23b
00000030: 6e14 9eba 2aa2 9d3e 0ca9 813d 3097 c8b7
00000040: 1fe6 323e 7354 6f3e 97a0 053e 3ca2 483e
00000050: 0442 033c 3272 0cbc 835f 6f3e ad7e 6bb8
00000060: 1004 ebb9 8b84 a739 23ba 3c39 3359 703e
00000070: b4fa 9cb8 7e4b 753a 6578 403e fef7 c7b9

bias f4 [32]
-0.0042199716 0.09678588 -0.046229724 -0.02918467 0.07587924 0.105513215 -0.02876364 -0.0085807135
-0.10683948 0.1306513 -0.061107207 -0.013371766 -0.017993078 0.10627745 -0.023398947 -0.007970258
-0.08378662 -0.054051742 0.10441202 -0.089908265 -0.008309883 -0.023546001 -0.05134426 -0.0043637846
-0.016497195 -0.016164804 -0.03393588 0.01740924 -0.023375098 -0.00628235 -0.048013557 -0.017365875
00000000: b047 8abb ad37 c63d 615b 3dbd b014 efbc
00000010: 9366 9b3d 5017 d83d baa1 ebbc 1f96 0cbc
00000020: a8ce dabd 74c9 053e 8d4b 7abd 4015 5bbc
00000030: 3866 93bc fea7 d93d 26af bfbc af95 02bc
00000040: 5298 abbd 5c65 5dbd f8d5 d53d d321 b8bd
00000050: 2d26 08bc 8be3 c0bc 5c4e 52bd 14fe 8ebb
00000060: 2025 87bc 0d6c 84bc 5900 0bbd d39d 8e3c
00000070: 227d bfbc 2cdc cdbb dda9 44bd e142 8ebc

running_mean f4 [32]
0.00011146886 0.0026294563 -0.030411558 -0.03490813 0.061979607 0.023512976 -0.062065586 -0.0006090341
-0.0490256 0.0416596 0.19163865 -0.021296304 0.06388237 0.0001376742 -0.028361473 0.0013788961
-0.030700348 -0.131052 0.008413272 -0.03897308 3.560196e-05 -0.015093094 -0.18300118 0.047944717
0.035820905 0.0028897773 0.075198725 -0.20378107 0.03023408 -0.010035904 -0.09273322 -0.0064757275
00000000: 63c4 e938 f552 2c3b a921 f9bc d4fb 0ebd
00000010: 54de 7d3d 499e c03c 7c38 7ebd 96a7 1fba
00000020: 11cf 48bd 42a3 2a3d ec3c 443e 9675 aebc
00000030: c3d4 823d a35c 1039 5256 e8bc 13bc b43a
00000040: 4c7f fbbc 7f32 06be d2d7 093c 3da2 1fbd
00000050: 5053 1538 0649 77bc a964 3bbe ae61 443d
00000060: f1b8 123d 6b62 3d3b ca01 9a3d fcab 50be
00000070: 76ad f73c a26d 24bc eaea bdbd 5732 d4bb

running_var f4 [32]
1.07132365e-07 0.013525583 0.02527842 0.01440479 0.021809474 0.016777428 0.035050027 0.0010804872
0.02702007 0.02269242 0.05770423 0.009482759 0.017199485 0.019928997 0.018448722 4.2916265e-05
0.014231274 0.027168343 0.03496285 0.023840904 3.7735952e-06 0.031231336 0.02984102 0.0020588988
0.010392923 0.0042372146 0.032953437 0.04785869 0.01313927 0.0030089528 0.0853932 0.03310913
00000000: a410 e633 689a 5d3c b014 cf3c 1102 6c3c
00000010: c8a9 b23c d170 893c 9e90 0f3d 229f 8d3a
00000020: 3259 dd3c 74e5 b93c 455b 6c3d 935d 1b3c
00000030: efe5 8c3c 2342 a33c c621 973c fd00 3438
00000040: 4a2a 693c 2590 de3c 3535 0f3d 004e c33c
00000050: df3d 7d36 dcd8 ff3c 2875 f43c 97ee 063b
00000060: 1447 2a3c 55d8 8a3b 2ffa 063d 7907 443d
00000070: 1846 573c da31 453b a1e2 ae3d 709d 073d

weight f4 [64, 35, 3, 3]
6.415284e-14 6.848251e-14 6.699358e-14 6.443025e-14 6.5090274e-14 6.586948e-14 6.433784e-14 7.05506e-14
6.400838e-14 3.3947326e-16 3.078905e-16 2.877593e-16 2.779724e-16 3.4086512e-16 2.792957e-16 3.1487762e-16
2.7911533e-16 2.8113519e-16 1.7298293e-16 2.828733e-17 -1.9132825e-17 -6.5917836e-15 -7.984176e-15 -1.7761909e-15
-8.7252085e-14 -6.702534e-14 -9.08649e-15 -7.609612e-16 6.8080786e-15 -3.6320174e-13 -2.644686e-13 5.3217576e-20
-1.1006636e-14 -3.2261947e-11 -9.75947e-14 -1.8627522e-10 7.071847e-19 -2.108368e-21 6.5154995e-19 -2.1583067e-12
-2.7531617e-13 -9.460578e-13 -9.136762e-12 -4.909934e-11 -5.999976e-11 -9.601963e-13 -1.3618748e-15 -1.1233423e-12
-4.345187e-11 -2.0327659e-12 5.0353444e-11 1.5749187e-10 -1.118163e-10 4.3574108e-10 2.8302691e-14 1.3054018e-13
-9.192669e-11 -2.2739821e-15 9.221175e-18 -5.1849957e-12 -9.1392574e-11 -1.0121342e-11 -1.0767511e-11 -5.601088e-11
-4.680942e-11 -3.902448e-10 -6.068085e-11 -7.540712e-12 -7.788353e-12 -2.9498182e-09 -4.2969113e-09 -7.262814e-10
-1.5797044e-10 -4.725413e-10 -7.969206e-10 -4.991135e-10 -5.3881777e-10 -3.1313024e-10 5.3559126e-09 2.6244047e-09
2.7389584e-09 -1.6881916e-14 -1.2113414e-14 -1.7628761e-11 -4.1751096e-11 -3.6401053e-13 -7.79176e-11 2.9765418e-10
-3.1591663e-10 -3.4213894e-09 -2.809557e-15 -8.6738656e-15 -5.181652e-13 -5.7915933e-13 -7.0667065e-15 -9.549095e-13
-8.7109785e-11 -4.9206066e-11 1.3282443e-09 2.3815228e-17 -9.792803e-12 -2.3114776e-11 -9.855545e-13 -2.0103709e-11
-3.5246812e-11 -1.3497962e-11 5.593061e-11 -1.9479995e-09 -1.5526389e-08 -3.9110795e-08 -5.072518e-08 -1.0042326e-07
-1.1012179e-07 -1.303979e-07 -2.3657427e-07 -2.539606e-07 -1.8445503e-07 -5.9631018e-15 5.0608774e-13 -5.45263e-10
-1.8047976e-12 -9.8110796e-14 -1.15825205e-11 -1.454267e-10 -1.972287e-12 -8.045163e-11 -1.9335169e-20 -2.3048527e-20
-3.3693118e-21 -6.336986e-21 1.20258304e-20 7.1501395e-21 -1.0517534e-21 -3.3720993e-21 -7.192127e-21 -2.2889473e-15
9.05682e-17 -3.373119e-12 -2.7171733e-13 -3.1956245e-16 -1.06349506e-13 -3.3588943e-10 -1.3768345e-11 -7.405397e-10
3.0792768e-17 -5.018315e-18 -1.0139412e-15 -6.3545343e-16 -2.5573615e-15 -6.8356586e-16 -2.0076315e-12 -3.597905e-11
-4.034749e-12 -1.3563879e-14 -3.2632172e-16 -5.240133e-11 -7.178703e-13 4.8472046e-17 -5.220102e-14 -1.8485968e-09
-5.2322344e-11 -2.4654458e-09 -3.1630088e-20 -1.1047919e-19 7.35839e-18 -8.5835505e-20 -3.1729346e-15 -4.633407e-14
2.661227e-16 -1.4188866e-11 -7.761754e-11 3.460178e-17 -1.4571547e-12 -3.3661726e-11 -2.9477993e-13 -3.1578889e-12
-8.85955e-11 -2.1262281e-10 -4.964308e-10 -2.0591026e-08 1.151322e-14 4.3831505e-13 1.7600173e-10 -9.402343e-13
-7.211305e-13 3.3554201e-12 -1.1815631e-09 -5.831305e-10 2.2204261e-11 -1.3115295e-14 -4.701987e-16 -1.1316311e-12
-6.518535e-14 -1.7084917e-15 -8.814614e-15 -9.8039965e-11 -1.1866838e-10 -8.5212476e-11 -7.116962e-13 -5.748737e-15
-1.8824766e-09 -1.0554036e-14 -3.880558e-14 -3.3297983e-14 -5.0900086e-11 -2.4584716e-09 -6.2212444e-11 1.0274904e-17
3.4556908e-14 -3.8806475e-12 -8.1187584e-16 1.7479287e-19 -8.039086e-14 -2.8821556e-11 -1.2237148e-12 -2.4029126e-10
2.7396247e-18 -8.5140004e-16 -1.1975461e-11 -1.286376e-14 1.9259434e-18 -2.7411741e-14 -3.157401e-11 -1.1620867e-12
-1.13158434e-10 -1.4415e-15 2.3896226e-14 -8.7363905e-13 -2.9137276e-11 -4.203157e-14 5.4666332e-12 3.4922567e-09
-5.380449e-10 1.6812894e-09 8.023532e-19 8.2741665e-21 1.2424334e-17 -5.8311756e-15 -2.1193237e-15 -4.861709e-13
-2.766204e-13 -4.0392464e-13 -1.6535099e-12 -1.0780359e-14 -1.3776716e-17 -2.4116484e-12 -7.611471e-21 -4.465098e-19
-7.589617e-19 1.056374e-17 -3.0557578e-15 -2.261755e-11 -2.5573172e-18 2.4574432e-14 6.374792e-12 3.9011055e-13
00000000: 9875 9029 7b35 9a29 2bdb 9629 8315 9129
00000010: fd91 9229 2c53 9429 3de0 9029 a7dd 9e29
00000020: 5222 9029 69b1 c325 9e7c b125 c7e1 a525
00000030: 7c3d a025 d07e c425 c500 a125 bc83 b525
00000040: 27e6 a025 3b10 a225 8d6f 4725 c973 0224
00000050: 1b78 b0a3 797e eda7 83d4 0fa8 e1f9 ffa6
00000060: 6779 c4a9 7aed 96a9 0ab0 23a8 0755 5ba6
00000070: 7149 f527 e376 ccaa f1e1 94aa 1a50 7b1f
00000080: 2647 46a8 b9e3 0dae 84c3 dba9 d0cf 4caf
00000090: 5db9 5021 c54d 1f9d b94d 4021 99e0 17ac
000000a0: 3efd 9aaa 5325 85ab 51bc 20ad f1f0 57ae
000000b0: ddf0 83ae b822 87ab 5044 c4a6 ac18 9eab
000000c0: 751a 3fae 0e0b 0fac f074 5d2e 052a 2d2f
000000d0: fbe2 f5ae 1b8d ef2f 90ed fe28 a5f9 122a
000000e0: 2026 caae 91db 23a7 c519 2a23 4a6e b6ac
000000f0: 72f9 c8ae 790e 32ad 8f6c 3dad a556 76ae
00000100: b9de 4dae 138a d6af 4870 85ae 59a8 04ad
00000110: a003 09ad c0b5 4ab1 08a4 93b1 83a3 47b0
00000120: bab0 2daf 23e4 01b0 4d0e 5bb0 fd31 09b0
00000130: ee1b 14b0 2a25 acaf 1b07 b831 0459 3431
00000140: 4438 3c31 0c0f 98a8 4337 5aa8 7110 9bad
00000150: 8e9f 37ae 72eb ccaa b657 abae 1aa3 a32f
00000160: 50ad adaf b81d 6bb1 2e73 4aa7 2541 1ca8
00000170: bdd9 11ab d404 23ab dd9a fea7 3e64 86ab
00000180: 738e bfae 1b69 58ae 718d b630 1ea8 db23
00000190: dd46 2cad d951 cbad 58b4 8aab 87d5 b0ad
000001a0: 6204 1bae 6b75 6dad 45fc 752e 92dd 05b1
000001b0: e45e 85b2 c6fa 27b3 eddc 59b3 45a8 d7b3
000001c0: 187c ecb3 8003 0cb4 0a05 7eb4 1458 88b4
000001d0: 9d0e 46b4 e8d7 d6a7 7773 0e2b 79e1 15b0
000001e0: b000 feab 06ed dca9 09c3 4bad fae5 1faf
000001f0: 90c9 0aac 3eea b0ae 929d b69e ebaf d99e
00000200: f893 7e9d 9167 ef9d 5929 631e f40f 071e
00000210: bdef 9e9c e3c9 7e9d feda 079e a0ef 24a7
00000220: 07d6 d024 b65c 6dac 98f6 98aa 1837 b8a5
00000230: 517a efa9 3ca8 b8af 1d37 72ad d98e 4bb0
00000240: af01 0e24 a524 b9a2 d41f 92a6 3028 37a6
00000250: fe46 38a7 4206 45a6 4646 0dac cf3c 1eae
00000260: caf5 8dac 5a58 74a8 961c bca5 a776 66ae
00000270: 0210 4aab b189 5f24 ae17 6ba9 b811 feb0
00000280: b91d 66ae 956c 29b1 6e5e 159f 496e 02a0
00000290: 04bd 0723 61ac ca9f 50a2 64a7 8cab 50a9
000002a0: c768 9925 f99c 79ad caae aaae 9292 1f24
000002b0: 8813 cdab bc0b 14ae 44f2 a5aa 7837 5eac
000002c0: d5d2 c2ae 00c8 69af 3675 08b0 25e0 b0b2
000002d0: 5b67 4f28 dbbf f62a 1584 412f 8353 84ab
000002e0: eefa 4aab e01d 6c2c 8e64 a2b0 294a 20b0
000002f0: 8d4f c32d 9f43 6ca8 8a86 07a6 4f43 9fab
00000300: ccc8 92a9 3838 f6a6 3bca 1ea8 9897 d7ae
00000310: 2e7a 02af 5c62 bbae 1e53 48ab bd1e cfa7
00000320: e15c 01b1 e61f 3ea8 cac3 2ea9 f6f5 15a9
00000330: 67dc 5fae e4f1 28b1 7ece 88ae dd89 3d23
00000340: 67a1 1b29 c489 88ac dd01 6aa6 e75b 4e20
00000350: 2d06 b5a9 6084 fdad f938 acab fd19 84af
00000360: 0c26 4a22 3c66 75a6 afac 52ad 9fbb 67a8
00000370: 0b1c 0e22 2ce7 f6a8 2ddd 0aae 968c a3ab
00000380: 89d6 f8ae f7bd cfa6 f23c d728 54e8 75ab
00000390: a825 00ae 1a4b 3da9 0e57 c02c 6efc 6f31
000003a0: 8be5 13b0 1d13 e730 18d0 6c21 6a4b 1c1e
000003b0: 4230 6523 1a17 d2a7 9fb6 18a7 4ed8 08ab
000003c0: 33b9 9baa ad63 e3aa f9b5 e8ab a233 42a8
000003d0: b422 7ea3 65b4 29ac d1c6 0f9e 54c9 03a1
000003e0: 8601 60a1 dadd 4223 c830 5ca7 32f2 c6ad
000003f0: 5bb2 3ca2 c858 dd28 064b e02c db9c db2a

bias f4 [64]
-8.3484e-24 -2.2250376e-24 5.6542162e-06 -4.2834658e-23 1.5403017e-19 0.02756748 0.0021405667 -0.008447176
-1.1970463e-15 7.533972e-05 0.019528992 2.1864236e-05 0.031701647 5.833379e-27 -5.9964664e-06 -7.939121e-20
-0.04578956 4.1770892e-12 -3.7491561e-06 0.002573348 3.3154472e-06 -1.7453456e-05 -1.7720199e-06 -4.7372636e-16
0.038552795 -0.00019721557 -1.6284074e-22 -0.018227113 -1.043856e-24 -2.9946916e-05 -0.0049500572 -0.00010903707
-9.16186e-17 -4.7957856e-05 3.910053e-23 -3.299257e-07 -0.022627922 1.6314475e-22 1.4829386e-05 -0.00015714102
0.029749908 -0.0031301074 0.015739359 -2.1977876e-06 -2.1818106e-07 1.6366479e-26 0.020199431 1.2054871e-06
3.9549577e-05 -4.747897e-23 -2.8254278e-23 -1.7989528e-09 0.009713406 -0.015216827 1.04420856e-11 1.4634355e-25
-3.2281996e-06 -0.0031236205 -0.02889848 0.0005369574 1.8030348e-14 0.020542072 1.8303881e-05 6.409968e-06
00000000: 467b 2199 6927 2c98 59b9 bd36 bd22 4f9a
00000010: c3d8 3520 32d5 e13c c048 0c3b 0666 0abc
00000020: 3783 aca6 b4ff 9d38 44fb 9f3c 1769 b737
00000030: 96d9 013d 7e15 e713 4135 c9b6 0b75 bb9f
00000040: d58d 3bbd e0f7 922c 039a 7bb6 9ea5 283b
00000050: f37e 5e36 0369 92b7 24d6 edb5 d68a 08a6
00000060: 89e9 1d3d a7cb 4eb9 c5dc 449b 0751 95bc
00000070: 6587 a197 8336 fbb7 1734 a2bb d5aa e4b8
00000080: 1342 d3a4 5b26 49b8 1d14 3d1a a520 b1b4
00000090: 315e b9bc db3a 451b bacb 7837 39c6 24b9
000000a0: 14b6 f33c 7d22 4dbb d4ef 803c b47d 13b6
000000b0: 2745 6ab4 f415 a214 4779 a53c 39cc a135
000000c0: 09e2 2538 1e98 659a 1aa1 089a 063f f7b0
000000d0: fa24 1f3c 0050 79bc f9b2 372d 1f2a 3516
000000e0: 0ca4 58b6 a8b5 4cbb 81bc ecbc 9ac2 0c3a
000000f0: 2767 a228 d947 a83c 498b 9937 3515 d736

weight f4 [64]
0.00091234996 0.00034473665 0.0009507034 0.0003646966 0.00054587907 0.098035395 0.0540153 0.1325433
0.00089113327 0.0039285677 0.12776527 0.0016300483 0.22412339 0.0005125645 0.00018595373 0.00014487837
0.2289873 0.00044029043 0.00053186493 0.04456665 -0.00035167515 0.0090850415 0.00089583226 0.0008170954
0.1999535 -0.0004418424 0.0004454231 0.14526427 0.0005262746 0.002074241 0.11404171 0.016822765
0.0012122223 0.0011901134 0.00031711653 0.00058835093 0.17152603 0.0008953994 -0.0018396017 0.00032489267
0.187263 0.18332206 0.10357976 0.001125371 0.00056545023 0.00050149317 0.17587765 0.00019717522
0.0012543742 0.00093931716 0.0003042498 0.00042222944 0.13142347 0.26282728 0.00056779257 0.00040545443
0.005967572 0.08990778 0.2884804 0.27912784 0.00086604286 0.05803852 -0.0005571929 -1.6733267e-05
00000000: c52a 6f3a c5bd b439 a038 793a c034 bf39
00000010: 5319 0f3a c8c6 c83d 263f 5d3d 6eb9 073e
00000020: f19a 693a 37bb 803b e6d4 023e 58a7 d53a
00000030: 9a80 653e 9f5d 063a 93fc 4239 7eea 1739
00000040: a67b 6a3e c8d6 e639 da6c 0b3a 858b 363d
00000050: 0a61 b8b9 6dd9 143c 49d6 6a3a 5832 563a
00000060: 9cc0 4c3e 15a7 e7b9 ad87 e939 28c0 143e
00000070: b1f5 093a fdef 073b b38e e93d e5cf 893c
00000080: 6ee3 9e3a 94fd 9b3a a942 a639 903b 1a3a
00000090: 85a4 2f3e 3db9 6a3a ca1e f1ba 5b56 aa39
000000a0: dfc1 3f3e c7b8 3b3e a021 d43d 2f81 933a
000000b0: b93a 143a a376 033a 4519 343e d2c0 4e39
000000c0: d069 a43a 823c 763a b883 9f39 ad5e dd39
000000d0: e093 063e 4c91 863e ead7 143a 2c93 d439
000000e0: 9f8b c33b 9221 b83d b4b3 933e d8e9 8e3e
000000f0: 2707 633a cdb9 6d3d 9510 12ba 6b5e 8cb7

bias f4 [64]
-6.3961133e-06 -1.5254707e-05 -0.017833319 -4.6981118e-06 -3.698872e-05 -4.843384e-05 -0.056310907 0.022921788
-0.00029154163 -0.012727572 -0.034207363 -0.008382678 -0.009162504 -4.7273907e-08 -0.0048801773 -1.783204e-05
0.19879226 -0.00041676415 -0.007783532 -0.030102417 -0.0032870548 -0.030919911 -0.006866066 -0.0001954966
0.014430255 -0.005417833 -1.6655003e-05 -0.007583063 -1.9208187e-06 -0.005475453 -0.023844238 -0.056413036
-0.0005528921 -0.015327538 -1.5535031e-06 -0.0056126583 0.102451526 -5.5817476e-05 -0.0048090713 -0.03859349
-0.033199877 0.060614288 -0.116447225 -0.014040882 -9.693167e-05 -6.434468e-06 -0.069443256 -0.005816791
-0.0065008365 -5.6654073e-05 -8.169131e-07 -0.006934721 -0.06532536 0.03933335 -0.0002985959 -1.3462604e-06
-0.016831229 -0.04275436 0.17626417 0.021337938 -0.00022626421 -0.030623816 -0.005392017 -0.0022780392
00000000: 329e d6b6 78ee 7fb7 2e17 92bc 79a4 9db6
00000010: 5624 1bb8 7125 4bb8 44a6 66bd 79c6 bb3c
00000020: 0eda 98b9 4e87 50bc 051d 0cbd 8057 09bc
00000030: 541e 16bc 360a 4bb3 e5e9 9fbb 0496 95b7
00000040: 3390 4b3e 2381 dab9 000d ffbb 5899 f6bc
00000050: a16b 57bb c14b fdbc bcfc e0bb 38fe 4cb9
00000060: e06c 6c3c 1488 b1bb 59b6 8bb7 587b f8bb
00000070: 6ae7 00b6 6e6b b3bb fe54 c3bc 5b11 67bd
00000080: f6ef 10ba 5b20 7bbc f681 d0b5 64ea b7bb
00000090: 1bd2 d13d 8f1d 6ab8 6a95 9dbb 3514 1ebd
000000a0: 98fc 07bd b046 783d e27b eebd ba0b 66bc
000000b0: cb47 cbb8 a9e7 d7b6 4438 8ebd c89a bebb
000000c0: f804 d5bb d99f 6db8 d749 5bb5 a83c e3bb
000000d0: 4dc9 85bd 021c 213d dd8c 9cb9 28b1 b4b5
000000e0: a5e1 89bc 321f 2fbd 987e 343e e6cc ae3c
000000f0: 5641 6db9 ccde fabc 84af b0bb 284b 15bb

running_mean f4 [64]
-1.5288107e-07 4.5626982e-07 0.037094384 -8.743202e-07 -4.079323e-06 0.13083151 0.102102354 -0.1764168
-0.000103729624 -0.010513271 0.16826977 -0.0025167787 -0.10496469 -8.840218e-09 0.019246839 2.539686e-07
0.0117737325 -0.00015809108 0.011533976 0.0790058 0.010952696 0.07236125 -0.017134264 -1.6176286e-06
-0.14883937 0.025043847 -2.498779e-08 0.021310579 -1.132831e-08 0.010542572 0.0126169855 0.187651
-2.2257787e-05 -0.020413183 -2.8366546e-07 -0.010763579 -0.00860382 -9.82076e-07 0.05675003 0.093779996
-0.16285886 0.015409495 0.28036875 0.030850906 -1.3789333e-05 -7.703661e-08 -0.17204319 0.01586008
-0.005918496 -5.009722e-06 -1.4731886e-07 0.020806752 -0.13439335 0.10627909 -0.00014448634 -5.892702e-08
0.0035959356 -0.13056506 -0.012033837 0.02918142 -5.3915774e-05 0.16929403 0.03032159 0.05227968
00000000: a127 24b4 3ff5 f434 48f0 173d d4b2 6ab5
00000010: 1ee1 88b6 b2f8 053e 0a1b d13d 9ba6 34be
00000020: 6b89 d9b8 db3f 2cbc e94e 2c3e 8af0 24bb
00000030: baf7 d6bd b1df 17b2 8cab 9d3c 2e59 8834
00000040: 9de6 403c 40c5 25b9 00f9 3c3c cbcd a13d
00000050: f072 333c 2332 943d 285d 8cbc 4c1d d9b5
00000060: 5969 18be c128 cd3c bba4 d6b2 8693 ae3c
00000070: 6f9e 42b2 c0ba 2c3c 79b7 4e3c 9527 403e
00000080: 3cb6 bab7 8c39 a7bc af4a 98b4 b959 30bc
00000090: 09f7 0cbc e0cf 83b5 b872 683d ba0f c03d
000000a0: 79c4 26be 1b78 7c3c 7e8c 8f3e 0abb fc3c
000000b0: bc58 67b7 536f a5b3 172c 30be 00ed 813c
000000c0: f1ef c1bb 2f19 a8b6 b32e 1eb4 ec72 aa3c
000000d0: 699e 09be daa8 d93d 4281 17b9 f216 7db3
000000e0: caa9 6b3b d9b2 05be 9229 45bc e00d ef3c
000000f0: 9f23 62b8 6a5b 2d3e fc64 f83c 3823 563d

running_var f4 [64]
2.487743e-14 5.682415e-12 0.019341081 1.3539304e-12 1.6237773e-11 0.007674451 0.009772649 0.003471686
2.5663917e-08 0.003721583 0.006795043 0.0027221604 0.008409393 9.20973e-17 0.0017738561 1.4398314e-12
0.024616553 9.786284e-08 0.0013195475 0.0044381525 0.0010943824 0.012937979 0.0013643566 5.2405507e-09
0.014084904 0.0024862255 4.6542766e-13 0.029944668 1.0910838e-15 0.0037710045 0.053375956 0.024387103
2.0279807e-09 0.02749651 8.516327e-14 0.0015518741 0.0055655935 9.634089e-13 0.009216705 0.0075031524
0.015278572 0.0049670944 0.024723006 0.0050575584 4.1250012e-10 5.9522953e-15 0.008997454 0.003089749
0.00073045975 3.152361e-11 2.155836e-14 0.001905401 0.0048651774 0.009036369 6.9057826e-08 2.2989504e-13
0.00184927 0.0072099683 0.0047682966 0.006866867 3.1840724e-08 0.027640121 0.002853665 0.0053682122
00000000: 7313 e028 a5ee c72c 3071 9e3c 7c8c be2b
00000010: 37d4 8e2d f679 fb3b 761d 203c 3a85 633b
00000020: 8d73 dc32 cde5 733b f4a8 de3b 4666 323b
00000030: 8dc7 093c a65c d424 bc80 e83a 65a3 ca2b
00000040: a7a8 c93c aa28 d233 abf4 ac3a ec6d 913b
00000050: 6171 8f3a d1f9 533c 36d4 b23a 5f10 b431
00000060: 5fc4 663c f1ef 223b 9901 032b 854e f53c
00000070: e33d 9d26 f522 773b bfa0 5a3d 76c7 c73c
00000080: 9d5c 0b31 5c40 e13c 48c5 bf29 4168 cb3a
00000090: 955f b63b 7796 872b aa01 173c 01dd f53b
000000a0: fa52 7a3c 02c3 a23b e787 ca3c e0b9 a53b
000000b0: 3bc6 e22f 3c74 d627 0f6a 133c 637d 4a3b
000000c0: 537c 3f3a 6ea4 0a2e 322e c228 a6be f93a
000000d0: 116c 9f3b 470d 143c f14c 9433 5e6b 812a
000000e0: 3463 f23a 9941 ec3b 5f3f 9c3b 7503 e13b
000000f0: 3fc1 0833 896d e23c 8e04 3b3b d4e7 af3b

weight f4 [64, 67, 3, 3]
2.0318867e-06 2.0258226e-06 2.0273462e-06 2.027867e-06 2.0256166e-06 2.0259947e-06 2.0256432e-06 2.0271132e-06
2.0256941e-06 2.3318893e-08 2.694725e-08 2.4061556e-08 2.4416268e-08 2.6465509e-08 2.558413e-08 2.3182844e-08
2.6767172e-08 2.3084478e-08 -3.256231e-07 -8.641098e-08 -4.6487e-09 3.8447398e-10 -1.0518309e-08 -5.996536e-08
4.3642596e-09 -4.6657377e-08 -2.3443308e-08 -3.5460976e-13 -2.8142278e-12 -3.4015642e-15 2.8109538e-15 1.0873743e-12
8.456906e-14 -5.4548854e-14 2.2909064e-12 -2.882088e-19 -5.3995116e-16 -1.7404003e-20 -1.3243879e-19 2.8763257e-20
-4.823098e-13 -3.4435287e-17 -9.213634e-12 -1.4272683e-15 -9.614606e-15 3.4581414e-13 1.3974663e-12 -8.8217594e-14
4.990109e-14 6.893303e-14 -4.145074e-15 -8.420214e-12 3.038145e-14 -4.2202145e-11 -2.955376e-19 2.2621398e-18
3.9389e-19 2.2480904e-18 -4.038354e-12 -5.273191e-15 -5.0446635e-16 -1.9173761e-18 2.5476503e-18 9.021897e-12
1.6762546e-11 1.5279758e-12 -4.959347e-14 1.516177e-12 7.928658e-15 5.648912e-12 5.083193e-13 1.1848256e-10
-2.5886675e-07 -6.7562176e-08 -9.228657e-08 2.5073203e-07 1.0905868e-07 -1.5699537e-07 1.0626891e-08 2.1926972e-08
-4.5904528e-08 -4.907671e-08 -2.9764473e-09 -3.735152e-09 -4.12697e-08 -4.1753005e-08 -1.1525209e-07 -3.4101288e-11
-3.3821433e-08 -3.614628e-10 3.0101052e-08 -5.649777e-09 -1.9516684e-09 -2.0878653e-08 -2.6163147e-07 1.1595513e-07
1.2970325e-08 1.2788158e-08 6.4043165e-10 2.0441619e-11 3.041252e-11 -4.4311538e-15 6.155066e-11 1.1760923e-10
2.8103147e-11 1.6969296e-11 5.2275502e-14 2.65128e-14 1.2064554e-08 7.559709e-09 2.9120881e-09 -2.1425693e-10
-1.4669387e-09 -1.0534803e-10 9.6205205e-12 1.7768806e-11 -1.4228321e-12 -1.7582381e-07 -2.713856e-07 -2.5339162e-07
-1.5397382e-07 -2.5427397e-07 -4.2357738e-07 -8.0530665e-10 -1.7920325e-07 -3.3417177e-07 6.2463608e-09 -6.20863e-10
3.7554456e-12 1.1905021e-10 -3.3989407e-09 2.5902997e-11 -8.1633755e-10 -1.2239042e-10 -2.1702227e-11 -1.0018285e-06
-2.1706348e-06 -2.775534e-07 -1.5171718e-06 -3.1683003e-06 -6.646189e-07 -8.212181e-07 -3.0378936e-07 -1.4635046e-07
4.7634583e-23 -1.2787572e-20 -4.9810447e-17 2.583796e-20 -6.0797607e-15 6.344281e-15 -2.3888165e-25 -7.687178e-24
7.4379795e-16 -7.425293e-11 -8.621806e-10 -1.6063006e-10 4.9211476e-13 -4.409991e-12 -2.1842274e-12 2.9900255e-13
5.998543e-14 1.4603671e-12 2.9396665e-12 6.967053e-11 3.094261e-12 4.915714e-15 -1.616014e-13 -9.742909e-12
-2.8540865e-12 -5.680934e-12 3.102437e-17 2.1810256e-06 -7.6104766e-07 -3.5033129e-06 -4.9333465e-07 -8.359696e-06
-5.5257315e-06 -1.1731527e-06 -2.3810712e-06 -2.4620276e-06 -7.7096685e-15 -2.1995229e-15 1.9609382e-16 4.932606e-16
-4.218512e-17 -6.7141694e-17 -9.857957e-18 -1.3876714e-16 -3.2443307e-17 3.762065e-12 -1.4354286e-11 -8.4849846e-13
4.9899763e-12 -8.575311e-10 -1.9158791e-11 -3.0280695e-10 -3.3179628e-10 -2.6522602e-11 -3.001377e-08 -1.5123016e-08
-2.8656035e-09 -7.308856e-08 -2.9505438e-08 -1.5709838e-09 -1.3910892e-11 -1.1513013e-08 -9.014778e-12 -8.84588e-14
9.589705e-15 4.2708134e-15 4.8844866e-14 5.6536476e-15 9.833695e-16 -6.810094e-13 2.853985e-14 2.3640402e-15
-1.9323116e-09 -1.5706195e-08 4.5090185e-11 -2.1863825e-08 -1.718946e-08 -1.0010045e-08 3.5724814e-09 -4.846876e-09
-2.3096376e-10 3.6691266e-09 -5.4319105e-09 -3.6288563e-09 2.8005072e-11 -3.860389e-09 5.149483e-10 -1.7637395e-11
3.0347933e-11 -1.0147811e-09 8.898316e-15 -1.9192921e-14 2.5940437e-15 -2.4023622e-13 -2.298188e-15 1.4993044e-12
4.2959595e-13 -2.5334849e-11 -1.1815556e-14 -8.481999e-07 -1.3388888e-06 -5.7679216e-07 -1.718473e-06 -2.011822e-06
-7.8226793e-07 -5.934209e-07 -1.2570886e-06 -1.9828651e-06 2.5167916e-17 5.2850932e-14 -6.719466e-16 1.0259866e-12
00000000: 8c5b 0836 5ef3 0736 8b0d 0836 7d16 0836
00000010: d4ef 0736 53f6 0736 49f0 0736 8a09 0836
00000020: 29f1 0736 ca4e c832 a179 e732 ecaf ce32
00000030: f1bb d132 4556 e332 19c4 db32 9d23 c732
00000040: a2ed e532 4e4b c632 4cd1 aeb4 f090 b9b3
00000050: 66ba 9fb1 e75d d32f 03b4 34b2 4ec6 80b3
00000060: 6ff4 9531 5464 48b3 6160 c9b2 a7a0 c7aa
00000070: 9f08 46ac c91b 75a7 f28c 4a27 ca08 992b
00000080: be6e be29 8caa 75a9 4d35 212c e220 aaa0
00000090: 5da1 1ba6 4c60 a49e 2b5b 1ca0 a5d4 071f
000000a0: 15c2 07ab 03ce 1ea4 8516 22ad e8b0 cda6
000000b0: 8b33 2da8 12ad c22a 08ad c42b fba5 c6a9
000000c0: 0abc 6029 3039 9b29 8f57 95a7 4621 14ad
000000d0: 6dd3 0829 649b 39ae 6174 aea0 9dea 2622
000000e0: f982 e820 3ae1 2522 4216 8eac 9afc bda7
000000f0: 0c67 11a6 367a 0da2 c1fb 3b22 03b7 1e2d
00000100: e671 932d 210b d72b 6159 5fa9 0962 d52b
00000110: 7bd4 0e28 e0c0 c62c 4414 0f2b e045 022f
00000120: 60fa 8ab4 b316 91b3 142f c6b3 599c 8634
00000130: a533 ea33 8f92 28b4 9091 3632 ec59 bc32
00000140: 9028 45b3 6ac8 52b3 378a 4cb1 bf56 80b1
00000150: 8440 31b3 ea53 33b3 8280 f7b3 a3fa 15ae
00000160: 0f43 11b3 5eb7 c6af 7548 0133 f71f c2b1
00000170: 1d1e 06b1 a558 b3b2 5b76 8cb4 0203 f933
00000180: 18d4 5e32 eab2 5b32 5f0a 3030 6fce b32d
00000190: 74c1 052e 2ea6 9fa7 f159 872e 0e50 012f
000001a0: a932 f72d 7543 952d 8d6d 6b29 5bce ee28
000001b0: 7844 4f32 f4df 0132 ff1d 4831 f793 6baf
000001c0: 519d c9b0 aba9 e7ae f93e 292d cb4b 9c2d
000001d0: ee3e c8ab 15ca 3cb4 f4b2 91b4 e109 88b4
000001e0: 0054 25b4 2683 88b4 0868 e3b4 6b5c 5db0
000001f0: 046b 40b4 3868 b3b4 929f d631 5aa9 2ab0
00000200: 0c22 842c a8e5 022f cc92 69b1 5dd8 e32d
00000210: a664 60b0 d791 06af 12e5 bead 9176 86b5
00000220: 39ab 11b6 a602 95b4 a0a1 cbb5 fc9e 54b6
00000230: 4368 32b5 ae71 5cb5 7e18 a3b4 8224 1db4
00000240: c258 661a e78c 719e ccb5 65a4 5b08 f41e
00000250: e50b dba7 aa93 e427 4fdc 9396 10b1 1499
00000260: 9a62 5626 af48 a3ae 91fe 6cb0 589d 30af
00000270: 9b84 0a2b ab29 9bac 8bb3 19ac cf52 a82a
00000280: 3f13 8729 4587 cd2b 53dc 4e2c 0635 992e
00000290: 40bd 592c 761b b127 6ff2 35aa 2966 2bad
000002a0: a7d6 48ac 4ee1 c7ac 1c13 0f24 bc5d 1236
000002b0: cc4a 4cb5 751a 6bb6 b36d 04b5 9f40 0cb7
000002c0: ac69 b9b6 3875 9db5 7eca 1fb6 5039 25b6
000002d0: 92e2 0aa8 097e 1ea7 ae14 6225 352c 0e26
000002e0: 668b 42a4 76d1 9aa4 e3d8 35a3 d5fc 1fa5
000002f0: 4c9e 15a4 ab5d 842c f585 7cad c2d4 6eab
00000300: b691 af2c 63b7 6bb0 c385 a8ad 4a78 a6af
00000310: 2d68 b6af 974b e9ad 7de8 00b3 dde7 81b2
00000320: 3bec 44b1 dcf4 9cb3 2573 fdb2 14ea d7b0
00000330: 17b9 74ad c4ca 45b2 f396 1ead 0731 c7a9
00000340: b5c0 2c28 4ddf 9927 4cfa 5b29 b2b1 cb27
00000350: eeb7 8d26 e6af 3fab 3588 0029 d858 2a27
00000360: 96c9 04b1 4aea 86b2 094f 462e 0fcf bbb2
00000370: 06a8 93b2 a5f8 2bb2 c27f 7531 9289 a6b1
00000380: 85f2 7daf f523 7c31 97a3 bab1 845f 79b1
00000390: d155 f62d 57a4 84b1 448c 0d30 e223 9bad
000003a0: bc78 052e 7078 8bb0 3d4c 2028 dddf aca8
000003b0: a9eb 3a27 b03d 87aa 169a 25a7 2202 d32b
000003c0: 4dd7 f12a 02d9 dead a2d9 54a8 daaf 63b5
000003d0: deb3 b3b5 dbd4 1ab5 48a6 e6b5 d702 07b6
000003e0: 0bfd 51b5 934b 1fb5 3cb9 a8b5 5d11 05b6
000003f0: 1022 e823 fa04 6e29 e8ac 41a6 1065 902b

bias f4 [64]
-6.8528936e-16 0.012986474 -8.199243e-06 -0.0088219475 6.839184e-07 0.014173658 -0.0052468507 0.0005811121
3.7906833e-07 9.698229e-06 0.008356587 0.00013277515 6.390558e-05 4.3514367e-05 0.007011494 -0.00011765475
0.00011459578 -0.008359144 -0.012019129 -4.496901e-06 -0.062332924 8.372416e-06 1.8250274e-17 5.823548e-14
-0.030747961 -1.6018232e-05 5.926883e-05 1.3491455e-05 0.010251196 0.02353331 -0.0015105702 -0.013597999
-2.5721554e-05 0.006110334 1.9601986e-16 2.6699157e-17 -0.0011451 8.040892e-08 7.806617e-05 0.005302736
-0.00059445284 -1.3397476e-18 3.8565855e-20 -1.966152e-05 -6.993247e-06 -1.8246796e-05 0.05920515 0.021440608
-0.03198072 5.1181123e-06 -5.522812e-05 0.0035531889 -6.2896117e-18 -0.018122027 0.024355924 0.018416477
3.6445777e-05 -6.2939886e-05 -3.4358818e-05 0.00028622252 3.596824e-05 7.812452e-06 1.6974427e-05 -1.5785544e-25
00000000: 6e85 45a6 38c5 543c 7b8f 09b7 ee89 10bc
00000010: 8496 3735 a138 683c c6ed abbb c655 183a
00000020: c182 cb34 94b5 2237 11ea 083c 8f39 0b39
00000030: 0c05 8638 3283 3638 adc0 e53b 6abd f6b8
00000040: 2453 f038 cbf4 08bc e1eb 44bc 16e4 96b6
00000050: cf50 7fbd 4177 0c37 3e54 a823 7822 8329
00000060: 26e3 fbbc e45e 86b7 6c97 7838 5c59 6237
00000070: a2f4 273c eec8 c03c 53fe c5ba 24ca 5ebc
00000080: 9ec4 d7b7 3239 c83b dafe 6125 9a41 f623
00000090: 2e17 96ba 45ad ac33 75b7 a338 93c2 ad3b
000000a0: 0ed5 1bba 3cb6 c5a1 421f 361f cbee a4b7
000000b0: 89a7 eab6 b210 99b7 1981 723d 37a4 af3c
000000c0: 37fe 02bd 40bc ab36 bea4 67b8 9edc 683b
000000d0: b40b e8a2 a574 94bc 1386 c73c 27de 963c
000000e0: 5bdd 1838 98fe 83b8 801c 10b8 2310 9639
000000f0: 9bdc 1638 3a12 0337 4e64 8e37 636a 4396

weight f4 [64]
0.0007528259 0.09086538 -0.0002026747 0.061965402 0.0013848789 0.10469655 0.06800468 -0.00038952343
0.0023241804 0.0021819558 0.13192596 0.35784557 0.0045131636 -0.0053238454 0.12055417 -0.0014226302
0.0001692664 0.044762976 0.16993852 0.0014116159 0.22356655 0.0036236101 0.0022398331 0.0020134079
0.14721999 -0.00030371602 0.00096201064 0.00047373516 0.15235567 0.2383875 0.18213522 0.277898
0.0006949542 0.14379379 0.00089190423 0.001469916 0.063076824 -0.00039837192 0.00058199756 0.2070914
0.07853122 0.0018952752 0.0010626115 0.0030941947 0.00018002497 0.004367695 0.2538988 0.17564826
0.094781235 -0.0018014369 -0.00049994345 0.07506907 0.0013777945 0.13359737 0.123464756 0.07597298
0.0076898974 0.00631703 0.015284985 0.005647944 0.0019240847 0.003072589 -0.0009394562 0.0005511629
00000000: 4a59 453a a117 ba3d 1385 54b9 6fcf 7d3d
00000010: d384 b53a 256b d63d 0a46 8b3d f338 ccb9
00000020: 4751 183b 25ff 0e3b 9917 073e 8937 b73e
00000030: 29e3 933b a773 aebb 1be5 f63d 8c77 baba
00000040: 1a7d 3139 6259 373d 5d04 2e3e f805 b93a
00000050: a1ee 643e 177a 6d3b 2aca 123b 61f3 033b
00000060: d6c0 163e 133c 9fb9 712f 7c3a a85f f839
00000070: 2003 1c3e da1b 743e a881 3a3e a648 8e3e
00000080: 962d 363a ae3e 133e aece 693a 32aa c03a
00000090: 6c2e 813d 93dc d0b9 3291 183a c50f 543e
000000a0: fad4 a03d e26a f83a 5347 8b3a f9c7 4a3b
000000b0: 16c5 3c39 e21e 8f3b 06ff 813e 23dd 333e
000000c0: aa1c c23d 311e ecba a30e 03ba d0bd 993d
000000d0: 1d97 b43a c0cd 083e 17db fc3d b997 9b3d
000000e0: 89fb fb3b 17ff ce3b e06d 7a3c 6312 b93b
000000f0: 9231 fc3a 7d5d 493b d745 76ba eb7b 103a

bias f4 [64]
-7.7899036e-05 -0.07844239 -0.005076552 -0.043759804 -0.010682772 -0.0035473034 -0.019715883 -0.005993504
-0.010116482 -0.009129666 -0.036817044 0.16897443 -0.011471887 -0.02435157 -0.009151931 -0.025363034
-0.0028564425 -0.033767704 0.079190955 -0.009263273 0.10381065 -0.008173084 -0.003380893 -0.0022848933
-0.036605515 -0.007612829 -0.004117542 -0.006866141 -0.009007549 -0.035372928 0.10414724 0.10599821
-0.0050072046 -0.04206034 -0.0008774129 -0.00069220504 -0.06392565 -0.0062615336 -0.007347495 0.019513289
-0.042089846 -0.00062244345 -0.0003101174 -0.008583804 -0.0036290335 -0.011736006 -0.017818067 -0.027044008
-0.059336092 -0.019092098 -0.013141211 -0.07859294 -0.0007653494 -0.020702705 -0.06643585 -0.03542755
-0.023941314 -0.00996869 -0.04971049 -0.041220173 -0.014055101 -0.012910933 -0.019845227 -0.00025489964
00000000: ba5d a3b8 67a6 a0bd 3459 a6bb 7b3d 33bd
00000010: cb06 2fbc e079 68bb 3483 a1bc 2865 c4bb
00000020: 9abf 25bc 9894 15bc 78cd 16bd a207 2d3e
00000030: 95f4 3bbc f27c c7bc fbf1 15bc 23c6 cfbc
00000040: 2733 3bbb 0150 0abd de2e a23d fcc4 17bc
00000050: ae9a d43d 66e8 05bc f991 5dbb 26be 15bb
00000060: aaef 15bd 0a75 f9bb 72ec 86bb 5efd e0bb
00000070: 6694 13bc 34e3 10bd 264b d53d 9715 d93d
00000080: 7a13 a4bb 7747 2cbd 2f02 66ba 1875 35ba
00000090: 74eb 82bd 8d2d cdbb 41c3 f0bb 55da 9f3c
000000a0: 6766 2cbd 792b 23ba 4197 a2b9 15a3 0cbc
000000b0: 14d5 6dbb 6048 40bc 32f7 91bc 658b ddbc
000000c0: 670a 73bd 0867 9cbc 3c4e 57bc 56f5 a0bd
000000d0: bba1 48ba b898 a9bc 850f 88bd 7b1c 11bd
000000e0: 9320 c4bc b753 23bc 3a9d 4bbd 7cd6 28bd
000000f0: 5e47 66bc 6188 53bc 7592 a2bc 0da4 85b9

running_mean f4 [64]
-9.578318e-06 -0.40140766 -0.022769872 -0.34744215 -0.016558405 0.009011645 -0.19829276 0.0033414601
-0.037730463 -0.03353092 -0.42314526 -0.15201999 -0.03561776 0.01724742 0.21639115 -0.06954851
-0.009556267 -0.40066108 -0.10050358 -0.03440854 -0.12110696 -0.03954287 -4.4673765e-05 -2.6863814e-05
-0.48686054 -0.00071545085 -0.037398633 -0.003766596 0.03560088 -0.1584604 -0.0018275465 -0.08742232
-0.01997661 -0.07413872 -9.055251e-05 -4.40985e-05 0.28098613 -0.0028512143 -0.0037627323 -0.14963615
-0.12785049 -6.102106e-05 -1.5946894e-08 -0.037520517 0.00761771 -0.03040443 -0.07291003 -0.022197416
-0.44705313 -0.020582953 0.022106782 0.20897935 -6.422519e-06 -0.021809014 -0.40765864 -0.26088536
-0.07292941 -0.045354597 -0.14040631 -0.015334666 -0.02901933 -0.016857002 0.011669351 -2.5950046e-06
00000000: 90b2 20b7 4e85 cdbe e287 babc f0e3 b1be
00000010: 7ea5 87bc 94a5 133c 420d 4bbe 66fc 5a3b
00000020: 428b 1abd b857 09bd 7fa6 d8be 21ab 1bbe
00000030: eee3 11bd 764a 8d3c a495 5d3e 736f 8ebd
00000040: e491 1cbc 7323 cdbe d2d4 cdbd f8ef 0cbd
00000050: ed06 f8bd b4f7 21bd 1760 3bb8 9a59 e1b7
00000060: c945 f9be 188d 3bba 4f2f 19bd ffd8 76bb
00000070: 3ad2 113d 7143 22be 498a efba 790a b3bd
00000080: fda5 a3bc 0bd6 97bd 02e7 bdb8 67f6 38b8
00000090: 6add 8f3e 70db 3abb 2c98 76bb 383a 19be
000000a0: 3deb 02be ddf0 7fb8 97fb 88b2 1daf 19bd
000000b0: fc9d f93b b612 f9bc db51 95bd 5bd7 b5bc
000000c0: 26e4 e4be 959d a8bc 4819 b53c affe 553e
000000d0: 0581 d7b6 d1a8 b2bc a2b8 d0be c492 85be
000000e0: 045c 95bd bec5 39bd acc6 0fbe 403e 7bbc
000000f0: f2b9 edbc b217 8abc ce30 3f3c d725 2eb6
