SND_trackers_My_data/9X0_file/29_9X0_coordconv_Label_Vh5.pt (torch, 327805 bytes, 25 tensors)

weight f4 [32, 9, 3, 3]
000000 66 10 9f bc f6 6c 11 bd 79 ae cc bb 5b 98 32 3d
       -0.019417 -0.035504304 -0.0062463847 0.04360233
000010 39 09 a5 bc d6 14 da 3c 91 33 48 3d 08 79 92 bd
       -0.020146 0.026621263 0.048877303 -0.07151991
000020 d3 3e 20 3d 58 f8 2f 3d f3 bf 9c bd 9d 62 7b 3b
       0.039122414 0.04296145 -0.07653799 0.0038358339
000030 6e 8d 5a bd d9 c4 5c 3d b1 65 44 3d 03 57 9f bd
       -0.053357534 0.053898666 0.047948543 -0.07780268
000040 79 13 8e 3d cf 11 1f bc 51 d1 fe bb fe 12 8a 3c
       0.06937308 -0.009708836 -0.0077764173 0.01685476
000050 04 e9 61 bc 23 03 29 bc 3c 42 ea 3b b2 f8 9d 3c
       -0.013788465 -0.010315689 0.007149009 0.019283626
000060 fa fd ad 3b 64 3c 46 3d 57 18 b2 bb 96 15 5f 3d
       0.0053098174 0.048397437 -0.0054350304 0.054463945
000070 b7 7a 9c bd 01 30 27 3d 5d 8b da bd f4 1a f2 bd
       -0.076405935 0.040817264 -0.10671113 -0.11821547
000080 90 f3 8d bd 4f ed d3 bd b1 63 4e 3c 90 82 e7 bd
       -0.069312215 -0.103479974 0.0125970105 -0.113042
000090 18 d4 21 3d fc 32 c0 bc 4e 3a b8 bd fa 47 69 3d
       0.03950891 -0.023461811 -0.08995496 0.056953408
0000a0 a6 2e a9 bd eb a1 e5 3c 33 da 2a bd 49 96 43 3d
       -0.082608506 0.02803131 -0.041711997 0.047750745
0000b0 55 0e 13 bc d5 5d 1b 3d a7 13 42 3d fd ce dd bc
       -0.008975585 0.037931282 0.047382023 -0.027076239
0000c0 67 7c 37 3d d6 7b c2 bd 63 a7 6f 3d 4c 07 3b 3d
       0.044796374 -0.09496276 0.05850924 0.045661256
0000d0 19 7c 8a 3d 8f b1 3c bd 36 d7 bc 3b 6a d5 6e bd
       0.06761951 -0.04606777 0.00576296 -0.058308996
0000e0 83 10 60 bd 0b fc a0 3d 19 6c 12 bd fc c8 99 b9
       -0.054703247 0.078605734 -0.03574762 -0.0002933218
0000f0 52 39 5f bc f2 09 69 3d 04 a2 51 3c d9 0e 62 bd
       -0.013624506 0.05689425 0.012794975 -0.05518994
000100 b3 47 b5 bd 20 d0 a0 bd f7 a5 bd bd 78 9a ce bd
       -0.08851566 -0.07852197 -0.09260171 -0.10088056
000110 72 bf bb bd 4a cb b9 bd 0a 47 c0 bd 11 31 bb bd
       -0.09167375 -0.090719774 -0.093885496 -0.09140218
000120 d6 dc 1b 3e 31 90 80 bd ff f7 50 3d d2 5b 88 bd
       0.15220961 -0.06277502 0.051017758 -0.06658138
000130 02 3a 48 bd fa 60 72 3d d6 7d 65 3c 57 a0 39 ba
       -0.048883446 0.059174515 0.014007052 -0.00070810824
000140 2b 74 56 bd 8e 1a e6 3a c8 79 c1 bb 87 86 97 bc
       -0.05235688 0.0017555521 -0.00590441 -0.018496765
000150 0d 22 48 3b 4e 64 1c 3b 47 e5 9a bc 40 e5 48 bc
       0.0030537874 0.0023863497 -0.018908156 -0.012261689
000160 58 12 b5 3c 0b ef a9 3c 2e 43 a4 bb 8d 63 b7 3b
       0.022103474 0.020743867 -0.0050128913 0.005596584
000170 07 85 b4 bb e3 79 4d bb 5b 00 10 bb 62 07 0f 3a
       -0.005509022 -0.0031353168 -0.0021972868 0.0005456117
000180 21 6d 57 b9 00 90 54 bb a8 ca a5 3a 94 99 47 bc
       -0.00020544651 -0.0032434464 0.0012648897 -0.012182612
000190 50 2d 04 bc b1 ef 15 bc 0a ee 47 bc ac d7 9e bb
       -0.008067444 -0.009151385 -0.012202749 -0.0048474874
0001a0 f3 4b cc ba 28 f8 51 bc fa 17 99 bb 7a 17 bc ba
       -0.00155866 -0.012815513 -0.0046720477 -0.0014350258
0001b0 38 55 81 3d 5a 4c 93 3d e7 73 2b 3d 37 04 d3 bc
       0.06315082 0.07192297 0.04185858 -0.025758846
0001c0 c3 fc 10 3c 63 ef 9b 3d 34 61 43 3d 7e e6 8a 3d
       0.008849326 0.07614019 0.047700122 0.06782244
0001d0 8e 3e 26 3d 6f e1 1b 3c b1 e8 f8 bc 51 b7 bf bc
       0.040587 0.009514197 -0.030384393 -0.023402842
0001e0 d0 9f a2 bd e8 cf 67 bd 4f d8 9c 3d a0 25 80 3d
       -0.07940638 -0.05659476 0.07658445 0.062571764
0001f0 fc d7 7b bd 31 fa f6 bc 5d 1a 0c bd 55 1d 43 3d
       -0.061485276 -0.030148597 -0.03420483 0.047635395
000200 3b e2 1b bd da ca 38 bd 78 1c 13 bd d6 f4 9e 3c
       -0.038057547 -0.04511533 -0.03591582 0.019403856
000210 85 97 b7 3d a0 76 f3 bc 82 1c b2 bc 40 2e 1f bc
       0.08964447 -0.02971965 -0.02174211 -0.009715617
000220 2a 67 cf 3a c2 d8 fc bc 5e af b0 bc 2b 91 27 bb
       0.0015823592 -0.030865077 -0.021567997 -0.0025568705
000230 dd df 26 3c ea ce 91 ba d2 bf a2 3d 00 7c 4f bd
       0.010185209 -0.0011124287 0.07946743 -0.050655365
000240 f1 c8 a8 bc 2e d6 03 bd af 55 64 3b f3 b1 38 bd
       -0.020603629 -0.03218668 0.003484111 -0.04509158
000250 26 ab e9 bc 18 bb a3 bc df 0c 56 3d 3b 0d 9d 3b
       -0.028523993 -0.019986674 0.05225837 0.004792837
000260 dd 61 ad 3c 2e 01 29 3d 64 ac 70 bc fc 8e 27 bd
       0.021164829 0.04126089 -0.014689539 -0.040907845
000270 c5 af 1f 3c 48 ca 0a bc 69 1e a5 bc a0 aa 79 3d
       0.009746497 -0.008471079 -0.020156102 0.060953736
000280 9a 0b 3f bc 76 55 b7 3c 69 36 b2 3c b5 3e 3c bd
       -0.011660481 0.022379618 0.02175446 -0.04595824
000290 92 36 c7 bc db c9 50 3d c5 3b 9d 3a ac ed d3 3b
       -0.024318013 0.050973754 0.0011995962 0.0064675417
0002a0 8b de 4a 3c ea d2 c0 bc d3 32 6d 3b 25 b8 11 3b
       0.01238216 -0.023538072 0.0036193624 0.0022235003
0002b0 cd 3c 77 3c 8f 50 39 3d fa 17 72 3c fc 59 c4 bc
       0.01509018 0.045242842 0.014776224 -0.02396869
0002c0 5a 8e 53 bc 71 e9 ca 3c 06 01 4c 3d 83 44 bd 3c
       -0.012912357 0.024769517 0.049805664 0.023103958
0002d0 b0 3f 0d 3d 70 64 1d 3d 77 44 32 3d 3f b9 0c 3d
       0.034484565 0.038425863 0.043522324 0.034356352
0002e0 62 40 2f 3d 2c 00 12 3d ec db 54 3d 22 db 30 3d
       0.04278601 0.035644695 0.051967546 0.04317773
0002f0 5a 9b c4 3c 13 0b 84 3d a0 ed 19 3d b5 ba 89 3d
       0.023999859 0.06447425 0.037580132 0.06725065
000300 d6 97 c5 3c 15 ca 27 3e 05 53 8b 3d 61 d7 c5 3c
       0.024120253 0.16385682 0.06802944 0.024150552
000310 a3 20 b7 3d 61 d5 60 3d 01 69 8c 3c 6f 9a 34 3d
       0.08941772 0.054890994 0.017139914 0.04409259
000320 16 fe 00 bd cb 18 8d 3d e0 34 8c 3c 26 76 62 bc
       -0.031492315 0.068894945 0.017115057 -0.013822114
000330 18 96 1a 3d 47 9f 69 3c 94 5c 9b 3d 91 d6 7b 3d
       0.037740797 0.014259166 0.07586017 0.061483923
000340 98 ea 9b bb 14 3e 8c 3a 7e 16 85 3d d1 4a be 3d
       -0.0047581904 0.0010699653 0.06498431 0.09291614
000350 02 d7 53 3d 80 52 ae 3c 14 65 25 3d 0c 12 18 3d
       0.05171872 0.021279573 0.0403796 0.037126586
000360 0e 00 9e 3c ae 80 70 3c 3a 25 09 3d fe d4 8e 3d
       0.019287135 0.014679117 0.033482768 0.06974219
000370 7a 27 89 3c 41 2d 0b 3d 90 d2 8d 3d 25 01 37 bc
       0.016742457 0.033978704 0.06924927 -0.0111697065
000380 fc ad 8b 3d d5 10 42 3c 77 59 d7 3c 41 54 92 3d
       0.06820294 0.011844833 0.026287777 0.071449764
000390 d4 b6 82 3c ec a2 f3 3c 27 86 0d 3d d1 9e 2d 3d
       0.01595632 0.029740773 0.034551766 0.042387787
0003a0 08 03 00 3c c4 de 65 3d 66 14 5f 3d 5d 4f bd 3d
       0.007813223 0.05612065 0.054462813 0.09243653
0003b0 a1 2b a7 3c f9 e1 12 bb b6 67 e9 3c 78 46 d1 3d
       0.020406546 -0.0022412522 0.028491836 0.10218519
0003c0 10 d0 fc 3d 13 d7 a0 3d e3 a3 64 3d 68 10 b5 bd
       0.12344372 0.07853522 0.055820357 -0.0884102
0003d0 fc 29 8c 3d a3 76 8f bb 3f fd c9 bc c0 f3 ae 3d
       0.068439454 -0.0043781563 -0.02465689 0.085425854
0003e0 44 52 1e bd 3f 45 8a 3d 9a 6a ac 3c 24 47 8b bd
       -0.038652673 0.06751489 0.021046925 -0.06800678
0003f0 0a 8b 02 bd db 1b 4a 3d 16 0e bf 3d 68 45 87 3c
       -0.03187088 0.04934297 0.093288586 0.016512588

bias f4 [32]
000000 de 9d 34 bb 84 d1 f8 ba 36 40 3c 3c 42 55 0b 3d
       -0.0027559916 -0.0018983339 0.011489918 0.034016855
000010 42 a8 41 bb 3e 64 ba bb 2e c8 c6 3b be 90 c3 bb
       -0.0029549752 -0.0056882193 0.0060663437 -0.0059681823
000020 4a b2 e0 bb 66 32 3a bb 1b a9 63 bc b2 4b a2 3b
       -0.006857191 -0.0028411387 -0.013895298 0.0049528712
000030 ac e6 12 3c 17 8b 9f bc 99 0c 00 3c 8c 02 cb 3a
       0.008966129 -0.019475503 0.0078155035 0.001548843
000040 c4 69 c2 ba ae 19 88 bb ad b5 77 3b 4c b3 df bb
       -0.0014832546 -0.004153452 0.0037797496 -0.006826794
000050 47 66 87 3b c9 69 34 3c f2 ce 50 bc f5 7b 97 3b
       0.0041320655 0.011011549 -0.012744652 0.004622931
000060 10 2b 88 3c 50 c4 1f bd c0 71 fc bb 69 af 74 bc
       0.016622096 -0.039005578 -0.0077039897 -0.014934399
000070 92 88 19 bc 0f 09 43 3c ba 43 49 3b 02 61 b0 3b
       -0.00937094 0.011904015 0.0030710534 0.005382658

weight f4 [32]
000000 79 36 08 3f 10 10 a5 3e b3 ab 25 3f 00 d6 1a 3f
       0.5320812 0.32238817 0.6471512 0.6048279
000010 41 d8 00 3f 3d 03 a1 3e 7e 43 f2 3e 01 4c 18 3f
       0.5032998 0.31447783 0.47317117 0.5949097
000020 46 72 ea 3e ae 5c be 3e 0b f7 b4 3e 6a f3 07 3f
       0.4579031 0.37180084 0.3534473 0.53105795
000030 f2 21 96 3e 42 23 1f 3f 6a 14 94 3e a4 21 0e 3f
       0.29322773 0.62163174 0.28921825 0.5552008
000040 ee 70 8f 3e 61 33 bc 3e 16 06 11 3f c8 c6 f7 3e
       0.28015846 0.3675795 0.5664991 0.48393846
000050 3b 77 85 3e 35 8c 1e 3f 33 fb ee 3e 1b ad c1 3e
       0.26067528 0.6193269 0.46676025 0.37827381
000060 08 43 cb 3e 4a 6e ee 3e 9a ed 03 3f 27 89 ea 3e
       0.39699578 0.4656852 0.51534426 0.45807764
000070 e2 7d 21 3f 39 67 bb 3e 45 94 0a 3f 62 22 97 3e
       0.63082707 0.3660219 0.5413249 0.2951842

bias f4 [32]
000000 17 c4 ad ba 83 00 0a be e6 9c c0 be 22 71 6b 3c
       -0.0013257292 -0.13476758 -0.37619704 0.014370235
000010 79 93 20 3d f7 61 8d bd 22 8e 84 be 18 54 09 bb
       0.03920314 -0.06903451 -0.2588969 -0.0020954665
000020 43 ec d1 3b 49 83 98 bb f5 8f ca 3b b2 74 9f be
       0.0064063384 -0.0046543223 0.006181712 -0.3114372
000030 10 9d 0e ba db ab 22 3c 91 d5 95 bb 3c 05 9a bb
       -0.0005440274 0.009928669 -0.0045725782 -0.004700331
000040 35 75 63 bc e4 23 9b bd 8c 28 a3 39 0d e4 b0 bb
       -0.013882925 -0.07575205 0.00031119992 -0.0053982795
000050 b0 14 e2 bc 8c 3f a0 be 88 a7 32 bb 04 c6 78 be
       -0.027597755 -0.31298482 -0.00272605 -0.24294287
000060 92 4b c5 3c 4c ce 3e bb a3 81 14 bc 1a 8e d5 bd
       0.024083886 -0.0029114662 -0.009064111 -0.10427494
000070 26 f2 d0 3a d4 1f 24 bd 52 a2 97 be 5c 1e b1 bc
       0.0015941306 -0.040069416 -0.29616028 -0.021620922

running_mean f4 [32]
000000 10 8f 05 3d 2e fb 0a bd ec b8 63 3e 56 d7 37 3d
       0.03260714 -0.03393095 0.22238511 0.044883095
000010 ed 91 ee bc 4b 26 67 bd d2 94 eb 3d 99 1e 1d bb
       -0.029122317 -0.056433003 0.115029946 -0.0023974536
000020 50 cb fc ba b1 04 15 3b 48 79 34 bc 34 5a e4 3d
       -0.0019286666 0.0022738392 -0.011015244 0.111500174
000030 f5 82 3b bc 64 bb 51 bc 1a 77 36 bc 44 48 f0 3c
       -0.011444797 -0.012801025 -0.011136794 0.029331334
000040 ba 3f f4 bc ca 32 c1 bd 67 2b b2 3b 4a 97 63 bb
       -0.029815543 -0.09433515 0.005437303 -0.0034727626
000050 68 a0 c3 b9 d2 5e 0d 3e 23 8c 88 bc 17 8a 8b 3d
       -0.0003731281 0.13805702 -0.016668385 0.06813448
000060 30 ab 34 3c 73 5b 3c ba d7 f3 4f bc 38 af a2 bd
       0.011027142 -0.0007185258 -0.012692413 -0.079435766
000070 52 21 2a bb de fb a9 3c bd f4 dc 3d 1b 65 8f bc
       -0.0025959802 0.020749982 0.107888676 -0.017504266

running_var f4 [32]
000000 e9 18 fe 3d 6a 75 9f 3c 66 45 c0 3e 9e 9e 05 3d
       0.12407095 0.019465167 0.37552947 0.032621972
000010 48 49 7b 3c 4e ff 94 3c 9a c2 9b 3d f8 fa 0b 3e
       0.015337296 0.018188145 0.07605477 0.13669956
000020 24 c5 1f 3d 9f b2 1a 3d 4b c8 79 3d 64 10 98 3e
       0.039006367 0.037768003 0.06098203 0.29700005
000030 c5 ec 1c 3d 85 00 30 3d f6 2e 40 3d 57 81 04 3e
       0.03831174 0.042969245 0.046919785 0.12939964
000040 40 5a 76 3d d0 fd 6d 3d a5 8d a5 3d 0c 5a 03 3e
       0.060144663 0.058103383 0.08083657 0.12827319
000050 05 c6 b8 3d df ac 9a 3e 52 28 c7 3d 4b 5e ed 3d
       0.09022144 0.30210015 0.09724487 0.115902506
000060 49 de 6f 3d 33 7e 9d 3c b2 ee f2 3d 9a 8c ea 3d
       0.058561597 0.019225216 0.11861934 0.11452599
000070 c6 c5 05 3e 43 cf 81 3d 8f 5f 90 3e a0 75 0c 3d
       0.13063726 0.0633836 0.28197905 0.034291863

weight f4 [32, 35, 3, 3]
000000 41 03 a6 bc b5 ea 3a 3c e9 de 3f bc dc 85 c0 3c
       -0.020265223 0.011408498 -0.011710861 0.02350133
000010 66 e8 f8 b9 f6 5e 91 bc 65 5a c9 3c be 5d a0 bc
       -0.00047475396 -0.017745476 0.024579236 -0.01957595
000020 d7 55 82 3c 2a 26 29 3b 93 72 02 3c 9c 49 8e bc
       0.015910072 0.00258101 0.007961887 -0.017369084
000030 2b e0 72 3c 2c 7a 2c 3c 3d 27 5f 3c 00 eb 9f bc
       0.014823954 0.010527175 0.013620195 -0.019521236
000040 0d 29 9a bc ab 6d c6 3a e4 3c 06 3b cc 0e 2b bb
       -0.018818403 0.0015138885 0.002048307 -0.002610135
000050 b8 5c 00 bb ae a2 bb ba ba 06 2f bb aa 58 a3 ba
       -0.0019586515 -0.001431545 -0.002670689 -0.0012462337
000060 9c bb 2d 3b 8c 1a 3f ba 49 23 b4 ba d0 f1 81 3b
       0.002650953 -0.00072900276 -0.0013743426 0.003965594
000070 92 ce 59 bc 03 35 e9 bc 3e b2 39 3c 51 2e ff 3b
       -0.013293879 -0.02846766 0.011334 0.007787504
000080 e1 4f df ba 9f 45 34 3d f1 95 1b 3d 03 ad 89 3c
       -0.0017037356 0.04401171 0.037984792 0.016806131
000090 46 d1 d3 bc 0a 8d 1d bd 56 e6 9d bd 29 cd 6b bd
       -0.025856625 -0.038464583 -0.07709949 -0.057568703
0000a0 50 e7 a1 bd da 02 21 bd 5a 49 2f bd 10 32 0e bd
       -0.079054475 -0.03930936 -0.042794563 -0.034715712
0000b0 e6 f1 e8 3b ff 04 1b 3d 37 54 9d bc 77 3c c3 bc
       0.0071089147 0.03784656 -0.019205196 -0.023832543
0000c0 91 9f 8a bc 1a 96 b8 bd 93 67 18 bd 7f 2c 89 bd
       -0.01692179 -0.090130046 -0.03720815 -0.0669794
0000d0 45 09 6e bd 2d d7 6e bc be 4e 90 bc b8 ed df bb
       -0.05811431 -0.014577669 -0.017615672 -0.006833758
0000e0 91 8f 08 bd 3b 25 c6 ba 1c f1 07 3c 86 2e eb ba
       -0.03334004 -0.0015117297 0.008297231 -0.0017942942
0000f0 e7 e0 3d 3d 5e b4 03 3d e1 72 ee 3b bf b2 f6 bb
       0.04635706 0.032154433 0.007276878 -0.0075286324
000100 50 aa 26 3c eb 6c ba 3a 4c 4f 3c 3d 42 33 8a 3c
       0.010172442 0.0014223134 0.04597406 0.016870145
000110 35 3b 38 bd 1b cb 0e 3d 41 65 d0 bc d0 57 60 bc
       -0.04497834 0.034861665 -0.025438907 -0.013692811
000120 a3 b6 dc bb fd 65 27 3d dd 23 93 3a 6b c2 2e 3d
       -0.006735639 0.040868748 0.0011225898 0.04266588
000130 e7 b7 2a bd c6 2e b4 bc c0 c1 fb 3b eb 82 9c bd
       -0.04167929 -0.02199496 0.007683009 -0.07642158
000140 48 4e dd 3c 8f 77 11 3c 6a 21 01 bd c0 5a b0 bc
       0.027014866 0.008878603 -0.031526007 -0.021527648
000150 47 b3 b0 bc 13 f4 91 bd 4c 9a 0a bd c0 69 ec bc
       -0.021569861 -0.071266316 -0.033838555 -0.02885902
000160 19 bb 6c bd 1d cc d1 3b 2b 2a df 3c 29 27 11 3d
       -0.057795618 0.006402506 0.027241787 0.035437737
000170 8e db 65 3b 40 85 4b 3d 50 83 fd 3c f3 0d 41 3d
       0.0035073492 0.049687624 0.030946404 0.047132444
000180 08 23 8b 3d e8 35 36 3d 41 2d 22 3d 96 17 20 bd
       0.06793791 0.044485003 0.03959394 -0.039084993
000190 69 5b 4e 3c 88 28 fc bc 31 e4 fa 3c 27 28 16 bd
       0.012595036 -0.030781046 0.030626388 -0.036659386
0001a0 5e 85 60 3c c5 33 1b 3d e5 9b 6f 3d 7f f9 de 3c
       0.013703672 0.03789117 0.058498282 0.027218578
0001b0 69 f3 cd 3a 4f 53 67 bb ba a5 92 bd 6e 0e b1 bc
       0.0015712801 -0.0035297459 -0.07160516 -0.021613326
0001c0 89 3c 06 bd 81 81 2e 3b be a7 82 3d fe 2c 22 3d
       -0.032772575 0.0026627483 0.063796505 0.03959369
0001d0 b6 81 f9 3c d5 50 e1 bc 18 a1 c0 bb fc 6b 65 bd
       0.030457359 -0.027504364 -0.005878579 -0.056011185
0001e0 77 71 49 bc b6 a2 a2 3b 91 af 8f bb d5 b8 c3 3c
       -0.0122951185 0.0049632443 -0.004384943 0.023891846
0001f0 54 a0 14 3d 27 bd a3 3c 9a 70 15 3d 7f aa 90 3c
       0.036285713 0.019987656 0.03648434 0.017659424
000200 78 0a 03 bc b0 ea e2 bb 0b cc a1 bd 9b e6 2a bc
       -0.007998101 -0.0069249496 -0.07900246 -0.010430957
000210 0b 48 b4 bc b8 75 92 bd 13 c7 b6 3c 3d e6 c4 bc
       -0.022007009 -0.07151359 0.022311723 -0.024035567
000220 c5 92 aa 3b 65 cf fd 3c 96 a3 33 3c b7 ef 32 bc
       0.0052054846 0.030982682 0.010964295 -0.01092141
000230 1f 15 36 bc ab 2e 71 3d c5 43 87 bc 81 64 83 3c
       -0.011113434 0.058882397 -0.016511807 0.016039135
000240 b3 ae 9f bd 57 9a 28 3d 80 90 dc bb 5b 74 0b 3d
       -0.07796993 0.041162815 -0.006731093 0.034046512
000250 53 1d cc ba 24 8f a8 bc a1 82 f4 3c 3d f5 b3 bc
       -0.0015572704 -0.020576067 0.029847445 -0.021967525
000260 6a 59 58 3c 86 26 04 3b a2 d6 0e 3a a0 b8 a6 3c
       0.013204912 0.0020164563 0.0005448853 0.020351708
000270 63 7f 09 3b d3 51 30 ba 39 3f f3 bc f7 18 0c 3d
       0.002098047 -0.000672606 -0.029693233 0.034203496
000280 c3 c1 45 39 22 8d ea bb a0 5f 3c bc ac 35 30 3c
       0.00018859566 -0.0071579376 -0.011497408 0.010754984
000290 7e 04 02 bc cf d4 67 3b e5 23 34 bc 4a 2f 08 3d
       -0.007935641 0.0035374647 -0.010994886 0.033248223
0002a0 fc 98 23 3d b1 70 ec 3c 62 8d b3 3c 07 36 50 bc
       0.03994082 0.02886233 0.021918003 -0.012708194
0002b0 d1 29 22 3d 8b f2 ca 3b db e7 4e 3b bc ab 07 bb
       0.03959066 0.006193464 0.0031571302 -0.0020701727
0002c0 9c 52 e6 bb 27 5f 9e 3c 73 d3 4e bc ab 76 45 3d
       -0.007028891 0.019332482 -0.012623656 0.048208874
0002d0 76 4d 95 3c c6 04 a1 3b 84 48 90 bc c8 c1 05 bd
       0.018225413 0.004913899 -0.017612703 -0.032655507
0002e0 87 64 9f bd c2 bd 38 bc 4c 56 4a bd b8 4e 79 bd
       -0.07782846 -0.011275711 -0.049398705 -0.060866088
0002f0 e7 86 ac bb ba b2 82 bc bd 11 de 3c 11 12 66 3c
       -0.005265105 -0.015954364 0.027108068 0.014042393
000300 a0 a3 2e 3d 0d 34 7a 3c d2 cc 66 3c d0 fa 01 3c
       0.042636514 0.015271199 0.014086919 0.0079333335
000310 f6 d7 a9 bb 20 4a 05 3d 65 dc df bb 8b da c6 3c
       -0.0051832153 0.032541394 -0.006831693 0.024274131
000320 8e a2 59 bc 98 ba 61 ba 92 59 df bc 0e 40 20 bc
       -0.013283385 -0.00086108735 -0.02726439 -0.009780897
000330 e9 e0 f5 3c fa 94 80 3d 19 c8 0d 3d 60 44 80 bc
       0.030014472 0.06278415 0.034614656 -0.015657604
000340 85 95 2c bd 4f f1 e3 bc 4f 82 d1 bc b3 cb 24 bd
       -0.04213478 -0.027825026 -0.025574831 -0.040233325
000350 b9 16 19 bc 11 b4 2f 3c 6c ea 5a bc ef 7d 22 3c
       -0.009343796 0.0107240835 -0.013361555 0.00991772
000360 93 37 9b 3c 87 4a c7 bc 8c 3b 0a bd 3a 67 d0 bc
       0.018947398 -0.02432753 -0.033748195 -0.025439847
000370 7a 68 8b bd 7b ea f6 bc cb 63 44 bd 2b a3 74 bd
       -0.06807037 -0.030141106 -0.047946732 -0.05972592
000380 49 88 89 bc 0b 28 18 bd aa 27 bd 3c dd 15 55 3b
       -0.016788619 -0.037147563 0.023090202 0.0032514252
000390 10 94 7c 3c 6b 82 31 bc b3 2e 81 3b 34 c4 c7 3c
       0.01541616 -0.010834317 0.0039423346 0.02438555
0003a0 c3 06 1a bb df e9 67 3b 8b 39 a7 3c e2 b5 2e 3c
       -0.0023502565 0.00353872 0.02041318 0.010663481
0003b0 45 eb 2b bc d9 49 8c bc 17 22 65 bd bf 78 3a bc
       -0.010493104 -0.017125057 -0.055940714 -0.011381327
0003c0 89 08 03 bd 48 46 d0 bc 6b 63 b2 3c e4 0d 89 3b
       -0.03199056 -0.025424138 0.021775922 0.004182564
0003d0 e1 7f b2 3c 97 f1 91 3a 7f 59 c8 3c a4 16 e6 3b
       0.021789493 0.0011134621 0.024456738 0.007021742
0003e0 9c 82 ff bb 6b 69 13 3d 2c ed 24 3b c9 40 12 3b
       -0.0077975523 0.035989206 0.002516578 0.0022316447
0003f0 e8 fa 0e bd 16 d8 11 3a 16 8b d9 3c 8e 0e c2 3c
       -0.03490725 0.00055635103 0.02655558 0.02368858

bias f4 [32]
000000 6b 28 8b 3b 29 45 af bb 70 be 47 3c 80 8f 15 3b
       0.0042467616 -0.0053488207 0.0121914 0.0022821128
000010 4f 96 4c bc 0b f3 c3 bb 37 92 8f bc 9c a0 36 3b
       -0.012487008 -0.0059799007 -0.017525775 0.0027866727
000020 d4 fe 00 bd f6 c0 b8 bb cf 7e 1b 3a de 65 1b 3b
       -0.031493023 -0.005638237 0.0005931677 0.002371184
000030 ef 40 1e 3b 74 2b b8 3b f0 e1 c5 b9 99 0c 83 3b
       0.002414759 0.0056204144 -0.00037743105 0.0039993045
000040 e4 5d 72 3a 95 84 de bb 44 00 69 39 a8 d4 b6 bb
       0.0009245558 -0.0067907074 0.0002222071 -0.00557955
000050 d1 ec 84 3a a0 f7 89 bc 81 1f 76 bb 42 a4 86 bb
       0.0010141378 -0.01684171 -0.00375554 -0.0041089365
000060 6d b2 0f bb b9 57 95 3a f0 96 e1 b9 2e 94 2d bb
       -0.0021926418 0.0011393941 -0.000430278 -0.0026486027
000070 50 8a ef 39 ee 21 91 3c 4d 9b df 3a d0 26 92 bc
       0.00045688683 0.017716374 0.0017059833 -0.017840773

weight f4 [32]
000000 89 62 09 3f 7e 2e dc 3e 15 ab 04 3f 0b 16 90 3e
       0.5366598 0.4300422 0.5182355 0.28141817
000010 3e 9c db 3e 8d 4e a8 3e 04 b9 c9 3e 86 81 af 3e
       0.4289264 0.3287243 0.39398968 0.34278506
000020 3a ba 08 3f ac 35 07 3f 48 09 71 3e e5 05 c1 3e
       0.5340916 0.5281627 0.23538697 0.3769981
000030 0a 90 d2 3e 55 9b d2 3e dd ce cd 3e 8a c0 08 3f
       0.41125518 0.41134134 0.40196887 0.5341879
000040 7f 7c c3 3e d6 07 f1 3e 3b 5b b8 3e 86 0c bf 3e
       0.3818092 0.4707629 0.36007103 0.37314242
000050 a8 42 c1 3e 93 c9 b6 3e 85 31 d5 3e 43 fc e4 3e
       0.37746167 0.35700664 0.41639343 0.4472371
000060 39 cd c5 3e d6 fa da 3e 57 c6 97 3e 45 ec ab 3e
       0.38633135 0.42769498 0.2964351 0.33578697
000070 8f e6 ee 3e a7 c3 2a 3f 48 d5 c7 3e 05 bc 05 3f
       0.46660277 0.6670479 0.39029908 0.5224002

bias f4 [32]
000000 cc 1d 8b 3d 09 8a 82 bd bc 78 a8 3d ef 30 75 bd
       0.06792793 -0.06373984 0.08226153 -0.05986112
000010 c8 ba e2 3d 38 5a 37 bd f7 8e 9a 3d ab 35 bc bd
       0.11070782 -0.044763774 0.075468 -0.09189924
000020 b3 84 3a 3e 85 4b 01 3e f7 34 25 bb ed a9 dc 3b
       0.18214683 0.12626465 -0.0025208571 0.006734124
000030 f5 b3 1d be 39 b1 26 bd 4f 4a a6 bd f7 5c 9c 3d
       -0.1540068 -0.040696356 -0.08119642 0.07634919
000040 5d e5 f0 bd 86 bb 8d 3d a1 ef 20 be c6 73 0d 3c
       -0.117624976 0.06920533 -0.15716411 0.00863356
000050 e4 52 85 bd 92 98 38 3d a0 92 24 be f4 b2 1e be
       -0.06509951 0.045067377 -0.16071558 -0.15497953
000060 7d e9 22 3d 90 ab 46 3d 74 32 27 bd de d0 de bd
       0.039773453 0.04850346 -0.0408196 -0.10879682
000070 fc 28 aa 3d 32 2f 5e 3e 82 8a d5 bd b5 db e4 3d
       0.083085984 0.21697691 -0.10426809 0.11174718

running_mean f4 [32]
000000 7f 17 07 3c 97 35 83 3d cd a3 0c 3d 46 93 47 3e
       0.008245348 0.06406706 0.0343359 0.19489774
000010 bc 53 81 bc bc 02 eb 3c 80 e9 88 3c 4f 80 ff 3d
       -0.015786998 0.028687827 0.016712904 0.12475645
000020 85 00 1d bc 92 3d c6 ba 9b ef da 3c 67 19 c6 ba
       -0.009582643 -0.001512455 0.02672558 -0.0015113772
000030 bf 6e 79 3d 4f c3 9e bc 74 84 b2 3d 16 a0 29 3d
       0.06089663 -0.01938024 0.0871667 0.041412435
000040 ea 00 26 3e 7b 2d 99 3c b4 0c b1 3d 51 95 19 3d
       0.16211286 0.018698445 0.08645001 0.037495915
000050 47 74 be 3d 68 2d 9f 3c 75 db 92 3d 3d 32 09 3e
       0.09299522 0.019430831 0.07170764 0.1339807
000060 ba 97 99 3b 3a f6 10 3d 10 41 ac bc 3d d5 38 3e
       0.0046872767 0.03539107 -0.021027118 0.18050094
000070 e4 9b ab bb e5 ae d0 3c ae c3 ae 3d ac 63 86 bb
       -0.0052370895 0.025474021 0.08533417 -0.0041012373

running_var f4 [32]
000000 a9 06 93 3d 0e e3 00 3e da b0 c6 3d 60 e0 c1 3d
       0.07179005 0.12586614 0.097017005 0.09466624
000010 d0 c9 df 3c da a3 39 3d 3a 5c b6 3d f4 d1 94 3e
       0.027317911 0.045322277 0.089043096 0.29066432
000020 c8 44 24 3e c5 8b 6e 3d 2f 2b f0 3d a0 ec 42 3e
       0.16041863 0.058238763 0.117269866 0.19035578
000030 0f 04 c4 3d bd 2a 24 3e e9 11 91 3f 22 9d 9a 3d
       0.095710866 0.16031928 1.1333591 0.07549502
000040 b6 5b a0 3d bd 16 eb 3d 0a 01 9a 3d 65 28 e6 3d
       0.078299925 0.11478946 0.075197294 0.112381734
000050 6e cd ed 3e 0e 4e be 3d bf 75 8c 3d 10 5f 9a 3d
       0.46445793 0.092922315 0.06858396 0.07537663
000060 0c 8e ad 3d ba 5e 4c 3e 49 d4 ca 3d a2 e4 49 3d
       0.08474359 0.1995801 0.099037714 0.049290307
000070 7e 18 32 3d d9 05 9d 3d 2f b0 0b 3e db ef 15 3e
       0.04348039 0.07667131 0.13641427 0.14642279

weight f4 [64, 35, 3, 3]
000000 d9 f9 eb 3a c5 eb e9 3a d7 91 ee 3a de 08 f0 3a
       0.0018003538 0.0017846754 0.0018201423 0.001831319
000010 53 92 fa 3a 8b 14 f8 3a e0 a5 fc 3a 5d 65 ea 3a
       0.0019117094 0.0018927021 0.0019275509 0.0017882992
000020 6b a0 f3 3a c5 f5 9a ba b1 c9 90 ba e2 c6 91 ba
       0.0018587237 -0.0011822513 -0.0011046437 -0.0011121894
000030 5f 5e 94 ba 6c 50 95 ba 34 65 8b ba 53 72 8a ba
       -0.0011319629 -0.0011391765 -0.0010635019 -0.0010562636
000040 9a 2e 96 ba bc f2 8a ba d5 22 98 ba be 60 3c ba
       -0.001145798 -0.0010600905 -0.001160706 -0.00071860466
000050 53 7f 7b b9 6b 74 cf 38 23 9c ed 39 43 d6 66 3a
       -0.00023984657 9.892214e-05 0.00045320494 0.0008805731
000060 89 68 c5 3a d9 12 de 3a 7a 8e ee 3a 7b c9 5a bd
       0.0015061061 0.0016942873 0.001820042 -0.053414803
000070 1f d2 f2 bc d2 05 53 bd c2 dc 2b bc 4a 0d 85 b8
       -0.02964121 -0.051519223 -0.0104896445 -6.3444095e-05
000080 f9 0f 12 3c dc a9 04 3d 76 33 d1 3b 7a 72 33 3c
       0.008914941 0.032388553 0.0063843084 0.010952586
000090 e3 f7 cf ba d4 f9 80 bb fc 5d 80 bb e9 6e 3e bd
       -0.0015866723 -0.003936032 -0.003917454 -0.04649249
0000a0 59 8d c5 bb eb c4 8b 3c 17 5e 14 3c be 27 20 bc
       -0.006028813 0.017061671 0.009055636 -0.0097751
0000b0 67 f0 a9 bc cc ca 5f bd f8 90 e4 bc c3 df 3f bd
       -0.020744516 -0.05463676 -0.027901158 -0.046844255
0000c0 0a c5 8a bc 27 48 cb bc b3 30 b8 bb f4 58 13 3c
       -0.016939659 -0.024814678 -0.00562104 0.008993376
0000d0 ac 42 bf bb cf 38 0f bc e7 93 85 bc e7 e7 b4 bc
       -0.0058368053 -0.008741572 -0.016305877 -0.022083236
0000e0 5c 8b a0 39 67 b6 d9 bc 08 cd d6 bc ef b3 25 bc
       0.0003062141 -0.026576234 -0.026220813 -0.0101137
0000f0 1f 19 ef 3c 46 17 5a bc 9e 5b 70 bc 9a 77 79 bd
       0.029186783 -0.013311213 -0.014670281 -0.060905077
000100 df ff 43 3c ca 32 dd bd 24 ef ee 3b 64 b7 5c bc
       0.01196286 -0.10800703 0.0072916914 -0.013471458
000110 9e 64 bd 3b c7 24 bd bc 5d bc 18 bd 82 33 57 bc
       0.005779817 -0.023088826 -0.037289012 -0.013134839
000120 63 ef 84 bb 99 fd 18 bc d7 b0 83 bc 0b 5e 66 3c
       -0.0040568574 -0.009337806 -0.016075535 0.0140605075
000130 69 88 17 3c 6f cf 1c 3b 7f 0c 96 bb fd cf 2b bb
       0.009248831 0.002392735 -0.0045791264 -0.00262165
000140 d6 34 b4 bc 30 fc 46 bd ad 41 04 bd a6 a0 6c bd
       -0.02199785 -0.04858035 -0.032289196 -0.057770394
000150 8e d9 3f 3c f0 c7 e6 3b 41 c8 a8 3c 34 13 b2 3c
       0.011709584 0.0070428774 0.020603301 0.021737672
000160 95 d4 9b 3b c1 c3 5d 3b a2 27 83 bc df 64 6e bc
       0.0047555664 0.0033838602 -0.01601011 -0.014550417
000170 67 52 d7 bb 02 df e3 bb a0 1d 12 bc 16 df 0b bc
       -0.0065711024 -0.006954075 -0.008918196 -0.008537075
000180 08 ac 4f 3b a6 97 1e bb 7e d6 97 bb 63 d0 3d bd
       0.0031688232 -0.0024199276 -0.0046337238 -0.04634131
000190 7a 3e 82 bb 1c 75 b6 bd 07 ac d0 3c 69 b5 1b bc
       -0.003974733 -0.089090556 0.025472654 -0.009503701
0001a0 38 4f 86 bc 24 8a 2d 3a dc bb e1 bc 71 cc dc 3b
       -0.016395196 0.0006620011 -0.027555399 0.0067382385
0001b0 08 52 d3 bc b5 1c 67 bd a2 a4 d2 bc 26 83 06 3c
       -0.025795951 -0.05642386 -0.025713269 0.008209979
0001c0 9d cb d7 3c 61 6b 41 3b cc f9 44 3d 88 57 ed 3c
       0.026342208 0.0029513466 0.048089787 0.028972402
0001d0 e9 b6 94 ba dd 4c 4c bc 58 fa ee bb 9d 6a 1a 3b
       -0.0011346015 -0.0124694975 -0.007293027 0.0023562082
0001e0 27 a5 d1 bb 34 63 81 bc ab f7 1d bc ed d0 1b bc
       -0.0063978615 -0.015794374 -0.009641568 -0.009510261
0001f0 05 79 a4 bb 48 46 45 bb ca cc 03 bd b4 db 06 bd
       -0.0050193095 -0.0030101705 -0.032177724 -0.03292437
000200 77 31 fe bc 18 fa cc 3c af bd 0f 3d 8b 5a f3 3c
       -0.031029446 0.025021598 0.035093006 0.02970626
000210 cd dc 20 3d b7 be 29 3d a9 8e bf 3c ed 05 02 bc
       0.039273072 0.041441645 0.023383455 -0.007935983
000220 e8 ab 46 bc 0f 4d 5a bb 2f 38 db 3c f1 b9 ed 3c
       -0.012125947 -0.003331009 0.026760189 0.029019328
000230 53 8b bd 3c 2b 85 a0 3d 58 b1 34 3d 5a b4 24 3d
       0.023137724 0.078379 0.04411444 0.04021106
000240 e7 84 b2 bc 39 1c 90 bc be 30 b7 bc 75 05 8f bb
       -0.021791888 -0.017591583 -0.02236211 -0.004364664
000250 f5 ca 6c bc cd 89 2e bb 94 96 bd 3b 53 7a 9a bc
       -0.014452686 -0.0026632429 0.0057857726 -0.018857157
000260 e4 8d a6 bc 2e 8f 41 bc 17 37 1a bc 4c 02 f9 ba
       -0.02033133 -0.011813922 -0.0094125485 -0.0018997877
000270 a0 50 91 3b db 3e 02 bc 64 13 03 bb 59 1d d7 bb
       0.00443466 -0.007949556 -0.0020000571 -0.006564778
000280 59 63 37 bc 12 b2 19 bc 1a 9c 1c bd 97 85 02 bd
       -0.01119312 -0.009380834 -0.038234808 -0.031865682
000290 fb 9f 2c bd f5 79 88 3c 7a 1e ef 3b b3 90 92 3c
       -0.042144757 0.016659716 0.0072973343 0.017891264
0002a0 c6 a0 aa 3c a9 b8 8a 3a 2c 4e be 39 0d 1a 88 3a
       0.020828616 0.0010583597 0.00036297867 0.001038374
0002b0 46 08 fd ba ab 73 22 bb 80 e0 fb 3c 3f cf 05 bd
       -0.0019304834 -0.0024788182 0.030746698 -0.03266835
0002c0 3f 77 5c bd 10 e0 5b 3d 45 68 a8 bb 6b e3 aa bc
       -0.05382466 0.05368048 -0.005139383 -0.020860394
0002d0 02 40 4f bd 1e 62 1a bd dd 51 7b bd 99 d9 db 3b
       -0.050598152 -0.037691228 -0.061357368 0.0067092893
0002e0 4e 15 4b bc 7b c5 5a 3c 24 e0 9c 3c d2 52 96 bb
       -0.012395216 0.013352747 0.019149847 -0.0045875097
0002f0 d9 00 ae 3b 3f 4c fc 3a 82 73 65 bc ce 45 29 bb
       0.0053101596 0.0019248797 -0.01400459 -0.002582896
000300 93 4a 62 3c 9b c2 af 3c 25 63 a2 3c dd e0 e5 3c
       0.013811725 0.0214551 0.019822666 0.028061325
000310 48 1a ca 3c 4f d0 07 3c 19 fe 08 bd 27 dc c1 bc
       0.024670735 0.008289411 -0.03344545 -0.023664547
000320 88 7c 08 bd 14 85 a6 3c 50 25 f7 3c 6c ab bc 3c
       -0.033321887 0.020327128 0.03016916 0.02303096
000330 af 0c ec 3c 74 bb 9e 3c 89 a9 5a 3b 1b 17 80 bc
       0.028814642 0.019376494 0.003336521 -0.015636018
000340 9d c9 2b bc 27 a0 f1 bb 12 19 0b bc 1c 8a ce bb
       -0.01048508 -0.007373828 -0.008489864 -0.006303085
000350 70 3b 92 bb df ed d6 bb 2d 1f 50 bc 75 7e 15 bc
       -0.004462652 -0.006559118 -0.012702745 -0.009124388
000360 3f 76 1e bd 89 cb 0c bd 09 81 22 bd 19 f0 04 3d
       -0.038686987 -0.034373794 -0.03967384 0.032455537
000370 55 9e 8f bc 04 c2 62 bc 18 a2 12 3d 72 b7 9a 3c
       -0.017531553 -0.013840202 0.035799116 0.018886302
000380 f3 47 ad bb 87 56 ed bb 9e cb 3b bc 55 03 02 bc
       -0.005288118 -0.007242981 -0.01146212 -0.007935365
000390 37 3d f6 3c 4b fc dc 3b 00 9b 4e 3c a2 96 64 bc
       0.030058486 0.006743943 0.012610197 -0.013951929
0003a0 47 03 42 bc 1f 63 1d bc 1f 2d 8a bc b9 ab 94 bc
       -0.011841602 -0.009606152 -0.016867219 -0.01814829
0003b0 1b 29 64 bc 3b fc 4b 3c 71 e3 6a bc 76 13 7d bc
       -0.013925816 0.012450273 -0.014336453 -0.015446534
0003c0 19 dd 90 ba 5b 1f a3 bc 6e 4c 68 bc 7f d5 25 bd
       -0.001105222 -0.019912412 -0.0141783785 -0.04048681
0003d0 d1 ac ff bc cd 1c 5e bd ea ae 93 3c 29 d6 b6 3c
       -0.031210335 -0.054226685 0.018027741 0.022318916
0003e0 f7 ab 6d 3c b1 c2 84 3c 8e bc 9e 38 c3 8a ea 3b
       0.014506332 0.016206117 7.569148e-05 0.007157655
0003f0 da 98 61 bd 1e ff 22 bd 98 0f 4c bd 47 fc 0a 3c
       -0.05507741 -0.03979408 -0.04981956 0.008482999

bias f4 [64]
000000 3b 32 9c ba 2b 06 97 3a 1d 83 0e bc c6 d3 68 3a
       -0.0011916825 0.0011522224 -0.008698252 0.00088816544
000010 2f 21 22 3a ee 3c 0e 3c 9f 79 82 bb ed c5 a1 ba
       0.00061847543 0.008681519 -0.0039817835 -0.0012342312
000020 e0 94 31 b9 76 de 69 3a 64 f8 0a 3c d6 a4 fb 3b
       -0.00016935496 0.0008921394 0.0084820725 0.007679562
000030 01 52 e4 ba 12 02 69 3a b7 0e 93 ba 5a a9 91 b9
       -0.0017419459 0.0008888553 -0.0011219595 -0.00027782732
000040 cd d0 b4 3a 92 b2 c6 38 85 8c 32 3c 07 d1 3a b6
       0.0013795138 9.474637e-05 0.01089776 -2.783783e-06
000050 ed 0d 5f ba f0 08 5b bc 84 a7 86 3c 91 b0 99 ba
       -0.000850885 -0.01336883 0.0164373 -0.0011725595
000060 98 01 2c ba 4a e9 3a 3c 2b 55 66 ba 26 fa 53 bb
       -0.0006561517 0.0114081595 -0.0008786495 -0.0032345145
000070 93 87 11 bb 56 5c 9c b9 be 86 e3 b9 43 5a 03 3a
       -0.0022206053 -0.00029823434 -0.00043397205 0.00050107035
000080 32 34 a3 3a 18 ad 88 ba c3 16 9c ba 21 41 93 3a
       0.0012451469 -0.0010427563 -0.0011908639 0.001123462
000090 49 d3 0a bb c4 e0 84 3b 87 62 e3 3b 0d 36 90 3b
       -0.0021183065 0.0040551145 0.0069392356 0.0044009746
0000a0 d8 f3 0b 3b c4 0d 80 bc 27 5e ee b9 3c 28 b2 b9
       0.002135506 -0.015631564 -0.00045465046 -0.00033980783
0000b0 e5 70 88 3b ee a0 6a b9 fb 2e 44 bc c9 a8 7d 3a
       0.0041638487 -0.0002237593 -0.011974092 0.0009676335
0000c0 5b 43 2a 39 f7 5e 2e 3b 19 43 a2 ba d3 43 fe 3b
       0.00016237555 0.0026606896 -0.0012379616 0.00775955
0000d0 0c bd 21 3c 62 57 a8 3a 5b 00 ad bb 36 1d ad 39
       0.009871732 0.0012843425 -0.0052795834 0.00033018895
0000e0 c5 ce fa 37 6a 84 2b ba 2b 10 28 b9 a3 2d 0f 3c
       2.9898607e-05 -0.00065428636 -0.00016027752 0.008738908
0000f0 d4 10 da ba ff 44 a0 ba f1 28 40 3a 13 32 36 3a
       -0.0016637095 -0.0012227594 0.00073303195 0.00069502107

weight f4 [64]
000000 de c0 a7 3e 8a 2e 97 3e 1f 55 09 3f fd 83 9c 3e
       0.32764333 0.29527694 0.5364551 0.3056945
000010 26 15 90 3e 41 be 0e 3f 46 ba fd 3e 2c 21 a9 3e
       0.28141135 0.55759054 0.49556178 0.3303312
000020 91 9a bb 3e cf e3 c8 3e e2 2e 03 3f f3 b8 fe 3e
       0.36641362 0.39236304 0.5124341 0.4975048
000030 0b cf a7 3e 9c fa 94 3e b2 10 d5 3e 56 21 98 3e
       0.3277515 0.2909745 0.416143 0.29712933
000040 f2 63 84 3e c4 ca a7 3e 51 7e c2 3e 17 ba 13 3f
       0.25857502 0.32771885 0.37986997 0.57705826
000050 8a 7a a5 3e 4b 3b e3 3e 3a e7 f8 3e bb e5 c2 3e
       0.32320052 0.44381174 0.48613912 0.38065895
000060 a7 48 e6 3e 1e 12 0a 3f 91 d9 b0 3e 11 a5 df 3e
       0.44977304 0.53933895 0.3454099 0.43680623
000070 98 55 bc 3e b3 85 a7 3e 57 b6 e9 3e 47 f2 61 3e
       0.36784053 0.32719192 0.45646927 0.22065078
000080 5c 60 c6 3e 75 2a 9b 3e 58 5b 9a 3e 64 9d 88 3e
       0.3874539 0.3030583 0.30147815 0.2668258
000090 42 6a b2 3e c1 12 b8 3e 36 e4 92 3e 82 7f f3 3e
       0.34846693 0.35951808 0.28689736 0.47558218
0000a0 9c a3 b7 3e 1f c2 08 3f 28 f6 74 3e 69 c8 c2 3e
       0.35867012 0.53421205 0.23922026 0.38043526
0000b0 de dd a5 3e cd 3e 99 3e d1 e2 e3 3e aa c0 a6 3e
       0.32395834 0.29930726 0.44508985 0.32568866
0000c0 05 f4 c4 3e 13 48 c1 3e 6c cd 9d 3e b2 39 18 3f
       0.38467422 0.377503 0.30820787 0.59463036
0000d0 8b b2 ab 3e 52 21 8e 3e 18 9e ef 3e 9d c1 9d 3e
       0.33534655 0.27759796 0.46800303 0.30811778
0000e0 e0 55 f4 3e 93 26 6b 3e 24 be e9 3e 88 17 f3 3e
       0.47721767 0.22963934 0.45652878 0.4747889
0000f0 78 5c ab 3e 72 58 cb 3e 04 88 f1 3e d9 7b a3 3e
       0.33468986 0.39715916 0.47174084 0.31930426

bias f4 [64]
000000 83 47 f7 bd 00 e3 6f bc 70 c3 01 3d 32 ad b4 bd
       -0.12074187 -0.014641523 0.031680524 -0.08822097
000010 c8 41 97 bd 73 12 0b 3d 35 5d bc bd 78 ff b8 3d
       -0.07385594 0.03395314 -0.09197465 0.09033102
000020 ec f5 56 3d 5c c0 08 be 19 94 43 3c d4 71 31 3d
       0.052480623 -0.1335463 0.011937165 0.043321446
000030 0b 42 cb bd d0 2b 6e bd cf ca d5 bd aa dc 80 3d
       -0.09924706 -0.05814725 -0.10439073 0.06292088
000040 b5 8d a0 bd 31 0b f7 bd 78 02 ae bc 83 d0 8d 3d
       -0.078395285 -0.120626815 -0.021241412 0.06924536
000050 3e 5e de bd 10 10 06 3e b1 39 f7 3c 8d 41 0c be
       -0.10857819 0.13092065 0.030178877 -0.1369688
000060 5a c7 40 bd bd f2 36 3c aa 04 f3 bd 8e 00 fa bd
       -0.047065116 0.011166272 -0.11866124 -0.12207137
000070 ee 26 10 be c8 d5 c5 bd ad e4 cf bd 37 51 b8 bd
       -0.1407735 -0.09659916 -0.10151038 -0.089998655
000080 de cf 00 be f4 dd 0d be 2c 9f 99 bd ba 50 52 bd
       -0.12579295 -0.138542 -0.07501063 -0.051346518
000090 7a 62 eb bd 71 ca a3 3d 67 f6 c0 bc 5b 82 1b 3d
       -0.11493392 0.07997597 -0.023554994 0.037966114
0000a0 18 be 9b bd 24 8f e5 3c e2 03 82 bd 3c db 04 be
       -0.07604617 0.028022356 -0.06348397 -0.12974256
0000b0 01 c9 fc bd 82 32 e8 bd 54 72 d6 3d f8 b2 ea bd
       -0.12343026 -0.113377586 0.10471025 -0.11459917
0000c0 c0 4d 02 be af 26 55 3c 90 47 e2 bd 92 aa 57 3c
       -0.12724972 0.013009711 -0.11048806 0.013163226
0000d0 fb 20 be 3b a1 52 93 ba 28 31 4f bd 69 78 d3 bd
       0.0058022714 -0.0011239835 -0.05058399 -0.10325701
0000e0 e4 53 44 3d 10 5b 33 bd b2 6e 49 3d 67 84 f5 3b
       0.047931567 -0.043788016 0.049177833 0.00749259
0000f0 af 40 c1 bd 12 8d f5 bd 86 51 36 bd 6c c1 0b be
       -0.094361655 -0.11989798 -0.04451134 -0.13648003

running_mean f4 [64]
000000 b9 a7 de bd 42 e8 6e be 5e 1a d7 39 77 f6 85 3d
       -0.10871834 -0.23330787 0.0004102764 0.0654115
000010 d7 f5 a0 bd 56 ac c7 3b 5d f2 49 be e3 3d 90 be
       -0.0785939 0.006093542 -0.1972136 -0.28172216
000020 77 0a d1 bc 25 fe 34 bc f0 73 77 bd 06 9e cf bc
       -0.025517685 -0.011046921 -0.0604133 -0.025343906
000030 3e c5 61 be 4f b9 e7 bd b2 55 40 be 21 d9 8e be
       -0.22047898 -0.11314642 -0.1878269 -0.2790003
000040 0c 38 52 be ec 72 0a be 2e 19 81 bd 8b 46 ad bd
       -0.20529193 -0.13520402 -0.06303631 -0.08460721
000050 e1 ba 19 bd c1 45 bd bc 44 0f 80 bc 88 be cc bd
       -0.037531737 -0.02310455 -0.01563228 -0.099972785
000060 36 0d 35 be 03 a9 3b 3c f2 28 24 be 40 ed 77 bd
       -0.17680821 0.01145387 -0.16031244 -0.060528994
000070 13 df 4c bd e9 17 5d be 3e 08 df bc aa d6 da bd
       -0.050017428 -0.21591152 -0.02722561 -0.10685475
000080 31 46 43 be 17 d6 80 bd 5e d5 2d 3c 8d ec 20 be
       -0.19069745 -0.062908344 0.010609953 -0.15715237
000090 08 07 ce bd 53 f5 95 be 08 19 71 be a2 b4 68 bd
       -0.10059935 -0.2928873 -0.23544705 -0.05681289
0000a0 86 8f da bd d3 41 6e bd 33 eb 7e 3c c7 00 59 bb
       -0.10671906 -0.058168244 0.015559006 -0.0033112036
0000b0 25 2e 24 bd 95 7d 92 bc 9a ad 95 bd 48 c9 08 be
       -0.04008307 -0.017882148 -0.073085025 -0.13358033
0000c0 96 47 71 bd 2f d5 de ba c0 1f 00 be 52 4f 1f bd
       -0.05890616 -0.001700079 -0.12512112 -0.038894005
0000d0 10 e8 1d 3d 13 ce 67 be fb 6d a1 bc f4 b7 1b bd
       0.03855139 -0.22637205 -0.019705763 -0.03801723
0000e0 6f 22 77 bd e0 ec 84 bd 3c 4f dc 3c 6d 12 e6 bd
       -0.060335573 -0.06490493 0.02689325 -0.11233983
0000f0 86 4e 72 be 5c 00 88 bd a2 94 ff bd c3 97 63 bc
       -0.23662767 -0.066406935 -0.12479521 -0.013891163

running_var f4 [64]
000000 77 2a 95 3c 65 29 40 3c bf 1f 2c 3c 0a a8 72 3d
       0.018208725 0.011728619 0.010505616 0.059242286
000010 63 15 82 3d 21 c1 e3 3c 74 4d f1 3c 45 43 cc 3d
       0.063517354 0.027802052 0.029455878 0.09973768
000020 d9 42 05 3c f5 af 10 3d 98 7f c7 3b 7b 85 18 3c
       0.0081336135 0.035324056 0.0060882084 0.009309168
000030 2f 17 a3 3d 44 1f f8 3c 9e 7d ee 3c 86 a5 d4 3d
       0.07963406 0.030288346 0.029112633 0.103831336
000040 26 c5 52 3d af aa 31 3d 7e 7b 89 3c 75 2f 07 3c
       0.051457547 0.043375667 0.016782518 0.008251061
000050 78 82 24 3e f7 63 ab 3b 00 6f 47 3c 3a 2f 74 3c
       0.16065395 0.0052304226 0.012172461 0.014903838
000060 36 a2 60 3c 12 00 f4 3b 34 66 86 3d a4 4c 1c 3d
       0.013710549 0.0074462974 0.065624624 0.038159028
000070 23 91 ae 3c 1b d7 2d 3d 21 76 c0 3c 3f a4 ac 3c
       0.021309441 0.04244147 0.023493828 0.021074412
000080 ae 57 07 3d c9 d3 16 3c f6 46 22 3d b0 d7 c6 3c
       0.033042602 0.009205767 0.039618455 0.02427277
000090 57 b8 5e 3d 8a 84 d0 3d 00 43 bd 3c 07 88 c5 3b
       0.05437502 0.1018153 0.023103237 0.0060281786
0000a0 0c b0 7b 3c c9 a6 ac 3c 36 75 a9 3c 8c dc 04 3d
       0.015361797 0.021075623 0.020685773 0.032436892
0000b0 c1 43 00 3d 5e c8 bd 3c e4 0d b0 3b 0f 09 39 3d
       0.031314615 0.023166832 0.0053727496 0.045174655
0000c0 9b cd 02 3d a3 86 98 3b e2 10 32 3c 83 49 4f 3c
       0.031934362 0.004654722 0.010868283 0.012651804
0000d0 81 5a d9 3b b5 c9 bd 3d fc a1 7b 3c 79 ef bd 3d
       0.0066331034 0.09266988 0.015358444 0.092741914
0000e0 1e 64 8d 3c dc 67 25 3d 9e b8 53 3c cf 30 7e 3c
       0.017259654 0.04038225 0.012922434 0.015514567
0000f0 ff 83 87 3d ac f2 08 3d c4 71 88 3c 14 0d 56 3c
       0.06616973 0.033434555 0.01665581 0.0130646415

weight f4 [64, 67, 3, 3]
000000 fb 1e 34 bc d0 c3 42 bc 20 be 17 3c 7e df dd 3b
       -0.010993714 -0.011887506 0.009261638 0.006771027
000010 ff 37 79 3b 47 4f fa 3b e5 2b b0 3b 7e f1 a2 bb
       0.003802776 0.007638845 0.0053763264 -0.004972636
000020 b3 63 1f bc 7c 23 1a bc 05 fe 93 bb 49 a2 7c bc
       -0.00972836 -0.009407874 -0.0045163655 -0.015419551
000030 d3 08 59 bc 7e 90 6c 3a 5e 6a 08 bc a0 6f 5b bc
       -0.013246733 0.00090242166 -0.008326141 -0.013393313
000040 c8 77 68 bc 3a 5e 84 bc df 3f ac b9 2c 5d cd bb
       -0.014188714 -0.016158212 -0.00032853984 -0.0062672105
000050 86 74 42 bc 9c 1b 60 b9 8f 48 c0 bb a1 ae 43 bc
       -0.011868602 -0.0002137259 -0.0058680247 -0.01194349
000060 74 62 a5 ba 10 3d 9b bb ed 27 09 bc a0 33 57 3b
       -0.0012617842 -0.004737504 -0.008371335 0.0032837167
000070 f8 9d e3 bb 51 d5 83 bb 69 bc 14 bb 10 d6 10 bc
       -0.0069463216 -0.004023232 -0.002269531 -0.008840099
000080 6f 1c 16 bc 9a eb 0b bd ee 99 59 3c b7 e7 b1 bb
       -0.009162053 -0.034160234 0.013281329 -0.005429234
000090 1e 64 9e 3b 1c da a7 bc a9 57 51 bc 47 c5 80 bb
       0.0048337122 -0.020489745 -0.0127772475 -0.0039297673
0000a0 b9 14 bd 3b 2b e0 a0 3a 5a a2 22 bc a3 7e bc bc
       0.0057702926 0.0012273839 -0.009926403 -0.023009604
0000b0 4f a1 96 bc 12 a1 f9 3c 82 ac 8a 3c 7b 6d ab 3c
       -0.018387465 0.030472312 0.016927961 0.020926228
0000c0 00 8a 60 3c ff 03 bb 3b 38 b8 db 38 8c 2c 32 bd
       0.013704777 0.0057072635 0.00010477047 -0.043499514
0000d0 6a d8 96 bc 67 52 49 bd 75 89 09 bc d7 67 dc 3a
       -0.018413741 -0.04915085 -0.008394589 0.0016815615
0000e0 cb 6e a8 3b 34 2c 3e bb 6d a5 a4 bc e4 39 47 bb
       0.0051401607 -0.0029018046 -0.020098412 -0.0030399496
0000f0 ea e8 22 bb 8e 14 91 bc ac 3d c8 bb 06 82 68 bc
       -0.0024858066 -0.017709997 -0.0061108675 -0.014191156
000100 06 6f 02 3b 44 fb cd 3b db 5e 84 39 6b bc 90 bc
       0.00199026 0.0062860567 0.00025247675 -0.01766797
000110 a5 70 df bb 76 dc c7 3a ee bc 5d bc 5a eb be ba
       -0.006818848 0.0015248198 -0.013533814 -0.001456599
000120 40 b8 6b bc 4b c5 7c bd 24 22 4b bd 09 ca ba 3a
       -0.01438719 -0.06171159 -0.049593106 0.0014250885
000130 de b5 2e bc 17 7c 81 bc 9a 43 a5 3c 95 16 e5 bb
       -0.010663478 -0.015806241 0.020173836 -0.0069912174
000140 a6 cd 11 bd 62 4c 0f bd 67 7e e7 bc 0c 2a 11 bd
       -0.035596512 -0.034984954 -0.028258516 -0.03544049
000150 49 9d bf bc a9 18 e8 3b 75 80 bb ba 2d 0c 62 3c
       -0.02339043 0.007083018 -0.0014305251 0.013796848
000160 bf 97 56 3d ba 54 56 3d 05 a6 2d 3d 24 7f 0e 3d
       0.05239081 0.052326895 0.042394657 0.03478922
000170 8f b5 f5 3c c2 8e e5 3c 88 ca 70 3c 58 9a 2f 3c
       0.0299938 0.028022174 0.014696725 0.010717951
000180 55 a3 5c 3c 80 94 25 ba a3 2d fe bb 1d 70 3d bd
       0.013466676 -0.0006316379 -0.007756905 -0.046249498
000190 97 19 a5 39 a4 23 33 3b 30 c3 dd bc b2 1a da bc
       0.00031490318 0.0027334476 -0.027070612 -0.026624057
0001a0 77 15 16 39 ac e3 41 bc 48 56 a6 bc 20 46 88 3b
       0.00014313111 -0.011834066 -0.020304814 0.00415875
0001b0 3c 64 86 bc d2 37 48 bc 89 ab e3 bc 51 bf d6 bc
       -0.016405217 -0.01222034 -0.027791755 -0.026214274
0001c0 7c 55 2e 3b a7 d7 6d 3b d5 df 57 3a 66 15 27 3d
       0.0026601246 0.003629187 0.00082349527 0.04079189
0001d0 d1 fe da 3c 82 f9 11 3d 36 a7 9a 3c aa b2 00 3d
       0.026732834 0.03563834 0.01887856 0.031420387
0001e0 2d 5b 5f 3d 45 46 2c bb 61 fa fd 3b c4 f2 ed 3c
       0.05453031 -0.0026287 0.0077507948 0.029046424
0001f0 fc 12 f8 3b 1a e4 b9 bc 87 44 a0 3c 6d 60 7d 3c
       0.0075706225 -0.022691775 0.019563926 0.015464884
000200 99 07 d8 3c c1 5f 37 3d 45 ab af 3c 6f 4f 1a 3c
       0.02637081 0.044769052 0.021443972 0.0094183525
000210 14 e4 5b 3d a6 c8 2c 3d 53 93 4e 3b 6f d9 6c bc
       0.05368431 0.04218354 0.0031520918 -0.014456137
000220 45 df ab bb 30 a9 46 bc e8 6d 06 bc b7 df 0c bc
       -0.0052451217 -0.012125298 -0.008204915 -0.00859826
000230 36 6c 89 bb f8 73 07 3a 13 07 9b bb 2c cd 07 3c
       -0.004193808 0.0005167122 -0.004731068 0.008288663
000240 f4 5a 09 bc d1 e3 90 bb e5 68 95 3c dc 59 87 3c
       -0.008383501 -0.004421689 0.018238494 0.01652234
000250 7b 25 d5 bc a6 a2 26 bc 76 34 b6 bc 58 86 29 bd
       -0.026018849 -0.010170614 -0.022241812 -0.041387886
000260 ee 91 07 bc 32 c7 0f bd 7c 5c e8 bc 94 ab 24 bd
       -0.008274538 -0.035102077 -0.028364412 -0.040202692
000270 c1 07 c0 bc 67 f9 5d bb 66 fd 14 ba 6d 1b 11 3c
       -0.023441197 -0.003387058 -0.0005683511 0.0088566365
000280 c0 86 27 3d 88 e8 cf 3c d7 69 19 3d e7 17 f8 3c
       0.040899992 0.025379434 0.037454452 0.030284835
000290 c7 b5 d8 3c bb 3d c2 3c af 89 41 3c 69 08 1d 3c
       0.026453866 0.023711076 0.0118126115 0.009584525
0002a0 86 06 28 3c f1 79 f1 ba 7e da db bb 51 80 4b bb
       0.010255462 -0.0018423182 -0.006709396 -0.0031051824
0002b0 af 67 6d 3b 66 d7 05 3a 4f 53 88 bb 65 8f 46 bc
       0.003622513 0.0005105644 -0.004160322 -0.012119149
0002c0 42 9f 09 ba d4 f7 d3 3b ad 78 45 bb c8 ac 4c 3c
       -0.00052498665 0.0064687524 -0.0030131743 0.012492366
0002d0 31 71 07 bc d4 37 2f bc 62 0c ad bb a1 38 05 bb
       -0.008266733 -0.010694463 -0.005281017 -0.0020327943
0002e0 c0 23 28 bc 61 9f 16 bc ca 6b 90 3b 51 c5 13 bb
       -0.01026243 -0.009193272 0.0044073807 -0.002254803
0002f0 93 0a 3c bb d9 7d 16 bd 5e aa c3 bc d0 f1 95 bc
       -0.0028692826 -0.03674111 -0.023884948 -0.018303782
000300 4f 69 8a bc 3b e6 92 ba 29 5a 50 3b 2e 31 c9 3c
       -0.016895918 -0.001120753 0.003179202 0.024559584
000310 97 ca 1a 3d 61 e4 3d 3d 8e 7b 5a bc df 09 c5 bc
       0.03779086 0.046360377 -0.013335122 -0.024052558
000320 a0 c3 68 bc eb 76 e6 bc 46 87 b1 bc 8d cc b9 bc
       -0.014206797 -0.028132876 -0.021670949 -0.022680545
000330 f4 8b 62 bc 7d 81 83 bc 2f 8b 8a bc 58 c4 2d 3a
       -0.013827313 -0.016052956 -0.016912071 0.0006628684
000340 ba 7f 90 ba 4c 34 c2 3a 64 70 b4 bb 93 25 7d bc
       -0.0011024394 0.0014816611 -0.005506562 -0.015450853
000350 97 45 5b bc e1 77 2f ba e9 c2 ff 39 6f cc 60 bb
       -0.013383291 -0.00066935836 0.0004878261 -0.003430154
000360 25 71 ac bc 07 20 ac 3b f2 14 b1 3a a8 47 cf bc
       -0.021050045 0.0052528414 0.001351027 -0.025302723
000370 ec 04 c1 bc 18 66 2a bb 10 1e 91 3c 21 45 e4 bb
       -0.023561917 -0.0026000794 0.01771453 -0.0069662486
000380 c2 c9 85 bc 48 e8 3f 3c 96 c0 2a bd 5d a7 35 bd
       -0.016331557 0.011713095 -0.04168757 -0.044349063
000390 88 ff 01 bc a9 f9 de bc 82 7d cd bc 45 09 f9 3c
       -0.007934459 -0.027218657 -0.02508426 0.030399928
0003a0 a6 cf bb bc f6 f6 6e bc 06 0c a8 bb 8d 29 1d bb
       -0.022926163 -0.014585247 -0.0051283864 -0.0023981065
0003b0 1e 30 5f bc 3f da 55 bc 59 5e c4 bb 2d 8d eb bb
       -0.013622312 -0.013052522 -0.0059926924 -0.0071884603
0003c0 3a eb 7c 3c 63 81 9c 3c 4a 38 0e 3c 3e 8b 26 bd
       0.015436942 0.019104665 0.008680413 -0.040660135
0003d0 b6 bc d8 bc 28 fb e3 bc 8b 1b 97 bc 97 79 33 3c
       -0.026457172 -0.027829722 -0.01844575 0.010954282
0003e0 30 52 79 3c 28 8d b9 3c c6 f8 48 3d 54 7c 63 3d
       0.015217349 0.022650316 0.049065374 0.05553849
0003f0 c5 0f 53 3c cd 65 b6 3c 2f de a9 3c 5a d6 0f 3d
       0.012882178 0.02226534 0.020735828 0.03511653

bias f4 [64]
000000 83 67 bb bb d5 f5 9b 3a 8a 17 b9 bb 0e a2 27 bb
       -0.0057191267 0.0011898825 -0.005648558 -0.002557877
000010 ca 1a a9 bc 1f bb 1a bc 6a 10 1a bb 1c 61 b3 bb
       -0.020642657 -0.009444027 -0.0023508319 -0.005474223
000020 49 b5 17 bb a9 30 1e 3b 51 10 b1 bb 33 2d 18 ba
       -0.0023148826 0.002413789 -0.0054035564 -0.0005805075
000030 78 6e b6 ba b4 cd 71 ba 8d 0b 48 ba 4a 01 05 3d
       -0.001391842 -0.00092240726 -0.0007631116 0.032471932
000040 01 73 bb ba f4 6f 8f 3a 84 28 94 3c 74 b4 4b ba
       -0.0014301242 0.0010943399 0.018085726 -0.0007770725
000050 3a 60 ae bb a1 42 7e bc 56 ca 31 3b 02 e8 15 3c
       -0.0053215297 -0.015518815 0.0027128658 0.009149553
000060 48 30 04 bc 29 ef ee ba 8e b3 47 bb fd 97 40 bb
       -0.008068152 -0.0018229234 -0.0030472013 -0.0029387467
000070 cc 32 23 3c 52 f2 d9 3a 74 2c 9b 3a 0d b7 3b 3b
       0.009960841 0.0016628003 0.001183881 0.0028643042
000080 57 f2 2f bb e2 e8 1f 3a 4e 04 a8 bb a4 03 dc bb
       -0.0026847327 0.0006100071 -0.0051274663 -0.006714301
000090 42 24 19 38 44 02 df bb 7f 74 fa bb b6 b9 af 3a
       3.651181e-05 -0.00680569 -0.007643282 0.0013406787
0000a0 8f cd a9 3b 4d 0d b5 3c df 7b 22 bc 19 bb a6 bb
       0.005181975 0.022101069 -0.0099172285 -0.0050882217
0000b0 6e 86 c7 bb fe 31 14 bc 40 ec f6 bb 47 3a 5a 3b
       -0.0060890233 -0.009045122 -0.0075354874 0.0033298896
0000c0 2a d6 f8 b9 02 8a 41 3b ca ac 2c b8 72 4c 94 b9
       -0.0004746181 0.0029531722 -4.1168918e-05 -0.00028285716
0000d0 a4 8d 1c bb 7f 79 8e 3b 8d 26 8b ba eb 21 c4 ba
       -0.0023888135 0.0043479796 -0.0010616347 -0.0014963722
0000e0 27 cc c0 bb 74 17 a5 ba a6 27 98 b8 06 b7 a5 3b
       -0.005883712 -0.001259549 -7.25531e-05 0.0050572185
0000f0 cf 82 36 bb d9 4a 24 bb a8 ed 63 bb ec d4 06 bb
       -0.0027848964 -0.0025069027 -0.0034779105 -0.0020573689

weight f4 [64]
000000 1c be 12 3f 34 f8 0d 3f d1 bc e9 3e 4c 7e ff 3e
       0.57321334 0.5545685 0.45651868 0.49901044
000010 0d 07 08 3f c8 c7 ec 3e ce a8 de 3e 1c 33 03 3f
       0.5313576 0.4624617 0.43488163 0.5124986
000020 6b 46 c7 3e c1 e3 fb 3e 6d de fc 3e 4a 30 ac 3e
       0.38920912 0.491972 0.49388447 0.33630592
000030 55 01 f4 3e ef 73 ea 3e 1f 4a b1 3e 0b 87 39 3f
       0.47657266 0.45791575 0.34626862 0.72471684
000040 a8 c0 b4 3e 87 5d 08 3f 4c 12 45 3f 2a c1 9f 3e
       0.35303235 0.5326771 0.76981044 0.3120206
000050 08 05 d6 3e 46 2f eb 3e 34 1e e7 3e a2 34 f2 3e
       0.41800714 0.45934504 0.4514023 0.4730578
000060 97 30 03 3f 9e ab 06 3f b7 20 3f 3f e4 db cd 3e
       0.5124602 0.5260562 0.74659294 0.40206826
000070 bf c5 f6 3e dc fc 33 3f 75 23 bb 3e b4 63 dc 3e
       0.48197743 0.7030771 0.3655049 0.43044817
000080 ec 64 11 3f b3 ce d3 3e 91 65 f6 3e 68 ce ee 3e
       0.5679462 0.41368636 0.48124364 0.4664185
000090 5f 3c c6 3e b1 43 08 3f c0 b0 db 3e 43 f5 21 3f
       0.38717934 0.5322829 0.42908287 0.63264865
0000a0 50 ef 2e 3f 45 3d 39 3f 6f a7 00 3f 5d 9e 09 3f
       0.6833391 0.72359115 0.50255483 0.5375727
0000b0 af 92 01 3f a4 db fc 3e e5 75 00 3f 7d 7f 00 3f
       0.50614446 0.49386322 0.5017989 0.5019453
0000c0 d6 03 b8 3e 81 5e 0c 3f 80 4d 9e 3e 01 8e 02 3f
       0.35940427 0.548317 0.30918503 0.5099793
0000d0 07 bd 02 3f b7 6d 06 3f 37 01 ac 3e 42 2e a9 3e
       0.5106968 0.5251116 0.33594677 0.33043104
0000e0 6b 49 0e 3f 5a 5d d8 3e 05 25 bd 3e 7d 6e d9 3e
       0.55580777 0.42258722 0.36942306 0.42467108
0000f0 a5 3e cf 3e 78 50 e3 3e 64 55 de 3e 35 4b 54 3f
       0.4047748 0.4439733 0.43424523 0.82927257
