SND_trackers_My_data/9X0_file/39_9X0_coordconv_Label_V8.pt (torch, 466172 bytes, 31 tensors)

weight f4 [32, 9, 3, 3]
0	0xbba8e727	-0.0051545086
1	0xbba8d78d	-0.005152649
2	0xbba8ce08	-0.005151514
3	0xbba8ea1d	-0.0051548616
4	0xbba8b998	-0.0051490776
5	0xbba8b024	-0.0051479507
6	0xbba899db	-0.005145294
7	0xbba88088	-0.0051422752
8	0xbba8bac3	-0.005149217
9	0x3b59df25	0.0033244577
10	0x3b59e183	0.0033245988
11	0x3b59ded6	0.0033244393
12	0x3b59ddf1	0.003324386
13	0x3b59e29b	0.003324664
14	0x3b59e2a6	0.0033246665
15	0x3b59e2e3	0.0033246807
16	0x3b59e187	0.0033245997
17	0x3b59de3e	0.003324404
18	0xbd0188e1	-0.03162468
19	0xbd055b6b	-0.032557886
20	0xbcf62fff	-0.030052183
21	0xbced827e	-0.028992888
22	0xbceafccc	-0.028684996
23	0xbce166b6	-0.027514797
24	0xbcb790d0	-0.02240792
25	0xbcb7f499	-0.0224555
26	0xbcb757ac	-0.022380672
27	0x3d88ccd4	0.06679693
28	0x3d1232b2	0.035692878
29	0xbd47cb77	-0.048778024
30	0x3d88d55f	0.06681322
31	0x3e1d9c77	0.15391718
32	0x3d8be154	0.06830087
33	0x3cc5d46a	0.024149138
34	0x3b90eeb9	0.004422989
35	0x3dfc7f7a	0.12329002
36	0xbba9c111	-0.005180486
37	0xbceb0bc5	-0.028692136
38	0x3ca5d696	0.020243924
39	0x3ca615fe	0.020274159
40	0xbcc8ab40	-0.02449572
41	0xbd21babe	-0.03948473
42	0xbb9e32d4	-0.0048278365
43	0xbd84b80f	-0.06480419
44	0x3c4584c8	0.012055583
45	0xbcccf18a	-0.025017519
46	0xbd1ac088	-0.03778127
47	0x3ca7dd3e	0.020491239
48	0x3d22feb6	0.039793693
49	0x3aeda331	0.00181303
50	0x3c757b94	0.014983077
51	0xbbcaedb9	-0.0061928895
52	0xbc29a56d	-0.010354382
53	0xbcb693d4	-0.022287287
54	0xbcf75029	-0.03018959
55	0x3beb9789	0.0071896953
56	0xbd91c71c	-0.07118055
57	0x3db5e49d	0.08881495
58	0xbd03ba9f	-0.032160398
59	0xbcba9972	-0.022778247
60	0xbba5250b	-0.0050398163
61	0x39ce6450	0.0003936612
62	0xbd21b541	-0.039479498
63	0xbc85a9c1	-0.016316297
64	0xbd16898e	-0.036752276
65	0x3cd409a6	0.025883507
66	0x3d3b82dd	0.045779098
67	0xbb999bc6	-0.004687759
68	0xbd4a8f04	-0.049452797
69	0x3cbc80a7	0.023010565
70	0x3d16ded6	0.036833607
71	0xbd142578	-0.036168545
72	0xbc9245a5	-0.017855475
73	0xbc555b66	-0.013022279
74	0xbd1101f0	-0.03540224
75	0x3b600d7d	0.0034187727
76	0x3cfce82e	0.03087243
77	0x3d8ff03a	0.070282415
78	0xbcbfeb53	-0.023427641
79	0xbbf196d9	-0.007372719
80	0x3c4399c7	0.011938519
81	0x3b02ae33	0.0019940257
82	0x3b03831e	0.0020067166
83	0x3b069326	0.0020534485
84	0x3b02665d	0.001989744
85	0x3b03f8e4	0.0020137364
86	0x3b058e78	0.0020379107
87	0x3b06d9d7	0.002057662
88	0x3b01d43a	0.0019810335
89	0x3b03dfe3	0.002012246
90	0x3ce086d7	0.027408047
91	0x3ce083b6	0.027406555
92	0x3ce08757	0.027408285
93	0x3ce0856d	0.027407372
94	0x3ce086f6	0.027408104
95	0x3ce0867f	0.027407883
96	0x3ce086d8	0.027408049
97	0x3ce08637	0.027407749
98	0x3ce08723	0.027408188
99	0x3c15f411	0.009152428
100	0x3c2e47ef	0.0106372675
101	0x3c48c029	0.012252846
102	0x3c1f29b9	0.009714537
103	0x3c173187	0.009228117
104	0x3c23975a	0.0099848155
105	0x3c141ff3	0.00904082
106	0x3c0d6fd2	0.008632617
107	0x3c2b9b34	0.010474015
108	0xba4a0f02	-0.0007707925
109	0x3c1a454f	0.0094159385
110	0xbbb38a05	-0.0054790997
111	0xbc78855e	-0.015168516
112	0xbc2efe06	-0.010680681
113	0x3cf04441	0.029329421
114	0xbc58b0ae	-0.0132257175
115	0x3caee762	0.021350566
116	0x3c33715c	0.01095232
117	0xbbbb3d2a	-0.0057140784
118	0xbc4b2e4d	-0.012401176
119	0xbc2a85c7	-0.010407872
120	0xbca1a84b	-0.019733569
121	0x3c876a76	0.016530257
122	0x3cb30030	0.021850675
123	0xbcb43a4e	-0.022000458
124	0x3cea3a17	0.028592153
125	0x3d33e9b0	0.043924034
126	0xbb8923d6	-0.00418518
127	0xbcc2fea1	-0.023803057
128	0xbc8806f0	-0.01660487
129	0xbc56879e	-0.013093857
130	0xbc20246e	-0.0097743105
131	0xbc6d8963	-0.014498088
132	0x3ca37365	0.019952485
133	0x3c666cc9	0.014064022
134	0xbb5767e3	-0.0032868318
135	0x3c056231	0.008141086
136	0x3cc98aa3	0.02460224
137	0xbaff836a	-0.001949412
138	0x3acb7f9b	0.00155257
139	0x3c8d974b	0.017284056
140	0x3b5ed868	0.00340035
141	0xba1f4d38	-0.0006076875
142	0x3c1aaf69	0.009441235
143	0xbc620682	-0.013795497
144	0xbcd5cab0	-0.026097625
145	0xbcbbd458	-0.022928402
146	0xbcde62b5	-0.027146677
147	0xbc8cd414	-0.01719097
148	0xbca48701	-0.020083906
149	0xbcbf5b62	-0.023359004
150	0xbcf50b99	-0.029912757
151	0xbcbb9d2d	-0.022902096
152	0xbc80485b	-0.015659502
153	0xbacaf459	-0.0015484198
154	0x3d01d272	0.031694837
155	0xbc1dfa1c	-0.00964215
156	0xbc1c2095	-0.009529253
157	0xbb7e60e4	-0.0038815076
158	0xbc367faa	-0.011138836
159	0xbcb8b2c1	-0.022546174
160	0xbcc19ea0	-0.023635209
161	0xbcb20b81	-0.021734001
162	0xba81ad67	-0.0009893597
163	0xba81ad57	-0.0009893578
164	0xba81ac47	-0.0009893262
165	0xba81b353	-0.0009895362
166	0xba81b383	-0.0009895418
167	0xba81b38b	-0.0009895427
168	0xba81a740	-0.0009891763
169	0xba81a7c0	-0.0009891912
170	0xba81aa40	-0.0009892657
171	0xbc6c63f7	-0.01442813
172	0xbc6c6904	-0.014429335
173	0xbc6c690d	-0.014429343
174	0xbc6c6dfb	-0.014430518
175	0xbc6c6968	-0.014429428
176	0xbc6c639b	-0.014428045
177	0xbc6c6275	-0.014427771
178	0xbc6c6a0c	-0.01442958
179	0xbc6c68d3	-0.014429289
180	0x3d84915c	0.064730376
181	0x3d84335f	0.06455111
182	0x3d828ac7	0.06374126
183	0x3d868198	0.06567687
184	0x3d871fa2	0.0659783
185	0x3d84545e	0.06461404
186	0x3d88029a	0.06641121
187	0x3d878a82	0.06618215
188	0x3d85046d	0.06494985
189	0x3da4d510	0.08048451
190	0x3cafc991	0.021458419
191	0xbb19a167	-0.002344215
192	0xbd652c5a	-0.0559505
193	0xbd6d0099	-0.057861898
194	0x3dfea6b7	0.12434142
195	0x3dcbd13e	0.09952019
196	0x3d57fa6d	0.05272906
197	0x3ce6cd8e	0.028174188
198	0xbd3d1f43	-0.04617239
199	0xbd00e9b0	-0.03147286
200	0x3d9263c2	0.071479335
201	0x3cfce35d	0.030870134
202	0x3d88cbd1	0.066795
203	0xbc4eca39	-0.012621456
204	0x3b45333c	0.0030090353
205	0x3d7e5668	0.062094122
206	0x3bd15107	0.006387833
207	0xbb806dc1	-0.0039193337
208	0x3c6c7589	0.014432319
209	0xbb416109	-0.00295073
210	0x3c42413f	0.011856376
211	0x3c1629e1	0.009165258
212	0x3bb16fb3	0.005414927
213	0x3d247565	0.04015102
214	0x3d927d19	0.07152767
215	0x3d23156c	0.03981535
216	0xbcadbd3e	-0.021208402
217	0xbc0cccb9	-0.008593732
218	0xba2ffeb4	-0.0006713674
219	0x3d39cbc0	0.045360327
220	0x3c737e78	0.0148616955
221	0x3d76dc5b	0.06026874
222	0xbcaff4f6	-0.021479111
223	0x3d4e7f3e	0.050414316
224	0x3d754308	0.05987838
225	0x3ca36a1a	0.019948054
226	0x3c8b4803	0.017002111
227	0xbc4ac15b	-0.012375201
228	0x3ccce969	0.025013642
229	0x3dc856ed	0.09782205
230	0x3c0f04a6	0.008729136
231	0x3d1a272c	0.037635013
232	0x3d7b8bf2	0.06141276
233	0xbd6636cf	-0.056204613
234	0x3d3a89e9	0.045541678
235	0xbd94c1b4	-0.072635084
236	0x3dbf8caa	0.093530014
237	0x3d5d6a64	0.05405654
238	0xbcac3a75	-0.021023968
239	0x3d8ff529	0.070291825
240	0x3d92be33	0.07165184
241	0x3d1e9b0a	0.038722076
242	0x3aef271d	0.001824591
243	0x3a13dbe9	0.0005640374
244	0x3a139e59	0.00056312006
245	0x3a13dd19	0.0005640551
246	0x3a13af78	0.0005633752
247	0x3a13ad68	0.00056334445
248	0x3a13d219	0.0005638912
249	0x3a139e3a	0.00056311826
250	0x3a13a45a	0.0005632095
251	0x3a13b5ca	0.00056346937
252	0xbad56178	-0.0016279658
253	0xbad57f39	-0.0016288526
254	0xbad57ae7	-0.0016287238
255	0xbad57314	-0.0016284906

bias f4 [32]
0	0x3c6e5f39	0.01454907
1	0xb7b48f1b	-2.152431e-05
2	0xbb01ce6f	-0.0019806882
3	0x3b0b249f	0.0021231545
4	0x3c17af0a	0.009258041
5	0x3b995608	0.004679445
6	0xbd0a1f46	-0.03372123
7	0xbc1c7e14	-0.009551544
8	0x3d4ab8c0	0.049492598
9	0x3b171d87	0.002305837
10	0x3bd56552	0.0065123225
11	0xbcbd3fe6	-0.023101758
12	0x3a0c9cbd	0.0005363932
13	0xbb32bc17	-0.0027272755
14	0x39b1df23	0.0003392632
15	0xbcce5ea5	-0.025191614
16	0x3bdc1f1c	0.0067175757
17	0x3cb8777d	0.022517914
18	0xbcb9cc00	-0.022680283
19	0x3a579b94	0.0008224782
20	0x3c96fbfe	0.018430706
21	0xbcc613c3	-0.024179345
22	0xbb812b16	-0.003941904
23	0xb8d149a0	-9.97961e-05
24	0x3c999f21	0.018752636
25	0x3c3b1c97	0.011420391
26	0x3a6339d5	0.00086679804
27	0x3c89355e	0.01674908
28	0x3c965096	0.018348973
29	0x3b5fab71	0.0034129287
30	0x3cfb04d4	0.03064195
31	0x3c836bf8	0.016042694

weight f4 [32]
0	0x3dbbdb73	0.09172716
1	0x372f0c57	1.0433686e-05
2	0x3e99a297	0.3000686
3	0x3e541234	0.20710069
4	0x3e6211af	0.22077058
5	0x3ec8d713	0.3922659
6	0x3e85f2f1	0.26161912
7	0x3e634dc3	0.22197632
8	0x3e5a0023	0.21289115
9	0x3eca0542	0.39457136
10	0x3e0f47d5	0.13992245
11	0x3f0d31d2	0.55154145
12	0x3de9bd8b	0.114131056
13	0x3e0b1758	0.13583124
14	0x3d7f871a	0.062384702
15	0x3e3705d6	0.1787332
16	0x3e097e02	0.13426974
17	0x3e76e3ad	0.24110289
18	0x3e47347c	0.19453615
19	0xb6d5eef9	-6.3757147e-06
20	0x3e39b671	0.18136002
21	0x3e80783e	0.25091738
22	0x3e2719dc	0.16318458
23	0x3dcaa715	0.098951496
24	0x3eac84bd	0.3369502
25	0x3e32ddba	0.17467394
26	0x3da3bd3a	0.079950765
27	0x3d61a0ce	0.055084996
28	0x3da0384c	0.07823238
29	0x3d7ba199	0.06143341
30	0x3e83b6db	0.25725445
31	0x3e08642e	0.13319466

bias f4 [32]
0	0xbcabecca	-0.020986933
1	0xbcea7452	-0.028619919
2	0xbdf73704	-0.1207104
3	0xbdf189a1	-0.11793829
4	0x3bb34362	0.005470679
5	0x3c96bf6a	0.01840182
6	0x3c6edf0c	0.014579546
7	0x3c26abe1	0.010172815
8	0x3c8785aa	0.016543228
9	0xbe2823c8	-0.164199
10	0x3d7ca58a	0.061681308
11	0x3d54e878	0.051979512
12	0xbdcc7398	-0.09982985
13	0xbe250f8a	-0.16119209
14	0xbd868d41	-0.06569911
15	0x3ddd9154	0.10818735
16	0xbc9d5f49	-0.019210475
17	0x3c038123	0.008026394
18	0x3b3d8674	0.0028919252
19	0xbc77c51c	-0.015122678
20	0x3d406502	0.04697133
21	0x3bd8f96b	0.00662153
22	0xbe4af3f5	-0.19819625
23	0xbcac2f44	-0.021018632
24	0xbb1d4d81	-0.0024002495
25	0xbdce6d22	-0.10079409
26	0xbd870a7e	-0.06593798
27	0x3d125036	0.035721026
28	0x3d35a43f	0.04434609
29	0x3cbbb33f	0.02291262
30	0xbdb7ea0a	-0.08980186
31	0xbb1fa116	-0.002435749

running_mean f4 [32]
0	0xbdd31ef5	-0.10308639
1	0x3d4a7625	0.049429078
2	0x3ec53191	0.3851438
3	0xbd58cef1	-0.05293173
4	0x3d2724c2	0.04080654
5	0x3c38b9b7	0.011274747
6	0xbc2f02f8	-0.01068186
7	0x3c4180c3	0.011810484
8	0x3d314d10	0.043286383
9	0x3f1207d6	0.57043207
10	0xbcae172e	-0.021251287
11	0xbca2e338	-0.019883737
12	0x3eadae08	0.33921838
13	0x3ee0d068	0.43909
14	0x3e605828	0.21908629
15	0xbd917ffb	-0.071044885
16	0xbc79a153	-0.015236217
17	0x3da84177	0.082156114
18	0xbcd9eaab	-0.026601156
19	0x3a69e805	0.0008922818
20	0x3d3fb0a1	0.046799306
21	0xbc3e419b	-0.011612321
22	0x3eaae37f	0.3337669
23	0xbccf09e2	-0.025273267
24	0x3cb671fe	0.022271153
25	0xbd0f3f00	-0.03497219
26	0x3e71bc0a	0.23606887
27	0xbc604b26	-0.013689792
28	0x3c4507c5	0.012025778
29	0xbb8d8d68	-0.0043198355
30	0xbb83dc13	-0.0040240376
31	0x3d90efbf	0.07076978

running_var f4 [32]
0	0x3db8ceef	0.090238445
1	0x3db76cd7	0.089563064
2	0x3f678a39	0.90445286
3	0x3dac7f2a	0.08422692
4	0x3ef753bb	0.4830607
5	0x3f581b27	0.8441643
6	0x3f13ab56	0.5768331
7	0x3e24bd6e	0.16087887
8	0x3db90da0	0.09035802
9	0x3fd312e3	1.6490139
10	0x3dc6c272	0.09705056
11	0x3e430129	0.19043411
12	0x3e8b82a2	0.27248102
13	0x3e87ae8d	0.2650036
14	0x3e39ccf7	0.18144594
15	0x3d93c8dc	0.07216045
16	0x3e0204c6	0.12697133
17	0x3f072532	0.5279113
18	0x3dbf06fe	0.093275055
19	0x3d8f0c2a	0.06984742
20	0x3e0b14ba	0.13582125
21	0x3f2aa5cc	0.66659236
22	0x3dbc0a9f	0.09181713
23	0x3d8e7a1d	0.06956885
24	0x3dc69359	0.09696073
25	0x3d3e8ccc	0.046520993
26	0x3eabde41	0.33568004
27	0x3db3db57	0.0878207
28	0x3ebb6af5	0.3660504
29	0x3d915dcb	0.07097968
30	0x3db14784	0.08656219
31	0x3eada8e3	0.33917913

weight f4 [32, 35, 3, 3]
0	0x348c1623	2.609314e-07
1	0x348bbe49	2.6029218e-07
2	0x348b884f	2.5989945e-07
3	0x348c5cc3	2.6144525e-07
4	0x348c3a1a	2.6119307e-07
5	0x348b86b2	2.598877e-07
6	0x348bcd28	2.6040038e-07
7	0x348bdf40	2.6053203e-07
8	0x348cb08e	2.6205493e-07
9	0x33dd9c86	1.0319586e-07
10	0x33dd9d61	1.03197415e-07
11	0x33dd78c8	1.03130844e-07
12	0x33de0ebc	1.0340361e-07
13	0x33ddbe0d	1.03256845e-07
14	0x33ddcc09	1.0328228e-07
15	0x33dd9338	1.03178934e-07
16	0x33dea5b5	1.03678225e-07
17	0x33dd7a4e	1.03133615e-07
18	0x3753000f	1.2576594e-05
19	0x3765629f	1.3672426e-05
20	0x375bf1a6	1.310968e-05
21	0x376e0138	1.4186189e-05
22	0x37843035	1.5758074e-05
23	0x3777afcb	1.4763277e-05
24	0x3762ee0e	1.3526076e-05
25	0x37795fd6	1.486387e-05
26	0x3765ada2	1.3689891e-05
27	0x32940f5b	1.723645e-08
28	0x348320a7	2.442441e-07
29	0x3411b774	1.3570917e-07
30	0x33b04c43	8.2095106e-08
31	0x350ca210	5.2389896e-07
32	0x34beceab	3.5540629e-07
33	0x32e39f73	2.6498787e-08
34	0x3474adb1	2.278746e-07
35	0x34b116d5	3.2985432e-07
36	0xb2234bdc	-9.505097e-09
37	0x35dda8b7	1.6514886e-06
38	0x3590b33d	1.0781001e-06
39	0x32eff5ce	2.7935041e-08
40	0x36455a38	2.9407802e-06
41	0x3733fd78	1.0728247e-05
42	0x31a9c61c	4.9410698e-09
43	0x3511ef93	5.4365336e-07
44	0x3575be20	9.154628e-07
45	0x36a93670	5.04293e-06
46	0x3812526f	3.4885885e-05
47	0x37b6131c	2.170499e-05
48	0x374b5b18	1.2120952e-05
49	0x37d732d3	2.5653664e-05
50	0x3801137b	3.077414e-05
51	0x36bb8730	5.588772e-06
52	0x37115cf3	8.664315e-06
53	0x372fec1e	1.0485788e-05
54	0x3454992c	1.9799762e-07
55	0x34b0a47a	3.2902227e-07
56	0xb30cf271	-3.281679e-08
57	0x344bed87	1.899226e-07
58	0x34c4712e	3.6590194e-07
59	0xb4b0206b	-3.2806142e-07
60	0xb31cf9d1	-3.6548787e-08
61	0xb548f4e7	-7.4862186e-07
62	0xb5923ae3	-1.0894986e-06
63	0x34940ddc	2.7577232e-07
64	0x363f44c0	2.8501236e-06
65	0x36b07eea	5.2599835e-06
66	0x3503a24a	4.9037465e-07
67	0x370c77dd	8.372558e-06
68	0x370b59d1	8.305958e-06
69	0x33dd3f60	1.0302642e-07
70	0x353f2b5b	7.1216135e-07
71	0x362b790a	2.555144e-06
72	0x34661c89	2.14308e-07
73	0x371009a3	8.585313e-06
74	0x3516beda	5.615708e-07
75	0x3459e2b5	2.0292175e-07
76	0xb788c8a2	-1.630589e-05
77	0xb76c9e41	-1.41035425e-05
78	0x34422516	1.808115e-07
79	0xb71d2483	-9.36643e-06
80	0xb7463bd6	-1.1815651e-05
81	0x350da81d	5.277123e-07
82	0x37077a76	8.07514e-06
83	0x36b463e3	5.3760464e-06
84	0x34e3cff8	4.2433362e-07
85	0x376792c8	1.3802848e-05
86	0x385e7f7a	5.3047646e-05
87	0x34830828	2.4406586e-07
88	0x369e7c75	4.7232556e-06
89	0x374b9ea1	1.2136677e-05
90	0xb38ab1d2	-6.458471e-08
91	0x361cd62c	2.3370476e-06
92	0x3656c6b4	3.2004145e-06
93	0x33103134	3.3572363e-08
94	0x37b0be82	2.1069547e-05
95	0x384d976b	4.9016828e-05
96	0x32abb8e5	1.99911e-08
97	0x35905b16	1.0755346e-06
98	0x35a200ea	1.2070207e-06
99	0xb32af36f	-3.980261e-08
100	0x358c4628	1.0451231e-06
101	0x34d9222a	4.0444257e-07
102	0x339440fb	6.903607e-08
103	0x3695a055	4.459211e-06
104	0x363fbcce	2.8571117e-06
105	0x34f153ee	4.4950815e-07
106	0x34786ce3	2.3136413e-07
107	0x35939a3e	1.0997244e-06
108	0x36c71723	5.9333556e-06
109	0x386a4d79	5.58621e-05
110	0x3818a6a0	3.6394806e-05
111	0x37520c09	1.2519778e-05
112	0x38a8d991	8.051389e-05
113	0x38c17276	9.224277e-05
114	0x37399f0a	1.1063888e-05
115	0x37f497f1	2.915782e-05
116	0x38220153	3.8625043e-05
117	0x33bfc374	8.929683e-08
118	0x35e6e718	1.7203593e-06
119	0x3550c7a6	7.7776565e-07
120	0x32800a57	1.4905863e-08
121	0x35cf0812	1.5425051e-06
122	0x36b54d64	5.40323e-06
123	0x336ebfa5	5.5587993e-08
124	0x350051c0	4.780268e-07
125	0x35770297	9.201844e-07
126	0x35c0c334	1.4361926e-06
127	0x36a27ed6	4.842742e-06
128	0x371dcd14	9.405678e-06
129	0x364e0e85	3.0704844e-06
130	0x38905833	6.8828835e-05
131	0x38a4c61d	7.857031e-05
132	0xb607036f	-2.0118566e-06
133	0xb779113c	-1.4845569e-05
134	0x377a373a	1.491402e-05
135	0x354dedd6	7.671455e-07
136	0x35d1a6c6	1.5620251e-06
137	0x35407a4d	7.1703545e-07
138	0x34750ddd	2.2822447e-07
139	0x3587f110	1.0128442e-06
140	0x36089860	2.0354273e-06
141	0x33a1fa6f	7.5427e-08
142	0xb3f8c44e	-1.15841075e-07
143	0x348948e1	2.5571265e-07
144	0x3588729c	1.0166145e-06
145	0x3651e5fd	3.1277298e-06
146	0x3641ccfa	2.8878553e-06
147	0x35179a2a	5.647622e-07
148	0x36184cf2	2.2694553e-06
149	0x3632107a	2.6533658e-06
150	0x340492dc	1.2346885e-07
151	0x3593cffc	1.1012885e-06
152	0x34b40624	3.353208e-07
153	0x34819ee2	2.4143725e-07
154	0x359455dc	1.1051848e-06
155	0x3528259d	6.263961e-07
156	0x33377386	4.2713076e-08
157	0x35403bd7	7.161265e-07
158	0x3581fed6	9.685416e-07
159	0x329105bc	1.688283e-08
160	0xb260bdbb	-1.3081656e-08
161	0xb3d83a24	-1.00688595e-07
162	0x3327e883	3.9094186e-08
163	0x35487086	7.466955e-07
164	0xb52312b8	-6.074947e-07
165	0x34aec5a0	3.2553817e-07
166	0x3589f601	1.0278892e-06
167	0x32902c1d	1.6783867e-08
168	0x33fba6cd	1.1718439e-07
169	0x35ba2bb5	1.38708e-06
170	0x3546011f	7.376238e-07
171	0x34a5b1e5	3.086308e-07
172	0x35d243b8	1.5665928e-06
173	0x356676eb	8.5854725e-07
174	0x3395f16c	6.9822676e-08
175	0x34330fe9	1.6676462e-07
176	0x3642c262	2.9021398e-06
177	0x325430ec	1.2351148e-08
178	0xb43639a2	-1.6971038e-07
179	0x34f736e8	4.6047285e-07
180	0x35378bb5	6.8376113e-07
181	0x36a6b2b7	4.9679907e-06
182	0x36a6dca6	4.9728724e-06
183	0x34b4a01b	3.3644105e-07
184	0x3683f17b	3.9322163e-06
185	0x37f3f84a	2.9083476e-05
186	0x344404af	1.8255626e-07
187	0x336b4268	5.4775597e-08
188	0x35e49891	1.7031726e-06
189	0x35372f94	6.824205e-07
190	0x36138a0f	2.1985068e-06
191	0xb4453bb1	-1.836877e-07
192	0xb229987a	-9.871764e-09
193	0x359c95ec	1.1666539e-06
194	0x37634396	1.354599e-05
195	0x330e9ea4	3.3206234e-08
196	0x356a8216	8.7361093e-07
197	0x36a60621	4.947899e-06
198	0x3367196e	5.3807007e-08
199	0x35923c98	1.0895483e-06
200	0x36cd6f36	6.1224227e-06
201	0x34391c50	1.7239768e-07
202	0x358ca3c5	1.0478476e-06
203	0x36fdef3a	7.567837e-06
204	0x32f17d9c	2.8113213e-08
205	0x358b8ed8	1.039788e-06
206	0x34f33726	4.5302403e-07
207	0x34540dda	1.9749078e-07
208	0x368fa2a5	4.2806664e-06
209	0x355e780e	8.287615e-07
210	0x3522a7c8	6.0593857e-07
211	0xb52ccb52	-6.4370863e-07
212	0x368bc52f	4.165478e-06
213	0x34df7ca6	4.162768e-07
214	0x35d35549	1.5745546e-06
215	0x35f1bc77	1.801075e-06
216	0x33da5d2d	1.01683646e-07
217	0x36164e75	2.239741e-06
218	0x36480faa	2.981144e-06
219	0x350d6790	5.2677296e-07
220	0x368e772b	4.2458028e-06
221	0x379a84ef	1.8420133e-05
222	0x3371a1db	5.6259392e-08
223	0x35182845	5.668301e-07
224	0x3607b2dc	2.0220677e-06
225	0xb25f262d	-1.29889886e-08
226	0x354bb9f3	7.5893985e-07
227	0x361b98c1	2.3185714e-06
228	0x3227dbd2	9.770661e-09
229	0x3564c523	8.522349e-07
230	0x371d8691	9.38926e-06
231	0x313780ab	2.6703144e-09
232	0x33fe7885	1.1849719e-07
233	0x3557c7de	8.0384586e-07
234	0x3582ca68	9.744663e-07
235	0x369e139c	4.7110498e-06
236	0x351d6aeb	5.8642644e-07
237	0x326ae18f	1.3671879e-08
238	0x35255eee	6.160543e-07
239	0x366028f8	3.3402448e-06
240	0x31f40e47	7.1029578e-09
241	0x34f0bd61	4.4841275e-07
242	0x356a489c	8.7277454e-07
243	0xb59c28b7	-1.1634755e-06
244	0x366e4802	3.5506678e-06
245	0x358394bf	9.803551e-07
246	0x3509b376	5.1297627e-07
247	0x37fc022a	3.0041749e-05
248	0x35d2ebf0	1.5714886e-06
249	0x358dc0d3	1.0561438e-06
250	0x37f3c875	2.9061202e-05
251	0x34998ba3	2.860007e-07
252	0x3257b055	1.255474e-08
253	0x351f0494	5.923878e-07
254	0x34c7a551	3.7186922e-07
255	0x32bd59a4	2.204326e-08

bias f4 [32]
0	0x1d50a75f	2.76151e-21
1	0x3d5e243b	0.05423377
2	0x3ccec0f1	0.025238486
3	0x3c220a2f	0.009890123
4	0x3d781a55	0.060571987
5	0xbccb9318	-0.024850413
6	0xbbabd0e7	-0.005243409
7	0x30a16efc	1.1745835e-09
8	0x3c93586d	0.0179865
9	0x3b39970a	0.0028318786
10	0x3a04e30b	0.00050692324
11	0xb7cbb9f5	-2.4286079e-05
12	0xb809fbb1	-3.289775e-05
13	0x3ca75d03	0.020430094
14	0x3bbd5a4a	0.0057785856
15	0x2f2d5966	1.5766019e-10
16	0x3bc5812f	0.006027363
17	0x3c919bd5	0.017774502
18	0x3c833f01	0.016021254
19	0x3b18dc7f	0.0023324785
20	0xaab0689e	-3.1336473e-13
21	0xb578ae30	-9.2640676e-07
22	0xbd23aa35	-0.039957244
23	0x386b905e	5.616282e-05
24	0xb7b1aa02	-2.117921e-05
25	0xb6d6b69f	-6.398957e-06
26	0xb81e20c7	-3.770066e-05
27	0xbe05e9cc	-0.13077468
28	0x38305796	4.204324e-05
29	0x375f3b50	1.3305646e-05
30	0x3c3f2203	0.011665824
31	0xb9cf4825	-0.0003953587

weight f4 [32]
0	0xba0f9718	-0.0005477532
1	0x3e4b8ff3	0.19879131
2	0x3df93eb2	0.12170161
3	0x3dc950a7	0.09829836
4	0x3eabe65c	0.33574188
5	0x3eb25511	0.34830526
6	0x3dd8b018	0.10580462
7	0x3ad87c5b	0.0016516553
8	0x3e4b6fa2	0.19866803
9	0x3eddfec0	0.4335842
10	0x3d806d4f	0.06270849
11	0x3bd21822	0.0064115683
12	0xba9e146e	-0.0012060532
13	0x3ea05065	0.31311336
14	0x3da9a714	0.08283821
15	0xb7c89730	-2.391226e-05
16	0x3e3807f5	0.17971785
17	0x3e7089cb	0.23490064
18	0x3e142523	0.14467292
19	0x3e4cdc53	0.20005922
20	0x3c034204	0.008011345
21	0xbc0c7232	-0.008572148
22	0x3e71c1d1	0.23609091
23	0xb86b7ead	-5.6146342e-05
24	0xb9eb0410	-0.0004482572
25	0x39a7848b	0.00031951474
26	0x393cba23	0.00017998418
27	0x3e7b7f64	0.24560314
28	0xb89cfab4	-7.485357e-05
29	0x3aa885df	0.001285728
30	0x3e3bb569	0.18330921
31	0xb9c7f7fe	-0.00038141006

bias f4 [32]
0	0xbb8a47b0	-0.0042199716
1	0x3dcc28f1	0.099687465
2	0xbd3c25c6	-0.04593446
3	0xbce704bd	-0.028200502
4	0x3d94aaeb	0.072591625
5	0x3dddd448	0.10831505
6	0xbcd8930d	-0.026437307
7	0xbc0c961f	-0.0085807135
8	0xbde1c916	-0.11024682
9	0x3dfd366d	0.123638965
10	0xbd83503a	-0.064117864
11	0xbc5b1540	-0.013371766
12	0xbc936638	-0.017993078
13	0x3dcdd29f	0.100499384
14	0xbc950a28	-0.01819332
15	0xbc0295af	-0.007970258
16	0xbdb3c3ab	-0.08777555
17	0xbd424da3	-0.04743732
18	0x3dddb9e4	0.108264714
19	0xbdb4b7f8	-0.08824152
20	0xbc08262d	-0.008309883
21	0xbcc0e38b	-0.023546001
22	0xbd478d6e	-0.048718862
23	0xbb8efe14	-0.0043637846
24	0xbc872520	-0.016497195
25	0xbc846c0d	-0.016164804
26	0xbd0b0059	-0.03393588
27	0x3c7b98d9	0.015356266
28	0xbcbf7d22	-0.023375098
29	0xbbc482f1	-0.0059970547
30	0xbd4d4093	-0.05011041
31	0xbc8e42e1	-0.017365875

running_mean f4 [32]
0	0x38e78578	0.00011039799
1	0x3c9579a3	0.018246477
2	0xbcea1838	-0.028576002
3	0xbd04fe2a	-0.032468952
4	0x3d9dda64	0.0770767
5	0x3cc4d9e2	0.024029676
6	0xbd869407	-0.06571203
7	0xbaa951ef	-0.0012918095
8	0xbd2732f3	-0.040820073
9	0x3d58c325	0.05292048
10	0x3e4f5bbb	0.20249836
11	0xbcc546ac	-0.02408155
12	0x3d84a51c	0.064768046
13	0xba8aeca3	-0.0010599088
14	0xbd3f80e5	-0.046753783
15	0x3ab2761a	0.0013615519
16	0xbc83e439	-0.016100036
17	0xbdf30990	-0.11867058
18	0x3cb06e3c	0.021536939
19	0xbd387ac4	-0.045038953
20	0x382c31ef	4.10545e-05
21	0xbc615c08	-0.013754852
22	0xbe448de3	-0.1919475
23	0x3d461879	0.048363183
24	0x3d12271c	0.03568183
25	0x3b1fb21c	0.0024367636
26	0x3d9fb40c	0.07798013
27	0xbe556fa9	-0.20843376
28	0x3cfba26f	0.030717103
29	0xbc12dc02	-0.008963587
30	0xbddf219e	-0.10895084
31	0xbbd682e3	-0.0065463646

running_var f4 [32]
0	0x33ef4e2c	1.1143524e-07
1	0x3c4f4996	0.012651822
2	0x3cb2aabe	0.021809932
3	0x3c6d5ae7	0.014487005
4	0x3cab4c98	0.020910546
5	0x3c764dc5	0.01503319
6	0x3ceda68e	0.029010084
7	0x3a968202	0.0011482837
8	0x3cd02cdd	0.025412017
9	0x3cae6a20	0.021290839
10	0x3d3d56fa	0.046225525
11	0x3c281ed0	0.0102612525
12	0x3c96a5c7	0.018389596
13	0x3c74720b	0.014919768
14	0x3c639d79	0.013892525
15	0x384540cb	4.7028803e-05
16	0x3c343abc	0.0110003315
17	0x3ccf33ca	0.02529325
18	0x3cf1efa6	0.029533219
19	0x3ca4954d	0.020090723
20	0x3683e6da	3.930979e-06
21	0x3d051a86	0.032495998
22	0x3ceffb96	0.02929477
23	0x3b0f3457	0.0021851265
24	0x3c33368c	0.010938298
25	0x3b90fd32	0.0044247145
26	0x3d182cc1	0.037152056
27	0x3d1b480c	0.037910506
28	0x3c6dfb6f	0.0145252785
29	0x3bf972b9	0.007612553
30	0x3d9dc760	0.077040434
31	0x3d11cf1e	0.035597913

weight f4 [64, 35, 3, 3]
0	0x29907598	6.415284e-14
1	0x299a357b	6.848251e-14
2	0x2996db2b	6.699358e-14
3	0x29911583	6.443025e-14
4	0x299291fd	6.5090274e-14
5	0x2994532c	6.586948e-14
6	0x2990e03d	6.433784e-14
7	0x299edda7	7.05506e-14
8	0x29902252	6.400838e-14
9	0x25c3b169	3.3947326e-16
10	0x25b17c9e	3.078905e-16
11	0x25a5e1c7	2.877593e-16
12	0x25a03d7c	2.779724e-16
13	0x25c47ed0	3.4086512e-16
14	0x25a100c5	2.792957e-16
15	0x25b583bc	3.1487762e-16
16	0x25a0e627	2.7911533e-16
17	0x25a2103b	2.8113519e-16
18	0x25476f8d	1.7298293e-16
19	0x240273c9	2.828733e-17
20	0xa3b0781b	-1.9132825e-17
21	0xa7ed7e79	-6.5917836e-15
22	0xa80fd483	-7.984176e-15
23	0xa6fff9e1	-1.7761909e-15
24	0xa9c47967	-8.7252085e-14
25	0xa996ed7a	-6.702534e-14
26	0xa823b00a	-9.08649e-15
27	0xa65b5507	-7.609612e-16
28	0x27f54971	6.8080786e-15
29	0xaacc76e3	-3.6320174e-13
30	0xaa94e1f1	-2.644686e-13
31	0x1f7b501a	5.3217576e-20
32	0xa8464726	-1.1006636e-14
33	0xae0de3b9	-3.2261947e-11
34	0xa9dbc384	-9.75947e-14
35	0xaf4ccfd0	-1.8627522e-10
36	0x2150b95d	7.071847e-19
37	0x9d1f4dc5	-2.108368e-21
38	0x21404db9	6.5154995e-19
39	0xac17e099	-2.1583067e-12
40	0xaa9afd3e	-2.7531617e-13
41	0xab852553	-9.460578e-13
42	0xad20bc51	-9.136762e-12
43	0xae57f0f1	-4.909934e-11
44	0xae83f0dd	-5.999976e-11
45	0xab8722b8	-9.601963e-13
46	0xa6c44450	-1.3618748e-15
47	0xab9e18ac	-1.1233423e-12
48	0xae3f1a75	-4.345187e-11
49	0xac0f0b0e	-2.0327659e-12
50	0x2e5d74f0	5.0353444e-11
51	0x2f2d2a05	1.5749187e-10
52	0xaef5e2fb	-1.118163e-10
53	0x2fef8d1b	4.3574108e-10
54	0x28feed90	2.8302691e-14
55	0x2a12f9a5	1.3054018e-13
56	0xaeca2620	-9.192669e-11
57	0xa723db91	-2.2739821e-15
58	0x232a19c5	9.221175e-18
59	0xacb66e4a	-5.1849957e-12
60	0xaec8f972	-9.1392574e-11
61	0xad320e79	-1.0121342e-11
62	0xad3d6c8f	-1.0767511e-11
63	0xae7656a5	-5.601088e-11
64	0xae4ddeb9	-4.680942e-11
65	0xafd68a13	-3.902448e-10
66	0xae857048	-6.068085e-11
67	0xad04a859	-7.540712e-12
68	0xad0903a0	-7.788353e-12
69	0xb14ab5c0	-2.9498182e-09
70	0xb193a408	-4.2969113e-09
71	0xb047a383	-7.262814e-10
72	0xaf2db0ba	-1.5797044e-10
73	0xb001e423	-4.725413e-10
74	0xb05b0e4d	-7.969206e-10
75	0xb00931fd	-4.991135e-10
76	0xb0141bee	-5.3881777e-10
77	0xafac252a	-3.1313024e-10
78	0x31b8071b	5.3559126e-09
79	0x31345904	2.6244047e-09
80	0x313c3844	2.7389584e-09
81	0xa8980f0c	-1.6881916e-14
82	0xa85a3743	-1.2113414e-14
83	0xad9b1071	-1.7628761e-11
84	0xae379f8e	-4.1751096e-11
85	0xaacceb72	-3.6401053e-13
86	0xaeab57b6	-7.79176e-11
87	0x2fa3a31a	2.9765418e-10
88	0xafadad50	-3.1591663e-10
89	0xb16b1db8	-3.4213894e-09
90	0xa74a732e	-2.809557e-15
91	0xa81c4125	-8.6738656e-15
92	0xab11d9bd	-5.181652e-13
93	0xab2304d4	-5.7915933e-13
94	0xa7fe9add	-7.0667065e-15
95	0xab86643e	-9.549095e-13
96	0xaebf8e73	-8.7109785e-11
97	0xae58691b	-4.9206066e-11
98	0x30b68d71	1.3282443e-09
99	0x23dba81e	2.3815228e-17
100	0xad2c46dd	-9.792803e-12
101	0xadcb51d9	-2.3114776e-11
102	0xab8ab458	-9.855545e-13
103	0xadb0d587	-2.0103709e-11
104	0xae1b0462	-3.5246812e-11
105	0xad6d756b	-1.3497962e-11
106	0x2e75fc45	5.593061e-11
107	0xb105dd92	-1.9479995e-09
108	0xb2855ee4	-1.5526389e-08
109	0xb327fac6	-3.9110795e-08
110	0xb359dced	-5.072518e-08
111	0xb3d7a845	-1.0042326e-07
112	0xb3ec7c18	-1.1012179e-07
113	0xb40c0380	-1.303979e-07
114	0xb47e050a	-2.3657427e-07
115	0xb4885814	-2.539606e-07
116	0xb4460e9d	-1.8445503e-07
117	0xa7d6d7e8	-5.9631018e-15
118	0x2b0e7377	5.0608774e-13
119	0xb015e179	-5.45263e-10
120	0xabfe00b0	-1.8047976e-12
121	0xa9dced06	-9.8110796e-14
122	0xad4bc309	-1.15825205e-11
123	0xaf1fe5fa	-1.454267e-10
124	0xac0ac990	-1.972287e-12
125	0xaeb0ea3e	-8.045163e-11
126	0x9eb69d92	-1.9335169e-20
127	0x9ed9afeb	-2.3048527e-20
128	0x9d7e93f8	-3.3693118e-21
129	0x9def6791	-6.336986e-21
130	0x1e632959	1.20258304e-20
131	0x1e070ff4	7.1501395e-21
132	0x9c9eefbd	-1.0517534e-21
133	0x9d7ec9e3	-3.3720993e-21
134	0x9e07dafe	-7.192127e-21
135	0xa724efa0	-2.2889473e-15
136	0x24d0d607	9.05682e-17
137	0xac6d5cb6	-3.373119e-12
138	0xaa98f698	-2.7171733e-13
139	0xa5b83718	-3.1956245e-16
140	0xa9ef7a51	-1.06349506e-13
141	0xafb8a83c	-3.3588943e-10
142	0xad72371d	-1.3768345e-11
143	0xb04b8ed9	-7.405397e-10
144	0x240e01af	3.0792768e-17
145	0xa2b924a5	-5.018315e-18
146	0xa6921fd4	-1.0139412e-15
147	0xa6372830	-6.3545343e-16
148	0xa73846fe	-2.5573615e-15
149	0xa6450642	-6.8356586e-16
150	0xac0d4646	-2.0076315e-12
151	0xae1e3ccf	-3.597905e-11
152	0xac8df5ca	-4.034749e-12
153	0xa874585a	-1.3563879e-14
154	0xa5bc1c96	-3.2632172e-16
155	0xae6676a7	-5.240133e-11
156	0xab4a1002	-7.178703e-13
157	0x245f89b1	4.8472046e-17
158	0xa96b17ae	-5.220102e-14
159	0xb0fe11b8	-1.8485968e-09
160	0xae661db9	-5.2322344e-11
161	0xb1296c95	-2.4654458e-09
162	0x9f155e6e	-3.1630088e-20
163	0xa0026e49	-1.1047919e-19
164	0x2307bd04	7.35839e-18
165	0x9fcaac61	-8.5835505e-20
166	0xa764a250	-3.1729346e-15
167	0xa950ab8c	-4.633407e-14
168	0x259968c7	2.661227e-16
169	0xad799cf9	-1.4188866e-11
170	0xaeaaaeca	-7.761754e-11
171	0x241f9292	3.460178e-17
172	0xabcd1388	-1.4571547e-12
173	0xae140bbc	-3.3661726e-11
174	0xaaa5f244	-2.9477993e-13
175	0xac5e3778	-3.1578889e-12
176	0xaec2d2d5	-8.85955e-11
177	0xaf69c800	-2.1262281e-10
178	0xb0087536	-4.964308e-10
179	0xb2b0e025	-2.0591026e-08
180	0x284f675b	1.151322e-14
181	0x2af6bfdb	4.3831505e-13
182	0x2f418415	1.7600173e-10
183	0xab845383	-9.402343e-13
184	0xab4afaee	-7.211305e-13
185	0x2c6c1de0	3.3554201e-12
186	0xb0a2648e	-1.1815631e-09
187	0xb0204a29	-5.831305e-10
188	0x2dc34f8d	2.2204261e-11
189	0xa86c439f	-1.3115295e-14
190	0xa607868a	-4.701987e-16
191	0xab9f434f	-1.1316311e-12
192	0xa992c8cc	-6.518535e-14
193	0xa6f63838	-1.7084917e-15
194	0xa81eca3b	-8.814614e-15
195	0xaed79798	-9.8039965e-11
196	0xaf027a2e	-1.1866838e-10
197	0xaebb625c	-8.5212476e-11
198	0xab48531e	-7.116962e-13
199	0xa7cf1ebd	-5.748737e-15
200	0xb1015ce1	-1.8824766e-09
201	0xa83e1fe6	-1.0554036e-14
202	0xa92ec3ca	-3.880558e-14
203	0xa915f5f6	-3.3297983e-14
204	0xae5fdc67	-5.0900086e-11
205	0xb128f1e4	-2.4584716e-09
206	0xae88ce7e	-6.2212444e-11
207	0x233d89dd	1.0274904e-17
208	0x291ba167	3.4556908e-14
209	0xac8889c4	-3.8806475e-12
210	0xa66a01dd	-8.1187584e-16
211	0x204e5be7	1.7479287e-19
212	0xa9b5062d	-8.039086e-14
213	0xadfd8460	-2.8821556e-11
214	0xabac38f9	-1.2237148e-12
215	0xaf8419fd	-2.4029126e-10
216	0x224a260c	2.7396247e-18
217	0xa675663c	-8.5140004e-16
218	0xad52acaf	-1.1975461e-11
219	0xa867bb9f	-1.286376e-14
220	0x220e1c0b	1.9259434e-18
221	0xa8f6e72c	-2.7411741e-14
222	0xae0add2d	-3.157401e-11
223	0xaba38c96	-1.1620867e-12
224	0xaef8d689	-1.13158434e-10
225	0xa6cfbdf7	-1.4415e-15
226	0x28d73cf2	2.3896226e-14
227	0xab75e854	-8.7363905e-13
228	0xae0025a8	-2.9137276e-11
229	0xa93d4b1a	-4.203157e-14
230	0x2cc0570e	5.4666332e-12
231	0x316ffc6e	3.4922567e-09
232	0xb013e58b	-5.380449e-10
233	0x30e7131d	1.6812894e-09
234	0x216cd018	8.023532e-19
235	0x1e1c4b6a	8.2741665e-21
236	0x23653042	1.2424334e-17
237	0xa7d2171a	-5.8311756e-15
238	0xa718b69f	-2.1193237e-15
239	0xab08d84e	-4.861709e-13
240	0xaa9bb933	-2.766204e-13
241	0xaae363ad	-4.0392464e-13
242	0xabe8b5f9	-1.6535099e-12
243	0xa84233a2	-1.0780359e-14
244	0xa37e22b4	-1.3776716e-17
245	0xac29b465	-2.4116484e-12
246	0x9e0fc6d1	-7.611471e-21
247	0xa103c954	-4.465098e-19
248	0xa1600186	-7.589617e-19
249	0x2342ddda	1.056374e-17
250	0xa75c30c8	-3.0557578e-15
251	0xadc6f232	-2.261755e-11
252	0xa23cb25b	-2.5573172e-18
253	0x28dd58c8	2.4574432e-14
254	0x2ce04b06	6.374792e-12
255	0x2adb9cdb	3.9011055e-13

bias f4 [64]
0	0x99217b46	-8.3484e-24
1	0x982c2769	-2.2250376e-24
2	0x36bdb959	5.6542162e-06
3	0x9a4f22bd	-4.2834658e-23
4	0x2035d8c3	1.5403017e-19
5	0x3d1cee74	0.038313344
6	0xb9c9b6ba	-0.0003847385
7	0xbc5fb1a9	-0.013653197
8	0xa6ac8337	-1.1970463e-15
9	0x389dffb4	7.533972e-05
10	0x3cd5f58c	0.026118062
11	0x37b76917	2.1864236e-05
12	0x3cf77e07	0.030211462
13	0x13e7157e	5.833379e-27
14	0xb6c93541	-5.9964664e-06
15	0x9fbb750b	-7.939121e-20
16	0xbd1f06ad	-0.038824726
17	0x2c92f7e0	4.1770892e-12
18	0xb67b9a03	-3.7491561e-06
19	0x3b8197a5	0.003954845
20	0x365e7ef3	3.3154472e-06
21	0xb7926903	-1.7453456e-05
22	0xb5edd624	-1.7720199e-06
23	0xa6088ad6	-4.7372636e-16
24	0x3d54c88f	0.05194908
25	0xb94ecba7	-0.00019721557
26	0x9b44dcc5	-1.6284074e-22
27	0xbc9dd8de	-0.01926845
28	0x97a18765	-1.043856e-24
29	0xb7fb3683	-2.9946916e-05
30	0xbc11d249	-0.008900234
31	0x39d2598b	0.00040121036
32	0xa4d34213	-9.16186e-17
33	0xb849265b	-4.7957856e-05
34	0x1a3d141d	3.910053e-23
35	0xb4b120a5	-3.299257e-07
36	0xbcbe4a61	-0.023228826
37	0x1b453adb	1.6314475e-22
38	0x3778cbba	1.4829386e-05
39	0xb924c639	-0.00015714102
40	0x3cb3ed3b	0.021963706
41	0xbbe77ce5	-0.007064449
42	0x3c39f876	0.011350742
43	0xb6137db4	-2.1977876e-06
44	0xb46a4527	-2.1818106e-07
45	0x14a215f4	1.6366479e-26
46	0x3ce9a54e	0.028521206
47	0x35a1cc39	1.2054871e-06
48	0x3825e209	3.9549577e-05
49	0x9a65981e	-4.747897e-23
50	0x9a08a11a	-2.8254278e-23
51	0xb0f73f06	-1.7989528e-09
52	0x3a20816c	0.0006122801
53	0xbadd4309	-0.001688094
54	0x2d37b2f9	1.04420856e-11
55	0x16352a1f	1.4634355e-25
56	0xb658a40c	-3.2281996e-06
57	0xb8f84138	-0.000118377095
58	0xbcfcec46	-0.030874383
59	0x3b831c2c	0.004001161
60	0x28a26727	1.8030348e-14
61	0x3c898e11	0.016791375
62	0x37998b49	1.8303881e-05
63	0x36d71535	6.409968e-06

weight f4 [64]
0	0x3a6f2ac5	0.00091234996
1	0x39b4bdc5	0.00034473665
2	0x3a7938a0	0.0009507034
3	0x39bf34c0	0.0003646966
4	0x3a0f1953	0.00054587907
5	0x3de24263	0.110478185
6	0x3d7ae307	0.061251666
7	0x3e0e4442	0.13893226
8	0x3a699af1	0.00089113327
9	0x3b80bb37	0.0039285677
10	0x3e101396	0.14069971
11	0x3ad5a758	0.0016300483
12	0x3e620b53	0.22074632
13	0x3a065d9f	0.0005125645
14	0x3942fc93	0.00018595373
15	0x3917ea7e	0.00014487837
16	0x3e6266f8	0.22109592
17	0x39e6d6c8	0.00044029043
18	0x3a0b6cda	0.00053186493
19	0x3d8d45e2	0.06898095
20	0xb9b8610a	-0.00035167515
21	0x3c14d96d	0.0090850415
22	0x3a6ad649	0.00089583226
23	0x3a563258	0.0008170954
24	0x3e4de5e0	0.20107222
25	0xb9e7a715	-0.0004418424
26	0x39e987ad	0.0004454231
27	0x3e1327e5	0.14370687
28	0x3a09f5b1	0.0005262746
29	0x3b07effd	0.002074241
30	0x3dedf2de	0.11618589
31	0x3cf35795	0.029704848
32	0x3a9ee36e	0.0012122223
33	0x3a9bfd94	0.0011901134
34	0x39a642a9	0.00031711653
35	0x3a1a3b90	0.00058835093
36	0x3e30215b	0.17200224
37	0x3a6ab93d	0.0008953994
38	0xbaf11eca	-0.0018396017
39	0x39aa565b	0.00032489267
40	0x3e4164d0	0.18886113
41	0x3e40b7d0	0.18820119
42	0x3dd4eade	0.1039636
43	0x3a93812f	0.001125371
44	0x3a143ab9	0.00056545023
45	0x3a0376a3	0.00050149317
46	0x3e312c0e	0.17301962
47	0x394ec0d2	0.00019717522
48	0x3aa469d0	0.0012543742
49	0x3a763c82	0.00093931716
50	0x399f83b8	0.0003042498
51	0x39dd5ead	0.00042222944
52	0x3e0bc2fb	0.13648598
53	0x3e85e694	0.2615248
54	0x3a14d7ea	0.00056779257
55	0x39d4932c	0.00040545443
56	0x3bc38b9f	0.005967572
57	0x3dd38bdf	0.10329413
58	0x3e91f662	0.28508288
59	0x3e917633	0.2841049
60	0x3a630727	0.00086604286
61	0x3d780be3	0.06055821
62	0xba121095	-0.0005571929
63	0xb78c5e6b	-1.6733267e-05

bias f4 [64]
0	0xb6d69e32	-6.3961133e-06
1	0xb77fee78	-1.5254707e-05
2	0xbc92172e	-0.017833319
3	0xb69da479	-4.6981118e-06
4	0xb81b2456	-3.698872e-05
5	0xb96d6768	-0.00022640603
6	0xbd6c2a24	-0.057657376
7	0x3d024323	0.031802308
8	0xb998da0e	-0.00029154163
9	0xbc50874e	-0.012727572
10	0xbd0e0f1c	-0.03468238
11	0xbc095780	-0.008382678
12	0x39cf8bf0	0.00039586378
13	0xb34b0a36	-4.7273907e-08
14	0xbb9fe9e5	-0.0048801773
15	0xb7959604	-1.783204e-05
16	0x3e464db2	0.19365576
17	0xb9da8123	-0.00041676415
18	0xbbff0d00	-0.007783532
19	0xbcf0faf6	-0.029416543
20	0xbb576ba1	-0.0032870548
21	0xbcfd4bc1	-0.030919911
22	0xbbe0fcbc	-0.006866066
23	0xb94cfe38	-0.0001954966
24	0x3c4c4308	0.012467153
25	0xbbb18814	-0.005417833
26	0xb78bb659	-1.6655003e-05
27	0xbc099c08	-0.008399017
28	0xb600e76a	-1.9208187e-06
29	0xbbb36b6e	-0.005475453
30	0xbcc8df29	-0.024520474
31	0xbd854d06	-0.06508832
32	0xba10eff6	-0.0005528921
33	0xbc7b205b	-0.015327538
34	0xb5d081f6	-1.5535031e-06
35	0xbbb7ea64	-0.0056126583
36	0x3de90520	0.11377931
37	0xb86a1d8f	-5.5817476e-05
38	0xbb9d956a	-0.0048090713
39	0xbd1e1435	-0.03859349
40	0xbd13b76b	-0.036063593
41	0x3d86af61	0.065764196
42	0xbdeffa28	-0.117176354
43	0xbc660bba	-0.014040882
44	0xb8cb47cb	-9.693167e-05
45	0xb6d7e7a9	-6.434468e-06
46	0xbd930e49	-0.07180459
47	0xbbbe9ac8	-0.005816791
48	0xbbd504f8	-0.0065008365
49	0xb86d9fd9	-5.6654073e-05
50	0xb55b49d7	-8.169131e-07
51	0xbbe33ca8	-0.006934721
52	0xbd87041d	-0.065925814
53	0x3d282a8b	0.041056197
54	0xb99c8cdd	-0.0002985959
55	0xb5b4b128	-1.3462604e-06
56	0xbc89e1a5	-0.016831229
57	0xbd2688bb	-0.04065774
58	0x3e3de89f	0.18545769
59	0x3cb41015	0.021980325
60	0xb96d4156	-0.00022626421
61	0xbd0e16d8	-0.034689754
62	0xbbb0af84	-0.005392017
63	0xbb154b28	-0.0022780392

running_mean f4 [64]
0	0xb41a515b	-1.4371965e-07
1	0x34f1dc70	4.5050137e-07
2	0x3d16bd2f	0.036801513
3	0xb55c675d	-8.21068e-07
4	0xb681fe6f	-3.8741196e-06
5	0x3e06467a	0.13112822
6	0x3dfe6c11	0.12422956
7	0xbe38c323	-0.18043189
8	0xb8ca450d	-9.644972e-05
9	0xbc32605e	-0.010887234
10	0x3e23b37e	0.1598644
11	0xbb458791	-0.0030140618
12	0xbdacdd87	-0.084406905
13	0xb215ee56	-8.727133e-09
14	0x3c98d023	0.018653935
15	0x34815985	2.4093256e-07
16	0x3cc4b3b4	0.02401147
17	0xb91d35e5	-0.00014992764
18	0x3c447728	0.0119913
19	0x3d8b3968	0.06798059
20	0x3c3370b5	0.010952164
21	0x3d9169aa	0.07100232
22	0xbc887d8a	-0.016661424
23	0xb562c31d	-8.447549e-07
24	0xbdf51985	-0.11967758
25	0x3cc47d18	0.02398543
26	0xb298800a	-1.7753354e-08
27	0x3bc34dc1	0.0059601967
28	0xb239cf27	-1.0815518e-08
29	0x3c314ab2	0.010821031
30	0x3caa832f	0.020814506
31	0x3e3a127c	0.18171114
32	0xb7abdc99	-2.0487512e-05
33	0xbcaf86fd	-0.021426672
34	0xb48ed6e6	-2.660592e-07
35	0xbc2d780c	-0.010587703
36	0xbb757295	-0.003745233
37	0xb57872b3	-9.255411e-07
38	0x3d6ae973	0.05735154
39	0x3dbef2fb	0.093236886
40	0xbe3cac2c	-0.18425053
41	0x3c8e8000	0.01739502
42	0x3e8a478c	0.2700771
43	0x3cfc1e4a	0.030776162
44	0xb7554431	-1.2711666e-05
45	0xb39a6022	-7.18867e-08
46	0xbe342a79	-0.17594327
47	0x3c7813a7	0.015141404
48	0xbbc54cc2	-0.006021113
49	0xb69ce064	-4.675285e-06
50	0xb41384c1	-1.3738737e-07
51	0x3caedb37	0.021344764
52	0xbe12601d	-0.14294477
53	0x3dcf474c	0.10121021
54	0xb90fe961	-0.00013724483
55	0xb35b19ff	-5.1013554e-08
56	0x3b7e8ac7	0.0038840042
57	0xbdfd44dc	-0.123666495
58	0xbcce1e83	-0.025161033
59	0x3cf62b2a	0.03004988
60	0xb84d248f	-4.8909857e-05
61	0x3e22c679	0.15896024
62	0x3cf37e2e	0.029723253
63	0x3d56e17e	0.05246114

running_var f4 [64]
0	0x28bca307	2.0942895e-14
1	0x2cc91fab	5.7162794e-12
2	0x3c97600b	0.018478414
3	0x2ba48e3b	1.1692378e-12
4	0x2d71d6f0	1.374699e-11
5	0x3bac3fc0	0.005256623
6	0x3c0625f5	0.008187761
7	0x3b46bbfd	0.0030324452
8	0x32beb0b1	2.2199261e-08
9	0x3b7248a7	0.0036969574
10	0x3baba166	0.005237746
11	0x3b2bf022	0.002623566
12	0x3c14e594	0.009087939
13	0x24c4a656	8.5283234e-17
14	0x3aeb5639	0.0017954774
15	0x2bb662e1	1.2959322e-12
16	0x3caf6a38	0.021412954
17	0x33c99b55	9.3880466e-08
18	0x3aaabf31	0.001302695
19	0x3b2f442e	0.002674352
20	0x3a871d82	0.0010308477
21	0x3c59d830	0.013296172
22	0x3aae50de	0.0013299247
23	0x31b0ef33	5.149468e-09
24	0x3c473bcb	0.012160252
25	0x3b1ace24	0.0023621405
26	0x2b039267	4.6743723e-13
27	0x3ce6a6fd	0.028155798
28	0x26a006b1	1.1104044e-15
29	0x3b773e17	0.0037726217
30	0x3d3dde82	0.046354778
31	0x3c07fc23	0.00829986
32	0x31042b32	1.9233082e-09
33	0x3cdbf3ca	0.026849646
34	0x29a02f2d	7.113611e-14
35	0x3acac545	0.0015470168
36	0x3b96dc48	0.0046038963
37	0x2b64fd6d	8.135357e-13
38	0x3c128f49	0.008945295
39	0x3be92fb8	0.007116284
40	0x3c5ba34e	0.013405634
41	0x3b8eba6c	0.0043557193
42	0x3cac7c48	0.021055356
43	0x3ba5df2f	0.005062006
44	0x2fb9a960	3.3771652e-10
45	0x27b10508	4.9132824e-15
46	0x3c099206	0.008396631
47	0x3b435df1	0.0029810632
48	0x3a34f58e	0.00069030456
49	0x2de61077	2.6155285e-11
50	0x28a3d88d	1.819055e-14
51	0x3afb0035	0.0019149842
52	0x3b7cfdec	0.0038603498
53	0x3be03371	0.00684207
54	0x338d9e90	6.5946665e-08
55	0x2a7a9fc9	2.2259897e-13
56	0x3aebbaad	0.0017984711
57	0x3ba6f1dc	0.00509475
58	0x3b8b38fe	0.0042487374
59	0x3bb4a016	0.005512248
60	0x32fe2667	2.9586955e-08
61	0x3c7a1987	0.015264875
62	0x3b40e11c	0.002943105
63	0x3baff4e3	0.005369769

weight f4 [64, 67, 3, 3]
0	0x36085b8c	2.0318867e-06
1	0x3607f35e	2.0258226e-06
2	0x36080d8b	2.0273462e-06
3	0x3608167d	2.027867e-06
4	0x3607efd4	2.0256166e-06
5	0x3607f653	2.0259947e-06
6	0x3607f049	2.0256432e-06
7	0x3608098a	2.0271132e-06
8	0x3607f129	2.0256941e-06
9	0x32c84eca	2.3318893e-08
10	0x32e779a1	2.694725e-08
11	0x32ceafec	2.4061556e-08
12	0x32d1bbf1	2.4416268e-08
13	0x32e35645	2.6465509e-08
14	0x32dbc419	2.558413e-08
15	0x32c7239d	2.3182844e-08
16	0x32e5eda2	2.6767172e-08
17	0x32c64b4e	2.3084478e-08
18	0xb4aed14c	-3.256231e-07
19	0xb3b990f0	-8.641098e-08
20	0xb19fba66	-4.6487e-09
21	0x2fd35de7	3.8447398e-10
22	0xb234b403	-1.0518309e-08
23	0xb380c64e	-5.996536e-08
24	0x3195f46f	4.3642596e-09
25	0xb3486454	-4.6657377e-08
26	0xb2c96061	-2.3443308e-08
27	0xaac7a0a7	-3.5460976e-13
28	0xac46089f	-2.8142278e-12
29	0xa7751bc9	-3.4015642e-15
30	0x274a8cf2	2.8109538e-15
31	0x2b9908ca	1.0873743e-12
32	0x29be6ebe	8.456906e-14
33	0xa975aa8c	-5.4548854e-14
34	0x2c21354d	2.2909064e-12
35	0xa0aa20e2	-2.882088e-19
36	0xa61ba15d	-5.3995116e-16
37	0x9ea4604c	-1.7404003e-20
38	0xa01c5b2b	-1.3243879e-19
39	0x1f07d4a5	2.8763257e-20
40	0xab07c215	-4.823098e-13
41	0xa41ece03	-3.4435287e-17
42	0xad221685	-9.213634e-12
43	0xa6cdb0e8	-1.4272683e-15
44	0xa82d338b	-9.614606e-15
45	0x2ac2ad12	3.4581414e-13
46	0x2bc4ad08	1.3974663e-12
47	0xa9c6a5fb	-8.8217594e-14
48	0x2960bc0a	4.990109e-14
49	0x299b3930	6.893303e-14
50	0xa795578f	-4.145074e-15
51	0xad142146	-8.420214e-12
52	0x2908d36d	3.038145e-14
53	0xae399b64	-4.2202145e-11
54	0xa0ae7461	-2.955376e-19
55	0x2226ea9d	2.2621398e-18
56	0x20e882f9	3.9389e-19
57	0x2225e13a	2.2480904e-18
58	0xac8e1642	-4.038354e-12
59	0xa7bdfc9a	-5.273191e-15
60	0xa611670c	-5.0446635e-16
61	0xa20d7a36	-1.9173761e-18
62	0x223bfbc1	2.5476503e-18
63	0x2d1eb703	9.021897e-12
64	0x2d9371e6	1.6762546e-11
65	0x2bd70b21	1.5279758e-12
66	0xa95f5961	-4.959347e-14
67	0x2bd56209	1.516177e-12
68	0x280ed47b	7.928658e-15
69	0x2cc6c0e0	5.648912e-12
70	0x2b0f1444	5.083193e-13
71	0x2f0245e0	1.1848256e-10
72	0xb48afa60	-2.5886675e-07
73	0xb39116b3	-6.7562176e-08
74	0xb3c62f14	-9.228657e-08
75	0x34869c59	2.5073203e-07
76	0x33ea33a5	1.0905868e-07
77	0xb428928f	-1.5699537e-07
78	0x32369190	1.0626891e-08
79	0x32bc59ec	2.1926972e-08
80	0xb3452890	-4.5904528e-08
81	0xb352c86a	-4.907671e-08
82	0xb14c8a37	-2.9764473e-09
83	0xb18056bf	-3.735152e-09
84	0xb3314084	-4.12697e-08
85	0xb33353ea	-4.1753005e-08
86	0xb3f78082	-1.1525209e-07
87	0xae15faa3	-3.4101288e-11
88	0xb311430f	-3.3821433e-08
89	0xafc6b75e	-3.614628e-10
90	0x33014875	3.0101052e-08
91	0xb1c21ff7	-5.649777e-09
92	0xb1061e1d	-1.9516684e-09
93	0xb2b358a5	-2.0878653e-08
94	0xb48c765b	-2.6163147e-07
95	0x33f90302	1.1595513e-07
96	0x325ed418	1.2970325e-08
97	0x325bb2ea	1.2788158e-08
98	0x30300a5f	6.4043165e-10
99	0x2db3ce6f	2.0441619e-11
100	0x2e05c174	3.041252e-11
101	0xa79fa62e	-4.4311538e-15
102	0x2e8759f1	6.155066e-11
103	0x2f01500e	1.1760923e-10
104	0x2df732a9	2.8103147e-11
105	0x2d954375	1.6969296e-11
106	0x296b6d8d	5.2275502e-14
107	0x28eece5b	2.65128e-14
108	0x324f4478	1.2064554e-08
109	0x3201dff4	7.559709e-09
110	0x31481dff	2.9120881e-09
111	0xaf6b93f7	-2.1425693e-10
112	0xb0c99d51	-1.4669387e-09
113	0xaee7a9ab	-1.0534803e-10
114	0x2d293ef9	9.6205205e-12
115	0x2d9c4bcb	1.7768806e-11
116	0xabc83eee	-1.4228321e-12
117	0xb43cca15	-1.7582381e-07
118	0xb491b2f4	-2.713856e-07
119	0xb48809e1	-2.5339162e-07
120	0xb4255400	-1.5397382e-07
121	0xb4888326	-2.5427397e-07
122	0xb4e36808	-4.2357738e-07
123	0xb05d5c6b	-8.0530665e-10
124	0xb4406b04	-1.7920325e-07
125	0xb4b36838	-3.3417177e-07
126	0x31d69f92	6.2463608e-09
127	0xb02aa95a	-6.20863e-10
128	0x2c84220c	3.7554456e-12
129	0x2f02e5a8	1.1905021e-10
130	0xb16992cc	-3.3989407e-09
131	0x2de3d85d	2.5902997e-11
132	0xb06064a6	-8.1633755e-10
133	0xaf0691d7	-1.2239042e-10
134	0xadbee512	-2.1702227e-11
135	0xb5867691	-1.0018285e-06
136	0xb611ab39	-2.1706348e-06
137	0xb49502a6	-2.775534e-07
138	0xb5cba1a0	-1.5171718e-06
139	0xb6549efc	-3.1683003e-06
140	0xb5326843	-6.646189e-07
141	0xb55c71ae	-8.212181e-07
142	0xb4a3187e	-3.0378936e-07
143	0xb41d2482	-1.4635046e-07
144	0x1a6658c2	4.7634583e-23
145	0x9e718ce7	-1.2787572e-20
146	0xa465b5cc	-4.9810447e-17
147	0x1ef4085b	2.583796e-20
148	0xa7db0be5	-6.0797607e-15
149	0x27e493aa	6.344281e-15
150	0x9693dc4f	-2.3888165e-25
151	0x9914b110	-7.687178e-24
152	0x2656629a	7.4379795e-16
153	0xaea348af	-7.425293e-11
154	0xb06cfe91	-8.621806e-10
155	0xaf309d58	-1.6063006e-10
156	0x2b0a849b	4.9211476e-13
157	0xac9b29ab	-4.409991e-12
158	0xac19b38b	-2.1842274e-12
159	0x2aa852cf	2.9900255e-13
160	0x2987133f	5.998543e-14
161	0x2bcd8745	1.4603671e-12
162	0x2c4edc53	2.9396665e-12
163	0x2e993506	6.967053e-11
164	0x2c59bd40	3.094261e-12
165	0x27b11b76	4.915714e-15
166	0xaa35f26f	-1.616014e-13
167	0xad2b6629	-9.742909e-12
168	0xac48d6a7	-2.8540865e-12
169	0xacc7e14e	-5.680934e-12
170	0x240f131c	3.102437e-17
171	0x36125dbc	2.1810256e-06
172	0xb54c4acc	-7.6104766e-07
173	0xb66b1a75	-3.5033129e-06
174	0xb5046db3	-4.9333465e-07
175	0xb70c409f	-8.359696e-06
176	0xb6b969ac	-5.5257315e-06
177	0xb59d7538	-1.1731527e-06
178	0xb61fca7e	-2.3810712e-06
179	0xb6253950	-2.4620276e-06
180	0xa80ae292	-7.7096685e-15
181	0xa71e7e09	-2.1995229e-15
182	0x256214ae	1.9609382e-16
183	0x260e2c35	4.932606e-16
184	0xa4428b66	-4.218512e-17
185	0xa49ad176	-6.7141694e-17
186	0xa335d8e3	-9.857957e-18
187	0xa51ffcd5	-1.3876714e-16
188	0xa4159e4c	-3.2443307e-17
189	0x2c845dab	3.762065e-12
190	0xad7c85f5	-1.4354286e-11
191	0xab6ed4c2	-8.4849846e-13
192	0x2caf91b6	4.9899763e-12
193	0xb06bb763	-8.575311e-10
194	0xada885c3	-1.9158791e-11
195	0xafa6784a	-3.0280695e-10
196	0xafb6682d	-3.3179628e-10
197	0xade94b97	-2.6522602e-11
198	0xb300e87d	-3.001377e-08
199	0xb281e7dd	-1.5123016e-08
200	0xb144ec3b	-2.8656035e-09
201	0xb39cf4dc	-7.308856e-08
202	0xb2fd7325	-2.9505438e-08
203	0xb0d7ea14	-1.5709838e-09
204	0xad74b917	-1.3910892e-11
205	0xb245cac4	-1.1513013e-08
206	0xad1e96f3	-9.014778e-12
207	0xa9c73107	-8.84588e-14
208	0x282cc0b5	9.589705e-15
209	0x2799df4d	4.2708134e-15
210	0x295bfa4c	4.8844866e-14
211	0x27cbb1b2	5.6536476e-15
212	0x268db7ee	9.833695e-16
213	0xab3fafe6	-6.810094e-13
214	0x29008835	2.853985e-14
215	0x272a58d8	2.3640402e-15
216	0xb104c996	-1.9323116e-09
217	0xb286ea4a	-1.5706195e-08
218	0x2e464f09	4.5090185e-11
219	0xb2bbcf0f	-2.1863825e-08
220	0xb293a806	-1.718946e-08
221	0xb22bf8a5	-1.0010045e-08
222	0x31757fc2	3.5724814e-09
223	0xb1a68992	-4.846876e-09
224	0xaf7df285	-2.3096376e-10
225	0x317c23f5	3.6691266e-09
226	0xb1baa397	-5.4319105e-09
227	0xb1795f84	-3.6288563e-09
228	0x2df655d1	2.8005072e-11
229	0xb184a457	-3.860389e-09
230	0x300d8c44	5.149483e-10
231	0xad9b23e2	-1.7637395e-11
232	0x2e0578bc	3.0347933e-11
233	0xb08b7870	-1.0147811e-09
234	0x28204c3d	8.898316e-15
235	0xa8acdfdd	-1.9192921e-14
236	0x273aeba9	2.5940437e-15
237	0xaa873db0	-2.4023622e-13
238	0xa7259a16	-2.298188e-15
239	0x2bd30222	1.4993044e-12
240	0x2af1d74d	4.2959595e-13
241	0xadded902	-2.5334849e-11
242	0xa854d9a2	-1.1815556e-14
243	0xb563afda	-8.481999e-07
244	0xb5b3b3de	-1.3388888e-06
245	0xb51ad4db	-5.7679216e-07
246	0xb5e6a648	-1.718473e-06
247	0xb60702d7	-2.011822e-06
248	0xb551fd0b	-7.8226793e-07
249	0xb51f4b93	-5.934209e-07
250	0xb5a8b93c	-1.2570886e-06
251	0xb605115d	-1.9828651e-06
252	0x23e82210	2.5167916e-17
253	0x296e04fa	5.2850932e-14
254	0xa641ace8	-6.719466e-16
255	0x2b906510	1.0259866e-12

bias f4 [64]
0	0xa645856e	-6.8528936e-16
1	0x3b93c9cc	0.00451014
2	0xb7098f7b	-8.199243e-06
3	0xbb93b940	-0.0045081675
4	0x35379684	6.839184e-07
5	0x3c849988	0.01618649
6	0xbc8742bd	-0.016511315
7	0x3a1855c6	0.0005811121
8	0x34cb82c1	3.7906833e-07
9	0x3722b594	9.698229e-06
10	0x3b53ea02	0.0032335524
11	0x399af6e9	0.0002955713
12	0x3886050c	6.390558e-05
13	0x38368332	4.3514367e-05
14	0x3bd97388	0.006636087
15	0xb8f6bd6a	-0.00011765475
16	0x38f05324	0.00011459578
17	0xbbe8574e	-0.0070904857
18	0xbc704357	-0.014664493
19	0xb696e416	-4.496901e-06
20	0xbd7d8bd9	-0.061900947
21	0x370c7741	8.372416e-06
22	0x23a8543e	1.8250274e-17
23	0x29832278	5.823548e-14
24	0xbcfff9ff	-0.031247137
25	0xb7865ee4	-1.6018232e-05
26	0x3878976c	5.926883e-05
27	0x3762595c	1.3491455e-05
28	0x3c8198c2	0.01581991
29	0x3c942f9e	0.018089112
30	0xbc086fbe	-0.008327423
31	0xbc0808df	-0.008302896
32	0xb7d7c49e	-2.5721554e-05
33	0x3b9e3d45	0.0048290812
34	0x2561feda	1.9601986e-16
35	0x23f6419a	2.6699157e-17
36	0xbaa0abe5	-0.001225826
37	0x33acad45	8.040892e-08
38	0x38a3b775	7.806617e-05
39	0xbb12ebbb	-0.0022418338
40	0xba3c9aa6	-0.0007194675
41	0xa1c5b63c	-1.3397476e-18
42	0x1f361f42	3.8565855e-20
43	0xb7a4eecb	-1.966152e-05
44	0xb6eaa789	-6.993247e-06
45	0xb79910b2	-1.8246796e-05
46	0x3d74259b	0.059606176
47	0x3c6d8025	0.014495884
48	0xbc936c57	-0.017995996
49	0x36abbc40	5.1181123e-06
50	0xb867a4be	-5.522812e-05
51	0x3b31cb96	0.0027129403
52	0xa2e80bb4	-6.2896117e-18
53	0xbca9791d	-0.020687634
54	0x3cdc2e96	0.026877683
55	0x3cdb456c	0.026766501
56	0x3818dd5b	3.6445777e-05
57	0xb883fe98	-6.2939886e-05
58	0xb8101c80	-3.4358818e-05
59	0xb8d88851	-0.000103250735
60	0x3816dc9b	3.596824e-05
61	0x3703123a	7.812452e-06
62	0x378e644e	1.6974427e-05
63	0x96436a63	-1.5785544e-25

weight f4 [64]
0	0x3a45594a	0.0007528259
1	0x3db56a20	0.08858132
2	0xb9548513	-0.0002026747
3	0x3d84ab2f	0.06477963
4	0x3ab584d3	0.0013848789
5	0x3e01b421	0.1266637
6	0x3d9b8e1a	0.07595463
7	0xb9cc38f3	-0.00038952343
8	0x3b185147	0.0023241804
9	0x3b0eff25	0.0021819558
10	0x3e04220d	0.12903614
11	0x3eb49176	0.35267228
12	0x3b93e329	0.0045131636
13	0xbbae73a7	-0.0053238454
14	0x3df86df2	0.121303454
15	0xbaba778c	-0.0014226302
16	0x39317d1a	0.0001692664
17	0x3d524c07	0.051342037
18	0x3e2f304b	0.17108266
19	0x3ab905f8	0.0014116159
20	0x3e64a4f1	0.22328545
21	0x3b6d7a17	0.0036236101
22	0x3b12ca2a	0.0022398331
23	0x3b03f361	0.0020134079
24	0x3e13c0b6	0.14428982
25	0xb99f3c13	-0.00030371602
26	0x3a7c2f71	0.00096201064
27	0x39f85fa8	0.00047373516
28	0x3e27f920	0.16403627
29	0x3e703fca	0.23461834
30	0x3e389bd2	0.1802819
31	0x3e8f0af8	0.27938056
32	0x3a362d96	0.0006949542
33	0x3e1f0331	0.15528561
34	0x3a69ceae	0.00089190423
35	0x3ac0aa32	0.001469916
36	0x3d86d716	0.06583993
37	0xb9d0dc93	-0.00039837192
38	0x3a189132	0.00058199756
39	0x3e5a5f91	0.21325518
40	0x3dbf389c	0.09336969
41	0x3af86ae2	0.0018952752
42	0x3a8b4753	0.0010626115
43	0x3b4ac7f9	0.0030941947
44	0x393cc516	0.00018002497
45	0x3b8f1ee2	0.004367695
46	0x3e8206bf	0.25395772
47	0x3e373fb7	0.17895399
48	0x3dc5f67a	0.09666152
49	0xbaec1e31	-0.0018014369
50	0xba030ea3	-0.00049994345
51	0x3d9d9dd9	0.07696123
52	0x3ab4971d	0.0013777945
53	0x3e142a13	0.14469175
54	0x3df7af24	0.12093952
55	0x3d9f3212	0.07773222
56	0x3bfbfb89	0.0076898974
57	0x3bceff17	0.00631703
58	0x3c7a6de0	0.015284985
59	0x3ce03b06	0.027371895
60	0x3afc3192	0.0019240847
61	0x3b495d7d	0.003072589
62	0xba7645d7	-0.0009394562
63	0x3a107beb	0.0005511629
