SND_trackers_My_data/9X0_file/39_9X0_coordconv_norm.pt (torch_old, 322601 bytes, 25 tensors)

weight f4 [32, 7, 3, 3]
-8.7e-44 -4.67e-43 3.28e-43 1.88e-43 6.88e-43 6.46e-43 8.88e-43 8.81e-43
-8e-45 -2.48e-43 -3.59e-43 1.99e-43 1.087e-42 -2.86e-43 1.46e-43 6e-44
8.34e-43 6.99e-43 5.32e-43 -7.517e-42 4.8527713e-06 1.3e-42 -3.67e-42 -1.176e-42
-2.42e-43 2.2e-43 -1.766e-42 2.3569511e-15 -1.0908888e-16 1.8854277e-14 3.220457e-12 8.5823056e-16
-6.9669075e-17 1.1043863e-13 1.1886713e-14 1.2188825e-10 3.4361e-18 2.7833365e-16 2.1406215e-19 2.1232371e-16
6.159952e-17 2.6748993e-17 3.930174e-14 1.3372129e-18 1.5743391e-15 -1.19e-43 4.26e-43 5.1e-43
3.43e-43 -1.82e-43 -1.85e-43 -3.24e-43 2.62e-43 7.61e-43 1.969e-42 -1.246e-42
1.756e-42 -2.131e-42 -3.08e-43 -2.096e-42 1.928e-42 -2.199e-42 1.955e-42 -1.25e-43
-1.214e-42 2.07e-43 -2.19e-43 9.56e-43 -1.106e-42 8.41e-43 1.201e-42 -1.212e-42
-1.481e-42 -1.448e-42 -1.226e-42 1.67e-43 1.295e-42 1.509e-42 -4.2e-43 8.32e-43
-8.04e-43 -1.94e-42 5.043e-42 -2.37e-42 -1.633e-42 -3.9723e-41 -1.51e-42 -2.454e-42
-1.9e-42 -6.735e-42 2.1549119e-16 2.1382414e-24 7.880317e-31 2.4111656e-16 1.6724318e-31 1.56e-43
-2.0037414e-28 -1.7999967e-32 -4.4507706e-35 -2.7544425e-26 1.3823073e-20 7.595209e-39 1.4348682e-28 3.4794848e-35
6.4e-44 4.6797062e-30 -1.23009e-40 2.58e-43 1e-44 -6.42e-43 -8.28e-43 -3.74e-43
-3.81e-43 2.56e-43 9.2e-44 -1.22e-43 -8e-44 -6.77e-43 2.302e-42 -1.023e-42
2.476e-42 -1.163e-42 1.195e-42 1.764e-42 -1.969e-42 -2.17e-42 0.041669846 0.041669767
0.041669786 0.019399982 0.019399999 0.019400008 -0.05207005 -0.052070018 -0.05207005 -0.024409661
-0.0013504468 0.07583484 -0.024409698 -0.0013504315 0.07583482 -0.02440969 -0.0013504882 0.07583476
0.0026482495 0.0029039376 0.003830602 0.0038728872 0.0026517936 0.0029040806 0.0038295058 0.0038727121
0.0026482644 0.071076475 -0.11554403 0.060030796 -0.06333014 -0.11632869 -0.084472455 -0.111492045
0.032154065 0.06247621 0.0017141374 -0.0020079734 0.0031602846 0.0007076252 -0.0026421319 -0.0046176887
0.0015263266 -0.0005121096 -0.0005794172 0.033671062 0.01669811 0.0090959035 0.014684719 0.022449879
0.02770838 0.011917247 0.020188006 0.015714876 0.04623687 -0.03643442 0.09603671 -0.13698152
-0.009491259 0.065004915 -0.08555619 -0.07766368 0.09462184 0.02435209 0.024352057 0.024352
-0.018378252 -0.018378183 -0.018378118 -0.028351411 -0.028351432 -0.028351434 0.014981665 0.017380362
0.032914814 0.014981696 0.017380306 0.03291481 0.014981614 0.01738028 0.032914747 0.0015065713
0.00013455219 -0.0023991023 0.0009298988 0.0015055948 0.00013467885 -0.0024011608 0.0009298448 0.0015056581
-0.014182723 -0.03048059 -0.04802758 -0.014811615 -0.02695602 -0.035327557 -0.0071877805 -0.021381944
-0.031996526 -0.035492565 -0.0545815 -0.045276143 -0.04917245 -0.030619767 -0.04506597 -0.032568827
-0.032158185 -0.035832927 -0.033158805 -0.08403269 -0.023364056 -0.008510607 -0.045483135 -0.090522215
-0.09041811 -0.016646193 -0.06442666 -0.0023193446 -0.091574 0.01939895 0.021672497 -0.009950396
-0.010824529 -0.084065855 0.026427334 0.02505893 5.6e-43 8.83e-43 -1.171e-42 -2.2e-43
00000000: 3e00 0080 4d01 0080 ea00 0000 8600 0000
00000010: eb01 0000 cd01 0000 7a02 0000 7502 0000
00000020: 0600 0080 b100 0080 0001 0080 8e00 0000
00000030: 0803 0000 cc00 0080 6800 0000 2b00 0000
00000040: 5302 0000 f301 0000 7c01 0000 f414 0080
00000050: fdd4 a236 a003 0000 3b0a 0080 4703 0080
00000060: ad00 0080 9d00 0000 ec04 0080 13d6 2927
00000070: b58a fba4 01d3 a928 999e 622c 3d5e 7726
00000080: 5da5 a0a4 89af f829 ca21 5628 7e04 062f
00000090: 188a 7d22 cc72 a025 51b8 7c20 e6ca 7425
000000a0: f009 8e24 46b7 f623 d2ff 3029 7a56 c521
000000b0: dce2 e226 5500 0080 3001 0000 6c01 0000
000000c0: f500 0000 8200 0080 8400 0080 e700 0080
000000d0: bb00 0000 1f02 0000 7d05 0000 7903 0080
000000e0: e504 0000 f105 0080 dc00 0080 d805 0080
000000f0: 6005 0000 2106 0080 7305 0000 5900 0080
00000100: 6203 0080 9400 0000 9c00 0080 aa02 0000
00000110: 1503 0080 5802 0000 5903 0000 6103 0080
00000120: 2104 0080 0904 0080 6b03 0080 7700 0000
00000130: 9c03 0000 3504 0000 2c01 0080 5202 0000
00000140: 3e02 0080 6805 0080 0f0e 0000 9b06 0080
00000150: 8d04 0080 bb6e 0080 3604 0080 d706 0080
00000160: 4c05 0080 c612 0080 c671 7825 3c70 2518
00000170: 1dbb 7f0d 86fe 8a25 1418 590c 6f00 0000
00000180: 2001 7e91 1fec ba8a c0a4 6c86 b564 0895
00000190: 248e 821e 5ab4 5200 23e4 3511 4b00 3906
000001a0: 2e00 0000 d9d4 bd0e e656 0180 b800 0000
000001b0: 0700 0000 ca01 0080 4f02 0080 0b01 0080
000001c0: 1001 0080 b700 0000 4200 0000 5700 0080
000001d0: 3900 0080 e301 0080 6b06 0000 da02 0080
000001e0: e706 0000 3e03 0080 5503 0000 eb04 0000
000001f0: 7d05 0080 0d06 0080 00ae 2a3d ebad 2a3d
00000200: f0ad 2a3d b6ec 9e3c bfec 9e3c c4ec 9e3c
00000210: 6847 55bd 5f47 55bd 6847 55bd c5f6 c7bc
00000220: 7a01 b1ba 4c4f 9b3d d9f6 c7bc f600 b1ba
00000230: 494f 9b3d d5f6 c7bc dd02 b1ba 414f 9b3d
00000240: 418e 2d3b fd4f 3e3b d60a 7b3b 44d0 7d3b
00000250: b7c9 2d3b 6352 3e3b 72f8 7a3b 54cd 7d3b
00000260: 818e 2d3b 8b90 913d 59a2 ecbd dae2 753d
00000270: 3cb3 81bd bc3d eebd e5ff acbd f155 e4bd
00000280: fbb3 033d 0ee7 7f3d e8ac e03a 3498 03bb
00000290: c71c 4f3b ec7f 393a 9e27 2dbb fb4f 97bb
000002a0: 060f c83a 183f 06ba 08e4 17ba abea 093d
000002b0: 7aca 883c fc06 153c 2d98 703c cfe8 b73c
000002c0: affc e23c 8f40 433c 5161 a53c 7cbc 803c
000002d0: df62 3d3d 423c 15bd e5ae c43d e244 0cbe
000002e0: 3a81 1bbc 4c21 853d 1538 afbd 230e 9fbd
000002f0: 18c9 c13d 097e c73c f77d c73c d87d c73c
00000300: fd8d 96bc d88d 96bc b58d 96bc 3841 e8bc
00000310: 4341 e8bc 4441 e8bc a875 753c 4361 8e3c
00000320: afd1 063d ca75 753c 2561 8e3c aed1 063d
00000330: 7275 753c 1761 8e3c 9dd1 063d 2578 c53a
00000340: 9416 0d39 423a 1dbb 74c4 733a 6157 c53a
00000350: 9438 0d39 cb5c 1dbb d4c0 733a 8159 c53a
00000360: a75e 68bc 6eb2 f9bc 91b8 44bd 6bac 72bc
00000370: dfd2 dcbc a1b3 10bd 7987 ebbb 3029 afbc
00000380: ca0e 03bd a760 11bd da90 5fbd 7a73 39bd
00000390: 0d69 49bd 4ed6 fabc 1897 38bd e466 05bd
000003a0: 4db8 03bd 8cc5 12bd 87d1 07bd 5519 acbd
000003b0: fa65 bfbc 1370 0bbc 864c 3abd b663 b9bd
000003c0: 212d b9bd 995d 88bc 20f2 83bd 2500 18bb
000003d0: 268b bbbd 8cea 9e3c 858a b13c fc06 23bc
000003e0: 5e59 31bc b82a acbd 237e d83c 6348 cd3c
000003f0: 9001 0000 7602 0000 4403 0080 9d00 0080

bias f4 [32]
-2.2e-42 -8.84e-43 -0.008644904 -0.010046308 8.73e-43 -3.366e-42 2.308e-42 1.7793002e-12
0.0015888214 -1.635e-42 -5.137334e-08 -1.0240031e-26 -5.517381e-39 -3.474e-42 2.402e-42 0.00032408812
-8.7e-43 -1.693e-42 -4.8e-44 -3.589e-42 3.887e-42 -1.554e-42 1.578e-42 -4.93e-43
4.669e-42 -0.015627528 0.043770567 7.75e-43 3.129e-42 6e-43 2.2e-43 1.1369519e-06
00000000: 2206 0080 7702 0080 5ba3 0dbc 4599 24bc
00000010: 6f02 0000 6209 0080 6f06 0000 0c6a fa2b
00000020: 0040 d03a 8f04 0080 96a5 5cb3 20d3 4a94
00000030: 3714 3c80 af09 0080 b206 0000 5fea a939
00000040: 6d02 0080 b804 0080 2200 0080 010a 0080
00000050: d60a 0000 5504 0080 6604 0000 6001 0080
00000060: 040d 0000 4d05 80bc c448 333d 2902 0000
00000070: b908 0000 ac01 0000 9d00 0000 5f99 9835

weight f4 [32]
-3.5381261e-28 -4.05e-43 0.0887627 0.06294235 -6.7e-43 2.7e-42 3.4e-43 -5.403399e-22
0.123050354 1.68e-43 -0.0001617614 -2.3463977e-11 1.491281e-11 -2.7e-44 -4.68e-43 0.036753017
1.2345865e-36 -2.48e-43 1.93e-43 -4.36e-43 -8.030629e-29 2.05226e-40 -3.22e-43 -6.874e-40
-5.18e-43 0.2653857 0.103571035 1.113e-42 1.812083e-32 3.28e-43 4.43e-43 0.00013059558
00000000: 6141 e091 2101 0080 38c9 b53d ebe7 803d
00000010: de01 0080 8707 0000 f300 0000 c64e 239c
00000020: d301 fc3d 7800 0000 7f9e 29b9 2e64 cead
00000030: aa2c 832d 1300 0080 4e01 0080 558a 163d
00000040: d30d d203 b100 0080 8a00 0000 3701 0080
00000050: c399 cb90 163c 0200 e600 0080 317c 0780
00000060: 7201 0080 a2e0 873e 0d1d d43d 1a03 0000
00000070: 6e2d bc0a ea00 0000 3c01 0000 7cf0 0839

bias f4 [32]
-9.170606e-26 -1.6235e-41 -0.0793382 0.20407611 -1.8471971e-36 -1.57135e-40 -1.8469517e-36 -5.4922014e-20
0.039107557 -3.09e-42 -0.007522527 -2.982803e-11 -1.2405361e-09 -1.3848608e-36 -1.846866e-36 0.11979845
-7.494e-41 -2.136e-42 -1.5746e-41 -1.0078e-41 1.1332663e-29 -5.27191e-40 -4.3497703e-38 -1.8595764e-36
-2.4776e-41 -0.017213188 0.0018565223 -1.0129e-41 -1.2554e-41 -1.573e-41 -2.1119e-41 -0.003909321
00000000: 9f0d e395 422d 0080 117c a2bd 54f9 503e
00000010: 6424 1d84 07b6 0180 0c1f 1d84 52ae 819f
00000020: 3f2f 203d 9d08 0080 887f f6bb 602f 03ae
00000030: 7c7f aab0 329f eb83 2e1d 1d84 e458 f53d
00000040: e7d0 0080 f405 0080 e52b 0080 181c 0080
00000050: 8dda 650f 98bd 0580 f3d2 6c81 fd31 1e84
00000060: 1145 0080 ac02 8dbc 8d56 f33a 3c1c 0080
00000070: ff22 0080 d92b 0080 df3a 0080 c319 80bb

running_mean f4 [32]
4.8528477e-06 2.1918169e-16 -0.043292496 -0.18983872 7.5596436e-16 1.08953755e-14 3.4861776e-33 7.5584576e-06
0.2186366 -1.0961473e-35 0.029088989 1.4701637e-05 -0.00010877736 -3.83994e-40 -6.3937818e-12 0.30109572
2.4166486e-05 4.3385652e-33 3.4498864e-18 -6.810291e-15 1.0727917e-10 -1.4085419e-19 3.6208234e-35 1.9200288e-12
2.874172e-29 -0.18357234 0.30935878 2.608306e-16 -8.7208465e-21 -6.6356505e-38 -5.05e-42 0.08167582
00000000: a5d5 a236 04b3 7c25 7953 31bd 1565 42be
00000010: 53e4 5926 0d46 4428 66cf 9009 a89e fd36
00000020: 46e2 5f3e f01f 6985 084c ee3c 0da7 7637
00000030: 671f e4b8 6b2e 0480 11f6 e0ac 3829 9a3e
00000040: 22b9 ca37 8a37 b409 838e 7e22 d95d f5a7
00000050: cee8 eb2e 914a 26a0 1884 4006 2a1c 072c
00000060: e3bc 1110 63fa 3bbe 4664 9e3e cd5b 9625
00000070: 6dbb 249e bca3 b481 140e 0080 a745 a73d

running_var f4 [32]
3.361477e-19 3.4125933e-30 0.07689623 0.33660373 4.2681873e-29 8.6248166e-27 6e-45 3.6998324e-10
1.447329 6e-45 0.003341123 1.6138344e-08 4.3289243e-17 6e-45 6e-45 0.27988827
1.3234975e-23 6e-45 8.698431e-34 1.88e-43 6.973037e-19 3.4581327e-36 6e-45 2.7704745e-22
6e-45 0.9416216 0.29752648 1.1978952e-29 9.896823e-39 6e-45 6e-45 0.013542241
00000000: 346d c620 656e 8a0e c57b 9d3d 5357 ac3e
00000010: 3d6c 5810 04d5 2a14 0400 0000 8366 cb2f
00000020: 1442 b93f 0400 0000 bef6 5a3b 98a0 8a32
00000030: eba2 4724 0400 0000 0400 0000 844d 8f3e
00000040: 3600 8019 0400 0000 0987 9008 8600 0000
00000050: c7ce 4d21 bb17 9304 0400 0000 0477 a71b
00000060: 0400 0000 1d0e 713f 6455 983e 46f6 720f
00000070: 51c4 6b00 0400 0000 0400 0000 47e0 5d3c

weight f4 [32, 35, 3, 3]
1.7e-43 2.55e-43 2.77e-43 1.16e-43 -1.57e-43 -3.57e-43 6.7e-43 5.8e-43
6.71e-43 5.27e-43 4.48e-43 6.53e-43 -5.96e-43 -5.73e-43 2.55e-43 4.39e-43
6.8e-43 5.84e-43 1.15e-42 1.966e-42 5.017e-42 1.564e-42 -5.021e-42 1.28e-43
-1.9585477e-23 -6.747e-42 -2.929e-42 -1.84e-43 1.92e-43 9.32e-43 3.77e-43 -5.16e-43
4e-44 -1.61e-43 1.079e-42 -7.08e-43 -7.78e-43 -2.93e-43 -8.2e-43 1.04e-43
-5.6e-44 5.06e-43 -3.24e-43 -1.82e-43 -3.5e-43 -1.16e-43 5.17e-43 -6.33e-43
2.58e-43 2.2e-43 -5.87e-43 6.03e-43 7.76e-43 -3.18e-43 -8.55e-43 -5.75e-43
-3.17e-43 -6.3e-44 -4.19e-43 3.63e-43 -2.87e-43 -6.87e-43 7.23e-43 -8.1e-44
3.45e-43 -1.53e-43 -2e-44 2.51e-43 7.02e-43 8.24e-43 1.44e-43 -3.03e-43
-4.04e-43 5.66e-43 9.87e-43 6.43e-43 8.5e-44 -7e-43 -4.71e-43 -1.81e-43
-2.55e-43 1.027e-42 6.78e-43 4.71e-43 -8.5e-43 4.33e-43 5.7e-43 6.2e-44
2.8e-44 1.68e-43 -6.95e-43 8.37e-43 -1.093e-42 2.14e-43 -5.17e-43 -7.79e-43
-7.86e-43 -8.76e-43 -9.98e-43 -6.35e-43 -6.1e-43 -4.57e-43 7.1e-43 6.05e-43
-1.77e-43 1.23e-43 1.16e-43 -4.15e-43 1.98e-43 9.04e-43 9.23e-43 4.4e-43
7.57e-43 4.64e-43 8.02e-43 -4.78e-43 5.5e-43 -3.98e-43 -5.25e-43 8.41e-43
1.8e-43 4.9e-44 1.9e-43 -8.2e-43 1.14e-43 -1.22e-43 6e-43 -3.31e-43
8.16e-43 8.38e-43 -1.72e-43 -1.9e-43 5.35e-43 -7.1e-44 1e-42 -5.52e-43
5.7e-44 -3.98e-43 5.76e-43 -3.66e-43 1.6810877e-38 5.91e-43 4.99e-43 -4.97e-43
-2.77e-43 -4.7e-43 3.85e-43 8.93e-43 -1.26e-43 -6.52e-43 -8.73e-43 8.1e-43
-5.5e-44 4.76e-43 5.76e-43 -7.41e-43 -7.03e-43 5.9e-43 -3.94e-43 -2.77e-43
3.83e-43 -7.6e-44 -1.04e-43 5.07e-43 -6.99e-43 3.55e-43 -7.3e-43 -6.67e-43
-5.25e-43 -6.63e-43 -5.37e-43 -9.25e-43 -2.37e-43 -7.65e-43 -9.67e-43 8.3e-44
-6.73e-43 -8.23e-43 -1.15e-43 1.96e-43 4.54e-43 2.82e-43 6.8e-43 -5.47e-43
1.99e-43 -4.55e-43 3.53e-43 3.17e-43 -7.6e-43 -5.04e-43 6.74e-43 -9.81e-43
-7.13e-43 -1.32e-43 -8.98e-43 3.14e-43 -5.96e-43 -7.03e-43 -2.44e-43 2.28e-43
1.56e-43 -9.39e-43 -2.3e-43 7.43e-43 6.95e-43 -8.28e-43 -9.7e-43 -3.08e-43
-6.35e-43 1.25e-43 -7.17e-43 1.72e-43 -4.43e-43 8.94e-43 -1e-44 -6.82e-43
3.46e-43 8.16e-43 7.75e-43 2.72e-43 -8.45e-43 4e-43 2.59e-43 5.68e-43
-8.98e-43 -9.19e-43 -9.58e-43 -8.5e-44 5.38e-43 -8.55e-43 -1.96e-43 4.6e-44
6.95e-43 -2.86e-43 1.012e-42 9.5e-44 5.8e-43 2.34e-43 7.09e-43 -4.75e-43
-8.17e-43 -8.07e-43 5.45e-43 9.49e-43 5.5e-43 -1.81e-43 9.28e-43 -2.97e-43
-9.5e-44 -7.38e-43 -5.37e-43 -3.31e-43 -1.34e-42 1.247e-42 -1.204e-42 1.164e-42
00000000: 7900 0000 b600 0000 c600 0000 5300 0000
00000010: 7000 0080 ff00 0080 de01 0000 9e01 0000
00000020: df01 0000 7801 0000 4001 0000 d201 0000
00000030: a901 0080 9901 0080 b600 0000 3901 0000
00000040: e501 0000 a101 0000 3503 0000 7b05 0000
00000050: fc0d 0000 5c04 0000 ff0d 0080 5b00 0000
00000060: 4b6b bd99 cf12 0080 2a08 0080 8300 0080
00000070: 8900 0000 9902 0000 0d01 0000 7001 0080
00000080: 1d00 0000 7300 0080 0203 0000 f901 0080
00000090: 2b02 0080 d100 0080 4902 0080 4a00 0000
000000a0: 2800 0080 6901 0000 e700 0080 8200 0080
000000b0: fa00 0080 5300 0080 7101 0000 c401 0080
000000c0: b800 0000 9d00 0000 a301 0080 ae01 0000
000000d0: 2a02 0000 e300 0080 6202 0080 9a01 0080
000000e0: e200 0080 2d00 0080 2b01 0080 0301 0000
000000f0: cd00 0080 ea01 0080 0402 0000 3a00 0080
00000100: f600 0000 6d00 0080 0e00 0080 b300 0000
00000110: f501 0000 4c02 0000 6700 0000 d800 0080
00000120: 2001 0080 9401 0000 c002 0000 cb01 0000
00000130: 3d00 0000 f401 0080 5001 0080 8100 0080
00000140: b600 0080 dd02 0000 e401 0000 5001 0000
00000150: 5f02 0080 3501 0000 9701 0000 2c00 0000
00000160: 1400 0000 7800 0000 f001 0080 5502 0000
00000170: 0c03 0080 9900 0000 7101 0080 2c02 0080
00000180: 3102 0080 7102 0080 c802 0080 c501 0080
00000190: b301 0080 4601 0080 fb01 0000 b001 0000
000001a0: 7e00 0080 5800 0000 5300 0000 2801 0080
000001b0: 8d00 0000 8502 0000 9302 0000 3a01 0000
000001c0: 1c02 0000 4b01 0000 3c02 0000 5501 0080
000001d0: 8801 0000 1c01 0080 7701 0080 5802 0000
000001e0: 8000 0000 2300 0000 8800 0000 4902 0080
000001f0: 5100 0000 5700 0080 ac01 0000 ec00 0080
00000200: 4602 0000 5602 0000 7b00 0080 8800 0080
00000210: 7e01 0000 3300 0080 ca02 0000 8a01 0080
00000220: 2900 0000 1c01 0080 9b01 0000 0501 0080
00000230: e30d b700 a601 0000 6401 0000 6301 0080
00000240: c600 0080 4f01 0080 1301 0000 7d02 0000
00000250: 5a00 0080 d101 0080 6f02 0080 4202 0000
00000260: 2700 0080 5401 0000 9b01 0000 1102 0080
00000270: f601 0080 a501 0000 1901 0080 c600 0080
00000280: 1101 0000 3600 0080 4a00 0080 6a01 0000
00000290: f301 0080 fd00 0000 0902 0080 dc01 0080
000002a0: 7701 0080 d901 0080 7f01 0080 9402 0080
000002b0: a900 0080 2202 0080 b202 0080 3b00 0000
000002c0: e001 0080 4b02 0080 5200 0080 8c00 0000
000002d0: 4401 0000 c900 0000 e501 0000 8601 0080
000002e0: 8e00 0000 4501 0080 fc00 0000 e200 0000
000002f0: 1e02 0080 6801 0080 e101 0000 bc02 0080
00000300: fd01 0080 5e00 0080 8102 0080 e000 0000
00000310: a901 0080 f601 0080 ae00 0080 a300 0000
00000320: 6f00 0000 9e02 0080 a400 0080 1202 0000
00000330: f001 0000 4f02 0080 b402 0080 dc00 0080
00000340: c501 0080 5900 0000 0002 0080 7b00 0000
00000350: 3c01 0080 7e02 0000 0700 0080 e701 0080
00000360: f700 0000 4602 0000 2902 0000 c200 0000
00000370: 5b02 0080 1d01 0000 b900 0000 9501 0000
00000380: 8102 0080 9002 0080 ac02 0080 3d00 0080
00000390: 8001 0000 6202 0080 8c00 0080 2100 0000
000003a0: f001 0000 cc00 0080 d202 0000 4400 0000
000003b0: 9e01 0000 a700 0000 fa01 0000 5301 0080
000003c0: 4702 0080 4002 0080 8501 0000 a502 0000
000003d0: 8801 0000 8100 0080 9602 0000 d400 0080
000003e0: 4400 0080 0f02 0080 7f01 0080 ec00 0080
000003f0: bc03 0080 7a03 0000 5b03 0080 3f03 0000

bias f4 [32]
2.2935644e-13 3.736e-42 0.0073898286 0.07611222 1.511787e-07 1.937e-42 5.68e-43 -1.387e-42
7.123e-42 -1.0655175e-24 0.004648748 3.08e-43 -5.172e-42 1.481e-42 -7.654e-42 4.324e-42
-2.158e-42 -1.36e-42 -0.009505225 5.225e-42 -0.0058421683 -2.626e-42 8.1517455e-37 -4.75e-43
1.771e-42 4.549e-42 -1.293e-42 2.45e-43 2.12e-43 3.83e-42 -3.848e-42 -2.65e-43
00000000: bf1d 812a 6a0a 0000 6026 f23b b9e0 9b3d
00000010: af53 2234 6605 0000 9501 0000 de03 0080
00000020: db13 0000 7fe1 a497 8654 983b dc00 0000
00000030: 6b0e 0080 2104 0000 5615 0080 0e0c 0000
00000040: 0406 0080 cb03 0080 cebb 1bbc 910e 0000
00000050: a96f bfbb 5207 0080 dcb1 8a03 5301 0080
00000060: f004 0000 ae0c 0000 9b03 0080 af00 0000
00000070: 9700 0000 ad0a 0000 ba0a 0080 bd00 0080

weight f4 [32]
6.146408e-38 -3.45e-43 0.07664435 0.099434435 3.34e-43 -2.47e-43 6.5464357e-28 -8.938821e-34
-2.7e-43 6.04e-43 0.090186186 -6.71e-43 1.98e-43 6.4e-43 -6.81e-43 -3.8e-44
3.95e-43 -3.38e-43 0.07330098 -3.21e-43 0.08367721 -5.2e-43 -4e-45 -2.44e-43
-4.5e-43 -6.45e-43 -2.6e-43 6.68e-43 1.9e-43 4.588242e-29 3.98e-43 -3.81e-43
00000000: 3652 a701 f600 0080 b7f7 9c3d 48a4 cb3d
00000010: ee00 0000 b000 0080 ff76 4f12 8a85 9488
00000020: c100 0080 af01 0000 89b3 b83d df01 0080
00000030: 8d00 0000 c901 0000 e601 0080 1b00 0080
00000040: 1a01 0000 f100 0080 d31e 963d e500 0080
00000050: f55e ab3d 7301 0080 0300 0080 ae00 0080
00000060: 4101 0080 cc01 0080 ba00 0080 dd01 0000
00000070: 8800 0000 c9a6 6810 1c01 0000 1001 0080

bias f4 [32]
-9.233466e-37 -3.74e-43 0.07069214 0.12632857 -1.611e-42 -8.04e-43 -1.8433667e-36 -1.8465526e-36
-1.8467096e-36 -1.883e-42 0.04994812 -1.931e-42 -2e-43 -1.8467123e-36 -1.1807e-41 -4.956e-42
-9.233473e-37 -2.249e-42 0.0077003506 -8.7e-44 -0.0080305 -1.8466956e-36 -3.677e-42 -6.2e-44
-3.365e-42 -1.8150244e-36 -1.8465627e-36 -2.503e-42 -5.47e-43 -4.4435735e-36 -1.054e-42 -2.419e-42
00000000: 6b19 9d83 0b01 0080 0ac7 903d 475c 013e
00000010: 7e04 0080 3e02 0080 f9d0 1c84 5b16 1d84
00000020: c619 1d84 4005 0080 6696 4c3d 6205 0080
00000030: 8f00 0080 d519 1d84 ea20 0080 d10d 0080
00000040: 7219 9d83 4506 0080 3953 fc3b 3e00 0080
00000050: 5c92 03bc 7819 1d84 400a 0080 2c00 0080
00000060: 6109 0080 bb67 1a84 9316 1d84 fa06 0080
00000070: 8601 0080 3b02 bd84 f002 0080 be06 0080

running_mean f4 [32]
2.2935627e-13 -4.6638957e-05 -0.55266565 -0.011306298 1.5117858e-07 -8.8426395e-07 4.5118097e-07 -2.5723913e-12
8.8183846e-08 5.629495e-25 0.24696463 -6.2512577e-09 9.707688e-35 2.1364103e-22 4.169548e-12 5.433498e-26
8.050788e-13 -4.3358864e-06 0.112582184 2.5933784e-06 -0.152355 2.253488e-12 -1.5024311e-15 -1.6797945e-07
-8.602872e-11 -8.896825e-15 5.8715228e-05 7.2558487e-06 -1.4471989e-05 9.248529e-13 -3.5850458e-06 -7.32e-42
00000000: b91d 812a 339e 43b8 7f7b 0dbf 0d3e 39bc
00000010: a753 2234 285e 6db5 d739 f234 1504 35ac
00000020: 955f bd33 7439 2e17 4ce4 7c3e a5ca d6b1
00000030: 8d09 0107 5923 811b f3b3 922c e386 8615
00000040: 0b9c 622b fb7c 91b6 7d91 e63d e709 2e36
00000050: f302 1cbe 3b93 1e2c ed85 d8a6 d75d 34b4
00000060: dd2d bdae 5d45 20a8 ff44 7638 4477 f336
00000070: b8cc 72b7 5629 822b 9e96 70b6 6814 0080

running_var f4 [32]
6e-45 1.3235346e-23 0.0057970793 0.0051348424 2.0195513e-28 1.2925142e-26 6e-45 5.4638034e-38
6e-45 6e-45 0.007498385 6e-45 6e-45 6e-45 6e-45 6e-45
2.938837e-39 2.0680228e-25 0.004659236 6e-45 0.005647622 4.7021394e-38 6e-45 6e-45
4.814991e-35 6e-45 1.3235346e-23 2.0680228e-25 8.272091e-25 1.441969e-35 6e-45 6e-45
00000000: 0400 0000 2101 8019 6df5 bd3b 2e42 a83b
00000010: 1801 8011 2101 8014 0400 0000 27bd 9401
00000020: 0400 0000 0400 0000 03b5 f53b 0400 0000
00000030: 0400 0000 0400 0000 0400 0000 0400 0000
00000040: 4800 2000 2101 8016 81ac 983b 0400 0000
00000050: b00f b93b 2101 8001 0400 0000 0400 0000
00000060: 2101 8006 0400 0000 2101 8019 2101 8016
00000070: 2101 8017 2156 9905 0400 0000 0400 0000

weight f4 [64, 35, 3, 3]
6e-45 3.28e-43 2.23e-43 7.05e-43 -8.42e-43 -5.09e-43 4.51e-43 3.77e-43
2.16e-43 -1.02e-43 -4.55e-43 -6.45e-43 -1.77e-43 -5.47e-43 -6.49e-43 -2.68e-43
-7.5e-43 -6e-43 -6.22e-43 -2.926e-42 -4.104e-42 -2.7e-42 -3.572e-42 -4.846e-42
-2.41e-42 -3.782e-42 -4.781e-42 2.98e-43 -3.1e-44 1.106e-42 -1.05e-43 -5.65e-43
1.118e-42 7.99e-43 3.59e-43 -3.6e-44 -1.05e-42 -7.61e-43 -2.31e-43 -9.23e-43
5.76e-43 -1.072e-42 7.23e-43 -1.53e-43 7.16e-43 -9.01e-43 -8.66e-43 -1.33e-43
-6.67e-43 2.9e-43 -2.27e-43 -4.39e-43 -5.16e-43 -8.35e-43 -1.101e-42 8.53e-43
2.6e-43 -3.35e-43 -4.39e-43 -1.211e-42 1.75e-43 4.96e-43 3.78e-43 8.4e-43
2.97e-43 9.54e-43 3.35e-43 -5.44e-43 -3.67e-43 7.12e-43 2e-43 1.008e-42
6.71e-43 6.77e-43 -4.55e-43 -2.23e-43 1.88e-43 -9.36e-43 3.07e-43 -9.37e-43
-1.076e-42 8.6e-43 -2.28e-43 -9.05e-43 3.34e-43 9.14e-43 7.85e-43 -2.37e-43
-4.13e-43 -2.96e-43 -3.5e-44 -7.75e-43 -2.52e-43 -8.56e-43 -2.24e-43 5.28e-43
1.8e-43 -5.09e-43 9.98e-43 5.55e-43 2.48e-43 -7.13e-43 9.95e-43 3.1e-44
-9.98e-43 -2.89e-43 -9.15e-43 9.78e-43 -5.6e-44 4.6e-43 9.85e-43 8.63e-43
3.71e-43 -9.64e-43 7.95e-43 -5.41e-43 1.051e-42 8e-43 -7.27e-43 -7.16e-43
5.7e-44 -3.9e-43 -7.89e-43 -4.33e-43 7.15e-43 1.89e-43 7.24e-43 -4.72e-43
6.49e-43 6.2e-43 -6.81e-43 3.5e-44 -2.17e-43 -8.8e-43 -6.47e-43 6.32e-43
-4.46e-43 1.17e-42 5.63e-43 9.84e-43 6.21e-43 1.8e-44 -7.95e-43 9.28e-43
6.33e-43 -1.08e-43 1.86e-43 -2.65e-43 -5.44e-43 -8.02e-43 -5.94e-43 -7.54e-43
9.44e-43 -1.21e-42 -7.96e-43 -6.08e-43 2.48e-43 -8.4e-43 7.29e-43 1.68e-43
-3.7e-43 -8.44e-43 4.95e-43 8.1e-44 -1e-44 9.78e-43 -5.89e-43 -6.85e-43
-8.46e-43 -5.94e-43 -6.12e-43 -2.82e-43 9.11e-43 -2.89e-43 5.56e-43 6.96e-43
1.77e-43 4.79e-43 -1.3e-44 -7.83e-43 2.06e-43 9.88e-43 3.57e-43 8.32e-43
-7.62e-43 9.47e-43 3.9e-43 -3.84e-43 4.08e-43 -2.55e-43 2.27e-43 6.6e-44
4.02e-43 7e-45 -5.04e-43 5.5e-43 -7.83e-43 7.7e-43 -2.54e-43 -9.7e-44
5.51e-43 -9.4e-44 -8.14e-43 -3.48e-43 7.02e-43 -6.87e-43 -1.066e-42 -3.66e-43
9.23e-43 -8.37e-43 6.43e-43 -8.16e-43 -1.043e-42 -1.167e-42 4e-44 -4e-44
4.2e-43 6.74e-43 8e-43 -1.37e-43 -6.21e-43 -6.9e-43 1.58e-43 7.85e-43
-9.61e-43 5.47e-43 -7.92e-43 -9.16e-43 -1.75e-43 8.93e-43 5.13e-43 7.23e-43
-8.07e-43 -1.187e-42 -4.02e-43 9.53e-43 6.85e-43 1.006e-42 -8.53e-43 6e-44
-1.19e-43 8.73e-43 2.76e-43 6.1e-43 5e-43 2.27e-43 3.57e-43 1.5e-44
-6.98e-43 8.6e-43 5.27e-43 -8.49e-43 1.19e-43 -1.56e-43 6.98e-43 -7.3e-44
00000000: 0400 0000 ea00 0000 9f00 0000 f701 0000
00000010: 5902 0080 6b01 0080 4201 0000 0d01 0000
00000020: 9a00 0000 4900 0080 4501 0080 cc01 0080
00000030: 7e00 0080 8601 0080 cf01 0080 bf00 0080
00000040: 1702 0080 ac01 0080 bc01 0080 2808 0080
00000050: 710b 0080 8707 0080 f509 0080 820d 0080
00000060: b806 0080 8b0a 0080 540d 0080 d500 0000
00000070: 1600 0080 1503 0000 4b00 0080 9301 0080
00000080: 1e03 0000 3a02 0000 0001 0000 1a00 0080
00000090: ed02 0080 1f02 0080 a500 0080 9302 0080
000000a0: 9b01 0000 fd02 0080 0402 0000 6d00 0080
000000b0: ff01 0000 8302 0080 6a02 0080 5f00 0080
000000c0: dc01 0080 cf00 0000 a200 0080 3901 0080
000000d0: 7001 0080 5402 0080 1203 0080 6102 0000
000000e0: ba00 0000 ef00 0080 3901 0080 6003 0080
000000f0: 7d00 0000 6201 0000 0e01 0000 5702 0000
00000100: d400 0000 a902 0000 ef00 0000 8401 0080
00000110: 0601 0080 fc01 0000 8f00 0000 cf02 0000
00000120: df01 0000 e301 0000 4501 0080 9f00 0080
00000130: 8600 0000 9c02 0080 db00 0000 9d02 0080
00000140: 0003 0080 6602 0000 a300 0080 8602 0080
00000150: ee00 0000 8c02 0000 3002 0000 a900 0080
00000160: 2701 0080 d300 0080 1900 0080 2902 0080
00000170: b400 0080 6302 0080 a000 0080 7901 0000
00000180: 8000 0000 6b01 0080 c802 0000 8c01 0000
00000190: b100 0000 fd01 0080 c602 0000 1600 0000
000001a0: c802 0080 ce00 0080 8d02 0080 ba02 0000
000001b0: 2800 0080 4801 0000 bf02 0000 6802 0000
000001c0: 0901 0000 b002 0080 3702 0000 8201 0080
000001d0: ee02 0000 3b02 0000 0702 0080 ff01 0080
000001e0: 2900 0000 1601 0080 3302 0080 3501 0080
000001f0: fe01 0000 8700 0000 0502 0000 5101 0080
00000200: cf01 0000 ba01 0000 e601 0080 1900 0000
00000210: 9b00 0080 7402 0080 ce01 0080 c301 0000
00000220: 3e01 0080 4303 0000 9201 0000 be02 0000
00000230: bb01 0000 0d00 0000 3702 0080 9602 0000
00000240: c401 0000 4d00 0080 8500 0000 bd00 0080
00000250: 8401 0080 3c02 0080 a801 0080 1a02 0080
00000260: a202 0000 5f03 0080 3802 0080 b201 0080
00000270: b100 0000 5702 0080 0802 0000 7800 0000
00000280: 0801 0080 5a02 0080 6101 0000 3a00 0000
00000290: 0700 0080 ba02 0000 a401 0080 e901 0080
000002a0: 5c02 0080 a801 0080 b501 0080 c900 0080
000002b0: 8a02 0000 ce00 0080 8d01 0000 f101 0000
000002c0: 7e00 0000 5601 0000 0900 0080 2f02 0080
000002d0: 9300 0000 c102 0000 ff00 0000 5202 0000
000002e0: 2002 0080 a402 0000 1601 0000 1201 0080
000002f0: 2301 0000 b600 0080 a200 0000 2f00 0000
00000300: 1f01 0000 0500 0000 6801 0080 8801 0000
00000310: 2f02 0080 2502 0000 b500 0080 4500 0080
00000320: 8901 0000 4300 0080 4502 0080 f800 0080
00000330: f501 0000 ea01 0080 f902 0080 0501 0080
00000340: 9302 0000 5502 0080 cb01 0000 4602 0080
00000350: e802 0080 4103 0080 1d00 0000 1d00 0080
00000360: 2c01 0000 e101 0000 3b02 0000 6200 0080
00000370: bb01 0080 ec01 0080 7100 0000 3002 0000
00000380: ae02 0080 8601 0000 3502 0080 8e02 0080
00000390: 7d00 0080 7d02 0000 6e01 0000 0402 0000
000003a0: 4002 0080 4f03 0080 1f01 0080 a802 0000
000003b0: e901 0000 ce02 0000 6102 0080 2b00 0000
000003c0: 5500 0080 6f02 0000 c500 0000 b301 0000
000003d0: 6501 0000 a200 0000 ff00 0000 0b00 0000
000003e0: f201 0080 6602 0000 7801 0000 5e02 0080
000003f0: 5500 0000 6f00 0080 f201 0000 3400 0080

bias f4 [64]
-1.5525755e-09 -3.287e-42 -9.11e-43 -1.299e-42 -4.113e-42 -6.9e-43 1.9094057e-09 7.4e-43
-1.0742e-41 -2.824e-42 -3.551e-42 7.165e-42 -2.563e-42 3.3552645e-09 5.0416377e-10 -3.006e-42
-4.039e-42 1.0423733e-07 -1.785e-42 3.66e-42 5.204e-42 -4.247e-42 -1.57e-42 1.57e-42
1.6725186e-07 2.496e-42 5.8303838e-18 -4.5137605e-10 -2.88e-41 -4.25e-42 1.3509032e-07 1.5927618e-25
2.316e-42 -8.66e-43 -9.5433155e-23 2.581e-42 1.36e-41 -7.623712e-24 -9.690136e-10 -2.1320317e-11
-4.55e-43 -1.188e-42 6.1543062e-12 5.475e-42 -1.541e-42 0.004356795 4.963e-42 -3.293e-42
-4.4422669e-07 -2.662e-42 6.467159e-30 -3.555e-42 3.666e-42 2.5873449e-22 -3.366e-42 -4.4364184e-22
3.7114468e-13 -2.222e-42 -2.979e-42 -6.75e-43 -1.235e-42 -1.485e-42 9.87e-43 6.54e-43
00000000: 6562 d5b0 2a09 0080 8a02 0080 9f03 0080
00000010: 770b 0080 ec01 0080 9f36 0331 1002 0000
00000020: f21d 0080 df07 0080 e609 0080 f913 0000
00000030: 2507 0080 7092 6631 5f95 0a30 6108 0080
00000040: 420b 0080 14d9 df33 fa04 0080 340a 0000
00000050: 820e 0000 d70b 0080 6004 0080 6004 0000
00000060: d795 3334 f506 0000 6b1a d722 8825 f8af
00000070: 4850 0080 d90b 0080 580d 1134 a32c 4516
00000080: 7506 0000 6a02 0080 43be e69a 3207 0000
00000090: e925 0000 cb76 1399 232e 85b0 1689 bbad
000000a0: 4501 0080 5003 0080 1089 d82c 430f 0000
000000b0: 4c04 0080 72c3 8e3b d60d 0000 2e09 0080
000000c0: 0d7e eeb4 6c07 0080 692b 030f e909 0080
000000d0: 380a 0000 3965 9c1b 6209 0080 2015 069c
000000e0: 96ef d02a 3206 0080 4e08 0080 e201 0080
000000f0: 7103 0080 2404 0080 c002 0000 d301 0000

weight f4 [64]
1.23e-43 4.16e-43 -5.9e-43 -4.33e-43 5.37e-43 -6.7e-43 -5.02e-43 -3.76e-43
5.3e-44 3.8e-43 4.51e-43 6.18e-43 1.16e-43 5.84e-43 5.56e-43 -3.49e-43
2.45e-43 1.05e-43 2.5e-43 -4.65e-43 3.49e-43 -1.12e-43 6.24e-43 6.22e-43
1.78e-43 6.9e-43 7e-44 1.22e-43 4.43e-43 6.73e-43 -3.3e-43 5.93e-43
3.36e-43 3.62e-43 -1.049854e-33 1.7210148e-22 -3.81e-43 4.01e-43 3.6e-44 -1.39e-43
1.6e-43 1.85e-43 6.95e-43 -6.73e-43 5.72e-43 0.2350773 5e-44 3.01e-43
1.5812302e-15 2.3e-43 5.97e-43 2.28e-43 1.63e-43 4.43e-43 4.0713e-41 2.4660364e-08
-2.3127793e-32 4.62e-43 -3.97e-43 -6.54e-43 -5.86e-43 2.69e-43 -4.72e-43 6.57e-43
00000000: 5800 0000 2901 0000 a501 0080 3501 0080
00000010: 7f01 0000 de01 0080 6601 0080 0c01 0080
00000020: 2600 0000 0f01 0000 4201 0000 b901 0000
00000030: 5300 0000 a101 0000 8d01 0000 f900 0080
00000040: af00 0000 4b00 0000 b200 0000 4c01 0080
00000050: f900 0000 5000 0080 bd01 0000 bc01 0000
00000060: 7f00 0000 ec01 0000 3200 0000 5700 0000
00000070: 3c01 0000 e001 0000 eb00 0080 a701 0000
00000080: f000 0000 0201 0000 da6f ae88 d40e 501b
00000090: 1001 0080 1e01 0000 1a00 0000 6300 0080
000000a0: 7200 0000 8400 0000 f001 0000 e001 0080
000000b0: 9801 0000 1bb8 703e 2400 0000 d700 0000
000000c0: 19e1 e326 a400 0000 aa01 0000 a300 0000
000000d0: 7400 0000 3c01 0000 7e71 0000 b7d4 d332
000000e0: 382c f08a 4a01 0000 1b01 0080 d301 0080
000000f0: a201 0080 c000 0000 5101 0080 d501 0000

bias f4 [64]
-4.107e-42 -1.8958396e-36 -3.971e-42 -1.8496803e-36 -1.8472497e-36 -1.637e-42 -1.8531698e-36 -1.8548334e-36
-1.264e-41 -1.8249e-41 -1.8485745e-36 -2.968e-42 -1.8672655e-36 -1.3534e-41 -9e-44 -1.847923e-36
-1.8614643e-36 -1.1505e-41 -5.9914e-41 -2.0518e-41 -8.37e-43 -1.673e-41 -1.086e-42 -1.8512201e-36
-1.8438715e-36 -1.8528358e-36 -4.795e-42 -1.8512483e-36 -1.8467195e-36 -9.131e-42 -1.851259e-36 -3.915e-42
-1.8575603e-36 -1.861e-42 -1.384e-42 -2.1780953e-35 -1.8492356e-36 -2.342e-42 -7.067e-42 -1.8492496e-36
-2.9402e-41 -2.441e-41 -1.8468757e-36 -4.97e-42 -1.8585598e-36 0.40443355 -9.839e-42 -4.9149e-41
-1.8839342e-18 -1.8496133e-36 -2.1537e-41 -1.848326e-36 -1.8613649e-36 -1.8501834e-36 -1.4735353e-36 -7.909939e-11
-1.4219e-41 -3.5775e-41 -1.852166e-36 -1.181e-42 -1.8559478e-36 -1.8626196e-36 -1.8563737e-36 -6.4876e-41
00000000: 730b 0080 bb47 2184 120b 0080 785a 1d84
00000010: 8925 1d84 9004 0080 77a6 1d84 b2ca 1d84
00000020: 3c23 0080 df32 0080 6342 1d84 4608 0080
00000030: 71d9 1e84 ba25 0080 4000 0080 3334 1d84
00000040: 1a5b 1e84 1220 0080 04a7 0080 3239 0080
00000050: 5502 0080 a32e 0080 0703 0080 017c 1d84
00000060: f7db 1c84 319f 1d84 5e0d 0080 9e7c 1d84
00000070: fd19 1d84 7419 0080 da7c 1d84 ea0a 0080
00000080: 1506 1e84 3005 0080 dc03 0080 659d e785
00000090: c950 1d84 8706 0080 b313 0080 1751 1d84
000000a0: f651 0080 0c44 0080 641d 1d84 db0d 0080
000000b0: d91b 1e84 ea11 cf3e 6d1b 0080 0289 0080
000000c0: 8302 0ba2 0359 1d84 093c 0080 fa3c 1d84
000000d0: f058 1e84 6d65 1d84 84b5 fa83 fff0 adae
000000e0: a327 0080 ba63 0080 9b90 1d84 4b03 0080
000000f0: f7e2 1d84 4374 1e84 3dec 1d84 d9b4 0080

running_mean f4 [64]
-1.5525747e-09 1.0333e-41 2.976e-42 3.5193592e-09 -3.0100125e-07 -1.927e-42 2.8107403e-09 -1.8478265e-06
-6.140976e-08 -1.1360853e-22 -1.5679925e-10 2.0693615e-19 2.9863946e-05 -7.611737e-08 5.06661e-10 1.3817332e-09
-9.181545e-15 1.1995853e-05 3.734086e-06 -4.0820287e-05 -3.5560955e-15 -6.943e-42 4.3948393e-07 2.07893e-39
-2.3610497e-07 5.7594577e-15 -1.0487296e-08 -4.5137574e-10 -9.118855e-12 3.441524e-23 1.3509022e-07 1.5927608e-25
-3.1786802e-14 1.1597822e-06 -2.186718e-08 3.273895e-08 -2.6707276e-09 8.990819e-09 2.7226299e-05 -4.6409245e-05
-2.1149712e-07 -1.2175032e-17 -9.513873e-07 -4.0597253e-21 3.3257086e-10 -0.4436669 7.6137236e-13 -1.4570144e-06
-8.597497e-08 -5.751e-42 1.4954475e-05 -1.3780388e-05 -1.3418117e-08 8.066224e-22 -1.9611879e-07 6.8772846e-05
-6.505327e-10 -3.291e-41 -0.00020950394 -9.433494e-05 -0.00027444295 3.1074e-41 -1.7105965e-06 3.3296757e-07
00000000: 5e62 d5b0 ce1c 0000 4c08 0000 39d9 7131
00000010: 4c99 a1b4 5f05 0080 1127 4131 d602 f8b5
00000020: 5fe0 83b3 2358 099b 1167 2caf 9d4e 7420
00000030: 5684 fa37 f775 a3b3 1945 0b30 6ae7 bd30
00000040: 6766 25a8 cc41 4937 1c97 7a36 7336 2bb8
00000050: 311f 80a7 5b13 0080 36f2 eb34 36a3 1600
00000060: 0a84 7db4 9f81 cf27 9e2b 34b2 7d25 f8af
00000070: ac6b 20ad 016c 261a 510d 1134 9b2c 4516
00000080: b027 0fa9 d0a9 9b35 70d6 bbb2 db9c 0c33
00000090: f087 37b1 0a76 1a32 0864 e437 8ca7 42b8
000000a0: e317 63b4 f796 60a3 d662 7fb5 415f 999d
000000b0: 30d5 b62f 4f28 e3be a94e 562b a28e c3b5
000000c0: 3da1 b8b3 0810 0080 fbe4 7a37 5132 67b7
000000d0: 8185 66b2 63c9 731c b994 52b4 243a 9038
000000e0: 2bd1 32b0 bd5b 0080 49ae 5bb9 afd5 c5b8
000000f0: 1ce3 8fb9 9f56 0000 a697 e5b5 b7c2 b234

running_var f4 [64]
6e-45 6e-45 6e-45 4.9312905e-32 8.079435e-28 6e-45 1.9725183e-31 1.2927096e-26
5.049647e-29 6e-45 6e-45 6e-45 6e-45 5.049647e-29 3.08206e-33 1.232824e-32
7.2e-43 8.273341e-25 5.1708384e-26 1.3237346e-23 6e-45 6e-45 6e-45 6e-45
2.0198588e-28 1.88e-43 7.890073e-31 3.08206e-33 6e-45 6e-45 6e-45 6e-45
1.1482e-41 1.2927096e-26 3.1560293e-30 1.2624117e-29 1.9725183e-31 6e-45 2.9784018e-23 1.3237346e-23
2.0198588e-28 6e-45 1.2927096e-26 6e-45 6e-45 0.0023934974 2.6453497e-38 1.2927096e-26
1.968624e-13 6e-45 3.3093366e-24 8.273341e-25 6e-45 6e-45 2.0198588e-28 5.2615204e-13
1.232824e-32 6e-45 1.9061753e-21 6e-45 8.471893e-22 6e-45 1.2927082e-26 8.079435e-28
00000000: 0400 0000 0400 0000 0400 0000 0c06 800b
00000010: 1506 8012 0400 0000 1506 800c 1506 8014
00000020: 1506 8010 0400 0000 0400 0000 0400 0000
00000030: 0400 0000 1506 8010 1506 8009 1506 800a
00000040: 0202 0000 1506 8017 1506 8015 1506 8019
00000050: 0400 0000 0400 0000 0400 0000 0400 0000
00000060: 1506 8011 8600 0000 1506 800d 1506 8009
00000070: 0400 0000 0400 0000 0400 0000 0400 0000
00000080: 0220 0000 1506 8014 1506 800e 1506 800f
00000090: 1506 800c 0400 0000 d406 101a 1506 8019
000000a0: 1506 8011 0400 0000 1506 8014 0400 0000
000000b0: 0400 0000 39dc 1c3b cb06 1001 1506 8014
000000c0: b9a5 5d2a 0400 0000 1506 8018 1506 8017
000000d0: 0400 0000 0400 0000 1506 8011 4019 142b
000000e0: 1506 800a 0400 0000 cb06 101d 0400 0000
000000f0: 0c06 801c 0400 0000 0c06 8014 1506 8012

weight f4 [64, 67, 3, 3]
-0.012003083 -0.012042199 -0.011989167 -0.0055340677 -0.0055340724 -0.005534047 0.0092083365 0.009221605
0.009218288 -0.03189084 -0.020992849 0.033726826 -0.031844698 -0.020992853 0.033812165 -0.031807646
-0.020992866 0.033811122 -0.0025765128 -0.0027311672 -0.0022784309 -0.0033514178 -0.0027917046 -0.002280237
-0.0033818844 -0.0026907597 -0.0023325149 7.52e-43 7.78e-43 5.7e-43 -8.45e-43 1.7e-43
-7.12e-43 7.37e-43 -4.04e-43 1.51e-43 5.86e-43 -1.135e-42 -6.2e-43 3e-45
7.45e-43 2.34e-43 -1.092e-42 -3.6e-44 8.86e-43 1.86e-43 7.83e-43 8.73e-43
-8.62e-43 1.02e-43 6.9e-44 -5.41e-43 -7.52e-43 4.65e-43 -5.09e-43 -1.159e-42
-6.32e-43 8.62e-43 -2.09e-43 9.37e-43 2.55e-43 -5.2e-43 -1.2e-43 -7.06e-43
-5.5e-44 3.5e-44 -1.08e-43 3.85e-43 -5.28e-43 -8.21e-43 6.21e-43 -7.37e-43
4.62e-43 3.87e-43 -3.56e-43 1.317e-42 -6.6e-44 3.83e-43 8.74e-43 1.159e-42
-9e-43 -1.28e-43 -3.76e-43 -4.9e-43 -1.43e-43 -3.62e-43 7.31e-43 9.46e-43
2.93e-43 2.51e-43 5.47e-43 7.51e-43 -8.4e-44 1.553e-42 -1.06e-42 -2.03e-43
7.3e-43 -1.617e-42 1.174e-42 9e-43 1.96e-43 8.69e-43 1.47e-43 3.63e-43
-8.81e-43 7.7e-44 -8.5e-44 -9e-44 1.84e-43 -1.68e-43 3.42e-43 -7.22e-43
-3.66e-43 5.7e-44 6.25e-43 1.045e-42 -4.8e-44 8.67e-43 -5.56e-43 -6.84e-43
-6.14e-43 -1.271e-42 1.623e-42 -1.14e-43 1.099e-42 -1.093e-42 7.67e-43 8.42e-43
7.51e-43 -2.09e-43 -4.55e-43 -4.13e-43 -5.82e-43 2.34e-43 -2.91e-43 2.2e-44
-5.37e-43 -9.77e-43 1.53e-43 5.9e-44 2e-44 -1.44e-43 1.01e-43 -3.25e-43
1.443e-42 -4.2e-44 -2.45e-43 -1.651e-42 5.25e-43 6.61e-43 9.32e-43 -3.5e-44
-5.44e-43 -3.8e-44 7.82e-43 -1.25e-43 -6.56e-43 -8.3e-44 7.64e-43 4.9e-43
3.4e-44 -8.24e-43 -1.39e-43 4.89e-43 3.45e-43 -9.67e-43 1.23e-43 3.27e-43
-8.37e-43 -8.21e-43 3.8e-43 1.06e-42 -5.56e-43 2.2e-43 -2.112e-42 -1.623e-42
-1.101e-42 -2.35e-43 -2.37e-43 1.394e-42 -1.99e-43 -6.14e-43 -5.6e-43 4.18e-43
-5.32e-43 1.82e-43 4.22e-43 -7.72e-43 9.2e-43 3e-44 -9.8e-44 2.31e-43
-2.8e-44 -3.36e-43 1.066e-42 -1.006e-42 -7.71e-43 5.86e-43 1.01e-43 5.35e-43
6.74e-43 -1.88e-43 4.2e-43 7.1e-44 -5.32e-43 9.57e-43 8.88e-43 5.42e-43
-1e-45 5.04e-43 5.94e-43 -1.082e-42 -9.11e-43 -1.155e-42 -8.72e-43 -2.17e-43
3.05e-43 -3.9e-44 1.86e-42 -1.597e-42 -8.53e-43 2.33e-43 -1.037e-42 1.169e-42
4.85e-43 -1.9e-43 -5.21e-43 8.58e-43 1.295e-42 -8.41e-43 5.23e-43 -1.969e-42
1.313e-42 4.61e-43 -3e-43 -8.76e-43 8.46e-43 1.368e-42 -1.466e-42 2e-43
2.97e-43 2.63e-43 1.7e-43 8e-43 -2.23e-43 -4.12e-43 1.111e-42 4.2e-43
-1.092e-42 3.46e-43 -2.8e-44 2.42e-43 -7.71e-43 -6.08e-43 6.7e-43 1.33e-43
00000000: 94a8 44bc a54c 45bc 366e 44bc 2057 b5bb
00000010: 2a57 b5bb f356 b5bb 90de 163c 3716 173c
00000020: 4d08 173c f89f 02bd 32f9 abbc 2425 0a3d
00000030: 966f 02bd 34f9 abbc a07e 0a3d bc48 02bd
00000040: 3bf9 abbc 887d 0a3d b6da 28bb 62fd 32bb
00000050: ba51 15bb 76a3 5bbb 08f5 36bb 0770 15bb
00000060: 9ba2 5dbb 7557 30bb 1bdd 18bb 1902 0000
00000070: 2b02 0000 9701 0000 5b02 0080 7900 0000
00000080: fc01 0080 0e02 0000 2001 0080 6c00 0000
00000090: a201 0000 2a03 0080 ba01 0080 0200 0000
000000a0: 1402 0000 a700 0000 0b03 0080 1a00 0080
000000b0: 7802 0000 8500 0000 2f02 0000 6f02 0000
000000c0: 6702 0080 4900 0000 3100 0000 8201 0080
000000d0: 1902 0080 4c01 0000 6b01 0080 3b03 0080
000000e0: c301 0080 6702 0000 9500 0080 9d02 0000
000000f0: b600 0000 7301 0080 5600 0080 f801 0080
00000100: 2700 0080 1900 0000 4d00 0080 1301 0000
00000110: 7901 0080 4a02 0080 bb01 0000 0e02 0080
00000120: 4a01 0000 1401 0000 fe00 0080 ac03 0000
00000130: 2f00 0080 1101 0000 7002 0000 3b03 0000
00000140: 8202 0080 5b00 0080 0c01 0080 5e01 0080
00000150: 6600 0080 0201 0080 0a02 0000 a302 0000
00000160: d100 0000 b300 0000 8601 0000 1802 0000
00000170: 3c00 0080 5404 0000 f402 0080 9100 0080
00000180: 0902 0000 8204 0080 4603 0000 8202 0000
00000190: 8c00 0000 6c02 0000 6900 0000 0301 0000
000001a0: 7502 0080 3700 0000 3d00 0080 4000 0080
000001b0: 8300 0000 7800 0080 f400 0000 0302 0080
000001c0: 0501 0080 2900 0000 be01 0000 ea02 0000
000001d0: 2200 0080 6b02 0000 8d01 0080 e801 0080
000001e0: b601 0080 8b03 0080 8604 0000 5100 0080
000001f0: 1003 0000 0c03 0080 2302 0000 5902 0000
00000200: 1802 0000 9500 0080 4501 0080 2701 0080
00000210: 9f01 0080 a700 0000 d000 0080 1000 0000
00000220: 7f01 0080 b902 0080 6d00 0000 2a00 0000
00000230: 0e00 0000 6700 0080 4800 0000 e800 0080
00000240: 0604 0000 1e00 0080 af00 0080 9a04 0080
00000250: 7701 0000 d801 0000 9902 0000 1900 0080
00000260: 8401 0080 1b00 0080 2e02 0000 5900 0080
00000270: d401 0080 3b00 0080 2102 0000 5e01 0000
00000280: 1800 0000 4c02 0080 6300 0080 5d01 0000
00000290: f600 0000 b202 0080 5800 0000 e900 0000
000002a0: 5502 0080 4a02 0080 0f01 0000 f402 0000
000002b0: 8d01 0080 9d00 0000 e305 0080 8604 0080
000002c0: 1203 0080 a800 0080 a900 0080 e303 0000
000002d0: 8e00 0080 b601 0080 9001 0080 2a01 0000
000002e0: 7c01 0080 8200 0000 2d01 0000 2702 0080
000002f0: 9102 0000 1500 0000 4600 0080 a500 0000
00000300: 1400 0080 f000 0080 f902 0000 ce02 0080
00000310: 2602 0080 a201 0000 4800 0000 7e01 0000
00000320: e101 0000 8600 0080 2c01 0000 3300 0000
00000330: 7c01 0080 ab02 0000 7a02 0000 8301 0000
00000340: 0100 0080 6801 0000 a801 0000 0403 0080
00000350: 8a02 0080 3803 0080 6e02 0080 9b00 0080
00000360: da00 0000 1c00 0080 2f05 0000 7404 0080
00000370: 6102 0080 a600 0000 e402 0080 4203 0000
00000380: 5a01 0000 8800 0080 7401 0080 6402 0000
00000390: 9c03 0000 5802 0080 7501 0000 7d05 0080
000003a0: a903 0000 4901 0000 d600 0080 7102 0080
000003b0: 5c02 0000 d003 0000 1604 0080 8f00 0000
000003c0: d400 0000 bc00 0000 7900 0000 3b02 0000
000003d0: 9f00 0080 2601 0080 1903 0000 2c01 0000
000003e0: 0b03 0080 f700 0000 1400 0080 ad00 0000
000003f0: 2602 0080 b201 0080 de01 0000 5f00 0000

bias f4 [64]
-0.0036915133 0.00069841155 -0.03548734 -0.00011346368 -0.0017002121 0.002175235 -0.00040678398 0.0044054533
-0.0014832548 -3.4445814e-06 -0.004077642 0.0063983696 0.012474823 -0.0027561514 -0.0026384317 0.0013359857
-0.0016833576 -0.0018283761 2.6498734e-05 -0.042552736 -0.0010516599 -0.0070562875 -3.1794032e-06 -0.000950354
-0.0049075997 -0.00019912494 -0.001094983 0.011291255 0.00040222655 0.0003778404 0.0025441356 -0.0003195714
-0.0010838023 0.0016506459 0.000876182 -0.014794961 0.00905515 -0.002743776 -0.00035994005 -0.0014748408
1.4391412e-05 0.0013470615 0.0014910001 -0.00070564577 -0.007874377 0.0010684078 0.0016403913 0.0011116135
0.0034910133 0.00031698702 0.0032957536 0.0030573602 -0.0007169259 0.0071430556 0.017563093 0.003269116
0.0028055862 -0.00010532666 0.004402727 -2.5347703e-05 0.0015249699 -0.0015185594 0.000978438 0.005648531
00000000: 51ed 71bb 9b15 373a 2c5b 11bd 59f3 edb8
00000010: a7d9 deba 638e 0e3b 9f45 d5b9 9f5b 903b
00000020: c669 c2ba 7529 67b6 be9d 85bb 6aa9 d13b
00000030: 3363 4c3c 8ca0 34bb 8ae9 2cbb 3e1c af3a
00000040: 1ca4 dcba 1fa6 efba 9949 de37 c74b 2ebd
00000050: dad7 89ba 6e38 e7bb bb5d 55b6 2d21 79ba
00000060: eecf a0bb 32cc 50b9 8885 8fba f5fe 383c
00000070: efe1 d239 e118 c639 83bb 263b 268c a7b9
00000080: 5f0e 8eba 7c5a d83a 94af 653a 9066 72bc
00000090: 0d5c 143c ecd0 33bb 56b6 bcb9 724f c1ba
000000a0: a572 7137 e28f b03a a96d c33a 16fb 38ba
000000b0: 8803 01bc d109 8c3a 6602 d73a 8fb3 913a
000000c0: 7cc9 643b 4731 a639 92fd 573b fe5d 483b
000000d0: 15f0 3bba 4b10 ea3b 7ae0 8f3c aa3e 563b
000000e0: eddd 373b d2e2 dcb8 c044 903b c7a1 d4b7
000000f0: 80e1 c73a 660a c7ba ee3e 803a 5017 b93b

weight f4 [64]
0.075417735 0.0390204 0.21168564 -0.0003955168 0.088277735 0.047052212 0.032828435 0.08441491
0.06577095 -2.4708534e-05 0.08601648 0.05827726 0.085774995 0.08285024 0.060686663 0.0832903
0.07026973 0.071935214 0.0007946505 0.23213242 0.06471855 0.09594304 0.00011429466 0.06531898
0.075345255 0.06336152 0.0909438 0.12462281 0.065536655 0.094657846 0.08042817 0.0490353
0.032255817 0.059308328 0.06930229 0.10006142 0.079934016 0.11505039 0.012785946 0.08003878
0.03774248 0.04925188 0.07654428 0.074327506 0.10747765 0.06813724 0.051733933 0.054486144
0.07886052 0.064973906 0.09059493 0.04500402 0.072332546 0.11396387 0.13249171 0.057034858
0.08175226 0.026065081 0.0811686 0.040014926 0.059879787 0.072737485 0.08161737 0.11188596
00000000: 9d74 9a3d dbd3 1f3d 1fc4 583e 5e5d cfb9
00000010: f5ca b43d d2b9 403d 1c77 063d b9e1 ac3d
00000020: ebb2 863d 2c45 cfb7 6929 b03d 23b4 6e3d
00000030: cdaa af3d 63ad a93d 9492 783d 1b94 aa3d
00000040: 94e9 8f3d c552 933d 1850 503a 1fb4 6d3e
00000050: 298b 843d c97d c43d 7ab1 ef38 f5c5 853d
00000060: 9d4e 9a3d afc3 813d be40 ba3d 3e3a ff3d
00000070: 1538 863d f9db c13d 86b7 a43d 3dd9 483d
00000080: ad1e 043d 4aed 723d 5cee 8d3d 00ed cc3d
00000090: 72b4 a33d 8a9f eb3d 257c 513c 5feb a33d
000000a0: dc97 1a3d 57bc 493d 3fc3 9c3d 0539 983d
000000b0: 3e1d dc3d 8a8b 8b3d f6e6 533d dd2c 5f3d
000000c0: a081 a13d 0a11 853d d689 b93d 2356 383d
000000d0: 1623 943d e465 e93d e8ab 073e 629d 693d
000000e0: bb6d a73d 7086 d53c b93b a63d b1e6 233d
000000f0: 8244 753d 64f7 943d 0227 a73d 7724 e53d

bias f4 [64]
0.12464367 0.05646219 0.26502192 0.06235641 0.12546504 0.06671873 0.045282096 0.12201761
0.10247007 -9.046407e-05 0.13362618 0.08794097 0.103297524 0.12400029 0.09108344 0.1387238
0.107195534 0.12304011 -0.0016048201 0.26758793 0.1370578 0.1536095 -0.00020693617 0.101044744
0.09675165 0.09575657 0.116548516 0.12321299 0.09634591 0.14833982 0.1402498 0.07481378
0.049882576 0.06444909 0.10757802 0.18592396 0.1178894 0.16291663 0.017092405 0.13589013
0.055040583 0.07872571 0.11551631 0.107425526 0.16005756 0.10561038 0.073055655 0.12980689
0.11999228 0.12908469 0.14405487 0.070603184 0.14140889 0.18259965 0.2030301 0.08618735
0.12543245 0.03993276 0.121704765 0.056526236 0.09340494 0.11242687 0.11325873 0.15806404
00000000: 2e45 ff3d e644 673d f4b0 873e 6f69 7f3d
00000010: e879 003e d4a3 883d b879 393d 5ee4 f93d
00000020: d4db d13d 87b7 bdb8 4dd5 083e 651a b43d
00000030: a78d d33d ddf3 fd3d f489 ba3d 9d0d 0e3e
00000040: 5589 db3d 74fc fb3d d458 d2ba 4901 893e
00000050: e158 0c3e cf4b 1d3e 01fd 58b9 8cf0 ce3d
00000060: bb25 c63d 051c c43d fdb0 ee3d 1857 fc3d
00000070: 0151 c53d 65e6 173e a59d 0f3e f837 993d
00000080: ac51 4c3d e2fd 833d dd51 dc3d da62 3e3e
00000090: ff6f f13d 9ed3 263e 5f05 8c3c c826 0b3e
000000a0: 3c72 613d f23a a13d d193 ec3d ea01 dc3d
000000b0: 21e6 233e 414a d83d 349e 953d 19ec 043e
000000c0: 83be f53d c72e 043e 1f83 133e 6798 903d
000000d0: 7ecd 103e 67fb 3a3e 1fe7 4f3e fe82 b03d
000000e0: 5d71 003e 8990 233d 5940 f93d 0e88 673d
000000f0: 174b bf3d 0f40 e63d 31f4 e73d 8adb 213e

running_mean f4 [64]
0.44721395 0.26105574 0.0392099 0.015560473 0.2267107 0.26714715 0.21982875 0.1939382
0.1859041 0.072508454 0.18951008 0.2483931 0.46500853 0.14994785 0.25656712 0.3625705
0.23977605 0.1623544 0.13507058 -0.009530802 0.21815442 0.35587385 0.016875543 0.12316912
0.27426273 0.18185501 0.37190354 0.3387463 0.20334174 0.18922554 0.4198548 0.18561885
0.17320167 0.33084068 0.37139246 0.32368326 0.32405195 0.1690206 0.19177562 0.17820504
0.2462777 0.23874606 0.1953934 0.20519812 0.17085347 0.3582413 0.23613465 0.24362926
0.3391197 0.4241759 0.40287486 0.31851533 0.2570664 0.39229923 0.53741425 0.24192993
0.20339824 0.26920062 0.20661339 0.2695667 0.33764496 0.28551662 0.31532666 0.44988877
00000000: 3af9 e43e 19a9 853e 8f9a 203d 5bf1 7e3c
00000010: da26 683e 83c7 883e ca1a 613e bc97 463e
00000020: a55d 3e3e 507f 943d ee0e 423e c35a 7e3e
00000030: 9915 ee3e ee8b 193e c45c 833e d7a2 b93e
00000040: da87 753e 3b40 263e f14f 0a3e 1527 1cbc
00000050: df63 5f3e 1935 b63e 943e 8a3c 1740 fc3d
00000060: 2a6c 8c3e 3338 3a3e 246a be3e 2870 ad3e
00000070: d138 503e 57c4 413e 35f7 d63e de12 3e3e
00000080: c75b 313e f363 a93e 2727 be3e d0b9 a53e
00000090: 23ea a53e bc13 2d3e d460 443e 627b 363e
000000a0: 3930 7c3e d979 743e 3515 483e 751f 523e
000000b0: 36f4 2e3e 676b b73e 48cd 713e f379 793e
000000c0: 19a1 ad3e 952d d93e 9d45 ce3e 7114 a33e
000000d0: 359e 833e 72db c83e fb93 093f 7bbc 773e
000000e0: a147 503e aad4 893e 7692 533e a604 8a3e
000000f0: cddf ac3e 3c2f 923e 7f72 a13e d257 e63e

running_var f4 [64]
0.0076776748 0.0011989804 0.0012813297 0.030144662 0.0013860487 0.0014490602 0.012086893 0.0021761232
0.0013154567 0.002507632 0.00097038876 0.0019512316 0.000993648 0.0023448907 0.0009082788 0.007516302
0.00054679136 0.00066845224 0.0025724233 0.00086948863 0.0138492035 0.009605547 0.028675754 0.0021466927
0.00071429287 0.0022157787 0.0076993397 0.0017760805 0.001738097 0.0018338688 0.0067710048 0.002404049
0.00036418907 0.00091493496 0.010056733 0.0074440064 0.0014092238 0.00044649292 0.00076338666 0.00029277915
0.0053567085 0.0004519991 0.0013521976 0.00044900455 0.0004542162 0.010333718 0.0027742458 0.016774643
0.0006265883 0.012203306 0.0059685023 0.00049781654 0.02233562 0.0102438675 0.003833004 0.0022906212
0.0019194229 0.0052684187 0.00232873 0.0011471858 0.0017655316 0.008304978 0.0007736805 0.0070986985
00000000: 0195 fb3b 1b27 9d3a 4af2 a73a f0f1 f63c
00000010: 14ac b53a 64ee bd3a 1b08 463c 4a9d 0e3b
00000020: 676b ac3a 1557 243b b061 7e3a 78c0 ff3a
00000030: 4b3d 823a bdac 193b 8f19 6e3a 504b f63b
00000040: 8c56 0f3a 123b 2f3a 1a96 283b 65ee 633a
00000050: c5e7 623c 9660 1d3c 6ae9 ea3c 87af 0c3b
00000060: 623f 3b3a 9936 113b be4a fc3b 5fcb e83a
00000070: dcd0 e33a 6d5e f03a 4edf dd3b 408d 1d3b
00000080: a1f0 be39 3fd8 6f3a ffc4 243c daec f33b
00000090: b4b5 b83a 4417 ea39 031e 483a 2780 9939
000000a0: 5487 af3b 4bfa ec39 393c b13a 5f68 eb39
000000b0: de23 ee39 c14e 293c 1fd0 353b fa6a 893c
000000c0: a141 243a 60f0 473c 6d93 c33b e77f 023a
000000d0: 31f9 b63c e5d5 273c 2333 7b3b 3f1e 163b
000000e0: 2595 fb3a b3a2 ac3b 9b9d 183b 2b5d 963a
000000f0: 6969 e73a 9a11 083c d2d0 4a3a 339c e83b
