SND_trackers_My_data/9X0_file/4_9X0_coordconv_Label_Vh5.pt (torch, 327805 bytes, 25 tensors)

weight f4 [32, 9, 3, 3]
-0.021866078 -0.037953343 -0.008695443 0.041153405 -0.022595037 0.024172226 0.046428222 -0.073969156
0.036673333 0.044254173 -0.075245336 0.0051284977 -0.05206481 0.055191394 0.049241204 -0.076509945
0.07066573 -0.008416154 -0.0123273125 0.012505419 -0.017963016 -0.015131457 0.002523892 0.014824465
0.00023072927 0.043497298 -0.010178067 0.03277002 -0.006146019 0.020681536 -0.0073482743 -0.008527778
-0.009054782 -0.0064751157 -0.0032319452 -0.009705125 0.019767858 -0.017140374 -0.073271826 0.03579293
-0.06923683 0.041599255 -0.039040394 0.039578054 -0.0023679705 0.037383284 0.040292077 -0.024711696
0.040378038 -0.11363783 0.06384041 0.03586745 0.058404163 -0.05453833 -0.006426151 -0.047825567
-0.032570973 0.07315464 -0.015297993 0.021719784 -0.0071811886 0.055900026 0.020283775 -0.01685083
-0.06468986 -0.052401125 -0.07446369 -0.08156909 -0.072536655 -0.07378463 -0.07607847 -0.0677075
0.13901377 -0.06986996 0.06352312 -0.058136642 -0.046223618 0.054635204 0.013761438 0.008747139
-0.036599033 0.0051729595 -0.0024869898 -0.01507937 0.0064705024 0.0058030784 -0.015491489 -0.008844911
0.025520243 0.024160637 -0.003468565 0.007140561 -0.0039645224 -0.0015910022 -0.00065331924 0.0020901053
0.0013388747 -0.0016994849 0.002809386 -0.021043887 -0.017030274 -0.0181983 -0.020849353 -0.013594195
-0.0103857415 -0.021265632 -0.013217622 -0.0100558475 -0.0017242264 -0.0018238008 -0.0012112203 0.0044802884
0.0036316277 -0.0019038719 -0.0035373475 -0.0038962972 -7.370701e-05 0.0039240182 -0.020148456 0.005462618
-0.027818602 -0.030488119 0.06221355 0.043038674 -0.0220623 -0.014252165 -0.018874826 0.025280438
-0.0030847609 -0.014177834 -0.0037866437 0.033189014 0.070003346 -0.018930165 -0.009456061 -0.014154816
-0.013531461 -0.01874587 -0.008617132 -0.00683448 0.0047816513 0.020024147 0.07255511 -0.007383039
-0.013397894 -0.015663413 -0.0014247936 -0.011293546 -0.004035061 -0.002421199 0.044021294 0.0073918765
0.025623417 0.025396377 0.003970542 -0.0135053275 0.036648564 -0.0047793402 -0.011573191 0.046314545
0.025656862 0.018434985 0.018913237 -0.04879947 -0.02715924 0.048132487 -0.0016416288 0.0036263263
0.009540706 -0.026379475 0.00077790895 -0.0040593576 0.008807284 0.038959976 0.00849339 -0.03025152
-0.019195247 0.018486686 0.04352283 0.016821088 0.024960209 0.02943604 0.03459412 0.02486364
0.0338223 0.026737053 0.042533476 0.034263525 0.015135448 0.0027988988 0.0091719935 0.0012566072
0.0031452104 0.0060992553 0.0041782497 0.0017188074 0.0027386474 0.010313816 0.03965898 0.05853974
-0.022049055 0.07566641 0.013392935 -0.0053419713 0.04524385 0.010124084 0.07512893 0.053381085
0.00796054 -0.011553853 0.05656706 0.0872394 0.0328334 0.012728517 0.03127146 0.020654801
0.01300762 -0.008435555 0.023254337 0.06839577 0.01313226 0.026197713 0.0701727 -0.02196798
0.065691076 0.006242869 0.01438056 0.05599117 0.016805472 0.019184992 0.024981514 0.043048542
0.008277431 0.048305836 0.07505502 0.10450807 0.018097065 0.003995282 0.05441639 0.112007655
0.1063766 0.084208176 0.043162886 -0.09119853 0.065651126 -0.0071662543 -0.02744465 0.08263798
-0.041440405 0.06472686 0.018259048 -0.07079481 -0.027812129 0.053401645 0.09734749 0.02057139
00000000: 7d20 b3bc f774 1bbd 5577 0ebc 7990 283d
00000010: 3a19 b9bc d504 c63c 852b 3e3d 247d 97bd
00000020: c736 163d dd43 353d 3a1a 9abd f50c a83b
00000030: e941 55bd 5f10 623d 25b1 493d 3fb1 9cbd
00000040: 32b9 903d e9e3 09bc 7ff8 49bc 87e3 4c3c
00000050: 2d27 93bc eee9 77bc e267 253b 50e2 723c
00000060: ebef 7139 392a 323d e8c1 26bc db39 063d
00000070: 8b64 c9bb 536c a93c cbc9 f0bb 18b8 0bbc
00000080: 825a 14bc 352d d4bb 0bcf 53bb 3f02 1fbc
00000090: 34f0 a13c f869 8cbc 8a0f 96bd 9b9b 123d
000000a0: 0acc 8dbd fb63 2a3d d2e8 1fbd 991c 223d
000000b0: f42f 1bbb 371f 193d 4e09 253d 2f70 cabc
000000c0: 7163 253d f3ba e8bd c3be 823d bfe9 123d
000000d0: 3439 6f3d 9563 5fbd 7692 d2bb bee4 43bd
000000e0: 2469 05bd 1ad2 953d 6fa4 7abc b0ed b13c
000000f0: 2d50 ebbb 6df7 643d 292a a63c c00a 8abc
00000100: 1e7c 84bd 90a2 56bd 6b80 98bd b20d a7bd
00000110: 198e 94bd 651c 97bd 07cf 9bbd 3baa 8abd
00000120: a059 0e3e fb17 8fbd 6918 823d b020 6ebd
00000130: fa54 3dbd 2ac9 5f3d a877 613c 2950 0f3c
00000140: dee8 15bd ee81 a93b c4fc 22bb 760f 77bc
00000150: 8206 d43b c027 be3b 04d0 7dbc 3fea 10bc
00000160: d40f d13c 87ec c53c dd50 63bb 5efb e93b
00000170: d3e8 81bb 2d89 d0ba 8343 2bba 26fa 083b
00000180: 2e7d af3a 40c1 deba ad1d 383b 3b64 acbc
00000190: 1383 8bbc 9a14 95bc 43cc aabc 30ba 5ebc
000001a0: f528 2abc 4335 aebc ba8e 58bc 48c1 24bc
000001b0: 70ff e1ba 9a0c efba cfc1 9eba 62cf 923b
000001c0: 9a00 6e3b 578b f9ba d8d2 67bb 0559 7fbb
000001d0: 2693 9ab8 0d95 803b 600e a5bc c3ff b23b
000001e0: d6e3 e3bc 38c2 f9bc a3d3 7e3d 5249 303d
000001f0: ffbb b4bc ea81 69bc 619f 9abc ec18 cf3c
00000200: b329 4abb 254a 68bc 5729 78bb 34f1 073d
00000210: ea5d 8f3d 6f13 9bbc 98ed 1abc 9ae9 67bc
00000220: 10b3 5dbc f090 99bc df2e 0dbc c6f3 dfbb
00000230: 66af 9c3b ae09 a43c c697 943d 6ced f1bb
00000240: d782 5bbc 8f50 80bc 24c0 baba 9108 39bc
00000250: 8c38 84bb fbac 1ebb ac4f 343d 8e37 f23b
00000260: 33e8 d13c 100c d03c 521b 823b 7345 5dbc
00000270: ce1c 163d 039c 9cbb 7b9d 3dbc 52b4 3d3d
00000280: 572e d23c f704 973c efef 9a3c f4e1 47bd
00000290: 0e7d debc 9226 453d ec2b d7ba a9a7 6d3b
000002a0: 9f50 1c3c c519 d8bc 96ec 4b3a 5c04 85bb
000002b0: 6d4c 103c 7f94 1f3d dc27 0b3c 09d2 f7bc
000002c0: 5a3f 9dbc 6471 973c ff44 323d 61cc 893c
000002d0: 5a79 cc3c da23 f13c 90b2 0d3d d5ae cb3c
000002e0: 4189 0a3d aa07 db3c 9537 2e3d e957 0c3d
000002f0: acfa 773c bb6d 373b 2146 163c beb4 a43a
00000300: e01f 4e3b 43dc c73b b3e9 883b 9b49 e13a
00000310: e17a 333b 48fb 283c 7471 223d 5ec7 6f3d
00000320: 38a0 b4bc fef6 9a3d 0a6e 5b3c b40b afbb
00000330: 9e51 393d 7cdf 253c 32dd 993d 20a6 5a3d
00000340: ed6c 023c 5f4c 3dbc ddb2 673d 92aa b23d
00000350: 517c 063d 458b 503c 8116 003d 4234 a93c
00000360: ea1d 553c 4835 0abc e17f be3c 1513 8c3d
00000370: b128 573c 969c d63c b4b6 8f3d 31f6 b3bc
00000380: 0b89 863d fb90 cc3b 719c 6b3c ff56 653d
00000390: a1ab 893c d829 9d3c 08a6 cc3c ab53 303d
000003a0: 109e 073c 57dc 453d 72b6 993d 5408 d63d
000003b0: 4c40 943c dbea 823b b8e3 5e3d 4564 e53d
000003c0: fadb d93d 5675 ac3d 91cb 303d 4bc6 babd
000003d0: 1974 863d e6d2 eabb 9ad3 e0bc 1a3e a93d
000003e0: 6abd 29bd 848f 843d 0094 953c dffc 90bd
000003f0: 43d6 e3bc afbb 5a3d 1f5e c73d 5585 a83c

bias f4 [32]
-7.8262246e-07 1.432748e-07 1.4524016e-08 2.2648892e-07 -2.2499048e-06 -1.3154786e-07 -4.205334e-08 1.6339169e-06
3.5066027e-08 1.7158243e-07 -3.294386e-07 2.206648e-07 -2.5464763e-08 1.7547242e-06 -4.729178e-08 -9.547434e-07
-4.709944e-07 -3.1012237e-07 8.2092036e-08 1.5370761e-06 -2.232517e-08 -1.028798e-07 7.498349e-07 -3.0276432e-09
3.0302814e-07 -1.4826506e-06 -4.3665736e-06 9.9296855e-08 -5.17687e-07 -1.6744093e-07 -6.43877e-10 -4.7517513e-08
00000000: 6815 52b5 14d7 1934 4c85 7932 cd30 7334
00000010: 12fd 16b6 9a3f 0db4 239e 34b3 f54c db35
00000020: 819b 1633 383c 3834 b2dd b0b4 e1ef 6c34
00000030: 9bbd dab2 dd83 eb35 dd1d 4bb3 bc24 80b5
00000040: fadc fcb4 e57e a6b4 934a b033 884d ce35
00000050: 91c5 bfb2 c5ee dcb3 4348 4935 dd0e 50b1
00000060: dfaf a234 7dff c6b5 9584 92b6 063d d533
00000070: 2ef7 0ab5 d0c9 33b4 d1fc 30b0 0f16 4cb3

weight f4 [32]
0.5468956 0.29870373 0.6580817 0.6281238 0.49228984 0.29418162 0.44534013 0.5871399
0.43364063 0.34298152 0.349479 0.5435097 0.3091006 0.643288 0.30142283 0.5544789
0.29553378 0.34536377 0.5777492 0.47928432 0.28011566 0.6181719 0.4649671 0.3837886
0.39741015 0.44758812 0.51717675 0.4356094 0.62355703 0.36125863 0.54423857 0.2944254
00000000: 5a01 0c3f b2ef 983e 0b78 283f b9cc 203f
00000010: 6a0d fc3e f99e 963e 9f03 e43e cd4e 163f
00000020: 2506 de3e 469b af3e e9ee b23e 7423 0b3f
00000030: 6f42 9e3e 86ae 243f 1854 9a3e 54f2 0d3f
00000040: 3450 973e 85d3 b03e 5fe7 133f c164 f53e
00000050: 526b 8f3e 8340 1e3f 2b10 ee3e f07f c43e
00000060: 5879 cb3e 452a e53e b265 043f 3208 df3e
00000070: 6fa1 1f3f e4f6 b83e 3853 0b3f edbe 963e

bias f4 [32]
-0.00051203306 -0.0889392 -0.27547988 0.015537531 0.0054930313 -0.06325631 -0.22073638 -0.0003525523
0.016773961 -0.004857172 -0.0065482184 -0.21969733 0.0015459401 0.022103537 0.0008604063 -0.019332448
0.0012844538 -0.09241556 0.0032915515 -0.0061596404 -0.014546646 -0.24055922 -0.010324106 -0.16412646
0.015059415 -0.00026743367 -0.009677764 -0.0954747 -0.00973696 -0.030161005 -0.23253985 -0.01879428
00000000: f539 06ba c125 b6bd b30b 8dbe 2191 7e3c
00000010: e3fe b33b 868c 81bd b808 62be c5d6 b8b9
00000020: 8c69 893c e928 9fbb 7092 d6bb 56f8 60be
00000030: 24a1 ca3a 7a12 b53c e48c 613a 155f 9ebc
00000040: 1e5b a83a 5e44 bdbd 12b7 573b cfd6 c9bb
00000050: 0e55 6ebc 2855 76be 7026 29bc c410 28be
00000060: c4bb 763c 5736 8cb9 7c8f 1ebc 3d88 c3bd
00000070: c587 1fbc 3614 f7bc ed1e 6ebe 76f6 99bc

running_mean f4 [32]
0.0055911248 -0.07249353 0.16525503 -0.00085750356 0.013750774 -0.020951211 0.1356446 5.9864662e-05
0.011755174 0.018364582 0.0091346605 0.10178934 0.0052598054 0.014286876 0.0014300734 0.020034745
-0.0015160767 -0.09348769 0.0066799573 0.012085786 -0.006752043 0.13250446 -0.0050383783 0.053090658
0.007875771 0.011656926 -0.00894805 -0.116338536 0.023112353 -0.0039225374 0.09698012 -0.02318801
00000000: c135 b73b 7d77 94bd 9d38 293e 17ca 60ba
00000010: ed4a 613c e0a1 abbc 6be6 0a3e 3117 7b38
00000020: c698 403c 5271 963c 8ba9 153c ee76 d03d
00000030: 725a ac3b 8013 6a3c 4d71 bb3a e81f a43c
00000040: 18b7 c6ba 7976 bfbd 8be3 da3b 7603 463c
00000050: 3e40 ddbb 40af 073e fb18 a5bb 9775 593d
00000060: 6109 013c b1fc 3e3c d89a 12bc e642 eebd
00000070: 1e56 bd3c a188 80bb 839d c63d c8f4 bdbc

running_var f4 [32]
0.07315887 0.032524116 0.33626845 0.023487704 0.015958278 0.034636587 0.1067261 0.08338207
0.029221056 0.019668559 0.033824533 0.25343266 0.02816146 0.024754327 0.026340814 0.08482188
0.027956458 0.0689748 0.03443553 0.07475197 0.04603634 0.30469042 0.054087207 0.103838235
0.029149218 0.014115525 0.07227874 0.114868045 0.08077895 0.03745219 0.24973837 0.03845331
00000000: 51d4 953d 0238 053d 612b ac3e 4969 c03c
00000010: efba 823c 18df 0d3d 3793 da3d 38c4 aa3d
00000020: ff60 ef3c f51f a13c 988b 0a3d edc1 813e
00000030: ddb2 e63c 96c9 ca3c b1c8 d73c 18b7 ad3d
00000040: f104 e53c a942 8d3d 450c 0d3d 9017 993d
00000050: 9a90 3c3d 6200 9c3e 8c8a 5d3d 24a9 d43d
00000060: 57ca ee3c ce44 673c e006 943d f03f eb3d
00000070: 6f6f a53d 7867 193d 6abb 7f3e 3881 1d3d

weight f4 [32, 35, 3, 3]
-0.01619166 0.015482112 -0.007637246 0.02757499 0.0035989217 -0.013671812 0.02865282 -0.015502366
0.019983666 0.0024914553 0.007872305 -0.017458716 0.014734391 0.010437597 0.013530652 -0.019610886
-0.018908072 0.0014242955 -0.000852473 -0.0052455887 -0.004475109 -0.0043026577 -0.00531484 -0.0037730355
-7.793613e-05 -0.0032791307 -0.003759652 0.017315343 -0.0018981093 0.010501221 0.016004758 0.017322555
0.0235361 0.017915295 0.023580825 0.020237578 0.006624911 -0.01284979 -0.027427666 -0.022158705
-0.028109863 -0.0072209393 -0.0056664967 -0.0001457016 0.010415922 0.009471539 -0.034579568 -0.024868289
-0.029128991 -0.08726796 -0.045539245 -0.05073447 -0.050268095 -0.022812326 -0.011419648 0.009669269
0.006607843 0.011431099 0.030009357 0.020748815 0.03192248 0.04614563 0.024814589 -0.008921678
0.029276432 0.007729051 0.031743005 0.022822903 -0.020603882 0.033670105 0.010918422 -0.018653618
0.0075777853 0.0185154 0.005410038 0.025968036 -0.025226211 -0.0091558965 0.0042494484 -0.041192055
0.015697375 0.011877926 -0.040045276 -0.001978359 -0.01359688 -0.05038747 -0.028431585 -0.019660551
-0.041410975 -0.0070198854 0.02137974 0.019250588 0.0034587686 0.03303518 0.016156796 0.03279654
0.048148576 0.01120016 0.022815946 -0.029647676 0.010316523 -0.014365234 0.0162869 0.010022032
-0.009607271 0.03281555 0.03190482 0.013716715 -0.0022837182 -0.010139122 -0.02499628 0.0018312061
-0.0077494145 0.009840933 0.03139789 0.0071292357 -0.00087197335 -0.008974286 -0.00101622 -0.01464787
-0.008057127 0.011183754 0.010762211 0.0026070876 0.024087537 0.015829358 0.013927193 -0.010290888
-0.015326682 -0.023691026 -0.08218003 -0.025462614 -0.014748036 -0.06981742 0.008936372 0.003924491
-0.010006602 0.013807522 0.006126174 0.0005578609 -0.012061389 0.018223835 -0.0013064661 0.008749283
-0.011886865 0.040343508 0.026678134 0.04623804 0.01800038 -0.0067216307 0.038899794 0.004953561
-0.0026591192 0.011809147 -0.009998433 0.0016359775 0.0014767218 -0.004087248 -0.017420541 -0.0069537195
-0.00013923986 0.0033887504 0.016322918 0.010588814 0.00084068044 0.007895665 -0.0052063637 0.032594193
0.017469592 0.015072459 0.008245705 -0.001934186 0.017562276 0.0011869083 -0.00808175 -0.0010023698
0.00297682 0.01583267 -0.007020599 0.006865674 0.02308697 -0.003692904 -0.009278661 -0.013370803
-0.045307588 -0.0041601337 -0.014328561 -0.042443383 0.0016342612 -0.011895593 0.02277022 0.029217357
0.035924688 0.028725049 0.0068592266 0.01843006 0.013136865 0.01944718 0.016235484 0.015045171
-0.011374747 -0.015328659 -0.017225921 -0.012739949 0.0043875035 0.018718451 0.023662265 -0.0019371845
-0.01346511 -0.011097707 0.0005282434 -0.0148507 0.00024771123 0.018802265 -0.008220379 0.0042828466
-0.007757792 -0.039824475 -0.029248023 -0.033950068 -0.064349234 -0.035966747 -0.040720385 -0.055409297
-0.023672523 0.0009766454 0.013332423 -0.011823659 -0.011389057 -0.007311664 0.01773706 0.018525664
0.0027833532 0.016829686 0.007840033 -0.014097875 -0.006663159 -0.024324866 -0.052932404 -0.012453995
-0.020702496 -0.019079644 0.0024329768 0.011064689 0.019734578 -0.0047256947 0.00031946978 0.014751332
0.010550938 0.026596254 -0.01314174 -0.0029686422 -0.023904346 0.017652063 0.033979133 0.020360947
00000000: 5fa4 84bc afa8 7d3c dd41 fabb f2e4 e13c
00000010: e3db 6b3b bcff 5fbc 52b9 ea3c a3fd 7dbc
00000020: c9b4 a33c af47 233b d7fa 003c 9505 8fbc
00000030: 8468 713c 7402 2b3c abaf 5d3c 02a7 a0bc
00000040: 1ae5 9abc 6daf ba3a 7f78 5fba 30e3 abbb
00000050: efa3 92bb 4ffd 8cbb 1c28 aebb 0845 77bb
00000060: a471 a3b8 afe6 56bb 7e64 76bb e8d8 8d3c
00000070: fbc9 f8ba 500d 2c3c 691c 833c 08e8 8d3c
00000080: c7ce c03c 19c3 923c 932c c13c 47c9 a53c
00000090: c815 d93b ed87 52bc fcaf e0bc 2c86 b5bc
000000a0: a846 e6bc a19d ecbb 05ae b9bb 7ac7 18b9
000000b0: 8ba7 2a3c 842e 1b3c 4ea3 0dbd 95b8 cbbc
000000c0: ec9f eebc 8bb9 b2bd 5c87 3abd f3ce 4fbd
000000d0: ebe5 4dbd eae0 babc 7a19 3bbc db6b 1e3c
000000e0: 9b86 d83b 8149 3b3c 2fd6 f53c 6bf9 a93c
000000f0: 25c1 023d 3303 3d3d f747 cb3c 3b2c 12bc
00000100: 21d5 ef3c fb43 fd3b f404 023d 19f7 ba3c
00000110: 79c9 a8bc aae9 093d 2ee3 323c 79cf 98bc
00000120: 124f f83b 9cad 973c b046 b13b ebba d43c
00000130: 33a7 cebc 9d02 16bc f53e 8b3b 00b9 28bd
00000140: c897 803c a29b 423c 8406 24bd 5ba7 01bb
00000150: 73c5 5ebc 1763 4ebd 5be9 e8bc 2a0f a1bc
00000160: 8e9e 29bd 1107 e6bb 9124 af3c 69b3 9d3c
00000170: 82ac 623b e64f 073d 425b 843c aa55 063d
00000180: 7137 453d e080 373c 82e8 ba3c afdf f2bc
00000190: a206 293c 295c 6bbc 1b6c 853c 7333 243c
000001a0: d167 1dbc 9969 063d a1ae 023d 13bc 603c
000001b0: 6faa 15bb 8f1e 26bc 00c5 ccbc 1505 f03a
000001c0: cdee fdbb dd3b 213c 139b 003d 5d9c e93b
000001d0: 2495 64ba e208 13bc af32 85ba 9ffd 6fbc
000001e0: 0a02 04bc 103c 373c fc53 303c acdb 2a3b
000001f0: 3a53 c53c 92ac 813c e22e 643c 1d9b 28bc
00000200: c31c 7bbc af13 c2bc 014e a8bd f996 d0bc
00000210: bfa1 71bc 6ffc 8ebd dc69 123c 0499 803b
00000220: bbf2 23bc f238 623c 12be c83b 693d 123a
00000230: 229d 45bc 274a 953c ba3d abba 2759 0f3c
00000240: 20c1 42bc 3c3f 253d 1a8c da3c 1964 3d3d
00000250: 8875 933c 2041 dcbb 6455 1f3d 7b51 a23b
00000260: 9e44 2ebb 277b 413c 78d0 23bc 4c6e d63a
00000270: 908e c13a 52ee 85bb 86b5 8ebc 07dc e3bb
00000280: ea00 12b9 cc15 5e3b a4b7 853c b47c 2d3c
00000290: 1c61 5c3a d25c 013c 259a aabb 7d81 053d
000002a0: 641c 8f3c 7af2 763c fe18 073c 8384 fdba
000002b0: c3de 8f3c 0992 9b3a 5169 04bc f361 83ba
000002c0: c116 433b 84b3 813c 0e0d e6bb 73f9 e03b
000002d0: e320 bd3c a604 72bb 8605 18bc 3611 5bbc
000002e0: 7394 39bd bb51 88bb 57c2 6abc 1dd9 2dbd
000002f0: b534 d63a bce5 42bc 9d88 ba3c 3d59 ef3c
00000300: c425 133d cb50 eb3c 5dc3 e03b a3fa 963c
00000310: 013c 573c b14f 9f3c 4700 853c 0580 763c
00000320: 265d 3abc 0e25 7bbc 601d 8dbc 38bb 50bc
00000330: 0cc5 8f3b 7057 993c 5ed7 c13c 20e9 fdba
00000340: c49c 5cbc 28d3 35bc d179 0a3a 5a50 73bc
00000350: 3ddf 8139 3507 9a3c c5ae 06bc 1f57 8c3b
00000360: 1335 febb fd1e 23bd 8d99 efbc 3a0f 0bbd
00000370: 88c9 83bd de51 13bd 6bca 26bd dcf4 62bd
00000380: e1ec c1bc c802 803a 3c70 5a3c 05b8 41bc
00000390: 2b99 3abc af96 efbb 504d 913c 22c3 973c
000003a0: eb68 363b 69de 893c 7b73 003c c6fa 66bc
000003b0: a156 dabb f144 c7bc a6cf 58bd d70b 4cbc
000003c0: 4898 a9bc ea4c 9cbc 9472 1f3b ab48 353c
000003d0: 69aa a13c 00da 9abb 827e a739 92af 713c
000003e0: d7dd 2c3c 63e0 d93c 7450 57bc 8d8d 42bb
000003f0: 0cd3 c3bc 0f9b 903c b42d 0b3d 00cc a63c

bias f4 [32]
5.521384e-07 4.9140738e-08 -3.731548e-09 4.1531347e-08 -1.256051e-07 4.0770196e-09 -1.2438778e-07 -1.7085684e-08
-2.0556396e-07 -1.756946e-06 8.0292466e-08 -3.6583074e-07 4.0263732e-08 5.400124e-07 -2.5054607e-08 -9.598266e-07
-8.72195e-09 -2.0973393e-07 2.5442317e-09 8.4526604e-08 1.11297894e-07 -1.04384156e-07 7.6990425e-08 -6.072349e-08
5.096769e-06 3.246368e-07 -5.810425e-08 3.1709497e-08 -4.177509e-07 -7.579847e-06 1.7687519e-08 -2.513834e-07
00000000: a936 1435 d00e 5333 0b37 80b1 3360 3233
00000010: 11de 06b4 d815 8c31 748f 05b4 d1c3 92b2
00000020: feb8 5cb4 34d0 ebb5 406d ac33 6567 c4b4
00000030: 71ee 2c33 5ff5 1035 aa37 d7b2 64d3 80b5
00000040: 8bd7 15b2 3933 61b4 99d6 2e31 fe84 b533
00000050: aa02 ef33 cc29 e0b3 ef55 a533 1767 82b3
00000060: ea04 ab36 be49 ae34 4c8e 79b3 f630 0833
00000070: 3f47 e0b4 6456 feb6 44ef 9732 dff5 86b4

weight f4 [32]
0.4913677 0.4303616 0.51713854 0.28557605 0.33259776 0.33530423 0.39127028 0.38560146
0.46913806 0.5141764 0.2650811 0.37620983 0.390874 0.44032872 0.43240067 0.54058474
0.36050358 0.46334153 0.34197265 0.3560939 0.40872553 0.36143458 0.43278092 0.45513427
0.36312863 0.43027624 0.2635416 0.31569812 0.41792697 0.6376959 0.40877798 0.44250408
00000000: 8c94 fb3e 5b58 dc3e 3163 043f 0637 923e
00000010: 414a aa3e ffac ab3e 9454 c83e 8e6d c53e
00000020: dd32 f03e 11a1 033f b6b8 873e 939e c03e
00000030: a320 c83e c472 e13e 9f63 dd3e c363 0a3f
00000040: ed93 b83e 1a3b ed3e 0a17 af3e f151 b63e
00000050: 7944 d13e f40d b93e 7695 dd3e 5c07 e93e
00000060: ffeb b93e 2b4d dc3e edee 863e 2fa3 a13e
00000070: 86fa d53e 0a40 233f 594b d13e e58f e23e

bias f4 [32]
0.05683746 -0.034044873 0.04802988 -0.0411888 0.045773618 -0.027310358 0.049271133 -0.07034211
0.08480543 0.07384578 0.0032561363 0.010738186 -0.12642902 -0.05666464 -0.06475864 0.054396138
-0.09066941 0.043945476 -0.109232016 0.008261405 -0.067760654 0.03309125 -0.09853313 -0.0914057
0.022754544 0.03210647 -0.033262808 -0.07737932 0.03334134 0.15507959 -0.080232404 0.071898974
00000000: 65ce 683d a372 0bbd fbba 443d 96b5 28bd
00000010: 1e7d 3b3d f9b9 dfbc 87d0 493d 860f 90bd
00000020: 78ae ad3d 753c 973d e764 553b 37ef 2f3c
00000030: 9c76 01be 2e19 68bd 2ea0 84bd 7cce 5e3d
00000040: e2b0 b9bd 2c00 343d 09b5 dfbd d85a 073c
00000050: 19c6 8abd b18a 073d bdcb c9bd e932 bbbd
00000060: bd67 ba3c 1382 033d 953e 08bd 0d79 9ebd
00000070: ee90 083d 2fcd 1e3e e350 a4bd c53f 933d

running_mean f4 [32]
0.020745054 0.03722978 0.07491343 0.020617425 0.02119204 -0.0032346111 0.06671513 0.09234661
0.03598417 0.033261944 0.04839242 0.03502962 0.11160609 0.08415469 0.085521 0.08733851
0.05696476 0.08090133 0.03263288 0.07752625 0.0853971 0.07742499 -0.018687721 -0.0068829465
0.05659633 0.07350243 -0.009835894 0.048394036 0.044701904 0.04643406 0.10981357 0.009422523
00000000: 88f1 a93c 417e 183d 366c 993d e0e5 a83c
00000010: ee9a ad3c c5fb 53bb f1a1 883d 3820 bd3d
00000020: 2364 133d ad3d 083d 2137 463d 387b 0f3d
00000030: bc91 e43d 4b59 ac3d a225 af3d 88de b23d
00000040: e153 693d 99af a53d 0eaa 053d 15c6 9e3d
00000050: ade4 ae3d fe90 9e3d fe16 99bc 578a e1bb
00000060: 8ed1 673d 7188 963d bb26 21bc d338 463d
00000070: 5819 373d a431 3e3d f0e5 e03d ed60 1a3c

running_var f4 [32]
0.062017173 0.36955246 0.06334287 0.10241661 0.04169661 0.051175248 0.048596326 0.3451249
0.18640003 0.061625596 0.25125685 0.04986601 0.16472748 0.17985132 0.5092621 0.06588773
0.048659064 0.05439807 0.06305851 0.041811306 0.22851169 0.088140175 0.059201296 0.06138724
0.043640062 0.058896784 0.00563085 0.052836582 0.057767775 0.068097554 0.3138082 0.3084962
00000000: b805 7e3d fb35 bd3e e8b9 813d cdbf d13d
00000010: 11ca 2a3d 239d 513d f10c 473d 36b4 b03e
00000020: a6df 3e3e 1f6b 7c3d bda4 803e 4d40 4c3d
00000030: 52ae 283e f22a 383e 005f 023f 25f0 863d
00000040: ba4e 473d 83d0 5e3d d224 813d 5542 2b3d
00000050: f8fe 693e d682 b43d 0f7d 723d 3071 7b3d
00000060: ecbf 323d c13d 713d fe82 b83b 2c6b 583d
00000070: e79d 6c3d bb76 8b3d 78ab a03e 37f3 9d3e

weight f4 [64, 35, 3, 3]
-0.0015793223 -0.0015949989 -0.0015595326 -0.001548265 -0.0014678806 -0.0014868866 -0.0014519553 -0.0015912043
-0.0015207813 0.00043800852 0.00051548734 0.00050805433 0.00048829475 0.00048095395 0.0005567394 0.0005639929
0.00047433286 0.00056015106 0.002370925 0.0024398859 0.0025105523 0.0022682124 0.0023100441 0.0023534345
0.0021870479 0.0021976887 0.0022343197 -0.004181447 -9.180925e-05 -0.00077277684 0.0017289411 -0.0045105964
-0.004506454 0.004425015 -0.00022158372 -0.0006957538 -0.012268297 -0.007278101 -0.0056939553 0.011149143
0.014126246 0.013807984 0.016594907 0.0029082682 -0.00298731 -0.0071532964 -0.0042797476 -0.0030714388
-0.0012655683 -0.003951831 -0.0034912587 -0.00079667184 -0.008963876 -0.0055574104 -0.002178053 0.0004924842
-0.0016295568 -0.00647281 -0.0077957017 -0.0068478384 0.015622201 0.011561458 -0.0002695772 0.004106746
0.0037105472 0.0025828145 0.0037774106 -0.0048304056 -0.00039478895 0.009510359 0.0049359286 0.007012511
-0.009175036 -0.0058587147 -0.006454238 0.024863353 0.019793527 0.011671919 0.003243606 0.004253786
-0.0033055479 -0.00711098 -0.0023053528 -0.0041325456 -0.00034941084 -0.005425047 -0.0037132895 0.0032839563
-0.00037185216 -0.00243039 -0.010313494 -0.007983394 -0.010379845 0.010392701 0.0074656215 -0.0038781436
0.010728645 0.0064769927 -0.0005942621 0.0016519435 0.001778705 0.00027117413 -0.001487575 -0.0005292472
0.00077375694 0.003241262 -0.0018539429 -0.00086776447 -0.0024445185 0.003630502 0.005807535 0.022004172
0.019310702 -0.002360076 0.02866962 0.018942652 0.018081 -0.0068501825 -0.006557598 -0.006673074
0.0013822113 -0.0019677696 -0.007137954 0.011205201 0.008370412 0.00085979153 -0.0070042415 -0.0041020135
-0.0071999785 0.01240814 0.00797659 0.0035906525 0.0072431043 0.0038896836 -0.0006512573 -0.0044242684
-0.0054366207 -0.0066352976 0.0126946485 0.008366461 0.004240876 0.022733841 0.011818574 0.006156124
-0.011004787 -0.010243044 -0.011965854 0.012544923 0.010829465 -0.0010860533 0.004223786 -0.0038182838
-0.0074494574 -0.009911459 -0.010246202 -0.011575209 0.0036500173 0.00371193 -0.005480344 0.00960271
0.0058721765 -0.0019137221 -0.0038833541 -0.0030139312 -0.00037685694 0.0032982158 -0.005210711 -0.0045123245
0.005478011 -0.0022878614 -0.0032436496 7.559617e-05 0.0010336218 -0.0010035556 0.0035080684 0.00064681686
-0.00091410655 0.010827618 0.011515149 0.0021418862 -0.005773654 -0.004479064 -0.0036898393 -0.0017694342
-0.010661957 -0.0060514673 0.001413787 -0.0071495124 -0.0042715603 -0.009704088 -0.010891564 -0.006002747
0.013596419 0.014312673 0.018283397 0.010278069 -0.0005863149 0.005570582 -0.008914822 -0.008286489
-0.007870914 0.009751078 0.006425212 -0.0010600555 0.0009993389 -0.0008357651 -0.0043126447 -0.0120538995
-0.00981546 -0.013539332 0.006157777 0.0030389854 -0.0063707363 0.004113227 -0.0023063207 -0.0065763555
-0.0042710337 -0.003938259 -0.0074376096 0.007844832 0.0033042927 -0.0036148578 0.01484317 0.01087681
0.00351032 -0.004542372 -0.011828198 -0.007744485 0.022910738 0.0315067 0.012510455 -0.004683268
-0.007856582 -0.0022525373 -0.006011089 -0.009518265 -0.013451722 0.006968595 0.009431656 0.00024912573
0.0071684713 0.009729229 -0.0032876248 -0.0039823707 -0.0038466621 -0.0064515434 0.006627991 0.0037928452
-0.0031245053 -0.0019347698 -0.0035668514 -0.0016468436 -0.009015549 -0.0055102753 -0.004995583 0.00086066173
00000000: 4301 cfba 480f d1ba 3b69 ccba 27ef caba
00000010: e665 c0ba a3e3 c2ba 894f beba f58f d0ba
00000020: f454 c7ba 82a4 e539 c521 073a f32e 053a
00000030: e800 003a 8c28 fc39 26f2 113a ecd8 133a
00000040: e1af f839 1ad7 123a 8561 1b3b 7ee6 1f3b
00000050: 1488 243b 4aa6 143b 1c64 173b 143c 1a3b
00000060: 9354 0f3b 1907 103b aa6d 123b 8504 89bb
00000070: b789 c0b8 2d94 4aba a39d e23a a0cd 93bb
00000080: e0aa 93bb b7ff 903b ed58 68b9 3f63 36ba
00000090: f800 49bc 237d eebb 5c94 babb e5aa 363c
000000a0: c571 673c e23a 623c 0bf2 873c a598 3e3b
000000b0: bfc6 43bb 3366 eabb 203d 8cbb 314a 49bb
000000c0: 6de1 a5ba 5c7e 81bb 9acd 64bb bed7 50ba
000000d0: 39dd 12bc f01a b6bb aabd 0ebb 0e1a 013a
000000e0: da96 d5ba de19 d4bb 1673 ffbb d563 e0bb
000000f0: 43f4 7f3c 456c 3d3c 0a56 8db9 e291 863b
00000100: a72c 733b 7044 293b 6f8e 773b 6148 9ebb
00000110: adfb ceb9 56d1 1b3c 92bd a13b 35c9 e53b
00000120: e452 16bc 76fa bfbb 137e d3bb 3bae cb3c
00000130: 0926 a23c 943b 3f3c ae92 543b 5863 8b3b
00000140: e4a1 58bb 3903 e9bb 6715 17bb 4e6a 87bb
00000150: 2131 b7b9 98c4 b1bb a95a 73bb a537 573b
00000160: 27f5 c2b9 2e47 1fbb eef9 28bc c8cc 02bc
00000170: 3a10 2abc 2646 2a3c 2ca2 f43b 7428 7ebb
00000180: 33c7 2f3c f43c d43b 41c8 1bba 0786 d83a
00000190: 7023 e93a 602c 8e39 bcfa c2ba 2ebd 0aba
000001a0: f3d5 4a3a 5a6b 543b 0000 f3ba b07a 63ba
000001b0: 3734 20bb b7ed 6d3b 224d be3b 1842 b43c
000001c0: 7a31 9e3c 81ab 1abb 8ddc ea3c 9f2d 9b3c
000001d0: 9b1e 943c 7f77 e0bb 1ee1 d6bb cda9 dabb
000001e0: 512b b53a b2f5 00bb 7fe5 e9bb 0596 373c
000001f0: 0d24 093c a263 613a d683 e5bb 2f6a 86bb
00000200: cced ebbb 834b 4b3c 3eb0 023c 2751 6b3b
00000210: 9057 ed3b 10ea 7e3b 23b9 2aba 74f9 90bb
00000220: ae25 b2bb e96c d9bb 37fd 4f3c 7b13 093c
00000230: 0cf7 8a3b 523c ba3c b1a2 413c 50b9 c93b
00000240: 6c4d 34bc 71d2 27bc 6e0c 44bc 3989 4d3c
00000250: 126e 313c e759 8eba af67 8a3b 2c3c 7abb
00000260: 941a f4bb ac63 22bc b0df 27bc f2a5 3dbc
00000270: 2135 6f3b da43 733b 7594 b3bb af54 1d3c
00000280: 636b c03b dcd5 faba df7f 7ebb 6085 45bb
00000290: e294 c5b9 e126 583b 9dbe aabb 1fdc 93bb
000002a0: e380 b33b f2ef 15bb 6993 54bb 6289 9e38
000002b0: 987a 873a bd89 83ba 9fe7 653b 258f 293a
000002c0: a7a0 6fba 5266 313c 09aa 3c3c e35e 0c3b
000002d0: ec30 bdbb 1dc5 92bb 3bd1 71bb 5cec e7ba
000002e0: 7daf 2ebc 634b c6bb d24e b93a 7546 eabb
000002f0: 72f8 8bbb e5fd 1ebc 8872 32bc b1b2 c4bb
00000300: 84c3 5e3c b47f 6a3c 10c7 953c 5965 283c
00000310: edb2 19ba 6e89 b63b 790f 12bc 0ec4 07bc
00000320: 02f5 00bc fcc2 1f3c 968a d23b 8ff1 8aba
00000330: 40fc 823a 3f17 5bba 1651 8dbb b87d 45bc
00000340: 06d1 20bc 13d4 5dbc 2dc7 c93b b729 473b
00000350: 9cc1 d0bb 40c8 863b a425 17bb 787e d7bb
00000360: 07f4 8bbb 830c 81bb 31b7 f3bb 9c87 003c
00000370: d58c 583b 40e7 6cbb c430 733c a634 323c
00000380: 660d 663b 2ed8 94bb 0fcb 41bc 73c5 fdbb
00000390: 4daf bb3c 2b0d 013d a7f8 4c3c 1976 99bb
000003a0: e5b8 00bc 4e9f 13bb abf8 c4bb 7ff2 1bbc
000003b0: 9d64 5cbc d058 e43b 3c87 1a3c 179d 8239
000003c0: 7fe5 ea3b 5867 1f3c 3175 57bb 8c7e 82bb
000003d0: 4818 7cbb 7867 d3bb 9e2f d93b 6291 783b
000003e0: 80c4 4cbb 1a98 fdba d6c1 69bb e7da d7ba
000003f0: f4b5 13bc 8a8f b4bb fdb1 a3bb 089e 613a

bias f4 [64]
-1.47949155e-08 3.4895194e-08 1.2469901e-07 1.7998834e-09 6.7366837e-09 -2.1786467e-07 -6.327756e-08 7.573455e-08
3.348112e-07 -6.341394e-08 -1.1354754e-06 -1.944068e-08 -1.0921348e-07 -6.5390173e-09 -1.4810203e-07 1.2263286e-08
1.1103246e-08 -5.7326705e-08 -2.2677483e-07 5.801749e-09 3.3908054e-10 2.4040876e-06 -6.43487e-07 -1.4787047e-07
3.555784e-10 2.2964498e-07 3.1195768e-08 -1.5081744e-09 -3.246968e-08 -4.0171155e-08 1.9866178e-07 -5.0645237e-08
8.8100194e-08 -2.1706781e-07 5.1677584e-10 -2.2897519e-08 1.1061895e-08 4.933951e-09 3.9890363e-08 1.5369379e-07
-1.7354574e-07 1.1871774e-06 1.8587948e-09 -2.1292575e-08 4.4065946e-08 1.22667805e-08 5.850945e-07 -5.455276e-09
1.6819283e-07 1.1892778e-07 -7.564634e-09 4.4136698e-07 -9.899027e-08 1.9726589e-07 -7.4537697e-06 -2.5293842e-08
4.6561425e-07 -5.657633e-08 -1.2182734e-07 -7.427274e-08 8.576966e-09 1.0443124e-07 -4.504525e-07 3.98914e-07
00000000: ba2c 7eb2 acdf 1533 01e5 0534 c45f f730
00000010: 7f78 e731 2fee 69b4 35e3 87b3 82a3 a233
00000020: 1ac0 b334 2f2e 88b3 a366 98b5 82fe a6b2
00000030: bf88 eab3 cead e0b1 fa05 1fb4 81ae 5232
00000040: 98c0 3e32 6137 76b3 647f 73b4 b958 c731
00000050: 5869 ba2f e955 2136 17bc 2cb5 53c6 1eb4
00000060: 367b c32f 5594 7634 1cfc 0533 2b48 cfb0
00000070: ca74 0bb3 a788 2cb3 bc4f 5534 0785 59b3
00000080: 9831 bd33 2513 69b4 de0c 0e30 2db0 c4b2
00000090: bb0a 3e32 7e87 a931 eb53 2b33 0707 2534
000000a0: e457 3ab4 1b57 9f35 8778 ff30 dee6 b6b2
000000b0: 0543 3d33 dfbd 5232 630f 1d35 1d71 bbb1
000000c0: 7e98 3434 3d65 ff33 9df5 01b2 04f5 ec34
000000d0: 7a94 d4b3 09d0 5334 651b fab6 bf45 d9b2
000000e0: 89f9 f934 55fe 72b3 a5cf 02b4 df7f 9fb3
000000f0: e559 1332 ae43 e033 b8d5 f1b4 532a d634

weight f4 [64]
0.31573495 0.27624846 0.4984248 0.3304028 0.30951443 0.55643207 0.5072063 0.3323147
0.33466288 0.41473892 0.44155592 0.47420752 0.36437455 0.30288166 0.4110046 0.30362618
0.3049729 0.3679227 0.3761528 0.55571365 0.35753095 0.3769346 0.46268108 0.40756366
0.43820155 0.46896622 0.38290197 0.4605147 0.39278063 0.35899696 0.4663255 0.2759014
0.4213683 0.3308711 0.28225416 0.299886 0.38753536 0.35905495 0.3072715 0.392881
0.39889634 0.52937907 0.2613921 0.40380433 0.3707434 0.2764908 0.3645217 0.36239564
0.40544894 0.30103165 0.29814824 0.5718928 0.3009026 0.2905574 0.45922327 0.33866936
0.46389854 0.2557186 0.4360918 0.46711397 0.37177718 0.41007122 0.45358735 0.34603074
00000000: 03a8 a13e 7070 8d3e 8931 ff3e 8e2a a93e
00000010: ad78 9e3e 5572 0e3f 46d8 013f 2725 aa3e
00000020: ef58 ab3e a958 d43e 9e13 e23e 54cb f23e
00000030: 4d8f ba3e 4e13 9b3e 326f d23e e474 9b3e
00000040: 6825 9c3e 5d60 bc3e 1a97 c03e 4043 0e3f
00000050: 4c0e b73e 92fd c03e 89e4 ec3e 2fac d03e
00000060: f45b e03e 571c f03e ba0b c43e 95c8 eb3e
00000070: 8b1a c93e 73ce b73e 37c2 ee3e f342 8d3e
00000080: 96bd d73e f067 a93e 9e83 903e a88a 993e
00000090: 096b c63e 0dd6 b73e b152 9d3e b327 c93e
000000a0: 243c cc3e 6385 073f 2fd5 853e 71bf ce3e
000000b0: 14d2 bd3e 3490 8d3e 97a2 ba3e ec8b b93e
000000c0: 0197 cf3e d220 9a3e e3a6 983e 9167 123f
000000d0: e80f 9a3e f1c3 943e 501f eb3e 1266 ad3e
000000e0: 1c84 ed3e 8ced 823e 6d47 df3e 9029 ef3e
000000f0: 9459 be3e dbf4 d13e 9a3c e83e f12a b13e

bias f4 [64]
-0.08467085 -0.004189006 0.0033261601 -0.08264491 -0.07173972 0.026755227 -0.0693856 0.08217856
0.012249622 -0.10209724 -0.009673546 0.019578053 -0.094424546 -0.0328459 -0.090784445 0.06236055
-0.076541096 -0.106211804 -0.021153538 0.009228365 -0.09597437 0.030797727 0.015836746 -0.111059055
-0.046239078 -0.0023780307 -0.10727733 -0.093941934 -0.109516576 -0.0900322 -0.06444772 -0.04899833
-0.110447936 -0.09162321 -0.033518992 -0.048561145 -0.10698422 0.07530503 -0.01667949 0.00798605
-0.05385119 0.016326293 -0.05484313 -0.09724665 -0.084511 -0.044736844 0.021597138 -0.09834202
-0.09236365 -0.008739326 -0.07269797 0.004351534 -0.0053993366 0.009875795 -0.048852835 -0.09217823
0.014182753 -0.00176814 0.007015011 -0.014493683 -0.09177634 -0.075137824 -0.033897493 -0.09653542
00000000: e967 adbd ee43 89bb b5fb 593b bc41 a9bd
00000010: 46ec 92bd c72d db3c 0a1a 8ebd 3c4d a83d
00000020: a3b2 483c 5c18 d1bd cb7d 1ebc 2762 a03c
00000030: a861 c1bd 6c89 06bd 32ed b9bd c76d 7f3d
00000040: 94c1 9cbd 9385 d9bd 2f4a adbc 9132 173c
00000050: 368e c4bd 844b fc3c 10bc 813c ee72 e3bd
00000060: 3065 3dbd bcd8 1bbb 37b4 dbbd a164 c0bd
00000070: 3a4a e0bd cd62 b8bd 2bfd 83bd 79b2 48bd
00000080: 8732 e2bd f3a4 bbbd 364b 09bd 0de8 46bd
00000090: 8b1a dbbd 8639 9a3d 6da3 88bc ecd7 023c
000000a0: 1193 5cbd b8be 853c 31a3 60bd 4029 c7bd
000000b0: 1a14 adbd fb3d 37bd 7bec b03c 8a67 c9bd
000000c0: 2729 bdbd 642f 0fbc ace2 94bd 5097 8e3b
000000d0: ebec b0bb 16ce 213c e919 48bd f1c7 bcbd
000000e0: c75e 683c efc0 e7ba 2dde e53b ea76 6dbc
000000f0: 3cf5 bbbd dce1 99bd 19d8 0abd 5db4 c5bd

running_mean f4 [64]
0.032806307 -0.012681652 0.07690556 0.087645814 0.06951941 0.030515708 0.026774375 -0.087707885
0.050421476 0.04878174 0.004863247 0.07252087 0.07075931 -0.020279156 0.0064880867 -0.066539496
0.06924258 0.10656483 0.039800253 0.026114594 0.11016967 -0.030475892 0.017244242 0.06983331
-0.0056737303 0.022964425 0.092241146 0.033201635 0.08696666 0.0794471 0.025159495 0.016139755
0.083218336 0.06478212 -0.009412099 0.020708945 0.08080976 -0.09650167 -0.012347816 0.016829673
0.040698815 0.038468633 0.04978242 0.024315028 0.048813168 0.013950533 0.0129121905 0.11106696
0.027830984 0.0027441187 0.035867613 0.0757509 0.042041697 -0.04356573 0.027047656 0.082014255
0.0035096372 -0.027662681 0.03322979 -0.0027450346 0.05217744 0.029719925 0.012393257 0.07551522
00000000: e85f 063d b4c6 4fbc aa80 9d3d a67f b33d
00000010: 3160 8e3d 14fc f93c ef55 db3c 31a0 b3bd
00000020: c086 4e3d 5dcf 473d df5b 9f3b d285 943d
00000030: 42ea 903d 7920 a6bc 049a d43b dc45 88bd
00000040: 0ecf 8d3d a93e da3d 9705 233d 46ee d53c
00000050: a3a0 e13d 94a8 f9bc cc43 8d3c c404 8f3d
00000060: b3ea b9bb e41f bc3c ede8 bc3d 70fe 073d
00000070: 941b b23d 29b5 a23d 491b ce3c 8537 843c
00000080: 606e aa3d 7dac 843d 3435 1abc cea5 a93c
00000090: 967f a53d aba2 c5bd 7e4e 4abc 62de 893c
000000a0: cdb3 263d 4991 1d3d a7e8 4b3d 4f30 c73c
000000b0: 51f0 473d c790 643c a78d 533c 1377 e33d
000000c0: cefd e33c acd6 333b ebe9 123d 4a23 9b3d
000000d0: ea33 2c3d fb71 32bd 0c93 dd3c 17f7 a73d
000000e0: f101 663b d99c e2bc f61b 083d 0ae6 33bb
000000f0: 03b8 553d 3377 f33c 160d 4b3c b9a7 9a3d

running_var f4 [64]
0.04879501 0.018221892 0.087989554 0.18246526 0.1516619 0.06349694 0.13043882 0.07820647
0.05913845 0.11985572 0.034212474 0.074687384 0.12442889 0.0770109 0.092770986 0.04921721
0.09910942 0.17565751 0.056375112 0.05799251 0.234142 0.024875062 0.03229518 0.123561285
0.079993874 0.03249785 0.13436179 0.1065246 0.1364139 0.15210664 0.093096495 0.0594783
0.16252698 0.09571842 0.020501517 0.056979135 0.1390801 0.093058996 0.060794618 0.036693048
0.08319461 0.0433788 0.0847425 0.088798866 0.09397377 0.023119016 0.04766746 0.19884346
0.11087362 0.014992594 0.052276097 0.0438718 0.024311064 0.01529587 0.068996266 0.17702574
0.038175184 0.008203799 0.052426774 0.07444092 0.10808613 0.07181138 0.054205354 0.09847627
00000000: 47dd 473d 1446 953c de33 b43d 2cd8 3a3e
00000010: 424d 1b3e af0a 823d c191 053e b72a a03d
00000020: 293b 723d ea76 f53d 6122 0c3d b3f5 983d
00000030: 93d4 fe3d e4b7 9d3d b7fe bd3d fc97 493d
00000040: e1f9 ca3d 90df 333e 97e9 663d 8e89 6d3d
00000050: ecc2 6f3e c9c6 cb3c f347 043d b30d fd3d
00000060: d4d3 a33d 771c 053d 2396 093e 9229 da3d
00000070: 16b0 0b3e d8c1 1b3e 60a9 be3d 859f 733d
00000080: 796d 263e 0508 c43d ccf2 a73c f462 693d
00000090: 046b 0e3e b795 be3d c703 793d 734b 163d
000000a0: f061 aa3d f8ad 313d 7a8d ad3d 2edc b53d
000000b0: 5275 c03d 1764 bd3c f43e 433d 9f9d 4b3e
000000c0: b511 e33d 7fa3 753c 761f 563d ebb2 333d
000000d0: ff27 c73c 879b 7a3c ea4d 8d3d 3c46 353e
000000e0: 955d 1c3d 3a69 063c 75bd 563d 7b74 983d
000000f0: 435c dd3d d811 933d 6f06 5e3d edad c93d

weight f4 [64, 67, 3, 3]
-0.010439054 -0.011332848 0.009816303 0.0073256623 0.004357415 0.008193485 0.005930933 -0.004418024
-0.009173746 -0.0003081971 0.0045833536 -0.0063198935 -0.0041470537 0.010002136 0.0007735378 -0.004293633
-0.005089014 -0.007058515 7.746478e-05 -0.0005205809 -0.0012937696 -0.0013315954 -0.0016412825 -0.002294715
-0.0030820826 -0.0026903101 -0.0020545945 0.0019712832 -0.0036059858 0.006720219 0.005000982 0.0026643951
0.005792682 -0.011899863 -0.015484301 -0.0034462991 -0.008140321 -0.01688807 -0.021480331 -0.0069227684
-0.0041287756 -0.004690964 -0.0036775651 -0.009114962 -0.008227972 0.027875405 0.009572108 0.023149958
0.013170492 0.011689718 0.005552174 -0.026683712 -0.02024489 -0.029306259 -0.008796296 -0.005995857
-0.0052191983 -0.007907265 -0.0058229803 0.002936772 -0.007912441 -0.012237265 0.0010694779 -0.008292575
-0.0060370723 -0.004994486 -0.0071989438 -0.0058604735 -0.0035445602 -0.0054707117 -0.00840524 0.0043309964
-0.0164402 -0.019400029 -0.028889747 0.009929067 0.004876269 -0.0030833306 0.0090282 -0.014531065
-0.025407033 -0.040053856 -0.030594144 -0.03756035 -0.022114972 0.0007111288 -0.0065036863 0.013325148
0.036925882 0.034661837 0.017344138 0.013634481 0.012720729 0.011867881 0.007865781 0.003938352
0.003934501 -0.0018023143 -0.006326589 -0.025133347 -0.015874166 -0.007327347 -0.028213458 -0.023699235
-0.0018047001 -0.015423752 -0.024655674 -0.0053798244 -0.022216544 -0.015383837 -0.025689604 -0.024375215
-0.0023629083 -0.0014397232 -0.0022587744 0.025287043 0.02304129 0.023796713 0.024703166 0.02509143
0.04335066 0.0017647094 0.026015395 0.02894015 0.005627737 0.0046015847 0.0157548 0.01600709
0.021173434 0.03601126 0.015817212 0.016130416 0.053155746 0.024347428 0.013762599 -0.013084288
-0.009452999 -0.019370446 -0.0061341375 -0.0004588261 -0.009026061 -0.0020002655 0.0062950025 0.013496291
-0.008063932 -0.007746043 0.004338339 0.009113158 -0.019942982 -0.004243046 -0.008202628 -0.015871042
0.008334062 -0.037314516 -0.02923127 -0.034991216 -0.024493871 -0.009012185 -0.010970404 0.007998574
0.021335782 0.018230356 0.0136411525 0.0104658045 0.010544173 0.0089114895 0.005711646 0.004040174
0.0018793878 -0.0023788817 -0.004099653 -0.0054887575 -0.0014849629 -0.009636728 -0.007058725 -0.004011511
-0.0017191513 0.0065397117 0.00859402 0.017934928 -0.010092824 -0.0076460317 -0.01174225 -0.004753638
-0.0047772396 -0.007894914 -0.00012682822 0.00056119205 0.008043301 -0.035519015 -0.025510913 -0.024351344
-0.012370345 0.0040095556 0.0051261717 0.02008554 0.021806546 0.027341152 -0.004661041 -0.0034897684
0.00011093657 -0.013103214 -0.009355613 -0.012284851 -0.017255392 -0.009139289 -0.0012328668 -0.0059719793
-0.004425172 -0.0073922803 -0.010284432 -0.0056072646 -0.0078121386 0.0007509344 0.007656652 0.010419701
-0.00016512623 0.0019920885 0.0008599508 -0.004502151 -0.010393054 0.000523312 -0.0055528446 -0.019771503
-0.0041194893 -0.0019800677 -0.028716978 -0.025514765 0.00025086605 -0.011360669 -0.011867492 0.034954764
1.8161058e-05 0.011556164 -0.014939441 -0.00824196 -0.0198352 -0.010523921 -0.008729486 -0.008038331
0.013092529 0.014614507 0.013859331 -0.03933245 -0.030039668 -0.032575615 -0.018165441 0.0075127124
0.0062464136 0.014604481 0.028751893 0.03340347 0.0056641935 0.022183299 0.009436404 0.019002013
00000000: 9108 2bbc 69ad 39bc 8fd4 203c 1c0c f03b
00000010: a5c8 8e3b f83d 063c 4658 c23b 12c5 90bb
00000020: 7b4d 16bc 8495 a1b9 f52f 963b 1c17 cfbb
00000030: 02e4 87bb 00e0 233c 3ec7 4a3a 9bb1 8cbb
00000040: bec1 a6bb 1e4b e7bb 9674 a238 9877 08ba
00000050: b493 a9ba ed88 aeba 4d20 d7ba ee62 16bb
00000060: c4fc 49bb ea4f 30bb 60a6 06bb a530 013b
00000070: 6752 6cbb 4835 dc3b 47df a33b 229d 2e3b
00000080: 8ad0 bd3b a5f7 42bc deb1 7dbc 4edb 61bb
00000090: fb5e 05bc da58 8abc 85f7 afbc 64d8 e2bb
000000a0: ae4a 87bb a8b6 99bb 4e03 71bb ec56 15bc
000000b0: 9ece 06bc f65a e43c 55d4 1c3c fba4 bd3c
000000c0: 0cc9 573c 3b86 3f3c 03ef b53b cd97 dabc
000000d0: 9dd8 a5bc ae13 f0bc 571e 10bc e578 c4bb
000000e0: cf05 abbb 798d 01bc b3ce bebb dc76 403b
000000f0: 2fa3 01bc cf7e 48bc b92d 8c3a 95dd 07bc
00000100: a2d2 c5bb c9a8 a3bb 1ee5 ebbb 3709 c0bb
00000110: da4b 68bb a843 b3bb 22b6 09bc 08eb 8d3b
00000120: 99ad 86bc cfec 9ebc 31aa ecbc 87ad 223c
00000130: 1cc9 9f3b b411 4abb 04eb 133c b413 6ebc
00000140: 6922 d0bc 830f 24bd 92a0 fabc e2d8 19bd
00000150: 752a b5bc 0c6b 3a3a e01c d5bb b951 5a3c
00000160: 983f 173d 92f9 0d3d 4b15 8e3c 2863 5f3c
00000170: 9b6a 503c 8071 423c 7adf 003c 4b0d 813b
00000180: fdec 803b a23b ecba 464f cfbb 73e4 cdbc
00000190: 8a0a 82bc 3e1a f0bb e91f e7bc e624 c2bc
000001a0: b08b ecba e8b3 7cbc b2fa c9bc 3d49 b0bb
000001b0: 78ff b5bc 7d0c 7cbc 0173 d2bc 88ae c7bc
000001c0: 06db 1abb 18b5 bcba f207 14bb c626 cf3c
000001d0: 16c1 bc3c 53f1 c23c 4b5e ca3c 8b8c cd3c
000001e0: 7690 313d d24d e73a 3d1e d53c e513 ed3c
000001f0: e168 b83b e4c8 963b 3610 813c 4d21 833c
00000200: e973 ad3c 8b80 133d 1993 813c ef23 843c
00000210: d7b9 593d 4274 c73c 867c 613c 7b5f 56bc
00000220: c0e0 1abc c5ae 9ebc e000 c9bb 998e f0b9
00000230: 0be2 13bc e316 03bb 4f46 ce3b 8c1f 5d3c
00000240: 951e 04bc 85d2 fdbb a028 8e3b 5b4f 153c
00000250: 775f a3bc 4009 8bbb 5164 06bc fd03 82bc
00000260: 978b 083c 1bd7 18bd 6b76 efbc f352 0fbd
00000270: 5fa7 c8bc d8a7 13bc 36bd 33bc 730c 033c
00000280: 61c8 ae3c d457 953c 247f 5f3c c478 2b3c
00000290: 78c1 2c3c 7f01 123c c228 bb3b 7063 843b
000002a0: ca55 f63a 03e7 1bbb 6256 86bb 09db b3bb
000002b0: 16a3 c2ba 5ee3 1dbc e14c e7bb fe72 83bb
000002c0: 2555 e1ba 144b d63b efcd 0c3c 45ec 923c
000002d0: 5f5c 25bc 908b fabb 9162 40bc 68c4 9bbb
000002e0: 648a 9cbb ab59 01bc 31fd 04b9 f61c 133a
000002f0: 0dc8 033c 637c 11bd 43fc d0bc 787c c7bc
00000300: fdac 4abc 9762 833b 72f9 a73b 6e8a a43c
00000310: a4a3 b23c 8dfa df3c a5bb 98bb 99b4 64bb
00000320: 9ea6 e838 ddae 56bc 4948 19bc 6646 49bc
00000330: 2e5b 8dbc f5bc 15bc 2598 a1ba 98b0 c3bb
00000340: 0901 91bb f13a f2bb 0980 28bc 25bd b7bb
00000350: f8fc ffbb 5bda 443a a7e4 fa3b 65b7 2a3c
00000360: bc25 2db9 b38d 023b 526e 613a c886 93bb
00000370: a147 2abc e02e 093a a3f4 b5bb d9f7 a1bc
00000380: c8fc 86bb 06c4 01bb de3f ebbc 5704 d1bc
00000390: ac86 8339 1922 3abc df6f 42bc ba2c 0f3d
000003a0: 9358 9837 1156 3d3c 8fc4 74bc 4909 07bc
000003b0: 6e7d a2bc 866c 2cbc 1e06 0fbc 34b3 03bc
000003c0: 0c82 563c af71 6f3c 3f12 633c 101b 21bd
000003d0: c015 f6bc 026e 05bd b1cf 94bc 332d f63b
000003e0: b7ae cc3b a247 6f3c 1789 eb3c 14d2 083d
000003f0: b39a b93b c0b9 b53c 269b 1a3c 1caa 9b3c

bias f4 [64]
2.3517629e-08 -1.3960413e-07 -8.883543e-08 9.325343e-08 -8.614234e-08 -2.2808315e-07 2.3832426e-08 2.6718456e-07
1.3255935e-07 -5.4910976e-07 2.3158458e-08 7.802425e-08 -7.6981685e-08 -1.5061933e-07 4.1825874e-08 -5.0427525e-07
2.3333332e-07 -7.393161e-07 3.2544784e-07 -4.3664667e-08 -8.8419924e-08 3.1252969e-06 2.805299e-07 -6.1973374e-08
9.0477675e-07 -2.521472e-07 1.0472447e-06 -4.9847793e-09 2.6384643e-07 -2.0575236e-07 1.7965682e-07 6.816951e-08
-9.872057e-08 -1.1804471e-07 -6.1199536e-08 -3.0178774e-07 -7.229316e-08 1.2607381e-06 1.8604158e-07 -4.8768126e-08
-2.507125e-07 -1.9430667e-08 -3.042796e-08 3.6519174e-07 8.442278e-07 3.001301e-07 -7.80127e-07 -2.6675593e-08
3.0536143e-07 8.6004843e-07 -2.6747353e-09 3.60113e-08 7.8702755e-08 -5.0906888e-09 -2.472846e-07 -8.295554e-08
-3.4219752e-07 1.3892405e-08 -1.3927296e-07 -5.6052745e-08 -6.465091e-08 -2.2111097e-07 4.4419772e-07 -1.4041592e-07
00000000: d003 ca32 17e6 15b4 cbc5 beb3 9e42 c833
00000010: 41fd b8b3 05e7 74b4 0fb8 cc32 9171 8f34
00000020: a355 0e34 8966 13b5 fded c632 498e a733
00000030: 2151 a5b3 edb9 21b4 09a4 3333 885d 07b5
00000040: 2d8a 7a34 6a75 46b5 36b9 ae34 cf89 3bb3
00000050: 5ee1 bdb3 31bc 5136 bc9b 9634 3916 85b3
00000060: c9df 7235 d95e 87b4 0e8f 8c35 9546 abb1
00000070: c7a6 8d34 c7ec 5cb4 b1e7 4034 9664 9233
00000080: 3500 d4b3 c47f fdb3 cd6c 83b3 6405 a2b4
00000090: 963f 9bb3 a236 a935 b8c2 4734 1f75 51b3
000000a0: aa99 86b4 7de8 a6b2 e5af 02b3 920f c434
000000b0: e59e 6235 9121 a134 eb69 51b5 4024 e5b2
000000c0: 8ef0 a334 14de 6635 71ce 37b1 d8aa 1a33
000000d0: 4c03 a933 2cea aeb1 89c2 84b4 4a25 b2b3
000000e0: 45b7 b7b4 71ab 6e32 0f8b 15b4 a5be 70b3
000000f0: 37d6 8ab3 856a 6db4 127a ee34 3cc5 16b4

weight f4 [64]
0.5741433 0.550557 0.44488713 0.49684414 0.53120303 0.4545509 0.42462045 0.5086985
0.3731738 0.48470083 0.4843946 0.27044147 0.46116728 0.45263323 0.30873346 0.71611565
0.3361049 0.5062241 0.77174926 0.3005035 0.41141292 0.45337668 0.44075242 0.45712635
0.50452566 0.5147842 0.7369178 0.38445455 0.4604193 0.69676536 0.33421737 0.40276697
0.56089437 0.40323758 0.47298163 0.46333462 0.36196432 0.5295978 0.41848755 0.61675334
0.67089117 0.7158428 0.4971444 0.5282852 0.49114105 0.47585836 0.49187636 0.50093967
0.33510277 0.54784405 0.27380818 0.49595863 0.49552578 0.5083779 0.301555 0.30037963
0.5522496 0.4082011 0.38695735 0.42062068 0.39079526 0.42011693 0.42288414 0.8321941
00000000: 0efb 123f 4ef1 0c3f 3fc8 e33e 5b62 fe3e
00000010: ecfc 073f e5ba e83e da67 d93e 113a 023f
00000020: a310 bf3e b52a f83e 9202 f83e 4e77 8a3e
00000030: 1e1e ec3e 8bbf e73e 5012 9e3e 5b53 373f
00000040: f115 ac3e e797 013f 5c91 453f 98db 993e
00000050: b7a4 d23e fd20 e83e 4daa e13e 770c ea3e
00000060: 9828 013f e6c8 033f a5a6 3c3f 3ad7 c43e
00000070: 14bc eb3e 375f 323f 8a1e ab3e 7937 ce3e
00000080: c696 0f3f 2875 ce3e a62a f23e 323a ed3e
00000090: 6353 b93e b993 073f 0044 d63e 8ce3 1d3f
000000a0: 86bf 2b3f 7941 373f b689 fe3e b33d 073f
000000b0: d776 fb3e b5a3 f33e 38d7 fb3e 953d 003f
000000c0: 9792 ab3e 823f 0c3f 9630 8c3e 4aee fd3e
000000d0: 8eb5 fd3e 0e25 023f 6b65 9a3e 5ccb 993e
000000e0: 3b60 0d3f bcff d03e 461f c63e 985b d73e
000000f0: 5116 c83e 9119 d73e 4584 d83e ac0a 553f

bias f4 [64]
-0.043780103 -0.06673355 -0.05260732 -0.06351491 -0.056764003 -0.059761316 -0.05534561 -0.058517992
-0.021957356 -0.08219915 -0.04778015 -0.06452085 -0.057500154 -0.059257623 -0.06509889 -0.014542847
-0.035866838 -0.030732019 0.003806782 -0.0681105 -0.037135568 -0.013155638 -0.023436794 -0.078699335
-0.049404245 -0.043577705 -0.009243424 -0.061301112 -0.047042698 -0.017867325 -0.032740977 -0.041019175
-0.03818449 -0.066468425 -0.071074046 -0.04177893 -0.035054285 -0.04386736 -0.056776784 -0.0953617
-0.008171257 0.0007084893 -0.01488942 -0.071680605 -0.045277044 -0.0294554 -0.043568518 -0.07267777
-0.04235899 -0.05452896 -0.04525834 -0.048292566 -0.07190708 -0.057458274 -0.05160187 -0.06278961
-0.049277928 -0.062051017 -0.025438774 -0.045496043 -0.048341956 -0.029036665 -0.06249979 0.022701254
00000000: c452 33bd 99ab 88bd c67a 57bd 1b14 82bd
00000010: 5f81 68bd 48c8 74bd 14b2 62bd 90b0 6fbd
00000020: eadf b3bc 0758 a8bd 1eb5 43bd 8223 84bd
00000030: 4885 6bbd 1fb8 72bd 9152 85bd 1f45 6ebc
00000040: 1be9 12bd b7c1 fbbc 347b 793b 857d 8bbd
00000050: 771b 18bd bf8a 57bc 85fe bfbc 1e2d a1bd
00000060: 1b5c 4abd 897e 32bd bb71 17bc e016 7bbd
00000070: d8af 40bd 7f5e 92bc 671b 06bd b903 28bd
00000080: 5767 1cbd 9920 88bd 458f 91bd 6220 2bbd
00000090: 1595 0fbd 43ae 33bd c68e 68bd ff4c c3bd
000000a0: bce0 05bc e9b9 393a c1f2 73bc 48cd 92bd
000000b0: 6c74 39bd 734c f1bc e774 32bd 15d8 94bd
000000c0: 9f80 2dbd c259 5fbd cf60 39bd 6dce 45bd
000000d0: 0544 93bd 5e59 6bbd 7c5c 53bd d797 80bd
000000e0: a7d7 49bd 3529 7ebd fa64 d0bc 0f5a 3abd
000000f0: 3702 46bd 4dde edbc c8ff 7fbd fbf7 b93c

running_mean f4 [64]
0.034809344 0.02404542 0.015678035 0.024715247 0.029478645 0.038555782 0.020874765 0.030708378
0.024840988 -0.012540755 0.032460276 -0.04174622 -0.037542764 0.0018287152 -0.03571461 0.0059567415
-0.030065188 -0.0069618193 0.021808784 -0.016996505 0.017278131 -0.048568133 -0.061894964 -0.0046775066
0.03445127 0.023490775 -0.01589321 0.027661992 -0.012732034 -0.026047984 -0.015445398 -0.038839705
0.075139344 -0.012402455 0.0031455904 0.007910402 -0.0058141346 -0.0035541924 0.012623488 0.19163808
0.065614216 0.010922237 0.013317944 0.008290435 0.013649667 0.0692085 0.03904889 0.05998966
-0.03019255 0.024106903 -0.04886154 0.055742517 0.028784776 0.073685765 -0.05943223 -0.011610835
0.07692266 0.037044987 0.0351366 0.039497435 0.04713981 -0.001446164 0.018248228 0.0072223675
00000000: 3e94 0e3d e7fa c43c 396f 803c a177 ca3c
00000010: 337d f13c abec 1d3d 8e01 ab3c 2390 fb3c
00000020: 547f cb3c bd77 4dbc 11f5 043d 16fe 2abd
00000030: 71c6 19bd 80b1 ef3a 7c49 12bd c530 c33b
00000040: 454b f6bc f91f e4bb 56a8 b23c 413c 8bbc
00000050: de8a 8d3c 61ef 46bd 9385 7dbd c545 99bb
00000060: c61c 0d3d ba6f c03c 7a32 82bc 679b e23c
00000070: 059a 50bc 9562 d5bc b20e 7dbc 6216 1fbd
00000080: a8e2 993d ab33 4bbc 4026 4e3b a19a 013c
00000090: 7f84 bebb 74ed 68bb bfd2 4e3c c63c 443e
000000a0: bf60 863d 2ff3 323c 8133 5a3c 9bd4 073c
000000b0: daa2 5f3c 30bd 8d3d bbf1 1f3d b8b7 753d
000000c0: 5e56 f7bc d77b c53c 0a23 48bd 4452 643d
000000d0: 0dce eb3c 90e8 963d 366f 73bd 5f3b 3ebc
000000e0: a189 9d3d 7cbc 173d 65eb 0f3d 10c8 213d
000000f0: ac15 413d 368d bdba 4f7d 953c 9ca9 ec3b

running_var f4 [64]
0.22927807 0.28877234 0.13592735 0.21371096 0.19377518 0.12642372 0.20396559 0.20082505
0.116636395 0.21665952 0.19808689 0.047264628 0.2020617 0.12676656 0.116913 0.3745211
0.062458176 0.16770121 0.34127226 0.088676594 0.082399085 0.18556115 0.13994321 0.18663608
0.14961569 0.1870505 0.4566166 0.14147538 0.134216 0.22195508 0.025185777 0.18363848
0.27293378 0.17032443 0.18105301 0.13607994 0.0999223 0.1624382 0.13997436 0.27332982
0.25063 0.39100784 0.1814452 0.26893455 0.1601149 0.13791312 0.16908138 0.16375507
0.10191145 0.18900515 0.060115073 0.192524 0.21229275 0.20086403 0.07804317 0.05019416
0.19037426 0.1478608 0.061547264 0.1804968 0.096361786 0.1425699 0.16346657 0.31129688
00000000: dfc7 6a3e f8d9 933e 8a30 0b3e 0cd7 5a3e
00000010: 006d 463e 3875 013e 5bdc 503e 15a5 4d3e
00000020: 10df ee3d fedb 5d3e 4ad7 4a3e 8e98 413d
00000030: 43e9 4e3e 18cf 013e 1570 ef3d 3bc1 bf3e
00000040: 25d4 7f3d deb9 2b3e 3dbb ae3e 139c b53d
00000050: dac0 a83d be03 3e3e 464d 0f3e 871d 3f3e
00000060: db34 193e 2b8a 3f3e a7c9 e93e ecde 103e
00000070: eb6f 093e 3148 633e 6752 ce3c ba0b 3c3e
00000080: fabd 8b3e 8769 2e3e f665 393e 8a58 0b3e
00000090: 10a4 cc3d 3356 263e 7055 0f3e e3f1 8b3e
000000a0: 9352 803e 2e32 c83e c5cc 393e cab1 893e
000000b0: 29f5 233e 1939 0d3e ab23 2d3e 69af 273e
000000c0: f3b6 d03d 918a 413e 393b 763d 0325 453e
000000d0: 4563 593e 4daf 4d3e 19d5 9f3d 6498 4d3d
000000e0: 78f1 423e d268 173e fc18 7c3d 27d4 383e
000000f0: 5459 c53d d8fd 113e c863 273e 4e62 9f3e
