SND_trackers_My_data/9X0_file/4_9X0_coordconv_Label_Vtest.pt (torch, 623547 bytes, 37 tensors)

weight f4 [32, 9, 3, 3]
000000 c0 61 05 bc b4 00 05 bc b6 c3 0b bc 0e 25 09 bc
       -0.008140981 -0.008117843 -0.008530548 -0.008370651
000010 d9 c3 e7 bb dd fe e4 bb 7c cd e4 bb e7 4c 0c bc
       -0.0070729074 -0.00698839 -0.0069825035 -0.008563257
000020 c7 c2 ec bb d0 c9 ae 3b cd 3a 32 bb ae f0 3d ba
       -0.0072253677 0.0053341165 -0.0027195693 -0.0007245642
000030 a0 4c dc 3b a9 4c 0c 3c 73 92 62 bb 71 80 09 3c
       0.0067230016 0.008563199 -0.0034572154 0.008392439
000040 00 8b 9b bb 33 fa 77 3b bb 6a b4 3b 42 bd 17 3c
       -0.0047467947 0.003783834 0.0055058873 0.009261431
000050 35 a6 c8 3b e8 c1 e9 3b 66 75 e1 3b 93 9b 7e 3b
       0.006123329 0.007133711 0.00688045 0.0038850054
000060 e8 5b ef 3b 57 5e b6 3b 4a 0f ff 3b 99 8e aa b9
       0.0073046573 0.0055654454 0.007783805 -0.0003253117
000070 89 74 ea 3b 62 80 89 3a 4b c2 41 3a 03 a5 80 b8
       0.0071550054 0.0010490532 0.00073913176 -6.1342515e-05
000080 2f b6 47 ba 16 20 b0 39 4a 5f 9c 38 d1 4a ff b9
       -0.0007618395 0.00033593242 7.456409e-05 -0.00048693133
000090 91 c2 3a bb 1f de 88 bb 1d cd 5a bb ca 28 a8 ba
       -0.0028497318 -0.0041768695 -0.0033386417 -0.0012829539
0000a0 73 12 4a bb 54 42 20 bb c2 29 3e ba c6 38 36 bb
       -0.003083375 -0.0024453597 -0.0007254147 -0.0027804836
0000b0 d5 1b 23 bb 99 af bb ba 5e 62 d2 ba a1 72 ba ba
       -0.0024888415 -0.00143193 -0.0016051044 -0.0014224836
0000c0 fb f0 35 bb f0 07 b8 ba 3d ed 1d bb db c5 f6 ba
       -0.0027762044 -0.0014040451 -0.0024097704 -0.0018827276
0000d0 cc 22 94 ba 96 28 43 3b 1a 59 18 bb 44 50 28 bb
       -0.0011301874 0.002977883 -0.0023246468 -0.0025682608
0000e0 7d ce 67 ba 3b be 3b bb 9f 28 b5 ba 55 65 6c bb
       -0.000884272 -0.0028647322 -0.001382131 -0.003607114
0000f0 68 ef 09 bb 94 bf 51 bb 3d 5b 3f bb aa 74 d6 ba
       -0.0021047238 -0.0032005059 -0.002919867 -0.0016361673
000100 47 de 22 bb a3 d9 5d bb f7 65 3a bb 32 3e 34 bb
       -0.0024851726 -0.0033851645 -0.0028442123 -0.0027502892
000110 27 94 ea ba a5 b4 e7 ba 91 da 66 bb bb 78 2d bb
       -0.0017896936 -0.0017677738 -0.003522549 -0.0026469666
000120 4e 3a 3e bb 93 69 0e bb ef 46 26 bb be 49 1a bb
       -0.0029026452 -0.0021730408 -0.002537187 -0.002354249
000130 ce d5 96 bb e2 e8 de ba 4e 9b a5 ba 0f df c5 ba
       -0.004603124 -0.001700666 -0.0012634785 -0.0015096384
000140 35 ce d9 ba 66 dc 5f 3d cf 6e 60 bb eb 2f 9b bc
       -0.0016617241 0.054653548 -0.0034245735 -0.018943748
000150 02 b0 1e bd 18 50 56 3d 48 74 9b 3c 3e 35 1e bd
       -0.038742073 0.052322477 0.018976346 -0.038624994
000160 91 ef 15 3d a9 e5 68 bc 83 de 31 bc e9 d1 e2 bb
       0.03660542 -0.0142149115 -0.010856274 -0.006921996
000170 be fd e0 3b 17 39 6c bc 3a 94 21 3d ca d9 ac bc
       0.006866186 -0.014417908 0.039448 -0.021099944
000180 a6 82 a6 bc 4e 19 b9 bc 0e 5f 07 3d cc 26 d4 bc
       -0.02032597 -0.022595074 0.033049636 -0.025897406
000190 81 a1 e2 bb e9 4e 08 bd 22 6f 09 3c 96 2f 79 bb
       -0.0069162254 -0.03327838 0.0083883125 -0.0038022748
0001a0 93 21 39 3c 30 fb 04 bd e7 fb bf 3c 85 c6 1d bd
       0.011299509 -0.032466114 0.023435546 -0.0385194
0001b0 41 b6 2c ba 98 34 b2 ba aa 83 0a 3c e1 53 6e ba
       -0.0006588437 -0.0013595996 0.008454243 -0.00090914784
0001c0 6d 36 1a 3c be ec 51 bb a0 a6 b1 ba 80 f5 ae 3b
       0.00941239 -0.0032031978 -0.0013553686 0.0053393245
0001d0 a0 b6 f7 b8 e2 a2 00 39 a5 34 38 ba 4e 3a 61 3c
       -0.000118118944 0.0001226771 -0.00070268876 0.013746811
0001e0 6b 74 c2 bb 93 4c d7 3b 2e a0 98 3b 16 20 2f 3c
       -0.0059342883 0.0065704077 0.004657767 0.010688802
0001f0 2b 5a 4e 3c a1 e7 83 3d d9 0b 3b bc 50 8a 29 ba
       0.01259474 0.06440664 -0.011416399 -0.00064674485
000200 f1 ca 0f 3c 83 03 b1 bb a1 cd 4e 3c b1 27 ad bb
       0.008776412 -0.00540203 0.012622268 -0.0052842726
000210 b4 00 ab bb 70 f1 2a 3d 2c 7e 0f 3c 09 82 50 37
       -0.0052185897 0.04173416 0.008758109 1.2428042e-05
000220 75 a0 0c 3d 65 ee 32 3c 71 72 79 3c 5a 17 8e 3b
       0.03433271 0.0109210955 0.015225039 0.00433628
000230 88 cb 10 3b e7 22 81 3c 62 48 75 bb 8e fc bd 3b
       0.002209397 0.015763713 -0.0037427177 0.005797929
000240 8e c6 9e bb 83 74 16 3d be 34 8d 3c 4b 92 86 3c
       -0.004845447 0.036732208 0.017237063 0.01642718
000250 24 64 0d bb 92 70 09 ba 7f 5d 08 3b 8d c1 97 bb
       -0.002157458 -0.00052429095 0.002080768 -0.0046312273
000260 3c 2d 5d bb b2 87 a6 ba d1 bb 4c 3d 44 3e 9e ba
       -0.0033748886 -0.0012705235 0.049983803 -0.0012073
000270 97 60 9e bb 28 46 03 3c 3a 8d d7 b8 de 7a 00 bc
       -0.0048332918 0.008012332 -0.000102783044 -0.007841794
000280 a4 17 09 bc 46 6f ad bb 1a c1 a1 3b ff f7 17 bc
       -0.008367453 -0.005292806 0.0049363496 -0.0092754355
000290 24 a8 07 3b 53 47 66 bc bd 42 25 3d bc 2b de 3b
       0.0020699585 -0.014055091 0.04034685 0.006780116
0002a0 40 fd 07 bd a4 75 a7 bc 64 3b eb 3c b6 d8 92 bb
       -0.033200502 -0.020441838 0.028714843 -0.0044814004
0002b0 19 52 bc 3c 25 c5 a0 bc 53 bc ba bc d5 93 ba bc
       0.022988366 -0.019625256 -0.022794878 -0.02277557
0002c0 d6 4c 1e 3c 21 60 97 3c a7 c6 87 bb dc 8d 05 bd
       0.009661874 0.018478455 -0.0041435543 -0.03260599
0002d0 b3 2a d9 3c b4 f8 c4 3c 49 7c 0b 3d bd d1 d4 3b
       0.026509618 0.024044372 0.034054074 0.0064947293
0002e0 f2 9d d4 3c 72 69 9f 3c 96 fa a4 3c dd 4d 75 3b
       0.02595422 0.01945946 0.02013902 0.0037430443
0002f0 0f 3f d8 3c 15 31 11 ba df d1 41 3b 88 f7 72 ba
       0.026397256 -0.0005538625 0.0029574556 -0.00092684524
000300 93 2b 21 3b 75 31 55 bb c6 7d 18 3b 99 ba 5a 3b
       0.0024592623 -0.00325307 0.0023268326 0.003337538
000310 9a 39 fd 3b ef 64 30 bb 03 2d 30 bb 61 53 f8 3c
       0.007727814 -0.002691563 -0.0026882298 0.030313196
000320 95 0f bf ba 2f d5 18 bb 8e 60 1f bb 05 2e dd 3c
       -0.0014576787 -0.0023320427 -0.0024319026 0.026999483
000330 e3 45 d6 3c 98 02 26 3c d4 84 a4 ba c9 55 f2 bb
       0.026156371 0.010132454 -0.0012551793 -0.0073954803
000340 5d 62 e4 39 eb 09 53 3c 93 9c e0 bb f5 32 a4 bb
       0.00043560835 0.012880783 -0.0068546026 -0.0050109574
000350 b6 dd da bb 5b 21 1d 3c 9a 19 00 3d fc b9 b3 bb
       -0.006679262 0.009590472 0.031274416 -0.0054848175
000360 cf ff 90 bb 9b a3 cf bb 35 ff 5f bb 26 90 7f bb
       -0.004425026 -0.006336642 -0.0034179215 -0.0038995831
000370 fd 32 ab bb 8f 12 2c 3b d6 58 9b 3c 9a e1 bc ba
       -0.005224584 0.002625618 0.018963259 -0.0014410496
000380 c5 23 97 3b 0f 43 84 3a 12 64 a7 3a d8 1a dd bb
       0.0046124184 0.0010090786 0.0012770912 -0.006747585
000390 ea 38 19 bb d7 76 77 3c c0 fc 72 3c 39 5a c8 39
       -0.002337987 0.015104017 0.014830768 0.00038214194
0003a0 8c d2 de ba e8 94 0e bb 7e d7 5d bb 66 e7 0e bb
       -0.0017000004 -0.0021756236 -0.0033850367 -0.0021805405
0003b0 67 91 28 ba 13 61 8d bb 37 03 82 bb e0 f0 35 bb
       -0.0006430358 -0.0043145507 -0.0039676684 -0.002776198
0003c0 45 67 92 3b 4c 23 92 3b 50 8c ac ba 57 0e f9 3b
       0.004467877 0.004459774 -0.0013164375 0.0076005864
0003d0 4c e7 e1 3a a7 79 9f ba 44 a1 df bb 7d ac 52 bc
       0.001723507 -0.0012166993 -0.0068246443 -0.012858507
0003e0 f5 02 c8 3b 1f a1 41 bc 94 82 c9 bb 5c e9 90 bb
       0.006103868 -0.011818199 -0.0061495993 -0.00442235
0003f0 52 25 8b 3c cb d7 f4 3b 0f f7 bd 3c 4c 18 82 3c
       0.01698557 0.0074720136 0.023189096 0.015880726

bias f4 [32]
000000 06 3e a7 32 19 79 e7 34 42 f6 55 34 29 39 bd 31
       1.9469564e-08 4.3115213e-07 1.9926759e-07 5.5071223e-09
000010 2b 9b 9d 37 e2 f4 33 36 1e 31 58 35 99 33 42 37
       1.8788114e-05 2.681562e-06 8.0537745e-07 1.1575315e-05
000020 1b 36 8c b4 d5 13 f6 b6 75 bd e8 35 8f bb 21 36
       -2.61164e-07 -7.33368e-06 1.7340486e-06 2.4100043e-06
000030 52 11 87 b3 db 5f 92 34 90 28 f3 34 e2 39 2d b4
       -6.289578e-08 2.7264363e-07 4.529179e-07 -1.6132938e-07
000040 02 81 d5 b3 a4 8d 48 35 a4 45 c1 36 d1 68 f0 b3
       -9.942052e-08 7.471192e-07 5.7599555e-06 -1.1194937e-07
000050 10 49 07 34 91 a7 69 b6 9b 83 3c 37 e1 58 a2 b3
       1.2599435e-07 -3.4817242e-06 1.1236315e-05 -7.55988e-08
000060 b9 3f 35 b4 71 e4 7d b3 20 73 84 b2 c2 e4 20 b5
       -1.6880121e-07 -5.911392e-08 -1.5419175e-08 -5.993753e-07
000070 97 19 95 b4 39 15 23 34 cd 1a 70 34 97 c3 ca 33
       -2.7772032e-07 1.5188279e-07 2.2361492e-07 9.4419356e-08

weight f4 [32]
000000 36 d3 82 3e 7d 54 8a 3e 94 e6 8c 3e f0 2d 87 3e
       0.25551766 0.27017584 0.27519667 0.26402235
000010 29 d9 1c 3f d4 10 e9 3e ca 28 d0 3e 50 db a8 3e
       0.6126886 0.4552065 0.4065612 0.32979822
000020 e8 ee 9a 3e c7 16 f5 3e 7d 52 8d 3e 4d b7 c8 3e
       0.30260396 0.4786894 0.27601996 0.39202347
000030 a2 38 95 3e a9 11 be 3e 1b 8f 91 3e 12 7e a2 3e
       0.2914477 0.3712285 0.28429493 0.3173681
000040 83 47 83 3e 5b f8 8b 3e d1 de d3 3e d1 9a 8e 3e
       0.25640497 0.27337918 0.41380933 0.2785249
000050 59 05 92 3e 55 2e e6 3e 54 23 11 3f 33 3c 91 3e
       0.28519705 0.44957224 0.5669453 0.2836624
000060 bd 6d 87 3e f5 60 93 3e 7e 19 96 3e 25 f7 96 3e
       0.2645091 0.2878491 0.29316324 0.2948543
000070 1c 12 99 3e fe df 9b 3e fb 0e 8d 3e e3 3b 85 3e
       0.2989663 0.3044433 0.27550492 0.26022252

bias f4 [32]
000000 59 48 d3 bc 2b ae 71 bc e0 c6 54 bc df bf 9e bc
       -0.025791334 -0.014750998 -0.012986869 -0.0193786
000010 29 4c 53 bc 7d 0d 17 3b 82 0d f1 bc e4 9f ab bc
       -0.012896576 0.002304881 -0.029425386 -0.020950265
000020 78 0a b7 bc 54 69 56 3d 7d 9f 7d bc 6f 6e 43 3a
       -0.02234386 0.052346542 -0.0154799195 0.00074551156
000030 d4 ae cb bc 6d 07 ac 3c 6a 4b 71 bc 7e 32 a8 bc
       -0.024863638 0.020999635 -0.014727453 -0.020531889
000040 4a b6 b0 bc d3 e8 89 bc 59 23 9b 3c 17 56 a9 bc
       -0.021571297 -0.016834652 0.018937754 -0.020670934
000050 92 53 8c bc 59 df af 3c a0 9f c3 ba 1c b5 95 bc
       -0.017129693 0.021468805 -0.0014924891 -0.018274836
000060 6b 90 93 bc 1e 4a 98 bc a2 c9 79 bb 5b 4f 99 bc
       -0.0180132 -0.01859003 -0.0038114567 -0.018714597
000070 02 46 9b bc a3 49 85 bc 06 f2 57 bc 2b c8 d3 bc
       -0.01895428 -0.016270464 -0.0131802615 -0.025852283

running_mean f4 [32]
000000 0b 38 f8 3c 93 7e 4b bd aa 9c cc 3d 5a ce 75 3d
       0.03030016 -0.049681257 0.09990819 0.060011245
000010 a3 5c 8e 3c 06 d7 15 3d fb 03 94 3c 1f de b8 3d
       0.017378157 0.036582015 0.018068304 0.09026741
000020 9b 83 30 3d 35 7a b4 3a a4 f8 9c bd df 64 b6 3c
       0.04309426 0.0013769331 -0.07664612 0.022264896
000030 9e b7 52 3d 74 5c f2 bb da 60 ee 3d 62 3d 12 3e
       0.051444642 -0.007396275 0.11639567 0.14281228
000040 d8 fa df 3c 75 89 d9 bc 82 bf 90 3c 7b 06 54 3d
       0.027341291 -0.026554802 0.017669443 0.051763993
000050 e3 29 71 3d 01 ef 88 bb 6c 50 26 38 bf 24 54 bd
       0.058877837 -0.004178882 3.9652383e-05 -0.051792856
000060 a2 db 06 bd db f5 cb 3d b7 e7 15 be b5 d0 f0 3d
       -0.032924302 0.099590026 -0.14639173 0.11758558
000070 60 c6 ec ba 3e 6b bb 3c ab 35 a8 3d b2 08 e9 3c
       -0.0018064491 0.022878285 0.08213361 0.028446529

running_var f4 [32]
000000 43 34 0c 3b 30 7e c5 3a 38 da 33 3b 7b a1 88 3b
       0.0021393455 0.0015067514 0.00274433 0.0041696406
000010 d0 3c 19 3a 89 5e 67 3a 07 74 72 3a df 43 a3 3a
       0.00058455486 0.00088260375 0.0009248857 0.001245614
000020 9c 3b 6d 3b 4d 83 63 3a 42 3e cc 3a 1a 64 40 3a
       0.003619886 0.0008678928 0.0015582519 0.0007339135
000030 92 f6 f9 3b 9b be c2 3a fe 15 0a 3b 7e b7 44 3b
       0.0076282704 0.001485783 0.0021070237 0.0030016596
000040 31 c6 4d 3b a6 d0 02 3b c9 b5 34 3a 05 84 8e 3b
       0.003139865 0.001996079 0.0006893543 0.004349234
000050 be 52 a8 3b e6 ee 2d 3a 6e 66 31 3a 14 1f 93 3b
       0.0051368168 0.0006635025 0.00067672774 0.004489789
000060 53 e8 75 3b 2e 08 42 3b e6 42 57 3b 68 9a b0 3b
       0.003752251 0.0029606926 0.003284627 0.0053895004
000070 43 96 2a 3b 36 94 a2 39 29 6b 81 3b 03 cb fb 3a
       0.0026029504 0.00031009474 0.003949542 0.0019210282

weight f4 [32, 35, 3, 3]
000000 eb 93 e4 bb eb c8 d1 bb 70 f8 7a 3c 72 5b 57 bc
       -0.006975641 -0.006402125 0.015318021 -0.013144361
000010 8d b6 52 bc 60 bf 6b bc ec d8 9a 3c 6f b0 5e bc
       -0.012860906 -0.014388889 0.018902265 -0.01359187
000020 2f 8b 7b 3c 27 a3 a0 3c 82 ed ea bb a5 47 e2 bb
       0.015353008 0.019609047 -0.0071694264 -0.0069055133
000030 88 04 99 3c 1e a8 4c 3b c3 00 94 ba a0 9b 39 bb
       0.018678918 0.0031228135 -0.0011291731 -0.002832152
000040 c0 ae b7 3c ff 53 86 bc bb f3 79 bb 8d 22 89 ba
       0.022422194 -0.016397474 -0.003813966 -0.0010462567
000050 8c fc 69 39 ee 83 0e bc dc 49 88 3b 9e a6 9b 39
       0.00022314693 -0.008698447 0.0041591953 0.00029688043
000060 45 bd 03 bc f1 04 d0 3b fa 6b 00 bc 5a 02 39 3c
       -0.008040731 0.0063482453 -0.007838244 0.011292065
000070 41 e8 f0 bb 1a ad 1f bc e5 db 23 3a 60 38 d2 bb
       -0.0073519056 -0.0097458605 0.00062507234 -0.006415412
000080 df c8 0e 3b 96 9d 56 3b 76 1c d5 39 53 8d f6 3b
       0.002178721 0.0032747737 0.0004064773 0.0075241714
000090 1c 90 f2 3b a5 f7 69 bb 3c ad 3c ba bf 4e 8f bc
       0.007402433 -0.0035700586 -0.0007197445 -0.017493604
0000a0 18 56 94 bc 05 fa 07 bb 4a 0b 9f 3c 0e 0e 95 bc
       -0.018107459 -0.0020748388 0.019414563 -0.018195178
0000b0 b8 b7 6d 3c 8d 61 28 bc da 38 49 ba 37 e9 39 3c
       0.014509134 -0.010277164 -0.0007676013 0.011347107
0000c0 9c 5f 34 bb 92 16 17 bc 80 3e 3e bc b4 07 ff bb
       -0.0027522808 -0.00922169 -0.011611581 -0.0077829007
0000d0 88 be 5d 3b 93 2b 67 3c 2d 2a 1c bc f7 42 3f bc
       0.003383549 0.01410951 -0.00953154 -0.0116736805
0000e0 5d ab 59 3c 6d c7 bd bb 8c c4 e8 3b e9 84 b6 3b
       0.013285485 -0.0057915957 0.0071035083 0.0055700433
0000f0 10 47 43 bb 3a ef 95 3c 66 d1 55 bb 13 30 03 bd
       -0.0029796995 0.018302549 -0.0032626032 -0.03202827
000100 4f 9a 97 bc 9c 21 ac bc 8d 2e 0c 3d 0b 59 b1 3c
       -0.018506197 -0.02101212 0.03422408 0.021648904
000110 22 41 dc bc 2a 39 82 bc b7 ae 07 3d 48 2c 80 bc
       -0.026886526 -0.015896399 0.033125605 -0.015646115
000120 05 c6 91 bd ff 78 c9 bc a1 77 63 bd 55 bc c5 3d
       -0.07117847 -0.024593828 -0.05553401 0.09655062
000130 58 cb 53 bd 1c d9 ab bc e7 c1 f5 3d 62 89 93 3d
       -0.051707596 -0.02097755 0.119998746 0.07203938
000140 60 02 3b bd 51 7f 5e bc d6 07 dc bc 79 2d f4 bc
       -0.04565656 -0.013580159 -0.026859205 -0.02980684
000150 69 d2 1d 3c b3 b8 ac 3c 6b fe 72 bc da ff 37 bc
       0.009632685 0.021084165 -0.014831166 -0.011230433
000160 e3 d7 5b 3c e1 13 0f bd ee e3 3a 3c ac 1d 0c bc
       0.013418171 -0.034931067 0.011406882 -0.008551996
000170 f8 ca 16 bb 74 22 10 bd dd 6d 3b 3d 2b b8 16 3c
       -0.0023009162 -0.035189107 0.04575907 0.0091991825
000180 4a 8a 90 39 d9 6d f9 bc f0 6c 3d 3c cc d3 3a 3b
       0.00027568854 -0.030447887 0.011561617 0.0028507588
000190 4e b7 2b 3b ed 69 bc bb 6b 58 5a ba de ce 8f bc
       0.0026201787 -0.005749932 -0.00083292153 -0.017554697
0001a0 a9 e7 14 bc 9c 4c ac bb e9 94 41 bc 85 19 33 bc
       -0.009088435 -0.005258156 -0.011815288 -0.010931377
0001b0 89 fe 31 3a 2e 07 ff 3b 8d 8c 4a 3c 3a 47 82 bc
       0.0006789943 0.0077828383 0.0123626115 -0.015903104
0001c0 88 65 de bb 7c 04 25 bc 9c 1b 2a bb 5b 03 b7 3c
       -0.006787006 -0.01007187 -0.0025956398 0.022340467
0001d0 00 00 3e 3b 07 8f 37 bb 25 b3 20 ba fe b7 40 bc
       0.00289917 -0.0028008835 -0.000613021 -0.011762617
0001e0 32 8c af 3c 12 56 96 bc a8 c9 1b ba af d8 04 3c
       0.021429155 -0.018351588 -0.000594283 0.008108302
0001f0 c9 8b d2 bc 8e aa 34 ba a8 6b a8 bc fa 45 1c bc
       -0.02570142 -0.00068918697 -0.020559147 -0.009538168
000200 3f db dc bc 13 b2 b2 3d 7b 3c ea bc 02 c4 d9 bc
       -0.026960013 0.08725371 -0.028593292 -0.026582722
000210 de 41 06 3e 50 9a 48 bd 99 05 2e bd db 46 af 3b
       0.13111064 -0.04897529 -0.042485807 0.005349023
000220 c3 f8 b2 3c 68 78 59 bb ca 93 80 3c e2 61 78 3c
       0.021847134 -0.003318334 0.015695471 0.015160056
000230 e1 76 cc 3b 65 49 47 bc 20 2c e9 ba 2e 05 11 bc
       0.0062397574 -0.012163495 -0.001778964 -0.008851333
000240 9a f5 ac 3c db 61 87 3c f0 84 b3 3c 3d da 45 bc
       0.021113206 0.016526153 0.021913975 -0.012075958
000250 62 0b 8a bb e5 b6 8d 3c 90 67 33 3c e4 1a 14 bd
       -0.0042127827 0.017299125 0.010949984 -0.036158457
000260 3b 97 e1 bb 7c 66 65 bc 61 c8 db 3b db f3 f9 bb
       -0.006884483 -0.014001485 0.0067072366 -0.007627947
000270 3f 36 ec 3c 58 1b 8a 3c 74 fa 7f 3c 03 22 e2 bc
       0.02883446 0.016858742 0.0156236775 -0.027604109
000280 8c bd f8 3b d2 2e ff bb 6b 13 41 bc b1 5b 28 bc
       0.007590955 -0.007787564 -0.011784415 -0.010275767
000290 0a 4a 71 3b 18 a6 07 3c 56 91 0c 3d c2 e0 ec 3b
       0.0036817812 0.008279346 0.03431829 0.0072289417
0002a0 02 81 52 bb 86 e4 44 bc 4e d6 0e bc ef fb 22 3c
       -0.0032120352 -0.012017375 -0.008718086 0.009947761
0002b0 cb 86 47 bc 61 b7 23 bc ea 1f 4a bc d7 84 f9 3b
       -0.012178133 -0.009992451 -0.0123367105 0.0076147127
0002c0 81 8e 1c 3c f5 f2 9a 3b 78 97 03 3c 20 69 e4 bb
       0.00955546 0.0047286698 0.008031718 -0.0069705397
0002d0 83 b2 29 bc dc 4e 87 3c 98 88 7f 3c f3 78 9c bc
       -0.010357502 0.016517095 0.015596531 -0.019100642
0002e0 30 04 df bb 4d 9e 0f bb c3 36 80 bc 4b 39 ec 3b
       -0.006805919 -0.0021914423 -0.015651112 0.0072089783
0002f0 85 cc 6e 3c 26 74 e6 3c 73 1c b7 3c 1e f9 6a bb
       0.014575128 0.028131556 0.022352433 -0.0035854052
000300 55 ca 9f bc 92 8a e7 3a e8 09 86 bb 0d cb 12 bc
       -0.01950566 0.0017665199 -0.0040905364 -0.008959544
000310 a7 a4 c7 bc a4 3f e6 3b 30 6d 6c bc d9 06 47 3c
       -0.024370505 0.0070266295 -0.014430329 0.012147629
000320 49 78 6d 3c 89 07 7d bb 16 4b be b8 b2 26 7e bc
       0.01449401 -0.0038609228 -9.073892e-05 -0.015512155
000330 6f af d1 bb 9d b0 0f 3b 76 f0 62 3b f4 c8 17 bc
       -0.006399087 0.0021925338 0.003462819 -0.00926422
000340 42 8e ce bb 3b 46 12 3a 85 f6 7d bc 4a e8 81 3b
       -0.0063035795 0.0005579923 -0.015500669 0.0039644586
000350 0f a8 3e bc 94 b8 15 3c 6c f5 40 bc b8 63 83 3a
       -0.011636748 0.009138245 -0.011777263 0.0010024225
000360 83 85 75 bc c1 41 56 bc 2b 58 fe bc 1a 78 38 3d
       -0.014985445 -0.0130772 -0.031047901 0.045036413
000370 1b fd 68 bc 62 74 0b bd a9 85 f4 3c 69 b1 84 3b
       -0.014220501 -0.03404654 0.02984889 0.0040494693
000380 fe 6b 00 bd 78 9d 60 3b 88 07 86 3a f3 57 86 bb
       -0.03135299 0.0034273546 0.0010225633 -0.00409984
000390 28 3f aa bc 7d e5 73 3c f3 6a 88 bc ce 57 73 bc
       -0.020782068 0.014886257 -0.01665256 -0.014852477
0003a0 0a ed 7b 3c 87 5a 70 bb f3 9c 51 3c 80 83 fb ba
       0.015376339 -0.0036675052 0.012793767 -0.001918897
0003b0 b5 5a 86 3b dc ba 9b bc 47 d5 3d bc ed e9 08 bc
       0.0041001686 -0.01901 -0.011586494 -0.0083565535
0003c0 1a 97 56 3c e2 2a 11 bc 39 dc 25 3c f8 50 7e b8
       0.013097549 -0.008860322 0.010123306 -6.0633727e-05
0003d0 13 d5 45 3c 5a 7f 64 3a 45 4c 1b 3c 5b 35 a3 3b
       0.012074727 0.00087164866 0.009478633 0.0049807257
0003e0 9a 07 34 ba 02 c5 8e bc 58 2e c1 3b 9f 6e ea 3b
       -0.0006867588 -0.017427925 0.005895417 0.0071543003
0003f0 ce 76 c8 bb c5 9e 88 bc 24 53 bf bb 4d 07 f3 3b
       -0.0061176782 -0.01667727 -0.0058387686 0.007416642

bias f4 [32]
000000 43 15 23 b4 2b 12 9b b3 9c aa a5 31 8c 83 e5 32
       -1.5188293e-07 -7.221055e-08 4.821528e-09 2.671893e-08
000010 47 3e 82 34 90 1d ec 33 91 c1 99 b2 23 f3 e1 b3
       2.42597e-07 1.0994984e-07 -1.7899568e-08 -1.0521605e-07
000020 ff b8 1d 34 17 ef fb b5 f6 75 bc b2 08 9c 97 b4
       1.4689066e-07 -1.8770542e-06 -2.1939723e-08 -2.823947e-07
000030 3a 57 64 b3 22 09 a2 b4 49 3d 8e b3 4b 56 bb 33
       -5.316472e-08 -3.0181496e-07 -6.623538e-08 8.723563e-08
000040 98 53 f4 33 4d 29 b9 b4 a4 fd 5e b3 3b 75 01 b4
       1.1377341e-07 -3.4488986e-07 -5.1919088e-08 -1.205671e-07
000050 3b 18 c8 b2 dc 86 38 b5 11 0b db b3 c4 be 36 b2
       -2.3294083e-08 -6.874159e-07 -1.0199995e-07 -1.0637169e-08
000060 87 cc 03 b3 c4 a9 28 b4 31 61 a2 33 6b e9 c8 b2
       -3.068683e-08 -1.570798e-07 7.561392e-08 -2.338921e-08
000070 6e fd 3e b3 a0 e4 e9 30 ee 4b df b1 dd 02 47 34
       -4.4468315e-08 1.701796e-09 -6.4987864e-09 1.8534361e-07

weight f4 [32]
000000 ad 65 14 3f d1 80 c0 3e 46 3d a8 3e db c3 b4 3e
       0.57967645 0.3759828 0.32859248 0.35305676
000010 f4 65 df 3e de 8e c8 3e ca d8 96 3e 05 12 89 3e
       0.43632472 0.391715 0.29462272 0.2677156
000020 59 15 98 3e 5a e6 f6 3e 0f cc 87 3e d3 7f 8d 3e
       0.29703787 0.4822262 0.26522872 0.27636585
000030 4f c4 c1 3e a4 84 b2 3e 57 58 8f 3e 97 c7 8e 3e
       0.37845084 0.34866822 0.27997085 0.2788665
000040 20 07 9b 3e 26 04 96 3e 40 a2 9a 3e 07 6e 99 3e
       0.30278873 0.2930004 0.30201912 0.29966757
000050 f6 36 ab 3e 40 51 db 3e 50 ac db 3e a3 ce 8c 3e
       0.3344037 0.42835426 0.42904902 0.275014
000060 b4 1d 87 3e d7 b7 91 3e af cc 8d 3e 85 e8 9a 3e
       0.2638985 0.2846057 0.27695224 0.30255523
000070 12 02 9e 3e 80 0f c7 3e ae f2 94 3e 6f 6b 9c 3e
       0.30860955 0.38879013 0.290914 0.30550715

bias f4 [32]
000000 12 b8 63 bc d6 81 4f bb 0b bc 25 bd 32 ff e5 bc
       -0.013898866 -0.0031663082 -0.040462535 -0.028075788
000010 fb 7e be 3c 74 35 53 bc 13 61 27 3c 47 7f 79 bc
       0.023253908 -0.012891162 0.010216015 -0.015228099
000020 ff 4b 79 3c b7 26 85 3b 16 35 af bc 34 b2 da bc
       0.015215873 0.004063453 -0.021387618 -0.026696302
000030 05 20 23 3d 5a 78 e4 bc 3e 98 07 bc 9e 79 bd bc
       0.039825458 -0.02788942 -0.008276043 -0.02312928
000040 06 da 8f 3b 91 4b 6d bb 65 5e 05 bd 1e 1f 88 bb
       0.004390004 -0.0036208371 -0.032560725 -0.0041541
000050 79 8a 54 39 d0 94 e7 bc c1 29 88 bc 80 db b3 bb
       0.0002026948 -0.028269202 -0.016621472 -0.005488813
000060 7d 9f 4b bc 74 d3 8b bc 07 42 d1 ba 34 4a fd bc
       -0.012428162 -0.017068602 -0.0015965112 -0.030919172
000070 06 bf 32 bb 85 3e 29 3b 7b 5b 5d 3c b1 6a a7 bc
       -0.0027274503 0.0025824618 0.01351058 -0.020436617

running_mean f4 [32]
000000 82 4b b9 bc c2 bd 16 3d a4 ae 92 3d ab 77 7b 3d
       -0.022619013 0.03680206 0.07162216 0.06139342
000010 d8 fb 65 3e e1 c0 80 3d cd d3 03 bd a7 16 89 3c
       0.22459352 0.06286789 -0.03218441 0.016734434
000020 09 89 13 bc ef 38 21 3d fe 0f 1c 3e 24 a1 10 3e
       -0.00900484 0.039360937 0.15240476 0.1412397
000030 a9 1f 29 3c f5 6b 18 3e 39 0a b9 3b 5d 2f 44 3e
       0.01032249 0.14884932 0.0056469706 0.19158693
000040 f8 3d 3e 3c 55 8c ed 3b 98 98 bc 3d df b5 74 bd
       0.011611454 0.007249395 0.092087924 -0.05974376
000050 db bf 11 3e 7a ca a6 3c 39 21 2a 3e 5e 64 d2 bc
       0.14233343 0.02036022 0.16614236 -0.025682624
000060 9c 16 ff 3c 05 74 2b 3e 6a f6 89 bd 55 ee f2 3d
       0.03113871 0.16743477 -0.06736453 0.118618645
000070 b1 4e b2 3d dd 1c c8 3d 42 62 c7 3b b6 84 56 3d
       0.087064154 0.0977113 0.0060847113 0.052372657

running_var f4 [32]
000000 43 38 a7 3c 4b 57 53 3c 2e ac 91 3d 52 f2 84 3d
       0.02041257 0.01289923 0.07112919 0.064915314
000010 2e 9c c6 3d ea ef 8b 3d b3 d0 28 3c 58 d7 22 3c
       0.09697758 0.06832869 0.010303664 0.009939037
000020 b7 df a1 3c ec a1 a2 3c 15 8e c6 3c d4 dd 74 3c
       0.019759996 0.019852601 0.024237672 0.014945466
000030 0f ba 76 3c 87 20 a4 3c 43 ba 98 3b f5 f7 25 3d
       0.015059008 0.020035041 0.004660876 0.040519673
000040 98 6f df 3b a9 56 3e 3c 5a 32 85 3d 89 2c 54 3c
       0.006818723 0.011617341 0.065037444 0.012950071
000050 8a 33 dc 3d d1 42 a2 3c 3c 5b ab 3d 10 cd bf 3b
       0.10752018 0.019807251 0.08367011 0.005853303
000060 d0 9d 22 3c 4e 5d a6 3c b1 84 b3 3b 93 2e b2 3d
       0.009925321 0.020308163 0.0054784645 0.087002896
000070 d2 38 6b 3d b6 3c 2c 3c f8 e0 ef 3b e5 80 a2 3c
       0.057427235 0.0105125215 0.0073205195 0.019836852

weight f4 [64, 35, 3, 3]
000000 bc de 67 3a 06 42 8b 3a 86 06 45 3a d9 03 2d 3a
       0.00088451407 0.0010624535 0.00075159257 0.00065999996
000010 43 47 50 3a 45 db 2e 3a e3 c3 67 3a 9e 36 25 3a
       0.0007945189 0.0006670247 0.000884114 0.0006302389
000020 ff 14 6b 3a d5 9d 19 3c 65 21 13 3c 55 ea 10 3c
       0.0008967667 0.009376009 0.00898013 0.008844932
000030 4e 7d 14 3c ba 3e 11 3c eb 0b 15 3c 68 d3 0f 3c
       0.009063078 0.008865053 0.00909708 0.0087784305
000040 3e af 18 3c 05 8d 19 3c d6 d5 47 3c 07 47 48 3c
       0.009319125 0.009372001 0.012196979 0.0122239655
000050 fb 7c 48 3c eb 18 43 3c 8b a6 44 3c aa e2 44 3c
       0.012236829 0.011907796 0.012002598 0.012016932
000060 99 c7 3e 3c 81 01 40 3c 9b 0b 41 3c 0f ed ff bb
       0.0116442675 0.011719109 0.011782552 -0.007810242
000070 6e 81 72 3b 7c 1b c8 ba 55 a6 3a bb 91 cc bc 3b
       0.0037003416 -0.001526698 -0.002848049 0.005761691
000080 11 1e 45 3c b3 bf 0a 3b 3d c8 bb 3b 73 1f d6 3b
       0.012031094 0.002117139 0.0057306574 0.0065345108
000090 65 89 82 3b a5 ca a0 ba 4b 8f dd bb 47 ca 64 3c
       0.003983664 -0.0012267424 -0.0067614666 0.013964242
0000a0 c0 79 df 3b 7a 9a 83 ba cb 1b f4 3a c9 f1 21 3b
       0.0068199337 -0.0010040544 0.0018624006 0.0024710766
0000b0 69 61 1e bb 82 73 1d bb 91 86 cf bb d9 0d cf bb
       -0.0024166948 -0.0024025147 -0.0063331802 -0.0063187894
0000c0 0c 97 56 bb 5f ac fc bb 5d e0 44 bc 54 b3 f1 bb
       -0.003274384 -0.007710978 -0.012016383 -0.007376114
0000d0 ba 4f 0a bc 0f 35 30 bc 54 0e dd bb 19 2e 43 bb
       -0.00844186 -0.010754838 -0.006746093 -0.0029782115
0000e0 4d 10 f9 bb 84 9a 7c bb cd 94 be bb ca 4f f1 bb
       -0.00760082 -0.0038544247 -0.0058160783 -0.007364248
0000f0 90 1b 23 bb 78 1d 96 bb 97 42 23 bc c1 57 ca b3
       -0.0024888255 -0.0045811497 -0.009964607 -9.42232e-08
000100 f6 d0 8c 3b 59 51 d3 bb 05 fd 0d bc 7d fc 1c bb
       0.004297371 -0.0064489064 -0.008666282 -0.0023954206
000110 5e 92 f3 bb 89 e2 8c 3a ef 6f a1 ba 62 7e 1b bc
       -0.00743322 0.0010748665 -0.0012316684 -0.009490581
000120 55 bb b0 bb 9e 41 03 bc 01 e3 23 bc 14 61 42 bc
       -0.0053934255 -0.00801125 -0.010002852 -0.011863966
000130 c1 01 55 bc 6a 00 50 bc 97 1d e9 bb 2c 70 46 bc
       -0.013000906 -0.012695411 -0.007114123 -0.012111705
000140 c8 c4 6b bc 9a 9e a5 ba 71 b5 a9 3b ed 65 2b 3b
       -0.014390178 -0.0012635768 0.0051791 0.0026153282
000150 29 f9 b0 39 f2 c8 cb ba 58 f3 87 bb 17 8c 8b b8
       0.00033754975 -0.0015547557 -0.004148882 -6.65413e-05
000160 b5 d2 1a ba 32 18 e5 ba 29 d5 49 39 e8 1d 36 3a
       -0.00059060316 -0.0017478524 0.00019248262 0.00069472054
000170 a9 b9 20 3a 8c 0d f1 b9 44 b9 a2 ba 30 91 3e ba
       0.0006131181 -0.00045977195 -0.0012414833 -0.00072695594
000180 8c 09 79 ba 88 6c a5 ba b2 82 81 38 2d 66 98 3b
       -0.0009500019 -0.0012620846 6.175543e-05 0.004650852
000190 0a f7 75 3b 82 06 94 3b 27 05 c4 3b 64 45 5d 3b
       0.003753128 0.0045173774 0.0059820595 0.0033763284
0001a0 1a f2 86 3b d2 85 97 3b ac 8f 93 3b 54 8b 92 3b
       0.004118216 0.004624107 0.004503211 0.0044721756
0001b0 74 82 6b 3a 19 71 d1 3b c5 a3 14 3c b6 6a 28 3b
       0.00089839776 0.006391656 0.009072249 0.002569837
0001c0 78 16 63 bb 88 dd c7 bb 25 b8 12 3b 29 80 a3 3a
       -0.0034650844 -0.0060994066 0.002238759 0.0012474108
0001d0 64 44 ac ba 23 1a c8 3b 61 7d b7 3b 8d 82 a2 3b
       -0.0013142941 0.0061066314 0.005599663 0.0049594105
0001e0 fa 49 bf 3b ff a5 0b 3c 29 2f cc 3b ae ab e4 3b
       0.005837676 0.008523463 0.006231208 0.0069784736
0001f0 26 0e fd 3b b6 58 f2 3b 32 da 83 3a c8 7a 5c 3b
       0.007722634 0.007395829 0.0010059534 0.003364252
000200 0f ca 22 3b a9 03 28 39 05 dd 29 3b d9 58 4a 3b
       0.0024839675 0.00016023092 0.0025919091 0.0030875711
000210 45 e9 3a 3b 9a d8 48 3b d4 45 85 3b 67 db 77 bb
       0.0028520387 0.0030646683 0.004067162 -0.0037819983
000220 56 9b 6b 3a ec 9a 49 3a ce 07 13 bb 96 56 b4 bb
       0.00089876854 0.00076906267 -0.0022435072 -0.005503486
000230 54 3b d7 bb fa c8 a5 bb 60 31 47 bb 50 0d b6 bb
       -0.0065683518 -0.0050593587 -0.003039442 -0.005555786
000240 33 23 9c ba 30 d4 1a 3c 09 12 70 3c a3 79 81 3b
       -0.0011912346 0.0094500035 0.014652737 0.003951268
000250 bd 84 26 38 c9 90 02 3c 3b d2 8d 3b d7 06 ff 3b
       3.9701106e-05 0.00796909 0.00432804 0.007782798
000260 5c e6 90 3b 9b 85 c2 38 85 fb 70 b9 63 73 93 b9
       0.004421992 9.275527e-05 -0.00022981882 -0.00028123995
000270 72 19 04 bb 4e 56 37 3b c8 95 22 3b e5 f0 28 bb
       -0.0020156768 0.0027975026 0.0024808515 -0.002577835
000280 4f 12 a9 ba af 03 89 3a 77 fc d6 3b da 89 dc 3b
       -0.0012899133 0.0010453368 0.006560858 0.0067303004
000290 1c f1 9c 3b d9 ad 02 3c b3 9d 25 3c bb e3 e6 3b
       0.0047894847 0.007976019 0.010108399 0.0070461906
0002a0 4c 95 de 3b b3 56 13 3c e8 50 e8 3b 1b dc d2 3b
       0.0067927 0.008992839 0.007089723 0.00643493
0002b0 65 ed 5f 3b 66 f0 39 3c 21 97 0c 3c 8b 04 51 3b
       0.0034168598 0.011348819 0.008580954 0.0031893577
0002c0 b6 44 76 3a 1d 96 c9 3b 61 98 18 3c 56 be cf 3b
       0.0009394394 0.006151928 0.009313674 0.0063398285
0002d0 81 13 d1 3a 97 81 b9 3a 01 1e 42 3b f7 18 e5 3a
       0.0015951247 0.0014153001 0.0029619935 0.0017478754
0002e0 c1 ce 14 3a 07 8d 12 3b 5c e2 64 3a fd 25 ae 3a
       0.00056765607 0.002236189 0.000873124 0.0013286468
0002f0 ce bf 1b 3b 1e 1f b1 3a c9 57 c3 bb 40 a7 a3 bb
       0.0023765448 0.0013513302 -0.0059613925 -0.004994303
000300 63 c3 9a bb 3f e4 a4 bb f2 04 00 bc 3b be a9 bb
       -0.004722999 -0.005032092 -0.007813679 -0.005180148
000310 2f 69 a3 bb e5 2b ec bb 3d 1e 76 ba 4c 60 e9 3b
       -0.004986904 -0.007207381 -0.0009388661 0.007122075
000320 ff 7c 9a 3b af 04 85 bb 58 0a 69 ba d9 f7 28 bb
       0.0047146077 -0.004059396 -0.0008889786 -0.0025782494
000330 e3 a1 a9 3b e2 b4 b3 3b d5 cb 7f 3b 2d 55 7b bb
       0.005176769 0.0054842094 0.0039031405 -0.003835033
000340 20 ac 85 ba a4 ae e2 bb a7 98 a6 bb 34 77 14 bb
       -0.0010198392 -0.0069177914 -0.0050841155 -0.0022654058
000350 a6 df d6 bb 23 58 6e bb 33 18 9c bb 6b 18 02 bc
       -0.0065574227 -0.0036368452 -0.004763627 -0.007940392
000360 c9 0c a1 bb 35 b9 8a bb 71 a6 35 bb 9b bd 0d bc
       -0.004914854 -0.004233504 -0.0027717615 -0.0086511625
000370 58 b4 b0 39 c3 f6 78 3a f5 1f ab ba 1a 6d c0 ba
       0.00033703703 0.00094972196 -0.0013055789 -0.0014680952
000380 c8 62 45 bb 9c 08 77 bb ba cb 6a 3b 12 d1 97 3a
       -0.0030118693 -0.003769434 0.0035826997 0.0011582694
000390 8b 36 73 b9 58 ce 55 39 95 47 f7 3b f4 35 a8 3b
       -0.00023194605 0.00020390132 0.007546375 0.005133385
0003a0 9a e2 b2 3b 88 a0 c6 3b 50 1a 14 3a 81 7c 5b 38
       0.005459142 0.0060616173 0.0005649673 5.2329622e-05
0003b0 54 94 0e 3a 13 df 3c ba 7d 79 d7 b9 8e 44 84 3a
       0.0005438973 -0.00072048715 -0.0004109851 0.0010091232
0003c0 ca 7c aa 39 8b 45 d8 ba f8 5c 94 3a 04 45 30 3b
       0.00032517902 -0.0016500218 0.0011319211 0.0026896605
0003d0 51 b7 61 3b 3d 57 74 3b c9 1b 24 3b 06 75 80 3b
       0.003444154 0.0037283443 0.0025040975 0.0039202003
0003e0 8d a7 a2 3b 45 13 1a 3b a8 2a 39 3b 19 18 8b 3b
       0.0049638213 0.002351002 0.0028254185 0.004244816
0003f0 bb d4 1b 3a 20 89 bd 3b 98 07 d1 3b 45 f0 15 3b
       0.000594448 0.005784169 0.006379079 0.0022878808

bias f4 [64]
000000 d8 63 b4 33 3f 21 93 b3 e5 60 ad b3 d6 90 56 b3
       8.4000646e-08 -6.851268e-08 -8.073565e-08 -4.9957485e-08
000010 42 e0 bd b1 d0 aa ef b3 d6 f4 5f 33 5b 10 be b4
       -5.526119e-09 -1.11603754e-07 5.214391e-08 -3.5402158e-07
000020 3a f4 ec 32 7c a5 09 b4 ab 69 8a 33 12 9d ec 32
       2.7585077e-08 -1.2819322e-07 6.445347e-08 2.7545443e-08
000030 c3 ae 52 b3 0e ab c0 b1 1d 50 bc 32 e2 9e 8e 33
       -4.905338e-08 -5.607382e-09 2.1922512e-08 6.641291e-08
000040 ed 97 44 33 71 34 33 b4 83 d1 14 34 8a e4 d6 33
       4.5772982e-08 -1.6689752e-07 1.3859794e-07 1.00067226e-07
000050 94 0a 87 b3 81 75 39 b3 6b 09 9b 32 fb 30 cb b2
       -6.2883515e-08 -4.318054e-08 1.8048658e-08 -2.3654584e-08
000060 9d 3a 46 b2 4d fc 0c b4 16 0b 60 b5 b2 8a 40 b4
       -1.1538444e-08 -1.3130303e-07 -8.3462635e-07 -1.793185e-07
000070 a6 ec 9c 32 29 33 4a b4 0a ec 56 b3 23 be ae 33
       1.8268405e-08 -1.8831328e-07 -5.0040434e-08 8.137092e-08
000080 46 aa cc 33 f9 41 0c 36 52 b8 93 b3 19 56 9a b2
       9.530463e-08 2.0900027e-06 -6.8787486e-08 -1.7967112e-08
000090 dd 37 10 b5 96 5d 3c b3 5d 84 c0 30 4a 07 95 b3
       -5.372547e-07 -4.3857277e-08 1.4007459e-09 -6.939679e-08
0000a0 29 40 86 34 7d b8 16 34 76 9e e6 b4 b7 17 bf b3
       2.5006128e-07 1.4036955e-07 -4.2956134e-07 -8.898444e-08
0000b0 c4 d0 bb b2 53 f8 45 33 b8 00 9b 32 3b be a1 b4
       -2.18646e-08 4.6093486e-08 1.8044702e-08 -3.0126998e-07
0000c0 9a 7e b8 b2 f4 6b 13 b4 09 49 26 b3 48 e3 9e b2
       -2.1477991e-08 -1.3729715e-07 -3.8716312e-08 -1.8496976e-08
0000d0 d8 0e 21 34 48 12 05 b3 11 37 ff 33 fb 67 81 32
       1.4999694e-07 -3.0983102e-08 1.1884379e-07 1.5064861e-08
0000e0 52 d5 ae b3 7d 55 58 33 5f 50 44 b3 ac 57 63 34
       -8.141309e-08 5.036917e-08 -4.5707903e-08 2.1172917e-07
0000f0 b3 95 3d 32 17 00 05 b2 8f 17 45 30 46 c3 38 b2
       1.1035286e-08 -7.741639e-09 7.170166e-10 -1.075461e-08

weight f4 [64]
000000 7b 22 81 3e ca 5f 88 3e e3 e4 85 3e 61 46 81 3e
       0.2522162 0.2663558 0.2615119 0.25249007
000010 78 29 86 3e c4 33 a8 3e 1c d7 d7 3e 6d 2e 80 3e
       0.26203513 0.32851994 0.42156303 0.2503542
000020 51 69 be 3e 00 14 95 3e 7e 86 bb 3e d1 e3 96 3e
       0.37189725 0.2911682 0.36626047 0.29470685
000030 e1 0f a1 3e 5c 16 b1 3e de 13 8c 3e fd 1d 8a 3e
       0.31457427 0.3458737 0.27358907 0.26976004
000040 99 0e 9f 3e 8d 93 83 3e 43 cd 8d 3e 97 24 89 3e
       0.31065825 0.2569851 0.27695665 0.26785728
000050 6f 7c a9 3e 33 ba 76 3e 76 aa 79 3e cf 8b 84 3e
       0.33102748 0.24094467 0.24381432 0.25887915
000060 aa ad 84 3e 60 43 8e 3e 03 e0 0b 3f 67 3b 91 3e
       0.25913745 0.27785778 0.5463869 0.28365633
000070 cb 16 9c 3e 7b 20 a8 3e bc e6 8a 3e e3 90 82 3e
       0.3048614 0.3283728 0.2712916 0.25501165
000080 11 d4 86 3e f8 fe b1 3e 86 c9 81 3e 10 4e a1 3e
       0.2633367 0.34764838 0.25349063 0.3150487
000090 db c2 96 3e 61 98 9b 3e 80 2c 97 3e 90 6e 78 3e
       0.29445538 0.30389693 0.29526138 0.24260926
0000a0 3a 6b e0 3e 6a 57 9c 3e ec bd 78 3e 34 60 7c 3e
       0.43831807 0.30535442 0.242912 0.24646074
0000b0 cb 74 78 3e f8 a1 88 3e fe e0 8f 3e d5 6b ad 3e
       0.24263303 0.26686072 0.28101343 0.33871332
0000c0 43 84 81 3e 4f ce a4 3e 5d 96 a3 3e fe 34 8f 3e
       0.2529622 0.3218865 0.31950656 0.27970117
0000d0 a7 7d af 3e f2 7c a7 3e de 1c 8b 3e 94 d1 85 3e
       0.34275553 0.32712513 0.2717046 0.26136458
0000e0 2a b1 85 3e ee 34 ab 3e 62 18 a2 3e 21 d6 e4 3e
       0.26111728 0.3343882 0.31659228 0.44694617
0000f0 13 67 9a 3e 79 43 a1 3e 9c c3 8c 3e 80 4d aa 3e
       0.30156764 0.3149679 0.27492988 0.33262253

bias f4 [64]
000000 06 dc b6 bc 6f 7b 21 bd 06 6c 51 3c a0 9d ee bc
       -0.022321712 -0.039424356 0.012782102 -0.029127896
000010 1f f0 ae bc ae b4 ba bb c6 cd 03 bd d4 b8 be bb
       -0.021354733 -0.005697808 -0.032178663 -0.005820373
000020 d2 3d 55 bd 08 13 a7 bc 50 03 e1 3b 03 f1 ec bc
       -0.05206091 -0.020394817 0.00686685 -0.028923517
000030 ae f3 fb bc e8 ed 6f 3c bb e8 a5 bc ef 52 52 bc
       -0.030755844 0.014644124 -0.020252576 -0.012837156
000040 1c e2 c4 bc 7f a0 a5 3b 56 b3 12 b9 97 96 a7 bb
       -0.024033599 0.005054533 -0.00013990453 -0.0051143873
000050 85 c5 5a 3c 91 d1 60 bc 7f 2e 9d bc 46 3e 07 3c
       0.013352756 -0.0137218395 -0.01918721 0.008254593
000060 c3 1e 01 3c af e6 b8 bc db b8 40 bc c9 17 f7 bc
       0.007880869 -0.022570936 -0.011762823 -0.030162709
000070 61 85 97 bc 7e 21 73 3c e2 f0 13 bd b3 84 97 bc
       -0.018496217 0.014839528 -0.036118396 -0.018495893
000080 13 c2 1c 3b 2b d9 10 bd 5f c2 3f b9 6f 03 c0 bc
       0.0023919388 -0.035363358 -0.00018287588 -0.023439137
000090 fd c9 44 3b 12 33 97 bc 38 a8 86 bc cb 9f bc bb
       0.003002762 -0.01845697 -0.016437635 -0.0057563535
0000a0 3b 89 a8 bb d1 96 d9 bc ac e5 0f bc dd 90 a9 bb
       -0.0051433123 -0.026561173 -0.008782785 -0.0051747398
0000b0 91 6a 94 bb 48 93 4e bc 5d 0b 29 bd d4 ce 28 bc
       -0.0045293053 -0.012608357 -0.041270602 -0.010303218
0000c0 ac df 31 bc 51 ea c2 bc e2 74 1a 3c 66 87 fc bc
       -0.01085655 -0.023793371 0.009427281 -0.030826282
0000d0 d9 28 9c 3c e8 c2 b5 bc c5 db a4 3b 4e 0b fa bc
       0.019062446 -0.022187665 0.0050310814 -0.030522969
0000e0 91 1e 35 bc 0a 0c d9 bc 3c 5c 17 3b 05 49 f7 3c
       -0.011054651 -0.026494998 0.0023095747 0.030186186
0000f0 69 91 97 bc 34 02 c9 bc b1 3a 07 bc 44 c7 da bc
       -0.018501954 -0.024537183 -0.008253739 -0.026706345

running_mean f4 [64]
000000 33 a7 a2 3d 2e 8b 10 3d e5 2c e5 bc d2 6a d0 3d
       0.07942047 0.035288982 -0.027975509 0.10176624
000010 e3 5d 4b 3d 28 a9 64 3d f7 eb 29 3d 6e 49 55 bd
       0.049650084 0.055825382 0.0414848 -0.05207198
000020 0a 39 d5 3d 15 88 27 bb 91 c4 57 3d 73 73 4c 3d
       0.1041127 -0.002556329 0.052677695 0.04991479
000030 a9 d3 a1 3d de 4e 7b 3c 8f 02 ea 3d 9d 1a 00 3e
       0.07901699 0.015338628 0.11426269 0.12510152
000040 07 09 b1 3d 9a d3 ed bc 63 89 bf 3d 95 42 1e bd
       0.086443 -0.029031564 0.09352376 -0.038637716
000050 64 a6 42 3d 58 b0 07 bd 77 d3 78 3c 70 20 0b 3d
       0.047521964 -0.03312716 0.015187136 0.03396648
000060 16 77 d5 bc 55 e5 16 3d 1c 36 d7 3d 59 c6 81 3d
       -0.026057761 0.0368398 0.105083674 0.0633666
000070 39 93 ba 3c 9a 58 7b 3d a7 7d 64 3d b0 b2 ca 3c
       0.02277528 0.061363794 0.055783894 0.024743408
000080 1a 32 c4 bc 1b 3d d3 3d 88 7c 1a bd 96 57 d9 3b
       -0.023949672 0.10314389 -0.03771642 0.0066327555
000090 43 e5 bd bd 46 07 b9 3d cc 89 c1 3d cb 40 42 bd
       -0.09272244 0.090345904 0.09450111 -0.047425073
0000a0 e0 e8 81 3c 67 a3 05 3e 5f 73 be bd b0 20 03 bd
       0.015858114 0.13050614 -0.09299349 -0.032013595
0000b0 88 90 3c bd 73 3a 02 3e a5 83 58 bc c4 4e 8c 3d
       -0.046036273 0.12717609 -0.01321498 0.06850961
0000c0 be 6e 09 bd 29 c6 5e 3c 95 9d 8e 3d 24 d5 a6 3d
       -0.033552878 0.01359705 0.0696365 0.08146122
0000d0 bd f8 57 3d 5d 1e b9 bb 3b ec f4 3c cd 66 85 3d
       0.05272745 -0.0056493715 0.0298978 0.06513748
0000e0 7a d0 55 3c 88 9b ba 3d f1 e2 d8 3c 4a a6 9b 3d
       0.013050193 0.091116965 0.026475402 0.076000765
0000f0 2e 1f a7 3d 27 a3 90 bc 03 b4 03 be 7f e8 0b 3d
       0.08160244 -0.017655922 -0.12861638 0.034157272

running_var f4 [64]
000000 08 8a 63 3c 54 95 52 3d d9 6f 84 3c 9d 75 89 3c
       0.01388789 0.05141194 0.016166614 0.016779715
000010 8b f8 09 3c 9c 36 93 3c 93 00 d5 3c d3 b4 49 3c
       0.008421074 0.017970376 0.02600125 0.012311178
000020 46 4d 0e 3d 46 4b c8 3c 3a 08 50 3c 5a 6f a6 3c
       0.034741662 0.024449956 0.012697274 0.020316768
000030 c1 29 c5 3d 67 e2 8b 3c df 41 a9 3c 0d 0a dd 3c
       0.096271046 0.01707573 0.020661293 0.026982332
000040 6a b2 9f 3d 7a 0d 92 3c 0d 85 96 3c 6a 63 c3 3c
       0.07797702 0.017828692 0.01837399 0.023851115
000050 7a 2d bd 3c 77 27 41 3c 5b 00 f9 3b 73 2b ab 3c
       0.023092974 0.011789194 0.0075989193 0.020894742
000060 89 45 f3 3c 6a 0c 13 3d 71 00 06 3d bc 89 9e 3d
       0.029696243 0.03590051 0.032715265 0.077411145
000070 85 cc a1 3c 3c a1 87 3c 62 fd 74 3d 91 b2 81 3c
       0.019750843 0.016556375 0.059811957 0.015832217
000080 b7 b8 4d 3c 31 b7 c7 3c 65 5f 42 3c 2f 14 80 3d
       0.0125562465 0.024379345 0.011863564 0.0625385
000090 4d 21 46 3c 06 c7 79 3d 4c a4 89 3d c3 ee cf 3c
       0.0120929 0.06098082 0.0672079 0.025382405
0000a0 a9 5a 8c 3c fb 83 a2 3c 99 11 37 3d 8a 35 81 3c
       0.017133074 0.019838324 0.044694517 0.0157726
0000b0 cb 9c 47 3c f8 ea 94 3c bf 98 1e 3d 61 42 78 3c
       0.012183378 0.018178448 0.03871989 0.015152545
0000c0 2f b0 0f 3d 0a 4e 8d 3d 39 1a c6 3c b0 d6 4e 3d
       0.03508013 0.068996504 0.024182426 0.05049771
0000d0 43 73 a2 3c da 19 3e 3d 46 1a 4b 3c 92 8c 4a 3d
       0.019830352 0.046411373 0.012396401 0.049450465
0000e0 1c 90 fe 3b 9a fe e6 3d fa 11 82 3c c1 64 e7 3c
       0.007768644 0.1127903 0.015877713 0.028246285
0000f0 41 a4 87 3d fb b8 a0 3c d4 b6 c0 3c 6c ff 1c 3d
       0.06623126 0.019619456 0.02352468 0.038329527

weight f4 [64, 67, 3, 3]
000000 70 e6 97 bb e4 43 96 bb 71 79 a0 bb 7b 41 99 bb
       -0.0046356246 -0.00458573 -0.0048972894 -0.0046769953
000010 cc 80 92 bb 0c d8 a5 bb 12 f2 9a bb 4d 5b 9a bb
       -0.00447092 -0.005061155 -0.004728564 -0.004710591
000020 e1 1d 87 bb bc 37 27 3a 7e 56 4a 3a 92 fe 33 3b
       -0.004123435 0.00063788495 0.0007718577 0.0027464968
000030 46 b6 16 3a 34 3a 28 3b fc 7f d8 3a a3 6a 30 3a
       0.0005749207 0.0025669457 0.0016517635 0.00067297573
000040 7c 51 ae 3a 66 dd d7 3a c6 93 30 bb 71 dd 39 bb
       0.0013299431 0.001646918 -0.0026943549 -0.002836075
000050 18 54 33 bb 3b 5d d0 ba 04 01 ee ba 4b 1b fd ba
       -0.0027363356 -0.0015896925 -0.0018158262 -0.0019310502
000060 54 fc 23 ba 36 9b 34 ba 49 37 40 ba 9e b2 bf 3a
       -0.00062555564 -0.00068895833 -0.0007332457 0.0014625376
000070 4f 32 08 3b 42 ed 0d 3b 47 5a d6 3a 4e c7 f1 3a
       0.002078194 0.002165631 0.0016353809 0.0018446238
000080 50 50 de 3a 1b 9f 85 3a 75 3c e6 3a 5f 51 f8 3a
       0.0016961191 0.0010194512 0.0017565625 0.0018945149
000090 28 ae 86 bb d0 86 76 bb 64 fb 4a bb a9 62 80 bb
       -0.0041101165 -0.0037616976 -0.0030972594 -0.003918011
0000a0 e7 1d 67 bb a8 cf 5c bb 5c dc 68 bb 8c d4 6b bb
       -0.0035265626 -0.0033693109 -0.0035531735 -0.0035984842
0000b0 4c 36 82 bb d5 93 00 3b 33 49 85 39 09 fd 64 ba
       -0.003973758 0.0019619365 0.00025422274 -0.0008735215
0000c0 04 3d 58 3a b7 e8 b2 ba cd 40 b5 ba d3 81 22 3b
       0.0008248838 -0.0013649677 -0.0013828516 0.002479662
0000d0 d6 eb 22 3a ed 6c 8a ba ec 0c 42 3b 4e 27 62 ba
       0.0006214952 -0.0010561027 0.0029609753 -0.00086270727
0000e0 1b 88 68 ba f5 b9 eb b8 f4 81 4d 39 4e 69 57 3a
       -0.0008870379 -0.000112403104 0.00019598735 0.0008217291
0000f0 33 1e 25 3b bb 87 41 b8 cd 82 bf b8 b0 85 d6 3a
       0.0025195002 -4.6141195e-05 -9.131953e-05 0.0016366746
000100 48 4a e9 3a f5 f7 69 3a 7e e2 8b 3a 88 39 a5 3a
       0.0017798627 0.0008925193 0.0010672358 0.0012605647
000110 b3 1a bf 3a 92 d1 68 3a 73 5d a7 3a d8 00 95 3a
       0.00145801 0.0008881326 0.0012768939 0.0011368049
000120 1a c6 22 bb 72 3c 4b bb db 2a 55 bb ce 7a 6e bb
       -0.0024837316 -0.003101137 -0.0032526765 -0.0036389115
000130 21 b8 74 bb 1a 1a 54 bb 5e f2 40 ba ce c3 0c bb
       -0.0037341195 -0.003236419 -0.0007360334 -0.0021479013
000140 c2 b8 66 bb d2 8d 0b 3c 34 42 ae bb dd c5 00 bb
       -0.003520534 0.008517699 -0.0053179506 -0.0019649186
000150 0c e1 f3 3b fc f5 95 bb a2 d8 c5 bb 7e b3 e8 ba
       0.007442599 -0.0045764428 -0.0060377875 -0.0017753688
000160 e4 ba af ba c5 92 0c ba fb 48 29 bb c2 e5 d0 ba
       -0.0013407138 -0.00053624465 -0.0025830853 -0.0015937614
000170 bd 47 20 bb 5c ea 7a ba e3 99 da ba b1 af e2 ba
       -0.0024456822 -0.00095716654 -0.0016677942 -0.0017294792
000180 68 03 98 ba ea 99 c9 ba 57 7a d3 ba 71 87 81 3b
       -0.0011597695 -0.0015380953 -0.0016134483 0.0039529135
000190 87 fe 9d 39 d1 a2 53 bb 43 0f 70 3b 10 26 33 bb
       0.0003013501 -0.003229309 0.003663019 -0.002733592
0001a0 7c 44 90 bb 31 fd 2f ba 2a 48 86 39 31 0e d3 ba
       -0.004402695 -0.00067134487 0.00025612238 -0.0016102252
0001b0 e4 3b 92 bb bf df 72 bb e9 01 50 bb 30 33 8a bb
       -0.004462706 -0.0037059633 -0.003173942 -0.004217528
0001c0 28 f9 7e bb d8 a3 72 bb 37 ec 82 bb 83 42 89 bb
       -0.0038905833 -0.0037023928 -0.003995444 -0.004188837
0001d0 56 e3 94 bb 4b 97 86 bb c5 46 09 bb cc 19 2a bb
       -0.004543702 -0.004107391 -0.0020946723 -0.0025955318
0001e0 b7 fe 68 bb 6e 85 a0 bb 24 d7 9a bb 1e 31 07 bb
       -0.0035552213 -0.0048987186 -0.004725354 -0.0020628641
0001f0 58 6c e5 ba 82 04 90 bb 30 4a 2f 3b d5 c3 13 bb
       -0.0017503602 -0.0043950686 0.00267471 -0.0022547145
000200 1e a4 45 bb 31 e7 d5 ba 99 10 a4 ba 3e 5d 95 ba
       -0.0030157636 -0.0016319511 -0.0012517154 -0.0011395586
000210 dd 3b 81 3b bb c7 97 ba 39 6f a2 b8 9a 78 b1 bb
       0.003943904 -0.001157991 -7.745479e-05 -0.005415988
000220 80 ca 93 bb cb 79 7b bb 2f c6 68 bb 81 d5 8b bb
       -0.004510224 -0.0038372155 -0.0035518517 -0.004267395
000230 d8 34 7c bb 00 73 94 bb 45 28 96 bb bd 19 90 bb
       -0.0038483646 -0.0045303106 -0.004582437 -0.0043975995
000240 80 b1 2a bb 62 c6 09 bc 76 b2 a1 bb d5 a1 fc ba
       -0.002604574 -0.008409115 -0.0049346043 -0.0019274304
000250 eb 34 a7 bb 45 17 75 bb 25 16 33 bb 31 6b 96 bb
       -0.005102744 -0.0037397903 -0.0027326432 -0.004590415
000260 0e 21 e5 ba 36 7a c6 ba 77 0c dd b9 4c 5f b3 39
       -0.0017481165 -0.0015142623 -0.00042161692 0.00034212542
000270 39 1e 16 b8 e6 94 94 ba 87 52 09 3a de e9 da 39
       -3.5790934e-05 -0.0011335879 0.0005238433 0.00041754445
000280 7c 74 a1 ba 1a b2 8e b9 1e 1a c8 ba 1b a5 fa ba
       -0.001231804 -0.00027217047 -0.0015266573 -0.0019122692
000290 e5 9d a8 ba 92 a1 07 bb cd 29 0c bb 5a d0 13 bb
       -0.0012864439 -0.0020695669 -0.002138722 -0.0022554607
0002a0 98 8e 2a bb 5b 86 33 bb 0c d3 3d bb 83 e5 87 bb
       -0.0026024934 -0.0027393315 -0.0028964905 -0.004147233
0002b0 01 db ad bb 80 21 85 bb 1e 2c 8b bb 83 e5 90 bb
       -0.0053056483 -0.0040628314 -0.0042472025 -0.004421891
0002c0 00 f0 86 bb f8 da 5b bb 93 c4 98 bb 0d 02 97 bb
       -0.0041179657 -0.0033547264 -0.0046621053 -0.004608399
0002d0 45 53 2f bb c3 16 1d 3b 41 f5 4f bb 37 55 96 3a
       -0.0026752513 0.0023969866 -0.0031731876 0.0011469488
0002e0 69 de f2 3a d3 ac 01 bb 51 b3 13 3a 1a 3d 4f ba
       0.0018529418 -0.001978685 0.0005634325 -0.0007905528
0002f0 b2 55 71 ba 2c b0 fb ba f0 07 1d bb ec a1 26 bb
       -0.000920619 -0.0019202284 -0.002396103 -0.0025426103
000300 f8 9a 23 bb cf 22 3b bb 9c 77 31 bb 36 d7 17 bb
       -0.0024964195 -0.0028554683 -0.002707935 -0.0023169047
000310 cc 91 0a bb c9 c6 1a bb e9 af 7c 3a f1 ec 3d ba
       -0.002114403 -0.002361702 0.000963925 -0.0007245085
000320 4f d0 05 ba 4d 68 80 b9 db f1 16 3a 24 ca 35 ba
       -0.0005104588 -0.00024491773 0.0005758085 -0.00069347234
000330 1a 0f d9 39 63 30 11 3a da a2 1d 3a 7e 8d b6 3b
       0.00041400717 0.0005538521 0.00060133415 0.0055710664
000340 6b c8 ab bb 31 28 18 bb 61 af 37 bb c2 85 16 bb
       -0.0052423975 -0.0023217315 -0.0028028118 -0.002296791
000350 96 d6 7a bb 7b c1 15 bb f0 53 5a bb a5 8f da ba
       -0.0038274876 -0.002285092 -0.003331419 -0.001667489
000360 40 76 3c bb bf fd 44 bb 73 bb 28 bb 5f c2 0f bb
       -0.0028757006 -0.003005847 -0.0025746494 -0.0021935923
000370 9e 55 16 bb 93 6e 07 bb 16 07 af ba 08 ea d6 ba
       -0.0022939215 -0.0020665273 -0.0013353552 -0.0016396651
000380 4f 85 d6 ba 5d ca 88 3a af 95 6f 3a 5a f2 47 37
       -0.0016366633 0.0010436286 0.0009139431 1.1917751e-05
000390 5f ca 5a 3a bf 7c 39 3a 89 17 67 3a 70 cf 1c 3a
       0.00083461957 0.00070757786 0.00088154577 0.00059818383
0003a0 e5 5d 8d 3a 5f d8 72 3a 41 e2 a8 3a 0b 8c 8b 3a
       0.0010785429 0.0009263809 0.0012884812 0.0010646594
0003b0 54 cb 51 3a f0 b9 bb 3a ee ac 63 3a 10 09 4a 39
       0.00080030155 0.0014322381 0.00086851313 0.00019267597
0003c0 6a a4 d8 3a 64 f6 f4 3a 02 ef 99 3a a7 7a 1f bb
       0.0016528491 0.0018689153 0.0011744204 -0.002433458
0003d0 32 b2 89 ba a9 5e b9 ba 59 df aa ba 29 46 1e bb
       -0.0010505377 -0.0014142591 -0.0013036533 -0.0024150705
0003e0 eb d6 1c bb ff 21 21 3a ef 21 51 ba a4 1e ef ba
       -0.0023931812 0.00061467284 -0.0007977774 -0.0018243385
0003f0 4d ca 51 bb 89 ec 26 bb d2 14 1e bb fe 45 42 bb
       -0.003201145 -0.0025470576 -0.0024121297 -0.002964377

bias f4 [64]
000000 c1 3b 97 33 9a 82 c3 33 ac df 25 34 5d e2 98 33
       7.0423546e-08 9.1041514e-08 1.5448194e-07 7.119227e-08
000010 f8 cf 84 33 f5 7e 0a 33 61 d4 c6 b2 64 f9 30 33
       6.184558e-08 3.2246096e-08 -2.3146812e-08 4.1205013e-08
000020 81 bf b1 32 77 52 bb b2 2e 64 d6 31 31 db 16 b3
       2.0692598e-08 -2.1807166e-08 6.239609e-09 -3.512395e-08
000030 25 2c 14 34 91 e5 19 b4 ca dc b6 32 41 57 30 35
       1.3799634e-07 -1.4332751e-07 2.1287992e-08 6.569208e-07
000040 ba f4 68 34 a0 3f 0b b4 5d 9b cb b3 67 c2 80 33
       2.1695715e-07 -1.296853e-07 -9.4811845e-08 5.995826e-08
000050 24 fa 1b b5 4c 39 c4 b3 25 97 0d b5 31 e1 12 b1
       -5.8106e-07 -9.1373835e-08 -5.274654e-07 -2.1373803e-09
000060 a0 aa 34 b6 13 a9 ce 33 c8 2c b4 33 5e 45 cc 33
       -2.6921407e-06 9.623377e-08 8.390049e-08 9.512108e-08
000070 c8 ce 8f 32 fa d7 1a 33 96 06 8e 33 26 d8 99 32
       1.6741424e-08 3.605235e-08 6.613588e-08 1.7909837e-08
000080 ad 2c d1 34 f0 c8 4a 34 94 3d 09 35 bd 3d 32 36
       3.896179e-07 1.8885817e-07 5.1126085e-07 2.6560003e-06
000090 d8 e1 4e b0 f7 f2 1e b4 61 83 5c b4 5f 90 e1 34
       -7.5263307e-10 -1.4803287e-07 -2.0536892e-07 4.201456e-07
0000a0 ec aa 3e 34 e3 09 c6 30 3c 2e 6a b4 27 18 86 b4
       1.775731e-07 1.4409206e-09 -2.1809768e-07 -2.4977018e-07
0000b0 6d cc 61 33 f1 90 17 b5 ef 20 04 34 11 41 11 b4
       5.257282e-08 -5.64628e-07 1.2305439e-07 -1.3527848e-07
0000c0 a8 c4 3d 33 87 79 28 35 ff ab d3 35 3a 10 31 b5
       4.418385e-08 6.276172e-07 1.5770783e-06 -6.596125e-07
0000d0 78 c9 a4 b1 a0 3a f2 33 c3 d9 b2 33 1e b8 58 b2
       -4.7959325e-09 1.1279667e-07 8.3283815e-08 -1.2614718e-08
0000e0 b1 f1 3e b5 ca b7 5f 33 bf ac 0c 33 0e 6b 00 b3
       -7.1132223e-07 5.208839e-08 3.27534e-08 -2.9899688e-08
0000f0 dc 47 e6 b3 b5 ab 12 34 d3 b5 bf 33 bc 5b 40 b3
       -1.0723281e-07 1.3659776e-07 8.927204e-08 -4.4786916e-08
