SND_trackers_My_data/9X0_file/9_9X0_coordconv_Label_Vc.pt (torch, 623547 bytes, 37 tensors)

weight f4 [32, 9, 3, 3]
0	0xbb02e2c5	-0.001997159
1	0xbb00811c	-0.0019608205
2	0xbb073449	-0.002063053
3	0xbaf40f53	-0.001862029
4	0xbaf4c149	-0.0018673326
5	0xbb00e25d	-0.0019666173
6	0xbb015bb7	-0.0019738504
7	0xbaf6d143	-0.0018830675
8	0xbb0808dd	-0.0020757236
9	0x3b4abf24	0.0030936683
10	0x3b4b1b3d	0.0030991577
11	0x3b4a5e64	0.0030879015
12	0x3b4c120f	0.0031138693
13	0x3b498e60	0.0030755028
14	0x3b4bf840	0.003112331
15	0x3b48ca4a	0.0030638152
16	0x3b496295	0.0030728925
17	0x3b4911e0	0.003068082
18	0xbabe0bea	-0.00144994
19	0xbabc579d	-0.0014369373
20	0xbaba5b23	-0.0014217835
21	0xbac28403	-0.0014840368
22	0xbac0ab9b	-0.001469958
23	0xbabecb86	-0.0014556504
24	0xbac7374e	-0.0015198977
25	0xbac52d52	-0.0015043414
26	0xbac3a556	-0.0014926593
27	0xb6b5a7a4	-5.4137363e-06
28	0xb600a7e6	-1.9171216e-06
29	0xb7ae9f83	-2.0816695e-05
30	0x37a62770	1.9807107e-05
31	0xb689c06d	-4.1053195e-06
32	0xb6d80f4d	-6.439083e-06
33	0x3707cc37	8.0941745e-06
34	0xb84b0f8a	-4.8413443e-05
35	0xb6935211	-4.390495e-06
36	0x3c1d82a0	0.009613663
37	0xbaaf4f2b	-0.0013375034
38	0xbb52a61b	-0.0032142464
39	0xbb22fb37	-0.0024868974
40	0xbb155886	-0.002278836
41	0xbb5d1a20	-0.0033737496
42	0xbb70f636	-0.0036767847
43	0xbbef4681	-0.007302106
44	0x3c7ac0ac	0.015304726
45	0x3b2f18f5	0.0026717756
46	0x3bce7e34	0.0063016657
47	0x3a055410	0.00050860737
48	0x398839c5	0.00025982983
49	0xbab61783	-0.0013892505
50	0xbabc0260	-0.001434397
51	0x3c222011	0.009895341
52	0xbaed4060	-0.001810085
53	0x3b955921	0.004557744
54	0xba76fc79	-0.00094217766
55	0xba28c4bd	-0.00064380077
56	0x3bbc8ce7	0.0057541016
57	0xba636f1d	-0.000867592
58	0x3b75b34d	0.0037490905
59	0x3adbb143	0.0016761202
60	0xbb13ea21	-0.0022569972
61	0x3b581243	0.003296987
62	0x3cc509dd	0.024052555
63	0xbac6ab52	-0.0015157259
64	0x3b484556	0.0030558906
65	0x3b5e3cfb	0.003391086
66	0xbaf5b190	-0.0018744934
67	0x3cc2bd2d	0.023771847
68	0x3c20037b	0.009766455
69	0xbbd75e61	-0.00657253
70	0xbb10aad4	-0.0022074478
71	0x3b8003e9	0.003906716
72	0x3c46717e	0.01211202
73	0x39a5429c	0.0003152088
74	0x3c1b788e	0.009489192
75	0xbaf74657	-0.0018865567
76	0xba3cebca	-0.0007206766
77	0x3c563221	0.013073475
78	0xbb4e0e8c	-0.0031441776
79	0x3cb39fb2	0.021926735
80	0xbaf6546c	-0.001879347
81	0x3b90cad2	0.0044187093
82	0x3b92b686	0.004477325
83	0x3b93c9e2	0.0045101503
84	0x3b86c940	0.0041133463
85	0x3b8e7144	0.0043469984
86	0x3b7fe063	0.0039043657
87	0x3b9e8230	0.004837297
88	0x3b9dadd1	0.0048119803
89	0x3b87b38f	0.004141278
90	0xbbc157ea	-0.0059003728
91	0xbbbdc2c6	-0.005791041
92	0xbbbb1267	-0.005708981
93	0xbbc44f3a	-0.00599089
94	0xbbbe6e35	-0.0058114775
95	0xbbbb20fe	-0.00571072
96	0xbbb5acac	-0.0055442657
97	0xbbbaab92	-0.0056967223
98	0xbbb72eea	-0.0055903094
99	0xbae1fc18	-0.0017241267
100	0xbaecb90e	-0.0018060522
101	0xbafa0a60	-0.0019076578
102	0xbadcec51	-0.0016855096
103	0xbae57e0b	-0.0017508877
104	0xbaf42822	-0.0018627683
105	0xbad3dd77	-0.0016164024
106	0xbadec971	-0.001699729
107	0xbaed0a22	-0.0018084685
108	0x399e11a1	0.00030149243
109	0x386c8cfa	5.639808e-05
110	0x38a3a011	7.8022604e-05
111	0x38091666	3.2684206e-05
112	0x38c4cd72	9.3842755e-05
113	0x3959a346	0.00020755557
114	0x388743a3	6.4499e-05
115	0x37b155d5	2.1140013e-05
116	0x38d858cf	0.000103162245
117	0xbaf38183	-0.0018578026
118	0xbb163296	-0.0022918335
119	0xbaecddf8	-0.0018071523
120	0xbb155c4d	-0.0022790611
121	0xbb550a38	-0.0032507312
122	0xbb5b3545	-0.00334485
123	0xbaf63cf7	-0.001878648
124	0xbb4921aa	-0.0030690231
125	0xbb64c6e3	-0.0034908585
126	0xba8d5801	-0.0010783673
127	0xbaaa44e1	-0.0012990498
128	0xbaaa027c	-0.0012970711
129	0xb9567614	-0.00020452618
130	0xbaed6377	-0.0018111308
131	0xbb12ed4e	-0.0022419277
132	0xbae26468	-0.0017272355
133	0xba8d92ed	-0.0010801234
134	0xbb89fd28	-0.004211087
135	0x3c4ad2a6	0.012379324
136	0x38d81de8	0.00010305253
137	0xbb034c7d	-0.0020034604
138	0x3b9e7627	0.004835862
139	0xbac0d44d	-0.0014711708
140	0xbb43e841	-0.0029893073
141	0xbada6e06	-0.001666487
142	0xba68545f	-0.000886267
143	0xbaeace94	-0.0017914348
144	0x3ba14860	0.004921958
145	0x3c2e4a9c	0.010637905
146	0xba1137a0	-0.00055396
147	0x3bfd9f26	0.0077399192
148	0x3c332b3f	0.010935604
149	0x3b2d310a	0.0026426935
150	0x3b78a5bd	0.0037940585
151	0x3c611270	0.013737306
152	0x3bb9a15a	0.0056649866
153	0xbbaa9548	-0.005205784
154	0xbb8a5799	-0.0042218682
155	0xbb1f9f1f	-0.0024356318
156	0xbb8c3ca1	-0.0042796885
157	0x3b12d69e	0.0022405754
158	0xbb91574f	-0.004435457
159	0xbba82794	-0.005131671
160	0x3d08a3c5	0.033359308
161	0xbb6e5859	-0.0036368577
162	0x3aa5d5e6	0.0012652248
163	0x3b52eff7	0.0032186487
164	0x3b072ae4	0.002062493
165	0x3b9bc175	0.0047532865
166	0x3b8984d4	0.0041967425
167	0x3b1f3af9	0.0024296625
168	0x3af38657	0.0018579465
169	0x3b70bc3b	0.0036733288
170	0x3b005e9b	0.001958764
171	0xbb89b6a6	-0.0042026816
172	0xbb70cebc	-0.0036744317
173	0xbb041d03	-0.0020158894
174	0xbb426661	-0.0029663073
175	0xbaacf98c	-0.0013196929
176	0xbb010440	-0.001968637
177	0xbab196a3	-0.0013548922
178	0xba804a37	-0.0009787743
179	0xba8be4cb	-0.0010673044
180	0xbad7f55a	-0.0016476319
181	0xbb0adf1d	-0.0021190115
182	0xbadf517a	-0.0017037832
183	0xbb1252e5	-0.002232724
184	0xbac921ba	-0.0015345134
185	0xbae38760	-0.001735907
186	0xbaf5e9fa	-0.0018761747
187	0xbaeaa29d	-0.0017901246
188	0xbb0aff63	-0.0021209351
189	0xb8b176ec	-8.4621686e-05
190	0x39bfdaf7	0.000365935
191	0xb93b5425	-0.00017865056
192	0xb8f3ac4d	-0.000116192365
193	0x392b1640	0.0001631612
194	0xb981175a	-0.00024622196
195	0x38394c69	4.41786e-05
196	0x36b8bb91	5.505463e-06
197	0x39d78103	0.00041104117
198	0x3cde0581	0.027102234
199	0xbb5ceb8b	-0.003370973
200	0x3ccd9b05	0.025098333
201	0xbc2758fc	-0.010214087
202	0xbb7a430b	-0.0038186933
203	0xbaf1fc16	-0.0018461968
204	0xbc25221a	-0.010078931
205	0xbb2a4066	-0.0025978326
206	0x3d182d6f	0.037152704
207	0xbb7e5395	-0.0038807143
208	0x3c6fb448	0.014630385
209	0xbad521ba	-0.0016260662
210	0x3b315fae	0.0027065086
211	0xbbf88ae9	-0.0075849188
212	0x3cca0c6c	0.024664126
213	0x3cd2fa28	0.02575405
214	0x3c2b4f59	0.01045593
215	0x3a437ed1	0.0007457557
216	0x3cfe9753	0.031078016
217	0x3c533037	0.012889913
218	0x3c8c8ab7	0.017155988
219	0x3c847f19	0.016173886
220	0x3d1aa097	0.037750807
221	0x3c618236	0.013763955
222	0x3c0a879b	0.008455182
223	0x3cb29d7b	0.021803608
224	0x3b0a0b07	0.0021063702
225	0xba1b4a9c	-0.00059238984
226	0x3cf0e478	0.029405817
227	0x3c0cdbcf	0.008597328
228	0xbc61c8a6	-0.0137807485
229	0x3bcb15c8	0.006197665
230	0x3d0682ff	0.03283977
231	0xbc1f3514	-0.009717245
232	0x3cb87408	0.022516266
233	0x3c85b039	0.016319381
234	0x3c56c448	0.0131083205
235	0x3d7bf241	0.06151033
236	0x3ca6ca0f	0.02036002
237	0xbc81cfc1	-0.015846135
238	0xbc0d38b6	-0.008619478
239	0xbc1c30fe	-0.009533165
240	0x3c8ea773	0.01741383
241	0x3d87e3ce	0.06635247
242	0xbba04414	-0.004890928
243	0xbc17babe	-0.009260831
244	0xbd3afa2f	-0.04564875
245	0x3d2f319f	0.04277193
246	0x3cdbad05	0.0268159
247	0x3cfb2e1f	0.03066164
248	0xbcc37eb7	-0.023864133
249	0x3c6c4e4c	0.014422964
250	0xbc880fcf	-0.0166091
251	0xbbf4a8d1	-0.0074664135
252	0x3ccc3fbf	0.02493274
253	0xbd758373	-0.059939813
254	0xbd0ca36f	-0.03433555
255	0x3bde409a	0.0067826035

bias f4 [32]
0	0x30767816	8.966493e-10
1	0xb34114ff	-4.495541e-08
2	0xb3b327ba	-8.342563e-08
3	0x37015c4c	7.710489e-06
4	0x353e5f54	7.0919236e-07
5	0xb714bbf9	-8.865253e-06
6	0xad853ce4	-1.514739e-11
7	0xb5526b80	-7.838753e-07
8	0x312e5e8c	2.5374076e-09
9	0x330779d7	3.154295e-08
10	0xb5e1888f	-1.680355e-06
11	0xb4f69c5e	-4.5934843e-07
12	0x36b59c3c	5.4124084e-06
13	0xb75d6315	-1.3195696e-05
14	0x388e4213	6.783395e-05
15	0x3816d497	3.5960777e-05
16	0x377c9795	1.5055663e-05
17	0x3303fa9f	3.0728753e-08
18	0xaac32a5d	-3.4668354e-13
19	0x348ac493	2.584753e-07
20	0xb61a73ef	-2.301527e-06
21	0x3386cfea	6.2776806e-08
22	0x35733664	9.0603703e-07
23	0x3654f77f	3.1734523e-06
24	0xaf274ebb	-1.5216532e-10
25	0x316c5fe5	3.439703e-09
26	0x372f62e7	1.045384e-05
27	0x33f495a5	1.13893556e-07
28	0x361525e6	2.222479e-06
29	0xb6dcdeca	-6.582447e-06
30	0x36042345	1.9690062e-06
31	0x305ead53	8.100944e-10

weight f4 [32]
0	0x3cb57b4c	0.02215352
1	0x3c841f77	0.016128285
2	0x3db61e96	0.088925526
3	0x3e21804b	0.15771596
4	0x3ea1c1df	0.31593224
5	0x3e31bf22	0.17358068
6	0x3b89fea3	0.0042112633
7	0x3e81847c	0.2529639
8	0x3ce95db2	0.02848706
9	0x3da1f451	0.07907928
10	0x3d483214	0.048875883
11	0x3dc3ffb7	0.09570258
12	0x3e9b9102	0.3038407
13	0x3deff5df	0.11716818
14	0x3e91ad87	0.28452703
15	0x3e24b1c1	0.16083433
16	0x3e5db164	0.216497
17	0x3dfd96cc	0.12382278
18	0xba1a0840	-0.0005875863
19	0x3d59f36c	0.05321066
20	0x3df7e1fa	0.121036485
21	0x3dd41865	0.103562154
22	0x3e15329d	0.14570089
23	0x3d09f1c9	0.03367785
24	0x3bd0ba98	0.0063699
25	0x3d7431a2	0.059617646
26	0x3e63aad3	0.22233133
27	0x3e80d035	0.2515885
28	0x3e3b6df4	0.18303663
29	0x3e103421	0.14082386
30	0x3d2b7258	0.041857094
31	0x3c12cc13	0.008959788

bias f4 [32]
0	0xbd1db01f	-0.03849804
1	0xbcd23ce7	-0.025663806
2	0xbddf1d03	-0.108942054
3	0x3c7fff45	0.015624826
4	0xbe978080	-0.29590225
5	0x3cbe8456	0.023256462
6	0xbbd77209	-0.0065748733
7	0xbdcb2e00	-0.09920883
8	0xbd175e47	-0.036955144
9	0xbdc98008	-0.09838873
10	0x3be67e0d	0.0070340694
11	0xbdce2400	-0.1006546
12	0x3d8d0848	0.06886345
13	0xb903c99a	-0.00012568236
14	0x3dbc898e	0.09205924
15	0x3c5b7785	0.013395195
16	0x3d497d9d	0.04919206
17	0xbdfb67d8	-0.12275666
18	0xbbadab00	-0.005299926
19	0xbc686bc0	-0.014185846
20	0x3c21312a	0.009838382
21	0xbdd46df7	-0.10372537
22	0xbde65200	-0.11246109
23	0x3c90ed83	0.01769138
24	0xbc9a8a3d	-0.018864745
25	0xbd9d29fe	-0.07674025
26	0x3c387bc4	0.011259977
27	0xbe52d1c9	-0.20587839
28	0x3cb6f436	0.022333246
29	0x3bc949a7	0.0061428132
30	0xbcfd3593	-0.030909335
31	0xbcc097a1	-0.023509802

running_mean f4 [32]
0	0xbbb7d306	-0.0056098728
1	0xbbda7c1c	-0.006667627
2	0xbb9771d8	-0.0046217255
3	0xbba4f978	-0.005034622
4	0xbd059e84	-0.032621875
5	0x3cc99fbd	0.024612302
6	0xb9947b51	-0.00028320638
7	0xbe13d074	-0.14434987
8	0x3b7593a6	0.0037472039
9	0xbc1a7e1e	-0.009429483
10	0xbc89208a	-0.016739149
11	0xbcbdc304	-0.02316428
12	0xbbac259e	-0.0052535078
13	0xbc7bb86f	-0.015363797
14	0xba9125f1	-0.001107393
15	0xbc650e61	-0.013980479
16	0x3c15f6ab	0.0091530485
17	0xbc6bbacd	-0.0143877985
18	0xba0a9667	-0.0005286694
19	0x3d52cd9b	0.051465612
20	0x3c210339	0.0098274285
21	0xbcdda4bc	-0.02705609
22	0xbd215b92	-0.03939397
23	0x3c588def	0.013217433
24	0x3b3bb67d	0.0028642707
25	0xbc103967	-0.008802748
26	0x3ce24804	0.02762223
27	0xbd1d15d6	-0.038350902
28	0x3bee490f	0.007271893
29	0x3dfabbd9	0.1224286
30	0x3c8a2c1c	0.016866736
31	0xb9523c3f	-0.00020049604

running_var f4 [32]
0	0x3b2f8d45	0.0026787084
1	0x3b450ea2	0.0030068536
2	0x3cbd6e3c	0.023123853
3	0x3ca27c29	0.019834595
4	0x3df6827e	0.12036608
5	0x3c6dee79	0.014522188
6	0x39300c08	0.0001678915
7	0x3d180b03	0.037119877
8	0x3ae98c74	0.0017818348
9	0x3d0db38a	0.03459505
10	0x3c3e978c	0.011632811
11	0x3b961297	0.004579853
12	0x3c0e470d	0.008683932
13	0x3d0313c0	0.032001257
14	0x3b887976	0.00416487
15	0x3ce4661c	0.02788072
16	0x3c091513	0.008366841
17	0x3d25aef9	0.04045007
18	0x38ae9115	8.32399e-05
19	0x3c6382bb	0.013886149
20	0x3caf0b81	0.02136779
21	0x3bf3e3c7	0.0074429247
22	0x3cc06ad6	0.023488443
23	0x3b532c0d	0.0032222301
24	0x3a7506ff	0.0009347051
25	0x3c87bd9d	0.016569907
26	0x3cca67c1	0.024707677
27	0x3d8a706c	0.06759724
28	0x3c989f9c	0.018630795
29	0x3c4fc456	0.0126810875
30	0x3b879169	0.0041372073
31	0x3aa78552	0.0012780821

weight f4 [32, 35, 3, 3]
0	0x381c108c	3.720871e-05
1	0x381ba665	3.7109847e-05
2	0x381bab99	3.7114693e-05
3	0x381bc947	3.7142334e-05
4	0x381bc32b	3.7136644e-05
5	0x381bd5c6	3.715397e-05
6	0x381be4a3	3.7167814e-05
7	0x381ba05e	3.7104233e-05
8	0x381be1f9	3.7165333e-05
9	0x3a4092e4	0.0007346107
10	0x3a4090b2	0.000734578
11	0x3a409116	0.0007345838
12	0x3a4090ad	0.0007345777
13	0x3a4090b3	0.00073457806
14	0x3a409402	0.00073462736
15	0x3a409592	0.00073465065
16	0x3a4090fa	0.0007345822
17	0x3a40956d	0.0007346485
18	0xb9e0df79	-0.0004289111
19	0xb9dee8b4	-0.00042516517
20	0xb9dcd8c8	-0.00042123185
21	0xb9e5d83f	-0.000438394
22	0xb9e3e37c	-0.00043466303
23	0xb9e1ea25	-0.00043089796
24	0xb9ea8421	-0.00044730402
25	0xb9e87b2c	-0.00044342258
26	0xb9e682c0	-0.00043966435
27	0xb88ce984	-6.719216e-05
28	0xb92bc481	-0.00016381034
29	0xb90b227c	-0.0001326892
30	0x38630140	5.412218e-05
31	0xb8ed5a6d	-0.00011317884
32	0xb8a5b774	-7.901984e-05
33	0x38d970f1	0.00010368403
34	0x3885982b	6.370278e-05
35	0xb7458d2b	-1.1774983e-05
36	0xb7a05076	-1.9110954e-05
37	0xb94b69e8	-0.00019399042
38	0xb903038b	-0.00012494453
39	0xb88ecba1	-6.8090165e-05
40	0xb8939bae	-7.038504e-05
41	0xb82c0fdc	-4.1022766e-05
42	0x38d1f0cf	0.00010010751
43	0x3925ae49	0.00015800553
44	0xb759c16f	-1.2979245e-05
45	0xb9a91524	-0.00032249943
46	0xba337ce5	-0.0006846919
47	0xba00e4ce	-0.0004916907
48	0xb976ec70	-0.00023548468
49	0xb994a8be	-0.00028354482
50	0xb9d4fcee	-0.00040624238
51	0x3a0405a3	0.00050362403
52	0x3a0ea321	0.0005441178
53	0xb99f7309	-0.0003041255
54	0xb86488f6	-5.448699e-05
55	0xb87b75c0	-5.9952727e-05
56	0xb81fd5cf	-3.810768e-05
57	0x39cc73bf	0.0003899615
58	0x39f0b40a	0.00045910507
59	0xb992f0ac	-0.00028026605
60	0x395d4f55	0.00021105756
61	0x39411850	0.00018414971
62	0xb8edd1ce	-0.0001134012
63	0xba38da06	-0.0007051531
64	0xba829080	-0.0009961277
65	0xba7fc546	-0.0009756874
66	0x386358db	5.420377e-05
67	0x3940a59a	0.00018372238
68	0xbaa1d0be	-0.0012345535
69	0x3aaf640e	0.0013381259
70	0x3b4788e8	0.0030446593
71	0x38d3ea12	0.00010104863
72	0x3a831c46	0.0010002933
73	0xba2e863b	-0.0006657575
74	0xba468db2	-0.0007574215
75	0x39c0907c	0.00036728743
76	0x3adc2beb	0.0016797757
77	0xba111dc4	-0.00055357465
78	0x39e9541b	0.00044503887
79	0x39992fc3	0.0002921802
80	0xb8c215a9	-9.2546754e-05
81	0xb66e1d89	-3.5481955e-06
82	0xb804475e	-3.153772e-05
83	0xb8236f15	-3.896568e-05
84	0x36f995da	7.4382233e-06
85	0xb70e3af8	-8.477589e-06
86	0xb7f474d0	-2.9141462e-05
87	0x37979dac	1.8074024e-05
88	0x376a1ed9	1.3954669e-05
89	0xb728be3f	-1.0057875e-05
90	0xba8d58b9	-0.0010783888
91	0xba8f4e97	-0.0010933456
92	0xba474f39	-0.00076030527
93	0x3a74e0fa	0.00093413854
94	0xba16d0c3	-0.0005753154
95	0xba7dae26	-0.0009677134
96	0x3b1dee5d	0.0024098374
97	0x3b3b78f8	0.0028606039
98	0x3926302a	0.00015848936
99	0xb7c902eb	-2.3962426e-05
100	0xb90bdb77	-0.0001333783
101	0xb93a5957	-0.00017771624
102	0x389c5082	7.4536554e-05
103	0x38afe945	8.3881e-05
104	0xb686aed5	-4.0138643e-06
105	0x38886787	6.504269e-05
106	0xb7365b14	-1.0869251e-05
107	0x36b13d5c	5.2821542e-06
108	0xb9dfb2bd	-0.00042667045
109	0xba12fcf9	-0.0005607154
110	0xb9f2c608	-0.00046305382
111	0x38339df8	4.2824046e-05
112	0xb921af4b	-0.00015419458
113	0xb9bd0496	-0.00036052306
114	0x396599ee	0.00021896485
115	0x39aefa95	0.00033374564
116	0xb8e01f94	-0.00010687034
117	0xb7b4bc00	-2.1545216e-05
118	0xb9274c89	-0.00015954873
119	0xb916aeb8	-0.00014370203
120	0x39659394	0.00021894119
121	0xb8a9431e	-8.0710495e-05
122	0xb8830201	-6.24694e-05
123	0x396cacb3	0.0002257105
124	0x397fef7f	0.00024407914
125	0x37d971cd	2.5921408e-05
126	0xb9f788ac	-0.0004721334
127	0xb9c31a99	-0.00037213115
128	0xb94ab4b2	-0.00019331535
129	0xb74d8495	-1.2249821e-05
130	0xba0f3241	-0.00054625055
131	0xb9af6baa	-0.00033458817
132	0xb77636a8	-1.4675468e-05
133	0x3a2808a0	0.00064099766
134	0xb9225ccf	-0.00015484098
135	0x39b143b9	0.00033810528
136	0x3a60c1f1	0.00085738214
137	0xb9e2e8dd	-0.00043279576
138	0xba57f3b7	-0.00082379155
139	0x3b0c0a4a	0.0021368437
140	0xba647131	-0.00087143766
141	0x3b30f239	0.0026999845
142	0x3b31301c	0.0027036732
143	0xbb0479ed	-0.0020214275
144	0xb6cf885b	-6.1849546e-06
145	0xb998028d	-0.000289936
146	0xb9c11449	-0.00036826942
147	0x38d627e7	0.000102117476
148	0xb989b7a1	-0.0002626749
149	0xb9a3999c	-0.0003120423
150	0x3a2d1c2a	0.0006603623
151	0x3a1435cb	0.0005653768
152	0xb8010d8f	-3.0768624e-05
153	0x3a124ffd	0.0005581377
154	0xbb0b05e1	-0.002121322
155	0xba2ca429	-0.0006585741
156	0x3aac59df	0.0013149342
157	0xbb03ab85	-0.0020091247
158	0xba20b5cd	-0.0006130606
159	0xb868b9f5	-5.5486296e-05
160	0x3adb471d	0.0016729567
161	0x3990574c	0.00027530862
162	0xba072cce	-0.0005156518
163	0xb91eef41	-0.00015157183
164	0xb83fde2f	-4.5744873e-05
165	0x39534183	0.00020146933
166	0x3894648d	7.075919e-05
167	0xb88c498d	-6.68942e-05
168	0x3a2a9d03	0.0006508382
169	0x3a9e47e9	0.0012075874
170	0xb95ae0cd	-0.00020873845
171	0x3993f138	0.00028217747
172	0xba8285ba	-0.0009958067
173	0xb9ec5207	-0.00045074543
174	0x3a690256	0.0008888593
175	0x3ae89dca	0.001774722
176	0xba0f6a09	-0.00054708176
177	0x3a897039	0.0010485715
178	0x3ae7dc17	0.0017689493
179	0x38a45ce6	7.837433e-05
180	0xba09380b	-0.00052344863
181	0xba386420	-0.0007033963
182	0xba338b64	-0.0006849079
183	0xb56b37b9	-8.762541e-07
184	0xb93bc242	-0.00017906076
185	0xba18843b	-0.0005818044
186	0x3a2751f5	0.0006382757
187	0x3a1de401	0.000602305
188	0xb98353ed	-0.00025048797
189	0xb36a811d	-5.45998e-08
190	0x35078d0a	5.049666e-07
191	0xb3b48740	-8.406505e-08
192	0x34caeea2	3.779906e-07
193	0x34fae042	4.6729298e-07
194	0x33ce0951	9.594317e-08
195	0x3642d5bb	2.903266e-06
196	0x36e80132	6.914278e-06
197	0x3536b41c	6.8062377e-07
198	0xb9777664	-0.0002359986
199	0xb97e4396	-0.00024248505
200	0xb9aaa99a	-0.0003255129
201	0xb8907c58	-6.889616e-05
202	0xb8fa1b51	-0.00011926017
203	0xb99a9f30	-0.00029491773
204	0x399da8a5	0.00030071024
205	0x394a12ae	0.0001927118
206	0xb9650d75	-0.00021844155
207	0xb95df9ea	-0.00021169303
208	0xb980760b	-0.0002450201
209	0xb9170908	-0.00014403847
210	0x3985170f	0.00025384917
211	0xba12d6e2	-0.0005601478
212	0xb9e74077	-0.00044107783
213	0xb867a224	-5.5225697e-05
214	0x39e5d0d1	0.00043833864
215	0x38ae9288	8.32426e-05
216	0xb65f9dd3	-3.3321455e-06
217	0xb996cec6	-0.00028764288
218	0xb9445159	-0.00018722321
219	0x3a33b5ef	0.00068554183
220	0xb93c7a06	-0.00017974534
221	0xb88a479d	-6.593692e-05
222	0x3a18bb56	0.0005826255
223	0x3a0f1ca4	0.0005459285
224	0x389033a0	6.876071e-05
225	0xb896a683	-7.1835726e-05
226	0xba34cd69	-0.00068970636
227	0xba2e8a3c	-0.0006658172
228	0xb9ade173	-0.00033165104
229	0xb9e1ea0e	-0.0004308973
230	0xba25edbc	-0.00063296757
231	0x3a07d20b	0.000518114
232	0x3ada1209	0.0016637455
233	0xb8113498	-3.4619676e-05
234	0xb7be52a0	-2.268824e-05
235	0xb834c6dd	-4.310055e-05
236	0xb813a04e	-3.5196827e-05
237	0x38d463bb	0.00010127524
238	0x3858236d	5.1531406e-05
239	0xb91c1077	-0.00014883453
240	0xb660c84f	-3.3495196e-06
241	0x3898f055	7.29269e-05
242	0x38b7885d	8.7515196e-05
243	0xb8073451	-3.223523e-05
244	0xb8152a86	-3.556397e-05
245	0xb8198c81	-3.6608897e-05
246	0xb7a80a75	-2.003203e-05
247	0xb78aa2fd	-1.652678e-05
248	0xb802a98e	-3.1152325e-05
249	0x37b6e0fe	2.180086e-05
250	0x38a2b57d	7.758567e-05
251	0x3612a5fc	2.185231e-06
252	0xb94b3c46	-0.00019382042
253	0xba0f4152	-0.00054647506
254	0xb9b5d0cd	-0.0003467858
255	0xb91fec1f	-0.00015251384

bias f4 [32]
0	0xb8aeed85	-8.341208e-05
1	0x34d53c76	3.9718333e-07
2	0x80eb1843	-2.1590045e-38
3	0x2edd8932	1.0074287e-10
4	0x89c6bfb2	-4.7847036e-33
5	0xb2edec2c	-2.769783e-08
6	0x313f4277	2.783194e-09
7	0x385a80ff	5.2095387e-05
8	0xafb62625	-3.313271e-10
9	0x30ceaa7f	1.5036931e-09
10	0xb80183cb	-3.087874e-05
11	0x3887dc6f	6.4783606e-05
12	0xa8dd0737	-2.4539058e-14
13	0x3523c2c5	6.100566e-07
14	0xb7dcbb09	-2.6313139e-05
15	0xb292ce23	-1.7090377e-08
16	0xb297e790	-1.7684016e-08
17	0xb3834c7d	-6.114076e-08
18	0xb27918f5	-1.4499382e-08
19	0x33acbef6	8.04411e-08
20	0xa61a60eb	-5.356083e-16
21	0xb493218a	-2.7405287e-07
22	0xb287a049	-1.5788958e-08
23	0x37362a11	1.085784e-05
24	0xb4dd4c6c	-4.1220062e-07
25	0xb715db23	-8.932114e-06
26	0x34d9400f	4.0466008e-07
27	0xb18d5fc5	-4.114528e-09
28	0x3165fffb	3.3469394e-09
29	0xa07c9aab	-2.1396406e-19
30	0x362a202f	2.5350707e-06
31	0xb375441e	-5.710546e-08

weight f4 [32]
0	0x3bb9c71e	0.0056694886
1	0x3dafa21a	0.0857584
2	0x3a3bb445	0.0007160346
3	0x3af04b81	0.0018333049
4	0x3a2ed280	0.000666894
5	0x3d9f39b9	0.077746816
6	0x3bebeb0d	0.007199651
7	0x3e91b091	0.28455022
8	0x3ad9b65f	0.0016610137
9	0x3d55cbac	0.05219619
10	0x3e5281e2	0.20557359
11	0x3e8d2013	0.27563533
12	0x3a125c15	0.00055831793
13	0x3dc566f6	0.09638779
14	0x3eda9842	0.42694288
15	0x3d5c24a9	0.0537459
16	0x3c7c3ad8	0.015394889
17	0x3d2d7d02	0.042355545
18	0x3d5d48e5	0.054024596
19	0x3dbe9bfc	0.093070954
20	0x3a980df4	0.0011600838
21	0x3db54a33	0.08852043
22	0x3c55594d	0.013021779
23	0x3e2cd61b	0.1687855
24	0x3df8aa5c	0.121418685
25	0x3db2bbb0	0.08727205
26	0x3e4967fe	0.19668576
27	0x3c37c372	0.011216031
28	0x3bd1c06a	0.0064011114
29	0x3a75388e	0.00093544356
30	0x3e91d647	0.28483793
31	0x3d52041f	0.05127346

bias f4 [32]
0	0xbc8222cf	-0.015885739
1	0xbdbdf79c	-0.09275743
2	0xb7542986	-1.2645853e-05
3	0xbb18b818	-0.0023303088
4	0xb6e898fc	-6.9319485e-06
5	0xbd5e3132	-0.054246135
6	0xbc21cfcf	-0.009876206
7	0x3dc7700a	0.09738167
8	0xbae57327	-0.0017505632
9	0xbd2a57be	-0.041587584
10	0x3d9f7b4f	0.07787191
11	0x3df3949c	0.11893579
12	0xba3ab44e	-0.00071222044
13	0xbd4e8b51	-0.05042583
14	0x3e313f14	0.17309219
15	0xbcccc857	-0.024997873
16	0xbc3dfe2e	-0.011596246
17	0xbd27942e	-0.0409128
18	0xbd28d0ce	-0.041214757
19	0xbd0c71bc	-0.034288153
20	0xb9f4d2e4	-0.00046696432
21	0xbd579525	-0.05263247
22	0xbcabc74d	-0.020969057
23	0x3d8f75e5	0.070049085
24	0x3d152508	0.03641227
25	0x3d2f5cfa	0.04281328
26	0xbd8e7139	-0.06955189
27	0xbc91d31d	-0.017800862
28	0xbc5d780b	-0.01351739
29	0xbace6ef9	-0.0015749625
30	0x3de7552b	0.112955414
31	0xbd1275d6	-0.03575691

running_mean f4 [32]
0	0xba9b7299	-0.0011859714
1	0xbc086c48	-0.0083265975
2	0xb2857af2	-1.5539147e-08
3	0x3aa0f9bf	0.0012281461
4	0xb1f538b5	-7.1368853e-09
5	0xbc4962ce	-0.012291623
6	0x3a5775cc	0.0008219152
7	0xbcf31618	-0.029673621
8	0x39ae789f	0.00033277736
9	0x3c0c1bb6	0.008551529
10	0xbbabe729	-0.0052460623
11	0x3d0df082	0.034653194
12	0xb68687e7	-4.0093323e-06
13	0x3a93b1a7	0.0011268154
14	0x3dd12bcb	0.10213431
15	0x3c06319e	0.008190541
16	0x3b0ca16d	0.0021458522
17	0xbd035583	-0.032063972
18	0xbb867816	-0.004103671
19	0x3bb437cc	0.0054998156
20	0xb7699114	-1.3921661e-05
21	0x3c0cd7fc	0.008596417
22	0x3b4ffd88	0.003173681
23	0xbbeea352	-0.007282653
24	0x3cc78557	0.024355574
25	0xbad1abc7	-0.0015996628
26	0x3c0b30a8	0.008495487
27	0x397a9153	0.00023895995
28	0xba3a0f93	-0.00070976577
29	0x37eed3f9	2.8470518e-05
30	0xbc54f6f7	-0.012998334
31	0xba1c9978	-0.00059737964

running_var f4 [32]
0	0x38ea7723	0.000111801804
1	0x3c51feb4	0.012817074
2	0x291a511a	3.4265214e-14
3	0x366e55f2	3.551479e-06
4	0x267ce519	8.774055e-16
5	0x3c82bd1f	0.01595932
6	0x39c4ccdc	0.00037536665
7	0x3c8ac864	0.016941257
8	0x375c56ce	1.3133233e-05
9	0x3c0d7c58	0.008635603
10	0x3bc154d8	0.0059000067
11	0x3c491130	0.012272164
12	0x329c02cf	1.8162067e-08
13	0x3ccd04f1	0.02502677
14	0x3cdc9f30	0.026931375
15	0x3c1c3067	0.009533024
16	0x39fd7d72	0.00048349384
17	0x3c7a9a33	0.015295553
18	0x3bd80769	0.0065926802
19	0x3c875c81	0.016523601
20	0x315d8e98	3.2240788e-09
21	0x3cb3c69a	0.021945287
22	0x39c36004	0.00037264836
23	0x3c330c43	0.010928216
24	0x3bc575ca	0.0060260044
25	0x3b0a6c75	0.0021121774
26	0x3db765b6	0.08954947
27	0x392a0ad1	0.00016216493
28	0x3929cd90	0.00016193674
29	0x35a376fb	1.2179074e-06
30	0x3b76e10a	0.0037670755
31	0x3c2e79cf	0.010649159

weight f4 [64, 35, 3, 3]
0	0xb8af4211	-8.356956e-05
1	0xb8af3fd6	-8.356541e-05
2	0xb8af411d	-8.3567786e-05
3	0xb8af4206	-8.356948e-05
4	0xb8af4a34	-8.358472e-05
5	0xb8af6542	-8.363511e-05
6	0xb8af4fdb	-8.3595245e-05
7	0xb8af439e	-8.357245e-05
8	0xb8af4b04	-8.358623e-05
9	0xb714772f	-8.849237e-06
10	0xb714c4a5	-8.867272e-06
11	0xb71470f5	-8.847787e-06
12	0xb714a063	-8.85883e-06
13	0xb714a0c6	-8.85892e-06
14	0xb7148f9c	-8.854924e-06
15	0xb7147d80	-8.850708e-06
16	0xb7148a31	-8.853663e-06
17	0xb714885d	-8.853237e-06
18	0xb5e80bcf	-1.7288784e-06
19	0xb5d67483	-1.5978152e-06
20	0xb5c12475	-1.4390231e-06
21	0xb60c43b1	-2.0901027e-06
22	0xb5fc23fe	-1.8785938e-06
23	0xb5e5d8c3	-1.7124916e-06
24	0xb63044e7	-2.626615e-06
25	0xb61cb26c	-2.3349667e-06
26	0xb60fbc5d	-2.1418302e-06
27	0xb18bf1af	-4.0729087e-09
28	0x31bc2f32	5.4768856e-09
29	0xb216e17d	-8.782419e-09
30	0x31dfd5ac	6.514446e-09
31	0x328e0947	1.6535195e-08
32	0x30f17399	1.7567913e-09
33	0x322dc2d5	1.0114225e-08
34	0x32d503e5	2.4798235e-08
35	0x32d6dd3e	2.5013488e-08
36	0x33817178	6.0276705e-08
37	0xb4770251	-2.300451e-07
38	0xb332f3ec	-4.16657e-08
39	0x309ddd49	1.1486146e-09
40	0xb522c75d	-6.0639815e-07
41	0xb58f256e	-1.0665224e-06
42	0x352eba3b	6.509105e-07
43	0xb605bc99	-1.9928323e-06
44	0x33324250	4.1504165e-08
45	0x860f584e	-2.6960187e-35
46	0x09051f8e	1.602413e-33
47	0x06691ece	4.384506e-35
48	0x86da9e22	-8.223484e-35
49	0x85a83f69	-1.5821937e-35
50	0x8613f278	-2.7825765e-35
51	0x8692760d	-5.5092556e-35
52	0x85169d34	-7.08184e-36
53	0x053a5acf	8.762357e-36
54	0x2e59951b	4.947252e-11
55	0x2f934943	2.67912e-10
56	0x304e8944	7.513743e-10
57	0x2cee0732	6.7651657e-12
58	0xaf8e5d50	-2.5895952e-10
59	0x2e3e1459	4.321907e-11
60	0x2fd4f183	3.873418e-10
61	0xb229f56e	-9.892899e-09
62	0xb1ce7dda	-6.0096967e-09
63	0x93cc3169	-5.1545562e-27
64	0x91956b0c	-2.3574028e-28
65	0x93f04a0a	-6.0657526e-27
66	0x100c4d72	2.7669793e-29
67	0x9125e414	-1.3086487e-28
68	0x195469b4	1.098149e-23
69	0x8f843d6a	-1.3039861e-29
70	0x126b851e	7.4317005e-28
71	0x14679980	1.1692792e-26
72	0xb353af9c	-4.928698e-08
73	0xb3e08985	-1.04558275e-07
74	0xb40dcd47	-1.3206328e-07
75	0x33a55c7f	7.700236e-08
76	0xb4b11a52	-3.298797e-07
77	0xb4c77146	-3.7149056e-07
78	0xb43050f0	-1.6420722e-07
79	0xb5e21b08	-1.6846179e-06
80	0xb4b3bfd2	-3.3480916e-07
81	0x320c3a3f	8.162316e-09
82	0x30e2d29b	1.6503522e-09
83	0xb28d207f	-1.6429338e-08
84	0x3298fd52	1.7810326e-08
85	0x32a2cbd2	1.8951969e-08
86	0x31b373c3	5.2227462e-09
87	0x3314b9df	3.4627984e-08
88	0xb2aa16ef	-1.9801034e-08
89	0x3270564c	1.398946e-08
90	0x37958613	1.7824617e-05
91	0x3750f31f	1.2454372e-05
92	0xb3d2295c	-9.78641e-08
93	0xb6ad1cbc	-5.159147e-06
94	0xb70b0de4	-8.28828e-06
95	0xb75851fe	-1.2893694e-05
96	0x384fd6a2	4.955254e-05
97	0x388b0fb7	6.6309636e-05
98	0x371130ac	8.654006e-06
99	0x2edd275d	1.0056909e-10
100	0x316fcf7a	3.4897014e-09
101	0xb1773e0c	-3.59785e-09
102	0x31c92b8c	5.8548206e-09
103	0x32068268	7.8294775e-09
104	0xb21a28a2	-8.973219e-09
105	0x3200cfaf	7.497802e-09
106	0x3211f011	8.494696e-09
107	0xb2176151	-8.811484e-09
108	0x331bf109	3.630797e-08
109	0xb382ae3a	-6.0852884e-08
110	0xb3be011a	-8.847765e-08
111	0x3342beee	4.5342794e-08
112	0xb28fe266	-1.6750345e-08
113	0xb42b8e02	-1.5977278e-07
114	0xb41308d1	-1.3693649e-07
115	0xb53f02e8	-7.1157274e-07
116	0xb203657e	-7.64828e-09
117	0x37816f67	1.5429874e-05
118	0x38849b83	6.323217e-05
119	0x382bc6ae	4.0954612e-05
120	0x377f724e	1.5225798e-05
121	0xb888b812	-6.519271e-05
122	0xb7a93a85	-2.017362e-05
123	0x38e35128	0.0001083932
124	0x39781a9c	0.00023661036
125	0x392a5bd5	0.00016246673
126	0xb7078f0c	-8.079933e-06
127	0xb7746d28	-1.4568948e-05
128	0xb682dfb0	-3.9003426e-06
129	0xb71e0be0	-9.420299e-06
130	0xb757c3ad	-1.2860558e-05
131	0x3690069b	4.2923034e-06
132	0x372c71b2	1.0278471e-05
133	0x36cf3e66	6.176345e-06
134	0xb66caf87	-3.526891e-06
135	0x2f95fa79	2.7280914e-10
136	0x2c2fdd16	2.4991723e-12
137	0x2fccb532	3.723613e-10
138	0xaffcd197	-4.5987456e-10
139	0xafacbeb1	-3.1422112e-10
140	0x301510ba	5.4229654e-10
141	0xb0bcfad0	-1.3750086e-09
142	0xafdf7470	-4.0646198e-10
143	0x2fb93780	3.369074e-10
144	0x333815bc	4.2860606e-08
145	0xb427860b	-1.5601852e-07
146	0xb3d3e761	-9.867541e-08
147	0x33ac4ba2	8.023132e-08
148	0xb45b4b34	-2.0423323e-07
149	0xb518dbc8	-5.6944236e-07
150	0xb483e827	-2.4569565e-07
151	0xb5afc714	-1.3096455e-06
152	0xb50b374e	-5.1862014e-07
153	0xb77962d6	-1.4864569e-05
154	0xb7d7e879	-2.573825e-05
155	0xb69a3680	-4.5959023e-06
156	0xb8a99430	-8.08615e-05
157	0xb80c6c65	-3.347955e-05
158	0x3721e6de	9.650101e-06
159	0x3843076d	4.649854e-05
160	0x3839ac5c	4.426796e-05
161	0xb74c6ebd	-1.2185131e-05
162	0x335ffff2	5.2154014e-08
163	0x33104dca	3.359836e-08
164	0xb3d478a6	-9.893965e-08
165	0x340cd1a4	1.3114783e-07
166	0x33cbb3f8	9.48566e-08
167	0xb461cb73	-2.1028772e-07
168	0x3414f2a9	1.3871853e-07
169	0xb472f099	-2.2625535e-07
170	0xb2c5f8bd	-2.3046931e-08
171	0x32d0b19e	2.4295158e-08
172	0xb3aff895	-8.194289e-08
173	0xb3164701	-3.4989174e-08
174	0x32eb9f2c	2.7429984e-08
175	0xb2ed678d	-2.763752e-08
176	0xb4929c47	-2.7308326e-07
177	0xb3b5b92f	-8.462154e-08
178	0xb47fc445	-2.3820128e-07
179	0xb3359a94	-4.2282934e-08
180	0xb1c81683	-5.8233254e-09
181	0x31ef9c12	6.9735586e-09
182	0xb30372d7	-3.060526e-08
183	0xb14f975c	-3.0208502e-09
184	0x31ed4b82	6.906192e-09
185	0xb1b6673b	-5.308633e-09
186	0xb1fbc954	-7.32795e-09
187	0x3119e15c	2.2392532e-09
188	0x31ef12f7	6.9579715e-09
189	0x33598437	5.06445e-08
190	0xb4941640	-2.7583337e-07
191	0xb3e3841a	-1.05945404e-07
192	0xb2ad71aa	-2.0191539e-08
193	0xb5747c1c	-9.1077686e-07
194	0xb488faa9	-2.5514353e-07
195	0xb4abd865	-3.200868e-07
196	0xb5b513e7	-1.3491343e-06
197	0x34e0260b	4.175093e-07
198	0xb3c85f4e	-9.3305616e-08
199	0xb4506a5c	-1.9410203e-07
200	0xb453113e	-1.9657179e-07
201	0xb5027f40	-4.8613947e-07
202	0xb6363fed	-2.7157323e-06
203	0xb54a159c	-7.528231e-07
204	0xb56d8b4e	-8.8492095e-07
205	0xb58cd0d8	-1.0491594e-06
206	0x35b4cf14	1.3471313e-06
207	0x2cc09f30	5.4746416e-12
208	0x29778bef	5.496639e-14
209	0x2c898bd6	3.909299e-12
210	0x2c8e9570	4.0524736e-12
211	0xac408a77	-2.7361704e-12
212	0x2adc7817	3.916318e-13
213	0xac5bf6d4	-3.125879e-12
214	0xac2c8d1d	-2.4521004e-12
215	0x2ba9d2b8	1.2066658e-12
216	0x32f27f5d	2.8230426e-08
217	0xb43c66ea	-1.7546304e-07
218	0xb3b5fe8c	-8.474771e-08
219	0xb41903e4	-1.4250651e-07
220	0xb4ccfbea	-3.8181253e-07
221	0x339f796f	7.426103e-08
222	0xb470e69e	-2.243564e-07
223	0xb5dfe8b0	-1.6682516e-06
224	0xb2113a9f	-8.45344e-09
225	0x321dd5de	9.1872305e-09
226	0x325ce34c	1.2857367e-08
227	0x323fed0f	1.1171564e-08
228	0x31f415b4	7.103802e-09
229	0x31d139a8	6.0892553e-09
230	0x32887a51	1.5888107e-08
231	0xb19c0a84	-4.541393e-09
232	0x31c3b7d5	5.696146e-09
233	0x33aa4256	7.928308e-08
234	0xb5589cce	-8.069445e-07
235	0xb59e4ba9	-1.1793937e-06
236	0xb5d006c3	-1.5499176e-06
237	0xb52057dd	-5.97325e-07
238	0xb5bb6441	-1.3961763e-06
239	0xb4e4f47b	-4.2646192e-07
240	0xb49873cb	-2.8396457e-07
241	0xb4f0eccf	-4.4875785e-07
242	0xb595d258	-1.1162583e-06
243	0xb1c7bf61	-5.8134195e-09
244	0xb4e82615	-4.3241076e-07
245	0xb248ac99	-1.1680776e-08
246	0xb5df3b21	-1.6632004e-06
247	0xb68319b5	-3.907097e-06
248	0xb616a372	-2.244688e-06
249	0x365a3dd3	3.2520518e-06
250	0xb72dfab3	-1.0369974e-05
251	0x36164e7f	2.2397433e-06
252	0xb2861a55	-1.5611628e-08
253	0xb3f545fc	-1.14214316e-07
254	0xb39e28d5	-7.3648756e-08
255	0xb3ba3336	-8.670615e-08

bias f4 [64]
0	0xab961f05	-1.0666751e-12
1	0x36b83265	5.489494e-06
2	0x3704e191	7.920332e-06
3	0x351c2383	5.8166205e-07
4	0x2c304be3	2.505323e-12
5	0xaf82a120	-2.3761348e-10
6	0x339879a2	7.1001764e-08
7	0x258c827d	2.437455e-16
8	0x3634e976	2.6957982e-06
9	0x324ba0a8	1.1852684e-08
10	0xb1b381a6	-5.224325e-09
11	0x364e6f3f	3.0761146e-06
12	0xb1d3a01d	-6.159111e-09
13	0x322d5b31	1.009066e-08
14	0xb3632b9c	-5.289222e-08
15	0xad5b70ad	-1.2473728e-11
16	0x312d43dd	2.521339e-09
17	0x2cec61bf	6.7183754e-12
18	0x19d3a3f5	2.188311e-23
19	0xb6b0efe2	-5.273135e-06
20	0x32041c6e	7.689875e-09
21	0x2f89a441	2.5036864e-10
22	0xb4059e84	-1.2444258e-07
23	0xb26a5b2f	-1.3641325e-08
24	0xb11748f4	-2.201486e-09
25	0xb1288636	-2.4523508e-09
26	0xb30d2c54	-3.2869437e-08
27	0xb394a1e7	-6.921237e-08
28	0xafe7c599	-4.2159057e-10
29	0x24020855	2.8196314e-17
30	0x35f8d700	1.8540013e-06
31	0x1140f846	1.5222635e-28
32	0x36476717	2.9713317e-06
33	0xb489d4dd	-2.5673117e-07
34	0x3464727c	2.1275804e-07
35	0x2fd5fbce	3.8923392e-10
36	0xb46bb2b6	-2.1951095e-07
37	0x2f000fb3	1.164711e-10
38	0xb3a57f78	-7.706598e-08
39	0x19148661	7.678558e-24
40	0xb6d9d1c1	-6.4915225e-06
41	0xb5230e3e	-6.0742957e-07
42	0xafaf2edc	-3.186561e-10
43	0xb10ee0d8	-2.0791528e-09
44	0x3664fb85	3.4121051e-06
45	0xb3359edb	-4.2286825e-08
46	0x3304e78a	3.094423e-08
47	0x3267b6dc	1.3487547e-08
48	0xb4939180	-2.748675e-07
49	0xb81e5331	-3.7747614e-05
50	0x1808d781	1.768639e-24
51	0x307c0d45	9.1695923e-10
52	0xb362cf56	-5.2808296e-08
53	0xb70a7e4d	-8.254848e-06
54	0x1a8e5c31	5.8878767e-23
55	0x9b4054c9	-1.5909263e-22
56	0x34d7ad78	4.0173086e-07
57	0xa880eebf	-1.4314394e-14
58	0x2efd6d65	1.15245403e-10
59	0xb70987ac	-8.197425e-06
60	0x2f9425fc	2.6948033e-10
61	0x324e07fa	1.1992592e-08
62	0xb61c61ad	-2.3302666e-06
63	0x3093c4ca	1.0751589e-09

weight f4 [64]
0	0x39800da3	0.00024424223
1	0x3d97728b	0.07394894
2	0x3e5815d0	0.21102071
3	0x3e5fe7d9	0.21865787
4	0x3aa177ad	0.0012318991
5	0x3b58b6fa	0.0033068047
6	0x3cd68553	0.02618662
7	0x3a8799f1	0.0010345561
8	0x3e0dc6d3	0.13845377
9	0x3d5a6eb8	0.053328246
10	0x3c23adfd	0.0099902125
11	0x3d6a3d7a	0.057187535
12	0x3bbd10ca	0.0057698237
13	0x3c63b37a	0.013897771
14	0x3dfefc51	0.12450469
15	0x3b1945f2	0.0023387638
16	0x3c1aef02	0.009456398
17	0x3a7b280a	0.00095808564
18	0x39bff88a	0.00036615535
19	0x3dbaae6b	0.09115299
20	0x3cacb11d	0.021080548
21	0x3b1b98dd	0.0023742237
22	0x3e28e35b	0.16492979
23	0x3ce3fa16	0.027829211
24	0x3c8bd719	0.01707034
25	0x3c8f3440	0.01748097
26	0x3bad81c1	0.005295009
27	0x3cb4397a	0.022000063
28	0x3b205d25	0.002446958
29	0x3a37c0fc	0.0007009653
30	0x3e17a703	0.14809804
31	0x3a517b85	0.0007991123
32	0x3e5b687c	0.21426576
33	0x3e83039c	0.2558869
34	0x3e57d607	0.21077739
35	0x3bf03498	0.0073304884
36	0x3ac38af6	0.0014918733
37	0x3aa738db	0.0012758033
38	0x3cd0a84e	0.025470879
39	0x39e0396f	0.000427674
40	0x3e6f586a	0.23373571
41	0x3d6878b1	0.056755725
42	0x3b257b10	0.0025250353
43	0x3bef5b6f	0.007304601
44	0x3d96b446	0.07358603
45	0x3bd51937	0.00650325
46	0x3caf4496	0.021395009
47	0x3ca6a29c	0.02034121
48	0x3b840fb6	0.004030193
49	0x3e79645c	0.2435469
50	0x39dddf06	0.0004231857
51	0x3b9af101	0.004728437
52	0x3cd16d14	0.025564708
53	0x3e237d64	0.15965801
54	0x3a133602	0.0005615653
55	0x39c6ba6a	0.00037904392
56	0x3d4a27eb	0.049354475
57	0x39f16b40	0.0004604701
58	0x3acfc0b3	0.0015850276
59	0x3e00d7cd	0.12582321
60	0x3af17073	0.0018420353
61	0x3c8f12b9	0.017464982
62	0x3eab7c0f	0.33493087
63	0x3c0348da	0.008012975

bias f4 [64]
0	0xbb1f63cd	-0.002432096
1	0x3d159600	0.036520004
2	0x3d93de46	0.0722013
3	0x3e2b5210	0.16730523
4	0xba803ad1	-0.0009783154
5	0xbb9a05b3	-0.0047003864
6	0xbc877cd1	-0.01653901
7	0xbaa3a97a	-0.0012486421
8	0x3cddd1a8	0.027077511
9	0xbd4ef290	-0.050524294
10	0xbc57f006	-0.013179785
11	0x3c882bfb	0.016622534
12	0xbb50f646	-0.0031885072
13	0xbbbc70f2	-0.005750769
14	0xbd6722f9	-0.056429837
15	0xbb1690f6	-0.0022974587
16	0xbc0543eb	-0.008133869
17	0xbab5f62b	-0.0013882568
18	0xb75f9f0d	-1.3328868e-05
19	0x3d427bba	0.047481276
20	0xbc995efc	-0.01872205
21	0xbb633512	-0.0034669084
22	0x3decc249	0.115604945
23	0xbcca59be	-0.024700996
24	0xbc7c41f6	-0.015396586
25	0xbc8e43ed	-0.017366374
26	0xbbc6a2e8	-0.0060619004
27	0x3aa8f507	0.0012890407
28	0xbb1eb2a1	-0.0024215358
29	0xb9540d7d	-0.0002022292
30	0x3c30619e	0.010765461
31	0xb85eeba4	-5.3148382e-05
32	0x3dd38c8a	0.1032954
33	0xbd44d57c	-0.048055157
34	0xbda4e170	-0.08050811
35	0xbc18764d	-0.009305549
36	0x3bfb1d5b	0.0076634116
37	0xba934544	-0.0011235853
38	0xbcbe33ba	-0.023218025
39	0xb7857a93	-1.5911914e-05
40	0x3da80046	0.08203177
41	0x3c8a3c3a	0.016874421
42	0xbb844559	-0.004036587
43	0xbc3e56aa	-0.011617342
44	0x3da885f5	0.08228675
45	0xbc0854b4	-0.008320976
46	0xbccc1986	-0.024914514
47	0xbc958f28	-0.018256739
48	0x3b953d37	0.0045544165
49	0x3dfce4bb	0.123483144
50	0xb764afb7	-1.3630771e-05
51	0xbb87e47d	-0.004147111
52	0xbcb883e8	-0.022523835
53	0x3da7393a	0.08165212
54	0xb8d6ae6a	-0.00010236802
55	0xb8d803bd	-0.00010300379
56	0xbc37c6c5	-0.011216824
57	0xb9875fb6	-0.00025820517
58	0xba7d962e	-0.00096735626
59	0x3d85139b	0.0649788
60	0xbb06ab03	-0.0020548708
61	0xbc8422f2	-0.016129944
62	0x3e1fec0d	0.1561739
63	0xbc6680a4	-0.014068756

running_mean f4 [64]
0	0x38bc1745	8.968873e-05
1	0x387002ac	5.7222947e-05
2	0x3d1a34c7	0.03764799
3	0x3da8aabc	0.0823569
4	0x392b6b5c	0.00016347825
5	0xba22aa37	-0.00062051736
6	0xbb2b1696	-0.0026105992
7	0x35df86dd	1.6654045e-06
8	0x3dec8e7b	0.115506135
9	0x3c1d9691	0.009618417
10	0xbb7bedab	-0.0038441222
11	0x3c34efb6	0.01104348
12	0x393f1ba5	0.00018225478
13	0xb95ec630	-0.000212454
14	0x3c95744c	0.018243931
15	0xb8e7869d	-0.00011040012
16	0x39879c16	0.000258655
17	0x3a540efb	0.00080893905
18	0x3514728e	5.5300995e-07
19	0x3c03b627	0.008039034
20	0xbb2e28c2	-0.0026574587
21	0x3ad87444	0.0016514142
22	0x3d75c65c	0.060003623
23	0x3a55ebb0	0.00081604254
24	0x3a7a10b2	0.0009539231
25	0xbacf14e2	-0.001579907
26	0xba41c7ac	-0.0007392119
27	0xbc41bba3	-0.011824521
28	0xb96b9e7d	-0.00022470388
29	0xb5ce8641	-1.5387269e-06
30	0x3df50d0a	0.11965378
31	0x333c4145	4.3831523e-08
32	0x3d9a80ce	0.07544099
33	0x3e09e6dc	0.13466972
34	0x3cc39861	0.02387637
35	0xb9e62761	-0.00043898358
36	0x3c7be7e7	0.015375114
37	0x396f6b99	0.000228329
38	0x3b8e287e	0.004338323
39	0x34bb5047	3.4889874e-07
40	0x3d051d5a	0.032498695
41	0x3bab4b97	0.005227517
42	0xb9b0cf00	-0.00033723563
43	0xb923cce5	-0.0001562122
44	0xbbe760e1	-0.0070611094
45	0xbaa2ffcc	-0.0012435853
46	0x3ab520d3	0.0013818986
47	0x3b0985d8	0.0020984318
48	0x3b9d8111	0.0048066457
49	0x3bd8f8ca	0.006621455
50	0x3592fc4c	1.0951276e-06
51	0xba9ecd56	-0.0012115638
52	0x3be49bd1	0.0069765826
53	0xbbf5fd11	-0.0075069745
54	0x360b9aac	2.0802645e-06
55	0x369de7bc	4.705942e-06
56	0xbafdb8fc	-0.0019357498
57	0x38f58dc9	0.0001170892
58	0xb73c137e	-1.1210212e-05
59	0x3dd6c4d7	0.10486763
60	0x3a132895	0.0005613652
61	0xbb9ebc91	-0.004844256
62	0xbce1361b	-0.02749162
63	0xb9e1804b	-0.0004301093

running_var f4 [64]
0	0x348a7463	2.5789186e-07
1	0x3aaf6045	0.0013380131
2	0x3b15013e	0.0022736336
3	0x3c1aa862	0.00943956
4	0x34a24f4f	3.0232556e-07
5	0x37f1c902	2.882304e-05
6	0x3a809778	0.0009810766
7	0x337a57eb	5.8287622e-08
8	0x3c484f54	0.012225945
9	0x3b6cc198	0.0036126133
10	0x394fa4a6	0.00019802395
11	0x3a078d70	0.0005170917
12	0x379ad183	1.8455792e-05
13	0x397fc055	0.00024390344
14	0x3c404619	0.011735463
15	0x35f4b05e	1.8230746e-06
16	0x39180fe8	0.00014501775
17	0x36469429	2.959054e-06
18	0x2fb4a068	3.2855785e-10
19	0x3a70bb8b	0.00091832195
20	0x3a54b79a	0.0008114517
21	0x373a0ec2	1.10899e-05
22	0x3c162553	0.009164172
23	0x3a9e60ec	0.0012083328
24	0x39c49eb5	0.0003750228
25	0x3a0efad7	0.0005454248
26	0x3869b357	5.5718552e-05
27	0x3ad0826c	0.0015908009
28	0x373b184a	1.1151724e-05
29	0x2e908e22	6.57361e-11
30	0x3c2cfcb5	0.010558297
31	0x2b250f00	5.864059e-13
32	0x3b7bde80	0.003843218
33	0x3cdbfdf5	0.026854495
34	0x3cca7c5f	0.024717508
35	0x389febd1	7.625635e-05
36	0x3993307a	0.00028074143
37	0x35392484	6.897101e-07
38	0x3ad5feeb	0.0016326582
39	0x2ec83b1d	9.1054476e-11
40	0x3b556b43	0.0032565154
41	0x3a212544	0.00061472156
42	0x36677d2b	3.449454e-06
43	0x399269c1	0.00027926083
44	0x3aa81938	0.0012824899
45	0x37d99d3d	2.5941636e-05
46	0x3a87d557	0.0010363263
47	0x3aaa4ef0	0.0012993496
48	0x393f8ac8	0.0001826688
49	0x3b0565ea	0.0020354935
50	0x2f887e46	2.4827979e-10
51	0x385b106c	5.2228963e-05
52	0x3adc1f4f	0.0016793999
53	0x3aee9231	0.0018201527
54	0x300e1274	5.168552e-10
55	0x329363d2	1.7158445e-08
56	0x3a9a55fb	0.0011774892
57	0x33a92beb	7.8776644e-08
58	0x35c2e05d	1.4519425e-06
59	0x3c2d1bd9	0.010565721
60	0x36a3416d	4.865395e-06
61	0x39deda02	0.00042505568
62	0x3b764d88	0.0037582833
63	0x397304c5	0.00023176063

weight f4 [64, 67, 3, 3]
0	0xbaaedccd	-0.001334095
1	0xbaaecf0b	-0.001333685
2	0xbaaede1f	-0.0013341344
3	0xbaaed0fe	-0.0013337431
4	0xbaaed460	-0.0013338439
5	0xbaaed693	-0.0013339095
6	0xbaaeda2e	-0.0013340169
7	0xbaaedeb2	-0.0013341515
8	0xbaaedcea	-0.0013340984
9	0xba87e634	-0.0010368288
10	0xba87e831	-0.0010368881
11	0xba87ea04	-0.0010369425
12	0xba87e37b	-0.0010367477
13	0xba87e803	-0.0010368827
14	0xba87e78c	-0.0010368689
15	0xba87ea1a	-0.001036945
16	0xba87e972	-0.0010369255
17	0xba87e5be	-0.0010368151
18	0x3a3973ae	0.00070744276
19	0x3a2a33c8	0.00064927014
20	0x3a2d5868	0.00066126
21	0x3a2b0bf1	0.0006524912
22	0x3a0ba37b	0.00053267897
23	0x39efdc14	0.00045749603
24	0x3a01903f	0.0004942454
25	0x39986cf6	0.0002907288
26	0x38fd1456	0.00012067768
27	0x36484da2	2.984751e-06
28	0x34c05f68	3.5832204e-07
29	0xb233b31e	-1.0459898e-08
30	0x3558e2ac	8.079612e-07
31	0xb1ad4148	-5.0423843e-09
32	0xb291103a	-1.68876e-08
33	0x35f4d477	1.8241252e-06
34	0x362e40fa	2.5965842e-06
35	0x34612347	2.0967592e-07
36	0x39acc9bb	0.00032956697
37	0xb9e56e0c	-0.00043760275
38	0xb99200ef	-0.00027847986
39	0xb93d4b9e	-0.00018052614
40	0xba2cc5c1	-0.0006590747
41	0x37e801dd	2.7657423e-05
42	0x38eac7fe	0.00011195241
43	0x3761813b	1.3441134e-05
44	0x3a061d57	0.00051160663
45	0xba931daa	-0.001122405
46	0xbb66e4c5	-0.0035231572
47	0xba2c44d1	-0.0006571534
48	0xbb2d710e	-0.002646509
49	0xba5e045e	-0.00084692787
50	0x3a6fe357	0.0009151003
51	0xba8d5fdc	-0.0010786015
52	0xba9b377a	-0.0011842095
53	0xba98ea1a	-0.0011666447
54	0x3b3d4b32	0.0028883931
55	0x3af8824a	0.0018959728
56	0x3abe82df	0.0014534852
57	0xb99d0bac	-0.0002995407
58	0xbb154f6b	-0.0022782933
59	0x3a2d3416	0.00066071877
60	0x3987a312	0.00025870703
61	0xbaf44529	-0.0018636334
62	0xbadb6125	-0.0016737325
63	0x34cd2c59	3.8216493e-07
64	0x33de8ba4	1.0363081e-07
65	0xb4abd28c	-3.2004425e-07
66	0x34fbf2a9	4.6928952e-07
67	0xb4b2eca9	-3.3327277e-07
68	0xb50d7880	-5.2701944e-07
69	0x35c11955	1.4386993e-06
70	0xb299cbca	-1.7904217e-08
71	0xb4b7e071	-3.424971e-07
72	0x38ed9eca	0.000113306174
73	0x3870a777	5.7376423e-05
74	0x374bf63b	1.2157073e-05
75	0x390dd654	0.00013526651
76	0x3723b069	9.756631e-06
77	0xb84db894	-4.904771e-05
78	0x3910e5fe	0.00013818589
79	0x366ddb91	3.5443556e-06
80	0xb8904cbb	-6.880747e-05
81	0x3a0f781d	0.00054729154
82	0xb9a5d139	-0.00031627135
83	0xb92b299f	-0.00016323336
84	0x3a045f80	0.0005049631
85	0xba027e28	-0.0004977905
86	0xb9d8d716	-0.00041358982
87	0x3a2f3bb4	0.00066846167
88	0x37f25bc6	2.8891383e-05
89	0xb913d9a4	-0.0001410009
90	0x33bcc163	8.789609e-08
91	0xae608f18	-5.1058796e-11
92	0x28cee6a1	2.2970614e-14
93	0x3292b603	1.7079406e-08
94	0xac7f0e88	-3.6245746e-12
95	0x2ae966cb	4.146044e-13
96	0x34dfe381	4.1702518e-07
97	0x33ab3441	7.972313e-08
98	0x30723164	8.8109275e-10
99	0x3b2a064c	0.0025943695
100	0x3b0ed2b8	0.0021793079
101	0x3a721f1e	0.0009236204
102	0x39b25ea2	0.00034021313
103	0xba7b961c	-0.0009597258
104	0xb9a712a6	-0.00031866616
105	0x395f8cd7	0.00021319404
106	0xbaa8bdb3	-0.0012873918
107	0xbae6eb3f	-0.0017617716
108	0x3ad4473b	0.0016195545
109	0x3a7407ba	0.00093090127
110	0x39c59201	0.0003768355
111	0x3ab2e669	0.001364899
112	0x39c8c598	0.00038294191
113	0xb988a7e1	-0.0002606502
114	0x3ae5229f	0.0017481631
115	0x3a0b5d75	0.00053163554
116	0xb9e8047c	-0.0004425383
117	0x3889c13f	6.568664e-05
118	0xb706e373	-8.03998e-06
119	0xb6bc83df	-5.6181884e-06
120	0xb735ec80	-1.0843505e-05
121	0xb7a01498	-1.9083076e-05
122	0xb7985e32	-1.8163675e-05
123	0x36fcb715	7.531499e-06
124	0x35dec507	1.6597631e-06
125	0xb7cfdb14	-2.477834e-05
126	0xb79f144f	-1.8963734e-05
127	0xba3cda06	-0.0007204119
128	0xb8ae6e37	-8.317496e-05
129	0xba003134	-0.00048901443
130	0xba6fe960	-0.0009151902
131	0x39a0d94c	0.00030679477
132	0xb96892a7	-0.00022179876
133	0xba0b04cc	-0.0005303144
134	0x397d45ec	0.00024154008
135	0x36d3fd87	6.3178045e-06
136	0x371bd26d	9.2877135e-06
137	0xb630db78	-2.6353791e-06
138	0x375e3f1a	1.3246923e-05
139	0xb726fe94	-9.953645e-06
140	0x35fdd509	1.891197e-06
141	0x37ba821e	2.2233518e-05
142	0xb71e18f5	-9.423345e-06
143	0x37bc0566	2.241386e-05
144	0x39b41428	0.00034347293
145	0xb8e31644	-0.00010828351
146	0xb8a55997	-7.8845005e-05
147	0x39723c4b	0.0002310138
148	0xb8fbc892	-0.00012005972
149	0xb95275fa	-0.0002007111
150	0x399782e1	0.00028898477
151	0xb6d3fc11	-6.3176344e-06
152	0xb8bda936	-9.04374e-05
153	0x3b87718f	0.0041334103
154	0x3ae052ca	0.0017114517
155	0x3a2329e5	0.00062241993
156	0x3b42c22c	0.0029717786
157	0xb9ea9d56	-0.00044749182
158	0xbb0c960f	-0.0021451747
159	0x3b84477c	0.004036842
160	0x3aae7c9c	0.0013312283
161	0xbabdc91a	-0.0014479489
162	0xb50e6e61	-5.3059745e-07
163	0xb3a97c9d	-7.892343e-08
164	0xb3daf59c	-1.0196092e-07
165	0xb0daad24	-1.5910797e-09
166	0xb37c6a27	-5.8769867e-08
167	0xb37d9287	-5.903942e-08
168	0x34c429ae	3.653817e-07
169	0x3599711f	1.1432311e-06
170	0x33deead7	1.0380398e-07
171	0x395deab7	0.0002116364
172	0xb8de2b30	-0.00010593829
173	0xb83ea8b9	-4.5456665e-05
174	0x38988745	7.273121e-05
175	0xb96cc094	-0.00022578455
176	0xb96c5ea6	-0.00022541973
177	0x3936e093	0.00017440533
178	0x37416a2e	1.1528418e-05
179	0xb8cb1061	-9.682845e-05
180	0xb5264700	-6.194314e-07
181	0xb45bbab9	-2.0463894e-07
182	0x3417b3df	1.4128408e-07
183	0xb5020ef2	-4.845052e-07
184	0x33039cf4	3.0643562e-08
185	0x34b82ce0	3.4305322e-07
186	0x354d84d2	7.656173e-07
187	0x34b812e7	3.4286424e-07
188	0x34b2077c	3.316053e-07
189	0x26634d9d	7.886163e-16
190	0x1e4a9181	1.07238805e-20
191	0x9d5a0931	-2.8856812e-21
192	0x9f4be1bc	-4.3173645e-20
193	0x1e3e46ef	1.0073185e-20
194	0x9e25e4a7	-8.7823115e-21
195	0x26ac7975	1.1967819e-15
196	0x20e78a10	3.9224284e-19
197	0x1ebb5791	1.9835612e-20
198	0xba63ae44	-0.00086853304
199	0xbab65a10	-0.0013912339
200	0xb9863ce6	-0.00025603845
201	0xba3caf16	-0.00071977207
202	0x377cdc1c	1.5071619e-05
203	0xb9d74b9e	-0.00041064335
204	0x3a156b4e	0.00056998886
205	0xb9efc596	-0.00045732845
206	0xb9ac8617	-0.000329063
207	0x3a0c58af	0.0005353791
208	0x399a7dda	0.00029466936
209	0x38a8b451	8.044451e-05
210	0x39ec88c7	0.00045115335
211	0xb933559d	-0.00017102664
212	0xb9defe89	-0.00042532783
213	0x3a222092	0.0006184663
214	0x39119748	0.00013884634
215	0xb9bac743	-0.00035625146
216	0x3860de28	5.361266e-05
217	0x3783ba2c	1.570311e-05
218	0xb57a9fc6	-9.336476e-07
219	0x389f60fa	7.599774e-05
220	0x368dd592	4.2269903e-06
221	0xb7aec30b	-2.083324e-05
222	0x38a165fa	7.696073e-05
223	0x37802c98	1.5279555e-05
224	0xb7e1cdcb	-2.691792e-05
225	0x3abd24c7	0.0014430516
226	0x3a8e755e	0.0010868718
227	0x3a0dd881	0.0005410985
228	0xb98ebc1c	-0.00027224503
229	0xbadc8f6b	-0.001682741
230	0xb932b9bb	-0.00017044593
231	0x39919bb9	0.00027772578
232	0xbac37a0c	-0.0014913692
233	0xbae8730c	-0.0017734482
234	0x3a7f9e48	0.0009751064
235	0x39a5e93b	0.00031645023
236	0x38bb182e	8.921359e-05
237	0x3a589038	0.00082612364
238	0xb84f27ad	-4.9389597e-05
239	0xb9f7f053	-0.00047290567
240	0x3a74794d	0.00093259366
241	0x3999250a	0.0002921003
242	0xb9b8f004	-0.0003527404
243	0x39da3420	0.00041619036
244	0x375ea300	1.32701825e-05
245	0xb89d8249	-7.510611e-05
246	0x39d51804	0.0004064442
247	0xb8ae7640	-8.318992e-05
248	0xb9a043c6	-0.00030568073
249	0x3a1849dd	0.00058093463
250	0x3919fda2	0.00014685703
251	0xb948a58d	-0.00019135159
252	0x3a0cb528	0.00053675706
253	0x3996ae81	0.00028740245
254	0x38dfff17	0.00010680983
255	0x39f7679e	0.00047188712

bias f4 [64]
0	0x339cd238	7.302555e-08
1	0xb5814ce9	-9.633633e-07
2	0x1c210bf9	5.3285906e-22
3	0x370a8a60	8.257659e-06
4	0x202420ef	1.3902237e-19
5	0x340129ae	1.2029224e-07
6	0x28230a2e	9.050525e-15
7	0xb66eb62e	-3.5570806e-06
8	0x8f41331d	-9.525479e-30
9	0xb3af16f0	-8.153245e-08
10	0x323619a6	1.0599626e-08
11	0xb626bfc4	-2.484755e-06
12	0x356663af	8.5826736e-07
13	0x3595e449	1.1167805e-06
14	0x34045185	1.2323115e-07
15	0xb2ebd8f2	-2.7456256e-08
16	0x339cf410	7.308711e-08
17	0x33f6d9b0	1.1494865e-07
18	0xb3103cbe	-3.3582857e-08
19	0xb6de87d2	-6.631927e-06
20	0xb250a2c2	-1.21442e-08
21	0x273bfd81	2.6088888e-15
22	0x33953637	6.948215e-08
23	0xb45b5b34	-2.0429144e-07
24	0xb3ae8cb8	-8.128103e-08
25	0xac9bb79b	-4.4257493e-12
26	0xb4abef30	-3.2025264e-07
27	0x94f12af3	-2.4351722e-26
28	0xa0d2df90	-3.5723325e-19
29	0x94e3dfb8	-2.3009384e-26
30	0x34f6447d	4.5870902e-07
31	0x37b50d20	2.1582993e-05
32	0x1600c430	1.0401664e-25
33	0x346e1ebe	2.2176661e-07
34	0xa6423235	-6.7375314e-16
35	0x8dd492cb	-1.3100848e-30
36	0x22359b9a	2.4612449e-18
37	0xaff050bb	-4.3713108e-10
38	0x321ae25f	9.015451e-09
39	0xb53e5df4	-7.0917235e-07
40	0x1e6f5c67	1.2671663e-20
41	0x22a25a4e	4.40058e-18
42	0x35e14f67	1.6786915e-06
43	0xb510bd5c	-5.3919734e-07
44	0x3409330b	1.2777689e-07
45	0xb41d1371	-1.4628837e-07
46	0x1eabe922	1.820175e-20
47	0xb5fb24ef	-1.8711706e-06
48	0x30dc6513	1.6035834e-09
49	0x34da924a	4.0712104e-07
50	0xb3775a5d	-5.7591354e-08
51	0x36dc2fb2	6.5620634e-06
52	0xb36f8d4f	-5.5775043e-08
53	0xb5a46022	-1.224693e-06
54	0xb3b57105	-8.4490274e-08
55	0x1f42e0a5	4.126692e-20
56	0x34410b6a	1.7978678e-07
57	0x31e5d5a8	6.689067e-09
58	0x2fff5c63	4.6449875e-10
59	0xb548f196	-7.485736e-07
60	0x9e089e41	-7.232506e-21
61	0x3510ccc8	5.3942176e-07
62	0x334f57be	4.8275744e-08
63	0xb3b1d8f5	-8.281669e-08

weight f4 [64]
0	0x3c72fe27	0.014831102
1	0x3d0117e3	0.03151692
2	0x3a07156a	0.0005153032
3	0x3e915b32	0.2838989
4	0x3aa47574	0.0012547211
5	0x3d65349b	0.05595837
6	0x394d9559	0.0001960596
7	0x3e054f36	0.13018498
8	0x39dc06e6	0.0004196681
9	0x3d04aa99	0.032389257
10	0x3bc2a811	0.0059404452
11	0x3e8fce90	0.28087282
12	0x3e09510b	0.13409822
13	0x3e058615	0.1303943
14	0x3dd500d2	0.10400547
15	0x3cd7bfcd	0.026336575
16	0x3baa344a	0.0051942216
17	0x3c2b44aa	0.0104533825
18	0x3d144161	0.036195163
19	0x3ea00a7e	0.31258005
20	0x3ced157f	0.028940914
21	0x3b99652a	0.004681249
22	0x3c6e1988	0.014532454
23	0x3d097838	0.033561915
24	0x3df7a17e	0.12091349
25	0x3b21e919	0.0024705587
26	0x3daaea31	0.0834545
27	0x39a463dd	0.00031354922
28	0x3a042715	0.0005041224
29	0x39cd0152	0.0003910163
30	0x3de7cf0d	0.11318789
31	0x3e49cbfc	0.1970672
32	0x39e2a10f	0.00043226077
33	0x3d0c6ce9	0.034283552
34	0x3a0ee558	0.0005451045
35	0x39e0d26f	0.00042881395
36	0x39ca73d3	0.00038614738
37	0x3a640868	0.00086987624
38	0x3c23d4f9	0.009999507
39	0x3de8616c	0.11346707
40	0x39dee608	0.00042514526
41	0x3b2c4e9e	0.0026291977
42	0x3e6cf8a7	0.23141728
43	0x3d48d6ff	0.04903316
44	0x3db9865c	0.0905883
45	0x3c76cfe4	0.015064213
46	0x39743a59	0.0002329139
47	0x3ebd2fce	0.36950535
48	0x3d72b100	0.05925083
49	0x3def0945	0.1167169
50	0x3cdbbaa9	0.026822405
51	0x3e8035b3	0.2504097
52	0x3c27f300	0.010250807
53	0x3e238e45	0.1597224
54	0x3d9d47e2	0.07679726
55	0x392a77d0	0.00016257097
56	0x3ccb2621	0.024798455
57	0x3af9438a	0.0019017321
58	0x3b7420c3	0.0037250973
59	0x3e0389c6	0.12845525
60	0x39bdbb22	0.00036188314
61	0x3de62a19	0.11238498
62	0x3e8e46fd	0.27788535
63	0x3e041101	0.12897111
