SND_trackers_My_data/9X0_file/9_9X0_coordconv_Label_Vi5.pt (torch, 623547 bytes, 37 tensors)

weight f4 [32, 9, 3, 3]
0	0x3d49ce52	0.049269028
1	0xbd04b5d8	-0.032399982
2	0xbc8bcf5b	-0.017066648
3	0x3d59e6cc	0.05319862
4	0xbcf90638	-0.030398473
5	0x3d87fd5f	0.066401236
6	0xbceefed6	-0.02917425
7	0xbd8a17bc	-0.06742808
8	0xbba4f358	-0.0050338916
9	0x3d3faec5	0.046797533
10	0x3c03e06f	0.008049115
11	0x3cf6cdd7	0.030127449
12	0xbd1a7caa	-0.037716545
13	0x3d10c42c	0.035343334
14	0x3c365e1d	0.011130837
15	0xbd1b90bc	-0.037979826
16	0xbd0d1a87	-0.034449127
17	0xbca5a067	-0.020218087
18	0x3d7b5663	0.06136168
19	0xbcc5d396	-0.024148744
20	0xbca16fa0	-0.019706547
21	0xbc82d104	-0.015968807
22	0xbcffb8d2	-0.031216059
23	0x3d10fede	0.03539931
24	0x3afd6330	0.0019331928
25	0x3ba1fdcd	0.0049435855
26	0x3b221f61	0.0024737942
27	0x3a59b030	0.0008304147
28	0xbd019587	-0.03163674
29	0x3db045bd	0.086070515
30	0x3dbfcb8c	0.09364995
31	0xbc81c94e	-0.01584306
32	0x3bef53e9	0.007303704
33	0x3cc22280	0.023698092
34	0xbd78e209	-0.06076244
35	0x3e21b169	0.15790333
36	0xbc7b2fd2	-0.0153312255
37	0xbc412a35	-0.011789848
38	0xbcbe760e	-0.023249652
39	0xbc888b7f	-0.01666808
40	0xba869f76	-0.0010270912
41	0xbc2139e0	-0.009840459
42	0xbb502237	-0.0031758675
43	0x3cd49d17	0.025953813
44	0xbcaee11d	-0.021347577
45	0xbc8464d8	-0.016161367
46	0xbc1c96a2	-0.009557398
47	0xbc2aecf3	-0.01043247
48	0xbcc2f0ff	-0.023796557
49	0xbc133842	-0.008985581
50	0xbb058d79	-0.0020378514
51	0xbc246e1d	-0.010036019
52	0xbcaeb593	-0.021326816
53	0x3c88a800	0.016681671
54	0xbbb26b51	-0.005444922
55	0xbca57b2c	-0.020200334
56	0x3cdeaa1f	0.02718073
57	0xbc5b466b	-0.013383488
58	0x39e07cac	0.00042817497
59	0xbcbec00c	-0.023284934
60	0x3c05a782	0.008157613
61	0xbcbf29a7	-0.023335291
62	0xbca23d7c	-0.019804709
63	0xbcfcb274	-0.030846812
64	0xbd3b8f15	-0.04579075
65	0xbd09cbfe	-0.033641808
66	0x3d3fadd3	0.04679663
67	0xbd8102d5	-0.06299368
68	0xbcf00b63	-0.029302305
69	0x3b62839e	0.0034563313
70	0xbd92c2cd	-0.071660616
71	0x3d299283	0.04139949
72	0x3e0ad029	0.1355597
73	0xbe486c50	-0.19572568
74	0x3dc19aa6	0.09453325
75	0xbe046963	-0.12930827
76	0xbe032406	-0.1280671
77	0xbe0d6404	-0.13807684
78	0xbdb1b74c	-0.08677539
79	0x3e04c3b8	0.12965286
80	0x3cf429bd	0.029805059
81	0xbb471df2	-0.003038284
82	0xbb5f2508	-0.0034049172
83	0x3bf0c562	0.0073477486
84	0x3c51b002	0.012798311
85	0xbb5939af	-0.0033145954
86	0xbc93b8dc	-0.018032484
87	0x3c7f3b31	0.015578077
88	0xbc9a5f6e	-0.018844333
89	0x3c571f8b	0.013130079
90	0xbbf75b2b	-0.00754871
91	0x3c4353a4	0.011921797
92	0x3b71204f	0.003679294
93	0x3b949be3	0.0045351847
94	0x3b872428	0.004124183
95	0xbc2e903d	-0.010654506
96	0x3c22f94f	0.009947135
97	0xbc15b9bb	-0.00913852
98	0xbbf26972	-0.007397824
99	0xbc9d6eb5	-0.019217828
100	0xbcd0f7f9	-0.025508868
101	0xbc9b9fd1	-0.018997105
102	0xbc6cb60f	-0.014447703
103	0xbc658cae	-0.014010591
104	0xbc471ae2	-0.012152405
105	0xbcce66b5	-0.025195459
106	0xbca6221b	-0.020279935
107	0xbb985246	-0.0046484796
108	0xbbc42a0c	-0.0059864577
109	0x3d106b29	0.035258446
110	0x3cf9223a	0.030411828
111	0x3d191b44	0.03737952
112	0xbd04996c	-0.032372877
113	0xbc301404	-0.01074696
114	0x3d12d289	0.035845313
115	0x3d0d98e4	0.034569636
116	0x3cc47d53	0.02398554
117	0x3baed5ed	0.0053355605
118	0xbd2d6e27	-0.042341378
119	0x3d6ceadf	0.057841178
120	0x3cc0dc86	0.023542654
121	0xbc8f35a0	-0.017481625
122	0xbc58bbd3	-0.0132283745
123	0x3d102883	0.035194885
124	0x3c327451	0.01089199
125	0xbcc38772	-0.023868296
126	0x3d8ad760	0.06779361
127	0xbd0d2d63	-0.034467112
128	0x3d9d7d82	0.07689954
129	0xbd4f81f5	-0.050661046
130	0xbcb36504	-0.021898754
131	0xbcf5409b	-0.029938033
132	0xbb989997	-0.004656981
133	0x3d456ee1	0.048201445
134	0x3d4585f5	0.048223455
135	0xbc3e53d2	-0.011616664
136	0x3abcc3bf	0.0014401599
137	0x3d4bdafe	0.049769394
138	0x3c946ea4	0.018119164
139	0xbc38616d	-0.011253697
140	0x39938d6f	0.000281434
141	0xbbefa979	-0.007313904
142	0xbc9e5bcf	-0.019330887
143	0x3d6088d4	0.05481799
144	0xbd011aec	-0.031519815
145	0x3b8fb443	0.0043855025
146	0x3ce89e15	0.028395692
147	0xbc87e87d	-0.016590351
148	0x3b950ba4	0.004548507
149	0x3d8aa802	0.06770326
150	0xbd061980	-0.032739162
151	0x3d39eaa9	0.045389805
152	0xbca9d480	-0.02073121
153	0x3c0142c7	0.007889456
154	0x3d5a7eb1	0.05334348
155	0x3c891f8e	0.01673868
156	0x3c8a5994	0.016888417
157	0x3d0bcd1f	0.034131166
158	0x3cb04cfe	0.021521088
159	0xbb7ced96	-0.003859376
160	0x3c2894aa	0.0102893505
161	0xbbadb881	-0.0053015356
162	0x3c7165da	0.014733756
163	0xbc77eed3	-0.015132624
164	0xbc3e6fea	-0.011623362
165	0xbc0fe09e	-0.00878158
166	0x3c47b600	0.012189388
167	0x3943d691	0.00018676581
168	0xbaabad32	-0.0013097881
169	0xbc058b8a	-0.0081509445
170	0x3c584b80	0.013201594
171	0xba2810f5	-0.0006411218
172	0x3a521d33	0.0008015215
173	0xbc8c8776	-0.017154437
174	0xbb37de8c	-0.0028056232
175	0x3b597de9	0.003318662
176	0xbc8d4e9b	-0.017249396
177	0x3bfa5585	0.0076395893
178	0x3b1f9d91	0.0024355392
179	0x3be6ed65	0.0070473426
180	0xbba4a79c	-0.0050248634
181	0xbc85c69a	-0.016330052
182	0xbc2b4cfd	-0.010455367
183	0xbc37f448	-0.011227675
184	0xbc2dd656	-0.010610184
185	0xbc420262	-0.011841388
186	0xbc29a827	-0.010355032
187	0xbc0b5b35	-0.008505632
188	0xbc2cf99b	-0.010557557
189	0x3d4e60cc	0.05038528
190	0x3c85fa00	0.01635456
191	0x3d800852	0.06251587
192	0x3cd03353	0.025415098
193	0xbc644477	-0.013932339
194	0xbc925d60	-0.01786679
195	0x3cb6ad39	0.022299396
196	0x3d616867	0.055031206
197	0x3d094a61	0.0335182
198	0x3b3236ab	0.002719323
199	0x3c07aa52	0.008280354
200	0xbb2cc9b8	-0.002636535
201	0xbbcf478f	-0.006325669
202	0xbd145dac	-0.036222145
203	0xbba28e59	-0.004960817
204	0x3da05901	0.07829476
205	0xbcc8ba39	-0.02450286
206	0xbc62f523	-0.01385239
207	0xbc48dae8	-0.012259223
208	0xbb8d5ed8	-0.004314285
209	0x3d2633a4	0.040576592
210	0xbb52befe	-0.0032157297
211	0xbaeb8c5b	-0.0017970906
212	0xbc3c0ee5	-0.0114781605
213	0xbcabda2d	-0.020978058
214	0x3b67c6af	0.0035366227
215	0x3d202d98	0.03910598
216	0xbb4e0a66	-0.0031439303
217	0x3d6e4421	0.05817044
218	0xbd615952	-0.055016823
219	0x3d5a72c8	0.05333212
220	0xbc89d8e0	-0.016827047
221	0xbca3ba18	-0.019986197
222	0xbbd81edd	-0.006595476
223	0x3b9d2656	0.0047958298
224	0xbd0d40cc	-0.034485623
225	0x3ceabb7b	0.02865385
226	0x3c802bdf	0.01564592
227	0x3ab58909	0.0013850044
228	0x3cf89477	0.030344231
229	0xbc4abab4	-0.012373615
230	0x3cc680d7	0.024231357
231	0xbc41c6a4	-0.011827145
232	0xbc6e8ac9	-0.014559456
233	0x3ac8ec03	0.0015329126
234	0x3cae4c30	0.021276563
235	0x3d5ea843	0.054359686
236	0x3c87dbae	0.016584244
237	0x3d0b326d	0.033983637
238	0x3d4f78ba	0.050652243
239	0x3cc18c2b	0.023626408
240	0xbb333768	-0.0027346257
241	0x3c8c8e74	0.01715777
242	0xbcf60623	-0.030032223
243	0xbc11200a	-0.008857736
244	0x3ba8a30f	0.005146391
245	0xbbfbf084	-0.007688584
246	0xbc4ce2f3	-0.012505281
247	0xbbc566d0	-0.006024219
248	0x3c983f08	0.018584743
249	0x3c9c0a16	0.019047778
250	0xbbffff83	-0.007812442
251	0xbbac23e8	-0.005253304
252	0x3c4acdc2	0.012378158
253	0xbc1db074	-0.009624589
254	0xbc81afed	-0.015830958
255	0x3c4ec101	0.012619258

bias f4 [32]
0	0xbc0c3c7d	-0.008559343
1	0x3a074097	0.0005159466
2	0x3abf74be	0.0014606935
3	0x3c7199f4	0.014746178
4	0xbb4cf678	-0.0031274837
5	0x3c485f1e	0.012229709
6	0xbb066660	-0.0020507798
7	0x3b7b31af	0.0038329174
8	0xbb510028	-0.0031890962
9	0x3b8647ae	0.0040979004
10	0xba841950	-0.0010078344
11	0xbb50fd2c	-0.0031889183
12	0xbcac6e34	-0.021048643
13	0x3b27f796	0.002562975
14	0xbcbb254c	-0.022844933
15	0x3c12387d	0.008924601
16	0x3b13d7b6	0.0022558994
17	0x3b32bd3e	0.0027273442
18	0x39b6331b	0.00034751822
19	0x3bca081a	0.0061655166
20	0xbb5e228c	-0.0033895103
21	0x3b0e2594	0.0021689879
22	0x3bcd6f09	0.00626934
23	0xbb051830	-0.0020308606
24	0x3c63f116	0.01391246
25	0x3aca3f11	0.0015430172
26	0x3bdaf0d4	0.006681541
27	0xbc6ec344	-0.014572922
28	0xbbf40357	-0.007446687
29	0xbb709a64	-0.0036713118
30	0x3bf22aad	0.0073903413
31	0x3c06f0ed	0.008236152

weight f4 [32]
0	0x3f0c7c95	0.548776
1	0x3e989da7	0.2980778
2	0x3e8bdd5b	0.27317318
3	0x3e771a49	0.2413112
4	0x3e79dfa0	0.24401712
5	0x3ea818c7	0.32831404
6	0x3f1053da	0.5637795
7	0x3ee0fac0	0.43941307
8	0x3e944b96	0.28963917
9	0x3f04aa84	0.51822686
10	0x3ee011a5	0.43763462
11	0x3eb27acd	0.34859315
12	0x3f04d98b	0.51894444
13	0x3ea9a5cf	0.33134314
14	0x3f17ae28	0.59250116
15	0x3ece7f85	0.40331665
16	0x3e81f1d6	0.2537982
17	0x3e7d567a	0.2474002
18	0x3e804875	0.2505528
19	0x3ead6d29	0.33872345
20	0x3ea775fd	0.32707205
21	0x3ed0b08b	0.40759692
22	0x3eef90f7	0.46790287
23	0x3ec68e16	0.38780278
24	0x3e94c489	0.29056194
25	0x3ed545f8	0.41654944
26	0x3ec2c703	0.3804246
27	0x3e7a58a3	0.24447875
28	0x3f02d836	0.5111116
29	0x3e9abf37	0.3022401
30	0x3f05fc2a	0.52337897
31	0x3ef14512	0.4712301

bias f4 [32]
0	0x3db71dda	0.089412406
1	0xbd678424	-0.056522503
2	0xbd9b1a5a	-0.075733855
3	0xbd94dc93	-0.07268634
4	0xbd9557ff	-0.072921745
5	0xbc5d7cdb	-0.013518537
6	0x3c916f8a	0.017753381
7	0xbcf1f9cf	-0.029538063
8	0xbcec2d53	-0.028830206
9	0xbe4b1c02	-0.19834903
10	0x3bf58fc7	0.0074939462
11	0xbdb8a8d1	-0.09016574
12	0xbb1b1a14	-0.0023666667
13	0xbe2fb348	-0.17158234
14	0x3cd5f30d	0.026116872
15	0x3d04d380	0.032428265
16	0xbe31e920	-0.17374086
17	0xbd9ecf84	-0.07754424
18	0xbdabcc26	-0.083885476
19	0xbd9a337f	-0.07529353
20	0xbe140fcd	-0.14459153
21	0xbe66fecf	-0.2255814
22	0xbe20a42e	-0.1568763
23	0xbe5bae5c	-0.21453232
24	0xbd725799	-0.05916557
25	0xbe711cba	-0.23546115
26	0x3d3dce04	0.04633905
27	0xbcd2d9b9	-0.025738584
28	0xba81e14a	-0.000990906
29	0xbe278f91	-0.1636336
30	0x3b81c3f5	0.0039601275
31	0x3bd23714	0.006415257

running_mean f4 [32]
0	0xbb8d4811	-0.0043115695
1	0xbd9b76e4	-0.07591036
2	0xbd28b257	-0.041185703
3	0x3e913506	0.28360766
4	0xbb44a0c1	-0.0030003043
5	0x3d790d35	0.06080361
6	0xbc36e095	-0.011161943
7	0x3de003f5	0.10938255
8	0x3bb887dd	0.0056314305
9	0xbd83d2bf	-0.06436681
10	0xbbdae308	-0.0066798963
11	0xbcc1c74d	-0.023654604
12	0xbcd31af0	-0.02576968
13	0xbcb5bd41	-0.02218497
14	0xbcd3c037	-0.025848491
15	0x3bf0dd2e	0.0073505854
16	0xbca60352	-0.020265255
17	0x3c7f05fa	0.01556539
18	0xbc4debee	-0.012568457
19	0xbd170676	-0.036871396
20	0xbd82bfec	-0.063842624
21	0xbc237ea7	-0.009978927
22	0xbcf893e3	-0.030343955
23	0xbcd033e3	-0.025415367
24	0xbac15190	-0.0014749039
25	0x3bfe9abc	0.0077699106
26	0xbd0db9fd	-0.0346012
27	0xbcf843fb	-0.030305853
28	0xbc5d1ef0	-0.013496146
29	0xbc8beb88	-0.017080083
30	0x3cf9d2b2	0.030495975
31	0x3c7da967	0.015482283

running_var f4 [32]
0	0x3c8ad1d6	0.01694576
1	0x3d51a638	0.05118391
2	0x3d3ad65c	0.045614585
3	0x3d74ed9d	0.05979692
4	0x3c83761c	0.01604753
5	0x3d966acd	0.073445894
6	0x3cd704b7	0.026247365
7	0x3da32224	0.07965496
8	0x3dee56ec	0.11637673
9	0x3e318906	0.17337427
10	0x3dbbe8f2	0.0917529
11	0x3d9fc6a0	0.078015566
12	0x3da76704	0.081739455
13	0x3d206cfb	0.039166432
14	0x3cb1249e	0.021623906
15	0x3c7ec7c0	0.015550554
16	0x3dcfdbdd	0.101493575
17	0x3d3dae54	0.04630883
18	0x3d9d561b	0.07682439
19	0x3d80d6b8	0.06290954
20	0x3dcc93b5	0.099891104
21	0x3e497eca	0.19677272
22	0x3e3593fb	0.17732231
23	0x3decbe79	0.11559767
24	0x3d710e58	0.05885157
25	0x3e1579df	0.14597271
26	0x3e3230f7	0.17401491
27	0x3d7f8ad2	0.06238825
28	0x3e18aa2d	0.14908667
29	0x3cf2cc4c	0.029638432
30	0x3e179664	0.14803463
31	0x3d5293dc	0.05141054

weight f4 [32, 35, 3, 3]
0	0xbc21332b	-0.00983886
1	0xbc8db8eb	-0.01730009
2	0x3b8ead62	0.004354165
3	0x3d0e090a	0.03467659
4	0x3ba8a68c	0.005146807
5	0xbc1aa531	-0.009438799
6	0xbc3802c6	-0.01123113
7	0x3cfe1e16	0.031020205
8	0xbcb69b55	-0.022290865
9	0xbc8d923d	-0.017281646
10	0xbc7091f8	-0.014683239
11	0xbc1defed	-0.009639722
12	0x39da8f32	0.0004168689
13	0x3ca78c03	0.020452505
14	0x3c3f4551	0.011674241
15	0x3cbb2ff0	0.022850007
16	0xbba91065	-0.005159425
17	0xbc5ca145	-0.013466184
18	0x3cc3ad92	0.023886476
19	0xbc4d6250	-0.012535647
20	0xbc5e8ea0	-0.013583809
21	0xbc518831	-0.012788818
22	0x3c951541	0.018198611
23	0x3bb3f3e3	0.00549172
24	0xbbf173f0	-0.007368557
25	0x3c197f22	0.00936869
26	0xbab5a8d5	-0.001385952
27	0xb93f97b3	-0.00018271692
28	0x3bdd0f7f	0.006746232
29	0xbd0d3f6e	-0.03448432
30	0x3baafb23	0.005217926
31	0x3da9c40c	0.08289346
32	0x3ac40d48	0.0014957571
33	0xbd8c5699	-0.06852455
34	0xbba4aaa8	-0.0050252266
35	0x3d0d30c1	0.034470323
36	0xbc3fcd81	-0.011706711
37	0xbc9e5ab8	-0.019330367
38	0x3c6d407d	0.014480707
39	0xbcd433ce	-0.025903609
40	0xbd211a80	-0.039331913
41	0x3ac74370	0.0015202593
42	0x3b63d814	0.0034766244
43	0xbcb5e540	-0.022204041
44	0xbd1b7901	-0.037957195
45	0x3ca9963a	0.020701516
46	0xbcc6c508	-0.024263874
47	0x3cd09de8	0.02546592
48	0x3bd00191	0.006347843
49	0xbd23e919	-0.04001722
50	0x3ca7cbe1	0.02048296
51	0x35b2bd71	1.3317168e-06
52	0xbc377293	-0.01119675
53	0xbd1fe030	-0.03903216
54	0x3c1b70a1	0.009487302
55	0x3c5ebf6b	0.013595442
56	0xbb802132	-0.003910207
57	0x3cbd4fe6	0.023109388
58	0x3d0730f1	0.03300566
59	0x3d02d1d1	0.031938378
60	0xbc9aea58	-0.018910572
61	0x3cd1385c	0.02553957
62	0x3d232348	0.03982857
63	0x3a3a10be	0.00070978317
64	0xbcce1604	-0.025156982
65	0x3bf66e6e	0.0075204885
66	0xbc9f8aee	-0.019475427
67	0xbc64d6f9	-0.013967269
68	0xbcb775d5	-0.022395054
69	0x3ca49bcf	0.020093827
70	0x3a0b2be9	0.00053089723
71	0xbc6e1df9	-0.014533513
72	0xbba22441	-0.0049481695
73	0x3cb7afd3	0.022422707
74	0x3a5f916d	0.0008528445
75	0x3bec1885	0.0072050714
76	0xbb3c73c1	-0.0028755518
77	0x3d618a59	0.05506358
78	0xbbfaac0c	-0.007649904
79	0x3c68f59f	0.014218717
80	0xbb6485e6	-0.0034869849
81	0x3d2d8c14	0.042369917
82	0x3ce7be35	0.02828894
83	0xbc8af187	-0.016960872
84	0xbc041167	-0.00806079
85	0x3dcb7058	0.09933537
86	0x3d566787	0.052344825
87	0x3b8a3865	0.0042181485
88	0xbd1aa5fa	-0.037755944
89	0x3d191815	0.037376482
90	0x3ca1af2c	0.019736849
91	0x3d1672e7	0.036730673
92	0xbb9b11ed	-0.0047323615
93	0x3cf54b80	0.029943228
94	0x3d30bce6	0.043148898
95	0x3cd77dc6	0.02630509
96	0x3c01f996	0.007933041
97	0x3c6cb05a	0.014446342
98	0xbc4e78e2	-0.012602063
99	0x3bdf54fb	0.0068155504
100	0x3b8a2b12	0.00421656
101	0x3cf54949	0.029942172
102	0x3c587895	0.013212343
103	0xbcb936b4	-0.022609092
104	0x3cb70d99	0.022345351
105	0x3cc0b7ca	0.023525137
106	0x3c1cdd88	0.009574302
107	0xbc8a77a2	-0.016902748
108	0xbd6849b9	-0.056710932
109	0xbd25ecf6	-0.040509187
110	0x3c3ffda0	0.011718184
111	0xbd2a2b2a	-0.04154507
112	0xbde2ed0a	-0.11080368
113	0xbd88c194	-0.06677547
114	0x3caffdf9	0.021483408
115	0xbcabd8c9	-0.020977395
116	0xbd0fd3e4	-0.035114184
117	0x3ccf54a1	0.025308909
118	0xbbd5b76d	-0.00652211
119	0xbc3b76b7	-0.011441878
120	0x3c1006ce	0.008790685
121	0x3968b152	0.00022191301
122	0x3b253edf	0.0025214476
123	0xbca6aa4b	-0.020344874
124	0x3c1c71fe	0.009548662
125	0x3d00ed28	0.03147617
126	0xbc4014c7	-0.011723704
127	0xbd0325ba	-0.0320184
128	0x3d193d35	0.037411887
129	0xbc628488	-0.013825543
130	0xbd8ece5c	-0.06972954
131	0xbd41c3fb	-0.047306042
132	0x3c14eed0	0.00909014
133	0xbbec2ed7	-0.007207732
134	0xbcb8666c	-0.022509776
135	0x3c8301fe	0.01599216
136	0x3cd67e49	0.026183264
137	0xbc214ebd	-0.009845433
138	0x3bb82ef4	0.0056208316
139	0x3d0d1f4b	0.03445367
140	0x3d529647	0.051412847
141	0xbbc838f5	-0.0061103054
142	0x3d1261c9	0.035737786
143	0x3d60c448	0.05487469
144	0xbc964368	-0.018342689
145	0xbd6209a9	-0.055184994
146	0xba773b7c	-0.0009431166
147	0xbb9eee47	-0.004850182
148	0xbd939188	-0.07205492
149	0xbd304d37	-0.043042388
150	0x3c936e32	0.017996881
151	0x3cd8070f	0.026370553
152	0xbc63eda7	-0.013911641
153	0x3c30ca6d	0.01079045
154	0x3d5e504d	0.0542758
155	0xbd31c56e	-0.043401174
156	0x3cff30b3	0.031151151
157	0x3d67e666	0.05661621
158	0x3cd42d38	0.025900468
159	0x3c61efd0	0.013790086
160	0xbc8a700f	-0.016899137
161	0x3cf64f62	0.03006715
162	0x3c24e8df	0.010065286
163	0xba05167f	-0.00050768995
164	0xbcdd6851	-0.027027281
165	0xbcaf7b60	-0.021421134
166	0x3d2bb085	0.04191639
167	0x3c77c2fb	0.015122171
168	0xbc2a1617	-0.010381243
169	0x3bcfc51b	0.0063406355
170	0xbcd752bb	-0.026284566
171	0x3c9d6576	0.01921342
172	0xbb349265	-0.0027553078
173	0x3cbbef7f	0.02294135
174	0xbc58ce1d	-0.013232735
175	0xbd2c3f85	-0.042052764
176	0xbc82f5eb	-0.015986403
177	0x3bc4bd2c	0.0060039964
178	0xbc9c506b	-0.019081315
179	0xbd6f72e0	-0.058459163
180	0x3c2f334d	0.010693383
181	0xbc0c54f8	-0.00856518
182	0x3d0954ec	0.033528253
183	0x3c896aee	0.01677462
184	0xbca5781c	-0.020198874
185	0x3a887f0d	0.0010413841
186	0xbb1e7f26	-0.0024184673
187	0xbc3e60cb	-0.011619757
188	0xbc2db9fb	-0.010603423
189	0x3d05a387	0.032626655
190	0x3c1e5d26	0.009665763
191	0x3cc9cb66	0.02463312
192	0xbce61a1f	-0.028088627
193	0xbc00eff1	-0.0078697065
194	0x3b772eba	0.003771706
195	0x3cef8a25	0.029240677
196	0x3a9ef8a4	0.0012128544
197	0xbd457973	-0.048211526
198	0x3c8769bd	0.016529912
199	0x3c3cd25d	0.011524764
200	0x3d2fc2a8	0.042910248
201	0xbd31a55a	-0.043370582
202	0xbd234875	-0.039864022
203	0xbb1cb2bc	-0.0023910245
204	0x3cc1f781	0.02367759
205	0xbd0e9df0	-0.03481859
206	0xbcafe266	-0.02147026
207	0x3c9e3f0b	0.01931717
208	0xb9838afc	-0.00025089819
209	0x3c28ea6d	0.010309798
210	0xbcf08ac0	-0.029363036
211	0xbd1a87ea	-0.037727274
212	0xbc7ff14d	-0.015621495
213	0x3cd924d6	0.026506823
214	0x3c3bd6cb	0.011464785
215	0xbd54f8aa	-0.051994957
216	0xbd04b1b8	-0.03239605
217	0xbd3190b2	-0.043350883
218	0x3c2fe930	0.010736749
219	0xbd2a8036	-0.041626178
220	0xbd6d459c	-0.057927713
221	0xbcc45967	-0.023968412
222	0xbc8457e6	-0.016155194
223	0xbcaa568e	-0.020793226
224	0xbcc1ec55	-0.023672262
225	0xbcbf2dcc	-0.023337267
226	0xbd3d4c11	-0.04621512
227	0x3c409d28	0.011756219
228	0xbd67d47b	-0.05659912
229	0xbda8bc58	-0.08239049
230	0xbd7cd789	-0.061728988
231	0x3c16f029	0.009212532
232	0xb8cb6083	-9.697771e-05
233	0xbd512a71	-0.051065866
234	0xbcb27e7d	-0.02178883
235	0xbd6c0600	-0.05762291
236	0x3b98731f	0.0046523954
237	0xbd298067	-0.04138222
238	0xbda812e1	-0.08206726
239	0xbcdfb278	-0.02730678
240	0x3cbd5158	0.023110077
241	0xbcaa65f7	-0.020800574
242	0xbd235e0f	-0.039884623
243	0xbbdb37a7	-0.006689984
244	0xbcbe14c9	-0.02320327
245	0xbc951786	-0.018199693
246	0x39051897	0.00012693029
247	0xbca7fc14	-0.020505942
248	0xbcf14e74	-0.029456355
249	0x3bf84553	0.0075766235
250	0x3c083264	0.008312795
251	0x3b81c1a0	0.0039598495
252	0xbc3c700d	-0.011501324
253	0xbd0c84b9	-0.03430626
254	0xbbfe268b	-0.0077560595
255	0xbd40e065	-0.047089

bias f4 [32]
0	0xbc106b2f	-0.008814617
1	0xbd203ebc	-0.03912233
2	0x3768272f	1.3837401e-05
3	0x3c64fda7	0.013976491
4	0xbc2e0df6	-0.010623446
5	0xbbedf8ea	-0.007262339
6	0xb7dc7203	-2.6279135e-05
7	0x391cffed	0.00014972659
8	0x37e4fb89	2.7296848e-05
9	0xb998e116	-0.000291594
10	0xb9c65c14	-0.00037834106
11	0xbaafd110	-0.0013413746
12	0xbbf9c3bb	-0.00762221
13	0xb9833d69	-0.0002503202
14	0xbb8b9b9e	-0.0042604944
15	0xb886b635	-6.4235566e-05
16	0xba7f1d28	-0.00097318226
17	0xbb49f3f1	-0.0030815566
18	0xbc1216f6	-0.008916607
19	0x3a616463	0.00085980276
20	0xbbd8d6e6	-0.0066174148
21	0xb9f9381e	-0.00047534792
22	0xbbb6cec1	-0.005578846
23	0xbb58acbf	-0.003306195
24	0xbc935c39	-0.017988311
25	0xbca2c2f9	-0.01986836
26	0x3a0991f3	0.00052478834
27	0x3b49824e	0.0030747834
28	0x3ae3f3ef	0.0017391423
29	0xb8eea5d7	-0.000113796144
30	0x3c643edd	0.013931003
31	0xbc3bec99	-0.0114699835

weight f4 [32]
0	0x3f086776	0.5328287
1	0x3f1c1108	0.6096349
2	0x3e690146	0.22754392
3	0x3e9ca820	0.3059702
4	0x3ebdb662	0.3705321
5	0x3e9d5e4e	0.3073601
6	0x3e890a5f	0.26765725
7	0x3e8c52e4	0.2740699
8	0x3e5d358b	0.21602456
9	0x3ea7da60	0.32783794
10	0x3e794d66	0.24345931
11	0x3e8c1886	0.2736246
12	0x3ecd39e2	0.40083224
13	0x3e627b50	0.22117352
14	0x3ebea39d	0.37234202
15	0x3e65b73a	0.22433177
16	0x3e83cc33	0.2574173
17	0x3e93db20	0.28878117
18	0x3f23cb29	0.6398187
19	0x3e728ac7	0.23685752
20	0x3e84c913	0.25934657
21	0x3ea0b883	0.3139077
22	0x3e9b3a07	0.3031771
23	0x3ebefe31	0.37303308
24	0x3e9eb83a	0.3099993
25	0x3ef1a689	0.4719737
26	0x3e9850ff	0.29749295
27	0x3e893909	0.26801327
28	0x3e826d24	0.25473893
29	0x3e746ed6	0.23870406
30	0x3e9de9a1	0.30842307
31	0x3e8cc7a2	0.27496058

bias f4 [32]
0	0x3dd62855	0.104569115
1	0x3def9d47	0.1169992
2	0xbddd7ec1	-0.10815192
3	0x3d04e71f	0.032446977
4	0x3e62201d	0.22082563
5	0x3d8e2da2	0.069422975
6	0xbe0d933e	-0.138257
7	0xbe0b364d	-0.13594933
8	0xbdd51c16	-0.104057476
9	0xbdc3a847	-0.09553581
10	0xbdc17882	-0.09446813
11	0xbe24cf4c	-0.16094702
12	0x3e30f9f1	0.17282845
13	0xbe3e225e	-0.18567798
14	0x3dfbade9	0.1228903
15	0xbe10abf6	-0.14128098
16	0xbde63250	-0.11240065
17	0xbe0c784f	-0.13717769
18	0x3e0431ac	0.12909573
19	0xbd251296	-0.040300928
20	0xbd224541	-0.039616827
21	0x3d3d2ac8	0.046183378
22	0x3d2e81c2	0.042604215
23	0x3da2333c	0.079199284
24	0xbd98a0bf	-0.07452535
25	0x3dfe97c8	0.12431294
26	0xbdf838a1	-0.12120176
27	0xbc9e102b	-0.019294819
28	0xbdf0a867	-0.1175087
29	0xbd9cb1bc	-0.07651088
30	0x3df3af7c	0.11898705
31	0x3d9f86cf	0.077893846

running_mean f4 [32]
0	0x3d116a0d	0.03550153
1	0xbc537f82	-0.012908818
2	0x3b4e527a	0.0031482265
3	0x3ca5961a	0.020213176
4	0x3b380a65	0.0028082367
5	0xbc56dd51	-0.013114289
6	0xbd687fd7	-0.056762543
7	0x3c001dbc	0.007819589
8	0x3ba29599	0.004961681
9	0xbd74d502	-0.059773453
10	0xbb0365f5	-0.0020049785
11	0xbd27772b	-0.04088513
12	0x3ca27c85	0.019834766
13	0xbc88b283	-0.016686684
14	0xbad05051	-0.0015893077
15	0xbd650058	-0.05590853
16	0xbd3ff71b	-0.046866518
17	0xbdab2d92	-0.08358301
18	0x3d4974f5	0.049183805
19	0xbd0fb6ef	-0.03508657
20	0x3db32827	0.08747893
21	0x3d9cf4cc	0.07663879
22	0xbb13c75c	-0.0022549247
23	0x3c6ba26e	0.014381988
24	0x3d92229e	0.07135509
25	0x3d4d3481	0.0500989
26	0xbca4dfbf	-0.020126222
27	0x3d8d16ae	0.068890914
28	0xbd5bc549	-0.053654943
29	0x3b0c5355	0.0021411974
30	0x3d35c164	0.044373885
31	0xbbebb42b	-0.0071931086

running_var f4 [32]
0	0x3d1b1a7d	0.037867058
1	0x3d65140b	0.055927318
2	0x3d8b6e05	0.06808094
3	0x3e0c3217	0.13690983
4	0x3d3394ed	0.0438432
5	0x3dcf55f8	0.10123819
6	0x3e01afec	0.12664765
7	0x3e927bb7	0.28610012
8	0x3ed54b1c	0.41658866
9	0x3e7b100e	0.24517843
10	0x3f2b732a	0.669726
11	0x3de17f44	0.11010602
12	0x3cf9b36b	0.030481061
13	0x3eda93be	0.42690843
14	0x3cc8cc8a	0.024511594
15	0x3da9735e	0.08273958
16	0x3d72d1c4	0.05928208
17	0x3d9269d2	0.0714909
18	0x3d8955b6	0.06705801
19	0x3dd88266	0.105717465
20	0x3dbac1ec	0.09119019
21	0x3f9e22ac	1.2354331
22	0x3d5deccf	0.054180916
23	0x3d71d14d	0.059037495
24	0x3d60a58b	0.054845374
25	0x3d2a6d1a	0.041607954
26	0x3ec04c70	0.37558317
27	0x3e93e178	0.28882957
28	0x3d993a13	0.0748178
29	0x3f390380	0.72270966
30	0x3d8d916f	0.06912505
31	0x3e817114	0.25281584

weight f4 [64, 35, 3, 3]
0	0xbb48850d	-0.0030596883
1	0xbab9f9b9	-0.0014188803
2	0xbbb2c83c	-0.0054559987
3	0x3b46a10c	0.0030308394
4	0x3ba98dbc	0.0051743668
5	0x3b9355fc	0.004496334
6	0x3be00f38	0.0068377517
7	0x3b82839c	0.003982974
8	0xba9564d6	-0.0011397849
9	0xbba5a056	-0.005054514
10	0x3a8cca77	0.0010741492
11	0xbb61c5db	-0.0034450206
12	0xbb6c5434	-0.003606093
13	0xba3d1ba6	-0.0007213898
14	0xbbfdf3af	-0.0077499966
15	0xba2d84df	-0.00066192256
16	0xbab4e078	-0.0013799807
17	0xbb4cb2d2	-0.0031234515
18	0x3c134576	0.008988729
19	0x3c084644	0.008317534
20	0x3b856d93	0.0040719
21	0x3c17f098	0.009273671
22	0x3bca91a8	0.0061819144
23	0x3be34d83	0.0069367304
24	0x3c11879a	0.008882428
25	0x3c1060f9	0.008812183
26	0x3ba26c18	0.0049567334
27	0xbc9d7e9b	-0.01922541
28	0xbc0ad0a4	-0.008472595
29	0xbc88bc35	-0.016691307
30	0xbc678f0c	-0.014133226
31	0x3d6228f4	0.055214837
32	0x3cb5b510	0.022181064
33	0x3d0f4c5c	0.03498493
34	0x3d1dd709	0.03853515
35	0x3cc8b96a	0.024502475
36	0xbadbbfc9	-0.001676553
37	0x3c899f35	0.016799549
38	0x3806e3af	3.2160136e-05
39	0x3c083966	0.008314466
40	0x3d5e9d67	0.05434933
41	0x3cda2e32	0.026633356
42	0x3cb82a01	0.022480967
43	0x3c8b2fbc	0.016990535
44	0xba841e8b	-0.0010079903
45	0x3c4fda3a	0.012686307
46	0xbcaeefc5	-0.021354565
47	0xbc89db2c	-0.016828142
48	0x3c215d21	0.009848864
49	0xbc73ef6f	-0.014888628
50	0xbc19ed44	-0.009394947
51	0xbc9628a5	-0.018329928
52	0xbc6fc684	-0.014634732
53	0xbcc1d7e8	-0.023662522
54	0xbc6ea1fd	-0.014564988
55	0xbc3da46a	-0.011574844
56	0xbbef3070	-0.0072994754
57	0xbcb00229	-0.021485405
58	0xbc825d13	-0.015913522
59	0x3ad78f09	0.0016445826
60	0x3b97385b	0.0046148724
61	0x3cd5db6d	0.026105607
62	0x3d3ad385	0.045611877
63	0x3bcf6771	0.00632947
64	0x3c5459b6	0.012960842
65	0xbc28d8be	-0.010305582
66	0x3c895349	0.016763346
67	0xbc9298c9	-0.01789512
68	0xbc96883b	-0.018375507
69	0xbc8beaaa	-0.01707967
70	0xbd219636	-0.039449893
71	0xbd2f020a	-0.042726554
72	0x3c32d053	0.010913926
73	0xbc2377cc	-0.009977292
74	0xbc94c0ad	-0.018158281
75	0x3c7d73c5	0.015469496
76	0x3cb9632c	0.022630297
77	0x3c685628	0.0141806975
78	0xbcffbe22	-0.031218592
79	0xbc9d1d31	-0.019178959
80	0xbd1bbd3b	-0.03802226
81	0xbc08cf5c	-0.00835022
82	0xbb945abc	-0.004527418
83	0xbc5a2578	-0.013314597
84	0xbc6380f5	-0.013885726
85	0xbba96251	-0.005169191
86	0xbc8073fb	-0.015680304
87	0xbcad75ac	-0.021174274
88	0xbc80a47e	-0.015703436
89	0xbbc13f0b	-0.005897408
90	0x3ace0b3f	0.0015719904
91	0xbc31499e	-0.010820774
92	0xbc682d25	-0.01417092
93	0xbc165005	-0.009174352
94	0xbc5ec729	-0.013597288
95	0xbaf9e495	-0.0019065315
96	0xbc755659	-0.0149742
97	0xbce761d1	-0.028244885
98	0xbb18a0cb	-0.00232892
99	0xbc2a7e7f	-0.010406136
100	0xbcb82471	-0.022478314
101	0xb9c4dda1	-0.0003754916
102	0xbd0aab47	-0.03385475
103	0xbcd36101	-0.025803091
104	0xbbe80dea	-0.007081737
105	0xbd0ed817	-0.034874048
106	0xbd0700f4	-0.032959893
107	0x3c5aac55	0.013346751
108	0xbc33f3d7	-0.010983429
109	0xbcb15172	-0.021645281
110	0xbbb6a5c2	-0.005573959
111	0xbc787835	-0.015165378
112	0xbcbe4690	-0.023227006
113	0xbcbb2e09	-0.0228491
114	0xbd08de95	-0.033415396
115	0xbd07aee3	-0.03312577
116	0xbc0ccc47	-0.008593625
117	0x3bbeae95	0.0058191516
118	0xbc603bef	-0.013686164
119	0xbc3c1e0f	-0.011481776
120	0xbbf98c79	-0.0076156226
121	0xbc9afc86	-0.01891924
122	0xbc5676ea	-0.013089875
123	0xbc9bc07f	-0.019012688
124	0xbcf04775	-0.029330948
125	0xbb6b5747	-0.0035910176
126	0x39a23bf9	0.0003094373
127	0xbc1b8cef	-0.00949405
128	0xbc2f4a01	-0.010698796
129	0xbb099867	-0.002099538
130	0xbbacedd3	-0.0052773743
131	0xbc1e237b	-0.009652014
132	0xbb3200f6	-0.0027161217
133	0xbc6e41ce	-0.014542056
134	0xbb827df3	-0.0039822995
135	0x3c912b4e	0.017720845
136	0x3ca8ac72	0.02059004
137	0x3b10ece7	0.002211386
138	0x3d3b1053	0.045669865
139	0x3cb38761	0.02191514
140	0xbcbaafa1	-0.022788825
141	0xbc328462	-0.01089582
142	0xbd0234ae	-0.03178852
143	0xbd845747	-0.06461959
144	0x3c5178c9	0.012785145
145	0xbc9d19f4	-0.019177414
146	0xbc46184e	-0.012090756
147	0xbbf8fc6c	-0.0075984504
148	0xbd110815	-0.0354081
149	0xbd098ceb	-0.033581655
150	0xbce30b28	-0.02771528
151	0xbd216fd2	-0.03941328
152	0xbc798374	-0.015229095
153	0x3c832593	0.016009128
154	0xbbf0577c	-0.0073346477
155	0x3c85f505	0.016352186
156	0x3d1890e1	0.037247542
157	0x3b020e46	0.0019844933
158	0xbc85a2d6	-0.016312998
159	0x3cfe9175	0.031075219
160	0xbc4e3a1d	-0.0125870975
161	0xbccb2d52	-0.024801884
162	0x3c9cb2d2	0.019128237
163	0x3b8bcc9a	0.0042663338
164	0xbbe2a06b	-0.006916096
165	0x3c955242	0.0182277
166	0xbc972f83	-0.018455273
167	0xbcb44cad	-0.022009218
168	0xbccdc000	-0.025115967
169	0xbd0f877b	-0.035041314
170	0xbc97da99	-0.018536853
171	0xbba04ed3	-0.004892209
172	0xbb6ac1ca	-0.0035821074
173	0xbc4914a9	-0.012272992
174	0xbb4e0d5c	-0.0031441068
175	0xbc07995e	-0.008276312
176	0xbc40f118	-0.011776231
177	0x3b6bc92c	0.0035978062
178	0xbcc9d223	-0.024636334
179	0xbc6b153b	-0.014348323
180	0xbc601895	-0.013677736
181	0xbc2a5b02	-0.0103976745
182	0xbbec44ef	-0.007210366
183	0xb9ae6d15	-0.0003326914
184	0xbbce318f	-0.006292529
185	0xbc657020	-0.014003783
186	0xbb831cb4	-0.0040012244
187	0xbce223af	-0.027604906
188	0xbc44a1d2	-0.012001472
189	0xbc3fee15	-0.011714478
190	0xbc1fca6b	-0.00975285
191	0xbc5dafd6	-0.013530692
192	0xbcbbd12e	-0.022926893
193	0x3d2b594a	0.0418332
194	0x3d2979cd	0.041375924
195	0x3cbe1767	0.023204518
196	0x3d8bfc79	0.06835265
197	0x3ca405b0	0.020022243
198	0x3ca9506d	0.020668233
199	0xbbddd14b	-0.0067693344
200	0x3bf3ab2b	0.0074361763
201	0x3ae7e4ab	0.001769205
202	0xbc54e9a5	-0.012995158
203	0xbc1cbd59	-0.009566628
204	0xbc409485	-0.01175416
205	0xbca62af0	-0.020284146
206	0x3c15b423	0.009137186
207	0x3c261ee5	0.010139202
208	0xbc257fde	-0.010101287
209	0xbc4274d4	-0.011868674
210	0x3c37ba42	0.011213841
211	0xb88982a5	-6.5570035e-05
212	0x3bba604f	0.0056877504
213	0xbd042241	-0.03225923
214	0xbc70e5ad	-0.0147031965
215	0xbcd02262	-0.02540702
216	0x3c427e7b	0.011870976
217	0x3a8f457c	0.0010930742
218	0xba9064d4	-0.0011016377
219	0xbc437190	-0.011928931
220	0xbc22ff98	-0.009948634
221	0x3c0839c5	0.008314555
222	0xbb921b51	-0.004458823
223	0xbc601584	-0.013677005
224	0x3cbf8240	0.023377538
225	0x3c3487ee	0.011018736
226	0xbab1c875	-0.0013563769
227	0x3b25b353	0.0025283888
228	0x3c8cfef8	0.017211422
229	0x3cc08b74	0.023503996
230	0xbba65009	-0.005075459
231	0x3c1c46c0	0.0095383525
232	0x3cb6695e	0.02226704
233	0x3c85ecb8	0.016348228
234	0x3ba97358	0.0051712207
235	0xbb4fe6c5	-0.0031723243
236	0xbc61ea3e	-0.013788758
237	0x3d0f2a2b	0.034952324
238	0x3c71526d	0.0147291245
239	0xbc04779c	-0.008085158
240	0xbc2e75ea	-0.01064823
241	0xbd43bb4b	-0.04778604
242	0xbd48acac	-0.048992798
243	0x3c9b0bba	0.01892649
244	0xbc975b7b	-0.018476238
245	0xbcac852a	-0.021059591
246	0x3c25653f	0.01009494
247	0xbcccf7e9	-0.025020557
248	0xbcaed201	-0.021340372
249	0xbcc2fbbb	-0.023801675
250	0xbd00599c	-0.03133546
251	0xbd2f88dc	-0.04285513
252	0x3cb9a407	0.022661222
253	0x3c417fd8	0.0118102655
254	0x3c1af35d	0.009457436
255	0xbb42adbb	-0.0029705602

bias f4 [64]
0	0x3b54685b	0.0032410834
1	0xbc72dd23	-0.014823231
2	0x3bc8afe8	0.0061244853
3	0xb76f58a4	-1.4266148e-05
4	0xb9886616	-0.00026016
5	0x394e2051	0.0001965773
6	0xb87edc91	-6.0763738e-05
7	0xb9ea1634	-0.000446485
8	0xb963136a	-0.0002165564
9	0x3c8de7c6	0.017322432
10	0xbc95ef02	-0.018302444
11	0xb816aaba	-3.592179e-05
12	0xba8fef01	-0.0010981263
13	0xba19faca	-0.00058738573
14	0xba298de8	-0.0006467984
15	0xb93216b5	-0.00016983862
16	0xbc59b0ca	-0.013286779
17	0xba58f766	-0.00082766113
18	0x3a5455f9	0.0008099969
19	0x3b852993	0.004063794
20	0xba1b5dd0	-0.000592676
21	0x392bf455	0.00016398852
22	0x3c80f577	0.015742047
23	0x3c24b427	0.010052717
24	0x3cab7a4c	0.02093234
25	0xb9ef9508	-0.0004569667
26	0x3c424851	0.011858062
27	0xba11150a	-0.0005534446
28	0x3a0ae31b	0.00052981236
29	0xbc1c0d02	-0.009524586
30	0xb92cabd0	-0.00016467203
31	0xbb6841a4	-0.0035439515
32	0xbc34d7ee	-0.01103781
33	0x3a3a8400	0.00071150064
34	0xbb608bdf	-0.0034263057
35	0x3bb0e16f	0.0053979675
36	0x3a033ca5	0.000500629
37	0x3b2e72c0	0.002661869
38	0xbc9d3c4d	-0.019193793
39	0x39e8b704	0.00044386846
40	0xb87d5577	-6.0399496e-05
41	0xba080535	-0.0005188764
42	0x39b1cfcd	0.00033914894
43	0x38e10c78	0.000107311585
44	0xb9a1e16e	-0.0003087627
45	0xba1be6ed	-0.00059471914
46	0xba97407b	-0.0011539602
47	0x390b978f	0.00013312533
48	0xba607d79	-0.0008563619
49	0x3c988a3c	0.018620603
50	0x39259aab	0.00015793245
51	0x3bf74b8a	0.0075468468
52	0x396ed801	0.00022777916
53	0x3a0171ae	0.0004937899
54	0x3b0714e4	0.0020611817
55	0xbb2ea7d1	-0.002665032
56	0x3a22e7d0	0.00062143523
57	0xb8cd0709	-9.776472e-05
58	0xbba88f88	-0.0051440634
59	0x3bb80641	0.00561598
60	0x3ca4a237	0.020096881
61	0x3936387a	0.00017377912
62	0xbb9075fb	-0.0044085956
63	0x3c736fa7	0.014858163

weight f4 [64]
0	0x3e88f222	0.26747233
1	0x3eb51859	0.35370138
2	0x3f0e92e8	0.5569291
3	0x3e45aaac	0.19303387
4	0x3e4d736b	0.2006356
5	0x3e43c9e4	0.19119984
6	0x3e5db4ae	0.21650955
7	0x3e4d32d0	0.20038915
8	0x3e6669cf	0.225013
9	0x3eee79c0	0.46577263
10	0x3ee5b500	0.44864655
11	0x3e536544	0.20644099
12	0x3e88eeac	0.26744592
13	0x3e462d5b	0.19353239
14	0x3e5af2d4	0.21381694
15	0x3e4a13ef	0.19734167
16	0x3ef03339	0.4691408
17	0x3e3fe127	0.18738233
18	0x3e3f0668	0.18654788
19	0x3edf61ad	0.43629208
20	0x3e6924a7	0.22767888
21	0x3e657505	0.2240792
22	0x3e9a4b16	0.3013541
23	0x3e793d81	0.24339868
24	0x3ea3759f	0.31925675
25	0x3e5acad8	0.21366441
26	0x3e73e999	0.23819579
27	0x3e4982c0	0.19678783
28	0x3e65e066	0.22448882
29	0x3e78cfe7	0.24298058
30	0x3e562614	0.20912963
31	0x3e69151a	0.22761956
32	0x3ec1a8ce	0.378241
33	0x3e5cd964	0.21567303
34	0x3ec0ab64	0.3763076
35	0x3ef93ae0	0.4867773
36	0x3e4e6300	0.20154953
37	0x3ec97154	0.39344275
38	0x3e9e3608	0.30900598
39	0x3e676aee	0.22599384
40	0x3e55b4d6	0.20869765
41	0x3e758811	0.23977686
42	0x3e68e827	0.22744809
43	0x3e4aa247	0.19788466
44	0x3e5a6aeb	0.21329848
45	0x3e53dd49	0.20689882
46	0x3e6444fa	0.22291937
47	0x3e3d4ba3	0.18485884
48	0x3e415af0	0.18882346
49	0x3ef8ea9a	0.48616487
50	0x3e54ddee	0.20787784
51	0x3e8d84a5	0.27640262
52	0x3e43e2da	0.19129506
53	0x3e75053e	0.23927781
54	0x3e7de60f	0.24794792
55	0x3e780c91	0.24223544
56	0x3e56ad26	0.20964488
57	0x3e3bb4af	0.18330644
58	0x3e9ae0d1	0.30249646
59	0x3e7b6883	0.24551587
60	0x3ed1da8b	0.40987048
61	0x3e5c4af1	0.21512963
62	0x3ed69d30	0.419168
63	0x3e9a2184	0.30103695

bias f4 [64]
0	0x3ddb2c2d	0.10701785
1	0x3d54bd40	0.051938295
2	0x3d3db17c	0.04631184
3	0xbdab5f13	-0.08367743
4	0xbdadabc2	-0.08480026
5	0xbdaf4fd6	-0.08560149
6	0xbd363205	-0.044481296
7	0xbda1d33b	-0.07901617
8	0xbd332910	-0.043740332
9	0x3dd76a24	0.105182916
10	0x3da3d6e3	0.07999971
11	0xbdb07eae	-0.08617912
12	0x3db00bfe	0.08596037
13	0xbd9a5f3c	-0.07537696
14	0xbd6455ba	-0.055745818
15	0xbda8577f	-0.082198136
16	0x3d9769e7	0.07393246
17	0xbd366c48	-0.04453686
18	0xbd4f0852	-0.050545044
19	0x3caab05b	0.020836046
20	0xbd4730b6	-0.04863044
21	0xbd236425	-0.039890427
22	0x3dd46baf	0.103721015
23	0x3ddf9b5d	0.10918305
24	0x3df81641	0.121136196
25	0xbd5eae86	-0.054365657
26	0x3ddf72e9	0.10910589
27	0xbda6060e	-0.081066236
28	0xbd1ce1ed	-0.038301397
29	0x3d608260	0.054811835
30	0xbdbf204a	-0.093323305
31	0x3bcc65f0	0.006237738
32	0x3de07917	0.10960596
33	0xbdcfd973	-0.10148897
34	0xbd125f90	-0.035735667
35	0x3ce912bd	0.028451318
36	0xbda69bc8	-0.08135182
37	0x3d8886ec	0.06666359
38	0x3dac7e06	0.084224746
39	0xbd3950f1	-0.045243207
40	0xbd2d36e0	-0.04228866
41	0x3d412d1a	0.047162153
42	0xbac6f428	-0.0015178965
43	0xbdb6417b	-0.08899208
44	0xbd32c5c9	-0.043645654
45	0xbd95cd8e	-0.07314597
46	0xbd3ab336	-0.045581065
47	0xbd9d008d	-0.07666121
48	0xbd90deb8	-0.0707373
49	0x3dd74d13	0.105127476
50	0xbdb0eb23	-0.08638599
51	0x3d46dcc8	0.048550397
52	0xbd631c02	-0.055446632
53	0xbd895b77	-0.06706899
54	0xbdb2f3a7	-0.08737879
55	0xbccd8516	-0.025087874
56	0xbd68509c	-0.0567175
57	0xbdb8358d	-0.08994589
58	0x3d979f9b	0.07403489
59	0x3d403d0c	0.04693322
60	0x3e101522	0.14070562
61	0xbcd8d7e3	-0.02647013
62	0x3de72058	0.11285466
63	0x3deb06c3	0.11475899

running_mean f4 [64]
0	0x3d81c1ca	0.063357905
1	0x3b09a52a	0.0021002986
2	0xbdf74b2c	-0.12074885
3	0x3d658722	0.056037076
4	0x3c453457	0.012036405
5	0x3d8b8996	0.06813352
6	0xbcf58696	-0.029971402
7	0xbc8837a0	-0.016628087
8	0xbd412ad0	-0.04715997
9	0x3df129ec	0.11775574
10	0xbc5e4c29	-0.013567963
11	0x3d28c763	0.041205775
12	0x3daf8804	0.08570865
13	0x3b1cb2a5	0.0023910191
14	0xbe3acc76	-0.18242058
15	0x3d99b1d5	0.07504622
16	0x3a8a7737	0.0010564093
17	0xbe796205	-0.24353798
18	0x3d06fe1f	0.032957193
19	0xbdeb5fbc	-0.11492869
20	0xbd306f4e	-0.0430749
21	0xbd740e3d	-0.05958389
22	0x3d732dd8	0.059369892
23	0x3e0ec8a0	0.1394372
24	0x3d168415	0.036747057
25	0xbe05b8dd	-0.13058801
26	0x3dcef422	0.101051584
27	0x3c25f0d2	0.010128217
28	0xbe40daac	-0.18833417
29	0xbe3794e2	-0.17927888
30	0x3c5f945d	0.013646212
31	0xbe00dccb	-0.12584226
32	0x3c344ac8	0.011004157
33	0x3db2f248	0.08737618
34	0xbc42a89f	-0.011881023
35	0x3cb964ba	0.022631038
36	0x3c51a600	0.012795925
37	0x3cb8acd7	0.022543354
38	0x3d478289	0.048708472
39	0x3e01e61d	0.12685438
40	0xbcadfb80	-0.021238089
41	0xbe57da36	-0.21079335
42	0xbe3b4a57	-0.18290077
43	0x3d824fcc	0.06362876
44	0xbcfe77da	-0.031063009
45	0xbe0ac9f4	-0.13553602
46	0xbde63adb	-0.112416945
47	0xbc1e39fb	-0.009657378
48	0xbd87e8fb	-0.066362344
49	0x3c8854da	0.016642023
50	0x3dd3f779	0.10349936
51	0xbd20fe19	-0.039304826
52	0xbe28e1e1	-0.16492416
53	0xbd68b604	-0.05681421
54	0xbd479bb6	-0.048732482
55	0x3d21be9e	0.039488427
56	0xbe1aeb75	-0.15128882
57	0xbd8a589f	-0.067551844
58	0xbd584b18	-0.05280599
59	0xbdee6dcb	-0.11642035
60	0x3c61635d	0.0137566
61	0xbd4a2f71	-0.04936165
62	0x3d9f93cb	0.07791861
63	0x3de8c243	0.113651775

running_var f4 [64]
0	0x3cace1a1	0.021103682
1	0x3c4b572d	0.012410921
2	0x3d1e04f2	0.038578935
3	0x3e38d481	0.18049814
4	0x3e46911c	0.19391292
5	0x3e36d2b0	0.17853808
6	0x3d9fa4bd	0.07795093
7	0x3e3cda46	0.1844264
8	0x3cfaad5a	0.030600239
9	0x3c2ff32a	0.010739127
10	0x3c3c3d12	0.01148917
11	0x3e471f65	0.1944557
12	0x3cbd2b4e	0.023091938
13	0x3e376501	0.17909624
14	0x3e088ce2	0.13334993
15	0x3e3d24ca	0.18471065
16	0x3bda20f4	0.0066567603
17	0x3d5ce3aa	0.053928055
18	0x3da3df49	0.08001573
19	0x3d7327fd	0.059364308
20	0x3cc9f366	0.024652194
21	0x3d21ad4d	0.039471913
22	0x3c9aa97f	0.01887965
23	0x3d01a684	0.031652942
24	0x3bf63c54	0.007514516
25	0x3de1faa3	0.11034133
26	0x3cc9a084	0.024612673
27	0x3e28f840	0.1650095
28	0x3db511e7	0.08841305
29	0x3db2090b	0.08693131
30	0x3e2dffe5	0.16992147
31	0x3d08212b	0.033234756
32	0x3c295112	0.01033427
33	0x3dfa5462	0.12223126
34	0x3d8deba9	0.06929714
35	0x3da9acc2	0.08284904
36	0x3e4a87d7	0.19778381
37	0x3c49118e	0.012272252
38	0x3c32b5d0	0.010907605
39	0x3d55f74c	0.052237794
40	0x3dd1bb15	0.10240761
41	0x3dc29e5e	0.095028624
42	0x3dbd36c5	0.09238962
43	0x3e372136	0.17883763
44	0x3d8b5750	0.06803763
45	0x3ddffb5f	0.10936617
46	0x3d60efd6	0.054916225
47	0x3e28cbbc	0.16483968
48	0x3d5585c5	0.052129526
49	0x3c15703f	0.009121
50	0x3e43ce28	0.19121611
51	0x3d5a2d49	0.053265844
52	0x3d8f0a68	0.06984407
53	0x3d3915f6	0.04518696
54	0x3d6faf54	0.058516815
55	0x3d2e572e	0.04256361
56	0x3d33d0b0	0.04390019
57	0x3e298290	0.16553712
58	0x3cdd6910	0.027027637
59	0x3dabd8cb	0.08390959
60	0x3c2351c8	0.009968229
61	0x3dcfd852	0.10148682
62	0x3c4ef285	0.012631063
63	0x3c8c3176	0.017113429

weight f4 [64, 67, 3, 3]
0	0xbad2551d	-0.0016047094
1	0xbb958a4a	-0.0045636045
2	0xbb3e0c14	-0.0028998898
3	0x3c501294	0.012699742
4	0xba1e3fe5	-0.00060367427
5	0x3a923826	0.001115565
6	0xba1db37a	-0.0006015819
7	0x3a0641ab	0.00051214796
8	0x3bfc334a	0.007696544
9	0xbb0baeea	-0.0021313974
10	0xbbd583ff	-0.0065159793
11	0xbc1cf640	-0.009580195
12	0xbc35422e	-0.011063142
13	0x3b25e40f	0.0025312935
14	0xbb4ea981	-0.0031534138
15	0x3a516d74	0.0007989027
16	0xbb1846d8	-0.0023235586
17	0xbbfd9b1d	-0.007739438
18	0xbabaf11d	-0.0014262531
19	0xbaf27c99	-0.0018500268
20	0x3a8244cb	0.0009938715
21	0x3a9177c3	0.0011098314
22	0xbaa1e714	-0.0012352192
23	0xba8a022f	-0.0010529215
24	0x3b06165a	0.00204601
25	0x39e993bc	0.00044551294
26	0x3ab4d85f	0.0013797394
27	0xbbc1b70b	-0.005911713
28	0x3bfd19a9	0.007724006
29	0xbc270603	-0.010194304
30	0x3ccc4009	0.024932878
31	0x3ccf40b8	0.025299415
32	0xbc7d5f94	-0.015464682
33	0xbbf07f18	-0.0073393695
34	0xbc8baed9	-0.017051147
35	0xbcaebe8e	-0.021331098
36	0xbc79b129	-0.015239992
37	0xbc595887	-0.0132657355
38	0xbd0f8eaa	-0.035048164
39	0x3bb0b5d6	0.0053927703
40	0x3db6a492	0.08918108
41	0xbd01556b	-0.0315756
42	0xbb6c82c1	-0.0036088678
43	0x3c081597	0.008305929
44	0xbd248cdc	-0.040173396
45	0xbb3813f8	-0.0028088074
46	0xbc01f2d2	-0.007931428
47	0x3b17c177	0.0023156086
48	0x3b114c1e	0.0022170614
49	0xbc434a21	-0.011919529
50	0x3cad4358	0.021150276
51	0x3bf2b36e	0.0074066436
52	0xbb194134	-0.0023384811
53	0x3c03ccf7	0.008044473
54	0xbc85715a	-0.016289402
55	0xbbf59b73	-0.0074953376
56	0xbb0c1a3b	-0.002137794
57	0xbcb270fb	-0.021782389
58	0xbc82f315	-0.015985051
59	0xbbc58da0	-0.006028846
60	0xbbb8fa3f	-0.005645066
61	0xba1c80d8	-0.0005970127
62	0xba853cb4	-0.0010165186
63	0xbc9cd21c	-0.019143157
64	0xbbf30f36	-0.007417585
65	0x3a39f40b	0.0007093555
66	0xbcbeca25	-0.02328975
67	0xbc66d327	-0.014088429
68	0xbbb0222b	-0.005375167
69	0xbba976d8	-0.005171638
70	0x3a94bbba	0.0011347451
71	0xbb16b786	-0.0022997572
72	0xbcaefc42	-0.02136052
73	0xbb33d8c1	-0.0027442428
74	0x3b8391a2	0.0040151635
75	0xbcd93fcd	-0.02651968
76	0xbc63d761	-0.013906331
77	0xbb3dde34	-0.0028971555
78	0xbc25a07a	-0.010109061
79	0xbbfe2f57	-0.007757108
80	0xbbdaa641	-0.006672651
81	0xbbdda910	-0.0067645386
82	0xbbaa2e57	-0.0051935124
83	0xba927d32	-0.0011176227
84	0xbb055048	-0.002034204
85	0xbbbe6967	-0.005810905
86	0x3b1342b3	0.0022470176
87	0x3b9fe041	0.004879028
88	0x3afe225d	0.0019388903
89	0xbbf678da	-0.007521731
90	0xbc93b7bc	-0.018031947
91	0xbb9a32ba	-0.004705754
92	0x3bad149f	0.0052819992
93	0xbcb09d7f	-0.021559475
94	0xbc4bfcef	-0.012450441
95	0xbb5795b2	-0.0032895622
96	0xbbdc7cec	-0.006728759
97	0xbbab5261	-0.005228326
98	0xbbd74006	-0.0065689115
99	0xbb2323fa	-0.002489327
100	0x3b032cb1	0.0020015652
101	0x3b21799b	0.0024639133
102	0xbb4df6d5	-0.003142764
103	0x39b9c94d	0.0003543593
104	0x39c9851b	0.0003843688
105	0xbbc3182e	-0.00595381
106	0xba5be511	-0.00083883206
107	0x3a1f405c	0.0006074959
108	0xbd18b12b	-0.037278336
109	0x3cb05d75	0.021528939
110	0xbc2abc17	-0.010420821
111	0x3bfd1480	0.007723391
112	0x3d9296b6	0.07157652
113	0xbb99927c	-0.0046866518
114	0xbd02ed98	-0.03196487
115	0xba9cb5f8	-0.0011956086
116	0xbd5ae08e	-0.05343681
117	0xbc811393	-0.015756404
118	0x399e39a5	0.00030179057
119	0xbca82dce	-0.020529654
120	0x3c1084e8	0.00882075
121	0x3dd28cd0	0.10280764
122	0xbc942c99	-0.018087672
123	0xbc9cf1bb	-0.019158235
124	0xbc3d51aa	-0.011555115
125	0xbd2de5b2	-0.042455383
126	0xbcb1b702	-0.02169371
127	0xbbb6e50b	-0.0055815033
128	0x3b801f7a	0.0039100023
129	0xbcc44b1e	-0.0239616
130	0xbc4fdf2f	-0.012687488
131	0xbb9bed98	-0.004758548
132	0xbbbd4e99	-0.005777192
133	0xbb368135	-0.002784801
134	0xbbbfeffb	-0.0058574653
135	0xbafbe8fc	-0.0019219215
136	0x3c606023	0.013694796
137	0xbb90e7cb	-0.004422163
138	0x3ae581ca	0.0017509994
139	0x3c57f9dc	0.01318213
140	0xbbaaa9aa	-0.005208214
141	0xbca34943	-0.019932395
142	0xbc00a6ad	-0.007852239
143	0xbcb851dd	-0.022499973
144	0xbc9f0640	-0.01941216
145	0xbb8388ac	-0.0040140953
146	0x3b9c77a4	0.0047750045
147	0xbcbcf7af	-0.023067323
148	0xbc199cab	-0.009375731
149	0xbb148ec3	-0.00226681
150	0xbba58185	-0.0050508403
151	0xbadac628	-0.0016691135
152	0xbbca0f5f	-0.006166383
153	0x3b9aec59	0.004727882
154	0x3987fc08	0.00025936984
155	0x3b6f6c9b	0.003653324
156	0xbb214248	-0.0024606157
157	0xb89ac368	-7.3796895e-05
158	0x3a35ed28	0.0006939941
159	0xb947d71f	-0.00019058258
160	0x3b769d84	0.0037630508
161	0x3aa04910	0.0012228806
162	0xbcacb7d8	-0.021083757
163	0xbbc96224	-0.0061457325
164	0x3b4517dd	0.0030074038
165	0xbcd86b62	-0.026418392
166	0xbc513128	-0.012768067
167	0xbb30b3a1	-0.0026962536
168	0xbbeaf1fc	-0.00716996
169	0xbc21cacc	-0.009875011
170	0xbbc8d438	-0.006128814
171	0xbcc2f467	-0.02379818
172	0xbc3fbc25	-0.011702572
173	0xbd251457	-0.0403026
174	0x3d43dc54	0.047817543
175	0x3d2dc19b	0.042420965
176	0xbd8a8dc4	-0.06765321
177	0x3cda5e25	0.02665622
178	0xbc164ebb	-0.009174044
179	0xbdb9d717	-0.09074228
180	0x3b8a1646	0.004214081
181	0x3c8fcd45	0.017553935
182	0x3c8e0781	0.017337563
183	0x3c1ff083	0.009761932
184	0x3be4f27a	0.0069869133
185	0x3c3c7d54	0.01150449
186	0x3ab89427	0.0014082239
187	0xba0eaa75	-0.000544227
188	0xbba4534f	-0.005014814
189	0x3b9394b5	0.0045038112
190	0xb788cec1	-1.630874e-05
191	0x3c969acc	0.01838436
192	0xbac546f4	-0.0015051053
193	0xbc720aa7	-0.0147730475
194	0xb9a1f748	-0.00030892552
195	0x3c3b6375	0.011437287
196	0x3c1dc0eb	0.009628515
197	0x3b8c1ada	0.004275662
198	0xbc3a0c25	-0.011355435
199	0xbc9112a5	-0.017709086
200	0xbaa0636b	-0.001223666
201	0x3afeeeeb	0.0019449865
202	0xbc7c69cb	-0.015406082
203	0x3c1d1949	0.009588548
204	0x3b877863	0.0041342243
205	0xb9d4e183	-0.0004060381
206	0x3a93ef3d	0.0011286509
207	0x39c78b53	0.00038060042
208	0x3b28990b	0.0025725986
209	0x3bb4f048	0.005521808
210	0xbb59f447	-0.0033257173
211	0xba62aa20	-0.00086465664
212	0xba090405	-0.0005226734
213	0xbb4c20b5	-0.0031147425
214	0xb8ac4178	-8.2137936e-05
215	0x3a3e4a7c	0.0007259024
216	0xbb96f669	-0.004607011
217	0xbb6faaf6	-0.0036570407
218	0xbb595cae	-0.0033166814
219	0xbbe3acaa	-0.0069480734
220	0xbbcf17ce	-0.0063199764
221	0xbbc07ba6	-0.005874115
222	0xbc07e798	-0.008294962
223	0xbbba9b2b	-0.005694767
224	0xbbc3bbdf	-0.0059733237
225	0xbba2912a	-0.0049611526
226	0x3c6a1c55	0.014288981
227	0xbb261017	-0.002533918
228	0x3bb52ab9	0.0055287746
229	0x3ccfe525	0.02537782
230	0xbc5d0807	-0.013490683
231	0xbb258382	-0.0025255387
232	0xbba1fa03	-0.004943134
233	0xbc3e9390	-0.011631861
234	0xbc8d626c	-0.017258845
235	0xbb12db41	-0.0022408518
236	0xbc1d320c	-0.009594452
237	0x3b185a19	0.0023247062
238	0x3ccaa254	0.024735607
239	0x3c1a74c4	0.009427253
240	0x3b23e31d	0.0025007196
241	0xbb0f684d	-0.0021882236
242	0xbcca67d4	-0.024707712
243	0xbb1668c0	-0.002295062
244	0x3bf7e5c6	0.007565233
245	0xbc83a632	-0.016070459
246	0x3d70bf47	0.058776166
247	0x3d343d03	0.044003498
248	0xbd31ff31	-0.04345626
249	0x3c84cdc8	0.016211405
250	0xbbd8f229	-0.0066206646
251	0xbd7f6c44	-0.06235911
252	0x3c6dec82	0.01452172
253	0x3bef027c	0.0072939973
254	0x3c07f1d8	0.008297406
255	0x3bfe9f4c	0.0077704545

bias f4 [64]
0	0x3ac573ad	0.0015064381
1	0x393eebba	0.00018207627
2	0xba9f658c	-0.0012161001
3	0xba9fba53	-0.0012186266
4	0x399c3aaf	0.0002979836
5	0x3b097978	0.0020976942
6	0xbbb30bea	-0.0054640668
7	0xb984ca22	-0.00025327603
8	0x3c02362d	0.007947487
9	0xbb79f638	-0.0038141143
10	0xbbc766ae	-0.0060852384
11	0x39f66b60	0.00047000777
12	0x3bd93ba1	0.006629423
13	0x39a6c64e	0.00031809736
14	0xb975f0a4	-0.00023454666
15	0x3aefa151	0.0018282329
16	0x37b6c21e	2.1786484e-05
17	0x3af9771c	0.001903269
18	0xbabd6f66	-0.0014452755
19	0xb95f5bd0	-0.0002130114
20	0xba205ef8	-0.0006117667
21	0x3bf7b030	0.007558845
22	0x3bbe51e6	0.005808103
23	0xbbd2d49e	-0.0064340374
24	0x3c5379b3	0.012907433
25	0x3b03fcbf	0.0020139662
26	0x3b5c684f	0.0033631509
27	0x3ab417d9	0.0013740017
28	0x38b8acb1	8.80597e-05
29	0xba7f5242	-0.00097397354
30	0xbba35243	-0.0049841716
31	0xb9a8d26f	-0.00032200242
32	0xb841e58c	-4.6228568e-05
33	0x3ae419df	0.001740273
34	0xbbb596ff	-0.005541682
35	0xbab123a7	-0.0013514654
36	0xb9b20874	-0.00033957104
37	0x3ab0865b	0.0013467775
38	0x3b2af24e	0.0026084366
39	0xbaf84421	-0.0018941202
40	0x3a72574e	0.0009244577
41	0xbac23bf8	-0.0014818897
42	0x3b087a89	0.002082499
43	0x3a68f498	0.0008886545
44	0xbaf8189c	-0.0018928233
45	0xb89b4fc0	-7.4058305e-05
46	0x3a77adde	0.00094482105
47	0xb9bb3076	-0.00035703526
48	0xba7ea028	-0.0009713196
49	0x3887f8be	6.4836335e-05
50	0xbb3f35cb	-0.002917635
51	0xbbfa892a	-0.0076457458
52	0xba310206	-0.00067523157
53	0xbc1ee8a0	-0.009699017
54	0xb9d5d847	-0.00040787665
55	0xbad79ced	-0.0016449966
56	0x3b6b82ad	0.0035936043
57	0xbb710272	-0.003677514
58	0x399fa3e3	0.00030448948
59	0x3bd4c638	0.006493356
60	0x38952267	7.1112816e-05
61	0x3acef076	0.0015788216
62	0xbaa0d610	-0.0012270827
63	0x3927ad89	0.00015991008

weight f4 [64]
0	0x3ed0f8e5	0.4081489
1	0x3eb031fd	0.34413138
2	0x3e8eef60	0.27917004
3	0x3e94b9fb	0.29048142
4	0x3e53bee5	0.20678289
5	0x3e7f3f0b	0.24926393
6	0x3eacd7cc	0.3375839
7	0x3e937d1c	0.28806388
8	0x3e9eded1	0.3102937
9	0x3ef35dab	0.475324
10	0x3f04296c	0.51625705
11	0x3e6c122f	0.23053811
12	0x3e95a97a	0.29230863
13	0x3e8e0ada	0.27742654
14	0x3e8488b7	0.25885555
15	0x3e9b6c55	0.30356088
16	0x3e64cd08	0.22343838
17	0x3e82a64c	0.255175
18	0x3ea1c119	0.31592634
19	0x3e4afc86	0.19822893
20	0x3e900b8d	0.28133813
21	0x3ea07c26	0.31344718
22	0x3eea09f9	0.45710734
23	0x3ebdb189	0.3704951
24	0x3f055399	0.52080685
25	0x3e93e77b	0.28887543
26	0x3e83e4e8	0.2576058
27	0x3e84b357	0.25918075
28	0x3ef6a895	0.48175493
29	0x3e991ff1	0.29907182
30	0x3e8979a3	0.26850614
31	0x3e830b46	0.25594538
32	0x3e5cd40d	0.21565266
33	0x3e82af88	0.25524545
34	0x3ed904cd	0.42386475
35	0x3e7ca36f	0.2467172
36	0x3e665382	0.22492793
37	0x3e888260	0.26661968
38	0x3e83fd2c	0.25779092
39	0x3e9947c7	0.29937574
40	0x3ea4f21c	0.32215965
41	0x3f059aac	0.52189136
42	0x3e903758	0.28167224
43	0x3ea9476f	0.33062312
44	0x3ea6e6b4	0.32597888
45	0x3e63ff42	0.22265342
46	0x3ebfa3d2	0.37429672
47	0x3e401672	0.18758562
48	0x3ea180da	0.31543618
49	0x3e738786	0.23782167
50	0x3ea7f817	0.32806465
51	0x3eb5e0aa	0.35522968
52	0x3e5b2318	0.21400106
53	0x3eb8377a	0.35979825
54	0x3eadb07f	0.33923718
55	0x3ed14332	0.40871578
56	0x3e8e1a66	0.27754515
57	0x3e885181	0.26624683
58	0x3e7b06b1	0.24514271
59	0x3ec1167d	0.3771247
60	0x3e5e7252	0.21723297
61	0x3ebd4197	0.36964104
62	0x3edc17bd	0.4298686
63	0x3e5b71e7	0.21430169

bias f4 [64]
0	0x3ccf2178	0.025284514
1	0x3d7e30e7	0.062058356
2	0x3cdcc4f5	0.026949385
3	0x3d1b0017	0.037841883
4	0xbdcb831b	-0.09937116
5	0x3c8a4507	0.016878618
6	0x3d55ae47	0.052168157
7	0x3dad6db5	0.084681906
8	0x3b7d1d38	0.0038622152
9	0x3cdd7464	0.027033038
10	0x3cc4f2ef	0.024041621
11	0xbdb1a6aa	-0.08674367
12	0x3d1096ec	0.03530018
13	0xbcb69525	-0.022287915
14	0x3d35d017	0.044387903
15	0xbcf9dce1	-0.030500831
16	0xbdc33260	-0.09531093
17	0x3c70c5d4	0.014695603
18	0x3d8b8dbd	0.06814144
19	0xbdabacfa	-0.08382602
20	0x3d4d30fb	0.05009554
21	0x3c93e5b3	0.018053865
22	0x3d22d36b	0.039752405
23	0x3d866622	0.06562449
24	0x3d986476	0.074410364
25	0xbd836f5d	-0.06417725
26	0x3d22717c	0.03965901
27	0xbcf7c55b	-0.030245474
28	0x3cc753b2	0.024331901
29	0x3c0baa54	0.008524496
30	0x3ce6ae89	0.028159397
31	0xbcb1c516	-0.021700423
32	0xbdb06c89	-0.086144514
33	0xbd1e6701	-0.03867245
34	0x3d899d39	0.06719441
35	0xbd7b977b	-0.06142376
36	0xbdc68d5a	-0.096949294
37	0xbd00e1de	-0.031465404
38	0x3d451c3a	0.048122622
39	0x3c4707e1	0.012147875
40	0xbb34c3f3	-0.0027582615
41	0x3d73bbe9	0.059505377
42	0xbd6f759d	-0.058461774
43	0xbb4a913e	-0.0030909325
44	0xbbcd42cd	-0.006264067
45	0xbd9dbadb	-0.077016555
46	0xba44c72c	-0.00075064856
47	0xbdc45698	-0.09586829
48	0x3d1c4179	0.038148377
49	0xbdbbf6f0	-0.09177959
50	0xbca788e2	-0.020451013
51	0xbbcdd85b	-0.006281895
52	0xbdb38fdd	-0.08767674
53	0xbcad2e31	-0.02114019
54	0xbd8edfab	-0.06976255
55	0x3d7ef793	0.062247824
56	0x3ccb8799	0.024844931
57	0x3d82d958	0.06389111
58	0xbcd6f527	-0.026239945
59	0x3d98a855	0.07453982
60	0xbdc14d9e	-0.094386324
61	0xbcba065e	-0.022708114
62	0x3c9f055c	0.019411735
63	0xbdccc3b2	-0.099982634
