SND_trackers_My_data/9X0_file/9_9X0_coordconv_DS5_mse_norm.pt (torch_old, 322752 bytes, 25 tensors)

weight f4 [32, 7, 3, 3]
00000000: 87d3 528b 8793 1c8b ab48 748b 4050 ab8a
00000010: ee3e 290a dacd c38a 0e05 8a8b 570f b48b
00000020: c627 068c 96ef 910b fa3b db8a 787c 598b
00000030: be7e 318b 9163 5589 6771 868b 8055 700b
00000040: f8e3 148a 23cd a68b 1015 a284 24cd 1c85
00000050: b49c 8785 cc85 8d05 dd27 f883 f36d 6085
00000060: ed35 0f85 d812 a984 cd36 8885 496a 888d
00000070: a699 2d8d 3abf 130d a14b 1f0c fad4 580e
00000080: 098b 2c2a 4095 1c0d 87c3 752b d11f e02c
00000090: b32a dd0c 2153 d40c 3cf6 990c 1f1b 600d
000000a0: d2df 810d 3794 890c 2f10 fb8c e316 d20d
000000b0: 8f96 5a8c 407c 6c0c e6ce d50c 1fed 020d
000000c0: c733 2c0d 0534 230d 93b5 a10c ca19 1a0d
000000d0: df46 fa0c 6230 0b0d 8e7c 5f8b af2a 7d0b
000000e0: 817f 3f0c e3d4 270c 25a9 550c 12a2 970c
000000f0: 3a9c 070c 12d7 040b 01fb 530c de05 0000
00000100: 5c03 0000 c803 0080 c202 0000 ae03 0000
00000110: 6f03 0000 0700 0000 4902 0080 e001 0000
00000120: 9402 0080 8402 0080 df04 0080 8000 0080
00000130: 3c02 0080 2f04 0080 fb02 0080 8e02 0080
00000140: b500 0080 e408 0000 9800 0000 f8a9 0036
00000150: a106 0000 a80c 0000 3410 0000 3e08 0080
00000160: 7406 0000 4600 0000 f001 0080 dd01 0080
00000170: bd00 0080 d800 0080 4800 0000 bd00 0080
00000180: 1600 0000 eb14 ba0e 9a01 0080 fc00 0080
00000190: 1e00 0080 e201 0080 2501 0080 2801 0000
000001a0: 3d01 0080 fe01 0000 e001 0080 1001 0000
000001b0: 9402 0080 8c02 0080 d401 0000 3a02 0000
000001c0: 9501 0080 0400 0000 3f02 0000 3a02 0000
000001d0: b902 0080 5d03 0080 7d04 0080 8b06 0000
000001e0: e903 0000 1c08 0080 e006 0080 db02 0080
000001f0: 0503 0080 e307 0000 b8a5 bc84 7da3 a684
00000200: 1e59 0685 674f 1383 28ca 7983 43a1 6783
00000210: 6cc5 1604 8142 9283 c8d8 ab83 181b 3484
00000220: a0fc 8584 73ca 8d83 bd95 4a84 280b 5f84
00000230: 1276 d183 b20f 4284 0712 9184 cfdb f483
00000240: 1a9b c635 199c 4805 63ab f52e 4420 4484
00000250: 8c52 6f86 8ca7 9905 a91e d785 0aa5 3d06
00000260: 04c0 7586 d9fe 0999 3dd4 e986 89e0 5687
00000270: 2927 982c 8615 3d87 9ab0 d986 970d 5887
00000280: a75a 1387 08f8 4f87 997a b306 23c0 1007
00000290: b4ed ad06 6007 0907 2810 f506 9945 c406
000002a0: 5973 e006 048f d706 1186 8e06 ead2 e205
000002b0: 72a4 fc05 91a0 fe05 b521 dc05 d720 d605
000002c0: 2eef f704 f788 1f06 9919 e605 83c2 2d06
000002d0: cd16 5c84 713c 6883 6249 4184 e8f6 9004
000002e0: 0e59 f603 34b2 fc05 73f7 9c83 5655 3703
000002f0: 8ffc f504 b103 0080 ce02 0080 9002 0000
00000300: 1000 0080 1602 0080 3d00 0000 fc00 0000
00000310: 0a01 0080 c502 0000 1100 0000 0601 0000
00000320: 8f02 0000 a702 0000 b002 0080 4102 0080
00000330: fc02 0000 4101 0080 db02 0080 3808 0000
00000340: 2567 a437 9b0b 0000 8a50 8234 a513 0000
00000350: 7b06 0080 ba0f 0080 ac0d 0080 df0f 0080
00000360: 5854 1020 2d02 0080 fa01 0080 1200 0000
00000370: 6700 0080 0201 0000 7200 0080 0b00 0000
00000380: ea8f af0f 2501 0080 0c02 0080 2200 0000
00000390: e801 0080 ed00 0080 5801 0080 0600 0000
000003a0: c301 0000 f401 0000 6a03 0000 4704 0000
000003b0: ca00 0080 a800 0000 1f00 0080 0c05 0080
000003c0: 7602 0000 9e03 0000 e600 0080 a109 0000
000003d0: 3310 0000 1404 0000 060d 0080 5606 0000
000003e0: b107 0000 9508 0080 2c0d 0000 3902 0000
000003f0: bc5a 21bc c15a 21bc c75a 21bc af78 49ba
-4.0603664e-32 -3.0155494e-32 -4.704736e-32 -1.6496888e-32 8.14889e-33 -1.885525e-32 -5.316327e-32 -6.935656e-32
-1.0334953e-31 5.621246e-32 -2.1111494e-32 -4.188632e-32 -3.418431e-32 -2.5685758e-33 -5.178555e-32 4.6286642e-32
-7.168817e-33 -6.424953e-32 -3.810536e-36 -7.372763e-36 -1.2752903e-35 1.3308725e-35 -1.4585282e-36 -1.0552624e-35
-6.733732e-36 -3.9749014e-36 -1.2809509e-35 -8.407234e-31 -5.349469e-31 4.5528053e-31 1.2271673e-31 2.67266e-30
1.5324906e-13 4.8250865e-31 8.7312834e-13 6.3699952e-12 3.407614e-31 3.2713803e-31 2.372158e-31 6.9057975e-31
8.004122e-31 2.1197396e-31 -3.8682413e-31 1.2947759e-30 -1.6839416e-31 1.8218169e-31 3.2942369e-31 4.0344767e-31
5.3063917e-31 5.029087e-31 2.4915259e-31 4.7485956e-31 3.8561253e-31 4.289092e-31 -4.3041942e-32 4.875814e-32
1.4752474e-31 1.2929275e-31 1.6459823e-31 2.3362776e-31 1.0447034e-31 2.5584076e-32 1.6330382e-31 2.105e-42
1.205e-42 -1.356e-42 9.9e-43 1.32e-42 1.232e-42 1e-44 -8.2e-43 6.73e-43
-9.25e-43 -9.02e-43 -1.747e-42 -1.8e-43 -8.02e-43 -1.501e-42 -1.069e-42 -9.16e-43
-2.54e-43 3.19e-42 2.13e-43 1.9172421e-06 2.378e-42 4.54e-42 5.813e-42 -2.957e-42
2.315e-42 9.8e-44 -6.95e-43 -6.68e-43 -2.65e-43 -3.03e-43 1.01e-43 -2.65e-43
3.1e-44 4.5872683e-30 -5.75e-43 -3.53e-43 -4.2e-44 -6.75e-43 -4.1e-43 4.15e-43
-4.44e-43 7.15e-43 -6.73e-43 3.81e-43 -9.25e-43 -9.14e-43 6.56e-43 7.99e-43
-5.68e-43 6e-45 8.06e-43 7.99e-43 -9.77e-43 -1.207e-42 -1.61e-42 2.347e-42
1.403e-42 -2.909e-42 -2.466e-42 -1.024e-42 -1.083e-42 2.829e-42 -4.4350776e-36 -3.9176553e-36
-6.317018e-36 -4.3290567e-37 -7.3406587e-37 -6.806992e-37 1.7723067e-36 -8.596377e-37 -1.0100247e-36 -2.117134e-36
-3.150015e-36 -8.333715e-37 -2.3813742e-36 -2.6218647e-36 -1.2311024e-36 -2.2811797e-36 -3.410589e-36 -1.4391497e-36
1.479729e-06 9.4326254e-36 1.11717545e-10 -2.3054505e-36 -4.501155e-35 1.4449598e-35 -2.0229766e-35 3.56682e-35
-4.622045e-35 -7.1342e-24 -8.7956715e-35 -1.6165556e-34 4.3244475e-12 -1.4225105e-34 -8.188582e-35 -1.6254028e-34
-1.1085691e-34 -1.5645839e-34 6.751246e-35 1.088982e-34 6.542464e-35 1.0308902e-34 9.2182497e-35 7.382927e-35
8.4428923e-35 8.1084154e-35 5.3611456e-35 2.1330415e-35 2.3758374e-35 2.3945028e-35 2.0701083e-35 2.0136527e-35
5.8289073e-36 3.0005202e-35 2.1638499e-35 3.2680588e-35 -2.5871345e-36 -6.8248056e-37 -2.2720737e-36 3.4080985e-36
1.44790265e-36 2.3763428e-35 -9.2256675e-37 5.3876827e-37 5.783116e-36 -1.324e-42 -1.006e-42 9.19e-43
-2.2e-44 -7.48e-43 8.5e-44 3.53e-43 -3.73e-43 9.94e-43 2.4e-44 3.67e-43
9.18e-43 9.51e-43 -9.64e-43 -8.09e-43 1.07e-42 -4.5e-43 -1.024e-42 2.948e-42
1.9598354e-05 4.163e-42 2.4272987e-07 7.047e-42 -2.325e-42 -5.642e-42 -4.905e-42 -5.693e-42
1.2225181e-19 -7.8e-43 -7.09e-43 2.5e-44 -1.44e-43 3.62e-43 -1.6e-43 1.5e-44
1.7311766e-29 -4.1e-43 -7.34e-43 4.8e-44 -6.84e-43 -3.32e-43 -4.82e-43 8e-45
6.32e-43 7e-43 1.225e-42 1.534e-42 -2.83e-43 2.35e-43 -4.3e-44 -1.81e-42
8.83e-43 1.298e-42 -3.22e-43 3.454e-42 5.811e-42 1.463e-42 -4.672e-42 2.273e-42
2.759e-42 -3.079e-42 4.725e-42 7.97e-43 -0.009848293 -0.009848298 -0.009848303 -0.0007685525

bias f4 [32]
00000000: d8d5 9a04 de08 0080 04f8 6131 570c 0080
00000010: fb2b 3735 e708 0000 b927 eb34 4103 0000
00000020: d6ee 2b22 79e6 d1b7 7c1d 37b6 dc02 0080
00000030: 5232 8f36 5704 0080 3ae5 5437 9f08 0080
00000040: 6202 0000 8206 0080 b709 0080 d53a 0080
00000050: 5b81 88b4 b163 3335 27af 8533 4e90 6833
00000060: 17cf 8432 1189 f937 bb3b c337 c40e 0080
00000070: 28c1 9f33 410a 0000 9806 0080 290a 73a7
3.640161e-36 -3.181e-42 3.288279e-09 -4.427e-42 6.823681e-07 3.194e-42 4.3801063e-07 1.167e-42
2.330126e-18 -2.5022064e-05 -2.7286287e-06 -1.026e-42 4.26759e-06 -1.557e-42 1.2689556e-05 -3.093e-42
8.55e-43 -2.335e-42 -3.485e-42 -2.1105e-41 -2.5426093e-07 6.6827766e-07 6.225155e-08 5.4147954e-08
1.5460996e-08 2.974694e-05 2.3273626e-05 -5.297e-42 7.4391494e-08 3.678e-42 -2.365e-42 -3.3728532e-15

weight f4 [32]
00000000: bb7e 91a4 be00 0000 488b 49a5 7101 0080
00000010: 461b 013d 1300 0000 e100 0080 0300 0000
00000020: 1901 0000 2800 0000 3fe7 b33c 0302 0000
00000030: 8b59 c13c a101 0080 82f1 5c3d c301 0000
00000040: 8501 0080 f001 0000 fee7 c117 c03f 2e23
00000050: 9924 1f3c b25a 253d c338 e33b 9939 0a80
00000060: b9fa e33b c7ec dd3c aa42 2a3d 0100 0080
00000070: 431d 0982 dd01 0080 9d00 0080 e101 0080
-6.3098416e-17 2.66e-43 -1.7481161e-16 -5.17e-43 0.03152015 2.7e-44 -3.15e-43 4e-45
3.94e-43 5.6e-44 0.021960853 7.22e-43 0.023602268 -5.84e-43 0.053941257 6.32e-43
-5.45e-43 6.95e-43 1.2530896e-24 9.4460585e-18 0.009713315 0.040369697 0.0069342568 -9.39017e-40
0.0069573787 0.027090443 0.041567482 -1e-45 -1.0073568e-37 -6.68e-43 -2.2e-43 -6.74e-43

bias f4 [32]
00000000: 47e2 821e 6024 0000 f76f 7a9a ec01 0080
00000010: b593 763d 4e32 0000 a828 0000 b001 0080
00000020: 1c33 0000 021b 0080 bedf 24bc 831c 0000
00000030: 07cb 61bc 883b 0000 5a85 b03c d00b 0080
00000040: 4e04 0000 f538 0080 f50e c10a fdc7 178d
00000050: 84e1 ecbb 5070 3e3c 028b c1bb d544 0000
00000060: 5cd7 1fbb 8aae de3a 41ae e5bc 9601 0000
00000070: 8236 b582 f521 0080 3f00 0080 2b20 0080
1.3857872e-20 1.3049e-41 -5.1789233e-23 -6.9e-43 0.06019946 1.8046e-41 1.4585e-41 -6.05e-43
1.8335e-41 -9.689e-42 -0.01006311 1.0228e-41 -0.013781316 2.1356e-41 0.021547962 -4.238e-42
1.544e-42 -2.0432e-41 1.859085e-32 -4.6771195e-31 -0.007229032 0.011623457 -0.0059064636 2.4692e-41
-0.0024389839 0.0016989273 -0.028037192 5.69e-43 -2.6626846e-37 -1.2181e-41 -8.8e-44 -1.154e-41

running_mean f4 [32]
00000000: 5ebc 9b2c 1ae4 a2b3 d488 0fb4 34f7 27b5
00000010: 5eca c2bc 586c 70b4 43a7 12b3 c1fb 2784
00000020: e816 962a 409a 3337 c94d 4fbc 0288 00b5
00000030: f3f9 ea3b 7f01 0000 2ee4 f1bc fc86 8913
00000040: e0a1 4536 3ea5 572d 6350 ffb0 1874 0f1e
00000050: 602d f33b 17ef c73d f6e8 443c 5c58 da34
00000060: 17f0 ebbb 42ee 6b3c d1d5 16bc 17c5 adb5
00000070: 4f2b 6cb5 1479 eaab 99d1 d930 621b 49b3
4.426278e-12 -7.585204e-08 -1.336769e-07 -6.2572076e-07 -0.023778137 -2.2391157e-07 -3.4145398e-08 -1.9746355e-36
2.6661247e-13 1.07051455e-05 -0.012652823 -4.7881633e-07 0.0071709096 5.37e-43 -0.02952775 3.4716767e-27
2.9449511e-06 1.2258026e-11 -1.8576539e-09 7.5943646e-21 0.0074211806 0.097624 0.012018433 4.0669954e-07
-0.007200252 0.014400067 -0.009206251 -1.2946865e-06 -8.7979873e-07 -1.6660306e-12 1.5848399e-09 -4.6823864e-08

running_var f4 [32]
00000000: 235e d61c a1ba b811 d20b 531c d8d0 0719
00000010: 5872 283d ffcb c817 5b95 5014 0400 0000
00000020: b2b0 c203 51f9 a41b e247 583c 6b5d 6f15
00000030: b1fa 5d3c 0400 0000 02bb c23c 0400 0000
00000040: 3680 c31a e62c 5b09 7e73 2516 01f3 3400
00000050: 26bc 143c 2dc7 413e 8030 733b 7058 dd19
00000060: f307 013b 4004 bf3c 663c 953c 1906 1a19
00000070: 0741 0a2c 68a5 a206 4ab0 1510 06f3 3616
1.4185666e-21 2.91451e-28 6.982932e-22 7.021512e-24 0.04112467 1.2976193e-24 1.05307715e-26 6e-45
1.14428625e-36 2.729264e-22 0.013200732 4.833936e-26 0.013548539 6e-45 0.023770813 6e-45
8.0857246e-23 2.6382277e-33 1.3365037e-25 4.862619e-39 0.009078061 0.18923636 0.0037107766 2.2886584e-23
0.0019688576 0.023317456 0.018217277 7.962845e-24 1.9647077e-12 6.118067e-35 2.9520877e-29 1.4778528e-25

weight f4 [32, 35, 3, 3]
00000000: ea01 0080 dd01 0080 c201 0080 1601 0000
00000010: 8401 0000 3f01 0000 b101 0080 a701 0080
00000020: 5601 0080 5500 0080 5100 0080 5f01 0000
00000030: 0f00 0000 4101 0080 d300 0000 a000 0080
00000040: d500 0080 5c01 0000 1a02 0080 250a 0080
00000050: 75df d7b5 88c5 e215 5213 0000 5692 0ca3
00000060: 7e17 0000 7af0 95b4 26d4 2da2 9900 0080
00000070: 2500 0080 8a01 0080 b800 0000 5101 0000
00000080: 0201 0080 3b01 0080 a601 0080 bd00 0080
00000090: ed01 0000 4d00 0000 2302 0080 2f00 0000
000000a0: df01 0080 b800 0080 bb00 0000 bd00 0080
000000b0: b501 0080 cd00 0000 bb01 0080 2802 0000
000000c0: 3901 0080 2f02 0000 0a02 0000 6901 0000
000000d0: 0300 0080 7d00 0080 ec01 0080 4702 0080
000000e0: 5102 0080 2700 0080 4e00 0000 ac00 0000
000000f0: 2400 0000 1101 0080 6a02 0000 0d00 0080
00000100: 8c02 0000 8700 0080 e602 0000 d002 0080
00000110: d700 0080 b401 0080 3503 0000 d300 0080
00000120: 2d01 0080 8901 0080 1b01 0080 0702 0080
00000130: da02 0000 9c00 0000 4c00 0080 2e01 0080
00000140: 2b00 0000 e900 0080 a602 0000 1f01 0080
00000150: e800 0000 b700 0080 ed00 0000 8201 0080
00000160: 8800 0080 3000 0000 8300 0000 d300 0000
00000170: 1f00 0080 ff00 0000 6102 0080 6300 0080
00000180: 8e01 0000 8400 0080 6e00 0000 ee01 0080
00000190: 1601 0080 9500 0080 dc00 0000 5202 0000
000001a0: c300 0000 2901 0000 ab01 0000 6300 0080
000001b0: 7100 0080 1300 0080 5f00 0080 0602 0000
000001c0: 9000 0000 f501 0080 f401 0080 6900 0000
000001d0: b800 0000 4f01 0080 3101 0000 4302 0000
000001e0: f201 0000 7700 0080 f400 0000 4602 0080
000001f0: 1a02 0080 1100 0000 a700 0000 a901 0000
00000200: a301 0080 2502 0080 9101 0000 0200 0080
00000210: 1901 0080 6301 0080 ed00 0080 fb00 0000
00000220: 2b00 0080 a201 0000 4401 0000 3c01 0080
00000230: 7d01 0000 af00 0000 d301 0080 e001 0080
00000240: 5c01 0080 6a01 0000 5a02 0080 5d02 0000
00000250: 2602 0000 3401 0080 f601 0080 f500 0080
00000260: 7501 0080 2e01 0000 db02 0080 cb01 0000
00000270: 0202 0000 5102 0000 6302 0000 1900 0080
00000280: 4a02 0000 d400 0000 b001 0000 4802 0000
00000290: 3901 0080 0302 0000 0600 0080 2800 0080
000002a0: 4901 0000 2c01 0080 3201 0080 2900 0000
000002b0: a202 0000 7601 0080 b401 0080 b900 0080
000002c0: 7700 0000 0600 0080 b001 0080 c000 0080
000002d0: 1602 0000 1100 0080 5f02 0000 1901 0000
000002e0: 0401 0000 2002 0000 fe01 0080 e800 0000
000002f0: 9d00 0000 7100 0080 fd01 0080 5101 0080
00000300: 1302 0080 5701 0000 8901 0080 5d01 0080
00000310: e601 0080 0901 0000 5400 0080 d400 0080
00000320: b400 0000 4301 0000 0901 0080 9100 0000
00000330: 9601 0000 7900 0000 cf00 0000 0500 0080
00000340: fd00 0000 e101 0000 a900 0000 3702 0000
00000350: 3400 0000 7401 0000 8c01 0080 5700 0000
00000360: 7c01 0000 2600 0000 d900 0000 0100 0000
00000370: 9701 0000 3902 0080 7701 0080 ef02 0080
00000380: 1401 0080 aa00 0000 4601 0080 e202 0080
00000390: 3401 0000 ce01 0000 6401 0000 2102 0080
000003a0: 5e00 0000 c800 0080 a100 0000 3902 0000
000003b0: 7501 0080 4100 0000 b900 0000 1602 0000
000003c0: 3d02 0080 4601 0000 2501 0080 9301 0000
000003d0: bf01 0080 fd02 0000 2002 0000 6501 0080
000003e0: c901 0080 9502 0080 9200 0000 2602 0000
000003f0: e501 0080 8101 0000 8601 0000 df01 0000
-6.87e-43 -6.68e-43 -6.3e-43 3.9e-43 5.44e-43 4.47e-43 -6.07e-43 -5.93e-43
-4.79e-43 -1.19e-43 -1.14e-43 4.92e-43 2.1e-44 -4.5e-43 2.96e-43 -2.24e-43
-2.98e-43 4.88e-43 -7.54e-43 -3.639e-42 -1.6083783e-06 9.159232e-26 6.931e-42 -7.620403e-18
8.427e-42 -2.7928382e-07 -2.3558182e-18 -2.14e-43 -5.2e-44 -5.52e-43 2.58e-43 4.72e-43
-3.62e-43 -4.41e-43 -5.91e-43 -2.65e-43 6.91e-43 1.08e-43 -7.67e-43 6.6e-44
-6.71e-43 -2.58e-43 2.62e-43 -2.65e-43 -6.12e-43 2.87e-43 -6.21e-43 7.74e-43
-4.39e-43 7.83e-43 7.31e-43 5.06e-43 -4e-45 -1.75e-43 -6.9e-43 -8.17e-43
-8.31e-43 -5.5e-44 1.1e-43 2.41e-43 5e-44 -3.83e-43 8.66e-43 -1.8e-44
9.14e-43 -1.89e-43 1.04e-42 -1.009e-42 -3.01e-43 -6.11e-43 1.15e-42 -2.96e-43
-4.22e-43 -5.51e-43 -3.97e-43 -7.27e-43 1.023e-42 2.19e-43 -1.06e-43 -4.23e-43
6e-44 -3.27e-43 9.5e-43 -4.02e-43 3.25e-43 -2.56e-43 3.32e-43 -5.41e-43
-1.9e-43 6.7e-44 1.84e-43 2.96e-43 -4.3e-44 3.57e-43 -8.53e-43 -1.39e-43
5.58e-43 -1.85e-43 1.54e-43 -6.92e-43 -3.9e-43 -2.09e-43 3.08e-43 8.32e-43
2.73e-43 4.16e-43 5.98e-43 -1.39e-43 -1.58e-43 -2.7e-44 -1.33e-43 7.26e-43
2.02e-43 -7.02e-43 -7e-43 1.47e-43 2.58e-43 -4.7e-43 4.27e-43 8.11e-43
6.98e-43 -1.67e-43 3.42e-43 -8.16e-43 -7.54e-43 2.4e-44 2.34e-43 5.96e-43
-5.87e-43 -7.7e-43 5.62e-43 -3e-45 -3.94e-43 -4.97e-43 -3.32e-43 3.52e-43
-6e-44 5.86e-43 4.54e-43 -4.43e-43 5.34e-43 2.45e-43 -6.54e-43 -6.73e-43
-4.88e-43 5.07e-43 -8.44e-43 8.48e-43 7.71e-43 -4.32e-43 -7.03e-43 -3.43e-43
-5.23e-43 4.23e-43 -1.024e-42 6.43e-43 7.2e-43 8.31e-43 8.56e-43 -3.5e-44
8.21e-43 2.97e-43 6.05e-43 8.18e-43 -4.39e-43 7.22e-43 -8e-45 -5.6e-44
4.61e-43 -4.2e-43 -4.29e-43 5.7e-44 9.44e-43 -5.24e-43 -6.11e-43 -2.59e-43
1.67e-43 -8e-45 -6.05e-43 -2.69e-43 7.48e-43 -2.4e-44 8.5e-43 3.94e-43
3.64e-43 7.62e-43 -7.15e-43 3.25e-43 2.2e-43 -1.58e-43 -7.13e-43 -4.72e-43
-7.44e-43 4.8e-43 -5.51e-43 -4.89e-43 -6.81e-43 3.71e-43 -1.18e-43 -2.97e-43
2.52e-43 4.53e-43 -3.71e-43 2.03e-43 5.69e-43 1.7e-43 2.9e-43 -7e-45
3.55e-43 6.74e-43 2.37e-43 7.95e-43 7.3e-44 5.21e-43 -5.55e-43 1.22e-43
5.32e-43 5.3e-44 3.04e-43 1e-45 5.7e-43 -7.97e-43 -5.25e-43 -1.052e-42
-3.87e-43 2.38e-43 -4.57e-43 -1.034e-42 4.32e-43 6.47e-43 4.99e-43 -7.64e-43
1.32e-43 -2.8e-43 2.26e-43 7.97e-43 -5.23e-43 9.1e-44 2.59e-43 7.48e-43
-8.03e-43 4.57e-43 -4.1e-43 5.65e-43 -6.26e-43 1.072e-42 7.62e-43 -5e-43
-6.4e-43 -9.26e-43 2.05e-43 7.71e-43 -6.8e-43 5.4e-43 5.47e-43 6.71e-43

bias f4 [32]
00000000: 350e 0080 b5eb 8036 4669 9437 a103 0080
00000010: 7f1e a137 df43 f4b4 1203 0080 1c5f 25a7
00000020: 03e1 6039 5004 0080 536c 0080 7301 0000
00000030: 4e0b 0000 110a 0080 2109 0080 d58b 572d
00000040: 3f23 0000 d71f 0080 c9be 6629 8705 0080
00000050: e922 0000 cc09 0080 6f6d 2f14 c12e be37
00000060: d107 0000 581b 0080 7b03 0000 c900 0000
00000070: 2c00 0000 2213 0000 730e 0000 cd08 0080
-5.097e-42 3.842137e-06 1.7691997e-05 -1.302e-42 1.9206896e-05 -4.5497924e-07 -1.101e-42 -2.2949909e-15
0.00021446128 -1.547e-42 -3.886e-41 5.2e-43 4.055e-42 -3.611e-42 -3.275e-42 1.2252384e-11
1.2644e-41 -1.1422e-41 5.123574e-14 -1.983e-42 1.2523e-41 -3.514e-42 8.856824e-27 2.2671536e-05
2.804e-42 -9.809e-42 1.249e-42 2.82e-43 6.2e-44 6.864e-42 5.183e-42 -3.157e-42

weight f4 [32]
00000000: 5501 0000 e301 0000 e700 0000 2900 0000
00000010: d301 0080 1302 0080 8000 0080 ff01 0080
00000020: 0200 0080 bf01 0080 da00 0080 b700 0080
00000030: 5600 0080 5b00 0000 1501 0080 2701 0080
00000040: 5201 0000 2e01 0080 1c02 0000 bc01 0000
00000050: 5901 0000 7a01 0000 f831 6736 a793 b83d
00000060: a800 0000 3301 0080 1801 0080 3f01 0000
00000070: 2502 0080 2300 0000 5f01 0000 b601 0000
4.78e-43 6.77e-43 3.24e-43 5.7e-44 -6.54e-43 -7.44e-43 -1.8e-43 -7.16e-43
-3e-45 -6.26e-43 -3.05e-43 -2.56e-43 -1.2e-43 1.28e-43 -3.88e-43 -4.13e-43
4.74e-43 -4.23e-43 7.57e-43 6.22e-43 4.83e-43 5.3e-43 3.4450768e-06 0.090125374
2.35e-43 -4.3e-43 -3.92e-43 4.47e-43 -7.7e-43 4.9e-44 4.92e-43 6.14e-43

bias f4 [32]
00000000: 7501 0000 af00 0000 a605 0080 2005 0080
00000010: 710a 0000 af19 0000 5601 0080 f700 0000
00000020: 6904 0000 5105 0080 1c00 0080 e202 0080
00000030: c618 0000 2006 0000 4701 0080 1103 0000
00000040: 1501 0080 8505 0000 c207 0000 da01 0080
00000050: a401 0080 8802 0000 46c5 d4b2 d1bb 063d
00000060: 230e 0000 f10d 0080 ae02 0080 0c04 0000
00000070: 2b07 0000 9504 0080 6a1f 0000 6c08 0080
5.23e-43 2.45e-43 -2.026e-42 -1.839e-42 3.746e-42 9.214e-42 -4.79e-43 3.46e-43
1.582e-42 -1.907e-42 -3.9e-44 -1.034e-42 8.887e-42 2.197e-42 -4.58e-43 1.1e-42
-3.88e-43 1.98e-42 2.783e-42 -6.64e-43 -5.89e-43 9.08e-43 -2.4769758e-08 0.03289396
5.071e-42 -5.001e-42 -9.61e-43 1.452e-42 2.571e-42 -1.644e-42 1.1269e-41 -3.021e-42

running_mean f4 [32]
00000000: cdd2 79b4 dc9e c734 7290 33b4 3d10 9bb5
00000010: 621d 66b6 e61b 97b5 5e8f 3a31 e76e dc2c
00000020: f8c3 9eb7 5723 e033 adbb 4735 6313 2136
00000030: 454b 5bb4 c3c9 f7a8 80ae 8f35 7e97 f8b4
00000040: a27e 5933 7f3b 6c36 5401 0bb5 8c27 93b2
00000050: 6d03 3d34 012d 7630 a4d7 9a36 2b1e 85bc
00000060: 907a 8532 dc84 85b4 80b5 d2b4 e05c 63b3
00000070: c5f7 55aa 05a0 4ab2 9c6e 83b4 2b7c 8ab1
-2.3266621e-07 3.7182224e-07 -1.6723223e-07 -1.1553126e-06 -3.4289774e-06 -1.1258496e-06 2.7148057e-09 6.2650887e-12
-1.8926323e-05 1.0437241e-07 7.440638e-07 2.4002154e-06 -2.0423347e-07 -2.7510009e-14 1.0705116e-06 -4.6303825e-07
5.063942e-08 3.5201372e-06 -5.178347e-07 -1.7131036e-08 1.7603243e-07 8.9558233e-10 4.6146615e-06 -0.016249737
1.5538973e-08 -2.4869848e-07 -3.9247607e-07 -5.2937025e-08 -1.9004163e-13 -1.1794332e-08 -2.448113e-07 -4.030445e-09

running_var f4 [32]
00000000: 899b 5318 f029 0118 0e04 4919 020e 561a
00000010: 24ab a41a e405 1e19 2bcc 2712 3421 9d08
00000020: a71a 151c baa4 9f15 7f24 0a18 4b59 a21a
00000030: 468f 0714 997c 4e00 6fe7 091a 0074 b317
00000040: a40e 6515 a5a0 241a 5933 af17 bfe5 5e13
00000050: b83f 5a17 3583 8b0f a164 4c2d c50e 8a38
00000060: 5bf8 4e14 7710 1117 41fd 3317 ce8a fe15
00000070: 3893 7203 09b8 0413 a28f 6018 23b6 aa11
2.7349636e-24 1.6694032e-24 1.0392275e-23 4.4265478e-23 6.81053e-23 8.169598e-24 5.2947565e-28 9.4569e-34
4.933441e-22 6.447948e-26 1.7854508e-24 6.714589e-23 6.844014e-27 7.207866e-39 2.8517887e-23 1.1596886e-24
4.625773e-26 3.4044173e-23 1.1322072e-24 2.8133613e-27 7.0520023e-25 1.3756997e-29 1.16184016e-11 6.583104e-05
1.0449322e-26 4.687281e-25 5.815767e-25 1.0280878e-25 7.1286407e-37 1.6751479e-27 2.9023837e-24 2.693352e-28

weight f4 [64, 35, 3, 3]
00000000: 2e01 0000 5103 0000 4e03 0000 2803 0000
00000010: e702 0000 0503 0000 3501 0000 a100 0000
00000020: cb02 0080 7000 0000 7302 0080 e102 0000
00000030: 0401 0000 2000 0000 2f00 0080 a601 0000
00000040: a601 0080 d602 0080 4144 a409 4801 0000
00000050: 7129 48b0 e553 01ac 4d13 0000 3684 f935
00000060: 3c10 05b0 410c 0000 b19c 5616 9400 0080
00000070: c704 0000 0f02 0080 3300 0000 7f00 0000
00000080: 0c01 0080 3702 0080 2800 0080 5e02 0080
00000090: 3400 0080 de01 0000 6002 0080 1702 0000
000000a0: d000 0080 3302 0000 5000 0000 d001 0080
000000b0: 4001 0080 c701 0080 5901 0000 2702 0000
000000c0: e100 0080 3a00 0000 2c02 0080 4802 0080
000000d0: 8902 0000 f501 0000 b500 0000 3103 0000
000000e0: 8701 0080 8a00 0000 ca00 0080 d702 0080
000000f0: 0501 0080 5901 0000 8201 0000 7d01 0000
00000100: 1f02 0080 8800 0000 d700 0000 7000 0080
00000110: 7101 0000 0a01 0080 7101 0080 0501 0000
00000120: 1f02 0080 0003 0000 3b01 0080 c800 0080
00000130: fb00 0000 3801 0080 4602 0080 b701 0000
00000140: 5100 0080 e301 0000 b302 0000 1e02 0000
00000150: 0a01 0000 e701 0080 7800 0080 fa01 0080
00000160: c201 0000 5f00 0000 a000 0080 db00 0080
00000170: d900 0000 3100 0000 9b00 0080 1e02 0000
00000180: 2c01 0000 d900 0000 2400 0080 4800 0080
00000190: d302 0000 8e01 0000 8c01 0000 1001 0080
000001a0: e101 0080 5302 0000 2b01 0080 3601 0080
000001b0: 7601 0080 c700 0000 e601 0000 0101 0000
000001c0: 0f00 0080 5000 0080 7901 0080 b201 0000
000001d0: cc01 0000 2200 0080 ca02 0000 3602 0080
000001e0: e801 0000 9e01 0000 3200 0000 1e02 0080
000001f0: ef00 0080 9100 0000 8201 0080 5901 0080
00000200: 2202 0080 5201 0080 6a02 0080 0b01 0080
00000210: 0702 0000 ac00 0000 5601 0080 a601 0080
00000220: 4c01 0000 2c01 0080 6800 0000 6401 0080
00000230: f901 0000 da01 0000 be00 0080 eb01 0000
00000240: fb01 0080 4f01 0000 eb01 0080 7c00 0080
00000250: e500 0000 1b02 0080 8101 0080 6400 0000
00000260: 4501 0080 6901 0080 2200 0000 da00 0080
00000270: 6400 0080 7d02 0080 7802 0080 1900 0000
00000280: 9801 0080 eb01 0080 a401 0080 7401 0000
00000290: dd01 0080 8900 0000 9d00 0000 ff00 0080
000002a0: 0901 0000 e501 0080 7401 0080 4b01 0000
000002b0: a201 0080 3e01 0000 3602 0000 ef00 0000
000002c0: f701 0000 fe01 0000 b300 0080 3a00 0080
000002d0: 5402 0080 6401 0080 ec01 0000 c300 0000
000002e0: 0000 0080 eb01 0080 4700 0000 1502 0080
000002f0: 7b02 0000 3e02 0080 d701 0080 c301 0080
00000300: 8201 0000 7203 0000 e300 0000 b401 0080
00000310: 8602 0080 3e03 0080 b201 0080 c704 0000
00000320: 5100 0000 0801 0080 d200 0000 d002 0000
00000330: cc00 0080 5d03 0080 2000 0000 d000 0000
00000340: f901 0000 fe01 0000 2900 0000 6d01 0080
00000350: a001 0000 be00 0080 3400 0080 2900 0080
00000360: fd01 0000 4d02 0000 2b01 0080 c700 0000
00000370: 1c01 0000 a401 0080 4f01 0000 e501 0000
00000380: b902 0000 d000 0000 6d03 0000 6501 0000
00000390: 7f00 0080 0e01 0080 9701 0000 e501 0080
000003a0: e301 0000 dc00 0000 ef01 0000 9100 0080
000003b0: 3001 0080 1002 0080 8e01 0000 5101 0080
000003c0: bf00 0000 dd01 0000 c100 0080 a900 0080
000003d0: 0501 0080 4201 0000 0602 0080 b700 0000
000003e0: c700 0000 1602 0080 2301 0000 7701 0080
000003f0: 3a00 0080 d700 0000 6301 0080 c901 0080
4.23e-43 1.19e-42 1.185e-42 1.132e-42 1.041e-42 1.083e-42 4.33e-43 2.26e-43
-1.002e-42 1.57e-43 -8.79e-43 1.033e-42 3.64e-43 4.5e-44 -6.6e-44 5.91e-43
-5.91e-43 -1.017e-42 3.954575e-33 4.6e-43 -7.281847e-10 -1.8378573e-12 6.924e-42 1.8590424e-06
-4.840819e-10 4.396e-42 1.7336225e-25 -2.07e-43 1.714e-42 -7.38e-43 7.1e-44 1.78e-43
-3.76e-43 -7.95e-43 -5.6e-44 -8.49e-43 -7.3e-44 6.7e-43 -8.52e-43 7.5e-43
-2.91e-43 7.89e-43 1.12e-43 -6.5e-43 -4.48e-43 -6.38e-43 4.83e-43 7.72e-43
-3.15e-43 8.1e-44 -7.79e-43 -8.18e-43 9.1e-43 7.02e-43 2.54e-43 1.145e-42
-5.48e-43 1.93e-43 -2.83e-43 -1.019e-42 -3.66e-43 4.83e-43 5.41e-43 5.34e-43
-7.61e-43 1.9e-43 3.01e-43 -1.57e-43 5.17e-43 -3.73e-43 -5.17e-43 3.66e-43
-7.61e-43 1.076e-42 -4.41e-43 -2.8e-43 3.52e-43 -4.37e-43 -8.16e-43 6.15e-43
-1.14e-43 6.77e-43 9.68e-43 7.6e-43 3.73e-43 -6.82e-43 -1.68e-43 -7.09e-43
6.3e-43 1.33e-43 -2.24e-43 -3.07e-43 3.04e-43 6.9e-44 -2.17e-43 7.6e-43
4.2e-43 3.04e-43 -5e-44 -1.01e-43 1.013e-42 5.58e-43 5.55e-43 -3.81e-43
-6.74e-43 8.34e-43 -4.19e-43 -4.34e-43 -5.24e-43 2.79e-43 6.81e-43 3.6e-43
-2.1e-44 -1.12e-43 -5.28e-43 6.08e-43 6.45e-43 -4.8e-44 1e-42 -7.93e-43
6.84e-43 5.8e-43 7e-44 -7.6e-43 -3.35e-43 2.03e-43 -5.41e-43 -4.83e-43
-7.65e-43 -4.74e-43 -8.66e-43 -3.74e-43 7.27e-43 2.41e-43 -4.79e-43 -5.91e-43
4.65e-43 -4.2e-43 1.46e-43 -4.99e-43 7.08e-43 6.64e-43 -2.66e-43 6.88e-43
-7.1e-43 4.7e-43 -6.88e-43 -1.74e-43 3.21e-43 -7.55e-43 -5.4e-43 1.4e-43
-4.55e-43 -5.06e-43 4.8e-44 -3.05e-43 -1.4e-43 -8.93e-43 -8.86e-43 3.5e-44
-5.72e-43 -6.88e-43 -5.89e-43 5.21e-43 -6.68e-43 1.92e-43 2.2e-43 -3.57e-43
3.71e-43 -6.8e-43 -5.21e-43 4.64e-43 -5.86e-43 4.46e-43 7.93e-43 3.35e-43
7.05e-43 7.15e-43 -2.51e-43 -8.1e-44 -8.35e-43 -4.99e-43 6.9e-43 2.73e-43
-0.0 -6.88e-43 1e-43 -7.47e-43 8.9e-43 -8.04e-43 -6.6e-43 -6.32e-43
5.41e-43 1.236e-42 3.18e-43 -6.11e-43 -9.05e-43 -1.163e-42 -6.08e-43 1.714e-42
1.14e-43 -3.7e-43 2.94e-43 1.009e-42 -2.86e-43 -1.207e-42 4.5e-44 2.91e-43
7.08e-43 7.15e-43 5.7e-44 -5.11e-43 5.83e-43 -2.66e-43 -7.3e-44 -5.7e-44
7.13e-43 8.25e-43 -4.19e-43 2.79e-43 3.98e-43 -5.89e-43 4.7e-43 6.8e-43
9.77e-43 2.91e-43 1.229e-42 5e-43 -1.78e-43 -3.78e-43 5.7e-43 -6.8e-43
6.77e-43 3.08e-43 6.94e-43 -2.03e-43 -4.26e-43 -7.4e-43 5.58e-43 -4.72e-43
2.68e-43 6.68e-43 -2.7e-43 -2.37e-43 -3.66e-43 4.51e-43 -7.26e-43 2.56e-43
2.79e-43 -7.48e-43 4.08e-43 -5.25e-43 -8.1e-44 3.01e-43 -4.97e-43 -6.4e-43

bias f4 [64]
00000000: 5904 0080 1240 03b0 41d3 4824 2939 9e36
00000010: dcaf 83ab 0d0f 0000 d182 baac 9901 0000
00000020: 5200 0000 c80b 0000 2a11 0080 7872 c738
00000030: 6c10 0000 880d 0000 82f8 9eb1 2132 12b8
00000040: feaf 2c33 6502 0000 f3e8 f5b7 8c67 092d
00000050: 9512 0000 cf40 0897 7303 0080 2c04 0080
00000060: 022d 83b7 d508 0000 8512 0080 5715 0000
00000070: d708 0000 d406 0080 1493 5d38 90e2 e825
00000080: f811 0080 450a 0080 a349 0000 c011 0000
00000090: 1416 0080 9c03 0000 002e ed25 b103 0000
000000a0: 6294 25b3 1908 0000 8b03 0000 7806 0080
000000b0: f75e 22ac a209 0000 2211 0080 0212 0080
000000c0: 1cf4 fa9a ed54 0000 fa3d 7aaa 8009 0080
000000d0: a607 0000 d000 0000 6ee2 ba9a 9b17 0000
000000e0: 1f87 70b4 e809 0000 3da7 74b7 d575 4937
000000f0: 2e1c 0080 8f2e f136 4106 0080 5400 0000
-1.56e-42 -4.774857e-10 4.3547026e-17 4.7154213e-06 -9.356921e-13 5.399e-42 -5.3009615e-12 5.73e-43
1.15e-43 4.226e-42 -6.157e-42 9.510381e-05 5.891e-42 4.854e-42 -4.6266573e-09 -3.48558e-05
4.0206935e-08 8.59e-43 -2.9314751e-05 7.81054e-12 6.666e-42 -4.402577e-25 -1.237e-42 -1.497e-42
-1.5637375e-05 3.168e-42 -6.644e-42 7.655e-42 3.171e-42 -2.45e-42 5.2827483e-05 4.039911e-16
-6.446e-42 -3.684e-42 2.6416e-41 6.368e-42 -7.92e-42 1.295e-42 4.1144117e-16 1.324e-42
-3.855201e-08 2.905e-42 1.271e-42 -2.32e-42 -2.30743e-12 3.456e-42 -6.146e-42 -6.46e-42
-1.03791957e-22 3.0466e-41 -2.2225963e-13 -3.408e-42 2.744e-42 2.91e-43 -7.7293614e-23 8.468e-42
-2.2400899e-07 3.554e-42 -1.45824715e-05 1.20079685e-05 -1.0109e-41 7.18778e-06 -2.243e-42 1.18e-43

weight f4 [64]
00000000: 7d0e 0180 8daf 1700 f632 6206 dea6 0080
00000010: bb01 0080 1769 0000 2f7c 0080 6900 0080
00000020: 4d0f 0000 b327 0100 7118 0180 0a8c 0080
00000030: 5254 0080 be71 0080 dfe3 4100 0985 0000
00000040: 5649 0080 5501 0000 f007 8582 ae58 0000
00000050: a601 0080 f601 0080 ade1 df05 9b8f 0480
00000060: 903c 9e3d 2e51 0000 4c00 0000 4860 4e00
00000070: 5510 0000 1900 0000 4300 0000 2556 4900
00000080: fabc 0080 0602 0000 964e 0080 196c 6580
00000090: 9eff 0080 2215 0080 6700 0080 c40e 0000
000000a0: 1c00 0080 5352 1203 c3ac c500 50d0 0384
000000b0: 2a9b 9e83 b390 3f05 684f 0000 69ec 0300
000000c0: 0809 4301 a34d 0080 d50f 0080 e201 0080
000000d0: 9201 0000 1100 0080 9273 0100 cd68 0080
000000e0: 0e40 0480 9700 0000 ed38 1200 e9ff c53d
000000f0: b900 0080 5c4c 7801 4613 0000 5f23 1f0a
-9.7033e-41 2.175192e-39 4.2543316e-35 -5.986e-41 -6.21e-43 3.7699e-41 -4.4549e-41 -1.47e-43
5.489e-42 1.06077e-40 -1.00603e-40 -5.0237e-41 -3.0248e-41 -4.0803e-41 6.051052e-39 4.7724e-41
-2.6308e-41 4.78e-43 -1.954715e-37 3.1812e-41 -5.91e-43 -7.03e-43 2.105372e-35 -4.18858e-40
0.07726395 2.9122e-41 1.06e-43 7.197708e-39 5.859e-42 3.5e-44 9.4e-44 6.734894e-39
-6.7792e-41 7.26e-43 -2.8191e-41 -9.314163e-39 -9.1698e-41 -7.581e-42 -1.44e-43 5.297e-42
-3.9e-44 4.3000047e-37 1.8153568e-38 -1.5494628e-36 -9.322029e-37 9.007354e-36 2.8486e-41 3.60314e-40
3.5822323e-38 -2.7851e-41 -5.68e-42 -6.75e-43 5.63e-43 -2.4e-44 1.33294e-40 -3.7595e-41
-3.9032e-40 2.12e-43 1.67346e-39 0.096679516 -2.59e-43 4.560519e-38 6.914e-42 7.662224e-33

bias f4 [64]
00000000: 70af cf0c 4c4d c20e 8a09 9895 5748 350b
00000010: 9a2f 0080 86ee 2508 f43e e60b e059 5114
00000020: 9732 df8f a113 9f83 93a9 ad8c 7b96 6d82
00000030: eeaf 540e 75d8 eb0a f842 9a90 1123 7a0a
00000040: 6d6a c183 bde7 5e04 e09f 3110 34f3 1d88
00000050: c829 3a87 676b 0000 ea22 4e18 1199 0b18
00000060: 8d21 9abb 32c1 0c88 5315 0080 ae0b bf90
00000070: f910 2c04 d911 0080 7a0a 0000 e773 3e93
00000080: c78f 0e02 66f1 0080 a559 df8a 0e91 8c12
00000090: 6f61 9b8a 0368 4d87 222a 0080 3b43 178b
000000a0: 428d 0400 6dea 0d12 634a c112 6637 5097
000000b0: b7f6 9f99 6b64 cd97 6957 5084 31df da8d
000000c0: 8829 590f 723d 5801 a002 f908 da1b 0080
000000d0: c91a dd03 6256 8e02 c8d7 f48a 6730 780b
000000e0: e1f3 450e a687 2b09 88a7 d48e c4cf cb3c
000000f0: 736b a282 8072 8691 1d85 1e8b 0e5f 5719
3.1998987e-31 4.7899127e-30 -6.140736e-26 3.4913754e-32 -1.7076e-41 4.9933264e-34 8.86875e-32 1.0569528e-26
-2.2008984e-29 -9.349687e-37 -2.675693e-31 -1.7455196e-37 2.6215725e-30 2.2711099e-32 -6.084547e-29 1.20436574e-32
-1.1367955e-36 2.6202384e-36 3.5030258e-29 -4.7531353e-34 -1.4005363e-34 3.8529e-41 2.6642503e-24 1.8042608e-24
-0.0047037066 -4.2356818e-34 -7.65e-42 -7.535421e-29 2.0226296e-36 -6.403e-42 3.758e-42 -2.4038516e-27
1.0473774e-37 -8.6597e-41 -2.150784e-32 8.871001e-28 -1.4962608e-32 -1.5453052e-34 -1.5114e-41 -2.913212e-32
4.18016e-40 4.4780707e-28 1.219835e-27 -6.7278347e-25 -1.6539862e-23 -1.3273164e-24 -2.449042e-36 -1.3489019e-30
1.0706925e-29 3.971702e-38 1.49867595e-33 -9.991e-42 1.2995362e-36 2.0914606e-37 -2.3577513e-32 4.7799476e-32
2.4399548e-30 2.0647158e-33 -5.242336e-30 0.024879344 -2.3865433e-37 -2.1212038e-28 -3.0529836e-32 1.1134436e-23

running_mean f4 [64]
00000000: 1433 14b4 c319 a3b4 c02a 7531 a94c bab5
00000010: 2e46 a1b5 2940 6ab2 e7cf 672e 4a04 0080
00000020: f127 3927 ba12 04b4 a327 42b6 ebc1 27b7
00000030: c45d 75b0 65c0 f6b6 c397 0a32 aa3f 2a36
00000040: c101 de35 e131 c3ae c150 2636 8bd4 05ac
00000050: 746b dfab 6d90 ef2d bf2b 9e33 3dd1 9124
00000060: 9f73 c33c 7a09 8632 dffa a634 a3da 4eb0
00000070: 1120 3336 5778 6faf f263 76b6 a461 072e
00000080: 78d0 b334 8a90 0535 8efa 6534 f998 74b1
00000090: 511f e335 b09f 45aa cb43 0b21 e379 a2b3
000000a0: 2f29 1b31 6a59 97b3 ac29 10b1 7625 a52e
000000b0: 3116 eb29 86db ae33 4ec3 ffb3 f66c 0e37
000000c0: 4123 df32 fee2 74b5 f836 fe2e 8fec 0633
000000d0: 44db 0027 3013 0aab 9918 0c33 a9ad c331
000000e0: bd1e 7eb2 c71c 0aaa d780 3435 9d90 683c
000000f0: 740a f22c 4c80 63b5 1675 92b7 2dcf 3336
-1.3802156e-07 -3.037986e-07 3.5676493e-09 -1.3880391e-06 -1.201586e-06 -1.3635181e-08 5.2707973e-11 -1.539e-42
2.569556e-15 -1.230027e-07 -2.8931324e-06 -9.999126e-06 -8.926373e-10 -7.353769e-06 8.067164e-09 2.5369031e-06
1.6540799e-06 -8.8764336e-11 2.4782933e-06 -1.9018422e-12 -1.5874927e-12 2.7235292e-11 7.365406e-08 6.323819e-17
0.023858843 1.5603963e-08 3.1102442e-07 -7.5253065e-10 2.6691744e-06 -2.1779677e-10 -3.6715032e-06 3.078217e-11
3.349303e-07 4.9756693e-07 2.1418438e-07 -3.5593628e-09 1.6921932e-06 -1.7552518e-13 4.7184755e-19 -7.565884e-08
2.2578879e-09 -7.04775e-08 -2.0978446e-09 7.509986e-11 1.0439946e-13 8.1424375e-08 -1.19098885e-07 8.489229e-06
2.5976648e-08 -9.12274e-07 1.1560347e-10 3.1414455e-08 1.7882433e-15 -4.9054077e-13 3.261866e-08 5.69499e-09
-1.4791735e-08 -1.2266846e-13 6.724271e-07 0.014194635 6.879214e-12 -8.4750786e-07 -1.7459079e-05 2.679367e-06

running_var f4 [64]
00000000: 1a2e 6916 f200 df19 ec95 4312 c207 e819
00000010: 6286 cd19 c9bc 9213 d846 410c 0400 0000
00000020: 972c 0900 038d a016 7ce9 151a 7414 de1a
00000030: ccfa cb0f 210a ea1a 12f3 e412 0bce 5b1a
00000040: 8eff 111a 351d dd09 007e 631a f6b3 0d08
00000050: 9415 9408 6409 450d 4390 b117 d300 0000
00000060: 9fba f939 946a 4614 bf95 3d18 77c0 5410
00000070: 94e0 cb1a 8e50 040f bed7 ba1a 46a5 d30d
00000080: bc00 5317 feb8 3018 dde8 4c17 e9ab e411
00000090: cf97 7c1b d5b2 7c06 5100 0000 629c 9116
000000a0: 1d7d 0411 1a00 7119 ab62 6c15 0a9d 670c
000000b0: ffc5 8d03 f8c8 6413 b88d 0717 b29b e618
000000c0: af1a 8b16 d0d9 dc1a bf6a ea0d 70a3 4015
000000d0: a024 0200 1ed3 5305 4741 f615 0dbe d414
000000e0: 189c d014 41d5 5603 8b60 2519 4cfc 5539
000000f0: 937b 0f09 30cd 8719 ce09 041b c042 a21a
1.8836137e-25 2.3058041e-23 6.1715944e-28 2.3991371e-23 2.125078e-23 3.7041738e-27 1.4889498e-31 6e-45
8.42515e-40 2.5938385e-25 3.1001085e-23 9.185009e-23 2.0113949e-29 9.6796496e-23 1.4448744e-27 4.545458e-23
3.0191733e-23 5.323128e-33 4.7044282e-23 4.2642187e-34 8.912499e-34 6.0716615e-31 1.1474774e-24 2.96e-43
0.00047632025 1.0017464e-26 2.450328e-24 4.1957897e-29 8.432166e-23 6.523617e-30 7.727635e-23 1.3043667e-30
6.8178704e-25 2.2840864e-24 6.620987e-25 3.6078005e-28 2.0894003e-22 4.7527317e-35 1.14e-43 2.3524705e-25
1.0451517e-28 1.24594285e-23 4.7737656e-26 1.784285e-31 8.332693e-37 2.8876731e-27 4.3799727e-25 5.961082e-24
2.24735e-25 9.134176e-23 1.4447062e-30 3.890302e-26 1.9681e-40 9.9599484e-36 9.94616e-26 2.1481491e-26
2.1064201e-26 6.313375e-37 8.549797e-24 0.00020407251 1.7271103e-33 1.4041547e-23 1.0921952e-22 6.710947e-23

weight f4 [64, 67, 3, 3]
00000000: de4c 1699 1293 2b99 de0e 1199 48e3 faa1
00000010: 55e2 faa1 88e4 faa1 8ae2 58a2 80e4 58a2
00000020: 9fe4 58a2 870a 7398 be1a 1d22 c563 4722
00000030: 9b93 8598 cb0e 1d22 9c8e 4722 ae96 bd17
00000040: 5e02 1d22 4d2c 4722 1014 531a 5cbe 2e1a
00000050: b8e9 1d1a ff4e 5aa8 bb80 ad1a 434b 2e9b
00000060: 90fa 3ea5 4ce8 e1b1 0cda 809b ec01 0000
00000070: 5201 0080 de01 0000 6801 0080 8700 0080
00000080: 6c02 0000 b801 0080 1100 0000 4201 0080
00000090: f801 0000 8601 0000 cb00 0080 5400 0080
000000a0: 6b02 0000 d301 0000 ad02 0080 0b01 0080
000000b0: 7001 0080 5301 0080 8801 0000 0f02 0000
000000c0: 3b01 0000 d101 0000 c701 0000 3f00 0000
000000d0: 6402 0080 0f02 0080 6500 0000 9701 0080
000000e0: 0802 0080 4b02 0000 0e01 0000 f601 0000
000000f0: 3407 0000 1706 0080 3800 0000 4602 0000
00000100: f402 0080 1901 0080 1302 0000 b401 0000
00000110: bd02 0000 fd01 0080 3e01 0000 8e02 0000
00000120: 8c00 0080 6100 0080 3601 0080 be01 0000
00000130: 5f02 0080 a301 0080 9d01 0080 5602 0080
00000140: 7901 0000 2b01 0000 0502 0000 b400 0000
00000150: 8500 0000 4a02 0000 2801 0000 8602 0080
00000160: 8400 0000 e302 0080 5200 0000 6400 0000
00000170: 2b00 0000 a101 0080 5700 0080 5a01 0080
00000180: bd01 0080 5102 0000 3600 0080 b001 0080
00000190: d801 0000 ae00 0080 f200 0000 0c02 0080
000001a0: 3201 0080 6402 0000 5200 0080 8c01 0000
000001b0: 1700 0000 0601 0080 3400 0000 6a01 0080
000001c0: 8400 0000 9900 0080 1500 0080 ac01 0080
000001d0: 7e02 0080 0102 0000 0003 0000 3b01 0080
000001e0: ee01 0000 6b00 0080 b301 0000 fc00 0000
000001f0: ae01 0000 2801 0080 0802 0000 2700 0080
00000200: 0f01 0000 5200 0080 e100 0080 0401 0080
00000210: 3301 0080 3202 0000 a100 0080 db01 0000
00000220: 8a05 0080 d305 0000 c600 0080 8f01 0080
00000230: a400 0080 9c00 0000 4c01 0080 5c00 0080
00000240: b800 0000 0601 0000 fa01 0080 6c01 0080
00000250: 6102 0000 2400 0080 3901 0080 9f00 0080
00000260: f300 0000 5f01 0000 4002 0000 3b01 0080
00000270: 7800 0000 2801 0080 6101 0080 0800 0080
00000280: 3200 0000 8700 0080 5e00 0000 8b00 0000
00000290: 8800 0000 c800 0000 5e01 0000 1701 0000
000002a0: 2001 0080 4300 0080 0901 0000 6e01 0080
000002b0: e801 0000 1402 0080 eb01 0000 2701 0000
000002c0: 1402 0080 7700 0000 e100 0000 1701 0000
000002d0: 4201 0080 3a03 0080 f300 0080 3d01 0000
000002e0: 1000 0000 5100 0080 a900 0000 8100 0000
000002f0: e000 0000 a500 0080 0c02 0080 9401 0000
00000300: 0200 0000 2b02 0000 2301 0000 6d03 0000
00000310: 9502 0000 8f02 0080 5a01 0000 e100 0080
00000320: f400 0000 9d00 0000 2b01 0000 c800 0080
00000330: d501 0080 1702 0000 3c00 0000 c901 0080
00000340: 6e00 0080 4a01 0080 8b01 0080 1001 0000
00000350: 3102 0080 0802 0000 8a01 0000 ec00 0080
00000360: 3700 0000 2701 0000 8c02 0080 0002 0080
00000370: 8900 0080 0e02 0000 2100 0080 2f02 0080
00000380: 1f02 0080 ca00 0000 c501 0000 db02 0000
00000390: 7b00 0080 0702 0000 7e01 0000 5102 0000
000003a0: ba01 0080 3501 0080 ed00 0000 0a00 0080
000003b0: 0e01 0000 0202 0000 7100 0000 3e02 0080
000003c0: 2b02 0000 2500 0080 6a00 0080 2e7c a09f
000003d0: ff32 b49f c8f8 9d9f 0718 6820 972f 7320
000003e0: 2cc4 a59e 6d69 2221 65c1 0921 0963 c91f
000003f0: da00 0080 1e00 0080 fb01 0000 f801 0080
-7.7703414e-24 -8.8701934e-24 -7.499327e-24 -1.700082e-18 -1.7000569e-18 -1.7001151e-18 -2.9393387e-18 -2.9394426e-18
-2.939449e-18 -3.1412329e-24 2.1291625e-18 2.7022347e-18 -3.4528738e-24 2.12853e-18 2.7045026e-18 1.2251876e-24
2.127872e-18 2.6992982e-18 4.3649984e-23 3.6136128e-23 3.2655636e-23 -1.21185605e-14 7.17591e-23 -1.4417261e-22
-1.6564767e-16 -6.574771e-09 -2.1316733e-22 6.9e-43 -4.74e-43 6.7e-43 -5.04e-43 -1.89e-43
8.69e-43 -6.17e-43 2.4e-44 -4.51e-43 7.06e-43 5.47e-43 -2.84e-43 -1.18e-43
8.67e-43 6.54e-43 -9.6e-43 -3.74e-43 -5.16e-43 -4.75e-43 5.5e-43 7.38e-43
4.41e-43 6.52e-43 6.38e-43 8.8e-44 -8.58e-43 -7.38e-43 1.42e-43 -5.7e-43
-7.29e-43 8.23e-43 3.78e-43 7.03e-43 2.584e-42 -2.185e-42 7.8e-44 8.16e-43
-1.06e-42 -3.94e-43 7.44e-43 6.11e-43 9.82e-43 -7.13e-43 4.46e-43 9.16e-43
-1.96e-43 -1.36e-43 -4.34e-43 6.25e-43 -8.5e-43 -5.87e-43 -5.79e-43 -8.38e-43
5.28e-43 4.19e-43 7.24e-43 2.52e-43 1.86e-43 8.21e-43 4.15e-43 -9.05e-43
1.85e-43 -1.036e-42 1.15e-43 1.4e-43 6e-44 -5.84e-43 -1.22e-43 -4.85e-43
-6.24e-43 8.31e-43 -7.6e-44 -6.05e-43 6.61e-43 -2.44e-43 3.39e-43 -7.34e-43
-4.29e-43 8.58e-43 -1.15e-43 5.55e-43 3.2e-44 -3.67e-43 7.3e-44 -5.07e-43
1.85e-43 -2.14e-43 -3e-44 -6e-43 -8.94e-43 7.19e-43 1.076e-42 -4.41e-43
6.92e-43 -1.5e-43 6.1e-43 3.53e-43 6.03e-43 -4.15e-43 7.29e-43 -5.5e-44
3.8e-43 -1.15e-43 -3.15e-43 -3.64e-43 -4.3e-43 7.88e-43 -2.26e-43 6.66e-43
-1.987e-42 2.09e-42 -2.77e-43 -5.59e-43 -2.3e-43 2.19e-43 -4.65e-43 -1.29e-43
2.58e-43 3.67e-43 -7.09e-43 -5.1e-43 8.53e-43 -5e-44 -4.39e-43 -2.23e-43
3.4e-43 4.92e-43 8.07e-43 -4.41e-43 1.68e-43 -4.15e-43 -4.95e-43 -1.1e-44
7e-44 -1.89e-43 1.32e-43 1.95e-43 1.9e-43 2.8e-43 4.9e-43 3.91e-43
-4.04e-43 -9.4e-44 3.71e-43 -5.13e-43 6.84e-43 -7.45e-43 6.88e-43 4.13e-43
-7.45e-43 1.67e-43 3.15e-43 3.91e-43 -4.51e-43 -1.157e-42 -3.4e-43 4.44e-43
2.2e-44 -1.14e-43 2.37e-43 1.81e-43 3.14e-43 -2.31e-43 -7.34e-43 5.66e-43
3e-45 7.78e-43 4.08e-43 1.229e-42 9.26e-43 -9.18e-43 4.85e-43 -3.15e-43
3.42e-43 2.2e-43 4.19e-43 -2.8e-43 -6.57e-43 7.5e-43 8.4e-44 -6.4e-43
-1.54e-43 -4.62e-43 -5.54e-43 3.81e-43 -7.86e-43 7.29e-43 5.52e-43 -3.31e-43
7.7e-44 4.13e-43 -9.14e-43 -7.17e-43 -1.92e-43 7.37e-43 -4.6e-44 -7.83e-43
-7.61e-43 2.83e-43 6.35e-43 1.024e-42 -1.72e-43 7.27e-43 5.35e-43 8.31e-43
-6.2e-43 -4.33e-43 3.32e-43 -1.4e-44 3.78e-43 7.2e-43 1.58e-43 -8.04e-43
7.78e-43 -5.2e-44 -1.49e-43 -6.7968074e-20 -7.631733e-20 -6.690366e-20 1.9659114e-19 2.0598647e-19
-1.755119e-20 5.5027265e-19 4.667336e-19 8.529065e-20 -3.05e-43 -4.2e-44 7.1e-43 -7.06e-43

bias f4 [64]
00000000: 98c8 eb37 4cc2 ca35 5028 7499 419d 7bb5
00000010: 2a7b abb7 e694 3a37 4a4e 7c1c c10a 0f34
00000020: 17e7 2595 c972 9ab5 62ca 7a15 4303 56b5
00000030: 74f9 9bb5 095c a934 82ab dab3 03d3 adb3
00000040: fc71 8e33 6382 0ab5 b8d9 ab32 8700 5232
00000050: 200f a6b7 e8b9 6636 0332 3d38 2841 aab2
00000060: 3ca6 9435 664a 23b4 ee17 0080 e16b f7ae
00000070: 17a6 581f 142f 6098 ca72 9121 27d4 91b7
00000080: 3ecd 5e13 9265 06b5 f678 9537 705f 59b7
00000090: 73f8 2eb5 bf47 c02f 5b8c a690 7c8d f834
000000a0: 17f2 3230 9972 6e33 b740 feb5 db6b 34ae
000000b0: eacd 1335 5d07 4635 fb61 88b8 cb58 9e32
000000c0: fd22 149f 4923 5616 b61a 5013 21a5 54a1
000000d0: 7234 9f93 9159 8ab5 3d35 f3b3 ec21 6236
000000e0: 7eb8 9a34 3d55 18ad 960a 862e c346 80b2
000000f0: 0d6d 39b5 1238 5cab 9d9d be2f ed52 7ba4
2.8107592e-05 1.5106721e-06 -1.2622645e-23 -9.373362e-07 -2.0442141e-05 1.1121132e-05 8.348099e-22 1.3321825e-07
-3.3503782e-26 -1.1507301e-06 5.064675e-26 -7.972596e-07 -1.1621e-06 3.1545667e-07 -1.0182613e-07 -8.094323e-08
6.633124e-08 -5.1598744e-07 2.0006027e-08 1.2223729e-08 -1.9795785e-05 3.4380882e-06 4.510769e-05 -1.9820234e-08
1.107524e-06 -1.5207624e-07 -8.584e-42 -1.1251423e-10 4.5877165e-20 -2.897509e-24 9.855967e-19 -1.7384138e-05
2.8121532e-27 -5.0066694e-07 1.7818511e-05 -1.2956429e-05 -6.518159e-07 3.4975575e-10 -6.5691707e-29 4.6296543e-07
6.5100053e-10 5.551792e-08 -1.8943309e-06 -4.1023056e-11 5.506141e-07 7.3771463e-07 -6.5032356e-05 1.8434e-08
-3.136916e-20 1.7297916e-25 2.626646e-27 -7.204694e-19 -4.0188958e-27 -1.0307868e-06 -1.1325253e-07 3.369637e-06
2.881897e-07 -8.659126e-12 6.095495e-11 -1.493334e-08 -6.907656e-07 -7.8237514e-13 3.467279e-10 -5.449719e-17

weight f4 [64]
00000000: c4ab 02a8 0cb8 b825 b450 63a4 0220 3a28
00000010: 7fc8 593d 51d8 5c2a 7365 3029 ef07 3326
00000020: c6ed 8ea4 ff19 473d 4cfd 3323 6fed ca3c
00000030: 3fbe 223b 5b5e 023d e7fd be3b e354 5c3c
00000040: 8a3e 753c de44 07a8 d77f b53b ecd8 3c3b
00000050: 6ac6 043d bb41 023d 5b61 473e 576b 2a3b
00000060: 87ce 3daa cb22 b8a5 601e 92a6 f014 6d24
00000070: 6115 b6a9 a90f cc25 a0f2 d223 00d4 a03d
00000080: 4ee8 6629 10f4 153d 0aec f83c c885 773b
00000090: 02aa 913b d224 b4a2 d1dd 16a2 ca5d 3a3c
000000a0: 336f e59c 35dc b03c 0b66 0d3d aef7 c127
000000b0: 41bd a8a3 71cf a13b 2d5d 83ad dd7c 333d
000000c0: eb7b 3a2d b045 9fa6 ee48 949e dd0c 4da2
000000d0: bbdc eda2 fee0 923d d064 af2d 03a5 143a
000000e0: f537 bc23 df82 c99c 3fc8 4ba5 1047 853b
000000f0: b54e af3b d8a4 1328 0a7d 8733 a9dd 722b
-7.253695e-15 3.2043627e-16 -4.9291137e-17 1.0332015e-14 0.053169724 1.9614975e-13 3.9167844e-14 6.211385e-16
-6.198549e-17 0.048608776 9.757247e-18 0.02477142 0.0024832634 0.031828266 0.0058286074 0.013447973
0.014968524 -7.508939e-15 0.0055389213 0.002881582 0.032415785 0.031800967 0.19470732 0.002600392
-1.6858226e-13 -3.1942489e-16 -1.0139018e-15 5.1408918e-17 -8.086132e-14 3.539897e-16 2.2871001e-17 0.07852936
5.127175e-14 0.03660971 0.03038599 0.0037768949 0.0044453153 -4.8828083e-18 -2.044622e-18 0.0113749
-1.5182693e-21 0.021589378 0.034521144 5.3836796e-15 -1.8294749e-17 0.004938059 -1.4934354e-11 0.04382025
1.0600391e-11 -1.105173e-15 -1.5700273e-20 -2.778949e-18 -6.4472686e-18 0.0717182 1.9939966e-11 0.00056703406
2.04067e-17 -1.3334894e-21 -1.7675289e-16 0.004067309 0.005349959 8.195884e-15 6.309172e-08 8.6283286e-13

bias f4 [64]
00000000: 0683 b836 aaf1 0239 44f1 c5b5 68d2 33b7
00000010: 2bca 703d dec5 e338 09ae 5cb7 aead ac9e
00000020: cef7 32b5 db04 593d 7e9e 6eb5 89a2 173d
00000030: 16d4 4e3c ddec 253d 5545 653d 109e 3c3d
00000040: afee e23c 9f01 0d36 bc38 ac3c a42d 383c
00000050: adcf f23d 418d ed3d be0b 8a3e af1e bf3b
00000060: d3b9 b638 bbb2 b5b6 5847 33b5 f36c ed92
00000070: ba4e 8538 a6c5 f4b4 85dc f2b5 e7e6 093e
00000080: 935c 09ae a710 9e3d f003 3b3d f517 833c
00000090: 4943 da3b 2a8d 87b2 8a27 f8b3 ff29 953c
000000a0: a38b b3b2 fe3e 053d 26a2 253d edb7 8e37
000000b0: 0a17 7e36 b617 ab3c da5b 793b ce36 683d
000000c0: 4a69 10b6 d99c c9b4 09c4 ffb5 93c2 4336
000000d0: 1556 85b6 26e0 973d 904a 5539 dcd9 8a3c
000000e0: 080a 42b6 b2d6 02b2 0c0b b3b2 9f3b 073c
000000f0: 9a54 3d3c a59e 3736 032a 5539 3718 473b
5.4988805e-06 0.00012487793 -1.4747861e-06 -1.071822e-05 0.058786552 0.00010861059 -1.3153543e-05 -1.828304e-20
-6.667077e-07 0.052983146 -8.8892546e-07 0.03702024 0.012623807 0.040509094 0.055974323 0.046049178
0.027701704 2.101158e-06 0.021023147 0.01124135 0.11856017 0.11599208 0.26962084 0.005832515
8.713049e-05 -5.4150273e-06 -6.6786515e-07 -1.4983661e-27 6.356598e-05 -4.559235e-07 -1.8094585e-06 0.13466989
-3.1232416e-11 0.0771802 0.045658052 0.016002635 0.006660853 -1.5780262e-08 -1.1555592e-07 0.018208502
-2.0901842e-08 0.032530777 0.04043784 1.7013366e-05 3.786236e-06 0.02088533 0.0038049133 0.05669289
-2.1518958e-06 -3.755329e-07 -1.9056034e-06 2.9170521e-06 -3.97373e-06 0.074158 0.0002034104 0.016949587
-2.8914092e-06 -7.615812e-09 -2.0843366e-08 0.008253961 0.011555815 2.7361468e-06 0.00020328914 0.0030379423

running_mean f4 [64]
00000000: 793f 76b3 5d08 8db3 de2e abb3 2b61 3736
00000010: 1821 973c f958 8ab5 4569 5ab6 55cf 1b36
00000020: 887a 9b36 ff69 b13c 994e c332 1122 923c
00000030: d234 4bb9 cd04 dbbb 3822 883b 416c 923b
00000040: 4d94 3b3c 6aee 2f37 8f8c cd3b fd61 423b
00000050: 7f13 e53c 93ad a93b a200 ff3d 8b6e 503a
00000060: 1dc2 3f36 bb0e 28b4 c28e 83b5 acf8 d2b1
00000070: d94c b8b5 c16b d932 ff1f 09b7 d769 f13c
00000080: 50d7 6335 07cf a63b 8f12 ab3c 916e ad3b
00000090: 28d9 c73b 50d4 a0b7 6806 b331 8be6 82bb
000000a0: 94ee 1236 9445 bc3c 50cf dfba 6f2c 0536
000000b0: 9a9f 54b1 7738 b23b a7f7 6136 9190 133d
000000c0: dc4e b4b5 3b32 ebb4 df79 1b2f 3160 fbb4
000000d0: defc cdae 17d3 18bb 05ac 38b7 edb0 fcb8
000000e0: 3903 c336 2cd0 f4b5 ec21 ec34 d05f 8bba
000000f0: e28e 2fbb e3de 8436 f67b 58b4 2344 0034
-5.7334066e-08 -6.5673454e-08 -7.971333e-08 2.7325684e-06 0.018448398 -1.0307696e-06 -3.2545806e-06 2.3217483e-06
4.6336245e-06 0.021656988 2.273673e-08 0.01783851 -0.00019379266 -0.006683922 0.00415447 0.0044684713
0.011448932 1.0486323e-05 0.0062728594 0.0029660456 0.027963398 0.0051781624 0.124512926 0.00079510425
2.8574207e-06 -1.5651578e-07 -9.801809e-07 -6.140075e-09 -1.3731434e-06 2.5311126e-08 -8.173286e-06 0.029469414
8.487741e-07 0.0050905976 0.020882873 0.0052927216 0.006098885 -1.9172352e-05 5.210314e-09 -0.003994768
2.1894566e-06 0.022982396 -0.0017075334 1.9844408e-06 -3.0940783e-09 0.00543886 3.3671765e-06 0.03602654
-1.3433996e-06 -4.3808708e-07 1.4140465e-10 -4.6822382e-07 -9.367239e-11 -0.0023319179 -1.1007306e-05 -0.000120492514
5.811828e-06 -1.8240003e-06 4.3983107e-07 -0.0010633413 -0.0026788046 3.959854e-06 -2.0161664e-07 1.1945717e-07

running_var f4 [64]
00000000: 3a52 8f19 d65b b710 79a1 5818 0f0c 8c19
00000010: 0816 9f39 6a6b a518 0a24 cf19 8f9f 0b18
00000020: 0a4b 081a f220 bb39 a61f 311a 81fd 1339
00000030: 1f80 4037 af90 983a 10da a937 778a 8538
00000040: 7cf4 9538 31e7 cf1a f0fe c937 10a8 2637
00000050: a987 8c38 eb80 9339 2994 d138 1375 7837
00000060: abaf ac19 60e3 1617 ac21 0519 4ac5 bc11
00000070: 2a24 3f19 6570 8314 68f9 101a 0534 1e38
00000080: 1e6e a218 6293 c639 ee70 0a3a 1ee3 6f37
00000090: a439 ad37 2d6f a519 7cfa b311 523d 8d38
000000a0: 3c46 f31a 9bf3 9539 6612 873a fa36 cd19
000000b0: 0dae 1715 bdd0 a237 5e42 0b1b 1200 383a
000000c0: 9618 841a 255f 5b18 0d90 050d e0ea ce17
000000d0: e80b 570c 83d1 1d3a 9235 c119 79b5 7035
000000e0: e3eb 1a1a d407 5419 5835 8216 235c cf37
000000f0: 3a9d f737 48ee 9119 3f9e 7424 1f32 4219
1.4819064e-23 7.232227e-29 2.7998869e-24 1.4480531e-23 0.00030343258 4.275996e-24 2.1417854e-23 1.8045885e-24
2.8184757e-23 0.00035691966 3.6628308e-23 0.0001411345 1.1473922e-05 0.0011639799 2.0247913e-05 6.367725e-05
7.1504124e-05 8.5986703e-23 2.4079782e-05 9.933501e-06 6.700989e-05 0.00028134076 9.9934936e-05 1.480921e-05
1.7855335e-23 4.87546e-25 6.882739e-24 2.978276e-28 9.881772e-24 1.3271951e-26 2.997997e-23 3.7718582e-05
4.198721e-24 0.00037875312 0.000528111 1.429839e-05 2.0650048e-05 1.7105504e-23 2.8395593e-28 6.734826e-05
1.00615914e-22 0.00028600995 0.0010305166 2.1218708e-23 3.063151e-26 1.9409106e-05 1.1519255e-22 0.00070190534
5.463364e-23 2.8353122e-24 4.1157184e-31 1.3371729e-24 1.656658e-31 0.00060202944 1.9977369e-23 8.9671045e-07
3.2037e-23 1.0961724e-23 2.1036297e-25 2.4719227e-05 2.9517909e-05 1.508889e-23 5.3043106e-17 1.0039687e-23
