SND_trackers_My_data/9X0_file/9_9X0_coordconv_Label_V6.pt (torch, 305469 bytes, 25 tensors)

weight f4 [32, 9, 3, 3]
0	0xb9ef6561	-0.00045661165
1	0xb9ef71a6	-0.00045670307
2	0xb9ef3ec6	-0.00045632402
3	0xb9efb842	-0.00045722915
4	0xb9efbec5	-0.00045727767
5	0xb9ef556f	-0.00045649285
6	0xb9ef6d31	-0.00045666986
7	0xb9ef47f7	-0.0004563925
8	0xb9ef4be7	-0.00045642184
9	0x398c75ee	0.00026790745
10	0x398c538a	0.00026765122
11	0x398c3175	0.0002673973
12	0x398c5f3b	0.00026773833
13	0x398c6613	0.00026778932
14	0x398c70fb	0.00026787058
15	0x398c0890	0.0002670926
16	0x398c72ba	0.0002678836
17	0x398c1ead	0.00026725736
18	0x3b1ab180	0.0023604333
19	0x3b1f1ed2	0.0024279845
20	0x3b235320	0.0024921373
21	0x3b17f979	0.0023189469
22	0x3b1d33e9	0.002398724
23	0x3b212930	0.00245912
24	0x3b1432f4	0.0022613378
25	0x3b199d86	0.0023439839
26	0x3b1d7676	0.0024026907
27	0xb44ceb88	-1.9084666e-07
28	0x37499cf6	1.2017079e-05
29	0xb5603630	-8.3525356e-07
30	0xb5cc3939	-1.5215838e-06
31	0x35c470d7	1.4635979e-06
32	0xb594283c	-1.1038569e-06
33	0xb56bffd6	-8.791661e-07
34	0xb5c1433f	-1.4399192e-06
35	0x35943fcc	1.1045427e-06
36	0xbc5e84db	-0.01358148
37	0xbc16714a	-0.009182284
38	0xbc73f932	-0.014890956
39	0xbc9e302b	-0.019310078
40	0xbbf89cf8	-0.0075870715
41	0x3bc2ab4c	0.0059408303
42	0xbc7f576b	-0.015584807
43	0x39d60877	0.00040823568
44	0x3c9337eb	0.017971
45	0xbb67aae6	-0.0035349666
46	0x3c156f2d	0.009120745
47	0x3be4ebd9	0.006986123
48	0x3bb4a3ae	0.005512676
49	0x3c848631	0.016177269
50	0x3be0af7e	0.006856858
51	0x3c40222a	0.011726895
52	0x3cf3acb4	0.029745437
53	0x3bdfaf00	0.0068262815
54	0x3d0601f0	0.03271669
55	0x3c89c1a6	0.016815972
56	0x3cac8285	0.02105833
57	0x3cd02358	0.025407478
58	0x3c3a5c42	0.011374535
59	0x3c040296	0.008057257
60	0xbbac191c	-0.0052520167
61	0xbc645b24	-0.013937745
62	0xbc80d4f6	-0.015726548
63	0xbb2f213d	-0.0026722692
64	0x3a193b92	0.00058453635
65	0xba67433e	-0.00088219706
66	0xbbc75818	-0.0060834996
67	0xbb0e0f40	-0.002167657
68	0x3a109bb5	0.0005516366
69	0xbbe60d8a	-0.007020657
70	0xbb91e0ac	-0.004451832
71	0xbb787055	-0.0037908752
72	0xbb9a2166	-0.0047036884
73	0xbae8e729	-0.0017769086
74	0xbba592a1	-0.00505288
75	0xbbb4e9e7	-0.0055210474
76	0xbbf39c7e	-0.007434427
77	0xbbb5fd14	-0.005553851
78	0x3c9c92ee	0.01911303
79	0xbb0fb954	-0.0021930533
80	0xbbd8023d	-0.0065920637
81	0xbb731719	-0.0037092625
82	0xbb7212ce	-0.0036937478
83	0xbb7191cc	-0.0036860583
84	0xbb725e9e	-0.0036982666
85	0xbb71d47f	-0.003690034
86	0xbb72e8cd	-0.003706503
87	0xbb73230f	-0.0037099754
88	0xbb71b19f	-0.0036879552
89	0xbb72e18c	-0.0037060706
90	0x3c036e04	0.008021835
91	0x3c036dcf	0.008021786
92	0x3c038a16	0.008028528
93	0x3c03674b	0.008020232
94	0x3c036776	0.0080202725
95	0x3c035f9a	0.008018399
96	0x3c036af2	0.008021103
97	0x3c0364ee	0.008019669
98	0x3c036e07	0.008021838
99	0x3b9f1a29	0.0048554135
100	0x3bac678b	0.0052613667
101	0x3ba17dc1	0.004928321
102	0x3b853e6d	0.0040662796
103	0x3b96b7e9	0.0045995605
104	0x3b8d0077	0.004303034
105	0x3b409341	0.0029384645
106	0x3b67b934	0.0035358192
107	0x3b5d8a82	0.003380448
108	0xb900a570	-0.00012268662
109	0xb95e91d6	-0.00021225898
110	0xb81c2837	-3.723075e-05
111	0xb9a9b84e	-0.0003237151
112	0x395f6aa9	0.00021306671
113	0xb9b0e94b	-0.00033743153
114	0xb977e5d9	-0.0002364138
115	0x3987dca0	0.00025913585
116	0x39463587	0.00018902692
117	0x3cc8b04f	0.024498133
118	0xba066e4f	-0.00051281316
119	0xbc0962bc	-0.0083853565
120	0x3ca692c3	0.020333653
121	0xbc8fd811	-0.017559083
122	0x3ce6fcc4	0.0281967
123	0xbc098740	-0.0083940625
124	0xbbb18ee4	-0.005418645
125	0xbc6d4fe1	-0.014484377
126	0xbcf8c60f	-0.03036788
127	0xbba4a5ee	-0.005024663
128	0xbbc2a128	-0.0059396215
129	0x3cbc068b	0.022952339
130	0xbc6e37f8	-0.014539711
131	0xbbae8c7a	-0.0053268047
132	0x3beaea3a	0.0071690353
133	0xbc9ef58a	-0.019404192
134	0x3bf435c2	0.0074526975
135	0x3b96639a	0.00458951
136	0x3ca98021	0.02069098
137	0x3c70f95d	0.01470789
138	0xbc03f55e	-0.008054106
139	0x3b449e76	0.0030001677
140	0xbc61d376	-0.013783326
141	0x3d5ece46	0.054395936
142	0x3b5794a3	0.003289499
143	0xbc4fcea1	-0.0126835415
144	0xbab48e2d	-0.0013775282
145	0xbc42e89a	-0.011896277
146	0xbc05acc5	-0.008158867
147	0xbc334341	-0.010941328
148	0xbc2acea2	-0.010425242
149	0xbc2c655b	-0.010522212
150	0xbba4d75a	-0.0050305547
151	0xbc6b2721	-0.014352591
152	0xbc3d1d5e	-0.011542646
153	0xbb4da43e	-0.0031378414
154	0xbba9dfa6	-0.0051841317
155	0xbbf905a0	-0.0075995475
156	0xbbade36f	-0.005306653
157	0xbc08110e	-0.008304847
158	0xbbfd2d6c	-0.007726362
159	0xbbe2ab22	-0.0069173733
160	0xbb2d1d80	-0.0026415288
161	0xbb01c84c	-0.0019803224
162	0xbb92217a	-0.004459557
163	0xbb922184	-0.004459562
164	0xbb9221b5	-0.0044595846
165	0xbb9221e5	-0.004459607
166	0xbb92219b	-0.0044595725
167	0xbb92219f	-0.0044595744
168	0xbb92227b	-0.004459677
169	0xbb922106	-0.004459503
170	0xbb922234	-0.0044596437
171	0x3b30f7a6	0.0027003079
172	0x3b30f871	0.0027003551
173	0x3b30f6f7	0.0027002671
174	0x3b30faf7	0.0027005055
175	0x3b30fd19	0.0027006327
176	0x3b30f52f	0.002700161
177	0x3b30f2c9	0.002700018
178	0x3b30f7c8	0.0027003158
179	0x3b30f36f	0.0027000566
180	0xba67af46	-0.00088380685
181	0xba95f1ea	-0.0011439894
182	0xbac51d9b	-0.001503873
183	0xbb2084c7	-0.0024493204
184	0xbb28ab7c	-0.0025736978
185	0xbb3f803a	-0.0029220716
186	0xbb87daf3	-0.004145974
187	0xbb87d725	-0.0041455203
188	0xbb9563b6	-0.0045590056
189	0xba94935e	-0.0011335423
190	0x3b5ba931	0.0033517594
191	0xb9f058e4	-0.00045842596
192	0x39941ba3	0.0002824935
193	0xb922d4cb	-0.00015528795
194	0xb6eac389	-6.9965067e-06
195	0x3a96d4fc	0.0011507566
196	0x38ad143e	8.253053e-05
197	0xba023055	-0.00049663085
198	0xbc75a14d	-0.01499207
199	0xbc82651b	-0.015917351
200	0xbbcbb062	-0.006216095
201	0x3a99e052	0.0011739826
202	0xbbf68c47	-0.0075240466
203	0xbc3ca807	-0.01151467
204	0xbc05320a	-0.008129606
205	0xbb9acb4f	-0.0047239433
206	0xbc10fc53	-0.008849221
207	0xbd0c540e	-0.03425985
208	0xbcc56066	-0.024093818
209	0xbbd0bf98	-0.006370496
210	0xbcba01c4	-0.02270592
211	0xbcb01a0a	-0.021496791
212	0xbce8fcc1	-0.028440835
213	0xbce77ef6	-0.028258782
214	0x3c30e402	0.010796549
215	0xbca7fc54	-0.020506062
216	0xbcec72e9	-0.028863387
217	0xbc3e1bc5	-0.0116033
218	0xbcda4f9d	-0.02664929
219	0xbc3c19b2	-0.011480736
220	0xbc79a055	-0.01523598
221	0xbcdfb950	-0.027310044
222	0xbc9bad79	-0.019003617
223	0xbc3fef96	-0.011714837
224	0xbd0d0cde	-0.0344361
225	0xb9a3cad9	-0.00031240916
226	0x3d5a1f8d	0.053252745
227	0x3b8ea9be	0.004353731
228	0xbd6a9c70	-0.057278097
229	0xbd220b6e	-0.03956168
230	0xbd8a1f17	-0.06744211
231	0x3d018e78	0.03163001
232	0xbdadf3be	-0.08493756
233	0x3d93a9a4	0.07210091
234	0x3d49657e	0.049169056
235	0x3d52ccf3	0.051464986
236	0x3c40eef7	0.011775724
237	0x3d81c03a	0.063354924
238	0x3ccbdf28	0.024886683
239	0x3c83e03c	0.016098134
240	0x3cf7f797	0.030269427
241	0xbbbd1a56	-0.0057709618
242	0xbd730306	-0.059329055
243	0x3b26253b	0.002535178
244	0x3b262685	0.002535255
245	0x3b262678	0.002535252
246	0x3b26232a	0.002535055
247	0x3b262609	0.002535226
248	0x3b26241f	0.002535112
249	0x3b2625ab	0.0025352042
250	0x3b262378	0.002535073
251	0x3b26248c	0.0025351373
252	0x3a816492	0.0009871891
253	0x3a816339	0.000987149
254	0x3a816319	0.0009871452
255	0x3a816306	0.000987143

bias f4 [32]
0	0x3219eb95	8.959337e-09
1	0x3507e15c	5.061936e-07
2	0xb49f00d3	-2.9616658e-07
3	0xb2a3c755	-1.9066343e-08
4	0x0a63f017	1.0974808e-32
5	0x02ea116e	3.4393214e-37
6	0x33365f85	4.246205e-08
7	0x21f108e3	1.6333148e-18
8	0x9f44ceb9	-4.167561e-20
9	0xac24742a	-2.3370286e-12
10	0x000001ff	7.16e-43
11	0xb6f3430d	-7.24977e-06
12	0x3578c427	9.267264e-07
13	0xa0916e5a	-2.463698e-19
14	0x351747dd	5.635646e-07
15	0xb58c8fc0	-1.047265e-06
16	0xa8c4f5e1	-2.1867004e-14
17	0x26387b83	6.4005214e-16
18	0x328a8b08	1.6128539e-08
19	0x34f12591	4.491708e-07
20	0xb4139f3b	-1.374837e-07
21	0xaee93349	-1.06047233e-10
22	0xb524ad76	-6.134718e-07
23	0xb20d06ac	-8.208797e-09
24	0x94df4e28	-2.2548073e-26
25	0xb378261d	-5.7776663e-08
26	0x96e50cbd	-3.7004984e-25
27	0x00006820	3.7353e-41
28	0xa747f058	-2.7747088e-15
29	0xb20ecf7a	-8.312663e-09
30	0xb6972617	-4.504585e-06
31	0x0000038f	1.277e-42

weight f4 [32]
0	0x3cd02a05	0.025410661
1	0x3cd3e965	0.025868127
2	0x3e5727c8	0.21011269
3	0x3da6bbc8	0.08141285
4	0xb62ac93a	-2.5449103e-06
5	0xba15d4d3	-0.0005715612
6	0x3d9f2883	0.07771399
7	0xba18348e	-0.0005806171
8	0xb6bc22ce	-5.6068884e-06
9	0xb97520e1	-0.00023377269
10	0xafef9167	-4.357716e-10
11	0x3e39270e	0.18081304
12	0x3e0a2e4e	0.13494226
13	0xb69db4cb	-4.7000117e-06
14	0x3e20e76d	0.15713282
15	0x3e394f69	0.18096699
16	0xb8e26030	-0.00010794436
17	0xb825ad9a	-3.9500745e-05
18	0x3dea88da	0.114518836
19	0x3e660f51	0.2246678
20	0x3db18102	0.086671844
21	0x3c86e5ed	0.016467059
22	0x3e132b55	0.14371999
23	0x3d0e11e8	0.034685045
24	0xb640080b	-2.861491e-06
25	0x3e238fec	0.1597287
26	0xb7c3d490	-2.3344794e-05
27	0xb3d824e5	-1.0064995e-07
28	0x37bd52a5	2.256904e-05
29	0x3d295e7c	0.041349873
30	0x3ee39cc2	0.44455534
31	0xb3ef0f1b	-1.11320524e-07

bias f4 [32]
0	0xbd1ca805	-0.038246173
1	0x39fa1ed8	0.00047706696
2	0xbca774d5	-0.020441452
3	0xbd64e667	-0.05588379
4	0xb48f36ff	-2.667584e-07
5	0xbadd5df1	-0.0016888959
6	0xbd7a5f99	-0.061126325
7	0xba99dd51	-0.0011738931
8	0xb5f06f81	-1.7913845e-06
9	0xb9d583dd	-0.00040724772
10	0xb046d1aa	-7.232993e-10
11	0x3d66842e	0.0562784
12	0xbd6ad34b	-0.05733041
13	0xb9a29564	-0.00031010353
14	0x3a8cf251	0.0010753368
15	0x3d1b5d9b	0.037931066
16	0xb96c8362	-0.00022555658
17	0xb8fb8149	-0.00011992694
18	0xbcf53e1b	-0.02993684
19	0xbda01074	-0.07815638
20	0xbc6840d0	-0.014175609
21	0xbc80be53	-0.015715754
22	0x3cb5b056	0.02217881
23	0xbc8fc2af	-0.017548887
24	0xb5121abe	-5.4428153e-07
25	0xbddc3433	-0.10752144
26	0xb817667a	-3.6096644e-05
27	0xb252cf2a	-1.22707124e-08
28	0xb78f0db0	-1.7053302e-05
29	0xbd684d8e	-0.056714587
30	0x3d97c3f6	0.074104235
31	0xb6476840	-2.9713992e-06

running_mean f4 [32]
0	0x3ce9a6b4	0.028521873
1	0x3cd66dec	0.026175462
2	0xbc9272d4	-0.01787702
3	0x3c0dcca6	0.008654749
4	0x3427fbee	1.5644738e-07
5	0x3a72f548	0.0009268117
6	0x3be7e508	0.007076863
7	0x39acf111	0.00032986005
8	0x36cfc3a9	6.1918586e-06
9	0x3a1a8c33	0.0005895525
10	0x3613e1d9	2.2036168e-06
11	0x3e2103f8	0.1572417
12	0x3ce2a3b3	0.027665948
13	0x38a953d6	8.0741636e-05
14	0x3ca033c2	0.01955593
15	0x3e01065b	0.1260008
16	0x3811e7f2	3.478671e-05
17	0x3791b3b5	1.736903e-05
18	0x3c9e2783	0.01930595
19	0xbcdc6564	-0.026903816
20	0x3c06a3ae	0.008217735
21	0x3cb89d58	0.022535965
22	0x3d20d7b9	0.03926823
23	0x3bb66fc5	0.005567523
24	0x373ad17e	1.113524e-05
25	0x3d8f4813	0.06996169
26	0x375f16f7	1.3297183e-05
27	0x340fc858	1.3390797e-07
28	0xb540d3af	-7.1833614e-07
29	0x3da0a0ee	0.07843195
30	0x3d88ba08	0.06676108
31	0x33e26804	1.05428654e-07

running_var f4 [32]
0	0x3dd5d381	0.10440732
1	0x3d647636	0.055776797
2	0x3e8e1998	0.277539
3	0x3d87b9ff	0.06627273
4	0x2dc9dabf	2.2948197e-11
5	0x399456d9	0.00028293466
6	0x3d85c181	0.065310486
7	0x381a7c25	3.683208e-05
8	0x33101c25	3.355321e-08
9	0x38b313dc	8.539084e-05
10	0x31969158	4.3820982e-09
11	0x3f113117	0.5671553
12	0x3e7c0319	0.24610557
13	0x36a5b515	4.938464e-06
14	0x3e5609df	0.20902203
15	0x3e886205	0.26637283
16	0x3569c2e0	8.7082844e-07
17	0x343a2ad9	1.7338188e-07
18	0x3e664980	0.22488976
19	0x3e258486	0.16163835
20	0x3daa57b9	0.08317513
21	0x3d87a6c8	0.06623608
22	0x3e53eac6	0.20695028
23	0x3d1b5a6c	0.03792803
24	0x336c7319	5.5052713e-08
25	0x3da5f437	0.08103221
26	0x33e1b764	1.05107375e-07
27	0x2d025760	7.409046e-12
28	0x31a41232	4.7750968e-09
29	0x3e25216c	0.1612603
30	0x3e1b3e1a	0.15160409
31	0x2d245b40	9.342582e-12

weight f4 [32, 35, 3, 3]
0	0x3a2c8212	0.0006580661
1	0x3a2c8212	0.0006580661
2	0x3a2c8211	0.00065806607
3	0x3a2c812c	0.00065805274
4	0x3a2c81a1	0.00065805955
5	0x3a2c812c	0.00065805274
6	0x3a2c7d09	0.0006579911
7	0x3a2c7d0b	0.0006579912
8	0x3a2c7d0b	0.0006579912
9	0x3b417261	0.0029517638
10	0x3b417289	0.002951773
11	0x3b417241	0.0029517564
12	0x3b417217	0.0029517466
13	0x3b417285	0.0029517722
14	0x3b417211	0.0029517452
15	0x3b417244	0.002951757
16	0x3b4172a1	0.0029517787
17	0x3b417189	0.0029517135
18	0xbb530c59	-0.0032203405
19	0xbbb9a064	-0.005664872
20	0xbbe95931	-0.007121228
21	0xbb2db674	-0.0026506456
22	0xbb65a176	-0.0035038865
23	0xbb8b23ba	-0.0042462023
24	0xbb08cdbb	-0.0020874578
25	0xbb131582	-0.002244324
26	0xbb2d3699	-0.0026430248
27	0xbb323b69	-0.0027196056
28	0xbbc75eca	-0.006084298
29	0xbb92a70b	-0.0044754795
30	0xba6b0b70	-0.0008966243
31	0xbac92af3	-0.0015347883
32	0xbab561be	-0.0013838334
33	0xb9edcaac	-0.00045355165
34	0xb9be7fc8	-0.00036334828
35	0xb8096e53	-3.2766093e-05
36	0xbb2eef76	-0.0026693023
37	0xbc050fa6	-0.008121407
38	0xbbaecf1a	-0.005334747
39	0xb9e4e9f4	-0.00043661857
40	0xbad0e619	-0.0015937715
41	0xbabbb035	-0.0014319482
42	0xbaa9b062	-0.0012946243
43	0xba7ecba8	-0.0009719678
44	0xba3ef975	-0.0007285097
45	0x3ae090db	0.0017133014
46	0x3ce52e72	0.027976248
47	0x3d34a95b	0.044106822
48	0xbb009015	-0.001961713
49	0x3c07d1c8	0.008289762
50	0x3c20e57c	0.009820338
51	0xbbafaebb	-0.0053614057
52	0xbb80be31	-0.0039289226
53	0x3b47004b	0.0030365165
54	0xbba1cfe8	-0.0049381144
55	0xbaf5f535	-0.0018765094
56	0x39f36ea8	0.00046431017
57	0xbb90205f	-0.00439839
58	0x3b64d305	0.0034915817
59	0x3a09fad8	0.0005263514
60	0xbb13c692	-0.0022548777
61	0xbb2c2ce9	-0.0026271886
62	0x3abad78e	0.0014254914
63	0x93c30431	-4.9229054e-27
64	0x25fd10bf	4.3899852e-16
65	0xab300e0e	-6.2547266e-13
66	0x0df568fc	1.5124565e-30
67	0x9b252d2f	-1.366308e-22
68	0xa453d87d	-4.5936704e-17
69	0x9445f303	-9.993884e-27
70	0x8fa99d6f	-1.6725328e-29
71	0x94479e98	-1.00782096e-26
72	0x2ab1ee0a	3.160669e-13
73	0x32affe4a	2.0488319e-08
74	0x35723c26	9.023955e-07
75	0x9d337ee3	-2.3756052e-21
76	0x29505f9c	4.6268206e-14
77	0xae9f12d1	-7.233825e-11
78	0x19a14681	1.6675486e-23
79	0x17d86ce0	1.3986157e-24
80	0x9a943869	-6.13025e-23
81	0xb97a8cab	-0.00023894261
82	0x3b95ec5d	0.004575296
83	0x3b130823	0.002243527
84	0xbb496ea1	-0.0030736106
85	0x3b01cfd7	0.001980772
86	0x3ac4916f	0.0014996956
87	0xbb2643b4	-0.0025369944
88	0xba8d3bc2	-0.0010775256
89	0x3abbd21e	0.0014329588
90	0x32d29630	2.4515515e-08
91	0x33821f89	6.059333e-08
92	0xb2daf51e	-2.5490007e-08
93	0xac48c4b4	-2.8530902e-12
94	0x3140ebfe	2.8073823e-09
95	0xb22daf0e	-1.0109728e-08
96	0xab942d91	-1.052868e-12
97	0xab43cfdb	-6.9566374e-13
98	0xab2b990d	-6.0963805e-13
99	0x27f2c9a5	6.7387116e-15
100	0x2f3015a6	1.6014798e-10
101	0x2ea8a443	7.668934e-11
102	0xa98588e6	-5.9301346e-14
103	0xaabdbdc0	-3.370481e-13
104	0xaade309c	-3.9468851e-13
105	0xa5914584	-2.5200596e-16
106	0xa8bc8291	-2.0928817e-14
107	0x291bca85	3.459257e-14
108	0xb61f8649	-2.377101e-06
109	0xb7416b35	-1.15286575e-05
110	0x34ff7383	4.7581497e-07
111	0xb4fb7da1	-4.68438e-07
112	0xb5a3dd34	-1.2208825e-06
113	0xb465f672	-2.1416943e-07
114	0x31ae0203	5.064295e-09
115	0x34623011	2.1065377e-07
116	0x338d240c	6.572381e-08
117	0x10969b9c	5.940432e-29
118	0xa38c39ae	-1.5203259e-17
119	0x2aa07d0a	2.8508473e-13
120	0x07a99027	2.551302e-34
121	0x973f8305	-6.18808e-25
122	0xa5b5e37d	-3.1552647e-16
123	0x8ae2f4bf	-2.1855072e-32
124	0x0028fef8	3.764885e-39
125	0x88f553b6	-1.47650815e-33
126	0xbc2ab002	-0.01041794
127	0xbc50ce92	-0.012744563
128	0xbc9069ad	-0.017628515
129	0xbbd174f4	-0.0063921157
130	0xbc205b68	-0.009787418
131	0xbc317b38	-0.0108326
132	0xbb786d62	-0.0037906994
133	0xbc04ad70	-0.008097991
134	0xbb4ef5f7	-0.0031579712
135	0xbb84d2bb	-0.0040534413
136	0x3c57d498	0.013173245
137	0x3c05ced7	0.00816699
138	0x3a912e66	0.001107645
139	0x3bee7cb7	0.0072780508
140	0xb9721298	-0.00023085845
141	0xbbbdc930	-0.0057918057
142	0xbb46be6f	-0.003032591
143	0xb9e1110c	-0.00042928045
144	0xae895d78	-6.246642e-11
145	0x3359be0e	5.0697103e-08
146	0x35352928	6.7487645e-07
147	0xaa4de79e	-1.8288016e-13
148	0x30bae247	1.3597593e-09
149	0xb1097eb1	-2.000814e-09
150	0x2a4a3bbf	1.7961933e-13
151	0x2967ede8	5.1498655e-14
152	0xab33d6d0	-6.3891687e-13
153	0x3c3d2b3b	0.0115459515
154	0x3ce90c88	0.028448358
155	0x3c49828b	0.01229919
156	0x3c5f512d	0.013630194
157	0x3c9f44d7	0.019442005
158	0x3c456467	0.012047864
159	0xbb42ed87	-0.0029743628
160	0x3b90f78b	0.0044240407
161	0x3ba0dd2e	0.004909179
162	0xbc0b2d58	-0.0084946975
163	0x3a581116	0.0008242292
164	0xbc3e390d	-0.011610282
165	0x3a24067a	0.00062570686
166	0x3b6dab0b	0.003626528
167	0xbb901ad7	-0.004397731
168	0xbc02b235	-0.007977058
169	0xbbd4c715	-0.006493459
170	0xbb934cb3	-0.0044952272
171	0x3526d08b	6.214329e-07
172	0x3535bfbe	6.7706776e-07
173	0x35066201	5.0061504e-07
174	0x34473283	1.8551695e-07
175	0xb3b82ffe	-8.5768974e-08
176	0x31b3b46d	5.2300977e-09
177	0xb2cdef92	-2.3974085e-08
178	0xb1e29803	-6.5947474e-09
179	0xb318031e	-3.5393093e-08
180	0xb0a920b0	-1.2305659e-09
181	0xb1082474	-1.9811326e-09
182	0x2df761fe	2.8124166e-11
183	0x30402f42	6.991635e-10
184	0x2d8135e2	1.468953e-11
185	0xac3cf12a	-2.685028e-12
186	0xae288ffb	-3.8326658e-11
187	0xb0a20c50	-1.1790551e-09
188	0xb1a4e1b6	-4.7986886e-09
189	0xbba49505	-0.0050226473
190	0x3cb570d5	0.022148529
191	0x3c8ba52d	0.017046535
192	0x3b21141d	0.002457864
193	0x3c61622a	0.013756314
194	0x3bfcc295	0.0077136257
195	0xbc10c39c	-0.008835699
196	0xbb9973d6	-0.004682998
197	0x3a1a93f8	0.0005896683
198	0xbc299b50	-0.010351971
199	0x3d1011b4	0.035173133
200	0x3cbb4c6c	0.02286359
201	0xbb9e70ae	-0.00483521
202	0x3c624d90	0.013812438
203	0x3bc4ba33	0.006003642
204	0xbc00fc99	-0.007872724
205	0xbc1b8dd1	-0.009494261
206	0xba61b596	-0.0008610127
207	0xba765955	-0.0009397467
208	0x3c8eb323	0.017419403
209	0x3c79b546	0.015240973
210	0xba532ea5	-0.0008055962
211	0x3c1cf13f	0.009579002
212	0x3c1e1501	0.009648562
213	0xbbc351ef	-0.005960695
214	0xbbcc9a4e	-0.0062439805
215	0xb93b5e8b	-0.0001786893
216	0xbb4e249c	-0.0031454926
217	0x3ac24082	0.001482025
218	0x3a7c191f	0.00096167804
219	0xba33d7c0	-0.00068604574
220	0x3a02347c	0.0004966927
221	0xba312b2e	-0.00067584484
222	0xba6781bc	-0.00088312826
223	0xba6eb422	-0.00091058214
224	0xba02cd62	-0.0004989711
225	0x3b9ffef7	0.004882689
226	0x3cb08580	0.021548033
227	0x3cd319e3	0.02576918
228	0x3ba308b5	0.004975403
229	0x3c71566b	0.014730076
230	0x3bf2c696	0.007408927
231	0xbb0b3f41	-0.002124742
232	0xba23a850	-0.0006243037
233	0x3b242fc9	0.0025052896
234	0xbb1ae65c	-0.002363584
235	0x3b8a7caa	0.004226287
236	0x3c0fa7a5	0.008767997
237	0xbb5801e4	-0.0032960111
238	0x3af349af	0.0018561388
239	0x3b660853	0.0035100176
240	0xbb28f48f	-0.0025780534
241	0xbb67092d	-0.0035253272
242	0xba6003f1	-0.0008545509
243	0x9aafeab7	-7.2757506e-23
244	0xa902a125	-2.900557e-14
245	0x2d3b1bc3	1.0635884e-11
246	0x14c1482f	1.9516491e-26
247	0x9e8e4973	-1.5065213e-20
248	0x26ac3adf	1.1950855e-15
249	0x9a0df6c1	-2.9357443e-23
250	0x166a29a0	1.8915504e-25
251	0x95a0161b	-6.465836e-26
252	0xbb91c678	-0.004448708
253	0x3b2c10e2	0.002625518
254	0x3bf6fa4d	0.0075371624
255	0xbbf1db1d	-0.0073808567

bias f4 [32]
0	0x3394a772	6.922245e-08
1	0xa396ad84	-1.633652e-17
2	0x33976fb5	7.051805e-08
3	0x80000e71	-5.18e-42
4	0x0434150c	2.1168563e-36
5	0x2a3dae40	1.6847027e-13
6	0x2dad5fd2	1.9710376e-11
7	0xb60fb288	-2.141258e-06
8	0x8a632f9b	-1.0938606e-32
9	0xb4449db3	-1.8311293e-07
10	0x00000590	1.995e-42
11	0x800010b4	-5.992e-42
12	0x34d57fad	3.9767238e-07
13	0x274c6157	2.8363455e-15
14	0x9d7a2054	-3.3103938e-21
15	0x8000091d	-3.269e-42
16	0x36dbac3d	6.54676e-06
17	0x31c28e41	5.6623155e-09
18	0xb5cdcf2a	-1.5333983e-06
19	0x34e08929	4.1823048e-07
20	0xb725f241	-9.8911705e-06
21	0x38af0b9a	8.346811e-05
22	0x3460d4e8	2.093908e-07
23	0x800006ba	-2.413e-42
24	0xa2ad71ca	-4.7012223e-18
25	0x0e8643bb	3.3098772e-30
26	0x366c55a0	3.521658e-06
27	0xb5799d45	-9.2988586e-07
28	0x360a468d	2.0604668e-06
29	0x87705076	-1.8079239e-34
30	0x00000163	4.97e-43
31	0x35433ce7	7.2731785e-07

weight f4 [32]
0	0x3d3553b5	0.044269282
1	0x31e48691	6.6509718e-09
2	0x3c3004dc	0.010743346
3	0xb6bf0ec4	-5.6939625e-06
4	0xb8c2b820	-9.284937e-05
5	0x37b488dc	2.1521402e-05
6	0x3875648f	5.8506204e-05
7	0x3e1738b6	0.14767727
8	0xb6db10d4	-6.5286677e-06
9	0x3d5b2c38	0.053508967
10	0x35eaebdf	1.7503006e-06
11	0xb6b72596	-5.4582006e-06
12	0x3c9a8571	0.018862458
13	0x35421e84	7.231504e-07
14	0x3901e10f	0.0001238624
15	0x36d3c806	6.311576e-06
16	0x3d050f16	0.03248509
17	0x3b0da40f	0.002161268
18	0x3e339155	0.17535909
19	0x3dc32083	0.095276855
20	0x3eafcfb1	0.34338143
21	0x3ec7cc07	0.39022848
22	0x3d3aeb49	0.04563454
23	0xb4356895	-1.6894985e-07
24	0x32daa2d0	2.5452579e-08
25	0xb845729a	-4.707519e-05
26	0x3e648a16	0.223183
27	0x3d19c974	0.037545636
28	0x3d83651b	0.06415769
29	0xb788f46b	-1.632628e-05
30	0x3243e9ba	1.1403637e-08
31	0x3e084e4a	0.13311115

bias f4 [32]
0	0xbc2ca744	-0.010537926
1	0x34384b0c	1.7163637e-07
2	0xbbb746e0	-0.0055931658
3	0xb8ce3eaf	-9.834521e-05
4	0xb8308ca6	-4.209266e-05
5	0x3683cdbc	3.928055e-06
6	0x3765a77d	1.368846e-05
7	0xbd062f0a	-0.032759704
8	0xb9c19d02	-0.0003692881
9	0xbcf5864e	-0.029971268
10	0xb6488a9a	-2.9883e-06
11	0xb97faae0	-0.00024382351
12	0xbc880957	-0.016606016
13	0x344cf2db	1.9087331e-07
14	0xb71ebf19	-9.462027e-06
15	0xb801d65d	-3.0955638e-05
16	0xbab3f4da	-0.0013729588
17	0xbb86c6fc	-0.0041130763
18	0xbcab8689	-0.020938175
19	0x3c882a5c	0.016621761
20	0xbcf0347f	-0.029321907
21	0x3d6e8e35	0.058241088
22	0xbc8c191c	-0.017101817
23	0xb5decba0	-1.6599552e-06
24	0x33d8f90d	1.0103586e-07
25	0xb65760d8	-3.2093867e-06
26	0x3d3de9a5	0.0463654
27	0xbbe52bc0	-0.006993741
28	0x3c4c0d88	0.012454398
29	0xb936ceb7	-0.0001743388
30	0xb2700345	-1.3970582e-08
31	0xbb8880a0	-0.004165724

running_mean f4 [32]
0	0xbc8cc7eb	-0.017185172
1	0x3221d5df	9.420062e-09
2	0xbc82c305	-0.015962133
3	0x34c4d77f	3.666464e-07
4	0x34b4b729	3.366088e-07
5	0xb40bf742	-1.3035336e-07
6	0xb6a5e7e3	-4.9443784e-06
7	0xbda5bfb7	-0.08093207
8	0x35f70252	1.8403609e-06
9	0xbd48fb08	-0.049067527
10	0xb1a8dddc	-4.914666e-09
11	0x340ac522	1.2923968e-07
12	0xbb944b1c	-0.0045255553
13	0x31897beb	4.0013126e-09
14	0xb65fea59	-3.3365998e-06
15	0xb468b683	-2.1673081e-07
16	0x3bf47997	0.0074607837
17	0xbb3f3cb9	-0.002918048
18	0x3d95f180	0.07321453
19	0xbda129d3	-0.078693055
20	0xbdfc1bd0	-0.12309992
21	0x3d2d43b0	0.04230088
22	0xbd179c1c	-0.037014112
23	0xb210ec81	-8.435678e-09
24	0xb02f0fc1	-6.3687017e-10
25	0x36553fb6	3.1776558e-06
26	0xbd643a0b	-0.055719417
27	0xbce6aacb	-0.028157612
28	0xbd3be868	-0.045875937
29	0xb6219043	-2.407484e-06
30	0x3012c2e2	5.3391436e-10
31	0xbce3a219	-0.027787255

running_var f4 [32]
0	0x3bdaa966	0.006673026
1	0x271b53f1	2.1556076e-15
2	0x39b16ae1	0.00033839702
3	0x2ea22599	7.373586e-11
4	0x2c2f79cc	2.4936607e-12
5	0x2f3c1717	1.7106704e-10
6	0x3100e1b0	1.875474e-09
7	0x3c348ecb	0.011020373
8	0x2e9e3e92	7.196123e-11
9	0x3b2d8ffc	0.0026483526
10	0x246fe9b2	5.202281e-17
11	0x2a6d1e19	2.1060271e-13
12	0x39659337	0.00021893984
13	0x27341835	2.499314e-15
14	0x2dd0b3f1	2.3726772e-11
15	0x2a588760	1.9231622e-13
16	0x3c09180f	0.008367552
17	0x3682f99c	3.9033603e-06
18	0x3d36c56c	0.04462187
19	0x3be9a71a	0.0071305158
20	0x3cbfd54a	0.023417134
21	0x3c09e429	0.008416214
22	0x3c130ad7	0.008974752
23	0x26aa03f8	1.1797195e-15
24	0x219b9c3d	1.0544564e-18
25	0x2fdaabcd	3.977604e-10
26	0x3c17b9e9	0.009260633
27	0x3b98e723	0.0046662255
28	0x3b8cdfac	0.0042991247
29	0x2d91166e	1.6494552e-11
30	0x23a4a86c	1.7852245e-17
31	0x3c204c51	0.00978382

weight f4 [64, 35, 3, 3]
0	0x1cc7a797	1.3212036e-21
1	0x1cc614ac	1.3107884e-21
2	0x1cc836a4	1.3249014e-21
3	0x1cc89f2d	1.3276036e-21
4	0x1cc6ea63	1.3163128e-21
5	0x1cc6e792	1.31624e-21
6	0x1cc5d759	1.3092033e-21
7	0x1cc5d7ed	1.3092182e-21
8	0x1cc79498	1.3207126e-21
9	0x229a3073	4.179308e-18
10	0x229a9936	4.1904e-18
11	0x2299f8a8	4.173401e-18
12	0x229a653f	4.1848982e-18
13	0x229a5171	4.1828013e-18
14	0x2299ccb6	4.168748e-18
15	0x2299b4f2	4.1662316e-18
16	0x229b6e2e	4.212949e-18
17	0x2299c90c	4.16836e-18
18	0x89845b39	-3.186363e-33
19	0x0d8e1757	8.757045e-31
20	0x91b340ac	-2.8281078e-28
21	0x00db7df9	2.0157164e-38
22	0x015cd965	4.056359e-38
23	0x83f8c7a4	-1.4621965e-36
24	0x0000adf9	6.241e-41
25	0x800000dd	-3.1e-43
26	0x8000019d	-5.79e-43
27	0x897435f7	-2.9395806e-33
28	0x10c0203e	7.5780324e-29
29	0x8b8547df	-5.1337876e-32
30	0x800001b7	-6.15e-43
31	0x8000374d	-1.9838e-41
32	0xa0acb268	-2.9255993e-19
33	0x800001eb	-6.88e-43
34	0x80000065	-1.42e-43
35	0x9c92afaa	-9.706878e-22
36	0x00000126	4.12e-43
37	0x80040363	-3.68557e-40
38	0x8aa0e2c9	-1.5492747e-32
39	0x0000018b	5.54e-43
40	0x8000004d	-1.08e-43
41	0x8a0a4716	-6.657828e-33
42	0x8000011d	-4e-43
43	0x8000018f	-5.59e-43
44	0x00008ccc	5.0508e-41
45	0x8000009a	-2.16e-43
46	0x80002752	-1.4105e-41
47	0x00785a22	1.1052593e-38
48	0x00000144	4.54e-43
49	0x00000094	2.07e-43
50	0x000000b7	2.56e-43
51	0x000000d9	3.04e-43
52	0x800001ca	-6.42e-43
53	0x80000067	-1.44e-43
54	0x0000013d	4.44e-43
55	0x0001452a	1.16647e-40
56	0x00000ea3	5.25e-42
57	0x000001fb	7.1e-43
58	0x000000cf	2.9e-43
59	0x00000019	3.5e-44
60	0x800001ac	-6e-43
61	0x80000027	-5.5e-44
62	0x00000150	4.71e-43
63	0x80000043	-9.4e-44
64	0x83cc6b53	-1.2014683e-36
65	0x912ac8df	-1.3472534e-28
66	0x800001a8	-5.94e-43
67	0x80000199	-5.73e-43
68	0x0000017d	5.34e-43
69	0x0000005d	1.3e-43
70	0x00000007	1e-44
71	0x086b3693	7.078189e-34
72	0x8001cbcc	-1.64944e-40
73	0x8c34aafe	-1.3918152e-31
74	0x0e877871	3.339605e-30
75	0x80000159	-4.83e-43
76	0x000001dc	6.67e-43
77	0x00027902	2.2708e-40
78	0x800001f2	-6.98e-43
79	0x80000164	-4.99e-43
80	0x89dd4fb3	-5.3278763e-33
81	0x80497d0b	-6.748848e-39
82	0x112326de	1.287041e-28
83	0x0e66e7dc	2.8461325e-30
84	0x8000015e	-4.9e-43
85	0x00000196	5.69e-43
86	0x94346807	-9.1081934e-27
87	0x80000189	-5.51e-43
88	0x800000e8	-3.25e-43
89	0x0f1b4e6f	7.657196e-30
90	0x8c007035	-9.894527e-32
91	0x9a8737f9	-5.592512e-23
92	0x97ecdeda	-1.5307398e-24
93	0x0000e888	8.3416e-41
94	0x80213116	-3.04818e-39
95	0x1096ce8f	5.948282e-29
96	0x80000089	-1.92e-43
97	0x00000003	4e-45
98	0x03609b5a	6.600602e-37
99	0x800001f0	-6.95e-43
100	0x802c338b	-4.059252e-39
101	0x8ba41392	-6.319995e-32
102	0x8000016a	-5.07e-43
103	0x80000072	-1.6e-43
104	0x0001d9fc	1.70034e-40
105	0x80000008	-1.1e-44
106	0x000001c3	6.32e-43
107	0x80003c96	-2.1734e-41
108	0x0001de5a	1.716e-40
109	0x822b27ba	-1.2574497e-37
110	0x8f0b1feb	-6.859376e-30
111	0x00000035	7.4e-44
112	0x00000c7f	4.483e-42
113	0x8f686c96	-1.1459396e-29
114	0x8000003c	-8.4e-44
115	0x00000122	4.06e-43
116	0x0200273d	9.415216e-38
117	0x80000156	-4.79e-43
118	0x00f44486	2.2432443e-38
119	0x006d9696	1.0064089e-38
120	0x80000143	-4.53e-43
121	0x0000008a	1.93e-43
122	0x89d4a8fd	-5.119606e-33
123	0x00000132	4.29e-43
124	0x800001d4	-6.56e-43
125	0x82e61957	-3.3810007e-37
126	0x000000d4	2.97e-43
127	0x0002148e	1.91045e-40
128	0x0000ed44	8.5115e-41
129	0x000001f4	7e-43
130	0x80000132	-4.29e-43
131	0x950e6f6d	-2.876457e-26
132	0x800000b1	-2.48e-43
133	0x00000125	4.1e-43
134	0x081388ba	4.4396925e-34
135	0x000000e2	3.17e-43
136	0x08cec83a	1.2445247e-33
137	0x1099f619	6.072703e-29
138	0x0000004a	1.04e-43
139	0x80000090	-2.02e-43
140	0x80672f71	-9.476075e-39
141	0x00b829e6	1.6912762e-38
142	0x0000000a	1.4e-44
143	0x80002212	-1.2222e-41
144	0x000000cb	2.84e-43
145	0x804af6cc	-6.884361e-39
146	0x80000bbe	-4.212e-42
147	0x80000190	-5.6e-43
148	0x800001bc	-6.22e-43
149	0x84afad92	-4.13017e-36
150	0x000001f1	6.96e-43
151	0x00000095	2.09e-43
152	0x8acfa222	-1.9994363e-32
153	0x80000195	-5.68e-43
154	0x92bd73a5	-1.1956085e-27
155	0x88d53ff5	-1.2834507e-33
156	0x800001fe	-7.15e-43
157	0x800001d9	-6.63e-43
158	0x0731c89f	1.3374957e-34
159	0x800001ee	-6.92e-43
160	0x00000188	5.5e-43
161	0x00b6c171	1.6783454e-38
162	0x0000018d	5.56e-43
163	0x81bc65ed	-6.920655e-38
164	0x15863f45	5.422199e-26
165	0x80000198	-5.72e-43
166	0x00000016	3.1e-44
167	0x00001172	6.258e-42
168	0x00000068	1.46e-43
169	0x800000f3	-3.4e-43
170	0x8346a6b3	-5.837833e-37
171	0x00000a57	3.709e-42
172	0x9aacfdc7	-7.154753e-23
173	0x10341ec2	3.5522436e-29
174	0x00000073	1.61e-43
175	0x0000000d	1.8e-44
176	0x00f06e75	2.2080144e-38
177	0x80000119	-3.94e-43
178	0x000001ea	6.87e-43
179	0x8260a2d4	-1.650365e-37
180	0x80000418	-1.469e-42
181	0x041900be	1.7985404e-36
182	0x0347244d	5.8522515e-37
183	0x0000067b	2.325e-42
184	0x00119a4a	1.616552e-39
185	0x800070b6	-4.0433e-41
186	0x00000021	4.6e-44
187	0x0000009f	2.23e-43
188	0x80000139	-4.39e-43
189	0x95951b0d	-6.02233e-26
190	0x9fbdb99e	-8.035169e-20
191	0x97f889d2	-1.6061415e-24
192	0x8601817c	-2.4357333e-35
193	0x0000034a	1.18e-42
194	0x8cab5de4	-2.640323e-31
195	0x0291946b	2.1391023e-37
196	0x00000127	4.13e-43
197	0x8074d575	-1.0729492e-38
198	0x077eeb7b	1.9178038e-34
199	0x8f2859fb	-8.300369e-30
200	0x153f58af	3.8642102e-26
201	0x00172dac	2.1286e-39
202	0x8707c1a6	-1.0213179e-34
203	0x0bd3be9e	8.156105e-32
204	0x80000165	-5e-43
205	0x0000124f	6.568e-42
206	0x820faf29	-1.0556249e-37
207	0x9814484b	-1.916505e-24
208	0x9ab14293	-7.331304e-23
209	0x9c043122	-4.373864e-22
210	0x101fe725	3.1535288e-29
211	0x92045615	-4.175796e-28
212	0x1a0ef3f7	2.9561985e-23
213	0x8310627e	-4.243086e-37
214	0x87fdd5d6	-3.819289e-34
215	0x8f665c9d	-1.1357712e-29
216	0x98df87ab	-5.778114e-24
217	0xa10fb41e	-4.868867e-19
218	0x0e3238ba	2.1967507e-30
219	0x860bd7c3	-2.630151e-35
220	0x03ce725a	1.2133846e-36
221	0x99095898	-7.100625e-24
222	0x0000012f	4.25e-43
223	0x800001d0	-6.5e-43
224	0x80ecc84c	-2.174503e-38
225	0x9b4bd851	-1.6861662e-22
226	0x98c3a0d5	-5.0568717e-24
227	0xa4844cea	-5.737617e-17
228	0x0000017d	5.34e-43
229	0x8466275d	-2.7054445e-36
230	0x9c12d603	-4.858395e-22
231	0x00000189	5.51e-43
232	0x808c100e	-1.2862729e-38
233	0xa494926d	-6.4432824e-17
234	0x80000164	-4.99e-43
235	0x9986230c	-1.386943e-23
236	0x090f6875	1.7262114e-33
237	0x0000012c	4.2e-43
238	0x000001f4	7e-43
239	0x80033643	-2.94972e-40
240	0x8000006e	-1.54e-43
241	0x80000094	-2.07e-43
242	0x84046536	-1.5563e-36
243	0x800000af	-2.45e-43
244	0x8000156c	-7.685e-42
245	0x0f6d61f8	1.170387e-29
246	0x000000c9	2.82e-43
247	0x000000e6	3.22e-43
248	0x844e140d	-2.422439e-36
249	0x00000186	5.47e-43
250	0x000001f6	7.03e-43
251	0x80000bad	-4.188e-42
252	0x000004a4	1.665e-42
253	0x8c025e74	-1.0043259e-31
254	0x80248be8	-3.356267e-39
255	0x800001f0	-6.95e-43

bias f4 [64]
0	0x800006e3	-2.47e-42
1	0x3702f5f0	7.805866e-06
2	0x00000050	1.12e-43
3	0x000001b1	6.07e-43
4	0xb733a06e	-1.0706584e-05
5	0x00000474	1.597e-42
6	0x800000c6	-2.77e-43
7	0x800005e0	-2.108e-42
8	0x00000393	1.282e-42
9	0x000003d3	1.372e-42
10	0x800003c5	-1.352e-42
11	0x00000a85	3.774e-42
12	0x36618645	3.3605768e-06
13	0x3501662c	4.8204924e-07
14	0x00001d8a	1.0597e-41
15	0x80000344	-1.171e-42
16	0x3453a956	1.971251e-07
17	0x8000043e	-1.522e-42
18	0x8000030c	-1.093e-42
19	0x800002c6	-9.95e-43
20	0x36a705cd	4.977663e-06
21	0x00000081	1.81e-43
22	0x0000093a	3.31e-42
23	0x305bd497	7.9973844e-10
24	0xb7cc64d8	-2.4365654e-05
25	0x0000053a	1.875e-42
26	0x0000032d	1.139e-42
27	0x800007dc	-2.82e-42
28	0x38a0caf8	7.6672004e-05
29	0x00000506	1.802e-42
30	0x37616a3e	1.34357815e-05
31	0x80000c01	-4.306e-42
32	0x000003a7	1.31e-42
33	0x8000049b	-1.652e-42
34	0x80000843	-2.964e-42
35	0x00000627	2.207e-42
36	0x80000a96	-3.798e-42
37	0x2ad12e46	3.7157967e-13
38	0x3506d351	5.0226396e-07
39	0x309959eb	1.1157771e-09
40	0x80000291	-9.2e-43
41	0x17bae3d4	1.207748e-24
42	0xb62ca45d	-2.572567e-06
43	0x800008d2	-3.164e-42
44	0x00000374	1.239e-42
45	0x829e9d4b	-2.3306295e-37
46	0x00000c77	4.472e-42
47	0x800003c7	-1.355e-42
48	0x000004c0	1.704e-42
49	0x0cb699b8	2.8134056e-31
50	0xb720f961	-9.594806e-06
51	0x2e18642c	3.464977e-11
52	0x00000f77	5.548e-42
53	0x35a80f4b	1.2521426e-06
54	0x000001eb	6.88e-43
55	0x29c437fa	8.713859e-14
56	0x3503982a	4.902273e-07
57	0xb481846b	-2.412447e-07
58	0x80001e92	-1.0967e-41
59	0x36da7ec3	6.5116633e-06
60	0x800001d1	-6.52e-43
61	0xade29233	-2.575815e-11
62	0xb49bfe6d	-2.905612e-07
63	0x00000372	1.236e-42

weight f4 [64]
0	0x31566c12	3.120253e-09
1	0x3e4acdd0	0.19805074
2	0x338a7ed3	6.449195e-08
3	0x31715bc1	3.5122272e-09
4	0x3e415c43	0.18882851
5	0x34060dd8	1.2484759e-07
6	0x2f05fc4d	1.2185915e-10
7	0x2f72e4ac	2.2091012e-10
8	0xb91658d9	-0.00014338213
9	0x36d798ac	6.4252727e-06
10	0xb326a43c	-3.8799257e-08
11	0x3251d9bc	1.2214908e-08
12	0x3da396ca	0.07987745
13	0x3caf202f	0.021377651
14	0x3836a5c1	4.354655e-05
15	0xb639c61b	-2.768246e-06
16	0x3d4b41e3	0.04962338
17	0xb7630fb1	-1.3533908e-05
18	0x325ce117	1.2856865e-08
19	0xb67a3a1c	-3.7286727e-06
20	0x3e3927e5	0.18081625
21	0x387533f7	5.8460948e-05
22	0x2f21302f	1.4659983e-10
23	0x3c3c45f7	0.01149129
24	0x3de8e21f	0.11371254
25	0x33b62277	8.4813045e-08
26	0xb93b7111	-0.0001787583
27	0x3214cbff	8.661117e-09
28	0x38980aaf	7.249915e-05
29	0x31346950	2.625331e-09
30	0x3ddd43e6	0.10803966
31	0x35b10e2c	1.3191652e-06
32	0xb3487422	-4.667175e-08
33	0x355f06e0	8.308398e-07
34	0xb8a80ebf	-8.013611e-05
35	0x31c1f58e	5.6449556e-09
36	0xb74d6d36	-1.224438e-05
37	0x360a3177	2.0592395e-06
38	0x3da87305	0.08225063
39	0x39565f5a	0.00020444152
40	0xb589e1b5	-1.0272985e-06
41	0xbb56d40e	-0.0032780203
42	0x3e436bb2	0.19084051
43	0x36f6d550	7.356204e-06
44	0xb226e36d	-9.714182e-09
45	0xb76648ac	-1.37259885e-05
46	0x373fe77a	1.1438382e-05
47	0xb1de908f	-6.4774848e-09
48	0x3649ed62	3.008951e-06
49	0xb962a3db	-0.0002161408
50	0x3e6de61a	0.23232308
51	0x38e15829	0.00010745257
52	0x381bfe34	3.7191625e-05
53	0xb22d6b97	-1.0094388e-08
54	0xb8a42fd7	-7.82904e-05
55	0xb533ffb0	-6.705477e-07
56	0x3d723282	0.0591302
57	0x3c9e3b47	0.019315375
58	0xb2ae114b	-2.026413e-08
59	0x3e29fb7e	0.16599843
60	0x2eb874dd	8.38811e-11
61	0xba9de115	-0.0012045229
62	0xbc35f6a4	-0.011106167
63	0x2ddcde3f	2.5109801e-11

bias f4 [64]
0	0xb19988ed	-4.4684527e-09
1	0xbdcf26d7	-0.1011483
2	0xad66da2c	-1.312243e-11
3	0xacddf687	-6.308568e-12
4	0xbcae6b2f	-0.021291343
5	0xb30b08ba	-3.2371396e-08
6	0xa231998f	-2.4069266e-18
7	0xae16770e	-3.4211793e-11
8	0xb31bc97d	-3.6272002e-08
9	0xb7943f2c	-1.7672392e-05
10	0xb49c81df	-2.9151758e-07
11	0xb43799d4	-1.7099165e-07
12	0x3d3d4c21	0.04621518
13	0x3d48d526	0.0490314
14	0xb9f5996c	-0.0004684435
15	0xae4f3920	-4.7117088e-11
16	0xbc3df414	-0.011593837
17	0xb3ecf245	-1.1033675e-07
18	0xb39fda8a	-7.4437665e-08
19	0xb1913fdc	-4.2273154e-09
20	0xbd08f546	-0.033437036
21	0xb9e4e8f5	-0.00043661115
22	0xa2d6b465	-5.8195816e-18
23	0xbc578181	-0.013153435
24	0xbd0ec33a	-0.03485415
25	0xae3768a5	-4.1702326e-11
26	0xb8244238	-3.9162318e-05
27	0xaf90047a	-2.6196628e-10
28	0x3bf04f1e	0.0073336503
29	0xac2f6a06	-2.492785e-12
30	0x3d08c3aa	0.033389725
31	0xb6d3c9c3	-6.311778e-06
32	0xac339a96	-2.5523242e-12
33	0xae000c15	-2.911456e-11
34	0xb2a5011c	-1.9209033e-08
35	0xad0eb92a	-8.11288e-12
36	0xb611d013	-2.17278e-06
37	0xb6b7dbaa	-5.4793973e-06
38	0x3d80cf76	0.0628957
39	0x3b85a358	0.00407831
40	0xb60a8299	-2.063962e-06
41	0xbc6b3020	-0.014354736
42	0x3b8676f1	0.0041035344
43	0xaf9ba945	-2.831461e-10
44	0xaf6b4993	-2.1399264e-10
45	0xb7cdd49e	-2.4536912e-05
46	0xb68bd9b7	-4.167868e-06
47	0xa90f4845	-3.1815062e-14
48	0xb678baa7	-3.7063526e-06
49	0xb840d5fc	-4.5975656e-05
50	0x3993bd0d	0.0002817888
51	0xb93b8579	-0.00017883432
52	0xb9088e4a	-0.00013022978
53	0xaf89b2ec	-2.5047286e-10
54	0xb5404a7e	-7.1633974e-07
55	0x361a78fb	2.3018208e-06
56	0x3d6043c8	0.05475214
57	0xbbe345ec	-0.0069358256
58	0xb377fd6b	-5.773965e-08
59	0xbcd714b7	-0.026254995
60	0xa9053dd9	-2.9585577e-14
61	0xba9c018d	-0.0011902318
62	0x3c031829	0.008001366
63	0xa4ba3a02	-8.076291e-17

running_mean f4 [64]
0	0xa531e200	-1.5428875e-16
1	0x3bcc6f60	0.006238863
2	0xa720c1ca	-2.2309514e-15
3	0xa24b1c06	-2.7526466e-18
4	0xbc6731c1	-0.014110983
5	0xae935bd9	-6.7011015e-11
6	0xaa9889f3	-2.7096345e-13
7	0x9bc45282	-3.24788e-22
8	0x26d41d5f	1.4718416e-15
9	0xb280d7be	-1.499927e-08
10	0xaf67a51a	-2.1067983e-10
11	0x2bc1e835	1.3777925e-12
12	0xbd073acc	-0.033015057
13	0xbca27025	-0.019828865
14	0xb4001590	-1.1928773e-07
15	0x2cbdc4d1	5.393554e-12
16	0x3d229424	0.03969206
17	0x33cdcfce	9.583856e-08
18	0xab3ea58f	-6.773132e-13
19	0x302a8c03	6.204461e-10
20	0x3d8efc23	0.06981685
21	0x34e6cbb1	4.2989043e-07
22	0x9821e271	-2.0923086e-24
23	0x3b0bf4a2	0.002135553
24	0x3d08faf4	0.033442453
25	0x21566291	7.263647e-19
26	0x33ebc3de	1.0978668e-07
27	0xa8319d80	-9.859626e-15
28	0x3b29227d	0.002580791
29	0xa3380da4	-9.9775485e-18
30	0xbcd88965	-0.026432702
31	0xb3ce8a25	-9.617751e-08
32	0xa566ab43	-2.0007346e-16
33	0xa81eef46	-8.822646e-15
34	0x311a153a	2.2422015e-09
35	0xa1509098	-7.066451e-19
36	0xaf07cec5	-1.2351638e-10
37	0xb1136e0e	-2.1453874e-09
38	0xbe22d570	-0.15901732
39	0x3b215a61	0.002462052
40	0x30968b03	1.0953446e-09
41	0x3bc4b1b9	0.0060026315
42	0x3d4a4555	0.049382526
43	0xaa1ea951	-1.4091962e-13
44	0x27a97143	4.702972e-15
45	0xb364b3fb	-5.3249078e-08
46	0x33a95976	7.8859486e-08
47	0x1964541e	1.1804311e-23
48	0x2ef83ae2	1.1288194e-10
49	0x321043af	8.397293e-09
50	0x3d9be1d7	0.07611435
51	0xb5fe1bed	-1.8932602e-06
52	0x3245e1d9	1.1518261e-08
53	0x33d8ff7f	1.0104758e-07
54	0xaf0643ea	-1.2211357e-10
55	0x3402cec9	1.2182421e-07
56	0x3b87e1cd	0.0041467906
57	0x3bd0909f	0.0063648964
58	0x315ba2a5	3.1961147e-09
59	0xbdabf4ab	-0.08396276
60	0x19279a6a	8.664881e-24
61	0x39cca609	0.00039033618
62	0xbbc9b082	-0.0061550746
63	0x2810b069	8.031859e-15

running_var f4 [64]
0	0x0c256e14	1.2744263e-31
1	0x3bc202d1	0.005920746
2	0x104a5b30	3.9907724e-29
3	0x0633e273	3.3832527e-35
4	0x3cbdcadf	0.023168026
5	0x1f6a3331	4.9593772e-20
6	0x17120ad6	4.718882e-25
7	0x000018dc	8.918e-42
8	0x0fd99225	2.1454145e-29
9	0x27134850	2.0439549e-15
10	0x20812447	2.1877456e-19
11	0x18e282ff	5.8551903e-24
12	0x3b6c8656	0.0036090813
13	0x3bb80797	0.005616139
14	0x2a184587	1.3524434e-13
15	0x1bda1410	3.607804e-22
16	0x3b108ef4	0.0022057863
17	0x29f5b157	1.0910949e-13
18	0x16b9175f	2.990311e-25
19	0x228cac43	3.8129465e-18
20	0x3c802649	0.015643256
21	0x2c305869	2.5060182e-12
22	0x00000004	6e-45
23	0x38dfd057	0.00010672275
24	0x3c57c1cb	0.013168762
25	0x071f701c	1.1994776e-34
26	0x2c11a109	2.0695132e-12
27	0x1280c403	8.126256e-28
28	0x3813e940	3.5264762e-05
29	0x08addef2	1.0464473e-33
30	0x3c0cfe58	0.008605562
31	0x2990579f	6.4100845e-14
32	0x0cad4744	2.6697762e-31
33	0x1270e43f	7.601198e-28
34	0x24289102	3.655202e-17
35	0x0463ee01	2.6793008e-36
36	0x1fd89ef3	9.174252e-20
37	0x26226da7	5.6353647e-16
38	0x3c4c3ae7	0.012465215
39	0x388e229d	6.777535e-05
40	0x237c2221	1.36681745e-17
41	0x3999d375	0.00029339982
42	0x3c9184bd	0.01776349
43	0x165c76ca	1.7808942e-25
44	0x11d73789	3.3955245e-28
45	0x293d17d0	4.1987084e-14
46	0x2a6edad7	2.1214572e-13
47	0x00000004	6e-45
48	0x20fcfbb3	4.285702e-19
49	0x264d8a6b	7.1311254e-16
50	0x3cc4af22	0.024009291
51	0x2d072ba9	7.683556e-12
52	0x2857ae9f	1.19727624e-14
53	0x17035b7c	4.244385e-25
54	0x20036f41	1.1132942e-19
55	0x2a139a30	1.3109717e-13
56	0x3c8d59be	0.017254706
57	0x3aa88c2b	0.0012859156
58	0x2515b78d	1.2985879e-16
59	0x3c8290c4	0.01593817
60	0x00000004	6e-45
61	0x35842d5e	9.84797e-07
62	0x3aa988a7	0.0012934402
63	0x13898c5a	3.472206e-27

weight f4 [64, 67, 3, 3]
0	0x109934de	6.0429314e-29
1	0x10b9ad81	7.323696e-29
2	0x108f0e50	5.6425607e-29
3	0x1095baab	5.9057745e-29
4	0x108eb19c	5.6282775e-29
5	0x10b46c32	7.116418e-29
6	0x10b45521	7.1128643e-29
7	0x1093d384	5.830717e-29
8	0x109e7a92	6.250886e-29
9	0x10c33bc9	7.700605e-29
10	0x10cc7b43	8.065373e-29
11	0x10cc6072	8.061241e-29
12	0x10ccd651	8.079402e-29
13	0x10cc9701	8.069647e-29
14	0x10cc83c6	8.066684e-29
15	0x10c235ba	7.6602287e-29
16	0x10c262fc	7.667202e-29
17	0x10cbf173	8.0441393e-29
18	0x90781998	-4.8929093e-29
19	0x8e2f82a4	-2.1633317e-30
20	0x8dfb648b	-1.5493274e-30
21	0x9088f832	-5.4024947e-29
22	0x8d9ca82c	-9.654728e-31
23	0x90a63cd8	-6.55692e-29
24	0x10f017fb	9.4700256e-29
25	0x91ce73f0	-3.2572521e-28
26	0x10ec9ede	9.333036e-29
27	0x00000115	3.88e-43
28	0x000003cb	1.36e-42
29	0x000003c9	1.358e-42
30	0x80000133	-4.3e-43
31	0x00000010	2.2e-44
32	0x00000172	5.18e-43
33	0x00000205	7.24e-43
34	0x0000005f	1.33e-43
35	0x80000015	-3e-44
36	0x8d916adc	-8.96204e-31
37	0x8fb26e92	-1.7594745e-29
38	0x8fbf56f0	-1.8867541e-29
39	0x910f6820	-1.1312797e-28
40	0x0f8b3758	1.3727776e-29
41	0x957a8f99	-5.0600377e-26
42	0x9188b2a3	-2.156711e-28
43	0x96719461	-1.9514645e-25
44	0x257d0b92	2.1948172e-16
45	0x800000a3	-2.28e-43
46	0x00000319	1.111e-42
47	0x8000006c	-1.51e-43
48	0x000002fe	1.073e-42
49	0x0000019c	5.77e-43
50	0x00000185	5.45e-43
51	0x80000338	-1.155e-42
52	0x000000fa	3.5e-43
53	0x801b96a1	-2.533594e-39
54	0x0000003d	8.5e-44
55	0x80000056	-1.2e-43
56	0x80000167	-5.03e-43
57	0x00000198	5.72e-43
58	0x80000078	-1.68e-43
59	0x8000012c	-4.2e-43
60	0x80000036	-7.6e-44
61	0x00140d21	1.84142e-39
62	0x186b684f	3.04257e-24
63	0x0510c3c9	6.8068075e-36
64	0x0cfb6bda	3.8737584e-31
65	0x0f04f69a	6.555596e-30
66	0x89994ed1	-3.690753e-33
67	0x0e2098e0	1.979513e-30
68	0x908411ab	-5.209204e-29
69	0x8eedaf5c	-5.8593876e-30
70	0x1178dcc3	1.9631778e-28
71	0x10cb8263	8.0270274e-29
72	0x000000e4	3.2e-43
73	0x80000282	-9e-43
74	0x80000046	-9.8e-44
75	0x80000023	-4.9e-44
76	0x000001c5	6.35e-43
77	0x80493f76	-6.726757e-39
78	0x000001d0	6.5e-43
79	0x000001a6	5.91e-43
80	0x8291289c	-2.1329144e-37
81	0x80000234	-7.9e-43
82	0x800000eb	-3.3e-43
83	0x800000c3	-2.73e-43
84	0x000000f3	3.4e-43
85	0x00000058	1.23e-43
86	0x0eefc003	5.910295e-30
87	0x80000231	-7.86e-43
88	0x80000165	-5e-43
89	0x08ec6886	1.4228307e-33
90	0x00000277	8.84e-43
91	0x8000001e	-4.2e-44
92	0x800001f6	-7.03e-43
93	0x0000020d	7.36e-43
94	0x8000004f	-1.11e-43
95	0x800000cf	-2.9e-43
96	0x00000065	1.42e-43
97	0x0001a7ff	1.52101e-40
98	0x9b9fba3f	-2.6424702e-22
99	0x00000486	1.623e-42
100	0x000001c6	6.36e-43
101	0x800002e4	-1.037e-42
102	0x80000162	-4.96e-43
103	0x000001b5	6.12e-43
104	0x8000016b	-5.09e-43
105	0x00000338	1.155e-42
106	0x000001ea	6.87e-43
107	0x8ac070aa	-1.8531307e-32
108	0x000004e9	1.761e-42
109	0x800002e8	-1.043e-42
110	0x0000007a	1.71e-43
111	0x800002d7	-1.019e-42
112	0x800001c8	-6.39e-43
113	0x0b06e614	2.5980553e-32
114	0x8000003c	-8.4e-44
115	0x0c53561b	1.628076e-31
116	0x22350132	2.4530707e-18
117	0x00000078	1.68e-43
118	0x8000017f	-5.37e-43
119	0x80000021	-4.6e-44
120	0x8000004d	-1.08e-43
121	0x000001ec	6.9e-43
122	0x80000084	-1.85e-43
123	0x000002da	1.023e-42
124	0x0000011a	3.95e-43
125	0x8000004b	-1.05e-43
126	0x0000030d	1.094e-42
127	0x0000012e	4.23e-43
128	0x8000008c	-1.96e-43
129	0x80000205	-7.24e-43
130	0x80000203	-7.22e-43
131	0x8000021a	-7.54e-43
132	0x800001b6	-6.14e-43
133	0x800000a1	-2.26e-43
134	0x0000005e	1.32e-43
135	0x0ea84127	4.1477937e-30
136	0x0deed6d3	1.47195995e-30
137	0x8f8565ec	-1.3154071e-29
138	0x90150fd8	-2.9397274e-29
139	0x0f5e7fbf	1.0970048e-29
140	0x90da576a	-8.612052e-29
141	0x0b74bba2	4.713385e-32
142	0x11c457f8	3.0977562e-28
143	0xa0aba173	-2.9075365e-19
144	0x11008daf	1.0141079e-28
145	0x10d4055a	8.36275e-29
146	0x90d2b025	-8.310179e-29
147	0x0f96301a	1.480967e-29
148	0x106c569e	4.660952e-29
149	0x8ff24bb2	-2.3892199e-29
150	0x118eead4	2.2548374e-28
151	0x1812ab80	1.8956643e-24
152	0x1cee7d80	1.578196e-21
153	0x80000298	-9.3e-43
154	0x80000185	-5.45e-43
155	0x80000118	-3.92e-43
156	0x0000025d	8.48e-43
157	0x0000050d	1.812e-42
158	0x9d05026a	-1.7603651e-21
159	0x0000016e	5.13e-43
160	0x00aacd9c	1.5685793e-38
161	0x9318486a	-1.92208e-27
162	0x00000215	7.47e-43
163	0x8000032a	-1.135e-42
164	0x00000276	8.83e-43
165	0x8000000f	-2.1e-44
166	0x00000030	6.7e-44
167	0x80000268	-8.63e-43
168	0x0000006e	1.54e-43
169	0x000001d6	6.59e-43
170	0x1ba5b508	2.741395e-22
171	0x80000209	-7.3e-43
172	0x8000498a	-2.6381e-41
173	0x8e370a51	-2.2561459e-30
174	0x80000142	-4.51e-43
175	0x0d80d755	7.940448e-31
176	0x1031d3ee	3.507036e-29
177	0x8d92fad9	-9.058334e-31
178	0x8fb0f932	-1.7450926e-29
179	0x9032fe0a	-3.5300015e-29
180	0x00000323	1.125e-42
181	0x00000035	7.4e-44
182	0x00000219	7.52e-43
183	0x000001aa	5.97e-43
184	0x800001ea	-6.87e-43
185	0x000000fe	3.56e-43
186	0x8000021d	-7.58e-43
187	0x00038f8b	3.27e-40
188	0x9c0c3d29	-4.640116e-22
189	0x800001ca	-6.42e-43
190	0x000001f7	7.05e-43
191	0x80000153	-4.75e-43
192	0x8000000f	-2.1e-44
193	0x8000010f	-3.8e-43
194	0x0822315a	4.8808114e-34
195	0x0000021c	7.57e-43
196	0x00000166	5.02e-43
197	0x902523aa	-3.2567987e-29
198	0x8000042f	-1.501e-42
199	0x800002bd	-9.82e-43
200	0x00000035	7.4e-44
201	0x8000013e	-4.46e-43
202	0x8000014e	-4.68e-43
203	0x800001fe	-7.15e-43
204	0x800000b3	-2.51e-43
205	0x865c8029	-4.1471558e-35
206	0x1a84c225	5.490758e-23
207	0x8fa0368e	-1.5798232e-29
208	0x8a8f36e8	-1.3791053e-32
209	0x099ff67b	3.8509647e-33
210	0x1073b571	4.8063077e-29
211	0x0f193ce8	7.5552125e-30
212	0x0be20c16	8.707022e-32
213	0x1281e61b	8.19777e-28
214	0x2279d451	3.3858192e-18
215	0xa609587e	-4.765135e-16
216	0x80000345	-1.173e-42
217	0x000002b6	9.73e-43
218	0x00000233	7.89e-43
219	0x00000021	4.6e-44
220	0x800000ba	-2.6e-43
221	0x0000005a	1.26e-43
222	0x8000008d	-1.98e-43
223	0x00017def	1.37012e-40
224	0x92ce4ba2	-1.3019073e-27
225	0x800001cb	-6.43e-43
226	0x800002e8	-1.043e-42
227	0x800000b7	-2.56e-43
228	0x000001d4	6.56e-43
229	0x8000017c	-5.32e-43
230	0x000000a3	2.28e-43
231	0x80000202	-7.2e-43
232	0x00000061	1.36e-43
233	0x07d77e47	3.2423824e-34
234	0x02a11d88	2.3673774e-37
235	0x10972791	5.961996e-29
236	0x10f42b75	9.6307987e-29
237	0x000001e3	6.77e-43
238	0x0537db78	8.644929e-36
239	0x8ffcbd52	-2.4922042e-29
240	0x8000018a	-5.52e-43
241	0x1102048b	1.0256592e-28
242	0x1c394557	6.1300985e-22
243	0x8000bb56	-6.7203e-41
244	0x8000b199	-6.371e-41
245	0x0c7883a8	1.9144844e-31
246	0x0f565fb6	1.0569448e-29
247	0x8f6d89b5	-1.17115236e-29
248	0x92a72370	-1.0547918e-27
249	0x10c1f186	7.6497203e-29
250	0x9b093e44	-1.1352494e-22
251	0x12a9df7b	1.0720492e-27
252	0x8000010b	-3.74e-43
253	0x8000018d	-5.56e-43
254	0x80000054	-1.18e-43
255	0x0000022d	7.8e-43

bias f4 [64]
0	0x08023a5b	3.918905e-34
1	0xb76a2c76	-1.3957839e-05
2	0xaf7f2d38	-2.320818e-10
3	0x342ea167	1.626373e-07
4	0xb7c5fe84	-2.3602748e-05
5	0x31ab9edd	4.9948157e-09
6	0x35897f70	1.0244385e-06
7	0x35afd938	1.3101735e-06
8	0x35c317a2	1.453551e-06
9	0x00005529	3.055e-41
10	0x800004f1	-1.773e-42
11	0x8000078f	-2.712e-42
12	0xb5384eae	-6.8659836e-07
13	0x800009d7	-3.53e-42
14	0x37608b8b	1.338393e-05
15	0x000006a4	2.382e-42
16	0x37af0554	2.0864107e-05
17	0x000004f0	1.771e-42
18	0x0003222c	2.87765e-40
19	0x800003a3	-1.305e-42
20	0x390fe32d	0.00013722172
21	0xb590555a	-1.0753677e-06
22	0x34e9c58d	4.354337e-07
23	0x33f6d73c	1.14944186e-07
24	0x800006d7	-2.454e-42
25	0xb834acd7	-4.3076314e-05
26	0xa2cbc02a	-5.522672e-18
27	0xb59a893b	-1.1513833e-06
28	0xb4ac87f2	-3.213641e-07
29	0xa304ec38	-7.205756e-18
30	0x351820bf	5.6672064e-07
31	0xb6539ae0	-3.15316e-06
32	0xb8796cc0	-5.9467508e-05
33	0xb7c151a8	-2.3045417e-05
34	0x80000a84	-3.772e-42
35	0x000008c2	3.142e-42
36	0x1edcc153	2.3373363e-20
37	0x381f30d2	3.795402e-05
38	0x000004da	1.74e-42
39	0xb670aa27	-3.5861829e-06
40	0xacd199a1	-5.9571935e-12
41	0x208294d3	2.212134e-19
42	0xb5818c48	-9.652076e-07
43	0xb726fd01	-9.953278e-06
44	0x3789093e	1.6335976e-05
45	0xb630b3cb	-2.6330697e-06
46	0x80000440	-1.525e-42
47	0x00000245	8.14e-43
48	0x381f946e	3.804679e-05
49	0x1db56eb2	4.8024757e-21
50	0x000002d0	1.009e-42
51	0xb59d5756	-1.172283e-06
52	0xb66a9de3	-3.496062e-06
53	0xb50064ab	-4.7830207e-07
54	0x09089650	1.6441081e-33
55	0x36e58440	6.8401278e-06
56	0xb3471be4	-4.6358664e-08
57	0xb8718d44	-5.759044e-05
58	0xa40fcb20	-3.1180236e-17
59	0x000008e2	3.187e-42
60	0xb5a8514c	-1.2540636e-06
61	0xb58a3a82	-1.0298829e-06
62	0xa075bbce	-2.0814447e-19
63	0x22c5e189	5.363575e-18

weight f4 [64]
0	0x2f739105	2.2152243e-10
1	0x3eae249b	0.34012303
2	0x380c6050	3.34683e-05
3	0x3db52221	0.088444
4	0x3ebee25e	0.3728208
5	0x3c2132a5	0.009838735
6	0x3d890792	0.06690897
7	0x3d62f92c	0.05541341
8	0x3d6a113b	0.05714534
9	0x35a16399	1.2024421e-06
10	0x34372a17	1.7058515e-07
11	0x2aa85d63	2.9907595e-13
12	0x3e8bdeaa	0.27318317
13	0x3367ea2b	5.3996853e-08
14	0x3d9c2e3c	0.07626006
15	0x36542d26	3.1616742e-06
16	0x3e15ea0f	0.14640068
17	0x362ca8f7	2.5728348e-06
18	0x38944451	7.069915e-05
19	0x37d41473	2.5281892e-05
20	0x3e64d6ee	0.22347614
21	0x3e158dcc	0.14604872
22	0x2c04a1be	1.8848113e-12
23	0x3be55be9	0.006999482
24	0x36ab4eb3	5.105359e-06
25	0x2d155168	8.487745e-12
26	0x30645884	8.3071705e-10
27	0x3deea08d	0.116517164
28	0x3d01c64d	0.031683255
29	0x2fcb4309	3.6973116e-10
30	0x3cfa1648	0.030528203
31	0x3ec84c0e	0.39120525
32	0x3ea6b18b	0.3255733
33	0x3f0c42df	0.5478954
34	0x36c9f977	6.0193083e-06
35	0x36087d4a	2.0338507e-06
36	0x2cd8f1a6	6.1659176e-12
37	0x2cb00703	5.0029993e-12
38	0x35066c3d	5.00764e-07
39	0x3df6ea43	0.120564006
40	0xb451467a	-1.9490281e-07
41	0x2d1c936e	8.900309e-12
42	0x3db7e447	0.08979087
43	0x3ef8a68e	0.4856457
44	0x3cef29f9	0.029194819
45	0x3dce19f8	0.10063547
46	0x3628adc9	2.5135107e-06
47	0x306e5968	8.671095e-10
48	0x3e4c60fc	0.19958872
49	0x2c680c15	3.297589e-12
50	0x388a6a00	6.600097e-05
51	0x3d715674	0.05892034
52	0x3e5e41dd	0.21704812
53	0x3a3d5840	0.0007222928
54	0xb2a238b4	-1.8885068e-08
55	0x3e3374a3	0.17524962
56	0x3c66b036	0.014080098
57	0x3e660195	0.22461541
58	0x3b618ffd	0.00344181
59	0x32499db7	1.17356e-08
60	0x3f10aab1	0.56510454
61	0x3bcfec38	0.006345298
62	0x2df45ace	2.7779914e-11
63	0x2f1d9a6b	1.4333927e-10

bias f4 [64]
0	0xb204286c	-7.692602e-09
1	0x3e750e44	0.23931223
2	0x3b59e456	0.003324767
3	0x3dd444bd	0.10364673
4	0xbd65424f	-0.05597144
5	0x3b91e7ed	0.0044526965
6	0x3d4e1612	0.050314017
7	0x3d25b0a7	0.040451672
8	0xbbdaf6f3	-0.0066822707
9	0xb1ae4210	-5.071577e-09
10	0xad8a09fa	-1.5693214e-11
11	0xa035defd	-1.5405077e-19
12	0x3e45af57	0.19305168
13	0x9f578d70	-4.5645015e-20
14	0xbb46aaf6	-0.0030314303
15	0xb1c3af5f	-5.6951843e-09
16	0x3d0b44be	0.034001105
17	0xb38e9e18	-6.6411474e-08
18	0xb64f2999	-3.0869617e-06
19	0xb647a371	-2.9748446e-06
20	0x3c2ed5aa	0.010671059
21	0x3cfcb357	0.030847235
22	0xb6850f0d	-3.965461e-06
23	0x3bca8098	0.0061798804
24	0xb0f6a405	-1.7945473e-09
25	0xb98b20ce	-0.00026536587
26	0xba47b59c	-0.00076183095
27	0x3de967e8	0.11396772
28	0x3cc7bcc5	0.024382005
29	0xb8f67615	-0.000117521886
30	0xbb13d228	-0.0022555683
31	0x3ea0f45f	0.3143644
32	0x3e7a4eb9	0.24444093
33	0x3d9eeb31	0.07759703
34	0xb10e50bc	-2.0709612e-09
35	0xb07a6c09	-9.1103e-10
36	0xb780acfb	-1.533934e-05
37	0xb8e8c583	-0.000110994115
38	0xb0ee38fb	-1.7332974e-09
39	0x3be53db3	0.0069958805
40	0xb3d44aaa	-9.8856006e-08
41	0xb8d22502	-0.000100204736
42	0x3d8b23cd	0.06793938
43	0xbd8b4cbf	-0.068017475
44	0x3cacdafc	0.021100514
45	0xbac72763	-0.0015194233
46	0xb1f52da1	-7.135626e-09
47	0x9b5ff086	-1.8523845e-22
48	0x3d41e066	0.047333144
49	0xb558045e	-8.0472626e-07
50	0xb4d67008	-3.994212e-07
51	0x3abc4efc	0.0014366801
52	0x3e1c27c8	0.1524955
53	0xb9558ecf	-0.00020366463
54	0xb1a0d240	-4.6805155e-09
55	0x3e2b9938	0.16757667
56	0x3c163172	0.009167062
57	0x3e1e2f0d	0.15447636
58	0xba9372b3	-0.0011249393
59	0xa191985a	-9.865909e-19
60	0x3e72e69a	0.2372078
61	0xb99b7cc8	-0.00029656873
62	0xb80ace55	-3.3093926e-05
63	0xb72577f6	-9.862697e-06
