SND_trackers_My_data/9X0_file/9_9X0_coordconv_Label_V5.pt (torch, 305469 bytes, 25 tensors)

weight f4 [32, 9, 3, 3]
000000 7e 71 48 b9 8a 7d 48 b9 0e 73 48 b9 83 5f 48 b9
       -0.00019115765 -0.00019120253 -0.00019116348 -0.00019109067
000010 d5 66 48 b9 96 79 48 b9 db 7c 48 b9 b4 7a 48 b9
       -0.00019111794 -0.0001911878 -0.00019119999 -0.00019119197
000020 e9 7c 48 b9 29 b1 bd b6 cd 64 bd b6 01 ca bd b6
       -0.00019120019 -5.653263e-06 -5.6443737e-06 -5.6561553e-06
000030 4a 93 bd b6 81 c2 bd b6 39 b6 bd b6 7d 71 bd b6
       -5.6497856e-06 -5.655282e-06 -5.6538524e-06 -5.6458507e-06
000040 92 c6 bd b6 48 ae bd b6 1a c1 8e 39 17 3d 8e 39
       -5.6557556e-06 -5.652928e-06 0.00027228222 0.00027129866
000050 31 46 8e 39 70 5e 85 39 6a 43 84 39 47 13 85 39
       0.00027136647 0.00025438098 0.0002522723 0.000253821
000060 a0 55 80 39 84 5d 7e 39 08 55 7d 39 1e 05 69 36
       0.00024477858 0.00024258165 0.00024159637 3.4722684e-06
000070 ea 62 b7 36 5b e6 83 36 00 6e 3e 36 4a 52 cc 34
       5.46534e-06 3.930921e-06 2.8376235e-06 3.8057834e-07
000080 9b 65 c7 34 0e 9b b0 35 d9 43 f3 33 47 b2 d3 34
       3.7140566e-07 1.3158149e-06 1.1327911e-07 3.9431526e-07
000090 06 e4 3e bb 66 71 3b b9 00 aa 84 b9 d2 6d 4d bb
       -0.0029127612 -0.00017875954 -0.00025303662 -0.0031345976
0000a0 1d 9e 8e bb d0 03 99 bb de ab 5f bb 5a f2 55 bb
       -0.0043523447 -0.004669644 -0.003412954 -0.0032645673
0000b0 aa 0d d3 3b 2d ab ff 39 2d 80 43 3a 96 f0 95 3b
       0.006440838 0.00048764926 0.00074577593 0.004575799
0000c0 aa 53 6e 3b b6 4c 89 bb 98 01 33 3a 23 9c 82 bb
       0.0036365786 -0.004190053 0.00068285456 -0.003985898
0000d0 4a 36 bf bb d5 ee 36 3b a4 7b 60 3b d7 12 b3 3a
       -0.005835329 0.002791335 0.0034253383 0.0013662231
0000e0 f3 cf 95 3a 6f 77 0a 3c d7 40 81 b9 6a ad ba 39
       0.0011429772 0.008451327 -0.00024653107 0.00035605888
0000f0 b3 e0 0a 3c 5f 17 0f 3c ab 7e 5d 3b 9b eb 36 bb
       0.008476424 0.008733599 0.0033797424 -0.0027911428
000100 73 d2 e6 ba f9 2e 00 bb cf 5e 3d 3a b4 15 7d 3b
       -0.0017610326 -0.0019559248 0.00072239054 0.0038617672
000110 ed f0 8c 3a b6 24 b5 3b 46 ee 03 3c 25 9c 32 3b
       0.0010752954 0.005528058 0.008052414 0.0027253714
000120 a0 26 6f 3b c4 ff 05 3b 9f b6 af 3a e7 0d a4 3b
       0.0036491528 0.0020446638 0.0013405866 0.00500654
000130 bb a7 21 3b 48 f4 bc 3b ca ab 89 3b 2d b6 26 3b
       0.0024666626 0.0057664253 0.004201387 0.0025438175
000140 3f 03 a4 3b 82 e2 ee bb 92 e2 ee bb ae e2 ee bb
       0.00500527 -0.0072901854 -0.007290193 -0.007290206
000150 52 e1 ee bb 38 e1 ee bb c1 e2 ee bb d2 e1 ee bb
       -0.007290044 -0.0072900318 -0.0072902148 -0.0072901035
000160 8e e3 ee bb 76 df ee bb 58 ac bd 3c bc a1 bd 3c
       -0.00729031 -0.007289822 0.023153469 0.02314841
000170 6e b4 bd 3c 99 ae bd 3c c9 a6 bd 3c 4f a7 bd 3c
       0.023157325 0.023154544 0.023150818 0.023151068
000180 af ad bd 3c be b1 bd 3c b2 a8 bd 3c 9e 39 c2 3b
       0.023154108 0.023156043 0.02315173 0.0059272787
000190 a5 a2 dc 3b b4 82 ec 3b 2e ea b3 3b 69 28 cf 3b
       0.006733256 0.0072177295 0.005490563 0.006321956
0001a0 7f c3 dc 3b c2 82 a1 3b 30 9d b7 3b 05 a3 c3 3b
       0.006737172 0.0049289176 0.005603455 0.005970361
0001b0 01 48 6a 39 0a 2a 2f 3a 87 15 38 39 07 41 8b b9
       0.00022342803 0.00066819845 0.00017555627 -0.00026560595
0001c0 24 8f d0 b9 44 62 6d bb d6 bc 7f 3b 5c f2 a1 ba
       -0.000397795 -0.00362219 0.0039022467 -0.0012355554
0001d0 47 75 46 ba 69 f6 c9 bb 51 bd 49 bc 93 74 d9 bb
       -0.0007570576 -0.0061634076 -0.012313203 -0.006636211
0001e0 db 7d 86 bc a3 73 55 bc a9 45 17 3c cb 62 62 bc
       -0.016417434 -0.013028058 0.009232917 -0.013817499
0001f0 bd 6b 46 bb 87 e0 00 bc c8 87 05 bd ff 2f b3 bc
       -0.003027662 -0.0078660315 -0.032600194 -0.021873472
000200 49 71 b7 bc 67 e3 d2 bc 92 2f d4 bc 88 f8 a5 bc
       -0.022392886 -0.0257432 -0.02590159 -0.02026011
000210 86 80 05 bd bc cd ad bc 19 11 66 bc 5f 00 84 3c
       -0.032593273 -0.021216266 -0.014042162 0.016113458
000220 0b 4c fb 3b 7e 20 02 3b 2b c2 d8 3c 44 69 8e ba
       0.007668977 0.0019855793 0.026459774 -0.0010865112
000230 80 01 0a bd 51 8d cd 3c e0 3c 60 bc f2 31 0c 3d
       -0.033692837 0.025091799 -0.013686389 0.03422732
000240 64 96 ec bc 20 08 ff bc cb 38 19 bd 30 53 fe bb
       -0.028880306 -0.031131804 -0.037407678 -0.0077613816
000250 6c f0 c8 bc 6a 9e f6 bc 6b a6 a2 bc 56 10 e6 bc
       -0.024528705 -0.030104835 -0.019854745 -0.028083961
000260 20 9f f5 bc c8 1e 0d 3d 48 76 cc 3c b7 0e bb 3c
       -0.029983103 0.034453183 0.024958745 0.022834165
000270 e3 d4 a4 3d 99 7c bb 3c 83 ba 92 3d 23 56 22 3d
       0.080484174 0.022886561 0.071644805 0.039632928
000280 bc ec a8 3c 0b df 1a 3c 34 5d 56 37 d1 5a 56 37
       0.020620696 0.009452592 1.27770945e-05 1.2776539e-05
000290 dd 5e 56 37 28 5a 56 37 56 5c 56 37 23 5c 56 37
       1.2777481e-05 1.2776385e-05 1.2776893e-05 1.2776846e-05
0002a0 42 5a 56 37 9e 5d 56 37 a2 5d 56 37 b3 a8 f8 b8
       1.2776409e-05 1.2777191e-05 1.2777195e-05 -0.00011856984
0002b0 ec cf f8 b8 84 d9 f8 b8 b4 d7 f8 b8 17 de f8 b8
       -0.0001186429 -0.00011866077 -0.00011865739 -0.00011866929
0002c0 0c c5 f8 b8 74 e6 f8 b8 b3 e4 f8 b8 2b e7 f8 b8
       -0.000118622644 -0.00011868487 -0.0001186816 -0.0001186862
0002d0 83 bd b1 b8 fd 32 cd b8 0d 7a ea b8 7e 67 a8 b8
       -8.475317e-05 -9.784659e-05 -0.00011180723 -8.030141e-05
0002e0 20 c2 c4 b8 00 74 e4 b8 c3 e5 9c b8 52 c8 b6 b8
       -9.382167e-05 -0.00010893494 -7.481456e-05 -8.715749e-05
0002f0 d9 e8 d7 b8 9d 8f 0c 34 3c a3 c0 34 c9 00 a9 34
       -0.0001029537 1.3090762e-07 3.5881556e-07 3.1479274e-07
000300 15 23 5c 34 39 bd cb 34 c8 8d 15 36 a0 72 56 b5
       2.050186e-07 3.7949374e-07 2.2285258e-06 -7.9888014e-07
000310 6e e1 6a b2 50 5f 88 34 e8 5b 33 39 47 fa 69 b8
       -1.3671849e-08 2.5401323e-07 0.00017105008 -5.5784618e-05
000320 e1 f2 51 b9 cd a7 3e ba 1f 3e 23 39 58 c2 ce b7
       -0.00020022273 -0.0007272929 0.00015568033 -2.4647612e-05
000330 dc b7 a2 b9 18 b1 5f ba d0 4a 1c ba 5e e6 48 ba
       -0.00031036034 -0.0008533164 -0.00059620757 -0.0007663722
000340 0a ba 79 3a 77 31 ed 3a 1f be e8 ba c2 7f 53 3b
       0.0009526318 0.0018096407 -0.0017756856 0.0032272195
000350 fe 86 9c 3b f2 9c 24 bb 14 e6 cc ba fa 53 5a b9
       0.0047768345 -0.002511796 -0.0015632533 -0.00020821384
000360 bf dd 57 3a 01 19 01 3a 20 a6 06 ba 8c 2c 1f ba
       0.0008234642 0.00049246853 -0.0005136449 -0.00060720067
000370 dd 3f c6 b9 e6 d5 2a ba 74 77 cb ba bb b8 90 3a
       -0.00037813085 -0.00065168587 -0.0015523271 0.0011041382
000380 cd 37 f9 3b 9a 68 4c 3a d3 e9 06 3b f6 bb 89 3a
       0.007605529 0.0007797569 0.0020586147 0.0010508287
000390 8c 82 61 b9 3a bd 8c 3b 00 8b 87 3a a7 5d fa b9
       -0.00021506305 0.0042950185 0.0010341108 -0.00047753492
0003a0 86 9e c5 3a 5a da 72 3b f3 47 8d b8 4f a3 53 3a
       0.0015077151 0.0037056417 -6.7368055e-05 0.0008073346
0003b0 5d e9 9b 3a a7 e0 ae b9 fb ce 98 3a 65 62 2b 3b
       0.0011895109 -0.00033355245 0.0011658365 0.0026151177
0003c0 94 14 88 3a b6 40 de 3a bb 56 21 3b 61 d7 3a 3b
       0.0010382109 0.0016956541 0.0024618346 0.0028509723
0003d0 db d6 3a 3b 5c d7 3a 3b aa d7 3a 3b b0 d7 3a 3b
       0.0028509411 0.0028509712 0.0028509893 0.0028509907
0003e0 99 d7 3a 3b b1 d7 3a 3b c4 d7 3a 3b b4 d7 3a 3b
       0.0028509854 0.002850991 0.0028509954 0.0028509917
0003f0 2a 64 19 bb 5b 64 19 bb f3 64 19 bb c5 64 19 bb
       -0.002340565 -0.0023405764 -0.0023406118 -0.002340601

bias f4 [32]
000000 6b d3 36 31 db b0 da 34 12 56 5a b2 41 a7 6a b4
       2.6604663e-09 4.0734344e-07 -1.270884e-08 -2.1853795e-07
000010 70 8c ac af 7b 52 38 24 70 5c 1b 32 24 79 e9 35
       -3.1386405e-10 3.9968504e-17 9.043205e-09 1.7395109e-06
000020 8c 1d 57 b4 d7 02 07 32 2e 52 2e 30 6e 16 3e 34
       -2.0034184e-07 7.85868e-09 6.3417616e-10 1.7703289e-07
000030 e5 42 80 99 00 b9 1f a8 76 4b 0a b6 9a ec 92 af
       -1.3261908e-23 -8.8663885e-15 -2.0607526e-06 -2.672536e-10
000040 65 35 33 b2 3d 6e 84 2f 60 3c 05 ae 8b 16 f5 9e
       -1.0431312e-08 2.408899e-10 -3.0294323e-11 -2.5949708e-20
000050 45 81 ed 29 92 8b 13 99 1b 74 5c 35 9f 71 c7 a9
       1.0547339e-13 -7.627908e-24 8.212534e-07 -8.8570854e-14
000060 88 84 13 b0 a8 a0 88 b3 b6 30 7a 2f e8 2c f2 36
       -5.3666627e-10 -6.362217e-08 2.2754673e-10 7.21739e-06
000070 71 b9 f7 29 c4 c8 86 34 0b 50 a6 a2 76 c8 60 b3
       1.10011724e-13 2.510552e-07 -4.507914e-18 -5.2336382e-08

weight f4 [32]
000000 3a 5e 09 3c a8 c1 14 3e 39 2c 82 3b dc 92 cd 3d
       0.008384282 0.14526999 0.003972557 0.10037777
000010 f5 b9 8e 3a c0 1e 16 b7 aa fe 34 3e f5 20 ce 3d
       0.001088916 -8.947856e-06 0.17675272 0.1006488
000020 84 fb 87 3e 4d 4a b5 3c 0c 19 4c b9 ae 7e 17 3e
       0.2655908 0.022130156 -0.00019464287 0.14794418
000030 12 48 cb b6 ba 79 86 b9 64 6d 3f 3e 35 2f da 3b
       -6.0582615e-06 -0.00025649165 0.18694073 0.0066584595
000040 3b 67 c4 3c 99 1c 8a 3a d3 50 d1 39 99 21 9b b7
       0.023975005 0.0010537087 0.00039923805 -1.8493085e-05
000050 f9 1f 3f ba 4f 40 53 b8 31 36 0e 3e 84 58 11 b9
       -0.0007290836 -5.0366212e-05 0.1388786 -0.00013861252
000060 02 eb 5d 3c ca e0 67 3c 3b 60 81 3b 62 89 09 3f
       0.0135448 0.014152715 0.003948239 0.53725255
000070 65 e3 80 b9 3b 2f d6 3d f9 31 b8 37 f4 2b 26 3e
       -0.00024583485 0.10458227 2.195778e-05 0.16227704

bias f4 [32]
000000 41 67 0f bc 91 43 49 3b 20 3c 0c bb 11 d2 0b bd
       -0.008752645 0.0030710439 -0.0021398142 -0.03413588
000010 b6 1a ae 3b dd 84 c0 b6 42 d7 05 3d 72 cb 85 3b
       0.005313243 -5.737513e-06 0.03267599 0.0040830905
000020 b3 6e 38 bc f7 8b 4d bc c8 74 6d 38 10 56 ec bc
       -0.0112568615 -0.012545577 5.6613964e-05 -0.028849632
000030 25 37 03 ba 6a 5f 92 ba d4 73 30 3d 86 c2 26 bc
       -0.00050054706 -0.0011167352 0.043079212 -0.010178214
000040 79 a6 29 bd 7e c8 5e bb f8 0b b2 ba 74 83 dd b8
       -0.041418526 -0.0033994014 -0.0013583889 -0.00010562586
000050 3e f9 97 bb 6b a4 40 b8 b8 ea 63 3d 1e 09 60 b9
       -0.0046378663 -4.5929493e-05 0.055643767 -0.00021365701
000060 e8 d4 0d bc 1e 74 41 3b b4 cf 7c bb fa dd dd 3b
       -0.008656718 0.0029518674 -0.003857595 0.0067708464
000070 4b 22 e0 b9 28 69 f9 3b 46 f2 92 b7 5f 86 a5 bc
       -0.0004275016 0.0076114126 -1.7517374e-05 -0.020205675

running_mean f4 [32]
000000 1b e6 db 3b f0 42 49 3d 7a f0 08 3b 2b 5d 6b 3d
       0.0067107803 0.049136102 0.0020895288 0.0574619
000010 c5 c7 76 3b 54 51 bb 36 52 c7 d3 3d 24 72 62 3c
       0.0037655693 5.582502e-06 0.10340752 0.013821159
000020 0c 1d e2 bb b7 08 df 3b 85 9a 2d 39 33 7d 81 3d
       -0.0069004353 0.006806459 0.00016556129 0.06322708
000030 8b e7 11 3a 0d c0 a9 39 ec 8b 81 3d c8 2e d4 3b
       0.00055658136 0.0003237728 0.06325516 0.0064753033
000040 e6 0b 1e 3d a6 cf ac 3a 71 5e 45 3a 38 41 92 37
       0.038585566 0.0013184443 0.00075290265 1.7434926e-05
000050 25 94 20 3b 91 55 bc 38 d4 b0 b5 bd ec b6 f6 38
       0.0024502364 8.9804766e-05 -0.08871618 0.00011764266
000060 e3 8d 22 3c b6 c7 00 bc 0d 5c 6f 3b 93 46 ea 3c
       0.009921524 -0.007860115 0.0036523372 0.028598106
000070 1f fc 80 39 58 ae de bc 8c 44 75 b6 d8 1e b4 3d
       0.00024601907 -0.027182743 -3.6547744e-06 0.087949455

running_var f4 [32]
000000 9a a1 2d 3c d9 c8 fe 3e 3a de 17 3b 37 c0 80 3e
       0.010597611 0.4976261 0.002317323 0.25146648
000010 e5 64 66 3c 82 9a e9 32 69 93 5f 3f bb 1a 7a 3e
       0.014062141 2.7195032e-08 0.87334305 0.2442426
000020 14 2d 0a 3f 58 3b db 3c 0a fe cd 38 ba 16 5d 3e
       0.53975034 0.026761696 9.82248e-05 0.21590701
000030 e4 e0 7b 39 e5 b9 f9 37 8e 0b 0e 3e 9d 0b 2d 3c
       0.00024021004 2.9769677e-05 0.13871595 0.010561851
000040 6e ef f2 3d ab 6f d9 3a cb e7 cc 39 12 fb 3e 34
       0.11862074 0.0016589066 0.0003908261 1.7786468e-07
000050 3d 93 a9 3a d0 60 1c 36 61 c5 9d 3e 1a 83 a7 36
       0.0012937557 2.3302164e-06 0.3081465 4.99225e-06
000060 35 c3 a7 3c a6 f0 00 3d 1b 32 93 3b 8c 3a 44 3e
       0.020478824 0.0314795 0.004492057 0.19162959
000070 d3 68 88 37 bb f7 8f 3d cc 98 99 31 42 04 25 3f
       1.6261276e-05 0.07029673 4.470257e-09 0.6445962

weight f4 [32, 35, 3, 3]
000000 f1 01 00 80 ef 01 00 80 e3 01 00 80 eb 01 00 80
       -6.96e-43 -6.94e-43 -6.77e-43 -6.88e-43
000010 ee 01 00 80 d6 01 00 80 d7 01 00 80 d8 01 00 80
       -6.92e-43 -6.59e-43 -6.6e-43 -6.61e-43
000020 e1 01 00 80 85 2f 00 00 ab 2d 00 00 cb 2e 00 00
       -6.74e-43 1.7047e-41 1.6383e-41 1.6786e-41
000030 36 2e 00 00 c7 2d 00 00 ba 2f 00 00 40 2e 00 00
       1.6577e-41 1.6422e-41 1.7121e-41 1.6591e-41
000040 a6 2d 00 00 d4 2e 00 00 3e 01 00 80 34 00 00 00
       1.6376e-41 1.6799e-41 -4.46e-43 7.3e-44
000050 d7 01 00 00 a7 00 00 80 c2 01 00 80 e5 01 00 80
       6.6e-43 -2.34e-43 -6.3e-43 -6.8e-43
000060 b9 01 00 00 d8 01 00 00 93 01 00 00 f1 01 00 80
       6.18e-43 6.61e-43 5.65e-43 -6.96e-43
000070 8f 00 00 80 31 53 1a 07 a5 01 00 80 3b 01 00 00
       -2e-43 1.161012e-34 -5.9e-43 4.41e-43
000080 94 18 00 00 83 01 00 00 e6 01 00 80 87 6f 00 80
       8.817e-42 5.42e-43 -6.81e-43 -4.0008e-41
000090 03 02 00 00 23 15 00 00 4a 73 ac 8a ab 00 00 00
       7.22e-43 7.582e-42 -1.6606364e-32 2.4e-43
0000a0 07 01 00 80 85 41 01 00 8c 00 00 00 78 01 00 00
       -3.69e-43 1.1534e-40 1.96e-43 5.27e-43
0000b0 bc 00 00 00 8b 01 00 80 ed 10 00 80 5f eb 90 89
       2.63e-43 -5.54e-43 -6.072e-42 -3.488808e-33
0000c0 58 01 00 80 50 01 00 80 14 c1 22 01 49 00 00 80
       -4.82e-43 -4.71e-43 2.9893228e-38 -1.02e-43
0000d0 c0 01 00 00 ba 01 00 80 e3 01 00 80 fc 20 00 00
       6.28e-43 -6.2e-43 -6.77e-43 1.1833e-41
0000e0 89 8a 6b 11 ad 01 00 00 dd 01 00 80 36 f1 4c 03
       1.8580921e-28 6.01e-43 -6.68e-43 6.022711e-37
0000f0 c8 00 00 00 33 01 00 00 1e be 06 80 a6 01 00 00
       2.8e-43 4.3e-43 -6.19214e-40 5.91e-43
000100 e4 01 00 80 11 b0 00 80 54 01 00 00 00 02 00 80
       -6.78e-43 -6.3161e-41 4.76e-43 -7.17e-43
000110 db 01 00 00 c8 01 00 00 e8 00 00 80 87 01 00 80
       6.66e-43 6.39e-43 -3.25e-43 -5.48e-43
000120 d4 00 00 00 d8 01 00 00 63 c2 1e 87 81 00 00 00
       2.97e-43 6.61e-43 -1.1943724e-34 1.81e-43
000130 4e 01 00 80 bb 15 00 80 22 00 00 80 7f 01 00 80
       -4.68e-43 -7.795e-42 -4.8e-44 -5.37e-43
000140 81 9f 01 00 d4 00 00 80 e7 01 00 00 06 d5 20 8c
       1.49055e-40 -2.97e-43 6.82e-43 -1.2390056e-31
000150 ef 01 00 80 a4 00 00 80 06 01 00 00 7c 01 00 80
       -6.94e-43 -2.3e-43 3.67e-43 -5.32e-43
000160 95 00 00 00 c8 00 00 80 d2 00 00 80 26 01 00 00
       2.09e-43 -2.8e-43 -2.94e-43 4.12e-43
000170 79 d1 07 85 52 00 00 00 94 01 00 00 7f c5 ae 80
       -6.3861435e-36 1.15e-43 5.66e-43 -1.6050225e-38
000180 9a 01 00 00 dc 00 00 00 e0 00 00 80 59 01 00 80
       5.75e-43 3.08e-43 -3.14e-43 -4.83e-43
000190 bc 00 00 00 a1 67 03 02 bb 00 00 00 96 01 00 00
       2.63e-43 9.6541e-38 2.62e-43 5.69e-43
0001a0 c4 00 00 00 5b 00 00 00 ff 01 00 80 2c 01 00 80
       2.75e-43 1.28e-43 -7.16e-43 -4.2e-43
0001b0 83 00 00 00 6d 01 00 80 bd d9 68 07 cd 00 00 00
       1.84e-43 -5.11e-43 1.7517728e-34 2.87e-43
0001c0 91 01 00 00 29 8d 82 07 eb 01 00 80 e0 01 00 80
       5.62e-43 1.9643192e-34 -6.88e-43 -6.73e-43
0001d0 e7 01 00 00 94 01 00 80 87 00 00 80 1d f5 c0 07
       6.82e-43 -5.66e-43 -1.89e-43 2.9033014e-34
0001e0 83 01 00 80 42 00 00 80 66 5f 07 00 37 00 00 80
       -5.42e-43 -9.2e-44 6.77071e-40 -7.7e-44
0001f0 d9 01 00 80 05 01 00 00 f8 01 00 80 42 a9 01 80
       -6.63e-43 3.66e-43 -7.06e-43 -1.52554e-40
000200 e8 7d 82 8e eb 00 00 80 19 01 00 00 00 e3 7f 07
       -3.2168718e-30 -3.3e-43 3.94e-43 1.9250777e-34
000210 a0 00 00 00 3c 01 00 80 26 00 00 00 d6 01 00 00
       2.24e-43 -4.43e-43 5.3e-44 6.59e-43
000220 4f 01 00 80 40 27 6c 06 d8 01 00 00 f5 01 00 00
       -4.7e-43 4.4415503e-35 6.61e-43 7.02e-43
000230 af 01 00 80 05 01 00 00 7e 00 00 80 33 00 00 00
       -6.04e-43 3.66e-43 -1.77e-43 7.1e-44
000240 48 00 00 00 8e 01 00 00 19 d5 a6 02 26 01 00 00
       1.01e-43 5.58e-43 2.451382e-37 4.12e-43
000250 cd 01 00 00 fa 00 00 00 c3 01 00 80 8f 00 00 00
       6.46e-43 3.5e-43 -6.32e-43 2e-43
000260 23 00 00 00 0d 65 01 00 3f 68 0c 02 fa 30 e9 1f
       4.9e-44 1.28086e-40 1.0315493e-37 9.8760363e-20
000270 be 14 00 80 d6 2d 02 80 d2 ed 38 8f 7d 00 00 00
       -7.441e-42 -2.00114e-40 -9.117703e-30 1.75e-43
000280 19 01 00 00 3c 02 00 80 b3 01 00 00 07 00 00 80
       3.94e-43 -8.02e-43 6.1e-43 -1e-44
000290 73 7d 9f 84 87 01 00 80 00 01 00 80 a8 01 00 80
       -3.7495927e-36 -5.48e-43 -3.59e-43 -5.94e-43
0002a0 de 00 00 00 16 00 00 80 76 00 00 00 89 00 00 80
       3.11e-43 -3.1e-44 1.65e-43 -1.92e-43
0002b0 ea 01 00 00 d2 92 a9 0d 3d 00 00 80 6d 01 00 80
       6.87e-43 1.0450775e-30 -8.5e-44 -5.11e-43
0002c0 66 96 09 00 50 00 00 80 4b 00 00 00 c4 53 0c 00
       8.80472e-40 -1.12e-43 1.05e-43 1.132075e-39
0002d0 fd 00 00 00 1c 00 00 80 c3 1d 16 84 a6 01 00 80
       3.55e-43 -3.9e-44 -1.7646081e-36 -5.91e-43
0002e0 8d 00 00 80 b1 71 1a 02 98 00 00 80 8a 01 00 80
       -1.98e-43 1.1346761e-37 -2.13e-43 -5.52e-43
0002f0 a9 02 00 80 6e 01 00 80 69 00 00 80 d8 93 01 83
       -9.54e-43 -5.13e-43 -1.47e-43 -3.807941e-37
000300 2b 01 00 80 eb 01 00 80 35 3c 5e 80 19 00 00 00
       -4.19e-43 -6.88e-43 -8.654135e-39 3.5e-44
000310 ff 01 00 00 ec 01 00 80 49 01 00 80 ea 01 00 00
       7.16e-43 -6.9e-43 -4.61e-43 6.87e-43
000320 21 92 c2 85 ee 00 00 80 84 00 00 00 86 08 00 80
       -1.8297352e-35 -3.34e-43 1.85e-43 -3.058e-42
000330 21 00 00 00 cd 01 00 80 48 01 00 00 9a 00 00 80
       4.6e-44 -6.46e-43 4.6e-43 -2.16e-43
000340 d2 01 00 80 26 92 d6 06 17 00 00 00 f6 01 00 00
       -6.53e-43 8.07126e-35 3.2e-44 7.03e-43
000350 bf 2b 01 80 48 01 00 80 e5 01 00 80 f0 0e 01 00
       -1.07529e-40 -4.6e-43 -6.8e-43 9.7194e-41
000360 44 01 00 80 52 00 00 80 9e 7f 8b 8b 59 01 00 00
       -4.54e-43 -1.15e-43 -5.373287e-32 4.83e-43
000370 4d 00 00 00 4b 01 00 00 f4 00 00 00 2e 05 00 80
       1.08e-43 4.64e-43 3.42e-43 -1.858e-42
000380 9d 18 62 83 7c 00 00 80 6c 01 00 00 c5 a0 97 8d
       -6.6443685e-37 -1.74e-43 5.1e-43 -9.344797e-31
000390 e0 00 00 00 90 00 00 00 db ac 62 88 69 01 00 80
       3.14e-43 2.02e-43 -6.821259e-34 -5.06e-43
0003a0 0b 00 00 80 11 00 00 80 47 00 00 80 0a 01 00 00
       -1.5e-44 -2.4e-44 -1e-43 3.73e-43
0003b0 56 89 28 80 4a 01 00 80 f8 00 00 80 20 00 00 80
       -3.722687e-39 -4.62e-43 -3.48e-43 -4.5e-44
0003c0 ed 01 00 00 ca 00 00 80 ae 00 00 00 eb 00 00 00
       6.91e-43 -2.83e-43 2.44e-43 3.3e-43
0003d0 2c 53 00 80 ef da 1d 8d 68 01 00 80 1d 00 00 00
       -2.9836e-41 -4.864289e-31 -5.04e-43 4e-44
0003e0 ee 01 00 00 ed 01 00 00 1b 00 00 00 63 fc 59 00
       6.92e-43 6.91e-43 3.8e-44 8.263898e-39
0003f0 c0 01 00 80 5e 00 00 80 2b 1c 10 8a cb 00 00 00
       -6.28e-43 -1.32e-43 -6.9386456e-33 2.84e-43

bias f4 [32]
000000 7d 0f 00 80 19 b9 01 80 a7 b2 d7 b4 7e a9 56 31
       -5.556e-42 -1.58236e-40 -4.0176857e-07 3.1237444e-09
000010 15 f6 1c af ae 03 00 80 b5 7f 3e 2b 39 dc 12 36
       -1.4275543e-10 -1.32e-42 6.767879e-13 2.1883882e-06
000020 af 78 9c 37 97 0b 02 33 32 cd 2d b5 e2 8c 02 00
       1.8652847e-05 3.0278525e-08 -6.474612e-07 2.3421e-40
000030 e2 07 00 80 c4 00 00 00 fa db 11 a1 0f 5c 4c b6
       -2.828e-42 2.75e-43 -4.941905e-19 -3.0451954e-06
000040 13 ab 6e 96 fd 6e 5d 89 d2 d7 ac 11 6f 02 00 80
       -1.9279468e-25 -2.6654094e-33 2.7269825e-28 -8.73e-43
000050 e9 4f df 35 c3 64 c0 37 1a 1c cc 31 2d 05 00 80
       1.6638052e-06 2.2935104e-05 5.940376e-09 -1.857e-42
000060 cb 9d 01 b1 3c 04 00 80 b3 80 ce 28 ce 69 88 b2
       -1.8861666e-09 -1.519e-42 2.2926409e-14 -1.5880598e-08
000070 4b cc cd 37 51 1a 84 32 8b de 9c 01 68 22 00 80
       2.4533036e-05 1.537879e-08 5.7624683e-38 -1.2343e-41

weight f4 [32]
000000 bf 1e 36 af 00 26 de b8 19 6b 3d 3e b9 5e b0 3b
       -1.6563727e-10 -0.00010592863 0.18497886 0.0053823856
000010 80 35 02 b9 2e 25 d2 2d 61 13 1d b6 f1 15 50 3e
       -0.00012417696 2.3890747e-11 -2.3406103e-06 0.2032087
000020 20 a6 a4 3e c2 42 28 3b 3b ef f6 3d 95 b9 66 38
       0.32157993 0.0025674556 0.12057348 5.500911e-05
000030 f2 c5 ab aa 64 41 bb b5 64 3b c4 3a 78 68 31 3e
       -3.0513054e-13 -1.3951617e-06 0.0014971313 0.17325008
000040 71 3d e0 b8 c6 14 bb b8 ca 58 19 39 ef fc e8 b0
       -0.00010692597 -8.920724e-05 0.00014624294 -1.695211e-09
000050 14 a9 0a 3e a6 09 89 3e ed 2e 09 3c 35 59 99 30
       0.1354106 0.26765174 0.008373004 1.1157569e-09
000060 97 64 e1 3b 02 21 c3 b8 2e 18 56 34 55 48 84 3c
       0.0068784463 -9.304473e-05 1.99391e-07 0.016147772
000070 20 f5 94 3e 88 ff df b3 2a 01 7c 2f 40 89 13 b3
       0.29093266 -1.04307276e-07 2.291968e-10 -3.4350933e-08

bias f4 [32]
000000 90 44 ca a4 e5 e8 ab b8 b4 66 8e bd 15 48 10 bc
       -8.7719685e-17 -8.1972954e-05 -0.06953183 -0.008806248
000010 93 2a 02 bc 06 fa b7 9c 48 ca a0 b2 bd f9 57 bd
       -0.007944721 -1.2174554e-21 -1.8718438e-08 -0.052728403
000020 64 2c 13 3e 3d c9 88 3b 7d 5a c3 3c 56 36 fb b9
       0.14372402 0.00417438 0.02384686 -0.00047914934
000030 9a 1f a7 92 2b 39 c3 b5 62 6b 10 bb 5f 6f 85 bb
       -1.0546972e-27 -1.454527e-06 -0.0022036661 -0.0040721144
000040 56 62 4d bb 40 a8 76 bc c9 26 28 ba a7 47 c9 a9
       -0.003133913 -0.015054762 -0.0006414471 -8.938623e-14
000050 02 27 2b 3d 6f fe 6c 3c 46 74 36 bc 3d 9c 7d b0
       0.041785248 0.014464959 -0.01113612 -9.226289e-10
000060 a4 0a bf bc b5 7b 37 b8 e0 d6 95 37 a4 77 ee bc
       -0.023320504 -4.374581e-05 1.7862243e-05 -0.029109783
000070 cc b9 75 bd 2e 8a 45 af b3 3f e8 aa ea 09 14 b2
       -0.059991643 -1.7966137e-10 -4.125568e-13 -8.616988e-09

running_mean f4 [32]
000000 2f 44 50 2c b5 b2 34 35 3b de 67 bd 9b 97 96 3b
       2.9596427e-12 6.731528e-07 -0.05660842 0.0045957095
000010 ab 9c cf 3b e5 e4 c2 a1 ea 0f be 35 eb f9 29 bc
       0.006335815 -1.3206539e-18 1.4160735e-06 -0.0103745265
000020 1e 5c f7 bc 6b 83 6a 3b e5 cf 5c 3d 26 db 46 38
       -0.030195292 0.0035783898 0.0539092 4.7410977e-05
000030 19 af 36 1c 0a 2b 8f 34 d0 40 ab 39 73 bb e4 bd
       6.0445057e-22 2.666714e-07 0.0003266395 -0.111685656
000040 c7 99 0f 3a d5 47 07 3b ed bc 97 b9 d4 3f 91 a1
       0.00054779317 0.002064218 -0.00028941725 -9.842477e-19
000050 ca 00 9a 3b 87 d0 85 bd ce 11 36 3c 7d cf e8 a4
       0.004699801 -0.06533914 0.011112643 -1.0096546e-16
000060 9a 58 a4 3c 76 49 4a 36 b6 12 64 35 da 36 b7 3c
       0.02006178 3.0143106e-06 8.4963847e-07 0.022365022
000070 49 d2 7a bc a4 17 b6 b0 b4 e9 4d 2f 09 2c 2a 31
       -0.015308925 -1.3248962e-09 1.872767e-10 2.4763287e-09

running_var f4 [32]
000000 49 1a 5b 1c 0b ab 5a 2d 1a 28 6d 3c a6 bb 15 3a
       7.2494994e-22 1.24298445e-11 0.014474893 0.0005711861
000010 f5 bf a6 38 32 e5 5a 05 36 86 f6 2e 1b a3 ca 3c
       7.9512516e-05 1.0292407e-35 1.12106255e-10 0.024735978
000020 e9 e8 51 3d b8 3c e9 39 ae 20 01 3d 54 68 13 30
       0.05124751 0.00044486462 0.031525306 5.362655e-10
000030 89 2f 00 00 ba 97 2d 2c ea 76 bd 34 d9 15 52 3c
       1.7052e-41 2.4669004e-12 3.5290515e-07 0.012822592
000040 ad 8e 9d 36 15 01 2a 37 50 bf 13 33 15 3a c7 04
       4.6955743e-06 1.01330415e-05 3.4400102e-08 4.6838015e-36
000050 ab c0 55 3c 6a af 42 3c b1 92 b4 3a 49 24 d2 0c
       0.013046424 0.011882642 0.0013776628 3.2377461e-31
000060 6f df 88 3a de ac 32 2f ba b2 8c 2d f9 f5 f4 3a
       0.0010442565 1.625042e-10 1.5995528e-11 0.0018689028
000070 26 76 09 3d 40 d4 ed 18 6e 84 3c 22 ab d8 3b 26
       0.03355994 6.147738e-24 2.5548859e-18 6.51723e-16

weight f4 [64, 35, 3, 3]
000000 13 d8 8d bc c2 d6 8d bc dc d6 8d bc 89 d8 8d bc
       -0.017314946 -0.017314319 -0.017314367 -0.017315166
000010 38 d7 8d bc 17 d6 8d bc c3 d6 8d bc 90 d7 8d bc
       -0.017314538 -0.017314 -0.01731432 -0.017314702
000020 c4 d4 8d bc 7f ea 76 3c 96 ea 76 3c f2 e9 76 3c
       -0.017313369 0.015070557 0.015070578 0.015070425
000030 ce e8 76 3c 7e e9 76 3c ec e9 76 3c b6 e8 76 3c
       0.015070153 0.015070317 0.01507042 0.015070131
000040 2f ea 76 3c 6c e9 76 3c b1 b9 9f ba de 72 78 3a
       0.015070482 0.015070301 -0.0012186078 0.0009477566
000050 15 f0 90 3b 0f 7c 00 bc 2a ca 00 bc ca 3e c6 ba
       0.0044231513 -0.007842078 -0.0078607 -0.0015124914
000060 6e 31 50 bc 36 b8 57 bc b8 80 cc bb a5 8b 0f 8c
       -0.012707097 -0.013166478 -0.0062409304 -1.1058342e-31
000070 10 07 7f 18 cc 0d 8d 16 5d 65 04 09 88 75 b4 9e
       3.2961543e-24 2.2788486e-25 1.5936583e-33 -1.9106851e-20
000080 ee 19 8b 9f 42 c5 4d a3 3b c5 cd ad a7 68 1a b0
       -5.891169e-20 -1.1154843e-17 -2.339339e-11 -5.6173594e-10
000090 7e 93 13 a8 f1 dc 95 a6 be 86 3b a4 f8 a1 13 af
       -8.1921215e-15 -1.0398838e-15 -4.0663292e-17 -1.3427115e-10
0000a0 e5 8f 07 b0 c5 fe ca b2 5c 56 cd b2 ec dd 0e b6
       -4.93172e-10 -2.363175e-08 -2.3904413e-08 -2.1288824e-06
0000b0 c7 c0 71 b5 b1 21 2c 3d 36 5b 9a 3b 7d 69 11 bb
       -9.0060024e-07 0.042024318 0.00471058 -0.002218812
0000c0 67 a9 fc bb 78 8c 7b bd e1 6f 86 3b e8 d6 3c 3c
       -0.007710624 -0.06141326 0.0041026925 0.011525847
0000d0 2c 5e 9e bb e0 6c 45 bb 62 16 67 3a b9 8d 96 39
       -0.0048330035 -0.003012471 0.0008815286 0.0002871582
0000e0 64 00 96 b9 17 54 1a 3a 62 bc de 3a 8b ee 0a 3a
       -0.0002861052 0.0005887164 0.0016993398 0.0005299828
0000f0 f6 71 ba 3a f5 cb 9d 3a 72 f8 c9 3a 91 37 2f b8
       0.0014224637 0.0012038933 0.0015409125 -4.1775e-05
000100 16 87 8e b8 a7 ab 6c b8 75 ea 3d 38 86 99 6e ba
       -6.796249e-05 -5.642665e-05 4.5279467e-05 -0.0009101856
000110 7f 43 99 b8 fa 30 ed 39 df 36 11 ba fd 0b a3 38
       -7.308181e-05 0.00045240653 -0.00055394875 7.774679e-05
000120 c3 01 00 80 23 22 9a 97 54 79 4b 95 ab 00 00 80
       -6.32e-43 -9.960634e-25 -4.1091235e-26 -2.4e-43
000130 6f 43 a3 0e 15 a7 48 a4 43 e6 4d 98 af ec 49 ab
       4.024754e-30 -4.350961e-17 -2.6611881e-24 -7.173801e-13
000140 13 45 14 af 6c 16 9e 21 8d aa 0b 25 89 32 ea 25
       -1.3485062e-10 1.0712431e-18 1.2114113e-16 4.0626773e-16
000150 d9 c5 bf 22 7b e9 61 26 72 cc 8f 25 16 c3 83 ae
       5.1980133e-18 7.837898e-16 2.4945083e-16 -5.9918445e-11
000160 92 17 7a b1 ea df 0b b6 5b d7 24 3c 4a 04 8c 3c
       -3.6393186e-09 -2.084295e-06 0.01006111 0.017091889
000170 49 bb 30 bc e5 96 e1 bb f7 b8 2c bc 59 61 44 bc
       -0.01078684 -0.006884443 -0.010542146 -0.0119861
000180 0a 28 c4 3c 1f 80 f1 3b d1 db 2a 3c e2 76 b3 bc
       0.023944873 0.0073700096 0.010428385 -0.021907274
000190 b1 cd 02 39 ed 77 f1 bc a7 78 a3 3c 6e 59 3f 3c
       0.00012474392 -0.02947613 0.019954992 0.011679037
0001a0 0d 71 78 bc bd 50 dd 3c f5 0c 1a bc 38 54 a5 3b
       -0.015163672 0.027016038 -0.009402503 0.00504544
0001b0 f0 02 c7 b8 ca d2 94 39 e4 48 af b9 6c a3 92 3a
       -9.4896066e-05 0.0002838581 -0.0003343291 0.001118762
0001c0 42 5a 0e bb 50 21 b3 b8 e2 77 2a 39 e1 e8 ca ba
       -0.0021721278 -8.54159e-05 0.00016257123 -0.001548078
0001d0 ae bf 8f 3a 4f ac 4c bb 6e ef 4e 3c b9 46 57 bb
       0.0010967159 -0.0031230634 0.012630327 -0.003284855
0001e0 08 13 e0 3c 1f 60 73 bc 15 3f 35 3b 24 55 0d 3d
       0.027352825 -0.01485446 0.0027656008 0.034505025
0001f0 c9 bc 30 bc e1 f3 b0 3c 26 e3 1e ab 0f fa 24 a8
       -0.010787197 0.021600666 -5.644811e-13 -9.158052e-15
000200 b7 37 08 a3 9b f9 8c a9 c2 2c 17 a6 4f 51 12 22
       -7.384373e-18 -6.2605486e-14 -5.2449307e-16 1.9829734e-18
000210 d8 44 a5 a7 3c ae db ac 7a 1d 6e aa a6 5f 15 96
       -4.587134e-15 -6.2436983e-12 -2.1148873e-13 -1.2066305e-25
000220 6c 12 ec 9d 60 d0 4f 0d da 5c dd 8a fb 67 13 9d
       -6.2487728e-21 6.403762e-31 -2.1316453e-32 -1.9509045e-21
000230 15 9d 35 9d 90 a3 f2 a1 73 c9 6f ac 25 46 0a 33
       -2.403636e-21 -1.6441852e-18 -3.407577e-12 3.2194425e-08
000240 58 cf 43 23 e9 08 30 a9 48 1d ba a9 51 3e fb a9
       1.0614878e-17 -3.908758e-14 -8.265139e-14 -1.11574493e-13
000250 2a 6f 89 a9 f9 cc 8f a3 46 e6 25 b1 d8 42 98 b1
       -6.103306e-14 -1.55909e-17 -2.4141555e-09 -4.4313815e-09
000260 36 73 ab b4 fa 7a 9d b0 83 02 ff 2f 66 8a 30 31
       -3.193506e-07 -1.1458205e-09 4.6386014e-10 2.5690041e-09
000270 b9 79 4a b0 b8 11 6c 2f e3 f5 82 30 1b 4c 0e af
       -7.366015e-10 2.147037e-10 9.52863e-10 -1.2941863e-10
000280 d0 be 98 ac d9 20 2d b1 f1 61 fd 3a 0e 93 95 3a
       -4.3412843e-12 -2.5193485e-09 0.0019331557 0.0011411624
000290 40 e2 9a 39 bc 1d 80 ba 34 97 77 ba be dc 99 ba
       0.00029541738 -0.0009774487 -0.0009444833 -0.001173876
0002a0 4d b0 b3 bb 9a ee a4 3b 66 1c 3a bb b8 38 ff b1
       -0.005483663 0.0050333263 -0.0028398274 -7.427925e-09
0002b0 8b 34 2a 33 9c 70 a0 b1 08 c2 84 37 f4 25 1e b6
       3.9628997e-08 -4.669415e-09 1.5825979e-05 -2.3565926e-06
0002c0 dc fe c3 af 26 4c 2f b8 a1 d4 00 b9 b9 cf ee 37
       -3.5651382e-10 -4.179417e-05 -0.00012286242 2.846854e-05
0002d0 0f 43 03 b6 65 c3 86 b5 02 c8 49 b2 2a 55 a0 b8
       -1.9559554e-06 -1.0040645e-06 -1.1745216e-08 -7.6452576e-05
0002e0 6a ed ef b8 4d bf 53 b6 b4 6e ce 38 3a 3b c8 b7
       -0.0001144063 -3.1552802e-06 9.8434655e-05 -2.3869437e-05
0002f0 b5 2d 86 b8 08 89 b1 a5 31 5d ad a8 2e fa 19 27
       -6.3981315e-05 -3.0797462e-16 -1.9247274e-14 2.1368638e-15
000300 f0 c1 11 ab a5 83 5c ae ec 0d ee ad 95 88 45 2c
       -5.178349e-13 -5.0139132e-11 -2.706365e-11 2.8071202e-12
000310 6a 67 a3 2e 4e 45 24 31 53 00 00 00 60 64 b5 00
       7.430752e-11 2.3904536e-09 1.16e-43 1.6658233e-38
000320 82 99 04 03 10 00 00 00 6d fd 00 00 76 56 58 8c
       3.896753e-37 2.2e-44 9.0912e-41 -1.6666053e-31
000330 7a 16 00 80 9c da 42 9e 21 9d 95 2a cb 0b 99 ba
       -8.063e-42 -1.0315482e-20 2.6576747e-13 -0.0011676488
000340 3f db 12 bb be cb 6e 3b 6d cf 58 bc 95 fd 6c bb
       -0.0022408513 0.0036437358 -0.013233048 -0.003616189
000350 17 c0 bb 3a 73 64 ac bc b8 8d ab 3b bf 8b a9 ba
       0.0014324215 -0.021043992 0.0052354 -0.0012935324
000360 b4 75 2f 3c af 8d 28 3c 28 1b 08 3c 3c 3d 3e 3b
       0.010709215 0.010287686 0.008307256 0.0029028198
000370 65 94 c3 3a 3b 33 87 39 50 3c 36 3b 87 e9 64 3c
       0.0014921544 0.00025787376 0.0027806945 0.013971693
000380 7d 81 0c 3a e2 65 0a b9 f6 28 4f 3a 87 a5 08 ba
       0.00053598714 -0.0001319866 0.0007902527 -0.0005212654
000390 ba f5 d5 39 32 77 40 bb 4e 4d 83 b9 98 6c c8 38
       0.00040809606 -0.002936792 -0.00025043864 9.55697e-05
0003a0 06 81 eb ba c3 73 9d b8 03 34 68 00 f7 67 2b 9a
       -0.0017967529 -7.507906e-05 9.56955e-39 -3.5445953e-23
0003b0 eb 90 41 9a 19 07 77 00 32 fa f4 0e a3 ac 3c 25
       -4.0028528e-23 1.093097e-38 6.0391573e-30 1.6364892e-16
0003c0 45 84 c4 9e 0f f8 3f a6 22 b4 0b 31 e2 dc ea 37
       -2.0807013e-20 -6.660262e-16 2.0329556e-09 2.799783e-05
0003d0 b0 0c b6 b7 0f e2 c1 b9 cd 9d e6 39 b2 75 0d 3b
       -2.1701999e-05 -0.00036980255 0.0004398659 0.0021585044
0003e0 29 f6 58 b9 63 02 ab 3a 11 65 06 3b 33 f5 cb 3a
       -0.00020691067 0.0013046976 0.0020507018 0.0015560746
0003f0 aa 1b 85 26 40 6f cb ab 03 90 e3 a9 03 be 28 2e
       9.236227e-16 -1.4454896e-12 -1.0105807e-13 3.8367542e-11

bias f4 [64]
000000 64 56 7c 34 b8 93 ac 1c f2 99 90 22 b3 0b 1f 1e
       2.3500758e-07 1.142019e-21 3.9194274e-18 8.419809e-21
000010 fc 0b 00 80 6f 46 b2 36 99 02 00 80 a1 c7 a4 95
       -4.299e-42 5.313013e-06 -9.32e-43 -6.655403e-26
000020 09 ff ad 30 f5 07 00 80 9f 03 00 80 8f a4 5a 28
       1.2659892e-09 -2.854e-42 -1.299e-42 1.2137114e-14
000030 c4 07 00 80 c6 07 00 00 b3 3c d2 2b f0 04 00 00
       -2.786e-42 2.789e-42 1.4938245e-12 1.771e-42
000040 0f c4 96 a2 72 0a 00 00 10 98 2d aa 79 4a 00 00
       -4.0865167e-18 3.747e-42 -1.5418244e-13 2.6716e-41
000050 d5 07 00 00 f8 06 00 00 a9 90 82 1a 1e 04 00 00
       2.81e-42 2.5e-42 5.400045e-23 1.477e-42
000060 4a b0 15 b7 27 0a 00 80 94 2b 85 23 14 95 25 24
       -8.922138e-06 -3.642e-42 1.4438345e-17 3.5904946e-17
000070 b3 02 00 00 4a 0e 00 80 8b a8 eb 36 66 29 3e a2
       9.68e-43 -5.126e-42 7.0231667e-06 -2.5771718e-18
000080 62 13 c9 2f 4d 06 00 80 10 00 00 00 4e 04 00 00
       3.657546e-10 -2.26e-42 2.2e-44 1.544e-42
000090 0f 46 a7 b3 57 29 12 1e cf 9e e2 87 d8 04 00 80
       -7.789287e-08 7.7377245e-21 -3.409804e-34 -1.738e-42
0000a0 10 78 09 19 31 a6 97 30 0c 00 00 80 5f bc a3 b7
       7.1069804e-24 1.103393e-09 -1.7e-44 -1.9518831e-05
0000b0 49 03 00 80 ad 04 00 00 9c 7c 2f 1d 41 20 00 80
       -1.178e-42 1.677e-42 2.3225479e-21 -1.157e-41
0000c0 8e 23 20 a9 5b 2c e9 1b c7 a4 89 20 c7 0b 00 00
       -3.5557976e-14 3.857528e-22 2.3317743e-19 4.225e-42
0000d0 e1 03 00 80 93 2d 7b b4 2a 9d fc b4 50 07 00 80
       -1.391e-42 -2.3392776e-07 -4.705301e-07 -2.623e-42
0000e0 82 03 8d 0d db ac 02 19 dd ae 2d b5 5a 4a 99 06
       8.69064e-31 6.75575e-24 -6.470198e-07 5.7661453e-35
0000f0 ee 00 00 80 43 c3 df 1d 43 0f 5f 94 26 0d 00 80
       -3.34e-43 5.9229504e-21 -1.1261633e-26 -4.717e-42

weight f4 [64]
000000 01 83 02 3d 26 ab 4a 2c 66 09 84 bb fc 56 2e ac
       0.031863216 2.8800933e-12 -0.0040294407 -2.4775173e-12
000010 0f 72 ab ad 3a e0 1d 3e 9f 57 a2 b7 1b 12 05 ab
       -1.9491101e-11 0.15417567 -1.9352707e-05 -4.727622e-13
000020 2a 5d 4b bb 53 60 4d 30 54 a3 87 b7 12 aa ac 34
       -0.0031030872 7.471545e-10 -1.616931e-05 3.216124e-07
000030 e1 a3 a5 b1 4d 55 93 2c 39 19 d3 ae 9b f5 a3 b3
       -4.820763e-09 4.1874616e-12 -9.5996495e-11 -7.6349544e-08
000040 28 8f 1c b1 b7 52 9c b5 2d 5e 3f 34 ef 96 d4 37
       -2.2782363e-09 -1.1646979e-06 1.7822522e-07 2.5342653e-05
000050 40 0d 7d 34 70 5c 0e b5 39 ad 7b ab bf 4d 0e 35
       2.3567281e-07 -5.3033637e-07 -8.941351e-13 5.301226e-07
000060 87 71 4b 3e c0 62 dd b8 82 2f ad 33 76 93 c8 b1
       0.19867526 -0.00010556495 8.064582e-08 -5.8375305e-09
000070 a1 d1 d8 32 79 90 65 34 ec b4 4f ad 95 53 2e b0
       2.5241038e-08 2.1379846e-07 -1.180676e-11 -6.341961e-10
000080 35 f6 a3 bb 24 8a 6a b5 29 f0 7e b2 93 55 3e b1
       -0.0050037154 -8.7372814e-07 -1.4839352e-08 -2.7697282e-09
000090 14 16 41 b8 38 05 05 2f cc 94 15 30 03 c3 6d af
       -4.6035348e-05 1.2098134e-10 5.441734e-10 -2.1624307e-10
0000a0 4d 29 e1 ae 77 95 c0 b9 57 09 6e 2f 5f 01 a1 3d
       -1.0239152e-10 -0.00036732454 2.1649292e-10 0.0786159
0000b0 06 93 56 2e af af 92 2e 2d 24 87 2e 29 48 c7 34
       4.878855e-11 6.670519e-11 6.145515e-11 3.7119142e-07
0000c0 87 d4 8a 33 b8 60 84 b1 e0 71 d2 ae a1 46 19 b4
       6.464784e-08 -3.8527013e-09 -9.5699226e-11 -1.427493e-07
0000d0 c5 6e 83 33 c8 8f 48 3e 41 71 5c 3e 33 33 af 31
       6.120312e-08 0.19586098 0.21527578 5.098991e-09
0000e0 6e 5b 93 b7 f3 17 46 29 02 b2 30 3e 37 00 90 38
       -1.756634e-05 4.3985604e-14 0.17255405 6.866495e-05
0000f0 11 47 b6 b3 3c 13 ca ad 71 be 9d b1 cd 4d b1 34
       -8.487962e-08 -2.2973283e-11 -4.590952e-09 3.3025427e-07

bias f4 [64]
000000 50 53 03 3d 17 11 d5 2a 30 ab 9b b9 a0 a3 eb 2e
       0.032061875 3.784826e-13 -0.00029691448 1.07156284e-10
000010 8a d4 c5 93 de 6f 7c 3d 50 81 11 a5 2f 79 8a a4
       -4.993937e-27 0.061630122 -1.2620558e-16 -6.005325e-17
000020 a9 7f da ba ec 36 95 9f dc c9 d8 ab d1 fa c1 35
       -0.0016670126 -6.3194815e-20 -1.540375e-12 1.4452618e-06
000030 9c b6 00 a2 be 74 61 9b 34 52 4a ab db 28 d2 a9
       -1.7443907e-18 -1.8649285e-22 -7.1878896e-13 -9.332961e-14
000040 ac 0b 15 a5 7c 2f 2d ad 46 4b b0 32 5a 39 f6 b6
       -1.2927644e-16 -9.844455e-12 2.0523327e-08 -7.338048e-06
000050 e9 72 66 ad 76 2b 21 a9 67 b0 27 ad 26 35 d4 a8
       -1.30995015e-11 -3.5786878e-14 -9.53202e-12 -2.3559778e-14
000060 67 54 00 bc e6 6e 46 b5 7b d8 f9 2c 71 26 bd 2d
       -0.007832623 -7.3922126e-07 7.10104e-12 2.1503884e-11
000070 c2 d3 91 ab 6f d7 33 b2 fc f7 26 ac 23 ee 31 2e
       -1.0361644e-12 -1.0468155e-08 -2.3727678e-12 4.045665e-11
000080 dd 87 03 bb 4b 47 8a a9 35 87 5b a4 bb d3 ab 95
       -0.0020069994 -6.1407985e-14 -4.760258e-17 -6.94004e-26
000090 96 54 84 b4 b6 ab 8a b4 a3 08 6b a9 9e 06 81 a6
       -2.464846e-07 -2.582944e-07 -5.2187973e-14 -8.952967e-16
0000a0 c0 6f 58 a4 66 22 2c b9 b8 e8 98 9d 6a d6 15 3e
       -4.693219e-17 -0.00016416013 -4.047469e-21 0.14632574
0000b0 ab a3 88 a4 5b 9b ac a1 d8 82 e2 a4 5f f0 73 b2
       -5.925786e-17 -1.1696296e-18 -9.8233534e-17 -1.4199116e-08
0000c0 36 d3 04 33 ab 22 85 a3 62 9c 6b 2c 08 21 81 9e
       3.092574e-08 -1.4434571e-17 3.3482318e-12 -1.3672068e-20
0000d0 5f 0f 9b a5 c4 ee 5f 3d 77 af 1a be b3 a4 52 a4
       -2.689863e-16 0.054671064 -0.15105997 -4.5675997e-17
0000e0 3a 9c 49 b7 37 4b 7f a9 fc 75 b0 bc c1 47 1a af
       -1.2016908e-05 -5.6686613e-14 -0.021540634 -1.403171e-10
0000f0 a8 21 45 a2 d6 8e b2 a9 82 de 80 a8 b5 94 f0 ac
       -2.6716296e-18 -7.929566e-14 -1.4307352e-14 -6.83772e-12

running_mean f4 [64]
000000 7f c0 37 ba fd dd 13 a6 6a 6a 2f 39 33 2f e1 25
       -0.000700958 -5.130172e-16 0.00016728943 3.9063262e-16
000010 13 57 38 9e a2 33 d4 bd b2 2c 54 26 da 61 4d a0
       -9.7588854e-21 -0.10361411 7.361285e-16 -1.7396552e-19
000020 d0 68 11 3c 4e b3 a9 97 ab 02 5c 24 d7 08 9f 33
       0.008875087 -1.0966632e-24 4.7707155e-17 7.4056224e-08
000030 dd c6 c0 25 c6 57 cf 25 70 81 a9 a6 83 3f 56 27
       3.3441446e-16 3.5968254e-16 -1.1761815e-15 2.9732896e-15
000040 88 55 86 20 b3 ae 8a ae 3a f2 b9 b3 86 2b 8f 31
       2.2757083e-19 -6.306546e-11 -8.6587946e-08 4.166796e-09
000050 43 7f 27 2a ec af 42 29 0e e6 2b a4 95 65 ba 27
       1.4876732e-13 4.322924e-14 -3.7274578e-17 5.1735506e-15
000060 fb 7b e4 bd 65 2e 35 36 8b be 15 30 9a 26 7f 2d
       -0.1115646 2.6998107e-06 5.447666e-10 1.4503643e-11
000070 4e ef a8 2d 68 2b 16 b1 c3 34 cf b4 0f b8 0c ac
       1.9205661e-11 -2.1852546e-09 -3.8595144e-07 -1.999737e-12
000080 67 77 38 3b 11 84 ce 2c 3d 65 92 9c 40 f1 24 1e
       0.0028147341 5.8695345e-12 -9.687639e-22 8.731977e-21
000090 c2 97 f1 b1 e2 86 0b 29 f9 85 ec 30 8f 3c 86 a2
       -7.031276e-09 3.0981192e-14 1.7209337e-09 -3.638489e-18
0000a0 cf 7e 00 a8 e6 51 45 38 6c 3e 64 9b 6f eb 89 3d
       -7.132925e-15 4.7044734e-05 -1.8879888e-22 0.067343585
0000b0 87 2a ea 9f d3 9f e4 24 f5 dd a8 27 c6 e2 67 2b
       -9.917321e-20 9.914999e-17 4.6870013e-15 8.23824e-13
0000c0 8a 78 a9 31 90 59 13 a5 6c 81 00 29 9c e7 94 24
       4.932251e-09 -1.2780563e-16 2.8533965e-14 6.457713e-17
0000d0 88 67 ad 24 bc d6 89 3c 40 ff 4f 3d a5 91 0c ad
       7.520218e-17 0.016826026 0.050780535 -7.990418e-12
0000e0 c2 1e 73 37 81 bb 37 a3 10 88 20 bc ed 72 ae b0
       1.449109e-05 -9.960155e-18 -0.009798065 -1.269283e-09
0000f0 28 9f 9c 85 d4 52 82 26 83 2e 08 21 13 62 c4 a3
       -1.4728634e-35 9.043013e-16 4.614015e-19 -2.1291899e-17

running_var f4 [64]
000000 77 56 86 3c 3d b6 91 0d 9a 72 a4 34 3e b6 d5 0e
       0.016398652 8.980187e-31 3.0630764e-07 5.2684047e-30
000010 26 6a 03 00 6b 1d 22 3c e2 0c af 0e 8c f5 5b 03
       3.13585e-40 0.009894709 4.3153236e-30 6.464019e-37
000020 6e 3c 4b 3a 04 00 00 00 be 2d cf 0b 14 8f 81 29
       0.000775284 6e-45 7.9802325e-32 5.753571e-14
000030 c6 ed a2 0d 8d 58 bc 0d 96 20 a0 16 14 22 f4 10
       1.0041263e-30 1.1607712e-30 2.5869959e-25 9.6293536e-29
000040 5a 05 00 00 c3 00 e3 1d b6 65 68 29 34 36 0a 27
       1.92e-42 6.0087187e-21 5.160257e-14 1.918073e-15
000050 56 54 8b 15 ba cd 10 13 1d ac c8 0d 97 18 81 15
       5.627471e-26 1.8276786e-27 1.2367386e-30 5.214148e-26
000060 6f c3 59 3c 76 f7 66 2e 1f 1b 96 21 ff 61 a8 1d
       0.013291224 5.2515735e-11 1.0171574e-18 4.4570555e-21
000070 cc 67 d6 1d 87 e8 ea 22 73 c4 b6 17 8e 03 bc 1a
       5.675265e-21 6.3672025e-18 1.1811065e-24 7.776072e-23
000080 6b 66 98 38 b7 06 c6 1a 20 07 00 00 14 d6 00 00
       7.267002e-05 8.190173e-23 2.556e-42 7.6797e-41
000090 b4 99 cc 24 4d 73 cf 13 b9 13 0f 23 7e 70 27 09
       8.873128e-17 5.236784e-27 7.756222e-18 2.0154787e-33
0000a0 c2 f1 8b 10 77 d2 43 33 e1 0e 00 00 ac be 91 3b
       5.519832e-29 4.5593392e-08 5.338e-42 0.0044477787
0000b0 be 3b be 03 a4 bf a7 0b 56 95 db 11 9c 90 4a 18
       1.11809125e-36 6.461441e-32 3.4644143e-28 2.6180897e-24
0000c0 80 15 0f 25 b3 3a 4c 0e 93 d9 93 15 a3 3b 94 0a
       1.2410557e-16 2.5173204e-30 5.97161e-26 1.4274314e-32
0000d0 f9 8f a4 0a a1 99 19 3c 43 42 d6 3b 89 53 28 1b
       1.5846782e-32 0.009375007 0.0065386607 1.3923626e-22
0000e0 52 64 be 30 7a 79 02 0b 1f 9f 8a 3c 77 4c 0b 22
       1.3852832e-09 2.5128478e-32 0.016921578 1.8878493e-18
0000f0 04 00 00 00 b4 91 2b 10 22 6b 96 04 d7 a5 aa 08
       6e-45 3.383605e-29 3.5363216e-36 1.0270492e-33

weight f4 [64, 67, 3, 3]
000000 79 33 14 a4 ac 4a 11 a4 e2 93 31 a4 72 5c 14 a4
       -3.2135983e-17 -3.1505113e-17 -3.850602e-17 -3.217069e-17
000010 78 03 15 a4 b9 70 32 a4 40 04 11 a4 3f 6b 19 a4
       -3.2312163e-17 -3.8693077e-17 -3.1445463e-17 -3.3267427e-17
000020 0c 4d 2d a4 25 34 08 a8 00 ff 07 a8 09 2d 08 a8
       -3.7578656e-17 -7.560824e-15 -7.5493e-15 -7.559282e-15
000030 17 95 08 a8 2b e7 07 a8 ba d3 08 a8 cb cb 07 a8
       -7.581845e-15 -7.544132e-15 -7.5954274e-15 -7.538196e-15
000040 48 b4 04 a8 90 d4 08 a8 4a 2d 17 27 34 cf 97 25
       -7.366564e-15 -7.595609e-15 2.098001e-15 2.633473e-16
000050 2a e5 02 a7 19 7c a1 27 4b 73 8b 26 64 f2 24 a7
       -1.8165354e-15 4.4821024e-15 9.676313e-16 -2.2890972e-15
000060 73 af d7 27 43 e9 d7 27 97 18 b3 a7 74 8f 0f a6
       5.986471e-15 5.992739e-15 -4.970914e-15 -4.9807507e-16
000070 69 e0 a7 a6 d5 cb cf a5 c3 8d 21 a6 66 f0 4f 26
       -1.1648779e-15 -3.6046898e-16 -5.605022e-16 7.214335e-16
000080 62 33 1f 27 a2 a5 8b a6 fd 9d 99 27 41 4f c5 27
       2.2093537e-15 -9.689957e-16 4.263732e-15 5.476441e-15
000090 07 11 f8 8b f8 f5 07 8b e9 f0 cc 8a a8 04 e2 89
       -9.5551745e-32 -2.61851e-32 -1.9735106e-32 -5.44119e-33
0000a0 e2 69 04 8a 00 72 2b 8a e7 a0 9c 8a af 3f c3 89
       -6.375483e-33 -8.2547915e-33 -1.5082778e-32 -4.700443e-33
0000b0 f9 a7 0a 8a 21 6e 9a 13 06 27 03 90 1e d1 78 16
       -6.6760505e-33 3.898366e-27 -2.5865257e-29 2.0099266e-25
0000c0 61 c7 4f 13 03 ab 90 10 e1 1b 18 95 a0 04 84 92
       2.6225375e-27 5.706147e-29 -3.0718148e-26 -8.331511e-28
0000d0 36 2d 1e 94 60 18 9b 11 bc 1f 0e 0e 99 db d3 0d
       -7.985878e-27 2.446971e-28 1.751813e-30 1.3056745e-30
0000e0 de fe 1e 0e 53 9c c9 0d 9c e0 6d 0d 68 66 c8 0d
       1.9597718e-30 1.2425215e-30 7.3301627e-31 1.2350605e-30
0000f0 5b 6d b6 0d bb 3b 57 0d f1 53 ce 0d fb 02 00 00
       1.1242942e-30 6.632389e-31 1.2715938e-30 1.069e-42
000100 41 04 00 00 04 03 00 80 16 03 00 80 0d 02 00 00
       1.526e-42 -1.082e-42 -1.107e-42 7.36e-43
000110 50 00 00 80 f2 01 00 80 4e 02 00 00 1b 02 00 80
       -1.12e-43 -6.98e-43 8.27e-43 -7.55e-43
000120 6e 15 00 a6 e9 39 c0 26 c2 d3 b5 26 ba 73 9b 27
       -4.4437964e-16 1.3338373e-15 1.2616795e-15 4.3146613e-15
000130 1e 9d ce 27 8f c5 f2 a6 9c 19 09 28 32 ce 9b a4
       5.7346833e-15 -1.6845672e-15 7.610581e-15 -6.756984e-17
000140 f6 5e 77 a7 14 05 00 80 93 00 00 00 9f 00 00 80
       -3.4329614e-15 -1.822e-42 2.06e-43 -2.23e-43
000150 e3 02 00 80 0b 01 00 80 74 03 00 80 bb 00 00 00
       -1.036e-42 -3.74e-43 -1.239e-42 2.62e-43
000160 04 01 00 00 63 02 00 80 be 00 00 00 9c 05 00 00
       3.64e-43 -8.56e-43 2.66e-43 2.012e-42
000170 50 06 00 80 76 02 00 80 74 00 00 80 34 01 00 00
       -2.264e-42 -8.83e-43 -1.63e-43 4.32e-43
000180 3a 00 00 80 55 00 00 80 c0 00 00 00 7c da c3 9e
       -8.1e-44 -1.19e-43 2.69e-43 -2.0736791e-20
000190 a0 6e d4 1f 32 b2 07 20 4c 3e 53 1f 9d bc 43 21
       8.9968506e-20 1.1493905e-19 4.473252e-20 6.63182e-19
0001a0 f7 01 3d 9f 68 33 bc 9e a9 67 40 a2 03 5d 86 20
       -4.0023932e-20 -1.9926535e-20 -2.607573e-18 2.2762033e-19
0001b0 78 04 00 80 4c 06 00 00 76 03 00 80 be 01 00 80
       -1.603e-42 2.259e-42 -1.242e-42 -6.25e-43
0001c0 eb 02 00 00 87 03 00 80 7b 01 00 80 dd 01 00 80
       1.047e-42 -1.265e-42 -5.31e-43 -6.68e-43
0001d0 0f 00 00 00 08 02 00 80 82 00 00 00 a2 01 00 00
       2.1e-44 -7.29e-43 1.82e-43 5.86e-43
0001e0 73 00 00 80 90 00 00 00 69 02 00 80 01 00 00 00
       -1.61e-43 2.02e-43 -8.65e-43 1e-45
0001f0 17 00 00 80 38 02 00 00 d2 47 0f 17 71 e6 71 97
       -3.2e-44 7.96e-43 4.629644e-25 -7.816216e-25
000200 8c 88 b5 98 86 e5 68 99 c8 50 81 98 e2 3c f9 16
       -4.692528e-24 -1.2040471e-23 -3.3427287e-24 4.0266542e-25
000210 91 29 14 98 cd 6d 3a 18 f4 71 06 19 6d 0a 00 00
       -1.9149537e-24 2.4095372e-24 6.95065e-24 3.74e-42
000220 f8 00 00 00 e6 05 00 80 6f 02 00 00 1e 00 00 80
       3.48e-43 -2.116e-42 8.73e-43 -4.2e-44
000230 d6 02 00 80 51 03 00 00 94 01 00 80 1a 01 00 80
       -1.017e-42 1.19e-42 -5.66e-43 -3.95e-43
000240 1d 04 00 80 5d 00 00 00 a2 03 00 00 50 03 00 80
       -1.476e-42 1.3e-43 1.303e-42 -1.188e-42
000250 a0 01 00 80 0c 00 00 00 6f 04 00 80 87 01 00 00
       -5.83e-43 1.7e-44 -1.59e-42 5.48e-43
000260 31 00 00 00 26 84 23 8b f5 fc 82 8b 2f 06 b4 09
       6.9e-44 -3.1492076e-32 -5.0454786e-32 4.333924e-33
000270 43 5c 16 0a 62 4f 1c 0b 49 38 81 0b 49 c5 49 8b
       7.23959e-33 3.0104228e-32 4.977368e-32 -3.8859613e-32
000280 34 a2 14 8b 8f b3 e4 0a d8 02 00 00 b6 04 00 80
       -2.862579e-32 2.2023144e-32 1.02e-42 -1.69e-42
000290 84 01 00 80 82 01 00 80 9d 01 00 00 e9 01 00 00
       -5.44e-43 -5.41e-43 5.79e-43 6.85e-43
0002a0 27 03 00 80 35 02 00 00 b0 01 00 80 fd 06 00 80
       -1.131e-42 7.92e-43 -6.05e-43 -2.507e-42
0002b0 04 02 00 80 50 01 00 00 8f 04 00 00 a5 01 00 00
       -7.23e-43 4.71e-43 1.635e-42 5.9e-43
0002c0 72 01 00 80 5c 03 00 00 d5 01 00 80 9b 02 00 80
       -5.18e-43 1.205e-42 -6.57e-43 -9.35e-43
0002d0 43 03 00 00 ae 02 00 80 7d 04 00 00 c8 00 00 80
       1.17e-42 -9.61e-43 1.61e-42 -2.8e-43
0002e0 c2 02 00 80 71 01 00 80 27 03 00 80 0b 01 00 00
       -9.9e-43 -5.17e-43 -1.131e-42 3.74e-43
0002f0 32 02 00 80 4a 28 83 17 bb 80 8c 17 9a 19 cd 17
       -7.88e-43 8.475847e-25 9.079784e-25 1.3254277e-24
000300 51 65 b3 17 ef 90 9a 17 05 bf 24 18 fe 3a 3a 18
       1.159318e-24 9.988603e-25 2.1292943e-24 2.406972e-24
000310 6d 03 c1 17 fb d8 18 99 f0 04 00 80 8d 01 00 00
       1.2473197e-24 -7.902035e-24 -1.771e-42 5.56e-43
000320 57 00 00 00 fd 03 00 00 ce 02 00 80 53 02 00 80
       1.22e-43 1.431e-42 -1.006e-42 -8.34e-43
000330 ba 01 00 00 90 02 00 00 e2 00 00 80 32 03 00 00
       6.2e-43 9.19e-43 -3.17e-43 1.146e-42
000340 63 06 00 80 22 03 00 80 2f 03 00 00 3a 00 00 00
       -2.291e-42 -1.124e-42 1.142e-42 8.1e-44
000350 25 03 00 00 74 00 00 80 22 02 00 00 09 03 00 80
       1.128e-42 -1.63e-43 7.65e-43 -1.089e-42
000360 16 04 00 80 ee 00 00 80 da 00 00 80 2e 03 00 80
       -1.466e-42 -3.34e-43 -3.05e-43 -1.14e-42
000370 72 01 00 80 c3 00 00 00 ea 02 00 00 8b 01 00 00
       -5.18e-43 2.73e-43 1.045e-42 5.54e-43
000380 48 01 00 80 3b 1d 31 90 29 93 b3 8e a7 f4 4a 8e
       -4.6e-43 -3.4929613e-29 -4.4268617e-30 -2.5016218e-30
000390 4a cb 25 0f cb 46 cb 8e b3 62 ee 0f 9d 7d e2 0e
       8.17428e-30 -5.0111535e-30 2.350663e-29 5.5834263e-30
0003a0 d2 3c 4e 0f 49 15 d9 0f 0d 02 00 80 76 00 00 00
       1.0168298e-29 2.1406051e-29 -7.36e-43 1.65e-43
0003b0 da 04 00 00 7e 01 00 00 45 00 00 80 3f 03 00 80
       1.74e-42 5.35e-43 -9.7e-44 -1.164e-42
0003c0 fb 02 00 00 47 02 00 80 48 01 00 00 a8 eb 04 27
       1.069e-42 -8.17e-43 4.6e-43 1.844643e-15
0003d0 69 25 9c 27 3c b3 15 28 65 e2 a4 a6 3a f7 18 27
       4.333926e-15 8.310027e-15 -1.144115e-15 2.122826e-15
0003e0 4c 81 d4 27 16 f5 1e 27 86 69 72 26 80 77 07 28
       5.8982004e-15 2.2059766e-15 8.4103627e-16 7.519918e-15
0003f0 21 04 00 00 ac 02 00 80 f2 06 00 00 62 05 00 00
       1.481e-42 -9.58e-43 2.492e-42 1.931e-42

bias f4 [64]
000000 58 ff 57 9f f2 fa 94 20 70 1e f6 b7 53 90 11 9f
       -4.5739236e-20 2.5238237e-19 -2.9339659e-05 -3.0824327e-20
000010 49 e3 93 b6 19 98 77 36 6f 05 00 00 0d 7a 36 a1
       -4.407401e-06 3.68944e-06 1.949e-42 -6.182553e-19
000020 f6 01 00 80 34 72 28 b0 ea ec 4a b4 ab c6 df 37
       -7.03e-43 -6.1280336e-10 -1.8898905e-07 2.6676184e-05
000030 0f 8e 64 1f d5 cd 27 b8 87 77 a9 20 f3 e1 d2 36
       4.8398386e-20 -4.00076e-05 2.870881e-19 6.2847917e-06
000040 52 82 91 36 41 b2 1b 20 b8 25 1a 35 1d 46 63 23
       4.336508e-06 1.318799e-19 5.742436e-07 1.2320542e-17
000050 c9 68 73 a9 50 46 4a 36 a9 08 00 00 40 26 16 22
       -5.4047726e-14 3.0141273e-06 3.107e-42 2.034904e-18
000060 9f b6 61 2e 84 5f 34 b6 55 ac d4 82 00 87 a9 37
       5.1321277e-11 -2.6877688e-06 -3.1249514e-37 2.0209234e-05
000070 be dd 70 ab 68 6c 0a a0 f3 8c 92 35 d5 f5 47 b5
       -8.557286e-13 -1.1724923e-19 1.0918869e-06 -7.449101e-07
000080 c2 87 00 36 4c cf b4 b4 df e9 0d 1f f9 bd 78 b6
       1.9152508e-06 -3.367844e-07 3.0051365e-20 -3.7065458e-06
000090 c1 99 0a 22 48 8c 25 37 d7 09 58 34 d9 07 0b 37
       1.8783884e-18 9.867428e-06 2.0120147e-07 8.286873e-06
0000a0 c8 bf 7f 35 9a e8 bc b4 05 9b 1f 9b e0 29 ac b4
       9.527398e-07 -3.518697e-07 -1.3202261e-22 -3.2067965e-07
0000b0 ed ac 22 36 85 aa 43 9f 4b 42 f1 21 60 7e a9 b7
       2.4240537e-06 -4.1433907e-20 1.6348343e-18 -2.0205218e-05
0000c0 65 78 00 38 30 a1 17 33 df 6b 31 b4 24 6c fa 37
       3.0629704e-05 3.5304026e-08 -1.6523653e-07 2.985268e-05
0000d0 d4 fa 6d b7 aa da ca 37 6b 88 58 b4 5b 9d 95 36
       -1.4184701e-05 2.41821e-05 -2.0166196e-07 4.4588646e-06
0000e0 b8 92 83 b3 5c 6e ad 9c 26 10 39 39 19 79 80 36
       -6.126851e-08 -1.1476707e-21 0.0001764899 3.828795e-06
0000f0 30 6a 8a b6 7c b7 c8 2e 26 e7 40 36 6b 8b 05 37
       -4.1250823e-06 9.1275404e-11 2.8744776e-06 7.9598785e-06
