SND_trackers_My_data/9X0_file/9_9X0_coordconv_Label_Va.pt (torch, 467260 bytes, 31 tensors)

weight f4 [32, 9, 3, 3]
00000000: 7272 0a3c 3f49 1a3c a8c7 ef3b 6a90 263c
00000010: cd5a 0e3c 0def d53b 919b d63b 80a8 1b3c
00000020: 25ad 2b3c 6e4a 613a d8ba 1e3b c025 3c3b
00000030: 52cf 3b3b 78a1 bc3a 95c4 7ab9 2dc2 253b
00000040: 12e9 503b e261 9a3a 03d0 19bc 02e8 18bc
00000050: 1243 1abc e79c 17bc ac8b 18bc cecd 18bc
00000060: dd53 16bc 16a1 16bc df50 17bc 0d3e e1ba
00000070: 92f0 f039 06ee ac3a 0d7c 0a3b ce30 523b
00000080: 839a 01ba 2662 413b 2a73 b13a e0ea 01b9
00000090: e79d 033d fcd5 e8bb a727 473c 7ecf 76bb
000000a0: 32f6 253d e802 bbbb 6790 ab3c 7b76 413d
000000b0: 0fc3 813c 494f 123d e56e 59ba 4d34 063d
000000c0: 8056 8f3c 3e0f 013c 6a3a 0abb d4bd 813c
000000d0: 5f6f 083d 1434 bd3c 45a2 e03b 988b ec3c
000000e0: cbe7 043c f72a ab3c b83c 073d 45b3 2f3c
000000f0: e512 073d 2926 d13c d562 183c 4909 053d
00000100: 0f4e 0a3e 4ada 0dbc 2036 07bc 3f4d 9e3c
00000110: 1689 1e3c c7e9 283d 9477 d83c 53f6 e3bb
00000120: 7588 e23c 020e 4f3a 3a38 cc3c 74f8 903d
00000130: 6a77 703c e612 723b 576b 903c 1089 243d
00000140: 1189 543d 0ecd 4f39 47c0 b938 2db0 88b8
00000150: 9df4 04b8 6ed6 8639 927d a8b9 9433 77b9
00000160: 9210 8d39 8409 9ab9 3bd7 06b9 d104 0538
00000170: b428 3838 6408 1d38 d9c2 4c38 c865 fab8
00000180: c696 5938 3059 ba38 abe3 b1b8 0f76 2a36
00000190: 99b0 b335 1c3d 4bb6 0f81 74b5 6666 d235
000001a0: 6235 28b6 d99c 7a36 da51 2836 7967 b3b4
000001b0: 070c d89d 84ef 0120 05b6 a69e 9999 291f
000001c0: 9dd6 cb1e 023f 991f 57be 721f 6b28 a71f
000001d0: f501 e51e 892d a3b6 4f1d 6239 b269 8f36
000001e0: beaf e3b4 f838 9935 6e0a b6b3 0714 de35
000001f0: 8442 6b34 5821 00b4 b96a 113a e9cf 8db5
00000200: 5bfe 7134 abc1 f238 916b 03b5 566e 6db6
00000210: 0768 53b4 b2b6 d6b4 5a36 9837 641c 7835
00000220: 2cc7 89b2 7354 2d33 2002 b233 33f6 5035
00000230: a7d2 2535 e324 b139 88d8 df37 521f aab3
00000240: bc05 8837 183f 54b4 1532 9938 f8a3 6f38
00000250: 6ddb 34b5 b449 2db6 5ae3 a7b4 5202 ac34
00000260: 62e1 ff38 5042 5e34 b06b 4bb4 0f58 8239
00000270: 9467 81b5 baaf 85b6 f1c1 b2b6 7674 69b5
00000280: 49cf ba37 e84f 5c33 246b 6b38 7f59 6638
00000290: ec95 5538 c18f 8a38 ba46 8038 7d89 9538
000002a0: 6e66 6d38 ef8d 7b38 3487 8338 1ca3 3d38
000002b0: 1271 1838 cdf2 2c38 fdb9 7138 8fcd 5c38
000002c0: 52cc 2338 f817 7138 edee 6038 866d 5838
000002d0: ebb5 ccb1 f8e9 dc31 ece1 9632 b067 0132
000002e0: cafa a532 01a8 0233 f80f b232 f095 0a33
000002f0: 7034 3a33 cf3c db19 cd8c 9f99 60b3 7a19
00000300: b713 141a 6900 3596 8bcb 871a d07e ac1a
00000310: 3bb8 a399 2ec0 411a e08c 7435 bfb0 5b36
00000320: 9db5 ab33 d133 ae33 5925 0d35 ef4a 1c37
00000330: 5ffb 2134 621d e430 66f5 1c33 0a1a e4b5
00000340: b86c 1d37 456c 4d32 c081 2738 d3e8 1c34
00000350: 64c6 9233 f98a 04b7 bca3 4ab6 434e a732
00000360: 6f05 6f35 0220 58b5 8241 bb3a 12e9 6634
00000370: 4371 8837 ec29 5eb4 7974 d4b4 bac3 c4b2
00000380: 760d 83b3 5c3e ef39 d170 87b7 25dd a536
00000390: 5fe8 2e38 8d31 aa3a 85da df36 6881 0ab8
000003a0: d93d 72b6 a1dc fbb5 ef5f 1634 1ca4 8e33
000003b0: 3ecc 0a32 367a d233 aced 8f34 724b c832
000003c0: a197 be33 e353 1134 8457 9036 bb25 66ba
000003d0: 3880 98ba 16c9 6dba 7631 6dba 0405 9eba
000003e0: d7ff 92ba a6b9 99ba d404 6eba d7da 8bba
000003f0: 9f48 03bb 2b89 f3ba 9d31 f1ba 5c1d fbba
0.008450137 0.009416877 0.007317502 0.010166267 0.008688641 0.006528741 0.0065493067 0.009500623
0.010478293 0.000859416 0.0024220254 0.0028709024 0.0028657508 0.0014391383 -0.0002391509 0.002529274
0.0031877202 0.0011778439 -0.009387973 -0.009332659 -0.009415405 -0.009253717 -0.009310644 -0.009326411
-0.009175268 -0.009193679 -0.00923559 -0.001718463 0.00045955606 0.0013193495 0.002113107 0.0032072547
-0.00049439835 0.0029507964 0.001353835 -0.00012389896 0.03213301 -0.007105587 0.01215545 -0.0037660296
0.040517993 -0.0057071336 0.02094288 0.047232132 0.015840081 0.035720143 -0.00082944176 0.03276472
0.017497301 0.007877169 -0.0021091946 0.015837587 0.033309337 0.023096122 0.0068552815 0.028875157
0.008111904 0.02089451 0.03301689 0.0107238935 0.032977004 0.025530891 0.009300907 0.03247956
0.1350634 -0.008658001 -0.0082526505 0.019323943 0.0096762385 0.041238572 0.026424207 -0.0069568544
0.027652958 0.00078985107 0.024929155 0.07078639 0.014676908 0.0036937534 0.017629309 0.040169775
0.05188853 0.00019817447 8.857302e-05 -6.517801e-05 -3.1699066e-05 0.00025718234 -0.00032137014 -0.0002357497
0.00026905962 -0.0002938026 -0.00012859415 3.1714157e-05 4.3906926e-05 3.743953e-05 4.8818856e-05 -0.00011939887
5.187725e-05 8.8857836e-05 -8.482424e-05 2.5400693e-06 1.3387936e-06 -3.0284928e-06 -9.108489e-07 1.5676021e-06
-2.5065024e-06 3.73442e-06 2.5081595e-06 -3.3416634e-07 -5.718716e-21 1.1005974e-19 -1.7651215e-20 3.5914195e-20
2.1582223e-20 6.490226e-20 5.140294e-20 7.079412e-20 2.4247128e-20 -4.8630795e-06 0.00021563958 4.2740367e-06
-4.2409914e-07 1.1415968e-06 -8.4769326e-08 1.6546118e-06 2.1910279e-07 -1.193306e-07 0.0005547214 -1.0565828e-06
2.2537408e-07 0.00011575533 -4.895783e-07 -3.5379976e-06 -1.9688751e-07 -3.9993535e-07 1.8145121e-05 9.2428513e-07
-1.6039472e-08 4.0356507e-08 8.2891574e-08 7.7844305e-07 6.177383e-07 0.00033787554 2.6684502e-05 -7.921939e-08
1.6215134e-05 -1.9766992e-07 7.304937e-05 5.713475e-05 -6.737453e-07 -2.582191e-06 -3.1271594e-07 3.2039185e-07
0.00012201328 2.0699486e-07 -1.8945025e-07 0.0002486114 -9.641394e-07 -3.984166e-06 -5.327391e-06 -8.6968737e-07
2.2269453e-05 5.1295416e-08 5.612815e-05 5.4919623e-05 5.0922783e-05 6.607129e-05 6.1166895e-05 7.130483e-05
5.66006e-05 5.997525e-05 6.27175e-05 4.521302e-05 3.634493e-05 4.123412e-05 5.7632093e-05 5.264353e-05
3.9052517e-05 5.74812e-05 5.362828e-05 5.1600415e-05 -5.957863e-09 6.429442e-09 1.7565036e-08 7.532364e-09
1.9322574e-08 3.0420782e-08 2.0729189e-08 3.2266996e-08 4.335419e-08 2.266863e-23 -1.6497084e-23 1.29609216e-23
3.0621608e-23 -1.4621193e-25 5.616353e-23 7.134241e-23 -1.6928215e-23 4.0066706e-23 9.1102083e-07 3.2736423e-06
7.995843e-08 8.111932e-08 5.258094e-07 9.315771e-06 1.5085742e-07 1.6597534e-09 3.654477e-08 -1.6994902e-06
9.383242e-06 1.1957188e-08 3.993674e-05 1.4613333e-07 6.834742e-08 -7.90017e-06 -3.0195652e-06 1.9476948e-08
8.9042345e-07 -8.051285e-07 0.0014286491 2.150521e-07 1.6265205e-05 -2.0690612e-07 -3.9572822e-07 -2.290641e-08
-6.1026114e-08 0.00045632094 -1.6145788e-05 4.943128e-06 4.1701245e-05 0.0012984738 6.671357e-06 -3.3022283e-05
-3.609681e-06 -1.8765169e-06 1.4004739e-07 6.6422416e-08 8.0790965e-09 9.801117e-08 2.6808755e-07 2.3317373e-08
8.8751456e-08 1.3534695e-07 4.3017226e-06 -0.0008779426 -0.0011634892 -0.00090707967 -0.0009048203 -0.0012055938
-0.0011215162 -0.0011728301 -0.0009079699 -0.0010670078 -0.00200323 -0.0018580308 -0.0018401627 -0.001915853

bias f4 [32]
00000000: 4a8d 4dae 4243 b499 4353 3096 e8ae 8e2f
00000010: b53b 07af 3dd9 4db6 3c14 1433 678d a935
00000020: 99af 9734 f65a ff35 8335 c6b3 b4fc 652e
00000030: 3479 9c35 878a 07b6 033f 65b7 b129 bcb6
00000040: 8d24 f2b5 9581 ac2e b125 efa3 2757 b3af
00000050: 79ea 9035 f93d b9b7 d67b c008 584a 5c38
00000060: b7b5 5f36 6da4 812b d321 da20 19f6 c537
00000070: 836d bb36 5fc6 8f1b 230f 9133 64d7 5e33
-4.6737093e-11 -1.8638729e-23 -1.424344e-25 2.5953928e-10 -1.229939e-10 -3.067383e-06 3.447734e-08 1.2632635e-06
2.8253706e-07 1.9025454e-06 -9.229827e-08 5.2293017e-11 1.165818e-06 -2.0197201e-06 -1.3664135e-05 -5.60769e-06
-1.8041043e-06 7.844673e-11 -2.5928395e-17 -3.2621836e-10 1.0797077e-06 -2.2082577e-05 1.1584693e-33 5.2521325e-05
3.3335361e-06 9.211639e-13 3.695302e-19 2.3598828e-05 5.585783e-06 2.378556e-22 6.754842e-08 5.18843e-08

weight f4 [32]
00000000: bca1 393e d8e9 beb8 a88e afb9 1043 a13b
00000010: 4098 603b 5647 8f3e 6605 983e 7509 283e
00000020: 0db8 b83d 2f22 ef3d ffbd 0b3d 4b14 103b
00000030: 120b 0d3e 447c b83d 1101 e53d 6d2d 7a3e
00000040: b07a 243e 66de b53a 42fb 17b8 66d6 843b
00000050: 0c43 943e 162e 463e 0b01 acb5 2e8b bd3e
00000060: bffc 103e e160 b539 3a09 51b6 7fbe df3e
00000070: 5335 323e 28b5 9bb9 7804 283e ca2f 193c
0.18128103 -9.103463e-05 -0.00033484888 0.0049213246 0.0034270436 0.27984113 0.2969162 0.16409858
0.0901948 0.11676442 0.03411674 0.0021984752 0.13773754 0.09008077 0.11181844 0.24431391
0.16062427 0.0013875484 -3.6235208e-05 0.0040538786 0.28957403 0.19353518 -1.2815302e-06 0.37020248
0.14158915 0.0003459519 -3.1148797e-06 0.43700024 0.17403154 -0.00029698876 0.16407955 0.009349773

bias f4 [32]
00000000: c782 2fbe bd5a 5ab7 ae0f 86ba 08ce 6abc
00000010: 8ff3 33bc d11a c3bd 52bd 98be 53d1 16bc
00000020: 27d8 9cbd 251d b4bc f6ef 07bd 9123 15bc
00000030: 341c aebd 3bb5 9a3b dd1a 93bb bc44 423c
00000040: d52b d7bd ba28 59bb 338a c1b9 dd8c 60bc
00000050: 2b4e 44be b642 003b e332 8db7 30c3 b83d
00000060: 82ae 74bb c3d7 05ba d239 05ba 7776 b73d
00000070: c9bf 8f3c cdf8 c3b8 49bf 42be e79d a4bb
-0.17139731 -1.3014939e-05 -0.0010228062 -0.014331348 -0.010983362 -0.09526599 -0.2983194 -0.00920518
-0.07658415 -0.021986553 -0.03318783 -0.009102718 -0.08501473 0.0047213114 -0.0044892863 0.011857208
-0.10506407 -0.0033135847 -0.00036914795 -0.013705459 -0.19170444 0.0019571013 -1.6832206e-05 0.09021604
-0.003733546 -0.00051056984 -0.0005082163 0.08958142 0.017547505 -9.344667e-05 -0.19018282 -0.0050237062

running_mean f4 [32]
00000000: 6ff9 0bbd 4939 8537 9211 3c38 8900 553b
00000010: b688 1b3a 944a 0ebe 44ef 82bd b1b3 b23d
00000020: 3430 8ebb d3c7 d3bd 84e4 763a 2440 85b9
00000030: 9e26 2e3d b4c4 31bc 63d9 ca3d 4d83 323c
00000040: daab e03c d98f 8a38 6092 ee37 4e26 0f3a
00000050: f018 42bd 08e0 9a3d 0c16 0a34 88f1 823c
00000060: 1cc5 7e3d 4ce8 0237 8cd7 a737 69d8 463c
00000070: ccbb a8bc f2bb d837 b026 d5bc aea1 cc3b
-0.034173425 1.5881511e-05 4.4839056e-05 0.003250154 0.0005933152 -0.13895637 -0.063932925 0.0872568
-0.0043392424 -0.10340848 0.0009418207 -0.00025415525 0.042517297 -0.01085012 0.099047445 0.010895562
0.027425695 6.6071465e-05 2.8439972e-05 0.0005460725 -0.047387064 0.07562262 1.2860272e-07 0.015984312
0.062199697 7.80269e-06 2.0008323e-05 0.012136557 -0.020597361 2.5836725e-05 -0.026019424 0.0062448597

running_var f4 [32]
00000000: 2390 c73d 96eb 3135 ccd8 9936 4075 353a
00000010: 368e 1e39 7190 743d 70f2 423e 9fe4 913d
00000020: 3237 f63c 74f8 ba3c 5930 2b3b 5692 7738
00000030: 809e cb3c d474 f13c 78c2 8e3c 9cb8 dd3d
00000040: 8fbe ef3c 723e ff37 3ea5 9435 4791 0339
00000050: 2478 f83d 242c b13c 550d 3f2e 1a89 693c
00000060: cbed f23c 50eb ef33 7620 d535 213c ad3c
00000070: 6b73 9d3d 278a 8037 6503 c23d ff43 e23a
0.09744289 6.628046e-07 4.584994e-06 0.00069220737 0.00015121032 0.059708063 0.19037795 0.07123684
0.030055616 0.02282355 0.0026121347 5.9025675e-05 0.024855852 0.029474653 0.017426714 0.10826227
0.02926567 3.0427447e-05 1.1074951e-06 0.00012547254 0.1213229 0.021627493 4.3440213e-11 0.014253879
0.029654404 1.1172108e-07 1.5879184e-06 0.021146836 0.0768803 1.5323121e-05 0.09473304 0.0017262696

weight f4 [32, 35, 3, 3]
00000000: 96b2 083a 1f24 433a 68de c539 af13 5c39
00000010: 8e66 093a 6122 e239 8794 8f39 2c29 f839
00000020: cd93 de39 1281 d3b8 bbeb 4dba c821 06ba
00000030: 24c7 b039 ac2c 25ba 6044 e2b8 6d75 d2b9
00000040: 3368 5bb9 7c28 51ba 8a54 883c b47a 8e3c
00000050: 49c9 933c 8e91 8b3c dc73 913c eedf 963c
00000060: 3491 8f3c 89d4 953c c78c 9b3c a1d3 533c
00000070: 2fa9 0abc 4659 24bc cbf7 213c 63ea a6bc
00000080: 19ad bdbc fe50 d73c 250f 603c 40ff 8a3c
00000090: 1c55 b234 a00e 8cb4 ddf9 3933 62cb 0134
000000a0: 2858 00b3 ce7d e634 35da 7336 e656 33b6
000000b0: f722 7835 1030 8535 853f 9fb4 cee7 0cb4
000000c0: 2964 9eb2 30f2 a0b5 e824 fcb5 35c3 9f36
000000d0: 8ca4 1035 ce10 51b6 1c89 333a dad6 b3b6
000000e0: 992d 89b9 4a76 873a 1ada 3aba 56b8 17ba
000000f0: 27c4 4a38 4c9b e6ba 0916 6939 a2fd 7f3a
00000100: 43b5 4b39 58e9 2eb9 94fc 8e3a 14ea 0a38
00000110: dc82 ebb8 f24c 2e3b 2b55 913a 74bb 813a
00000120: ca18 a73c 4c3c dbbc 958b 3dbc d536 723c
00000130: 6fe8 31bd d161 c8bc befa 3f3d 9b51 acbc
00000140: 1eb0 1e3c a441 b73c 4f5d ddbb 5abc 9abc
00000150: e0b8 5c3c b561 cbbc 8949 fcbc b8ff b63c
00000160: 3d1a d73b e0f5 653c e05b beb9 a3c0 cebb
00000170: 1cb4 dcbb fa28 713c b48d d33b 74db 7038
00000180: 2b5a 103d dc09 023d 2f1a e43c c9ce c6bb
00000190: 2ec3 06bc 1ce3 39bc acb4 8c3b a242 fcbb
000001a0: db7b a2bb 6674 5f3c b69a 543c fa7d 2b3c
000001b0: 9012 943c 2d58 33bb bd01 deba 62e0 0f3c
000001c0: 3948 22bc c22f 4cbc c814 f13b f694 1dbb
000001d0: 376a ddbb 6a80 723a 4e39 d439 4dba 8bba
000001e0: 157c d33a 4b9a 98ba 715a 37bb 5584 6ebb
000001f0: 4751 6e3a 5a7d 25b9 cb6c 0d38 4d78 b0b9
00000200: 18cf 48b9 4639 0a3a ad27 2ab9 7df9 0839
00000210: 2510 e33a c2bc 7a3a 3908 1b3a 447e 1e3c
00000220: b9c2 84bb 71ae c9bb a2fd d13b b549 70bc
00000230: 0a5b e4bb 7166 0bbb 47c4 c93b 2a9f 2dbb
00000240: 8d08 863c e276 193c 3b5e c03b 0583 023c
00000250: ec5c 503b cc83 7cba 4695 3ebb 2604 09bb
00000260: 655b 63bb a049 12bb da97 9ebb 77fc cbbb
00000270: fb16 e83a 6c71 963c 677f 163c 167f c93b
00000280: 9697 c0bb 6f2f bebb 29ec db3c ef13 a73c
00000290: 60f2 843c 2be3 1c3c 9f96 41bc d754 02bc
000002a0: f3dd d03b 0c8f 1a3b f465 e93c f66a 393c
000002b0: ebae de39 7ad1 dbbb f1fd 7e3b 7b93 e1bc
000002c0: 3d53 a1bc d2a2 bebb b247 60bb e1db 1fbc
000002d0: 67c3 d938 abe5 dbb8 e66f 02b9 0639 ce37
000002e0: 03ff 3fb9 6a90 e2b8 82cb 593a 2452 6039
000002f0: 47bd bc39 32c3 bb33 4e2f aab6 f3b6 86b6
00000300: 9334 0238 afaf 0136 55b0 0237 a8ca 8a39
00000310: 5037 da38 7d78 9838 9702 e038 757b 01b9
00000320: 46e1 afb8 c566 87b8 0c5a cd37 6965 a039
00000330: 5b0a ebb9 ea1a f2b9 4b63 9b39 f241 973c
00000340: 6870 75bc f595 9abc 3b60 623b c50f 43bd
00000350: c7fd 10bd 4f7a 143d 94d1 b33c 461a 853c
00000360: 8a84 3f3c 692f 36bc cfa3 cb3b dc96 d739
00000370: 3591 cb3c ffe6 b73b 0ffc 233d b2b1 043a
00000380: 4656 f03c b33d 8b34 dad0 4d32 daff 42b3
00000390: 237a 3a33 5d5c 8cb2 5d93 0db4 fc36 2136
000003a0: 8c9e f935 8209 09b4 da15 bcba 930f a9bc
000003b0: 246f 0e3c f28e c7bc 9a2c f23c b1bf 1e3d
000003c0: 408e 68bd d88b 66bd ad1d 2dbd 38b4 dc3a
000003d0: 8571 f73b e6e1 a93b cff7 9d3b 99c4 7f3c
000003e0: 7a37 4b3c 00ef 48bb d6cc f53a b4a1 9b3b
000003f0: cc8d 3d37 5c3d 7035 5515 5fb5 ec78 c7b6
0.00052145997 0.0007444042 0.00037740474 0.00020988168 0.0005241417 0.00043131693 0.00027385747 0.00047332922
0.0004245326 -0.00010085305 -0.0007855256 -0.0005116728 0.00033717707 -0.0006300907 -0.000107892556 -0.0004014181
-0.00020924285 -0.000797875 0.016641874 0.017392494 0.018040316 0.01703718 0.017755441 0.018417325
0.017525293 0.018289821 0.018988026 0.012928874 -0.008463188 -0.01003105 0.009885739 -0.020375436
-0.023153828 0.026283737 0.013675486 0.016967416 3.321701e-07 -2.6087673e-07 4.330092e-08 1.2088051e-07
-2.98825e-08 4.2932373e-07 3.6336835e-06 -2.672366e-06 9.243808e-07 9.92326e-07 -2.9662274e-07 -1.3122846e-07
-1.8439168e-08 -1.1991415e-06 -1.8786204e-06 4.7612943e-06 5.388363e-07 -3.1153209e-06 0.0006848739 -5.3596277e-06
-0.0002616465 0.0010334936 -0.00071278366 -0.0005787661 4.8343234e-05 -0.001759389 0.0002222882 0.0009765272
0.00019427114 -0.0001668086 0.0010909014 3.3119766e-05 -0.00011230048 0.0026596156 0.0011088004 0.0009897784
0.020397563 -0.02676215 -0.0115689235 0.014783581 -0.043434557 -0.024460705 0.046869986 -0.021035006
0.009685544 0.022370167 -0.006755508 -0.018888641 0.013471812 -0.024826864 -0.030796783 0.022338733
0.006564407 0.014035672 -0.00036308076 -0.006309585 -0.006735338 0.014719242 0.0064561013 5.742484e-05
0.03524224 0.031747684 0.027844517 -0.006067131 -0.008225245 -0.011345651 0.0042939987 -0.007698373
-0.0049586124 0.013638591 0.012976339 0.010467047 0.018075258 -0.002736579 -0.0016937774 0.008781524
-0.009904915 -0.012462558 0.0073572136 -0.0024045086 -0.0067570466 0.00092507026 0.00040478486 -0.001066038
0.0016135002 -0.0011642663 -0.0027977491 -0.0036394794 0.0009091091 -0.00015782323 3.371834e-05 -0.00033658967
-0.00019150635 0.00052728166 -0.00016227244 0.00013062912 0.0017323537 0.000956487 0.0005914006 0.009673659
-0.004051533 -0.0061548282 0.006408409 -0.014666011 -0.0069688605 -0.0021270777 0.0061574313 -0.0026492574
0.0163615 0.009366723 0.005870608 0.007965808 0.0031793667 -0.00096326764 -0.0029080673 -0.0020907014
-0.0034691927 -0.0022321716 -0.0048398795 -0.0062251645 0.0017707044 0.01836463 0.0091856485 0.006149183
-0.0058774455 -0.0058039944 0.026846008 0.020395247 0.016228855 0.009575645 -0.011815696 -0.007954798
0.0063741147 0.0023583798 0.028490998 0.011317005 0.00042473464 -0.006708321 0.0038908685 -0.027536144
-0.019693011 -0.0058177495 -0.0034222421 -0.009757013 0.00010383763 -0.00010485513 -0.00012439452 2.4583667e-05
-0.00018310179 -0.00010803419 0.0008308218 0.00021392904 0.00035999177 8.743372e-08 -5.071902e-06 -4.0148093e-06
3.104338e-05 1.932476e-06 7.789659e-06 0.00026472402 0.00010405353 7.2703675e-05 0.00010681635 -0.0001234839
-8.386611e-05 -6.456444e-05 2.4479836e-05 0.00030593135 -0.00044830408 -0.0004617789 0.00029637883 0.018464062
-0.014980413 -0.018870333 0.003454222 -0.04762246 -0.03539827 0.036249455 0.02195052 0.01624788
0.011689315 -0.011119702 0.006214596 0.00041120395 0.024849514 0.0056122537 0.040035304 0.0005061879
0.029338013 2.593566e-07 1.1980058e-08 -4.540184e-08 4.3417582e-08 -1.6340147e-08 -1.3185259e-07 2.4022875e-06
1.8598089e-06 -1.2762578e-07 -0.0014349774 -0.02063731 0.00869349 -0.024360154 0.029562283 0.03875703
-0.056776285 -0.05628571 -0.04226463 0.0016838377 0.0075513744 0.0051844 0.004820801 0.015610837
0.012403363 -0.0030660033 0.0018753062 0.004749501 1.12982925e-05 8.9496257e-07 -8.3105016e-07 -5.9447393e-06

bias f4 [32]
00000000: 2a99 0a37 5b95 a636 e56a a837 b019 c92f
00000010: 183b ca36 d138 b9b7 637e 9fb2 901c 7334
00000020: 039d 6135 6306 0080 d73b 83b3 22e9 8935
00000030: 79a0 6b19 a70b 0000 e452 4ab4 06e4 1e38
00000040: 49f4 3e37 2b31 88b1 cfb5 b1b2 2ef2 f1b5
00000050: a1e5 bd24 5d00 0080 25ad 169c 1909 f4ad
00000060: 328b 0eb3 d5da 79b5 cf18 e334 74a7 80b4
00000070: 6f8d 5f1a 4c7b 8038 cf5b 48b3 db79 8db5
8.261102e-06 4.964573e-06 2.0076937e-05 3.657994e-10 6.0269485e-06 -2.2080176e-05 -1.856751e-08 2.264153e-07
8.4047514e-07 -2.291e-42 -6.111048e-08 1.0275146e-06 1.21816224e-23 4.18e-42 -1.8842871e-07 3.78825e-05
1.138176e-05 -3.9637107e-09 -2.0688189e-08 -1.8026383e-06 8.235469e-17 -1.3e-43 -4.985462e-22 -2.7743629e-11
-3.318855e-08 -9.307817e-07 4.2300096e-07 -2.3963696e-07 4.6229568e-23 6.1264815e-05 -4.6649628e-08 -1.0540783e-06

weight f4 [32]
00000000: 8609 023e 20c2 083e 9a3f 863e f370 503b
00000010: 0673 873d 77f0 0e3e 0f9a 4e3d 18dd 423d
00000020: 57aa b33d 17ea e832 d675 ca3a 736c c13d
00000030: 24b6 6cb9 6415 d3b5 b5bd 453c 1f40 123e
00000040: 5343 9f3e 663f 03b9 796c 053d 30a8 143e
00000050: 0ffe b8b2 9709 a034 48b2 5539 778e 1c3a
00000060: ee3d 303d 7c34 383e a899 253d 17fd 343b
00000070: bd00 4a35 346b d23e cf0f 0c3d 415e 123e
0.12698945 0.13355303 0.262204 0.0031805604 0.06613736 0.13958918 0.05043989 0.047574133
0.08772724 2.7114806e-08 0.0015446495 0.09444513 -0.00022574567 -1.572695e-06 0.012069155 0.14282273
0.31106052 -0.00012516751 0.03257415 0.14517283 -2.1535952e-08 2.98093e-07 0.00020379678 0.00059721567
0.04302781 0.17988771 0.04042974 0.0027616674 7.525194e-07 0.41097414 0.034194764 0.14293768

bias f4 [32]
00000000: 3be0 b23c bc0a d33d 3e77 053e 82c1 43bc
00000010: cb0f 043d d2fc 693e 4ee7 8ebd eec2 da3d
00000020: 369a 853d 1e21 17b1 cfd0 ad3b 9c9e 123d
00000030: 8797 63b9 aeb4 64b6 2436 5dbb 48da 893d
00000040: 535d 2c3e ce63 ec3a 5706 21bd 657c 85bd
00000050: 79d0 7238 cd79 85b2 b855 32b7 06f9 c1b9
00000060: b8e8 0abd 20fa e1bd b2e5 963d e559 0c3c
00000070: e297 b6b2 5272 213e 99bc 6abd ef20 3fbe
0.021835437 0.10304782 0.13033769 -0.011947991 0.032241624 0.2285035 -0.069777116 0.10681711
0.06523554 -2.1992217e-09 0.005304433 0.035795793 -0.00021704855 -3.4079817e-06 -0.0033754194 0.06731087
0.16832475 0.0018035115 -0.039312687 -0.06517867 5.789145e-05 -1.5538626e-08 -1.0629585e-05 -0.00036997366
-0.033913344 -0.11034036 0.0736803 0.008566354 -2.1256657e-08 0.15766266 -0.057308767 -0.18664907

running_mean f4 [32]
00000000: 62b2 ad3d 2132 75bb 3504 473c b39d 253b
00000010: ed4d c43c 7d15 c13a 5c2d 90bc f622 44bd
00000020: bc16 8f3d f362 842b 136d 813b 21d8 51bd
00000030: caf3 cb37 2426 c82d 00be a2bc 452a 23bc
00000040: d77d de3d dd0b 62b9 1077 0fbc fb58 5c3c
00000050: 8f91 cf36 5911 0e2d 6f48 a0b2 3253 cfb8
00000060: f815 653c 9eb1 003c 3ef6 59bc d56a 5f39
00000070: 12fc 9432 e157 0abc 665f ebbb bcd0 403d
0.084812894 -0.0037413912 0.012146999 0.0025270998 0.02396294 0.0014731135 -0.017599754 -0.047884904
0.06986758 9.406628e-13 0.0039497702 -0.051231507 2.4313009e-05 2.2754305e-11 -0.01986599 -0.009958808
0.10863846 -0.00021557459 -0.008756414 0.013448949 6.186026e-06 8.075617e-12 -1.865939e-08 -9.8860255e-05
0.013982289 0.007854847 -0.013303338 0.00021306735 1.7344096e-08 -0.0084438035 -0.0071830032 0.047074065

running_var f4 [32]
00000000: 1564 173c 35a6 cb3b efcf 363c 98c5 4d39
00000010: 4a89 343c 47f3 543c 126c db3b cafd 293c
00000020: 6443 513d 3dca 8320 1738 8539 28dd 3c3c
00000030: 1301 6d32 031c 9429 9592 543a c524 c53b
00000040: 1298 c73c 84f4 d137 53af 733b 25ce e53d
00000050: 4abf b632 dc96 271e f730 9328 f766 1735
00000060: d193 223c 0952 873d d9df 9e3b cb94 b038
00000070: a344 0a28 7130 893c 1204 9b3b a57c fb3c
0.00924017 0.006214882 0.011157974 0.00019623933 0.01101906 0.012997455 0.0066962326 0.010375449
0.05108966 2.2326093e-19 0.00025409527 0.011527337 1.379546e-08 6.5773796e-14 0.00081090006 0.006016346
0.024364505 2.5028603e-05 0.0037183359 0.112209596 2.1274577e-08 8.872103e-21 1.6341514e-14 5.6401717e-07
0.0099229375 0.06607444 0.004848462 8.420049e-05 7.675422e-15 0.016746731 0.00473071 0.030699084

weight f4 [64, 35, 3, 3]
00000000: 9153 4cba fd23 06ba 9cdf 11ba 7fb4 53ba
00000010: ad3b 79ba 169e 43ba e81c 22ba 7d2a 0cba
00000020: acf6 50ba 9ec2 7d39 07fb 343a c605 423a
00000030: e8e2 023a 5b23 4339 2c04 a339 3cfc 273a
00000040: 499f 4939 89b9 5c39 bd0e 203b 4a7a 3b3b
00000050: 82f9 503b ae18 ad3a 157c ea3a 23d6 0f3b
00000060: 11c5 9f39 6263 503a 1d5a a03a cc31 89b8
00000070: f768 41ba fb6f b2ba 95c2 9fba b5ef 843a
00000080: cac0 103a 4a10 05bb 0fa4 583a 04e7 d53b
00000090: 3282 f03a 4ae6 c83a ea26 c33a e7f5 0838
000000a0: 897c 533a c69c 5d3b c3e0 c23a 07c4 f83a
000000b0: a21e c13b 67e0 91bb b253 d8ba 36a3 bcba
000000c0: fe1d e2ba 3f91 eaba 829f 2f3c 5f2d 5bbc
000000d0: db44 16bc e255 183c 54c8 12b7 341e 6a37
000000e0: 6702 f7b6 7e20 bab6 745f 31b7 f9af 97b7
000000f0: bcfa dcb7 1c11 2537 795c 5ab7 9e27 08bb
00000100: 287f 2eba bc3a 18ba 91f3 6aba 9c4d deba
00000110: 1abe adba 060d daba decf cdba 738c f139
00000120: 41d6 bdba 2be6 36bb 9d14 79bb 1c0a 5eba
00000130: f546 d6ba 7e26 8dbb f79a 703a 410e d63a
00000140: ae8d e53a 1d23 be38 7d9a 3239 e413 83b9
00000150: e370 38b8 e382 3639 8d6e a8b9 3602 eb36
00000160: 0036 3b38 82ab 0eba 415f 3cba 63e3 c9ba
00000170: 630a a4ba 9ad5 64ba e376 a7b9 ba2a ecba
00000180: b7d2 cfb9 8106 dbb9 a785 4aba d66c d4ba
00000190: c1e6 8eba aff2 e6ba b075 a9ba db7a d9ba
000001a0: 6372 bfba 48fe 2bbb b793 68ba b882 d33a
000001b0: a301 0080 9a01 0000 3c00 0000 f701 0080
000001c0: 3801 0080 1333 0080 d201 0000 8f4e a100
000001d0: 6faa 2681 1162 11b9 a16f 14b9 2a2b c4b8
000001e0: 0cbe 07b9 2b81 97b8 9bf9 ffb8 3c8f 8ab9
000001f0: 9075 49b9 521a 39b9 0486 04ba 3cb6 11ba
00000200: 7891 f4b9 0576 0cba 1001 91b9 bd51 3d3b
00000210: 763f 2bbb 789b b7ba 9601 b139 8797 37ae
00000220: 2b5b 9dae 9c94 94ae be20 6aa9 9784 02ad
00000230: b6be 47b1 c232 0daf 7377 b52e 50e4 f133
00000240: ce86 e3a4 175e 97a7 921b 49a7 7af7 0da6
00000250: bb6f 45a8 66a7 e8a8 7393 fca4 a758 eda8
00000260: 493a a2ac 6c09 7c39 47c6 3839 9dbe 1839
00000270: 7d79 1d39 956f 1839 2973 3b39 ce8e 9238
00000280: 6ed1 7c39 6d4e b039 e224 1b3b ab22 193b
00000290: 8d7b 513b 1acd 933a 910d e83a 23bd 8f3b
000002a0: 0aae 21ba 95c6 963a dfcb 4d3b 7016 4dbc
000002b0: bd56 b2bb 1ee6 d7bb b40b 29bc 19d0 83bb
000002c0: 9a97 503a 4d8e aabc 3340 a1bc efc4 e1bb
000002d0: 99fc 1037 4482 2b37 eced 3037 eedd 2337
000002e0: 064e 4637 4923 b037 d688 c536 c758 0f37
000002f0: 2e8e 70b7 d7f8 b3b9 9012 cab9 958a ddb9
00000300: ef1a 1ab9 a740 eeb9 e231 22ba 3be8 a2b8
00000310: 4078 95b9 ad0d 26ba 1d48 cdba 0978 9eb9
00000320: a358 ebba c42d 4eba 7145 c4ba f859 31bb
00000330: fd9f 2ebb 689c a7ba 97d2 53bb 78ba 3ead
00000340: 069c 3dad 47f8 ddac ff24 6dac 8182 a5ac
00000350: ece3 60ad 03a8 842c 20db 5aab 3133 932c
00000360: 0f21 4084 427a e883 a9be 8106 0ee8 4606
00000370: 5ffe 2e11 f800 5c9b 4fcc e886 7c93 9195
00000380: 265b 0fa1 203f 7f28 d380 85a7 b08c 1da6
00000390: cf9d 96a6 0750 5329 f39c 82ad a1c0 f6a4
000003a0: e761 06ad 2a5d bdb0 c95e 95b5 9525 c9b4
000003b0: 47e2 19b6 d874 44b6 d2af e3b5 f0c7 4bb6
000003c0: 2e18 3fb6 9a34 5eb5 2ca9 b3b6 bba5 a5b9
000003d0: 5e77 bfb8 19e3 15ba 1924 92b9 873d fdb9
000003e0: 1c06 36ba 3558 b2b9 c5c5 beb9 b7b0 7bba
000003f0: edc1 9cba a681 4abb 15f7 7bbb 06ec ffba
-0.0007794435 -0.0005117057 -0.00055646314 -0.0008075907 -0.00095074886 -0.00074622163 -0.0006184117 -0.00053469074
-0.0007971327 0.00024200461 0.0006903861 0.0007401373 0.0004992918 0.0001860982 0.0003109289 0.000640813
0.00019228192 0.00021049952 0.0024422847 0.0028606826 0.0031887 0.0013206208 0.0017889763 0.0021947704
0.0003047367 0.00079493795 0.0012233887 -6.5419445e-05 -0.00073780067 -0.0013613695 -0.0012188727 0.0010142239
0.0005521892 -0.0020303898 0.0008264193 0.0065277833 0.0018349348 0.001532742 0.0014888917 3.265394e-05
0.00080675684 0.0033815368 0.001486801 0.0018979319 0.0058935443 -0.0044517997 -0.0016504435 -0.0014391902
-0.001725137 -0.001789607 0.010719182 -0.0133775165 -0.00917169 0.00929782 -8.748921e-06 1.3954519e-05
-7.3614533e-06 -5.5470146e-06 -1.05722465e-05 -1.8082546e-05 -2.6342801e-05 9.83875e-06 -1.3015343e-05 -0.0020775567
-0.0006656521 -0.0005807092 -0.0008962686 -0.0016960385 -0.0013255507 -0.0016635961 -0.0015702208 0.00046071745
-0.0014483408 -0.0027908187 -0.0038006671 -0.00084701343 -0.0016348051 -0.004307567 0.0009178365 0.0016331152
0.0017513537 9.0664464e-05 0.00017032954 -0.00025001087 -4.3974153e-05 0.00017405632 -0.00032125824 7.003803e-06
4.4634566e-05 -0.0005442427 -0.0007185825 -0.001540285 -0.0012515303 -0.0008729339 -0.000319413 -0.0018018105
-0.00039639111 -0.0004177578 -0.0007725604 -0.0016206752 -0.001090251 -0.0017619933 -0.001292875 -0.00165924
-0.0014606233 -0.0026244093 -0.0008872109 0.001613698 -5.87e-43 5.75e-43 8.4e-44 -7.05e-43
-4.37e-43 -1.8322e-41 6.53e-43 1.4813696e-38 -3.0611665e-38 -0.0001386481 -0.00014155965 -9.354048e-05
-0.00012945401 -7.2243005e-05 -0.0001220584 -0.0002642813 -0.00019212649 -0.0001765278 -0.000505537 -0.0005558466
-0.0004664769 -0.00053581625 -0.00027657347 0.002888783 -0.0026130355 -0.0014008125 0.00033761252 -4.1743966e-11
-7.155728e-11 -6.756659e-11 -5.1986837e-14 -7.419085e-12 -2.9066718e-09 -1.2841908e-10 8.2521455e-11 1.1263967e-07
-9.8673925e-17 -4.201293e-15 -2.79093e-15 -4.9254595e-16 -1.09599245e-14 -2.5829772e-14 -1.0953737e-16 -2.6350733e-14
-4.610788e-12 0.00024036103 0.00017621471 0.00014566859 0.00015017945 0.00014537417 0.0001787661 6.988422e-05
0.00024110611 0.00033627768 0.0023673107 0.002336661 0.003196451 0.0011276335 0.0017704238 0.0043865605
-0.00061675964 0.0011503274 0.0031402034 -0.012517557 -0.005442469 -0.0065887114 -0.010317732 -0.00402261
0.00079571607 -0.020819807 -0.019683933 -0.0068899314 8.641881e-06 1.0222724e-05 1.0545813e-05 9.767229e-06
1.1819886e-05 2.0997266e-05 5.8869873e-06 8.544134e-06 -1.43382185e-05 -0.0003432694 -0.00038542273 -0.00042255656
-0.00014696618 -0.00045443067 -0.00061872427 -7.768018e-05 -0.00028509088 -0.00063344353 -0.001566175 -0.00030225542
-0.0017955493 -0.0007865096 -0.0014974308 -0.0027061682 -0.0026645653 -0.0012787702 -0.0032321566 -1.0841654e-11
-1.077805e-11 -6.308762e-12 -3.3700263e-12 -4.704071e-12 -1.2783535e-11 3.7703187e-12 -7.7753255e-13 4.1836747e-12
-2.2584671e-36 -1.36638035e-36 4.8804557e-35 3.7410148e-35 1.3804564e-28 -1.8198286e-22 -8.7568905e-35 -5.879772e-26
-4.857092e-19 1.4169032e-14 -3.7054587e-15 -5.4660984e-16 -1.0451115e-15 4.6920824e-14 -1.4848988e-11 -1.0701182e-16
-7.638757e-12 -1.3778039e-09 -1.1128951e-06 -3.7466512e-07 -2.2930487e-06 -2.9274288e-06 -1.6963988e-06 -3.0365736e-06
-2.8475292e-06 -8.277799e-07 -5.35431e-06 -0.0003159473 -9.1298236e-05 -0.0005717739 -0.00027874185 -0.00048301762
-0.00069436594 -0.00034016525 -0.00036386974 -0.00096012227 -0.001195965 -0.003090003 -0.0038446833 -0.0019525297

bias f4 [64]
00000000: 8597 3538 6793 8f15 8a96 b933 eeb0 c8b5
00000010: b850 58b5 025d 4f36 60c0 3c2c a84c 8cb4
00000020: d903 0080 6aac 82af f3b7 0faf e43f a283
00000030: aa59 cb1b 3201 0080 8aee dd30 1006 0000
00000040: a003 0080 93e7 6234 342d 51b1 3105 0080
00000050: 6f6b 56b5 9d9d 3a2f 91a7 2e2f 19f3 872d
00000060: c49c dcb1 8501 0000 b50d 1137 2ecc d5b0
00000070: ee4f 8834 4f03 0080 2b08 0000 ffda bf33
00000080: 2383 9d0d 020c 6e32 2aee fb36 dc3c 8c8f
00000090: 25c8 2834 3dfe 1f34 540c 2135 15c0 8834
000000a0: 0da0 c4b6 624e d434 3108 0080 29c6 bb37
000000b0: 5352 9435 d708 0000 cd02 0000 1cec 801c
000000c0: 7249 a584 fc4a 0c32 4fa7 e7b1 315f 22ae
000000d0: 76ee 87b5 03c2 081c 0522 a6b2 b5a7 821c
000000e0: c30f b233 9701 c330 c841 0000 c3f6 822f
000000f0: a582 2a36 cefa 9828 c9ae b6b3 d8c1 45b2
4.3294876e-05 5.79898e-26 8.642117e-08 -1.4952655e-06 -8.058373e-07 3.0899541e-06 2.6823196e-12 -2.6132807e-07
-1.38e-42 -2.376937e-10 -1.3071126e-10 -9.536173e-37 3.3641477e-22 -4.29e-43 1.6147663e-09 2.175e-42
-1.3e-42 2.1132136e-07 -3.0439198e-09 -1.862e-42 -7.987755e-07 1.6972597e-10 1.588474e-10 1.545568e-11
-6.420665e-09 5.45e-43 8.645865e-06 -1.5555821e-09 2.539013e-07 -1.187e-42 2.93e-42 8.933966e-08
9.707442e-31 1.3856154e-08 7.508109e-06 -1.3828508e-29 1.5719031e-07 1.490052e-07 5.9995114e-07 2.5471732e-07
-5.8598876e-06 3.9545108e-07 -2.939e-42 2.2384413e-05 1.1050819e-06 3.171e-42 1.005e-42 8.531362e-22
-3.8858762e-36 8.166122e-09 -6.7420056e-09 -3.6919082e-11 -1.0127685e-06 4.524938e-22 -1.9340414e-08 8.64603e-22
8.291638e-08 1.4188569e-09 2.3598e-41 2.3822197e-10 2.540802e-06 1.698416e-14 -8.506829e-08 -1.1510984e-08

weight f4 [64]
00000000: d31a 8d3c 0a49 0d37 2e21 463c 925c 9c3e
00000010: 78c6 663c 933e 733e 89c7 8237 f3ee 0b3d
00000020: efde 7036 f493 a43a 63a2 d939 155c 6b35
00000030: 5abf bf38 9b52 0636 e315 813b 633c 8637
00000040: 55bd 0f34 420a 2c3c bc2f db3b e959 dd32
00000050: d63b 7839 0720 673a 945e ad3a 0fc8 5f3a
00000060: 27fc 2e3a 126a 0236 fa5f b43e 1f1c ed3b
00000070: f80f a43d 9fd8 ce32 3e07 3933 cedd 233c
00000080: 8028 4f36 846f 0d3d 3539 6f3e 9355 5637
00000090: e7f6 e73b d34b 4f3d 07b6 3837 e52c 553d
000000a0: f72b 423e 3337 4a3e 530e 6037 9e14 893e
000000b0: 378c 3238 ca00 a933 9f09 e735 adcc 4139
000000c0: 897d 5736 9429 e33b 030a 103b 24de 5339
000000d0: 2c2a 013e 018b 3439 47f9 353d 2187 8139
000000e0: ee48 5d3d 350b ed3b 7484 6538 2dfc 4e39
000000f0: 043f 5a39 77f8 3336 836b 1a3e 13c4 0b3c
0.017224705 8.421261e-06 0.012092872 0.30539376 0.014085405 0.23754339 1.5590123e-05 0.034163427
3.5892551e-06 0.00125563 0.00041510453 8.767832e-07 9.143232e-05 2.0015639e-06 0.0039393767 1.6002165e-05
1.3386791e-07 0.0105004925 0.00668904 2.5768673e-08 0.00023673414 0.0008816723 0.0013227039 0.0008536586
0.0006675147 1.943325e-06 0.35229474 0.0072360183 0.08010858 2.4080064e-08 4.3080256e-08 0.010001613
3.0868978e-06 0.034530178 0.23361667 1.2775318e-05 0.0070789936 0.05060942 1.1009636e-05 0.052044768
0.18962084 0.1974762 1.3354776e-05 0.26773542 4.2569092e-05 7.869819e-08 1.7213641e-06 0.00018482162
3.2110568e-06 0.0069324467 0.0021978624 0.00020205282 0.12613744 0.0001721792 0.044427183 0.00024705476
0.05402463 0.007234002 5.472121e-05 0.00019739634 0.00020813575 2.6817704e-06 0.15080075 0.008530634

bias f4 [64]
00000000: d156 e23c acbb dfb0 fb8e 6e3b faba 5c3e
00000010: ccc8 093d d4dd 1b3e d458 093a b407 363c
00000020: c363 51b1 bd07 a3ba 0f1f 8d38 9e38 9db0
00000030: 0530 cab6 2a92 13b0 56f8 16bc 8a0e 16b1
00000040: c46d b8b0 6181 ee3c 6643 f23b bc0c c9ad
00000050: 4225 1339 b54f 14bb f87d c9ba 2159 0cbb
00000060: 2a6d 5f3a 9883 13ae 75a5 623e 094b 2bbc
00000070: adbb 67bd dc24 29a7 c76a 3eaf 50b8 c43c
00000080: 027d dfb5 ff9c 28bd aa36 923d 238d e4b2
00000090: 0b61 0d3d 2564 68bd 4e7a 9fb7 0035 bfbb
000000a0: bedf f43d afee bfbd 3636 5bb2 08d3 0e3e
000000b0: 0aed b337 20be f4b0 807d dcae 24b9 72b9
000000c0: 3c21 ddb0 899a e7ba da55 fd3c efff c038
000000d0: 0400 043e fdb4 09b8 db45 8a3d 1b77 95b8
000000e0: e44e f2bc 6d8a 81bc fa9e 36b5 be55 e138
000000f0: 9964 2eb7 a12d d7ae 930f 35bd 7b85 55bc
0.027629288 -1.6278725e-09 0.003640114 0.21555701 0.03363876 0.1522134 0.00052393717 0.011110235
-3.047021e-09 -0.0012438219 6.729189e-05 -1.1439345e-09 -6.0256593e-06 -5.3686e-10 -0.009214481 -2.1836137e-09
-1.3418959e-09 0.029114427 0.0073932884 -2.285671e-11 0.00014032892 -0.0022630517 -0.0015372625 -0.002141543
0.00085230416 -3.354081e-11 0.2213343 -0.0104549015 -0.056575466 -2.3473443e-15 -1.7318334e-10 0.024013668
-1.6651177e-06 -0.04116535 0.071393326 -2.6606875e-08 0.034516376 -0.05673613 -1.901123e-05 -0.0058351755
0.11956738 -0.09371697 -1.2759804e-08 0.1394769 2.1448843e-05 -1.7807373e-09 -1.0026735e-10 -0.00023147889
-1.6089312e-09 -0.0017669956 0.030924726 9.202945e-05 0.12890631 -3.2831904e-05 0.06751605 -7.127059e-05
-0.029578634 -0.015813077 -6.8031625e-07 0.00010744807 -1.039463e-05 -9.7851734e-11 -0.044204306 -0.0130323125

running_mean f4 [64]
00000000: 1dca e539 4d56 042f f2bb 113d ab25 eb3c
00000010: c5ff 953c 2792 9a3c 961a 9339 ff79 dc3c
00000020: 85f3 b9a6 c336 ef38 6d2e ba37 3336 4733
00000030: b30e 5f33 c65e daa9 67f9 bf3b fb02 b3aa
00000040: c515 512c 5532 e2bb 68dc 973b 00e9 222d
00000050: 6b2d 8438 5d41 623a 2645 9ab8 a6db c939
00000060: bf3d 383a 553b 27a5 e70c 8a3c f098 143b
00000070: 88b7 633d 6362 ce24 eb68 f52d 1066 3d3b
00000080: 6431 2e35 498d 363d 7486 3d3d 79ef 812d
00000090: 0efd 223c 190d e43c 0021 a937 b534 1dbd
000000a0: 9d0d dabc ee5b a63c 6ce9 22ab b4e0 233d
000000b0: 9304 b736 4d8c 002e 37e4 40a8 8f54 8936
000000c0: f6c4 052e 219b 753b 96aa 143b 9b48 a038
000000d0: 333f 61bc 4ae3 3a34 ff04 b73c ba37 6c35
000000e0: b9d9 de3c 4c9e 653c 6805 98ad 0e40 71b7
000000f0: 7174 a833 ab47 8ba8 6039 bc3d b54d d33b
0.0004382887 1.203599e-10 0.03557963 0.028704485 0.018310437 0.018868519 0.00028057833 0.026913641
-1.290296e-15 0.00011406608 2.2194547e-05 4.6382592e-08 5.1934602e-08 -9.6975853e-14 0.0058585885 -3.1798856e-13
2.971277e-12 -0.0069029727 0.004634429 9.26037e-12 6.30271e-05 0.00086309557 -7.356172e-05 0.00038501358
0.0007028244 -1.4505043e-16 0.016851855 0.0022674166 0.05559495 8.950493e-17 2.7899868e-11 0.0028899945
6.4891924e-07 0.044568334 0.046270803 1.477195e-11 0.009948028 0.027838277 2.0161737e-05 -0.038380343
-0.02661782 0.020307507 -5.78779e-13 0.040009215 5.4543575e-06 2.9228443e-11 -1.0707627e-14 4.092762e-06
3.0415635e-11 0.0037476497 0.0022684685 7.642918e-05 -0.013747978 1.7405287e-07 0.02234125 8.7997944e-07
0.027203428 0.014014792 -1.72828e-11 -1.4379633e-05 7.84429e-08 -1.5463181e-14 0.09190631 0.0064484724

running_var f4 [64]
00000000: 1f90 6439 5c95 c11e 7642 4a3a cda0 803c
00000010: e09d a53a b038 6a3c 7410 d134 f753 f53a
00000020: 1486 2a0e 1c5b 7b35 4ba2 2432 8ea8 822a
00000030: 7db8 8627 cc86 9b16 4862 8538 4ac9 f515
00000040: 2cd5 a21c 9a50 6139 44ae 3239 2930 7d1e
00000050: 16ba 0532 7040 e835 5211 3935 3b06 d334
00000060: d62f 4435 2845 e80a 095f 833b c928 ec38
00000070: 31bd 393c cc2a 9e0d faf6 0920 a69d c139
00000080: 3ff7 232e 8273 6e3b abab 1b3b 8bd2 be1b
00000090: aa99 0d3a e1ac c33b fb72 8c33 cbad 723b
000000a0: b25f 393c 8e76 dd3c 0b55 ca16 e15f 123b
000000b0: 346f bc2e 72cf 3421 e764 0e11 eabf a230
000000c0: 59d2 d21c 0bb8 053a 38a0 2c3b 4b7c 3b32
000000d0: c8c3 053b 145c 942b 20e0 cb3a 1824 882b
000000e0: bc8b 183c 71c4 b839 0561 e31b e340 3a31
000000f0: 5754 9629 6168 8511 8767 973c cdc9 bd39
0.00021797464 2.0496443e-20 0.0007715592 0.015701676 0.0012635551 0.014295742 3.8941255e-07 0.001871704
2.1018674e-30 9.363737e-07 9.5829575e-09 2.3209597e-13 3.7392494e-15 2.512667e-25 6.3602405e-05 9.927229e-26
1.0775364e-21 0.00021487699 0.00017040322 1.3403668e-20 7.78393e-09 1.7304101e-06 6.8943075e-07 3.9306346e-07
7.30853e-07 2.2366801e-32 0.004009132 0.00011260954 0.011336611 9.747805e-31 1.1686069e-19 0.00036929286
3.7281508e-11 0.0036384766 0.0023753445 3.1568923e-22 0.0005401621 0.0059715365 6.540173e-08 0.0037029858
0.011314319 0.02703407 3.268853e-25 0.002233498 8.569004e-11 6.1260924e-19 1.1232918e-28 1.1841597e-09
1.3951008e-21 0.0005100972 0.0026340615 1.09130935e-08 0.0020410884 1.0541589e-12 0.0015554465 9.673399e-13
0.009310659 0.00035241575 3.7616697e-22 2.7103446e-09 6.675969e-14 2.1048029e-28 0.018481983 0.00036199242

weight f4 [64, 67, 3, 3]
00000000: 2727 880a d4d6 810a fc54 860a c030 7d0a
00000010: d0c5 820a 7407 7d0a 81ad 7e0a ad08 7d0a
00000020: 4ef9 7c0a fc49 d007 2551 d007 a843 cd07
00000030: 17b1 cc07 2f67 cc07 a97c cc07 0b9d cd07
00000040: d0f9 cc07 eb26 cd07 0300 0000 d101 0000
00000050: 4700 0000 f401 0000 7d01 0080 c500 0080
00000060: 1601 0080 7101 0000 8701 0000 e900 0080
00000070: c8fa 0100 a401 0000 7c01 0000 f3a3 1381
00000080: e600 0000 8901 0080 61db 1680 ac00 0000
00000090: f301 0000 cf00 0080 a402 0000 ccfe 2883
000000a0: 6b03 2b80 2051 5581 3461 1f00 5b0e 6905
000000b0: 9c56 3d07 5100 0080 f202 0000 1b1b 0080
000000c0: aca2 1480 1346 0700 8872 0500 7305 0080
000000d0: 2d72 7982 1be3 e68a 6e01 0080 5485 4280
000000e0: 578a 5101 1698 0000 5045 8d01 c6fd ed83
000000f0: 63e7 2c01 bd76 db86 170d 4386 c500 0000
00000100: 8115 0000 5a12 0500 e824 0000 dd0b 0480
00000110: b7f9 de81 9000 0080 d2e6 4380 0303 0c83
00000120: 3102 0000 3488 2b80 8397 0000 a002 0080
00000130: 5a06 b581 8428 0f05 fb40 2f02 1eb3 fc86
00000140: 4a95 c004 2001 0080 b400 0080 3d00 0000
00000150: 3f01 0000 bc01 0000 0100 0000 6800 0000
00000160: 2e01 0080 f400 0080 6fda 0080 5a09 1a80
00000170: 800a 0180 be7b 0100 bf31 0b00 7214 0180
00000180: 5b07 0080 ce69 1080 c38e bf01 7300 0000
00000190: b501 0000 fc00 0080 2100 0080 4200 0080
000001a0: 87be e200 bb08 0080 a32f 4d84 98e1 3d81
000001b0: 1001 0080 2501 0000 7a1a 0080 2205 0080
000001c0: 443b 0000 7b2e 0200 0f31 0000 c74c 8400
000001d0: 5191 0400 1f01 0080 f100 0000 1f09 0000
000001e0: bd00 0080 821e 0480 1b27 0080 1583 0300
000001f0: a151 0989 88e5 a28c 9901 0000 6400 0080
00000200: eb00 0000 0c00 0080 f701 0000 3300 0080
00000210: b901 0080 7902 0000 a900 0080 b200 0080
00000220: ff00 0080 7001 0000 c001 0000 984b 0080
00000230: 21ca 0f80 1b72 0000 ddbf 8e84 e0b9 5580
00000240: c601 0000 dc00 0000 1405 0000 e501 0080
00000250: 3263 c601 0a22 0400 2f01 0080 5f2b 2706
00000260: 6214 9186 ea08 0080 a300 0080 6905 0000
00000270: ae2d 0000 2c00 0000 0101 0000 2900 0000
00000280: 5c38 0000 af13 0000 fd01 0080 8627 3b01
00000290: c2f6 0000 713f 0100 2399 2800 2b75 0c80
000002a0: e74e 0880 e5a7 eb83 8398 a401 5400 0080
000002b0: 4601 0080 8001 0080 3500 0000 6d00 0080
000002c0: b600 0000 6b01 0000 0600 0080 3301 0080
000002d0: de00 0000 250a 0000 1d00 0000 331b 6800
000002e0: 651f 1700 20fd 6480 3d01 0080 1f8d 2c80
000002f0: 103f d780 da0c 0080 32a5 d203 f846 0000
00000300: 1804 0080 f365 0180 b7a5 0b00 5e82 0080
00000310: fa5c 3380 7128 3b03 2400 0000 e800 0080
00000320: 8e01 0000 5800 0080 9a01 0000 4102 0080
00000330: bc00 0000 6100 0080 0500 0080 3931 0080
00000340: b62c 1780 a2d9 0080 ca24 0580 9600 0080
00000350: 2226 0000 d5a9 0080 36bd 0200 f23f 2280
00000360: 1004 0080 0e01 0000 4848 0080 4020 0000
00000370: 1501 0080 f1d0 0080 4701 0000 8002 0400
00000380: a3be 0180 be00 0000 ff42 5d00 02db 0780
00000390: fbd5 1280 7f00 0000 6f19 0100 e24b 0080
000003a0: 0fc9 0700 1745 0f80 c506 0080 4d1e 0000
000003b0: b7ec 0200 512a 0c00 b333 0000 4d4f 1b80
000003c0: 944a 0100 9873 2380 9c53 ea00 fc0b 0080
000003d0: 3b48 0080 5f9b 0080 1e01 0080 e59d 0280
000003e0: ba4d 0600 6360 0080 078d c300 ddd4 4382
000003f0: f001 0000 f201 0000 1e2d 0000 8301 0000
1.3111051e-32 1.2503058e-32 1.2935698e-32 1.2190676e-32 1.2592953e-32 1.2182909e-32 1.22622876e-32 1.21831386e-32
1.2180248e-32 3.1339846e-34 3.1344054e-34 3.0884737e-34 3.0798593e-34 3.0755154e-34 3.0767777e-34 3.0937273e-34
3.0841335e-34 3.0867846e-34 4e-45 6.52e-43 1e-43 7e-43 -5.34e-43 -2.76e-43
-3.9e-43 5.17e-43 5.48e-43 -3.27e-43 1.81799e-40 5.89e-43 5.32e-43 -2.7117264e-38
3.22e-43 -5.51e-43 -2.099079e-39 2.41e-43 6.99e-43 -2.9e-43 9.47e-43 -4.9663255e-37
-3.950152e-39 -3.9180126e-38 2.88177e-39 1.0958244e-35 1.4244232e-34 -1.14e-43 1.057e-42 -9.724e-42
-1.895066e-39 6.67986e-40 5.00264e-40 -1.955e-42 -1.8326398e-37 -2.2233622e-32 -5.13e-43 -6.108972e-39
3.848649e-38 5.4558e-41 5.189468e-38 -1.3987872e-36 3.1757423e-38 -8.2553114e-35 -3.668504e-35 2.76e-43
7.714e-42 4.65761e-40 1.324e-41 -3.71598e-40 -8.1908244e-38 -2.02e-43 -6.235781e-39 -4.114576e-37
7.86e-43 -3.997787e-39 5.4352e-41 -9.42e-43 -6.6498013e-38 6.731269e-36 1.2875618e-37 -9.5055054e-35
4.5276083e-36 -4.04e-43 -2.52e-43 8.5e-44 4.47e-43 6.22e-43 1e-45 1.46e-43
-4.23e-43 -3.42e-43 -7.8359e-41 -2.391078e-39 -9.5602e-41 1.36226e-40 1.028036e-39 -9.917e-41
-2.639e-42 -1.507324e-39 7.036717e-38 1.61e-43 6.12e-43 -3.53e-43 -4.6e-44 -9.2e-44
2.082317e-38 -3.132e-42 -2.4119508e-36 -3.4875673e-38 -3.81e-43 4.1e-43 -9.498e-42 -1.841e-42
2.126e-41 2.00345e-40 1.7599e-41 1.2149828e-38 4.19472e-40 -4.02e-43 3.38e-43 3.272e-42
-2.65e-43 -3.78286e-40 -1.4028e-41 3.2253e-40 -1.6529157e-33 -2.5098196e-31 5.73e-43 -1.4e-43
3.3e-43 -1.7e-44 7.05e-43 -7.1e-44 -6.18e-43 8.87e-43 -2.37e-43 -2.5e-43
-3.57e-43 5.16e-43 6.28e-43 -2.7118e-41 -1.450043e-39 4.0933e-41 -3.3560238e-36 -7.872697e-39
6.36e-43 3.08e-43 1.822e-42 -6.8e-43 7.287605e-38 3.79553e-40 -4.25e-43 3.1441073e-35
-5.457289e-35 -3.198e-42 -2.28e-43 1.941e-42 1.6387e-41 6.2e-44 3.6e-43 5.7e-44
2.0218e-41 7.061e-42 -7.13e-43 3.4374832e-38 8.852e-41 1.14594e-40 3.728355e-39 -1.144058e-39
-7.62989e-40 -1.3850605e-36 6.046293e-38 -1.18e-43 -4.57e-43 -5.38e-43 7.4e-44 -1.53e-43
2.55e-43 5.09e-43 -8e-45 -4.3e-43 3.11e-43 3.639e-42 4e-44 9.560649e-39
2.123479e-39 -9.274354e-39 -4.44e-43 -4.091387e-39 -1.9767254e-38 -4.61e-42 1.2380618e-36 2.5459e-41
-1.469e-42 -1.28408e-40 1.069638e-39 -4.6767e-41 -4.716964e-39 5.5000785e-37 5e-44 -3.25e-43
5.58e-43 -1.23e-43 5.75e-43 -8.09e-43 2.63e-43 -1.36e-43 -7e-45 -1.7658e-41
-2.128256e-39 -7.8072e-41 -4.72375e-40 -2.1e-43 1.368e-41 -6.0924e-41 2.51547e-40 -3.145346e-39
-1.457e-42 3.78e-43 -2.593e-41 1.1569e-41 -3.88e-43 -7.4954e-41 4.58e-43 3.68239e-40
-1.60223e-40 2.66e-43 8.564735e-39 -7.21414e-40 -1.7298e-39 1.78e-43 1.0096e-40 -2.7222e-41
7.14975e-40 -1.402317e-39 -2.428e-42 1.087e-41 2.68588e-40 1.117206e-39 1.8546e-41 -2.508006e-39
1.18589e-40 -3.25571e-39 2.15195e-38 -4.299e-42 -2.5911e-41 -5.5737e-41 -4.01e-43 -2.40313e-40
5.78896e-40 -3.4577e-41 1.7958513e-38 -1.4387426e-37 6.95e-43 6.98e-43 1.6185e-41 5.42e-43

bias f4 [64]
00000000: 5308 0000 6e87 0102 2139 36b2 56dc 6eb7
00000010: e1a6 4f1e f197 0015 c4c0 dc36 b3a0 bfb0
00000020: 220a b3b4 f93a 0d2d 5efe 6e98 6d01 0000
00000030: f8a2 e934 cc34 792f 6321 e1b3 fad3 55af
00000040: 04ee 76b6 1da0 1136 54f2 b1a8 d7d2 e914
00000050: 8904 19b6 fa34 f988 963d c42f 8806 0000
00000060: b402 0000 f5dc 07aa 369f 4136 8b62 6bb6
00000070: ff99 2eb5 844f ae34 11d1 cda9 d803 0080
00000080: 1126 8e32 f7db 6135 c272 9234 b7d0 48b3
00000090: 0902 0000 b41d 0080 067a 0035 19b5 da2e
000000a0: 0e9a 1088 e00a 0080 d607 0080 f808 0080
000000b0: 1cff 091f 4067 482a d8e5 2ab7 ce09 a92b
000000c0: b29a 2533 ac5d e837 20a2 0c93 07d0 0d35
000000d0: 6c02 0000 8446 cb0d 9302 0000 42a2 99b0
000000e0: 0502 d231 ef5a a019 eddd 38af 630a c22f
000000f0: e870 d4ad 5b1d 15b5 2108 0000 a525 a337
2.986e-42 9.51629e-38 -1.0606784e-08 -1.4237206e-05 1.09929985e-20 2.5969255e-26 6.578952e-06 -1.3942753e-09
-3.334872e-07 8.028017e-12 -3.0889202e-24 5.11e-43 4.3518207e-07 2.2665175e-10 -1.0483452e-07 -1.9447546e-10
-3.67954e-06 2.1699882e-06 -1.975604e-14 2.361015e-26 -2.2801416e-06 -1.4998597e-33 3.5695952e-10 2.343e-42
9.7e-43 -1.2067069e-13 2.8851914e-06 -3.5075088e-06 -6.5044145e-07 3.246788e-07 -9.140096e-14 -1.379e-42
1.6548286e-08 8.413912e-07 2.7278116e-07 -4.6755954e-08 7.3e-43 -1.0655e-41 4.7861283e-07 9.945662e-11
-4.3514514e-34 -3.901e-42 -2.811e-42 -3.217e-42 2.92219e-20 1.779939e-13 -1.0186304e-05 1.2010894e-12
3.855775e-08 2.7700175e-05 -1.7750418e-27 5.282931e-07 8.69e-43 1.2527817e-30 9.23e-43 -1.1178332e-09
6.112034e-09 1.658034e-23 -1.6813546e-10 3.5295775e-10 -2.415175e-11 -5.5549543e-07 2.916e-42 1.9448644e-05

weight f4 [64]
00000000: 7ef5 8b34 abb6 b538 0f48 fb3b be7d a63e
00000010: f7ef b63a 86f3 2f39 d12a a93e e7ed c63b
00000020: 80ad 363e 69c1 063b 74b4 a238 d326 5333
00000030: 0fb4 d23d d378 d83b d852 9f3b ac13 743b
00000040: 45cf bb3e ea72 913e 72cb f135 6a72 ae3a
00000050: 59a9 dc3e 9b12 033a 64d6 dd3b 8f55 5e34
00000060: 40f2 a137 00a1 493a 0698 293e 8f68 5b3e
00000070: 6d42 743d 1f9c 2a3d fa9b fe39 a6e5 8533
00000080: 8ddf c03c 6962 143e 5a31 e23a 6591 973c
00000090: d4af 6737 90a9 3637 ae6a a83e 2e34 633b
000000a0: b174 3e39 c0a5 7632 e6fd dc33 5748 ba34
000000b0: e211 5439 d887 a73a 27e4 a13e e884 483c
000000c0: 2fea 133e 22af 4236 8d9f e736 eb22 453d
000000d0: 1cd3 6333 1b86 1d38 8503 4534 4d68 d63b
000000e0: 1088 b63c 07e7 e43a 39eb 863b c988 9e3b
000000f0: ab8e 283a ac09 c33d 2168 1336 e8a4 403c
2.6069387e-07 8.664777e-05 0.007668502 0.3251781 0.0013957013 0.0001678002 0.3304048 0.0060708406
0.17839622 0.0020562059 7.758374e-05 4.9162576e-08 0.1028825 0.0066062002 0.0048621707 0.003724317
0.36681572 0.28407985 1.801511e-06 0.0013309245 0.43097952 0.0005000026 0.006769942 2.0706487e-07
1.9305502e-05 0.00076915324 0.16561899 0.21426605 0.05963366 0.041652795 0.00048562867 6.235068e-08
0.023544097 0.14490665 0.001725714 0.018501947 1.3809611e-05 1.0887525e-05 0.3289389 0.0034668553
0.00018163283 1.4356772e-08 1.0290732e-07 3.4697834e-07 0.00020224557 0.0012781573 0.3161938 0.012238719
0.14444803 2.9010193e-06 6.9029106e-06 0.048129003 5.304456e-08 3.7556612e-05 1.8348335e-07 0.0065431953
0.022281677 0.0017463871 0.004117396 0.0048380834 0.00064299506 0.09523329 2.1965318e-06 0.011758067

bias f4 [64]
00000000: 393e 88aa fc2e 01b6 4dda 7bbc c49c cc3c
00000010: bdc8 17ba 88d3 a4b8 d4f8 e9bd 81b3 adbb
00000020: 01ff e1bc 33e3 4bba 1649 f7b6 9f36 b4b2
00000030: 2940 55bd d5e7 15bc e05d bebb 93ab b5bb
00000040: 5be6 933d c323 13be 059f ca39 2bd2 dcb9
00000050: 9f12 6ebd 332c 99b8 0e53 bdbb 66d4 16ad
00000060: 5215 bab4 e791 8db9 ed0d a6bd 35a2 8cbd
00000070: 4f30 14bd 22bf e0bc 363e dab9 2404 c6ab
00000080: 4ff3 e4bc 351a 4bbd 0419 86ba 82ae dcbc
00000090: ad3d 21b3 c4e0 bab3 88bf b53c 9314 15bb
000000a0: bb8c 35b7 1a1c 48af 9ef8 16ac 2c33 48b6
000000b0: b32e 6eb8 bef5 d9b9 a56d 26bd 643f 0dbc
000000c0: bda8 2e3c a24f 13b7 23f9 a4b5 8d18 f4bc
000000d0: 6fdf 63b3 2628 5db4 9ccb 9ab5 a295 1bbc
000000e0: c2a8 77bc 6274 30ba 8698 42bb 231f 09bb
000000f0: b2a9 f0b7 3e16 67bd cc40 5fb1 a1da 23bc
-2.420163e-13 -1.9249846e-06 -0.015371871 0.024977095 -0.0005790105 -7.85953e-05 -0.11424413 -0.0053009395
-0.027587416 -0.0007777691 -7.369682e-06 -2.0979597e-08 -0.05206314 -0.009149511 -0.0058095306 -0.005544135
0.07221671 -0.14369111 0.0003864692 -0.00042118257 -0.058123227 -7.303841e-05 -0.005777723 -8.573675e-12
-3.4660712e-07 -0.0002700232 -0.08108125 -0.06866876 -0.036178883 -0.02743489 -0.0004162655 -1.4069895e-12
-0.02794805 -0.04958554 -0.0010230844 -0.02693868 -3.7541827e-08 -8.7021846e-08 0.022186056 -0.002274786
-1.0821207e-05 -1.8199878e-10 -2.1454292e-12 -2.9832108e-06 -5.6787114e-05 -0.00041572558 -0.04063191 -0.0086210705
0.0106603475 -8.780424e-06 -1.229146e-06 -0.029796863 -5.3055768e-08 -2.0596835e-07 -1.1533152e-06 -0.009496124
-0.015115919 -0.00067312096 -0.0029692962 -0.00209231 -2.868925e-05 -0.056417696 -3.2487604e-09 -0.010000856

running_mean f4 [64]
00000000: de30 081b dbe6 c52a 8cde f93b ae2f ac3d
00000010: 2f4a 2237 1a34 7432 b674 343d d1fd a8ba
00000020: 9c7f c43c 8744 d538 9838 5a34 4ab6 c72e
00000030: 5cc0 843d 8c45 36bb a080 30ba b082 993a
00000040: 19d3 c33c caf1 273d 1d82 7636 cfc9 4c34
00000050: e402 e03c c01e c232 59f6 6eba cf14 b728
00000060: a226 8d2b 1cf2 b038 790f a43c 9584 5c3c
00000070: 29c1 1d3c d633 943d e987 3339 b797 e81b
00000080: 544a 35bb eee0 4b3d e6f9 9039 190e d7ba
00000090: 580f 732e 55db 911e 0d46 813d 29b2 ab39
000000a0: 49ba 6433 5edd e72a 52a8 899b 97f9 8536
000000b0: f0d3 5136 4861 9338 871b 5c3c fc93 01bb
000000c0: 1d34 ae3d d59a 9335 ae26 6134 283a e0bc
000000d0: 8933 032d edff 9931 571f 5033 16d6 373b
000000e0: 5b46 49bc 64f1 1b35 70c4 d738 9ecd 8035
000000f0: 3c12 072e f31a 33bb dfe9 a2af c1cb 99bb
1.1265446e-22 3.5154418e-13 0.0076254066 0.08407532 9.673225e-06 1.4214516e-08 0.044056617 -0.0012893026
0.02398663 0.00010169396 2.0323421e-07 9.081853e-11 0.06482002 -0.002781245 -0.0006733034 0.0011711922
0.02390437 0.041002072 3.6732592e-06 1.9072398e-07 0.027345128 2.2598556e-08 -0.0009115688 2.0326106e-14
1.0029375e-12 8.4374304e-05 0.02002691 0.013459344 0.0096285725 0.072364494 0.00017121401 3.8479224e-22
-0.0027662711 0.049775057 0.0002765201 -0.00164074 5.526543e-11 1.5443186e-20 0.06312189 0.000327484
5.3254812e-08 4.1187447e-13 -2.2773523e-22 3.992765e-06 3.126679e-06 7.027626e-05 0.013434297 -0.0019772043
0.085060336 1.0997416e-06 2.096883e-07 -0.027371481 7.457931e-12 4.4819815e-09 4.8457277e-08 0.002805119
-0.01228484 5.809327e-07 0.00010288588 9.596586e-07 3.071164e-11 -0.0027329295 -2.9633804e-10 -0.004693479
