SND_trackers_My_data/9X0_file/9_9X0_coordconv_L.pt (torch_old, 325686 bytes, 25 tensors)

weight f4 [32, 9, 3, 3]
000000 95 63 12 3c 1f fb 81 3c e0 3a 42 3c d0 e8 5f bd
       0.008934875 0.015866814 0.011854857 -0.054665387
000010 51 55 22 3d 53 77 ba bc fe 39 95 bd a9 48 52 bc
       0.039632145 -0.022761976 -0.07286452 -0.012834706
000020 94 06 ca 3c b3 f1 e2 bc 2a 13 d5 bd 44 62 19 3d
       0.02466134 -0.027703142 -0.10404046 0.03744723
000030 87 89 d2 bd bb c0 c5 bc c8 df 93 bd 8f ff af 3c
       -0.102801375 -0.024139753 -0.07220417 0.021484165
000040 f6 9e ce bd fb af 98 bd c4 14 a1 bd 34 7c dc 3c
       -0.10088913 -0.074554406 -0.07865289 0.026914693
000050 50 55 54 bd 6a 35 af bd 96 58 37 bd cb 82 01 3b
       -0.051839173 -0.0855511 -0.044762217 0.0019761797
000060 1b 22 10 bd d7 48 4e 39 89 aa b4 3d 53 78 42 3b
       -0.035188776 0.00019672826 0.088215895 0.002967377
000070 8b 01 4a bd 18 5b d5 bc 28 41 40 bd c4 a7 e5 3c
       -0.049317878 -0.026044413 -0.046937138 0.028034098
000080 07 50 a8 bd 9d d3 49 3d 0c 48 20 3c 42 9b 54 bd
       -0.08218389 0.049274076 0.009782802 -0.051905878
000090 a2 5b b4 3d 1d c8 ad bd 69 f3 c1 bd 2e fd fc 3c
       0.0880654 -0.08485434 -0.09470255 0.030882444
0000a0 c1 48 4e 3d 9c 51 65 bd 2f fb 8f bd 41 59 0e ba
       0.050362352 -0.055986032 -0.07030331 -0.000543017
0000b0 fa 71 24 bd 45 ec 4e bd ea 94 af 3d 0f 0b de bd
       -0.04014776 -0.050518293 0.08573325 -0.10841953
0000c0 0f a9 9c 3d 71 96 89 bd db f4 58 bd 59 c7 8b 3d
       0.07649433 -0.067181475 -0.052967887 0.06825132
0000d0 45 5e c6 bc 61 22 98 3d af 8b b2 bd b5 55 d9 3d
       -0.024214873 0.07428432 -0.08718049 0.106120504
0000e0 b0 7c d2 3d 66 53 3b 3c af 55 91 bd c3 e7 45 bb
       0.102776885 0.011433458 -0.07096421 -0.0030197955
0000f0 f7 a7 37 3d 8d e7 ed 3c f1 3d 18 3d 95 a6 42 bd
       0.044837918 0.029041076 0.037168447 -0.047522146
000100 95 dc bc bd d6 e5 1c bd 37 e2 56 bd ed c8 bc 3d
       -0.0922176 -0.038305126 -0.05246183 0.09218011
000110 28 7d ef bc ed 93 8a 3d 78 42 b7 bb e9 76 11 3d
       -0.029234484 0.06766496 -0.0055926405 0.035513792
000120 78 95 c7 bc 24 f1 93 3d 6a 97 2d 3c 5a 60 a3 bd
       -0.024363264 0.07223728 0.010595182 -0.07977362
000130 fb 5a b0 3d 28 0d 00 bb 70 d4 98 bc b3 78 ee 3c
       0.08611103 -0.0019539092 -0.018655986 0.029110288
000140 b2 ef 94 bd 01 34 b8 bd f8 14 55 bd 90 d7 13 bd
       -0.07272281 -0.08994294 -0.05202195 -0.03609425
000150 1d 47 87 bd d1 2d 4e 3c 42 20 8e bd c6 05 c8 3c
       -0.06605361 0.012584166 -0.069397464 0.024416815
000160 99 cf 52 bd fa c9 a1 bd e9 08 69 3d 61 98 e6 bc
       -0.05146751 -0.07899852 0.056893263 -0.028148832
000170 08 66 f6 bc 98 a0 ea bc ea 6b 07 3d c8 9c bf bc
       -0.03007795 -0.02864103 0.0330619 -0.023390189
000180 03 b0 20 3c 03 f8 bf 3c 80 3c 27 bd ac 11 c0 3a
       0.009807589 0.02343369 -0.04082918 0.0014653704
000190 7f 72 3e bb 2a 68 2b bd 0c 38 b6 bd 5f 23 0e 3d
       -0.0029059944 -0.041847385 -0.08897409 0.0347017
0001a0 5c c2 5d bd 39 81 f0 bc 37 d8 6f bd c5 a6 40 39
       -0.054140434 -0.029358493 -0.058555808 0.00018372673
0001b0 73 0a 13 3c 28 57 10 bd b7 78 97 bb 3b dc aa 3d
       0.008974659 -0.03523937 -0.0046225446 0.08342787
0001c0 22 fe 37 3d d3 30 b3 3d d1 65 89 bd 53 53 30 3d
       0.044920094 0.08749547 -0.06708873 0.043048214
0001d0 bd 1d c2 ba 81 cb 3c 3d 0b c7 45 3d 6e b6 88 3d
       -0.0014809888 0.046092514 0.048285525 0.06675421
0001e0 b2 d6 3d bd 25 72 bf bd 0c dd 29 3d 45 ea e0 bc
       -0.046347328 -0.09347943 0.041470572 -0.027455458
0001f0 4d bb ac bd 77 c2 86 bd 0a 47 aa 3d c6 04 8e 3d
       -0.08434162 -0.0658006 0.08314331 0.06934504
000200 36 34 b9 3d 39 4c dc 3d 72 ba 21 3d f6 9f 34 3d
       0.090431616 0.10756726 0.03948445 0.044097863
000210 c8 36 1d 3d e9 e1 d2 bd fd 83 cc bd 0b 13 c6 3d
       0.03838232 -0.10296995 -0.09986112 0.09671601
000220 1b ed d7 ba 83 31 2f bd e5 d8 42 bd 53 b9 d7 bc
       -0.0016473861 -0.042771827 -0.047570128 -0.026333487
000230 ff 4e ab 3c ee 70 ac bd 9b e8 3a bd 72 22 8d 3c
       0.020911692 -0.08419977 -0.045631986 0.017228339
000240 cc f2 c6 3d 2b 14 9c 3d 2e 0a 35 bd ba 67 64 bd
       0.097142786 0.07621034 -0.04419916 -0.055762984
000250 e1 d3 b3 3c 2f 33 d4 3d 84 2c 50 3c 1a 66 ec bc
       0.021951618 0.10361325 0.012705926 -0.02885728
000260 d7 7f 95 b9 c8 bf 1a bd fe 16 80 3c 98 34 46 bd
       -0.00028514743 -0.037780553 0.015635964 -0.04839
000270 2b 5f a5 3d d7 42 e0 3c a9 1d 92 3d 1d d4 e3 3d
       0.080747925 0.027375622 0.071345635 0.11124442
000280 92 a2 c2 3d cf 26 9f 3d 92 c1 a4 3c f5 8e 02 bc
       0.09503664 0.07771074 0.020111833 -0.007968654
000290 f2 e5 03 3d 46 e8 89 bd 4c eb 1b 3d ad 79 ab bd
       0.032201715 -0.06733756 0.038066193 -0.08372817
0002a0 57 86 7f bc 43 92 93 bd bc 6b 97 bd a8 f3 18 3d
       -0.015595994 -0.072056316 -0.073935956 0.037341744
0002b0 5e 4c 57 bd 9c d3 a7 bd 50 da 98 3d eb cd fe bc
       -0.052563064 -0.08194658 0.07463515 -0.031104049
0002c0 bc 49 b0 3d 96 8c 4b 3c 27 4a 69 3c 02 a4 14 bd
       0.08607814 0.012423655 0.014238871 -0.036289223
0002d0 75 01 b8 3d 43 6e 9a 3d c6 13 3f 3d f5 fa ce 39
       0.08984653 0.07540562 0.046649717 0.0003947836
0002e0 c9 75 08 3d 62 ee 8d 3d ec ed 2c bd e0 bd 91 3d
       0.033315454 0.069302335 -0.042219087 0.07116294
0002f0 1d f2 bc 3d 07 77 c0 bd 5e e3 89 bd b1 ef 2e 3d
       0.09225867 -0.09397703 -0.0673282 0.042709056
000300 2b 11 c0 3c 97 03 b4 39 7a c8 5c 3d 6f 30 0c 3d
       0.023445686 0.0003433495 0.053902127 0.034225877
000310 bc 04 a6 bd dd 46 1d bd 04 9d 07 bd 50 2f 0f bd
       -0.08106372 -0.03839766 -0.033108726 -0.03495723
000320 81 9e 12 3d 27 71 a1 bd ff 9e 78 3c ce 78 9e 3d
       0.035795692 -0.0788291 0.015174626 0.077378854
000330 92 38 fa bc 75 a1 22 3d 85 15 17 3d 70 d3 1d 3d
       -0.030544553 0.03970476 0.036885757 0.03853172
000340 29 d4 ff bb f0 e7 41 bd c1 8c a2 bd 6f 33 f3 3b
       -0.007807274 -0.047340333 -0.07937003 0.007421903
000350 d2 d9 a5 bd 3b e9 b7 bc a1 bc bf bd df f1 1b 3c
       -0.080981866 -0.02245008 -0.0936215 0.009518116
000360 17 8f d5 bd ee 90 70 3d 3a 3e d7 3d 49 57 41 3d
       -0.10427683 0.058731966 0.10509916 0.047202382
000370 1c 71 8e bc 82 3e a2 3d 6c 9c 85 3d 35 91 73 3c
       -0.01738792 0.07922079 0.06523976 0.014866163
000380 ce c2 90 3d 31 16 82 bc 56 21 45 bd ca 6f 52 3c
       0.07068406 -0.015879722 -0.048127495 0.012844035
000390 c5 ef bc 3a 8f 05 24 bd c3 a1 92 bd e4 a1 15 bc
       0.0014414719 -0.040044364 -0.0715976 -0.009132836
0003a0 61 21 e5 3d f5 75 34 3c 36 49 9d 3d d5 3e e0 bd
       0.11188007 0.011014451 0.076799795 -0.10949484
0003b0 d2 12 ad bd 6f cf 10 bd 30 91 ef bc 98 48 da 3b
       -0.08450855 -0.035354074 -0.029244035 0.006661486
0003c0 d7 1f a5 bd 18 27 67 3d c9 c8 c2 bc 9d 9c 94 bd
       -0.080627136 0.056433767 -0.023777382 -0.07256434
0003d0 7b 45 a3 3b 18 81 ab 3d d6 52 bd 3c b8 75 a2 3d
       0.004982648 0.08374232 0.023110788 0.07932609
0003e0 1b fc f7 bc 21 22 3c 3a a1 9a 99 bd 81 d6 a1 bd
       -0.03027158 0.00071767165 -0.07500196 -0.079022415
0003f0 86 52 96 3c 23 9d 92 bc 49 82 c3 3c e5 dc d1 3c
       0.018349897 -0.017897194 0.023865836 0.025618026

bias f4 [32]
000000 f8 15 c0 3c df f5 4b 39 9d a9 47 3d 8c 58 24 3a
       0.023447976 0.00019451183 0.04874574 0.0006269298
000010 89 d1 db 3c ab 83 76 3d b1 87 40 3d d6 1b e5 bb
       0.026833313 0.060184162 0.047004405 -0.0069918437
000020 19 0f 5e 3d aa 89 1a 3b a8 02 ab 3d 6f 37 a6 bc
       0.054213617 0.002358059 0.08350116 -0.020290105
000030 43 ee 84 bc 6e bb 97 bd 45 9f c3 bd 3f 6f b5 3b
       -0.016226893 -0.07408796 -0.095518626 0.005536943
000040 05 f7 3a 3d 01 1d 91 bd 22 60 c3 39 33 ee 0f bd
       0.045645732 -0.0708561 0.00037264923 -0.035139274
000050 60 1d 1f bc c3 2a 0c 3b 65 b4 52 3d a8 16 20 38
       -0.009711593 0.0021387793 0.05144157 3.8168073e-05
000060 f2 7d 83 bc 30 67 b6 bd 75 e0 4d 3c fc e3 0d 3c
       -0.016051266 -0.089064 0.012565722 0.008660313
000070 6e 36 aa 3d b9 e4 4d 3a 83 88 ac bd 10 40 95 3d
       0.08311163 0.0007854212 -0.08424475 0.072876096

weight f4 [32]
000000 d9 ef 7c 3f e8 a0 7c 3f 16 53 7c 3f 32 90 7b 3f
       0.9880348 0.98683023 0.9856428 0.982669
000010 f0 d2 7c 3f 46 b6 7c 3f 5c 7f 7b 3f 05 df 7c 3f
       0.98759365 0.9871563 0.9824121 0.987778
000020 57 f1 7b 3f cb 61 7b 3f c0 9e 7b 3f 5c d7 7b 3f
       0.9841513 0.98196095 0.9828911 0.9837549
000030 e8 c7 7c 3f 29 79 7c 3f 6e 00 7c 3f 4a c4 7c 3f
       0.9874253 0.98622376 0.98438156 0.98737013
000040 73 2e 7c 3f 10 53 7c 3f 31 25 7c 3f 10 4f 7b 3f
       0.98508376 0.98564243 0.9849425 0.98167515
000050 cb 3e 7d 3f 5c 5b 7c 3f 8c 20 7c 3f b3 88 7c 3f
       0.9892394 0.98576903 0.9848716 0.98646086
000060 13 b5 7c 3f dc a5 7c 3f e1 73 7c 3f 76 5c 7d 3f
       0.987138 0.9869058 0.9861432 0.9896921
000070 ca 9d 7c 3f b3 17 7d 3f 4f fc 7c 3f 61 d4 7b 3f
       0.98678267 0.9886429 0.9882249 0.9837094

bias f4 [32]
000000 a2 cf e5 3b a0 f7 08 3c f8 a6 c6 ba 5d 83 8b bc
       0.007013277 0.00835982 -0.0015155962 -0.017030412
000010 12 40 1f bc 81 6a f6 3a be 5a 05 bc 02 57 06 b8
       -0.009719865 0.0018800051 -0.00813931 -3.2029122e-05
000020 75 e6 e7 bb 27 0c b5 bb 39 0b 41 3a 54 85 12 bb
       -0.007077033 -0.0055251303 0.0007364038 -0.0022357302
000030 50 a5 1e 3c 1f e6 2f 3c d5 05 60 bc c8 a9 13 bb
       0.009682968 0.0107360175 -0.013673265 -0.0022531617
000040 2e 32 22 bc fb 6c 57 3b 54 d4 bb 3b 9d 6a 25 bb
       -0.009899659 0.0032871354 0.0057320986 -0.0025240548
000050 25 19 4e 3c 28 52 bd 3b 08 fe 73 3a 9c b3 97 b8
       0.012579237 0.005777616 0.0009307568 -7.233696e-05
000060 da b0 2f 3c 6a 63 37 bb 6a 51 fe 3b 63 0d b2 b9
       0.010723317 -0.002798284 0.00776117 -0.0003396078
000070 94 2c 42 3a 0d b4 50 3b 19 22 a5 bb 5d 2a 20 3c
       0.00074071554 0.00318456 -0.005039465 0.009775725

running_mean f4 [32]
000000 5e 01 02 3e 7b 45 72 3d d7 0b 1b 3f 0f 3c 84 bc
       0.12695834 0.059148293 0.6056494 -0.01614192
000010 4b cd d7 be 20 27 7a 3c e6 06 09 3d b3 71 0a 3e
       -0.42148814 0.015268117 0.033453844 0.13519935
000020 57 8b 67 3e 4b a5 04 be 63 82 99 3e 18 01 c5 3e
       0.22611748 -0.1295368 0.2998229 0.38477397
000030 97 44 c8 3e 14 28 46 bd bf a0 80 3d d5 b9 2f 3e
       0.3911483 -0.048378065 0.0628066 0.17160733
000040 66 32 0a 3e 24 9a a0 be 61 95 ab 3b 49 a6 ca bd
       0.13495788 -0.313676 0.005236313 -0.098949976
000050 e3 5f 9d bd 2f eb 7e 3d 8d 14 b0 3e 40 77 40 bc
       -0.076843046 0.062236007 0.3439068 -0.011747181
000060 8e de d6 3d 1e 55 b8 be a8 95 76 3e b3 49 00 be
       0.10491668 -0.3600244 0.24080527 -0.12528114
000070 f6 41 99 3e 50 9d 07 3e 9e e3 14 be 46 50 9d 3d
       0.29933137 0.13243604 -0.14539954 0.076813266

running_var f4 [32]
000000 96 4a 61 3f 21 db 0e 40 14 73 9f 3f e9 7f 94 3f
       0.88004434 2.2321246 1.2456994 1.1601535
000010 c5 1d c3 3f 60 86 83 3f fc 73 8e 3f 49 90 67 3f
       1.524346 1.0275383 1.1129146 0.90454537
000020 61 c8 0f 3f c3 5d 01 40 1b 0f 89 3f 1c a5 04 40
       0.5616513 2.0213478 1.0707735 2.0725775
000030 e9 03 4e 3f 06 af 5e 3f 97 e8 46 3f a6 7b 3a 3f
       0.80474716 0.86985815 0.77698654 0.7284492
000040 42 a0 2a 3f 36 d9 2b 3f 0e 98 98 3f 8b f4 7b 3f
       0.66650784 0.6712831 1.1921403 0.9842002
000050 21 00 bb 3f 05 ad f0 3e 13 c0 c3 3e d3 ff e3 3e
       1.4609414 0.47007003 0.38232478 0.44531116
000060 1d 02 38 3f 1d ae f0 3e 32 07 40 3f 2d 34 ae 3e
       0.71878225 0.47007838 0.7501098 0.34024182
000070 7d ad bd 3f 83 dc ce 3f 7a 84 88 3f 7f 66 a5 3f
       1.481857 1.6161045 1.0665429 1.2921904

weight f4 [32, 35, 3, 3]
000000 09 74 2b bc 74 81 e5 bc 62 65 e5 bb 1f 0d f4 bc
       -0.010464677 -0.02801583 -0.007000611 -0.029791413
000010 4e 0b 4f 3c 05 37 d9 bc a8 6f 21 bd 28 db e9 bc
       0.012636973 -0.026515493 -0.039413124 -0.028546885
000020 3a fb fb 3c 20 14 4b 3d fa 14 fc 3c 4b 8d 4e 3d
       0.030759443 0.04957974 0.030771721 0.050427716
000030 92 4d 29 bd 85 56 4d bb e6 d3 3e bd 91 2d a7 3c
       -0.041333742 -0.0031332087 -0.0465888 0.02040747
000040 26 7b 3b 3d c1 61 48 3d 5a 84 fe 39 bc 63 21 3d
       0.04577174 0.04892135 0.00048545265 0.039401755
000050 fe 82 8b 3a 11 b8 00 3d 57 d6 de 38 b1 18 ce bc
       0.0010643897 0.03142554 0.00010625709 -0.025158258
000060 75 13 c7 3c 2e f0 14 3d 65 30 18 bb a8 32 05 bd
       0.02430127 0.036361866 -0.0023222205 -0.032519013
000070 13 3b 18 bd c2 af 14 bc 6d 4c b0 3c 82 ad 01 bb
       -0.037165713 -0.009075107 0.021520818 -0.0019787257
000080 84 e2 36 3c 65 09 fb 3c 3b 62 91 bc 31 ff 24 bd
       0.011162404 0.030644128 -0.017747035 -0.040282432
000090 32 66 e1 3b 5b 86 c3 bb d3 cb ec 3c 3e 85 2d bd
       0.0068786377 -0.005966944 0.028905785 -0.042363398
0000a0 8a 69 27 3d 3f 9e 38 3b a7 34 ef 3b c0 4e 07 bd
       0.040872134 0.0028170494 0.007299978 -0.033034086
0000b0 9c 4d 13 bc d9 52 6b 3d 59 56 8a 3c 05 ea 58 3d
       -0.0089906715 0.057452057 0.016886877 0.052957553
0000c0 c8 df d4 bb cf ee 04 bd 1c 51 cc 3c 13 ad 49 3b
       -0.0064964034 -0.032454308 0.02494102 0.0030773326
0000d0 b6 79 18 bd c5 2f de 3c 9a dc 71 bd 08 64 2e 3d
       -0.037225448 0.027122388 -0.059048273 0.042575866
0000e0 93 46 33 3d 54 20 84 bd de e1 22 bc 17 d3 19 bd
       0.043768477 -0.064514786 -0.009941546 -0.037554827
0000f0 1d c7 d1 bc 19 0a 03 3d 8c 43 36 bc 27 98 61 bc
       -0.02560764 0.03199205 -0.011124503 -0.013769186
000100 d3 f1 2d 3c c0 b6 33 3d 47 79 e1 bc 47 c1 0f 3d
       0.010616737 0.043875456 -0.02752365 0.035096433
000110 47 c8 24 bb a7 ec 22 bd 7d 84 4a 3c a2 75 e2 3b
       -0.0025143789 -0.03977647 0.012360689 0.0069109956
000120 f2 6e 22 bd 1f ee 37 bd c0 09 5a bd 64 57 b7 3c
       -0.039656587 -0.044904824 -0.053231955 0.022380538
000130 0b 25 1c 3d 85 2b 2a bd e6 8f 0d 3d aa 4b 9d bc
       0.038121264 -0.04154541 0.03456106 -0.019201118
000140 b5 70 82 bc 53 7f 18 3d dd 2a b2 bb 5b 62 0b 38
       -0.015922884 0.0372308 -0.0054372386 3.3231783e-05
000150 dc 22 0b bd ea ed f7 bc f4 3a 9d bc 54 02 d3 bc
       -0.03396879 -0.030264813 -0.01919315 -0.025757946
000160 30 b5 3d bd 50 86 15 bd a5 62 d3 3c 99 16 29 3d
       -0.046315372 -0.036505044 0.025803873 0.041281316
000170 76 70 7b 3c f1 d0 c6 3b 82 89 06 3d ef 6a 40 bd
       0.015346637 0.006067388 0.03284598 -0.04697698
000180 42 77 4f bc 8e 16 06 3d 82 e7 92 bc 4d 1c 02 bd
       -0.012662711 0.032736354 -0.017932657 -0.03176527
000190 4a 5c 9e 3c 68 95 7c bc f4 9a ae 3c 06 75 00 bd
       0.019331116 -0.015416481 0.021314122 -0.031361602
0001a0 87 13 58 3c e0 fa 16 3d e2 42 d9 bc 66 02 15 3d
       0.013188249 0.036860347 -0.02652115 0.03637924
0001b0 88 a4 ae 3c 97 bc 3c bd 94 78 eb 3a 1d 1f 9a 3c
       0.021318689 -0.04607829 0.0017965012 0.018813664
0001c0 67 12 ee 3c f3 5c 14 bd 78 12 51 bb b8 b6 5e bc
       0.02906151 -0.036221456 -0.0031901877 -0.013593368
0001d0 14 f2 36 3d 3a c8 30 3d 27 f8 ac bc f8 af 58 3c
       0.044664457 0.0431597 -0.021114422 0.013225548
0001e0 e5 9b 73 3c c4 76 d1 bb 36 98 05 3d 94 72 5e 3d
       0.014868711 -0.006392332 0.032615863 0.05430849
0001f0 c4 82 e9 bc f3 56 6e 3d d5 bc 08 bd 70 dc 84 bb
       -0.028504737 0.05818839 -0.03338321 -0.0040545985
000200 61 91 6e bd fa 6c 6b bd f1 9b 26 bd cc 5e 20 3d
       -0.058244113 -0.057476975 -0.04067606 0.039152905
000210 d2 44 30 bd ef 5f 11 3d a5 c9 4b 3d 34 a4 b9 bb
       -0.043034382 0.03549188 0.04975285 -0.0056653265
000220 0e d8 51 bd da 1f 48 bd df 5e fc 3a 25 e1 63 bd
       -0.051231436 -0.0488585 0.0019254348 -0.055634636
000230 8a 43 1d 3d 42 22 2b bd be 70 62 bd 7d fb d5 bc
       0.03839449 -0.041780718 -0.0552833 -0.026120896
000240 df fd 66 bd 17 f0 78 bc 38 2c 2b bd f4 f3 da bc
       -0.056394454 -0.015193961 -0.041790217 -0.026727654
000250 45 a4 af bb ad f2 23 3d 23 48 42 bd 6f cd 6a 3c
       -0.0053601586 0.040026356 -0.047432076 0.014331206
000260 74 d3 4b bd f6 a1 b5 3c 31 28 0d bd 27 94 23 bd
       -0.049762204 0.022171956 -0.034462158 -0.03993621
000270 9f 6d e2 3b 3e c7 45 bd 50 fd 9f 3c 7b b2 13 3d
       0.0069100405 -0.048285715 0.019529969 0.036058884
000280 df 55 f5 bb cf 88 bc 3c 0d 86 be 3c e1 ec 10 3d
       -0.0074870433 0.023014454 0.02325728 0.035382155
000290 8f 8d f8 3c cf 9b b5 bc 17 b0 3a bd 5b e7 0e 3d
       0.030340938 -0.022169022 -0.04557809 0.034888607
0002a0 1a d6 4c bd 42 2c 2e 3d 60 75 24 3d ce 41 3f 3d
       -0.05000887 0.042522676 0.040151 0.046693616
0002b0 61 2e 98 3c 69 a0 18 3c db 38 25 3d aa e3 ed 3c
       0.018576803 0.0093155885 0.040337425 0.029039223
0002c0 0a 19 a1 bc 29 62 e7 bc 00 89 b0 3c e2 fb 41 3c
       -0.01966526 -0.028245049 0.021549702 0.011839839
0002d0 c5 59 38 3d 32 bc ae 3c aa 47 e9 3a f3 c1 a7 bb
       0.045007486 0.021329973 0.0017797847 -0.005119556
0002e0 98 b1 2c 3d 81 9d 4b 3d a4 0c 2b 3d fd 45 6e 3d
       0.042161554 0.049710754 0.041760102 0.058172215
0002f0 73 78 b7 bc 98 56 87 bc 48 d6 04 bc e3 f2 db 3c
       -0.022396302 -0.016520783 -0.008107729 0.026849216
000300 f2 df 2a 3c ef 52 4e bd 08 4d 59 bd a0 25 08 3c
       0.010429369 -0.05037206 -0.05305198 0.008309752
000310 0a 73 0d bd 9d ce 21 bd 09 57 a3 3c 03 85 8c 3c
       -0.034533538 -0.039503682 0.019938963 0.017153269
000320 b0 35 11 bd 1a a2 27 3d 25 7a a3 bb d9 a7 7a 3c
       -0.03545159 0.040926076 -0.004988926 0.015298807
000330 06 a0 3d bd 95 f9 5b 3d f5 b2 b2 bc 0f 99 a7 3c
       -0.04629519 0.053704817 -0.021813849 0.020458726
000340 73 7f fa bb 4d f2 51 bd 38 08 bb 3a 60 eb 87 3c
       -0.0076445877 -0.051256467 0.0014269417 0.016591728
000350 37 43 20 bc ac fa 58 3c 16 c3 2e bd c8 37 45 3d
       -0.00978165 0.013243359 -0.042666517 0.0481489
000360 64 89 c3 3c e6 ab 3e bc 83 28 e3 3c c0 b1 2d 3d
       0.023869224 -0.0116376635 0.027729278 0.042405844
000370 14 c5 b9 3c bd ff 6d 3d e0 52 4a 3d 73 55 4d ba
       0.022676982 0.05810522 0.049395442 -0.00078328623
000380 ff a2 d0 bb 2d 75 2f 3d 2b 91 18 bc e9 d4 3d bc
       -0.006367087 0.042836357 -0.0093119545 -0.011586406
000390 81 cd 37 bd 38 bc f0 3c 80 9c 2e 3d 3f 2b 8b bb
       -0.04487372 0.029386625 0.04262972 -0.0042470987
0003a0 4d c2 f4 3b 5f 37 0e bd 58 85 55 bd d7 c3 94 3a
       0.0074694515 -0.034720775 -0.05212912 0.0011349869
0003b0 a0 1b eb 3c b8 ee 38 bd 5e 08 29 bd 0b ca 09 3d
       0.028699696 -0.045149535 -0.041267745 0.03363995
0003c0 3b 61 83 bc a6 d7 2c 3d 39 67 89 3c 33 7e 7c 3c
       -0.016037574 0.042197846 0.016772853 0.015410948
0003d0 4e 32 0d bd 59 56 ee bb 14 fc d4 bb cd f3 23 3d
       -0.034471802 -0.007273477 -0.0064997766 0.04002743
0003e0 02 a3 64 bc 71 b4 3a bc 64 2b 7b 3c eb 18 5e 3d
       -0.01395488 -0.01139556 0.015330169 0.054222982
0003f0 19 ab 44 bd fc d4 47 3d 11 a3 1f bd b4 61 43 3d
       -0.048014734 0.048787102 -0.03897387 0.0477006

bias f4 [32]
000000 b0 1a 18 3d 3e f5 d0 3b 9d 5b e5 3c 4f 55 e1 3c
       0.037134826 0.0063768914 0.027997786 0.027506499
000010 da 14 18 bb bd 7a 04 bc 64 73 92 3c eb 05 76 39
       -0.0023205788 -0.008085904 0.017877288 0.00023462593
000020 72 94 d6 3c d0 a2 d5 bc 57 21 05 bd 02 18 10 bb
       0.026193831 -0.026078612 -0.0325025 -0.0021986966
000030 d7 6b 6a 3b 51 a8 13 3d a4 74 ee 3c d1 cf 13 3d
       0.0035769844 0.03604919 0.029108353 0.03608686
000040 42 93 a0 b9 e9 66 bc ba 44 d6 11 bd 78 12 f7 3a
       -0.00030627294 -0.0014373931 -0.03560473 0.0018850109
000050 19 73 2c b7 72 98 c9 3c aa 02 d8 3c ed 11 1c 3d
       -1.0278797e-05 0.024608824 0.026368458 0.038103033
000060 f5 78 de 3c 74 0e 26 3c 6e 05 c8 39 a0 87 4e ba
       0.027157286 0.010135282 0.00038151018 -0.0007878486
000070 7a 46 3d bc 8c c9 16 bd 3f 9d 20 3b 8f 76 31 3a
       -0.011552447 -0.036813304 0.0024507788 0.0006769681

weight f4 [32]
000000 37 7c 7d 3f f7 eb 7b 3f 76 8f 7c 3f a8 72 7b 3f
       0.9901766 0.9840693 0.98656404 0.98221827
000010 78 c7 7c 3f 08 d9 7c 3f 74 e1 7c 3f 4a 5f 7c 3f
       0.98741865 0.98768663 0.98781514 0.985829
000020 e2 ca 7c 3f 2c 0b 7c 3f f6 26 7c 3f 90 19 7c 3f
       0.98747075 0.98454547 0.9849695 0.98476505
000030 2d 61 7d 3f 73 94 7c 3f 4f c7 7c 3f fb 46 7c 3f
       0.98976403 0.98664016 0.9874162 0.9854581
000040 5b 6d 7c 3f 6c c4 7b 3f 52 6d 7d 3f a5 95 7c 3f
       0.98604363 0.9834659 0.98994935 0.9866584
000050 72 1b 7c 3f 2f 2f 7c 3f f1 5e 7c 3f 57 1e 7c 3f
       0.9847938 0.98509496 0.9858237 0.98483795
000060 d6 e0 7c 3f f6 4c 7c 3f 65 36 7c 3f 50 71 7b 3f
       0.9878057 0.98554933 0.985205 0.98219776
000070 d9 3c 7c 3f 90 50 7c 3f d0 6f 7c 3f cc 05 7c 3f
       0.98530346 0.9856043 0.9860811 0.98446345

bias f4 [32]
000000 dc 4f 1a 3a 37 7c ad b5 6d 10 82 bb e8 e2 0b bc
       0.0005886534 -1.2925656e-06 -0.0039692433 -0.008537985
000010 86 c3 d0 3b ba 0c da b9 db d7 8c 3a e6 ed 61 3c
       0.0063709645 -0.00041589682 0.0010745482 0.01378963
000020 e3 7d 8c 3c 82 40 2a 3c ed 87 e3 bb a1 ed 6e bb
       0.017149871 0.010391356 -0.006943694 -0.0036457556
000030 47 e0 0c b9 66 85 c6 bb 0e ee 20 3c f6 c2 62 3c
       -0.0001343499 -0.006058383 0.009822382 0.013840428
000040 94 27 13 3c 86 c3 84 3a fd d0 35 3c 2c d3 3d bb
       0.008981604 0.0010129071 0.01109719 -0.002896498
000050 aa 60 32 ba a3 14 8a 3c a2 a8 ac 39 97 c5 87 3a
       -0.0006804565 0.016855543 0.00032932038 0.0010358569
000060 16 7d ed 3b 3c 55 68 39 81 43 25 3c b5 e8 97 bb
       0.0072475774 0.00022156996 0.010086895 -0.004635895
000070 3c fe 71 bb b4 24 cb bb 71 79 04 3b 88 d2 8b 3c
       -0.0036925217 -0.0061994437 0.0020213986 0.017068163

running_mean f4 [32]
000000 73 1b 44 3e c5 04 65 3d 1b 9d 5f 3e 04 80 ba bb
       0.19151096 0.05591275 0.21837275 -0.00569153
000010 02 eb 7b 3e 0e 58 5b 3d d5 e9 60 ba 3b fb ba 3d
       0.24601367 0.053550772 -0.00085797656 0.0912995
000020 ea 1d 81 bd 55 9e 5d 3d a9 f5 8b bc f0 ee 03 be
       -0.06304534 0.054106075 -0.017084913 -0.12884116
000030 59 8c bc 3d 30 c8 a8 3c bb aa 7e 3e 16 82 52 3d
       0.09206457 0.02060327 0.24869816 0.05139359
000040 d4 31 f5 3c 4a f9 2b 3d aa d6 7d be 3b 48 b5 3d
       0.029930986 0.041985787 -0.24788919 0.088516675
000050 c9 fa 5b be 7f 58 78 3e a7 12 1b 3d 8a 2c 89 3d
       -0.21482386 0.24252509 0.037859585 0.06697948
000060 d3 40 da 3d c4 91 32 3d 10 43 8e 3d 06 4b 28 3b
       0.106568955 0.043596044 0.06946385 0.0025679483
000070 fe b9 50 bd 26 64 47 3e 3e 7f 11 be ce 91 28 be
       -0.050958626 0.19471797 -0.14208695 -0.1646187

running_var f4 [32]
000000 ee 51 67 3e e9 77 0f 3f 64 ca af 3e a5 8f 71 3e
       0.22589847 0.56042343 0.343341 0.23589952
000010 12 ac b6 3e 9e 73 b2 3e 5f c3 f2 3e 43 de 0d 3e
       0.35678154 0.34853834 0.4741468 0.13854317
000020 0c 8e 79 3e 2b 3e 66 3e ff 70 4e 3e 38 27 ad 3e
       0.24370593 0.22484653 0.20160292 0.33818984
000030 d3 ee 5e 3e aa d2 06 3f d6 04 37 3e 51 01 0a 3f
       0.21770792 0.526652 0.17872939 0.5390826
000040 17 8f 34 3f 60 f3 01 3f 41 aa 3d 3e 94 6d fb 3e
       0.7053084 0.50761986 0.18521978 0.4910704
000050 84 4d 9a 3e 48 ad 3b 3f b4 dc ac 3e 55 52 20 3e
       0.30137265 0.7331128 0.33762133 0.15656407
000060 e5 b7 93 3e b5 86 42 3f 7f f0 b1 3e a8 fb 2e 3f
       0.28851238 0.75986797 0.34753796 0.68352747
000070 62 f2 a8 3e 45 7e 1d 3f 6b 03 5b 3e 9a 6b 05 3f
       0.32997423 0.61520797 0.21388023 0.5211731

weight f4 [64, 35, 3, 3]
000000 37 30 db 3c 21 18 86 bc 6d 77 da bc 0d 1b e6 3b
       0.026756389 -0.016368927 -0.026668275 0.0070222677
000010 f8 0a 23 3b 4b 7c 28 3d 10 72 09 3d 41 74 5b 3d
       0.0024878364 0.04113416 0.033556044 0.053577665
000020 cc 1e ad bc 6b c7 bb bc d4 69 0a bd dc 3f 2a bc
       -0.02113285 -0.022922238 -0.03379233 -0.010391202
000030 05 c7 b6 3c 94 75 fd bc 8f c1 2e 3c b8 87 8a bc
       0.022311697 -0.030939855 0.010666265 -0.016910419
000040 3b 85 46 bd 98 d8 37 bd 24 65 92 ba 07 34 e2 3c
       -0.048466902 -0.044884294 -0.0011169058 0.0276127
000050 1f d0 dd 3c a2 f3 c8 bc e7 ed f3 bc 32 60 a3 ba
       0.027076779 -0.024530236 -0.029776527 -0.0012464582
000060 ee 7a ec b6 8b 66 bc 3c 3d 43 88 bc 05 19 06 bd
       -7.047659e-06 0.022998115 -0.016633624 -0.032738704
000070 fa 13 4c 3a aa f5 30 bd a8 3f 47 3c 1c 9a 38 bd
       0.0007784959 -0.043203034 0.012161173 -0.045068845
000080 ed e1 41 3b ee 37 00 3c 86 ae 48 bd aa 80 26 bc
       0.0029584125 0.007825835 -0.048994564 -0.010162512
000090 ef 70 f6 3c c9 43 58 bd e5 07 50 bd d1 48 73 bc
       0.030083148 -0.05279902 -0.05078878 -0.014848904
0000a0 25 9b 4d bc 9d 84 b6 bc 94 2f 00 3d 95 f9 15 ba
       -0.012549196 -0.022280032 0.031295374 -0.00057210895
0000b0 f3 c3 3d 3d e8 37 5d bd be d3 1f 3d 86 1f b3 bc
       0.04632945 -0.054008394 0.039020292 -0.021865617
0000c0 d7 5e 8d bc e4 4e 1e bc cc fa a0 bc bb e6 1b 3d
       -0.017257137 -0.009662364 -0.01965084 0.03806184
0000d0 13 a4 11 3d 6b 4e 2e bd 0c a9 9b 3c f8 c9 a6 3c
       0.035556864 -0.042555254 0.019001506 0.020359978
0000e0 ef 08 8e bc 8b bc ab bc 02 4c 39 3d 6d e2 79 bb
       -0.017338244 -0.020963928 0.045238502 -0.0038129345
0000f0 5f eb fb bc 0b dd fc 3c 5b 9e 25 bc d5 bc 3b bc
       -0.030751882 0.03086712 -0.010108556 -0.011458595
000100 e6 01 a2 bc 89 42 22 bd 4f b7 ca bb f1 db 39 bd
       -0.019776296 -0.039614234 -0.006186403 -0.045375768
000110 e9 4d 47 bd 26 b0 17 bd b5 23 b2 bc 52 b3 cc 3b
       -0.048658285 -0.037033223 -0.021745542 0.0062469626
000120 9d 63 5f bd 52 32 21 3d 5f fd 96 bc 38 3e fc bc
       -0.054538358 0.03935463 -0.018431364 -0.030791387
000130 c2 3b 4f 3d e4 33 1d 3d fc 8d df bc 5a c4 be bc
       0.0505941 0.038379565 -0.027289383 -0.023286987
000140 01 45 c2 3c 66 98 84 3b f9 94 df 3c d5 2a 17 bd
       0.023714544 0.0040464876 0.027292715 -0.036906082
000150 a8 5f b3 3b ab 77 2e 3d fc ee d4 3b 4f 43 14 bd
       0.0054740496 0.042594593 0.0064982157 -0.036197003
000160 ba 17 05 bd 2e 94 5c bb 81 08 3c bd 3e 4b 46 3d
       -0.03249333 -0.0033657658 -0.045906547 0.0484116
000170 d7 08 24 bd 76 8a 20 3d fd 72 41 bc 5b 21 99 bc
       -0.040047493 0.039194547 -0.0118072005 -0.018692663
000180 79 b2 45 3c c0 1d da bc 8e 15 b0 bc 9e ba 02 bd
       0.012066477 -0.026625514 -0.021494653 -0.031916253
000190 ca d5 82 bd 05 76 3d bc ee 69 94 3b 6c 29 41 bd
       -0.06388433 -0.011563783 0.0045292294 -0.047158644
0001a0 5f 41 a5 3c 7b 9c b2 bc 54 9d 43 bc d6 8d 0a bb
       0.020172773 -0.021803131 -0.011939365 -0.002114167
0001b0 7d f2 e1 bc 3e 59 bc bc db 96 19 bd cc 96 70 bc
       -0.027581448 -0.022991773 -0.037497383 -0.01468439
0001c0 12 bb cf 3c 94 d3 3b 3d 36 b1 42 3d da 10 1f 3d
       0.025357757 0.045856073 0.047532283 0.03883443
0001d0 ff d2 34 bb 76 44 32 bd db 58 a4 3c 8d 01 0e 3d
       -0.0027591584 -0.04352232 0.0200619 0.034669448
0001e0 4b 6d 88 bb 03 57 4e 3c 86 e9 d5 bc a6 18 b8 3a
       -0.0041634194 0.012593987 -0.02611233 0.0014045432
0001f0 ee ce 53 bc c2 da ff 3c 69 b5 9e bc 33 96 c7 bb
       -0.012927754 0.031232242 -0.019373612 -0.006090903
000200 88 43 12 bd 29 39 14 3b b5 7d 64 bc 62 04 3b bd
       -0.035708934 0.0022617078 -0.0139459865 -0.045658477
000210 b7 de 2f 3d a5 d2 40 3d 5d 97 10 bc 10 5f ff 3c
       0.042937007 0.047075886 -0.00882515 0.031173259
000220 79 87 1f 3d c2 c3 97 3c 87 1e eb 3c d0 49 22 3c
       0.038947556 0.018525962 0.02870108 0.009905294
000230 5a 40 ac 3c 77 6a 45 bb 12 14 1b bd 48 9e 3f b9
       0.021026779 -0.0030123272 -0.037860937 -0.00018274144
000240 bf ea 0e 3d 74 eb 05 bd f5 d8 09 bc 84 e3 07 bd
       0.03489184 -0.03269525 -0.008413543 -0.03317596
000250 b5 64 0b 3d d9 ce 81 3b f4 e0 a8 3a c4 76 99 bb
       0.03403159 0.0039614257 0.0012884424 -0.0046833474
000260 14 0f 5c bc 0f d9 b5 3a 2c d9 31 3d ec 1d ff 3b
       -0.013431329 0.0013873893 0.043420002 0.0077855494
000270 f4 52 3e bc 73 57 c0 3b d3 c4 76 3b cc e5 cf ba
       -0.011616457 0.0058697998 0.0037653937 -0.0015861331
000280 6c 52 cb ba a9 60 1b bd 5d fe 35 bd f8 41 7f 3c
       -0.0015512235 -0.03793398 -0.044432033 0.015579693
000290 d9 d1 a3 3c fb a9 9a bc ce 8b 3c bb 8a 89 6f bd
       0.019997524 -0.018879881 -0.0028769854 -0.058480777
0002a0 63 41 26 3d f1 da 30 bd a8 69 92 3c d5 b0 02 bc
       0.0405897 -0.04317755 0.017872646 -0.00797673
0002b0 7b 10 53 bc 4c 9d 8b bb 4c 03 79 bb 50 94 27 3d
       -0.012882347 -0.0042606946 -0.003799635 0.040912926
0002c0 ab 5d 56 bd 90 05 b0 38 4e 93 0f bd 91 20 6b 3c
       -0.052335422 8.39337e-05 -0.03505259 0.014351026
0002d0 15 b6 26 3d 1f 41 8a 3c 61 b9 6b bd 7a 92 1a 3c
       0.04070099 0.016876755 -0.057549838 0.009434337
0002e0 31 6f 37 3d 87 f8 22 3d 27 8e 18 bd 14 1a 40 bb
       0.044783775 0.039787795 -0.037244942 -0.0029312419
0002f0 79 e3 5d 3d 10 cb 05 bd 2e 29 44 bc 8d 05 16 bd
       0.054172013 -0.03266436 -0.011972709 -0.036626387
000300 7c c3 4e bd 92 75 2c 3d 71 ae 94 3c 3e 86 ba bc
       -0.050479397 0.04210431 0.018149586 -0.02276909
000310 ca 07 f5 bc a6 5c ba 3c e1 6c 0d 3d c4 be a2 3c
       -0.02991094 0.022749256 0.034527663 0.019866355
000320 86 57 ea bc e5 dc 82 bb a6 df cf 3c 92 68 46 3d
       -0.028606188 -0.003993618 0.025375199 0.04843957
000330 4f 02 0a 3d 6e 9a 4d bd 04 75 9a 3c c5 dc 8e 3c
       0.033693608 -0.050196104 0.018854626 0.017439255
000340 4e 4c 15 bc eb ec 67 3c 34 fd 18 bc d6 ef 59 bd
       -0.009112431 0.014155607 -0.009337712 -0.05320724
000350 a9 e1 b3 bc f9 fa e8 3c be 0f 12 3c c3 53 06 3d
       -0.02195819 0.028439986 0.008914886 0.032794725
000360 e8 e6 f1 bc 26 6a b6 bc 84 d1 0a bd c5 7f 1f bc
       -0.02952905 -0.022267412 -0.033891216 -0.0097350525
000370 03 cc 95 3c 8f 70 a4 3b 6a 3b 35 bc 0e 39 af 3a
       0.018285757 0.005018301 -0.011061529 0.0013368444
000380 77 7a 91 3b 52 6f 46 3d c2 54 b5 3b 0b 54 0c 3d
       0.004439648 0.048446007 0.0055337856 0.034259837
000390 7d cc 0b bd 56 04 c7 3c e1 19 69 3d 01 8a 21 bd
       -0.034130562 0.02429406 0.056909446 -0.03943825
0003a0 bc 85 f7 3c eb 8a 09 bd 61 9a a0 bc d6 62 b5 3b
       0.030215137 -0.033579748 -0.019604864 0.005535464
0003b0 31 4c 6f bc 79 66 44 3d da 84 1a 3c d8 da 4d 3d
       -0.014605568 0.047949288 0.009431088 0.050257534
0003c0 f9 6d 6e 3d 1d 78 be bc c0 f4 6e 3d 62 ad 54 bd
       0.058210347 -0.023250634 0.05833888 -0.051923163
0003d0 34 4e 45 bd 53 34 1c 3d d5 c0 84 bc 62 e1 b0 3c
       -0.048170283 0.038135838 -0.01620523 0.021591846
0003e0 ae 10 38 bd 05 77 26 3d dd 5d 44 bd bf e7 31 3d
       -0.044937782 0.04064085 -0.047941078 0.0434339
0003f0 12 aa ae bc 8b 50 f8 3c cd 4b 53 3c 46 64 06 bd
       -0.02132133 0.030311843 0.01289649 -0.032810472

bias f4 [64]
000000 af 26 48 ba f7 11 7b bc 8b 4f 26 3c 60 fe ae 3a
       -0.0007635159 -0.015324107 0.0101508 0.0013350956
000010 71 ce b4 3c 12 cf ff 3c 5b 8f e9 3c 3c 70 1a 3d
       0.022071095 0.031226669 0.02851074 0.03770469
000020 7d d1 a1 3c 23 1b 22 3c 86 9f 25 3d 60 d3 cb bc
       0.019753212 0.009894165 0.040435337 -0.024881065
000030 c3 6e e1 3c 63 ad 9d bb f5 64 d5 3b a9 71 25 bb
       0.027518636 -0.004811929 0.006512279 -0.0025244749
000040 f9 a1 1c bd e3 fb a2 3c d2 50 39 3c 36 38 3a ba
       -0.038240407 0.0198955 0.011310773 -0.0007103713
000050 80 d5 c5 3b c5 16 3e b9 e5 e1 8e 3a 83 e1 05 bd
       0.006037414 -0.00018128294 0.0010901062 -0.032685768
000060 5e ce 09 3d 66 25 9d bc 70 f3 7d bb 4d de 42 bc
       0.033644073 -0.019182872 -0.0038749836 -0.011893821
000070 8a cd c4 3c 33 e0 b3 3c e1 66 b6 ba a6 a0 d4 bc
       0.02402379 0.021957492 -0.0013916158 -0.02595551
000080 20 ac 02 bd 10 d8 3d 3a 3b 36 ae ba ab 35 0b 3d
       -0.031902432 0.00072419737 -0.0013291308 0.03398673
000090 af bc 66 3b 63 e5 09 3c d8 97 c0 b9 15 64 39 bc
       0.003520768 0.008416506 -0.00036734226 -0.011315365
0000a0 d5 ad 6a bb 03 1c c1 3c b5 bc 32 ba 0e f8 a7 bc
       -0.0035809178 0.023572927 -0.00068182807 -0.020504024
0000b0 e9 4b bb 3c 50 d7 96 3c 30 1b 16 bc 60 6c 1e bc
       0.022863345 0.018413216 -0.009161755 -0.009669393
0000c0 05 2d fd 3c 02 5b 73 ba de 0b af 3a 49 ec fa 3a
       0.030905256 -0.00092832756 0.0013354977 0.0019143905
0000d0 82 e1 b0 bc 4f 9a 75 b9 d2 68 16 3d bf f0 c7 bb
       -0.021591906 -0.00023422505 0.03672106 -0.006101697
0000e0 44 da 8f 3b cd 29 e1 bc c9 50 e8 3a 75 c7 d7 bb
       0.004390033 -0.027485752 0.0017724271 -0.0065850564
0000f0 e0 0d 20 3d 29 b5 1e 3b ae ef b9 bc ff 88 02 bd
       0.039075732 0.0024216867 -0.022697296 -0.03186893

weight f4 [64]
000000 5f 12 7c 3f 2c 9c 7b 3f e5 4e 7d 3f 1a 15 7c 3f
       0.9846553 0.98285174 0.9894851 0.984697
000010 e5 8f 7d 3f 04 44 7b 3f 4f 9b 7c 3f 8c 61 7c 3f
       0.9904769 0.9815066 0.9867448 0.98586345
000020 4d dd 7c 3f a5 cc 7c 3f 80 ba 7b 3f 48 a5 7a 3f
       0.9877518 0.9874976 0.9833145 0.9790845
000030 2c a6 7b 3f ae 86 7d 3f 04 fc 7b 3f 56 5e 7d 3f
       0.98300433 0.9903363 0.9843142 0.9897207
000040 23 82 7a 3f f2 22 7c 3f 8e fd 7a 3f f0 f2 7c 3f
       0.9785482 0.9849082 0.98043144 0.98808193
000050 63 b0 7d 3f cf 34 7c 3f 69 16 7c 3f d4 45 7c 3f
       0.9909727 0.9851808 0.98471695 0.9854405
000060 7a 82 7d 3f 8c ab 7b 3f 5f ce 7b 3f b9 b7 7b 3f
       0.99027216 0.98308635 0.9836177 0.98327214
000070 fb 5f 7c 3f 2b 68 7b 3f b9 a9 7b 3f bd bd 7d 3f
       0.98583955 0.9820582 0.9830585 0.9911764
000080 58 d9 7b 3f d7 c3 7b 3f 1a 85 7b 3f 58 c2 7c 3f
       0.98378515 0.983457 0.9824997 0.98734045
000090 eb c9 7c 3f 40 94 7d 3f e1 2c 7b 3f 58 90 7b 3f
       0.987456 0.99054337 0.98115355 0.98267126
0000a0 fb 2b 7b 3f 00 c8 7b 3f 45 54 7c 3f 75 3f 7e 3f
       0.98113984 0.9835205 0.98566085 0.9931558
0000b0 d0 4d 7c 3f c2 22 7b 3f b7 6a 7d 3f a9 fc 7d 3f
       0.9855623 0.9809991 0.9899096 0.99213654
0000c0 7a 0a 7c 3f 8f 8a 7b 3f 38 88 7b 3f 9c 03 7b 3f
       0.98453486 0.982583 0.9825473 0.9805238
0000d0 74 94 7d 3f 0f eb 7c 3f a8 62 7b 3f 1b f5 7a 3f
       0.99054646 0.9879617 0.9819741 0.9803025
0000e0 aa 40 7c 3f 9a c3 7b 3f 7d fc 7c 3f cd 4e 7c 3f
       0.9853617 0.9834534 0.98822767 0.9855774
0000f0 86 c3 7a 3f 6e bc 7d 3f 8d 7b 7c 3f 0a 29 7b 3f
       0.97954595 0.99115646 0.98626024 0.98109496

bias f4 [64]
000000 9f 4f 10 3b b8 dc 46 3a 8d 06 9a 3b 4f 4e 49 bb
       0.0022020114 0.000758599 0.004700488 -0.0030716842
000010 10 d7 44 3b c7 4b 4e bb 6c 4e 59 3b d4 7b 6e 3c
       0.0030035414 -0.0031478272 0.0033158315 0.01455589
000020 8a c6 44 3c 4d a6 69 3c 05 65 43 3c c3 5b 82 39
       0.012010226 0.014260841 0.01192594 0.000248639
000030 a9 88 d6 3b b1 b2 aa 3c c9 b3 07 3c 03 4f ce ba
       0.006547053 0.02083716 0.00828261 -0.00157401
000040 86 1a 62 3b 5a e2 ca ba 52 9c 98 bb d1 89 81 39
       0.0034500672 -0.0015478835 -0.0046573067 0.0002470748
000050 3f 8c d6 ba bb 62 f7 bb a7 fa 53 3b e2 80 f3 3b
       -0.0016368701 -0.0075496114 0.0032345445 0.0074311355
000060 45 7e d9 3a 41 d7 33 bb 8f 64 b3 3a c8 d7 52 3b
       0.0016593417 -0.0027441534 0.0013686585 0.0032172073
000070 a0 7a 33 3b 63 f8 da 3b 46 03 a5 3c 01 90 e7 3a
       0.0027386323 0.006682442 0.020143162 0.0017666818
000080 5f dd 85 3c ec cd f0 3b e3 a3 7d 3b fc d9 a1 3b
       0.01634091 0.0073487666 0.003870242 0.004939316
000090 9c a0 36 bb 9a 51 2e 3a f3 33 37 3b 38 cf 25 bb
       -0.0027866727 0.0006649733 0.0027954548 -0.0025300514
0000a0 31 72 9e bb 6e 93 37 bb 56 64 e7 3b dd a9 2a 3c
       -0.00483539 -0.002801146 0.0070615215 0.010416475
0000b0 e5 43 8f 3c 4c 2c 54 3b 72 55 9a 3c 93 18 82 3c
       0.01748843 0.0032375036 0.018839572 0.015880859
0000c0 95 a5 14 3c bf 57 e9 3b ec 30 34 ba ca 6b 10 3c
       0.009072681 0.007121056 -0.0006873745 0.008814761
0000d0 e1 dd 92 3b cb 70 45 3c bb 3b 2d 3c d0 c1 83 3c
       0.0044820164 0.012050818 0.010573323 0.016083628
0000e0 85 4a 09 3a 63 9a 8a 3b 5e 73 35 3c 3e e2 93 ba
       0.00052372395 0.00422983 0.011074869 -0.0011282635
0000f0 c7 b9 bd 3b a0 25 37 3c 02 c3 ae 3b 6a ca 3f 3c
       0.0057899687 0.011178404 0.0053333053 0.011705974

running_mean f4 [64]
000000 37 a1 01 3e cb 43 c1 3d 0a 1a a7 3d 04 b9 ff 3d
       0.12659155 0.094367586 0.081592634 0.12486461
000010 62 d5 39 3d 36 8c 34 3e 56 97 87 3d 93 8e a5 3e
       0.045369513 0.17631611 0.06620662 0.32335338
000020 73 4a 9f 3e 47 fa 46 3e 8b 13 75 bc 18 d8 0e 3e
       0.31111488 0.1943141 -0.014958273 0.1394962
000030 f0 a2 32 3d 27 86 3b bd b0 23 21 3e 55 b2 de 3d
       0.04361242 -0.045782235 0.1573627 0.10873858
000040 27 87 82 3e bd 08 03 bc 6b 02 68 3e 0a 67 0b be
       0.25493738 -0.007997689 0.22657172 -0.13613525
000050 53 0d 42 3d 92 44 64 3e 06 d4 a3 3d 4a 77 1f 3e
       0.04737599 0.22291782 0.07999425 0.15572849
000060 ca 71 19 be 74 c6 d4 3c d9 7e fc 3d 04 da 90 3d
       -0.14984813 0.025973536 0.12328882 0.07072833
000070 02 d9 2c 3e 4a e4 54 3e 1f 45 cb 3d 61 60 a4 bd
       0.16879657 0.2079021 0.09925293 -0.08026195
000080 9b 26 9f 3d bd 8a 9c bd ad 36 19 3e a2 1a a5 3e
       0.07771035 -0.0764365 0.14962263 0.32246882
000090 8b 49 84 3d c8 5e 2b be 7a 68 92 3e d9 85 96 3d
       0.0645934 -0.16735375 0.28595334 0.07349748
0000a0 8c f7 e5 3d aa 23 94 3e 26 74 1f 3e 2c ff 5f 3d
       0.112288564 0.2893346 0.15571651 0.05468671
0000b0 e0 66 11 bd 30 e7 3a 3e 1f 02 72 bd 9d 20 16 3e
       -0.0354985 0.18252254 -0.059084054 0.14660878
0000c0 f1 18 fc 3c cd 37 4b 3d 84 1f 7b bd 60 52 a9 3d
       0.030773612 0.049613763 -0.061309353 0.08267665
0000d0 14 ef c5 bc 65 bd 2a 3e 22 2f 7a 3e 17 6a fa 3d
       -0.024161853 0.16673811 0.24432042 0.12227266
0000e0 f7 34 f0 3d 30 d8 ae 3d 71 2d 9b 3d c9 e0 1e be
       0.11728852 0.08537328 0.07577027 -0.15515436
0000f0 33 49 8d 3e 34 0e d9 3b e7 e6 dc bd 04 4f 1d 3e
       0.2759491 0.0066240076 -0.107862286 0.15362173

running_var f4 [64]
000000 45 34 42 3f 36 17 f7 3e 5e 44 b8 3e 3c f3 1e 3e
       0.75861007 0.48259896 0.3598966 0.15522474
000010 8d 06 45 3e 46 33 e9 3e 5d 67 04 3f 93 a4 29 3f
       0.1924078 0.4554693 0.5172022 0.66266745
000020 53 57 42 3f 55 f0 34 3f dc 87 c4 3e 56 46 81 3f
       0.75914496 0.7067922 0.38384902 1.009959
000030 e0 33 d7 3e fe 50 d3 3e dc f7 31 3f d9 ad a4 3e
       0.42031765 0.4127273 0.6951883 0.32163885
000040 fe fa 8d 3f 18 3a 5e 3e 3a 63 02 3f 66 b9 49 3e
       1.1092222 0.21701849 0.5093266 0.1969963
000050 e2 0e 72 3e e7 19 c0 3e 36 0b 9a 3e 33 70 03 3f
       0.2363849 0.37519762 0.30086678 0.5134308
000060 4a 57 22 3e 53 d6 97 3e 0f 72 b3 3e db 99 c2 3e
       0.1585361 0.29655704 0.35047957 0.38008007
000070 1b c1 61 3e d9 68 77 3f 64 4e 02 3f 7b 0b 63 3e
       0.2204632 0.9664436 0.50900865 0.22172348
000080 b7 67 18 3f 11 f2 8f 3e 0e b9 3e 3f 33 5d b9 3f
       0.59533256 0.2811437 0.7450112 1.4481567
000090 54 1b 4c 3f bd 4b a2 3e a4 c6 a0 3f f1 8a 8c 3e
       0.797292 0.3169841 1.256062 0.27449754
0000a0 1b d6 cf 3e a5 59 6d 3f f0 2b 5e 3f 41 5b db 3d
       0.40593037 0.9271491 0.86785793 0.10710765
0000b0 e6 3e 68 3e e5 b5 e4 3e 49 3c 43 3e f2 39 42 3e
       0.22680244 0.44670025 0.19065966 0.18967417
0000c0 25 5b 3c 3f 4a fc 42 3f d8 e8 a1 3e 4e 97 06 3f
       0.73576576 0.7616621 0.31622958 0.5257462
0000d0 10 ca 73 3e 45 b7 d8 3e 8f b4 9e 3f 0d 9a 3e 3f
       0.2380755 0.42327324 1.2398852 0.7445381
0000e0 fc 97 13 3e df 5a 7a 3f 05 3c b3 3e 44 2a c2 3e
       0.14413446 0.9779491 0.3500673 0.3792287
0000f0 f0 c4 d1 3e 87 f1 5f 3e 3e b3 13 3e 6a d8 23 3f
       0.40970564 0.21869479 0.14423844 0.64002097

weight f4 [64, 67, 3, 3]
000000 fd ee b4 3c 33 c4 05 3d a8 5b 02 bd d5 a5 8f bc
       0.022086615 0.032657813 -0.03182569 -0.01753513
000010 45 ed cf bc 28 77 80 bb e2 35 21 bc a4 04 12 bd
       -0.025381694 -0.0039204545 -0.009839507 -0.035648957
000020 b5 83 6c 3c 9e d7 47 3c 2f 5a 87 bc e1 a0 77 38
       0.014435698 0.012197403 -0.016522495 5.903922e-05
000030 e4 05 4d 3b dd 20 43 3b 77 ee 0f bc ee 5d bc 3b
       0.0031284029 0.0029774227 -0.008784882 0.005748502
000040 eb 45 35 3c a8 0b 0d 3d a3 b3 0a ba 46 44 f3 3b
       0.011064033 0.034434944 -0.000529105 0.0074239103
000050 84 da 4e 3c 78 04 57 3c 72 70 9d 3c c9 26 91 bc
       0.01262534 0.013123624 0.019218657 -0.01771869
000060 5b 1b 2b bc 2b 86 2b 3c 63 09 0d 3a 63 ad 68 bc
       -0.010443534 0.010469 0.0005380122 -0.014201495
000070 74 47 b4 3c 8b 60 f2 3c 4e 18 21 bd d8 0f dd bc
       0.022006728 0.02958705 -0.03932982 -0.026985094
000080 fe 8e 6f b9 f1 c3 61 bb a5 ef 89 3b b5 85 2e bd
       -0.00022846085 -0.0034449066 0.004209476 -0.04260798
000090 1b 60 12 3d 6c ae 35 3c e1 2a e7 3b 54 21 f2 bc
       0.035736185 0.011088949 0.007054672 -0.029556908
0000a0 e4 1a bb 3b d5 c8 b2 ba e9 aa 24 3c 5c d1 01 bd
       0.0057099927 -0.0013640175 0.010050514 -0.0316938
0000b0 73 cc 20 bd d8 8a 04 bd 94 27 65 bc e3 0a 09 3c
       -0.039257478 -0.032358974 -0.013986487 0.008364412
0000c0 0d a5 03 bb e8 fd d3 bc 6e 03 13 bc 65 f2 ac 3c
       -0.0020087392 -0.025877908 -0.008972986 0.021111676
0000d0 c8 a8 12 bd 2e a8 38 3c c2 f9 53 bc fa 43 80 bc
       -0.035805494 0.011270566 -0.012937965 -0.015657414
0000e0 1f 57 d1 3c 71 5d 1b bc 44 5f 80 bc 66 cb c1 bc
       0.025554238 -0.009482727 -0.015670426 -0.023656558
0000f0 c8 a1 1c bc 86 8d 5b bc ae 30 b3 3c a7 cb c8 3c
       -0.009560056 -0.013400441 0.021873798 0.024511172
000100 70 db 1f bd a3 fc 13 bd 18 a7 9f 3b 51 f2 07 3d
       -0.03902763 -0.036129605 0.004872214 0.033190075
000110 52 ee ab bc 99 c9 4b bc a0 9f d7 3c 01 1a ea bc
       -0.020987663 -0.012438201 0.026321232 -0.028576853
000120 a2 86 d0 3c 12 66 f0 3a 10 ae 49 bc dc e7 6b bb
       0.025454823 0.0018340966 -0.012309566 -0.0035996353
000130 6d 51 bf bb 34 2d db 3c 44 6c 46 3c 7a 0d 3f bc
       -0.005838564 0.026754953 0.0121107735 -0.011660928
000140 ea 22 fd 3b 3b 16 cb 3c 8e f5 9f 3c cc a5 ce bb
       0.0077251093 0.024790874 0.01952627 -0.0063063856
000150 9b dd 98 bb 4a 1e 52 bc ab 13 1f 3c 5a 59 2d bd
       -0.0046650893 -0.012824604 0.009709279 -0.04232154
000160 2b 40 59 b9 ca 19 f8 ba 98 cd 07 3d 6b a5 2e bc
       -0.00020718637 -0.0018928584 0.033155054 -0.010659556
000170 cc 57 4f bb 87 7d ee 3c 2f 7d 89 3c 7e ea ed 3c
       -0.0031638024 0.02911259 0.016783325 0.029042479
000180 0e 38 13 bd 1b 8d 9d 3c 01 a0 b5 bc 04 31 aa bc
       -0.03594213 0.019232323 -0.022171022 -0.020775326
000190 89 b0 ec bc fb b0 05 3d ca 9f 2c 3c 33 8f 04 bd
       -0.028892772 0.032639485 0.010536144 -0.032363128
0001a0 7d e4 00 3c 49 10 09 3d 8b 27 50 3b 35 56 50 bc
       0.007866976 0.033462796 0.003176185 -0.012715866
0001b0 d5 ee a3 bc c5 c4 ab bc 7c e3 99 3c 40 be e3 bc
       -0.020011345 -0.02096785 0.01878523 -0.02780068
0001c0 52 e4 85 3c 4d 33 16 3c 60 89 20 bd e3 82 02 3b
       0.016344223 0.0091675045 -0.03919351 0.001991444
0001d0 88 94 1a bc 44 6a b2 3c ca 7c 0e 3d 8e b2 a0 3c
       -0.009434827 0.021779187 0.034786977 0.019616392
0001e0 48 7d 17 bc eb ca 02 3c c9 9e 4c 3c 10 f7 df 3c
       -0.009246178 0.00798295 0.012489029 0.027339488
0001f0 57 86 db 3c 43 cd 24 3d ad de 9e 3c 7b 9c 0a 3d
       0.026797457 0.040234815 0.01939329 0.033840638
000200 83 63 b3 3b 03 0b 32 3c b4 e4 06 bc fb ff 83 3c
       0.005474509 0.010866883 -0.008233238 0.016113272
000210 df af 4c 3c ac 2d bd 3b 2d f3 82 bc 9b 00 0e bd
       0.012493103 0.005773267 -0.015985096 -0.034668546
000220 dc d7 9b 3c e7 01 0b 3d ae 66 05 3d 8e 58 f7 ba
       0.019023828 0.03393736 0.032568626 -0.0018870996
000230 b1 eb b0 3c 8a 7a ff 3c 56 ac d5 bb 03 70 34 39
       0.021596761 0.03118636 -0.006520788 0.00017207865
000240 aa 6d 8f bc c1 67 38 bc a5 3c a6 3b ad 16 78 bc
       -0.017508347 -0.011255206 0.0050731474 -0.015142125
000250 38 95 83 3c 4c 44 67 bc a6 e3 cf 3c 2d 7d 09 3d
       0.016062364 -0.014115404 0.025377106 0.033566643
000260 eb 39 ee bc e5 2e 0c 3d 5c 7f 11 bd 11 f8 de bc
       -0.029080352 0.03422441 -0.03552185 -0.027217897
000270 b6 ba 2b 3c b5 e3 b7 3c f5 ba e6 3c 47 de 40 bd
       0.010481527 0.022447446 0.02816532 -0.04708698
000280 70 86 84 3b d1 7c ec 3c b4 95 30 bc 6e ea ab bc
       0.0040443465 0.02886811 -0.0107778795 -0.020985808
000290 5c 7d 46 bc f5 cd 07 bd ac c7 2f bc a4 47 86 bc
       -0.012114849 -0.0331554 -0.010728758 -0.016391583
0002a0 c5 d9 a1 3c 0c 65 b8 3c 58 88 61 bc 4c 9e a2 3c
       0.01975716 0.02250912 -0.013765417 0.019850872
0002b0 d9 25 c6 bc 6e 06 43 bc 1b 24 d2 bb 5e c1 b9 bc
       -0.024187969 -0.011903388 -0.0064129955 -0.022675212
0002c0 d1 0c 94 3b 21 8c fe bc 1e bc b4 3c bd 48 14 bd
       0.0045181294 -0.031072678 0.022062358 -0.03620218
0002d0 ae 10 ad 3c 8c b2 ec bc 5c ad 3d bc e1 a4 8b 3c
       0.021126118 -0.028893732 -0.011576977 0.017046394
0002e0 d3 2c 44 bc e4 c2 56 bc 8d b5 11 3b a9 b9 9d bc
       -0.011973578 -0.013107989 0.0022233457 -0.019253569
0002f0 69 79 ea bc f8 f1 d7 bc 96 4c 1e 3c b0 09 ad bc
       -0.028622346 -0.026360497 0.009661814 -0.021122783
000300 35 5a c9 3c 2f 74 0b bc 13 ea 1e 3c 54 5c 86 3c
       0.024579147 -0.008511587 0.009699362 0.016401447
000310 ea d1 d2 3c 58 63 9c bc 96 bd 93 ba 32 65 bc bc
       0.02573486 -0.01909034 -0.0011271711 -0.022997472
000320 3f bb c2 3c ed ab 95 bc 41 5a e8 bc 0c 63 6a 3c
       0.023770927 -0.018270457 -0.028363349 0.014305841
000330 6d b8 be bc f9 95 3f 3c 45 05 60 b9 c4 21 2b 3d
       -0.0232813 0.011693471 -0.00021364268 0.04178025
000340 39 cb 3e bc 21 59 cd bc 9a 4e 15 bd 7a b4 f4 bc
       -0.011645132 -0.025066914 -0.036451913 -0.029871214
000350 b1 ba 9e bc 62 4d 69 bc 71 10 76 3c 9a 02 68 3c
       -0.01937613 -0.014239641 0.015018568 0.0141607765
000360 9b a6 1a ba f5 c6 19 3d 63 30 10 bd c1 9b f5 bc
       -0.000589946 0.037543256 -0.035202395 -0.029981496
000370 bf 53 87 bc 3c 4b f2 bb d9 d4 17 bb 63 37 1a bc
       -0.016519425 -0.0073942225 -0.0023167639 -0.009412619
000380 70 37 42 3c 52 e3 21 3d 51 59 67 3b 0d 90 26 3b
       0.011854038 0.03952343 0.003530104 0.002541545
000390 53 78 89 bc 49 f7 47 ba 4d ef d9 bc 9c 2d 84 3c
       -0.016781008 -0.0007628096 -0.026603365 0.01613503
0003a0 cd e5 0e bd 86 4d 73 3c da 3c f8 3b 76 24 1e 3b
       -0.034887124 0.014850026 0.0075756134 0.002413062
0003b0 9a d7 70 bc fb 17 87 bc 5e 27 0b bd ac c9 64 bc
       -0.014699841 -0.016490927 -0.03397309 -0.013964098
0003c0 bf c2 eb 3c 65 87 e6 3c 87 3b f1 bc da d2 32 bb
       0.028779386 0.028140733 -0.02944733 -0.0027286322
0003d0 77 3c aa 3a 23 72 0a 3d 92 40 55 38 8b 18 e0 bb
       0.0012987991 0.033800256 5.0843293e-05 -0.0068388632
0003e0 4d e6 04 3d ef ab ee 3c c4 bc b9 38 38 b1 50 bc
       0.032446194 0.029134719 8.856648e-05 -0.012737565
0003f0 0a 7a b2 3a 94 03 ba bc 5b ce 9b 3c 4c bd c9 bb
       0.0013616693 -0.022706784 0.019019296 -0.006156599

bias f4 [64]
000000 85 ce 21 bb 2a 62 27 3b ee e8 0c bc 15 13 ae bb
       -0.0024689746 0.0025540688 -0.008600457 -0.0053123333
000010 89 4c b4 bb 22 ab db 3a b7 d3 ef bb 5e e9 fb ba
       -0.0055022878 0.0016759376 -0.0073189395 -0.0019219329
000020 ac 85 bb 3c 2a fd 77 bc 90 7b d9 3b 73 cc 05 bb
       0.022890888 -0.015136043 0.0066370443 -0.002041605
000030 e3 ab 15 ba 7b 3b a6 3c c9 a6 ec ba 65 38 10 bb
       -0.0005709512 0.020292034 -0.0018055077 -0.002200627
000040 41 e4 39 3b bf bf a0 bc 67 b6 c5 3c 03 17 34 bc
       0.002836481 -0.019622682 0.024134828 -0.010991815
000050 dd 0e 40 38 d3 f3 be 3c 6e d3 ed ba 45 d3 be bb
       4.579021e-05 0.023309624 -0.0018144676 -0.005823525
000060 3d b8 12 bb 86 a9 5d bc d8 17 94 3c 45 19 41 3c
       -0.0022387647 -0.013529187 0.018077776 0.01178581
000070 bb 1f b1 39 72 be 5c ba cf 07 28 ba fa 1b 9b 3c
       0.00033783712 -0.00084207125 -0.0006409855 0.018934239
000080 fc 43 af 3c da a6 d2 39 f4 58 1c bb ef 27 c7 3c
       0.021394722 0.00040178635 -0.002385673 0.024311034
000090 31 d1 82 bc 41 c9 1f 3b 04 1a c5 3a 67 12 ce b8
       -0.01596889 0.0024381431 0.001503766 -9.826273e-05
0000a0 bc 72 d4 bc f8 00 a4 3c 6a 20 18 3c cd fe ca 3b
       -0.025933616 0.020019993 0.009285072 0.0061949254
0000b0 aa fb 9d 3a d3 29 e1 bb 6b b8 59 ba cb ef 18 bb
       0.0012053151 -0.006871441 -0.00083053735 -0.0023336287
0000c0 a4 d9 d1 3c 24 64 e6 3b 33 b7 5b bc c7 b1 59 b9
       0.025616474 0.0070309807 -0.013410377 -0.0002076096
0000d0 f1 f9 75 3c 05 e9 1b 3c ab a7 47 3c d4 0c eb 37
       0.015013204 0.009516005 0.012185971 2.8020157e-05
0000e0 01 a5 51 39 33 f0 23 3b d9 c3 23 3c 62 a4 58 ba
       0.00019993262 0.0025014996 0.009995424 -0.0008264241
0000f0 41 91 54 3a ca b5 9d 3a a6 f3 d1 b9 95 e9 9d bc
       0.0008108803 0.0012032327 -0.0004004512 -0.01927642

weight f4 [64]
000000 e5 5e 7c 3f 08 57 7c 3f 2b a7 7d 3f cd 8c 7c 3f
       0.985823 0.985703 0.99083203 0.98652345
000010 b2 e8 7d 3f a5 72 7d 3f d3 19 7d 3f 85 e4 7d 3f
       0.9918319 0.9900306 0.9886753 0.9917682
000020 6a 49 7d 3f a2 75 7c 3f bd 9f 7c 3f 2b 8f 7f 3f
       0.98940146 0.98616993 0.9868124 0.9982783
000030 a6 81 7c 3f 55 eb 7c 3f ef 3c 7d 3f 4d 85 7c 3f
       0.9863533 0.9879659 0.989211 0.986409
000040 25 f6 7c 3f 12 98 7c 3f 8e 63 7c 3f 1b a8 80 3f
       0.98813087 0.9866954 0.9858941 1.0051302
000050 a5 3b 7c 3f 5d 16 7d 3f e5 c7 7c 3f 74 03 7e 3f
       0.9852851 0.9886225 0.98742515 0.9922402
000060 b7 7b 7c 3f 4d 7b 7e 3f 5f e6 7d 3f f0 71 7c 3f
       0.98626274 0.9940689 0.99179643 0.98611355
000070 62 0b 7e 3f 09 1c 7d 3f 14 d2 7c 3f 32 23 7e 3f
       0.9923612 0.98870903 0.98758054 0.99272454
000080 fb 97 7c 3f 3f 1b 7d 3f f9 55 7e 3f 5a 27 7d 3f
       0.98669404 0.988697 0.99349934 0.9888817
000090 20 a5 7d 3f bc 4b 7d 3f eb 31 7d 3f 18 1e 7c 3f
       0.99080086 0.98943686 0.98904294 0.9848342
0000a0 6e 54 7d 3f f7 6c 7c 3f ce ab 7c 3f da 4c 7e 3f
       0.98956954 0.9860377 0.98699653 0.99336016
0000b0 58 e4 7c 3f 03 7b 7e 3f 5f e6 7c 3f 47 1d 7d 3f
       0.98785925 0.9940645 0.9878902 0.988728
0000c0 29 66 7d 3f 90 05 7d 3f 93 66 7c 3f 85 f0 7d 3f
       0.9898401 0.9883661 0.98594016 0.9919513
0000d0 73 84 7d 3f c5 55 7c 3f f5 ec 7c 3f ce 10 7d 3f
       0.99030226 0.98568374 0.9879907 0.98853767
0000e0 7b 94 7d 3f f5 fd 7c 3f c4 dd 7d 3f 4c 3f 7f 3f
       0.9905469 0.9882501 0.9916651 0.9970596
0000f0 65 0c 7e 3f d7 9f 7d 3f b7 42 7d 3f bd cb 7c 3f
       0.9923766 0.9907202 0.98929924 0.9874838
