SND_trackers_My_data/9X0_file/9_9X0_coordconv_norm_l1.pt (torch_old, 322102 bytes, 25 tensors)

weight f4 [32, 7, 3, 3]
0	0x00000258	8.41e-43
1	0x0000003d	8.5e-44
2	0x000000ce	2.89e-43
3	0x00000034	7.3e-44
4	0x000001ec	6.9e-43
5	0x00000227	7.72e-43
6	0x0000016a	5.07e-43
7	0x0000010b	3.74e-43
8	0x00000119	3.94e-43
9	0x800000da	-3.05e-43
10	0x800001df	-6.71e-43
11	0x0000001d	4e-44
12	0x000001c4	6.33e-43
13	0x800002a0	-9.42e-43
14	0x00000123	4.08e-43
15	0x00000297	9.29e-43
16	0x80000270	-8.74e-43
17	0x00000009	1.3e-44
18	0x1ef1d758	2.5605932e-20
19	0x0000003f	8.8e-44
20	0x8000056a	-1.942e-42
21	0xb6b118ed	-5.277913e-06
22	0x00000a93	3.793e-42
23	0x000010cb	6.024e-42
24	0x0000014c	4.65e-43
25	0x800009a3	-3.457e-42
26	0xb0789682	-9.043576e-10
27	0xa0d127a8	-3.543222e-19
28	0x80000175	-5.23e-43
29	0x00000046	9.8e-44
30	0x9d34bb24	-2.3919551e-21
31	0x8043aa07	-6.213973e-39
32	0x03b72a2d	1.0765456e-36
33	0x2176be24	8.359969e-19
34	0x8a9c1f6b	-1.5034072e-32
35	0x8000010f	-3.8e-43
36	0x800001da	-6.64e-43
37	0x80000164	-4.99e-43
38	0x80000094	-2.07e-43
39	0x80000077	-1.67e-43
40	0x000000bf	2.68e-43
41	0x00000547	1.893e-42
42	0x8000004a	-1.04e-43
43	0x000000dc	3.08e-43
44	0x1c04ac8f	4.3898163e-22
45	0x800000c6	-2.77e-43
46	0x8000008f	-2e-43
47	0x800000cf	-2.9e-43
48	0x00000116	3.9e-43
49	0x8000024e	-8.27e-43
50	0x800000f8	-3.48e-43
51	0x00000261	8.53e-43
52	0x80000095	-2.09e-43
53	0x00000293	9.23e-43
54	0x000003c9	1.358e-42
55	0x00000529	1.851e-42
56	0x80000141	-4.5e-43
57	0x0000002a	5.9e-44
58	0x80000191	-5.62e-43
59	0x80000012	-2.5e-44
60	0x80000603	-2.157e-42
61	0x0000033f	1.164e-42
62	0x00000074	1.63e-43
63	0x8000004e	-1.1e-43
64	0x80000198	-5.72e-43
65	0x0000009c	2.19e-43
66	0x00000155	4.78e-43
67	0x8000018a	-5.52e-43
68	0x800000e6	-3.22e-43
69	0x800001a5	-5.9e-43
70	0x8000013a	-4.4e-43
71	0x8000007c	-1.74e-43
72	0x00000325	1.128e-42
73	0x0000026a	8.66e-43
74	0x80000221	-7.64e-43
75	0x8000028a	-9.11e-43
76	0x00000076	1.65e-43
77	0x80000019	-3.5e-44
78	0x800000b2	-2.5e-43
79	0x80000343	-1.17e-42
80	0x00000280	8.97e-43
81	0x80000a21	-3.634e-42
82	0x800004c1	-1.705e-42
83	0x0000048b	1.63e-42
84	0x000003b3	1.327e-42
85	0x00000dc7	4.942e-42
86	0x0000009a	2.16e-43
87	0x800003a7	-1.31e-42
88	0x000011f2	6.438e-42
89	0x80000365	-1.218e-42
90	0x800001e1	-6.74e-43
91	0x000000a2	2.27e-43
92	0x00000088	1.9e-43
93	0x000000d1	2.93e-43
94	0x0000001c	3.9e-44
95	0x800001ed	-6.91e-43
96	0x190a7028	7.1570826e-24
97	0x800000e1	-3.15e-43
98	0x80000206	-7.26e-43
99	0x00000131	4.27e-43
100	0x80000108	-3.7e-43
101	0x80000189	-5.51e-43
102	0x00000018	3.4e-44
103	0x000001fc	7.12e-43
104	0x000000d4	2.97e-43
105	0x800000ef	-3.35e-43
106	0x00000053	1.16e-43
107	0x80000138	-4.37e-43
108	0x800001dd	-6.68e-43
109	0x0000019f	5.82e-43
110	0x0000020d	7.36e-43
111	0x80000230	-7.85e-43
112	0x0000020a	7.31e-43
113	0x00000284	9.02e-43
114	0x00000281	8.98e-43
115	0x80000110	-3.81e-43
116	0x00000031	6.9e-44
117	0x00000847	2.97e-42
118	0x8000052e	-1.858e-42
119	0x8000031b	-1.114e-42
120	0x00000360	1.211e-42
121	0x0000039b	1.293e-42
122	0x80000217	-7.5e-43
123	0x8000045b	-1.562e-42
124	0x8000041a	-1.471e-42
125	0x80000680	-2.332e-42
126	0xaaec25d8	-4.194828e-13
127	0xaaec2a83	-4.195152e-13
128	0xaaec2da3	-4.1953688e-13
129	0xaa9b3aec	-2.7574416e-13
130	0xaa9b4c5d	-2.758652e-13
131	0xaa9b2dd6	-2.7565336e-13
132	0xaa954553	-2.651582e-13
133	0xaa954b45	-2.6519946e-13
134	0xaa9572d6	-2.65474e-13
135	0x2a83f2fa	2.3438873e-13
136	0x2a5eeb86	1.9799275e-13
137	0x2a2a7405	1.5139285e-13
138	0x2a83f1b1	2.3437982e-13
139	0x2a5ef888	1.9803788e-13
140	0x2a2a8381	1.5144658e-13
141	0x2a83f4da	2.3440174e-13
142	0x2a5f0218	1.9807105e-13
143	0x2a2a7129	1.5138293e-13
144	0xa1bd06c6	-1.2808931e-18
145	0xa375bd94	-1.3321621e-17
146	0xa4284e60	-3.649558e-17
147	0x22ce0e90	5.585183e-18
148	0xa307202c	-7.325177e-18
149	0xa430e20f	-3.8355396e-17
150	0xa3a28ac0	-1.7622838e-17
151	0x2300936d	6.9701125e-18
152	0x2436d6b6	3.9646826e-17
153	0x34062b62	1.2495505e-07
154	0xb3d8b72a	-1.0091601e-07
155	0xb77cb864	-1.5063302e-05
156	0x34c2a40f	3.6254684e-07
157	0xb47da1e9	-2.3621364e-07
158	0x37c916cf	2.3971688e-05
159	0x36c19a29	5.769795e-06
160	0x359befc0	1.1618176e-06
161	0xb849a4bb	-4.807555e-05
162	0xb75d67ee	-1.31968245e-05
163	0xb598ad1d	-1.1375265e-06
164	0xb2e04a55	-2.6110834e-08
165	0x343b0588	1.7417744e-07
166	0xb68a9727	-4.130317e-06
167	0xb3e99f10	-1.0878841e-07
168	0x3a0abf15	0.00052927557
169	0xb698f1ef	-4.558118e-06
170	0xb4359825	-1.6912288e-07
171	0x2937b4b1	4.0790888e-14
172	0x29cf2c9c	9.200385e-14
173	0x29804ab6	5.697302e-14
174	0xa9c620de	-8.798668e-14
175	0xa95b787c	-4.8732272e-14
176	0x28f7109d	2.7429714e-14
177	0xa8a09450	-1.7827889e-14
178	0x298ec5fc	6.3404116e-14
179	0x2908b5f1	3.0355875e-14
180	0x28ebc5ff	2.6176108e-14
181	0xaa0337e3	-1.1654527e-13
182	0xa9649845	-5.0758243e-14
183	0xa97b00ce	-5.5733894e-14
184	0xa8e67b31	-2.5588555e-14
185	0xa9be468e	-8.449934e-14
186	0xaa18b819	-1.3564184e-13
187	0xa942b0cf	-4.323001e-14
188	0xa9c2c000	-8.6486374e-14
189	0x3abcad29	0.0014394867
190	0x3abcaccb	0.0014394758
191	0x3abcac60	0.0014394633
192	0x3a39baeb	0.0007085043
193	0x3a39ba97	0.0007084994
194	0x3a39ba9a	0.0007084996
195	0xbb408cd5	-0.0029380817
196	0xbb408ce7	-0.002938086
197	0xbb408cf2	-0.0029380885
198	0x39fe2a37	0.00048478108
199	0xba97263e	-0.0011531783
200	0x39aa168e	0.0003244173
201	0x39fe2b28	0.0004847881
202	0xba972634	-0.0011531771
203	0x39aa159c	0.00032441027
204	0x39fe2add	0.0004847859
205	0xba97262a	-0.001153176
206	0x39aa1331	0.00032439225
207	0x36e9ccd1	6.967785e-06
208	0xb712fd0b	-8.761194e-06
209	0x378b3b14	1.6597602e-05
210	0x36725cff	3.611494e-06
211	0x37cee655	2.466437e-05
212	0xb6c42b64	-5.8463065e-06
213	0x37b85083	2.1972e-05
214	0x3607261d	2.0138752e-06
215	0x37b96f68	2.2105596e-05
216	0xbcab7a4c	-0.02093234
217	0xbc4b79ea	-0.012419203
218	0xbca3bc66	-0.019987296
219	0xbc9ac176	-0.018891077
220	0xbc972e28	-0.018454626
221	0xbcd0982c	-0.025463186
222	0xbbd9b3e8	-0.006643761
223	0xbc795283	-0.015217426
224	0xbcc3f2ef	-0.02391955
225	0x3c40cd5b	0.011767711
226	0x3ccb6e5f	0.024832902
227	0x3c803427	0.015649868
228	0x3c0c025f	0.008545487
229	0x3c913b6f	0.017728535
230	0x3cdcc878	0.02695106
231	0x3c7ee39f	0.015557199
232	0x3d21a4c1	0.039463762
233	0x3c50b2a0	0.0127379
234	0xbc75e1c2	-0.015007438
235	0xbca1688c	-0.019703172
236	0xbc83a0d4	-0.0160679
237	0xbc9f1221	-0.019417824
238	0xbc62b92a	-0.013838092
239	0xbc013435	-0.007885982
240	0xbc923e8d	-0.017852092
241	0xbc8db575	-0.01729844
242	0xbc84f90e	-0.01623204
243	0x3c122d15	0.008921881
244	0x3b25b1e2	0.0025283028
245	0x3b952544	0.0045515615
246	0x3be61455	0.0070214667
247	0x3be8bad7	0.007102351
248	0x3b58eec9	0.0033101311
249	0x3ba6957c	0.005083738
250	0xbafa31a0	-0.0019088276
251	0x3b212dcb	0.0024593945
252	0x3b8a7fc3	0.004226656
253	0x3b8a7f91	0.004226633
254	0x3b8a7f98	0.004226636
255	0x3acb604e	0.0015516372

bias f4 [32]
0	0x00000bab	4.186e-42
1	0x8000066c	-2.304e-42
2	0x23aa319b	1.8452446e-17
3	0xb6deb6a1	-6.6373764e-06
4	0x35497dae	7.5061223e-07
5	0x8000007c	-1.74e-43
6	0x000004b1	1.683e-42
7	0xb557ff63	-8.046538e-07
8	0x000000e1	3.15e-43
9	0x0a2272ee	7.821632e-33
10	0x045b91ff	2.5810364e-36
11	0x9e77adc0	-1.3112002e-20
12	0x0fc4e429	1.9414976e-29
13	0x8c325b67	-1.3740127e-31
14	0x8000090c	-3.245e-42
15	0x37a9bb8d	2.0233705e-05
16	0x8577c0e3	-1.1649312e-35
17	0x3640f00b	2.8749953e-06
18	0xb517f104	-5.660261e-07
19	0x80000496	-1.645e-42
20	0x3477dd09	2.308408e-07
21	0x329fc462	1.859934e-08
22	0xb6773106	-3.6834404e-06
23	0x0000097c	3.402e-42
24	0x351fb726	5.949863e-07
25	0x0000151e	7.575e-42
26	0x9c0f6d87	-4.745629e-22
27	0x000009d8	3.531e-42
28	0xb5e35196	-1.6936563e-06
29	0x8a568565	-1.0328814e-32
30	0x9fad7321	-7.3458815e-20
31	0x0000046f	1.59e-42

weight f4 [32]
0	0x80000017	-3.2e-44
1	0x8000011b	-3.97e-43
2	0xb4ea7087	-4.366777e-07
3	0x3d916382	0.07099058
4	0x3db792bb	0.089635335
5	0x80000131	-4.27e-43
6	0x000001b4	6.11e-43
7	0x3d4e9d7f	0.05044317
8	0x80000149	-4.61e-43
9	0xa7776718	-3.4334023e-15
10	0xa2ff5c01	-6.92153e-18
11	0x31ae4d10	5.0728275e-09
12	0xaab732c9	-3.254257e-13
13	0xa7bb5352	-5.1993262e-15
14	0x800000a8	-2.35e-43
15	0x3e1ce247	0.15320693
16	0xa5e8b4cd	-4.03681e-16
17	0x3bf7fd6f	0.0075680534
18	0x3da68704	0.08131221
19	0x00000071	1.58e-43
20	0x3cc03ce6	0.023466539
21	0x1efe7c15	2.6944615e-20
22	0x3d988015	0.07446305
23	0x8c477e0e	-1.5368336e-31
24	0x3da8f20c	0.08249292
25	0x800001f4	-7e-43
26	0xb109c351	-2.0047148e-09
27	0x8004d3fb	-4.43386e-40
28	0x3d9017a1	0.07035757
29	0xa79eb121	-4.4045853e-15
30	0xb2e72a75	-2.6911247e-08
31	0x1ba4fab4	2.7293537e-22

bias f4 [32]
0	0x80002449	-1.3017e-41
1	0x0000069c	2.371e-42
2	0xb382ef2e	-6.097103e-08
3	0x3bb72f6d	0.0055903704
4	0x3c997228	0.018731192
5	0x0000176b	8.401e-42
6	0x80004bb5	-2.7159e-41
7	0xbd1d137c	-0.03834866
8	0x80006ba6	-3.8617e-41
9	0xa3c30d73	-2.1147638e-17
10	0x1f111f7a	3.073098e-20
11	0x2e5272d3	4.7850456e-11
12	0xa8a4b313	-1.8285319e-14
13	0x2639f6d9	6.451931e-16
14	0x00016773	1.28946e-40
15	0x3d0ee569	0.03488675
16	0x20aef524	2.9638967e-19
17	0x3b6ceb1d	0.003615088
18	0xbd01823c	-0.03161834
19	0x80032bbc	-2.91195e-40
20	0xbc95a93a	-0.01826917
21	0x21e0c60f	1.5231256e-18
22	0xbc62f1ac	-0.013851564
23	0x0c7e4a17	1.9589744e-31
24	0x3da02121	0.07818819
25	0x800008bc	-3.133e-42
26	0xad8b9407	-1.5868208e-11
27	0x039fe2bc	9.397236e-37
28	0xbd2a2f6d	-0.041549135
29	0xa4b8e6f1	-8.018851e-17
30	0xb1623328	-3.2916407e-09
31	0x8fbdca4d	-1.8714762e-29

running_mean f4 [32]
0	0x35041a54	4.9212144e-07
1	0x18d2f445	5.4530377e-24
2	0x39a62696	0.00031690736
3	0x3cb36c18	0.021902129
4	0xbd92ec01	-0.071739204
5	0xb11f86ab	-2.3214095e-09
6	0xb624f8fd	-2.4582835e-06
7	0x3c5e815f	0.013580649
8	0x00000661	2.288e-42
9	0x36c346fd	5.819717e-06
10	0x32900dcb	1.6770079e-08
11	0x35171027	5.627539e-07
12	0x3710049b	8.584141e-06
13	0x3489f60e	2.5697267e-07
14	0xb1f492cc	-7.1180235e-09
15	0x3e78f6c7	0.24312888
16	0x3120099f	2.3288533e-09
17	0x3d3a993e	0.0455563
18	0xbd063416	-0.032764517
19	0x0f177911	7.468191e-30
20	0x3bb76188	0.0055963434
21	0x343182c5	1.6531983e-07
22	0xbd152ea0	-0.03642142
23	0x2df6f066	2.807372e-11
24	0xbd7bfb77	-0.061519112
25	0xaed18ccb	-9.5292295e-11
26	0x35b203c0	1.3263125e-06
27	0x34cc86ef	3.8096138e-07
28	0xbb55d9e6	-0.0032631098
29	0x33e79304	1.0783518e-07
30	0x39977a0c	0.00028891896
31	0xadfba618	-2.8609157e-11

running_var f4 [32]
0	0x179bde81	1.0072808e-24
1	0x00000004	6e-45
2	0x35ec0704	1.7585412e-06
3	0x3dbb962b	0.09159502
4	0x3d9c7a76	0.07640545
5	0x0fc0cbfa	1.901123e-29
6	0x1943ae2d	1.0116438e-23
7	0x3cb43738	0.021998987
8	0x00000004	6e-45
9	0x25070a9c	1.1712978e-16
10	0x289daa01	1.7504229e-14
11	0x2e0a689b	3.1470476e-11
12	0x315e41d9	3.2342682e-09
13	0x2c8d2421	4.011472e-12
14	0x132e2988	2.1982364e-27
15	0x3f9a98ce	1.2077882
16	0x2664c634	7.9372006e-16
17	0x3d486457	0.048923817
18	0x3d9e7e56	0.077389404
19	0x00000004	6e-45
20	0x3c965542	0.018351201
21	0x2a8343f9	2.331744e-13
22	0x3d56be7c	0.052427754
23	0x1f6f0365	5.0613026e-20
24	0x3e02b794	0.12765342
25	0x0c969de5	2.3206189e-31
26	0x2e8d7537	6.432759e-11
27	0x1732d294	5.778069e-25
28	0x3ca860e5	0.020554015
29	0x2b23d79b	5.8208446e-13
30	0x3662107c	3.368622e-06
31	0x15c6f4a4	8.035754e-26

weight f4 [32, 35, 3, 3]
0	0x000001e9	6.85e-43
1	0x00000207	7.27e-43
2	0x00000297	9.29e-43
3	0x0000027c	8.91e-43
4	0x000000cf	2.9e-43
5	0x00000203	7.22e-43
6	0x0000009b	2.17e-43
7	0x8000005a	-1.26e-43
8	0x0000014e	4.68e-43
9	0x8000005d	-1.3e-43
10	0x0000027a	8.88e-43
11	0x80000007	-1e-44
12	0x000000c2	2.72e-43
13	0x000001a6	5.91e-43
14	0x0000020e	7.37e-43
15	0x80000284	-9.02e-43
16	0x800000e1	-3.15e-43
17	0x000000ac	2.41e-43
18	0xabf0bf2b	-1.7106085e-12
19	0x00000c3c	4.389e-42
20	0x2ca94b4c	4.8116285e-12
21	0x80000821	-2.916e-42
22	0x00001230	6.524e-42
23	0x00000ca3	4.533e-42
24	0x2de560af	2.6077222e-11
25	0x80000122	-4.06e-43
26	0x000012b0	6.704e-42
27	0x80000015	-3e-44
28	0x00000399	1.29e-42
29	0x80000306	-1.085e-42
30	0x00000067	1.44e-43
31	0x800001dd	-6.68e-43
32	0x00000145	4.55e-43
33	0x00000105	3.66e-43
34	0x00000231	7.86e-43
35	0x0000028b	9.12e-43
36	0x800000a4	-2.3e-43
37	0x000004b1	1.683e-42
38	0x0000054c	1.9e-42
39	0x0000029f	9.4e-43
40	0x000002fd	1.072e-42
41	0x8000019b	-5.76e-43
42	0x0000038e	1.275e-42
43	0x80000162	-4.96e-43
44	0x80000364	-1.216e-42
45	0x00000212	7.43e-43
46	0x0000002c	6.2e-44
47	0x800000c6	-2.77e-43
48	0x00000102	3.62e-43
49	0x000000e1	3.15e-43
50	0x0000027f	8.95e-43
51	0x000001c6	6.36e-43
52	0x00000236	7.93e-43
53	0x000000f1	3.38e-43
54	0x80000051	-1.14e-43
55	0x0000016f	5.14e-43
56	0x800001ee	-6.92e-43
57	0x80000182	-5.41e-43
58	0x00000006	8e-45
59	0x800001c1	-6.29e-43
60	0x000001a6	5.91e-43
61	0x000000a5	2.31e-43
62	0x8000001c	-3.9e-44
63	0x000002b7	9.74e-43
64	0x00000237	7.95e-43
65	0x00000108	3.7e-43
66	0x800001ce	-6.47e-43
67	0x0000004c	1.06e-43
68	0x800002ed	-1.05e-42
69	0x800002c7	-9.96e-43
70	0x00000150	4.71e-43
71	0x80000224	-7.68e-43
72	0x0000026e	8.72e-43
73	0x80000004	-6e-45
74	0x0000034b	1.181e-42
75	0x80000167	-5.03e-43
76	0x0000001d	4e-44
77	0x00000114	3.87e-43
78	0x80000294	-9.25e-43
79	0x800000c4	-2.75e-43
80	0x00000271	8.76e-43
81	0x80000267	-8.62e-43
82	0x000002e1	1.033e-42
83	0x800001ce	-6.47e-43
84	0x0000008a	1.93e-43
85	0x80000020	-4.5e-44
86	0x80000215	-7.47e-43
87	0x800001ab	-5.98e-43
88	0x000000d5	2.98e-43
89	0x00000099	2.14e-43
90	0x00000134	4.32e-43
91	0x000001bd	6.24e-43
92	0x8000024f	-8.28e-43
93	0x800000ef	-3.35e-43
94	0x8000024f	-8.28e-43
95	0x80000140	-4.48e-43
96	0x00000178	5.27e-43
97	0x00000033	7.1e-44
98	0x80000114	-3.87e-43
99	0x0000024c	8.24e-43
100	0x0000029b	9.35e-43
101	0x000003e7	1.4e-42
102	0x80000148	-4.6e-43
103	0x00000266	8.6e-43
104	0x8000010d	-3.77e-43
105	0x00000134	4.32e-43
106	0x8000005b	-1.28e-43
107	0x80000230	-7.85e-43
108	0x00000223	7.67e-43
109	0x800000b8	-2.58e-43
110	0x0000021f	7.61e-43
111	0x0000002e	6.4e-44
112	0x00000130	4.26e-43
113	0x00000245	8.14e-43
114	0x0000021b	7.55e-43
115	0x00000103	3.63e-43
116	0x00000149	4.61e-43
117	0x800000cf	-2.9e-43
118	0x00000035	7.4e-44
119	0x00000279	8.87e-43
120	0x8000032c	-1.138e-42
121	0x000000ac	2.41e-43
122	0x80000262	-8.55e-43
123	0x8000027d	-8.93e-43
124	0x000000d5	2.98e-43
125	0x000002e4	1.037e-42
126	0x00000181	5.4e-43
127	0x800001d8	-6.61e-43
128	0x0000005b	1.28e-43
129	0x00000231	7.86e-43
130	0x8000022d	-7.8e-43
131	0x80000145	-4.55e-43
132	0x000001f5	7.02e-43
133	0x8000008b	-1.95e-43
134	0x80000059	-1.25e-43
135	0x000001c4	6.33e-43
136	0x8000020c	-7.34e-43
137	0x800002af	-9.63e-43
138	0x00000199	5.73e-43
139	0x80000053	-1.16e-43
140	0x800000d3	-2.96e-43
141	0x80000092	-2.05e-43
142	0x8000019a	-5.75e-43
143	0x800001a3	-5.87e-43
144	0x8000009d	-2.2e-43
145	0x80000294	-9.25e-43
146	0x0000031a	1.113e-42
147	0x0000022a	7.76e-43
148	0x8000015a	-4.85e-43
149	0x800002f7	-1.064e-42
150	0x80000067	-1.44e-43
151	0x80000247	-8.17e-43
152	0x00000207	7.27e-43
153	0x00000221	7.64e-43
154	0x000002b4	9.7e-43
155	0x8000012c	-4.2e-43
156	0x80000037	-7.7e-44
157	0x00000100	3.59e-43
158	0x00000269	8.65e-43
159	0x0000001b	3.8e-44
160	0x80000215	-7.47e-43
161	0x00000245	8.14e-43
162	0x00000222	7.65e-43
163	0x80000226	-7.71e-43
164	0x00000276	8.83e-43
165	0x000001f0	6.95e-43
166	0x80000150	-4.71e-43
167	0x00000239	7.97e-43
168	0x00000040	9e-44
169	0x800001d8	-6.61e-43
170	0x0000000a	1.4e-44
171	0x80000006	-8e-45
172	0x800001e1	-6.74e-43
173	0x8000020f	-7.38e-43
174	0x8000010f	-3.8e-43
175	0x0000024d	8.25e-43
176	0x0000018a	5.52e-43
177	0x80000030	-6.7e-44
178	0x000001fd	7.13e-43
179	0x0000018c	5.55e-43
180	0x00000217	7.5e-43
181	0x00000319	1.111e-42
182	0x00000176	5.24e-43
183	0x00000293	9.23e-43
184	0x8000024e	-8.27e-43
185	0x80000256	-8.38e-43
186	0x000001c8	6.39e-43
187	0x80000218	-7.51e-43
188	0x0000018a	5.52e-43
189	0x80000001	-1e-45
190	0x0000006e	1.54e-43
191	0x80000078	-1.68e-43
192	0x80000223	-7.67e-43
193	0x00000149	4.61e-43
194	0x8000027f	-8.95e-43
195	0x80000061	-1.36e-43
196	0x00000185	5.45e-43
197	0x8000022f	-7.83e-43
198	0x80000262	-8.55e-43
199	0x80000061	-1.36e-43
200	0x8000027e	-8.94e-43
201	0x800001cf	-6.49e-43
202	0x800001c7	-6.38e-43
203	0x000002ce	1.006e-42
204	0x800000c4	-2.75e-43
205	0x000000eb	3.3e-43
206	0x00000222	7.65e-43
207	0x0000017a	5.3e-43
208	0x00000132	4.29e-43
209	0x000000bb	2.62e-43
210	0x00000142	4.51e-43
211	0x80000011	-2.4e-44
212	0x80000002	-3e-45
213	0x800001a2	-5.86e-43
214	0x000000c8	2.8e-43
215	0x000000b0	2.47e-43
216	0x000000d0	2.91e-43
217	0x00000293	9.23e-43
218	0x8000023e	-8.04e-43
219	0x80000146	-4.57e-43
220	0x800001e0	-6.73e-43
221	0x80000158	-4.82e-43
222	0x80000017	-3.2e-44
223	0x80000203	-7.22e-43
224	0x80000211	-7.41e-43
225	0x00000017	3.2e-44
226	0x80000175	-5.23e-43
227	0x0000017c	5.32e-43
228	0x00000204	7.23e-43
229	0x80000168	-5.04e-43
230	0x80000238	-7.96e-43
231	0x000000b3	2.51e-43
232	0x00000028	5.6e-44
233	0x800000e3	-3.18e-43
234	0x000000cc	2.86e-43
235	0x800001db	-6.66e-43
236	0x800000df	-3.12e-43
237	0x0000027c	8.91e-43
238	0x80000266	-8.6e-43
239	0x80000109	-3.71e-43
240	0x8000017b	-5.31e-43
241	0x800000e2	-3.17e-43
242	0x000001ab	5.98e-43
243	0x000002a8	9.53e-43
244	0x00000189	5.51e-43
245	0x000000ad	2.42e-43
246	0x0000007e	1.77e-43
247	0x80000266	-8.6e-43
248	0x0000058e	1.993e-42
249	0x00000204	7.23e-43
250	0x000002d1	1.01e-42
251	0x00000266	8.6e-43
252	0x8000016a	-5.07e-43
253	0x00000151	4.72e-43
254	0x00000064	1.4e-43
255	0x00000210	7.4e-43

bias f4 [32]
0	0xa8a26ce8	-1.8032844e-14
1	0x3534c9b3	6.7348736e-07
2	0xad059797	-7.593834e-12
3	0x2f0af2bd	1.2637265e-10
4	0x80000711	-2.535e-42
5	0xb65dc194	-3.3044244e-06
6	0x1f07224e	2.8615738e-20
7	0x00001124	6.149e-42
8	0x800003f0	-1.413e-42
9	0x80001846	-8.708e-42
10	0xad40ee9b	-1.09669175e-11
11	0xb8459088	-4.7103065e-05
12	0x00000a56	3.708e-42
13	0x0000137b	6.988e-42
14	0x80000bc1	-4.217e-42
15	0x3829b762	4.046353e-05
16	0x80000b0a	-3.96e-42
17	0x000006eb	2.482e-42
18	0x8000091e	-3.27e-42
19	0x0000047b	1.607e-42
20	0x80000ed9	-5.326e-42
21	0xb75f2ef0	-1.3302764e-05
22	0x00000ddd	4.973e-42
23	0x80000ad7	-3.889e-42
24	0x80000928	-3.285e-42
25	0xb92b1e66	-0.00016319155
26	0x8000132e	-6.88e-42
27	0x32630d2c	1.3216134e-08
28	0x80000ce5	-4.626e-42
29	0xb7cfc636	-2.4768622e-05
30	0x3826dfca	3.9785904e-05
31	0xb7edf27e	-2.836552e-05

weight f4 [32]
0	0x8000003f	-8.8e-44
1	0x3d0f9bd9	0.035060737
2	0x000001c5	6.35e-43
3	0x00018b4d	1.41807e-40
4	0x8000012b	-4.19e-43
5	0x3d6c30a4	0.057663575
6	0x223897db	2.5017042e-18
7	0x00000143	4.53e-43
8	0x000000eb	3.3e-43
9	0x80077704	-6.85543e-40
10	0x80000066	-1.43e-43
11	0x3de9dd34	0.11419144
12	0x800000f6	-3.45e-43
13	0x1013f501	2.9179382e-29
14	0x000150bb	1.20796e-40
15	0x3da2461c	0.079235286
16	0x00009d07	5.6331e-41
17	0x80000167	-5.03e-43
18	0x0001edd0	1.77147e-40
19	0x00000090	2.02e-43
20	0x00029f67	2.40854e-40
21	0x80000175	-5.23e-43
22	0x800003f5	-1.42e-42
23	0x0000019c	5.77e-43
24	0x000000eb	3.3e-43
25	0x80000178	-5.27e-43
26	0x000001e3	6.77e-43
27	0x80000181	-5.4e-43
28	0x000001f1	6.96e-43
29	0x000000a4	2.3e-43
30	0x3abed8b6	0.0014560435
31	0x8000010c	-3.76e-43

bias f4 [32]
0	0x800004b9	-1.694e-42
1	0xbb8fcbc8	-0.0043883063
2	0x8000064d	-2.26e-42
3	0x8a3ef25d	-9.193751e-33
4	0x800000ca	-2.83e-43
5	0xbc879f5b	-0.016555479
6	0x21c144a3	1.3096357e-18
7	0x00000799	2.726e-42
8	0x00001d6a	1.0552e-41
9	0x8975132b	-2.9499815e-33
10	0x000062f2	3.5495e-41
11	0x3e4e712e	0.20160362
12	0x00002d71	1.6301e-41
13	0x8f67b5e5	-1.1424211e-29
14	0x83191b68	-4.499412e-37
15	0x3d0b83ad	0.034061123
16	0x8d6cea6b	-7.3005285e-31
17	0x8000230f	-1.2577e-41
18	0x8090a2a6	-1.3282659e-38
19	0x800047aa	-2.5708e-41
20	0x86999d2c	-5.7783147e-35
21	0x80000162	-4.96e-43
22	0x00c2f73f	1.7904781e-38
23	0x80000096	-2.1e-43
24	0x000021fb	1.219e-41
25	0x00002cbf	1.6052e-41
26	0x8000051d	-1.834e-42
27	0x80000eb3	-5.273e-42
28	0x800008f9	-3.219e-42
29	0x80000390	-1.278e-42
30	0x3a851941	0.0010154621
31	0x80001820	-8.654e-42

running_mean f4 [32]
0	0xabc875b0	-1.424352e-12
1	0xbc8b1e75	-0.016982296
2	0xb473effa	-2.2718442e-07
3	0xacc4eca7	-5.5969287e-12
4	0x1429d1df	8.573709e-27
5	0xbae00d9a	-0.0017093897
6	0x33570965	5.0067133e-08
7	0x29ec71b5	1.05002304e-13
8	0xb6e459a5	-6.8053655e-06
9	0x2e863096	6.102245e-11
10	0x370f9c3b	8.559839e-06
11	0x3b3d0c73	0.0028846532
12	0x3215d4ce	8.721328e-09
13	0x2d9ff764	1.818607e-11
14	0xaee25373	-1.0292114e-10
15	0x3b4a54aa	0.0030873218
16	0x33e8c5ef	1.0839346e-07
17	0x3262a4ee	1.3192432e-08
18	0xb77a6aaa	-1.4925996e-05
19	0xb704e6f3	-7.921585e-06
20	0x369348e1	4.3894256e-06
21	0xb6a09538	-4.785743e-06
22	0x31831138	3.8145593e-09
23	0x359c5a12	1.164912e-06
24	0x379b6be9	1.852769e-05
25	0x378758f6	1.613468e-05
26	0xb613929a	-2.199004e-06
27	0x336d0829	5.5188284e-08
28	0x9c9d3b18	-1.0404664e-21
29	0x3564d329	8.52439e-07
30	0xba43e9d9	-0.00074735057
31	0x3592cbce	1.0937163e-06

running_var f4 [32]
0	0x04802d44	3.0134225e-36
1	0x3ab27544	0.001361527
2	0x170ca7e3	4.5448343e-25
3	0x08c537d3	1.186963e-33
4	0x00000004	6e-45
5	0x3a8b9552	0.0010649359
6	0x148492c3	1.3386481e-26
7	0x03b27271	1.0488174e-36
8	0x1a25f644	3.4320132e-23
9	0x0d0e2540	4.3801966e-31
10	0x182212c5	2.0947485e-24
11	0x3b28831a	0.0025712908
12	0x12c2ee1a	1.2301818e-27
13	0x0b13486f	2.8365663e-32
14	0x110f2a0e	1.129367e-28
15	0x3b0f7abc	0.0021893224
16	0x172fa621	5.6755234e-25
17	0x13885344	3.4413333e-27
18	0x187546a1	3.1701166e-24
19	0x1a2b32af	3.5402913e-23
20	0x1a02be21	2.7036955e-23
21	0x1a44d1d3	4.0701345e-23
22	0x13570ee5	2.7144159e-27
23	0x179774e4	9.787654e-25
24	0x1b7af50b	2.0758693e-22
25	0x1b2f2a06	1.4489239e-22
26	0x197bad86	1.3011439e-23
27	0x15916b12	5.873396e-26
28	0x00000004	6e-45
29	0x195ed48e	1.1520056e-23
30	0x35906772	1.0758943e-06
31	0x19b9e8a3	1.9222513e-23

weight f4 [64, 35, 3, 3]
0	0xa2d62c27	-5.8051564e-18
1	0xa2e42fc9	-6.185012e-18
2	0xa2d8f2f2	-5.8804146e-18
3	0xa86e19df	-1.3217264e-14
4	0xa8696489	-1.2955898e-14
5	0xa86510b1	-1.2715673e-14
6	0xa99973d8	-6.8146606e-14
7	0xa9962882	-6.668365e-14
8	0xa996d059	-6.697481e-14
9	0xa6b6466f	-1.2647878e-15
10	0x26c6b9e2	1.3789394e-15
11	0xabc30e47	-1.3859546e-12
12	0xa6b5adba	-1.2606487e-15
13	0xa77bf507	-3.4966077e-15
14	0xabb0805e	-1.2541181e-12
15	0xa6bb9d71	-1.3018406e-15
16	0x279b2e14	4.30711e-15
17	0xabbc094a	-1.3360782e-12
18	0x00000cb6	4.56e-42
19	0x00000d46	4.762e-42
20	0x00000c9f	4.528e-42
21	0x80001136	-6.174e-42
22	0x8000053c	-1.878e-42
23	0x000001e9	6.85e-43
24	0x800003e0	-1.39e-42
25	0x313c08e0	2.7362645e-09
26	0xb67807a8	-3.6959336e-06
27	0x0aa30ed4	1.5701907e-32
28	0x000001ef	6.94e-43
29	0x00000101	3.6e-43
30	0x0000007a	1.71e-43
31	0x8000025e	-8.49e-43
32	0x00000024	5e-44
33	0x000001e3	6.77e-43
34	0x00000022	4.8e-44
35	0x0000001b	3.8e-44
36	0x00000048	1.01e-43
37	0x000001a1	5.84e-43
38	0x00000147	4.58e-43
39	0x000001f1	6.96e-43
40	0x00000077	1.67e-43
41	0x0000004a	1.04e-43
42	0x80000023	-4.9e-44
43	0x800000ca	-2.83e-43
44	0x800000eb	-3.3e-43
45	0x0000013a	4.4e-43
46	0x800001cb	-6.43e-43
47	0x80000183	-5.42e-43
48	0x8000005e	-1.32e-43
49	0x80000212	-7.43e-43
50	0x8000007d	-1.75e-43
51	0x80000223	-7.67e-43
52	0x0000003e	8.7e-44
53	0x80000211	-7.41e-43
54	0x00000070	1.57e-43
55	0x80000145	-4.55e-43
56	0x00000219	7.52e-43
57	0x80000225	-7.7e-43
58	0x00000230	7.85e-43
59	0x80000189	-5.51e-43
60	0x00000203	7.22e-43
61	0x000001ae	6.03e-43
62	0x000000bd	2.65e-43
63	0x8000000d	-1.8e-44
64	0x80000217	-7.5e-43
65	0x000001d7	6.6e-43
66	0x800000e6	-3.22e-43
67	0x800001aa	-5.97e-43
68	0x800001ad	-6.01e-43
69	0x0000021d	7.58e-43
70	0x0000006d	1.53e-43
71	0x80000122	-4.06e-43
72	0x00000108	3.7e-43
73	0x00000145	4.55e-43
74	0x800001f6	-7.03e-43
75	0x000001d7	6.6e-43
76	0x8000000f	-2.1e-44
77	0x000001e8	6.84e-43
78	0x0000020a	7.31e-43
79	0x000000f4	3.42e-43
80	0x800001dc	-6.67e-43
81	0x800000b1	-2.48e-43
82	0x80000151	-4.72e-43
83	0x00000150	4.71e-43
84	0x800001f4	-7e-43
85	0x000000bf	2.68e-43
86	0x80000212	-7.43e-43
87	0x80000144	-4.54e-43
88	0x8000020a	-7.31e-43
89	0x000000a7	2.34e-43
90	0x80000109	-3.71e-43
91	0x000001ca	6.42e-43
92	0x800001ed	-6.91e-43
93	0x0000022e	7.82e-43
94	0x800001be	-6.25e-43
95	0x000000e6	3.22e-43
96	0x80000012	-2.5e-44
97	0x800000b2	-2.5e-43
98	0x8000007a	-1.71e-43
99	0x00000205	7.24e-43
100	0x000001b2	6.08e-43
101	0x80000146	-4.57e-43
102	0x000000c3	2.73e-43
103	0x80000233	-7.89e-43
104	0x0000025c	8.46e-43
105	0x80000159	-4.83e-43
106	0x80000007	-1e-44
107	0x0000018c	5.55e-43
108	0x048d6adb	3.3247072e-36
109	0x80000019	-3.5e-44
110	0x800001d0	-6.5e-43
111	0x800001d4	-6.56e-43
112	0x80000013	-2.7e-44
113	0x800000a4	-2.3e-43
114	0x00000001	1e-45
115	0x800000ef	-3.35e-43
116	0x8000010d	-3.77e-43
117	0x800001ad	-6.01e-43
118	0x00000209	7.3e-43
119	0x8000021d	-7.58e-43
120	0x000001a6	5.91e-43
121	0x0000005c	1.29e-43
122	0x80000252	-8.32e-43
123	0x800001e2	-6.75e-43
124	0x00000007	1e-44
125	0x8000021e	-7.6e-43
126	0x00000059	1.25e-43
127	0x000000f2	3.39e-43
128	0x80000036	-7.6e-44
129	0x80000166	-5.02e-43
130	0x000001e6	6.81e-43
131	0x000001dc	6.67e-43
132	0x80000111	-3.83e-43
133	0x00000119	3.94e-43
134	0x800001ae	-6.03e-43
135	0x80000150	-4.71e-43
136	0x8000012d	-4.22e-43
137	0x00000161	4.95e-43
138	0x00000210	7.4e-43
139	0x800000e7	-3.24e-43
140	0x0000023e	8.04e-43
141	0x80000064	-1.4e-43
142	0x80000161	-4.95e-43
143	0x800001ac	-6e-43
144	0x0000004a	1.04e-43
145	0x80000183	-5.42e-43
146	0x80000225	-7.7e-43
147	0x0000022b	7.78e-43
148	0x0000020a	7.31e-43
149	0x000001b2	6.08e-43
150	0x80000104	-3.64e-43
151	0x800001f7	-7.05e-43
152	0x00000230	7.85e-43
153	0x0000001f	4.3e-44
154	0x800001a7	-5.93e-43
155	0x80000075	-1.64e-43
156	0x80000094	-2.07e-43
157	0x00000196	5.69e-43
158	0x000001c8	6.39e-43
159	0x80000047	-1e-43
160	0x000000f8	3.48e-43
161	0x800000f1	-3.38e-43
162	0x8000007c	-1.74e-43
163	0x000000f1	3.38e-43
164	0x800000d2	-2.94e-43
165	0x0000013a	4.4e-43
166	0x80000016	-3.1e-44
167	0x800000a0	-2.24e-43
168	0x8dafe7e3	-1.0841032e-30
169	0x91987337	-2.4052378e-28
170	0x1b2dba16	1.4370352e-22
171	0x000000da	3.05e-43
172	0x0000022d	7.8e-43
173	0x8000010f	-3.8e-43
174	0x80000013	-2.7e-44
175	0x000000d0	2.91e-43
176	0x000000a9	2.37e-43
177	0x80000014	-2.8e-44
178	0x800001b5	-6.12e-43
179	0x000001d3	6.54e-43
180	0x8000012a	-4.18e-43
181	0x8000018b	-5.54e-43
182	0x80000027	-5.5e-44
183	0x00000179	5.28e-43
184	0x800001d9	-6.63e-43
185	0x8000024f	-8.28e-43
186	0x000000ee	3.34e-43
187	0x0000011a	3.95e-43
188	0x8000013f	-4.47e-43
189	0x8000022c	-7.79e-43
190	0x8000009b	-2.17e-43
191	0x8000012e	-4.23e-43
192	0x800001bf	-6.26e-43
193	0x80000133	-4.3e-43
194	0x00000110	3.81e-43
195	0x000001bb	6.21e-43
196	0x00000245	8.14e-43
197	0x00000018	3.4e-44
198	0x117198ac	1.9058593e-28
199	0x8000004f	-1.11e-43
200	0x800001ee	-6.92e-43
201	0x8000022b	-7.78e-43
202	0x80000051	-1.14e-43
203	0x800002eb	-1.047e-42
204	0x80000107	-3.69e-43
205	0x00000233	7.89e-43
206	0x800001d2	-6.53e-43
207	0x80000137	-4.36e-43
208	0x800000ac	-2.41e-43
209	0x000000bd	2.65e-43
210	0x00000023	4.9e-44
211	0x00000250	8.3e-43
212	0x80000055	-1.19e-43
213	0x0000003a	8.1e-44
214	0x000001e3	6.77e-43
215	0x0000002f	6.6e-44
216	0x000002f2	1.057e-42
217	0x80000062	-1.37e-43
218	0x8000020b	-7.33e-43
219	0x80000210	-7.4e-43
220	0x800000ef	-3.35e-43
221	0x80000271	-8.76e-43
222	0x0000018f	5.59e-43
223	0x0000016f	5.14e-43
224	0x00000011	2.4e-44
225	0x00000114	3.87e-43
226	0x0000008a	1.93e-43
227	0x8000001a	-3.6e-44
228	0x0000000d	1.8e-44
229	0x00000004	6e-45
230	0x0000021f	7.61e-43
231	0x800001c9	-6.4e-43
232	0x00000198	5.72e-43
233	0x8000001b	-3.8e-44
234	0x0000022e	7.82e-43
235	0x8000013e	-4.46e-43
236	0x800000d3	-2.96e-43
237	0x00000028	5.6e-44
238	0x800001dc	-6.67e-43
239	0x80000128	-4.15e-43
240	0x8000017b	-5.31e-43
241	0x80000129	-4.16e-43
242	0x00000208	7.29e-43
243	0x800000b1	-2.48e-43
244	0x8000021c	-7.57e-43
245	0x800000db	-3.07e-43
246	0x8000013b	-4.41e-43
247	0x00000209	7.3e-43
248	0x8000020c	-7.34e-43
249	0x000001d1	6.52e-43
250	0x800001fb	-7.1e-43
251	0x00000142	4.51e-43
252	0x8000015e	-4.9e-43
253	0x00000044	9.5e-44
254	0x80000150	-4.71e-43
255	0x800000d9	-3.04e-43

bias f4 [64]
0	0x000001e7	6.82e-43
1	0x24b18e86	7.700296e-17
2	0x80000b97	-4.158e-42
3	0x80000b51	-4.06e-42
4	0x91385496	-1.4541106e-28
5	0xa15e7994	-7.5377433e-19
6	0x80000f58	-5.504e-42
7	0xb28c7a75	-1.6353832e-08
8	0xa0fc4379	-4.273511e-19
9	0x000000d4	2.97e-43
10	0x80001590	-7.735e-42
11	0xae2e4035	-3.9620047e-11
12	0x80000813	-2.896e-42
13	0xa270bd92	-3.2626423e-18
14	0x80002602	-1.3635e-41
15	0x000003e3	1.394e-42
16	0x00000318	1.11e-42
17	0xb8beff4e	-9.10746e-05
18	0x800011cc	-6.384e-42
19	0x211f96d7	5.407093e-19
20	0x00000008	1.1e-44
21	0x0000024c	8.24e-43
22	0x800004ec	-1.766e-42
23	0x000009dc	3.537e-42
24	0x2ce83863	6.6000968e-12
25	0x0000185d	8.74e-42
26	0x231106c5	7.861899e-18
27	0xa8fbdbb8	-2.7961886e-14
28	0xad3cfe32	-1.07430054e-11
29	0x9a332969	-3.7049783e-23
30	0xb44c66da	-1.9036398e-07
31	0x382c8229	4.1129217e-05
32	0xafc737f2	-3.623764e-10
33	0x34092693	1.2773152e-07
34	0x0000010f	3.8e-43
35	0xb0cea536	-1.5035428e-09
36	0x00000f0d	5.399e-42
37	0x80000349	-1.178e-42
38	0x80001111	-6.122e-42
39	0xb45cf6bf	-2.0578862e-07
40	0x8558809a	-1.01798916e-35
41	0x2e19defb	3.498622e-11
42	0x80000072	-1.6e-43
43	0x000004f7	1.781e-42
44	0xb73a5751	-1.1106794e-05
45	0x00000971	3.387e-42
46	0x80000a0e	-3.607e-42
47	0xafa9d326	-3.089095e-10
48	0x00000e67	5.167e-42
49	0x800009ce	-3.517e-42
50	0x2ee588e6	1.04380324e-10
51	0x00001e60	1.0896e-41
52	0x3807b0c7	3.2351145e-05
53	0x800007a8	-2.747e-42
54	0x800003e7	-1.4e-42
55	0x000003af	1.321e-42
56	0x26c27036	1.3491869e-15
57	0x8000145c	-7.304e-42
58	0x8000050a	-1.808e-42
59	0xb2121a9f	-8.504371e-09
60	0x80000841	-2.961e-42
61	0x8000006c	-1.51e-43
62	0xa8faf967	-2.7863737e-14
63	0x80000644	-2.248e-42

weight f4 [64]
0	0x317029be	3.4948324e-09
1	0x80000140	-4.48e-43
2	0x00000224	7.68e-43
3	0x80000129	-4.16e-43
4	0x000000c1	2.7e-43
5	0x80000146	-4.57e-43
6	0x331731ad	3.5202607e-08
7	0x8004579d	-3.98772e-40
8	0x00000197	5.7e-43
9	0x800000f4	-3.42e-43
10	0x8000015e	-4.9e-43
11	0x80029608	-2.37492e-40
12	0x0000c252	6.9709e-41
13	0x00000073	1.61e-43
14	0x80000200	-7.17e-43
15	0x00000187	5.48e-43
16	0x800000e9	-3.27e-43
17	0x3dc7f322	0.09763171
18	0x000001d4	6.56e-43
19	0x000000f7	3.46e-43
20	0x1fb5da77	7.70179e-20
21	0x80000009	-1.3e-44
22	0x80261a1e	-3.499118e-39
23	0x0000ed90	8.5221e-41
24	0x0000004d	1.08e-43
25	0x000001f0	6.95e-43
26	0x12e46899	1.4414608e-27
27	0x26d17cdd	1.4536133e-15
28	0x0000012e	4.23e-43
29	0x3734d634	1.0778709e-05
30	0x80000192	-5.63e-43
31	0x8000002d	-6.3e-44
32	0x0000059c	2.012e-42
33	0x800001c7	-6.38e-43
34	0x0000019b	5.76e-43
35	0x80000165	-5e-43
36	0x36d228a6	6.26322e-06
37	0x800001fb	-7.1e-43
38	0x0000017b	5.31e-43
39	0x00000847	2.97e-42
40	0x00000046	9.8e-44
41	0x00000004	6e-45
42	0x20b9f273	3.1500658e-19
43	0x228cc2e4	3.8153425e-18
44	0x3e30fb13	0.17283277
45	0x80000046	-9.8e-44
46	0x00000066	1.43e-43
47	0x80005adf	-3.2598e-41
48	0x00000212	7.43e-43
49	0x0000017b	5.31e-43
50	0x00000015	3e-44
51	0x000001c9	6.4e-43
52	0x8001b856	-1.57963e-40
53	0x00000124	4.09e-43
54	0x0ae212cd	2.177008e-32
55	0x800000b1	-2.48e-43
56	0x1dd857ac	5.7265375e-21
57	0x80001a40	-9.417e-42
58	0x000001f1	6.96e-43
59	0x0001a88f	1.52303e-40
60	0x000001f7	7.05e-43
61	0x800765cb	-6.79365e-40
62	0x000004a5	1.666e-42
63	0x0000017a	5.3e-43

bias f4 [64]
0	0xaff1d10e	-4.3986187e-10
1	0x00002a3e	1.5154e-41
2	0x00022af9	1.99087e-40
3	0x80005496	-3.0344e-41
4	0x0000fcc4	9.0675e-41
5	0x80000e76	-5.188e-42
6	0xb0adc2ed	-1.2642808e-09
7	0x80004900	-2.6187e-41
8	0x8000117c	-6.272e-42
9	0x00ab6049	1.573841e-38
10	0x00015323	1.2166e-40
11	0x8b2dd259	-3.3476836e-32
12	0x8ae707cf	-2.2247428e-32
13	0x80005b6b	-3.2795e-41
14	0x80002f43	-1.6954e-41
15	0x800004d5	-1.733e-42
16	0x00008522	4.7759e-41
17	0x3da26d7d	0.079310395
18	0x80004f02	-2.8343e-41
19	0x0000a20e	5.8134e-41
20	0x8189b10d	-5.057991e-38
21	0x800127e1	-1.06141e-40
22	0x8c38d70d	-1.4239559e-31
23	0x800005b2	-2.043e-42
24	0x80003ea7	-2.2475e-41
25	0x000202f8	1.84736e-40
26	0x80000700	-2.511e-42
27	0x84337a41	-2.1097485e-36
28	0x80001361	-6.952e-42
29	0xad8c803f	-1.597311e-11
30	0x80000f3d	-5.466e-42
31	0x8000d8e4	-7.7806e-41
32	0x05158573	7.030457e-36
33	0x80000e7e	-5.199e-42
34	0x80083805	-7.5478e-40
35	0x800c2570	-1.115456e-39
36	0xb522bdd5	-6.0625945e-07
37	0x000149c7	1.18302e-40
38	0x8000494e	-2.6297e-41
39	0x0002b66a	2.49109e-40
40	0x0001e0ea	1.7252e-40
41	0x0018d52e	2.280526e-39
42	0x9c07cea0	-4.493481e-22
43	0x9b4172f2	-1.6001727e-22
44	0x3dcea830	0.10090673
45	0x80009e3e	-5.6767e-41
46	0x000001f2	6.98e-43
47	0x8000032b	-1.136e-42
48	0x000302a5	2.76455e-40
49	0x00000522	1.841e-42
50	0x00001dac	1.0644e-41
51	0x8000323d	-1.8022e-41
52	0x87df9d3b	-3.3645723e-34
53	0x8000b72d	-6.5711e-41
54	0x00f821b9	2.27873e-38
55	0x000051ee	2.9391e-41
56	0x8da47c1a	-1.0137157e-30
57	0x8127e804	-3.083952e-38
58	0x8000429e	-2.3898e-41
59	0x05673062	1.0870454e-35
60	0x800277e7	-2.26684e-40
61	0x8edcb335	-5.4406757e-30
62	0x808b011a	-1.2765529e-38
63	0x80002721	-1.4037e-41

running_mean f4 [64]
0	0x34317227	1.6525938e-07
1	0xafa8ed23	-3.0727518e-10
2	0x376617ff	1.3714655e-05
3	0xac29a7de	-2.410953e-12
4	0x2c331cec	2.5453485e-12
5	0xb04ffb92	-7.5663664e-10
6	0xaf222868	-1.474817e-10
7	0xb6a58cea	-4.9337877e-06
8	0xb37a002a	-5.820781e-08
9	0xae5334d7	-4.8022777e-11
10	0x2131087f	5.9981177e-19
11	0x34c05537	3.582479e-07
12	0x33a3e4fd	7.631932e-08
13	0x2caaf2e8	4.8586586e-12
14	0xb1eceb78	-6.8952737e-09
15	0xa717c606	-2.1062808e-15
16	0x368c86c7	4.1880153e-06
17	0x3df156c7	0.117841296
18	0xb61ddcac	-2.352327e-06
19	0x32efcf24	2.7917459e-08
20	0xb30d0199	-3.2830574e-08
21	0x366acda1	3.498841e-06
22	0xb4d0436e	-3.879208e-07
23	0x34d38ea0	3.9405586e-07
24	0x3335d135	4.233262e-08
25	0x31d416d0	6.1726055e-09
26	0x2e0566a1	3.033185e-11
27	0xb09d6a11	-1.1453399e-09
28	0xb1308dd1	-2.5691984e-09
29	0x3120d6ef	2.340524e-09
30	0xb5b52d0a	-1.3498659e-06
31	0xb66f4fcf	-3.566023e-06
32	0xaf69b65b	-2.1256012e-10
33	0xb7cf6e2b	-2.4727624e-05
34	0xb6fe6f76	-7.5827656e-06
35	0x31d72377	6.2613554e-09
36	0xb6c45638	-5.8512924e-06
37	0xb4ce4562	-3.8420973e-07
38	0x347e2171	2.366776e-07
39	0x3259a764	1.2669123e-08
40	0xb6ee1b3f	-7.0961246e-06
41	0xb174fbbb	-3.5649765e-09
42	0xb11847d6	-2.2159745e-09
43	0xac857508	-3.7930804e-12
44	0xbe03d54b	-0.12874334
45	0x3352458c	4.8957688e-08
46	0xac57ca29	-3.066556e-12
47	0xb64895ea	-2.9889584e-06
48	0xb0f35f72	-1.7707704e-09
49	0x2fd4464f	3.8612533e-10
50	0x34a09dc6	2.9917118e-07
51	0xb51b3f8d	-5.783448e-07
52	0xb6e9f643	-6.9726098e-06
53	0xb5ac7964	-1.2850328e-06
54	0xb5b40b35	-1.3414307e-06
55	0x353aff19	6.9661615e-07
56	0x364257c2	2.8959334e-06
57	0xb583c4b1	-9.817505e-07
58	0x2d8ef9b9	1.625443e-11
59	0xb5705255	-8.9526776e-07
60	0xb1a12e8b	-4.691008e-09
61	0xad998cb2	-1.7456567e-11
62	0xb626aa1a	-2.483494e-06
63	0xb783eeac	-1.5727557e-05

running_var f4 [64]
0	0x18e35c1b	5.8771127e-24
1	0x0eb5e1ec	4.48375e-30
2	0x1c3eb82e	6.3103773e-22
3	0x08be1623	1.1440413e-33
4	0x09da731e	5.2589847e-33
5	0x0f8c3e20	1.3828996e-29
6	0x24aeb97a	7.577468e-17
7	0x1ae75b2a	9.5686644e-23
8	0x18025a18	1.6847592e-24
9	0x08ecc25c	1.4249427e-33
10	0x0000001f	4.3e-44
11	0x1507919c	2.7377898e-26
12	0x15b39c71	7.2544345e-26
13	0x08dcc85b	1.3287872e-33
14	0x141938fb	7.7357634e-27
15	0x00023a15	2.04507e-40
16	0x1aa75676	6.9209266e-23
17	0x39de12aa	0.00042357045
18	0x19dc5c59	2.2784766e-23
19	0x192005d9	8.272987e-24
20	0x1615d2c1	1.2102626e-25
21	0x1a83de06	5.453903e-23
22	0x1a8b0278	5.749304e-23
23	0x18b5f43e	4.7034025e-24
24	0x150c6e1f	2.8359645e-26
25	0x138823b7	3.4366444e-27
26	0x0b55269b	4.105135e-32
27	0x0ffee933	2.5136159e-29
28	0x11529d5b	1.6614568e-28
29	0x236f0850	1.2957976e-17
30	0x1a08ecf2	2.8315544e-23
31	0x1b82fd2f	2.1670312e-22
32	0x0e632f60	2.800272e-30
33	0x1ad71a4f	8.896442e-23
34	0x1a020555	2.6887677e-23
35	0x1454f60c	1.0751789e-26
36	0x2be8247a	1.6494716e-12
37	0x18fbcbd7	6.5087805e-24
38	0x172a9176	5.511356e-25
39	0x1397b9b7	3.8300888e-27
40	0x1b02649e	1.0785859e-22
41	0x14149f40	7.503497e-27
42	0x1205b8da	4.2195247e-28
43	0x1494df41	1.5032239e-26
44	0x3af8928d	0.0018964574
45	0x1600dbb4	1.0409084e-25
46	0x08154bee	4.492731e-34
47	0x1a464752	4.1003052e-23
48	0x12cdcb29	1.2987402e-27
49	0x0ea7d76a	4.1376115e-30
50	0x1789d493	8.907079e-25
51	0x194ea582	1.06833744e-23
52	0x1b76f07a	2.0426345e-22
53	0x199600e6	1.551e-23
54	0x1a948791	6.1430385e-23
55	0x18a5bee7	4.2844262e-24
56	0x1a57b369	4.4605884e-23
57	0x18b9314d	4.787116e-24
58	0x0b5f8ed2	4.3055684e-32
59	0x1a09418e	2.838389e-23
60	0x152873e7	3.401876e-26
61	0x0def2629	1.4738699e-30
62	0x1a52b94a	4.3576657e-23
63	0x1b72d7cf	2.0087502e-22

weight f4 [64, 67, 3, 3]
0	0x0000012c	4.2e-43
1	0x0000020c	7.34e-43
2	0x000001aa	5.97e-43
3	0x00000054	1.18e-43
4	0x80000074	-1.63e-43
5	0x80000052	-1.15e-43
6	0x000001a5	5.9e-43
7	0x800000bb	-2.62e-43
8	0x80000133	-4.3e-43
9	0x80000230	-7.85e-43
10	0x0000001d	4e-44
11	0x8000001e	-4.2e-44
12	0x80000213	-7.44e-43
13	0x0000018d	5.56e-43
14	0x00000036	7.6e-44
15	0x80000228	-7.74e-43
16	0x80000021	-4.6e-44
17	0x8000015f	-4.92e-43
18	0xad2bbc77	-9.762072e-12
19	0x8000165b	-8.02e-42
20	0xb6c2622a	-5.7930783e-06
21	0x2a0f24d4	1.2713729e-13
22	0x29a5351d	7.3366856e-14
23	0xb9732534	-0.00023188145
24	0xb298fe30	-1.781072e-08
25	0x94fd1726	-2.5555602e-26
26	0x8000176a	-8.4e-42
27	0x0000021f	7.61e-43
28	0x00000238	7.96e-43
29	0x00000074	1.63e-43
30	0x800002c2	-9.9e-43
31	0x80000079	-1.7e-43
32	0x00000357	1.198e-42
33	0x80000049	-1.02e-43
34	0x8000012a	-4.18e-43
35	0x00000086	1.88e-43
36	0x000001e8	6.84e-43
37	0x8000013b	-4.41e-43
38	0x80000242	-8.1e-43
39	0x00000151	4.72e-43
40	0x800000f9	-3.49e-43
41	0x8000031e	-1.118e-42
42	0x800001f8	-7.06e-43
43	0x80000046	-9.8e-44
44	0x80000253	-8.34e-43
45	0x00000054	1.18e-43
46	0x00000200	7.17e-43
47	0x00000010	2.2e-44
48	0x80000264	-8.58e-43
49	0x000001d9	6.63e-43
50	0x00000173	5.2e-43
51	0x00000075	1.64e-43
52	0x80000291	-9.2e-43
53	0x800002c2	-9.9e-43
54	0x00000020	4.5e-44
55	0x000001a4	5.89e-43
56	0x80000112	-3.84e-43
57	0x8000011c	-3.98e-43
58	0x000002ab	9.57e-43
59	0x00000361	1.212e-42
60	0x800001f4	-7e-43
61	0x80000017	-3.2e-44
62	0x0000025d	8.48e-43
63	0x8000019d	-5.79e-43
64	0x800001c3	-6.32e-43
65	0x000001e2	6.75e-43
66	0x0000017e	5.35e-43
67	0x8000027d	-8.93e-43
68	0x80000380	-1.256e-42
69	0x0000006c	1.51e-43
70	0x000000e0	3.14e-43
71	0x00000271	8.76e-43
72	0x80000134	-4.32e-43
73	0x00000051	1.14e-43
74	0x80000149	-4.61e-43
75	0x80000280	-8.97e-43
76	0x0000024b	8.23e-43
77	0x00000102	3.62e-43
78	0x8000015a	-4.85e-43
79	0x80000243	-8.11e-43
80	0x000000f3	3.4e-43
81	0x000001f8	7.06e-43
82	0x8000006f	-1.56e-43
83	0x0000010f	3.8e-43
84	0x80000281	-8.98e-43
85	0x00000279	8.87e-43
86	0x000000f8	3.48e-43
87	0x0000011a	3.95e-43
88	0x800000ba	-2.6e-43
89	0x00000282	9e-43
90	0x80000251	-8.31e-43
91	0x000000e4	3.2e-43
92	0x80000327	-1.131e-42
93	0x000002fd	1.072e-42
94	0x00000112	3.84e-43
95	0x000002af	9.63e-43
96	0x00000151	4.72e-43
97	0x80000157	-4.8e-43
98	0x0000032d	1.139e-42
99	0x00000239	7.97e-43
100	0x000000ce	2.89e-43
101	0x00000135	4.33e-43
102	0x80000025	-5.2e-44
103	0x000000ab	2.4e-43
104	0x00000195	5.68e-43
105	0x00000190	5.6e-43
106	0x800000b1	-2.48e-43
107	0x000001ee	6.92e-43
108	0x800001fb	-7.1e-43
109	0x00000012	2.5e-44
110	0x800002f1	-1.055e-42
111	0x00000032	7e-44
112	0x800001ad	-6.01e-43
113	0x00000494	1.642e-42
114	0x80000158	-4.82e-43
115	0x00000133	4.3e-43
116	0x000002fe	1.073e-42
117	0x00000169	5.06e-43
118	0x00000021	4.6e-44
119	0x800000a7	-2.34e-43
120	0x8000037b	-1.249e-42
121	0x800001e3	-6.77e-43
122	0x800003e1	-1.391e-42
123	0x80000075	-1.64e-43
124	0x800001f5	-7.02e-43
125	0x80000087	-1.89e-43
126	0x00000182	5.41e-43
127	0x0000016c	5.1e-43
128	0x00000414	1.463e-42
129	0x000000ac	2.41e-43
130	0x80000249	-8.2e-43
131	0x80000227	-7.72e-43
132	0x00000141	4.5e-43
133	0x00000127	4.13e-43
134	0x000002bd	9.82e-43
135	0x0000003e	8.7e-44
136	0x000001c6	6.36e-43
137	0x80000234	-7.9e-43
138	0x80000101	-3.6e-43
139	0x80000197	-5.7e-43
140	0x8000030a	-1.09e-42
141	0x80000189	-5.51e-43
142	0x800001e6	-6.81e-43
143	0x80000208	-7.29e-43
144	0x00000104	3.64e-43
145	0x00000005	7e-45
146	0x80000152	-4.74e-43
147	0x000003d1	1.369e-42
148	0x800001cc	-6.45e-43
149	0x800001ce	-6.47e-43
150	0x000001d5	6.57e-43
151	0x80000137	-4.36e-43
152	0x0000006b	1.5e-43
153	0x800001fb	-7.1e-43
154	0x8000003b	-8.3e-44
155	0x80000083	-1.84e-43
156	0x00000082	1.82e-43
157	0x80000012	-2.5e-44
158	0x00000299	9.32e-43
159	0x800001d6	-6.59e-43
160	0x80000132	-4.29e-43
161	0x80000138	-4.37e-43
162	0x80000075	-1.64e-43
163	0x000001ce	6.47e-43
164	0x800000d4	-2.97e-43
165	0x80000058	-1.23e-43
166	0x8000024f	-8.28e-43
167	0x000003fe	1.432e-42
168	0x0000014a	4.62e-43
169	0x800001fe	-7.15e-43
170	0x0000022b	7.78e-43
171	0x800002be	-9.84e-43
172	0x80000287	-9.07e-43
173	0x8000002f	-6.6e-44
174	0x800000d7	-3.01e-43
175	0x000001ae	6.03e-43
176	0x800000f4	-3.42e-43
177	0x000000e2	3.17e-43
178	0x8000001b	-3.8e-44
179	0x00000144	4.54e-43
180	0x0000012d	4.22e-43
181	0x800000a5	-2.31e-43
182	0x80000182	-5.41e-43
183	0x8000012b	-4.19e-43
184	0x80000015	-3e-44
185	0x800001fb	-7.1e-43
186	0x8000001f	-4.3e-44
187	0x800001c1	-6.29e-43
188	0x800001f0	-6.95e-43
189	0x800002de	-1.029e-42
190	0x0000009f	2.23e-43
191	0x00000145	4.55e-43
192	0x80000018	-3.4e-44
193	0x80000222	-7.65e-43
194	0x80000203	-7.22e-43
195	0x00000151	4.72e-43
196	0x000000a7	2.34e-43
197	0x00000080	1.8e-43
198	0x80000196	-5.69e-43
199	0x0000014b	4.64e-43
200	0x000001c6	6.36e-43
201	0x8000027a	-8.88e-43
202	0x80000222	-7.65e-43
203	0x8000011b	-3.97e-43
204	0x800000dd	-3.1e-43
205	0x8000009f	-2.23e-43
206	0x8000013b	-4.41e-43
207	0x000000ac	2.41e-43
208	0x00000016	3.1e-44
209	0x8000008e	-1.99e-43
210	0x8000029d	-9.37e-43
211	0x000000e7	3.24e-43
212	0x0000004e	1.1e-43
213	0x800001ec	-6.9e-43
214	0x000001ac	6e-43
215	0x00000037	7.7e-44
216	0x8000018b	-5.54e-43
217	0x00000112	3.84e-43
218	0x0000012c	4.2e-43
219	0x800002cb	-1.002e-42
220	0x80000304	-1.082e-42
221	0x800002c3	-9.91e-43
222	0x800000a3	-2.28e-43
223	0x80000033	-7.1e-44
224	0x00000123	4.08e-43
225	0x00000127	4.13e-43
226	0x8000010e	-3.78e-43
227	0x0000004b	1.05e-43
228	0x00000236	7.93e-43
229	0x00000104	3.64e-43
230	0x00000383	1.26e-42
231	0x800001ef	-6.94e-43
232	0x00000041	9.1e-44
233	0x800000d5	-2.98e-43
234	0x0000021c	7.57e-43
235	0x800001ea	-6.87e-43
236	0x8000017f	-5.37e-43
237	0x00000185	5.45e-43
238	0x000000d1	2.93e-43
239	0x800001a1	-5.84e-43
240	0x00000295	9.26e-43
241	0x000001f1	6.96e-43
242	0x80000175	-5.23e-43
243	0x8000006d	-1.53e-43
244	0x8000011e	-4.01e-43
245	0x80000028	-5.6e-44
246	0x00000135	4.33e-43
247	0x000000d7	3.01e-43
248	0x800002a7	-9.51e-43
249	0x000001b2	6.08e-43
250	0x8000008e	-1.99e-43
251	0x800000b9	-2.59e-43
252	0x800001f0	-6.95e-43
253	0x800000a3	-2.28e-43
254	0x800000ed	-3.32e-43
255	0x80000260	-8.52e-43

bias f4 [64]
0	0x80002335	-1.263e-41
1	0x362c496b	2.5672732e-06
2	0xae4294d2	-4.4242672e-11
3	0xb7747bc7	-1.45723525e-05
4	0x80000b24	-3.997e-42
5	0xb84a40c8	-4.8220885e-05
6	0x8000243c	-1.2998e-41
7	0xb773f04b	-1.4539876e-05
8	0xb5539908	-7.8826315e-07
9	0xb69e95ef	-4.7262215e-06
10	0x37493ba4	1.199442e-05
11	0x00000ed8	5.325e-42
12	0xb8222164	-3.8654907e-05
13	0x1d481d91	2.6485065e-21
14	0xb6b3712d	-5.347791e-06
15	0x3841246f	4.6048717e-05
16	0x80000c00	-4.305e-42
17	0xb812aba6	-3.4968973e-05
18	0x148b318b	1.4054954e-26
19	0x000000e4	3.2e-43
20	0xb83e22d7	-4.5331977e-05
21	0xa9b280ed	-7.927153e-14
22	0xb442a2c5	-1.8126873e-07
23	0x1eee1c7e	2.5211014e-20
24	0x3604a53f	1.9765719e-06
25	0xb7543519	-1.2648547e-05
26	0xad1b4f89	-8.82839e-12
27	0x2bb313db	1.2724226e-12
28	0xb65f7f29	-3.3303606e-06
29	0xb6a411b9	-4.889644e-06
30	0xb5b213b5	-1.3267769e-06
31	0x000004f8	1.782e-42
32	0xb0200e44	-5.8227934e-10
33	0x378c5c5a	1.6732305e-05
34	0x349d999c	2.9355294e-07
35	0xb1377999	-2.6699125e-09
36	0x83fdf532	-1.4926298e-36
37	0x3285d90e	1.5581943e-08
38	0x80001483	-7.358e-42
39	0xb79e3ad1	-1.8862456e-05
40	0x000003d8	1.379e-42
41	0x31bd41e0	5.508113e-09
42	0xb855824f	-5.0904517e-05
43	0x10b561c3	7.154254e-29
44	0xb289b776	-1.6032327e-08
45	0xae1af762	-3.5235266e-11
46	0x2f8ec083	2.5966437e-10
47	0xafd51ade	-3.8763565e-10
48	0xb7aaf9e9	-2.0381953e-05
49	0x00001a93	9.533e-42
50	0xae1f05d5	-3.6157594e-11
51	0xb485ed97	-2.494605e-07
52	0x38807b98	6.126537e-05
53	0x34a1660f	3.0062844e-07
54	0x37d4a3ce	2.5348647e-05
55	0xb787b4a5	-1.6177373e-05
56	0x34f9aad1	4.650415e-07
57	0xb3c5a6a6	-9.2038405e-08
58	0x364eefed	3.0836047e-06
59	0xb72972be	-1.00999005e-05
60	0xb8497742	-4.8033202e-05
61	0xb2a8f36a	-1.9668466e-08
62	0xb72b789d	-1.0220477e-05
63	0x1fe22b2a	9.578613e-20

weight f4 [64]
0	0x260a8bfb	4.8068077e-16
1	0x3dfd5aec	0.123708576
2	0xb25b1341	-1.2751856e-08
3	0x3e087ebe	0.13329598
4	0x2aa98a91	3.011658e-13
5	0x3e0d7396	0.13813624
6	0x370d35c1	8.4167705e-06
7	0x3e0ed073	0.13946705
8	0x3e9528c9	0.2913268
9	0x3e2bfa36	0.16794667
10	0x3ca39830	0.01997003
11	0x28d31132	2.3433163e-14
12	0x3e6bb6a4	0.2301889
13	0x2ae45d4a	4.0565668e-13
14	0x269d6a3f	1.0922861e-15
15	0x3e8d1a58	0.2755916
16	0x39af5ce4	0.0003344781
17	0x3e0f69b0	0.1400516
18	0xa31bd315	-8.447265e-18
19	0x94dbfae7	-2.2212312e-26
20	0x3dfe2672	0.124096766
21	0x38daa739	0.00010426198
22	0x3b489239	0.0030604734
23	0x28b91c29	2.0551338e-14
24	0x3bb7fcb8	0.005614843
25	0x3df7d54e	0.121012315
26	0xaa8372a3	-2.334982e-13
27	0xa8f623c9	-2.7327006e-14
28	0x3e087a7c	0.13327974
29	0x3d4e8d5c	0.05042778
30	0x84aa8aa5	-4.0094133e-36
31	0x35555b11	7.94812e-07
32	0x302d45fb	6.303648e-10
33	0x3e7ef9d4	0.2489999
34	0x3d0d667a	0.034521557
35	0x39d8994f	0.00041312954
36	0x27ca74e0	5.619298e-15
37	0xb5a05680	-1.1946104e-06
38	0x309dc709	1.1479823e-09
39	0x3e5db98b	0.2165281
40	0x2c58bc91	3.0800122e-12
41	0x329590d1	1.7411738e-08
42	0xa6fc729a	-1.7517075e-15
43	0x39ca38cb	0.00038570756
44	0x396b0137	0.00022411799
45	0x2b0f9ef8	5.102442e-13
46	0x2916f1a3	3.3516277e-14
47	0x2ded6167	2.6987036e-11
48	0x3e3d1c64	0.18467861
49	0x2422acac	3.527441e-17
50	0x24b4e329	7.844738e-17
51	0x3c58990a	0.013220081
52	0x3e5fda78	0.21860683
53	0x31a6ffe8	4.860329e-09
54	0x3de36053	0.11102357
55	0x3df899a8	0.121386826
56	0x3d9d690c	0.07686052
57	0x2a363b3b	1.6185397e-13
58	0x3b1018dc	0.0021987474
59	0x3e68b178	0.22723949
60	0x28b218ec	1.9772778e-14
61	0x3596b005	1.1227099e-06
62	0x3decb073	0.115570925
63	0xb87efdaf	-6.079458e-05

bias f4 [64]
0	0x9d522606	-2.7812926e-21
1	0x3cf9f445	0.030511985
2	0xb1de8c9b	-6.4770354e-09
3	0x3d2b2947	0.041787412
4	0xac2313ba	-2.3174644e-12
5	0x3d25b713	0.040457796
6	0xb5ba2c1b	-1.3870916e-06
7	0x3d2a54e3	0.04158486
8	0x3cbf55ae	0.023356285
9	0x3d089b99	0.033351514
10	0x3c2bf694	0.0104958005
11	0x9ff4af02	-1.03627546e-19
12	0x3caa240f	0.020769147
13	0xb9f58c1d	-0.00046834434
14	0xb34486b2	-4.575731e-08
15	0x3d6756dd	0.056479324
16	0xb94c4523	-0.00019480711
17	0x3d08cf46	0.033400796
18	0xb52a4d87	-6.344275e-07
19	0x99095f31	-7.101958e-24
20	0x3d2a051e	0.041508786
21	0xb92f6830	-0.00016728113
22	0x3b14429e	0.0022622715
23	0xb909b3da	-0.00013132338
24	0x3b70457f	0.0036662517
25	0x3cd3762c	0.025813185
26	0xb91addfd	-0.00014769282
27	0xb462544e	-2.107856e-07
28	0x3d13e5e6	0.03610792
29	0x3cc0e91d	0.023548657
30	0xb643a295	-2.91519e-06
31	0xb39b12a7	-7.221143e-08
32	0xab4d9af3	-7.3045666e-13
33	0x3c922af1	0.017842742
34	0x3cb9eeb7	0.022696836
35	0xb91ab3ac	-0.00014753517
36	0xb6543c98	-3.1625732e-06
37	0xb646e571	-2.9637852e-06
38	0xacdd4e3b	-6.289883e-12
39	0x3d50dc8b	0.050991576
40	0xa5e9623b	-4.048562e-16
41	0xb1a5a392	-4.820728e-09
42	0xb7ad327a	-2.0646712e-05
43	0xb99c9de4	-0.00029872276
44	0xb9298089	-0.00016164979
45	0xaace2b21	-3.6622878e-13
46	0xb8c3ad02	-9.33055e-05
47	0xac912be0	-4.126019e-12
48	0x3d3928b6	0.04520484
49	0xb362913b	-5.2751812e-08
50	0x976b9ad1	-7.6128e-25
51	0x3c6675bf	0.014066159
52	0x3d4e9e3b	0.05044387
53	0xaf8dbc02	-2.5781338e-10
54	0x3cd5aa92	0.02608231
55	0x3d2ecc6a	0.042675413
56	0x3cfca211	0.030838998
57	0xba46bd26	-0.0007581286
58	0x3ac5136f	0.0015035699
59	0x3d485736	0.048911296
60	0xb815d578	-3.5723177e-05
61	0xb580149b	-9.54274e-07
62	0x3d22b70e	0.039725356
63	0xb8fe6c91	-0.00012131886

running_mean f4 [64]
0	0x374da07f	1.2256321e-05
1	0x3d067ef1	0.032835905
2	0x367b4fd2	3.7448376e-06
3	0x3d84c417	0.06482714
4	0xacbefb53	-5.4280274e-12
5	0x3dbcb5f8	0.09214395
6	0x330aba2d	3.2299955e-08
7	0x3d75bfbc	0.059997305
8	0x3e319b33	0.1734436
9	0x3d01e6a5	0.0317141
10	0xbc3891bf	-0.011265217
11	0xb62aa91c	-2.5430409e-06
12	0x3dbf7d4a	0.09350069
13	0xb7356104	-1.0811029e-05
14	0x3460f039	2.0949018e-07
15	0x3de2bbd3	0.11070981
16	0x3434534a	1.6794107e-07
17	0xbc3d6f0a	-0.011562118
18	0x335d0918	5.1463843e-08
19	0x2ccb1c5a	5.7727547e-12
20	0x3db0dfd7	0.08636444
21	0xb6eb0105	-7.0036645e-06
22	0x3af7b3e6	0.0018898218
23	0x337cd806	5.8869794e-08
24	0xbb377ef1	-0.0027999247
25	0xbbac66f3	-0.005261296
26	0xb6add09c	-5.180087e-06
27	0xb3376fe7	-4.2709782e-08
28	0x3cc829d6	0.024434011
29	0x3bf13708	0.0073612966
30	0x33876634	6.305018e-08
31	0x36de0cca	6.6176044e-06
32	0x312f0341	2.5467701e-09
33	0x3e17a5a4	0.1480928
34	0xbbe9afd9	-0.0071315584
35	0xb4092a45	-1.2774497e-07
36	0xb2ff4429	-2.9716903e-08
37	0x31e18de5	6.5644934e-09
38	0x34048d4a	1.2344859e-07
39	0x3ddfc179	0.10925574
40	0x3109e6ce	2.0067321e-09
41	0x3218c063	8.891308e-09
42	0xb63164c0	-2.64337e-06
43	0x35575904	8.0223276e-07
44	0xb5ab0d04	-1.2744281e-06
45	0xb2ce58a3	-2.4021864e-08
46	0xb3e54888	-1.0676837e-07
47	0xad53011f	-1.199421e-11
48	0x3d9d8462	0.07691266
49	0xb0f35a1e	-1.770619e-09
50	0xb04d1e00	-7.46212e-10
51	0x3be9bf18	0.007133376
52	0x3d9b6dec	0.07589325
53	0xb2a3c7a4	-1.9066484e-08
54	0xbb452aa5	-0.0030085233
55	0x3d96bf90	0.073607564
56	0xbc38df64	-0.011283729
57	0x352020f3	5.965259e-07
58	0x3b0488b2	0.0020223078
59	0x3cc8130d	0.024423147
60	0x369ac9e5	4.6130613e-06
61	0x32bf761b	2.2289035e-08
62	0x3c24d5e3	0.01006076
63	0x35aee34f	1.3030166e-06
