SND_trackers_My_data/9X0_file/9_9X0_coordconv_Label.pt (torch_old, 323020 bytes, 25 tensors)

weight f4 [32, 7, 3, 3]
00000000: c29c 283c 9e0d 553c 4cfb 7b3c 87e9 083c
00000010: bfb8 99ba 740f 48bb 5172 d0bc c055 c0bc
00000020: cb3f a1bb 919b 873c 9c64 dbbc 470c 99bc
00000030: 80bd 7d3c c027 d3bc 1aa0 713c 5c39 ae3c
00000040: 47d2 053c f2b4 043b 1a82 fb3b a4ea cf3b
00000050: 58b7 493c 2928 093c 1879 fb3b 8aef cf3b
00000060: 5ca4 493c 0f7b 093c 5a5e fb3b efc1 dabd
00000070: dd9d d6bd edde 1c3d 3b40 92bd c7ed dabd
00000080: e143 ac3d 4019 0cbd f350 9ebd f776 b9bd
00000090: 11b5 033d e9ef 8a3d 6048 f6bc 94ea fabc
000000a0: c08a 3e3d 6ec7 f53c 1c2f b53d 4a20 1dbd
000000b0: 71a0 a5bd a051 7abc 9f30 c33a 92e2 6c3d
000000c0: 79bb 2a3d d159 143c 682c 0e3d 809d e73c
000000d0: 1dfe a9bc 675a 1c3d e18d af3d 2b8b 7f3c
000000e0: 865a 4e3d da96 613d 3852 4d3d 46fe 9f3c
000000f0: bed1 da3c bec0 843b e600 1a3d d919 463c
00000100: 86f0 4c3c f9ad 4e3c 2611 2dbb e3a5 2abb
00000110: 2f92 3fbb 3a21 9bbc fb0d 9ebc 5260 9bbc
00000120: 9256 db3b 3937 083b 5464 0fbc 70c3 aa3b
00000130: b0df 6e3b c792 0abc 6936 c93b b027 363b
00000140: 0f33 11bc 305a 003c 14ca e73a 64c5 feba
00000150: 34ec 2d3b c151 003c 08e9 e73a cca6 ffba
00000160: d04a 2d3b fd5c 003c 668d 3ebd 8c68 af3d
00000170: 86af 823d 5a59 a6bd 9bed 6e3d 9e58 d43b
00000180: 6ba9 533d ae35 a93d 6e60 c03b 8262 373d
00000190: 3ffe 853d d966 f23d 9425 aa3d a5c2 e33d
000001a0: 290b c8bc 08a6 4cbd d0cb 84bd 236d 3f3d
000001b0: 0361 bc3c d1a3 2cbd e21d 843d 10c1 143d
000001c0: c489 77bc e17a 9b3d 6ebe 983d fab0 0d3d
000001d0: 0794 853c 6a3b 6c3c 862a 173c 2366 4e3d
000001e0: 43b3 133d 575a c63c 449d 853c 1b0b dd3c
000001f0: 4b21 793d 7ed5 213d 8a37 d33a fb37 7439
00000200: ad34 36bb 4f2c 00bc 3f9e 0dbc b3c9 afbb
00000210: 7fc7 283c df56 0c3c bf45 223c e5ab 293c
00000220: 92d0 38bb b92b 01bc a295 393c ea39 a83a
00000230: c1b6 03bc 807f 283c d567 a2bb 483f bbbb
00000240: 4729 1fbc d1cf edbb be31 dfbb 3d69 b8bb
00000250: 9429 1fbc 01cf edbb 6431 dfbb 2869 b8bb
00000260: b129 1fbc b984 78bd f162 023d 8a56 4e3d
00000270: d91f 81bc 7917 fbbc 3a65 ecbd f541 3bbd
00000280: fc8f 9abd 75a0 28bd d3b9 bcbc a549 353c
00000290: e174 a0bc 7bb4 6e3c cab9 aebd 7e4c 843d
000002a0: 2352 0e3d 0dda 22bc 24c8 823b 314e d7bc
000002b0: fdb4 c6bd 8d42 a6bd 7c35 56bd c427 59bd
000002c0: 5e25 a6bd 0f43 07bd 94c9 03bd a34b 80bd
000002d0: 7304 d63c 0015 9d3c 058b f6bb b414 a1bc
000002e0: d48e a63d c123 983a 0d8c bbbc ad5c 45bd
000002f0: 9efc 803d 758a 8e3b 7701 8f3b cd6f 913b
00000300: 5ea5 b33c ba66 b33c 3790 b33c 3e9a 7c3c
00000310: 23a0 7d3c de30 7c3c 42c2 7338 8906 82bc
00000320: 12b9 c6bc 6cee 8f37 8afc 80bc 44e5 c1bc
00000330: add5 63b9 9e54 83bc 889c c6bc f7ee 183b
00000340: a7ce ce3a 1ce4 2d3b ade2 8c3b 2dd7 183b
00000350: fbf7 ce3a 2ee4 2d3b 6de3 8c3b 2dd7 183b
00000360: 8fd6 bbbc 289c 433d caa3 62bd 048f 893d
00000370: 4e74 ce3c 84f3 f8bc ddff e13d 97bd 36bd
00000380: e634 81bd 3d48 473d c503 a53d 45bf d0bc
00000390: b045 e7bc 70af 9e3c 654c 16bd 8429 3e3d
000003a0: 2a19 8d3d 3e16 8a3d 4197 f53b bd65 b8bc
000003b0: 4e55 f2bc a31d 0dbd 7e67 42bc 3ae0 9d3a
000003c0: f95f e1bc a0ba 2a3c ec60 f2bc 73f6 003d
000003d0: f8ea 173c 2d5e d43c f940 283c 1690 6eba
000003e0: 90b5 563a a4a8 2abb c899 ecbc f235 f3bc
000003f0: 02b1 933c 5c70 8d3c 7bb8 893c 363c fcbb
0.01029128 0.013003735 0.015379738 0.0083564585 -0.0011728032 -0.003052679 -0.025445135 -0.023478389
-0.004920935 0.016553672 -0.026781373 -0.018682612 0.015487075 -0.02577579 0.014747644 0.021267585
0.00816781 0.0020249453 0.0076754214 0.00634511 0.012311779 0.008371391 0.0076743476 0.006345694
0.012307253 0.008391156 0.0076711597 -0.10681521 -0.10479329 0.038298536 -0.07141157 -0.10689884
0.084113844 -0.034203768 -0.077302836 -0.09055894 0.0321551 0.067840405 -0.030063808 -0.030629434
0.04651904 0.030002322 0.08846876 -0.03836087 -0.080872424 -0.01527825 0.001489181 0.05783326
0.041682694 0.009054617 0.034710318 0.028273344 -0.020751053 0.038172152 0.08571983 0.015597145
0.0503793 0.055075504 0.050127238 0.019530427 0.026711341 0.004051297 0.037598513 0.0120911235
0.012508517 0.0126147205 -0.0026407926 -0.0026038818 -0.002923142 -0.018936742 -0.019293776 -0.018966828
0.0066936696 0.0020784868 -0.008751947 0.0052112862 0.0036449246 -0.008457846 0.0061405194 0.0027794652
-0.008862271 0.007834002 0.0017684125 -0.0019437489 0.0026538493 0.007831992 0.001769335 -0.0019504665
0.0026442297 0.00783467 -0.046521567 0.085648626 0.06381135 -0.08122511 0.058332067 0.0064802906
0.05167524 0.08262192 0.0058708703 0.04477168 0.06542634 0.11836023 0.08307949 0.1112111
-0.024419384 -0.049963027 -0.06484187 0.04673494 0.022995478 -0.042148415 0.06451012 0.03631693
-0.0151085295 0.07591797 0.074581966 0.034592606 0.016305937 0.014418462 0.009226447 0.050390374
0.03605963 0.024213 0.016310342 0.026982835 0.060822766 0.039510243 0.0016114574 0.00023290508
-0.0027802393 -0.007823064 -0.008643686 -0.0053646206 0.01030147 0.008565634 0.009904324 0.010355924
-0.002820049 -0.007883959 0.011327179 0.0012834643 -0.008039177 0.010284305 -0.0049562254 -0.005714331
-0.009714431 -0.0072574397 -0.0068113497 -0.0056277798 -0.009714503 -0.007257343 -0.0068113077 -0.00562777
-0.00971453 -0.06067345 0.03183264 0.0503755 -0.015762256 -0.030650841 -0.11542745 -0.0457172
-0.07546994 -0.04116865 -0.023037827 0.0110649215 -0.019586982 0.014569397 -0.0853153 0.06459902
0.0347463 -0.009939683 0.003991144 -0.026282402 -0.097024895 -0.08118162 -0.0522971 -0.05301644
-0.08112596 -0.033022936 -0.03217466 -0.062644266 0.026125168 0.019175053 -0.0075238966 -0.019663192
0.08132711 0.0011607335 -0.02289393 -0.048184086 0.06298183 0.0043500015 0.0043641883 0.0044383765
0.02192944 0.02189957 0.021919353 0.015417634 0.015480074 0.01539251 5.811663e-05 -0.015872257
-0.02425817 1.7157952e-05 -0.01574542 -0.023668893 -0.00021728007 -0.01603156 -0.024244562 0.0023335794
0.001577814 0.002653367 0.004299483 0.0023321614 0.0015790457 0.002653371 0.004299572 0.0023321614
-0.022929458 0.047756344 -0.055331983 0.06716731 0.025201943 -0.030389555 0.1103513 -0.0446144
-0.06308918 0.048652876 0.080573596 -0.02548183 -0.028231472 0.019370764 -0.03669395 0.04642631
0.06889565 0.067425236 0.0074948375 -0.02250945 -0.029581692 -0.034452092 -0.011865495 0.0012044974
-0.027511584 0.010420471 -0.029587232 0.031485032 0.0092723295 0.025923813 0.010269397 -0.000910045
0.0008190507 -0.002604046 -0.028881922 -0.029688809 0.01802874 0.017265491 0.0168116 -0.0076976074

bias f4 [32]
00000000: a44f 1bbb 5a1d 6f3b 99c3 fa3b 6872 4dbc
00000010: abab e93c 8b48 873a 18e9 373c 1461 4abc
00000020: 472b edba b8fb 98bb c62b 0abd 8cb0 f3bb
00000030: 3c31 c43c c4a8 063c c646 d43a 236d 743c
00000040: e505 5f3b 792a c13c 6310 8bbc 9747 d5bb
00000050: c1e3 b63c 4089 333c c40f f93b 9e77 77bb
00000060: 671b d13b 48b3 78bb 25da fa3b 4f8e 103c
00000070: b7a8 2fbc e0a6 d8ba b1f1 613c 8c6e 563c
-0.0023698593 0.0036486 0.0076527116 -0.012539484 0.02852424 0.0010321302 0.0112250075 -0.012352247
-0.0018094563 -0.004668679 -0.03373315 -0.0074368175 0.023949258 0.008218948 0.0016195409 0.014918598
0.0034030613 0.023579823 -0.016975587 -0.0065087783 0.022325398 0.010958016 0.0076007564 -0.0037760506
0.0063814404 -0.0037948657 0.0076553994 0.0088229915 -0.010721377 -0.0016529225 0.013790534 0.01308788

weight f4 [32]
00000000: 064d 333f 84c2 f33e ce2e d93e 537b fd3e
00000010: a440 f73e 80dd bd3e 1295 bb3e affb d43e
00000020: a7ca 143f afe6 0d3f 2030 cb3e 65b9 f93e
00000030: b7f3 c33e 8174 463f e63b f23e 3d92 d13e
00000040: 1c6c c93e bf1b 023f 5e14 cf3e 5097 173f
00000050: eccf d23e fc6e 053f 9919 0e3f 5b3f be3e
00000060: 0e9d df3e 0e11 b83e 9116 b13e 9a28 033f
00000070: f0c2 1b3f 2cff ce3e bf98 c63e 765f 0d3f
0.70039403 0.4760934 0.42418522 0.4950815 0.48291504 0.37083054 0.3663717 0.4159827
0.5812172 0.5543012 0.39685154 0.48774257 0.38271877 0.7752152 0.47311324 0.40931883
0.39340293 0.5082359 0.40445226 0.5921526 0.41174257 0.52122474 0.5550781 0.3715771
0.4367451 0.35950512 0.3458753 0.5123383 0.60844326 0.40429056 0.3878841 0.55223787

bias f4 [32]
00000000: 1805 c13c 4428 f53d f007 9bbc 5db4 d93c
00000010: 3833 fb3d 545b c43d f2e3 913c e0fb c13c
00000020: 7381 c03d 1593 9fbc ec68 88bb 80b3 aa3d
00000030: 56e2 693d bf8b d83d f3c3 20bd fd6f 4bbd
00000040: b5b4 903c 88e3 8d3c cfe0 b2ba 9262 953d
00000050: 374c 8fbc 9c81 0a3e 864e 1f3d bfa8 893b
00000060: d0ff cd3c b63e 8d3d 5613 433d 5594 823d
00000070: b84b a03c b26a d23d db71 03bc 12ed 8ebd
0.023562 0.11970571 -0.018924683 0.026575262 0.122656286 0.09587732 0.017808888 0.023679674
0.093996905 -0.019479314 -0.0041628983 0.08335018 0.057100616 0.105735295 -0.03924937 -0.049667347
0.017664293 0.01732041 -0.001364732 0.072941914 -0.017492397 0.13526005 0.038893245 0.0042010243
0.025146395 0.06896727 0.047625862 0.06375948 0.019567356 0.10274257 -0.008022751 -0.06978811

running_mean f4 [32]
00000000: cb1a a83d 10b6 a83e 4725 afbd efde 3a3e
00000010: 797a 833e fa82 a53e 72de 0d3e 797a d23d
00000020: 00c8 613e 629f 6f3e 5870 c7bd 84b5 6f3e
00000030: b7fa f23a e2f6 0b3e 8389 9ebd 285b 7cbd
00000040: 595b e0bd 4e51 2dbe 6a4c 0a3e f2c3 923e
00000050: aa85 203e e33c 563e e38b 0fbe a0a8 c5bd
00000060: fb1a e4bd c4e1 503e dfe2 953e 531a f63c
00000070: 939f 993e b873 923e 36a7 0c3d ff38 d43d
0.08208235 0.32951403 -0.08552032 0.18249105 0.25679377 0.3232649 0.13854387 0.10277266
0.2204895 0.23400643 -0.09738225 0.23409086 0.0018537854 0.13668397 -0.07741072 -0.06161037
-0.10954923 -0.16925547 0.13505712 0.2866512 0.15675989 0.20921664 -0.14018206 -0.09651303
-0.111379586 0.20398623 0.2927465 0.03004185 0.30004558 0.2860391 0.034339152 0.10362434

running_var f4 [32]
00000000: a930 ea3e 7fac bd3f 9487 183e 26ba 3b3f
00000010: 8035 503f 1996 943f f74a bd3d 0b58 a93d
00000020: 900f 153f 2765 803f 444b d53d ab07 6a3e
00000030: 04dc a83d d820 a23f 23f2 483e 79cc 943e
00000040: 9f7f 923d abd1 213e d1b9 2b3e 7f93 de3f
00000050: f952 213f e59a ad3f ffbb 253e 60e5 c33d
00000060: df30 c43e 5d16 863f 0544 153f 736e 843e
00000070: 0983 843f 3999 da3f 88d9 b73e 4340 a93e
0.4574025 1.4818267 0.14895469 0.73330915 0.81331635 1.1608306 0.09242814 0.08268746
0.5822687 1.0030869 0.104147464 0.22854488 0.0824509 1.2666273 0.19623618 0.2906225
0.07153248 0.15802638 0.16770102 1.7388762 0.6301723 1.3562895 0.16184996 0.09565234
0.38318536 1.0475575 0.58306915 0.25865516 1.0352489 1.707801 0.3590815 0.3305684

weight f4 [32, 35, 3, 3]
00000000: faa9 bfbc 26a6 bfbc 36a5 bfbc 73ba 27bd
00000010: 68bd 27bd d9bf 27bd 4d1c 48bd 0123 48bd
00000020: 6d1f 48bd 3b41 e43b 2d04 f6bb 78bd d6bb
00000030: 1c49 e43b 6d14 f6bb 42be d6bb bd40 e43b
00000040: 3d49 f6bb 8dcd d6bb ffd8 88bb 335c 78bb
00000050: 13e9 8fbb 5ce2 97bb a2db 88bb 8963 78bb
00000060: 29e4 8fbb 20e1 97bb ddd4 88bb 75c7 efbc
00000070: bccb 5b3c a844 5d3c 4fa2 3c3c 1aae 18bd
00000080: 8a2a 80ba 8a33 8a3c 0247 0e3d a566 a5bb
00000090: 1937 9e3c 674a 293d 036c a33b de90 8e3c
000000a0: 1c03 08bb 3d3a c23c 73fc 1e3c a403 7b3c
000000b0: 06a4 b03b 45e2 fb3a 798e 96bc c9a7 e43b
000000c0: 875d 983b f014 2e3b fb43 52bc 4a12 c53c
000000d0: dd44 803c bedb 393c a121 783b 5f6d 5bbb
000000e0: fe55 9c3b 1139 973c 7a47 25bc cad6 d23c
000000f0: 2815 8ebb 1f4f 783c 49c3 0b3c 9cd0 003c
00000100: 9f2f 5fbc 70dd 743c 820b 39b9 2adf f03c
00000110: 7560 e7bb 70d9 183b ef5b a23b 6462 933b
00000120: 961c 0a3d fb66 023d b87e ba3b 27b6 6b3c
00000130: 1c1d 783c 97a0 6c3c b3e0 783c df2d 43bb
00000140: 973f 853c 4536 e13c eb9e a93b 5b9c 533c
00000150: 1e25 8a3c 01a9 b83a 3d7a afbc 1f7c 00bb
00000160: 5a8d 1b3c bb3d 6c3c b9f4 063d f70a 943c
00000170: 527a e03a 8e40 a63b 80b6 59bc 7cd0 27bb
00000180: 9266 64bb c42b 383c 8186 1d3c e9ed 98bb
00000190: 7d75 963c 31ef a23c 8c84 3b3b 63ba 91bb
000001a0: 0101 223d 9221 d43b 9255 a6bc 92e6 3dbc
000001b0: ddb1 1f3d 6243 84bc a555 51bb d3dc 8c3b
000001c0: a016 633c b1f8 d33c ede8 123b d364 b0bb
000001d0: 7291 a0bb c7b4 1b3d 169e f33c 8c2a 90bb
000001e0: ca78 15bc 3fc3 0a3c 356d ba3c f96b 10bc
000001f0: 4b8c f23b 2003 6cbc 09b7 66bc 9549 cb3b
00000200: fcf6 f4bb fc15 6cbc 0d28 1ebc 8948 323c
00000210: f26c a93b 92f5 aeb8 ad2b 463c 3a97 5abc
00000220: ba82 32bb dd5e 4dbc 6575 26bc 3f69 053c
00000230: 4005 bcbb e196 2a3c 116f c13b 1a0f 8f3b
00000240: 8ad1 fb3c 811a 3a3c 2139 dc3c 1f02 ff3c
00000250: 23a2 313c cfdf 013d a29d 8abc b633 26bc
00000260: 4fe3 1e3b 1f6e 17bd 186d 17bc c377 823c
00000270: bbd0 37bb fed8 3dbc 0ef6 86bc 8c86 cf3b
00000280: 219b c23a 0a5b 4d3c 1168 47bb 0b07 40bb
00000290: 7118 513c 7950 6f3c 38f9 db3a d9e7 63bc
000002a0: c6d4 95bc d128 62b9 e3d7 06bc e079 093c
000002b0: ee51 d93c 286d 353b e66e 0e3c 314f b3bc
000002c0: 4335 fdbc 6867 94bc 58f0 e0bb 84a2 7fbc
000002d0: 95a1 d23c 5c85 163d 56dd f73c d718 023d
000002e0: da4d 873c 8218 7e3c 4257 cb3c 00a6 fa3c
000002f0: 80e2 6bbb 2d15 3c3d 1762 b2bb b2ea d23b
00000300: 7335 33bb ec84 ca3c a061 29bc 941d 23bc
00000310: 36b6 903c 3f9a 53bb bdf1 bdbc 292b 5f3c
00000320: 043c dd3c 5d4a 063d 8c52 b43b a6ac b43c
00000330: f00a 493c 3a39 ff3c 7014 8d3c 3eb9 923c
00000340: ef70 8c3c 297b b63c faa6 46bb a3d4 323c
00000350: 98b0 983b 9925 0d3c b8aa 993b d78b b83b
00000360: 0528 243d 1037 993c 2e8d 943c 4d58 21bc
00000370: 8e7c 463c 079c a43c 83c8 013b 3149 8c3c
00000380: 7ff3 883c 5e99 87bc 00f4 ac3b b59b 92bc
00000390: bbe7 6b3c 21b1 45bc 48b1 2a3c 25cf 0bbc
000003a0: f7e9 533b 0ec2 93bc bac7 fc3c d8ff 293d
000003b0: cbee cf3b d98f 983c 6cc6 ce3c 0ad9 cfbb
000003c0: 52c9 e43b 093f 9a3b 6afc d03c bf9c f43c
000003d0: b2b4 20bc ae6d a53c db54 b13a 9d52 4bbb
000003e0: 26ae 0a3c b144 ed3b e3d8 973c 7185 54bc
000003f0: 5256 813c d73f 403c 79cd 423b c181 183c
-0.02339648 -0.023394655 -0.023394208 -0.040949296 -0.040952116 -0.040954445 -0.048855115 -0.048861507
-0.048858095 0.006965784 -0.007507822 -0.006553348 0.006966723 -0.007509759 -0.006553442 0.006965725
-0.007516055 -0.0065552653 -0.0041762586 -0.0037896752 -0.0043917983 -0.0046351384 -0.004176573 -0.0037901124
-0.0043912125 -0.0046349913 -0.004175766 -0.029269913 0.013415273 0.013505138 0.011513307 -0.03727541
-0.0009778303 0.016870279 0.034735687 -0.0050476366 0.019313382 0.04133072 0.0049872412 0.017403062
-0.0020753806 0.02370941 0.009703743 0.015320692 0.005390647 0.0019217214 -0.018378483 0.0069780094
0.004649821 0.0026562773 -0.012833591 0.024056572 0.015657837 0.0113438945 0.0037861841 -0.0033481938
0.0047709933 0.018459829 -0.010087842 0.025737185 -0.004336018 0.015155583 0.008530446 0.007862236
-0.013622194 0.014945373 -0.00017647262 0.029403288 -0.007061059 0.0023322962 0.004954807 0.004497813
0.033718668 0.03183649 0.0056913756 0.01438669 0.015143659 0.0144425845 0.015190291 -0.002978198
0.016265674 0.027491698 0.005176415 0.012915696 0.016863402 0.0014088453 -0.021420592 -0.0019605232
0.00949415 0.014419015 0.03294823 0.018071635 0.0017126298 0.0050736135 -0.01328814 -0.0025606444
-0.0034851176 0.011240903 0.009614588 -0.004667033 0.01836657 0.019889446 0.002861294 -0.004447268
0.03955174 0.0064737285 -0.020304475 -0.011590617 0.038987983 -0.016145412 -0.0031941917 0.0042987852
0.013860375 0.025875421 0.0022416667 -0.005383113 -0.004900151 0.0380142 0.029738467 -0.004399603
-0.009123037 0.008469402 0.022757152 -0.008814805 0.007401978 -0.014405042 -0.014081725 0.00620384
-0.007475732 -0.014409538 -0.009653104 0.010881552 0.005170458 -8.3427076e-05 0.012095374 -0.013341719
-0.0027238564 -0.012534824 -0.010159825 0.008142768 -0.0057379305 0.010411949 0.0059031327 0.004365814
0.030739564 0.011358858 0.02688271 0.031128941 0.010841879 0.03170758 -0.016920868 -0.010144165
0.0024244373 -0.036970254 -0.009242319 0.015926247 -0.0028047997 -0.0115873795 -0.01647475 0.006333178
0.0014847257 0.012533912 -0.0030427019 -0.0029301073 0.012762175 0.0146065885 0.0016782647 -0.013910257
-0.018289935 -0.00021568245 -0.008230182 0.008390874 0.026528325 0.002768347 0.008693432 -0.021888347
-0.030909186 -0.018115714 -0.0068645887 -0.015602712 0.025711814 0.036748275 0.030256908 0.03176197
0.016516615 0.015508773 0.024821881 0.030596733 -0.0035993159 0.045918632 -0.005443822 0.0064366693
-0.002734509 0.024721585 -0.010338217 -0.009955782 0.01766501 -0.0032287983 -0.023186559 0.01362113
0.027006157 0.032785762 0.0055030044 0.022054981 0.012270674 0.031155217 0.01722166 0.017910596
0.017143695 0.022275524 -0.0030311928 0.010914954 0.0046597235 0.008614921 0.0046895407 0.0056319046
0.040077228 0.018703014 0.018133726 -0.009847713 0.012114657 0.02009393 0.0019803352 0.017124744
0.01671767 -0.016552623 0.0052781105 -0.017896513 0.014398511 -0.012066157 0.010418244 -0.008533274
0.00323355 -0.018036868 0.030856956 0.041503757 0.006345605 0.01862328 0.0252411 -0.0063430117
0.006982007 0.0047072214 0.025510985 0.029859899 -0.009808706 0.0201939 0.0013529317 -0.0031024583
0.008464372 0.0072408547 0.018536037 -0.012971268 0.015788231 0.011733971 0.0029724522 0.0093082795

bias f4 [32]
00000000: c3a3 3639 cacc 42bb 0156 3e39 c456 853b
00000010: 666a 033b 41fe e139 05e7 2e3b dfab 8c39
00000020: 2902 8f3b 9f8a 863a a8ce abb9 961b 2dba
00000030: f441 fe3a f9a9 613c c5dc 7839 585c afba
00000040: 62e0 dc3a dbdc 9eb9 0992 12bb 040b 51bb
00000050: ea93 b23b 9b4e 1dbb ca08 acba 385c 5f39
00000060: 8db2 ce3b 80c4 9439 5e00 023a 1b11 d23b
00000070: 470d edb9 b8d3 b5ba 7b85 daba 40c6 73ba
0.00017417879 -0.0029724115 0.00018151851 0.004069181 0.0020052432 0.00043104778 0.0026687991 0.00026830935
0.004364271 0.0010264701 -0.00032769633 -0.0006603537 0.0019398318 0.013773435 0.00023733366 -0.0013378961
0.0016851539 -0.0003030066 -0.0022364876 -0.0031897435 0.0054497616 -0.0024003151 -0.0013125178 0.00021301291
0.006307906 0.00028375164 0.0004959161 0.0064107305 -0.00045214055 -0.0013872301 -0.001667186 -0.0009299256

weight f4 [32]
00000000: 1572 af3e ec14 d93e 11df 813e 0c84 fd3e
00000010: 77cf a63e 5341 903e 42de d63e e483 903e
00000020: e5e9 a93e e391 d43e c74e d53e 7c3d 923e
00000030: 9efa e13e cd60 d03e 11c1 8b3e 755c af3e
00000040: 2357 a13e 72ee 9b3e a8fc bc3e ad83 1d3f
00000050: 5387 163f 3b1c ab3e f8a7 b43e 9bce 893e
00000060: 6020 d83e a6d6 953e 15b5 9b3e 984f e83e
00000070: e991 a33e a561 aa3e ac96 003f 23dd 8e3e
0.34266725 0.42398775 0.253655 0.49514806 0.32580158 0.28174838 0.41966444 0.28225625
0.3318626 0.41517553 0.41661665 0.28562534 0.44136518 0.40698853 0.27295735 0.34250227
0.31511793 0.30455357 0.3691151 0.61529046 0.5880024 0.33419976 0.352844 0.2691544
0.422122 0.29265326 0.30411592 0.45373225 0.31947258 0.33277622 0.5022991 0.2790309

bias f4 [32]
00000000: e66c 053d 5935 953d ed06 91bc 5477 ee3d
00000010: fef0 623d c9af 3abd f98f 943d 7a32 303d
00000020: bfce 793d bb83 2f3d 13cd 61ba dd98 19bd
00000030: 7346 a53d 8ca0 d33d 2fc6 2b39 eb13 7bbd
00000040: fb7e 0a3d 3b92 8e3c 6530 a1bb 4c48 313e
00000050: ccda fe3d 767f 763d d915 0e3d 3a95 4ebd
00000060: e3b0 d43d 93fd 20bd ac70 c6bc dcce 913d
00000070: b7f4 a8bc 1511 083d 42fe 933d 7d72 0cbd
0.032574557 0.07285566 -0.017703498 0.11643854 0.05540561 -0.045577798 0.07254023 0.04301689
0.060988184 0.042850237 -0.0008613627 -0.037499297 0.08070078 0.10333356 0.0001638166 -0.061298292
0.033812504 0.017403712 -0.004919099 0.17312735 0.12444076 0.06018015 0.034688804 -0.050435282
0.10385301 -0.039304327 -0.024223648 0.071195334 -0.020624502 0.033219416 0.0722623 -0.034288872

running_mean f4 [32]
00000000: 811f c93e 1bc3 833e a1be 873d db61 e73d
00000010: 58be 0c3e 514a 583e d9c0 9d3e feac b03e
00000020: e4c1 293c 5262 ce3e cc05 863e 9d6a ff3d
00000030: e79d eb3d bb69 83be 47f3 243e 743f 7abe
00000040: 3435 2a3e 19d0 663e 8ea4 1a3e 6882 04be
00000050: 9a27 aa3d 3c5f f83d 65fa 8ebc a17b 2b3e
00000060: 10e7 aebd 3c09 0e3e 40c1 bd3e ff1e 14be
00000070: aef2 453e eaa5 46be 2f43 833e c51c 163e
0.39281848 0.2573479 0.066281565 0.11297961 0.13744485 0.211221 0.30811194 0.34506983
0.0103611685 0.40309387 0.26176298 0.12471507 0.11504727 -0.25666603 0.16108428 -0.24438268
0.16621858 0.2254032 0.15101835 -0.12940371 0.08308335 0.121275395 -0.017453382 0.1674638
-0.085401654 0.1387071 0.370615 -0.14464949 0.19330856 -0.19399229 0.25637195 0.14659412

running_var f4 [32]
00000000: d05c 2e3f b23b bb3e 46b1 c63e feb8 af3d
00000010: 87ff f43e ebf8 073f 632b be3e a04d f23e
00000020: 7158 123e fe72 c43e b8c9 253f fe3d fb3e
00000030: 2571 b73e 21a9 a03d 4d66 023f 5838 103e
00000040: 46ff c73e 7745 3d3f f1b0 123e db0f c23d
00000050: af11 163e 2d2d ac3e ee02 833e dff1 f23e
00000060: 65fa a93d 5c92 d23e 835d 863e ac0c 893d
00000070: a24a 013e 3002 983d f6e1 c43d c3ea bc3e
0.6811037 0.3656898 0.38807124 0.08580206 0.47851202 0.53114194 0.37142476 0.47324848
0.1429155 0.38368982 0.64760923 0.49070734 0.3582851 0.07844759 0.5093735 0.14083993
0.39061946 0.7393412 0.1432531 0.094756804 0.14655183 0.33628216 0.25588173 0.47450158
0.08299712 0.41127288 0.2624322 0.0669187 0.12626126 0.07422292 0.09613411 0.3689786

weight f4 [64, 35, 3, 3]
00000000: 32aa 0abc 34cd 0abc 7ecc 0abc d9b2 593c
00000010: 5786 593c 48a4 593c f928 b0bb 6148 b0bb
00000020: 6a24 b0bb 638d 0fb9 b71c 2ebb 9cd9 9fbb
00000030: bc29 12b9 6f52 32bb 8dcc 9fbb a19a 11b9
00000040: c308 2ebb b7cd 9fbb 2e5d fbba e306 e3ba
00000050: 9cfd 30bb 6f27 2abb fc54 fbba 9106 e3ba
00000060: ff16 31bb ab15 2abb 314c fbba 6e17 7f3c
00000070: 41f6 bb3b 9e30 1b3a 783b 733b fa80 2ebc
00000080: 58c3 fcbb 2a42 523c c68a 9ebb e448 163c
00000090: a9db 3b3d 3042 733c 3254 873c 56f4 ad3c
000000a0: 5753 fd3b a3af 9f3b 92e6 283d 3af4 323c
000000b0: 374d 983c 17fb 713c 93aa cdbb e275 c23b
000000c0: 4823 40ba 3cd8 9bbc 8792 1b3b a4c5 6e3c
000000d0: dcd6 393b 9941 4c3c 26d2 08bd d222 c1bc
000000e0: bdd9 7f3b 44ec f0bc 6f5c 85bc 70e0 c4bb
000000f0: f920 09bd 5478 f9bb 3fe1 51bd 7520 153d
00000100: c182 023c 5faf 31bb 5780 353c 8630 24bb
00000110: c0da fc3b a136 0d3d 2fe3 813c cc23 a53c
00000120: f7e3 913c ced5 e2ba d95a 18ba 1c21 7fbb
00000130: 097b 42bc ba2c cdbb 45b8 253d 0367 483c
00000140: 8f16 453c b86b 003d 6be1 913b d9bb 0d3c
00000150: 7e67 4f3c dc7a cabb 0c90 063c e7f4 f23c
00000160: d608 7c3b 9e55 933c 907b a33c d1ff c339
00000170: 1e7a 743b 7744 003b e227 71bc 583f 48bc
00000180: 570e cc3c 4922 7f3b 4eb9 1f3b 6083 ec3c
00000190: f092 b93b f45d 743c a89a 613c b699 98ba
000001a0: bba1 6e3c 49b2 e23c 1dd5 403b 17ca 723c
000001b0: 1831 be3c f49c d13b b3de 523c 3016 0f3c
000001c0: 8b39 f8bb cc51 0a3b 8f8f de3c b631 113c
000001d0: 8233 d33c 770f 523c 51a9 8c3a a251 0eb9
000001e0: 9a01 e13b 9c7d 5dbc 835c 8ebb af02 dd3c
000001f0: cbb4 a53b f2c2 8a3c 8420 7d3c f091 32ba
00000200: 320d 523a 5e0e 36bc c8d7 76bc ea00 f03b
00000210: 73e8 693c a515 8b3b 6b46 c93c 946c 843c
00000220: 620e 663c b401 d93b 5eaa 753c 7d67 a2bb
00000230: 75b8 b0b8 29bf a1ba 54b0 2dbc aafc 943c
00000240: d3bd 223c ca8b fa3b 2f14 86bb 3297 433c
00000250: cd70 0ebc ab19 babb 6a16 21bc c28c 96bc
00000260: ca09 b438 9235 3a3c eb8d 64b9 df7b 133b
00000270: 902e f238 ed77 49bc 1832 28bc 7f6e 0b3d
00000280: db00 ca3b 6920 423c c56d 9dbb 1cb1 86bc
00000290: 11f3 81b7 d9b5 98bc 9510 92bc 4e64 963b
000002a0: 41ea 663b bf38 59bb a79f eebb 7f03 d53c
000002b0: 3ed3 b23b 60ea 383a e52e 9d3c e5ea 5abb
000002c0: 018b 063c c91d 143d 814d 0b3c 08f5 923c
000002d0: 83e3 c13c a765 043c cd43 2f3c ab13 893b
000002e0: cf49 7cbb 905e 91bb ac8d 023d a3bf f53b
000002f0: 6f8d 313c 7957 e33b d38a a33b e3d2 b83c
00000300: 9d86 bbbb 7624 8abc a95a 4db9 93e4 f6ba
00000310: e7ab a4bb 02a9 fd3c b1ca b7bb 4ad7 b2bc
00000320: 5013 44bd 2777 03ba 07fe b8bc a279 f0bc
00000330: 2f58 54bd 0f6e 3cbd 513a d1bc 2555 e9bc
00000340: 816f 42bc 0723 09bd ab17 c9bc 8bdc d4bc
00000350: 4db8 eebc c664 d93c 3958 223b 3989 acbc
00000360: 2de3 f73b 1c23 1dbb 137c fdbb dd45 7e3c
00000370: 431c d9bb 21cb b83b 9dd8 003d 8016 d13b
00000380: 7a2f 8a3c a2d2 753c f2ea 49bb d92a 933a
00000390: 7148 573b ffa4 74bc 6116 4e3b 78e5 ff3c
000003a0: dfb1 c23b 8d3c 803c c847 813c 9c41 e8bb
000003b0: bcea ff3a 17f8 02bc c9bf 55bc 0641 1f3b
000003c0: a8c3 fa3c 451e 083c 73b4 883c 32c2 79bc
000003d0: 183c 083b af94 663b 336e db3b b0d0 3abc
000003e0: aa3a c43b ed9b 4abc 8f14 6cbc 0f1f ecbb
000003f0: 8a19 243c 8c8a 833a 8bb7 ac3b 66e9 44bb
-0.008463429 -0.008471776 -0.008471606 0.0132872695 0.013276658 0.013283797 -0.005375978 -0.005379722
-0.0053754346 -0.00013690213 -0.0026567408 -0.004878236 -0.00013939192 -0.0027209779 -0.0048766793 -0.00013885881
-0.0026555515 -0.004876818 -0.001917755 -0.0017320778 -0.0027006632 -0.0025963446 -0.0019175108 -0.0017320683
-0.0027021763 -0.0025952857 -0.0019172487 0.015569551 0.005736143 0.0005920025 0.0037114304 -0.010650868
-0.0077137165 0.012833158 -0.0048383204 0.009172652 0.04586378 0.014847323 0.01651964 0.021234673
0.007730882 0.0048732325 0.041235514 0.010922486 0.018591506 0.014769337 -0.0062764375 0.005934463
-0.0007329476 -0.019024007 0.002373846 0.014573488 0.0028356826 0.012466812 -0.03340354 -0.023576174
0.0039039694 -0.029409535 -0.016279427 -0.0060082003 -0.03347871 -0.007613221 -0.051240202 0.036407907
0.0079657445 -0.0027112586 0.011077962 -0.0025053336 0.0077165067 0.034475926 0.0158554 0.02015867
0.017808897 -0.001730615 -0.0005811877 -0.0038929647 -0.011870154 -0.0062614353 0.040458936 0.012231591
0.012029304 0.03135273 0.0044519207 0.008650743 0.012658952 -0.0061791968 0.008213054 0.029657794
0.0038457415 0.017985161 0.01995638 0.00037383896 0.0037304233 0.0019572058 -0.014718981 -0.012222134
0.024909182 0.0038930348 0.0024371925 0.028871238 0.0056632683 0.014914978 0.013769783 -0.0011642489
0.014564927 0.027672904 0.00294239 0.01481869 0.02321677 0.006396884 0.012870478 0.008733317
-0.007575219 0.0021105884 0.027168063 0.00886195 0.025781397 0.01282107 0.0010731613 -0.00013572586
0.006866646 -0.013518717 -0.0043445244 0.026978819 0.0050569526 0.01693866 0.015449647 -0.00068119075
0.00080128305 -0.011111824 -0.015066095 0.0073243277 0.014276612 0.0042445236 0.02456971 0.016165055
0.014041515 0.0066225175 0.014994232 -0.0049561844 -8.426692e-05 -0.0012340295 -0.010601122 0.018186886
0.009932953 0.0076460587 -0.0040917615 0.011937903 -0.008693886 -0.0056793294 -0.009832004 -0.018377665
8.584892e-05 0.011365311 -0.00021796643 0.0022504253 0.00011548132 -0.012296659 -0.0102658495 0.034040924
0.0061646528 0.0118485475 -0.0048043453 -0.016441874 -1.5491185e-05 -0.0186414 -0.017830173 0.004589594
0.003523484 -0.0033145396 -0.0072822156 0.026002644 0.005457311 0.00070539676 0.0191874 -0.0033404168
0.008211852 0.036161218 0.008502365 0.017939106 0.023668056 0.008080876 0.010697317 0.004183253
-0.0038496142 -0.0044363216 0.03187339 0.0074996515 0.010836943 0.006937918 0.0049909144 0.022561496
-0.0057228343 -0.016863089 -0.00019584097 -0.0018836431 -0.005025375 0.030964378 -0.0056088795 -0.021831173
-0.04786998 -0.00050150085 -0.022582067 -0.029354874 -0.05184191 -0.046003398 -0.025540503 -0.028482983
-0.011867405 -0.03348067 -0.024547419 -0.02598407 -0.029140616 0.02653731 0.0024771823 -0.021061527
0.0075649233 -0.0023977226 -0.007735738 0.015519586 -0.0066256835 0.005639449 0.03145658 0.006380856
0.016868342 0.015003832 -0.0030810204 0.001122798 0.0032849575 -0.014931916 0.0031446444 0.031237349
0.005941614 0.015653873 0.015781298 -0.0070878994 0.0019524912 -0.00799372 -0.013046213 0.0024300232
0.030610874 0.008307998 0.016687607 -0.015244054 0.0020787772 0.0035183837 0.0066964864 -0.011402294
0.0059884386 -0.012366277 -0.014409198 -0.007205851 0.010015855 0.0010035797 0.0052709035 -0.0030046343

bias f4 [64]
00000000: 8b83 1538 cd78 4d3a 0f78 f4ba 1fb2 9e3a
00000010: 5793 18bb 8246 84b9 8d5e 5db8 6f7d d5ba
00000020: d64c 5fba a811 aa3a 85f5 02ba 1f92 7eba
00000030: 9004 803a 6082 2eba aee5 3fb9 757d 713b
00000040: 0766 80ba 37ca e9b9 a985 3c3a 3239 c3ba
00000050: a54b 32ba 9c0e b139 fe2d e0b8 28bc d53a
00000060: 9e0e fab7 6bcd f938 a70e 8338 f3d6 46ba
00000070: 8b5f 8cb9 8eea 1eba 78e3 dc3b c29c b1b6
00000080: 0a57 e6b9 6b16 b73b 5d4b 9fb9 ef6c ca3a
00000090: 6ef8 fbb7 128e 58ba 5906 bb39 b051 693a
000000a0: c6ee b0ba 21fb 60bb aef9 543a 91dd e9ba
000000b0: a176 e2ba fa2a 8639 1410 1bb9 fa0e a73b
000000c0: e1f1 413a 226c e4b9 a558 0c3a 6409 043b
000000d0: acc9 37ba ee86 c1bb a75c 0d3b 667c 13ba
000000e0: 82ff 803a b521 43ba 1086 3f3a 488f 2738
000000f0: 3db4 9e3a ca33 1638 739c d4b9 fac6 5aba
3.5646877e-05 0.000783813 -0.0018651503 0.0012107528 -0.002328118 -0.00025229534 -5.2778563e-05 -0.0016287992
-0.00085182243 0.0012975233 -0.00049956917 -0.0009711105 0.0009766985 -0.00066570006 -0.00018300742 0.003684846
-0.0009796032 -0.00044591885 0.0007191548 -0.0014894365 -0.0006801433 0.00033770956 -0.00010689719 0.0016306685
-2.9809129e-05 0.00011911507 6.249296e-05 -0.00075851305 -0.00026774066 -0.0006062173 0.0067409836 -5.29326e-06
-0.00043933868 0.005587389 -0.00030382993 0.0015443842 -3.0037216e-05 -0.0008260916 0.0003567215 0.0008900417
-0.0013498894 -0.0034329372 0.00081243634 -0.0017842521 -0.0017277786 0.00025590492 -0.00014787941 0.005098221
0.00073984085 -0.00043568114 0.0005353785 0.0020147199 -0.00070109474 -0.0059059775 0.0021570118 -0.0005626142
0.0009841772 -0.00074436824 0.00073060486 3.9949344e-05 0.0012108159 3.581102e-05 -0.00040552355 -0.000834569

weight f4 [64]
00000000: 77e3 963e cb21 973e e898 913e 486e b53e
00000010: e604 f23e 497a 9f3e 2267 923e 154d 8b3e
00000020: 897e b83e c443 c43e c6d9 af3e 9cf1 a93e
00000030: 3942 963e c12d a93e 4548 8d3e 33b1 ba3e
00000040: add9 9c3e 8d72 913e f708 913e 9331 973e
00000050: c89d 903e e158 8f3e 81a4 9e3e 9dc4 953e
00000060: 2206 9b3e 49e9 8d3e 52dd 913e 8d5c 963e
00000070: 252a 9a3e 7843 8d3e 5dee d73e bea6 903e
00000080: ce85 923e 5623 e03e 3c7c 9b3e 5715 a53e
00000090: 4aa6 9d3e 9a5c 943e c359 a23e 797d a23e
000000a0: c149 943e 0e29 b33e 4ace 9b3e 06be 933e
000000b0: dc88 8b3e 5b80 8f3e 076e 8d3e 6b39 e03e
000000c0: 7d09 a73e 1b2a c23e 5c82 9b3e 5bb6 983e
000000d0: 431e 873e 9cf9 c13e da01 9f3e a632 9d3e
000000e0: 9738 a13e 9d7e 973e 08a3 923e 8f6d 963e
000000f0: 231d d73e 9d0b aa3e 9629 993e 4d6e c03e
0.29470417 0.2951797 0.2843697 0.354357 0.47269362 0.31147984 0.2859431 0.27207246
0.3603404 0.3833295 0.34345835 0.33192146 0.293474 0.3304272 0.275942 0.36463317
0.30634823 0.28407708 0.28327152 0.2953001 0.28245378 0.27997497 0.30984882 0.29251567
0.30278116 0.27717045 0.28489166 0.29367486 0.3011028 0.27590537 0.42174044 0.28252214
0.2861771 0.4377696 0.3036822 0.32242844 0.3079093 0.289769 0.31709108 0.31736353
0.2896252 0.3499226 0.30430824 0.28855914 0.27252853 0.28027615 0.27623007 0.43793806
0.32624426 0.3792275 0.30372894 0.29826626 0.26390275 0.3788575 0.310561 0.30702704
0.31488487 0.29588786 0.28640008 0.29380462 0.42014417 0.33211985 0.2991454 0.37584153

bias f4 [64]
00000000: 93f6 3abc be1d 273c 542d f93b 3304 8d3c
00000010: 4b5c 033e a54f 8cbb fc36 9bbb 33db 1a3b
00000020: e825 293d b6fd 693d 8769 ac3c 49d6 c63b
00000030: 3fca 533b 2c07 363c db41 45bd b128 6d3c
00000040: 6324 063c 6e0e f93b be2a 59bc 992f 9f3c
00000050: 7a9f a0ba 9b33 62bd 0dfa 82bb 1efa d2bb
00000060: 5c79 433a 6dc6 9eb8 ab60 ddbb e635 85bc
00000070: 8cce 35bb 0284 70bd dd27 703d cc56 81bc
00000080: 3c8e 24bc 7223 993d ec3d 1abc e7d8 9e3c
00000090: d0aa 033b e7c0 e9bb 3209 ac3b 0c52 193c
000000a0: 0688 8a3b 02bb c23c f9bf 803b 470e 14bb
000000b0: bfa7 b63a cf52 07bd 3f88 46bd c83b 2e3d
000000c0: e9ce 53bb 3774 7a3d fdae f9ba 5eaa 41bb
000000d0: eadb fabc c677 783c 8bda 0abb 388c afbb
000000e0: 80ea 13bc a293 c0ba 4bda 29bc ab2a 4bbd
000000f0: bb8d 843d 7237 b8bb 6bf6 ac3b 2470 073d
-0.011411327 0.010199962 0.0076042805 0.017213916 0.12828176 -0.0042819553 -0.0047367793 0.0023629188
0.041295916 0.057126723 0.021046413 0.0060680252 0.0032316593 0.011110108 -0.048158508 0.014475034
0.008187386 0.007600597 -0.013254819 0.019431876 -0.0012254559 -0.055224996 -0.0039970935 -0.0064385077
0.00074567436 -7.570987e-05 -0.0067559085 -0.016261052 -0.002774152 -0.058719642 0.058631767 -0.015788458
-0.010043677 0.07477464 -0.009414177 0.019390536 0.0020090826 -0.0071335915 0.0052501196 0.00935794
0.004227641 0.023770813 0.003929135 -0.0022591518 0.001393549 -0.033037957 -0.04846978 0.04253748
-0.0032319373 0.061145987 -0.0019049343 -0.002955101 -0.030622441 0.015165275 -0.002118739 -0.0053572915
-0.009028077 -0.0014692436 -0.0103669865 -0.04960124 0.064723454 -0.005621844 0.0052783987 0.03306593

running_mean f4 [64]
00000000: fba6 8c3d 3823 26b9 7e51 33be ab7d 01be
00000010: b140 df3e bade 4e3e 1631 c73d 4eea f9bc
00000020: be31 87be 5892 acbe 0215 bb3e 6fc9 a6bc
00000030: 4d92 25be 68f4 3abe 801a e73e fe39 b23e
00000040: 952c e73d baa6 bfbc 9997 863e 1d82 38be
00000050: f94e 803c ae4e cd3d e105 3dbe 6b66 c6bd
00000060: 2a87 0e3d b483 a43d 1b17 763e c29a be3d
00000070: 1516 2b3e 08a8 613e ad78 fa3e 7b51 7abd
00000080: fcfc 063e 7a34 e53e 2ec2 e73d e779 843e
00000090: cf6f b03e 2aa9 193e d337 85bc 6dd3 eb3d
000000a0: 476e 273e 73eb 5c3e 864a 703c 3f7b ad3c
000000b0: 732a 323e 0b90 8f3e 08ab ee3e 9637 0f3e
000000c0: e533 2fbe 289a cc3e ff73 253e 2ebc e33e
000000d0: 2571 89be b749 793e 444e 22be ea42 613e
000000e0: adbd 853e bf56 ae3c 89e2 d73d a79b f93e
000000f0: 3565 2bbf ce14 553e 23f1 00bb bd45 3a3e
0.068677865 -0.00015844114 -0.17511556 -0.12645595 0.43604043 0.20202151 0.09726159 -0.030507233
-0.26405138 -0.337054 0.36539465 -0.020359723 -0.1616909 -0.18257296 0.45137405 0.3480987
0.112878 -0.023394931 0.26287535 -0.18018384 0.015662657 0.100247726 -0.18459274 -0.096875034
0.03479687 0.08032933 0.24032252 0.093068615 0.16707642 0.22036755 0.48920193 -0.061112862
0.13182443 0.447666 0.11316334 0.25874254 0.34460303 0.15005937 -0.01626197 0.11514936
0.16350661 0.21574192 0.014666205 0.021176932 0.17399006 0.28039584 0.4661486 0.13986048
-0.1710964 0.39961362 0.1615753 0.44479507 -0.26844135 0.24344526 -0.15850168 0.21998182
0.26121274 0.021281598 0.10541255 0.48751566 -0.66951305 0.20808718 -0.0019674979 0.18190666

running_var f4 [64]
00000000: 1cdc 4d3e 08fc 383e 8ecf ac3d eeb8 c83d
00000010: 58a4 a63c 50c8 713e a92a 653e 14fd ac3d
00000020: 4f79 553d ee76 8d3d b6fb a83c 0b73 183e
00000030: 253d cc3d 8c7c c83d 3703 cb3e 0ca6 723d
00000040: ca69 733e c3a8 bd3d be16 b73e b22b a33d
00000050: 56ac 363e b99d f43d cef3 bd3d 13ca db3d
00000060: 74c6 be3d b77e b33e aeb1 b93e 94e5 7e3e
00000070: 7bde 963e 5efe a53e 91c8 283d 59ba fc3d
00000080: edee 833e cd90 0b3d a398 0d3e 2b33 dd3d
00000090: 6b94 673e 7762 503e cc20 473e 11c8 833e
000000a0: 89f2 b43e d933 8f3d a37d 3f3e f315 843e
000000b0: 3e63 693e 8323 a93e a1c2 8a3f 51e3 473c
000000c0: e55a db3d 96ea 973e 8edd 7f3e 998c 653e
000000d0: 8f51 ea3d 4b38 aa3c 4d73 ab3d e3f4 853e
000000e0: 880b d33d dc30 4d3e 0602 6c3e c2b9 0d3f
000000f0: f519 9c3c f11b a43d 71af 0f3e 1aa1 393d
0.20103496 0.18064892 0.084380254 0.098008975 0.020342037 0.2361157 0.22379555 0.08446708
0.052117642 0.0690745 0.020627838 0.14887635 0.099726 0.097893804 0.3965089 0.059240386
0.23770824 0.09260704 0.35759538 0.079673186 0.17839178 0.11944146 0.09275018 0.10731902
0.09315196 0.35057613 0.3626837 0.24892265 0.29466614 0.3242063 0.0412069 0.123402305
0.25768223 0.03407364 0.13827758 0.10800775 0.2261521 0.20350061 0.19446105 0.25738576
0.3534129 0.06992311 0.1870027 0.25797996 0.22791764 0.33034906 1.0840646 0.012200193
0.10710696 0.29671162 0.2498686 0.22416915 0.11441337 0.020778796 0.08371601 0.26163396
0.10304934 0.2003817 0.23047647 0.5536157 0.019055346 0.08013142 0.1403177 0.045319654

weight f4 [64, 67, 3, 3]
00000000: 7ba8 bf3c d4db be3c 39db bf3c 423b 813b
00000010: 642f 813b 342e 813b 7182 3c3c 077d 3c3c
00000020: dd83 3c3c 80d6 f73c de0b cf3b 0f6a 093d
00000030: 4478 f73c d50b cf3b 7a3d 093d 7ab7 f73c
00000040: 59ff ce3b 1a71 093d d06b c439 2ff1 4c39
00000050: f3df f038 65b0 8139 b20d 7739 8968 8939
00000060: e612 7539 134a 0339 625d 3539 8aaa a4ba
00000070: 5526 c93b e0a8 8e3c ecdd e1bb 790d 83bb
00000080: b66e bf3b 0749 b63c 4310 b13c 35e6 5c3c
00000090: b2b0 803b c1a6 2f3c 55ca 9e3c 108d aeba
000000a0: cb3a 1ebb 30cb 6b3c 2c5e a23c a667 9c3c
000000b0: 1b7d 523c c48e be3b f62f e33b bab5 283c
000000c0: 0e72 98ba 0817 07bb 8b58 293c e745 7a3c
000000d0: 1756 3a3c 1a9f 893c 0a1e 1c3c fe65 063c
000000e0: e102 7a3c 7940 5e3a 4749 793b 305b a33c
000000f0: 01d8 7f3c 9440 b03c dc72 c03c 373f 09bd
00000100: 186d adbc 2859 2ebc e5d5 69bd 948b abbc
00000110: 1f7b 85bc a5e0 f5bc 4f3a 69bc 9295 b7bc
00000120: df14 7a39 4854 823b 615b 8b3c 5c88 1cbc
00000130: f636 98bb 046f 8e3c a3b5 9e3c cf1b 863c
00000140: 28c9 7c3c 1cbe a3ba ca7e e63b dea9 853c
00000150: bd1e 43bb 3a09 d2bb 8b70 c33b b621 8f3c
00000160: 2f8e 973c eaad 5b3c 035d 903c 586a b13a
00000170: e4fa 513c 1a36 2d3b c2f4 ca3b 3b8a 72bb
00000180: 8fe0 623c cca0 8f3c 073d 8c3c f1da bf3c
00000190: 54c4 ab3c 3718 333c 884f 993c 47b2 413c
000001a0: 86f3 783c 9920 d03c f7ef 8d3c 21e2 213d
000001b0: 06a1 533c f65a 443c fec7 023d a284 ca3b
000001c0: 93fc c83b 5f17 e83c df25 9b3c 93c8 dd3c
000001d0: 677f 233d 42ff 00bd 847c cfbc 4feb a4bc
000001e0: 5103 1dbd 42b5 c5bc 11e4 6939 c316 29bd
000001f0: 7ed2 82bc 9c2c 0b3c 8ea5 ad3b 836b e63b
00000200: 18f0 643c 694b ea3a a495 913b aeeb 673c
00000210: 2d6b 693c c473 803c 32c7 b33c 1cd2 513b
00000220: 208e cd3b b03f 673c 3de4 c037 8e66 b13b
00000230: d31a 803c 85c9 543c e913 753c ddc0 7e3c
00000240: 0180 163c acd6 3e3b dbaf 133c ef80 c83b
00000250: 1d4a c63b e423 f63b 59bf 613c 4652 893c
00000260: 9298 fa3c 05de 24bb 21b3 b73b 6636 3e3c
00000270: 642b 90bc 3f40 eebb 3ccb 333c 2d27 8e3c
00000280: e697 6c3c 3fec b6ba 4286 2fbd 9a35 08bd
00000290: 5c15 0bbd 82db 0abd 4dcf 2dbc dc7f b1bc
000002a0: d7f7 87bc 516b c23c 9832 94bc e1c3 00bb
000002b0: d869 733b c5fb 823c d3c1 8fbb 670e 9bbb
000002c0: 5050 213c 6106 bd3c 04a7 8a3c 8a1f 3d3c
000002d0: a634 dc3b 53c1 ec3b 597b 943c 7679 d53b
000002e0: b2c5 933b ee81 9e3b 1f12 8a3c 3618 923c
000002f0: fb17 633c 8cd9 b43a 3739 ef3a 0885 233c
00000300: 067f 4abb 336a 06ba 7682 043c 4c11 6b3c
00000310: 3045 d33b 9404 513b e444 833a ad85 583b
00000320: 0aec 843c c94c 6f3b fe2e 24bb d9f4 4b3c
00000330: d658 ab3c 0746 b23c fa0e d63c f506 513c
00000340: a102 973c c942 623c d941 25bb 2d76 90ba
00000350: cb8c 7a3c eb1e 4b3c 0ab1 2b3c 6060 5b3c
00000360: 3cac 9fbc 8835 6fba b228 00bb f58c 88ba
00000370: 6b81 57bb 3e9e 403b 9a19 cebb f405 5f3a
00000380: 0cee 453c 14fe 2b3b e4c8 cd3b c05d 313c
00000390: 937d 9a3a 37d8 a43b 1845 143c e8c2 b93c
000003a0: 46dd 743c e6e2 ba3c e3c3 6eba 34c7 c73a
000003b0: 4b15 a23c a3bc 093b b835 833b f558 0e3c
000003c0: 0791 623c 2522 9b3c 71b5 7e3c 6a9b 153a
000003d0: f620 4e3c 7e14 9a3c 638d a5bb f034 2e3a
000003e0: 58a9 a83c dc2a be3c 7c22 b23c e69e 993c
000003f0: 9980 e83a e619 3a3c 1ef1 4e3c 10de 193a
0.023395767 0.023298182 0.023419963 0.0039438317 0.003942417 0.0039422754 0.011505709 0.011504418
0.011506048 0.030253649 0.0063185534 0.03354841 0.030208714 0.006318549 0.033505894 0.030238856
0.006317061 0.033555128 0.0003746436 0.00019544804 0.000114858056 0.00024736222 0.00023560858 0.0002620856
0.00023372061 0.00012520728 0.00017296293 -0.0012563032 0.0061386027 0.01741451 -0.00689291 -0.003999409
0.005842055 0.022251619 0.0216142 0.01348262 0.0039273137 0.01072091 0.019383589 -0.0013317186
-0.002414393 0.014391705 0.019820295 0.019092392 0.01284721 0.005815359 0.0069332076 0.010297233
-0.0011630671 -0.0020613093 0.010336052 0.015275455 0.0113730645 0.016799498 0.009528646 0.008203028
0.015259475 0.0008478235 0.0038038061 0.019940943 0.015615464 0.021515168 0.02349227 -0.033507552
-0.021170184 -0.010641374 -0.05708875 -0.02094058 -0.01629406 -0.030014345 -0.014235093 -0.022410188
0.00023849633 0.0039773323 0.017011346 -0.009553995 -0.0046452237 0.01738692 0.01937372 0.016370682
0.015428819 -0.001249257 0.0070341574 0.01631635 -0.002977296 -0.0064097913 0.005964344 0.01747213
0.018500416 0.013408164 0.017622476 0.0013535721 0.012816165 0.0026429952 0.006193728 -0.0037008661
0.013847484 0.017532729 0.017118944 0.02341983 0.02096764 0.010931066 0.018714681 0.01182229
0.015194779 0.025406169 0.017326338 0.039522294 0.012916809 0.011984577 0.03192901 0.006180362
0.006133625 0.028331457 0.018938957 0.02707318 0.039916422 -0.031493433 -0.025327928 -0.020131735
-0.03833324 -0.024134282 0.00022305573 -0.041281473 -0.015969511 0.008494522 0.0052992767 0.0070318594
0.013973258 0.0017875257 0.0044428874 0.0141553115 0.014246744 0.015680201 0.02194557 0.0032016104
0.006273046 0.014114305 2.2994465e-05 0.005413837 0.01563779 0.012987499 0.01495836 0.015548912
0.009185792 0.0029119654 0.009014095 0.0061188857 0.0060513155 0.0075116027 0.013778531 0.016762864
0.03059033 -0.0025156748 0.0056060706 0.011609649 -0.017598815 -0.0072708423 0.010973748 0.017352665
0.014440512 -0.0013955905 -0.042852648 -0.033254243 -0.033955917 -0.033900745 -0.010608506 -0.021667413
-0.016597671 0.023732813 -0.018090531 -0.0019648003 0.0037141945 0.015989194 -0.0043871193 -0.0047319415
0.009845808 0.02307433 0.016925342 0.011543164 0.0067201434 0.0072251945 0.018125223 0.0065147234
0.004509651 0.004837266 0.016854344 0.01783381 0.013860698 0.0013797744 0.0018251304 0.009980448
-0.0030898466 -0.0005127519 0.008087745 0.014347386 0.006447457 0.0031893598 0.0010015038 0.0033038661
0.016225833 0.0036514273 -0.0025052424 0.012448513 0.020916384 0.021761907 0.026130188 0.012758006
0.01843387 0.013809868 -0.002521625 -0.0011021547 0.015292357 0.012397508 0.010479221 0.013389677
-0.019491307 -0.0009125103 -0.0019555506 -0.0010417985 -0.0032883536 0.0029391195 -0.006289673 0.0008507662
0.012080681 0.0026243972 0.0062800515 0.010825574 0.0011786692 0.0050306576 0.009049676 0.022675946
0.014945334 0.022813272 -0.0009108169 0.0015241862 0.019785544 0.0021016977 0.0040042065 0.008688201
0.0138285225 0.01893718 0.015546189 0.00057070574 0.012581101 0.0188086 -0.005052255 0.00066454615
0.020588562 0.023213796 0.021744959 0.018752526 0.001773852 0.011358714 0.012630729 0.00058695767

bias f4 [64]
00000000: e810 b538 bd21 c438 06ba bf38 f66e afba
00000010: 2e2d 81bb a6dc a53a 1922 8eb9 87af 003a
00000020: de61 21b8 454f eb3a df1e 993a e384 ff39
00000030: de37 9639 48bb d0ba cedc 8d3a cfe1 18b9
00000040: 7f39 113a a447 4fba 282c 22bb 3d3f da3a
00000050: 2dbc ccb9 23cf 1cbb 662b 01bb 9fda e1b8
00000060: 8e51 bab8 eb4f 6dba a685 e639 a639 aeb9
00000070: d94d e3b9 a3ed 71b9 7587 f7b9 3415 5bb9
00000080: 3d2e 04b7 7350 46ba 1a67 7ab9 62c5 19b8
00000090: 01ed 663a 05ed 2fba dfe5 2a3a 241d be3a
000000a0: f0d9 8fba d189 c239 b0b4 c8ba 6280 d0ba
000000b0: 896b aa3a 6975 8bba 3182 87ba 3f50 d3b9
000000c0: f0e9 1537 fb72 49b8 b5fc edb9 8086 19bb
000000d0: dc24 f1b8 2974 d2b9 fd96 43bb 3114 4f39
000000e0: 4479 68bb 14b0 4939 57d5 52ba 90c0 5ab9
000000f0: 05ce 41b9 946f f53a bf93 1238 a49f c73a
8.6339016e-05 9.3522925e-05 9.142239e-05 -0.0013384509 -0.0039421534 0.0012654259 -0.00027109755 0.0004908968
-3.8476537e-05 0.0017952701 0.0011682174 0.00048736398 0.00028651854 -0.0015924955 0.0010823251 -0.0001457997
0.00055398786 -0.00079070986 -0.0024745557 0.0016650927 -0.00039050114 -0.0023927174 -0.0019709705 -0.000107695574
-8.884362e-05 -0.0009052741 0.00043968594 -0.00033230818 -0.00043354815 -0.00023072078 -0.00047212435 -0.00020893366
-7.878579e-06 -0.00075650885 -0.00023880266 -3.666187e-05 0.000880912 -0.0006711039 0.0006519239 0.0014504534
-0.0010974985 0.00037105245 -0.0015312638 -0.0015907402 0.0013002019 -0.0010639849 -0.0010338483 -0.00040304844
8.93556e-06 -4.802922e-05 -0.00045392444 -0.0023426116 -0.00011498641 -0.00040140867 -0.0029844635 0.0001974858
-0.003547267 0.00019234448 -0.00080426544 -0.00020861835 -0.00018482663 0.001872527 3.4946712e-05 0.0015230072

weight f4 [64]
00000000: f35b d23e abb9 da3e b687 be3e f742 c63e
00000010: e3ac e63e 1056 df3e 8781 bc3e bb13 ce3e
00000020: e126 d83e d109 df3e 0fb8 d33e 7729 e33e
00000030: eab5 cd3e 28ec d33e 6562 db3e 0de4 bc3e
00000040: a42a e43e 17f6 e43e 0a4d e23e 6a3b d23e
00000050: a1d7 e83e d4c2 ee3e 65dc ed3e 698e d13e
00000060: d7ef d63e e176 e23e c673 d93e 91b2 fb3e
00000070: 9053 e83e 43b0 e13e 9322 f03e a58a da3e
00000080: 9f2e d13e e3fd db3e f41d b43e 7523 ec3e
00000090: 9f15 e33e d5b5 c83e 73d1 b03e b5ca dd3e
000000a0: 8144 c23e 1b24 d03e 4e51 f53e 350b e23e
000000b0: d027 e33e f036 db3e 8ae7 ce3e 88b9 d53e
000000c0: 587b b63e a1e3 c33e 537c d73e dcdc f03e
000000d0: 0485 d33e cca7 c63e 0d78 e13e b9ae dd3e
000000e0: 959c d83e da07 cd3e e5a5 d53e a56a d53e
000000f0: 5e8b da3e 147e d93e e21b dc3e ee1c c73e
0.41085777 0.42719778 0.37212914 0.38722965 0.45053777 0.43620348 0.36817572 0.40249428
0.42217162 0.43562177 0.41351363 0.44367573 0.40177852 0.4139111 0.42848507 0.3689274
0.44563782 0.44719002 0.441994 0.41060954 0.45477012 0.46633017 0.4645721 0.40928963
0.41979858 0.44231322 0.4247114 0.49159673 0.45376253 0.4407979 0.46901378 0.42683902
0.40855882 0.42967138 0.35179102 0.46120802 0.44352433 0.39201227 0.34534797 0.43318716
0.3794289 0.40652546 0.47913593 0.44149175 0.44366312 0.4281535 0.40411025 0.41743112
0.3564098 0.38259605 0.4208704 0.47043502 0.4131242 0.38799894 0.44036904 0.43297365
0.42306963 0.40045053 0.4172813 0.41682926 0.42684454 0.42479002 0.42990023 0.3888926

bias f4 [64]
00000000: 5894 5e3d be25 f93c be7f 2b3d b4a3 8e3d
00000010: a0c1 0f3e 670a 993d 9362 7e3c e637 7c3d
00000020: 6f04 8a3d 4ad7 893d 914e 843d 4f90 883d
00000030: 7526 743d a533 d23d 243c 653d c3aa 4e3d
00000040: 194b f43c 229e 923d b881 0c3e 5e4b 6e3d
00000050: 1305 b83d cd45 d03d aeaf 143e 0922 a83d
00000060: dbb2 803d 75e5 a13d 3184 8c3d 3671 043e
00000070: de22 923d ffcd fe3d 5c9e f23d a6c5 883d
00000080: 34fe cd3c 9ea6 813d ab78 d03c b0aa b33d
00000090: 0dd3 813d 23e0 2d3d 74d3 253d e587 053e
000000a0: 593e 483d 83be 7a3d b080 f03d 9867 c03d
000000b0: 71a4 d13d 6620 f03d 5b31 873d 3bd8 763d
000000c0: 8fdf 0b3d 6c3a a13c 0fb6 613d e9c6 e83d
000000d0: eaca 3a3d 549d e83c 3ed8 b43d b7c2 803d
000000e0: c0bc 843d 93fa 4c3d 3fcd 963c cfe5 7c3d
000000f0: 6df8 7b3d cbd9 6c3d 03b1 bd3c 4c5e 4e3d
0.05434069 0.030413505 0.04186987 0.06964818 0.14038706 0.07472687 0.015526432 0.061576746
0.06739127 0.06730516 0.06460298 0.0666815 0.059606988 0.10263757 0.055965558 0.05045582
0.029820966 0.07159068 0.13721359 0.058177345 0.08985343 0.101695634 0.14520141 0.08209617
0.06284114 0.079050936 0.06861151 0.12933812 0.07135557 0.124416344 0.11846611 0.066783234
0.025145628 0.06330608 0.025448164 0.087727904 0.06339083 0.04245008 0.04048486 0.13040121
0.048887584 0.061216842 0.11743295 0.09394759 0.10236443 0.117249295 0.06601211 0.060264807
0.03414875 0.019681178 0.055105265 0.11366064 0.04560367 0.028395332 0.088303074 0.06287139
0.06481314 0.050043654 0.018408416 0.0617426 0.061516214 0.05782489 0.023155695 0.050382897

running_mean f4 [64]
00000000: 6088 473f 500a 603f eb1c dc3f f5c1 cebd
00000010: ed04 abbe 8368 4c3f fc32 823f 1d1b 9c3f
00000020: 5e42 a53f c352 833f 3f74 813f 72d5 923f
00000030: 33e2 7e3f 55f5 31be ab8e 803f 8b34 29be
00000040: 127a 653f ebdd 883f 7c55 babe 3586 923f
00000050: 22b5 bebb 4a38 04be 3d0e a5be d224 27be
00000060: 5fc5 5d3f 3cc9 40be a9a0 813f adba f2bc
00000070: 2669 883f 799a 81be 6f9a 88be feae 973f
00000080: 3313 463f b343 853f 01d8 c63f c255 24be
00000090: 180e 653f b014 37be f464 65be ac80 72be
000000a0: 24eb 4cbe 5bdb 8e3f ab25 a2be 4d61 f8bd
000000b0: f4b9 66be 402e a7be 3ddb 4fbc faad 4a3f
000000c0: a1bf 35be 1390 6c3f 28c9 3f3f 050e 13be
000000d0: 1e99 313f 52ab 893f 9a70 35be ca20 923f
000000e0: 7b6d 90be 9530 9e3f c473 313f 83c3 823f
000000f0: b5c4 883f 2b3e 7e3f 5495 2c3f a2e3 9c3f
0.77942467 0.87515736 1.7196325 -0.10095588 -0.33402196 0.7984697 1.0171809 1.2195774
1.2910879 1.0259632 1.01136 1.1471388 0.995639 -0.17378743 1.0043539 -0.1652395
0.8963939 1.0692724 -0.36393344 1.1447207 -0.0058199326 -0.12912098 -0.32237425 -0.1632264
0.8662929 -0.18826765 1.0127155 -0.02963003 1.0657089 -0.25313166 -0.26680323 1.1850278
0.77373046 1.0411285 1.5534669 -0.16048339 0.8947463 -0.17878985 -0.22401792 -0.23681897
-0.20011574 1.1160692 -0.31669363 -0.12127934 -0.22531873 -0.32652473 -0.012686548 0.7917172
-0.17748882 0.9240734 0.74916315 -0.14360817 0.69374263 1.0755408 -0.17718735 1.1416256
-0.28208527 1.2358576 0.6931727 1.0215915 1.068503 0.9931361 0.67415357 1.2256968

running_var f4 [64]
00000000: 1de1 9e3e af2b 863e 4e24 d53e c97d f33d
00000010: 5301 e83d ae4e a53e f4e3 d93e 833c bf3e
00000020: 093d cb3e 9ebd a83e c856 ac3e 3d00 b53e
00000030: b107 b43e e659 f13d 6581 bc3e e028 b93d
00000040: befb a93e 42a3 823e 32fd ed3d d58e af3e
00000050: 04ef b23d 2f6b d43d c2f7 c33d e72d b43d
00000060: 6cb4 a63e df5b d93d e910 a93e fc3d d93d
00000070: 4546 973e f421 153e fa44 ce3d 051a c03e
00000080: 5ba6 863e e3c5 7b3e 5a70 e23e a963 d73d
00000090: e4c8 a83e 50d5 b73d 87ce df3d a89f ec3d
000000a0: 7e66 c03d 3d3d a73e fc88 ee3d 7385 b23d
000000b0: dbde c03d 3301 fe3d 4900 c43d 7223 813e
000000c0: db1b e13d e598 b63e 9a6c 8f3e b50f b43d
000000d0: 42dd 8d3e 8645 9b3e 1d9e b43d 6610 c93e
000000e0: 8cd5 e43d 2c9d c13e a890 813e 14f1 a23e
000000f0: b8fb a33e 305e ac3e 3b6b 643e 9095 c23e
0.31031123 0.26205203 0.4162926 0.11889226 0.113283776 0.3228659 0.42556727 0.37350854
0.39695004 0.32957166 0.3365996 0.35351744 0.35162118 0.11784725 0.3681747 0.090409994
0.33199877 0.2551518 0.11620559 0.3428866 0.08736995 0.10372006 0.095687404 0.08797818
0.32559526 0.10613226 0.33020714 0.10607526 0.295458 0.14563733 0.1007175 0.3751985
0.26298794 0.24587207 0.44226342 0.105170555 0.32965767 0.08976233 0.10928064 0.115538895
0.09394549 0.3266391 0.116472214 0.0871686 0.09417506 0.124025725 0.09570367 0.25222355
0.10991641 0.35663524 0.28012544 0.087920584 0.2770787 0.3032648 0.0881922 0.39270324
0.11173543 0.37815225 0.25305676 0.31824553 0.32027984 0.3366561 0.2230653 0.38004732
