SND_trackers_My_data/9X0_file/9_9X0_coordconv_l1.pt (torch_old, 322099 bytes, 25 tensors)

weight f4 [32, 7, 3, 3]
0	0x00000568	1.94e-42
1	0x800006eb	-2.482e-42
2	0x00000832	2.94e-42
3	0x800007a9	-2.748e-42
4	0x0000055b	1.921e-42
5	0x00000091	2.03e-43
6	0x00000647	2.252e-42
7	0x80000670	-2.31e-42
8	0x000002ad	9.6e-43
9	0x00000006	8e-45
10	0x00000898	3.083e-42
11	0x00000478	1.603e-42
12	0x800005cd	-2.081e-42
13	0x000006e4	2.472e-42
14	0x8000080d	-2.888e-42
15	0x8000057c	-1.967e-42
16	0x000003b9	1.335e-42
17	0x0000034d	1.184e-42
18	0x0000006e	1.54e-43
19	0x000003b9	1.335e-42
20	0x000007f4	2.853e-42
21	0x0000094c	3.335e-42
22	0x3611da15	2.1733624e-06
23	0x8000027d	-8.93e-43
24	0x800004a2	-1.662e-42
25	0x80000532	-1.864e-42
26	0x2cf408c9	6.9358724e-12
27	0x80000143	-4.53e-43
28	0x800001e6	-6.81e-43
29	0x800001f0	-6.95e-43
30	0x8000009a	-2.16e-43
31	0x0000000c	1.7e-44
32	0x800001fd	-7.13e-43
33	0x800001a9	-5.96e-43
34	0x80000135	-4.33e-43
35	0x000001d3	6.54e-43
36	0x80000155	-4.78e-43
37	0x00000187	5.48e-43
38	0x00000127	4.13e-43
39	0x800000bb	-2.62e-43
40	0x000001b4	6.11e-43
41	0x80000086	-1.88e-43
42	0x000000c4	2.75e-43
43	0x000001d8	6.61e-43
44	0x80000173	-5.2e-43
45	0x0000021f	7.61e-43
46	0x0000033e	1.163e-42
47	0x000002ae	9.61e-43
48	0x000002ad	9.6e-43
49	0x000000c5	2.76e-43
50	0x8000011a	-3.95e-43
51	0x00000128	4.15e-43
52	0x00000275	8.81e-43
53	0x000002e7	1.041e-42
54	0x80000403	-1.439e-42
55	0x000003ed	1.408e-42
56	0x8000023f	-8.06e-43
57	0x0000034e	1.185e-42
58	0x00000220	7.62e-43
59	0x800000b8	-2.58e-43
60	0x800006ca	-2.435e-42
61	0x000000d9	3.04e-43
62	0x80000a64	-3.727e-42
63	0x80000322	-1.124e-42
64	0x800000a9	-2.37e-43
65	0x0000052f	1.86e-42
66	0x00000581	1.974e-42
67	0x0000016e	5.13e-43
68	0x000006a9	2.389e-42
69	0x00000719	2.546e-42
70	0x8000025b	-8.45e-43
71	0x000007ee	2.845e-42
72	0x8000027a	-8.88e-43
73	0x80000566	-1.937e-42
74	0x80000965	-3.37e-42
75	0x00000245	8.14e-43
76	0x000002c5	9.94e-43
77	0x000003b9	1.335e-42
78	0x0000057c	1.967e-42
79	0x00000127	4.13e-43
80	0x800005cd	-2.081e-42
81	0x80000596	-2.004e-42
82	0x80000369	-1.223e-42
83	0x80001347	-6.915e-42
84	0x800002f0	-1.054e-42
85	0x000021d7	1.214e-41
86	0x00000574	1.956e-42
87	0x00000bb3	4.197e-42
88	0x00000740	2.601e-42
89	0x000008b1	3.118e-42
90	0x0000017d	5.34e-43
91	0x800001fd	-7.13e-43
92	0x80000197	-5.7e-43
93	0x80000026	-5.3e-44
94	0x00000250	8.3e-43
95	0x00000122	4.06e-43
96	0x00000004	6e-45
97	0x800001f2	-6.98e-43
98	0x80000231	-7.86e-43
99	0x00000220	7.62e-43
100	0x800001e6	-6.81e-43
101	0x000000a4	2.3e-43
102	0x0000023b	8e-43
103	0x00000214	7.45e-43
104	0x80000247	-8.17e-43
105	0x0000009d	2.2e-43
106	0x000001ff	7.16e-43
107	0x800001ec	-6.9e-43
108	0x80000420	-1.48e-42
109	0x00000312	1.101e-42
110	0x8000011e	-4.01e-43
111	0x800001fc	-7.12e-43
112	0x800003f9	-1.425e-42
113	0x00000545	1.89e-42
114	0x00000411	1.459e-42
115	0x0000002a	5.9e-44
116	0x800001ca	-6.42e-43
117	0x80000761	-2.647e-42
118	0x80000ecd	-5.31e-42
119	0x0000049e	1.656e-42
120	0x80000dd0	-4.955e-42
121	0x8000091f	-3.272e-42
122	0x800002f6	-1.062e-42
123	0x0000093d	3.314e-42
124	0x00000490	1.637e-42
125	0x000008f3	3.21e-42
126	0x0000066b	2.302e-42
127	0x800000bb	-2.62e-43
128	0x8000004d	-1.08e-43
129	0x0000070f	2.532e-42
130	0x000000d7	3.01e-43
131	0x0000006c	1.51e-43
132	0x000003af	1.321e-42
133	0x000003ca	1.359e-42
134	0x00000386	1.264e-42
135	0x000007f2	2.85e-42
136	0x00000275	8.81e-43
137	0x8000056a	-1.942e-42
138	0x800003b9	-1.335e-42
139	0x8000024a	-8.21e-43
140	0x80000600	-2.152e-42
141	0x000007fa	2.861e-42
142	0x80000014	-2.8e-44
143	0x00000156	4.79e-43
144	0x8000001a	-3.6e-44
145	0xb74372ce	-1.1649636e-05
146	0x30d96959	1.581877e-09
147	0x00000a75	3.751e-42
148	0x800005af	-2.039e-42
149	0x000007f7	2.857e-42
150	0x800002db	-1.024e-42
151	0x00000847	2.97e-42
152	0x34153f23	1.3899675e-07
153	0x00000049	1.02e-43
154	0x0000009b	2.17e-43
155	0x80000186	-5.47e-43
156	0x80000205	-7.24e-43
157	0x80000194	-5.66e-43
158	0x800001a7	-5.93e-43
159	0x800000ad	-2.42e-43
160	0x8000015c	-4.88e-43
161	0x80000167	-5.03e-43
162	0x800001f7	-7.05e-43
163	0x8000017c	-5.32e-43
164	0x0000013b	4.41e-43
165	0x000000be	2.66e-43
166	0x8000005a	-1.26e-43
167	0x0000008f	2e-43
168	0x000000e3	3.18e-43
169	0x800000ed	-3.32e-43
170	0x00000093	2.06e-43
171	0x000003d7	1.377e-42
172	0x000000ee	3.34e-43
173	0x00000056	1.2e-43
174	0x000002dd	1.027e-42
175	0x80000426	-1.488e-42
176	0x000003f1	1.414e-42
177	0x00000276	8.83e-43
178	0x000001c7	6.38e-43
179	0x0000035e	1.208e-42
180	0x00000320	1.121e-42
181	0x00000fe7	5.705e-42
182	0x00000663	2.291e-42
183	0x00000a37	3.664e-42
184	0x800000ac	-2.41e-43
185	0x80000c20	-4.35e-42
186	0x00000a5e	3.719e-42
187	0x000003dc	1.384e-42
188	0x000000b4	2.52e-43
189	0x3b293323	0.0025817833
190	0x3b293328	0.0025817845
191	0x3b29330c	0.002581778
192	0x3a528570	0.0008030748
193	0x3a528444	0.00080305734
194	0x3a52847c	0.0008030606
195	0xba8d9f0d	-0.0010804847
196	0xba8d9ee9	-0.0010804805
197	0xba8d9f4b	-0.0010804919
198	0xb9fce19f	-0.00048233286
199	0xba59bf0d	-0.0008306362
200	0xba45626b	-0.0007529619
201	0xb9fce1e7	-0.00048233496
202	0xba59bf34	-0.00083063846
203	0xba45627f	-0.00075296307
204	0xb9fce0de	-0.00048232725
205	0xba59bf10	-0.00083063636
206	0xba4562e0	-0.0007529687
207	0xb512a6fb	-5.4632227e-07
208	0x34b6d830	3.405744e-07
209	0x347025be	2.2365472e-07
210	0x3506969b	5.013805e-07
211	0x37de012b	2.6465006e-05
212	0x33bd5715	8.8168385e-08
213	0x35ff1cf1	1.9007404e-06
214	0x382f63de	4.181626e-05
215	0x34d07a47	3.8831988e-07
216	0x3c57a204	0.013161186
217	0x3c27d31b	0.010243203
218	0x3c4a8197	0.012359998
219	0x3c4c5575	0.012471546
220	0x3c093d89	0.0083764875
221	0x3c48e071	0.012260542
222	0x3c154639	0.009110981
223	0x3c0ab526	0.008466041
224	0x3c2da2fb	0.01059794
225	0x3c5a253e	0.013314543
226	0x3c6be5cc	0.01439805
227	0x3c65b5e9	0.014020422
228	0x3c446a76	0.011988273
229	0x3b91db60	0.0044512004
230	0x3c2e8534	0.010651875
231	0x3c3f6a3d	0.011683044
232	0x3c5d4673	0.013505566
233	0x3c5666c7	0.0130860275
234	0x3c00fd9a	0.007872963
235	0x3bed3225	0.0072386437
236	0x3bef8398	0.0073093884
237	0x3bfbc38e	0.007683224
238	0x3bc70c47	0.0060744616
239	0x3be40c3f	0.0069594677
240	0x3c0b90ad	0.00851838
241	0x3bc4045e	0.005981966
242	0x3be47102	0.0069714794
243	0x3bacbdbb	0.005271641
244	0x3b7d0de5	0.0038613018
245	0x3b409361	0.002938472
246	0x3b48fc4f	0.0030667966
247	0x3b9e218f	0.004825778
248	0x3b11116d	0.002213563
249	0x3b53619f	0.0032254232
250	0x3b9d60cc	0.004802799
251	0x3b666fdb	0.0035161886
252	0x8000012d	-4.22e-43
253	0x80000754	-2.629e-42
254	0x800002c0	-9.87e-43
255	0x800000d6	-3e-43

bias f4 [32]
0	0x00000df8	5.011e-42
1	0x000002c5	9.94e-43
2	0x000007cb	2.796e-42
3	0x3458b40f	2.0182073e-07
4	0x00000bd5	4.245e-42
5	0x00abe76d	1.578689e-38
6	0x80000a79	-3.757e-42
7	0xb7a720c6	-1.9923213e-05
8	0x80000bf9	-4.295e-42
9	0x000003ce	1.365e-42
10	0xb506f863	-5.028034e-07
11	0x800002a9	-9.54e-43
12	0x00000594	2.001e-42
13	0x0000045e	1.567e-42
14	0x8000066d	-2.305e-42
15	0x800004ee	-1.768e-42
16	0x80000dcd	-4.951e-42
17	0x0000014b	4.64e-43
18	0x0000110f	6.12e-42
19	0x297c967b	5.608576e-14
20	0x8000093a	-3.31e-42
21	0xb0c01c3b	-1.3977862e-09
22	0x80000ad2	-3.882e-42
23	0xb1508f98	-3.0349607e-09
24	0x2ad51a24	3.785454e-13
25	0x80000e07	-5.032e-42
26	0x80000a1f	-3.631e-42
27	0x00000134	4.32e-43
28	0x8000073d	-2.597e-42
29	0x800003c0	-1.345e-42
30	0x8000008b	-1.95e-43
31	0x338e13e5	6.616009e-08

weight f4 [32]
0	0x8000014d	-4.67e-43
1	0x8000011d	-4e-43
2	0x000000b0	2.47e-43
3	0x3d8654e2	0.06559159
4	0x000000f1	3.38e-43
5	0x00000204	7.23e-43
6	0x800001d8	-6.61e-43
7	0x3d14a08f	0.036285933
8	0x0000006f	1.56e-43
9	0x80000222	-7.65e-43
10	0x3d0bb604	0.03410913
11	0x800001f0	-6.95e-43
12	0x800001e0	-6.73e-43
13	0x800000ed	-3.32e-43
14	0x0000001c	3.9e-44
15	0x000001cb	6.43e-43
16	0x000000b0	2.47e-43
17	0x00000212	7.43e-43
18	0x8000020a	-7.31e-43
19	0x2a2278ce	1.4430403e-13
20	0x00000202	7.2e-43
21	0x8000017d	-5.34e-43
22	0x80000064	-1.4e-43
23	0x80000045	-9.7e-44
24	0x00000217	7.5e-43
25	0x80000044	-9.5e-44
26	0x000000ff	3.57e-43
27	0x800001bf	-6.26e-43
28	0x00000021	4.6e-44
29	0x00000047	1e-43
30	0x800000d4	-2.97e-43
31	0x3d8d4398	0.06897658

bias f4 [32]
0	0x8000037a	-1.247e-42
1	0x000005d0	2.085e-42
2	0x00000214	7.45e-43
3	0x3c9f3f26	0.019439291
4	0x00000d4e	4.773e-42
5	0x80000098	-2.13e-43
6	0x000003bc	1.34e-42
7	0x38d428b4	0.00010116529
8	0x80000215	-7.47e-43
9	0x00000ce9	4.631e-42
10	0xbc80e0fe	-0.015732285
11	0x0000047f	1.613e-42
12	0x80001b82	-9.868e-42
13	0x00000c23	4.354e-42
14	0x80000895	-3.079e-42
15	0x0000013a	4.4e-43
16	0x80000090	-2.02e-43
17	0x80000261	-8.53e-43
18	0x80001006	-5.748e-42
19	0x288241f3	1.44615e-14
20	0x0000019b	5.76e-43
21	0x800004b8	-1.693e-42
22	0x000000ee	3.34e-43
23	0x00000ac2	3.859e-42
24	0x000006a2	2.38e-42
25	0x00000448	1.536e-42
26	0x00000296	9.28e-43
27	0x0000071a	2.548e-42
28	0x800004f3	-1.775e-42
29	0x800000bd	-2.65e-43
30	0x00000454	1.553e-42
31	0x3d89b76b	0.06724437

running_mean f4 [32]
0	0xb640b845	-2.8717488e-06
1	0x800000d5	-2.98e-43
2	0x35b54bd9	1.3507625e-06
3	0x3da692e3	0.08133485
4	0x80000070	-1.57e-43
5	0xa1967f99	-1.019817e-18
6	0x140563f9	6.7345e-27
7	0x3be566d0	0.0070007816
8	0x2f0327da	1.1928539e-10
9	0xb0c05b47	-1.3995781e-09
10	0x3c3c66d5	0.011499126
11	0x2ce81cbf	6.597028e-12
12	0xb2c2c817	-2.2675563e-08
13	0xaca5af75	-4.7090617e-12
14	0x1bc9d3d6	3.3389556e-22
15	0x2ac22148	3.4484416e-13
16	0xb29519b4	-1.7357571e-08
17	0x32c7afe7	2.324664e-08
18	0x3305e375	3.1173347e-08
19	0xb61b6f58	-2.316161e-06
20	0x206db5d9	2.0134849e-19
21	0x2f0e02b6	1.2915788e-10
22	0x30d3f250	1.542114e-09
23	0x2ee502f8	1.0414242e-10
24	0xb5f0eeac	-1.7950856e-06
25	0xb7588d66	-1.2907525e-05
26	0x9b6c0bae	-1.9525236e-22
27	0xb20cf33b	-8.204377e-09
28	0x26826658	9.048302e-16
29	0xb42ab085	-1.5896701e-07
30	0xa9c540f9	-8.7598284e-14
31	0xbbe54669	-0.006996919

running_var f4 [32]
0	0x1a9bdee1	6.446658e-23
1	0x00000004	6e-45
2	0x18bbc3d3	4.85361e-24
3	0x3e046b2d	0.1293151
4	0x00000004	6e-45
5	0x00000004	6e-45
6	0x00000004	6e-45
7	0x3bd12fb4	0.0063838605
8	0x0d5b4dc8	6.757821e-31
9	0x120d5eb2	4.4608476e-28
10	0x3b299ccf	0.0025880819
11	0x0922d0d5	1.9598233e-33
12	0x10d980ac	8.578966e-29
13	0x046f35b7	2.811898e-36
14	0x00000004	6e-45
15	0x05f95dd3	2.3450313e-35
16	0x136a2836	2.9554778e-27
17	0x13d500f4	5.37697e-27
18	0x141c86fa	7.902607e-27
19	0x2dcd66a4	2.3351383e-11
20	0x00000004	6e-45
21	0x0c9173a9	2.2410398e-31
22	0x103f24ba	3.76964e-29
23	0x0d6e3982	7.3408635e-31
24	0x191ce3ce	8.111016e-24
25	0x1ba79c78	2.7728948e-22
26	0x00000004	6e-45
27	0x14063b4e	6.776967e-27
28	0x000bb34b	1.074509e-39
29	0x11c9af7c	3.182036e-28
30	0x059f0450	1.4953872e-35
31	0x3caef913	0.021359002

weight f4 [32, 35, 3, 3]
0	0x80000130	-4.26e-43
1	0x80000083	-1.84e-43
2	0x80000043	-9.4e-44
3	0x80000576	-1.959e-42
4	0x000002c8	9.98e-43
5	0x0000049f	1.658e-42
6	0x00000150	4.71e-43
7	0x80000043	-9.4e-44
8	0x800000bf	-2.68e-43
9	0x00000112	3.84e-43
10	0x0000004d	1.08e-43
11	0x80000016	-3.1e-44
12	0x8000017a	-5.3e-43
13	0x8000048a	-1.628e-42
14	0x000001e4	6.78e-43
15	0x000003f8	1.424e-42
16	0x800003a9	-1.313e-42
17	0x8000023c	-8.02e-43
18	0x800008ca	-3.153e-42
19	0x80000a93	-3.793e-42
20	0xae534819	-4.803988e-11
21	0x3706c86c	8.033687e-06
22	0x2b8d3b9b	1.0035196e-12
23	0x80000067	-1.44e-43
24	0xacf22912	-6.8826134e-12
25	0x0000158f	7.734e-42
26	0x800005f6	-2.138e-42
27	0x000000ae	2.44e-43
28	0x8000035b	-1.204e-42
29	0x800002d1	-1.01e-42
30	0x8000020f	-7.38e-43
31	0x800000ba	-2.6e-43
32	0x800000f7	-3.46e-43
33	0x00000032	7e-44
34	0x80000174	-5.21e-43
35	0x800001d7	-6.6e-43
36	0x800000f2	-3.39e-43
37	0x0000023b	8e-43
38	0x000002e3	1.036e-42
39	0x000003d1	1.369e-42
40	0x00000005	7e-45
41	0x8000013b	-4.41e-43
42	0x800001bd	-6.24e-43
43	0x8000024f	-8.28e-43
44	0x000001f5	7.02e-43
45	0x0000021e	7.6e-43
46	0x00000276	8.83e-43
47	0x00000241	8.09e-43
48	0x0000007b	1.72e-43
49	0x800000b5	-2.54e-43
50	0x000001da	6.64e-43
51	0x80000206	-7.26e-43
52	0x000001bc	6.22e-43
53	0x00000166	5.02e-43
54	0x00000283	9.01e-43
55	0x000002d8	1.02e-42
56	0x80000246	-8.16e-43
57	0x800002fa	-1.068e-42
58	0x800001a0	-5.83e-43
59	0x000002a0	9.42e-43
60	0x00000083	1.84e-43
61	0x80000153	-4.75e-43
62	0x00000043	9.4e-44
63	0x0000006c	1.51e-43
64	0x8000035c	-1.205e-42
65	0x80000408	-1.446e-42
66	0x0000005f	1.33e-43
67	0x800003ea	-1.404e-42
68	0x800000da	-3.05e-43
69	0x80000147	-4.58e-43
70	0x80000287	-9.07e-43
71	0x800001a8	-5.94e-43
72	0x800001d3	-6.54e-43
73	0x000004e4	1.754e-42
74	0x0000005c	1.29e-43
75	0x000003cd	1.363e-42
76	0x8000002d	-6.3e-44
77	0x8000012d	-4.22e-43
78	0x0000027b	8.9e-43
79	0x800002a2	-9.44e-43
80	0x8000015c	-4.88e-43
81	0x80000187	-5.48e-43
82	0x80000378	-1.244e-42
83	0x8000019a	-5.75e-43
84	0x80000086	-1.88e-43
85	0x00000299	9.32e-43
86	0x800001f4	-7e-43
87	0x000002f2	1.057e-42
88	0x000000a5	2.31e-43
89	0x800001ff	-7.16e-43
90	0x00000225	7.7e-43
91	0x800000a5	-2.31e-43
92	0x80000029	-5.7e-44
93	0x800000a0	-2.24e-43
94	0x800000da	-3.05e-43
95	0x80000239	-7.97e-43
96	0x800001bb	-6.21e-43
97	0x00000094	2.07e-43
98	0x0000002c	6.2e-44
99	0x00000048	1.01e-43
100	0x000001de	6.7e-43
101	0x000002e2	1.034e-42
102	0x000001b2	6.08e-43
103	0x00000175	5.23e-43
104	0x0000007f	1.78e-43
105	0x800002a7	-9.51e-43
106	0x0000021a	7.54e-43
107	0x80000083	-1.84e-43
108	0x80000346	-1.174e-42
109	0x00000328	1.132e-42
110	0x00000201	7.19e-43
111	0x000004eb	1.764e-42
112	0x800000b7	-2.56e-43
113	0x00000252	8.32e-43
114	0x000000b2	2.5e-43
115	0x00000258	8.41e-43
116	0x80000173	-5.2e-43
117	0x000000ae	2.44e-43
118	0x800003c2	-1.348e-42
119	0x80000262	-8.55e-43
120	0x800003c5	-1.352e-42
121	0x80000165	-5e-43
122	0x000002f6	1.062e-42
123	0x000000a8	2.35e-43
124	0x00000227	7.72e-43
125	0x000002d3	1.013e-42
126	0x80000186	-5.47e-43
127	0x800000e4	-3.2e-43
128	0x00000311	1.1e-42
129	0x0000029b	9.35e-43
130	0x000001f0	6.95e-43
131	0x800002c0	-9.87e-43
132	0x000002da	1.023e-42
133	0x80000142	-4.51e-43
134	0x00000042	9.2e-44
135	0x800002d9	-1.022e-42
136	0x800001ec	-6.9e-43
137	0x80000058	-1.23e-43
138	0x00000067	1.44e-43
139	0x8000010f	-3.8e-43
140	0x0000028d	9.15e-43
141	0x000001da	6.64e-43
142	0x0000006e	1.54e-43
143	0x800001d9	-6.63e-43
144	0x8000026b	-8.67e-43
145	0x8000006d	-1.53e-43
146	0x80000040	-9e-44
147	0x00000166	5.02e-43
148	0x800002be	-9.84e-43
149	0x00000180	5.38e-43
150	0x8000000f	-2.1e-44
151	0x0000002c	6.2e-44
152	0x000003bd	1.341e-42
153	0x80000290	-9.19e-43
154	0x00000137	4.36e-43
155	0x800004ce	-1.724e-42
156	0x8000039e	-1.298e-42
157	0x800000b0	-2.47e-43
158	0x800002de	-1.029e-42
159	0x8000037a	-1.247e-42
160	0x000001f0	6.95e-43
161	0x80000149	-4.61e-43
162	0x80000305	-1.083e-42
163	0x00000441	1.526e-42
164	0x800002c9	-9.99e-43
165	0x80000077	-1.67e-43
166	0x800003cc	-1.362e-42
167	0x80000282	-9e-43
168	0x8000019c	-5.77e-43
169	0x00000221	7.64e-43
170	0x800000a6	-2.33e-43
171	0x800001f2	-6.98e-43
172	0x00000113	3.85e-43
173	0x8000037d	-1.251e-42
174	0x80000324	-1.127e-42
175	0x00000231	7.86e-43
176	0x0000013f	4.47e-43
177	0x80000115	-3.88e-43
178	0x800000de	-3.11e-43
179	0x8000022c	-7.79e-43
180	0x8000008f	-2e-43
181	0x80000097	-2.12e-43
182	0x80000013	-2.7e-44
183	0x800001b6	-6.14e-43
184	0x0000041c	1.474e-42
185	0x000002cf	1.008e-42
186	0x000003fd	1.431e-42
187	0x80000054	-1.18e-43
188	0x00000259	8.42e-43
189	0x8000008e	-1.99e-43
190	0x8000033e	-1.163e-42
191	0x0000004b	1.05e-43
192	0x80000236	-7.93e-43
193	0x80000121	-4.05e-43
194	0x800000c0	-2.69e-43
195	0x0000022b	7.78e-43
196	0x8000027a	-8.88e-43
197	0x0000005d	1.3e-43
198	0x00000058	1.23e-43
199	0x00000267	8.62e-43
200	0x8000009b	-2.17e-43
201	0x80000222	-7.65e-43
202	0x80000231	-7.86e-43
203	0x00000249	8.2e-43
204	0x00000251	8.31e-43
205	0x00000189	5.51e-43
206	0x800002c0	-9.87e-43
207	0x00000221	7.64e-43
208	0x000002d9	1.022e-42
209	0x80000220	-7.62e-43
210	0x00000383	1.26e-42
211	0x000001e7	6.82e-43
212	0x800000b4	-2.52e-43
213	0x8000021d	-7.58e-43
214	0x0000012a	4.18e-43
215	0x80000179	-5.28e-43
216	0x800001c7	-6.38e-43
217	0x000002b3	9.68e-43
218	0x80000022	-4.8e-44
219	0x80000288	-9.08e-43
220	0x8000052c	-1.855e-42
221	0x0000000d	1.8e-44
222	0x80000218	-7.51e-43
223	0x80000159	-4.83e-43
224	0x00000222	7.65e-43
225	0x000000cc	2.86e-43
226	0x00000210	7.4e-43
227	0x800002d2	-1.012e-42
228	0x000000ba	2.6e-43
229	0x800000e9	-3.27e-43
230	0x800002b3	-9.68e-43
231	0x00000220	7.62e-43
232	0x8000027f	-8.95e-43
233	0x80000507	-1.803e-42
234	0x800000d2	-2.94e-43
235	0x0000032d	1.139e-42
236	0x80000229	-7.75e-43
237	0x000000d2	2.94e-43
238	0x800001d0	-6.5e-43
239	0x00000368	1.222e-42
240	0x800002a2	-9.44e-43
241	0x8000001f	-4.3e-44
242	0x8000021d	-7.58e-43
243	0x80000022	-4.8e-44
244	0x000001a4	5.89e-43
245	0x00000242	8.1e-43
246	0x00000199	5.73e-43
247	0x8000000f	-2.1e-44
248	0x00000103	3.63e-43
249	0x000001db	6.66e-43
250	0x000000bf	2.68e-43
251	0x000002ae	9.61e-43
252	0x00000159	4.83e-43
253	0x800002a2	-9.44e-43
254	0x000002c9	9.99e-43
255	0x00000003	4e-45

bias f4 [32]
0	0xaf81140a	-2.3479202e-10
1	0xa64c2e8b	-7.0839795e-16
2	0x0000035d	1.207e-42
3	0xb7811dad	-1.5391817e-05
4	0x00000804	2.875e-42
5	0x80000d90	-4.865e-42
6	0x80001255	-6.576e-42
7	0x27017354	1.7964866e-15
8	0x000002cc	1.003e-42
9	0x1f806946	5.438427e-20
10	0x0000062d	2.215e-42
11	0xaca80761	-4.7756664e-12
12	0x00000d5d	4.794e-42
13	0xa74f8c3e	-2.8803046e-15
14	0x249330fb	6.3834064e-17
15	0x80000ea8	-5.258e-42
16	0x800006a9	-2.389e-42
17	0x80000540	-1.883e-42
18	0x0000012e	4.23e-43
19	0x800007ee	-2.845e-42
20	0x2a85a2cd	2.3738512e-13
21	0x39d3e337	0.00040414344
22	0x80000748	-2.612e-42
23	0xb19304d8	-4.2788137e-09
24	0xb6d68e35	-6.394252e-06
25	0x800002ac	-9.58e-43
26	0x80000265	-8.59e-43
27	0x80000adc	-3.896e-42
28	0x3439be69	1.7298738e-07
29	0x00000653	2.269e-42
30	0xb081d64f	-9.446895e-10
31	0x2e423f78	4.4166865e-11

weight f4 [32]
0	0x800001ef	-6.94e-43
1	0x0000021d	7.58e-43
2	0x800000bc	-2.63e-43
3	0x3d254364	0.04034747
4	0x000000f3	3.4e-43
5	0x800000a6	-2.33e-43
6	0x80000185	-5.45e-43
7	0x800001ba	-6.2e-43
8	0x8000002e	-6.4e-44
9	0x8000020d	-7.36e-43
10	0x80000071	-1.58e-43
11	0x000001de	6.7e-43
12	0x800000f0	-3.36e-43
13	0x0000019f	5.82e-43
14	0x000001e6	6.81e-43
15	0x80000006	-8e-45
16	0x00000049	1.02e-43
17	0x00000056	1.2e-43
18	0x00000066	1.43e-43
19	0x000000b2	2.5e-43
20	0x0000019d	5.79e-43
21	0x00000067	1.44e-43
22	0x8000015e	-4.9e-43
23	0x00000209	7.3e-43
24	0x3d694092	0.056946345
25	0x0000001c	3.9e-44
26	0x00000015	3e-44
27	0x0000014d	4.67e-43
28	0x00000065	1.42e-43
29	0x800001d8	-6.61e-43
30	0x800000ef	-3.35e-43
31	0x80000053	-1.16e-43

bias f4 [32]
0	0x8000042d	-1.498e-42
1	0x00000469	1.582e-42
2	0x80000827	-2.925e-42
3	0x3d7a381b	0.061088663
4	0x00000708	2.522e-42
5	0x0000089c	3.088e-42
6	0x000010cf	6.03e-42
7	0x0000071f	2.555e-42
8	0x000006b2	2.402e-42
9	0x800007c4	-2.786e-42
10	0x00000520	1.839e-42
11	0x00000364	1.216e-42
12	0x80000306	-1.085e-42
13	0x800022e7	-1.252e-41
14	0x8000073b	-2.594e-42
15	0x800007b2	-2.76e-42
16	0x0000090c	3.245e-42
17	0x00000495	1.644e-42
18	0x80000873	-3.031e-42
19	0x00000210	7.4e-43
20	0x80000b6d	-4.099e-42
21	0x000004d3	1.73e-42
22	0x000003c5	1.352e-42
23	0x80000463	-1.574e-42
24	0x3baee1ea	0.0053369896
25	0x00000e22	5.07e-42
26	0x80000baf	-4.191e-42
27	0x80000694	-2.36e-42
28	0x8000023d	-8.03e-43
29	0x80000da5	-4.895e-42
30	0x80000865	-3.011e-42
31	0x00000284	9.02e-43

running_mean f4 [32]
0	0xb50110d1	-4.8080716e-07
1	0x3682c06d	3.896703e-06
2	0x2c06c791	1.9153327e-12
3	0x3ba5f07f	0.0050640698
4	0xb2ac9b8b	-2.0094168e-08
5	0x29e59a75	1.0196437e-13
6	0x32ae580b	2.0296303e-08
7	0xb680d7a6	-3.839802e-06
8	0xa68219cd	-9.027555e-16
9	0xa41c4524	-3.3885672e-17
10	0x3657e315	3.2169676e-06
11	0x372f0532	1.04320225e-05
12	0x30f2e7fa	1.7673749e-09
13	0x2496d9cd	6.54211e-17
14	0xb045b7c0	-7.1929307e-10
15	0x343b1dde	1.7426598e-07
16	0x36767725	3.6726208e-06
17	0xb58c3996	-1.0447573e-06
18	0x35952101	1.111097e-06
19	0x2f182d2e	1.384037e-10
20	0xb6a30a51	-4.8589795e-06
21	0xb79732e7	-1.8024306e-05
22	0xb4066112	-1.2515036e-07
23	0x3000e2c8	4.6888404e-10
24	0xbd0c0743	-0.034186613
25	0x34d281fa	3.9210119e-07
26	0x2ebfc9dd	8.7215325e-11
27	0xb28fdeeb	-1.6748762e-08
28	0x347143b1	2.24695e-07
29	0xb484d658	-2.4742872e-07
30	0xb6fbc814	-7.503675e-06
31	0xb66a3ed5	-3.490529e-06

running_var f4 [32]
0	0x17bdad21	1.2257543e-24
1	0x19af7005	1.813982e-23
2	0x06cbefa0	7.671221e-35
3	0x3990e43d	0.0002763587
4	0x149dbb2e	1.5926778e-26
5	0x029e82e2	2.3291136e-37
6	0x13ac8b02	4.3555977e-27
7	0x1a3b25a7	3.870111e-23
8	0x000041a1	2.3543e-41
9	0x00000018	3.4e-44
10	0x19ca360d	2.0908141e-23
11	0x1b1cde3d	1.2975827e-22
12	0x123e8fe1	6.0130773e-28
13	0x0000047e	1.611e-42
14	0x0f073023	6.665285e-30
15	0x164ed087	1.6706347e-25
16	0x1a5d57c8	4.5772638e-23
17	0x1a418708	4.0020542e-23
18	0x190a84eb	7.161275e-24
19	0x0905b3cb	1.609383e-33
20	0x1a3bfb53	3.8873712e-23
21	0x17bd6aa9	1.2240764e-24
22	0x19fff9c7	2.6467266e-23
23	0x0e7badaa	3.1021755e-30
24	0x3a2e4996	0.00066485384
25	0x176ce534	7.654501e-25
26	0x0cda359c	3.3620483e-31
27	0x13b772a2	4.630873e-27
28	0x19005e5b	6.6365e-24
29	0x170c5145	4.5339016e-25
30	0x19d7b752	2.2304521e-23
31	0x19bff875	1.9849288e-23

weight f4 [64, 35, 3, 3]
0	0x80000264	-8.58e-43
1	0x8000007e	-1.77e-43
2	0x00000342	1.169e-42
3	0x00000387	1.265e-42
4	0x800001d3	-6.54e-43
5	0x00000413	1.462e-42
6	0x00000293	9.23e-43
7	0x80000071	-1.58e-43
8	0x00000042	9.2e-44
9	0x00000413	1.462e-42
10	0x80000273	-8.79e-43
11	0x800002bb	-9.8e-43
12	0x000000ad	2.42e-43
13	0x800002ed	-1.05e-42
14	0x80000408	-1.446e-42
15	0x80000326	-1.13e-42
16	0x000000e9	3.27e-43
17	0x800000f6	-3.45e-43
18	0x80000840	-2.96e-42
19	0xb6184ca4	-2.2694376e-06
20	0x2cda442b	6.203501e-12
21	0x264f8264	7.1994264e-16
22	0x000004bd	1.7e-42
23	0x800014ef	-7.51e-42
24	0x000004a9	1.672e-42
25	0x98502a25	-2.6904647e-24
26	0x80000e99	-5.237e-42
27	0x8000024c	-8.24e-43
28	0x00000464	1.575e-42
29	0x000000d2	2.94e-43
30	0x800000bf	-2.68e-43
31	0x0000011d	4e-43
32	0x000000bc	2.63e-43
33	0x800001d7	-6.6e-43
34	0x00000489	1.627e-42
35	0x800003cb	-1.36e-42
36	0x0000011f	4.02e-43
37	0x80000307	-1.086e-42
38	0x8000030f	-1.097e-42
39	0x000003b2	1.326e-42
40	0x800003a0	-1.3e-42
41	0x8000043f	-1.523e-42
42	0x800001be	-6.25e-43
43	0x0000040d	1.453e-42
44	0x0000062c	2.214e-42
45	0x80000317	-1.108e-42
46	0x8000037b	-1.249e-42
47	0x0000022e	7.82e-43
48	0x0000054a	1.897e-42
49	0x800001b9	-6.18e-43
50	0x80000115	-3.88e-43
51	0x000003d4	1.373e-42
52	0x00000148	4.6e-43
53	0x000000da	3.05e-43
54	0x000002a8	9.53e-43
55	0x000004f6	1.78e-42
56	0x000004b8	1.693e-42
57	0x000000a3	2.28e-43
58	0x000001bf	6.26e-43
59	0x800004f9	-1.784e-42
60	0x800003c5	-1.352e-42
61	0x80000514	-1.822e-42
62	0x8000032a	-1.135e-42
63	0x80000201	-7.19e-43
64	0x00000113	3.85e-43
65	0x8000034a	-1.18e-42
66	0x80000447	-1.534e-42
67	0x0000016f	5.14e-43
68	0x000002ca	1e-42
69	0x8000021c	-7.57e-43
70	0x800005a3	-2.022e-42
71	0x0000021a	7.54e-43
72	0x80000114	-3.87e-43
73	0x000001f4	7e-43
74	0x000002ad	9.6e-43
75	0x800003be	-1.342e-42
76	0x0000006a	1.49e-43
77	0x0000027f	8.95e-43
78	0x8000019d	-5.79e-43
79	0x80000561	-1.93e-42
80	0x800003d8	-1.379e-42
81	0x8000027c	-8.91e-43
82	0x80000009	-1.3e-44
83	0x00000300	1.076e-42
84	0x000002e8	1.043e-42
85	0x800004ac	-1.676e-42
86	0x00000621	2.199e-42
87	0x8000010c	-3.76e-43
88	0x00000137	4.36e-43
89	0x00000103	3.63e-43
90	0x80000151	-4.72e-43
91	0x80000371	-1.235e-42
92	0x00000108	3.7e-43
93	0x000003bf	1.344e-42
94	0x000004bb	1.697e-42
95	0x80000018	-3.4e-44
96	0x00000432	1.505e-42
97	0x80000180	-5.38e-43
98	0x000002c7	9.96e-43
99	0x00000324	1.127e-42
100	0x8000016e	-5.13e-43
101	0x800004fa	-1.785e-42
102	0x0000033e	1.163e-42
103	0x80000343	-1.17e-42
104	0x00000236	7.93e-43
105	0x8000047d	-1.61e-42
106	0x80000607	-2.162e-42
107	0x800003dd	-1.386e-42
108	0x0000047c	1.609e-42
109	0x00000210	7.4e-43
110	0x80000986	-3.416e-42
111	0x000001bd	6.24e-43
112	0x00000104	3.64e-43
113	0x800004d6	-1.735e-42
114	0x80000c58	-4.428e-42
115	0x8000032b	-1.136e-42
116	0x00000679	2.322e-42
117	0x800001ca	-6.42e-43
118	0x80000389	-1.268e-42
119	0x80000023	-4.9e-44
120	0x8000012d	-4.22e-43
121	0x00000363	1.215e-42
122	0x000001fb	7.1e-43
123	0x000005f0	2.13e-42
124	0x00000f7d	5.556e-42
125	0x800005b2	-2.043e-42
126	0x0000030a	1.09e-42
127	0x800001fd	-7.13e-43
128	0x00000004	6e-45
129	0x0000035c	1.205e-42
130	0x000004f6	1.78e-42
131	0x0000058f	1.994e-42
132	0x80000417	-1.467e-42
133	0x000004ac	1.676e-42
134	0x80000326	-1.13e-42
135	0x80000397	-1.288e-42
136	0x80000251	-8.31e-43
137	0x800003e0	-1.39e-42
138	0x800001d9	-6.63e-43
139	0x80000329	-1.134e-42
140	0x00000328	1.132e-42
141	0x00000443	1.529e-42
142	0x80000379	-1.246e-42
143	0x800001e5	-6.8e-43
144	0x800002d1	-1.01e-42
145	0x00000171	5.17e-43
146	0x000002bb	9.8e-43
147	0x80000355	-1.195e-42
148	0x8000053f	-1.882e-42
149	0x00000371	1.235e-42
150	0x80000453	-1.551e-42
151	0x8000031b	-1.114e-42
152	0x8000007b	-1.72e-43
153	0x000003fb	1.428e-42
154	0x00000012	2.5e-44
155	0x80000057	-1.22e-43
156	0x8000039d	-1.296e-42
157	0x8000047b	-1.607e-42
158	0x000005c9	2.075e-42
159	0x0000024b	8.23e-43
160	0x80000395	-1.285e-42
161	0x00000162	4.96e-43
162	0x80000382	-1.258e-42
163	0x80000268	-8.63e-43
164	0x000002df	1.03e-42
165	0x8000030c	-1.093e-42
166	0x00000426	1.488e-42
167	0x800003b2	-1.326e-42
168	0x80000297	-9.29e-43
169	0x00000372	1.236e-42
170	0x80000025	-5.2e-44
171	0x000002ea	1.045e-42
172	0x0000052b	1.854e-42
173	0x000005fa	2.144e-42
174	0x80000102	-3.62e-43
175	0x0000044c	1.541e-42
176	0x000000b0	2.47e-43
177	0x00000278	8.86e-43
178	0x000000e2	3.17e-43
179	0x0000018f	5.59e-43
180	0x00000051	1.14e-43
181	0x8000032b	-1.136e-42
182	0x800003ae	-1.32e-42
183	0x000003bc	1.34e-42
184	0x8000033d	-1.162e-42
185	0x80000501	-1.795e-42
186	0x00000347	1.176e-42
187	0x00000323	1.125e-42
188	0x000003ff	1.434e-42
189	0x80000005	-7e-45
190	0x000000d7	3.01e-43
191	0x800002f9	-1.066e-42
192	0x800002fd	-1.072e-42
193	0x000004d7	1.736e-42
194	0x000002ab	9.57e-43
195	0x000001ff	7.16e-43
196	0x000000a2	2.27e-43
197	0x00000745	2.608e-42
198	0x0000019b	5.76e-43
199	0x8000001c	-3.9e-44
200	0x0000051d	1.834e-42
201	0x80000469	-1.582e-42
202	0x00000417	1.467e-42
203	0x80000560	-1.928e-42
204	0x800002cb	-1.002e-42
205	0x000003e7	1.4e-42
206	0x00000464	1.575e-42
207	0x00000043	9.4e-44
208	0x80000179	-5.28e-43
209	0x0000009d	2.2e-43
210	0x80000386	-1.264e-42
211	0x80000045	-9.7e-44
212	0x000000f9	3.49e-43
213	0x800000db	-3.07e-43
214	0x00000290	9.19e-43
215	0x00000458	1.558e-42
216	0x000001da	6.64e-43
217	0x800001cc	-6.45e-43
218	0x00000263	8.56e-43
219	0x00000350	1.188e-42
220	0x000000ea	3.28e-43
221	0x0000034f	1.187e-42
222	0x800000c6	-2.77e-43
223	0x00000063	1.39e-43
224	0x00000329	1.134e-42
225	0x8000055c	-1.923e-42
226	0x00000984	3.414e-42
227	0x8000093a	-3.31e-42
228	0x800002ee	-1.051e-42
229	0x800009b4	-3.481e-42
230	0x800003bd	-1.341e-42
231	0x8000082b	-2.93e-42
232	0x00000383	1.26e-42
233	0x0000041c	1.474e-42
234	0x8000023c	-8.02e-43
235	0x8000030c	-1.093e-42
236	0x800001a4	-5.89e-43
237	0x8000038f	-1.277e-42
238	0x800002ee	-1.051e-42
239	0x8000021c	-7.57e-43
240	0x800002b9	-9.77e-43
241	0x00000296	9.28e-43
242	0x0000004a	1.04e-43
243	0x80000140	-4.48e-43
244	0x800003e4	-1.396e-42
245	0x000003fd	1.431e-42
246	0x80000291	-9.2e-43
247	0x000003b5	1.33e-42
248	0x0000047c	1.609e-42
249	0x0000027b	8.9e-43
250	0x00000574	1.956e-42
251	0x0000038e	1.275e-42
252	0x000003cb	1.36e-42
253	0x00000207	7.27e-43
254	0x000004cc	1.721e-42
255	0x000001ed	6.91e-43

bias f4 [64]
0	0x8000015d	-4.89e-43
1	0xadc814a9	-2.2746542e-11
2	0x8000095b	-3.356e-42
3	0x00000a54	3.705e-42
4	0x80000286	-9.05e-43
5	0x80000605	-2.16e-42
6	0x3249b0da	1.1739951e-08
7	0x276cb796	3.2851101e-15
8	0x80000765	-2.653e-42
9	0x8e8b2ba8	-3.4308185e-30
10	0xa4ab13b8	-7.4192833e-17
11	0x80000348	-1.177e-42
12	0x80000f60	-5.516e-42
13	0x8000233e	-1.2643e-41
14	0x000015b3	7.784e-42
15	0x800007f3	-2.852e-42
16	0x2f624c12	2.0581606e-10
17	0x3707828e	8.077024e-06
18	0x00000d6a	4.812e-42
19	0x800018ca	-8.893e-42
20	0xb00bf733	-5.0919197e-10
21	0xaa9c867d	-2.7804487e-13
22	0x241c557a	3.389951e-17
23	0x00004835	2.5903e-41
24	0x800000a3	-2.28e-43
25	0x000008d4	3.167e-42
26	0x80000828	-2.926e-42
27	0x8000114f	-6.209e-42
28	0xb0fea252	-1.8527067e-09
29	0x00000368	1.222e-42
30	0x80000025	-5.2e-44
31	0x800269ce	-2.21627e-40
32	0x80001bf8	-1.0033e-41
33	0x8000027a	-8.88e-43
34	0x800002f6	-1.062e-42
35	0x0000010e	3.78e-43
36	0x00001155	6.218e-42
37	0x139e0803	3.9892708e-27
38	0x2cc3b33d	5.562133e-12
39	0xab48e21a	-7.136805e-13
40	0x2b271799	5.9363067e-13
41	0x000011d4	6.396e-42
42	0x000003fb	1.428e-42
43	0x8000012c	-4.2e-43
44	0x32d7be1a	2.5115742e-08
45	0x800002e1	-1.033e-42
46	0x2bd35d2d	1.5018313e-12
47	0x1f820b16	5.507548e-20
48	0xb6755227	-3.6555664e-06
49	0xb8dcb0a9	-0.00010523323
50	0x15616497	4.551774e-26
51	0xb76591bb	-1.3683394e-05
52	0xb59b1f24	-1.1557463e-06
53	0x17094033	4.434812e-25
54	0xb32698bc	-3.8788798e-08
55	0x80001048	-5.84e-42
56	0xaf3d4a2a	-1.7215798e-10
57	0xb0d206db	-1.5281459e-09
58	0x0000014f	4.7e-43
59	0x800008ed	-3.202e-42
60	0x800011ca	-6.382e-42
61	0x80000297	-9.29e-43
62	0xb166ec6e	-3.36038e-09
63	0x00000350	1.188e-42

weight f4 [64]
0	0x8000017c	-5.32e-43
1	0x00000202	7.2e-43
2	0x80000212	-7.43e-43
3	0x0000012a	4.18e-43
4	0x0000007f	1.78e-43
5	0x80000118	-3.92e-43
6	0x0000007f	1.78e-43
7	0x80000054	-1.18e-43
8	0x80000017	-3.2e-44
9	0x8000017f	-5.37e-43
10	0x00000212	7.43e-43
11	0x8000020a	-7.31e-43
12	0x000001b5	6.12e-43
13	0x80000129	-4.16e-43
14	0x00000095	2.09e-43
15	0x800001b5	-6.12e-43
16	0x000000db	3.07e-43
17	0x3dfa3b42	0.12218334
18	0x000000d5	2.98e-43
19	0x80000074	-1.63e-43
20	0x00000098	2.13e-43
21	0x800000e6	-3.22e-43
22	0x80000109	-3.71e-43
23	0x80000201	-7.19e-43
24	0x8000000e	-2e-44
25	0x00000236	7.93e-43
26	0x800001a6	-5.91e-43
27	0x800001b9	-6.18e-43
28	0x800001fd	-7.13e-43
29	0x000001c1	6.29e-43
30	0x8000003f	-8.8e-44
31	0x800000d7	-3.01e-43
32	0x00000117	3.91e-43
33	0x00000073	1.61e-43
34	0x80000041	-9.1e-44
35	0x00000170	5.16e-43
36	0x800000f1	-3.38e-43
37	0x00000064	1.4e-43
38	0x0000009d	2.2e-43
39	0x80000113	-3.85e-43
40	0x000000be	2.66e-43
41	0x800001d0	-6.5e-43
42	0x0000011b	3.97e-43
43	0x800001ee	-6.92e-43
44	0x00000220	7.62e-43
45	0x00000194	5.66e-43
46	0x0000014d	4.67e-43
47	0x000000bd	2.65e-43
48	0x800001f9	-7.08e-43
49	0x0000022c	7.79e-43
50	0x00000113	3.85e-43
51	0x00000221	7.64e-43
52	0x80000113	-3.85e-43
53	0x000001a9	5.96e-43
54	0x8000018d	-5.56e-43
55	0x80000115	-3.88e-43
56	0x80000169	-5.06e-43
57	0x80000180	-5.38e-43
58	0x000000fc	3.53e-43
59	0x80000229	-7.75e-43
60	0x80000047	-1e-43
61	0x80000021	-4.6e-44
62	0x80000149	-4.61e-43
63	0x000000cf	2.9e-43

bias f4 [64]
0	0x8000238e	-1.2755e-41
1	0x80003028	-1.7275e-41
2	0x8000194e	-9.078e-42
3	0x000011ec	6.429e-42
4	0x00002945	1.4805e-41
5	0x800006b4	-2.405e-42
6	0x00000792	2.716e-42
7	0x80009283	-5.2559e-41
8	0x000016a8	8.128e-42
9	0x80004627	-2.5166e-41
10	0x8000441a	-2.443e-41
11	0x8000128e	-6.656e-42
12	0x80006f88	-4.001e-41
13	0x800005c9	-2.075e-42
14	0x00002f22	1.6908e-41
15	0x80007aee	-4.4099e-41
16	0x00001c29	1.0102e-41
17	0x3cd04a6c	0.025426112
18	0x000004b0	1.682e-42
19	0x00003a7f	2.0984e-41
20	0x0000c23d	6.968e-41
21	0x80001ab6	-9.582e-42
22	0x000038f5	2.0432e-41
23	0x800038ee	-2.0423e-41
24	0x800023c6	-1.2833e-41
25	0x80001da2	-1.063e-41
26	0x000004f1	1.773e-42
27	0x00000751	2.625e-42
28	0x80008422	-4.74e-41
29	0x80005922	-3.1975e-41
30	0x000075fc	4.2325e-41
31	0x00003e96	2.2452e-41
32	0x00001bda	9.991e-42
33	0x00003718	1.9764e-41
34	0x00002779	1.416e-41
35	0x00000ea4	5.252e-42
36	0x000077aa	4.2927e-41
37	0x80005381	-2.9956e-41
38	0x00002951	1.4822e-41
39	0x0000534a	2.9878e-41
40	0x0000f7c2	8.8879e-41
41	0x000010e4	6.059e-42
42	0x000043c6	2.4313e-41
43	0x00004fac	2.8581e-41
44	0x8000085b	-2.997e-42
45	0x80008061	-4.6054e-41
46	0x00001229	6.515e-42
47	0x8000175e	-8.383e-42
48	0x0000306e	1.7373e-41
49	0x800002d0	-1.009e-42
50	0x0000b0a2	6.3364e-41
51	0x80002820	-1.4394e-41
52	0x8000092a	-3.287e-42
53	0x00009969	5.5033e-41
54	0x80007161	-4.0673e-41
55	0x80008dca	-5.0864e-41
56	0x80000145	-4.55e-43
57	0x800030bc	-1.7483e-41
58	0x800033dc	-1.8604e-41
59	0x800002da	-1.023e-42
60	0x800042d5	-2.3975e-41
61	0x000020e3	1.1798e-41
62	0x80000737	-2.588e-42
63	0x80002618	-1.3665e-41

running_mean f4 [64]
0	0x353a2c9c	6.9355315e-07
1	0x358e2e51	1.0593304e-06
2	0xaab839d4	-3.2725092e-13
3	0xaab15965	-3.1503546e-13
4	0x2f67bfb3	2.1077433e-10
5	0xb58d918a	-1.0547676e-06
6	0x3112135f	2.1256807e-09
7	0x2ca1fffb	4.6043148e-12
8	0x2c3eedf7	2.713272e-12
9	0xb48da3af	-2.6382392e-07
10	0x2bcec520	1.4691894e-12
11	0xb717e04d	-9.0525255e-06
12	0xb693cc96	-4.4047583e-06
13	0xb2021ddc	-7.573785e-09
14	0xb537f8db	-6.8534945e-07
15	0xad0b6fb1	-7.926036e-12
16	0xb50aa0cd	-5.1643e-07
17	0xbba26782	-0.0049561867
18	0xb5e68fe4	-1.7178213e-06
19	0x31041f96	1.9226483e-09
20	0x2e856109	6.065377e-11
21	0x343a968e	1.7377371e-07
22	0x2d07138d	7.678203e-12
23	0x2d44b816	1.1182185e-11
24	0xb72c68ec	-1.0276428e-05
25	0xb5e972d8	-1.7393277e-06
26	0x291a4ae5	3.425983e-14
27	0x34b8cf58	3.4423533e-07
28	0xafcac696	-3.688469e-10
29	0x2b90bb7b	1.0283852e-12
30	0xb45c6f8a	-2.0529674e-07
31	0xb2739b15	-1.4179723e-08
32	0xaa613683	-2.0002927e-13
33	0xb61da866	-2.3492844e-06
34	0x309d2d0f	1.143606e-09
35	0x3041aeca	7.046138e-10
36	0xb616acc9	-2.2452316e-06
37	0xb586c6dd	-1.0041655e-06
38	0xb134e3cc	-2.6322935e-09
39	0x307df12c	9.238359e-10
40	0x3245baa8	1.150935e-08
41	0x374bd615	1.2149588e-05
42	0x345bfa51	2.0487029e-07
43	0x35d05563	1.5522058e-06
44	0xae22deda	-3.7032467e-11
45	0x363fc413	2.8575348e-06
46	0x347c2324	2.3482113e-07
47	0x23a7929f	1.8168273e-17
48	0x34be1b88	3.541029e-07
49	0x3812e0bf	3.5018424e-05
50	0xb3fa5d6f	-1.1658528e-07
51	0x351ec34e	5.914379e-07
52	0x348dd0b6	2.6415154e-07
53	0x3367017b	5.3785225e-08
54	0xb1e4500e	-6.6447745e-09
55	0xb69af674	-4.6182486e-06
56	0xb01808f2	-5.530999e-10
57	0x2eb09d73	8.031522e-11
58	0xb3373f2a	-4.2665455e-08
59	0xa71dd746	-2.1904827e-15
60	0xb064729d	-8.310879e-10
61	0x3398bb07	7.1120716e-08
62	0x2f1334f3	1.3388383e-10
63	0x35437ccc	7.2824764e-07

running_var f4 [64]
0	0x19383a5d	9.5243634e-24
1	0x19690395	1.2046541e-23
2	0x09dcc62e	5.314944e-33
3	0x061cb320	2.947194e-35
4	0x0dea8577	1.4453494e-30
5	0x1909558f	7.1000124e-24
6	0x11f780c0	3.9049077e-28
7	0x07a599c1	2.491681e-34
8	0x0758c3ac	1.6307537e-34
9	0x191e7219	8.19145e-24
10	0x06dbb20f	8.264028e-35
11	0x1b068050	1.112568e-22
12	0x1be4e216	3.786554e-22
13	0x12a7fe53	1.0601877e-27
14	0x1b867e9e	2.2250265e-22
15	0x0d8ca019	8.666708e-31
16	0x18f412c4	6.309147e-24
17	0x3853090d	5.031475e-05
18	0x176eeadb	7.7198377e-25
19	0x1283ce50	8.318122e-28
20	0x0c3a4892	1.4350757e-31
21	0x199149c0	1.5022436e-23
22	0x095ef465	2.6837192e-33
23	0x0e9422f1	3.6518464e-30
24	0x1a006ec8	2.6559268e-23
25	0x19f5b7aa	2.5406588e-23
26	0x0004ffe3	4.59137e-40
27	0x17c7d9bb	1.2915036e-24
28	0x0f62e71b	1.11871696e-29
29	0x06ebc902	8.869253e-35
30	0x17483fed	6.470417e-25
31	0x147c4c7a	1.2737831e-26
32	0x06406dfb	3.6191987e-35
33	0x1a4910a8	4.157928e-23
34	0x11715e5f	1.9040628e-28
35	0x0f85a1cb	1.3177133e-29
36	0x1a2d46f6	3.5832883e-23
37	0x198dcfc7	1.4662979e-23
38	0x11493fbb	1.5875743e-28
39	0x105f1c6d	4.4000894e-29
40	0x136a63a6	2.9584083e-27
41	0x1bf398db	4.0299758e-22
42	0x18613581	2.910758e-24
43	0x1a4d910a	4.2510168e-23
44	0x11707a42	1.8970335e-28
45	0x1a1c4889	3.2318637e-23
46	0x17340339	5.8165204e-25
47	0x0000012a	4.18e-43
48	0x18b1b4bf	4.5935935e-24
49	0x1c4962a1	6.6632796e-22
50	0x18098e0e	1.7778554e-24
51	0x163cbc3b	1.5245914e-25
52	0x17fd6e16	1.6377531e-24
53	0x16039159	1.0627959e-25
54	0x13e309cb	5.7312513e-27
55	0x1a9f4f77	6.588924e-23
56	0x0f8c1da3	1.3816481e-29
57	0x0c83601a	2.0241585e-31
58	0x168e208f	2.2961885e-25
59	0x033d6fae	5.567031e-37
60	0x12bb8472	1.1834009e-27
61	0x15e21791	9.1317854e-26
62	0x0a6326d2	1.0936954e-32
63	0x16491056	1.6241805e-25

weight f4 [64, 67, 3, 3]
0	0xa4e801e6	-1.0061718e-16
1	0xa4e7fe29	-1.00610845e-16
2	0xa4e820e2	-1.0066967e-16
3	0x25f26551	4.2048963e-16
4	0x25f26f63	4.2055787e-16
5	0x25f26505	4.2048762e-16
6	0xa627f5f5	-5.82731e-16
7	0xa627f610	-5.827324e-16
8	0xa627f5d8	-5.8272945e-16
9	0xa5167d2b	-1.3052835e-16
10	0x2495b053	6.4917154e-17
11	0xa52dc9dc	-1.5073751e-16
12	0xa5167c42	-1.3052526e-16
13	0x2495afad	6.4916056e-17
14	0xa52dd1d5	-1.5076452e-16
15	0xa5167d4c	-1.3052878e-16
16	0x2495af4f	6.4915434e-17
17	0xa52dd390	-1.5077038e-16
18	0x1dd406d3	5.612299e-21
19	0x9ec18b31	-2.0492238e-20
20	0x9e9b70ee	-1.645797e-20
21	0xb1adac3c	-5.0545435e-09
22	0x2e8d334f	6.421052e-11
23	0x9c73235f	-8.044767e-22
24	0x2f84c450	2.4150149e-10
25	0xb1759b80	-3.5740584e-09
26	0x9e086950	-7.221558e-21
27	0x80000149	-4.61e-43
28	0x0000017e	5.35e-43
29	0x000000b8	2.58e-43
30	0x80000102	-3.62e-43
31	0x800002a6	-9.5e-43
32	0x80000033	-7.1e-44
33	0x80000096	-2.1e-43
34	0x800002b5	-9.71e-43
35	0x80000055	-1.19e-43
36	0x00000244	8.13e-43
37	0x8000018b	-5.54e-43
38	0x00000205	7.24e-43
39	0x8000023c	-8.02e-43
40	0x800006c8	-2.433e-42
41	0x8000016c	-5.1e-43
42	0x000001c1	6.29e-43
43	0x800000d6	-3e-43
44	0x00000207	7.27e-43
45	0x80000053	-1.16e-43
46	0x8000014e	-4.68e-43
47	0x80000063	-1.39e-43
48	0x800000a1	-2.26e-43
49	0x800002ea	-1.045e-42
50	0x0000018b	5.54e-43
51	0x000001a3	5.87e-43
52	0x80000035	-7.4e-44
53	0x00000067	1.44e-43
54	0x00000217	7.5e-43
55	0x80000020	-4.5e-44
56	0x8000011b	-3.97e-43
57	0x000000d8	3.03e-43
58	0x000000bd	2.65e-43
59	0x000001f6	7.03e-43
60	0x800002bd	-9.82e-43
61	0x000000e3	3.18e-43
62	0x0000007a	1.71e-43
63	0x800000b9	-2.59e-43
64	0x800002e3	-1.036e-42
65	0x800001d1	-6.52e-43
66	0x80000148	-4.6e-43
67	0x800000f5	-3.43e-43
68	0x0000018e	5.58e-43
69	0x000000bc	2.63e-43
70	0x80000060	-1.35e-43
71	0x800001bc	-6.22e-43
72	0x00000109	3.71e-43
73	0x8000005d	-1.3e-43
74	0x00000125	4.1e-43
75	0x800000c5	-2.76e-43
76	0x800002c7	-9.96e-43
77	0x000003e1	1.391e-42
78	0x000002da	1.023e-42
79	0x000002bc	9.81e-43
80	0x00000236	7.93e-43
81	0x80000133	-4.3e-43
82	0x000001d8	6.61e-43
83	0x80000398	-1.289e-42
84	0x800001fc	-7.12e-43
85	0x800001fc	-7.12e-43
86	0x8000021b	-7.55e-43
87	0x80000171	-5.17e-43
88	0x00000230	7.85e-43
89	0x800000f2	-3.39e-43
90	0x8000007d	-1.75e-43
91	0x0000035e	1.208e-42
92	0x8000023b	-8e-43
93	0x800001d2	-6.53e-43
94	0x80000347	-1.176e-42
95	0x8000022d	-7.8e-43
96	0x00000203	7.22e-43
97	0x80000030	-6.7e-44
98	0x00000181	5.4e-43
99	0x00000132	4.29e-43
100	0x000004d9	1.739e-42
101	0x000001b0	6.05e-43
102	0x00000155	4.78e-43
103	0x8000002d	-6.3e-44
104	0x000000f9	3.49e-43
105	0x800003f8	-1.424e-42
106	0x0000004e	1.1e-43
107	0x0000024c	8.24e-43
108	0x80000049	-1.02e-43
109	0x00000328	1.132e-42
110	0x000001a1	5.84e-43
111	0x00000016	3.1e-44
112	0x8000032f	-1.142e-42
113	0x00000397	1.288e-42
114	0x80000230	-7.85e-43
115	0x000000a3	2.28e-43
116	0x80000297	-9.29e-43
117	0x8000009a	-2.16e-43
118	0x00000308	1.087e-42
119	0x8000010d	-3.77e-43
120	0x00000081	1.81e-43
121	0x800000ae	-2.44e-43
122	0x000000ec	3.31e-43
123	0x80000357	-1.198e-42
124	0x80000208	-7.29e-43
125	0x80000136	-4.34e-43
126	0x800003e7	-1.4e-42
127	0x80000013	-2.7e-44
128	0x80000196	-5.69e-43
129	0x000001e9	6.85e-43
130	0x8000003c	-8.4e-44
131	0x800002fa	-1.068e-42
132	0x800001ac	-6e-43
133	0x80000366	-1.219e-42
134	0x000002da	1.023e-42
135	0x00000046	9.8e-44
136	0x800000a3	-2.28e-43
137	0x80000398	-1.289e-42
138	0x80000009	-1.3e-44
139	0x0000005c	1.29e-43
140	0x8000012e	-4.23e-43
141	0x000002e0	1.031e-42
142	0x0000000b	1.5e-44
143	0x000004dc	1.743e-42
144	0x0000008c	1.96e-43
145	0x00000148	4.6e-43
146	0x00000645	2.249e-42
147	0x80000219	-7.52e-43
148	0x80000220	-7.62e-43
149	0x800001f1	-6.96e-43
150	0x8000004b	-1.05e-43
151	0x000003ef	1.411e-42
152	0x80000361	-1.212e-42
153	0x80000125	-4.1e-43
154	0x000001a2	5.86e-43
155	0x00000257	8.4e-43
156	0x000001cc	6.45e-43
157	0x800002a9	-9.54e-43
158	0x0000025e	8.49e-43
159	0x80000046	-9.8e-44
160	0x80000133	-4.3e-43
161	0x80000202	-7.2e-43
162	0x0000012a	4.18e-43
163	0x80000251	-8.31e-43
164	0x800001b6	-6.14e-43
165	0x0000000e	2e-44
166	0x8000019b	-5.76e-43
167	0x800002a3	-9.46e-43
168	0x800000e7	-3.24e-43
169	0x000001bf	6.26e-43
170	0x000002c2	9.9e-43
171	0x8000032c	-1.138e-42
172	0x00000048	1.01e-43
173	0x000001a0	5.83e-43
174	0x800001c7	-6.38e-43
175	0x80000193	-5.65e-43
176	0x000002ab	9.57e-43
177	0x800000e1	-3.15e-43
178	0x800000aa	-2.38e-43
179	0x000000e5	3.21e-43
180	0xa62d0b28	-6.003655e-16
181	0xa6200ea9	-5.553102e-16
182	0xa5d13527	-3.6291738e-16
183	0xa6145d7c	-5.147451e-16
184	0xa5e0c7f1	-3.8993291e-16
185	0xa3d63321	-2.322358e-17
186	0xa5a60926	-2.880261e-16
187	0xa5945eb0	-2.573807e-16
188	0xa5d0e0f7	-3.623469e-16
189	0x8000002f	-6.6e-44
190	0x8000016a	-5.07e-43
191	0x00000176	5.24e-43
192	0x80000217	-7.5e-43
193	0x80000161	-4.95e-43
194	0x80000393	-1.282e-42
195	0x0000039a	1.292e-42
196	0x00000130	4.26e-43
197	0x80000091	-2.03e-43
198	0x000000db	3.07e-43
199	0x000003bf	1.344e-42
200	0x00000365	1.218e-42
201	0x000002a9	9.54e-43
202	0x8000028d	-9.15e-43
203	0x0000015c	4.88e-43
204	0x80000171	-5.17e-43
205	0x0000009d	2.2e-43
206	0x000006d1	2.445e-42
207	0x800002c6	-9.95e-43
208	0x00000028	5.6e-44
209	0x8000019f	-5.82e-43
210	0x0000014c	4.65e-43
211	0x80000028	-5.6e-44
212	0x000001e2	6.75e-43
213	0x000002d5	1.016e-42
214	0x000001fe	7.15e-43
215	0x000000bb	2.62e-43
216	0x8000018b	-5.54e-43
217	0x00000018	3.4e-44
218	0x80000008	-1.1e-44
219	0x800001c3	-6.32e-43
220	0x00000045	9.7e-44
221	0x8000045a	-1.561e-42
222	0x800001f5	-7.02e-43
223	0x000001cd	6.46e-43
224	0x00000207	7.27e-43
225	0x800000d4	-2.97e-43
226	0x8000001f	-4.3e-44
227	0x00000287	9.07e-43
228	0x80000070	-1.57e-43
229	0x000000a8	2.35e-43
230	0x000004a6	1.668e-42
231	0x00000131	4.27e-43
232	0x80000187	-5.48e-43
233	0x00000003	4e-45
234	0x000002d2	1.012e-42
235	0x00000482	1.617e-42
236	0x8000008d	-1.98e-43
237	0x00000270	8.74e-43
238	0x00000196	5.69e-43
239	0x000001ae	6.03e-43
240	0x0000056c	1.945e-42
241	0x80000345	-1.173e-42
242	0x000000e4	3.2e-43
243	0x000000fa	3.5e-43
244	0x8000015f	-4.92e-43
245	0x00000084	1.85e-43
246	0x8000003d	-8.5e-44
247	0x000001be	6.25e-43
248	0x0000014b	4.64e-43
249	0x00000449	1.537e-42
250	0x80000265	-8.59e-43
251	0x00000115	3.88e-43
252	0x000001a0	5.83e-43
253	0x00000203	7.22e-43
254	0x80000220	-7.62e-43
255	0x80000163	-4.97e-43

bias f4 [64]
0	0xa010b3c4	-1.2256754e-19
1	0xb87ec691	-6.074325e-05
2	0x8b1946f3	-2.9520104e-32
3	0xabbde812	-1.349367e-12
4	0x1b3be064	1.5540782e-22
5	0xaa4bb85c	-1.8093984e-13
6	0x2d5cdd7f	1.2554734e-11
7	0x84b08884	-4.150277e-36
8	0x0a890366	1.3193898e-32
9	0x8e21bbca	-1.99352e-30
10	0x1c076f8d	4.481193e-22
11	0x2a555cdb	1.8950416e-13
12	0xaca132ec	-4.5815487e-12
13	0x98104bc4	-1.8649816e-24
14	0x372931af	1.0084753e-05
15	0x3253798a	1.2309451e-08
16	0xad461c95	-1.1261343e-11
17	0x33efd1b9	1.1167453e-07
18	0x860b745c	-2.6228482e-35
19	0x2823e47d	9.097863e-15
20	0xae86f065	-6.136317e-11
21	0xb5e89873	-1.7329716e-06
22	0xb19431db	-4.313035e-09
23	0x862253cd	-3.053038e-35
24	0xb5e9fc21	-1.7433232e-06
25	0x12412d5e	6.095598e-28
26	0xb169aab6	-3.4003e-09
27	0x2e2f49d2	3.985596e-11
28	0xb31930d2	-3.566749e-08
29	0x3916ce99	0.00014382078
30	0xacffd9c8	-7.2717145e-12
31	0x01683bb0	4.2654494e-38
32	0x36419117	2.8843695e-06
33	0x87c34af8	-2.9384402e-34
34	0xac96f6e5	-4.290667e-12
35	0x34422387	1.8080583e-07
36	0x268132cc	8.964942e-16
37	0x3826d503	3.9775867e-05
38	0xa35d7d20	-1.200693e-17
39	0xaa2ff215	-1.5627111e-13
40	0x900105df	-2.5445287e-29
41	0x0011528a	1.590813e-39
42	0xac842c72	-3.7566e-12
43	0x2a7fa94d	2.2707288e-13
44	0x152c026a	3.4737028e-26
45	0xb88c37f2	-6.686141e-05
46	0x25ccbcb9	3.5516242e-16
47	0x2fd45f4a	3.8630282e-10
48	0x0002608f	2.1831e-40
49	0x15de3e67	8.976354e-26
50	0x2a16ab93	1.3382203e-13
51	0xab3197e3	-6.3093817e-13
52	0x2f168cc1	1.3692426e-10
53	0x3734c574	1.0774809e-05
54	0xb623de9d	-2.441847e-06
55	0x83896c50	-8.077004e-37
56	0xb816ee87	-3.5984933e-05
57	0xb7d8e0a3	-2.5853811e-05
58	0x37aa5a3e	2.0307602e-05
59	0x000132dc	1.1008e-40
60	0xae4790f2	-4.53761e-11
61	0xb58cde86	-1.0495576e-06
62	0x98f85250	-6.418961e-24
63	0x2c131aa4	2.0904745e-12

weight f4 [64]
0	0xa787ec72	-3.772638e-15
1	0x1a8acd9f	5.740766e-23
2	0x1edacda8	2.3166705e-20
3	0xa30e9368	-7.72905e-18
4	0x279eec52	4.411003e-15
5	0xa22da7ed	-2.3534771e-18
6	0x1fa9719c	7.1762235e-20
7	0x1cfba74b	1.6653031e-21
8	0x1e81c35a	1.3739202e-20
9	0x211baee8	5.274753e-19
10	0x12926b61	9.240366e-28
11	0x9b19a166	-1.2708014e-22
12	0xa60b6af9	-4.837029e-16
13	0x272c03d8	2.3871879e-15
14	0x3d36bb34	0.044612125
15	0x1adba8d7	9.084905e-23
16	0x1fbeaf24	8.0757876e-20
17	0x20038b71	1.1142269e-19
18	0x99b05e7f	-1.823614e-23
19	0x929b7a6f	-9.812057e-28
20	0x94d0c8b7	-2.1081801e-26
21	0x284459d5	1.0899665e-14
22	0x239d51b8	1.7056583e-17
23	0x1a9ac9ad	6.401873e-23
24	0x1c3cfcd4	6.2530755e-22
25	0x238cabcd	1.5251591e-17
26	0x1ea05038	1.6973837e-20
27	0x9e3d2f19	-1.0015316e-20
28	0x27b4cc30	5.0181417e-15
29	0x0c05792e	1.0282413e-31
30	0x18913e56	3.7544565e-24
31	0x9852c197	-2.7239602e-24
32	0x9951c4a6	-1.08447596e-23
33	0x9ac9a2ee	-8.339488e-23
34	0xa95bebb5	-4.8832212e-14
35	0x9e4dd0fa	-1.0895825e-20
36	0x23264ff8	9.015812e-18
37	0x9e94a44e	-1.5738064e-20
38	0x164b631d	1.6429484e-25
39	0x1bde3f25	3.6767625e-22
40	0x20a2ce0c	2.7580218e-19
41	0x980488dc	-1.7129696e-24
42	0x1e1229b8	7.737803e-21
43	0x91103bbf	-1.1378008e-28
44	0xa404ecf7	-2.8823654e-17
45	0x2add4af3	3.9309493e-13
46	0x1e2bf33a	9.102963e-21
47	0x200723ef	1.1446834e-19
48	0x988b4402	-3.599933e-24
49	0x245ccad4	4.7876698e-17
50	0x9c127916	-4.846385e-22
51	0x9439cf6d	-9.381021e-27
52	0x197ef13d	1.318021e-23
53	0x2473d7e9	5.287511e-17
54	0x9b883d03	-2.253874e-22
55	0x99f69704	-2.5496799e-23
56	0x3b88cdfc	0.004174946
57	0x3de91ac9	0.11382062
58	0x3e3cb92a	0.1843001
59	0x93841b74	-3.3348556e-27
60	0xa7865de6	-3.7294276e-15
61	0xa61bee3d	-5.40993e-16
62	0x240de383	3.076721e-17
63	0xa2b95f91	-5.0245535e-18

bias f4 [64]
0	0x3bb9a5bd	0.0056655095
1	0xab8127ec	-9.177082e-13
2	0xaeb98079	-8.435647e-11
3	0x315a46db	3.1763452e-09
4	0x37366a7c	1.0872838e-05
5	0x39d3a563	0.0004036828
6	0x2fc3ec55	3.5638217e-10
7	0xac2c23aa	-2.4462468e-12
8	0x3112285b	2.1268736e-09
9	0xaf2cc42d	-1.5713005e-10
10	0x22e37f54	6.1663287e-18
11	0x2b0ef0db	5.078279e-13
12	0x3771ac61	1.44048545e-05
13	0x36e96166	6.95528e-06
14	0x3ddacf33	0.10684051
15	0xa7ef7f94	-6.6474146e-15
16	0x344901bf	1.8720219e-07
17	0x2fef68ab	4.3548218e-10
18	0xadcdafe9	-2.3383922e-11
19	0x22db22c4	5.939688e-18
20	0x24089ee2	2.9624878e-17
21	0x37acaed4	2.0585408e-05
22	0x3242c9a4	1.1338134e-08
23	0x2ae4e1f0	4.0657712e-13
24	0x2d8ffbe2	1.6369076e-11
25	0x327d1e20	1.4733388e-08
26	0xae0fb0a8	-3.2671338e-11
27	0xae3d97d2	-4.3108468e-11
28	0x38ffc5d8	0.00012196199
29	0xa45cab4a	-4.7849983e-17
30	0xaed22ba4	-9.5574465e-11
31	0x279369f4	4.091557e-15
32	0xab33a093	-6.3816416e-13
33	0xadf0ccf8	-2.7375865e-11
34	0x3895e35b	7.147222e-05
35	0xacad4217	-4.924293e-12
36	0x3489a559	2.5638545e-07
37	0xaea0d4ed	-7.313781e-11
38	0xac3b4652	-2.6613334e-12
39	0x2bc65445	1.4092136e-12
40	0x32129977	8.533212e-09
41	0xa9c30238	-8.6601245e-14
42	0x32a6524e	1.9362371e-08
43	0xa22517da	-2.2374297e-18
44	0x34bec3e2	3.553278e-07
45	0x3a4776bf	0.0007608942
46	0xaf483bac	-1.8211094e-10
47	0x33b35ca3	8.3521876e-08
48	0x29609f14	4.987597e-14
49	0x34351926	1.6866088e-07
50	0x3218f3d0	8.903001e-09
51	0x25cf6bf8	3.5981938e-16
52	0x26a3fc01	1.1378703e-15
53	0x3483d2d6	2.4554055e-07
54	0xa783c2b4	-3.65709e-15
55	0xad08684d	-7.753864e-12
56	0x3d42c99c	0.04755555
57	0x3e4ddefe	0.20104596
58	0x3e87b67f	0.2650642
59	0x2409a3c3	2.984585e-17
60	0x37811d68	1.5391692e-05
61	0x3b40f395	0.0029442061
62	0x35d4c187	1.5851555e-06
63	0x3101db80	1.8896742e-09

running_mean f4 [64]
0	0x303158dd	6.4518507e-10
1	0xb55599f2	-7.9572703e-07
2	0x369628d8	4.475103e-06
3	0x35dac7dd	1.6300434e-06
4	0xb61842ad	-2.2688575e-06
5	0xaeca6d33	-9.205294e-11
6	0x37490cfa	1.1983555e-05
7	0xb577c737	-9.2304566e-07
8	0x2f676a8f	2.1047185e-10
9	0xb4b91d37	-3.4480192e-07
10	0xb47d72ad	-2.360418e-07
11	0xb5228600	-6.05447e-07
12	0xb2591981	-1.2636861e-08
13	0xb2faa2d0	-2.9177869e-08
14	0x3d800105	0.062501945
15	0x365a1320	3.2495664e-06
16	0x3300795f	2.991271e-08
17	0x3403c36d	1.2271421e-07
18	0x2df6e59c	2.8068929e-11
19	0x2e8f096a	6.5045594e-11
20	0xb6a7ec2f	-5.0044832e-06
21	0xb5da3d5b	-1.6260122e-06
22	0x36e5b3dc	6.84567e-06
23	0xb6a0b6b0	-4.789639e-06
24	0x33a9abde	7.900938e-08
25	0xb59ab259	-1.15258e-06
26	0x329e3e26	1.8421883e-08
27	0xb30bb7be	-3.2530572e-08
28	0xb773d121	-1.453262e-05
29	0xb715e172	-8.933583e-06
30	0x31a74ae8	4.8688555e-09
31	0x36b26743	5.3168346e-06
32	0xb43d8f13	-1.7654047e-07
33	0xb08b32d4	-1.0128027e-09
34	0x35a66314	1.2396799e-06
35	0x35aec31a	1.3020792e-06
36	0xb6d98830	-6.4829583e-06
37	0xb685aff8	-3.9841943e-06
38	0xad531f6b	-1.2000938e-11
39	0xb6469525	-2.9591113e-06
40	0xb278610e	-1.4457568e-08
41	0x3635055b	2.697422e-06
42	0x30c54d68	1.4355637e-09
43	0x35079407	5.050683e-07
44	0x355829e0	8.0527207e-07
45	0xb6ad9267	-5.1728452e-06
46	0xb484d31d	-2.474052e-07
47	0x312c85bd	2.5105316e-09
48	0xb4da9a1b	-4.071779e-07
49	0xb41e80b4	-1.4761719e-07
50	0xad23fd41	-9.321711e-12
51	0x2d386c3f	1.04832245e-11
52	0x365c0f82	3.2791581e-06
53	0xb5ac9038	-1.2856972e-06
54	0xb4b96ed4	-3.4539573e-07
55	0x308be182	1.0177674e-09
56	0x3b8e7ccb	0.0043483726
57	0x3de565fa	0.11201091
58	0x3e180b7a	0.14848128
59	0x3259ad0d	1.267041e-08
60	0xb4281a4d	-1.5655787e-07
61	0x33481275	4.6582915e-08
62	0x369b5213	4.6289147e-06
63	0x35651ab8	8.534803e-07
