SND_trackers_My_data/9X0_file/9_9X0_coordconv_Label_V3.pt (torch, 152638 bytes, 19 tensors)

weight f4 [32, 9, 3, 3]
0	0xbaa1e7aa	-0.0012352366
1	0xba9f40b6	-0.0012150023
2	0xbab23124	-0.0013594967
3	0xba9129d5	-0.0011075089
4	0xbab702b7	-0.0013962601
5	0xbaa28843	-0.0012400228
6	0xba7c7b9b	-0.0009631456
7	0xba9a48f7	-0.0011771013
8	0xbaa2ae1c	-0.0012411508
9	0xb995ac97	-0.00028548084
10	0xbadf4a68	-0.0017035725
11	0xba0d3b7c	-0.0005387587
12	0xbab24d04	-0.0013603275
13	0xba622af0	-0.0008627614
14	0x38c86730	9.555963e-05
15	0xbaa78823	-0.0012781661
16	0xba058a02	-0.0005094112
17	0xbac28696	-0.0014841135
18	0x39905b43	0.00027533816
19	0x3aafef84	0.0013422822
20	0xba7c5753	-0.00096260494
21	0xba6d6880	-0.0009056404
22	0x3aac820c	0.0013161316
23	0x3a6005d5	0.0008545791
24	0xba6150d2	-0.0008595112
25	0x3a362498	0.0006948202
26	0xbb198caa	-0.002342979
27	0x398b21b3	0.00026537254
28	0x3a71537b	0.000920586
29	0x39b19677	0.00033872176
30	0x39bc1d70	0.00035880087
31	0x38b4f398	8.628442e-05
32	0x39821971	0.00024814488
33	0x39f2db6e	0.00046321325
34	0x382d085d	4.1254203e-05
35	0x3a290033	0.0006446868
36	0xbc38bfae	-0.011276169
37	0x3c1253d8	0.008931123
38	0xbc879ff7	-0.01655577
39	0xbc0f7ce8	-0.008757807
40	0xbc1ae780	-0.009454608
41	0xbc76d13c	-0.015064534
42	0x3b185829	0.0023245907
43	0xbc84ab29	-0.016194897
44	0x3ccd6cc6	0.025076281
45	0xbc832eb4	-0.01601348
46	0xbbf4d307	-0.0074714455
47	0xbc186e47	-0.009303636
48	0xbc0ea47d	-0.008706209
49	0xbc3dcec5	-0.011584942
50	0xbc415246	-0.011799401
51	0xbc47433c	-0.012162026
52	0xbc3978d0	-0.011320308
53	0xbc310ebd	-0.010806737
54	0xbccd89a2	-0.025090043
55	0xbc25e810	-0.010126129
56	0x3cd95f12	0.02653459
57	0xbc99a149	-0.018753665
58	0x3cc14514	0.02359251
59	0xbbfd46d0	-0.007729389
60	0xbc25bdfe	-0.010116098
61	0xbcaad40c	-0.020853065
62	0xbc09cad7	-0.008410177
63	0xbcb3968e	-0.021922376
64	0x3d2a043f	0.041507956
65	0x3bcce85d	0.006253286
66	0xbc96a967	-0.018391324
67	0xbc88fded	-0.016722644
68	0xbbc867f8	-0.0061159097
69	0xbc8edc1f	-0.017438946
70	0xbc2b3d23	-0.010451588
71	0xbc76b8e3	-0.015058729
72	0x3c5231ff	0.012829303
73	0xbcdec028	-0.027191237
74	0x3cb2b433	0.021814441
75	0xbc163a11	-0.009169118
76	0x3c641cbc	0.013922866
77	0xbc58049e	-0.013184695
78	0xbc8dba73	-0.01730082
79	0xbc317292	-0.010830538
80	0xbc8cfea1	-0.01721126
81	0xb967eeea	-0.00022118879
82	0xb9680219	-0.00022126026
83	0xb96801be	-0.00022125893
84	0xb968054b	-0.00022127216
85	0xb968068f	-0.00022127687
86	0xb96801de	-0.0002212594
87	0xb968061c	-0.0002212752
88	0xb968061a	-0.00022127517
89	0xb967ff60	-0.00022125011
90	0x38e0d452	0.000107207
91	0x38e19f53	0.000107585125
92	0x38dd912c	0.000105651416
93	0x38df1f0d	0.00010639252
94	0x38dc5e06	0.00010507931
95	0x38dc3c5d	0.00010501661
96	0x38dc3bb3	0.00010501537
97	0x38dcbf13	0.00010526008
98	0x38dc6297	0.00010508781
99	0x3a930267	0.0011215926
100	0x3a9280cc	0.00111773
101	0x3a93d635	0.0011279049
102	0x3a8d2d44	0.0010770936
103	0x3a8b9829	0.0010650206
104	0x3a8cb8a2	0.0010736177
105	0x3a88b618	0.0010430245
106	0x3a87cfa1	0.0010361561
107	0x3a88c385	0.0010434246
108	0xb6ce0b75	-6.140612e-06
109	0x38331353	4.2694923e-05
110	0xb683381e	-3.910637e-06
111	0x35deaa4b	1.6589851e-06
112	0xb6806c14	-3.827279e-06
113	0xb7199ddb	-9.156264e-06
114	0x36e4d4cd	6.819703e-06
115	0xb689244f	-4.087145e-06
116	0xb72ed738	-1.0421318e-05
117	0xbb43596f	-0.0029807945
118	0xbb5baf41	-0.0033521208
119	0x39d2a466	0.00040176808
120	0xbb8300fe	-0.003997921
121	0xbac9a81f	-0.0015385187
122	0xbad62596	-0.0016338106
123	0xbaa895d6	-0.0012862037
124	0x3c30b934	0.010786343
125	0x3b622499	0.0034506677
126	0x3a949778	0.0011336645
127	0x3bbbe0f7	0.005733605
128	0x3b56fe85	0.0032805514
129	0x3aaea251	0.001332352
130	0x3c18f043	0.009334627
131	0x3bb91066	0.005647707
132	0x3b1f60b0	0.0024319105
133	0x3c5f4039	0.013626152
134	0x3b3f9d72	0.0029238132
135	0xbb8c8310	-0.004288085
136	0xbbd31bfe	-0.006442546
137	0xb9db4e35	-0.00041829204
138	0xbb00e19d	-0.0019665726
139	0x3acc485c	0.001558553
140	0xbb447095	-0.002997433
141	0x3c10e4dc	0.008843627
142	0x3cc1e52e	0.023668852
143	0x3b4948bb	0.0030713517
144	0x3b8351ab	0.0040075383
145	0x3a648d8b	0.00087186013
146	0xbbb6f796	-0.0055837138
147	0x3c35fe14	0.01110794
148	0x3bce28f0	0.006291501
149	0xbb410a96	-0.0029455773
150	0x3b8f37ce	0.004370666
151	0x3b8dc45f	0.004326388
152	0xbbbf1025	-0.005830782
153	0x3ac909e8	0.0015338035
154	0xba8b63f6	-0.0010634649
155	0x3aeb53ae	0.0017954016
156	0xbb304c0d	-0.0026900799
157	0xba838618	-0.001003447
158	0xbb234543	-0.002491311
159	0xb9e1ac6e	-0.00043043814
160	0xba95e9f0	-0.0011437517
161	0xba657acb	-0.00087539543
162	0x3ce36612	0.027758632
163	0x3ce36601	0.0277586
164	0x3ce36614	0.027758636
165	0x3ce3646f	0.027757851
166	0x3ce36453	0.0277578
167	0x3ce36615	0.027758637
168	0x3ce36599	0.027758406
169	0x3ce365ea	0.027758557
170	0x3ce363c3	0.027757531
171	0xbc2f6922	-0.010706218
172	0xbc2f6952	-0.010706263
173	0xbc2f6952	-0.010706263
174	0xbc2f68e5	-0.010706161
175	0xbc2f6943	-0.010706249
176	0xbc2f694e	-0.010706259
177	0xbc2f6853	-0.010706025
178	0xbc2f6942	-0.010706248
179	0xbc2f693f	-0.010706245
180	0x3c8cb899	0.017177867
181	0x3c98bc33	0.018644428
182	0x3c95bd70	0.018278807
183	0x3c9ebd7d	0.019377464
184	0x3cab75f2	0.020930264
185	0x3ca7d961	0.020489397
186	0x3ca3aed4	0.019980825
187	0x3caf9a4a	0.021435875
188	0x3cac2ca3	0.021017378
189	0x38d42d68	0.00010117405
190	0xb91544b1	-0.00014235337
191	0xb9231163	-0.00015551368
192	0x3b924b1c	0.00446452
193	0x3b317eff	0.0027083752
194	0xb91cb88d	-0.0001494607
195	0xba830161	-0.0009994918
196	0x3b397787	0.0028300004
197	0xba1db37c	-0.000601582
198	0x3d355d6b	0.044278543
199	0x3c2a9d99	0.010413551
200	0x3d0ddae1	0.034632567
201	0xbc30959a	-0.010777855
202	0xbc3e9ad6	-0.011633595
203	0xbc249dbc	-0.010047372
204	0x3cedb880	0.02901864
205	0x3cad8fc8	0.021186724
206	0x3d235da5	0.03988423
207	0x3cb5a1bc	0.022171848
208	0x3cc84237	0.024445636
209	0x3cb03914	0.021511592
210	0x3d135195	0.035966475
211	0xbca5e09e	-0.020248707
212	0x39e49207	0.00043596348
213	0xbb7369b5	-0.0037141864
214	0x3d5f055d	0.054448474
215	0x3bb87e4b	0.0056302897
216	0x3d3fb3b4	0.046802238
217	0xbcba14bc	-0.022714965
218	0x3cede2f3	0.029038882
219	0x3cd3fe39	0.025878059
220	0xbcaf5cda	-0.02140658
221	0x3cfd445b	0.030916383
222	0x3cba0cf2	0.02271125
223	0x3d3db271	0.046312753
224	0xbc08332f	-0.008312984
225	0x3d428a5a	0.047495224
226	0x3d0ee627	0.03488746
227	0x3cce92c2	0.025216464
228	0xbbdfb0d6	-0.0068265004
229	0xbb978a20	-0.00462462
230	0x3b7697f1	0.0037627185
231	0x3d6f3810	0.058403075
232	0x3c59817a	0.0132754985
233	0x3c7af7cb	0.0153178675
234	0x3d1f86c7	0.038946893
235	0x3d0b7058	0.034042686
236	0x3d18b7e0	0.037284732
237	0x3c4559d9	0.012045347
238	0x3c8817cb	0.016612908
239	0x3cad595a	0.02116077
240	0x3cb29fcc	0.021804713
241	0x3d37e861	0.04489935
242	0x3d3be865	0.045875926
243	0x3b7acf9e	0.0038270722
244	0x3b7ad92e	0.0038276422
245	0x3b7acfba	0.0038270787
246	0x3b7acf6a	0.00382706
247	0x3b7ad450	0.003827352
248	0x3b7acf6a	0.00382706
249	0x3b7acee8	0.0038270298
250	0x3b7adb32	0.0038277623
251	0x3b7ad0df	0.003827147
252	0x3a5a0239	0.0008316371
253	0x3a59f5b2	0.00083145045
254	0x3a59f86e	0.0008314912
255	0x3a59f6e4	0.00083146826

bias f4 [32]
0	0x347c446f	2.3494225e-07
1	0xaf70e647	-2.1909684e-10
2	0x340bc24d	1.301607e-07
3	0xb2c2cbc0	-2.2677227e-08
4	0xb453959b	-1.9705332e-07
5	0xae3631c6	-4.1426217e-11
6	0xb1693ab2	-3.3939327e-09
7	0x319a1e86	4.48546e-09
8	0x327efa52	1.4841662e-08
9	0x3508c5e4	5.0951917e-07
10	0x33a35af1	7.606821e-08
11	0x313e7742	2.771643e-09
12	0xb4a7994e	-3.1217718e-07
13	0x343e6f50	1.7735624e-07
14	0xb1591ac9	-3.1592882e-09
15	0x2df408ef	2.7743556e-11
16	0xb585e444	-9.975706e-07
17	0xb280795e	-1.4956353e-08
18	0xaf5a047d	-1.9828579e-10
19	0x3303344c	3.0548378e-08
20	0xb56a325f	-8.724509e-07
21	0x30c16bea	1.4073269e-09
22	0xb20b6c34	-8.115467e-09
23	0x32e3ef68	2.6535147e-08
24	0x34805ffe	2.39117e-07
25	0x3132b101	2.6003024e-09
26	0x305ebb82	8.1029594e-10
27	0x2d862c45	1.5253696e-11
28	0xb3ea4e83	-1.0910755e-07
29	0xb39dc924	-7.3474695e-08
30	0x34d05488	3.8804524e-07
31	0xb282314d	-1.5156411e-08

weight f4 [32]
0	0x3d72324d	0.05913
1	0x3c577972	0.013151513
2	0x3e4d614c	0.20056647
3	0x3d5cd1b6	0.053910933
4	0x3da9cfea	0.082916096
5	0xb9fa77c3	-0.00047772945
6	0x3d197e2f	0.037473854
7	0x3c9110fd	0.017708296
8	0x3c890277	0.016724808
9	0x3e1c3534	0.1525467
10	0x3e1d15a9	0.15340294
11	0x3d318963	0.043343913
12	0x3e0df263	0.13861994
13	0x3e6f67be	0.23379418
14	0x3d36a3f4	0.04458995
15	0x3bb1cdcf	0.0054261456
16	0x3e985004	0.29748547
17	0x3ce6e7ee	0.028186765
18	0x3ae5fcb6	0.0017546627
19	0x3e258454	0.1616376
20	0x3e39bf0c	0.18139285
21	0xbacf12a9	-0.0015798408
22	0x3d37921a	0.044817068
23	0x3d440140	0.047852755
24	0x3d6fb5c7	0.058522966
25	0x3d1557b6	0.0364606
26	0x3c44a0af	0.012001201
27	0x3aaaa144	0.0013018032
28	0x3df4cd19	0.11953182
29	0x3e022873	0.12710743
30	0x3e489541	0.19588186
31	0x3d300cbb	0.04298089

bias f4 [32]
0	0xbc2b3c03	-0.01045132
1	0xbc4d9543	-0.012547794
2	0xbc445a9b	-0.011984493
3	0xbc8062d3	-0.015672123
4	0x3cee9329	0.029122906
5	0xbc5698a3	-0.013097915
6	0xbd12441b	-0.03570948
7	0xbbacb0e6	-0.0052701114
8	0x3bcd2ce6	0.006261456
9	0xba5da623	-0.0008455237
10	0x3b87f5d5	0.0041491785
11	0xbc09c525	-0.008408819
12	0xbbeda25c	-0.0072520208
13	0xbbaa9363	-0.005205558
14	0xbb5fc711	-0.0034145752
15	0xbc2591a6	-0.010105526
16	0xbbd5ee4b	-0.006528651
17	0xbbf8162b	-0.007571002
18	0xbb07d099	-0.00207237
19	0x3b68dbfd	0.0035531514
20	0xbb97aaab	-0.0046284995
21	0xbc11c5b4	-0.008897234
22	0xbc4488c6	-0.0119955
23	0xbb199555	-0.0023434956
24	0xbb716d73	-0.0036838918
25	0xbc38699b	-0.011255647
26	0xbbf75027	-0.0075473967
27	0xbc59706b	-0.013271431
28	0xbc3eeb73	-0.011652815
29	0xbc0a9329	-0.008457937
30	0xbbac67a8	-0.00526138
31	0xbbc5b784	-0.0060338397

running_mean f4 [32]
0	0xbbb98dfa	-0.005662677
1	0x3c787298	0.01516404
2	0x3e3ad9a5	0.18247087
3	0x3d44c938	0.04804346
4	0xbd324730	-0.04352492
5	0x3c1b01d6	0.009460887
6	0x3d26a8b8	0.040688246
7	0xbb6d6aa5	-0.0036226895
8	0xbc0e0357	-0.0086677885
9	0x3c2baf37	0.010478786
10	0x3cd0b166	0.025475215
11	0x3d1b16fe	0.037863724
12	0x3c00fa35	0.007872154
13	0xbb41e4ac	-0.0029585762
14	0xbbf167c2	-0.007367105
15	0x3bb05506	0.0053812293
16	0xbc59f196	-0.0133022275
17	0x3cae736c	0.021295272
18	0x39b656c7	0.000347784
19	0x3c9b3432	0.018945787
20	0x3bce4494	0.0062947962
21	0xbb5768a9	-0.0032868779
22	0x3ce06030	0.027389616
23	0xbc227817	-0.009916327
24	0xbc39be60	-0.011336893
25	0x3c774822	0.015092881
26	0x3c0d8954	0.008638699
27	0x3c1589f0	0.009127125
28	0x3dba88da	0.091081336
29	0x3e01c8a5	0.12674196
30	0xbcafaa51	-0.021443518
31	0x3bceae39	0.00630739

running_var f4 [32]
0	0x3cedd568	0.029032424
1	0x3cb1e347	0.02171482
2	0x3f5da3a7	0.8657784
3	0x3d8ff838	0.07029766
4	0x3dc0fec3	0.09423592
5	0x3b867b87	0.004104081
6	0x3dd075b0	0.10178697
7	0x3ba01609	0.0048854393
8	0x3bc48cb5	0.005998219
9	0x3eb283e8	0.3486626
10	0x3ea56fc9	0.32311848
11	0x3d7236e0	0.059134364
12	0x3d93f896	0.072251484
13	0x3f1a2d06	0.6022495
14	0x3cc20408	0.023683563
15	0x3c276190	0.010216132
16	0x3f7be33c	0.9839361
17	0x3d4cbe4d	0.049986172
18	0x399b70e3	0.0002964801
19	0x3ec30fbc	0.38097942
20	0x3ea052f3	0.31313285
21	0x3c240001	0.010009767
22	0x3d8a353f	0.06748437
23	0x3c9b7979	0.018978821
24	0x3d3ca457	0.046055164
25	0x3ccd50a2	0.025062863
26	0x3bcf90ff	0.0063344236
27	0x3b2800a8	0.0025635157
28	0x3ea7a5dc	0.32743728
29	0x3ed86094	0.42261183
30	0x3f135571	0.5755225
31	0x3c943ee9	0.018096404

weight f4 [32, 35, 3, 3]
0	0xbaa0e62c	-0.0012275628
1	0xbaa0e049	-0.0012273873
2	0xbaa0e66d	-0.0012275703
3	0xbaa0e676	-0.0012275714
4	0xbaa0e669	-0.0012275699
5	0xbaa0e55a	-0.0012275383
6	0xbaa0e569	-0.0012275401
7	0xbaa0e595	-0.0012275452
8	0xbaa0dfdb	-0.0012273745
9	0x3a2c33e0	0.0006569009
10	0x3a2c3582	0.00065692526
11	0x3a2c2c19	0.00065678504
12	0x3a2c3584	0.0006569254
13	0x3a2c33c7	0.0006568995
14	0x3a2c33ca	0.00065689965
15	0x3a2c30e1	0.0006568563
16	0x3a2c350c	0.0006569184
17	0x3a2c2e79	0.0006568204
18	0x3b0c4e09	0.0021408817
19	0x3af0c918	0.0018370477
20	0x3ab23cc1	0.0013598428
21	0x3a90bbb8	0.0011042273
22	0x3a852e44	0.0010160883
23	0x3a4df8ee	0.0007857223
24	0xb7f353b4	-2.9006835e-05
25	0x3877d5df	5.9088572e-05
26	0x389cfc36	7.4856376e-05
27	0x3a916038	0.0011091297
28	0x3ad262c7	0.0016051166
29	0xb97117e2	-0.00022992448
30	0x3a4ffa99	0.00079337653
31	0x3a1f34bf	0.00060732284
32	0xbaff1fca	-0.001946443
33	0xba2dac1f	-0.00066250743
34	0xba95ac38	-0.0011419123
35	0xbb0946c2	-0.0020946716
36	0x3a4dbf8c	0.0007848672
37	0x3a08ba33	0.0005215734
38	0xba52bda9	-0.0008039126
39	0x3a9fbbc2	0.0012186693
40	0xb80445f7	-3.1536412e-05
41	0xba437a61	-0.00074568955
42	0xb86f75b3	-5.7091656e-05
43	0xb81966ac	-3.6573663e-05
44	0xb9ffcddb	-0.00048790764
45	0x3c44f5d8	0.012021504
46	0x3b74dd31	0.0037363286
47	0xbbf5c062	-0.0074997405
48	0x3c8932a9	0.01674779
49	0x3b2ab938	0.002605034
50	0xbbdc78eb	-0.0067282817
51	0x3b930297	0.0044863927
52	0xba928fb7	-0.0011181746
53	0xbb60f8d2	-0.0034327996
54	0x3be52cb5	0.006993855
55	0x3a21ed5f	0.00061770336
56	0xbb479dad	-0.0030458972
57	0x3b02ca3c	0.0019956967
58	0x38d6d43a	0.000102438455
59	0xbb2ec52b	-0.0026667814
60	0x3ab9c243	0.0014172274
61	0x39672f24	0.00022047438
62	0xbaaf8611	-0.0013391395
63	0x3a773b43	0.0009431133
64	0x399795ce	0.00028912578
65	0xba1ba637	-0.00059375487
66	0x3a9c7943	0.0011937994
67	0xbb0d2ac1	-0.0021540376
68	0xba956ae2	-0.0011399651
69	0xba23f029	-0.0006253743
70	0xbb58175d	-0.003297291
71	0xbaa4ea9a	-0.0012582124
72	0x39898a33	0.00026233643
73	0x3a028bd0	0.000497994
74	0xb94755fe	-0.00019010153
75	0x3a1b7b39	0.00059311424
76	0xb85b6a81	-5.231286e-05
77	0xb984e99d	-0.00025351057
78	0xb8a306cb	-7.773711e-05
79	0xb9ac70ee	-0.00032890536
80	0xb8e93501	-0.000111201785
81	0x3b9a5bc6	0.0047106473
82	0x3a2b53ee	0.0006535639
83	0xbaf51600	-0.0018698573
84	0x3b18eaed	0.0023333386
85	0xbaae4687	-0.0013296165
86	0xbb022d0b	-0.0019863273
87	0xba597986	-0.00082960015
88	0xbb0876fe	-0.0020822878
89	0xbacd6f1d	-0.0015673373
90	0x3b104f4b	0.0022019919
91	0xba30d6f3	-0.0006745897
92	0xbae7dfad	-0.0017690562
93	0x3acd4488	0.0015660683
94	0xb9df0e06	-0.00042544323
95	0xbafb48fa	-0.0019171529
96	0xba2f7c72	-0.0006694264
97	0xbada5800	-0.0016658306
98	0xb9f0a14e	-0.0004589655
99	0x39fd3920	0.00048298482
100	0x39834283	0.00025035822
101	0xb600dfcc	-1.9203753e-06
102	0x39ef0898	0.00045592035
103	0xb9e50ad1	-0.00043686343
104	0xb8813513	-6.161085e-05
105	0xb93819aa	-0.00017557168
106	0xba07108d	-0.00051523076
107	0xb970e08d	-0.00022971835
108	0x3bca2d6e	0.0061699664
109	0x3bae7a82	0.0053246627
110	0xbb82ffcc	-0.0039977785
111	0x3942d211	0.00018579538
112	0x3a852edf	0.0010161063
113	0xbb8c412d	-0.0042802305
114	0xbaa84ffd	-0.0012841221
115	0x3ae46a7d	0.0017426756
116	0xbb4b6e2d	-0.0031041012
117	0x3c13c16a	0.0090182815
118	0x3acd7925	0.0015676363
119	0xba25f414	-0.0006330621
120	0x3bb2285a	0.005436939
121	0xb973ed63	-0.0002326272
122	0xba57fd3e	-0.0008239335
123	0x3b8cd514	0.004297862
124	0xbab8a101	-0.0014086069
125	0xba0c90ce	-0.0005362154
126	0x3b3b1db2	0.0028551635
127	0x3ac6d227	0.0015168831
128	0xba78b1dc	-0.00094869523
129	0x3b2e6bf1	0.002661463
130	0xb8ddac03	-0.00010570141
131	0xbab2100e	-0.0013585107
132	0x3aa7ac4e	0.001279244
133	0xb98e48b5	-0.00027138522
134	0xba234c00	-0.00062292814
135	0xbc17bc21	-0.009261162
136	0x3aee6910	0.001818927
137	0xbb52bc4c	-0.003215569
138	0x3c1d673b	0.009607132
139	0x3b2fa462	0.002680086
140	0xbb45f1cb	-0.0030203934
141	0x3ac98b73	0.0015376642
142	0xbaf293c2	-0.001850717
143	0xbb9da56b	-0.004810979
144	0xba4b9aaf	-0.0007766885
145	0x3815860c	3.564921e-05
146	0xbb537da9	-0.0032270944
147	0xba8d32e5	-0.0010772614
148	0xbb390d3c	-0.0028236648
149	0xbb35d177	-0.002774326
150	0x3ade5567	0.0016962708
151	0xbab96801	-0.0014145375
152	0xbabea167	-0.0014543951
153	0x3abb4152	0.0014286435
154	0x3aeba939	0.001797951
155	0xbb1a732f	-0.002356719
156	0x3a90a26e	0.0011034736
157	0xb9367b58	-0.00017402822
158	0xbb086ddd	-0.0020817437
159	0x3981343c	0.00024643715
160	0xbacefb84	-0.001579151
161	0xbaa9e82e	-0.0012962872
162	0x3b0a6454	0.002111693
163	0x3a13a5c4	0.0005632306
164	0xb97249a8	-0.00023106358
165	0x393d94a9	0.00018079825
166	0x383dfeee	4.5298533e-05
167	0xb9b2b219	-0.000340835
168	0xb9947a90	-0.00028320076
169	0xb96ff142	-0.00022882692
170	0xb99adee5	-0.00029539238
171	0x3a9c2e77	0.0011915703
172	0xbb9ae18b	-0.004726594
173	0xbacc8775	-0.0015604334
174	0x3aad4558	0.0013219519
175	0xbb8bf235	-0.0042708167
176	0xba0f7838	-0.0005472931
177	0xba3e4d07	-0.0007259403
178	0xbac05ed0	-0.0014676694
179	0x38aa2892	8.1137885e-05
180	0x3b7aeac7	0.003828691
181	0x3affacad	0.0019506417
182	0xba58b654	-0.0008266915
183	0x3b18ff03	0.0023345358
184	0x39b9b0af	0.0003541759
185	0xba7a4841	-0.000954751
186	0x3a1b48f5	0.0005923652
187	0xb92e7f03	-0.00016641249
188	0xb9e5ebb8	-0.00043853908
189	0x38151919	3.5547742e-05
190	0x3649ef11	3.009049e-06
191	0xb70d317e	-8.415778e-06
192	0x393183d5	0.00016929147
193	0xb8d09b5a	-9.9471494e-05
194	0xb7bfe908	-2.2877488e-05
195	0xb91fdcc8	-0.00015245669
196	0xb855a29e	-5.0934606e-05
197	0xb6eda8fe	-7.0828237e-06
198	0x3a8609b7	0.0010226284
199	0x3b0267b0	0.0019898228
200	0xba985b57	-0.0011623901
201	0x3bfe5e95	0.00776274
202	0x3b4fb1dc	0.0031691706
203	0xbb3180c1	-0.00270848
204	0xba7263d4	-0.0009246443
205	0xb9063b06	-0.00012801224
206	0xbb184954	-0.0023237066
207	0xbbca28f6	-0.0061694337
208	0xbad2ec4d	-0.0016092152
209	0x3a2bd6e5	0.0006555154
210	0x3c14b1fc	0.009075638
211	0x39fd045e	0.00048259174
212	0xba72b509	-0.0009258544
213	0x39ca271b	0.00038557578
214	0xbab51b7b	-0.0013817394
215	0xba8a6a84	-0.0010560309
216	0x3a254fed	0.00063061604
217	0x39edfefd	0.00045394144
218	0x38bf3364	9.117162e-05
219	0x39af20d4	0.0003340306
220	0x39417b6a	0.0001845189
221	0x39577f59	0.00020551439
222	0x385e3936	5.2982206e-05
223	0x39220f58	0.0001545524
224	0x3918313e	0.00014514194
225	0x3be36f89	0.0069407863
226	0x3b370cfc	0.0027931323
227	0xba82dcae	-0.000998398
228	0x3b6aa399	0.0035803078
229	0x39eb631b	0.00044896532
230	0xbab9ffa3	-0.0014190566
231	0xba5d7e86	-0.00084493344
232	0xb99fa4a5	-0.00030449513
233	0xba87ccbb	-0.0010360697
234	0xbbf4f735	-0.0074757584
235	0x3afa356f	0.0019089411
236	0xbaba2635	-0.001420206
237	0x3bd54de9	0.0065095318
238	0x3b4184f6	0.0029528714
239	0xbae5fd13	-0.0017546735
240	0x3a87576e	0.0010325739
241	0xbafde439	-0.0019370384
242	0xbacaef7b	-0.0015482748
243	0x3bc0003a	0.005859402
244	0x3b54d0f8	0.0032473188
245	0xba779c0c	-0.0009445555
246	0x3b576009	0.0032863638
247	0x3a9160d6	0.0011091481
248	0xbad58de6	-0.0016292899
249	0x39d63c24	0.0004086207
250	0xba63a524	-0.00086839707
251	0xbabeea02	-0.0014565589
252	0x3b7aa2a0	0.0038243905
253	0xb805b72e	-3.188027e-05
254	0xbad4f9a9	-0.0016248721
255	0x39afdc36	0.0003354267

bias f4 [32]
0	0xb42095ae	-1.4955614e-07
1	0x3108eb38	1.992431e-09
2	0x98dcfd91	-5.7124704e-24
3	0x9446376c	-1.00073754e-26
4	0x36d138ef	6.2353133e-06
5	0x9c5114f7	-6.9179396e-22
6	0x3143d056	2.849466e-09
7	0xb285df9f	-1.5584929e-08
8	0x1b07dc3d	1.1238101e-22
9	0xb048054c	-7.2767103e-10
10	0xb80a2b92	-3.2942342e-05
11	0x3237309c	1.0663054e-08
12	0x33dd250d	1.0297854e-07
13	0xb463860f	-2.1189793e-07
14	0x1bc1c0f7	3.2053872e-22
15	0x37ae8507	2.0804362e-05
16	0x34717e4d	2.2490822e-07
17	0x37b1ca71	2.1194313e-05
18	0xb3a18110	-7.520623e-08
19	0x348da2e2	2.638181e-07
20	0x31e9a3da	6.7998203e-09
21	0x1d06173b	1.7746762e-21
22	0x19cf64f2	2.144407e-23
23	0xaf427fe6	-1.7689636e-10
24	0x369cac55	4.6692244e-06
25	0x9d056a7f	-1.765746e-21
26	0x21ce7d6c	1.3992302e-18
27	0x3216c791	8.776525e-09
28	0x187eb60a	3.2920637e-24
29	0x3329f450	3.957058e-08
30	0x90c1a4b8	-7.6378867e-29
31	0x36191863	2.2812972e-06

weight f4 [32]
0	0x3cb0fa77	0.021603806
1	0x3c8880e9	0.016663032
2	0x379838d0	1.8146267e-05
3	0x399f8ba8	0.00030430895
4	0x3e8b98f6	0.27265137
5	0x3a107476	0.0005510518
6	0x3c25cde7	0.010119892
7	0x3c40d084	0.011768464
8	0x3a1f545d	0.000607794
9	0x3ad9d825	0.0016620202
10	0x3e9fb930	0.31195974
11	0x3a09633c	0.00052409223
12	0x3d1a8808	0.037727386
13	0x3d916066	0.07098465
14	0x39ff2441	0.000486644
15	0x3de60728	0.11231834
16	0x3dd7cb8b	0.105368696
17	0x3a8991eb	0.0010495757
18	0x3c61da04	0.013784889
19	0x3db011fd	0.08597181
20	0x3b91ad36	0.004445697
21	0x3a29a476	0.0006471345
22	0x3a09d09b	0.000525722
23	0x3a0b1cfb	0.00053067476
24	0x3be84812	0.0070886696
25	0x3a07649c	0.0005164833
26	0x3a0d620c	0.0005393333
27	0x3ba8f552	0.0051561976
28	0x3a014976	0.0004931906
29	0x3da2d454	0.079506546
30	0x39fef444	0.00048628647
31	0x3e1992d7	0.14997421

bias f4 [32]
0	0xbc665d51	-0.014060334
1	0xbc62a89f	-0.013834148
2	0xb45e125b	-2.0682039e-07
3	0xb28fa534	-1.6722517e-08
4	0x3d849a94	0.06474796
5	0xb4c9707e	-3.7521016e-07
6	0xbbff3369	-0.007788111
7	0xbba6e44c	-0.005093133
8	0xb609b822	-2.052177e-06
9	0xbb58c57c	-0.0033076694
10	0xbe0e6f16	-0.13909563
11	0xb5bb470f	-1.3953266e-06
12	0x3bbb7436	0.0057206405
13	0xbd1a15ab	-0.03761832
14	0xb5535834	-7.873198e-07
15	0xbd5b3076	-0.053513013
16	0xbd00ed8a	-0.031476535
17	0xb94694d1	-0.0001893819
18	0xbc4a4d34	-0.012347508
19	0xbd391c4f	-0.045193013
20	0xbba41dfd	-0.0050084577
21	0xb73c4b8f	-1.1223266e-05
22	0xb330d7b5	-4.1174378e-08
23	0xb20fc26f	-8.367905e-09
24	0xbc16c9bd	-0.009203372
25	0xb6511bbf	-3.1159577e-06
26	0xb8928af2	-6.987703e-05
27	0xba18b13e	-0.0005824751
28	0xb2aab7e1	-1.9874223e-08
29	0xbd2b6d1b	-0.041852098
30	0xb51c2f07	-5.818296e-07
31	0xbcbf4176	-0.023346644

running_mean f4 [32]
0	0x3b1705b9	0.0023044182
1	0x3c82e462	0.015978042
2	0x32567817	1.2483745e-08
3	0x2eaa28dd	7.737964e-11
4	0xbd9136dd	-0.070905425
5	0xb25fee58	-1.30345015e-08
6	0x3c064ea7	0.008197463
7	0xbc940983	-0.018070942
8	0x35775e5c	9.215198e-07
9	0x3a9f1032	0.0012135564
10	0xbdecdfbf	-0.11566114
11	0x349f5b5f	2.968254e-07
12	0xbbf5b52b	-0.0074984035
13	0xbdacc728	-0.084364235
14	0x33a602f9	7.730518e-08
15	0x3d8dfcb8	0.06932968
16	0xbd100373	-0.03515954
17	0x381dc014	3.7610604e-05
18	0x3c337265	0.010952567
19	0xbd270d54	-0.040784195
20	0x3b6aea76	0.0035845316
21	0x36324c79	2.656858e-06
22	0x32828c6f	1.5197854e-08
23	0x315c8d2b	3.2094458e-09
24	0x3ba7bbfa	0.005118844
25	0x34993778	2.853883e-07
26	0xb8e430be	-0.00010880966
27	0xbad45c7f	-0.0016201882
28	0x341a7fa8	1.4388809e-07
29	0x3d2fbad8	0.042902797
30	0x34f217b7	4.5093267e-07
31	0xbd922a8f	-0.07137024

running_var f4 [32]
0	0x3a15213d	0.0005688852
1	0x3a9c01b0	0.0011902358
2	0x255f3ccd	1.9362767e-16
3	0x21b6a789	1.2377146e-18
4	0x3bb165f3	0.0054137646
5	0x285e61aa	1.2344653e-14
6	0x39666eb1	0.00021975745
7	0x38f43a5e	0.000116456984
8	0x2a6c5b5c	2.0992707e-13
9	0x382fae9f	4.188588e-05
10	0x3b35ab92	0.0027720672
11	0x2a11f153	1.2962313e-13
12	0x396bf9bb	0.00022504378
13	0x3ac87a66	0.0015295267
14	0x26b56b35	1.2588456e-15
15	0x3c62d695	0.013845106
16	0x3b21fe08	0.0024718065
17	0x33886a28	6.352303e-08
18	0x395bd1a4	0.00020963565
19	0x3ac64c9a	0.001512903
20	0x38a7a7d1	7.994439e-05
21	0x2be7d338	1.6472162e-12
22	0x240b0d1d	3.0151928e-17
23	0x23988e3e	1.6540115e-17
24	0x395edad3	0.00021253088
25	0x2867f346	1.28758275e-14
26	0x31b03f4e	5.129471e-09
27	0x3693de53	4.4068233e-06
28	0x273cf5ea	2.6223551e-15
29	0x3c16bdb1	0.009200499
30	0x28f7563a	2.7459904e-14
31	0x3b97145a	0.0046105804

weight f4 [64, 35, 3, 3]
0	0xb327b8d3	-3.9050814e-08
1	0xb33076b2	-4.1086146e-08
2	0xb31f98f3	-3.715918e-08
3	0xb3393fc0	-4.313165e-08
4	0xb32fe1de	-4.0950788e-08
5	0xb3374848	-4.2673747e-08
6	0xb32bb093	-3.9974633e-08
7	0xb31f58c6	-3.710081e-08
8	0xb31d591e	-3.6635463e-08
9	0xb35a8188	-5.087489e-08
10	0xb356f9a5	-5.0052808e-08
11	0xb35b0341	-5.099287e-08
12	0xb35b3d13	-5.1045458e-08
13	0xb358425f	-5.0351783e-08
14	0xb35a28e4	-5.079427e-08
15	0xb3567ca3	-4.9939114e-08
16	0xb35a3d04	-5.0812574e-08
17	0xb3597014	-5.0626184e-08
18	0xb5346be5	-6.721223e-07
19	0xb5594cfa	-8.0950815e-07
20	0xb5433835	-7.272495e-07
21	0xb4fc85d6	-4.7036036e-07
22	0xb50e92ce	-5.311275e-07
23	0xb4d44667	-3.9539302e-07
24	0xb446fd09	-1.853224e-07
25	0xb401c3af	-1.208525e-07
26	0xb326c087	-3.882499e-08
27	0xaeb63253	-8.285341e-11
28	0xb182bc05	-3.8048733e-09
29	0x30aa2ca7	1.2381819e-09
30	0x329a793c	1.798309e-08
31	0xb2571167	-1.2518604e-08
32	0x2fe44b6e	4.1526554e-10
33	0x31d288ce	6.1273573e-09
34	0xb276fa48	-1.4375992e-08
35	0x32e62611	2.6792835e-08
36	0xb0cf9ebd	-1.5106348e-09
37	0x31fd941a	7.3801063e-09
38	0x3133d81c	2.6170772e-09
39	0xb2e67f48	-2.6833405e-08
40	0xb26ca550	-1.3774596e-08
41	0x30909b4b	1.0521516e-09
42	0xb2df35a5	-2.5985011e-08
43	0x31840888	3.8426755e-09
44	0x330d942d	3.2963886e-08
45	0x9f36992d	-3.8666703e-20
46	0x20c5bf98	3.3499884e-19
47	0x1f3caea1	3.9954998e-20
48	0x9e4291f1	-1.03004545e-20
49	0x1f3c05f6	3.981548e-20
50	0xa5044190	-1.1471388e-16
51	0x200d3d51	1.1963452e-19
52	0x1ee435da	2.4162711e-20
53	0x1ed3f6b8	2.2442534e-20
54	0x98b63f27	-4.7109665e-24
55	0x18685cef	3.0032217e-24
56	0x9776ee3e	-7.978759e-25
57	0x9895a2d0	-3.8679996e-24
58	0x99004ce1	-6.6329705e-24
59	0x183f93e4	2.4760837e-24
60	0x99cb73ec	-2.1036529e-23
61	0x98de607f	-5.748309e-24
62	0x19801def	1.324698e-23
63	0x348e51cc	2.6509076e-07
64	0x32134b67	8.573671e-09
65	0x334c5906	4.7578418e-08
66	0x33c6837d	9.244011e-08
67	0xb3f08f29	-1.12019116e-07
68	0x347766bc	2.3041042e-07
69	0x346d395a	2.209321e-07
70	0x34ab5a2f	3.191685e-07
71	0x33658334	5.3437546e-08
72	0xa26dddce	-3.2236912e-18
73	0xa122fa44	-5.521896e-19
74	0xa24db8a9	-2.7880439e-18
75	0x225a5277	2.9588166e-18
76	0x21e96da2	1.5817714e-18
77	0xa228a5c5	-2.2856003e-18
78	0xa2e22199	-6.1292996e-18
79	0xa2efcbfd	-6.499706e-18
80	0x228d6553	3.8325408e-18
81	0xb12c4d5e	-2.5073272e-09
82	0x31889f7d	3.9762527e-09
83	0x310d9005	2.0600066e-09
84	0xb306dd97	-3.140084e-08
85	0x2fba57c8	3.3895575e-10
86	0x2e99620c	6.975051e-11
87	0xb24a96a2	-1.1792197e-08
88	0x32f94d4a	2.9022562e-08
89	0xaebbd51a	-8.54163e-11
90	0xb2febb85	-2.9654766e-08
91	0xb317e75e	-3.5367854e-08
92	0xb293a6e5	-1.7188947e-08
93	0xb2e46873	-2.6590191e-08
94	0xb2aa84d2	-1.9851004e-08
95	0x3220bb11	9.35576e-09
96	0xb20f9693	-8.357932e-09
97	0xb118beea	-2.2227433e-09
98	0x30e3d423	1.6576717e-09
99	0x9e899cc0	-1.457027e-20
100	0x9f624ac8	-4.791922e-20
101	0x1e9968d1	1.6242856e-20
102	0xa0052564	-1.127791e-19
103	0x1f733e65	5.1508863e-20
104	0x9f25c955	-3.5106647e-20
105	0x203ad1bb	1.5824207e-19
106	0x1f588373	4.584851e-20
107	0x9f3f8921	-4.0559254e-20
108	0x2f9b2064	2.821735e-10
109	0xafce2d4e	-3.7503373e-10
110	0x2f908e64	2.6294622e-10
111	0x30e6dfed	1.6798346e-09
112	0xb1356bc4	-2.6400224e-09
113	0xb0419e7f	-7.043823e-10
114	0x3122c1a7	2.3684181e-09
115	0xb0288cc5	-6.131809e-10
116	0x30e0f6aa	1.6368251e-09
117	0x34b52fed	3.3748748e-07
118	0xb4130567	-1.3692407e-07
119	0xb3349acb	-4.20503e-08
120	0x33f8ba69	1.1582308e-07
121	0xb3d70d9f	-1.0014195e-07
122	0x33a4cc30	7.6739866e-08
123	0x32e7f786	2.70045e-08
124	0x34316f94	1.6525001e-07
125	0x3428c6b1	1.5718503e-07
126	0xa232a7b4	-2.421228e-18
127	0x20426a97	1.6467707e-19
128	0xa9821597	-5.776905e-14
129	0xa281a2aa	-3.5137747e-18
130	0x223fc1bd	2.5987891e-18
131	0x23c68a0b	2.1525666e-17
132	0xa2486871	-2.7160345e-18
133	0x2387c352	1.471945e-17
134	0x23639d00	1.2338941e-17
135	0x32674303	1.3461206e-08
136	0x3164d4e6	3.3299385e-09
137	0x3117d6d6	2.2095512e-09
138	0x32a9b98d	1.9758568e-08
139	0x324b81e3	1.1845688e-08
140	0xb02c4f0c	-6.268557e-10
141	0x32b36e76	2.0888574e-08
142	0xb31f7c94	-3.7133375e-08
143	0xb2f186c5	-2.8117379e-08
144	0x335390ba	4.9258894e-08
145	0xb3e3316c	-1.0579501e-07
146	0xb34d618d	-4.7819004e-08
147	0x33a7e463	7.818087e-08
148	0xb3974231	-7.0435256e-08
149	0x3328667a	3.920875e-08
150	0x33431bd2	4.5427278e-08
151	0x339cbb2e	7.298364e-08
152	0x33571c75	5.008447e-08
153	0x1e83c932	1.3953377e-20
154	0x1f1e1489	3.3474788e-20
155	0x20210387	1.3638398e-19
156	0x1ec71564	2.1078792e-20
157	0x9f433f0c	-4.1345007e-20
158	0xa52b2fe7	-1.4848116e-16
159	0x1f63a4cb	4.8205433e-20
160	0x9f815839	-5.477958e-20
161	0xa03d44d2	-1.6031693e-19
162	0x334aa72c	4.7183832e-08
163	0xb400cd41	-1.19956e-07
164	0x322a4290	9.910437e-09
165	0x3332b178	4.160526e-08
166	0xb3e60e2b	-1.0712787e-07
167	0xb3c2363a	-9.043693e-08
168	0x31f3f63a	7.1002235e-09
169	0x338b648e	6.490983e-08
170	0xb421ee84	-1.5081065e-07
171	0xb45d0e53	-2.058744e-07
172	0xb46870f3	-2.1647774e-07
173	0xb367c9b7	-5.3967337e-08
174	0xb425b06b	-1.5431003e-07
175	0xb496e60e	-2.8107064e-07
176	0xb43bfd55	-1.7507894e-07
177	0xb2280616	-9.780271e-09
178	0xb29fe677	-1.861484e-08
179	0x3393b2cc	6.877744e-08
180	0xa735cc26	-2.5229465e-15
181	0xa838b486	-1.0253197e-14
182	0x2844e6a5	1.0930199e-14
183	0x268a325d	9.589325e-16
184	0xa721eeb0	-2.2472631e-15
185	0x2857839b	1.1963435e-14
186	0x267a75de	8.6895914e-16
187	0xa7069c05	-1.8680814e-15
188	0xa6c9440a	-1.3965619e-15
189	0xb29fa4ea	-1.858503e-08
190	0xb28c2dc1	-1.6318952e-08
191	0xb1605014	-3.264181e-09
192	0xb267e7ab	-1.3498645e-08
193	0xb2d07a4d	-2.4270003e-08
194	0xb2e1d0fe	-2.6288486e-08
195	0xb31b0f4b	-3.610266e-08
196	0xb2450fe6	-1.1470524e-08
197	0xb29de8b7	-1.8383032e-08
198	0xb41d3993	-1.464271e-07
199	0xb4f3fe9f	-4.5447538e-07
200	0xb43399b4	-1.6726591e-07
201	0x329e9d2c	1.8465094e-08
202	0xb3c4db0a	-9.166804e-08
203	0xb41bc8ed	-1.4508596e-07
204	0xb3992ee5	-7.133148e-08
205	0x325c820c	1.2835255e-08
206	0xb3dfaac6	-1.041531e-07
207	0xb0b7d0df	-1.3374367e-09
208	0xb0a24345	-1.180617e-09
209	0x30c525c0	1.4344366e-09
210	0xb1a20479	-4.715329e-09
211	0xb19bdd93	-4.536284e-09
212	0xb2052e11	-7.752093e-09
213	0xb2088f93	-7.948887e-09
214	0x31af6826	5.1050106e-09
215	0x31627e10	3.2958987e-09
216	0x204f6cac	1.7569539e-19
217	0xa00fc701	-1.2178416e-19
218	0x207cae48	2.1402895e-19
219	0x213dfff8	6.4374463e-19
220	0xa191d2b2	-9.881353e-19
221	0x211ac038	5.243163e-19
222	0xa181823e	-8.775855e-19
223	0xa1ce363f	-1.3973462e-18
224	0xa1094b7d	-4.6517313e-19
225	0x1e9d6306	1.6663977e-20
226	0x1df5c1d1	6.505136e-21
227	0x1ddae036	5.793595e-21
228	0x1dc6b10f	5.2593238e-21
229	0x1e5c6669	1.1667881e-20
230	0x1e062b97	7.102915e-21
231	0x1eb533d0	1.918555e-20
232	0x184c7519	2.6425501e-24
233	0x1d0c8075	1.8595256e-21
234	0x22d5da04	5.79646e-18
235	0xa4394b59	-4.0179302e-17
236	0xa464f333	-4.9645617e-17
237	0xa3526e47	-1.1407475e-17
238	0xa450edf0	-4.530435e-17
239	0xa48f5009	-6.215195e-17
240	0xa45de1c5	-4.811297e-17
241	0xa4176de0	-3.2835973e-17
242	0xa492ddf8	-6.3693437e-17
243	0x2e8ba0ee	6.349575e-11
244	0xad99d5bc	-1.7489003e-11
245	0x301e1b65	5.7518995e-10
246	0xb14f6221	-3.0178244e-09
247	0xb1a13651	-4.6918918e-09
248	0x301951d5	5.5777366e-10
249	0xb15720cf	-3.1305267e-09
250	0x30044fe1	4.8134835e-10
251	0x31ea5ac0	6.8206134e-09
252	0x2343342c	1.0582019e-17
253	0xa28e3e51	-3.8555157e-18
254	0x22ad3eb1	4.695812e-18
255	0x230e7572	7.7227054e-18

bias f4 [64]
0	0x29d707e5	9.5492875e-14
1	0xaaeaf6a3	-4.1737889e-13
2	0x2d64742f	1.29860974e-11
3	0xaec65912	-9.0198196e-11
4	0xac770dae	-3.5108405e-12
5	0x28098b6b	7.635259e-15
6	0xb1c55931	-5.7435945e-09
7	0x28a75c62	1.858079e-14
8	0xaa285f6e	-1.4954506e-13
9	0x350c39bd	5.2238084e-07
10	0xa81458ae	-8.23488e-15
11	0xace93ba0	-6.628878e-12
12	0x2a7beef1	2.2376178e-13
13	0x2db2f16e	2.0343473e-11
14	0xb3cce555	-9.5412055e-08
15	0xa8e163a0	-2.5023224e-14
16	0xa4c7f546	-8.6718e-17
17	0xa8184c05	-8.454179e-15
18	0x2a829129	2.3193364e-13
19	0x35b5b5f6	1.3538508e-06
20	0xadfb4e9f	-2.8570311e-11
21	0xa84752c8	-1.1064669e-14
22	0x2b164c0c	5.339624e-13
23	0x2b834c7e	9.329341e-13
24	0x2afd0bf5	4.4950125e-13
25	0xb51be70b	-5.807821e-07
26	0xae0cfc0f	-3.2056188e-11
27	0xaf4560fb	-1.79515e-10
28	0xab3b3b41	-6.6517977e-13
29	0x2bf9ecfc	1.775829e-12
30	0x3208d2ae	7.964145e-09
31	0xa2ef6739	-6.489037e-18
32	0xabf709ae	-1.7553092e-12
33	0xb613a1d2	-2.1998899e-06
34	0xab0e6dff	-5.0601184e-13
35	0xa4fc1207	-1.0931812e-16
36	0xae15101d	-3.389299e-11
37	0xb3053383	-3.1013325e-08
38	0x28f0e7e6	2.6745923e-14
39	0x31518b08	3.0492533e-09
40	0xb3ac1107	-8.0124714e-08
41	0x30b46976	1.3126698e-09
42	0xad5fdc2d	-1.2724971e-11
43	0xb203d8b4	-7.674476e-09
44	0xad936d97	-1.6760633e-11
45	0x2c348f7b	2.5659186e-12
46	0x298c8659	6.2405545e-14
47	0xa83db9c0	-1.0531886e-14
48	0xa9e1f948	-1.00352506e-13
49	0x34eab560	4.3717864e-07
50	0xa3cfd25a	-2.2532072e-17
51	0xaab848e6	-3.273555e-13
52	0xadf8f21c	-2.8301854e-11
53	0x2c8c1086	3.980874e-12
54	0xaa98c437	-2.7136775e-13
55	0x278d4cbb	3.9218553e-15
56	0x2be604fe	1.6343869e-12
57	0x2d54151c	1.2055492e-11
58	0x2a5dad4b	1.9688866e-13
59	0xadf68d57	-2.802973e-11
60	0xad040a4e	-7.505619e-12
61	0x35810a82	9.614307e-07
62	0x360778f5	2.0186974e-06
63	0x29550e81	4.730808e-14

weight f4 [64]
0	0x3a82606a	0.0009946947
1	0x3a3a68bf	0.00071109453
2	0x3a25142f	0.0006297258
3	0x3a04426c	0.0005045298
4	0x3a7acc38	0.0009567174
5	0x3a6346cb	0.0008669912
6	0x3a327c8b	0.00068087195
7	0x3b0c8499	0.002144134
8	0x3a231e08	0.00062224315
9	0x3eb453b8	0.35220122
10	0x3a62e41c	0.0008655207
11	0x3a0a9ad3	0.0005287353
12	0x3a0fe0f5	0.00054885383
13	0x3a724626	0.00092420203
14	0x3e89980e	0.2687382
15	0x3a3fc6ba	0.00073156843
16	0x3aa1b3df	0.0012336931
17	0x3aa1209e	0.0012293046
18	0x3a312f0c	0.00067590247
19	0x3e8cfc74	0.27536356
20	0x3a1654ed	0.0005734701
21	0x3a454ed1	0.0007526698
22	0x3a20d9c7	0.0006135967
23	0x3a9df214	0.0012050294
24	0x3a2d146e	0.00066024705
25	0x3ed74b45	0.42049614
26	0x3a1b0685	0.0005913752
27	0x3a4596cb	0.00075374235
28	0x3a199a16	0.00058594474
29	0x3a2b6f6d	0.0006539736
30	0x3d29b19b	0.041429143
31	0x3a5eb2e2	0.00084952835
32	0x3a162d43	0.00057287904
33	0x3a588cd1	0.00082607294
34	0x3a1b5775	0.0005925813
35	0x3ab2b522	0.0013634304
36	0x3a1a8de7	0.0005895779
37	0x3d2a27e2	0.04154194
38	0x3a72b3a5	0.00092583365
39	0x3c997820	0.018734038
40	0x3e3e676b	0.18594138
41	0x3b98750f	0.0046526263
42	0x3a31ae9b	0.00067780324
43	0x3b7a1aaf	0.0038162877
44	0x3a2266b9	0.00061951164
45	0x3a1147de	0.000554202
46	0x3ab6c6b7	0.001394472
47	0x3a37ae29	0.0007006848
48	0x3a15b51d	0.0005710887
49	0x3e4d30a0	0.2003808
50	0x3a455225	0.0007527194
51	0x3a8bae8a	0.0010656875
52	0x3a3995a7	0.000707949
53	0x3a35fb52	0.00069420517
54	0x3a2fccce	0.00067062385
55	0x3a0b49a1	0.0005313401
56	0x3a77f9d1	0.0009459528
57	0x3a85049e	0.0010148471
58	0x3a623dd2	0.0008630428
59	0x3a23ca57	0.00062481075
60	0x3a11a441	0.0005555787
61	0x3e1eda32	0.15512922
62	0x3ed78063	0.4209014
63	0x3a1d2c46	0.0005995672

bias f4 [64]
0	0xb6b239a8	-5.3115255e-06
1	0x3597c0e2	1.1306513e-06
2	0x38227673	3.8734124e-05
3	0x39332dc3	0.00017087818
4	0xb7fda8a0	-3.0238472e-05
5	0xb712f9d0	-8.760442e-06
6	0xb486658b	-2.5033327e-07
7	0xb6b63ea3	-5.4313145e-06
8	0xb581b1e7	-9.663025e-07
9	0x3ce7ef10	0.028312236
10	0xb4f10f1b	-4.490074e-07
11	0xb8495d55	-4.8009057e-05
12	0x38586dd5	5.1600702e-05
13	0xb876d29d	-5.884712e-05
14	0x3cc8c62c	0.024508558
15	0xb515103c	-5.553045e-07
16	0xb2b229a8	-2.074087e-08
17	0xb4b13e6e	-3.3014243e-07
18	0xb7ace66e	-2.06113e-05
19	0x3d2122dd	0.03933989
20	0x3883e1ad	6.288602e-05
21	0xb5157bab	-5.5686786e-07
22	0xb608876f	-2.0344412e-06
23	0xb6bc4c9a	-5.611754e-06
24	0xb545d3cb	-7.369642e-07
25	0x3d686fbd	0.056747187
26	0xb8aea3b6	-8.32746e-05
27	0xb820f52f	-3.8375318e-05
28	0xb703072d	-7.809879e-06
29	0xb7dc21f9	-2.6241863e-05
30	0x3b985665	0.004648971
31	0xb42da605	-1.6172278e-07
32	0xb8b20fd3	-8.490649e-05
33	0xb41f8910	-1.4857892e-07
34	0xb60c3a97	-2.089573e-06
35	0xb30e2f14	-3.310477e-08
36	0xb8c2316d	-9.259847e-05
37	0x39e1f28a	0.0004309605
38	0xb51fa16c	-5.9467015e-07
39	0x3b40ed83	0.0029438443
40	0x3c77f175	0.015133251
41	0x3a509a6a	0.000795758
42	0xb878d349	-5.9324582e-05
43	0x3a8dbb2e	0.001081323
44	0x3832ab15	4.259784e-05
45	0xb88cec6a	-6.719756e-05
46	0xb6829a9d	-3.8923013e-06
47	0xb4ec30ac	-4.399384e-07
48	0xb684cd14	-3.957781e-06
49	0x3c9379e6	0.018002462
50	0xb480308e	-2.3877186e-07
51	0xb62f81c4	-2.6152566e-06
52	0x3909339c	0.00013084564
53	0xb8104de6	-3.4404824e-05
54	0xb712acd4	-8.742518e-06
55	0xb59bc6e4	-1.1606285e-06
56	0xb71fb37c	-9.518928e-06
57	0xb8922846	-6.969324e-05
58	0xb5992a3d	-1.1411681e-06
59	0x39d3a267	0.00040366055
60	0xb615ba69	-2.2311235e-06
61	0x3ce66fe1	0.02812952
62	0x3d13c51d	0.036076654
63	0xb5e4dfeb	-1.7052492e-06

running_mean f4 [64]
0	0xb607c89b	-2.0233335e-06
1	0x34150752	1.387937e-07
2	0xb5f46d45	-1.8211218e-06
3	0x384a3148	4.820645e-05
4	0x376d16ae	1.4131581e-05
5	0xb5473341	-7.420786e-07
6	0x33869ddf	6.268578e-08
7	0xb5467682	-7.39332e-07
8	0xb1213a0d	-2.3461582e-09
9	0xbd601bfb	-0.054714184
10	0x348fd8e6	2.679364e-07
11	0xb5e33c60	-1.6930389e-06
12	0xb5a3b8d6	-1.2198241e-06
13	0x3804b2ac	3.1637654e-05
14	0xbd27900b	-0.040908854
15	0xb266da21	-1.3437359e-08
16	0xb2339d40	-1.0454926e-08
17	0x33031ecf	3.0528835e-08
18	0x3783957e	1.568603e-05
19	0xbce0e0b8	-0.027450904
20	0xb6f4ccfa	-7.295629e-06
21	0xb37348ae	-5.6643948e-08
22	0xb5f8a89e	-1.8526514e-06
23	0x369c465f	4.6573546e-06
24	0x34bbd15e	3.49838e-07
25	0xbd275d16	-0.040860258
26	0x36f23fc3	7.219585e-06
27	0xb7f9bc87	-2.9770903e-05
28	0x360f8ebf	2.139175e-06
29	0x367ba730	3.749923e-06
30	0x3b94c7f3	0.0045404374
31	0xb2e13edb	-2.622203e-08
32	0x380d2712	3.3653407e-05
33	0x338bfec9	6.519037e-08
34	0x361a2f39	2.2975275e-06
35	0xb136a971	-2.6580802e-09
36	0x38493f94	4.7981346e-05
37	0xbb9f4a0f	-0.0048611234
38	0x340c9b4f	1.3095017e-07
39	0xbb972f7f	-0.0046138163
40	0xbd07d799	-0.033164594
41	0xbaced533	-0.0015780091
42	0x3709888d	8.1976295e-06
43	0xbad05fc8	-0.0015897686
44	0x36e122c4	6.70957e-06
45	0x373f0609	1.1385892e-05
46	0xb6b1af56	-5.295423e-06
47	0x348383d8	2.449658e-07
48	0x36405eb1	2.8665347e-06
49	0xbd1cacdd	-0.038250793
50	0xb40a853e	-1.2900725e-07
51	0x36294cb5	2.5227612e-06
52	0xb78bc5c1	-1.6662178e-05
53	0x37c1c260	2.3097906e-05
54	0x367c7b23	3.7622601e-06
55	0xb4c2fd97	-3.6319827e-07
56	0x36b65ea2	5.4350394e-06
57	0x389ea8d9	7.5654774e-05
58	0x358e5c35	1.060666e-06
59	0xb7d78ba8	-2.569503e-05
60	0xb54d18a3	-7.64043e-07
61	0xbd15a504	-0.036534324
62	0xbd838764	-0.06422308
63	0x345f35f0	2.0788116e-07

running_var f4 [64]
0	0x2e1415f5	3.3670806e-11
1	0x2ab3f2a4	3.1965153e-13
2	0x2ec86a1e	9.113797e-11
3	0x32f74584	2.8786197e-08
4	0x2f500c3b	1.8921835e-10
5	0x2d8ddc9b	1.6127813e-11
6	0x2c6b4c53	3.3437877e-12
7	0x2d85c05f	1.520578e-11
8	0x2c1f7a35	2.2663098e-12
9	0x3a8acbe6	0.0010589331
10	0x2a3529cc	1.609053e-13
11	0x3041d750	7.051897e-10
12	0x3210dcb4	8.432085e-09
13	0x312387ec	2.3796884e-09
14	0x3a828086	0.0009956516
15	0x2b9e1540	1.1232473e-12
16	0x26e10e63	1.5616411e-15
17	0x297e9372	5.6527218e-14
18	0x2f4db75c	1.8709784e-10
19	0x3a190938	0.00058378605
20	0x303a92ee	6.7875205e-10
21	0x2a9410b7	2.630168e-13
22	0x2f29d399	1.5445635e-10
23	0x2dac5cc2	1.9595329e-11
24	0x2e05240a	3.0272708e-11
25	0x3a1aadc3	0.00059005263
26	0x313515f7	2.6351452e-09
27	0x32020774	7.568691e-09
28	0x2d9f2f3c	1.8097183e-11
29	0x2f81f1a9	2.3636673e-10
30	0x3a058c08	0.00050944136
31	0x27aa191a	4.7211694e-15
32	0x30588068	7.876282e-10
33	0x28d60236	2.3759732e-14
34	0x2de4da96	2.601767e-11
35	0x24fb3101	1.08936914e-16
36	0x320ee00b	8.316429e-09
37	0x389d593e	7.502966e-05
38	0x2b6dda6f	8.450245e-13
39	0x38a51d9e	7.87333e-05
40	0x3a360a9d	0.00069443305
41	0x3591eea1	1.0872792e-06
42	0x314e680d	3.0036091e-09
43	0x3679f498	3.7246264e-06
44	0x301b5510	5.650955e-10
45	0x30d70407	1.5644454e-09
46	0x304e06ed	7.4952206e-10
47	0x2975945d	5.4529613e-14
48	0x2c92ef65	4.1761477e-12
49	0x3a4138a9	0.0007370809
50	0x2b8e06e3	1.0091618e-12
51	0x2f9b8920	2.829177e-10
52	0x30543491	7.719985e-10
53	0x2f12d56b	1.3354444e-10
54	0x2d07712f	7.698993e-12
55	0x2c9264d3	4.1607633e-12
56	0x2e00c3ec	2.9277844e-11
57	0x3271e8a1	1.408094e-08
58	0x2b3246a4	6.3336337e-13
59	0x322afbc0	9.952544e-09
60	0x2d03f5ef	7.501096e-12
61	0x399b336a	0.0002960221
62	0x3aacedb6	0.0013193402
63	0x2b2a8cd1	6.0591555e-13

weight f4 [1, 1600]
0	0xb1efba6c	-6.977009e-09
1	0x2ce4de1a	6.504808e-12
2	0x2ecab1f3	9.2175066e-11
3	0x2faa26dd	3.0950434e-10
4	0x31874a77	3.937483e-09
5	0xad6f447c	-1.3600784e-11
6	0x2fabbbd5	3.1238181e-10
7	0x35bf5c05	1.425739e-06
8	0x35b8b8b4	1.3762824e-06
9	0xb00c77c8	-5.110192e-10
10	0x2d3dcb70	1.0788578e-11
11	0x3886942e	6.4172185e-05
12	0xb9b85bc2	-0.0003516358
13	0xb987254c	-0.00025776995
14	0xb051d707	-7.633933e-10
15	0x30fd121d	1.8413321e-09
16	0x3897ca4b	7.237921e-05
17	0xbb2ca9b5	-0.002634627
18	0x3807836e	3.230891e-05
19	0x2ee57711	1.0434865e-10
20	0x3458a957	2.0178173e-07
21	0x33b8747e	8.5893575e-08
22	0x34be7074	3.5472078e-07
23	0x313160fe	2.5812024e-09
24	0x3086ab3f	9.798454e-10
25	0x35012a1e	4.8117533e-07
26	0x338a85c8	6.4504604e-08
27	0x2f4f09e0	1.8830049e-10
28	0xb08aeb3b	-1.0107678e-09
29	0xb08f0e2d	-1.0408648e-09
30	0x32f8d609	2.8968332e-08
31	0x316c14f9	3.4354442e-09
32	0xb91c5eb7	-0.00014912603
33	0x3888c034	6.520786e-05
34	0xb0bb4fad	-1.3628686e-09
35	0xb1e00d40	-6.5207644e-09
36	0x36c74ed0	5.939837e-06
37	0x395572ce	0.00020356031
38	0xb839dcf0	-4.43132e-05
39	0xb0ab1a79	-1.2449412e-09
40	0xb0d8a7b0	-1.5763728e-09
41	0x338fcbe5	6.6960446e-08
42	0xb8e67485	-0.00010988958
43	0xb76ffb2e	-1.4303992e-05
44	0xb0a7c5c9	-1.2207063e-09
45	0xb0d5d51e	-1.5558361e-09
46	0xb0feb029	-1.8531e-09
47	0xb0aa3f7f	-1.2387175e-09
48	0xb09fc160	-1.1623733e-09
49	0xb082564f	-9.483275e-10
50	0xb33f97b3	-4.4608623e-08
51	0xb3fa50a9	-1.1656204e-07
52	0xb410d661	-1.3489036e-07
53	0xb40e67f1	-1.3262594e-07
54	0xb3e412c8	-1.06204936e-07
55	0xb3f7994e	-1.152972e-07
56	0xb433406c	-1.669411e-07
57	0x3624b861	2.4545227e-06
58	0xb673a12f	-3.6303643e-06
59	0xb4147db5	-1.3829306e-07
60	0xb4193443	-1.4268248e-07
61	0xb57e8051	-9.48091e-07
62	0x3702df9d	7.800668e-06
63	0x39ad0584	0.0003300124
64	0xb4050b40	-1.2390683e-07
65	0xb4110b55	-1.35083e-07
66	0x33b1147b	8.24593e-08
67	0xb7760a60	-1.4665158e-05
68	0xb87575f3	-5.85224e-05
69	0xb3fadc47	-1.16816004e-07
70	0xb3da4c84	-1.0165334e-07
71	0xb4126f0d	-1.363771e-07
72	0xb41e8f43	-1.4767015e-07
73	0xb40bedab	-1.3031847e-07
74	0xb3d5277f	-9.92577e-08
75	0xb7740523	-1.4544729e-05
76	0xb784bbfa	-1.582316e-05
77	0xb78320c2	-1.5631671e-05
78	0xb77191fd	-1.439871e-05
79	0xb75b0e4e	-1.3056748e-05
80	0xb795ed9d	-1.7872831e-05
81	0xb75f6518	-1.33153735e-05
82	0xb719dcef	-9.170951e-06
83	0xb762246f	-1.3479133e-05
84	0xb78b18bf	-1.6581615e-05
85	0xb79c5961	-1.863827e-05
86	0xb710f747	-8.640643e-06
87	0xbaa35609	-0.0012461554
88	0xb724dd05	-9.826622e-06
89	0xb7ae786d	-2.0798494e-05
90	0xb79725f5	-1.8018278e-05
91	0xba9e220d	-0.0012064591
92	0x3b990a4c	0.004670417
93	0xb7a74b40	-1.9942992e-05
94	0xb7bc77ab	-2.2467071e-05
95	0xb794dbf4	-1.7745399e-05
96	0xb78be437	-1.6676362e-05
97	0xb7842a45	-1.575531e-05
98	0xb7b82e82	-2.1956166e-05
99	0xb7bd2483	-2.2547558e-05
100	0x31d23bc1	6.1185976e-09
101	0x2ae336cc	4.0361323e-13
102	0x2839adca	1.03072475e-14
103	0xa9a7362a	-7.425686e-14
104	0x29e4e884	1.0165569e-13
105	0xaedb1e81	-9.9643856e-11
106	0x345a1b7a	2.0312828e-07
107	0xb7853b1e	-1.5882364e-05
108	0x35279057	6.242239e-07
109	0x2a1010e3	1.2795628e-13
110	0x2c0f0d5f	2.0328945e-12
111	0xb84b4fea	-4.8473397e-05
112	0xba8e3e7d	-0.0010852363
113	0x38c86699	9.5558535e-05
114	0x2676fea7	8.5693513e-16
115	0x28cdd2f0	2.2851052e-14
116	0x373a8648	1.1117729e-05
117	0xb934d9e0	-0.00017247302
118	0xba0f090e	-0.00054563663
119	0xa882dda4	-1.452902e-14
120	0x302abc7e	6.2113503e-10
121	0x2c08d440	1.9444585e-12
122	0xaeb56c74	-8.250192e-11
123	0x30eb04fc	1.7099917e-09
124	0x3108682a	1.9849815e-09
125	0x353ec55f	7.106773e-07
126	0x342b3289	1.5944e-07
127	0x30aa0bd8	1.2372494e-09
128	0xb080cc71	-9.371331e-10
129	0x3185fb1b	3.899357e-09
130	0xb6268812	-2.481513e-06
131	0xb6471fed	-2.9671894e-06
132	0xb670ddce	-3.5891894e-06
133	0x3466a9f2	2.1482245e-07
134	0x32a453fb	1.9130303e-08
135	0xb6ecbc48	-7.055267e-06
136	0x37916f96	1.7337308e-05
137	0x3a1b556a	0.00059255084
138	0xb6f7f749	-7.3899614e-06
139	0xb43094c0	-1.6445392e-07
140	0xb6906611	-4.3034165e-06
141	0x3b1483ba	0.0022661523
142	0x3ba4e685	0.005032363
143	0xb7a40719	-1.9553629e-05
144	0xb6437e90	-2.9130933e-06
145	0x3761911d	1.3444832e-05
146	0x355eb447	8.296378e-07
147	0xb713ca0c	-8.8089255e-06
148	0xb70e91cf	-8.497808e-06
149	0xb686eb85	-4.0209293e-06
150	0xb3c14844	-9.000408e-08
151	0xb4002ba4	-1.1936805e-07
152	0xb30ea422	-3.321123e-08
153	0x32b33458	2.0862146e-08
154	0x32113103	8.451255e-09
155	0xb42f9bf4	-1.635488e-07
156	0xb468272a	-2.1620932e-07
157	0xb7d540b9	-2.5421718e-05
158	0x378ae797	1.6558724e-05
159	0x327ea390	1.4821936e-08
160	0xb417284d	-1.4077632e-07
161	0xb5d33a85	-1.5737756e-06
162	0x3872798a	5.781049e-05
163	0x38acee1d	8.245951e-05
164	0xb2c37468	-2.2753923e-08
165	0xb3df492d	-1.0397557e-07
166	0xb4d3f62c	-3.9480926e-07
167	0x37fe7141	3.0331898e-05
168	0xb6853d8a	-3.970873e-06
169	0xb314b153	-3.462021e-08
170	0xb400eeb5	-1.200777e-07
171	0xb3bd62dd	-8.8189815e-08
172	0xb435eebd	-1.6943791e-07
173	0xb3e4492f	-1.06303894e-07
174	0xb39a5fb9	-7.188596e-08
175	0x31b87e5b	5.3694698e-09
176	0x2ff908b1	4.5299012e-10
177	0xb1494ede	-2.929418e-09
178	0x2e0c1036	3.1846713e-11
179	0x2e02f38e	2.9774898e-11
180	0xaffd1c51	-4.6040552e-10
181	0xb1378042	-2.670291e-09
182	0xb53d0641	-7.041709e-07
183	0xb3cc5bed	-9.5162115e-08
184	0x2b8c5c0c	9.973146e-13
185	0xb1c9877d	-5.865273e-09
186	0xb3952e14	-6.946735e-08
187	0xb9e2da0a	-0.0004326853
188	0x3b897298	0.004194569
189	0xb31cd088	-3.651124e-08
190	0x30bddaef	1.3813785e-09
191	0xb5b4f973	-1.3483644e-06
192	0x3b9e78ad	0.004836163
193	0x3c1bee29	0.009517231
194	0xb578bc29	-9.266101e-07
195	0x300cb896	5.1194016e-10
196	0xac88f7ae	-3.8928505e-12
197	0xb49d6720	-2.9318562e-07
198	0xb5d18bcb	-1.5612399e-06
199	0x3086da2d	9.811792e-10
200	0xb22dbae3	-1.01124185e-08
201	0xb24d2b3d	-1.1942402e-08
202	0xb254dd55	-1.2390349e-08
203	0xb24ad503	-1.1806381e-08
204	0xb24b172d	-1.1821425e-08
205	0xb2131e33	-8.563393e-09
206	0xb2af2e3b	-2.0393705e-08
207	0xb6487c70	-2.9874755e-06
208	0xb4ac2f39	-3.2071856e-07
209	0xb21d140c	-9.143161e-09
210	0xb204019a	-7.683775e-09
211	0xb7abc0b9	-2.0474532e-05
212	0x390e7332	0.00013585089
213	0x372b56c4	1.0212596e-05
214	0xb21dcaec	-9.184742e-09
215	0xb21e4784	-9.213071e-09
216	0x3540788f	7.170101e-07
217	0x386f32f8	5.702951e-05
218	0xb72f12a7	-1.0435156e-05
219	0xb215fdbf	-8.730637e-09
220	0xb2580f13	-1.2576282e-08
221	0xb2430720	-1.1352114e-08
222	0xb242afcd	-1.1332259e-08
223	0xb22597d5	-9.638787e-09
224	0xb20c5c9d	-8.17013e-09
225	0xbaac83ba	-0.0013161816
226	0xbb2ee8c5	-0.0026689034
227	0xbc270e06	-0.010196215
228	0xbc187e42	-0.009307446
229	0xba742377	-0.0009313146
230	0xbc3cf26c	-0.011532407
231	0xbcbca50a	-0.023027916
232	0xbd3f2c01	-0.046672825
233	0xbd04c05d	-0.032410014
234	0xbc84c0fc	-0.016205303
235	0xbc821c13	-0.015882527
236	0xbdb60d55	-0.08889262
237	0xbe14e605	-0.1454087
238	0xbe179d6c	-0.14806145
239	0xbc8feced	-0.01756903
240	0xbc4e2c68	-0.012583829
241	0xbda6a74d	-0.08137379
242	0xbe435f5c	-0.19079345
243	0xbe16d053	-0.14727907
244	0xbc777254	-0.015102942
245	0xbc3331e7	-0.010937191
246	0xbc5fc75d	-0.013658372
247	0xbcf86ec8	-0.030326262
248	0xbc6edbf8	-0.014578812
249	0xb982e001	-0.00024962428
250	0x2d57280d	1.2230228e-11
251	0x2f98b747	2.7778865e-10
252	0xb1820c5a	-3.784902e-09
253	0xb213eca0	-8.6103285e-09
254	0x3330ff63	4.1210466e-08
255	0x2e046f15	3.0111986e-11
